ggcnn_base/output/models/230121_1510_training_example/epoch_21_iou_0.71_statedict.pt (torch, 256417 bytes, 16 tensors)

conv1.weight f4 [32, 1, 9, 9]
00000000: 2228 b7bc 74d4 8fbc b8bb 11bd 5981 6dbc
00000010: efd9 19bd 81f3 18bc 43ad 1b3d ab06 193d
00000020: 99c3 ce3c b199 d6bc 05b6 9f3a 432a b3bc
00000030: 573f 30bd 1645 e5bc 38a9 773b 6e27 7e3c
00000040: a48f 50bd e20d a9bc 81ed 0f3c 0afc d93c
00000050: f714 3e3d 0387 2a3c d152 073d 619b 793c
00000060: 11c8 21bd 2298 dfbb 0430 5bbd f9aa d13c
00000070: e41d 0ebd 44f9 b2bc c27a e8bb d862 0a3c
00000080: 5c75 223d c719 ff3c db78 35bd a56b 67bb
00000090: 05aa c1bc a63d 48bc 5fbb 323c 6489 0d3c
000000a0: c9b8 813b 6f9a f23c 57b7 16bd 8d53 2dbd
000000b0: 58c7 a73c 94f0 a939 4a5a a83c 54f6 bbbb
000000c0: 1cb6 f2bc 32b0 8c3a 907a a138 8d06 253d
000000d0: 905b f53c 7a15 55b9 0db1 1abd fdd2 253c
000000e0: 4136 253d b024 d6bb 4613 12bd 3436 1d3d
000000f0: a057 2ebc 2f32 573c 5836 283d 4f7b 143d
00000100: 0e03 51bc 4cd0 bcba 6165 19bd 8ba0 0f3d
00000110: 2a7e f5bb 000b a6bb 9894 d2b9 04f3 bc3b
00000120: a71f 80bc 839e 9a3c d143 073d 3901 123d
00000130: bb1a bc3b 90d1 58bd e987 91bc ade4 96bc
00000140: 438e 263d bfdc 8ebe 0e06 79be c88d 89be
00000150: 0191 83be 2e93 93be 4886 59be 4fb0 aabd
00000160: dd58 38bd cbbd 44bd 1137 8cbe ef01 79be
00000170: 69d2 44be 70fd 29be 80e6 4bbe 46c8 67be
00000180: ab89 93bc b254 a23c 3911 843d c962 38be
00000190: 2405 18be d79f 5cbe f943 f6bd 8d30 26be
000001a0: 11bf 00be 367f 20bc 0eee f93c ddfc a33d
000001b0: 12e8 d9bd b539 90bd ecb3 b1bd 1862 87bd
000001c0: 14ff 9cbd 187a c3bc 58ad a43d c8ff 123e
000001d0: e29d 803e b911 2ebd f23b 35bd 511d 93bd
000001e0: fc4a 03bc 70c3 1e3d 08ec bc3c 6670 1f3e
000001f0: ad96 883e d3a2 b13e 0a20 44bd 97ac b53c
00000200: a448 19bd 9f59 9a3d 64bd 9c3c 9964 4f3d
00000210: 9e6f 603e b424 aa3e d4d5 d83e ed44 34bd
00000220: 6b3e 51bc 7032 dfbc 9f31 a2bc 9db5 95bc
00000230: 6c98 113d f5c2 733e c0d6 9e3e 2c97 be3e
00000240: 7dda 57bc 84d4 80b9 70bc a5bc d801 74bb
00000250: 065b eabc 2ba2 db3c 03ee 6d3e fce9 a73e
00000260: 971c d63e 56ab 57bd 28af d5bc a0ea 173d
00000270: 0c8c 7d3b 86a8 953d fbad 8b3d cbe5 8d3e
00000280: e9b1 ac3e 19e6 ba3e f4ce 3abe 977d 63be
00000290: 63d8 89be e404 0dbe 410c 72be af32 3dbe
000002a0: 5027 4abe 1419 5ebe 4fd9 4ebe c629 01be
000002b0: eddd 2abe ef5e 2ebe de6b bbbd 3e58 9abd
000002c0: 6b23 f7bd 0036 0dbe 4568 fcbd 8ea8 dcbd
000002d0: c2ac 99bd 4268 36bd 4407 0abe b810 90bd
000002e0: 5a03 1fbd 0a03 f6bc 2b92 a4bd fbe2 fcbc
000002f0: 0e67 5dbc 1943 d9bc 6d9d b0bd 2fc1 e3bd
00000300: 304a 0a3d ccde 0f3a 900b f4bc ec48 febc
00000310: f1f1 b6bc 5025 d4b9 2623 7b3d 1a70 d2bc
00000320: 5d0f 33bd a6a0 b2bc 93a5 523c 63f9 183d
00000330: 6152 1ebc 4eac f9bb cd76 baba 3ddc 3f3d
00000340: 5d85 1cbc 6774 83bd 51f7 a83d 0385 513d
00000350: 8876 813d 1577 e1bc 36e9 2b3a 9161 043d
00000360: 3b31 053e 76ff 063d a472 023c 938e 123e
00000370: ff40 dc3d 4181 773d 0f07 853d 35c5 063e
00000380: 6c8e 843d 1743 253e a1c0 2c3e 2901 083e
00000390: 7aff 443e b870 f73d f268 e33d a9e8 eb3d
000003a0: f6aa 1f3e e241 383e f356 8f3e cafc 6e3e
000003b0: e563 3c3e 7e4e 5c3e 0a1e 773e 4a18 5a3e
000003c0: 4bbc 5f3e 7df3 393e b892 753e 7ef2 03be
000003d0: 95ac 1dbe ba6e f5bd 02c8 84be 8324 90be
000003e0: db3b 85be af0e 8ebe bd42 9ebe 297c 80be
000003f0: 169b ebbd 5362 babd 347d 97bd ed2a 21be
-0.022358004 -0.01755736 -0.035579413 -0.014496171 -0.037561353 -0.0093354 0.038007032 0.037359875
0.025239753 -0.026196333 0.0012184983 -0.021870738 -0.043029156 -0.027987044 0.0037790071 0.01551233
-0.050918236 -0.020636503 0.008784653 0.02660944 0.046406712 0.010408166 0.033037964 0.015234799
-0.03949744 -0.0068235556 -0.05351259 0.025594221 -0.034696475 -0.021847375 -0.007094712 0.008446418
0.039662704 0.031140221 -0.04430471 -0.0035311964 -0.023640642 -0.012221729 0.010908931 0.0086387135
0.0039587957 0.029614655 -0.03679594 -0.04231601 0.020480797 0.00032413437 0.020550866 -0.0057361517
-0.029627852 0.0010733663 7.699907e-05 0.04028945 0.029950887 -0.00020321264 -0.037766505 0.010121104
0.040334944 -0.006535135 -0.03566291 0.03838177 -0.010641009 0.013134523 0.04106745 0.03625041
-0.012757076 -0.0014405339 -0.037450198 0.035065215 -0.0074918466 -0.0050672293 -0.00040165032 0.0057662744
-0.015640093 0.018874412 0.03302366 0.035645697 0.005740491 -0.05293423 -0.017765002 -0.018419588
0.040663015 -0.2790279 -0.24318716 -0.26865983 -0.25696567 -0.28823227 -0.2124263 -0.083344094
-0.04500662 -0.048032563 -0.27385762 -0.24317144 -0.1922089 -0.16600585 -0.19912148 -0.22634992
-0.018009981 0.019815776 0.064485975 -0.18006434 -0.14845711 -0.21545349 -0.120246835 -0.16229458
-0.12572886 -0.009795954 0.030509021 0.08007214 -0.10639967 -0.07042257 -0.086768955 -0.06610507
-0.0766584 -0.02386193 0.08040875 0.14355385 0.25120455 -0.04249737 -0.04424662 -0.07183326
-0.008013483 0.038760602 0.023061767 0.1557022 0.26677456 0.34694538 -0.047882117 0.022177024
-0.03742279 0.07536625 0.019133277 0.050633047 0.21917579 0.33231127 0.42350638 -0.044011045
-0.012771229 -0.02724573 -0.019799052 -0.018275077 0.03554575 0.23804839 0.31023216 0.3722471
-0.01317465 -0.000245724 -0.020231456 -0.0037232544 -0.028607856 0.026810726 0.23235326 0.32795703
0.41818687 -0.052653633 -0.026084498 0.03708899 0.003868821 0.07307534 0.068202935 0.2771438
0.33729485 0.36503676 -0.18243009 -0.22215877 -0.26922902 -0.13771397 -0.23637487 -0.18476366
-0.19741559 -0.21689254 -0.20200084 -0.12613592 -0.1668622 -0.17028402 -0.091514334 -0.07536362
-0.12067302 -0.1379013 -0.12324575 -0.10774337 -0.07503654 -0.04453302 -0.13479334 -0.07034439
-0.038821556 -0.030030746 -0.08035692 -0.030869951 -0.01351334 -0.026521252 -0.086237766 -0.11120831
0.033762157 0.00054882164 -0.02979067 -0.031040631 -0.022332164 -0.0004046359 0.061312817 -0.02568822
-0.043715823 -0.021805119 0.012856859 0.03734721 -0.009663195 -0.0076194173 -0.0014226079 0.046840895
-0.009553281 -0.06418686 0.08250297 0.05115224 0.06321436 -0.027522603 0.00065578835 0.03231961
0.13007061 0.03295847 0.007961903 0.143122 0.107545845 0.060426 0.06495487 0.13161166
0.06472477 0.16138874 0.16870357 0.13281693 0.19238082 0.12082046 0.11104001 0.11518986
0.1559256 0.17993882 0.27996024 0.23338619 0.18397482 0.21514317 0.24132553 0.21298328
0.21849172 0.1815929 0.2398175 -0.12885472 -0.15397866 -0.1198401 -0.25933844 -0.28152856
-0.2602223 -0.27745578 -0.30910292 -0.25094727 -0.1150419 -0.09100785 -0.073969275 -0.15739031

conv1.bias f4 [32]
00000000: fc41 ccbd 80b9 d9bc 7f30 a63d 99c0 173c
00000010: e069 b5be 830c d3be 1041 333d 6ffd 133c
00000020: 272b 093e fa31 99bd 4f38 223e faaa 1fbd
00000030: deda 67bd 8140 90be 1a39 cebd 4b30 c13d
00000040: 55b0 39be f8e1 4bbe 3b94 76bd 3932 9abd
00000050: 502b 99bd a700 c9bd 081c 95be 7cfd 9c3d
00000060: 8546 373e 0221 823d c362 9ebb 0ed0 42bc
00000070: 1f70 1ebb 7531 a7bd e555 853d 8e8e 8e3c
-0.09973523 -0.026577711 0.08114719 0.009262227 -0.3543234 -0.41220483 0.04376322 0.009032591
0.13395368 -0.074802354 0.15841793 -0.038981415 -0.056605212 -0.28174213 -0.10069485 0.09433039
-0.18133672 -0.19910419 -0.060199957 -0.075291105 -0.07478964 -0.098145775 -0.2912295 0.07665536
0.17897995 0.06353952 -0.0048335507 -0.011890424 -0.0024175716 -0.0816373 0.06510524 0.01740196

conv2.weight f4 [16, 32, 5, 5]
00000000: 2801 3bbd 938a 253d 3c79 453b a64c 273c
00000010: b7d3 c73b ba87 ddbb 3b84 813d 6d65 2e3d
00000020: 7504 80bc 02ec 81bd 3811 32bc 4721 8c3c
00000030: 2e8e 1dbd 1797 4dbc e46e 463d fe03 0a3d
00000040: 07a5 e3bc a730 57bb 19ea d73c a8db 36bd
00000050: 2bb7 dabc 4f61 1e3d 7a47 7b3d 7bcd 49bd
00000060: 4d9f c33c af8a e03d d548 8f3d 29cd b8bc
00000070: 23fe 433f 2dfa 333d 5331 3bbe b2ff dabd
00000080: 0bdc 39be 0c18 fd3e bb2a 15bd 2931 1cbe
00000090: 805a a5bd 8b1b f3bd f816 d13e b416 abbd
000000a0: 6beb 41be 663a a2bd 7013 7cbd f113 d73e
000000b0: b149 a5bd 971e 58be 1966 4dbd e6e4 33be
000000c0: 2c47 b43e 681a 99be c3a9 d63d cc20 903d
000000d0: 1e46 d33d 7d05 123d 9e1a dfbd 55c7 183e
000000e0: b3da 053d fcf5 613d 94b8 40bb b0e1 0dbe
000000f0: 8793 933c 6bc4 903c a664 9ebd b8cf bbbd
00000100: 20b4 78be 3617 933e a0d6 3a3e a0df 253e
00000110: 1d78 1c3e aa2a af3d f939 053e 36d4 83bd
00000120: eb03 52be f384 64be bf1e 9fbe f2c5 623d
00000130: dc13 5e3e e47f 843e ef65 a73e c718 a33e
00000140: 46bc 02bc eb79 003e c14c 363e 31f1 e43d
00000150: b18f bc3d 21a9 753b 54b7 a13d 015c 933d
00000160: 1147 9a3d c5d1 063d 9805 1a3e dc56 4c3e
00000170: 5cfe 573e 121c a03e 6c87 593e bef6 32bd
00000180: 1451 8dbd b330 73bd 7861 95bd 0879 9a3d
00000190: 92a4 7d3e a8da f83d 3489 473e ceac 4f3e
000001a0: b41a 283e 42e5 aa3d b894 283c 380e 95bd
000001b0: 6304 e43a 781b 073d 21f3 17bc 497e 0bbd
000001c0: f200 37be 95cd d7bd 55e3 1fbe b877 363d
000001d0: 172d 90bd 2c74 13be 5125 13be 01bb d0bd
000001e0: 15b3 26bd 7191 98bd c2d4 49be ceef 91be
000001f0: 7133 5ebe 08f8 473e e9e1 813e 00a0 453e
00000200: f552 1b3d 4890 1b3d 1633 0b3e 0477 1f3e
00000210: 14c2 7e3e 7dd0 fe3c 508f 8ebc 66b3 273e
00000220: 8018 533e ad0c b13d b360 dabd ddc3 bebd
00000230: 27fd 2f3d 3fb7 6a3d e04c 9dbd be51 27be
00000240: 85fb 1cbd e1c9 543d 7455 bbbd 4b0c 12be
00000250: c48e 3dbe 525b 40be d900 6d3e 6374 943d
00000260: 77d5 37bc 807b ce3d d2cd 9cbe 750f 063e
00000270: 59c0 8e3d bb52 803d bd7d 983d 8b0c b4be
00000280: 5f45 023e a7b4 8e3c 0101 e2bc 8083 a03d
00000290: 5ec2 a1be e48e 053e ddc1 073e 2d95 e43d
000002a0: 70b7 ba3d f10d 87be a240 14bd 9379 84bc
000002b0: abe2 37bd 8860 ceb9 07cc abbe a949 373e
000002c0: 82dd 813d 315e ee3d 4ff9 91bd c4ba b1bd
000002d0: c987 96bc 4baf 963c 3821 2abd 4196 03bd
000002e0: 397c c1bd 597d 07b9 518c 863c 7c7b b4bc
000002f0: 87a1 11bd 6abd 1abe edca 68b9 7aef 103d
00000300: 938f f63c f6ac ffbc 38e9 69be 3577 ddbc
00000310: ac56 7a3d d086 163e 765e e6bd 75db 1dbe
00000320: 0207 943d 5dfb 96bc 8560 81bd 85b1 0ebe
00000330: 9ad7 3bbe fba5 203e afbb f33d 54c6 0f3d
00000340: 5c23 38bd 49ff 01be 4c9d ab3d e1bb 203e
00000350: 734d 223d e12d 50bc 970b d3bd d357 323e
00000360: f6e8 213e 6226 6a3d 5544 8e3d 10b3 f8bc
00000370: e0f3 c13d c02b 133d 0f44 613b 9091 2dbe
00000380: 921d 61be 255e 73bf 7a2b 97be 645f d1be
00000390: e145 a1be eb66 cdbe ab28 07bf 79dc a6be
000003a0: bdcc 5dbe 0ac2 95be 3a76 a1be 9fd3 8abe
000003b0: 60e5 b6be cd5c d0bd 9804 debc 44c4 85be
000003c0: 75f4 46bd f58a 74be ee42 21be 11d4 873d
000003d0: ed74 b4bc c670 563e 1813 30be ec80 5fbe
000003e0: 0f21 703d cb59 0ebe 2427 f43d 7a1a 92bb
000003f0: 8091 0abe 11de 7abe e685 ddbd db7f 843d
-0.0456554 0.040415358 0.0030132076 0.0102111455 0.0060982364 -0.0067605646 0.06324049 0.042577196
-0.015627125 -0.06343843 -0.010868363 0.017105712 -0.03846567 -0.01254823 0.048445597 0.033695213
-0.027788652 -0.0032835396 0.026356744 -0.044643074 -0.02669867 0.03866702 0.061347462 -0.049268227
0.023879671 0.10963952 0.069963135 -0.022558765 0.76559657 0.043939758 -0.18280534 -0.10693301
-0.18150346 0.4943241 -0.036417704 -0.15253128 -0.08073902 -0.11870488 0.40837836 -0.0835394
-0.18937461 -0.07921295 -0.061541975 0.42007402 -0.08070696 -0.21105419 -0.050146196 -0.17567787
0.3521055 -0.2990296 0.10481598 0.070375055 0.10316108 0.035649765 -0.10893749 0.14919789
0.03267927 0.05516623 -0.0029406892 -0.13855624 0.018014682 0.017671784 -0.07734041 -0.091704786
-0.24287462 0.28728646 0.18245935 0.16198587 0.15280195 0.085530594 0.13010396 -0.064369604
-0.20509307 -0.22316341 -0.31078145 0.055364557 0.21687263 0.25878823 0.32694957 0.3185484
-0.007979458 0.12546508 0.17802717 0.11178816 0.092070945 0.0037484842 0.07896295 0.07195283
0.07533086 0.032914896 0.15041196 0.19955009 0.21093124 0.31271416 0.21243066 -0.043692343
-0.0690023 -0.059372615 -0.07293981 0.07542616 0.2476981 0.1215108 0.19485933 0.20280764
0.16416436 0.08344509 0.010289364 -0.07278103 0.0017396327 0.03298518 -0.009274275 -0.03405598
-0.17871454 -0.105372585 -0.15614064 0.044547766 -0.0703985 -0.14399785 -0.14369704 -0.10191918
-0.04069813 -0.07449616 -0.19710067 -0.2850327 -0.21699311 0.1952821 0.25367668 0.19299316
0.03792091 0.037979394 0.13593706 0.15572745 0.24878722 0.031105274 -0.017402321 0.16377029
0.20614815 0.08644996 -0.10662975 -0.09314702 0.042966034 0.057303663 -0.07680678 -0.16339776
-0.038325805 0.05195034 -0.09147158 -0.14262502 -0.18511492 -0.18784836 0.23144855 0.072487615
-0.011220328 0.100821495 -0.30625778 0.13091834 0.06970281 0.062657796 0.07445858 -0.3516582
0.12721775 0.017420126 -0.02758837 0.07837582 -0.31593603 0.1304279 0.13257547 0.111612655
0.09117019 -0.26377824 -0.03619445 -0.016171252 -0.0448939 -0.00039363303 -0.33554098 0.17899193
0.063410774 0.11639059 -0.0712763 -0.08678201 -0.018375294 0.018394133 -0.041535586 -0.032125715
-0.09447522 -0.00012921299 0.01642433 -0.022031538 -0.035554435 -0.15111318 -0.0002220084 0.035384633
0.030097758 -0.031210404 -0.22842872 -0.027034381 0.061117813 0.14699864 -0.11248486 -0.15415747
0.07227899 -0.018430406 -0.06317238 -0.13934906 -0.18343964 0.15688317 0.11901032 0.03510125
-0.044955596 -0.1269504 0.083796114 0.1569667 0.039624643 -0.012706251 -0.10304945 0.17416315
0.15811524 0.05716551 0.06946627 -0.030358821 0.094703436 0.035930395 0.0034372841 -0.16950059
-0.21983936 -0.9506553 -0.29525357 -0.4089309 -0.31498626 -0.40117583 -0.5279643 -0.32590082
-0.21660133 -0.29249603 -0.31535512 -0.2711458 -0.35721874 -0.1017395 -0.0271018 -0.261263
-0.048572976 -0.23881133 -0.15748188 0.06632245 -0.02202841 0.20941457 -0.17194784 -0.21826524
0.058625277 -0.13901441 0.11921528 -0.0044587227 -0.13532066 -0.24498774 -0.10816555 0.06469699

conv2.bias f4 [16]
00000000: f607 be3d 2f28 b2bd 4e2a 46bd 5150 14bd
00000010: e978 893d 769a 20bd 5208 6fbd b8ba 28bc
00000020: 8880 36bc cdc8 ce3c 076a 5e3e da12 2c3e
00000030: 15ba 03bd c478 993d 2d62 72bd cee8 0fbd
0.09278862 -0.08699071 -0.04838019 -0.03620941 0.06712515 -0.039209805 -0.058357544 -0.0102984235
-0.011139043 0.025242234 0.21720134 0.16804066 -0.032159884 0.07493737 -0.05917566 -0.03513413

conv3.weight f4 [8, 16, 3, 3]
00000000: 1139 003d 4332 05be c5d7 debe 84c9 b2bd
00000010: d99f 223d 8663 aabd d64d 953e 00bc 093e
00000020: 50ea 023e 6471 b13d 5fc1 6f3b 48da ed3b
00000030: 2058 11bd 8054 973d 61b2 0cbe e562 a23c
00000040: fe80 f8bd e5d4 05be b3a3 c7bd 3802 1fbe
00000050: abd3 163e de0e df3d 03ea bbbd 50c3 e0bd
00000060: f655 a83d d6a6 8e3b 71be e1bd 8a4d 823d
00000070: af1f ffbd 4556 f3bd 78b3 783d 45f9 c6bc
00000080: 7a6b ffbd 3d82 b03d a574 bdbc 4dad a6bb
00000090: 7e69 ae3d c551 843d 4585 c43e e4b0 a2bd
000000a0: f6f9 6c3d 3b3c 91bd 9933 adbe 61d5 33be
000000b0: d1fd eb3c 3cf3 1cbb 3228 6c3d 85aa eebd
000000c0: 7c66 1b3e 05b9 2d3d 13cc 603c 2bf7 093d
000000d0: b833 fcbc 78f3 c8bd cedd 053e 4b5f e9bb
000000e0: d9aa 36be 5234 5a3d 10bc 9fbd 17da ee3d
000000f0: 56f6 52bd 9973 b53d 0ffd 0dbe 5c05 3dbd
00000100: 152f 0fbe 8eeb be3c 85f0 833d 84fc 6c3d
00000110: 9bd3 973d f911 cfbc ee2c e43a edd4 15be
00000120: 9c12 8c3c 0bfa aa3d 7f84 7fbd 2579 003c
00000130: 4cf0 ffbb 737c c13d 6722 f83d 3b1a 14bd
00000140: fdd3 3d3c 891e 013e c415 0c3e 036b 213e
00000150: 2f07 e4bd 2616 e7bd 7840 ebbd 83fb e23d
00000160: 7870 d13d 032a 25bd bf11 62bd 9643 0e3e
00000170: aacd ba3e 103b 23bb 3aef e43d c1a5 423e
00000180: 13a2 a0be 6805 8fbe e647 70be 2357 67bd
00000190: 00b3 453e 54ae 063e b059 1dbd 9a43 ffbd
000001a0: 5301 5d3d baef f73b a871 1fbe ce75 3bbd
000001b0: 6c41 9c3d bfff bf3d b212 5e3e 5789 44bd
000001c0: 64ac 61be c035 1fbe 965b f0bc 5e21 cfbc
000001d0: 60cb bd3d cb45 1e3d 08f9 10be 1b46 45bd
000001e0: 30b1 bd3c 26d2 a33d adc4 a33d 8193 393d
000001f0: 3d2c aebc 8823 68bd 2f12 28be 24c2 b83c
00000200: 9d7f 093e 4c3b b33d e60c f5bd 2aab 713d
00000210: e543 03bd aeae 15be 6dff 15be 0a0e 23be
00000220: f519 c13d cb5f e4bd f1a6 413d 3594 f03d
00000230: d5e0 c23d 387c 153e 0279 d33d 0868 03be
00000240: 648c e8bc e33f bd3b ccb4 6abe f8e0 253e
00000250: c9ce a73d d948 b2bd aa30 ae3d 9212 a2bc
00000260: 5ba5 54bd 2deb d5bd a470 47bd 15a1 d1bd
00000270: 9613 c7bd e294 90bd 19fd 56bd 9575 473d
00000280: 7fb1 0dbe 45ae e1bd 9b56 7e3d 2328 11be
00000290: 6bbd 173c 9225 1dbe f0c3 33bd 6b6d aa3d
000002a0: ab69 723d b68b 8b3c 022a 96bd 7a7a e33d
000002b0: 9915 0abe 245d 32bc 5436 9c3d bbda c5bd
000002c0: db68 42be d8b0 6a3d 5da4 b6bd e30c 6f3d
000002d0: 5636 a33e 88c2 723e cc94 1b3d 7abd 2abd
000002e0: e66b 8cbc 3517 7abd 533b 6cbe f885 bcbd
000002f0: db84 80be 8c60 21be cdfd 92bc 7805 8f3d
00000300: d218 05bd 6ad3 233e 669f 03be 32b4 633d
00000310: e389 89bd 01be 053e f3d5 06be e9ee 13be
00000320: eb9a 3cbe 88c5 1ebe 094c 673e ac8e 303d
00000330: a967 c1bd f58c 6f3e e952 413e aa7b 293e
00000340: 961b e5bd db08 0e3e 65a1 a73c 7f1e c43d
00000350: 841d ed3c 4738 2ebe d3da 7f3d 2f6b 2f3d
00000360: 26e3 bb3d 0dbe f0bd dd6d 0f3d 9c80 753d
00000370: 528a 333d 5f21 4a3d dcc4 133e f015 3d3d
00000380: a432 15be 8df9 113e 102a 22bd 1c06 15be
00000390: 3f83 f53d e259 003e 1460 bebc 8cea 4b3d
000003a0: d64a e9bc dfdf 4f3d 1251 603e 3301 6c3e
000003b0: b520 f53d 28d4 89bd a9dc 023d 38af 21bd
000003c0: 9796 68be 0a97 4ebe fef8 adbd 1936 2f3e
000003d0: a7ff 3dbc 0d04 303d 1e2e 543e 1085 debd
000003e0: 5611 10be 86e6 273e a07b bb3c 1eff b0be
000003f0: 5919 423e d527 d23d 430d e43c 924b d7bc
0.031304423 -0.13007455 -0.43523994 -0.08729842 0.039703224 -0.08319764 0.29160947 0.13450623
0.12784696 0.08664206 0.0036583764 0.007258687 -0.035484433 0.07389164 -0.13739921 0.019822547
-0.12133978 -0.13069494 -0.0974802 -0.1552819 0.14729182 0.108915076 -0.091754936 -0.10974753
0.08219521 0.0043533845 -0.11022652 0.06362446 -0.12457215 -0.11881689 0.06071803 -0.024288783
-0.124716714 0.08618591 -0.02312691 -0.005086577 0.08516215 0.06460909 0.38382927 -0.079438955
0.05785557 -0.07091566 -0.33828428 -0.17561866 0.028807553 -0.002394869 0.05765552 -0.11653618
0.15175813 0.042412776 0.01372053 0.033682983 -0.03078638 -0.09812063 0.13072893 -0.0071219555
-0.1783861 0.053272553 -0.07799542 0.11662691 -0.051504456 0.08859939 -0.13866065 -0.04614769
-0.13982804 0.02330568 0.0644236 0.057858005 0.074134074 -0.025277125 0.001740841 -0.14632006
0.017098717 0.08348473 -0.062382217 0.007841383 -0.007810628 0.09447565 0.12115937 -0.036157828
0.0115861865 0.12609304 0.13680178 0.15763478 -0.11134183 -0.11283521 -0.11486906 0.11083128
0.1022653 -0.04032327 -0.055192705 0.1389297 0.36485034 -0.002490703 0.11178441 0.19008543
-0.31373653 -0.27933812 -0.23464927 -0.056479584 0.19306564 0.13152438 -0.03841561 -0.12464066
0.05395634 0.0075664194 -0.155707 -0.045766644 0.07629666 0.093749516 0.21686819 -0.04798254
-0.22038418 -0.15547848 -0.029340547 -0.025284465 0.09267306 0.03864078 -0.14157498 -0.04816256
0.023155779 0.07999067 0.07996497 0.045306686 -0.021261329 -0.05667451 -0.16413186 0.022553511
0.13427587 0.08751544 -0.11965351 0.059001125 -0.03204717 -0.14617416 -0.14648218 -0.15923324
0.09428779 -0.111510836 0.04727835 0.11747018 0.095155396 0.14598167 0.10325815 -0.12832654
-0.028387256 0.005775438 -0.22920531 0.161991 0.08193738 -0.08705301 0.08505376 -0.019784246
-0.051915508 -0.10445247 -0.048691407 -0.10235802 -0.097205326 -0.07059647 -0.052487466 0.04869612
-0.1383724 -0.110195674 0.062094312 -0.14175467 0.009261469 -0.15346363 -0.043888032 0.08321651
0.059182804 0.017034393 -0.07332231 0.11107345 -0.13484801 -0.010886464 0.0762755 -0.0966086
-0.18985312 0.057297558 -0.089180686 0.0583619 0.31877393 0.2370702 0.0379837 -0.041684605
-0.017141294 -0.06105729 -0.23069505 -0.0920524 -0.2510136 -0.15759486 -0.017943287 0.06983465
-0.032494374 0.15998617 -0.12853774 0.05559177 -0.06715753 0.13060762 -0.13167553 -0.14446606
-0.18418472 -0.1550504 0.22587599 0.043104813 -0.094436 0.23393615 0.18879284 0.1655108
-0.11186902 0.13870566 0.020462701 0.09576129 0.028944738 -0.17013656 0.062464546 0.042826828
0.091741845 -0.11754999 0.035016883 0.059937105 0.043833084 0.04934823 0.14430565 0.0461635
-0.14570099 0.14255352 -0.039590895 -0.14553112 0.11987924 0.12534288 -0.023239173 0.04978423
-0.028478067 0.05075061 0.21905926 0.23047332 0.11969129 -0.06729919 0.03194872 -0.039473742
-0.22713695 -0.20174804 -0.08494757 0.1711048 -0.011596597 0.042972613 0.20720717 -0.108652234
-0.14069113 0.16396531 0.022886097 -0.3456964 0.18954982 0.102615036 0.027838355 -0.026281152

conv3.bias f4 [8]
00000000: 3467 4a3d 6592 c53c 045e 793d 677a df3d
00000010: 4e18 823c 7939 26be 0949 003e 5e50 13bc
0.04941483 0.024117658 0.060880676 0.10912018 0.01588073 -0.16232862 0.1252786 -0.008991329

convt1.weight f4 [8, 8, 3, 3]
00000000: a4a5 0d3d 4cb8 903e efef 85be cc4f 32be
00000010: 970a f7bc f573 663e 89fc ab3d d713 243d
00000020: 9f7b f5bc 6fd6 b93e cfb0 e33e de82 0b3e
00000030: e65c cdbd 2329 f2bd 0146 41be f600 55be
00000040: 2630 98be 5886 893e f4e2 92be 309e 6ebe
00000050: d7d1 a4bd ecb3 c73e dcf7 fdbc 163e 97be
00000060: ede1 8abd d4c3 b83d 8db3 bc3e 6aa6 013e
00000070: 33bd 023e 3fc0 a83c daa1 1d3e dd94 ac3e
00000080: 14dc e83e b518 10be 888b 753c f6b2 58bc
00000090: 0f63 1a3d 68de c53d 37e2 5e3d fbb5 53be
000000a0: 2993 5cbf df74 ddbd 24b9 573d 0838 45be
000000b0: 3f1f 5dbd 4c5a 033e 93ea 093e eeb2 223e
000000c0: ec7c 1f3d fb2e ab3d dfc8 13be 81bf 703e
000000d0: e567 223e d017 8bbd 5cce 05bf 7ad7 0fbf
000000e0: bba9 6abe f3aa f7bd d149 c6ba ff46 56be
000000f0: 6e75 c1be 0a35 10be b8a8 7e3e c5f9 09be
00000100: 449e 0e3e 0d76 8abe 616f a33e 76b4 0a3d
00000110: d21e bf3e bdfa 91be e98f ce3e 9cf0 3abe
00000120: 4779 b13e 4887 83bd 5047 483e c28f babb
00000130: fb7b efbe 3e0b 29bd 9226 bf3c a026 c73d
00000140: 9e43 1cbe c003 c5be 1a2c 50be 4b35 bbbe
00000150: 6d47 0fbf 9cee 8dbe fa74 28bf d7a1 3bbf
00000160: 4011 a4bd 8660 3abf 7e6c 463e e36f 933e
00000170: cd4d 293d b763 ff3d 6e9b 60bc c757 93be
00000180: 3084 50bd 72c2 823c 8a7e 91be b46a 88bd
00000190: 7bc7 8f3d 8fe3 84be d2d0 8bbe ed3a b2be
000001a0: 6e99 ddbe c20c fd3b a345 953c 4ba2 b1bf
000001b0: 9a6b 533e 9c78 1d3f 049f 4b3e 29ef 063f
000001c0: 3760 783d 9a19 893d 213a 12bc d55d 063e
000001d0: 4bfa db3b ac88 74bd 3ad9 8dbd bee8 b93e
000001e0: 699e 4ebe c952 0fbd 5660 963e c83c 263e
000001f0: ca75 2d3c 372d 9b3e b5ec bfbf a017 42bc
00000200: b881 e7be 3909 f53d 179c 3cbf ba1d 26bc
00000210: f56b e7be 8c9c 0a3e eff1 a33d db00 93be
00000220: a94a 2dbe 9c1c 89be a622 21bd dafd a7bd
00000230: 344a 693e 960a 98be eeb8 db3e 8b11 63be
00000240: 215f 833e 6e0e d63d 727c 7d3e 6b1f 293e
00000250: 090a f43e e846 e83e ab09 f63e d257 763e
00000260: 5b65 8d3e dc8d 703e 6815 10be 1c98 503e
00000270: 293a 29be 28be 6e3d 90dd 0fbe ebc6 4bbe
00000280: a462 09be 70a0 483d 3ee7 783e 86b8 ae3e
00000290: 53f8 b23e 265f 143e de0a 493e c644 7d3d
000002a0: 2d48 27bf 9e7e bbbe c7cf 88bd b81f 07be
000002b0: 4259 cebd e3ef 1dbe c2c0 88be 20ba f8bd
000002c0: c9ee 46be 9364 11bd 158b 2bbe 4d7c fabd
000002d0: 775a 80bd 1a2d c1be 988d f1be 869e 27be
000002e0: ab70 c53d 13df d7bd cd3a d8be e964 853e
000002f0: 579d b4be 12e0 983d dbbb 203e 558a f33d
00000300: 522c 743d 89e7 33bd 93c9 dd3d 25c2 22bc
00000310: f1a9 b4bd cee4 f03c 5dc7 adbe f94e 3dbe
00000320: 554f 93be efbb e33c 7d90 48be 0472 6bbe
00000330: d647 093e 93dc 053e 4f34 923e 1879 c63d
00000340: dfcd 053c 95e8 033e 2bc4 91bd 39b3 b73d
00000350: f09e c33c bb49 babd 560d 89bd 9b3f c6bd
00000360: 0085 473e 47e3 c73d 8346 2dbd 3529 b7bd
00000370: f079 22be 0f01 e93b 3052 bfbd 1c87 483c
00000380: 173d 123c 61ea fc3d 72c5 053f 40ca da3d
00000390: c7fa 9cbd ea6c 843e 94d8 76bd ea5e ccbb
000003a0: 992d e8be d600 82bd d89b 2c3e c8cc 19bf
000003b0: 462e 70be 2117 bbbc 94ff d63d 6b55 873e
000003c0: 7d38 803d 7334 873e 5f59 8c3e efd8 53bc
000003d0: 710a f33c 2bc3 953d acf6 383e 00e5 0a3e
000003e0: 39a3 9b3b 457d 583c 3209 74b8 419f 973e
000003f0: ab65 39bd 03d8 07bd ed25 0fbe 46e9 d43d
0.034581795 0.28265607 -0.26159617 -0.17413253 -0.030156417 0.22505172 0.08397777 0.040057983
-0.029966174 0.36296412 0.44470832 0.1362414 -0.100274846 -0.118242525 -0.1887436 -0.20801148
-0.29724234 0.2686031 -0.28688776 -0.23302531 -0.08047836 0.39004457 -0.031001978 -0.29539555
-0.06781373 0.09021726 0.36855736 0.12661138 0.12767486 0.020599483 0.15393773 0.33707324
0.45480406 -0.14071925 0.01498688 -0.013226261 0.037692126 0.09661561 0.054414954 -0.20674889
-0.8616205 -0.10813307 0.0526668 -0.19259655 -0.053984877 0.12827414 0.13468389 0.15888569
0.038937494 0.0835857 -0.14432095 0.23510553 0.15859945 -0.06791651 -0.52268004 -0.56188166
-0.2291631 -0.12093153 -0.00151282 -0.2092552 -0.37784904 -0.14082733 0.24869049 -0.13474186
0.13927561 -0.2704319 0.31920913 0.033863507 0.37328202 -0.2851161 0.4034417 -0.18255848
0.3466284 -0.06422287 0.19558454 -0.005693407 -0.46774277 -0.041270487 0.023333821 0.09724164
-0.15260169 -0.38479424 -0.20329323 -0.36564097 -0.5596836 -0.27721107 -0.6580349 -0.73293823
-0.08011103 -0.72803533 0.19377324 0.287963 0.041333962 0.12470191 -0.013708932 -0.28777906
-0.050907314 0.01596186 -0.28416854 -0.06660977 0.0702047 -0.25954863 -0.27307755 -0.34810582
-0.4328112 0.007722468 0.018221682 -1.3877653 0.20646515 0.6151216 0.19884878 0.5270868
0.060638633 0.06694336 -0.008924992 0.13121732 0.006713187 -0.059700653 -0.06926198 0.3631038
-0.20177616 -0.03499106 0.29370373 0.16234124 0.010587165 0.30307934 -1.4994112 -0.011846453
-0.45216155 0.1196465 -0.73675674 -0.010138923 -0.45199552 0.1353628 0.080051295 -0.2871159
-0.16923012 -0.2677964 -0.039339684 -0.08202715 0.22782212 -0.29695576 0.42914528 -0.22174661
0.25658515 0.10451971 0.24754503 0.16515891 0.47663906 0.45366597 0.4805425 0.24056938
0.2761639 0.23491615 -0.14070666 0.20370525 -0.16526093 0.058286816 -0.14049363 -0.199001
-0.13416535 0.04898113 0.24306962 0.34125155 0.3495508 0.14489421 0.19633052 0.061833166
-0.65344507 -0.3662004 -0.066802554 -0.13195693 -0.10075618 -0.15423541 -0.26709563 -0.121448755
-0.19427027 -0.035496306 -0.16752274 -0.1223074 -0.06267255 -0.37729722 -0.4717834 -0.16369066
0.0964063 -0.10540595 -0.4223236 0.2605355 -0.3527629 0.07464613 0.15696661 0.11891619
0.05961258 -0.04392198 0.10829463 -0.009933983 -0.08821476 0.029405978 -0.33941165 -0.18487157
-0.28771463 0.027799575 -0.19586368 -0.22992712 0.1340631 0.13072424 0.28555533 0.096910655
0.008166759 0.12881692 -0.07117494 0.08969731 0.023879498 -0.09096094 -0.06691997 -0.096801005
0.19484329 0.097601466 -0.042303573 -0.089434065 -0.15866828 0.007110722 -0.09341848 0.012239244
0.008925698 0.12349392 0.522544 0.106831074 -0.076650195 0.25864345 -0.06026514 -0.0062369006
-0.45347288 -0.06347816 0.16856325 -0.60078096 -0.23455152 -0.022838177 0.104979664 0.26432356
0.06260774 0.26407203 0.27411935 -0.012930139 0.029668065 0.07312616 0.18062848 0.13563919
0.0047496823 0.01321346 -5.8182697e-05 0.2961369 -0.045262974 -0.03316499 -0.13979311 0.10396056

convt1.bias f4 [8]
00000000: 4b7d 30bd e652 0a3d 3dd9 32bc 00a8 a83d
00000010: a5e9 b13c 43c6 683d 2cce cb3d bd27 b2bc
-0.04308824 0.033770464 -0.010916051 0.082351685 0.021717856 0.056829702 0.099514335 -0.021747464

convt2.weight f4 [8, 16, 5, 5]
00000000: b6d2 36be 8311 d2be 0d8a 96be 7c87 07bf
00000010: 3fda e4be 00b1 a2bd 88bc b7be 888e 2b3e
00000020: e481 3fbe c927 7bbe 9ca0 c73c a0bd 233b
00000030: 38e3 55be 354e fb3b 1cf2 c9be 7e15 0f3e
00000040: ea12 febd d4bf 5abd ae3d fbbd 85fa d2bc
00000050: 7e32 573e 1d33 d63d 544f 213e afe3 c53d
00000060: f808 1b3e 7c3f 9639 d43d 813c ab3f a1bc
00000070: 6860 233e 7a19 8ebd 68b0 be3d 664c 8fbc
00000080: f779 8dbd b238 b53d 53c4 bf3d 261f 603e
00000090: 84b6 c8bd c876 ed3d f7d0 fa3c 7a49 443d
000000a0: 10f1 673e d228 2c3c ee9e 57bd 690d 233e
000000b0: 9b5b b13d 06c4 d73c b0c8 303d e310 8b3c
000000c0: c5fc c83d ea2c 0b3e 1bc9 2abf 23de bdbd
000000d0: bd35 edbe cb7d d1bd f335 0abe 98bb bf3b
000000e0: 87ca dfbe 5f58 50be 0ef3 243e 8f7a 8ebd
000000f0: ea37 42be 44b3 78bd 708a 8bbd aeb4 1fbd
00000100: 16d8 2bbe 1b90 0a3d 7c1b bdbe 6b0f 8ebd
00000110: 1dfc f8be a38f 62bd bced ddba 03fb 20be
00000120: 3497 c13d e025 acbd d4e3 be3e 6dd4 333d
00000130: 944d 423c 669f f6bc cf64 e6bd 866e ccbd
00000140: 257e ca3a 4d30 33bc 215c 00be a360 dcbc
00000150: fd5e e9bd 36aa 34bd ed6e 34be ef6d 1abd
00000160: bca3 ddbd 1ccc 92bd dcb6 bbbd a404 00be
00000170: 1b3f cabd 76f8 f0bd c9d1 b0bd 4735 17bd
00000180: ffb9 85bd cdfe 77bd 5ce6 ccbd e268 58be
00000190: 2f7e 323d 0d0c bc3d e334 9dbb 3fa7 783c
000001a0: beba 9ebd 719a 433b 0a53 2bbe edb7 1ebe
000001b0: d7c3 fbbc 8a3a 2cbe 3ad9 453c af9b 563d
000001c0: cb0c 733c b464 da3d 93b3 3ebd 99ac 2fbe
000001d0: 46ac 443e a1a7 a73d 55f1 3ebd 7e9e e63d
000001e0: 50b1 1ebe 8f63 0fbd 1287 1ebe bd59 e9bd
000001f0: 02f0 3cbd 7f16 e33d 8fab e2be 6c3d 0bbe
00000200: 2b74 263c 0487 ddbd e4e2 e93d 7a3b e63d
00000210: ae34 e3bd 170a 00bf 3940 0a3b 9102 6a3d
00000220: 878a 4cbd 51d2 bbbd b375 a8bc 6a4c 023e
00000230: def5 8f3b ba4f 553d 1629 5bbe 2fc6 a6be
00000240: bc1d 063c 70f3 813d 8c68 09bf 8046 19be
00000250: 04e1 c63d 6622 d6bc 0173 003e 200d 543d
00000260: 1082 23bd 2ab0 fe3c f904 0a3e 9758 ee3c
00000270: 849a fc3d 746a dc3b 97e5 483d 4845 9c3d
00000280: e9ea 04bc 4398 303e 2a2b e0bc 19b5 02be
00000290: 448b 4f3d d1d2 3cbd f8b7 223d ffe0 833c
000002a0: 3975 20be 8236 cb3d 37c0 133e 8a23 bcbd
000002b0: 79df 4c3e 9728 2e3b 365c 033e 6d21 0bbe
000002c0: 7c76 babd 2f69 1d3d 1414 25be 8913 bbbd
000002d0: e63e 0abe 055f 8cbd 91c0 9abd ffc3 8bbd
000002e0: 6952 31be 98c7 cabd 8673 d6bc 9e81 0cbe
000002f0: d916 e03c 018d 3bbd 66b7 1abd 4292 ccbc
00000300: 7913 a9bd 7fe1 ae3d 76ea 943a 8108 ecbd
00000310: d695 a6bc b8cf b4bc 2b7d 8fbe bd50 53bd
00000320: 4a14 b3bc 2bc5 07bc a721 10be e138 d6bd
00000330: b4c3 02bd 70ba 91bc 90ea 863c 1756 b8bd
00000340: f8e1 a8bd 9635 9a3c 3523 653c cee5 8bbc
00000350: 5b6e dfbc 864b 543a 498b 553d 3677 e23d
00000360: 9256 153e bcee 7fbe 2812 1bbd 043c 813d
00000370: ae91 993d b90b 833c 522f 36bd 4daf 003d
00000380: 821c e53c aa42 9c3d 2307 40be 9918 2d3e
00000390: 8842 a6bd 0d52 ab3d ff73 39bc a206 81be
000003a0: dfca ccbd 5f37 85be fdb4 b53d 1b8a aebd
000003b0: 85bf c7bd 1cd0 8fbe cb9d 1a3d 28b2 213e
000003c0: 6783 3abe f7dc e2bd 8ae6 95bd 5916 3b3d
000003d0: 985c 65be 3e0f 72be bb51 d8bc f7f3 30be
000003e0: 159f d2bc 7e2f cebd dc80 08bb 52d5 0fbe
000003f0: 3bce 9b3d 8639 7e3d 62de 64be 00e1 583e
-0.17853817 -0.41028985 -0.294022 -0.5294111 -0.4469776 -0.07943916 -0.35886025 0.1675359
-0.18701893 -0.24526896 0.024368577 0.0024984851 -0.20887458 0.007669235 -0.39442527 0.13973042
-0.12405951 -0.053405598 -0.12267624 -0.025754223 0.21015355 0.10458968 0.15752918 0.09662568
0.1514014 0.0002865753 0.015776552 -0.01968368 0.15954745 -0.06938453 0.093109906 -0.017492484
-0.069080286 0.088487044 0.09363618 0.21886882 -0.09800437 0.11594921 0.03061722 0.047921635
0.22650552 0.010507779 -0.0526418 0.15923084 0.086600505 0.026338588 0.04316014 0.016975826
0.09813837 0.13591352 -0.6671311 -0.09270885 -0.46330062 -0.10229071 -0.13497142 0.0058512203
-0.43709204 -0.20346211 0.16108343 -0.0695697 -0.18966642 -0.060717836 -0.06813514 -0.03899067
-0.16781649 0.033828836 -0.3693503 -0.069365345 -0.48629847 -0.055312764 -0.0016931812 -0.15720753
0.09452668 -0.084056616 0.37283194 0.043903757 0.011859316 -0.030105304 -0.112496965 -0.09982018
0.0015448971 -0.010936809 -0.12535144 -0.026901549 -0.11395071 -0.04410764 -0.1762044 -0.037702497
-0.108222455 -0.07167837 -0.09165737 -0.1250177 -0.09875318 -0.1176614 -0.08633763 -0.036916044
-0.065296166 -0.06054573 -0.10004875 -0.2113376 0.04357737 0.09181986 -0.0047975644 0.015176593
-0.07750462 0.0029846693 -0.16730896 -0.1549985 -0.030733032 -0.16819206 0.012075717 0.052394565
0.014834593 0.10663739 -0.046557974 -0.17155685 0.19206342 0.081862696 -0.04661687 0.11260699
-0.15497327 -0.035007056 -0.15481213 -0.11394069 -0.046127327 0.11088275 -0.44271514 -0.1359765
0.010159533 -0.10816768 0.11420229 0.11241813 -0.11094032 -0.50015396 0.0021095409 0.057131354
-0.049936797 -0.09170974 -0.020563936 0.12724462 0.0043933233 0.052077986 -0.21402392 -0.32573077
0.0081858 0.0634526 -0.5367515 -0.149683 0.09710887 -0.02613945 0.1254387 0.05177033
-0.03991896 0.031089861 0.1347846 0.029094977 0.12334159 0.0067265574 0.04904708 0.07630402
-0.008112648 0.17245583 -0.027364332 -0.12764396 0.050669923 -0.046099488 0.039726228 0.016098497
-0.15669717 0.09922506 0.14428793 -0.09186466 0.20007123 0.0026574486 0.12828144 -0.1358697
-0.0910463 0.03843039 -0.1612094 -0.091345854 -0.13500556 -0.06854061 -0.075562604 -0.06824493
-0.17316593 -0.09901351 -0.026178133 -0.1372132 0.027354645 -0.04578877 -0.03777256 -0.024972085
-0.08255667 0.08539104 0.0011361379 -0.115250595 -0.02033512 -0.022071704 -0.28025183 -0.05159067
-0.02186026 -0.008286755 -0.14075337 -0.104600675 -0.03192492 -0.017789096 0.01646927 -0.09000795
-0.08246225 0.01882438 0.013985445 -0.017077353 -0.027274301 0.0008098412 0.052134786 0.11057894
0.14583805 -0.24993414 -0.037859112 0.06310275 0.07498489 0.0159968 -0.044478722 0.03141718
0.027967695 0.07629903 -0.18752722 0.16903915 -0.081181586 0.08365259 -0.0113191595 -0.25200373
-0.09999632 -0.26018807 0.088724114 -0.08522435 -0.09753326 -0.28088462 0.03774814 0.15790617
-0.18214189 -0.11077302 -0.073193625 0.04567561 -0.22398603 -0.23638627 -0.02640616 -0.17280565
-0.025710622 -0.10067652 -0.002082876 -0.14046219 0.07607695 0.062066577 -0.22350457 0.2117958

convt2.bias f4 [16]
00000000: ae0b 423d c5fc e93d e616 d73c dff6 fd3d
00000010: d881 b13c a806 fa3d 1dda b53d f3fb 39bc
00000020: bc94 dc3d ad9a 233d a454 3fbc a70d 52bc
00000030: 29fb c93c 56a1 e33d 4be8 5a3b 3680 023e
0.04737442 0.11425165 0.026256036 0.124006025 0.02166836 0.12208301 0.088794924 -0.011351573
0.10770556 0.039942432 -0.011677895 -0.012820638 0.024655895 0.11114757 0.0033402618 0.12744221

convt3.weight f4 [16, 32, 9, 9]
00000000: 98a7 10bf 48f1 69be d027 53bc 1b70 7fbf
00000010: 5253 cfbd b807 08bf bef6 06bf a6bc 4dbd
00000020: bdc1 b9be 1712 63be 2678 873d 0494 f5bd
00000030: 2c2e a8bd 93a5 f6be 5d3c 3f3d 54e5 f73d
00000040: 1dec b73d 83a7 95be 4b59 2fba 53dd 3abe
00000050: 0e46 153e 0995 c5be 4699 64bd 283f 5d38
00000060: 893f 893d f8d1 94bd 3324 da3b b44a d3be
00000070: 03e7 f5bd 6fcb bdbe 3a56 f3be cc31 9ebe
00000080: 34ce 02be 38d5 c1be be23 f6be c961 b8be
00000090: 0a01 92be 8ed4 c6bb 48fb d0be 74f3 c1be
000000a0: 1e71 cfbe d20b 94bd 40a6 bebd 5771 58be
000000b0: 1812 c4be 6e08 85bc 1af2 09bf b15a 4ebd
000000c0: 03d1 b4bd d24f dfbe d94c 8bbe 476b a0be
000000d0: c58e 92be 07e1 fabd c1bd 1c3e e588 d0bd
000000e0: dcb5 0b3d ed1a 883b 4552 b7be 169f 6bbd
000000f0: af02 d73b b425 22be a8d6 9d3c 5abd b5bd
00000100: e02b 94bc b23e 88be c562 17be 7f80 38be
00000110: 93f7 93bd 2d93 c4bd 76b7 65bd f37c 8fbe
00000120: 279e 72be 6e91 63be 2075 3ebe 75d6 a2be
00000130: 435f c8bd e96f c8bd 4de4 d5bd c9ef 05be
00000140: 32f1 e4bd 8d94 a4be bd11 99be 4226 43be
00000150: eea0 b6be e92f 18bf 41df 7fbe ac9e d0be
00000160: 9696 d6be fa5f bfbe c9b7 debd 3529 c4ba
00000170: 4c9b 48be 04ad febc 1bc6 1bbe 2005 e1bd
00000180: 2ea9 8bbd 67ab 333c 1ba0 67be f157 66be
00000190: a816 edbd b590 7ebe fe0c 77be 5f32 4fbe
000001a0: be4f 06bf b940 ffbd 2c2e e7be e3a5 acbe
000001b0: 3b0a 88be 3852 b8be b02e dbbd 647b ffbe
000001c0: be2e d5be 128d 6ebe 22e0 cdbe f35e 01bf
000001d0: 1ceb babe 500c 993d e18e 56be 62d3 a3bb
000001e0: 4abe cdbc 9b8d 06be 07ec 8ebe fe5a 7ebb
000001f0: 9e95 aebe e3f4 57be 65f7 92be 232d 01be
00000200: 643c 97be b526 f2be 5b35 11bc 9050 09bf
00000210: c2da d2be 5e33 57be d685 0cbf 053b 0bbd
00000220: 1b19 72bd dd1a b6bd 3c5f 36be 90f6 b6be
00000230: 5a74 8fbe 4c0d bfbd b746 97be 8c3b 64be
00000240: 6cbf 39be 4890 33be 47f2 81be d520 bcbe
00000250: ead0 cabe 4d2e 94be 847d 88be f76d 6bbe
00000260: 77ac bdbe b2e5 30be 438f 5f3b 2cc2 f6bd
00000270: 6c59 adbe df3b 03be c72e d5be 12b9 90be
00000280: 3873 5abe f6f2 e1be e78c 37bf 5231 f93d
00000290: 4867 13bf 8f96 0dbf f8ca f9be 5b32 1bbf
000002a0: 6e4f 2abf 9aad f33b 501c 66bf 8731 cb3e
000002b0: 5aab eebd 2369 6cbe d832 293e 5326 16be
000002c0: 603a 22be fbb7 f3be 898e afbd eda9 793c
000002d0: 92f1 853e d2d6 acbe f256 23bf 2387 093c
000002e0: 9b95 29bf 643e a2be a50c 4bbd f78e 26bf
000002f0: 80ca 20bf efc9 99be 8ce5 393e 6001 bcbe
00000300: 7470 1cbe c941 93be c8c8 cdbe 54e9 0fbe
00000310: 1e47 a4bd b57a c4be c8fc b5be 530a 45be
00000320: 3a55 c13d b086 0f3e cbf5 88be 0379 fd3c
00000330: 932e 42bf 0393 9fbd 4125 66be 372d 6fbd
00000340: 3162 c4be 6b03 5fbe 05c7 92bb fa8d b7be
00000350: 895f 14bf fcb3 023d c91a cbbe d1b6 54be
00000360: 7510 05bf 90c8 be3d 6520 2fbf b773 11bf
00000370: fa12 03be 6e3d 0dbf 72d4 89be c2c1 3bbe
00000380: 932b c5be 47be 8a3c dbc0 a1be 49af c23d
00000390: 437e f63c effd c4be fe59 60bd 4b62 32bf
000003a0: 3e86 efbd aff1 ddbd d915 143d 0d24 adbe
000003b0: 59ed 0dbf 9b17 8bbe 4311 15bf 9677 e9be
000003c0: 76b6 34be de92 abbe 519d 57be 900a d8be
000003d0: 6c41 41be 1b64 1cbe 0561 69be 09f1 05bf
000003e0: 0c66 37be 2c02 a6be bd7c 513c 08d3 30be
000003f0: 36fa 84be ae33 693e f15d 4fbe 8119 bebe
-0.5650573 -0.22845948 -0.01288791 -0.99780434 -0.10123314 -0.5313678 -0.5272025 -0.050228737
-0.36280623 -0.2217487 0.06614713 -0.11991122 -0.082119316 -0.48173198 0.046688426 0.12104288
0.08980582 -0.29229364 -0.0006689026 -0.18248491 0.14577505 -0.38590267 -0.055810235 5.2749325e-05
0.067015715 -0.07266611 0.0066571473 -0.4126793 -0.120069526 -0.3706927 -0.47526723 -0.30897367
-0.12773973 -0.37857985 -0.48074144 -0.36012104 -0.28516418 -0.006067819 -0.40816712 -0.37881052
-0.4051599 -0.07228817 -0.093090534 -0.21136986 -0.38295054 -0.016239371 -0.5388504 -0.05037946
-0.08828928 -0.43615586 -0.27207068 -0.31331846 -0.2862455 -0.12249952 0.1530676 -0.101823606
0.03410898 0.0041536004 -0.35804954 -0.057524763 0.006561599 -0.15834695 0.019267395 -0.088740066
-0.018087327 -0.26610333 -0.14783771 -0.18017767 -0.072249554 -0.09598384 -0.056083165 -0.28025016
-0.23693143 -0.22223446 -0.18599367 -0.31804243 -0.09783795 -0.0978697 -0.104439355 -0.13079752
-0.11178817 -0.32144585 -0.29896346 -0.19057563 -0.35669655 -0.59448105 -0.24987508 -0.40746057
-0.41911763 -0.37377912 -0.10874898 -0.0014965894 -0.19590491 -0.03108836 -0.1521229 -0.10987306
-0.06819378 0.0109661585 -0.22619669 -0.22494484 -0.11576587 -0.24859889 -0.2412605 -0.20234059
-0.52465427 -0.12463517 -0.45152414 -0.33720312 -0.26570305 -0.36000228 -0.10702264 -0.49898827
-0.41637224 -0.23296002 -0.40210062 -0.50535506 -0.365075 0.074730515 -0.20952941 -0.004999564
-0.025115151 -0.13139956 -0.2791445 -0.003881156 -0.34098524 -0.2108951 -0.28704372 -0.12614875
-0.29538262 -0.47295156 -0.008862819 -0.53638554 -0.41182524 -0.21015689 -0.5489172 -0.033991832
-0.059105974 -0.088918425 -0.17809767 -0.35734987 -0.28018457 -0.09328708 -0.2954614 -0.2228834
-0.18139428 -0.17535508 -0.25380155 -0.367438 -0.39612514 -0.28941575 -0.2665826 -0.22991167
-0.37045643 -0.17275122 0.003411249 -0.12048754 -0.33857286 -0.12815808 -0.4163725 -0.28266197
-0.21333015 -0.44130677 -0.71699375 0.1216761 -0.5757947 -0.5530786 -0.48787665 -0.6062371
-0.6652745 0.0074364664 -0.8988695 0.39686224 -0.116537765 -0.23086981 0.16523302 -0.14663057
-0.15842581 -0.47601303 -0.08572108 0.015238267 0.26160866 -0.33757645 -0.63804543 0.0083940355
-0.66243905 -0.31688225 -0.049572606 -0.650619 -0.6280899 -0.30036876 0.18153971 -0.367198
-0.15277272 -0.28761128 -0.40192246 -0.14053851 -0.08021377 -0.38374868 -0.3554442 -0.1924222
0.09440084 0.14016223 -0.26750025 0.030941492 -0.75852317 -0.07791712 -0.22475149 -0.05839273
-0.38356164 -0.21778648 -0.0044792914 -0.35850507 -0.57958275 0.031909928 -0.39668873 -0.20772864
-0.51978236 0.09315598 -0.68408805 -0.5681719 -0.12800208 -0.5517186 -0.26919895 -0.18335631
-0.38509807 0.016936434 -0.3159245 0.09506089 0.030089503 -0.38474986 -0.054773323 -0.69681233
-0.116955265 -0.10837113 0.036153648 -0.33816567 -0.5544029 -0.27166447 -0.58229464 -0.4559905
-0.17647728 -0.33510488 -0.21056105 -0.4219556 -0.18872613 -0.15272562 -0.22790916 -0.52320915
-0.17910022 -0.32423532 0.012786088 -0.17268002 -0.25972146 0.2277362 -0.2025068 -0.37128833

convt3.bias f4 [32]
00000000: 7cb5 e83d b156 9a3d 826a 9b3d 0b4f 073e
00000010: ec22 d73d df36 553d 409f 4ebe 8889 a03d
00000020: c01b bf3d 5085 253e e8d8 5c3d b4f6 1e3e
00000030: f33e 493e 66b0 f4bd 2d2c 4c3e a03d b73d
00000040: 6361 083e 049a ff3c 84eb c03d 544f 2e3d
00000050: 3cd5 393e 3f9b d33d 263b 153e 421f 373e
00000060: 27a7 d13d 3369 5f3d 5d24 1c3d e8ea 473d
00000070: 3902 983d 0198 b93d cdfe 8abe 4eb9 9b3d
0.113627404 0.07536066 0.07588674 0.13213746 0.10504708 0.052054282 -0.20177937 0.07838732
0.09331465 0.16164136 0.053917795 0.15523797 0.1965292 -0.11947708 0.19938727 0.08947301
0.133184 0.03120137 0.09419921 0.042556122 0.18147749 0.10332345 0.14573345 0.17883018
0.1023696 0.054543685 0.038120616 0.04880801 0.07422299 0.090621956 -0.27147523 0.076037034

pos_output.weight f4 [1, 32, 2, 2]
00000000: d350 483d 55e0 1b3d 7f6f 1e3e 5690 6b3e
00000010: 69ad af3d 3781 0f3e 8ec2 0b3e 3159 103e
00000020: eda7 a6bd 43d2 2abe 49da 4abd 73d2 0cbe
00000030: 0b1f 163e a173 0e3e 57fe c43d dabf 4d3e
00000040: 249b 3ebc 6a3a 5c3d 528d e73c d805 ed3d
00000050: c7cc 45bd 0e3e 5ebe f513 563e c9c9 ecbd
00000060: ba03 8fbe a129 94be d554 a1be f818 a6be
00000070: 9f20 05be e961 683d fdf9 d0bc 79f0 c53e
00000080: 3ea8 a83e 0e53 af3e 86c6 9b3e b2c6 8e3e
00000090: 7414 4dbc 48f2 893d 80b6 ab3d e855 473d
000000a0: 3ee4 b63e 7f1b cd3e abd0 fb3e ea22 a03e
000000b0: ccae e73e 2903 e53e 9d5e d93e 857e a73e
000000c0: 1c82 b0bd 1566 d0bc d4ee eb3d 15c5 c93c
000000d0: 3ab9 97be 0601 8dbe 046a a0be 208a 9abe
000000e0: 008b 9ebd 7dde 42bd b55d 1a3e 59ab 20be
000000f0: 645f 563d 95f2 0bbe 6b0d ba3d 6254 dcbd
00000100: 6a26 bebd e7d0 2abe 7f7a aa3d 3144 d63c
00000110: 8cc0 8dbe 3336 4abe 62d9 4bbe cb05 16be
00000120: dee6 9b3d be02 033e 8601 d1bb e1fc 2b3c
00000130: 8cd8 823e 0f7b 3c3e ce21 7c3e 1de8 7a3e
00000140: a53d 57be bc69 5fbd c45f c63d 7c77 863c
00000150: e127 41be 23a7 02be faa7 27be ec1d 2abe
00000160: 00ae 00be 9d6c 0c3c bd07 953d 8cc7 9cbd
00000170: 7cb6 9b3d 8648 083e ca73 00be e88e a03d
00000180: b0bd 10be fee6 483d d688 63ba c622 d5bc
00000190: 7590 77bd 52d2 cb39 99d6 36be 1e5c cebc
000001a0: e74e c83d 2c88 cc3d cdf6 c13d 0849 713a
000001b0: 8130 12bd 8b9e acbd b3da c6bd 0e19 09be
000001c0: 52e8 b83e dad8 c23e 758d 9e3e 6df5 9a3e
000001d0: 8fc9 283e c857 2f3d 95c2 ec3d f1c9 333d
000001e0: eb04 e73c 851d 033d 5a48 89bb 16e9 89bc
000001f0: 9431 883d 90ac e93d d6cc 263e 2a74 553e
0.048905205 0.038055737 0.1547222 0.23004279 0.08577997 0.14014135 0.13648435 0.14096524
-0.08137498 -0.16681771 -0.04952458 -0.13752155 0.1466028 0.13911296 0.09618824 0.20092717
-0.011633668 0.053766645 0.028265629 0.1157338 -0.048290994 -0.2170336 0.2090605 -0.11561925
-0.2793253 -0.2893801 -0.31510034 -0.32440925 -0.13000725 0.056734 -0.025509829 0.3866003
0.3294086 0.34243053 0.304249 0.27885967 -0.012517083 0.067356646 0.083844185 0.04866591
0.3572101 0.4006004 0.4918264 0.31276637 0.45250547 0.44728974 0.42454997 0.32713714
-0.086185664 -0.025439302 0.11520162 0.024630109 -0.29633504 -0.27539843 -0.31330884 -0.30183506
-0.07741356 -0.047575463 0.15074809 -0.15690364 0.052337065 -0.13666756 0.090845905 -0.10758282
-0.09284671 -0.16681252 0.083241455 0.026155563 -0.27685964 -0.19747238 -0.19907144 -0.14650647
0.07612394 0.12794015 -0.0063783554 0.010497303 0.25555837 0.18406318 0.2462227 0.24502607
-0.2101961 -0.054544196 0.096862346 0.016414396 -0.18862869 -0.1275907 -0.16372672 -0.16612977
-0.12566376 0.008570817 0.072768666 -0.07655248 0.076031655 0.13308915 -0.1254417 0.07839757
-0.1413486 0.049048416 -0.0008679753 -0.026017558 -0.0604405 0.00038875878 -0.178553 -0.02519041
0.097806744 0.0998691 0.09470902 0.0009204303 -0.03569079 -0.08428677 -0.09709682 -0.13388464
0.36114746 0.3805607 0.30967298 0.3026537 0.16483139 0.042808324 0.11560551 0.04389376
0.028200587 0.032010574 -0.004189533 -0.016834777 0.06650081 0.11409867 0.16289076 0.20845094

cos_output.weight f4 [1, 32, 2, 2]
00000000: 5c7d eabe 7131 9cbe a592 12bf d87e 0ebf
00000010: 79c4 87bd 2bbd c2bd c937 46be e760 0ebe
00000020: a901 1abe 5c45 31be bdb6 98be 4c44 80be
00000030: 22d3 12bf d1b4 d1be 09b9 01bf d359 12bf
00000040: 6137 2e3e 03d6 0d3e e962 f03d c4e6 b3bb
00000050: 187b 56be b599 a8bd 36e5 a03d 74c0 463e
00000060: 7285 de3d 4d8e 383e 094e 073e 75bf 0e3e
00000070: 7c93 453e 9450 87bd da52 f83d f97e f5bd
00000080: f4b7 0dbf 5d27 06bf 2cc6 d2be b511 c7be
00000090: 7064 843e 0b65 87bc 1150 3b3e e4e5 c1bd
000000a0: 5471 0fbd 5cc0 ae3d 79d8 44bd d282 f33d
000000b0: 4dab 97be 4bb1 c0be 3437 45be f7bd f2bd
000000c0: bb12 663e f53f ce3d f2fc 4f3e 2e9f 843e
000000d0: 1708 783e 2f8d 393e c019 943e 0879 803e
000000e0: d88d 403e b704 243e bf8c 263e 172b 263e
000000f0: e12f 863d 947f 1b3e 7c1c 0fbe 8f28 173d
00000100: 350a 9fbe 8e6c 87be 0534 b8be 6aea babe
00000110: 0eb6 363e 6afa f43d 49fd 0a3e 6ba5 003e
00000120: 27be 9ebe 52f7 d0be 0fd8 87be c044 c2be
00000130: cf9e 3cbc 5f29 1dbd 30dd d6bd 048e 69bd
00000140: 9fde c73d f09b 673e a0c3 7a3e d11c 893d
00000150: 46e2 ad3e 8734 a53e fc5f ad3e cabd 9b3e
00000160: 8d02 bf3d baf2 e33d 80f6 393e c3b4 393e
00000170: 6d26 0d3d e36c 623e cb19 193e c0f0 8f3e
00000180: 03aa 94bc c540 793b 6652 4d3d 4895 383e
00000190: 50a9 fbbd 6bd0 37bd 61e0 083e b4fb 6a3d
000001a0: b585 95be 40c7 97be 5e2e 75be 0ea3 4cbe
000001b0: b365 6dbc f9a5 78bb 8771 8a3d 31fb b43d
000001c0: 55bd 5dbd 7394 95bd 1d63 dcbc 5635 c0bd
000001d0: 07c8 0ebe 3f4c fcbd 57b7 203e 3932 dd3d
000001e0: 9adc 0bbe e39e 5dbe c8e0 3bbe 44ef f8bd
000001f0: c7ba c9bd 9e51 1ebe df03 91be 3cfc 90be
-0.45798767 -0.3050647 -0.5725501 -0.556623 -0.06629271 -0.09508737 -0.19357218 -0.13904153
-0.15039696 -0.17311615 -0.29826918 -0.25052106 -0.57353413 -0.40958264 -0.50672966 -0.5716831
0.17013313 0.1385117 0.117376156 -0.005490156 -0.20945394 -0.08232442 0.078562185 0.19409353
0.108652964 0.18023033 0.13213362 0.13940223 0.19294542 -0.06607166 0.12125178 -0.11987109
-0.55358815 -0.52403814 -0.41166818 -0.38880697 0.25857878 -0.016527673 0.18292262 -0.09467676
-0.035020187 0.085327834 -0.048058007 0.11890186 -0.2962288 -0.37635264 -0.1925934 -0.11852639
0.22468083 0.100707926 0.20311335 0.25902694 0.24221836 0.18120264 0.28925896 0.2509234
0.18804109 0.16017424 0.16264628 0.16227375 0.06552101 0.15185386 -0.1397571 0.036903914
-0.31062475 -0.26450008 -0.35977188 -0.3650697 0.17842886 0.11961825 0.13573183 0.12563102
-0.3100445 -0.4081369 -0.26532027 -0.37943077 -0.011512472 -0.038369533 -0.10491407 -0.057020202
0.097592585 0.22618079 0.24488688 0.066949494 0.33961695 0.32266638 0.33862293 0.30418235
0.093266584 0.11130281 0.18160439 0.18135361 0.034460474 0.2211185 0.14951245 0.28113365
-0.018147474 0.003803299 0.05012741 0.18025696 -0.12288153 -0.044876497 0.13366844 0.05736895
-0.29203573 -0.29644203 -0.23943469 -0.19984075 -0.014489579 -0.0037940724 0.06759935 0.088369735
-0.05413564 -0.07303705 -0.02690273 -0.09385173 -0.13943492 -0.1231923 0.15694939 0.10800595
-0.13658372 -0.21642642 -0.18347466 -0.12155011 -0.09850078 -0.15460822 -0.28323266 -0.2831744

sin_output.weight f4 [1, 32, 2, 2]
00000000: 1502 203e 2a5a d73d 4af9 183e 51cd 273e
00000010: 9da1 063f 09c1 103f d98d 143f 8349 0e3f
00000020: d8c0 8cbe 21a6 9abe 8469 a0be 5433 71be
00000030: c095 ca3d 9c31 8d3d df2d 1a3d 78f1 f73c
00000040: 87ac 953d 1411 0ebd 1dd8 cdbb 2efc aabd
00000050: 3a0f 8abd 9eb9 113e a01a 51bd c84b 4ebd
00000060: 4871 2f3e 7b2a 3e3e 0da3 bc3d d8b5 bf3d
00000070: 7d9c 40bc 02e9 b6bd 6a87 9d3d 46d0 03bc
00000080: b629 673b 8525 71bd 5c4a 923b 5b90 91bd
00000090: e178 b2bd bd82 383e 208c 153e 8a32 a9bd
000000a0: 6bd4 013e 0259 bc3d cc49 a93d 0cb6 3c3e
000000b0: 3c36 8abd c756 56bd c5a7 62bc c445 9bbd
000000c0: 0743 923d c16f f1bd c85d 1cbd aca2 663e
000000d0: 0fba 0fbe 901e e0bd 7f14 0dbe 91d1 efbd
000000e0: 47b3 9f3c 1278 f7bd 5962 93bd 2b11 60bd
000000f0: 380f 1f3c 2a78 3b3d 54b2 1fbd 974c 4ebd
00000100: e8f5 c8bd c7a0 9a3b fb63 d83c f82a 4d3d
00000110: 4f93 b03d 5d7c 7a3d 623c 9e3d ef52 d53d
00000120: a072 103e b25a 623e 8e8c 3e3e cb3c 223e
00000130: d656 99be f4df 33be dd53 aabe 29e1 b8be
00000140: 2434 0b3c 704e 493e 4440 dc3b 4419 a8bd
00000150: fbe1 6d3d 1ac0 073b 4979 473c 8bdf cf3c
00000160: 8db0 0cbe 4221 04be 9742 fd3d 368a ddbd
00000170: 64ed f4bc 64f2 05be d8e3 f53d 572b 9b3c
00000180: 98b1 253d e7cb d43a f294 3b3e 10bf 14be
00000190: 75b0 9d3d 9130 b3bc 6777 82bd b1a7 0f3c
000001a0: 78ab 4cbd efec ffbd 65a5 81bd 8cb7 c7bd
000001b0: 4c8f 6dbc e915 d5bb 5f35 453b da94 023d
000001c0: 5096 6abe f1f4 7bbe a89b 46be 6d3a 91be
000001d0: 74e5 8d3e 85d2 983e 865b 8f3e 4161 0c3e
000001e0: b256 9a3b 3908 353b 7d6f 123c 55e7 673c
000001f0: ed0e 9eba 0317 023b 73d8 913c 61c9 6dbc
0.15625794 0.10515244 0.14938846 0.16386916 0.5259035 0.5654455 0.5802894 0.5558092
-0.27490878 -0.3020487 -0.31330502 -0.23554736 0.09891844 0.06894228 0.037641402 0.030266508
0.073082976 -0.034684256 -0.006281866 -0.08348881 -0.067411855 0.14230964 -0.051050782 -0.05036524
0.17133057 0.18570893 0.09210787 0.09360856 -0.01175606 -0.089311615 0.07691844 -0.008045262
0.0035272664 -0.058873672 0.0044644307 -0.07107612 -0.08714462 0.18018623 0.14604235 -0.08261593
0.12678687 0.091966644 0.08266029 0.1842882 -0.06748626 -0.05232885 -0.013833945 -0.07581666
0.07141691 -0.117888935 -0.038175374 0.22522992 -0.1403582 -0.10943329 -0.1377735 -0.117098935
0.019494666 -0.120834485 -0.07196493 -0.054703873 0.009708218 0.045768894 -0.038988426 -0.05036601
-0.09812528 0.004718873 0.026414862 0.050089806 0.08621847 0.06115376 0.07726361 0.10416209
0.14106226 0.2210491 0.18608305 0.15843503 -0.29949063 -0.175659 -0.33267108 -0.36109284
0.008496318 0.19658828 0.0067215282 -0.08207944 0.05807684 0.0020713867 0.012174913 0.025375148
-0.13739224 -0.12903312 0.12366217 -0.10817377 -0.029898353 -0.13080746 0.12006348 0.018941564
0.04045257 0.0016235084 0.18318537 -0.1452601 0.07699672 -0.021873744 -0.063704304 0.008768008
-0.049968213 -0.12496363 -0.06330375 -0.09751806 -0.014499497 -0.006502856 0.0030091626 0.031880237
-0.22908902 -0.24605156 -0.19395316 -0.28364888 0.2771412 0.29848114 0.27999514 0.13708974
0.004710042 0.002762331 0.008937714 0.014154275 -0.0012058892 0.0019850142 0.017803406 -0.0145133445
