ggcnn_base/output/models/230121_1510_training_example/epoch_04_iou_0.54_statedict.pt (torch, 256417 bytes, 16 tensors)

conv1.weight f4 [32, 1, 9, 9]
00000000: 2228 b7bc 74d4 8fbc b8bb 11bd 5981 6dbc
00000010: efd9 19bd 81f3 18bc 43ad 1b3d ab06 193d
00000020: 99c3 ce3c b199 d6bc 05b6 9f3a 432a b3bc
00000030: 573f 30bd 1645 e5bc 38a9 773b 6e27 7e3c
00000040: a48f 50bd e20d a9bc 81ed 0f3c 0afc d93c
00000050: f714 3e3d 0387 2a3c d152 073d 619b 793c
00000060: 11c8 21bd 2298 dfbb 0430 5bbd f9aa d13c
00000070: e41d 0ebd 44f9 b2bc c27a e8bb d862 0a3c
00000080: 5c75 223d c719 ff3c db78 35bd a56b 67bb
00000090: 05aa c1bc a63d 48bc 5fbb 323c 6489 0d3c
000000a0: c9b8 813b 6f9a f23c 57b7 16bd 8d53 2dbd
000000b0: 58c7 a73c 94f0 a939 4a5a a83c 54f6 bbbb
000000c0: 1cb6 f2bc 32b0 8c3a 907a a138 8d06 253d
000000d0: 905b f53c 7a15 55b9 0db1 1abd fdd2 253c
000000e0: 4136 253d b024 d6bb 4613 12bd 3436 1d3d
000000f0: a057 2ebc 2f32 573c 5836 283d 4f7b 143d
00000100: 0e03 51bc 4cd0 bcba 6165 19bd 8ba0 0f3d
00000110: 2a7e f5bb 000b a6bb 9894 d2b9 04f3 bc3b
00000120: a71f 80bc 839e 9a3c d143 073d 3901 123d
00000130: bb1a bc3b 90d1 58bd e987 91bc ade4 96bc
00000140: 438e 263d b758 9d3c 5dbb 223d d9a1 503c
00000150: 5c63 833c acf1 65bc 5cf2 8b3d 1ee8 373d
00000160: 1c7f 563d 249c 12bb 841f f0bc 71f8 7bbc
00000170: 7dfc 0a3d c13a 5e3d 720c ae3c 09b5 cbbb
00000180: 8fc4 3b3d ad48 503d 515c 113d b173 d43b
00000190: 5b0e b73c 0153 52bd 5051 173d 6a41 99bb
000001a0: 37d9 023d 5cfe 6fbc 204f 37bc 75d4 d6bc
000001b0: 8726 503c 756f 133d 2280 913c 9339 df3c
000001c0: fe85 6a3c dc45 863d 7c73 e638 e30a af3c
000001d0: 8221 723d b58c 8f3c d5b3 9eba 47d0 0bbd
000001e0: 4bff 933c 2dad 813d 42c5 253d 5a9c 39bb
000001f0: 1616 783d 6a35 873d a8c8 dfbc 6773 c43c
00000200: 23f3 36bd df28 5b3d 4f64 30bc 01dc 553c
00000210: eb60 41bb 9fa1 663d 1d4b 903d 5dfc 723c
00000220: 8ff4 f33c 13a1 ef3b fd3b a139 5089 37bc
00000230: 9b2f f13c f392 1a3d 40d2 4a3d 4a16 f93c
00000240: 87f5 2c3d 0a5e 0f3d 3aef f03b 30c1 173c
00000250: 4350 f7bc 3983 373c 9123 813c 4bc8 413d
00000260: 43c0 5f3d d2a1 5dbc 35e8 0fbc 9636 353d
00000270: b864 c6bb 24cd 463d 9e89 f53c 90fd 0d3d
00000280: 7453 033d 4a95 8cbc 6eef ecbd 2120 febd
00000290: 19ce 12be d184 67bd 397a 12be af39 b6bd
000002a0: 2ee6 c5bd d38b fabd 061a fabd eafe dabd
000002b0: e770 f3bd ac23 c5bd 9241 80bd bc23 14bd
000002c0: c69a a3bd 3afa bebd 6144 adbd cd18 aabd
000002d0: cf01 b8bd 1456 02bd 8421 c9bd e5cc a0bd
000002e0: 2b20 16bd 3703 e1bc 863c 9abd f5f6 01bd
000002f0: 50ac eabc b5e3 44bd ab36 a4bd b6a7 a8bd
00000300: d37f a63c d280 29bb e425 08bd a6c2 f8bc
00000310: ad69 eabc ac37 c6bc 2c98 0d3d ac57 c1bc
00000320: 5c50 a1bc ea15 1dbd 18de e33b 38a7 fc3c
00000330: c4c9 41bc 87f1 8cbc 3028 f6bc b20d a23c
00000340: dec8 fabb 4cff 23bd 8ebc 8b3d 20ed 423d
00000350: 830c 753d cd6e e4bc 0d99 05bc 180a 983b
00000360: d793 813d 38fa 53bb 8043 77bb 181d c43d
00000370: dc94 923d ee02 cf3c 3999 043d ca62 b63d
00000380: ad80 2b3b 0e7f 983d 5e94 eb3d fedb dc3d
00000390: 8d5b 093e 25f6 983d 6bdf 883d 3ccd 953d
000003a0: 86c2 d53d 4d7c de3d 9efb 0b3e 40bc 013e
000003b0: d666 db3d fcfc df3d 3358 1a3e 2c39 003e
000003c0: 7346 093e 41b6 b53d 3051 013e d333 97bd
000003d0: fe50 c6bd 44d4 7bbd bb59 3fbe d50a 51be
000003e0: 0385 34be cb68 3fbe e608 54be 682b 09be
000003f0: e5d4 c1bd c2ab 8abd fdab 46bd 84c2 f0bd
-0.022358004 -0.01755736 -0.035579413 -0.014496171 -0.037561353 -0.0093354 0.038007032 0.037359875
0.025239753 -0.026196333 0.0012184983 -0.021870738 -0.043029156 -0.027987044 0.0037790071 0.01551233
-0.050918236 -0.020636503 0.008784653 0.02660944 0.046406712 0.010408166 0.033037964 0.015234799
-0.03949744 -0.0068235556 -0.05351259 0.025594221 -0.034696475 -0.021847375 -0.007094712 0.008446418
0.039662704 0.031140221 -0.04430471 -0.0035311964 -0.023640642 -0.012221729 0.010908931 0.0086387135
0.0039587957 0.029614655 -0.03679594 -0.04231601 0.020480797 0.00032413437 0.020550866 -0.0057361517
-0.029627852 0.0010733663 7.699907e-05 0.04028945 0.029950887 -0.00020321264 -0.037766505 0.010121104
0.040334944 -0.006535135 -0.03566291 0.03838177 -0.010641009 0.013134523 0.04106745 0.03625041
-0.012757076 -0.0014405339 -0.037450198 0.035065215 -0.0074918466 -0.0050672293 -0.00040165032 0.0057662744
-0.015640093 0.018874412 0.03302366 0.035645697 0.005740491 -0.05293423 -0.017765002 -0.018419588
0.040663015 0.019207342 0.039729465 0.0127339 0.01603859 -0.01403467 0.06833336 0.0448991
0.052367315 -0.00223709 -0.029311903 -0.015379057 0.033932198 0.05425525 0.021246169 -0.0062166494
0.04584175 0.05085056 0.03548843 0.006483518 0.022345712 -0.05134869 0.03694278 -0.0046769874
0.031945433 -0.014648046 -0.011188298 -0.026224354 0.012704498 0.035994966 0.017761294 0.027249133
0.014314173 0.06556293 0.00010988765 0.021367496 0.059113987 0.017523149 -0.0012108037 -0.034134176
0.01806607 0.06331859 0.040471323 -0.0028321953 0.060567938 0.06601985 -0.02731736 0.02398081
-0.044665467 0.053505775 -0.010766103 0.013052941 -0.002950723 0.056306478 0.07045577 0.014830676
0.0297797 0.0073129027 0.00030753008 -0.011202171 0.029441645 0.037737798 0.049516916 0.030406136
0.04222634 0.035001792 0.007352737 0.009262368 -0.030189639 0.0112007195 0.01576403 0.047310155
0.054626714 -0.0135273505 -0.00878339 0.04424151 -0.006054487 0.04853548 0.029972848 0.034665644
0.03206201 -0.01716103 -0.11569105 -0.12408472 -0.14336433 -0.056523148 -0.14304437 -0.08897721
-0.09663044 -0.122337006 -0.12211995 -0.10693152 -0.11886769 -0.096259445 -0.062625065 -0.03616689
-0.07988505 -0.09325071 -0.08460308 -0.083055116 -0.0898472 -0.03182037 -0.09820846 -0.078515805
-0.03665177 -0.027467353 -0.07531075 -0.031729657 -0.028646618 -0.04806872 -0.080182396 -0.08235113
0.020324623 -0.0025864136 -0.03323926 -0.030366253 -0.028614843 -0.024196468 0.03456895 -0.023601376
-0.019691639 -0.038350977 0.006953966 0.030841455 -0.01182789 -0.017205013 -0.03004846 0.019781921
-0.0076533398 -0.040038392 0.06823073 0.04758942 0.059826385 -0.027884865 -0.008154166 0.004639875
0.06327026 -0.0032345187 -0.0037729442 0.09575862 0.07157299 0.025269952 0.032372687 0.08905561
0.0026169226 0.07446109 0.11502908 0.10784148 0.1341383 0.07468823 0.066832386 0.07314536
0.10437493 0.10863552 0.13670203 0.12669468 0.10712974 0.10936925 0.15072708 0.1252181
0.1340578 0.08872653 0.12628627 -0.073829316 -0.09683417 -0.06148173 -0.18686573 -0.20414288
-0.17628865 -0.18692319 -0.2070652 -0.13395464 -0.094644345 -0.067710415 -0.048503865 -0.11755851

conv1.bias f4 [32]
00000000: fc41 ccbd c2b9 0b3d d1c2 1a3d 9cbe 3c3d
00000010: a7ed 45be 487c aabd f81c ea3d 8f76 a93d
00000020: 4653 3d3e cee5 20bd d533 743d 9ae0 ce3d
00000030: b10f 043c 18e4 5abe 5b2c bfbd bb20 8a3d
00000040: e30e 90bd e9a9 edbd eda6 ee3d 3932 9abd
00000050: 502b 99bd a700 c9bd 6740 27be 40a3 4f3d
00000060: 1816 333e 2c2e 543d fc05 e13d 96c4 583d
00000070: b3e5 193d 7531 a7bd aeb9 3d3d 2df6 ed3c
-0.09973523 0.0341127 0.037783448 0.046080217 -0.19328938 -0.08324486 0.114313066 0.082745664
0.18488798 -0.03928166 0.059619743 0.10101433 0.008060382 -0.21376073 -0.09334632 0.06744524
-0.070340894 -0.116046734 0.11652932 -0.075291105 -0.07478964 -0.098145775 -0.16333161 0.050692797
0.17488897 0.051801845 0.109874696 0.052921854 0.037572574 -0.0816373 0.046319656 0.02904805

conv2.weight f4 [16, 32, 5, 5]
00000000: 2801 3bbd 938a 253d 3c79 453b a64c 273c
00000010: b7d3 c73b ba87 ddbb 3b84 813d 6d65 2e3d
00000020: 7504 80bc 02ec 81bd 3811 32bc 4721 8c3c
00000030: 2e8e 1dbd 1797 4dbc e46e 463d fe03 0a3d
00000040: 07a5 e3bc a730 57bb 19ea d73c a8db 36bd
00000050: 2bb7 dabc 4f61 1e3d 7a47 7b3d 7bcd 49bd
00000060: 4d9f c33c 9eb7 593d a44c 82bd 9d18 aebd
00000070: 2f7f 0c3d 65be aabd f463 cb3c b44d 143d
00000080: 0f7c 59bc 2361 e43c 37a9 97bc a211 5f3d
00000090: 0e63 7c3d 1a2f 353d 6155 5cbb 8e36 afbc
000000a0: b218 84bc b82f deb9 2d0f da3c 0cd1 60bb
000000b0: f3be 78bc 9c0e 95bc 568b 983d 2f10 7bbd
000000c0: f3ad 3d3d 538c 6ebc eec3 603d 4b27 413d
000000d0: fd2a 953d c345 8c3a fa20 07be 129f 5b3d
000000e0: 94dc 903b 8649 2e3d df7c bd3c 3dbd 9cbd
000000f0: 7c4a 0dbd 8db1 ec3c 041a 18bd 380a 81b9
00000100: 245d bbbd 6b10 f23d 5ad0 bd3d 0d55 a13d
00000110: c47c 953d 8b37 173d 4cb0 0b3d bba0 01bb
00000120: 2b52 e2bd eed2 11be 1ec5 6fbe 49d2 4f3d
00000130: fbd0 0f3e 79d3 ea3d d3e0 ec3d 4837 c13c
00000140: f211 6e3b 8b81 0c3e 54b3 0a3e 1619 2c3d
00000150: feba febc 55b2 913c 1654 f83d 019b 9d3d
00000160: 9041 6a3d fc76 273b aa2b 813d d3e7 303e
00000170: 93a4 073e f591 2a3e 3038 c33c 9bea 10be
00000180: a416 ca3b 418a 3e3c 371e babd a804 efbc
00000190: 15e4 893d dd5e 95bd 5278 b23c b463 813c
000001a0: 8881 9a3c 8625 1d3a 8211 6cbd b977 b3bd
000001b0: 92af febc 14e6 753c 1d8a 86bd 2e43 0fbd
000001c0: f163 aabd 81ab cabc 3883 a8bd 5d8e 88bd
000001d0: 803d e7bd 782f aabd f659 95bd 4d91 a9bd
000001e0: 4762 b4bd 23be 5cbd 3629 a5bd e197 1cbe
000001f0: 3e10 18be 3582 e9bc 95a4 89bc cd2d 46bd
00000200: c5d0 39bd ea3a 8e3d 65f6 98bc 8444 3fbd
00000210: 4503 683d 95c3 033c c254 853d f91f 283d
00000220: a370 423d e77c 30bd 0036 87bd 984d bebc
00000230: 2d8f 05bd 1884 24bc 1129 cbbd cc06 d6bd
00000240: 799b b6bc 10ec 333d 788d a3bd 1aba a4bd
00000250: 7dd3 6bbd f4b7 52bd 4f4b d13d 38fe b1bb
00000260: c980 26bd 33b1 1b3d 7413 debd 49d0 603d
00000270: e9fa d73c 4839 8a3d 2a0b 133d 076b 10be
00000280: a4e9 623d 3124 eabc 3d5a b5bc 7fcd 1f3d
00000290: 9b9b efbd 8cc3 fb3c 2e9d 5a3c 36a0 423d
000002a0: e9ee ec3c a50d 8ebd 0bc7 9d3c 27b4 52bd
000002b0: 7f02 45bd 694e 1abc a87d a1bd 7bb6 b83d
000002c0: f840 243c 5437 923d 89e4 93bd fbe9 003b
000002d0: 5fb7 e2bc 5b18 1e3d 5233 f9bc b27f fb3b
000002e0: efee a33c 06c5 363d 192b 9d3d 2560 423c
000002f0: c7ee bb3c 02a9 dbbc d77a c9bc 562b b7ba
00000300: 048a 3cbc 069f 213c 887d 92bd 8e98 80bc
00000310: ac2e 8dba 5560 963d 96e5 a1bd fd91 bc3c
00000320: 9c9e 883d 9a1d 59bc 8b91 12bd 35e6 b6bd
00000330: 659d 4bbd 163a 9d3d dd53 693d 6e52 03bc
00000340: 3e17 85bd a949 7cbd b910 bc3c 31cb dc3d
00000350: 2d1b 873b 765a 01bd 9073 1abd b51f 923d
00000360: f4e4 a13d fabc efbb 119b 8a3c cdb5 ecbb
00000370: 9865 803d 5295 4d3d 6839 3b3d 870f d9bd
00000380: 3c87 a2bd 30c2 31bd 8b03 1ebd 9ff1 653c
00000390: 5c44 753d 468d 183c 69a7 46bd 84c6 b93c
000003a0: 72bc 6fbc 46e9 d6bc 68a5 44bd 044c b0bd
000003b0: 970b 683c d60c 833d 7487 9a3d 9fd3 0abd
000003c0: 144c e8bd 150c 003d 3ee3 01bc f426 f6bc
000003d0: a1d5 883d 870e a0bd 5f8a fdbc 8270 593c
000003e0: 93d5 8a3b 408e c03c 74f9 cc3d 13f1 1fbc
000003f0: fb88 b2bd dbe7 35be bae3 8bbd b874 1f3d
-0.0456554 0.040415358 0.0030132076 0.0102111455 0.0060982364 -0.0067605646 0.06324049 0.042577196
-0.015627125 -0.06343843 -0.010868363 0.017105712 -0.03846567 -0.01254823 0.048445597 0.033695213
-0.027788652 -0.0032835396 0.026356744 -0.044643074 -0.02669867 0.03866702 0.061347462 -0.049268227
0.023879671 0.053153627 -0.06362274 -0.08500788 0.03430098 -0.08337096 0.024827935 0.036206916
-0.013274207 0.02787835 -0.018513305 0.054460175 0.061617903 0.044234373 -0.0033620226 -0.021388318
-0.016125057 -0.00042378693 0.026618565 -0.003430429 -0.015182245 -0.018195443 0.07448451 -0.06129473
0.04630847 -0.014559823 0.054874353 0.047156613 0.0728359 0.0010701943 -0.13196173 0.0536185
0.004420826 0.042550586 0.023130832 -0.07653282 -0.034494862 0.028893257 -0.037134185 -0.0002461241
-0.091486245 0.11819538 0.092682555 0.0787755 0.07299188 0.036918204 0.034103677 -0.001977964
-0.110508285 -0.1424062 -0.23415038 0.050737653 0.14044563 0.114661165 0.11566319 0.02358593
0.0036326614 0.13721292 0.13544971 0.04201611 -0.031095024 0.01778523 0.12125413 0.0769558
0.05719143 0.0025553098 0.063071564 0.17275934 0.13246374 0.1665724 0.023830503 -0.14151995
0.0061672498 0.011629642 -0.09087794 -0.029177025 0.06732956 -0.07293484 0.021785889 0.015794612
0.018860593 0.0005994666 -0.057633884 -0.0876307 -0.031089578 0.015008468 -0.06569312 -0.034976177
-0.083198436 -0.024739983 -0.08228153 -0.06667779 -0.11291027 -0.08309835 -0.07292549 -0.08279667
-0.088078074 -0.053892266 -0.08064501 -0.15292312 -0.14849946 -0.02850447 -0.016802112 -0.048383523
-0.045365114 0.06944831 -0.018672178 -0.0466962 0.056643743 0.008042236 0.06510307 0.041046117
0.0474707 -0.043087866 -0.066020966 -0.023230359 -0.032607246 -0.010041259 -0.09919942 -0.10450515
-0.022290932 0.0439263 -0.079859674 -0.080433086 -0.057574738 -0.051444963 0.10219442 -0.0054319166
-0.040650163 0.038010787 -0.10843554 0.054886136 0.02636476 0.06749207 0.03589932 -0.14103328
0.0553986 -0.02858171 -0.022137756 0.039014336 -0.11699601 0.030732892 0.013343139 0.04751607
0.028922515 -0.06936196 0.01925995 -0.051441338 -0.048098084 -0.0094181085 -0.07885295 0.090191804
0.010025255 0.07139459 -0.07221324 0.0019670713 -0.027675329 0.038597446 -0.03041998 0.0076751346
0.020011393 0.04462149 0.07674236 0.011863743 0.022941006 -0.026813988 -0.024594707 -0.0013974707
-0.011507515 0.009864574 -0.071528494 -0.015697744 -0.0010771356 0.073425926 -0.07905118 0.023018831
0.06670877 -0.0132516865 -0.03578333 -0.08930627 -0.04971065 0.07677095 0.056964744 -0.008015258
-0.06498574 -0.061593685 0.022957193 0.10780943 0.0041231127 -0.03158041 -0.037707865 0.07134954
0.079049975 -0.007316229 0.016919645 -0.007223821 0.062693775 0.05019123 0.045709044 -0.10598665
-0.0793595 -0.043398082 -0.038577598 0.014034658 0.059879646 0.009311026 -0.0484995 0.022677667
-0.014632331 -0.02623428 -0.048009306 -0.08608249 0.0141629195 0.06398933 0.07545367 -0.033893224
-0.11342636 0.031261522 -0.007927714 -0.030047871 0.066813715 -0.07815271 -0.03094977 0.013271453
0.004236886 0.02350533 0.10008517 -0.009762066 -0.08717533 -0.17764227 -0.06830545 0.03892967

conv2.bias f4 [16]
00000000: 232e 8b3d 0da7 e8bc 3e1d 44bd 467e 04bc
00000010: e072 4d3d 769a 20bd 94ac ac3c f06b 1bbc
00000020: 8880 36bc cdc8 ce3c db8b b03d 75c4 313d
00000030: 8dab a1bc 3cdd 113d 2d62 72bd cee8 0fbd
0.06795909 -0.028399969 -0.04787945 -0.008086747 0.05015838 -0.039209805 0.021078385 -0.0094861835
-0.011139043 0.025242234 0.08620425 0.043400247 -0.019735122 0.035611376 -0.05917566 -0.03513413

conv3.weight f4 [8, 16, 3, 3]
00000000: a45e 503d f6a2 b43c 9232 2bbe c2b2 05be
00000010: 2141 773d c862 663c 7be4 033e c774 523d
00000020: 0cb5 b63d 4d7a 173e 42a4 823d c187 763d
00000030: c2c3 b33c ccbd f33d a12b dabd 5019 833d
00000040: 7d3c 8cbd 3c74 aebd b3a3 c7bd 3802 1fbe
00000050: abd3 163e de0e df3d 03ea bbbd 50c3 e0bd
00000060: f655 a83d d6a6 8e3b 71be e1bd f87a de3d
00000070: 169b 9abd caaa 81bd 8458 da3d 5457 ca3c
00000080: 8131 9abd b191 033e cbaa c3bc 6d61 87bb
00000090: 1918 943d 377a 22bd da45 413e 5ddb 373d
000000a0: 12f3 a83d f05e 25be a52a 15be ae94 cdbd
000000b0: 136d 46bb 3cf3 1cbb 3228 6c3d 85aa eebd
000000c0: 7c66 1b3e 05b9 2d3d 13cc 603c 2bf7 093d
000000d0: b833 fcbc 78f3 c8bd cbb9 b437 a0b7 a6bc
000000e0: 5166 24be 578e 043c 293e 3fbd 215b 383e
000000f0: 8bfe debd 28ea bf3d 8209 07be f340 3ebd
00000100: 84d4 0fbe a5fb bd3c c53e 833d afc5 6d3d
00000110: e84d 993d bc40 ccbc d459 ee3a fad6 15be
00000120: 9c12 8c3c 0bfa aa3d 7f84 7fbd 2579 003c
00000130: 4cf0 ffbb 737c c13d 6722 f83d 3b1a 14bd
00000140: fdd3 3d3c 891e 013e c415 0c3e 036b 213e
00000150: 2f07 e4bd 2616 e7bd 7840 ebbd 83fb e23d
00000160: 7870 d13d 032a 25bd b22d 84bd 2a75 ad3d
00000170: 40ab 863e 7b4f 863d cf02 053e d037 1f3e
00000180: 9843 4abe 58aa 66be 73a0 64be 3c15 543d
00000190: 39d8 633e 5623 ce3d fc4d 013d c2f4 08be
000001a0: e30a 45bb 9105 f53c 0ca2 47be 0f31 bfbd
000001b0: cda3 0b3e 47de 033e 593a 3a3e fb11 8ebb
000001c0: 20ad ddbd f5b2 f2bd 055d 2bbe 7284 49be
000001d0: 535e 37bd b101 393e c968 d9bd dd90 99bd
000001e0: 31a7 b13d 4d7a 2d3d e466 1f3c 23a0 0f3d
000001f0: ab03 dcbd c36f 00be 2f12 28be 24c2 b83c
00000200: 9d7f 093e 4c3b b33d e60c f5bd 2aab 713d
00000210: e543 03bd aeae 15be 6dff 15be 0a0e 23be
00000220: f519 c13d cb5f e4bd f1a6 413d 3594 f03d
00000230: d5e0 c23d 387c 153e 0279 d33d 0868 03be
00000240: 0d5a 093d a667 293d 7299 56be 03aa 163e
00000250: 297f e83c 7f3c 28be 9ac6 cf3d 0afe fabc
00000260: 69b8 82bd b9e7 9bbd 4ba6 f8bc 1021 83bd
00000270: e4c2 8fbd 0a44 03bd cbe2 8a3c 4373 f83d
00000280: 11d0 90bd d483 73bd 9b56 7e3d 2328 11be
00000290: 6bbd 173c 9225 1dbe f0c3 33bd 6b6d aa3d
000002a0: ab69 723d b68b 8b3c 022a 96bd 0b51 b23d
000002b0: f4de 22be 8ed9 ec3c eccd 513d 23d4 f8bd
000002c0: 8a10 21be c7fa c83d 07f1 9dbd 7fcd d83d
000002d0: cf22 803e d779 413e dde9 3d3b eb51 2ebd
000002e0: c1d3 5abc 693e 2abd c9f8 3cbe e006 63bd
000002f0: ebd0 62be 8c60 21be cdfd 92bc 7805 8f3d
00000300: d218 05bd 6ad3 233e 669f 03be 32b4 633d
00000310: e389 89bd 01be 053e a06f 553b c524 a9bd
00000320: 9d0c 23be e712 d7bd 33ab 513e 4d47 9ebc
00000330: 1694 e0bd da1c 2b3e 8ecf a23d d06e 293e
00000340: 0c87 e5bd 5a1a 0e3e 87ff a63c 77ec c33d
00000350: 3e13 e33c 7b9a 2ebe ff8a 7f3d 2f6b 2f3d
00000360: 26e3 bb3d 0dbe f0bd dd6d 0f3d 9c80 753d
00000370: 528a 333d 5f21 4a3d dcc4 133e f015 3d3d
00000380: a432 15be 8df9 113e 102a 22bd 1c06 15be
00000390: 3f83 f53d e259 003e 1460 bebc 8cea 4b3d
000003a0: d64a e9bc dfdf 4f3d df62 333e a22a 493e
000003b0: 96bc a73d b489 9fbd 8657 0d3d 191f 08bd
000003c0: cf52 4abe a441 30be b001 79bd e259 3c3d
000003d0: bb4f 5fbd afd8 953d 2b21 233e c157 adbd
000003e0: 9697 55bd 9572 0b3e 75cd 883d c145 7abe
000003f0: 9362 1e3e 322c c33d 3938 d23c 2fd7 fcbc
0.050871506 0.022050362 -0.1671851 -0.13056472 0.060364846 0.014061637 0.12880127 0.0513809
0.08921251 0.14792748 0.06378986 0.06018806 0.02194393 0.11901435 -0.10652853 0.06401312
-0.06847475 -0.08518264 -0.0974802 -0.1552819 0.14729182 0.108915076 -0.091754936 -0.10974753
0.08219521 0.0043533845 -0.11022652 0.10863298 -0.075491115 -0.063314036 0.10661414 0.024699844
-0.07528973 0.12848546 -0.023885151 -0.004131487 0.07231159 -0.039667334 0.18874303 0.044886936
0.08249487 -0.16149497 -0.14567049 -0.10038124 -0.0030277416 -0.002394869 0.05765552 -0.11653618
0.15175813 0.042412776 0.01372053 0.033682983 -0.03078638 -0.09812063 2.1544189e-05 -0.020351231
-0.16054656 0.008090577 -0.04669014 0.18003513 -0.10888394 0.09370834 -0.1318722 -0.04644866
-0.14045912 0.023191283 0.06408457 0.058049854 0.074855626 -0.024933212 0.001818473 -0.14632788
0.017098717 0.08348473 -0.062382217 0.007841383 -0.007810628 0.09447565 0.12115937 -0.036157828
0.0115861865 0.12609304 0.13680178 0.15763478 -0.11134183 -0.11283521 -0.11486906 0.11083128
0.1022653 -0.04032327 -0.06454028 0.08469613 0.26302528 0.065581284 0.12989353 0.15548635
-0.19752347 -0.22525918 -0.22326832 0.051778063 0.22250451 0.100653335 0.031568512 -0.13374618
-0.0030066303 0.02990988 -0.1949541 -0.09335529 0.13636704 0.12877761 0.1818632 -0.0043356395
-0.108240366 -0.118505396 -0.16734703 -0.1967943 -0.04476769 0.18067051 -0.10615689 -0.074983336
0.08674467 0.042352963 0.009729121 0.035064828 -0.10742887 -0.12542634 -0.16413186 0.022553511
0.13427587 0.08751544 -0.11965351 0.059001125 -0.03204717 -0.14617416 -0.14648218 -0.15923324
0.09428779 -0.111510836 0.04727835 0.11747018 0.095155396 0.14598167 0.10325815 -0.12832654
0.033533145 0.041358612 -0.20956972 0.14713292 0.028380947 -0.16429327 0.10145302 -0.030638713
-0.0638283 -0.07612557 -0.030352732 -0.064027905 -0.07019594 -0.03204731 0.016953846 0.121313594
-0.070709355 -0.059451893 0.062094312 -0.14175467 0.009261469 -0.15346363 -0.043888032 0.08321651
0.059182804 0.017034393 -0.07332231 0.08706864 -0.15905362 0.028912332 0.051221773 -0.12149837
-0.15728965 0.09813457 -0.07711988 0.1058607 0.25026557 0.18894134 0.0028978505 -0.04255859
-0.01335615 -0.041563425 -0.18454279 -0.05542648 -0.22150008 -0.15759486 -0.017943287 0.06983465
-0.032494374 0.15998617 -0.12853774 0.05559177 -0.06715753 0.13060762 0.0032567754 -0.08258966
-0.1592278 -0.10501652 0.20475464 -0.019321108 -0.10965745 0.16710225 0.07949744 0.16546178
-0.11207399 0.1387724 0.020385517 0.095665865 0.027719136 -0.17051117 0.062388416 0.042826828
0.091741845 -0.11754999 0.035016883 0.059937105 0.043833084 0.04934823 0.14430565 0.0461635
-0.14570099 0.14255352 -0.039590895 -0.14553112 0.11987924 0.12534288 -0.023239173 0.04978423
-0.028478067 0.05075061 0.17518185 0.1964517 0.08190267 -0.07789937 0.034507297 -0.033232782
-0.19758151 -0.1721254 -0.060792625 0.045984156 -0.054519396 0.0731672 0.15930621 -0.08464003
-0.052146517 0.13617928 0.06679813 -0.24440672 0.1546729 0.09529914 0.025661575 -0.030864326

conv3.bias f4 [8]
00000000: 1dc5 833d 86ea 3e3d 9cdf ee3c 6bfa 09bc
00000010: 77f6 94bd c484 993c 23aa 8e3d 50b8 91bd
0.06434081 0.046610378 0.02915936 -0.008421521 -0.07273572 0.018740065 0.06966045 -0.07115233

convt1.weight f4 [8, 8, 3, 3]
00000000: 85a9 233e 9520 bb3e e1d1 e5bd 3a7d a3be
00000010: 6e35 ce3c c8c7 0a3e e1a8 b43d 5cdc ef3c
00000020: 1472 753d c3ca 923e 7fda 5e3d cec1 1b3e
00000030: 2c85 4cbe b8e5 30be 995c 6cbe c24c 3b3e
00000040: fbd6 aabd fe12 123e 1da2 28be 1a5e e53c
00000050: 6fc8 75bd 2295 813e 058e 52bc b744 91be
00000060: 3f94 d6bc 07b4 f73d 21a9 b53e dd8b 3c3d
00000070: 73dd 123e 027e 673e 4f88 413e fa48 bf3e
00000080: 4a35 d73e c304 91be c963 08bd 7fa7 c2bd
00000090: bfa3 cdbd 572c 343e 31e9 babc ceba 4dbc
000000a0: 854d d4be 87f9 013e 17cf 1d3e eae5 e9bd
000000b0: da8b e4bd 460a 3b3e 93f0 353e 43f1 633d
000000c0: 6f6a e1bb 509a 393e ba85 98bd 16db 853e
000000d0: 1507 723e 16cc 333d f7fe 05bf 7a95 a8be
000000e0: d0ac a8bd c7eb 963b 56ea 5b3e fcd6 38bd
000000f0: bf2e 0fbe b540 d13b 4fa0 7bbd 14f9 09be
00000100: ab33 873d 0860 50be 5b54 b13e 9257 37bd
00000110: f0ca 9a3e 63d9 42be ec96 ab3e 55f1 3abe
00000120: 771c c73e 1e83 083e dcb1 273e 74db 0d3e
00000130: 62eb 5d3d ca2e c33d 270e 9d3d f878 433e
00000140: 2485 bfbd d39d 98be d8b8 52be 47fe 2abe
00000150: 3024 1bbe 91b4 60be 72f3 94be 422c 1dbf
00000160: 01b9 3abe 7f8c f4be a20c 883d 4ee6 aa3e
00000170: 78cf fbbc ed17 813e 3ba5 903d c9ed 7ebe
00000180: 555e 49bb ea67 5d3d 0e5a 2fbe 184c d9bd
00000190: 925a b73d 510e e6bd 714c a1be b33b b1be
000001a0: 8678 00bf c7d4 89bc 0c8e a53d 9ab6 04bf
000001b0: 25ec 693e b208 e13e d302 143e 96da af3e
000001c0: 2cb8 bbbe 3c00 893d 16c0 1cbe 07de 873d
000001d0: fa3c 2fbe 164e 9fbc a230 bdbd 74f2 b13e
000001e0: 6746 c1bd 4747 273d 554b 963e d7c0 a33d
000001f0: 486f 86bd a7ae 503e 6411 7dbe 6bcf 7e3c
00000200: ab97 39be ecee 923d cb59 0bbf 9d77 39be
00000210: a8f1 88be 0fdb 2d3d 7467 15be 6d00 93be
00000220: 5362 e0bd 2e81 bdbd 5037 3c3c ca76 e5bb
00000230: 310e a93e 0445 8fbe 1e97 033f a7c1 5dbe
00000240: 93c7 343e 86f0 3b3e 3ee3 70bd b581 623e
00000250: 3376 963e dcdd 8a3e d2ba 7b3e f15d 063e
00000260: a847 e03d b546 093e a2bf 89bd 34be 343e
00000270: f046 02be 5c9c 3b3e bdfe 2fbd 65e3 4cbe
00000280: b874 45be 0077 1b3e 0a90 593c 3d57 c23d
00000290: b1dc b23e e7e6 cc3d e173 0c3e a28c e83d
000002a0: f130 9dbe ec75 1ebe dc7c 0f3e 69a1 abbc
000002b0: 455c 78be 6bfd d4bb 93c9 34be e010 12be
000002c0: c013 36bd c0e9 d53d b69c 9abd 653a 103e
000002d0: 6994 71be 55de 17be 404b 56be a6eb eb3d
000002e0: b3ba 883e 4bdb ddbd 7d0b 89be 9854 343e
000002f0: ffd8 7ebd a83d 273d d8a9 fb3d 2a10 d4bd
00000300: 5033 a73d 5e98 87bd 00a7 6bbe b474 bbbd
00000310: e02e d5bd bf8f da3c 272f 0ebe e788 3bbd
00000320: a98f 32bd 5753 473e 8de7 cdbd 8871 88bd
00000330: 59d3 2a3e 9e41 7d3d 6437 e73c 62ac c63d
00000340: aecc fcbc de69 083e 5e16 fcbd bcd8 3d3e
00000350: b49d 8dbd 6178 f5bc a41b 72be 967c 89bc
00000360: acf3 5a3d 2f19 f6bd 03af 84be b709 0c3e
00000370: df2b 2f3e bd48 7b3d 1152 f9bd 6b86 433d
00000380: 7d29 e3bc a4c5 133d f744 933e a8a5 4f3d
00000390: 1e09 83be 6e3f a13e ffd1 9f3d 0cb2 e73d
000003a0: 286d dbbd f82f d1bd 434d f2bd c3aa 16be
000003b0: c839 70be 2ec9 60bc 363f 7e3e bf0b 7f3c
000003c0: b0a0 f2bc c412 f1bd 6c84 fabc 625d 0cbe
000003d0: 5ab8 f3bd 5f1f 4abd eee6 bebd c993 f7bd
000003e0: 4303 d6bd c719 37be a1f8 52bd 498b b13d
000003f0: a244 1fbd 1f14 52be dd71 29bc 9389 00be
0.15982635 0.36548296 -0.11221672 -0.31931478 0.025171962 0.13552773 0.088212736 0.02927988
0.059923247 0.2867032 0.054407593 0.1521065 -0.19972676 -0.17275131 -0.23082198 0.18291
-0.083417855 0.14265057 -0.16468091 0.027998973 -0.0600056 0.25309092 -0.012851243 -0.28372738
-0.026193736 0.12094884 0.35480598 0.04603182 0.14342289 0.22606662 0.18899654 0.37360364
0.42032844 -0.28323945 -0.033298288 -0.095046036 -0.10040998 0.1759504 -0.022816272 -0.012556745
-0.41465393 0.12692843 0.1541103 -0.11420806 -0.11159487 0.18265638 0.17767553 0.055650007
-0.006879143 0.18125272 -0.07447381 0.26143712 0.23635514 0.043895803 -0.5234217 -0.32926542
-0.08236086 0.0046057436 0.21476111 -0.0451269 -0.13982676 0.0063858875 -0.06143218 -0.13473922
0.06601652 -0.20349133 0.3463467 -0.044761248 0.30232954 -0.19028239 0.33513582 -0.18256123
0.38888904 0.13331267 0.16376442 0.13853246 0.054179557 0.09530409 0.07668715 0.19089115
-0.093515664 -0.2980791 -0.20578325 -0.16698562 -0.15150523 -0.2194388 -0.29091984 -0.6139566
-0.18234636 -0.4776344 0.066430345 0.33378834 -0.030738577 0.25213566 0.07062765 -0.24895395
-0.0030726392 0.05405418 -0.17124197 -0.10610217 0.08952822 -0.112331994 -0.31503633 -0.3461586
-0.50183904 -0.016825093 0.08083734 -0.5184113 0.22843988 0.43951946 0.14454202 0.34346455
-0.3666395 0.06689498 -0.1530765 0.06634145 -0.17113104 -0.019446414 -0.092377916 0.3475529
-0.09437256 0.04083946 0.2935435 0.07995766 -0.06564194 0.20379125 -0.24713665 0.015552382
-0.18124263 0.07174477 -0.5443389 -0.18112035 -0.2674687 0.04244524 -0.14590245 -0.28711262
-0.10956254 -0.09253155 0.011487797 -0.007002686 0.3301864 -0.27982342 0.5140246 -0.21655904
0.17654257 0.18353471 -0.058810465 0.22119792 0.29387054 0.2712239 0.24582985 0.13121773
0.10951167 0.13405879 -0.06726004 0.17650682 -0.12722373 0.18321365 -0.042967547 -0.20008619
-0.19282806 0.15182114 0.0132789705 0.09489296 0.34934 0.100049786 0.1371608 0.113549486
-0.30701402 -0.15474671 0.14012474 -0.02095099 -0.24253948 -0.0064999363 -0.1765502 -0.1426425
-0.04445243 0.10444975 -0.075494215 0.14084776 -0.2359177 -0.14830907 -0.20927143 0.11519556
0.2670494 -0.108328424 -0.26766577 0.17610395 -0.062218662 0.040830284 0.122882545 -0.103546456
0.08164084 -0.066208586 -0.23012924 -0.09153119 -0.10409331 0.026679872 -0.13885175 -0.045784857
-0.043594036 0.19465385 -0.100539304 -0.06662279 0.16682185 0.061830156 0.028224654 0.09700848
-0.030859318 0.13321635 -0.12308954 0.18539709 -0.06914845 -0.029964628 -0.23643357 -0.01678304
0.05345504 -0.12016522 -0.25914773 0.13675581 0.17106579 0.061348666 -0.12173856 0.047735613
-0.027729744 0.036077157 0.28763554 0.05069509 -0.25592893 0.31493706 0.078037255 0.113132566
-0.10714179 -0.102142274 -0.11831143 -0.14713578 -0.23459542 -0.01371984 0.248288 0.015566765
-0.029617637 -0.117711574 -0.030580722 -0.13707498 -0.11900397 -0.049346324 -0.0932139 -0.12088735
-0.10449841 -0.17880927 -0.051506642 0.08669145 -0.038883813 -0.20515488 -0.0103420885 -0.1255248

convt1.bias f4 [8]
00000000: b058 9dbd 57c6 af3c bdfc 953c 2512 9b3d
00000010: 0b9f 74bc 6023 523d c108 b23d 1f5f 37bd
-0.076829314 0.02145688 0.018308992 0.0757182 -0.014930497 0.051303267 0.08693076 -0.04476845

convt2.weight f4 [8, 16, 5, 5]
00000000: 33e9 57be 0e62 87be 57da 94be 95a4 61be
00000010: fa7f d4be af27 01bd 6fa7 b8bd ca27 c03d
00000020: 3679 2cbe 5e75 06be b3c8 2bbb f212 e43c
00000030: 82e0 32be c045 3ebd 70ef cebd 65c8 883c
00000040: 9a0a 7fbd 8667 183d 1bcc 54bd 6dc3 bbbd
00000050: 549c 373e 842d 9ebc b942 943d 0d9e 02bd
00000060: 8dcf cf3d db96 81bd 1f92 a83c 85f5 a53d
00000070: 7e88 3c3d 359f 273a af0c 2b3d 00f1 14bd
00000080: 805a 703c e4ff 783d b018 bc3d f67f 2f3d
00000090: e72e c93d 4a65 f23d c770 013e b796 43bb
000000a0: b7ec b23c 2214 fc3c 7aa7 6a3d f9ef 6d3d
000000b0: a7a5 4bbb 025f 5ebc d494 dbbc 092b 903d
000000c0: 60e2 a8bc fd47 653d 38da 3fbf 89a8 d7bc
000000d0: fa8a d2be f869 203d c95c 4cbe 57e8 e33a
000000e0: f297 05bf 9504 ebbd efaa e5bc 4683 7ebd
000000f0: 9f04 90be 50fa 19bc bfd6 0abe 0e30 5ebd
00000100: 5970 d5bc 87db 943d 1e5e 84be 26be e9bd
00000110: 9c6d cbbe 15ea 90bd 55aa 393a e356 4dbd
00000120: 9a90 ee3d d995 03bd cdac 983e 1c64 2e3d
00000130: a668 eebc bc6f b5bd 0917 ffbc a3e5 b7bc
00000140: cf07 5f3d 74b5 113c cabf bfbd 88a5 1dbd
00000150: bd74 9abd 42c1 113d 2d86 00be 23e6 efbd
00000160: c8da dd3a 5957 e1bc ac5b 81bc 07f2 d2bd
00000170: d711 f0bd a735 8bbc be6c c5bd c090 013d
00000180: a2b3 19bd e0cd d9bc ba25 8f3c 94a7 04be
00000190: 57fc 06bc 865e 453a 1088 9e3b 7085 cf3d
000001a0: 1dc8 f7bc e514 f8bc 1b80 22be dcc7 9cbd
000001b0: 75d0 b4bd 8ed4 b6bd 5aa7 18bd d982 20bd
000001c0: f4be 6c3b 70cc 583d 75e2 e2bd 66d0 8fbd
000001d0: a8de 0a3d 4a2a 0fbc f0f0 c4bd b2ac c33d
000001e0: 2206 d9bd 89e1 86be 3e38 c6bc 9415 e0bc
000001f0: 0b3e 9bbb 0121 353c df45 bcbc 7b9d c2bd
00000200: 79ff 1c3b fe35 17bd c39f 223d fa65 7b3d
00000210: 1d92 8f3c 66d2 51bd 8626 52bd 424c 073d
00000220: f313 903d 1078 54bd 4418 d9bd 9908 f13d
00000230: feb5 93bc 014e 993d 5f45 c83d c022 a0bd
00000240: f319 1cbb 14a6 b1ba beed f3bd 6ada 0b3d
00000250: 8eeb 71bd 830b 5dbd b6a2 183d 25c6 763d
00000260: 1ea2 61bc 5fba d13c 0ba9 723d 8a5a f33c
00000270: fb87 413d 8d8b ef3d 6b62 623d 57bf 17bd
00000280: 982f 15bd 36a1 ce3d e2c0 073e 8e8b 4bbd
00000290: 6730 5f3d 836f 17bd b9f8 d63d b76e 2bbd
000002a0: 570d 96bd 0d7b c73d daed 7fbc 2e85 5dbc
000002b0: ab4e d23d 66dd 23bb 20f4 893d c288 b3bd
000002c0: 21bc 9bbd 6561 6f3d 1f52 53bd 8dce fcbc
000002d0: b892 cebc 3b16 003c 01f0 c0ba 6b0f 53bd
000002e0: 8b28 c23c dfdd a6bd c71b 1dbd f355 b8bd
000002f0: 663b 263d dacc 09bc f61a 7d3c 7d91 9ebd
00000300: 027e 5a3c f47f cc3d 69c8 aabc 1ac7 ccbd
00000310: 6b77 8ebc 4131 21bc eccb 753d 0082 c53b
00000320: 2e7e f03c 76e7 1c3d 62c9 bdbd 17a2 5abd
00000330: 3d01 28bd 8443 bdba ccda 51bc ca62 d5bc
00000340: 10a3 823d edc7 59bd 7f63 fe3b 2750 40bd
00000350: 9cf1 9cbd e766 2ebd f946 24bd 8e4d 423c
00000360: b4b9 b73d c8ab a2bc c7b4 60bd e2a6 82bd
00000370: 1d9f 8cbc 1bb7 ffba c11b aabd 6255 5e3d
00000380: 8f7b c73c c175 e83c 9e02 ebbd f48b 0f3c
00000390: 5081 bcbc ab33 2cbb 7094 283b 2d03 c53b
000003a0: 2f00 75bc 9637 a93b 346b 08bc 455e dcbd
000003b0: 6fd0 b5bd 8e64 57bd da44 893d d190 893d
000003c0: 3579 e4bc fcf5 34bd 8c68 873d 0187 543d
000003d0: e2f5 41be 3dad 4a3c 1cea 363d 7019 82bd
000003e0: d3e3 fcbd 5de4 223c 3674 0cbd 8cc0 1dbd
000003f0: 255e 513d 3e85 bcbc c3fa 3dbd 267e 703d
-0.21085052 -0.26441997 -0.2907283 -0.2203544 -0.41503888 -0.031531986 -0.090163104 0.09382589
-0.16843113 -0.1313071 -0.0026212155 0.027841065 -0.17468455 -0.046453238 -0.10104263 0.016697118
-0.06226597 0.037208103 -0.051952463 -0.09168134 0.17930728 -0.019308813 0.07239289 -0.03188901
0.10147009 -0.063276015 0.020577488 0.0810347 0.046028607 0.0006394268 0.041760143 -0.036362648
0.014670014 0.06079091 0.09184396 0.042846642 0.09823399 0.118357256 0.12640677 -0.0029844472
0.02184139 0.030771319 0.057288624 0.058090184 -0.0031074078 -0.013572456 -0.026804365 0.07039458
-0.020615757 0.055976856 -0.7494235 -0.026325481 -0.41121656 0.03916356 -0.1995727 0.0017387968
-0.52184975 -0.11475483 -0.028035609 -0.06213691 -0.28128526 -0.009398058 -0.13558482 -0.054245047
-0.026054548 0.07268434 -0.25853056 -0.11413221 -0.39732063 -0.070758976 0.00070825714 -0.05013169
0.11648674 -0.032125328 0.29819337 0.04257594 -0.029102635 -0.08859202 -0.031138914 -0.022448367
0.054450806 0.008893359 -0.09362753 -0.03848794 -0.07541797 0.035584696 -0.12551184 -0.11713817
0.0016926164 -0.02750747 -0.015790783 -0.10300069 -0.11722153 -0.016993357 -0.096398816 0.031632185
-0.037524827 -0.026587427 0.017474044 -0.12954551 -0.008238873 0.00075290387 0.0048379973 0.10132873
-0.030246789 -0.0302834 -0.15869181 -0.07655308 -0.088288225 -0.0892726 -0.037268974 -0.039187286
0.003612456 0.05292934 -0.110783495 -0.07022171 0.033903748 -0.00873811 -0.09616268 0.095544234
-0.10596873 -0.26343945 -0.02419674 -0.02735404 -0.0047376207 0.011055232 -0.022982536 -0.09502693
0.0023955985 -0.036916725 0.039703142 0.06137655 0.017525727 -0.051226042 -0.05130627 0.03303171
0.07035055 -0.051872313 -0.106003314 0.11769218 -0.018031117 0.07485581 0.097788565 -0.07819128
-0.0023819178 -0.0013553523 -0.1191058 0.034143843 -0.059062533 -0.053966057 0.03726455 0.06024756
-0.013771562 0.025601564 0.059243243 0.029706258 0.04724882 0.11696539 0.05526964 -0.03704771
-0.036422342 0.10089342 0.13257173 -0.049693637 0.05448952 -0.03697158 0.10496659 -0.041853633
-0.07326763 0.09740267 -0.015620673 -0.013520522 0.10268911 -0.002500379 0.06736016 -0.08766319
-0.07604242 0.058442492 -0.05159199 -0.03086021 -0.025216445 0.0078178 -0.0014719964 -0.051528376
0.023700973 -0.08147787 -0.03835657 -0.090007685 0.04058399 -0.008410657 0.0154483225 -0.077425934
0.013335707 0.099853426 -0.020847516 -0.09998913 -0.017390927 -0.009838403 0.06000893 0.00602746
0.029357042 0.038306676 -0.09266926 -0.053377237 -0.041016806 -0.0014439677 -0.012808513 -0.026048083
0.06378758 -0.05316918 0.0077633257 -0.04695144 -0.07663271 -0.042578604 -0.040106747 0.011859311
0.08970967 -0.019857302 -0.054859903 -0.063794866 -0.017165715 -0.0019509526 -0.08306075 0.054280646
0.02435091 0.028376462 -0.114751086 0.008761395 -0.02301088 -0.0026275914 0.0025723241 0.0060123415
-0.014953657 0.005164097 -0.0083263405 -0.10760168 -0.08877646 -0.05258613 0.067025855 0.06717075
-0.027889827 -0.0441799 0.066117376 0.051886562 -0.18941453 0.012370405 0.044656858 -0.06352508
-0.123481415 0.009942141 -0.034290515 -0.038513705 0.051115174 -0.023012754 -0.046381723 0.058714055

convt2.bias f4 [16]
00000000: c9eb 5a3d 11af b73d 2716 a13c 445b ab3d
00000010: bdbc 333d 531f 683d 364d a53d 148e 7dbc
00000020: 7fb6 c33d 07f6 353d 1b02 15bc 1525 19bc
00000030: a97c e43a f401 053d d4a6 e33b 27d5 823d
0.05344752 0.08968938 0.019663883 0.08367017 0.043881167 0.056670498 0.080713674 -0.015475769
0.09556293 0.044424083 -0.00909474 -0.00934722 0.0017432171 0.032472566 0.0069473777 0.06388312

convt3.weight f4 [16, 32, 9, 9]
00000000: b323 a9be aa8f 13bd 3215 e4bd 0d58 76be
00000010: 15cd 32bd c7eb 473d 89af 3bbe 8aaf df3c
00000020: 8371 85bc 0a2a a0bd 944c 4e3e 10f0 05bd
00000030: 926c 853d ebfa 75be d06d 123d 749c b13d
00000040: ca77 f83d 2345 d0bd bc4a 58bc 32ee 063e
00000050: 6c63 c9ba 0f79 0fbd d682 c7bc a14a 613d
00000060: 163a 873c b7c6 72bd 71bc 30be b0be 83be
00000070: f502 923c 1c91 d93b 3f45 d7bd d5a1 f53c
00000080: f4a7 dc3d 33d8 50be 0e96 fd3c 4fa0 3a3c
00000090: f541 cdbd 79df 4fbd 1a7d c9bc 1380 0a3d
000000a0: ebe2 59bd a2ce 1bbb d6ee ad3d f99a 17bd
000000b0: 9cef 8ebd 67f6 0abd 35eb 28be d9fe 013e
000000c0: 251a cebc baa5 ca3d 0f0f 923d 45b3 a9bc
000000d0: fc88 67be c919 063d 57ce 9f3d 5ba7 38bd
000000e0: 46a4 5f3d 7649 e53d d208 47bd b42a ec3d
000000f0: b9e7 d53d a052 933c e489 7d3d d108 26be
00000100: d2b1 d4bd d135 abbd 848d fcbc ae1f 52bd
00000110: 5f70 94bd f7b9 46be a979 d1bd 5446 b1bd
00000120: 2d44 36bd a695 3fbd 68b4 77be 9251 dfbb
00000130: 5490 d53d 9a1d 9eba f651 d33b fd00 183d
00000140: ac66 a2bd 6100 f0bd 6468 16be 8e7e 503d
00000150: 1e2c 49bd 22b9 1bbd 8279 113d d091 a13c
00000160: ba23 84be 3c8c 863d f0e5 06bb a608 f83c
00000170: c2fb e13b 2142 a5bc 41ee 653d 093a a93c
00000180: e8b0 0439 f834 c5bc 353a eabc 4b7f 69bb
00000190: 2930 5ebd a57f 5cbb 287b 813c 170c 9cbd
000001a0: a4d8 7ebb 0387 8e3c dc9e 19bd 7cfc 803c
000001b0: 09d9 76bd 234a 6cbd de52 c13d 71f9 85bd
000001c0: 49d1 80bd c0db 6a3c 064e 04bd bd2d 24bd
000001d0: 3f6a d93d e5b4 ac3c 55c5 f33c a4be b23a
000001e0: 966f 6b3c f4b1 9b3d 2c29 593b 61d6 713c
000001f0: 3ff2 023d 68fa a7bc e2f5 a53b 3db1 123d
00000200: e34b 2c3c 0644 e2bb 8da9 2c3d 9ef4 05bd
00000210: c21d 2cbd f955 673c 8ded a33c 97f7 86bd
00000220: 3473 dbbd 3fe3 723d f450 36bd b4ce 02bd
00000230: 0683 d93c 94b5 9cbc 5cdb 18be 555e 343d
00000240: 3479 26bc b758 aa3c e4b2 e4bb 40da bb3c
00000250: 0f25 033d a3c7 cd3c 40d1 60bc dcd2 58bc
00000260: cd68 15bd 90b3 993c 1cde ca3c 9456 50bc
00000270: bd2f 31bd aff8 fc3d ed7f 523c 37e6 afbc
00000280: 899f 113c 5836 a3bc 26d4 4dbd d19e 53bc
00000290: f360 a4bd 0426 d43c 7377 06bd ee1e 3bbd
000002a0: 7e4a 75bd e63f be3b 6ea0 65bd 9dc1 26bc
000002b0: 1a7b adbc 4eeb 59bd 602f 41bd 5fe8 af3b
000002c0: 69a3 bcbd 054f febc f711 c03c 7509 2cbd
000002d0: edd0 ec3c b1bf d5bd be2d 77bd 0b67 b8bc
000002e0: c76f dbb9 a9f8 1ebd c374 2ebc d024 a2bd
000002f0: feb8 3bbe 7357 c3bd 8d19 59bd 6a41 0bbe
00000300: dd4d 89bd fa9b 56bd 910d b0bd 7a67 0ebd
00000310: 047d e0bc 9d50 0fbd e553 51bd 676b 8bbc
00000320: 1a12 56bd 6e1a 9cbc 73dd e339 6ce9 27bc
00000330: a905 1ebd dfa3 023d bfcd 88bd 4204 35bd
00000340: 5f84 6dbd e404 dbbc 1253 6cbc 02d3 04bd
00000350: e0be ebbd 7296 153c 54e3 c0bd 2a4a 29be
00000360: e801 59bd 1d85 62bd 42b9 b5bd 9ae7 a8bd
00000370: 60c8 c7bc 86af 30be 2501 b1bd fdb7 53bd
00000380: a465 06be ff20 85ba ba0d f33c 91fd 31bd
00000390: ff85 24bd 64ba 32bc bd1c 183c 3548 f4bc
000003a0: d0ad 0c3d fabe 56bd 1eff 733c 5409 ebbc
000003b0: db44 03be 5dce 74bd c048 a1ba 12d7 f4bd
000003c0: fbae 4dbd ed1a b8bd 13af 05be 08b5 13be
000003d0: 2bb4 2bbe 16fa 7a3c cac1 30bd c8c3 1abe
000003e0: 46b2 d0bc e6de b6bd 7f5f 1abe f3d2 8e3c
000003f0: df64 a73b 5d3f 82bd b932 c0bd 089a 5cbc
-0.3303505 -0.03602568 -0.11136855 -0.24057026 -0.043652613 0.04880884 -0.1832868 0.027305383
-0.016289478 -0.07820518 0.201464 -0.032699645 0.06514849 -0.24021499 0.035749257 0.08672419
0.12132223 -0.10169437 -0.013201412 0.13176802 -0.0015364713 -0.03502756 -0.02435438 0.055002812
0.01650719 -0.05927154 -0.17259385 -0.2573142 0.017823676 0.006639613 -0.105112545 0.029984394
0.10774222 -0.20394973 0.03095534 0.01139076 -0.10022346 -0.05075023 -0.024595786 0.033813547
-0.05319492 -0.0023774286 0.0849282 -0.037013028 -0.069792956 -0.033926394 -0.16495974 0.12694873
-0.025158951 0.09894891 0.071317784 -0.020715365 -0.22610849 0.032739434 0.07803028 -0.045081478
0.054600023 0.11195652 -0.048592396 0.115315825 0.10444588 0.017983735 0.06189908 -0.162143
-0.10385479 -0.08359874 -0.030829199 -0.051299743 -0.072479956 -0.19406877 -0.10228283 -0.08655992
-0.04449861 -0.046773575 -0.24189913 -0.006815144 0.10427919 -0.0012063265 0.0064489795 0.037110317
-0.07929739 -0.11718822 -0.1468826 0.050901942 -0.04911434 -0.038018353 0.03551627 0.01972285
-0.25808507 0.06569716 -0.002058383 0.030277561 0.006896467 -0.020173134 0.05613542 0.020657556
0.00012654404 -0.024073109 -0.028592208 -0.003562885 -0.054245148 -0.0033645418 0.015805796 -0.076194935
-0.0038886452 0.017398363 -0.037505016 0.015745394 -0.060265575 -0.05768789 0.09439634 -0.06541718
-0.06289918 0.014334619 -0.03230097 -0.040082682 0.10615968 0.021082351 0.029757181 0.0013637138
0.014369866 0.07602301 0.0033136113 0.014760585 0.031969305 -0.020505145 0.005064712 0.03581356
0.01051614 -0.0069050817 0.042153884 -0.03270399 -0.042020567 0.014119619 0.020010734 -0.06590193
-0.107153326 0.05929875 -0.044510797 -0.03193541 0.026551735 -0.019129552 -0.14927429 0.044035275
-0.010160733 0.020794256 -0.0069793332 0.022931218 0.032017764 0.025119608 -0.013721764 -0.013233867
-0.0364769 0.01876238 0.024764113 -0.012715954 -0.043258417 0.1235212 0.012847883 -0.02147208
0.008888134 -0.019923374 -0.05025115 -0.012916283 -0.08026304 0.025897034 -0.03282876 -0.045683794
-0.059885494 0.005805957 -0.0560612 -0.010177997 -0.021176863 -0.05320292 -0.04716432 0.005368277
-0.092108555 -0.031043539 0.023446066 -0.042001206 0.028908217 -0.10436953 -0.060346358 -0.022510072
-0.00041854216 -0.03881136 -0.010647955 -0.07917178 -0.18332288 -0.09538164 -0.053002883 -0.13599172
-0.06704304 -0.052394845 -0.085963376 -0.03476665 -0.027403362 -0.03498899 -0.0511054 -0.017018987
-0.052263357 -0.019055571 0.00043461806 -0.010248523 -0.038579617 0.03189456 -0.06679868 -0.044193514
-0.057987567 -0.02673573 -0.014424102 -0.032427795 -0.11511016 0.009130107 -0.094183594 -0.16532198
-0.052980334 -0.055302728 -0.08873226 -0.082472995 -0.024387538 -0.17254457 -0.086427964 -0.051689137
-0.1312471 -0.0010156928 0.029669631 -0.04345471 -0.04016685 -0.010908697 0.0092841955 -0.029819587
0.034345448 -0.052428223 0.014892368 -0.028690971 -0.12819235 -0.059767116 -0.0012305006 -0.11955084
-0.050215703 -0.08989511 -0.13055067 -0.14424527 -0.16767947 0.015318414 -0.04315356 -0.15113747
-0.025475632 -0.08929233 -0.15075491 0.017434573 0.0051084603 -0.06359742 -0.093846746 -0.013464458

convt3.bias f4 [32]
00000000: 63c5 5eba ac86 f3bc 5280 39bd f286 b23c
00000010: fe04 9c3d 87b6 4c3d 1757 c3bb 029d 953d
00000020: 6461 703d 3977 d43d a732 32bd 4f6e 963d
00000030: e377 b73d 496f d4b9 1523 c83d f9cc 853d
00000040: 16bf f4bc f4e9 833a 411d 0b3c e2f1 7cbc
00000050: 37f2 b83d e0ad d33d 93aa 9a3d 8a61 b43d
00000060: 9a78 8b3d 79ca 1c3d a9b7 38bc 8273 583b
00000070: 36f0 bf3b 96f4 893d 7d6e 5ebc 43d2 71bc
-0.0008498041 -0.029727302 -0.04528839 0.021792863 0.0761814 0.04997876 -0.0059613097 0.073053375
0.05868663 0.103743024 -0.043505337 0.073452584 0.089584135 -0.00040518705 0.09772316 0.06533236
-0.029876273 0.001006423 0.008490861 -0.015438529 0.09030574 0.103358984 0.07552066 0.088076666
0.06810112 0.03827903 -0.011274257 0.0033027832 0.005857493 0.06736104 -0.013576147 -0.014759603

pos_output.weight f4 [1, 32, 2, 2]
00000000: b8fe 73be d45d 42be adee dd3d 2715 183d
00000010: f393 e2bd 166a f63d 4c2d 1abd 67e4 a53d
00000020: 5816 1ebe 2321 28be 0bdf cbbd 036f 1ebe
00000030: b439 3fbe c0ed 943d 523c 36be 210f 373e
00000040: 89ca eb3b 5e84 013d 5fba 31bc 57d7 b43d
00000050: abad 19be 5ed5 d1bd 7013 373e ead0 10be
00000060: dd0c 66be 5503 bdbd 6f55 62be a369 02be
00000070: 346e 32ba a83d 7ebd 87fa c3bd 096c 4e3e
00000080: ee83 d23e f4fe d43e fee9 c63e f85f bc3e
00000090: a2d6 363d d623 e63d 360c 103e d1ef c03d
000000a0: d589 2d3b 188e 333e 4bf0 493e f313 4fbd
000000b0: 4544 e93e 26ce 063f 67d9 af3e 88c1 6f3e
000000c0: be7b 8abd 4392 e5bb e205 0b3e ff38 363d
000000d0: 9274 25be 232e f93b 36d5 8abe 3fa5 9fbe
000000e0: 500b 1dbd 4ebb 46bc ba8c 413e 07b7 fbbd
000000f0: 41f2 aa3d 65e7 0fbe 441e a53d 0a4d 17be
00000100: c86d 43be a842 bbbe 417c 84bd ced6 7abd
00000110: 585a c2be 88cc 8abe e300 84be 46e8 59be
00000120: e68c 88bc b136 4aba 4e0a 9bbe 7c5c 9dbe
00000130: 3fef 9c3d f6f1 43bd 4cc6 cb3d f7fa 0b3e
00000140: 1978 50be 14a1 34bd 8cd0 dc3d 2617 c83c
00000150: 34e2 febd e633 08be 42d5 b8bd 9f3e 25be
00000160: a96d 03be 2183 eb3b 83df a83d da67 a4bd
00000170: 166d b83d d0d1 133e 7fac dfbd 8632 be3d
00000180: 2b58 26be e962 d43c c7e8 5bbc 8b11 31bd
00000190: b0fb 09be 747e f8bd 9fe5 1abe b006 563d
000001a0: b178 15bb 5eb4 b13d a42b 1dbd 771a abbd
000001b0: f797 59bd cd23 82be dc34 63be 9e3a 93be
000001c0: 0528 823e b6a4 9f3e f7fc 413e 75f8 833e
000001d0: 6a34 c33d 782a 33be 5630 8b3d 918e 0a3d
000001e0: eb2b 003d 9fe4 3fbd 3414 54be 2acd 29be
000001f0: 0802 90bd d387 9e3d b11b 3c3d 0238 143e
-0.23827636 -0.18981105 0.108365394 0.037129547 -0.11063375 0.12031953 -0.037640855 0.08100205
-0.15438211 -0.1641889 -0.099546514 -0.15472035 -0.18674356 0.0727191 -0.17796448 0.17876865
0.007195775 0.031620376 -0.010847657 0.08830135 -0.15007655 -0.10245775 0.17878509 -0.14142194
-0.22465844 -0.09229151 -0.22102903 -0.1273561 -0.00068065827 -0.06207052 -0.09569269 0.201584
0.4111628 0.41600764 0.38850397 0.36791968 0.044638284 0.11237304 0.14067158 0.09420741
0.002647986 0.17534673 0.1972057 -0.050556134 0.45559898 0.5265831 0.34345552 0.2341367
-0.06761883 -0.007005961 0.13576463 0.04448795 -0.1615775 0.007604377 -0.27115792 -0.3118076
-0.038340867 -0.012129618 0.18901339 -0.12290769 0.083469875 -0.14053114 0.08062413 -0.14775482
-0.19084847 -0.36574292 -0.06469012 -0.06124001 -0.37959552 -0.2710917 -0.25781927 -0.21280012
-0.016668748 -0.0007713838 -0.302813 -0.30734622 0.0766282 -0.047838174 0.099499315 0.13669954
-0.20358314 -0.04409893 0.10781965 0.0244251 -0.124454886 -0.13301048 -0.09025051 -0.1613717
-0.12834801 0.0071872626 0.082457565 -0.080276206 0.090051815 0.14435506 -0.10921573 0.0928698
-0.16244571 0.02592607 -0.013422198 -0.04322962 -0.13474917 -0.12133494 -0.15126656 0.05225247
-0.0022807533 0.086769804 -0.038371697 -0.08354657 -0.05312344 -0.2541794 -0.22188133 -0.2875566
0.25421157 0.31180352 0.18944155 0.25775495 0.095314816 -0.1749667 0.06796329 0.03382737
0.031291883 -0.04684889 -0.20710832 -0.1658217 -0.070316374 0.0774075 0.045924846 0.1447449

cos_output.weight f4 [1, 32, 2, 2]
00000000: 6c6c 44be fbf7 4cbd e05e d5be 3ac4 8dbe
00000010: 5c13 ff3d 455d 38bd d14e 0abe d8bd 9abd
00000020: 91a9 13be a69a f6bc 446e 55be 0767 f2bd
00000030: 6a7b febe 11df 5fbe 9abf dcbe 706d d0be
00000040: be88 313e 0634 443e 7856 073e e7bb 34bd
00000050: 3ef7 cabd e761 b3bc b63f 2d3e c1ca 343e
00000060: b07b 30be 1d01 103e 0d93 07be f885 04be
00000070: 5741 4e3e ed7c 26bd e824 2e3e 67c9 7bbd
00000080: 0ead 08bf bd21 0cbf 8f7e e0be 8f2f c5be
00000090: d501 8a3e 806d 16bc 3499 4b3e b676 b0bd
000000a0: ec00 3abe aa70 d8bc 7124 0ebe ce42 403e
000000b0: be4d 37be 64ae aebe e26a 01be 3b62 8cbd
000000c0: b10b 3b3e 0631 703d 0606 283e 2aa7 5e3e
000000d0: 5aae 0cbe 36b3 b3bd 8530 c93d ec99 123e
000000e0: cb78 203e 1a8f 053e b719 033e 823b 063e
000000f0: 3a54 063e 13c4 6e3e 1227 d5bd 9025 e03d
00000100: 5174 5ebe 8480 6dbe aecf 27be 0c97 82be
00000110: 6456 063e e1a2 92bc 7401 bd3c 7999 203d
00000120: e816 aebe 7f99 d4be 1298 36be e9a0 b4be
00000130: 09db aabd 1927 493e 845b a2bd b451 acbd
00000140: 4cc7 7b3d 89bb 433e fee2 593e 3f15 0c3d
00000150: 605c bc3e de07 d13e eb14 da3e 7e4d fd3e
00000160: 3037 9a3d 187f c23d 1455 283e 17e8 283e
00000170: 3148 033c 2915 443e a0bc fa3d 2fa2 813e
00000180: b168 9c3c 3d01 223d 7aed b93d 3ef1 643e
00000190: 7ce1 81bd 158a 973d ea92 123e 3d7d e53d
000001a0: 7521 51be 01e2 84be 19b1 4ebe 8b0d 68bd
000001b0: c5f4 16bd 0ea0 04bd 10e2 ab3d 664a fd3d
000001c0: 6704 27be 2bf4 32be d758 53bd 856f 1abe
000001d0: 3534 bcbd df60 87bd b1f3 643e 987b 163e
000001e0: 19d3 3ebe 4310 a8bd 4f3e 07bd 3dd7 82bd
000001f0: cc13 3c3d 9ef8 3dbe fde3 75be 4875 81be
-0.19181985 -0.05004118 -0.41673946 -0.2768877 0.124548644 -0.045010824 -0.13506629 -0.07555741
-0.14420153 -0.030103039 -0.20842844 -0.11836057 -0.49703532 -0.21862437 -0.4311493 -0.40708494
0.17337319 0.1916047 0.13216579 -0.04412451 -0.09910439 -0.02189727 0.16918835 0.1765547
-0.17234683 0.14062925 -0.13239689 -0.1294173 0.20142113 -0.040646482 0.17006266 -0.06147137
-0.5338906 -0.5473898 -0.43846557 -0.38512847 0.26954523 -0.00918138 0.19882661 -0.08616392
-0.18164414 -0.02642091 -0.13881089 0.18775484 -0.1790075 -0.34117424 -0.12638429 -0.068546735
0.18266179 0.058640502 0.16408548 0.21743456 -0.13738385 -0.08774416 0.098237075 0.14316529
0.15671079 0.1304287 0.12802778 0.13108638 0.13118067 0.23316984 -0.10407843 0.109446645
-0.21724059 -0.23193556 -0.16387817 -0.25505865 0.13118893 -0.017899932 0.023071982 0.039208863
-0.3400185 -0.41523358 -0.17831448 -0.35279015 -0.08342559 0.19643821 -0.079276115 -0.08414021
0.06146936 0.19114508 0.21277997 0.03419995 0.36789227 0.40826315 0.42594084 0.49473184
0.075300574 0.094968975 0.16438705 0.16494785 0.008012817 0.19148697 0.122430086 0.2531905
0.01909289 0.039551962 0.09078498 0.22357652 -0.06341836 0.07399384 0.14313856 0.11205528
-0.20422919 -0.25953677 -0.20184745 -0.05665354 -0.036854524 -0.032379203 0.083927274 0.12367706
-0.16310273 -0.17475955 -0.051598396 -0.15081604 -0.09189645 -0.066102736 0.22358586 0.14695585
-0.18635215 -0.08206227 -0.033018406 -0.0638871 0.045917317 -0.18551871 -0.24012752 -0.2528479

sin_output.weight f4 [1, 32, 2, 2]
00000000: 683a fc3d d233 8d3d 33a7 d03d 3501 a63d
00000010: 5946 de3d 2280 ce3d d241 edbd 4f2b 053e
00000020: 81e8 a6bd 8cec 8fbd 896a b3bd 4477 74bb
00000030: 1d64 703d 8cc4 553d dcc6 8c3d ad89 ba3d
00000040: f12f f53d cea4 0cbe 2e32 fc3c 654b 68bd
00000050: 9c50 6abd bd4b 2b3e 8be6 2a3d d7ee 0abd
00000060: 0fca 9c3c 4090 cb3d 2a35 a2bc 3f0e 763d
00000070: c354 2fbc ec21 ffbd 74c8 923d 51e6 4a3d
00000080: 154e 8e3b 5690 fa3b c8ea 253c 45a8 14ba
00000090: f39c 99bd c63c 403e 6e36 1d3e 47fd bebd
000000a0: 854a 693e 9285 573d fe19 2e3e 20fe 243e
000000b0: bee5 8dbd 00ce 58bd 301d b53d 983d 0ebe
000000c0: a88e 9c3d a8e4 f3bd c1e1 10bd e003 663e
000000d0: d17d 22be daaf 5b3d a9b8 c8bd 9ddd 17be
000000e0: 30c2 d3bc 652a 25be f835 efbd 63c9 bebd
000000f0: 4aca 6c3c 12e2 703d 4d0c 32bd 1d07 02be
00000100: d3de 52bd 2e51 123d 4336 b0bc 6178 0f3b
00000110: 2093 333d e02b 6fbb 5e40 4ebc 8ae1 de3d
00000120: 4ac0 603d d198 e13d bbbb a63d c24d 033e
00000130: eea3 b9bc 1523 c1bd 1b45 38bd d99a efbd
00000140: 4269 923c 4b90 4f3e 2680 953c 73ab a0bd
00000150: fb40 1c3d 085c 32bc 862b 233c f012 6bbc
00000160: 4dac 28be bea4 2cbe 5a7f f03d 81c7 08be
00000170: 14c9 2abd f2cb 1abe 43c8 fd3d 1e1f 593c
00000180: 75d5 6c3d d0d9 0dbc 21de 5e3e e0ed 1bbe
00000190: afd6 203e 9049 06bd d0f7 01bc a40e 173d
000001a0: 5f42 be3a 366b 2ebc 057e 14bd 7b26 92bc
000001b0: 475c f73c 6391 7d3b c5f2 d23a 9e59 bf3d
000001c0: 9e65 94bd b66a 18bd 314c a7bd 5a45 babd
000001d0: db7b cb3d 13d2 2d3e 1bc0 9f3d 1616 6ebd
000001e0: a82c b93b 5d2f 263d 7efe 35bd d6a4 313c
000001f0: 07f7 04bd ab07 c8bb 5e0a 70bc 7080 b4bc
0.123158276 0.068946496 0.10188141 0.08105699 0.108532615 0.10083033 -0.1158482 0.13004802
-0.08149815 -0.070275396 -0.08760554 -0.0037302533 0.058689225 0.052189395 0.06873867 0.09108291
0.11972035 -0.13734743 0.030785646 -0.056712527 -0.05720578 0.1672811 0.04172377 -0.03391918
0.019139318 0.09939623 -0.019800741 0.06007218 -0.010701361 -0.12457642 0.0716714 0.049536053
0.004342804 0.0076466007 0.010126777 -0.0005670826 -0.07500639 0.18773183 0.15352795 -0.093256526
0.22782333 0.052617617 0.17002103 0.16112566 -0.069285855 -0.052930832 0.08843458 -0.13890684
0.07644397 -0.11908847 -0.035371546 0.22462416 -0.15868308 0.053634502 -0.09800846 -0.14830633
-0.025849432 -0.16129453 -0.116802156 -0.09315755 0.014452526 0.058809347 -0.043468762 -0.12698026
-0.051482033 0.03572195 -0.021510249 0.002189182 0.04384148 -0.0036494657 -0.0125885885 0.10882862
0.05487088 0.110154755 0.081412755 0.12822631 -0.022661176 -0.094305195 -0.04498778 -0.11699457
0.017872456 0.20269887 0.018249582 -0.07845201 0.038147908 -0.0108862 0.009959107 -0.014347777
-0.16471978 -0.16859719 0.117430404 -0.13357355 -0.04169567 -0.15116861 0.123917125 0.013252048
0.057820756 -0.008657888 0.21764423 -0.15227461 0.15706895 -0.032785 -0.007932618 0.036879197
0.001451563 -0.010645678 -0.036252994 -0.017840615 0.030195368 0.0038691394 0.001609408 0.09343265
-0.072459444 -0.037211142 -0.08168829 -0.09095259 0.09935733 0.16974668 0.07800313 -0.05812653
0.0056510754 0.040572513 -0.044432156 0.010842523 -0.032462146 -0.0061044297 -0.014650909 -0.0220339
