ggcnn_base/output/models/230121_1510_training_example/epoch_44_iou_0.76_statedict.pt (torch, 256417 bytes, 16 tensors)

conv1.weight f4 [32, 1, 9, 9]
-0.022358004 -0.01755736 -0.035579413 -0.014496171 -0.037561353 -0.0093354 0.038007032 0.037359875
0.025239753 -0.026196333 0.0012184983 -0.021870738 -0.043029156 -0.027987044 0.0037790071 0.01551233
-0.050918236 -0.020636503 0.008784653 0.02660944 0.046406712 0.010408166 0.033037964 0.015234799
-0.03949744 -0.0068235556 -0.05351259 0.025594221 -0.034696475 -0.021847375 -0.007094712 0.008446418
0.039662704 0.031140221 -0.04430471 -0.0035311964 -0.023640642 -0.012221729 0.010908931 0.0086387135
0.0039587957 0.029614655 -0.03679594 -0.04231601 0.020480797 0.00032413437 0.020550866 -0.0057361517
-0.029627852 0.0010733663 7.699907e-05 0.04028945 0.029950887 -0.00020321264 -0.037766505 0.010121104
0.040334944 -0.006535135 -0.03566291 0.03838177 -0.010641009 0.013134523 0.04106745 0.03625041
-0.012757076 -0.0014405339 -0.037450198 0.035065215 -0.0074918466 -0.0050672293 -0.00040165032 0.0057662744
-0.015640093 0.018874412 0.03302366 0.035645697 0.005740491 -0.05293423 -0.017765002 -0.018419588
0.040663015 -0.43476462 -0.37920213 -0.3873928 -0.3707185 -0.40448588 -0.34169704 -0.14368841
-0.112501636 -0.07693797 -0.40976095 -0.35664907 -0.28800106 -0.2535607 -0.28868505 -0.33347693
-0.052812234 -0.01657754 0.07152064 -0.30250767 -0.24985136 -0.30010614 -0.19121017 -0.23530889
-0.21349782 -0.016555307 0.026364883 0.12069719 -0.19681507 -0.14821565 -0.15606359 -0.1194943
-0.12555745 -0.08352665 0.11142535 0.17528678 0.3295776 -0.095186196 -0.082681924 -0.10095687
-0.022407493 0.026346665 -0.00060843345 0.2247142 0.33978194 0.47786495 -0.09527394 -0.007371156
-0.05425874 0.07581366 0.01763303 0.037763365 0.3072428 0.43271294 0.58903307 -0.05429539
-0.008498084 -0.014240147 0.014336112 0.024745967 0.070108265 0.38290438 0.4745696 0.6079344
-0.051504903 -0.026889266 -0.03722864 -1.27611365e-05 -0.014596444 0.03469983 0.3582077 0.48266512
0.65813583 -0.12428518 -0.0854913 -0.00865394 -0.017450819 0.057161596 0.04671152 0.38295344
0.48110685 0.5952942 -0.23210481 -0.31565082 -0.40094638 -0.20642112 -0.323786 -0.27727324
-0.31908137 -0.3398064 -0.3019486 -0.13462979 -0.21269563 -0.24897976 -0.104600035 -0.1023151
-0.14832582 -0.19343859 -0.17961456 -0.14387405 -0.048443824 -0.053392213 -0.17399071 -0.0404013
-0.018690394 -0.0073023858 -0.08263679 -0.033329625 0.0032170848 -0.0034301528 -0.09703367 -0.14869025
0.06710769 0.02577517 -0.00093683635 -0.02856255 -0.019916123 0.024845641 0.07813316 -0.040152356
-0.081352934 0.0076754116 0.0340682 0.063611664 -0.010893123 -0.008066371 0.025135493 0.04477164
-0.046635445 -0.124142535 0.08773984 0.0481997 0.0672932 -0.048706464 -0.016447611 0.045207147
0.16808486 0.02931111 -0.022822866 0.17604992 0.13133836 0.09279003 0.07461361 0.14679155
0.11330953 0.20937367 0.16700573 0.09788142 0.22076687 0.138345 0.13589932 0.11986763
0.16789302 0.2314744 0.43282974 0.32506636 0.23282047 0.32076535 0.33003026 0.30788228
0.29662606 0.26971006 0.3704914 -0.18345922 -0.20975633 -0.18177353 -0.34125993 -0.3722437
-0.36164358 -0.38586694 -0.4281579 -0.3870976 -0.13063177 -0.11010979 -0.10113889 -0.20469162
00000000: 2228 b7bc 74d4 8fbc b8bb 11bd 5981 6dbc
00000010: efd9 19bd 81f3 18bc 43ad 1b3d ab06 193d
00000020: 99c3 ce3c b199 d6bc 05b6 9f3a 432a b3bc
00000030: 573f 30bd 1645 e5bc 38a9 773b 6e27 7e3c
00000040: a48f 50bd e20d a9bc 81ed 0f3c 0afc d93c
00000050: f714 3e3d 0387 2a3c d152 073d 619b 793c
00000060: 11c8 21bd 2298 dfbb 0430 5bbd f9aa d13c
00000070: e41d 0ebd 44f9 b2bc c27a e8bb d862 0a3c
00000080: 5c75 223d c719 ff3c db78 35bd a56b 67bb
00000090: 05aa c1bc a63d 48bc 5fbb 323c 6489 0d3c
000000a0: c9b8 813b 6f9a f23c 57b7 16bd 8d53 2dbd
000000b0: 58c7 a73c 94f0 a939 4a5a a83c 54f6 bbbb
000000c0: 1cb6 f2bc 32b0 8c3a 907a a138 8d06 253d
000000d0: 905b f53c 7a15 55b9 0db1 1abd fdd2 253c
000000e0: 4136 253d b024 d6bb 4613 12bd 3436 1d3d
000000f0: a057 2ebc 2f32 573c 5836 283d 4f7b 143d
00000100: 0e03 51bc 4cd0 bcba 6165 19bd 8ba0 0f3d
00000110: 2a7e f5bb 000b a6bb 9894 d2b9 04f3 bc3b
00000120: a71f 80bc 839e 9a3c d143 073d 3901 123d
00000130: bb1a bc3b 90d1 58bd e987 91bc ade4 96bc
00000140: 438e 263d 7899 debe c826 c2be 5958 c6be
00000150: d1ce bdbe c618 cfbe eaf2 aebe 0e23 13be
00000160: 4267 e6bd a891 9dbd 30cc d1be b59a b6be
00000170: e074 93be b5d2 81be 87ce 93be 7dbd aabe
00000180: a451 58bd 9fcd 87bc 6a79 923d 49e2 9abe
00000190: 09d9 7fbe 83a7 99be 99cc 43be d0f4 70be
000001a0: 2c9f 5abe ff9e 87bc 2bfb d73c 1730 f73d
000001b0: e489 49be d8c5 17be 22cf 1fbe 6db9 f4bd
000001c0: 2292 00be 0510 abbd f932 e43d 617e 333e
000001d0: 65be a83e fbf0 c2bd 2455 a9bd 7ac2 cebd
000001e0: eb8f b7bc f6d4 d73c 477f 1fba 7b1b 663e
000001f0: e6f7 ad3e b7aa f43e fc1e c3bd bd89 f1bb
00000200: 6a3e 5ebd 3144 9b3d 2573 903c c2ad 1a3d
00000210: ee4e 9d3e 8d8c dd3e dfca 163f d864 5ebd
00000220: 8c3b 0bbc 814f 69bc 03e2 6a3c 0eb8 ca3c
00000230: ec94 8f3d 0b0c c43e c9fa f23e 97a1 1b3f
00000240: cef6 52bd e146 dcbc 0f7d 18bd aa18 56b7
00000250: ec25 6fbc 6921 0e3d 0067 b73e e21f f73e
00000260: 977b 283f 3a89 febd 1016 afbd 41c9 0dbc
00000270: 05f5 8ebc 4722 6a3d 9454 3f3d 7912 c43e
00000280: a353 f63e 3365 183f e2ac 6dbe fc9c a1be
00000290: d848 cdbe 0f60 53be 47c7 a5be c2f6 8dbe
000002a0: a25e a3be 1bfb adbe 0299 9abe 64dc 09be
000002b0: e2cc 59be 8df4 7ebe 8b38 d6bd 948a d1bd
000002c0: b9e2 17be c414 46be e1ec 37be b853 13be
000002d0: 086d 46bd cbb1 5abd 9f2a 32be d57b 25bd
000002e0: 991c 99bc da48 efbb 7a3d a9bd a584 08bd
000002f0: bad5 523b 6acc 60bb 97b9 c6bd 4242 18be
00000300: c26f 893d 7326 d33c 0696 75ba 02fc e9bc
00000310: 2327 a3bc 1689 cb3c 4704 a03d cc76 24bd
00000320: 5e9c a6bd 0582 fb3b 198b 0b3d d546 823d
00000330: 1279 32bc d028 04bc f3e8 cd3c 7862 373d
00000340: cf04 3fbd 713e febd f2b0 b33d 0c6d 453d
00000350: 04d1 893d 6e80 47bd 24bd 86bc 212b 393d
00000360: 701e 2c3e da1d f03c 05f7 babc 6e46 343e
00000370: 907d 063e b308 be3d 05cf 983d 8650 163e
00000380: d40e e83d 0d66 563e 8d03 2b3e 0e76 c83d
00000390: b610 623e 50aa 0d3e 3129 0b3e 297d f53d
000003a0: 26ec 2b3e a007 6d3e dc9b dd3e 196f a63e
000003b0: 7d68 6e3e 5b3b a43e baf9 a83e bfa2 9d3e
000003c0: 5fdf 973e 7017 8a3e 0cb1 bd3e bcdc 3bbe
000003d0: 5dca 56be d722 3abe 9fb9 aebe ba96 bebe
000003e0: 5929 b9be 5a90 c5be 8337 dbbe a831 c6be
000003f0: 56c4 05be 3e81 e1bd e821 cfbd ae9a 51be

conv1.bias f4 [32]
-0.09973523 -0.056587413 0.10046105 -0.021386363 -0.37013498 -0.52210325 0.028349986 -0.023664817
-0.040872786 -0.12964389 0.19369304 -0.08556384 -0.101766035 -0.29565045 -0.10364022 0.08619393
-0.18551996 -0.22803941 -0.23443252 -0.075291105 -0.07478964 -0.098145775 -0.37250784 0.004688758
0.095566034 0.07937309 -0.019908385 -0.015655247 0.010313344 -0.0816373 0.08128333 0.010852933
00000000: fc41 ccbd 34c8 67bd 86be cd3d 7432 afbc
00000010: 5582 bdbe 8fa8 05bf 3b3e e83c b8dc c1bc
00000020: 396a 27bd 5ec1 04be 7857 463e 183c afbd
00000030: b66a d0bd 7f5f 97be 5341 d4bd 7186 b03d
00000040: f2f8 3dbe 2a83 69be 140f 70be 3932 9abd
00000050: 502b 99bd a700 c9bd 59b9 bebe 27a4 993b
00000060: 20b8 c33d 5c8e a23d e916 a3bc 6f3f 80bc
00000070: 4df9 283c 7531 a7bd e077 a63d 80d0 313c

conv2.weight f4 [16, 32, 5, 5]
-0.0456554 0.040415358 0.0030132076 0.0102111455 0.0060982364 -0.0067605646 0.06324049 0.042577196
-0.015627125 -0.06343843 -0.010868363 0.017105712 -0.03846567 -0.01254823 0.048445597 0.033695213
-0.027788652 -0.0032835396 0.026356744 -0.044643074 -0.02669867 0.03866702 0.061347462 -0.049268227
0.023879671 -0.18433912 -0.12832297 -0.301231 0.6596248 -0.27776524 -0.3379284 -0.12363251
-0.22167318 0.57901615 0.023866344 -0.27961385 -0.08256996 -0.1397833 0.5735048 0.014249369
-0.19912821 -0.0050099683 -0.049037196 0.6609775 -0.017631672 -0.3459258 -0.22762325 -0.34496465
0.507399 -0.33921158 0.13411887 0.05843137 0.035934765 -0.054004032 -0.20403539 0.16264503
0.013656578 0.021768754 -0.04609883 -0.17404039 0.07628792 0.054079562 -0.0448766 -0.07796321
-0.26147127 0.31590652 0.17101966 0.1511375 0.16318499 0.08053823 0.4026596 0.045970332
-0.12961754 -0.11043054 -0.20418489 0.004344421 0.20088288 0.24835934 0.4129263 0.54160285
-0.12847774 0.037150223 0.120734684 0.14020698 0.22784235 -0.07866196 0.03442725 0.09337129
0.16611023 0.15628846 0.017586067 0.058058914 0.12609427 0.32954597 0.28036812 0.103761606
-0.13493407 -0.13170806 -0.035636716 0.20180562 -0.005368594 -0.19109482 -0.5227739 -0.30606303
-0.19583191 0.015049386 -0.11038852 -0.66773635 -0.3665361 -0.12816918 -0.052993894 -0.16052747
-0.70220375 -0.37140152 -0.14415032 -0.062960505 -0.25448942 -0.5834005 -0.32272062 -0.06668409
-0.058748256 -0.15047888 -0.4069516 -0.32435137 -0.13893098 0.08161632 -0.013209975 -0.7475021
-0.37029055 -0.24384433 0.0075522386 -0.040058434 -0.37031406 0.01956518 0.09854701 0.0002746618
-0.0087056225 -0.22590035 -0.049261097 0.07583506 0.14178377 0.16426705 0.025388315 0.1395806
0.2853316 0.24319959 0.10533738 0.059131563 0.10327134 0.113719314 0.17902315 0.09536478
0.059548106 0.23387842 -0.35446 0.109799445 0.09674857 0.13634828 0.23158298 -0.4024653
0.14435655 0.07313781 0.04127323 0.26490718 -0.32629022 0.13395965 0.20240393 0.14758208
0.17293172 -0.40391442 -0.14003992 -0.026556743 -0.078701444 0.0003303329 -0.5725316 0.2202023
0.1504314 0.27600324 0.0903214 0.10077527 -0.19128397 -0.07466205 -0.027571613 -0.06522303
-0.093843915 -0.12025502 -0.042276643 0.040219523 0.056232486 -0.06749373 -0.08906463 0.038306884
0.13129072 0.05198817 -0.19376028 -0.012750644 0.14267038 0.24265268 -0.11345366 -0.21112247
-0.11776252 -0.19716279 -0.21136756 -0.25854588 -0.2979747 0.085835926 0.05694776 -0.015861377
-0.07698786 -0.111927986 0.041212704 0.10131114 0.007989313 -0.012449258 -0.054710504 0.116840325
0.08439191 0.00024873915 0.04630879 -0.018284261 0.101309665 0.008847198 -0.02014635 -0.17905633
-0.21467562 -1.158249 -0.7903468 -0.91044104 -0.33917633 -0.24759786 -0.41785753 -0.46317902
-0.48179185 -0.44412214 -0.15004234 -0.057107184 -0.47278082 -0.35770747 -0.29210228 -0.38546962
0.16846897 -0.27859452 -0.35596514 -0.31854203 -0.31187814 0.46822038 -0.17637557 -0.4697988
-0.50898176 -0.5781829 0.058897063 -0.060156666 -0.19636086 -0.31886026 -0.15487671 0.07230316
00000000: 2801 3bbd 938a 253d 3c79 453b a64c 273c
00000010: b7d3 c73b ba87 ddbb 3b84 813d 6d65 2e3d
00000020: 7504 80bc 02ec 81bd 3811 32bc 4721 8c3c
00000030: 2e8e 1dbd 1797 4dbc e46e 463d fe03 0a3d
00000040: 07a5 e3bc a730 57bb 19ea d73c a8db 36bd
00000050: 2bb7 dabc 4f61 1e3d 7a47 7b3d 7bcd 49bd
00000060: 4d9f c33c 65c3 3cbe 1967 03be f33a 9abe
00000070: 2cdd 283f 3f37 8ebe f404 adbe 0b33 fdbd
00000080: 4bfe 62be 673a 143f 5a83 c33c 8c29 8fbe
00000090: 701a a9bd 5a23 0fbe 36d1 123f 2f76 693c
000000a0: 44e8 4bbe a92a a4bb 3adb 48bd d235 293f
000000b0: 4c70 90bc 301d b1be 1216 69be 359f b0be
000000c0: e7e4 013f 24ad adbe 7556 093e bb55 6f3d
000000d0: 5530 133d 5533 5dbd a7ee 50be 6b8c 263e
000000e0: d7bf 5f3c 6354 b23c 20d2 3cbd a537 32be
000000f0: d73c 9c3d 8882 5d3d 87d0 37bd 2dab 9fbd
00000100: 90df 85be 80be a13e c71f 2f3e cac3 1a3e
00000110: f719 273e 3af1 a43d 6629 ce3e 634b 3c3d
00000120: 76ba 04be 6829 e2bd d815 51be a55b 8e3b
00000130: 3eb4 4d3e e951 7e3e 136b d33e 7ca6 0a3f
00000140: ab8f 03be d52a 183d bf43 f73d 6b92 0f3e
00000150: 814f 693e 8619 a1bd 9703 0d3d 7239 bf3d
00000160: cd18 2a3e 150a 203e a810 903c 2fcf 6d3d
00000170: db1e 013e 40ba a83e 698c 8f3e f780 d43d
00000180: 282c 0abe 7ade 06be cef7 11bd 22a6 4e3e
00000190: 08eb afbb 5cae 43be 83d4 05bf 4bb4 9cbe
000001a0: 2988 48be b391 763c 6013 e2bd c5f0 2abf
000001b0: 9faa bbbe c83e 03be 2010 59bd 5061 24be
000001c0: a0c3 33bf 5728 bebe 249c 13be 70f1 80bd
000001d0: 704c 82be bc59 15bf a33b a5be ab91 88bd
000001e0: 03a2 70bd 2317 1abe f65b d0be 6211 a6be
000001f0: ec43 0ebe 7526 a73d a76e 58bc 4c5c 3fbf
00000200: b996 bdbe 54b2 79be c578 f73b 5014 24bd
00000210: ce99 bdbe 2847 a03c 04d3 c93d 7c00 9039
00000220: 07a2 0ebc 6c52 67be 01c6 49bd 694f 9b3d
00000230: c42f 113e 9f35 283e 28fb cf3c 38ee 0e3e
00000240: fc16 923e 5009 793e 20bb d73d f033 723d
00000250: ed7f d33d ace5 e83d d851 373e 9c4e c33d
00000260: b7e8 733d d37d 6f3e c87b b5be 88de e03d
00000270: 1d24 c63d e29e 0b3e 1724 6d3e ef0f cebe
00000280: 34d2 133e 47c9 953d 1e0e 293d eaa1 873e
00000290: 830f a7be b82c 093e fa42 4f3e c21f 173e
000002a0: 0315 313e dfcd cebe a066 0fbe 878d d9bc
000002b0: 392e a1bd 8830 ad39 6e91 12bf b67c 613e
000002c0: b00a 1a3e 4c50 8d3e 6dfa b83d 4463 ce3d
000002d0: f2df 43be 6be8 98bd dddd e1bc a793 85bd
000002e0: 3d31 c0bd 4448 f6bd 462a 2dbd 3abd 243d
000002f0: 0954 663d 273a 8abd 8467 b6bd aee7 1c3d
00000300: 1371 063e 8cf1 543d 1869 46be 14e8 50bc
00000310: 2f18 123e f279 783e 645a e8bd 7d30 58be
00000320: 7a2d f1bd 0be5 49be bd70 58be 2060 84be
00000330: 2490 98be bfca af3d 0e42 693d b8ef 81bc
00000340: d0ab 9dbd 803a e5bd a7ce 283d 377c cf3d
00000350: 9ce5 023c f9f7 4bbc 1f18 60bd fb49 ef3d
00000360: aad5 ac3d 3469 8239 49ae 3d3d e0c8 95bc
00000370: 717b cf3d d7f3 103c f509 a5bc 8b5a 37be
00000380: edd3 5bbe 8141 94bf 2b54 4abf aa12 69bf
00000390: 85a8 adbe 4b8a 7dbe 6cf1 d5be cd25 edbe
000003a0: 6cad f6be fa63 e3be b3a4 19be 39e9 69bd
000003b0: 5410 f2be 6f25 b7be 6e8e 95be 465c c5be
000003c0: 2183 2c3e f1a3 8ebe 1041 b6be f117 a3be
000003d0: 7eae 9fbe 95ba ef3e cc9b 34be 7889 f0be
000003e0: a14c 02bf cb03 14bf 0c3e 713d d666 76bd
000003f0: d212 49be a741 a3be 0098 1ebe ae13 943d

conv2.bias f4 [16]
0.12081722 -0.08699071 -0.06864378 -0.03620941 0.018106624 -0.069883436 -0.14362739 -0.0102984235
-0.011139043 -0.0058836 0.30024633 0.3173366 -0.06621385 0.11590467 -0.087991714 -0.03513413
00000000: 056f f73d 2f28 b2bd 1c95 8cbd 5150 14bd
00000010: 5854 943c 0c1f 8fbd 0f13 13be b8ba 28bc
00000020: 8880 36bc 37cb c0bb e3b9 993e f179 a23e
00000030: 219b 87bd 6d5f ed3d 0035 b4bd cee8 0fbd

conv3.weight f4 [8, 16, 3, 3]
0.053651348 -0.20396578 -0.5280835 -0.056618772 0.030956507 -0.112869054 0.4112693 0.21463485
0.12276868 0.08664206 0.0036583764 0.007258687 -0.035484433 0.07389164 -0.13739921 0.019822547
-0.12133978 -0.13069494 -0.12492132 -0.179462 0.12435327 0.071587324 -0.11714203 -0.1239394
0.06332774 -0.01711767 -0.12950669 0.06362446 -0.12457215 -0.11881689 0.06071803 -0.024288783
-0.124716714 0.08618591 -0.02312691 -0.005086577 0.10910105 0.1639221 0.552153 -0.14877494
0.050256755 -0.015676485 -0.47154313 -0.22036922 0.036182057 -0.002394869 0.05765552 -0.11515519
0.15175813 0.042412776 0.01372053 0.025578644 -0.03078638 -0.09812063 0.0806065 0.0022481063
-0.15492783 0.0104455585 -0.06969794 0.12391183 -0.041031685 0.12902713 -0.10291686 -0.04614769
-0.13982804 0.02330568 0.0644236 0.057858005 0.074134074 -0.025277125 0.001740841 -0.14632006
0.017098717 0.08348473 -0.062382217 0.007841383 -0.007810628 0.09447565 0.12115937 -0.036157828
0.0115861865 0.095972076 0.1360208 0.15897185 -0.1385891 -0.11758788 -0.1304239 0.092058666
0.1008884 -0.051429294 -0.024151547 0.20432961 0.47283682 -0.04894423 0.11720108 0.24203783
-0.44780883 -0.34499088 -0.24409878 -0.102988824 0.16103475 0.13388653 -0.051250365 -0.11410333
0.08473441 0.020334322 -0.105609566 0.007148044 0.10003981 0.08901775 0.25855076 -0.046019748
-0.2950898 -0.18486618 0.07126091 -0.032449815 -0.024975544 0.009082219 -0.16661625 -0.07750905
0.02305829 0.070158854 0.047613453 0.07975079 0.009257871 -0.07228883 -0.16413186 0.022553511
0.13427587 0.08751544 -0.11965351 0.059001125 -0.03204717 -0.14617416 -0.14648218 -0.15923324
0.09428779 -0.111510836 0.04727835 0.11747018 0.095155396 0.14598167 0.10325815 -0.12832654
-0.16697815 -0.038996127 -0.23102082 0.11346931 0.13016038 -0.02146995 0.09050403 0.0627935
0.036051873 -0.10445247 -0.048691407 -0.10235802 -0.097205326 -0.07059647 -0.052487466 0.04869612
-0.1383724 -0.110195674 0.082399935 -0.13724664 -0.0015342165 -0.1481488 -0.04569474 0.057927635
0.066338524 0.015232171 -0.09469829 0.11107345 -0.13484801 -0.010886464 0.0762755 -0.0966086
-0.18985312 0.057297558 -0.089180686 0.0583619 0.40297455 0.26682746 0.018244818 0.012610515
-0.0014301706 -0.11168094 -0.21021633 -0.1052442 -0.3319216 -0.15759486 -0.017943287 0.06983465
-0.032494374 0.15998617 -0.12853774 0.05559177 -0.06715753 0.11980687 -0.275152 -0.22045134
-0.19721033 -0.20862071 0.21571054 0.1058808 -0.05255871 0.3093721 0.34056357 0.1655108
-0.11186902 0.13870566 0.020462701 0.09576129 0.028944738 -0.17013656 0.062464546 0.042826828
0.091741845 -0.11754999 0.035016883 0.059937105 0.043833084 0.04934823 0.14430565 0.0461635
-0.14570099 0.12829745 -0.05546693 -0.17572464 0.09813197 0.09845489 -0.05364453 0.014403999
0.047743704 0.021047197 0.24776493 0.23572415 0.10738381 -0.042867575 0.019629776 -0.07368507
-0.2128527 -0.21071509 -0.11068667 0.2889627 0.055448797 0.075302266 0.23268403 -0.11843548
-0.18907247 0.1476409 -0.045257423 -0.46006733 0.2672327 0.10108882 0.015720626 -0.006305104
00000000: 84c1 5b3d 68dc 50be 7b30 07bf 16e9 67bd
00000010: 8098 fd3c e427 e7bd e491 d23e 3dc9 5b3e
00000020: 256e fb3d 6471 b13d 5fc1 6f3b 48da ed3b
00000030: 2058 11bd 8054 973d 61b2 0cbe e562 a23c
00000040: fe80 f8bd e5d4 05be c0d6 ffbd e3c4 37be
00000050: edac fe3d 609c 923d 29e8 efbd f1d3 fdbd
00000060: f9b1 813d 5b3a 8cbc 679d 04be 8a4d 823d
00000070: af1f ffbd 4556 f3bd 78b3 783d 45f9 c6bc
00000080: 7a6b ffbd 3d82 b03d a574 bdbc 4dad a6bb
00000090: 5f70 df3d 32db 273e e659 0d3f 7558 18be
000000a0: 07da 4d3d f96b 80bc 1a6e f1be 78a8 61be
000000b0: a333 143d 3cf3 1cbb 3228 6c3d 7cd6 ebbd
000000c0: 7c66 1b3e 05b9 2d3d 13cc 603c 4e8a d13c
000000d0: b833 fcbc 78f3 c8bd 0515 a53d f754 133b
000000e0: 67a5 1ebe d923 2b3c cbbd 8ebd 7cc5 fd3d
000000f0: d710 28bd b01f 043e 13c6 d2bd 5c05 3dbd
00000100: 152f 0fbe 8eeb be3c 85f0 833d 84fc 6c3d
00000110: 9bd3 973d f911 cfbc ee2c e43a edd4 15be
00000120: 9c12 8c3c 0bfa aa3d 7f84 7fbd 2579 003c
00000130: 4cf0 ffbb 737c c13d 6722 f83d 3b1a 14bd
00000140: fdd3 3d3c 028d c43d 0949 0b3e 84c9 223e
00000150: 4dea 0dbe ead1 f0bd d88d 05be 4189 bc3d
00000160: 949e ce3d 86a7 52bd 77d9 c5bc c83b 513e
00000170: ab17 f23e bf79 48bd 1f07 f03d c4d8 773e
00000180: 3347 e5be a5a2 b0be 08f5 79be ceeb d2bd
00000190: 4be6 243e 8d19 093e e7eb 51bd 02af e9bd
000001a0: 3c89 ad3d 2a94 a63c d449 d8bd 243a ea3b
000001b0: ace1 cc3d f04e b63d c460 843e 347f 3cbd
000001c0: 0316 97be 8f4d 3dbe 3df1 913d 19ea 04bd
000001d0: 8399 ccbc 96cd 143c 739d 2abe 11bd 9ebd
000001e0: bde4 bc3c 72af 8f3d 5306 433d 6254 a33d
000001f0: 53ae 173c 2b0c 94bd 2f12 28be 24c2 b83c
00000200: 9d7f 093e 4c3b b33d e60c f5bd 2aab 713d
00000210: e543 03bd aeae 15be 6dff 15be 0a0e 23be
00000220: f519 c13d cb5f e4bd f1a6 413d 3594 f03d
00000230: d5e0 c23d 387c 153e 0279 d33d 0868 03be
00000240: 52fc 2abe 67ba 1fbd b990 6cbe 9962 e83d
00000250: c348 053e c0e1 afbc 2d5a b93d e199 803d
00000260: 21ab 133d 2deb d5bd a470 47bd 15a1 d1bd
00000270: 9613 c7bd e294 90bd 19fd 56bd 9575 473d
00000280: 7fb1 0dbe 45ae e1bd 4cc1 a83d 628a 0cbe
00000290: c317 c9ba 52b4 17be 682a 3bbd 8745 6d3d
000002a0: 7edc 873d 5b90 793c 2df1 c1bd 7a7a e33d
000002b0: 9915 0abe 245d 32bc 5436 9c3d bbda c5bd
000002c0: db68 42be d8b0 6a3d 5da4 b6bd e30c 6f3d
000002d0: ae52 ce3e 9c9d 883e 2876 953c 559c 4e3c
000002e0: 9074 bbba fab8 e4bd f342 57be 458a d7bd
000002f0: a1f1 a9be 8c60 21be cdfd 92bc 7805 8f3d
00000300: d218 05bd 6ad3 233e 669f 03be 32b4 633d
00000310: e389 89bd 4e5d f53d b9e0 8cbe ffbd 61be
00000320: 81f1 49be aba0 55be 39e3 5c3e 08d8 d83d
00000330: cd47 57bd 0566 9e3e 595e ae3e aa7b 293e
00000340: 961b e5bd db08 0e3e 65a1 a73c 7f1e c43d
00000350: 841d ed3c 4738 2ebe d3da 7f3d 2f6b 2f3d
00000360: 26e3 bb3d 0dbe f0bd dd6d 0f3d 9c80 753d
00000370: 528a 333d 5f21 4a3d dcc4 133e f015 3d3d
00000380: a432 15be 6860 033e 4b31 63bd 29f1 33be
00000390: 6af9 c83d b8a2 c93d 5eba 5bbd c0fe 6b3c
000003a0: e78e 433d 2c6b ac3c 17b6 7d3e ac61 713e
000003b0: 0bec db3d e995 2fbd a0ce a03c 33e8 96bd
000003c0: 0ff6 59be b2c5 57be b1af e2bd ebf2 933e
000003d0: 471e 633d 1338 9a3d b944 6e3e 4d8e f2bd
000003e0: 379c 41be 2d2f 173e d95f 39bd f28d ebbe
000003f0: b9d2 883e a807 cf3d 8bc8 803c 0c9b cebb

conv3.bias f4 [8]
0.030228505 0.016491901 0.067228094 0.13610414 0.011955001 -0.267547 0.089332454 0.022813484
00000000: c5a1 f73c 061a 873c e2ae 893d e25e 0b3e
00000010: e9de 433c ecfb 88be eff3 b63d 58e3 ba3c

convt1.weight f4 [8, 8, 3, 3]
0.06285331 0.30562937 -0.27135 -0.27080777 0.042871676 0.3759931 0.100185074 -0.040772785
-0.022180142 0.3924825 0.27884102 0.19772528 -0.2465368 -0.17745821 -0.240897 -0.5023537
-0.07402704 0.35478514 -0.3403525 -0.15310112 -0.115953654 0.5260792 0.031395826 -0.17060648
-0.13560863 0.10620276 0.46102732 0.2835956 0.23396984 -0.23019761 0.115835816 0.26927882
0.43544772 -0.20744656 0.061005708 -0.2554262 0.05334071 0.18085343 0.11047452 -0.21171464
-0.9880618 -0.097967915 0.07225436 -0.24284776 -0.09311585 0.02434871 0.08940566 0.27214843
0.024322102 0.06442783 -0.19268483 0.3630599 0.1262302 -0.15154804 -0.48982602 -0.762682
-0.580965 -0.2923126 -0.26170802 -0.5402223 -0.6781751 -0.1553578 0.26603636 -0.13474186
0.07532084 -0.2704319 0.35408968 0.0031580592 0.31898463 -0.2851161 0.5579641 -0.18255848
0.25910407 -0.14594404 0.23932098 0.10726057 -0.7534042 -0.14921005 -0.10031477 0.03553315
-0.18323913 -0.57603025 -0.14970304 -0.40754777 -1.1177061 -0.34268406 -0.90169245 -0.3560346
0.025574915 -0.67204875 0.1945452 0.0959986 0.054439425 -0.13696115 -0.03974677 -0.2303214
0.008111747 0.05905422 -0.24430037 -0.007753728 -0.08429749 -0.29957598 -0.30921784 -0.23982862
-0.30040917 0.14075641 -0.12424977 -1.7242967 0.11407634 0.6378413 0.22660473 0.6344524
0.02479571 0.062303245 0.05062973 0.12617624 0.08174518 -0.10886315 -0.005874545 0.18034662
-0.07938266 -0.027389891 0.28118205 0.17197572 0.07967128 0.32774314 -1.5998241 -0.08711722
-0.068216085 0.16967028 -0.2665395 0.20016226 -0.39205578 0.2280936 -0.069929756 -0.2871159
-0.14492425 -0.2677964 -0.026458953 -0.053267572 0.21491645 -0.29695576 0.2984241 -0.22174661
0.22408429 0.0048351213 0.15832095 0.11758546 0.39692712 0.2778339 0.5752162 0.29955736
0.32341588 0.3146954 -0.17682946 0.39629263 -0.30363974 0.044486597 -0.23957992 -0.22521856
-0.06197188 -0.06507646 0.17985763 0.596924 0.25570527 0.12347927 0.102633715 0.11507773
-0.4245598 -0.50567716 -0.12744169 -0.19102566 -0.19712964 -0.37679875 -0.30637118 -0.0615833
-0.23268045 -0.11508073 -0.315926 -0.25259647 -0.057753596 -0.30931163 -0.32267153 -0.04704896
0.023200534 -0.16128157 -0.34222737 0.1995798 -0.45896202 0.14950173 0.17693073 0.15248114
0.12441187 -0.064641595 0.17197321 -0.0034533693 -0.14043933 -0.07247527 -0.49696591 -0.109465174
-0.46239895 -0.05667288 0.08128122 -0.058807716 0.15332755 0.09316719 0.44607586 0.096910655
-0.0064020874 0.12881692 -0.07476156 0.123879924 -0.055106394 -0.09096094 -0.04969018 -0.096801005
0.31801006 0.17359795 0.08468635 0.03831651 -0.12886548 -0.12399992 -0.064578876 0.07370364
0.0675223 0.12647277 0.58819824 0.10537114 -0.09402339 0.25642505 -0.101607606 -0.14869078
-0.2691461 -0.13215217 0.23919882 -0.82468987 0.013365045 0.054659396 0.18392153 0.35479078
0.20606206 0.390082 0.15898007 0.042727064 0.040938687 0.07691917 0.3397221 0.11664125
0.017147051 0.047032356 -0.015531552 0.22524917 0.13265757 -0.01562925 -0.17420475 0.029826492
00000000: 3cb9 803d 747b 9c3e 63ee 8abe 51a7 8abe
00000010: 369a 2f3d 2b82 c03e d52d cd3d 5d01 27bd
00000020: 21b3 b5bc 77f3 c83e 40c4 8e3e 7f78 4a3e
00000030: 2574 7cbe 9bb7 35be b4ad 76be 419a 00bf
00000040: 7d9b 97bd 66a6 b53e af42 aebe 8ac6 1cbe
00000050: 1c79 edbd 20ad 063f e998 003d 77b3 2ebe
00000060: fddc 0abe d580 d93d c60b ec3e 7133 913e
00000070: ca95 6f3e ecb8 6bbe 543b ed3d eade 893e
00000080: 01f3 de3e df6c 54be 1fe1 793d 39c7 82be
00000090: ca7b 5a3d a431 393e 7740 e23d b9cb 58be
000000a0: 9ef1 7cbf 67a3 c8bd 18fa 933d 15ad 78be
000000b0: 86b3 bebd f276 c73c 511a b73d 0a57 8b3e
000000c0: 253f c73c bdf2 833d 2c4f 45be fde2 b93e
000000d0: 7d42 013e 692f 1bbe 7aca fabe 213f 43bf
000000e0: 1fba 14bf ffa9 95be 98fe 85be 024c 0abf
000000f0: e29c 2dbf 1d16 1fbe eb35 883e c5f9 09be
00000100: d041 9a3d 0d76 8abe 3e4b b53e 71f7 4e3b
00000110: f451 a33e bdfa 91be bcd6 0e3f 9cf0 3abe
00000120: 4aa9 843e 5b72 15be 8f10 753e 6eab db3d
00000130: 19df 40bf 85ca 18be d571 cdbd 358b 113d
00000140: 0aa3 3bbe b876 13bf c14b 19be 1aaa d0be
00000150: fe10 8fbf 4974 afbe 51d5 66bf 2b4a b6be
00000160: 7c82 d13c 630b 2cbf db36 473e ea9a c43d
00000170: e0fb 5e3d 8b3f 0cbe 82cd 22bd 60d9 6bbe
00000180: 22e7 043c d6e2 713d e029 7abe fc12 febb
00000190: 2aa4 acbd 0662 99be cd51 9ebe a295 75be
000001a0: 3bcf 99be 7322 103e aa76 febd c1b5 dcbf
000001b0: dba0 e93d 9149 233f 120b 683e 796b 223f
000001c0: 5f20 cb3c b031 7f3d 1f61 4f3d 5834 013e
000001d0: 046a a73d a5f3 debd 417f c0bb c9ac 383e
000001e0: 6093 a2bd c460 e0bc 18f7 8f3e 671a 303e
000001f0: b22a a33d f3cd a73e 09c7 ccbf 836a b2bd
00000200: e0b4 8bbd 0cbe 2d3e de77 88be 56f7 4c3e
00000210: 89bb c8be 5e91 693e 5537 8fbd db00 93be
00000220: 0667 14be 9c1c 89be 72c0 d8bc 192f 5abd
00000230: 0f13 5c3e 960a 98be 0bcb 983e 8b11 63be
00000240: 5a76 653e f06f 9e3b e31e 223e a5d0 f03d
00000250: 083a cb3e 3f40 8e3e 5e41 133f 955f 993e
00000260: c496 a53e c11f a13e c812 35be dee6 ca3e
00000270: ab76 9bbe 9437 363d 7054 75be b29f 66be
00000280: 3ad6 7dbd cf46 85bd 992c 383e 03d0 183f
00000290: cdeb 823e b3e2 fc3d a031 d23d dfad eb3d
000002a0: e75f d9be 0f74 01bf 1380 02be 3b9c 43be
000002b0: 5adc 49be c4eb c0be afdc 9cbe c53e 7cbd
000002c0: c943 6ebe 72af ebbd 0dc1 a1be 5354 81be
000002d0: 098f 6cbd 185e 9ebe 3435 a5be 69b6 40bd
000002e0: 0c0f be3c ff26 25be 6d38 afbe a65e 4c3e
000002f0: 12fd eabe fb16 193e 542d 353e 0424 1c3e
00000300: a7cb fe3d d062 84bd bf19 303e ec51 62bb
00000310: 54cf 0fbe ea6d 94bd 5172 febe 472f e0bd
00000320: 8ebf ecbe d221 68bd c576 a63d 5ce0 70bd
00000330: e601 1d3e 71ce be3d 0e64 e43e 1879 c63d
00000340: 9ac8 d1bb 95e8 033e 971c 99bd c2b4 fd3d
00000350: 3eb7 61bd bb49 babd ee87 4bbd 9b3f c6bd
00000360: 37d2 a23e a9c3 313e 0970 ad3d c6f1 1c3d
00000370: 50f5 03be acf3 fdbd ee41 84bd eff1 963d
00000380: 2249 8a3d 1482 013e 2994 163f d3cc d73d
00000390: 568f c0bd 254a 833e a617 d0bd 6542 18be
000003a0: 85cd 89be e652 07be 89f0 743e e01e 53bf
000003b0: 10f9 5a3c 88e2 5f3d ed55 3c3e 23a7 b53e
000003c0: ef01 533e d4b8 c73e accb 223e 9302 2f3d
000003d0: 53af 273d cc87 9d3d 0ef0 ad3e 9ce1 ee3d
000003e0: f977 8c3c 00a5 403d 0d78 7ebc b8a7 663e
000003f0: 63d7 073e ea08 80bc bb62 32be b056 f43c

convt1.bias f4 [8]
-0.020167843 0.06882278 -0.045634434 0.11530599 0.036171 0.08156607 0.15635857 -0.01559461
00000000: 0837 a5bc f5f2 8c3d 2ceb 3abd 8c25 ec3d
00000010: 0b28 143d 1d0c a73d 761c 203e 8980 7fbc

convt2.weight f4 [8, 16, 5, 5]
-0.1684069 -0.28012842 -0.30758274 -1.1465862 -0.41512793 0.020585911 -0.17533122 0.15133934
-0.1534906 -0.33456406 0.056836326 0.12252573 -0.13428421 -0.0013588563 -0.5822248 0.23681653
-0.07368806 -0.12686944 -0.26850486 -0.13250862 0.34880465 0.1313538 0.20668194 -0.02504184
0.19713448 0.022398237 -0.034355223 -0.082065575 0.16340715 -0.047099844 0.06423692 0.07272444
-0.045320354 0.10070155 0.11322098 0.25117368 -0.37135732 0.04803082 0.017661799 0.039159115
0.26879588 -0.018704558 -0.34298185 0.17975485 0.08822461 0.068922475 0.04565879 -0.030265741
0.16070671 0.17912607 -0.6150593 -0.1778974 -0.3842282 -0.87887365 -0.10456762 0.04741415
-0.5242995 -0.15282252 0.29247415 -0.040510822 -0.14635667 -0.02780779 -0.08510777 0.008796507
-0.084044345 -0.037416693 -0.17243819 -0.03486874 -0.5186309 -0.09904957 -0.09513042 -0.29912746
0.08820265 -0.46813935 0.29660636 0.06971644 0.017754605 0.044537935 -0.10378056 -0.057559464
-0.012008691 0.11658504 -0.09262813 -0.12794365 -0.102930196 -0.010780238 -0.2357072 -0.08217967
-0.11240321 -0.0016522921 -0.11115101 -0.45846188 -0.06985078 -0.14851871 -0.12743573 -0.08470614
-0.07201702 -0.055239715 -0.1620924 -0.19981416 0.089017525 0.11394381 -0.017752232 0.091644034
-0.12228571 0.018202469 -0.24284038 -0.39269388 -0.14018804 -0.20994194 0.053771086 -0.24332012
-0.27043143 0.002594649 -0.25699246 -0.1717201 0.2516352 0.1381289 -0.06854131 0.14608866
-0.06818204 -0.054556895 -0.1012419 -0.14063978 -0.15240674 0.092955835 -0.72088456 -0.099605896
-0.090439424 -0.22722147 0.13060723 0.1017025 -0.5522459 -1.0071217 -0.01776857 -0.009094262
-0.15512083 -0.15029687 0.030109916 0.18238932 -0.06296916 0.060648862 -0.5760995 -0.4898507
-0.057058193 0.06460815 -0.5841103 -0.18379453 0.0696257 -0.04807109 0.19784658 0.05867057
-0.05637854 0.031164195 0.2508653 0.04844616 0.22388141 0.059097312 -0.08414794 0.13486835
-0.044118717 0.18267669 -0.16444394 0.0649614 0.08535446 -0.072323024 -0.068108186 0.044525396
-0.19407038 0.15489456 0.13688587 -0.14100729 0.1573137 0.061205618 0.13980655 -0.14032501
-0.19334298 0.034669615 -0.30105916 -0.09134646 -0.24332611 -0.025599683 -0.14844103 -0.012910738
-0.2502325 -0.10465991 -0.07959719 -0.1372132 -0.059792925 -0.04578877 0.025243623 -0.05460617
-0.1655359 0.047701947 0.074416146 -0.115250595 -0.114851885 -0.024949351 -0.645404 -0.05159067
-0.14743538 0.036793366 -0.15561463 -0.1314941 0.020821933 0.03648377 0.0968633 -0.16615848
-0.040843006 -0.05201566 0.12415045 -0.016026238 -0.051232863 -0.042677674 -0.103354424 0.20102477
0.22499803 -0.56812495 -0.006205482 0.14349604 0.24015477 0.072837904 0.09256388 0.05341388
-0.027722642 0.19501959 -0.1827097 0.2665537 -0.18217319 0.20589226 -0.013325305 -0.42135012
0.03718458 -0.075707525 0.12768517 0.03159854 -0.17292212 -0.31230968 0.022714688 0.22327349
-0.2603993 -0.21271832 -0.13518032 0.013991941 -0.5598919 -0.41506347 -0.10495464 -0.13581906
-0.0015042563 -0.1845101 -0.054891054 -0.21131697 0.17137404 0.040102426 -0.123154 0.2832623
00000000: dc72 2cbe fe6c 8fbe 7c7b 9dbe 56c3 92bf
00000010: a68b d4be c9a3 a83c 078a 33be b3f8 1a3e
00000020: a42c 1dbe fb4b abbe 35cd 683d c5ee fa3d
00000030: cd81 09be a71b b2ba af0c 15bf 0880 723e
00000040: c4e9 96bd 10ea 01be 7879 89be 57b0 07be
00000050: 8696 b23e 9c81 063e 6ea4 533e 8b24 cdbc
00000060: 9fdd 493e 827c b73c 10b8 0cbd ff11 a8bd
00000070: 3454 273e c4eb 40bd a58e 833d 8df0 943d
00000080: d6a1 39bd 9d3c ce3d 67e0 e73d d699 803e
00000090: 8c22 bebe f7bb 443d 7aaf 903c 4f65 203d
000000a0: 9d9f 893e 4d3a 99bc 519b afbe a811 383e
000000b0: 1baf b43d 3a27 8d3d b604 3b3d dcef f7bc
000000c0: 4d90 243e d36c 373e 8774 1dbf bc2a 36be
000000d0: 8fb9 c4be ddfd 60bf 8c27 d6bd 5735 423d
000000e0: 7e38 06bf 827d 1cbe 2cbf 953e adee 25bd
000000f0: 86de 15be 2acd e3bc fc4c aebd 391f 103c
00000100: 711f acbd 3f42 19bd a393 30be 86d2 0ebd
00000110: ffc4 04bf 80da cabd bdd3 c2bd 3c27 99be
00000120: 97a3 b43d f6af efbe cadc 973e 7ec7 8e3d
00000130: 1b72 913c 696d 363d e78a d4bd 79c3 6bbd
00000140: 1ac0 44bc 23c4 ee3d d1b3 bdbd a903 03be
00000150: 11cd d2bd 989f 30bc 3a5d 71be d14d a8bd
00000160: a733 e6bd b991 d8ba 24a3 e3bd 84bb eabe
00000170: ed0d 8fbd 4a15 18be 837e 02be 6a7a adbd
00000180: a97d 93bd 0a43 62bd 8dfb 25be 159c 4cbe
00000190: d24e b63d 5f5b e93d 216d 91bc deaf bb3d
000001a0: ee70 fabd 581d 953c 26ab 78be 2c0f c9be
000001b0: 748d 0fbe 05fb 56be 123f 5c3d e928 79be
000001c0: fd75 8abe fd0a 2a3b 8494 83be 65d7 2fbe
000001d0: 54d6 803e aa71 0d3e 635f 8cbd 4498 153e
000001e0: 06a3 8bbd 0d77 5fbd ea57 cfbd e003 10be
000001f0: 8310 1cbe a15f be3d e48b 38bf 2dfe cbbd
00000200: 4e38 b9bd bfac 68be e7bd 053e 6649 d03d
00000210: fd5f 0dbf 5de9 80bf 648f 91bc 1900 15bc
00000220: ffd7 1ebe 6ce7 19be 12a9 f63c 44c4 3a3e
00000230: faf5 80bd f16a 783d 427b 13bf b6cd fabe
00000240: dab5 69bd 4751 843d 4188 15bf a234 3cbe
00000250: eb97 8e3d 31e6 44bd 4b98 4a3e 8d50 703d
00000260: 2fed 66bd 0e4c ff3c 6b71 803e 7b6f 463d
00000270: 2b41 653e 0610 723d c155 acbd ee1a 0a3e
00000280: d4b5 34bd 990f 3b3e fe63 28be 7c0a 853d
00000290: 52ce ae3d 181e 94bd 4e7c 8bbd 4360 363d
000002a0: 63ba 46be ae9c 1e3e cf2b 0c3e 3764 10be
000002b0: d816 213e beb2 7a3d 7329 0f3e 5cb1 0fbe
000002c0: b4fb 45be ba01 0e3d 6d24 9abe da13 bbbd
000002d0: 7b2a 79be 6db6 d1bc ed00 18be 8f87 53bc
000002e0: 791e 80be ef57 d6bd da03 a3bd 9e81 0cbe
000002f0: 6de9 74bd 018d 3bbd b7cb ce3c b8aa 5fbd
00000300: 3e82 29be 1e63 433d 7e67 983d 8108 ecbd
00000310: 7737 ebbd 9562 ccbc 3239 25bf bd50 53bd
00000320: 4df9 16be a4b4 163d 7159 1fbe 64a6 06be
00000330: c292 aa3c 0170 153d 4460 c63d 7325 2abe
00000340: ff4a 27bd 5f0e 55bd 9742 fe3d 7549 83bc
00000350: 8dd9 51bd c9ce 2ebd 7cab d3bd 70d9 4d3e
00000360: e265 663e a370 11bf 5b57 cbbb a0f0 123e
00000370: 22eb 753e 0a2c 953d 2292 bd3d 83c8 5a3d
00000380: 981a e3bc 37b3 473e 4018 3bbe ba79 883e
00000390: 9c8b 3abe 6cd5 523e 6152 5abc 34bb d7be
000003a0: dc4e 183d 8c0c 9bbd e7bf 023e 786d 013d
000003b0: 7f12 31be 0ee7 9fbe 2714 ba3c cea1 643e
000003c0: 0f53 85be d5d2 59be b66c 0abe 743e 653c
000003d0: 1355 0fbf 3383 d4be 75f2 d6bd 2714 0bbe
000003e0: 772a c5ba 37f0 3cbe 71d5 60bd 7a63 58be
000003f0: ad7c 2f3e 7142 243d 2a38 fcbd c207 913e

convt2.bias f4 [16]
0.07562477 0.13767453 0.03465019 0.12744258 0.017077249 0.20460834 0.09189991 -0.007161998
0.15554708 0.047950853 -0.06398862 -0.036389124 0.012005973 0.16273564 -0.004974905 0.20191234
00000000: 29e1 9a3d 8dfa 0c3e 5ced 0d3d 4f80 023e
00000010: 96e5 8b3c d984 513e 0536 bc3d 32af eabb
00000020: bc47 1f3e 1d68 443d 770c 83bd c30c 15bd
00000030: b3b4 443c 2ca4 263e 8704 a3bb 1cc2 4e3e

convt3.weight f4 [16, 32, 9, 9]
-0.8761075 -0.22946951 -0.09592955 -0.6652159 0.0573178 -0.517007 -0.52177066 -0.11766835
-0.19305797 -0.19165461 0.12027495 -0.42982802 -0.035965726 -0.29600632 0.03404647 0.0915545
0.018969398 -0.40144345 -0.25998557 -0.13002242 0.034113638 -0.16057853 -0.12666628 0.007789348
-0.007835378 0.06340966 0.09485992 -0.24941508 -0.049137358 -0.64208966 -0.32400867 -0.06580924
-0.07434128 -0.25622258 -0.15188448 -0.47059295 -0.28098205 0.0032400887 -0.44550216 -0.3614085
-0.16154002 -0.057830196 -0.19999027 -0.1188226 -0.41742504 -0.1928151 -0.5323922 0.07719736
-0.24924548 -0.5859104 -0.12731443 -0.2514588 -0.56298184 -0.027476707 0.10609757 -0.49629366
0.18480532 -0.21796745 -0.9130597 -0.19889131 -0.2562814 0.09486881 -0.030767284 -0.14742607
-0.049758177 -0.5086156 -0.058679868 -0.0066836225 -0.0014636162 -0.10422724 0.052543547 -0.57875276
0.01919567 -0.25095877 -0.19124255 0.09356586 -0.22145338 -0.0032144089 -0.068538636 -0.3898424
-0.14285402 -0.31393182 -0.2957956 -0.2843658 -0.5852784 -0.67819977 -0.60853404 -0.34804004
-0.6158422 -0.69054395 -0.20595188 0.010623373 -0.06785489 -0.21281458 -0.22570778 -0.010994755
-0.025043638 0.19526725 -0.0661077 -0.35285482 -0.045235667 -0.22856821 -0.29174915 -0.30569753
-0.49846244 -0.15784445 -0.50162584 -0.34792918 -0.22265057 -0.24529685 -0.11087344 -0.25934577
-0.35825682 -0.40736374 -0.12824199 -0.22949882 -0.43877187 -0.22106263 -0.48178297 0.06825837
-0.3782939 -0.5222358 -0.06353092 -0.33125123 -0.2572762 -0.03299301 -0.3915072 -0.13539879
-0.23055613 -0.45948312 0.007565754 -0.42675194 -0.27465388 -0.26852474 -0.45565182 -0.16230126
-0.1280751 -0.18809055 -0.26030362 -0.34775022 -0.36717942 -0.07304621 -0.21896356 -0.21496277
-0.24329223 -0.35223404 -0.11626853 -0.54583454 -0.41231838 -0.18935752 -0.26661995 -0.31515342
-0.20969957 -0.25216115 -0.17007053 -0.08397839 -0.48490912 -0.33140674 -0.49333277 -0.3215621
-0.2560066 -0.47388303 -1.0664446 0.09780879 -0.70426023 -0.7110819 -0.5202238 -0.90310365
-0.47628874 -0.25956714 -1.0570643 -0.20856442 -0.09724561 -0.6562822 -0.036846492 -0.14552256
-0.08289379 -0.45175752 -0.07690195 -0.11984985 -0.48130128 -0.735754 -0.43947548 -0.41097522
-0.95554054 -0.3493158 -0.29389974 -0.76836234 -0.6834008 -0.29569355 0.04918456 -0.37432814
-0.21496351 -0.41222185 -0.6103269 -0.0032579387 -0.3836622 -0.24998075 -0.3985923 -0.42940557
-0.3170962 -0.49074587 -0.50347716 -0.08521151 -0.59728664 -0.1578907 -0.39197356 -0.07154843
-0.38620254 -0.19583145 -0.04132973 -0.45448574 -0.477597 -0.03845349 -0.3900212 -0.31935725
-0.87963986 -0.43063235 -0.97696066 -0.6365494 -0.26040345 -0.7053368 -0.38885266 -0.24702226
-0.40039548 -0.5690997 -0.12977147 -0.11612078 -0.0004071423 -0.4900298 0.051674936 -1.0031471
-0.034418352 -0.9205534 -0.70806515 -0.87329406 -0.8504464 -0.58447593 -0.7564125 -0.6479682
-0.32091963 -0.46120694 -0.44420993 -0.19444448 -0.04090904 -0.38606578 -0.09030624 -0.26138586
0.039246973 -0.2517484 0.13418703 -0.83904046 -0.13122834 0.1296361 -0.58715755 -0.33558357
00000000: 9548 60bf 0efa 6abe b676 c4bd 974b 2abf
00000010: 12c6 6a3d 925a 04bf c392 05bf 1bfc f0bd
00000020: fdb0 45be 1b41 44be b752 f63d 6b12 dcbe
00000030: cc50 13bd 248e 97be 5074 0b3d ed80 bb3d
00000040: b665 9b3c ff89 cdbe d41c 85be 9924 05be
00000050: beba 0b3d b36e 24be ceb4 01be c93d ff3b
00000060: f55f 00bc ecdc 813d eb45 c23d ab66 7fbe
00000070: 4144 49bd fd5f 24bf 77e4 a5be ffc6 86bd
00000080: 3e40 98bd 9b2f 83be 9b87 1bbe 8ff1 f0be
00000090: e1dc 8fbe ab57 543b dc18 e4be 890a b9be
000000a0: bf6a 25be 5bdf 6cbd 40ca 4cbe 4359 f3bd
000000b0: bcb8 d5be 5271 45be db4a 08bf a619 9e3d
000000c0: 353a 7fbe 39fe 15bf b75e 02be 35bf 80be
000000d0: 941f 10bf d516 e1bc af49 d93d 341a febe
000000e0: 9b3d 3d3e dc32 5fbe 48be 69bf 2aaa 4bbe
000000f0: 5137 83be 944a c23d ac0b fcbc dcf6 16be
00000100: 3bcf 4bbd a234 02bf 4d5a 70bd 4a02 dbbb
00000110: cfd6 bfba 1775 d5bd e737 573d 2429 14bf
00000120: 3d40 9d3c ab7d 80be 16d5 43be 759f bf3d
00000130: adc4 62be d5a8 52bb fc5d 8cbd 6c99 c7be
00000140: 5348 12be acbb a0be 8572 97be 6598 91be
00000150: ced4 15bf 809e 2dbf e3c8 1bbf 4e32 b2be
00000160: d6a7 1dbf 7dc7 30bf 0de5 52be a80d 2e3c
00000170: 81f7 8abd 11ec 59be f11f 67be 5823 34bc
00000180: 5128 cdbc 23f4 473e 7963 87bd 63a9 b4be
00000190: 0949 39bd c90d 6abe 2560 95be 6384 9cbe
000001a0: 7836 ffbe faa1 21be 8d6a 00bf c623 b2be
000001b0: 83fe 63be 192f 7bbe 9d11 e3bd f8c8 84be
000001c0: 706d b7be fb91 d0be de51 03be bd01 6bbe
000001d0: b5a6 e0be 3e5e 62be 42ac f6be 0bcb 8b3d
000001e0: bdaf c1be 3fb1 05bf 801c 82bd c399 a9be
000001f0: b5b9 83be ae23 07bd a273 c8be fba5 0abe
00000200: e816 6cbe 5f41 ebbe 25ea f73b 3b7f dabe
00000210: 6f9f 8cbe 137c 89be 324b e9be 4d32 26be
00000220: 1e26 03be cf9a 40be 8446 85be 510c b2be
00000230: f1fe bbbe 4099 95bd fc37 60be 331f 5cbe
00000240: 9921 79be 0558 b4be 321e eebd d0bb 0bbf
00000250: 651b d3be f0e6 41be 6982 88be ca5b a1be
00000260: 7cbb 56be 441b 81be f826 2ebe ddfc abbd
00000270: 0246 f8be 25ae a9be 1d96 fcbe caa3 a4be
00000280: 4c13 83be cca0 f2be 4281 88bf fa4f c83d
00000290: 664a 34bf 7709 36bf 632d 05bf cd31 67bf
000002a0: 1edc f3be fce5 84be e24d 87bf e991 55be
000002b0: b528 c7bd 1c02 28bf 59ec 16bd de03 15be
000002c0: 38c4 a9bd c34c e7be c57e 9dbd d773 f5bd
000002d0: 1f6d f6be 605a 3cbf ee02 e1be 586b d2be
000002e0: 4e9e 74bf 85d9 b2be 077a 96be 65b3 44bf
000002f0: 5bf3 2ebf 2565 97be c075 493d f0a7 bfbe
00000300: 651f 5cbe be0e d3be 623e 1cbf 2483 55bb
00000310: 5f6f c4be f4fa 7fbe 4a14 ccbe 0cdb dbbe
00000320: 6f5a a2be 0b43 fbbe e1e3 00bf 5f83 aebd
00000330: c7e7 18bf 1aae 21be c2b0 c8be fc87 92bd
00000340: 57bc c5be 0a88 48be 5d49 29bd 5bb2 e8be
00000350: 9887 f4be 6881 1dbd dcb0 c7be cb82 a3be
00000360: 1430 61bf d87b dcbe 181a 7abf e7f4 22bf
00000370: 9a53 85be f490 34bf b217 c7be 67f3 7cbe
00000380: a300 cdbe 85b0 11bf d0e2 04be bbd0 edbd
00000390: b775 d5b9 30e5 fabe 19a9 533d 2067 80bf
000003a0: 42fa 0cbd 63a9 6bbf c243 35bf 3390 5fbf
000003b0: dbb6 59bf 37a0 15bf 40a4 41bf 3ee1 25bf
000003c0: 944f a4be 5123 ecbe 7c6f e3be 741c 47be
000003d0: 3d90 27bd 6aaa c5be 7af2 b8bd 5ed4 85be
000003e0: 6fc1 203d 2be5 80be 5368 093e 5bcb 56bf
000003f0: b960 06be 53bf 043e f54f 16bf 9cd1 abbe

convt3.bias f4 [32]
0.16221212 0.1448516 0.18517214 0.19071823 0.1147705 0.038619447 -0.37422565 0.049229577
0.10046827 0.08574102 0.052432124 0.18827452 0.24675566 -0.24285915 0.21244138 0.13468896
0.19253099 0.013547081 0.15018398 0.06182229 0.18646665 0.11359915 0.117621645 0.1874939
0.11859325 0.080078326 0.09980894 0.07370473 0.10811749 0.110585965 -0.35126454 0.14792539
00000000: ef1a 263e fa53 143e c49d 3d3e a44b 433e
00000010: cc0c eb3d 6d2f 1e3d 819a bfbe f4a4 493d
00000020: 4fc2 cd3d fd98 af3d 11c3 563d 09cb 403e
00000030: 84ad 7c3e 12b0 78be 3c8a 593e e7eb 093e
00000040: d826 453e 93f4 5d3c d4c9 193e 5f39 7d3d
00000050: 1df1 3e3e aca6 e83d 9ee3 f03d 67fe 3f3e
00000060: 05e1 f23d 1b00 a43d a168 cc3d 81f2 963d
00000070: b46c dd3d e57a e23d f2d8 b3be c179 173e

pos_output.weight f4 [1, 32, 2, 2]
0.13200918 0.10928663 0.14735445 0.20446716 0.16405599 0.1607261 0.21041699 0.18432471
0.023295445 0.019269712 0.05000835 0.015746662 0.18898365 0.13270551 0.12455399 0.15245295
0.0708189 0.093615636 0.10126497 0.17328617 0.042484805 -0.23161913 0.0666917 -0.19993082
-0.15669331 -0.19623943 -0.26546657 -0.25756016 -0.10096289 0.13886832 0.033640776 0.3902022
0.27454674 0.24692868 0.21027653 0.16346411 -0.09332765 0.13821737 -0.03818736 0.13591318
0.25008932 0.25014827 0.2875612 0.23710886 0.33691537 0.34386522 0.3219701 0.25256667
-0.085551836 -0.024849603 0.10764124 0.01844703 -0.2640043 -0.21521905 -0.21844321 -0.17721891
-0.058092732 -0.032349702 0.16614825 -0.14684823 0.011815014 -0.23674695 0.22200233 0.0027071459
0.030265663 0.004966195 0.077673 0.05741295 -0.17640299 -0.16464315 -0.1880291 -0.13252431
0.09661176 0.12795125 0.08598272 0.09905142 0.25238276 0.151452 0.21301167 0.19604759
-0.17560323 -0.047083374 0.092583776 0.022580473 -0.20767717 -0.1917671 -0.1941454 -0.17293708
-0.115444764 0.029963594 0.04684982 -0.036096253 0.10080031 0.1495202 -0.11454089 0.078894675
0.015537347 -0.012756544 0.0016448762 -0.06903027 -0.042137913 0.04626619 -0.23281361 -0.13100904
0.12910452 0.117543556 0.11038239 0.06426937 -0.13221441 -0.13949467 -0.16327165 -0.16243185
0.31598032 0.30893412 0.21427098 0.24031256 0.10868764 0.07320183 0.031955857 0.030925447
0.015970292 0.01610623 0.008504881 -0.0007944866 0.103391 0.10285513 0.15348998 0.16305405
00000000: 6a2d 073e abd1 df3d 16e4 163e d75f 513e
00000010: 4bfe 273e 6295 243e 8d77 573e 9ebf 3c3e
00000020: 17d6 be3c 84db 9d3c 8ed5 4c3d 25ff 803c
00000030: ee84 413e f4e3 073e 2a16 ff3d a01c 1c3e
00000040: 8009 913d 8eb9 bf3d 0264 cf3d ee71 313e
00000050: 8c04 2e3d 912d 6dbe a895 883d aaba 4cbe
00000060: 3674 20be fdf2 48be 3ceb 87be edde 83be
00000070: a2c5 cebd 7f33 0e3e e9ca 093d 95c8 c73e
00000080: 6491 8c3e dfda 7c3e bb52 573e 2363 273e
00000090: 9122 bfbd db88 0d3e 596a 1cbd d32c 0b3e
000000a0: b50b 803e 6f13 803e 393b 933e aacc 723e
000000b0: 2c80 ac3e 1a0f b03e 44d9 a43e 6b50 813e
000000c0: cd35 afbd 6591 cbbc 0373 dc3d 3a1e 973c
000000d0: 922b 87be 6262 5cbe 94af 5fbe e078 35be
000000e0: a5f2 6dbd 1f81 04bd c422 2a3e 625f 16be
000000f0: c393 413c cb6d 72be 9454 633e 5f6a 313b
00000100: b2ef f73c 77bb a23b 0613 9f3d d729 6b3d
00000110: fca2 34be 3798 28be b38a 40be 74b4 07be
00000120: 63dc c53d a705 033e b517 b03d 79db ca3d
00000130: 5038 813e 3c16 1b3e bb1f 5a3e b3c0 483e
00000140: 55d1 33be 7fda 40bd 909c bd3d affa b83c
00000150: 53a9 54be 985e 44be 0dce 46be 6b16 31be
00000160: 4e6e ecbd 3676 f53c 99e5 3f3d aad9 13bd
00000170: 6570 ce3d d31b 193e 6a94 eabd 8893 a13d
00000180: 5b90 7e3c d300 51bc e398 d73a be5f 8dbd
00000190: ce98 2cbd 9e81 3d3d b166 6ebe 3c27 06be
000001a0: fa33 043e adba f03d 2a10 e23d a99f 833d
000001b0: 3763 07be b1d7 0ebe af30 27be 8954 26be
000001c0: 2cc8 a13e 9d2c 9e3e da69 5b3e 7f14 763e
000001d0: a097 de3d d7ea 953d 25e4 023d 5d57 fd3c
000001e0: 21d4 823c 36f1 833c 0e58 0b3c 1845 50ba
000001f0: a9be d33d b6a5 d23d 7a2c 1d3e a4f7 263e

cos_output.weight f4 [1, 32, 2, 2]
-0.33745414 -0.28726006 -0.39298028 -0.44308886 -0.1478081 -0.1451915 -0.20840481 -0.19494702
-0.19528794 -0.2349274 -0.2908515 -0.17563438 -0.48370814 -0.4095894 -0.39191365 -0.4553054
0.13901846 0.08328378 0.1324077 0.068463 -0.29270652 -0.024918405 0.009552597 0.2539036
0.11384721 0.18049182 0.21067096 0.19400083 0.18743862 -0.008303615 0.12241475 -0.0834551
-0.41200423 -0.41746628 -0.2994011 -0.26356262 0.21169455 -0.09426801 0.08084285 -0.16730969
-0.11980696 -0.076405495 -0.16780426 -0.11220115 -0.21778211 -0.2684462 -0.17663497 -0.123323396
0.24996635 0.124828056 0.21295846 0.28176996 0.271982 0.24540877 0.2510317 0.2253447
0.1471194 0.12631623 0.14034931 0.13422133 0.035765283 0.19452965 -0.25462964 -0.05077108
-0.29764792 -0.26141417 -0.29776374 -0.33420336 0.15310057 0.18212824 0.18048191 0.13218512
-0.27306393 -0.34760207 -0.2681454 -0.33722308 -0.08529857 -0.09482146 -0.0806237 -0.06303415
0.061270043 0.1974137 0.19218159 0.017520726 0.3204564 0.30862615 0.28136212 0.27147242
0.022290235 0.022003824 0.08607675 0.087998785 -0.0043287054 0.17881013 0.10891917 0.23304969
-0.14036134 -0.056127824 -0.055821728 0.13409504 -0.16420619 -0.18125868 0.115237445 0.1269495
-0.25301778 -0.23928888 -0.19870897 -0.2024183 0.06937374 0.07930306 0.09980563 0.0988126
-0.052475866 -0.112014696 -0.055297613 -0.11014662 -0.0731228 -0.08089063 0.061260477 0.071350604
-0.07715512 -0.13865261 -0.13858767 -0.07504621 -0.13869971 -0.12836775 -0.2477647 -0.23278841
00000000: cac6 acbe c013 93be b634 c9be 8bdc e2be
00000010: 025b 17be 15ad 14be 1268 55be 31a0 47be
00000020: 90f9 47be cf90 70be 7dea 94be 80d9 33be
00000030: 98a8 f7be b4b5 d1be e8a8 c8be ca1d e9be
00000040: db5a 0e3e b090 aa3d e295 073e 5436 8c3d
00000050: a1dd 95be af21 ccbc 7f82 1c3c a7ff 813e
00000060: ba28 e93d d9d2 383e 21ba 573e 27a8 463e
00000070: e9ef 3f3e e30b 08bc 96b4 fa3d 82ea aabd
00000080: 38f2 d2be 24be d5be 1a4b 99be aef1 86be
00000090: 75c6 583e 960f c1bd f090 a53d 3b53 2bbe
000000a0: 5a5d f5bd 7c7a 9cbd e1d4 2bbe b7c9 e5bd
000000b0: 4602 5fbe c871 89be ccdf 34be fa90 fcbd
000000c0: 2ef7 7f3e daa5 ff3d c811 5a3e 2744 903e
000000d0: 3a41 8b3e 704c 7b3e 3a87 803e c3c0 663e
000000e0: 78a6 163e 0b59 013e bbb7 0f3e 5171 093e
000000f0: 9e7e 123d c832 473e d15e 82be 56f5 4fbd
00000100: 4f65 98be 14d8 85be 7d74 98be b41c abbe
00000110: 65c6 1c3e d37f 3a3e 40d0 383e 895b 073e
00000120: 09cf 8bbe e6f8 b1be 5b4a 89be 81a8 acbe
00000130: 04b1 aebd c131 c2bd 0a1e a5bd 0c18 81bd
00000140: 4cf6 7a3d d126 4a3e 40cb 443e a087 8f3c
00000150: dc12 a43e 3f04 9e3e b20e 903e 6ffe 8a3e
00000160: 039a b63c 5d41 b43c 0249 b03d b538 b43d
00000170: d0d7 8dbb 011a 373e 0411 df3d 94a4 6e3e
00000180: e2ba 0fbe 4ae6 65bd 53a5 64bd 3650 093e
00000190: ab25 28be e09b 39be 9c01 ec3d 0dff 013e
000001a0: 8c8b 81be 2508 75be 5d7a 4bbe be46 4fbe
000001b0: d213 8e3d a569 a23d e566 cc3d 435e ca3d
000001c0: eff0 56bd f667 e5bd c07f 62bd 8d94 e1bd
000001d0: 68c1 95bd fda9 a5bd 44ec 7a3d 4420 923d
000001e0: 8103 9ebd f3fa 0dbe ede9 0dbe d4b1 99bd
000001f0: 4c07 0ebe d672 03be 08b6 7dbe 1660 6ebe

sin_output.weight f4 [1, 32, 2, 2]
0.07131734 0.09330583 0.10395441 0.13023362 0.39256474 0.42017606 0.4224762 0.43816116
-0.29518 -0.39031768 -0.40365922 -0.28028038 0.03801933 0.040455524 0.022543078 0.025665745
-0.048365943 -0.09303203 -0.08925588 -0.13917838 -0.015501848 0.058012266 -0.087506115 -0.04986843
0.015570988 0.047735874 0.041259117 0.03863264 0.03200464 -0.01766389 0.03613924 -0.06099825
0.028411213 -0.022052312 0.043791566 -0.019025749 -0.043572363 0.09566487 0.047155313 0.03475155
0.045317914 0.03283098 0.030488694 0.066026315 -0.037000682 -0.015339367 -0.012297359 -0.03380342
0.039969154 -0.1317199 -0.047861356 0.1958389 -0.020179186 -0.057952706 -0.026079308 -0.057604708
0.04009496 -0.08671146 -0.067821 -0.03193927 -0.03495851 0.00657324 -0.003581036 -0.0031045147
-0.018105647 -0.02125572 0.008908289 -0.026969802 0.0026325963 -0.0117316265 -0.003125063 0.02969419
0.08745084 0.11029459 0.13544013 0.08946766 -0.19895962 -0.15095456 -0.16835709 -0.18028097
0.0063778013 0.18591319 0.0033951546 -0.077185966 -0.056439783 -0.035182733 -0.06719271 -0.029434843
-0.11156188 -0.054831084 0.093661 -0.048696894 -0.008917787 -0.07647361 0.07301187 0.026645303
0.22714685 0.11156145 0.2895306 0.053484242 0.042219117 0.04749814 -0.0058862637 0.0024160086
-0.03673504 -0.039902378 -0.02244209 -0.032576527 0.005173883 -0.0021688878 -0.011881053 -0.0062392843
-0.16606477 -0.19666909 -0.111144885 -0.15042523 0.23585314 0.2555913 0.2156435 0.18525185
-0.0006483181 -0.009657463 -0.009068528 -0.004867285 -0.013905992 -0.014509044 -0.018503442 0.002930471
00000000: d30e 923d 2117 bf3d 0de6 d43d f65b 053e
00000010: 3ffe c83e 5121 d73e cd4e d83e a956 e03e
00000020: d521 97be b8d7 c7be 6cac cebe e980 8fbe
00000030: 28ba 1b3d b1b4 253d 43ac b83c f840 d23c
00000040: 5e1b 46bd 9487 bebd c9cb b6bd c784 0ebe
00000050: 77fb 7dbc 459e 6d3d 6836 b3bd d742 4cbd
00000060: 751d 7f3c b186 433d 52ff 283d 423d 1e3d
00000070: 4c17 033d ddb3 90bc bd06 143d 4dd9 79bd
00000080: a2be e83c 0da7 b4bc c95e 333d e3db 9bbc
00000090: ef78 32bd f2eb c33d ee25 413d a457 0e3d
000000a0: 479f 393d c779 063d 6dc3 f93c ce38 873d
000000b0: 078e 17bd f851 7bbc dd7a 49bc 7475 0abd
000000c0: b2b6 233d 95e1 06be 450a 44bd fe89 483e
000000d0: d24e a5bc d15f 6dbd 46a4 d5bc eaf2 6bbd
000000e0: 9d3a 243d c795 b1bd bde5 8abd c1d2 02bd
000000f0: a830 0fbd 5564 d73b d1af 6abb 1d75 4bbb
00000100: 4b52 94bc 7a20 aebc 12f4 113c c6ef dcbc
00000110: a387 2c3b 0236 40bc dbcd 4cbb 3b41 f33c
00000120: 6d19 b33d 21e2 e13d d1b0 0a3e d23a b73d
00000130: 12bc 4bbe d593 1abe cd65 2cbe 939b 38be
00000140: e0fc d03b 0760 3e3e 3e81 5e3b ad13 9ebd
00000150: 672d 67bd c51b 10bd 559c 89bd 5721 f1bc
00000160: 8e7a e4bd 8f96 60bd 57d1 bf3d 6576 47bd
00000170: e91b 12bc 329e 9cbd 3f87 953d 4047 da3c
00000180: 2f99 683e 547a e43d 5b3d 943e 4b12 5b3d
00000190: f4ed 2c3d 698d 423d 8fe1 c0bb e655 1e3b
000001a0: 7b77 16bd ad70 23bd 79d8 b7bc f76e 05bd
000001b0: ad89 a93b e623 0ebb c0a8 42bc e972 ccbb
000001c0: e20c 2abe 9f63 49be ee9f e3bd 1209 1abe
000001d0: 7c83 713e dddc 823e a6d1 5c3e a9b2 3d3e
000001e0: e4f3 29ba 563a 1ebc 2a94 14bc bf7d 9fbb
000001f0: f5d5 63bc 57b7 6dbc 8894 97bc 250d 403b
