ggcnn_base/output/models/230121_1510_training_example/epoch_20_iou_0.64_statedict.pt (torch, 256417 bytes, 16 tensors)

conv1.weight f4 [32, 1, 9, 9]
-0.022358004 -0.01755736 -0.035579413 -0.014496171 -0.037561353 -0.0093354 0.038007032 0.037359875
0.025239753 -0.026196333 0.0012184983 -0.021870738 -0.043029156 -0.027987044 0.0037790071 0.01551233
-0.050918236 -0.020636503 0.008784653 0.02660944 0.046406712 0.010408166 0.033037964 0.015234799
-0.03949744 -0.0068235556 -0.05351259 0.025594221 -0.034696475 -0.021847375 -0.007094712 0.008446418
0.039662704 0.031140221 -0.04430471 -0.0035311964 -0.023640642 -0.012221729 0.010908931 0.0086387135
0.0039587957 0.029614655 -0.03679594 -0.04231601 0.020480797 0.00032413437 0.020550866 -0.0057361517
-0.029627852 0.0010733663 7.699907e-05 0.04028945 0.029950887 -0.00020321264 -0.037766505 0.010121104
0.040334944 -0.006535135 -0.03566291 0.03838177 -0.010641009 0.013134523 0.04106745 0.03625041
-0.012757076 -0.0014405339 -0.037450198 0.035065215 -0.0074918466 -0.0050672293 -0.00040165032 0.0057662744
-0.015640093 0.018874412 0.03302366 0.035645697 0.005740491 -0.05293423 -0.017765002 -0.018419588
0.040663015 -0.27583048 -0.24023774 -0.26591238 -0.25328213 -0.2841603 -0.20807399 -0.089335285
-0.05190701 -0.05678318 -0.27109876 -0.24079421 -0.18961443 -0.16201629 -0.19479142 -0.22202922
-0.024824904 0.011730537 0.054634515 -0.17760746 -0.14628369 -0.21387967 -0.117334016 -0.15904959
-0.12253309 -0.018504638 0.020051697 0.06798392 -0.10450743 -0.06827845 -0.08447061 -0.06295963
-0.073864274 -0.021327177 0.07105099 0.13231282 0.23805489 -0.042430058 -0.043967336 -0.07129633
-0.0064993557 0.04038161 0.024226613 0.14440095 0.25340357 0.33090413 -0.047335576 0.022267163
-0.037911706 0.075618446 0.019481504 0.050664566 0.2060356 0.31639126 0.40477931 -0.041546788
-0.010561637 -0.025146745 -0.01756975 -0.01696784 0.036523856 0.22591673 0.2950632 0.35408622
-0.006976562 0.005424201 -0.015201799 0.0014358864 -0.024127543 0.03014744 0.22191975 0.3144928
0.40033934 -0.044241764 -0.018824173 0.04342013 0.0101165455 0.07835643 0.07247443 0.2678208
0.32412493 0.34753105 -0.18309297 -0.22121938 -0.26610917 -0.13816136 -0.23571943 -0.18398827
-0.19563809 -0.2154819 -0.2019217 -0.12929943 -0.16851175 -0.16997758 -0.09483254 -0.0776594
-0.123231865 -0.13981517 -0.12518571 -0.11065758 -0.07954609 -0.047695726 -0.1364218 -0.075763285
-0.043244928 -0.034791168 -0.08471961 -0.035158392 -0.01840397 -0.029913886 -0.08813365 -0.111793265
0.029459944 -0.0027331812 -0.033667736 -0.034170087 -0.025471918 -0.004761269 0.0585873 -0.026628911
-0.04347228 -0.025266722 0.010502307 0.03414441 -0.0120828 -0.01001352 -0.00535622 0.045279033
-0.009463372 -0.06338333 0.07977253 0.049492437 0.06067128 -0.029372383 -0.001320166 0.02882375
0.124898344 0.029308539 0.0052389633 0.13687786 0.10225504 0.05444672 0.059593335 0.12558737
0.057026967 0.15569405 0.16490126 0.13046981 0.18661083 0.11617451 0.1055762 0.11004135
0.15031865 0.17245254 0.27051085 0.22611819 0.17821415 0.20600738 0.2334431 0.20442727
0.21031083 0.17314401 0.22936684 -0.12838316 -0.15333301 -0.118961304 -0.2579249 -0.2798137
-0.25797695 -0.27491596 -0.306214 -0.24731223 -0.11600304 -0.091759056 -0.07446833 -0.15735985
00000000: 2228 b7bc 74d4 8fbc b8bb 11bd 5981 6dbc
00000010: efd9 19bd 81f3 18bc 43ad 1b3d ab06 193d
00000020: 99c3 ce3c b199 d6bc 05b6 9f3a 432a b3bc
00000030: 573f 30bd 1645 e5bc 38a9 773b 6e27 7e3c
00000040: a48f 50bd e20d a9bc 81ed 0f3c 0afc d93c
00000050: f714 3e3d 0387 2a3c d152 073d 619b 793c
00000060: 11c8 21bd 2298 dfbb 0430 5bbd f9aa d13c
00000070: e41d 0ebd 44f9 b2bc c27a e8bb d862 0a3c
00000080: 5c75 223d c719 ff3c db78 35bd a56b 67bb
00000090: 05aa c1bc a63d 48bc 5fbb 323c 6489 0d3c
000000a0: c9b8 813b 6f9a f23c 57b7 16bd 8d53 2dbd
000000b0: 58c7 a73c 94f0 a939 4a5a a83c 54f6 bbbb
000000c0: 1cb6 f2bc 32b0 8c3a 907a a138 8d06 253d
000000d0: 905b f53c 7a15 55b9 0db1 1abd fdd2 253c
000000e0: 4136 253d b024 d6bb 4613 12bd 3436 1d3d
000000f0: a057 2ebc 2f32 573c 5836 283d 4f7b 143d
00000100: 0e03 51bc 4cd0 bcba 6165 19bd 8ba0 0f3d
00000110: 2a7e f5bb 000b a6bb 9894 d2b9 04f3 bc3b
00000120: a71f 80bc 839e 9a3c d143 073d 3901 123d
00000130: bb1a bc3b 90d1 58bd e987 91bc ade4 96bc
00000140: 438e 263d a739 8dbe e200 76be ab25 88be
00000150: 32ae 81be 757d 91be 5911 55be 6bf5 b6bd
00000160: 729c 54bd 7b95 68bd 75cd 8abe c292 76be
00000170: 492a 42be 99e7 25be 6777 47be a15b 63be
00000180: 995d cbbc 7031 403c 71c8 5f3d bbde 35be
00000190: 64cb 15be 4603 5bbe d14c f0bd e5dd 22be
000001a0: a1f2 fabd 0a97 97bc 7543 a43c 273b 8b3d
000001b0: fe07 d6bd 92d5 8bbd edfe acbd faf0 80bd
000001c0: 2746 97bd 55b6 aebc 2e83 913d 037d 073e
000001d0: a9c4 733e 24cb 2dbd 1817 34bd cf03 92bd
000001e0: 8cf8 d4bb 3067 253d e476 c63c d8dd 133e
000001f0: 1dbe 813e 446c a93e f3e2 41bd a069 b63c
00000200: 4e49 1bbd d8dd 9a3d ad97 9f3c a685 4f3d
00000210: fffa 523e 09fe a13e 3c3f cf3e f72c 2abd
00000220: b70a 2dbc 8c00 cebc 70ee 8fbc 2400 8bbc
00000230: 0a9a 153d b756 673e 8612 973e ca4a b53e
00000240: a59b e4bb 7fbd b13b f710 79bc 5a34 bc3a
00000250: 20a7 c5bc c4f7 f63c ee3e 633e 3305 a13e
00000260: 47f9 cc3e da36 35bd 2735 9abc 4ed9 313d
00000270: debf 253c 5679 a03d 796d 943d cf1f 893e
00000280: b4f3 a53e 97ef b13e b97c 3bbe 5587 62be
00000290: 763f 88be 2c7a 0dbe 6f60 71be 6c67 3cbe
000002a0: 5a55 48be 4aa7 5cbe 90c4 4ebe 1267 04be
000002b0: 588e 2cbe 9a0e 2ebe 9037 c2bd e40b 9fbd
000002c0: fd60 fcbd b52b 0fbe af30 00be 71a0 e2bd
000002d0: 0fe9 a2bd 985c 43bd 28b2 0bbe c829 9bbd
000002e0: 9821 31bd 2f81 0ebd 7a81 adbd 3f02 10bd
000002f0: ecc3 96bc f70d f5bc 6a7f b4bd def3 e4bd
00000300: fb55 f13c 2c1f 33bb 2ee7 09bd eff5 0bbd
00000310: 7caa d0bc 6b04 9cbb 3df9 6f3d e024 dabc
00000320: fd0f 32bd 28fc cebc de11 2c3c 02db 0b3d
00000330: f0f6 45bc bf0f 24bc 3b83 afbb 8276 393d
00000340: 420c 1bbc 1fcf 81bd c85f a33d 95b8 4a3d
00000350: 7382 783d 5a9e f0bc 6c09 adba c91f ec3c
00000360: b4ca ff3d 7618 f03c 9cab ab3b b629 0c3e
00000370: 176b d13d 8603 5f3d 2418 743d fa99 003e
00000380: 1c95 693d 436e 1f3e e0db 283e e199 053e
00000390: e916 3f3e e7ec ed3d 5638 d83d 5c5d e13d
000003a0: 22ed 193e 6697 303e 6680 8a3e 878b 673e
000003b0: c57d 363e 99f3 523e b50b 6f3e 6255 513e
000003c0: b95b 573e aa4c 313e 24df 6a3e e076 03be
000003d0: 5403 1dbe fca1 f3bd bc0e 84be be43 8fbe
000003e0: 8e15 84be c9c1 8cbe 15c8 9cbe 6b3f 7dbe
000003f0: 0093 edbd 2cec bbbd da82 98bd f122 21be

conv1.bias f4 [32]
-0.09973523 -0.032472547 0.07312334 0.013917947 -0.33658966 -0.40629748 0.04606024 0.030493764
0.15984541 -0.0768455 0.15449136 -0.035569802 -0.05022299 -0.27744675 -0.0986321 0.09945083
-0.18963797 -0.20338558 -0.052860595 -0.075291105 -0.07478964 -0.098145775 -0.29199973 0.057531454
0.18259066 0.0698469 0.009469879 -0.019793851 0.0041250875 -0.0816373 0.061110776 0.00012395397
00000000: fc41 ccbd ef01 05bd b1c1 953d 1a08 643c
00000010: 7b55 acbe 3906 d0be aaa9 3c3d 0fce f93c
00000020: 84ae 233e 2c61 9dbd fc32 1e3e a4b1 11bd
00000030: 9fb6 4dbd 800d 8ebe a0ff c9bd e0ac cb3d
00000040: 7530 42be 4f44 50be 5a84 58bd 3932 9abd
00000050: 502b 99bd a700 c9bd fd80 95be 1aa6 6b3d
00000060: 0cf9 3a3e e40b 8f3d 8d27 1b3c b726 a2bc
00000070: be2b 873b 7531 a7bd 4b4f 7a3d a4f9 0139

conv2.weight f4 [16, 32, 5, 5]
-0.0456554 0.040415358 0.0030132076 0.0102111455 0.0060982364 -0.0067605646 0.06324049 0.042577196
-0.015627125 -0.06343843 -0.010868363 0.017105712 -0.03846567 -0.01254823 0.048445597 0.033695213
-0.027788652 -0.0032835396 0.026356744 -0.044643074 -0.02669867 0.03866702 0.061347462 -0.049268227
0.023879671 0.11377324 0.07099852 -0.015473195 0.7187684 0.0569453 -0.17662889 -0.10779662
-0.1816672 0.4486804 -0.037037954 -0.15239672 -0.084807605 -0.12719177 0.3559805 -0.09515204
-0.18154238 -0.07885684 -0.06387946 0.37550563 -0.081638604 -0.1672293 -0.021498827 -0.15088299
0.3423056 -0.25176534 0.11011133 0.07601336 0.10956914 0.041520428 -0.10303062 0.14940228
0.034193568 0.056177646 -0.0039784815 -0.13977812 0.014438069 0.017574716 -0.0766407 -0.090448976
-0.24014185 0.28761375 0.1854523 0.16464613 0.15385664 0.08810471 0.13466 -0.053768497
-0.19305104 -0.21213758 -0.29579565 0.060828302 0.21870422 0.25653967 0.31949392 0.3052352
-0.004710027 0.12630399 0.17411889 0.10270674 0.07628767 0.0009578855 0.076840654 0.06738296
0.06846797 0.022271326 0.1505786 0.20179366 0.21118301 0.30788288 0.20396163 -0.040556386
-0.057444792 -0.046408765 -0.0657142 0.08067188 0.28015342 0.14188924 0.19788623 0.20309187
0.17525509 0.112498745 0.025336958 -0.07356158 -0.0036676927 0.044416007 0.017627064 -0.019147005
-0.17721052 -0.109354176 -0.14718711 0.063357554 -0.06177099 -0.14496158 -0.15320042 -0.10068878
-0.03155718 -0.07413041 -0.20577611 -0.30528322 -0.23773454 0.15366516 0.19743922 0.11740223
0.034956373 0.038794626 0.09741493 0.10465502 0.17418769 0.028353473 -0.019135904 0.1254835
0.15948816 0.02335486 -0.10055399 -0.0889397 0.004379503 0.009787858 -0.14091927 -0.18970719
-0.066101104 0.021146592 -0.12992175 -0.19154449 -0.21131487 -0.21097963 0.21965608 0.06517304
-0.013135329 0.09756343 -0.28581238 0.12822485 0.069418885 0.06687902 0.07844182 -0.3237489
0.119885266 0.011915071 -0.028905215 0.07389329 -0.2976034 0.11864243 0.1164651 0.09607394
0.07426047 -0.25665423 -0.030720852 -0.019980086 -0.051234853 -0.011598845 -0.32730258 0.17675218
0.06161396 0.11265077 -0.07392725 -0.087482825 -0.016314782 0.02070626 -0.04047974 -0.030718453
-0.09253022 0.0029457558 0.019233778 -0.02019165 -0.03348898 -0.14556506 0.0011438337 0.033532236
0.026949814 -0.03159921 -0.22329742 -0.018745653 0.06493861 0.14815396 -0.10991809 -0.14919129
0.06415476 -0.024719013 -0.06744403 -0.14191777 -0.17966445 0.14740613 0.11139489 0.0292337
-0.048852988 -0.12621725 0.07693861 0.15164539 0.036129612 -0.014951881 -0.10076897 0.16697499
0.15279268 0.053518064 0.0662701 -0.02913575 0.082508974 0.02726411 -0.003079994 -0.17422491
-0.22001113 -0.923497 -0.23818026 -0.35679242 -0.30044067 -0.37109172 -0.52734286 -0.27996415
-0.17857897 -0.28759468 -0.30748388 -0.28384107 -0.32048059 -0.05543797 -0.01375921 -0.24656558
-0.06979701 -0.2241098 -0.11925373 0.07047256 -0.0080581065 0.16750048 -0.1788136 -0.19054706
0.07079032 -0.13020779 0.12764364 0.0043190485 -0.12520415 -0.23127444 -0.09057835 0.06905474
00000000: 2801 3bbd 938a 253d 3c79 453b a64c 273c
00000010: b7d3 c73b ba87 ddbb 3b84 813d 6d65 2e3d
00000020: 7504 80bc 02ec 81bd 3811 32bc 4721 8c3c
00000030: 2e8e 1dbd 1797 4dbc e46e 463d fe03 0a3d
00000040: 07a5 e3bc a730 57bb 19ea d73c a8db 36bd
00000050: 2bb7 dabc 4f61 1e3d 7a47 7b3d 7bcd 49bd
00000060: 4d9f c33c f201 e93d ac67 913d 4983 7dbc
00000070: 3501 383f 7a3f 693d 34de 34be 79c4 dcbd
00000080: f706 3abe 70b9 e53e 1cb5 17bd e30d 1cbe
00000090: 9caf adbd 8f3e 02be 1343 b63e 13df c2bd
000000a0: 3fe6 39be b27f a1bd 3cd3 82bd 4642 c03e
000000b0: 2432 a7bd 283e 2bbe 4f1e b0bc 1281 1abe
000000c0: ae42 af3e 63e7 80be 0d82 e13d e4ac 9b3d
000000d0: c965 e03d 5311 2a3d b801 d3bd e9fc 183e
000000e0: 8e0e 0c3d 881a 663d ec5d 82bb ff21 0fbe
000000f0: a78d 6c3c daf8 8f3c cdf5 9cbd 503d b9bd
00000100: bfe7 75be 1c42 933e 35e7 3d3e ff98 283e
00000110: 988c 1d3e 3e70 b43d 50e4 093e 5b3c 5cbd
00000120: 2caf 45be 983a 59be 8772 97be 1927 793d
00000130: 00f4 5f3e 2b59 833e b594 a33e ca47 9c3e
00000140: 9256 9abb d555 013e 394c 323e e957 d23d
00000150: b63c 9c3d 9c1a 7b3a a25e 9d3d 1400 8a3d
00000160: ef38 8c3d 5b72 b63c 4731 1a3e ffa2 4e3e
00000170: 5c40 583e d3a2 9d3e 51db 503e 741e 26bd
00000180: 3b4b 6bbd 1e17 3ebd 2b95 86bd 4c37 a53d
00000190: 4570 8f3e 6a4b 113e b0a2 4a3e 51f7 4f3e
000001a0: 1276 333e be65 e63d 748f cf3c 74a7 96bd
000001b0: ac5d 70bb 8fed 353d a266 903c 2eda 9cbc
000001c0: ad76 35be 15f5 dfbd 38b8 16be 9bc1 813d
000001d0: 9403 7dbd cf70 14be 92e0 1cbe eb35 cebd
000001e0: 1a42 01bd afd1 97bd f9b6 52be 154e 9cbe
000001f0: af70 73be 665a 1d3e 822d 4a3e 9570 f03d
00000200: 6a2e 0f3d 1de7 1e3d 7b81 c73d 5f55 d63d
00000210: 425e 323e 8b45 e83c e6c2 9cbc bf7e 003e
00000220: dd50 233e b152 bf3c 40ef cdbd 0426 b6bd
00000230: ef81 8f3b 415d 203c 244d 10be 9a42 42be
00000240: 0460 87bd 9e3b ad3c 350a 05be 3d24 44be
00000250: ed62 58be 0b0b 58be 86ed 603e 7179 853d
00000260: 9035 57bc 56cf c73d 0056 92be 604d 033e
00000270: 7d2b 8e3d def7 883d 1ba6 a03d 6ac2 a5be
00000280: 6886 f53d 6e37 433c a1ca ecbc 5d55 973d
00000290: 795f 98be cdfa f23d 4185 ee3d 6ac2 c43d
000002a0: e015 983d 2f68 83be 4caa fbbc 47ad a3bc
000002b0: a3db 51bd 1509 3ebc 3494 a7be 86fe 343e
000002c0: eb5e 7c3d 72b5 e63d 2c67 97bd 322a b3bd
000002d0: 94a6 85bc 2da0 a93c 15ce 25bd 44a5 fbbc
000002e0: 7c80 bdbd 950d 413b 2890 9d3c f668 a5bc
000002f0: be2b 09bd 020f 15be b1ec 953a 1959 093d
00000300: dbc5 dc3c 2c6e 01bd 14a8 64be 7c90 99bc
00000310: 89fe 843d acb5 173e bc1c e1bd 9ac5 18be
00000320: 9263 833d 877f cabc 1820 8abd e452 11be
00000330: f5f9 37be a2f1 163e 0123 e43d 837b ef3c
00000340: 121a 48bd 183f 01be fd91 9d3d ee48 1b3e
00000350: a5fc 133d bcf8 74bc f65f cebd 7efb 2a3e
00000360: af75 1c3e c235 5b3d 9eb8 873d 19ae eebc
00000370: 77fa a83d fc58 df3c bad9 49bb 0468 32be
00000380: 994a 61be 4d6a 6cbf 87e5 73be 7fad b6be
00000390: 5cd3 99be bcff bdbe f1ff 06bf 7657 8fbe
000003a0: 68dd 36be 9c3f 93be 876e 9dbe 9e53 91be
000003b0: 0816 a4be ed12 63bd 4f6e 61bc b07b 7cbe
000003c0: bcf1 8ebd 0a7d 65be 4d3b f4bd eb53 903d
000003d0: 2606 04bc 3f85 2b3e ea1a 37be c51e 43be
000003e0: 84fa 903d 3155 05be 04b5 023e ce86 8d3b
000003f0: 8435 00be 35d3 6cbe 2481 b9bd 926c 8d3d

conv2.bias f4 [16]
0.09132416 -0.08699071 -0.04838019 -0.03620941 0.07228548 -0.039209805 -0.054201342 -0.0102984235
-0.011139043 0.025242234 0.217309 0.16869919 -0.040344648 0.067924835 -0.05917566 -0.03513413
00000000: 2908 bb3d 2f28 b2bd 4e2a 46bd 5150 14bd
00000010: 690a 943d 769a 20bd 3a02 5ebd b8ba 28bc
00000020: 8880 36bc cdc8 ce3c 4086 5e3e 7bbf 2c3e
00000030: 6e40 25bd 2d1c 8b3d 2d62 72bd cee8 0fbd

conv3.weight f4 [8, 16, 3, 3]
0.03790143 -0.11322762 -0.40676996 -0.08155786 0.05028471 -0.0664749 0.28912523 0.13928385
0.1398877 0.08664206 0.0036583764 0.007258687 -0.035484433 0.07389164 -0.13739921 0.019822547
-0.12133978 -0.13069494 -0.0974802 -0.1552819 0.14729182 0.108915076 -0.091754936 -0.10974753
0.08219521 0.0043533845 -0.11022652 0.06362446 -0.12457215 -0.11881689 0.06071803 -0.024288783
-0.124716714 0.08618591 -0.02312691 -0.005086577 0.08982092 0.06254031 0.3775174 -0.06676007
0.06494747 -0.07032465 -0.32155797 -0.16605584 0.03302065 -0.002394869 0.05765552 -0.11653618
0.15175813 0.042412776 0.01372053 0.033682983 -0.03078638 -0.09812063 0.13132808 -0.008645095
-0.18115255 0.05741343 -0.076828405 0.118159615 -0.050654862 0.08842841 -0.13775681 -0.04614769
-0.13982804 0.02330568 0.0644236 0.057858005 0.074134074 -0.025277125 0.001740841 -0.14632006
0.017098717 0.08348473 -0.062382217 0.007841383 -0.007810628 0.09447565 0.12115937 -0.036157828
0.0115861865 0.12609304 0.13680178 0.15763478 -0.11134183 -0.11283521 -0.11486906 0.11083128
0.1022653 -0.04032327 -0.053171586 0.13821097 0.36118963 0.004448145 0.115250744 0.18969576
-0.30206564 -0.27208692 -0.23152027 -0.048853863 0.1978578 0.13444401 -0.03479812 -0.1241716
0.053225413 0.008701155 -0.15779269 -0.04827006 0.0807647 0.10086401 0.21238722 -0.047764707
-0.21633847 -0.16385329 -0.05120185 -0.04110905 0.08221715 0.036752857 -0.14517848 -0.052973896
0.016364653 0.07191382 0.07367687 0.035668932 -0.033039205 -0.06514412 -0.16413186 0.022553511
0.13427587 0.08751544 -0.11965351 0.059001125 -0.03204717 -0.14617416 -0.14648218 -0.15923324
0.09428779 -0.111510836 0.04727835 0.11747018 0.095155396 0.14598167 0.10325815 -0.12832654
-0.023017073 0.008558353 -0.22601534 0.16344795 0.07984789 -0.08785612 0.09030415 -0.018062837
-0.04812681 -0.10445247 -0.048691407 -0.10235802 -0.097205326 -0.07059647 -0.052487466 0.04869612
-0.1383724 -0.110195674 0.062094312 -0.14175467 0.009261469 -0.15346363 -0.043888032 0.08321651
0.059182804 0.017034393 -0.07332231 0.11107345 -0.13484801 -0.010886464 0.0762755 -0.0966086
-0.18985312 0.057297558 -0.089180686 0.0583619 0.3131587 0.23498978 0.039089926 -0.042377807
-0.0154658025 -0.056487262 -0.22747955 -0.086845145 -0.2435479 -0.15759486 -0.017943287 0.06983465
-0.032494374 0.15998617 -0.12853774 0.05559177 -0.06715753 0.13060762 -0.12779783 -0.14360312
-0.18644875 -0.15243286 0.22608824 0.039889786 -0.09261027 0.2340641 0.18458155 0.1655108
-0.11186902 0.13870566 0.020462701 0.09576129 0.028944738 -0.17013656 0.062464546 0.042826828
0.091741845 -0.11754999 0.035016883 0.059937105 0.043833084 0.04934823 0.14430565 0.0461635
-0.14570099 0.14255352 -0.039590895 -0.14553112 0.11987924 0.12534288 -0.023239173 0.04978423
-0.028478067 0.05075061 0.2154816 0.22811663 0.11789639 -0.07009861 0.030668503 -0.03961963
-0.22819132 -0.20202386 -0.084487244 0.15868793 -0.020313287 0.03733503 0.20044547 -0.11253217
-0.14205746 0.1599097 0.021919822 -0.3443832 0.17402266 0.09328632 0.022978986 -0.029615378
00000000: 883e 1b3d e2e3 e7bd 2744 d0be cf07 a7bd
00000010: 57f7 4d3d fe23 88bd 3908 943e 6da0 0e3e
00000020: b93e 0f3e 6471 b13d 5fc1 6f3b 48da ed3b
00000030: 2058 11bd 8054 973d 61b2 0cbe e562 a23c
00000040: fe80 f8bd e5d4 05be b3a3 c7bd 3802 1fbe
00000050: abd3 163e de0e df3d 03ea bbbd 50c3 e0bd
00000060: f655 a83d d6a6 8e3b 71be e1bd 8a4d 823d
00000070: af1f ffbd 4556 f3bd 78b3 783d 45f9 c6bc
00000080: 7a6b ffbd 3d82 b03d a574 bdbc 4dad a6bb
00000090: 08f4 b73d 2215 803d f649 c13e 81b9 88bd
000000a0: 2e03 853d 5f06 90bd 3fa3 a4be 8b0a 2abe
000000b0: a940 073d 3cf3 1cbb 3228 6c3d 85aa eebd
000000c0: 7c66 1b3e 05b9 2d3d 13cc 603c 2bf7 093d
000000d0: b833 fcbc 78f3 c8bd de7a 063e 28a4 0dbc
000000e0: 0e80 39be 582a 6b3d 3658 9dbd abfd f13d
000000f0: 797b 4fbd f419 b53d 1f10 0dbe 5c05 3dbd
00000100: 152f 0fbe 8eeb be3c 85f0 833d 84fc 6c3d
00000110: 9bd3 973d f911 cfbc ee2c e43a edd4 15be
00000120: 9c12 8c3c 0bfa aa3d 7f84 7fbd 2579 003c
00000130: 4cf0 ffbb 737c c13d 6722 f83d 3b1a 14bd
00000140: fdd3 3d3c 891e 013e c415 0c3e 036b 213e
00000150: 2f07 e4bd 2616 e7bd 7840 ebbd 83fb e23d
00000160: 7870 d13d 032a 25bd 73ca 59bd 2d87 0d3e
00000170: d9ed b83e bfc1 913b 9508 ec3d 9b3f 423e
00000180: 59a8 9abe fa4e 8bbe a613 6dbe fd1a 48bd
00000190: 3c9b 4a3e b1ab 093e 7988 0ebd ae4d febd
000001a0: e402 5a3d 4a8f 0e3c 6894 21be d4b6 45bd
000001b0: f767 a53d ca91 ce3d 097c 593e eda4 43bd
000001c0: d587 5dbe 28c9 27be 08b9 51bd f761 28bd
000001d0: 7761 a83d 2a8a 163d aba9 14be 28fb 58bd
000001e0: 2a0f 863c 8e47 933d e6e3 963d 9619 123d
000001f0: 1e54 07bd 486a 85bd 2f12 28be 24c2 b83c
00000200: 9d7f 093e 4c3b b33d e60c f5bd 2aab 713d
00000210: e543 03bd aeae 15be 6dff 15be 0a0e 23be
00000220: f519 c13d cb5f e4bd f1a6 413d 3594 f03d
00000230: d5e0 c23d 387c 153e 0279 d33d 0868 03be
00000240: 4d8e bcbc 5638 0c3c 9170 67be e65e 273e
00000250: 4a87 a33d e9ed b3bd 62f1 b83d 84f8 93bc
00000260: 9e20 45bd 2deb d5bd a470 47bd 15a1 d1bd
00000270: 9613 c7bd e294 90bd 19fd 56bd 9575 473d
00000280: 7fb1 0dbe 45ae e1bd 9b56 7e3d 2328 11be
00000290: 6bbd 173c 9225 1dbe f0c3 33bd 6b6d aa3d
000002a0: ab69 723d b68b 8b3c 022a 96bd 7a7a e33d
000002b0: 9915 0abe 245d 32bc 5436 9c3d bbda c5bd
000002c0: db68 42be d8b0 6a3d 5da4 b6bd e30c 6f3d
000002d0: 5656 a03e 29a1 703e c21c 203d 5a94 2dbd
000002e0: 4764 7dbc 305f 67bd 66f0 68be dedb b1bd
000002f0: 9f64 79be 8c60 21be cdfd 92bc 7805 8f3d
00000300: d218 05bd 6ad3 233e 669f 03be 32b4 633d
00000310: e389 89bd 01be 053e 6fdd 02be b20c 13be
00000320: 6cec 3ebe 5c17 1cbe ad83 673e 7963 233d
00000330: 74aa bdbd 80ae 6f3e f202 3d3e aa7b 293e
00000340: 961b e5bd db08 0e3e 65a1 a73c 7f1e c43d
00000350: 841d ed3c 4738 2ebe d3da 7f3d 2f6b 2f3d
00000360: 26e3 bb3d 0dbe f0bd dd6d 0f3d 9c80 753d
00000370: 528a 333d 5f21 4a3d dcc4 133e f015 3d3d
00000380: a432 15be 8df9 113e 102a 22bd 1c06 15be
00000390: 3f83 f53d e259 003e 1460 bebc 8cea 4b3d
000003a0: d64a e9bc dfdf 4f3d 35a7 5c3e 6897 693e
000003b0: aa73 f13d dc8f 8fbd 833c fb3c 3148 22bd
000003c0: fcaa 69be 58df 4ebe a607 adbd 177f 223e
000003d0: 0d68 a6bc 9eec 183d 9441 4d3e 4477 e6bd
000003e0: 8377 11be 5ebf 233e 3391 b33c ff52 b0be
000003f0: ff32 323e e60c bf3d 6d3e bc3c f39b f2bc

conv3.bias f4 [8]
0.051315073 0.022251625 0.05982459 0.09761125 0.010279657 -0.15607233 0.12879553 -0.009178858
00000000: c12f 523d 0a49 b63c a10a 753d 68e8 c73d
00000010: 026c 283c 6dd1 1fbe fae2 033e ec62 16bc

convt1.weight f4 [8, 8, 3, 3]
0.03985954 0.28145793 -0.25767663 -0.172024 -0.049808785 0.21163452 0.083975 0.042034514
-0.02791173 0.35407966 0.43617377 0.13460682 -0.103716716 -0.1434994 -0.18241505 -0.17693529
-0.26923707 0.2628464 -0.2768126 -0.22826111 -0.085859016 0.37975386 -0.023315333 -0.2860655
-0.07069491 0.085054666 0.36315444 0.13397077 0.12393621 0.0362098 0.16096745 0.33826983
0.45051298 -0.14737065 0.003866084 0.012994187 0.030969433 0.09440265 0.04173959 -0.2008715
-0.8662597 -0.102527246 0.03605155 -0.19787356 -0.073851585 0.13288128 0.1426375 0.15112321
0.02384229 0.08183722 -0.13749318 0.23447499 0.14775196 -0.06409722 -0.50087506 -0.54977673
-0.1960924 -0.11176294 0.016257297 -0.18608457 -0.3477746 -0.12656757 0.25844315 -0.13474186
0.12791093 -0.2704319 0.32755813 0.03452514 0.36429372 -0.2851161 0.3900167 -0.18255848
0.36070058 -0.0655456 0.19647415 -0.012444355 -0.47706586 -0.03545568 0.036453635 0.08611628
-0.14281276 -0.389704 -0.1960406 -0.37147564 -0.5370705 -0.2732853 -0.62199295 -0.7480261
-0.05003007 -0.72669494 0.19029796 0.2993258 0.035290144 0.13490817 -0.0049367445 -0.2739734
-0.054019857 0.014545081 -0.2731629 -0.054973748 0.077310964 -0.23917958 -0.26988178 -0.35452297
-0.43290943 -0.0049117357 0.01679401 -1.3644269 0.20306122 0.61035645 0.19812435 0.5268048
0.035022918 0.08858519 -0.028019149 0.11649167 -0.011914425 -0.059453916 -0.06825232 0.37328184
-0.21191257 -0.041712895 0.2821392 0.16096556 -0.0074906843 0.29794776 -1.5017812 -0.03129707
-0.4641566 0.12319534 -0.74214697 -0.03694256 -0.44647613 0.13052583 0.09713437 -0.2871159
-0.17737754 -0.2677964 -0.035167456 -0.07076881 0.22740841 -0.29695576 0.43785182 -0.22174661
0.27284262 0.09584192 0.2578875 0.16916439 0.46798941 0.45067114 0.4750991 0.22405256
0.2783073 0.23902325 -0.13303983 0.20133655 -0.14212993 0.071572445 -0.12596564 -0.17723058
-0.13730155 0.057718437 0.23078565 0.32732227 0.3495823 0.13840541 0.20439813 0.060977887
-0.66469103 -0.3464992 -0.06278116 -0.123803206 -0.09474948 -0.12871939 -0.26366228 -0.12435552
-0.19498728 -0.016721288 -0.1606713 -0.09263545 -0.072403274 -0.38197404 -0.53228676 -0.14960283
0.09555311 -0.09061806 -0.41617537 0.26116207 -0.3578683 0.06081717 0.15252264 0.11388636
0.045895956 -0.059836723 0.09763959 -0.019214962 -0.08513304 0.032778792 -0.31537113 -0.17607452
-0.25524727 0.056015044 -0.18727605 -0.252495 0.1488529 0.127518 0.28702414 0.096910655
-0.004890007 0.12881692 -0.073480524 0.095475964 0.013581357 -0.09096094 -0.080584 -0.096801005
0.20837055 0.10090568 -0.029947562 -0.08260236 -0.15628861 0.0089179315 -0.0740114 0.02693329
0.026465144 0.10519794 0.48254663 0.09394248 -0.07446789 0.25473115 -0.04950388 -0.0062028477
-0.46889985 -0.06460848 0.19112605 -0.5672299 -0.22432873 -0.017653437 0.1193294 0.26575002
0.103531845 0.2357769 0.2958568 -0.02633408 0.004927448 0.064550705 0.14028808 0.12513389
-0.023231918 0.016029526 0.0026507424 0.3113206 -0.041304946 -0.03028169 -0.11495517 0.10680826
00000000: c243 233d 411b 903e 31ee 83be 0f27 30be
00000010: 4c04 4cbd b8b6 583e 16fb ab3d 622c 2c3d
00000020: 24a7 e4bc ee49 b53e 2b52 df3e 5fd6 093e
00000030: 6e69 d4bd 82f1 12be 03cb 3abe 862e 35be
00000040: 71d9 89be ce93 863e 62ba 8dbe 48bd 69be
00000050: dad6 afbd 196f c23e ccff bebc 2d77 92be
00000060: 7ec8 90bd 2431 ae3d 61ef b93e a22f 093e
00000070: 45d2 fd3d ba50 143d a7d4 243e b431 ad3e
00000080: a3a9 e63e 55e8 16be 205e 7d3b 92e5 543c
00000090: 9cb3 fd3c 2d56 c13d 22f7 2a3d 42b1 4dbe
000000a0: 32c3 5dbf cef9 d1bd caaa 133d 5e9f 4abe
000000b0: 803f 97bd 0812 083e 910f 123e 0bc0 1a3e
000000c0: e850 c33c 469a a73d 03cb 0cbe 361a 703e
000000d0: 4a4c 173e 6745 83bd 5939 00bf 2bbe 0cbf
000000e0: 72cc 48be f8e3 e4bd 062e 853c f48c 3ebe
000000f0: 830f b2be ee9a 01be a952 843e c5f9 09be
00000100: 15fb 023e 0d76 8abe b3b5 a73e 3c6a 0d3d
00000110: b584 ba3e bdfa 91be 45b0 c73e 9cf0 3abe
00000120: bfad b83e c63c 86bd 8530 493e 68e3 4bbc
00000130: fa41 f4be fa39 11bd 6850 153d bb5d b03d
00000140: 823d 12be 4887 c7be debe 48be 0e32 bebe
00000150: 747d 09bf 0dec 8bbe ee3a 1fbf a37e 3fbf
00000160: 55ec 4cbd ae08 3abf 78dd 423e 3b41 993e
00000170: 668c 103d 5e25 0a3e 6ac4 a1bb 3e46 8cbe
00000180: ed43 5dbd 7e4e 6e3c 02dc 8bbe 272c 61bd
00000190: 3655 9e3d 7eeb 74be f22d 8abe 0984 b5be
000001a0: 4ea6 ddbe a0f2 a0bb 9793 893c 8aa5 aebf
000001b0: 48ef 4f3e 5240 1c3f 1ce1 4a3e aedc 063f
000001c0: 3174 0f3d 276c b53d 6a88 e5bc 2f93 ee3d
000001d0: b834 43bc f385 73bd dfc7 8bbd cc1e bf3e
000001e0: 9cff 58be 24db 2abd 8d74 903e 28d4 243e
000001f0: 6a74 f5bb 9c8c 983e 5e3a c0bf 5b31 00bd
00000200: efa5 edbe d74d fc3d 58fd 3dbf 1551 17bd
00000210: 8598 e4be 90a8 053e 62ee c63d db00 93be
00000220: 75a2 35be 9c1c 89be c00b 10bd 3def 90bd
00000230: c0dd 683e 960a 98be 1d2e e03e 8b11 63be
00000240: 07b2 8b3e c548 c43d d509 843e 6e39 2d3e
00000250: 4f9c ef3e 5ebe e63e 3040 f33e 096e 653e
00000260: 4b7e 8e3e 83c2 743e 983b 08be 2b2b 4e3e
00000270: 828a 11be 9394 923d 23fd 00be ef7b 35be
00000280: c798 0cbe 2b6a 6c3d 1353 6c3e c996 a73e
00000290: 74fc b23e 26ba 0d3e be4d 513e f3c3 793d
000002a0: 3129 2abf 5868 b1be 6993 80bd 898c fdbd
000002b0: 040c c2bd 04cf 03be befe 86be 1bae febd
000002c0: bfaa 47be 15fb 88bc 0487 24be a8b7 bdbd
000002d0: 2b48 94bd 1a92 c3be f243 08bf 7c31 19be
000002e0: 59b1 c33d f695 b9bd f014 d5be 09b7 853e
000002f0: 843a b7be 6d1b 793d e52e 1c3e 403d e93d
00000300: 66fd 3b3d 5a17 75bd 44f7 c73d b268 9dbc
00000310: 3b5a aebd 0e43 063d 5378 a1be e14c 34be
00000320: c5af 82be 0870 653d 4bc5 3fbe 0647 81be
00000330: e56c 183e 1494 023e d4f4 923e 1879 c63d
00000340: 5a3c a0bb 95e8 033e f57c 96bd e788 c33d
00000350: 5784 5e3c bb49 babd 3909 a5bd 9b3f c6bd
00000360: 175f 553e a3a7 ce3d 9754 f5bc 6d2b a9bd
00000370: 1f0a 20be 841c 123c 4a93 97bd 34a3 dc3c
00000380: 6ecd d83c 0472 d73d 5a10 f73e ea64 c03d
00000390: 9f82 98bd 1f6c 823e 95c4 4abd 4241 cbbb
000003a0: a413 f0be 7351 84bd 8cb6 433e fb35 11bf
000003b0: 6eb6 65be f19d 90bc f962 f43d 6310 883e
000003c0: 8108 d43d 806f 713e 8b7a 973e 92ba d7bc
000003d0: 6e76 a13b 2933 843d aea7 0f3e 1923 003e
000003e0: dd50 bebc 5a50 833c 14b8 2d3b 6a65 9f3e
000003f0: 602f 29bd 4f11 f8bc 9e6d ebbd 4abe da3d

convt1.bias f4 [8]
-0.048819434 0.031997066 -0.0047308085 0.08083794 0.022023113 0.057801105 0.09203131 -0.019619247
00000000: e3f6 47bd 5b0f 033d e604 9bbb 5d8e a53d
00000010: d169 b43c dac0 6c3d e97a bc3d 8bb8 a0bc

convt2.weight f4 [8, 16, 5, 5]
-0.16058172 -0.42580584 -0.2873986 -0.5134843 -0.4366706 -0.07874058 -0.38408458 0.17664474
-0.18942575 -0.24348402 0.02261155 0.014028364 -0.21865937 -0.004866782 -0.3917037 0.14419599
-0.13359499 -0.05084112 -0.12949285 -0.008317174 0.21762381 0.107707895 0.1610436 0.105552755
0.15762247 -0.00851888 0.014302241 -0.024194777 0.1592385 -0.07147173 0.086233094 -0.036130823
-0.071875446 0.08395581 0.09912933 0.20677613 -0.08023503 0.114323854 0.025884371 0.044212032
0.21363501 0.008872367 -0.040356707 0.15449776 0.08273645 0.021688504 0.044653337 0.012315254
0.08911879 0.12581493 -0.66375923 -0.0944033 -0.4710722 -0.091022715 -0.1310232 0.013906485
-0.42694232 -0.21031858 0.1575752 -0.0694662 -0.2160403 -0.054413833 -0.09394871 -0.042033084
-0.18533352 0.05394024 -0.36098748 -0.061025456 -0.46947864 -0.04708292 0.02234772 -0.14992028
0.10070367 -0.07113736 0.38916117 0.038778525 0.00027257527 -0.04522039 -0.112195656 -0.10492591
-0.0069704284 -0.022675155 -0.13387209 -0.037882067 -0.121122696 -0.034489848 -0.17774187 -0.039726324
-0.10682794 -0.062798284 -0.09627945 -0.11985959 -0.109905444 -0.11100834 -0.09475022 -0.034619454
-0.06853986 -0.06890263 -0.09927719 -0.21044393 0.041560035 0.06362364 -0.0008448834 0.0039521507
-0.07790102 -0.006380816 -0.15960567 -0.13308835 -0.02443823 -0.16785689 0.01541422 0.04897504
0.025708344 0.09805672 -0.04380258 -0.1603417 0.19369459 0.08538348 -0.049709816 0.11548363
-0.14657262 -0.06527307 -0.14069404 -0.10976843 -0.05036872 0.107955076 -0.43254563 -0.14613846
0.018345328 -0.09664452 0.105567746 0.11559274 -0.10140273 -0.5047289 -0.00047232854 0.05871432
-0.057020165 -0.08507944 -0.017797142 0.12764832 -0.0023843513 0.037539676 -0.16997495 -0.33332318
0.008664673 0.06375905 -0.52372295 -0.15679911 0.09907365 -0.019477468 0.12162248 0.04659348
-0.029183492 0.031775646 0.13784273 0.021648278 0.13111794 -0.0067144916 0.061943565 0.0653768
0.007836375 0.17332461 -0.0062629147 -0.1317751 0.05631402 -0.046587195 0.05045174 0.01300736
-0.15631753 0.09133991 0.14771344 -0.08688359 0.20608705 -0.0021881007 0.13457118 -0.1358697
-0.091440424 0.03843039 -0.14173746 -0.091345854 -0.12074162 -0.056964286 -0.07537187 -0.06938019
-0.16743563 -0.09901351 -0.013230329 -0.1372132 0.031696755 -0.04578877 -0.026725404 -0.019939568
-0.0822962 0.08674173 0.0017035697 -0.115250595 -0.008123801 -0.022071704 -0.2172111 -0.05159067
-0.029858418 -0.016737767 -0.14359878 -0.101198286 -0.037068434 -0.03541516 0.005479466 -0.097800836
-0.07312634 0.018186396 -0.0029456792 -0.025272453 -0.038574662 -0.004880577 0.04318464 0.09410749
0.1307524 -0.22414103 -0.045968726 0.047916032 0.04752725 0.004678556 -0.06243916 0.026441654
0.020379588 0.07596354 -0.18813865 0.17043819 -0.06987739 0.07853178 0.0018983991 -0.21845418
-0.09994526 -0.25962222 0.0842473 -0.08128015 -0.105466366 -0.26180482 0.041709337 0.16618736
-0.16445142 -0.10021571 -0.082780644 0.039070264 -0.21414699 -0.21411316 -0.02172292 -0.18479978
-0.01789511 -0.08890204 0.012122953 -0.12257412 0.07787123 0.05703191 -0.2232022 0.21181005
00000000: 896f 24be 3903 dabe e925 93be b573 03bf
00000010: 4a93 dfbe be42 a1bd bca6 c4be 5ce2 343e
00000020: d3f8 41be e053 79be db3b b93c 39d7 653c
00000030: 3ee8 5fbe 8779 9fbb 638d c8be 1da8 133e
00000040: 20cd 08be c73e 50bd c699 04be c244 08bc
00000050: c7d8 5e3e f595 dc3d 9de8 243e 0b2c d83d
00000060: c967 213e c692 0bbc f253 6a3c 2034 c6bc
00000070: 6b0f 233e c55f 92bd fa9a b03d eafd 13bd
00000080: 6f33 93bd 06f1 ab3d 5104 cb3d 1fbd 533e
00000090: 4352 a4bd a022 ea3d 760b d43c ad17 353d
000000a0: 23c3 5a3e 685d 113c 134d 25bd a934 1e3e
000000b0: ba71 a93d 17ac b13c 6be6 363d ebc5 493c
000000c0: ea83 b63d a1d5 003e 20ec 29bf 8456 c1bd
000000d0: 6030 f1be 1e6a babd f22a 06be 07d8 633c
000000e0: 2f98 dabe c15d 57be 655b 213e 4c44 8ebd
000000f0: ab39 5dbe 0ae1 5ebd 2e68 c0bd e22a 2cbd
00000100: 12c8 3dbe 71f0 5c3d 5ad3 b8be d4f5 79bd
00000110: 815f f0be 05da 40bd 9112 b73c b484 19be
00000120: ba3d ce3d 77b0 91bd 2240 c73e 3bd6 1e3d
00000130: 6fe8 8e39 0439 39bd d6c6 e5bd 65e3 d6bd
00000140: 3168 e4bb 3fc1 b9bc c415 09be 3a2a 1bbd
00000150: 2d0f f8bd 3a45 0dbd f701 36be 12b8 22bd
00000160: 9bc8 dabd 639c 80bd 292e c5bd f278 f5bd
00000170: 1b16 e1bd 5758 e3bd 670c c2bd 21cd 0dbd
00000180: a05e 8cbd d21c 8dbd d751 cbbd 9d7e 57be
00000190: db3a 2a3d 1c4d 823d 2a7b 5dba 0b81 813b
000001a0: 928a 9fbd 2a16 d1bb ab6f 23be 5048 08be
000001b0: af32 c8bc ade2 2bbe ed8b 7c3c 0d9a 483d
000001c0: 4e9a d23c f6d1 c83d 566a 33bd 9d30 24be
000001d0: e057 463e 89dd ae3d 859c 4bbd ae82 ec3d
000001e0: 2217 16be e3ad 85bd 1912 10be 45ce e0bd
000001f0: 6e4f 4ebd 8d17 dd3d 9f76 ddbe 52a5 15be
00000200: f148 963c 90ed c5bd e733 d83d e3bb ec3d
00000210: 3cac cfbd ea35 01bf dda2 f7b9 6d7e 703d
00000220: fa8d 69bd 213e aebd 50cb 91bc 3eb6 023e
00000230: c742 1cbb 34c3 193d ea0d 2ebe 56a9 aabe
00000240: 46f6 0d3c 1b94 823d b512 06bf f28f 20be
00000250: 20e7 ca3d 368f 9fbc 3515 f93d ced8 3e3d
00000260: 3812 efbc 2e27 023d a526 0d3e bb57 b13c
00000270: c843 063e 3d05 dcbb 89b8 7d3d 46e4 853d
00000280: 2464 003c 027c 313e 2339 cdbb 0df0 06be
00000290: 88a9 663d 37d2 3ebd 7ca6 4e3d d21c 553c
000002a0: b411 20be 6b10 bb3d 3142 173e 06f0 b1bd
000002b0: 7c08 533e 3d66 0fbb 07cd 093e 6d21 0bbe
000002c0: 1e45 bbbd 2f69 1d3d a023 11be 8913 bbbd
000002d0: 6247 f7bd 6253 69bd 915c 9abd 3317 8ebd
000002e0: 3f74 2bbe 98c7 cabd 06c4 58bc 9e81 0cbe
000002f0: 75d4 013d 018d 3bbd 3cef dabc 4e58 a3bc
00000300: e98a a8bd a6a5 b13d 504a df3a 8108 ecbd
00000310: b119 05bc b8cf b4bc 966c 5ebe bd50 53bd
00000320: a499 f4bc a41d 89bc 8f0b 13be 0c41 cfbd
00000330: 12d5 17bd 7d0f 11bd 188d b33b ce4b c8bd
00000340: 43c3 95bd a3fb 943c 4c0c 41bb 2d08 cfbc
00000350: 7700 1ebd 3fed 9fbb 61e2 303d 6dbb c03d
00000360: f5e3 053e 3a85 65be b449 3cbd 9a43 443d
00000370: efab 423d 934e 993b 34c0 7fbd 2b9c d83c
00000380: 18f3 a63c c692 9b3d 6ba7 40be 5987 2e3e
00000390: e11b 8fbd 45d5 a03d b4d3 f83a 74b2 5fbe
000003a0: 1ab0 ccbd 34ed 84be d989 ac3d 3576 a6bd
000003b0: c0fe d7bd 480b 86be 69d7 2a3d 052d 2a3e
000003c0: f465 28be e53d cdbd e688 a9bd 2408 203d
000003d0: 5949 5bbe 7b40 5bbe 44f4 b1bc 273c 3dbe
000003e0: c498 92bc 4612 b6bd 5a9f 463c 2408 fbbd
000003f0: f47a 9f3d 4b9a 693d 1e8f 64be bce4 583e

convt2.bias f4 [16]
0.045448773 0.10737822 0.0231891 0.12088938 0.025812648 0.117709816 0.0863851 -0.009076067
0.103919536 0.040953174 -0.012893951 -0.0066929236 0.02341147 0.103336364 0.0041259555 0.12527575
00000000: 7e28 3a3d 1de9 db3d 11f7 bd3c da94 f73d
00000010: 0c75 d33c d811 f13d acea b03d c9b3 14bc
00000020: c4d3 d43d 84be 273d 2641 53bc 5050 dbbb
00000030: 69c9 bf3c 04a2 d33d 0633 873b 4948 003e

convt3.weight f4 [16, 32, 9, 9]
-0.5886061 -0.2109308 -0.00043211083 -1.0324382 -0.08410295 -0.5302772 -0.52919805 -0.039778996
-0.36109093 -0.21774639 0.05805912 -0.12924741 -0.085662425 -0.50118035 0.04849551 0.12704685
0.10255049 -0.31861046 0.0006892934 -0.2009412 0.13087352 -0.4273538 -0.04558437 0.0033286503
0.065802 -0.08773717 -0.016898176 -0.42841384 -0.14023717 -0.35653237 -0.4867772 -0.3205198
-0.12872507 -0.3868723 -0.50527835 -0.3218258 -0.28705436 -0.02450847 -0.4217349 -0.3723524
-0.39653748 -0.05875078 -0.08214056 -0.21846983 -0.3923861 -0.026114458 -0.51918614 -0.04021807
-0.09553642 -0.40033573 -0.28591236 -0.30313942 -0.2591002 -0.13282779 0.1788228 -0.12741174
0.024982454 0.027164392 -0.3495574 -0.06866704 0.03165529 -0.19534187 0.010641975 -0.09131373
-0.027977468 -0.2507749 -0.15707916 -0.1967895 -0.06372924 -0.093687154 -0.06690228 -0.28199005
-0.2514348 -0.21781215 -0.18112083 -0.3425301 -0.08768643 -0.0982998 -0.12172081 -0.12763599
-0.15414797 -0.31975234 -0.32329008 -0.17292263 -0.33706382 -0.5861277 -0.22482917 -0.39170933
-0.41957393 -0.35551253 -0.102086455 -0.0055260444 -0.20423116 -0.03244809 -0.1374006 -0.11520378
-0.087368526 -0.011664325 -0.23096362 -0.22432409 -0.13344756 -0.26651788 -0.23137532 -0.17583169
-0.52135724 -0.11603162 -0.4496036 -0.34325555 -0.26943815 -0.35818446 -0.07118519 -0.507473
-0.39244643 -0.20644684 -0.41399142 -0.53021485 -0.33984697 0.10488502 -0.1941775 0.010817981
-0.0004795373 -0.0770149 -0.27828556 0.012537687 -0.33230266 -0.20483875 -0.25946075 -0.1099284
-0.29068056 -0.42342097 0.007015351 -0.51864123 -0.4012897 -0.20035958 -0.5727747 -0.005304218
-0.04968957 -0.06940937 -0.16689336 -0.3297735 -0.2679985 -0.07680142 -0.3247977 -0.20105422
-0.16367029 -0.14912172 -0.2523671 -0.34167838 -0.3559545 -0.27887043 -0.2689614 -0.21499336
-0.37081912 -0.145047 0.016229177 -0.12573744 -0.29832527 -0.08671658 -0.397003 -0.26604947
-0.20662694 -0.458463 -0.68681234 0.11273265 -0.5686886 -0.51833117 -0.44399518 -0.57261366
-0.6346079 0.007998709 -0.8592243 0.34987363 -0.14949983 -0.21698862 0.1530326 -0.08921262
-0.17825957 -0.44052505 -0.0723595 0.0019004442 0.26224485 -0.3104363 -0.6443115 -0.07252673
-0.6450542 -0.3212327 -0.034555916 -0.6286173 -0.6147306 -0.30653954 0.15985867 -0.3685788
-0.16713656 -0.31499657 -0.39255056 -0.16228807 -0.07722017 -0.39938313 -0.40249255 -0.16999376
0.106886216 0.14194083 -0.22975299 0.053003926 -0.7678549 -0.052783243 -0.22008404 -0.08456919
-0.3562018 -0.22095776 -0.008512317 -0.38374692 -0.58294845 0.0075733266 -0.40669388 -0.22588342
-0.4938552 0.0638742 -0.6432091 -0.56212485 -0.09502372 -0.52642816 -0.27476674 -0.19456643
-0.3687385 -0.013359521 -0.25257406 0.1305822 0.044715744 -0.3213972 -0.06796658 -0.648237
-0.089537494 -0.09175588 0.044764504 -0.31828567 -0.54347396 -0.22302718 -0.5643097 -0.4506797
-0.17441194 -0.3288039 -0.22378717 -0.45119867 -0.20306171 -0.17119434 -0.24322729 -0.56459934
-0.16733985 -0.36755744 -0.018501852 -0.16924584 -0.2759411 0.17313717 -0.21164377 -0.37356395
00000000: e4ae 16bf 3efe 57be ef8c e2b9 ef26 84bf
00000010: 2b3e acbd 3fc0 07bf 8679 07bf 4def 22bd
00000020: e9e0 b8be e9f8 5ebe 66cf 6d3d 6f59 04be
00000030: c86f afbd 5b4d 00bf 3aa3 463d 9218 023e
00000040: fe05 d23d e920 a3be b2b1 343a 88c3 4dbe
00000050: b503 063e 1ece dabe adb6 3abd 7c25 5a3b
00000060: 33c3 863d 8caf b3bd 0b6e 8abc 0f59 dbbe
00000070: 559a 0fbe 698b b6be dc3a f9be 2c1b a4be
00000080: 81d0 03be 2014 c6be ec59 01bf 5ac6 a4be
00000090: caf8 92be fdc5 c8bc a3ed d7be f9a4 bebe
000000a0: f606 cbbe a8a4 70bd 4f39 a8bd 8eb6 5fbe
000000b0: d5e6 c8be fded d5bc 62e9 04bf b4bb 24bd
000000c0: 99a8 c3bd cef8 ccbe 1b63 92be 1735 9bbe
000000d0: c8a8 84be 0204 08be 531d 373e 3978 02be
000000e0: 01a8 cc3c dc87 de3c 30f9 b2be 4ea1 8cbd
000000f0: faa8 013d b307 48be ae5b 2e3c b102 bbbd
00000100: 0131 e5bc 9165 80be 5cd9 20be 3083 49be
00000110: 7a84 82bd 0ddf bfbd 1004 89bd 0061 90be
00000120: 10bc 80be 260a 5fbe bd77 39be 1b60 afbe
00000130: f194 b3bd 6851 c9bd c348 f9bd 02b3 02be
00000140: f7d8 1dbe 94b6 a3be 4786 a5be a112 31be
00000150: a193 acbe 770c 16bf 9e39 66be 208e c8be
00000160: 65d2 d6be bd05 b6be b412 d1bd d213 b5bb
00000170: f921 51be 4ae8 04bd beb2 0cbe f6ef ebbd
00000180: 45ee b2bd ba1b 3fbc ba81 6cbe 37b5 65be
00000190: 7aa6 08be 0875 88be a7ed 6cbe 390d 34be
000001a0: ab77 05bf fca1 edbd 7132 e6be 31bf afbe
000001b0: ccf3 89be f463 b7be 8ac9 91bd c0e9 01bf
000001c0: bdee c8be cd66 53be aff6 d3be 29bc 07bf
000001d0: 6c00 aebe f5cd d63d 77d6 46be e73d 313c
000001e0: 686a fbb9 fdb9 9dbd 727b 8ebe df6a 4d3c
000001f0: 9323 aabe 40c1 51be 0ad8 84be 2422 e1bd
00000200: 15d4 94be a2ca d8be 08e1 e53b acc5 04bf
00000210: d875 cdbe 102b 4dbe 5da1 12bf 01cf adbb
00000220: 4a87 4bbd 8026 8ebd 18e6 2abe 12d8 a8be
00000230: 1937 89be 104a 9dbd e24b a6be 28e1 4dbe
00000240: 2f99 27be 5db3 18be 4336 81be 78f0 aebe
00000250: ab3f b6be 1bc8 8ebe 4fb5 89be 3827 5cbe
00000260: 01dc bdbe 3387 14be 0df3 843c 51c1 00be
00000270: 17be 98be 7698 b1bd fa43 cbbe a337 88be
00000280: 0396 53be aabb eabe efd2 2fbf 60e0 e63d
00000290: 9395 11bf 5ab1 04bf 5653 e3be cf96 12bf
000002a0: aa75 22bf 040d 033c 20f6 5bbf a322 b33e
000002b0: 7c16 19be 4432 5ebe 94b4 1c3e 1bb5 b6bd
000002c0: ad89 36be 808c e1be 3831 94bd 5318 f93a
000002d0: f544 863e 82f1 9ebe 99f1 24bf e588 94bd
000002e0: 4622 25bf 9d78 a4be 818a 0dbd 10ed 20bf
000002f0: fc5e 1dbf c0f2 9cbe feb1 233e 5cb6 bcbe
00000300: d925 2bbe 3b47 a1be 63fc c8be d82e 26be
00000310: 9c25 9ebd f27b ccbe 8113 cebe d812 2ebe
00000320: 29e7 da3d f058 113e 5e44 6bbe a51a 593d
00000330: 2492 44bf 3e33 58bd b65d 61be 9d32 adbd
00000340: 1560 b6be c042 62be 3f77 0bbc 7a7a c4be
00000350: 1c3c 15bf ab29 f83b 2e3a d0be fc4d 67be
00000360: 97da fcbe 7ad0 823d 5aa9 24bf 6ae7 0fbf
00000370: cc9b c2bd ffc3 06bf 3aae 8cbe 6c3c 47be
00000380: 4bcb bcbe e4e1 5abc 6351 81be 57b7 053e
00000390: db27 373d 2c8e a4be 1032 8bbd dcf2 25bf
000003a0: 6f5f b7bd 82ea bbbd fc5a 373d 57f6 a2be
000003b0: 1c21 0bbf 3d61 64be 9a76 10bf 7dbf e6be
000003c0: 0b99 32be fc58 a8be 7728 65be 8303 e7be
000003d0: 69ef 4fbe 924d 2fbe 9310 79be 9589 10bf
000003e0: 235b 2bbe 7d30 bcbe 3291 97bc c84e 2dbe
000003f0: 2748 8dbe df4a 313e 25b9 58be c643 bfbe

convt3.bias f4 [32]
0.1065277 0.06735135 0.06697 0.1278802 0.10883848 0.05545809 -0.19400452 0.07609391
0.09214609 0.16384941 0.051066127 0.14946087 0.19345145 -0.111819446 0.19744448 0.09041885
0.12560524 0.022653695 0.08522996 0.042594746 0.17953047 0.10469272 0.14454648 0.17696536
0.104423374 0.052292496 0.03181263 0.04088202 0.07320928 0.08199711 -0.255896 0.06762571
00000000: 322b da3d 81ef 893d 9127 893d 07f3 023e
00000010: b6e6 de3d 0628 633d 1fa9 46be 20d7 9b3d
00000020: 17b7 bc3d 24c8 273e b72a 513d 450c 193e
00000030: 2318 463e 9801 e5bd e32e 4a3e 852d b93d
00000040: a99e 003e 3e94 b93c 0c8d ae3d d477 2e3d
00000050: d6d6 373e 2369 d63d fe03 143e 6836 353e
00000060: ecdb d53d a830 563d f64d 023d e873 273d
00000070: bfee 953d 1aee a73d cd04 83be 597f 8a3d

pos_output.weight f4 [1, 32, 2, 2]
0.035153866 0.025609206 0.15106672 0.22622892 0.06997381 0.13294512 0.1249485 0.13307065
-0.08093167 -0.16860239 -0.047351986 -0.14122605 0.14086789 0.1417334 0.09505373 0.20873149
-0.012337802 0.04948074 0.022582194 0.11031742 -0.052324835 -0.20805658 0.21382621 -0.11275504
-0.28158125 -0.2894718 -0.31786722 -0.32388616 -0.13213791 0.04348372 -0.036949795 0.37354097
0.33358958 0.34921733 0.31117892 0.28856274 -0.011288914 0.067299224 0.084971175 0.048373874
0.35524923 0.39211822 0.49430585 0.30357477 0.4556241 0.4516053 0.42668808 0.32803875
-0.08405659 -0.023189172 0.11727526 0.026889343 -0.2937332 -0.27341607 -0.31624997 -0.30941287
-0.07659869 -0.047136728 0.15146376 -0.15615556 0.063187696 -0.12613395 0.09231143 -0.10820509
-0.09285198 -0.17460452 0.0871463 0.025917543 -0.26904538 -0.1888604 -0.18496737 -0.13613313
0.068712085 0.12117076 -0.019801628 0.00044659537 0.24978389 0.18202113 0.24398963 0.24811743
-0.20899065 -0.052898273 0.09877233 0.018114526 -0.17582907 -0.12158923 -0.15738417 -0.16365801
-0.12158485 0.012791359 0.07817411 -0.072693944 0.07815459 0.1347364 -0.12260496 0.08042637
-0.14091153 0.050049197 -3.624691e-05 -0.025974771 -0.060617417 -0.0038583025 -0.1592886 0.0027438202
0.09886894 0.09842783 0.09005411 -0.0020063503 -0.01812747 -0.07439395 -0.0844478 -0.12718248
0.36093858 0.38737363 0.31208074 0.3073256 0.15439248 0.024604572 0.111779325 0.03761411
0.04909017 0.05954004 0.021387564 -0.0016146065 0.05712134 0.108647436 0.15403815 0.203907
00000000: 80fd 0f3d 66ca d13c 3cb1 1a3e 8ea8 673e
00000010: 6e4e 8f3d c422 083e 00e5 ff3d ac43 083e
00000020: 81bf a5bd 1ba6 2cbe 28f4 41bd 909d 10be
00000030: ac3f 103e 8f22 113e 88ab c23d b5bd 553e
00000040: 7e24 4abc 51ac 4a3d 4bfe b83c 19ee e13d
00000050: 9152 56bd c90c 55be 42f5 5a3e 1dec e6bd
00000060: 6b2b 90be a635 94be 7ebf a2be 68d4 a5be
00000070: 294f 07be fc1b 323d ab58 17bd c340 bf3e
00000080: 41cc aa3e 9dcc b23e d852 9f3e 7fbe 933e
00000090: 23f5 38bc 2dd4 893d 5e05 ae3d af23 463d
000000a0: 3ae3 b53e b8c3 c83e a815 fd3e 276e 9b3e
000000b0: 9047 e93e cf38 e73e dc76 da3e b2f4 a73e
000000c0: dd25 acbd 38f7 bdbc 032e f03d 0a47 dc3c
000000d0: 3364 96be 31fd 8bbe 84eb a1be 5d6b 9ebe
000000e0: c6df 9cbd 7112 41bd 5119 1b3e 3ee7 1fbe
000000f0: 8d68 813d 4229 01be c60d bd3d a19a ddbd
00000100: 2e29 bebd 87cb 32be c279 b23d 0751 d43c
00000110: 51c0 89be 9f64 41be 1668 3dbe 7c66 0bbe
00000120: ecb8 8c3d 6028 f83d 0637 a2bc 0425 ea39
00000130: 59c7 7f3e bf63 3a3e 6bd8 793e 7f12 7e3e
00000140: a501 56be dcab 58bd 2649 ca3d ea64 943c
00000150: 890c 34be c603 f9bd 5129 21be f795 27be
00000160: 7a01 f9bd d992 513c bf19 a03d 90e0 94bd
00000170: 840f a03d 57f8 093e 4f18 fbbd 95b6 a43d
00000180: 1d4b 10be 6300 4d3d d307 18b8 0bc9 d4bc
00000190: f849 78bd 93db 7cbb 8d1c 23be aad1 333b
000001a0: cc7b ca3d 8894 c93d 4a6e b83d f97c 03bb
000001b0: 0f80 94bc db5b 98bd f8f2 acbd 203c 02be
000001c0: f1cc b83e d655 c63e 0cc9 9f3e c859 9d3e
000001d0: 1019 1e3e 878f c93c 8fec e43d 4111 1a3d
000001e0: c612 493d 42e0 733d f934 af3c 34a1 d3ba
000001f0: 11f8 693d 8c82 de3d 2dbc 1d3e ffcc 503e

cos_output.weight f4 [1, 32, 2, 2]
-0.45588434 -0.29741532 -0.57541573 -0.5532641 -0.046382513 -0.07893913 -0.17677794 -0.12297796
-0.14397876 -0.1655091 -0.29146415 -0.25269443 -0.57583886 -0.40382567 -0.51144373 -0.56902874
0.168852 0.14202149 0.11743761 -0.009035729 -0.20651227 -0.08685359 0.08025568 0.18586709
0.104687765 0.18352926 0.12677683 0.13449618 0.18964733 -0.06963821 0.121629775 -0.11990707
-0.55665535 -0.5284561 -0.41826013 -0.3965863 0.26441908 -0.010989301 0.18955567 -0.08881771
-0.021876458 0.09742732 -0.031854164 0.14013651 -0.29273522 -0.37470096 -0.18899287 -0.115196355
0.22288191 0.09902537 0.20171694 0.2572642 0.22476892 0.16363008 0.2843272 0.24177797
0.18819766 0.16047277 0.1621804 0.16215618 0.06978089 0.15537147 -0.1397036 0.03862647
-0.30803692 -0.26217178 -0.35636538 -0.36365703 0.1722823 0.105727576 0.12177339 0.11320602
-0.3088104 -0.40714517 -0.25956324 -0.37854624 -0.002607537 -0.030617675 -0.103300095 -0.056618497
0.096521266 0.22505155 0.24452949 0.066277415 0.33837312 0.32049346 0.3391268 0.30287617
0.092352025 0.110755235 0.18109426 0.18078603 0.034083754 0.2204071 0.14898945 0.28067315
-0.010399032 0.010988935 0.05915931 0.18933909 -0.124729134 -0.040726457 0.121380135 0.046502735
-0.28777203 -0.29404268 -0.23675023 -0.1975861 -0.021437496 -0.013519309 0.061182786 0.08878866
-0.05465645 -0.07320519 -0.0244809 -0.09086959 -0.13497712 -0.11841029 0.16917759 0.115715936
-0.1374823 -0.21839139 -0.1801541 -0.118754566 -0.08931972 -0.15357572 -0.27852064 -0.27897948
00000000: ac69 e9be d246 98be 724e 13bf b7a2 0dbf
00000010: 97fb 3dbd d7aa a1bd 4705 35be dedb fbbd
00000020: 2b6f 13be 387b 29be ca3a 95be 2a61 81be
00000030: 2d6a 13bf 3dc2 cebe faed 02bf deab 11bf
00000040: 8ae7 2c3e 156e 113e 2183 f03d 980a 14bc
00000050: f477 53be 4ce0 b1bd 175d a43d f153 3e3e
00000060: 8a66 d63d 18ef 3b3e c9d1 013e 5eb9 093e
00000070: e932 423e 7a9e 8ebd 0819 f93d d791 f5bd
00000080: f780 0ebf e648 07bf 3126 d6be 5c0d cbbe
00000090: f061 873e 780c 34bc e21a 423e 0fe6 b5bd
000000a0: 4236 b3bc fa87 c73d 8379 02bd f27f 0f3e
000000b0: 64e1 95be ced8 bfbe 5987 41be 11ec ebbd
000000c0: 283b 643e d0cd ca3d e38e 4e3e 22b8 833e
000000d0: d329 663e a58e 273e 5693 913e a594 773e
000000e0: e3b6 403e f952 243e 9e12 263e 450c 263e
000000f0: 49e9 8e3d b319 1f3e 760e 0fbe ca36 1e3d
00000100: 04b7 9dbe 613b 86be 8675 b6be 4131 babe
00000110: c56a 303e b387 d83d 5464 f93d 8fd8 e73d
00000120: 661c 9ebe 5575 d0be 79e5 84be d0d0 c1be
00000130: 36e3 2abb ebd1 fabc 008f d3bd cce8 67bd
00000140: f1ac c53d ea73 663e f065 7a3e 74bc 873d
00000150: 3e3f ad3e b817 a43e 07a2 ad3e 9612 9b3e
00000160: 0f23 bd3d a4d3 e23d c670 393e f91f 393e
00000170: 689b 0b3d 66b2 613e b190 183e 64b4 8f3e
00000180: b460 2abc ef0a 343c 0851 723d 1be2 413e
00000190: fd71 ffbd c9d0 26bd 2696 f83d a779 3e3d
000001a0: db56 93be c38c 96be a76e 72be 0354 4abe
000001b0: b09d afbc 1880 5dbc cd9a 7a3d d4d6 b53d
000001c0: 71df 5fbd 9aec 95bd 2b8c c8bc d619 babd
000001d0: 7137 0abe 1881 f2bd e43c 2d3e 7afc ec3d
000001e0: 29c8 0cbe fea1 5fbe 517a 38be 9835 f3bd
000001f0: 42ed b6bd f442 1dbe 429a 8ebe 66d6 8ebe

sin_output.weight f4 [1, 32, 2, 2]
0.16098124 0.11046203 0.14303845 0.16283442 0.5253015 0.5693611 0.5781996 0.5488929
-0.2660899 -0.29047644 -0.30140936 -0.22671205 0.0912865 0.06125737 0.03128929 0.02526653
0.07592766 -0.04265208 -0.008457428 -0.086142465 -0.0700543 0.1443316 -0.04171445 -0.0514537
0.18503502 0.20129251 0.096986145 0.10784021 -0.017845986 -0.09937377 0.073608644 -0.008901388
-0.0004721988 -0.06058205 0.0017485479 -0.07481893 -0.08666077 0.17997746 0.14674996 -0.08459189
0.1308257 0.092823505 0.08024611 0.17982008 -0.072638236 -0.057201102 -0.019585377 -0.08570322
0.072998114 -0.116482876 -0.03688495 0.22669142 -0.15455307 -0.12628497 -0.15969111 -0.13428473
0.017730156 -0.122584604 -0.073459625 -0.0562366 0.0065680817 0.04890777 -0.0401997 -0.06159832
-0.105855316 0.0068591596 0.017344365 0.04843139 0.09445438 0.06841039 0.08114205 0.10589994
0.14054473 0.22454043 0.18158272 0.16139504 -0.30879444 -0.17903921 -0.35234618 -0.37586662
0.009817285 0.1978004 0.008707448 -0.080227435 0.055623867 -0.001191517 0.0052582934 0.018373871
-0.13890147 -0.13121106 0.12544194 -0.10850902 -0.030246211 -0.13168658 0.121150576 0.019099355
0.04126953 -0.00070309767 0.18592955 -0.14936863 0.08859102 -0.02549182 -0.06088535 0.014430628
-0.053301238 -0.13766396 -0.07274858 -0.111885056 -0.016873725 -0.009163435 0.0066425777 0.03439631
-0.23576997 -0.25944534 -0.20096943 -0.2937887 0.2700853 0.29701343 0.2727747 0.12379975
0.008092152 0.008218633 0.013765115 0.01918524 -0.0070940577 -0.0015037981 0.010752304 -0.021478279
00000000: 44d8 243e eb39 e23d ac78 123e 11be 263e
00000010: 297a 063f a6c1 113f e404 143f 3f84 0c3f
00000020: ef3c 88be 54b9 94be 5452 9abe 3427 68be
00000030: 6bf4 ba3d 02e9 7a3d 3329 003d c1fb ce3c
00000040: f67f 9b3d f3b3 2ebd 0691 0abc 766b b0bd
00000050: a178 8fbd aacb 133e c5dc 2abd 1dc1 52bd
00000060: d279 3d3e a01f 4e3e aca0 c63d 54db dc3d
00000070: bf31 92bc 7a84 cbbd 21c0 963d 21d7 11bc
00000080: 7391 f7b9 e224 78bd 882f e53a ab3a 99bd
00000090: 347b b1bd 034c 383e 9f45 163e 833e adbd
000000a0: 2cf7 053e 401a be3d 1358 a43d c122 383e
000000b0: 5bc3 94bd b44b 6abd 8371 a0bc 2b85 afbd
000000c0: 0980 953d 938e eebd ac14 17bd cc21 683e
000000d0: 2943 1ebe d950 01be 1186 23be f081 09be
000000e0: d53e 913c a30d fbbd 0072 96bd 5958 66bd
000000f0: 1039 d73b 8453 483d 71a8 24bd 854e 7cbd
00000100: acca d8bd cdc2 e03b c515 8e3c fe5f 463d
00000110: 4c71 c13d bf1a 8c3d ce2d a63d 11e2 d83d
00000120: f5ea 0f3e eded 653e d2f0 393e be44 253e
00000130: 4e1a 9ebe 0e56 37be b866 b4be 9771 c0be
00000140: aed8 203c 308c 4a3e afa9 0e3c 484e a4bd
00000150: dad5 633d ad2c 9cba c34d ac3b cd84 963c
00000160: 303c 0ebe 315c 06be da73 003e fa39 debd
00000170: e7c6 f7bc d9d8 06be cb1d f83d 4076 9c3c
00000180: 3d0a 293d 1650 38ba 5164 3e3e 17f4 18be
00000190: 356f b53d 39d4 d0bc eb62 79bd 716e 6c3c
000001a0: 6652 5abd c8f7 0cbe 35fd 94bd fe23 e5bd
000001b0: c43a 8abc 3b22 16bc fba9 d93b 25e3 0c3d
000001c0: af6d 71be 05d6 84be eeca 4dbe 796b 96be
000001d0: 9f48 8a3e 2512 983e 20a9 8b3e b98a fd3d
000001e0: f294 043c 72a7 063c 1487 613c 5d2a 9d3c
000001f0: 4575 e8bb 171b c5ba 6f2a 303c 37f3 afbc
