ggcnn_base/output/models/230121_1510_training_example/epoch_07_iou_0.56_statedict.pt (torch, 256417 bytes, 16 tensors)

conv1.weight f4 [32, 1, 9, 9]
000000 22 28 b7 bc 74 d4 8f bc b8 bb 11 bd 59 81 6d bc
       -0.022358004 -0.01755736 -0.035579413 -0.014496171
000010 ef d9 19 bd 81 f3 18 bc 43 ad 1b 3d ab 06 19 3d
       -0.037561353 -0.0093354 0.038007032 0.037359875
000020 99 c3 ce 3c b1 99 d6 bc 05 b6 9f 3a 43 2a b3 bc
       0.025239753 -0.026196333 0.0012184983 -0.021870738
000030 57 3f 30 bd 16 45 e5 bc 38 a9 77 3b 6e 27 7e 3c
       -0.043029156 -0.027987044 0.0037790071 0.01551233
000040 a4 8f 50 bd e2 0d a9 bc 81 ed 0f 3c 0a fc d9 3c
       -0.050918236 -0.020636503 0.008784653 0.02660944
000050 f7 14 3e 3d 03 87 2a 3c d1 52 07 3d 61 9b 79 3c
       0.046406712 0.010408166 0.033037964 0.015234799
000060 11 c8 21 bd 22 98 df bb 04 30 5b bd f9 aa d1 3c
       -0.03949744 -0.0068235556 -0.05351259 0.025594221
000070 e4 1d 0e bd 44 f9 b2 bc c2 7a e8 bb d8 62 0a 3c
       -0.034696475 -0.021847375 -0.007094712 0.008446418
000080 5c 75 22 3d c7 19 ff 3c db 78 35 bd a5 6b 67 bb
       0.039662704 0.031140221 -0.04430471 -0.0035311964
000090 05 aa c1 bc a6 3d 48 bc 5f bb 32 3c 64 89 0d 3c
       -0.023640642 -0.012221729 0.010908931 0.0086387135
0000a0 c9 b8 81 3b 6f 9a f2 3c 57 b7 16 bd 8d 53 2d bd
       0.0039587957 0.029614655 -0.03679594 -0.04231601
0000b0 58 c7 a7 3c 94 f0 a9 39 4a 5a a8 3c 54 f6 bb bb
       0.020480797 0.00032413437 0.020550866 -0.0057361517
0000c0 1c b6 f2 bc 32 b0 8c 3a 90 7a a1 38 8d 06 25 3d
       -0.029627852 0.0010733663 7.699907e-05 0.04028945
0000d0 90 5b f5 3c 7a 15 55 b9 0d b1 1a bd fd d2 25 3c
       0.029950887 -0.00020321264 -0.037766505 0.010121104
0000e0 41 36 25 3d b0 24 d6 bb 46 13 12 bd 34 36 1d 3d
       0.040334944 -0.006535135 -0.03566291 0.03838177
0000f0 a0 57 2e bc 2f 32 57 3c 58 36 28 3d 4f 7b 14 3d
       -0.010641009 0.013134523 0.04106745 0.03625041
000100 0e 03 51 bc 4c d0 bc ba 61 65 19 bd 8b a0 0f 3d
       -0.012757076 -0.0014405339 -0.037450198 0.035065215
000110 2a 7e f5 bb 00 0b a6 bb 98 94 d2 b9 04 f3 bc 3b
       -0.0074918466 -0.0050672293 -0.00040165032 0.0057662744
000120 a7 1f 80 bc 83 9e 9a 3c d1 43 07 3d 39 01 12 3d
       -0.015640093 0.018874412 0.03302366 0.035645697
000130 bb 1a bc 3b 90 d1 58 bd e9 87 91 bc ad e4 96 bc
       0.005740491 -0.05293423 -0.017765002 -0.018419588
000140 43 8e 26 3d c8 21 11 bd 4e f9 2b bc b1 5e 0e bd
       0.040663015 -0.035432607 -0.010496451 -0.034758274
000150 f5 d5 da bc c3 5b 5b bd 63 c1 01 3d d3 fa a8 3c
       -0.02671335 -0.053554308 0.03167857 0.020627415
000160 c5 3e 0c 3d 6a 36 7a bc 93 e7 a1 bd e6 3b 7a bd
       0.03423955 -0.015271762 -0.079054974 -0.06109228
000170 d8 f7 10 bc e7 13 84 3c 5c fd 58 bc 6b 94 18 bd
       -0.008848153 0.016122771 -0.013243999 -0.037250917
000180 87 a2 d8 3c ec 76 19 3d 79 bd df 3c 5d eb 15 bd
       0.026444687 0.03746693 0.027312027 -0.036601413
000190 88 7c 8d bc 8d 0d b4 bd 1b 08 ac 3b cc 52 08 bd
       -0.017271295 -0.08791647 0.0052499897 -0.033282086
0001a0 7b 45 cd 3b b5 8a e9 bc 19 f5 9a bc 8a 14 ec bc
       0.0062643862 -0.028508523 -0.0189157 -0.028818388
0001b0 d7 7c ac bc fd 27 bd 3b 2a 07 1c bc 2a b5 91 3b
       -0.021055622 0.0057725892 -0.009523192 0.0044466453
0001c0 41 d6 b6 bb fb d7 47 3d 13 7a a0 bb 2f 14 b6 3c
       -0.0055797403 0.04878996 -0.004897365 0.022226421
0001d0 44 19 85 3d 16 46 21 bc dc bc cf bc 33 1a 63 bd
       0.0649896 -0.00984337 -0.02535861 -0.055444907
0001e0 81 1a c7 3a 86 f3 4a 3d cb b5 f4 3c fa cb 84 ba
       0.0015190394 0.04954865 0.029871842 -0.001013159
0001f0 4b fe 8b 3d 9b 7b a1 3d 6c a5 3e bd 5a 52 f5 3b
       0.06835612 0.07884904 -0.046544477 0.0074866237
000200 d3 6c 71 bd ac 6a 30 3d f9 4b 9c bc 91 21 ff 3b
       -0.058941673 0.04307048 -0.019079195 0.007785984
000210 fb 27 94 3b aa 84 8f 3d 8f a6 b8 3d 3a 56 2a ba
       0.0045213676 0.070077255 0.090161435 -0.0006497834
000220 a0 19 8e 3c 29 2f 7b bb 0f 91 1c bc d2 ba 96 bc
       0.017346203 -0.003832767 -0.009556069 -0.01839963
000230 52 47 cc 3c 06 22 3b 3d 67 84 83 3d a8 c1 51 3d
       0.024936352 0.045686744 0.06421738 0.051210076
000240 3e 21 04 3d 66 7c e2 3c d9 62 a0 3a 7a 93 6f 3b
       0.032258265 0.027647208 0.001223649 0.0036556409
000250 50 5d 07 bd 93 65 3e 3c b0 cf e8 3c 98 b4 88 3d
       -0.033047974 0.011620897 0.028419346 0.066750705
000260 46 49 a1 3d f1 4d 80 bc 81 42 0c bc c6 7f 3b 3d
       0.07875304 -0.015662165 -0.008560778 0.04577615
000270 3a fc 8c bb 44 b9 55 3d 84 c4 17 3d 2b bc 59 3d
       -0.0043025287 0.052178636 0.037052646 0.053157967
000280 1d ec 67 3d df d3 42 3c 0b fc 05 be 98 8b 12 be
       0.05662166 0.011891334 -0.13084428 -0.14311063
000290 66 5c 29 be 11 0d 9b bd f9 ba 27 be 80 0a e2 bd
       -0.16539153 -0.075708516 -0.16379918 -0.11037159
0002a0 cd 4a f2 bd f4 13 13 be 65 93 11 be 86 67 e8 bd
       -0.11830673 -0.1436308 -0.14216383 -0.113478705
0002b0 2e 86 04 be 9d d2 e0 bd bf 19 96 bd fb db 45 bd
       -0.1294181 -0.10977671 -0.073291294 -0.048305493
0002c0 49 bd bd bd 7c 68 d9 bd 83 d2 c6 bd fc a4 c0 bd
       -0.09264619 -0.10615632 -0.09708121 -0.09406468
0002d0 ed 00 b9 bd 82 95 14 bd a4 a8 d8 bd b0 bd aa bd
       -0.0903338 -0.036275394 -0.10579041 -0.08336961
0002e0 62 ce 2f bd ae d2 0c bd e6 4c a8 bd a1 05 1b bd
       -0.04292143 -0.034380607 -0.08217792 -0.037847165
0002f0 af cd 07 bd ff 2c 37 bd a0 b2 a5 bd 62 9d b0 bd
       -0.03315514 -0.044720646 -0.08090711 -0.086237684
000300 50 27 9a 3c 7e 06 b5 bb 39 72 16 bd 60 15 0b bd
       0.018817574 -0.0055244556 -0.036730025 -0.03395593
000310 b5 23 00 bd 61 2a cd bc 0f be 27 3d e9 67 af bc
       -0.031284053 -0.025044622 0.04095274 -0.021411853
000320 c3 e5 a9 bc 71 7b 18 bd 76 7f d7 3b 10 02 f4 3c
       -0.020739442 -0.037227098 0.006576474 0.02978614
000330 45 59 53 bc bd b0 8d bc a5 9b e7 bc 79 0f ef 3c
       -0.0128997015 -0.01729619 -0.02827246 0.029182183
000340 45 d5 22 bb 7f 58 1c bd 8c 82 93 3d ee af 4b 3d
       -0.0024846357 -0.038170334 0.07202634 0.049728326
000350 15 fd 7a 3d ea 8d d8 bc 9f 8c b9 bb 5b 51 15 3c
       0.061276514 -0.026434857 -0.0056625153 0.009113635
000360 d4 cb a3 3d 15 98 14 3c c0 ef a3 3b cf c8 d8 3d
       0.079978615 0.009069462 0.0050029457 0.10585176
000370 1c 85 a3 3d 09 be 06 3d c0 5a 23 3d 97 b1 c7 3d
       0.07984373 0.032896075 0.039881468 0.097506694
000380 ca 61 54 3c 2a ca c5 3d ea b9 07 3e e4 ce f8 3d
       0.012962768 0.096577 0.13254514 0.12148836
000390 6b 68 18 3e b0 2d b3 3d 23 45 a1 3d b8 c1 ad 3d
       0.14883582 0.087489486 0.07874515 0.084842145
0003a0 b8 70 ef 3d f0 99 fb 3d 33 f4 2b 3e 8f dc 1c 3e
       0.11691421 0.122852206 0.16792373 0.15318511
0003b0 37 93 04 3e 5a 6c 07 3e 2e 8a 2f 3e 87 46 14 3e
       0.12946783 0.13224927 0.17142555 0.14480029
0003c0 4c c3 1c 3e 0f 35 de 3d 5f 4f 17 3e 6d f1 ba bd
       0.15308875 0.10849964 0.14776371 -0.091280796
0003d0 7d 8a e9 bd b5 14 a0 bd 84 7c 53 be c9 97 65 be
       -0.11403368 -0.078164496 -0.20652968 -0.22421183
0003e0 6e 2c 4a be aa 32 56 be 6f 8d 6d be ad 1d 26 be
       -0.19743511 -0.20917764 -0.23198484 -0.16222258
0003f0 da 97 d2 bd 32 40 9b bd 36 b5 66 bd 91 84 03 be
       -0.1028287 -0.07580604 -0.05632516 -0.12843539

conv1.bias f4 [32]
000000 fc 41 cc bd 30 83 77 bc 64 30 28 3d db a8 b2 3c
       -0.09973523 -0.015106961 0.041061774 0.021809032
000010 d5 b9 80 be 05 8d 34 be 7e ed ef 3d f7 6e 9d 3d
       -0.2514178 -0.1763192 0.1171522 0.076871805
000020 2c cc 26 3e fc ed 16 bd e6 45 c8 3d 8b 34 b4 3d
       0.16288823 -0.036848053 0.09778957 0.08799084
000030 5d b3 8e bc b8 f0 67 be 35 12 f9 bd ad e4 a7 3d
       -0.017419511 -0.2265042 -0.12161676 0.08197913
000040 a2 15 b5 bd 4d 12 0e be 57 f5 b0 3d 39 32 9a bd
       -0.08842017 -0.13874169 0.08640545 -0.075291105
000050 50 2b 99 bd a7 00 c9 bd 84 af f6 bd 80 6f 64 3d
       -0.07478964 -0.098145775 -0.12045196 0.055770397
000060 ec 7f 4b 3e e3 6d 45 3d d1 d9 f8 3d 16 cf 3b 3d
       0.19873017 0.0482005 0.1215092 0.04585179
000070 f1 59 14 3d 75 31 a7 bd bb da 3d 3d 7d 9c c8 3b
       0.036218587 -0.0816373 0.046351176 0.0061221705

conv2.weight f4 [16, 32, 5, 5]
000000 28 01 3b bd 93 8a 25 3d 3c 79 45 3b a6 4c 27 3c
       -0.0456554 0.040415358 0.0030132076 0.0102111455
000010 b7 d3 c7 3b ba 87 dd bb 3b 84 81 3d 6d 65 2e 3d
       0.0060982364 -0.0067605646 0.06324049 0.042577196
000020 75 04 80 bc 02 ec 81 bd 38 11 32 bc 47 21 8c 3c
       -0.015627125 -0.06343843 -0.010868363 0.017105712
000030 2e 8e 1d bd 17 97 4d bc e4 6e 46 3d fe 03 0a 3d
       -0.03846567 -0.01254823 0.048445597 0.033695213
000040 07 a5 e3 bc a7 30 57 bb 19 ea d7 3c a8 db 36 bd
       -0.027788652 -0.0032835396 0.026356744 -0.044643074
000050 2b b7 da bc 4f 61 1e 3d 7a 47 7b 3d 7b cd 49 bd
       -0.02669867 0.03866702 0.061347462 -0.049268227
000060 4d 9f c3 3c d5 ca 5e 3d 32 cc 70 bd 2b f8 a5 bd
       0.023879671 0.054392654 -0.058788486 -0.08103975
000070 13 f0 50 3d be 76 94 bd 91 80 c6 3c b9 3e 19 3d
       0.051010203 -0.07249211 0.024231227 0.037413333
000080 67 51 5b bc 62 db 22 3d 61 06 7c bc d1 9e 6d 3d
       -0.013386107 0.03976 -0.01538238 0.058012787
000090 2d e9 83 3d 4a 06 33 3d d0 1e 21 3b b5 aa df bc
       0.06440959 0.04370717 0.0024585016 -0.02730308
0000a0 96 5a 95 bb 70 e4 18 3c 1d 13 ef 3c b0 5c 2f 3b
       -0.004557918 0.0093318075 0.029183919 0.0026758127
0000b0 ff 8a af bc f3 de 2b bb c3 50 b6 3d 6a 19 58 bd
       -0.021428583 -0.0026225417 0.08902123 -0.05275861
0000c0 4b ed 5e 3d 24 38 a2 bc a0 39 c7 3d a1 d6 8c 3d
       0.05442552 -0.01980216 0.09727788 0.06876875
0000d0 0b 74 c0 3d 77 2c 95 3c 4e 61 ec bd dc 26 e5 3d
       0.093971334 0.018209679 -0.11541997 0.111890525
0000e0 4e 12 26 3d ba 7f 99 3d fc 60 13 3d 4a c3 9f bd
       0.0405448 0.07495065 0.035981163 -0.0780092
0000f0 21 78 31 bc bc 58 2e 3d 09 cf e8 bc 4a 43 5f bc
       -0.010831864 0.042565092 -0.028419035 -0.013626883
000100 4b 66 03 be e4 19 3e 3e a3 6d 0a 3e 8e 47 ea 3d
       -0.1283199 0.18564564 0.13518386 0.11439429
000110 70 d9 c5 3d e8 ad 3a 3d 4a fc cc 3c 6f 67 57 bd
       0.096606135 0.045576006 0.025022645 -0.052588876
000120 cf a9 2e be f3 09 50 be 43 41 93 be ad 27 95 3d
       -0.17056964 -0.20316295 -0.28760728 0.07282958
000130 5e 1b 3c 3e 5b 82 23 3e 42 60 23 3e e6 d1 b0 3d
       0.18369815 0.15967695 0.15954688 0.08633785
000140 6b df 0f 3d f0 cc 39 3e 44 1b 3c 3e dd d5 a1 3d
       0.035125177 0.18144584 0.18369776 0.07902119
000150 fb 30 85 3c 59 d2 de 3c cc 7f 16 3e 8d e5 de 3d
       0.016258707 0.027199911 0.14697188 0.10883627
000160 19 07 9c 3d 98 8a b8 3c b9 71 ce 3d a4 a2 54 3e
       0.07618541 0.022527024 0.100802846 0.20765167
000170 4e 88 2f 3e 78 3d 4f 3e 4d 17 87 3d 6e dc 1d be
       0.1714184 0.20238292 0.06596241 -0.15416119
000180 74 cc ee bc e5 ea ca bc 03 68 f8 bd 53 aa 0e bd
       -0.029150225 -0.02477021 -0.12129214 -0.034830403
000190 7f 23 61 3e 02 74 4c 3d 48 08 dd 3d d8 be a4 3d
       0.21986197 0.04991532 0.10792595 0.08044213
0001a0 df 84 89 3d be a3 a4 3d 4d 3a 43 bc dd f6 a5 bd
       0.06714796 0.08039044 -0.011915755 -0.08103726
0001b0 1a f8 12 bd a2 68 96 3b 23 1f f1 bb dd ef 87 bc
       -0.03588114 0.00459011 -0.007358448 -0.016593868
0001c0 49 9c d8 bd 3d ad 67 bd a5 f4 f1 bd c5 58 9c bb
       -0.10576684 -0.056561697 -0.1181424 -0.0047713243
0001d0 fe d3 b8 bd 3d 0b d4 bd 6b 35 dd bd 3c 51 00 be
       -0.09024809 -0.10353706 -0.10801204 -0.12530988
0001e0 d9 0d 2d bd b7 a2 32 bd 06 ca dc bd 24 bd 58 be
       -0.042249534 -0.04361221 -0.107807204 -0.21165901
0001f0 fb 2b 69 be 06 a6 ee 3c 45 45 82 3c 4b f8 2d bd
       -0.22770683 0.0291319 0.01590217 -0.04247312
000200 b1 27 47 bd 12 d9 86 3d 48 cf 32 3c f3 d0 25 bd
       -0.048621837 0.065843716 0.0109136775 -0.040482473
000210 01 85 2b 3d 74 45 07 bc 2d c8 57 3d e6 d9 6e 3d
       0.04187489 -0.008256305 0.052681137 0.058313273
000220 0f 3e 34 3d 29 7a 85 bd ec a3 b1 bd 4d 14 29 bd
       0.044004496 -0.06517441 -0.08673844 -0.041279126
000230 19 48 a1 bc 21 f3 4a bc 3b 93 f1 bd fd 94 0b be
       -0.0196877 -0.012387068 -0.1179566 -0.13631053
000240 23 8f 80 bd 1a 36 fe 3c 19 6d df bd df 86 01 be
       -0.06277301 0.031031657 -0.109094806 -0.12649105
000250 15 8b fd bd 19 48 04 be b5 85 0b 3e a4 9f 9f 3c
       -0.123800434 -0.12918128 0.13625224 0.019485302
000260 c1 54 c4 bc 68 59 89 3d 12 91 0e be 09 21 9e 3d
       -0.023966195 0.06706506 -0.13922527 0.07721145
000270 95 1a 23 3d f3 0a 90 3d 9b 37 6a 3d 10 d6 31 be
       0.039820272 0.070333384 0.057181936 -0.17366815
000280 ac 69 82 3d fc 93 f6 bc 46 9c 0a bd aa 48 40 3d
       0.063678116 -0.030099861 -0.03384044 0.046944298
000290 0b aa 21 be e3 cd c1 3c 5c 8c 43 3b 1e 49 d8 3c
       -0.15787522 0.023657745 0.00298383 0.026402052
0002a0 3c 60 bd 3c 65 36 02 be 9b f9 d5 3b e7 4d 64 bd
       0.023117177 -0.12716062 0.0065299994 -0.055738356
0002b0 e3 57 7b bd ee e5 6c bc 02 b8 17 be 67 13 05 3e
       -0.061363112 -0.014459116 -0.14816287 0.12995683
0002c0 19 96 36 3d 78 60 c5 3d 5d ae 89 bd af 05 0f bc
       0.044576738 0.096375406 -0.0672271 -0.008729382
0002d0 40 5e 8f 3b 1d e5 80 3d 57 21 88 bc 3d 81 0a 3c
       0.004375249 0.062937 -0.01661746 0.008453664
0002e0 09 d3 41 3c 16 86 6d 3d 5f bd a2 3d 72 48 cb 3b
       0.0118301 0.057989202 0.07946276 0.0062037045
0002f0 46 22 f5 3b b9 47 32 bd 6d eb cd bc 83 77 21 bc
       0.0074808924 -0.04352543 -0.025136674 -0.009855154
000300 09 19 e2 bc a5 28 91 bc 4c a5 d9 bd e2 26 38 bb
       -0.027599828 -0.017719576 -0.10627231 -0.0028099348
000310 cd af 85 3c da a3 ac 3d bf 33 b6 bd c9 dd 2d bc
       0.01631918 0.0842969 -0.088965885 -0.01061196
000320 91 55 98 3d 55 4b 92 bb 79 fc 06 bd 33 d6 bc bd
       0.074381955 -0.0044645467 -0.03295562 -0.09220543
000330 68 4d 83 bd 22 7e cc 3d a1 65 a7 3d b1 71 36 3c
       -0.064112484 0.099849954 0.08173681 0.011135505
000340 7c 5f 56 bd 0f 07 80 bd 39 5a 37 3d b8 86 07 3e
       -0.052337155 -0.06251346 0.044763777 0.13234985
000350 c7 16 c1 3c 51 7d 9e bc fb 85 25 bd f2 3d df 3d
       0.023570431 -0.019346865 -0.040410977 0.10900487
000360 6f 63 ee 3d 77 99 d2 3c f1 5a 2d 3d 6d 53 0b 3b
       0.11640059 0.025707943 0.042323057 0.0021259442
000370 39 5a 3e 3d 7c db e9 3c 34 37 95 3c 46 4c 10 be
       0.04647276 0.028547041 0.0182148 -0.14091596
000380 53 d8 04 be e7 8c 91 be 05 57 e6 3d 62 92 e6 3d
       -0.12973146 -0.28427812 0.112470664 0.11258389
000390 14 e2 5e 3e fd c2 8d 3d 3e c8 82 be 84 0a 0a 3e
       0.2176593 0.06921957 -0.25543398 0.13480574
0003a0 db e6 4a 3d 49 b5 cc 3d d0 47 87 3b db 8b 86 be
       0.049536567 0.09995515 0.0041284338 -0.26278576
0003b0 2f ad a1 3d ca fa cb 3d e7 2e 33 3e 41 a9 8d 3c
       0.0789436 0.099599436 0.1749836 0.01729262
0003c0 f6 80 84 be 33 0e 8f 3d 19 6e 98 3c b8 d4 61 3d
       -0.2587964 0.0698513 0.018607186 0.055134505
0003d0 aa 4d 00 3e 93 65 51 be 05 14 61 bc d9 da 85 3c
       0.12529626 -0.20448904 -0.013737683 0.016339706
0003e0 72 9a 9b 3d cf 24 4d 3d 42 a4 dc 3d 3b f0 dc 3b
       0.075978175 0.05008393 0.10773517 0.006742505
0003f0 93 c9 95 bd cb 66 1d be 9b b1 e3 bc 6e f7 04 3d
       -0.07313838 -0.15371244 -0.02779465 0.03246253

conv2.bias f4 [16]
000000 6a f4 a8 3d 0d a7 e8 bc 4e 2a 46 bd 51 50 14 bd
       0.08249743 -0.028399969 -0.04838019 -0.03620941
000010 62 42 6d 3d 76 9a 20 bd 65 67 22 3c c8 26 1f bc
       0.057924636 -0.039209805 0.0099123465 -0.009713836
000020 88 80 36 bc cd c8 ce 3c c2 b4 e7 3d 5b a9 8a 3d
       -0.011139043 0.025242234 0.11313774 0.06770583
000030 20 a8 90 bc fd 26 13 3d 2d 62 72 bd ce e8 0f bd
       -0.017658293 0.035925854 -0.05917566 -0.03513413

conv3.weight f4 [8, 16, 3, 3]
000000 b4 3d 08 3d f1 af 7c bb 66 35 41 be d1 bb 03 be
       0.03326197 -0.0038557018 -0.18868026 -0.12864615
000010 35 cc 74 3d 0d 6c a7 3c 19 ca 21 3e 4d 89 a1 3d
       0.05976506 0.020437265 0.1579975 0.07887516
000020 95 c0 03 3e 4d 7a 17 3e 42 a4 82 3d c1 87 76 3d
       0.12866433 0.14792748 0.06378986 0.06018806
000030 c2 c3 b3 3c cc bd f3 3d a1 2b da bd 50 19 83 3d
       0.02194393 0.11901435 -0.10652853 0.06401312
000040 7d 3c 8c bd 3c 74 ae bd b3 a3 c7 bd 38 02 1f be
       -0.06847475 -0.08518264 -0.0974802 -0.1552819
000050 ab d3 16 3e de 0e df 3d 03 ea bb bd 50 c3 e0 bd
       0.14729182 0.108915076 -0.091754936 -0.10974753
000060 f6 55 a8 3d d6 a6 8e 3b 71 be e1 bd 8a 4d 82 3d
       0.08219521 0.0043533845 -0.11022652 0.06362446
000070 af 1f ff bd 45 56 f3 bd 78 b3 78 3d 45 f9 c6 bc
       -0.12457215 -0.11881689 0.06071803 -0.024288783
000080 7a 6b ff bd 3d 82 b0 3d a5 74 bd bc 4d ad a6 bb
       -0.124716714 0.08618591 -0.02312691 -0.005086577
000090 22 8f b6 3d 03 ab c4 bc 04 a3 55 3e 2d 24 17 3d
       0.08914019 -0.024007326 0.20862967 0.036899734
0000a0 dd 6d 9d 3d db e7 24 be 9f e2 24 be 68 41 e2 bd
       0.076869704 -0.16104071 -0.16102074 -0.110476315
0000b0 3f 48 db bb 3c f3 1c bb 32 28 6c 3d 85 aa ee bd
       -0.006691962 -0.002394869 0.05765552 -0.11653618
0000c0 7c 66 1b 3e 05 b9 2d 3d 13 cc 60 3c 2b f7 09 3d
       0.15175813 0.042412776 0.01372053 0.033682983
0000d0 b8 33 fc bc 78 f3 c8 bd f9 da 30 3c 44 05 a4 bc
       -0.03078638 -0.09812063 0.010794395 -0.020022042
0000e0 27 35 30 be 88 2b aa 3c e4 3d 3d bd 2f ac 2e 3e
       -0.17207776 0.02077271 -0.0462016 0.1705787
0000f0 5d 57 e7 bd 8d 9b a6 3d 39 f8 0f be c7 28 3d bd
       -0.1129596 0.08135138 -0.14059533 -0.046181466
000100 da b3 0f be 0a c5 be 3c b1 e0 82 3d 80 9f 6c 3d
       -0.14033452 0.023287315 0.06390513 0.0577693
000110 85 be 98 3d 5b 99 ce bc 33 d2 e8 3a 66 d6 15 be
       0.07458214 -0.02521961 0.001776284 -0.14632568
000120 9c 12 8c 3c 0b fa aa 3d 7f 84 7f bd 25 79 00 3c
       0.017098717 0.08348473 -0.062382217 0.007841383
000130 4c f0 ff bb 73 7c c1 3d 67 22 f8 3d 3b 1a 14 bd
       -0.007810628 0.09447565 0.12115937 -0.036157828
000140 fd d3 3d 3c 89 1e 01 3e c4 15 0c 3e 03 6b 21 3e
       0.0115861865 0.12609304 0.13680178 0.15763478
000150 2f 07 e4 bd 26 16 e7 bd 78 40 eb bd 83 fb e2 3d
       -0.11134183 -0.11283521 -0.11486906 0.11083128
000160 78 70 d1 3d 03 2a 25 bd de 0f 5c bd 8c 66 c5 3d
       0.1022653 -0.04032327 -0.05372607 0.096387
000170 e3 2d 8e 3e 18 4a 75 3d dd 94 00 3e 62 6c 1d 3e
       0.27769384 0.059885114 0.12556787 0.15373376
000180 db 27 53 be 35 de 6c be 22 a7 6c be 1e 6a 3f 3d
       -0.20620672 -0.2313164 -0.23110631 0.04673206
000190 e5 95 66 3e 5d b4 e1 3d d2 4b 63 3c cf b3 10 be
       0.22518118 0.1102073 0.013873057 -0.14131092
0001a0 92 c3 1d bb f0 99 3b 3c 11 70 53 be 5c db d6 bd
       -0.0024072868 0.011450276 -0.20648219 -0.10491058
0001b0 89 25 08 3e 22 cf 04 3e fd c9 3d 3e 56 f2 99 bc
       0.13295569 0.1296964 0.18534084 -0.018792313
0001c0 ad 1a 03 be 02 94 08 be 15 ba 2f be d7 7d 47 be
       -0.12803145 -0.1333771 -0.17160828 -0.19481598
0001d0 fe 99 2e bd 2e 7b 35 3e a1 0f cf bd b7 53 7d bd
       -0.042627327 0.1772277 -0.10110403 -0.061847415
0001e0 5e 72 a2 3d f2 a6 44 3d 4c 23 a9 3c 1d 59 0c 3d
       0.0793197 0.048010774 0.020646714 0.034264673
0001f0 c4 90 ca bd 5c 08 f9 bd 2f 12 28 be 24 c2 b8 3c
       -0.09890893 -0.121597975 -0.16413186 0.022553511
000200 9d 7f 09 3e 4c 3b b3 3d e6 0c f5 bd 2a ab 71 3d
       0.13427587 0.08751544 -0.11965351 0.059001125
000210 e5 43 03 bd ae ae 15 be 6d ff 15 be 0a 0e 23 be
       -0.03204717 -0.14617416 -0.14648218 -0.15923324
000220 f5 19 c1 3d cb 5f e4 bd f1 a6 41 3d 35 94 f0 3d
       0.09428779 -0.111510836 0.04727835 0.11747018
000230 d5 e0 c2 3d 38 7c 15 3e 02 79 d3 3d 08 68 03 be
       0.095155396 0.14598167 0.10325815 -0.12832654
000240 d2 71 4c 3d 1c 51 42 3d bd 19 5b be cf 8e 31 3e
       0.049913235 0.047440633 -0.21396537 0.17339633
000250 9c fe 3a 3d 9a b5 1d be 70 f2 e6 3d 94 b7 e8 bc
       0.04565297 -0.15401307 0.1127671 -0.02840785
000260 02 3b 8a bd b9 e7 9b bd 4b a6 f8 bc 10 21 83 bd
       -0.06749536 -0.07612557 -0.030352732 -0.064027905
000270 e4 c2 8f bd 0a 44 03 bd cb e2 8a 3c 43 73 f8 3d
       -0.07019594 -0.03204731 0.016953846 0.121313594
000280 11 d0 90 bd d4 83 73 bd 9b 56 7e 3d 23 28 11 be
       -0.070709355 -0.059451893 0.062094312 -0.14175467
000290 6b bd 17 3c 92 25 1d be f0 c3 33 bd 6b 6d aa 3d
       0.009261469 -0.15346363 -0.043888032 0.08321651
0002a0 ab 69 72 3d b6 8b 8b 3c 02 2a 96 bd 7a 7a e3 3d
       0.059182804 0.017034393 -0.07332231 0.11107345
0002b0 99 15 0a be 24 5d 32 bc 54 36 9c 3d bb da c5 bd
       -0.13484801 -0.010886464 0.0762755 -0.0966086
0002c0 db 68 42 be d8 b0 6a 3d 5d a4 b6 bd e3 0c 6f 3d
       -0.18985312 0.057297558 -0.089180686 0.0583619
0002d0 7d 3a 84 3e 92 69 4c 3e c0 53 85 3c 0e 4f 41 bd
       0.25825873 0.19962147 0.016275287 -0.047194533
0002e0 70 51 51 bc e4 e6 19 bd e5 cf 47 be 94 5d 68 bd
       -0.012775764 -0.03757371 -0.19512899 -0.056729868
0002f0 e5 f5 5c be 8c 60 21 be cd fd 92 bc 78 05 8f 3d
       -0.21578176 -0.15759486 -0.017943287 0.06983465
000300 d2 18 05 bd 6a d3 23 3e 66 9f 03 be 32 b4 63 3d
       -0.032494374 0.15998617 -0.12853774 0.05559177
000310 e3 89 89 bd 01 be 05 3e dd f6 f2 bc b6 e5 c7 bd
       -0.06715753 0.13060762 -0.02965873 -0.09760611
000320 9c 92 33 be d6 30 e8 bd 7f 15 5b 3e ee c1 27 bc
       -0.17536396 -0.1133744 0.21394919 -0.0102391075
000330 2c b2 d2 bd 4c f8 41 3e 8d 64 d1 3d 72 7a 29 3e
       -0.1028789 0.18942374 0.10224257 0.16550615
000340 bd 92 e5 bd b2 0b 0e 3e 35 b9 a7 3c 82 4d c4 3d
       -0.11209629 0.13871649 0.020474056 0.09585096
000350 6a 22 e6 3c 76 44 2e be d3 da 7f 3d 2f 6b 2f 3d
       0.028092582 -0.17018303 0.062464546 0.042826828
000360 26 e3 bb 3d 0d be f0 bd dd 6d 0f 3d 9c 80 75 3d
       0.091741845 -0.11754999 0.035016883 0.059937105
000370 52 8a 33 3d 5f 21 4a 3d dc c4 13 3e f0 15 3d 3d
       0.043833084 0.04934823 0.14430565 0.0461635
000380 a4 32 15 be 8d f9 11 3e 10 2a 22 bd 1c 06 15 be
       -0.14570099 0.14255352 -0.039590895 -0.14553112
000390 3f 83 f5 3d e2 59 00 3e 14 60 be bc 8c ea 4b 3d
       0.11987924 0.12534288 -0.023239173 0.04978423
0003a0 d6 4a e9 bc df df 4f 3d 3b 7f 3e 3e 4b eb 55 3e
       -0.028478067 0.05075061 0.18603222 0.20890538
0003b0 8f e9 d0 3d 66 3c 9f bd 17 1b 12 3d 51 32 da bc
       0.10200798 -0.07775192 0.035670366 -0.02663532
0003c0 02 4b 52 be 3d f1 34 be af 97 74 bd 16 37 8c 3d
       -0.20536426 -0.1767015 -0.05971497 0.06846444
0003d0 dc a7 65 bd f9 c6 45 3d 9c f6 2c 3e c0 9a c5 bd
       -0.056068286 0.04828546 0.16890949 -0.09648657
0003e0 9b e7 ab bd ad b1 1f 3e 3f f6 89 3d f6 eb 85 be
       -0.083937846 0.15595122 0.06736421 -0.26156586
0003f0 f6 28 fa 3d 9a c9 93 3d 6d 08 95 3c f5 f8 3b bd
       0.12214844 0.07216187 0.018192494 -0.04589172

conv3.bias f4 [8]
000000 56 cb 75 3d e4 33 fd 3c d2 bd 0a 3d 1b e3 34 3d
       0.06000837 0.030908532 0.033872433 0.044161897
000010 4a c5 b3 bd 48 e1 e6 bb ff d9 c3 3d d1 a5 b9 bd
       -0.08777864 -0.0070458986 0.09563064 -0.0906483

convt1.weight f4 [8, 8, 3, 3]
000000 23 97 0e 3e b5 df a9 3e ea 87 0b be 26 7f 47 be
       0.13924842 0.33178487 -0.13626066 -0.19482097
000010 c3 f5 d7 3b b4 53 1c 3e 9e 17 b5 3d 22 53 04 3d
       0.0065905764 0.15266305 0.08842395 0.032305844
000020 ca db 27 3d 9d 62 a7 3e bf ea 7f 3e 9b 2d 30 3e
       0.04098109 0.32692423 0.24991892 0.17204897
000030 51 04 f5 bd 94 26 39 be bd 6b 3d be f3 1a 1f 3e
       -0.11963714 -0.18081123 -0.1849813 0.15537624
000040 da d9 35 be 2f 84 23 3e 84 8c 20 be 90 0b 74 bd
       -0.17758885 0.15968393 -0.15678602 -0.05958134
000050 48 1b c0 bd 71 ed 88 3e 10 59 86 bd d8 cc a2 be
       -0.093802035 0.26743653 -0.06559956 -0.31796908
000060 da 6b f6 bc 1f e3 cf 3d 35 24 bd 3e 52 77 83 3d
       -0.030080725 0.10150742 0.36941686 0.06419243
000070 77 f1 11 3e 9b 7b 3e 3e 08 ae 48 3e 28 1a bc 3e
       0.14252268 0.18601839 0.19597638 0.36738706
000080 2b 4f e2 3e 87 1d 64 be 03 6d 83 bc ee ff a3 bd
       0.44201025 -0.22276889 -0.016043192 -0.08007799
000090 2d 11 54 bd 87 9c 33 3e 7d 20 7a bc d1 28 fd bd
       -0.051774193 0.17540179 -0.015266535 -0.12361301
0000a0 c2 70 eb be ba 32 aa 3d c0 c2 60 3d 13 e6 03 be
       -0.45984465 0.083104566 0.054873228 -0.12880735
0000b0 69 bf 19 3c 08 e6 2c 3e c8 03 28 3e ca d9 bc 3d
       0.009384015 0.16884625 0.16407692 0.092212275
0000c0 3d 06 23 bc 6a c4 37 3e 0b 3d ad bd b5 3e 97 3e
       -0.009950218 0.1794602 -0.08458909 0.2954003
0000d0 d9 2c 7a 3e 59 fb 36 3d cb c8 12 bf e2 4c d2 be
       0.2443117 0.044673298 -0.57337636 -0.41074282
0000e0 58 6b 91 bd 26 b7 b5 bb ac 87 2e 3e 0c 56 b7 bd
       -0.07100552 -0.0055455146 0.17043942 -0.08951959
0000f0 6b 9a 31 be ac 5f c5 bc 81 48 84 3d c5 f9 09 be
       -0.17344062 -0.024093471 0.064591415 -0.13474186
000100 0f d5 93 3d 5a ee 60 be 30 2e b0 3e 10 8a 78 bd
       0.07218372 -0.21965924 0.34410238 -0.06067854
000110 c6 05 95 3e 20 52 81 be 23 a3 aa 3e 9c f0 3a be
       0.29105967 -0.2525797 0.33327588 -0.18255848
000120 c5 d4 d7 3e 0b 3b b1 3d c8 7a 55 3e 22 93 db 3d
       0.42154518 0.0865384 0.20847619 0.10721423
000130 d3 ad 2c bd 41 18 16 3d 1f 1a c9 3d 62 79 25 3e
       -0.04215796 0.036644224 0.09819435 0.16159585
000140 21 f8 a9 bd 04 28 b8 be aa 9f 30 be fe 1f 8a be
       -0.0829928 -0.3596803 -0.17248407 -0.26977533
000150 59 2e 25 be e0 f6 83 be d6 db 9c be 9c b6 33 bf
       -0.16130961 -0.25774288 -0.30636472 -0.70200515
000160 1d 92 87 3c 4f 03 19 bf 2c 0d 14 3e 3a 09 a5 3e
       0.016549164 -0.59770674 0.1445815 0.32233602
000170 54 aa 86 bd 2f 38 8f 3e 91 f4 59 3d 70 f7 89 be
       -0.06575456 0.27972552 0.053211752 -0.26946592
000180 f8 41 02 bc b3 5b cc 3c 82 73 59 be 19 36 75 bd
       -0.0079502985 0.02494607 -0.21235469 -0.059866045
000190 5c 4e f5 3d be 94 22 be 4d 34 aa be 07 fe b5 be
       0.119778365 -0.15877053 -0.33243027 -0.3554537
0001a0 30 9d fb be dd cb 84 bd ea d5 3c 3d 60 11 47 bf
       -0.49143362 -0.06484196 0.04610244 -0.7776089
0001b0 0b 42 8a 3e 4e f8 05 3f 61 6a 59 3e b1 8b c0 3e
       0.27003512 0.5233201 0.21231987 0.37606576
0001c0 db fa dc be a9 b0 c0 3d b3 5a 45 be 06 f6 a8 3c
       -0.43160138 0.09408695 -0.1927288 0.020625126
0001d0 f2 4e 18 bd b2 0c 4a bd 0f 3a 9f bd b9 b9 dc 3e
       -0.037184663 -0.049328513 -0.07774746 0.43110445
0001e0 01 6b c1 bd 50 60 ac 3a ad 91 ab 3e 96 c4 b5 3d
       -0.094442375 0.0013151262 0.3350958 0.088753864
0001f0 10 59 49 bd c4 ac 68 3e e0 c0 11 bf f0 47 fc 3c
       -0.049157202 0.22722155 -0.5693493 0.030796021
000200 d5 af 78 be b8 dd e2 3d 60 43 2d bf 82 00 67 be
       -0.24285825 0.11077446 -0.6768093 -0.22558787
000210 67 90 df be 50 50 34 3d 49 e0 0b bd db 00 93 be
       -0.43664858 0.044021904 -0.034149442 -0.2871159
000220 ac 76 ff bd cc 9a e7 bd 9e 99 7e 3c 86 03 ab 3c
       -0.12473807 -0.11308822 0.015539555 0.020875704
000230 12 e0 a1 3e c2 92 8a be 0d fd 02 3f 8b 11 63 be
       0.31616265 -0.27065092 0.51167375 -0.22174661
000240 b1 27 81 3e fb a0 54 3e b1 f3 16 3e 1a 17 24 3e
       0.25225595 0.20764534 0.14741398 0.16024438
000250 2b 8d b4 3e 5a ec fc 3e 32 da 84 3e dd e7 b3 3d
       0.35263953 0.49399072 0.2594772 0.08784459
000260 1d 93 4c 3e dd 4e 44 3e fc 58 e2 bc b1 a1 11 3e
       0.19977994 0.19170709 -0.027630322 0.14221837
000270 51 20 f8 bd 9e b5 0e 3e 3e b4 8d bd bf 0b 35 be
       -0.12115539 0.13936469 -0.06919144 -0.17680262
000280 87 af b7 be 7d 18 ab 3d 54 64 af bd 10 a3 0e 3e
       -0.35876104 0.0835428 -0.08564058 0.13929391
000290 2a 3e b5 3e 22 b2 28 3e e5 dd 32 3e b0 c4 12 3e
       0.3539899 0.16474202 0.17467459 0.14332843
0002a0 99 89 04 bf d7 b5 cd bd 82 b2 ed 3d a9 f3 26 bd
       -0.5177246 -0.10044449 0.11606313 -0.040759716
0002b0 e1 8b 83 be 34 4f bd bd 13 56 3d be ea 1a 11 be
       -0.25692657 -0.092436224 -0.18489866 -0.14170423
0002c0 78 f5 c4 bd db a5 95 3d e5 7a 2c be b5 86 dd 3d
       -0.09617132 0.07307025 -0.16843756 0.10816709
0002d0 30 9d c2 be 19 dd a4 be 79 5d 56 be e3 32 bd bd
       -0.3801055 -0.32199934 -0.20934094 -0.092382215
0002e0 03 8f 8b 3e 77 61 d2 bd b4 66 9a be a9 b5 5c 3e
       0.27257547 -0.10272496 -0.3015648 0.21553673
0002f0 cb 3e 16 be 80 8e b7 3c 13 13 09 3e 08 fc 46 3d
       -0.14672391 0.022406816 0.13386182 0.0485802
000300 60 f4 a4 3d 2f d5 92 bc c5 26 41 bd 7f a3 6a bd
       0.08054423 -0.01792392 -0.047156114 -0.05728483
000310 6a 43 3c bd cc ca b6 3d ad 75 43 be d5 ed bb bd
       -0.04596273 0.08925399 -0.19087858 -0.09176222
000320 a5 1b 8d bc 42 6d 63 3e 10 c2 c4 bd dd 21 34 be
       -0.017225096 0.22209647 -0.09607327 -0.17591043
000330 3d 40 1b 3e e5 f2 94 3d fd dc b3 3d 18 79 c6 3d
       0.15161224 0.07272891 0.087823845 0.096910655
000340 88 8a c0 b9 4d f1 03 3e 60 75 23 be 96 af 19 3e
       -0.00036724308 0.12885018 -0.15962744 0.15008387
000350 da da 61 bb bc ce 4f bb 9f ab 89 be 8d 34 0d bd
       -0.003446272 -0.0031708917 -0.2688875 -0.034473944
000360 07 10 41 3d 70 a6 04 3d f7 5e 4a be 07 79 ea bd
       0.047134425 0.03238529 -0.19762789 -0.114488654
000370 b3 3c 4e bd 70 09 c9 bd 52 35 38 bd 8b 13 e1 3d
       -0.050350856 -0.09816253 -0.044972725 0.10990056
000380 57 15 05 3e 45 24 8a 3d 7d 49 c8 3e ae 96 c9 3d
       0.12996422 0.06745199 0.39118567 0.09843193
000390 c1 77 4c be 71 d7 83 3e 90 3d 80 3d 21 78 75 3d
       -0.19967557 0.25750306 0.06261742 0.059929017
0003a0 c7 ca 64 be 40 d0 e7 bd e8 67 5e bd 78 52 3d be
       -0.22342978 -0.113190174 -0.05429831 -0.1848849
0003b0 4a 2a 55 be 7f f9 0a be 35 c4 35 3e a2 05 d5 3d
       -0.20816913 -0.13571738 0.17750628 0.10401465
0003c0 da ba 19 3e f0 36 ce 3c 01 21 8b 3e 44 15 02 be
       0.15012684 0.02517268 0.27173617 -0.12703425
0003d0 0b 6e 62 bd f2 0d 1f 3e 4b 0a 1f bc e2 0f 49 3c
       -0.055280726 0.15532663 -0.009707044 0.012271853
0003e0 04 3b 13 3d e5 42 fc bd da e8 eb bd 6c 98 8b 3e
       0.035944954 -0.123174466 -0.11519022 0.27264726
0003f0 2a fb 3e bc 25 ef 4b bd 80 6d 53 be ab ce 0f be
       -0.011656562 -0.049788613 -0.2064724 -0.14043681

convt1.bias f4 [8]
000000 c2 e1 7e bd 00 c8 91 3c f4 b2 40 3c 07 5a 9e 3d
       -0.06222702 0.017795563 0.011761416 0.07732015
000010 93 7d bb 37 46 9f 33 3d 6e f6 9b 3d c5 f5 3c bd
       2.2350612e-05 0.043853067 0.07615362 -0.04613282

convt2.weight f4 [8, 16, 5, 5]
000000 e5 ae 40 be 50 88 9f be c5 06 a0 be 2a c0 99 be
       -0.18816717 -0.31158686 -0.31255165 -0.30029422
000010 d0 b4 db be aa 55 72 bd bc 11 e2 bd c9 39 db 3d
       -0.42911386 -0.059163727 -0.11038539 0.10704381
000020 64 31 20 be a9 33 1f be 89 8f ed 3c 0b 80 df 3c
       -0.15643841 -0.1554705 0.028999107 0.027282735
000030 7a da 27 be 2a 22 06 bd 8b 16 05 be f1 40 7e 3b
       -0.16391936 -0.032747425 -0.1299688 0.0038796032
000040 af e5 95 bd 7a f7 af 3c 73 e4 93 bd 62 3f cb bd
       -0.07319199 0.02148031 -0.072213076 -0.09924199
000050 68 c7 62 3e 6a b1 09 3d 41 8e ec 3d 96 4e 49 bb
       0.2214638 0.03361646 0.1155057 -0.0030717007
000060 55 27 09 3e 76 d4 51 bd 22 ac e9 3b 3e 67 7b 3d
       0.1339391 -0.05122801 0.0071311155 0.061377756
000070 00 f4 7e 3d 16 50 a6 ba 16 7b a2 3d e3 53 d8 bc
       0.062244415 -0.0012688662 0.07933633 -0.026407188
000080 b7 10 a2 3c 54 81 8b 3d e4 e3 f3 3d b7 28 fc 3d
       0.01978336 0.06811777 0.11908701 0.12312453
000090 de b4 5a 3d f1 2b d5 3d 16 c8 f0 3d f6 82 dc 3c
       0.053395145 0.10408772 0.11756913 0.026917916
0000a0 8f 2f aa 3d 02 c9 05 3d 5e ce 8a 3d 6f 8e 92 3d
       0.08309852 0.0326624 0.06777643 0.07156073
0000b0 72 21 55 3c 34 64 30 3d 61 a9 a2 bc b7 52 ad 3d
       0.013008462 0.04306431 -0.019856157 0.08463042
0000c0 d2 7f 01 3b b6 30 b7 3d 22 85 3a bf 33 24 7d bd
       0.0019760025 0.08944838 -0.72859395 -0.0618021
0000d0 44 a0 de be 65 9e 5a 3c 75 93 39 be 5e 07 0b bc
       -0.43481648 0.013343428 -0.18122657 -0.008485643
0000e0 1d 17 de be 65 5f e6 bd 97 90 85 3c 91 eb 81 bd
       -0.4337701 -0.11248664 0.016304297 -0.06343759
0000f0 7f 69 60 be 15 1f 63 bc a4 f6 01 be 85 b7 98 bd
       -0.21915244 -0.013862391 -0.12691742 -0.074568786
000100 2e 74 9a bd dc cb aa 3d 59 16 98 be 24 99 fa bd
       -0.07541691 0.08339664 -0.2970455 -0.122362405
000110 3a 54 dd be 46 7b 58 bd c7 7a 7b 3d cf 1b d1 bd
       -0.43228322 -0.052851938 0.061396386 -0.10210382
000120 13 dd 11 3e 18 e0 af bd 87 29 ad 3e a3 0c cc 3c
       0.1424449 -0.08587664 0.33820745 0.02490837
000130 6a c3 a0 bc 8f 88 b5 bd ab ac 52 bd 3f 3a 74 bd
       -0.01962443 -0.08863937 -0.0514342 -0.05962586
000140 f5 3b 80 3c a6 15 34 bc 48 31 00 be fc cf 45 bd
       0.01565359 -0.0109914895 -0.125188 -0.048294052
000150 98 9f da bd c8 67 aa 3c 25 ae 1c be d0 0a df bd
       -0.10674971 0.02080144 -0.15300806 -0.10890734
000160 e6 28 13 bd bf 9a dc bc c8 3f 57 bd 17 80 e0 bd
       -0.035927676 -0.026929257 -0.05255106 -0.10961931
000170 59 51 fc bd 7f 15 df bc 2e cd d3 bd 07 99 ab bc
       -0.12320203 -0.02723193 -0.10341869 -0.020946993
000180 9b 9f 80 bd e8 8b 43 bd f4 24 52 bc 8b a4 1a be
       -0.06280442 -0.047740847 -0.012826193 -0.1510183
000190 d0 c1 6e bc 53 14 06 bb 71 80 4a 3c 30 1a 67 3d
       -0.014572576 -0.0020458892 0.012359724 0.05642146
0001a0 0c 66 40 bd 2c 41 b4 bd 25 50 0b be e9 62 73 bd
       -0.04697232 -0.08801493 -0.13604791 -0.0594205
0001b0 e1 59 e5 bd 08 5b 0c be 0f 95 f6 bc d8 8e db 3c
       -0.11198784 -0.137066 -0.030100374 0.026801512
0001c0 f6 e8 e1 3c e2 a4 6b 3d 68 b2 d1 bd 0f 56 ab bd
       0.027576905 0.05753029 -0.102391064 -0.08366024
0001d0 66 54 76 3d 7b 2b a6 3c 6a 78 74 39 70 c9 9a 3d
       0.060139082 0.020284405 0.00023314511 0.075579524
0001e0 3a e0 15 be 48 e5 97 be a7 24 4f bd 8e 89 81 bd
       -0.14636317 -0.29667115 -0.050572064 -0.063250646
0001f0 08 5e 6d bd 53 74 82 3c c5 3f 95 bd a3 bc d2 bd
       -0.057951003 0.015924608 -0.07287554 -0.10289886
000200 52 b6 8e 3d 80 50 b6 bc 8c 1c 15 3d 78 a3 87 3d
       0.069683686 -0.022255182 0.036404178 0.06622976
000210 64 c9 06 bc ab e4 a6 bd e2 7c 8e bc bf a5 52 3d
       -0.008226726 -0.08149084 -0.017393533 0.0514276
000220 12 3e bb 3d d2 fd b3 bc b0 dd e5 bd 4f eb 08 3e
       0.09142698 -0.021971617 -0.11223924 0.13371013
000230 5b 9f f3 3b 6a e3 9f 3d 81 42 83 3d be 2b 97 bd
       0.007434768 0.07807048 0.06409169 -0.0738139
000240 58 40 10 3d 19 33 c8 3c 0d d5 cb bd 97 21 4b 3d
       0.035217613 0.024438428 -0.099527456 0.04959258
000250 47 44 d1 3c 4c 2d 19 bd 87 cf 03 3d 81 21 03 3d
       0.025545252 -0.037396714 0.032180335 0.032014374
000260 51 70 4e bc 98 a1 8c 3c 02 9a 87 3d a9 86 e8 3c
       -0.0126000205 0.017166898 0.066211715 0.028384523
000270 4a 84 0b 3d 53 3a 02 3e c7 74 6d 3d a0 b8 95 bb
       0.034061708 0.12717561 0.057972696 -0.004569128
000280 c6 fb a8 bc a7 11 a0 3d 66 86 e1 3d b3 b0 3f bd
       -0.020627867 0.07815867 0.110119626 -0.046799373
000290 45 6f 7a 3d 67 a5 8d bb e3 5b c6 3d f7 e1 9a bc
       0.06114127 -0.004322696 0.09685495 -0.018906577
0002a0 f8 7d 58 bd cb b3 81 3d 9e 49 48 3d 78 e1 b6 3b
       -0.05285451 0.06333121 0.04889833 0.005581077
0002b0 a1 c3 0c 3e 99 07 22 3c 57 51 cc 3d f1 62 f3 bd
       0.13746502 0.009889507 0.09976452 -0.11884106
0002c0 fe 69 a4 bd 4c 29 dc 3c a8 c6 96 bd e9 b9 7d bd
       -0.08028029 0.02687516 -0.073621094 -0.061944876
0002d0 90 bb 7d bd db 90 79 bc 6a 11 2a bd 8e dc b1 bd
       -0.06194645 -0.01523229 -0.041520514 -0.086846456
0002e0 68 f2 b2 3b 6f 73 a9 bd 23 17 08 bd 40 df c1 bd
       0.005461026 -0.0827397 -0.03322519 -0.0946641
0002f0 db 8b ed 3c 0a 5b cf bc 62 3f a4 3b 99 af 4c bd
       0.028997352 -0.025311965 0.0050124386 -0.04997215
000300 24 b2 0e 3b 05 de d4 3d 3b 46 08 bd de ff db bd
       0.002177366 0.10393909 -0.033270102 -0.10742162
000310 f2 71 f4 bb ec 21 1a bd 31 c3 b5 3c b2 a3 65 bc
       -0.0074598724 -0.037630007 0.022187801 -0.014016079
000320 33 7a f1 3c df 78 26 3d aa 58 a9 bd 97 44 2f bd
       0.029477214 0.040642615 -0.082688645 -0.04279002
000330 8a 68 78 bd 96 b3 59 bc 14 76 90 bc e4 2c 6e bc
       -0.06064657 -0.0132874455 -0.017634429 -0.01453707
000340 15 93 08 3d ed 26 c4 bb 43 d0 d1 ba d4 70 19 bd
       0.033343393 -0.0059860856 -0.0016007501 -0.037461117
000350 02 16 41 bd 5b 64 1e bd 7e b8 0d bd d6 10 c0 3b
       -0.04714013 -0.038669925 -0.034599774 0.005861382
000360 3d df b9 3d 26 5e 42 bd 51 ec 41 bd b3 23 78 bd
       0.090757824 -0.04745307 -0.04734451 -0.06058092
000370 e5 0d 8e bc 97 b8 cd 3b f7 5d 6b bd ae 45 5e 3d
       -0.01734061 0.0062781083 -0.05746266 0.05426567
000380 6e 7a 9b 3c aa d4 9b 3c 43 e5 16 be 15 fd 87 3d
       0.018979277 0.019022305 -0.14735894 0.066400684
000390 72 8d 14 bb ec 0f 99 3b 4d 2c 2b 3d e5 60 db bc
       -0.0022667316 0.0046710875 0.041790295 -0.026779601
0003a0 ed af e5 bc 17 de 1a bd a7 2c 4c 3d 8e 3b e0 bd
       -0.02803799 -0.037809458 0.04984727 -0.10948859
0003b0 c1 ea a6 bd 9c 1c 93 bd b4 44 9e 3d 54 8f 8c 3d
       -0.081502445 -0.07183191 0.07727948 0.06863275
0003c0 24 a1 5f bd 9c 3b 9c bd e0 d2 8e 3d 75 36 a9 3c
       -0.054597035 -0.07628557 0.06973815 0.02065585
0003d0 87 80 6d be f8 95 55 bd 3e ad 00 3d 9a 34 c3 bd
       -0.2319356 -0.052144974 0.031415217 -0.09531517
0003e0 72 e8 17 be ac 81 6d bd ae e9 7e 3c 4d 2e 03 bd
       -0.14834765 -0.057984993 0.015558643 -0.032026578
0003f0 e2 45 f6 3d 4d 4a 2a 3c f6 5e f9 bd cf 2c f6 3d
       0.12025048 0.010393691 -0.121763155 0.12020265

convt2.bias f4 [16]
000000 f8 50 36 3d c6 82 a6 3d 25 51 94 3c 7e 6c bb 3d
       0.04451081 0.08130412 0.018105099 0.091515526
000010 07 06 1a 3d f8 ba 79 3d 7c 22 94 3d d5 ae 8e bc
       0.037603404 0.060969323 0.0723314 -0.01741735
000020 bd 94 d6 3d b5 51 33 3d 07 4c cd bb f0 13 18 bc
       0.10477588 0.043779094 -0.0062651667 -0.009282097
000030 fb 0d e6 3b 57 95 54 3d 87 33 a4 3b fe f6 a0 3d
       0.0070207096 0.051900234 0.0050110254 0.0785961

convt3.weight f4 [16, 32, 9, 9]
000000 ec a7 0d bf 29 7a c2 bc 30 fa 25 be c8 e4 11 bf
       -0.55334353 -0.023739891 -0.1620872 -0.5698972
000010 6d 77 5f bd 8b 40 a8 3a b2 b7 da be 11 b4 d3 3b
       -0.054557253 0.0012836618 -0.42718273 0.0064606746
000020 eb 9e 12 bd ff cb 1e be d8 eb f1 3d 67 20 04 bd
       -0.035796087 -0.15507506 0.11812562 -0.032257464
000030 7c 05 4a bc 26 c1 c3 be 7d 5c 12 3d 64 10 e8 3d
       -0.012330409 -0.38233298 0.035732735 0.11331251
000040 64 23 42 3d e6 a9 d0 bd aa 8b b5 3c 0e 30 5f 3e
       0.047397032 -0.101886556 0.022161324 0.21795675
000050 b4 d6 4b 3d 22 e9 49 bd 4c 1f 80 3c 76 e3 af 3d
       0.049765304 -0.0492946 0.015639924 0.085883066
000060 6e c9 d7 3c 3f 98 1e bc 65 c3 8d bd 4c 1a cf be
       0.026341166 -0.009679853 -0.06922034 -0.4044975
000070 1f 5b 94 bc 7a 79 0f bd f5 63 42 be 84 77 10 ba
       -0.018109856 -0.03502796 -0.18983443 -0.0005510973
000080 b7 50 08 3e 01 fd a7 be e5 3c 43 bc df a2 c8 3c
       0.1331204 -0.32810214 -0.011916374 0.024491725
000090 a9 bd 49 be 38 19 1d be 27 b8 c3 bc af 35 1e be
       -0.19701256 -0.15341651 -0.023891522 -0.15450166
0000a0 9a 20 27 be 05 d7 ea bb 34 6c 83 3d de 50 13 be
       -0.1632103 -0.0071667456 0.064171225 -0.14386317
0000b0 d8 bf 8e bd 59 cf 93 bd 53 34 6b be 3d 6c be 3d
       -0.06970185 -0.07217283 -0.22969179 0.092979886
0000c0 76 c0 ff bc 6e a8 8c 3d 63 f3 2f 3d 30 9f 11 bd
       -0.031219702 0.06868063 0.04295672 -0.035552204
0000d0 6e 85 b7 bd 05 0f 3b 3d e0 f6 64 3e 21 ea 49 bd
       -0.089609966 0.04566862 0.223598 -0.04929555
0000e0 79 d5 1c 3d 92 b8 42 3e da e6 70 bd ec 68 dd 3d
       0.03828952 0.1901572 -0.058813907 0.10811028
0000f0 76 30 02 3e 06 2e 9d 3c 9f 49 7a 3d f9 9c 0e be
       0.12713799 0.019186985 0.061105367 -0.13927068
000100 66 08 3c be 0a 60 ab bd 3a b6 a8 bd 39 81 f1 bd
       -0.18362579 -0.08367927 -0.08237882 -0.117922254
000110 22 91 91 bd 45 4f 18 be 02 ca 30 be 19 81 b1 bd
       -0.0710776 -0.14873989 -0.1726456 -0.086672015
000120 3b 2f 4d bd c5 1a 8b bd ca b3 90 be 6c a6 c4 bc
       -0.05009387 -0.06792215 -0.28262168 -0.024005137
000130 d0 42 0c 3d fa 3d 30 bd a4 b0 11 bd 8d 33 1b 3d
       0.034243405 -0.043027855 -0.03556885 0.03789096
000140 91 54 3f bd d9 04 1a be 5d 73 fb be 15 81 42 3d
       -0.04671151 -0.15040912 -0.49111453 0.047486383
000150 ff f7 ce bd 43 51 86 bd 14 9f 50 3c d6 fc 1b 3e
       -0.10105895 -0.06558468 0.01273324 0.15233168
000160 14 7a 09 be 87 3b e6 3c 94 6e 52 bb 73 24 42 3d
       -0.13425475 0.028104557 -0.0032109367 0.047398042
000170 5e ea 03 3c 3d 86 a5 bc 44 3a 1a 3e 08 69 d2 3c
       0.008051483 -0.020205611 0.15061289 0.025684848
000180 9b a6 37 ba 60 6a 5b bc f1 84 da bc 65 31 79 bb
       -0.0007005722 -0.013392061 -0.02667472 -0.0038023826
000190 93 84 0b bd db 83 54 be 1e e1 80 3c 23 80 99 bc
       -0.03406198 -0.20753424 0.015732344 -0.018737858
0001a0 35 bf 44 be 1c e1 8b 3c 27 79 4c bd 1d 52 ca bd
       -0.19213565 0.017075114 -0.049920227 -0.09878943
0001b0 9e bd 8d be 9e 14 e5 be d9 98 17 3d 67 e5 91 be
       -0.2768373 -0.44742292 0.037011 -0.28495333
0001c0 1c 92 14 bb a0 7b 02 3c 9a 5c c8 bd 22 de 77 be
       -0.0022670096 0.007964045 -0.09783287 -0.2420583
0001d0 03 65 56 3d 93 73 af 3c a0 72 3b 3d 48 5a a4 bb
       0.052342426 0.021417415 0.04576361 -0.005015645
0001e0 d9 60 7c 3c ed a7 13 3e fa 22 b3 3a 03 6b 6f 3c
       0.01540395 0.14419527 0.001366704 0.014612916
0001f0 1d 84 00 3d 77 79 ae bc 88 35 5f bc 96 0e ce 3c
       0.031375993 -0.021298153 -0.013623603 0.02515344
000200 0e ac 53 be 1c 14 c3 bb 64 c4 ad 3c 20 34 f5 bd
       -0.20671102 -0.005953325 0.02121181 -0.11972833
000210 fc b6 3e bd 2d 32 eb ba 39 ed 25 be b5 29 87 bd
       -0.046561226 -0.0017944031 -0.16203775 -0.06599752
000220 09 fc 8f be b2 fe c0 3c 63 ed 7c bd 3d 0d a6 bd
       -0.28121975 0.023558948 -0.061749827 -0.08107994
000230 db 7b 80 3c 8b 6f 5d 3b 25 86 c1 be fa 7c 9b 3c
       0.015684059 0.0033788409 -0.37797657 0.018980492
000240 6e 6f 24 bc 68 93 84 3d b5 4d d0 bb 3e 45 bd 3c
       -0.0100363325 0.06473428 -0.0063569196 0.023104306
000250 75 5c b7 3d 06 e5 e7 3c 7f 36 81 bc 55 02 20 3d
       0.08953182 0.02830745 -0.015773056 0.039064724
000260 4e 57 16 bd 28 0a 97 3c d2 62 b3 bc 16 c7 1e be
       -0.036704354 0.01843746 -0.021897707 -0.15505633
000270 ce 47 31 bd 0a 13 ab 3c f7 1a ef bd 5e ca af bc
       -0.04328137 0.020883102 -0.11675065 -0.0214588
000280 ff ad 4c bd de f3 39 be fc 48 b7 bd d1 9e 53 bc
       -0.049970623 -0.18159434 -0.089494675 -0.012916283
000290 ff 0c 24 be 7a 0b 92 bd 30 07 06 bd b2 fc 7e bd
       -0.16020583 -0.07131095 -0.0327217 -0.062252708
0002a0 7c a8 4e be e6 3f be 3b ed 4f 33 be 04 65 27 bd
       -0.20181459 0.005805957 -0.17510958 -0.04086782
0002b0 1a 7b ad bc 7e 54 00 be a8 c5 99 bd d9 8c 8a 3b
       -0.021176863 -0.12532231 -0.07508403 0.004228216
0002c0 fc 5f e9 bd 92 1b 7c bd f7 11 c0 3c ab f2 05 be
       -0.11395261 -0.06154973 0.023446066 -0.13080852
0002d0 ed d0 ec 3c 74 99 b9 bc a9 7d 2f be 0b 67 b8 bc
       0.028908217 -0.02265618 -0.1713778 -0.022510072
0002e0 fd 72 5b bd db 5f 68 be c3 74 2e bc 11 78 b1 bd
       -0.05357646 -0.22692816 -0.010647955 -0.08665479
0002f0 d5 3a 97 be 7f 56 27 be 8d 19 59 bd 26 32 41 be
       -0.29537073 -0.1634159 -0.053002883 -0.18866786
000300 56 c8 73 3b 0b 06 56 bd 29 f5 20 be f9 80 10 be
       0.0037198267 -0.052251857 -0.15718521 -0.14111699
000310 04 7d e0 bc 99 02 1f be 99 90 42 bd 67 6b 8b bc
       -0.027403362 -0.15528335 -0.04750118 -0.017018987
000320 c3 85 82 bd 95 f0 c7 3c 73 dd e3 39 fb ce 83 bd
       -0.06373169 0.02440671 0.00043461806 -0.06435963
000330 38 43 2c bd df a3 02 3d 9f 22 1a be 42 04 35 bd
       -0.042056292 0.03189456 -0.1505227 -0.044193514
000340 d5 83 c0 bd 65 05 33 be 12 53 6c bc 23 14 25 be
       -0.09400145 -0.17482527 -0.014424102 -0.16120963
000350 29 80 b1 be 72 96 15 3c 17 e0 6d bd 09 8b 8f be
       -0.3466809 0.009130107 -0.058075037 -0.28035763
000360 46 c7 e1 bc 1d 85 62 bd d0 76 02 be b1 84 28 be
       -0.027560841 -0.055302728 -0.12740636 -0.16456868
000370 fe 3c c6 bc 73 7d 9c be 3b 90 02 be fd b7 53 bd
       -0.024199005 -0.3056446 -0.12750332 -0.051689137
000380 48 6e 8a bd 22 14 81 ba ba 0d f3 3c 45 d6 a1 bd
       -0.06759316 -0.0009847919 0.029669631 -0.07902197
000390 f5 1e 8f 3c 64 ba 32 bc 2e d0 aa ba 4b 7a 01 bd
       0.017470816 -0.010908697 -0.0013032013 -0.03161077
0003a0 d0 ad 0c 3d d9 89 a3 bd 1e ff 73 3c a9 4b 6e bd
       0.034345448 -0.07985277 0.014892368 -0.058177624
0003b0 37 54 4d be 5d ce 74 bd 81 ea a9 bd 4c 7b 65 be
       -0.20051657 -0.059767116 -0.08296681 -0.22410315
0003c0 fb ae 4d bd 6e 5a b4 bd 00 0b 49 be 99 20 98 be
       -0.050215703 -0.088063106 -0.19633102 -0.2971237
0003d0 57 f6 ce be 2e 73 05 bd 31 69 88 3c 23 4e bc be
       -0.40422317 -0.032580547 0.016651722 -0.36778364
0003e0 06 7d 39 bd b9 51 a2 be e6 34 97 be 38 42 6f bd
       -0.045285247 -0.31702974 -0.29532546 -0.05841276
0003f0 93 92 a0 bb 43 f7 8e bd 6e 09 3a be 2d 16 b5 bc
       -0.0049002855 -0.06980755 -0.1816766 -0.0221053

convt3.bias f4 [32]
000000 b1 bf b8 3c 97 8a ab bc b8 9c 57 bd 72 86 68 3d
       0.022552343 -0.020940108 -0.052639693 0.056768842
000010 79 d8 ce 3d a1 a7 75 3d 98 d1 1f bd f0 96 a7 3d
       0.10099883 0.059974317 -0.039018244 0.08183086
000020 18 a2 80 3d 76 ad 08 3e 7c 4c 62 bc e2 20 af 3d
       0.06280917 0.1334742 -0.013812181 0.08551194
000030 38 6d fe 3d 0e e1 d5 bc 7b 99 04 3e 8e ba b1 3d
       0.124231756 -0.026108291 0.12949173 0.086781606
000040 17 b1 5b 3c ea e0 61 3c db 7b 93 3c 4a 28 e9 bb
       0.013408921 0.013786534 0.018003395 -0.0071153985
000050 4f 58 f8 3d d4 b3 ff 3d 77 7b d2 3d 1d 7c f7 3d
       0.121262185 0.12485471 0.10277455 0.120842196
000060 f3 02 bb 3d 5b e1 52 3d 83 e8 b8 bc a5 b8 57 3c
       0.09131422 0.051484447 -0.022571808 0.013166581
000070 71 1a bc 3c f1 33 86 3d 54 ba a1 bd 4c 16 7a bc
       0.022961827 0.06552876 -0.078968674 -0.015264105

pos_output.weight f4 [1, 32, 2, 2]
000000 72 6d 47 be be e1 16 be c6 92 05 3e 01 9f e4 3d
       -0.19475344 -0.14734551 0.13044271 0.1116314
000010 89 40 b0 bd 5c 2f 30 3e 6e 75 85 3c b2 ab 01 3e
       -0.08606059 0.17205566 0.016291346 0.12663153
000020 d4 28 37 be 6b 40 80 be ef 89 9f bd 29 b0 3c be
       -0.17886668 -0.25049147 -0.077899806 -0.18426575
000030 61 e2 6f bd d5 5d cf 3d a4 7e 07 bd e9 d6 6a 3e
       -0.0585655 0.10125319 -0.03307976 0.22933544
000040 6b 86 9d 3b f0 b1 e0 3c 07 eb 0c bc 29 77 a3 3d
       0.0048072836 0.027428597 -0.008600957 0.07981712
000050 a1 a0 0d be 58 d9 c1 bd e2 3d 3e 3e 0a eb 09 be
       -0.13830806 -0.09465283 0.18578294 -0.13468567
000060 2e 83 58 be 85 22 3d be 67 de 8b be 96 e6 59 be
       -0.21143791 -0.184702 -0.27318117 -0.21279368
000070 40 04 a0 bc 74 86 8f bd 94 1d e2 bd d3 98 41 3e
       -0.019533277 -0.07008067 -0.11040798 0.18905954
000080 6f 0a cf 3e d3 d5 d5 3e 01 43 c9 3e 77 29 b9 3e
       0.40437648 0.41764697 0.39308932 0.36164448
000090 7a ef 6c 3c 76 51 ae 3d 7b 8b e6 3d 20 9d 89 3d
       0.014461393 0.08511631 0.112570725 0.06719422
0000a0 de 5d bd 3e c8 bf d7 3e 81 a9 97 3e 0f 2c 44 3e
       0.36985677 0.42138505 0.2962151 0.19157432
0000b0 78 ab fe 3e e0 e0 0a 3f 81 88 de 3e ff e1 a6 3e
       0.49740195 0.5424938 0.4346352 0.32594296
0000c0 bf 00 97 bd 71 5b 4f bc e1 0e 04 3e 6f bf 1c 3d
       -0.07373189 -0.012656079 0.12896301 0.038268503
0000d0 13 92 01 be d3 50 ac bd 0f f8 c7 be 71 32 d1 be
       -0.12653379 -0.084138535 -0.3905644 -0.40858796
0000e0 7c 98 61 bd c0 f3 f1 bc 6a 1c 30 3e d4 ec 0e be
       -0.05507706 -0.029535174 0.17198339 -0.1395753
0000f0 b3 45 b4 3d 6b 61 0b be e7 1a af 3d 69 6a 0f be
       0.088023566 -0.13611381 0.08550053 -0.14005436
000100 ff 21 2d be b5 4e ae be ab fc c6 3c ad cc 49 3d
       -0.169075 -0.34044424 0.024290403 0.04926746
000110 77 01 a9 be 5a 1f 67 be e4 8c 5a be 87 b9 2a be
       -0.3300893 -0.22570553 -0.21342808 -0.16672336
000120 c3 16 0e 3c 40 e8 3b 3d 00 c5 2b be 42 fa 3b be
       0.008672419 0.045875788 -0.16774368 -0.18357185
000130 18 0f bd 3d 03 c7 1c 3d 5d db 02 3e e2 7c 5a 3e
       0.092313945 0.03827573 0.12778993 0.21336702
000140 f4 2e 53 be 64 37 43 bd 48 92 d5 3d f8 37 ae 3c
       -0.2062338 -0.047660246 0.104282916 0.021266922
000150 27 30 93 bd 05 ce b0 bd f7 77 8a bd 6d 99 0c be
       -0.07186919 -0.08633045 -0.06761163 -0.13730402
000160 8b fb 01 be 7e 79 11 3c a7 ab a7 3d f9 bb a2 bd
       -0.12693612 0.008879064 0.08187037 -0.07946009
000170 b1 38 ae 3d 6c 02 0e 3e 5e b0 ed bd 76 16 b0 3d
       0.08506907 0.13868111 -0.11605905 0.08598034
000180 1c 41 20 be 6c 2e 06 3d 27 e7 1b bc ed 56 1c bd
       -0.15649837 0.032759115 -0.00951556 -0.038168836
000190 f9 7f e4 bd 01 7a c6 bd 24 02 06 be 40 26 97 3d
       -0.11157221 -0.09691239 -0.13086754 0.073803425
0001a0 14 15 54 3d b3 a4 05 3e 6e 78 8b bc d2 3d 95 bd
       0.051777914 0.13051109 -0.017025199 -0.07287182
0001b0 09 16 75 bc 94 63 52 be ff 88 2b be 62 48 6e be
       -0.014958867 -0.20545799 -0.16751479 -0.232698
0001c0 27 fd 85 3e c9 fb b0 3e 57 ee 5c 3e 7c 0c 63 3e
       0.26169702 0.34567097 0.21575294 0.22172731
0001d0 2b d5 ab 3d b9 67 34 be 96 8e 82 3d 4e 29 c7 3c
       0.08390268 -0.17617692 0.06374852 0.024311688
0001e0 25 12 77 3b 29 e1 40 bd d9 78 83 be a4 22 42 be
       0.0037700024 -0.04708973 -0.25678137 -0.18958527
0001f0 01 9a 48 bd 01 a3 89 3d 54 89 85 3d d7 dc 04 3e
       -0.048974995 0.06720544 0.06520334 0.12974869
