ggcnn_base/output/models/230121_1510_training_example/epoch_06_iou_0.55_statedict.pt (torch, 256417 bytes, 16 tensors)

conv1.weight f4 [32, 1, 9, 9]
00000000: 2228 b7bc 74d4 8fbc b8bb 11bd 5981 6dbc
00000010: efd9 19bd 81f3 18bc 43ad 1b3d ab06 193d
00000020: 99c3 ce3c b199 d6bc 05b6 9f3a 432a b3bc
00000030: 573f 30bd 1645 e5bc 38a9 773b 6e27 7e3c
00000040: a48f 50bd e20d a9bc 81ed 0f3c 0afc d93c
00000050: f714 3e3d 0387 2a3c d152 073d 619b 793c
00000060: 11c8 21bd 2298 dfbb 0430 5bbd f9aa d13c
00000070: e41d 0ebd 44f9 b2bc c27a e8bb d862 0a3c
00000080: 5c75 223d c719 ff3c db78 35bd a56b 67bb
00000090: 05aa c1bc a63d 48bc 5fbb 323c 6489 0d3c
000000a0: c9b8 813b 6f9a f23c 57b7 16bd 8d53 2dbd
000000b0: 58c7 a73c 94f0 a939 4a5a a83c 54f6 bbbb
000000c0: 1cb6 f2bc 32b0 8c3a 907a a138 8d06 253d
000000d0: 905b f53c 7a15 55b9 0db1 1abd fdd2 253c
000000e0: 4136 253d b024 d6bb 4613 12bd 3436 1d3d
000000f0: a057 2ebc 2f32 573c 5836 283d 4f7b 143d
00000100: 0e03 51bc 4cd0 bcba 6165 19bd 8ba0 0f3d
00000110: 2a7e f5bb 000b a6bb 9894 d2b9 04f3 bc3b
00000120: a71f 80bc 839e 9a3c d143 073d 3901 123d
00000130: bb1a bc3b 90d1 58bd e987 91bc ade4 96bc
00000140: 438e 263d cf99 2ebc 9a44 3d3c 0096 66bc
00000150: c82b 07bc 69c9 17bd 868f 3f3d 27b1 cc3c
00000160: 8ef5 0d3d 8ff8 8fbc 76bb 65bd 408e 26bd
00000170: b621 203c 45b7 043d 2224 603a 919c c8bc
00000180: 6d9d ed3c cbb2 123d 4039 bb3c 9519 83bc
00000190: 8f85 763a 3b52 93bd 1ef7 993c fae7 afbc
000001a0: 5a6c 8a3c 8d1c e7bc 2d80 b9bc b9e4 10bd
000001b0: de12 5ebb ca70 a93c 89fd 4a3b 7467 6e3c
000001c0: 7cb5 463b a097 653d eabb 02bc 1dee 793c
000001d0: 7646 623d 8df6 9e3b ce9e 5abc c345 3dbd
000001e0: e70c 053c da2f 603d 690e 083d 4e4b 05bc
000001f0: a77a 6c3d a3e7 863d 0d37 10bd f153 843c
00000200: c1dc 57bd 9068 413d 3c11 85bc 5db8 063c
00000210: 1782 bcbb 59b8 673d 4843 973d ae67 1e3c
00000220: 16c7 ca3c 53d6 f23a ea6b 9cbb 4555 7abc
00000230: 1a62 d63c ccca 153d bcac 523d bb60 103d
00000240: c9d7 253d 34f0 083d e31c a53b 3cd6 e83b
00000250: 4635 00bd daa7 383c 33e8 943c 30f8 573d
00000260: a664 803d 9151 18bc 6ffe 9abb fc3f 433d
00000270: 8811 28bb 6f78 573d cb77 0f3d 089a 2a3d
00000280: f0f2 2b3d c268 95bb 8b36 f7bd 7525 07be
00000290: 810d 1dbe f685 83bd 5086 1bbe 9958 c9bd
000002a0: 816f d9bd fcca 06be deb8 05be 6c5f dabd
000002b0: fceb f8bd 2ddc cebd 9d52 85bd d9ef 22bd
000002c0: 83f8 abbd 5795 c7bd 2a78 b5bd 9e3e b0bd
000002d0: 5ebc afbd e857 fbbc d420 cbbd 196f 9ebd
000002e0: ffa5 15bd 6999 e4bc 5a5f 9bbd f93a 02bd
000002f0: 37f5 e1bc 2429 2abd dfc7 9cbd ca93 a5bd
00000300: 01b8 c23c d1e7 4bb9 4868 00bd 6c36 ebbc
00000310: 5a81 d8bc e24d aabc 05f5 303d c8b4 92bc
00000320: 4243 85bc 54ac 07bd 7897 353c 01d6 0c3d
00000330: 0510 0abc 4797 59bc 49e8 cbbc bb3e f83c
00000340: b8a4 1cb9 5ed4 0ebd 21c1 993d 21d3 593d
00000350: 5fa0 843d 9270 bcbc f530 30bb 7690 393c
00000360: 4641 a03d dc45 0e3c 3eaa bc3b 112f da3d
00000370: 47f5 a53d 46df 0b3d 6a4f 283d bc6d c93d
00000380: fdfb 553c 258e bd3d ac14 053e 4b2b f63d
00000390: ac20 173e 28b9 b13d 5540 a03d ddc1 ac3d
000003a0: f8c4 ed3d efca f83d 4930 243e 1494 163e
000003b0: 0363 ff3d 8dcb 023e 9998 2b3e ab99 103e
000003c0: 0248 193e ebd6 d63d f514 133e 73e2 a4bd
000003d0: beab d3bd d486 8abd a5c7 47be 9db3 59be
000003e0: 1be3 3dbe e44b 49be a897 5fbe 71ed 16be
000003f0: ebe9 c2bd 61a3 8bbd f59c 47bd cf94 f5bd
-0.022358004 -0.01755736 -0.035579413 -0.014496171 -0.037561353 -0.0093354 0.038007032 0.037359875
0.025239753 -0.026196333 0.0012184983 -0.021870738 -0.043029156 -0.027987044 0.0037790071 0.01551233
-0.050918236 -0.020636503 0.008784653 0.02660944 0.046406712 0.010408166 0.033037964 0.015234799
-0.03949744 -0.0068235556 -0.05351259 0.025594221 -0.034696475 -0.021847375 -0.007094712 0.008446418
0.039662704 0.031140221 -0.04430471 -0.0035311964 -0.023640642 -0.012221729 0.010908931 0.0086387135
0.0039587957 0.029614655 -0.03679594 -0.04231601 0.020480797 0.00032413437 0.020550866 -0.0057361517
-0.029627852 0.0010733663 7.699907e-05 0.04028945 0.029950887 -0.00020321264 -0.037766505 0.010121104
0.040334944 -0.006535135 -0.03566291 0.03838177 -0.010641009 0.013134523 0.04106745 0.03625041
-0.012757076 -0.0014405339 -0.037450198 0.035065215 -0.0074918466 -0.0050672293 -0.00040165032 0.0057662744
-0.015640093 0.018874412 0.03302366 0.035645697 0.005740491 -0.05293423 -0.017765002 -0.018419588
0.040663015 -0.010656788 0.011552 -0.014073849 -0.008250184 -0.037057314 0.046767734 0.024986817
0.034658007 -0.017574577 -0.05608698 -0.040663004 0.009773662 0.032401342 0.0008550306 -0.02448872
0.02900573 0.03581504 0.022854447 -0.01600341 0.0009404057 -0.071934186 0.018794592 -0.02147292
0.01689737 -0.028211856 -0.022644127 -0.035374377 -0.0033885757 0.020683665 0.0030973873 0.014551032
0.0030320575 0.056052804 -0.0079793725 0.015254525 0.055242978 0.0048511685 -0.013343526 -0.046209108
0.008120752 0.054733135 0.033216868 -0.00813563 0.057734158 0.0658715 -0.03520875 0.016153308
-0.05270076 0.04721886 -0.01624357 0.008222667 -0.0057528126 0.056572292 0.0738588 0.009668274
0.024753135 0.0018527008 -0.0047736065 -0.015279119 0.026169825 0.036570355 0.051434264 0.0352485
0.040488992 0.0334322 0.005038844 0.007105617 -0.031300806 0.011270488 0.018177127 0.052726924
0.06269197 -0.009296791 -0.004730038 0.047668442 -0.0025645215 0.05260509 0.035026353 0.041650802
0.04197973 -0.0045596072 -0.1207095 -0.13197882 -0.15337183 -0.064220354 -0.15187955 -0.09831352
-0.10616971 -0.1316337 -0.13058802 -0.106627315 -0.121543854 -0.10100589 -0.06509898 -0.039779518
-0.08397009 -0.09745281 -0.0886081 -0.08605693 -0.0858085 -0.030681565 -0.09918371 -0.07736034
-0.03653526 -0.027905183 -0.07586546 -0.031794522 -0.027582748 -0.04154314 -0.0765531 -0.08084829
0.02376938 -0.00019445947 -0.03134945 -0.028712474 -0.026428867 -0.02078909 0.04320242 -0.017908469
-0.016267423 -0.03312333 0.011083476 0.034383778 -0.008426671 -0.013280696 -0.024891036 0.03030335
-0.00014938682 -0.034870498 0.075075395 0.053179864 0.06475901 -0.023002896 -0.002688465 0.011325946
0.0782495 0.008683648 0.005757599 0.106535085 0.081034236 0.034148477 0.04109136 0.09835383
0.013060567 0.092556275 0.12996167 0.12019976 0.14758557 0.08677894 0.0782477 0.08435414
0.116098344 0.121480815 0.16034044 0.14704925 0.12470057 0.12772961 0.1675743 0.1412112
0.14968875 0.10490211 0.14363463 -0.08051004 -0.103354916 -0.06763998 -0.19509752 -0.21259923
-0.18543665 -0.19657856 -0.21835196 -0.14739014 -0.095172726 -0.068182714 -0.04873367 -0.119912736

conv1.bias f4 [32]
00000000: fc41 ccbd 8483 8c3c 1e8d 153d ff34 e63c
00000010: e6b8 61be 6741 0fbe 00ea ed3d b41c 9c3d
00000020: 89a5 2d3e ad9e f9bc 3975 be3d c47e b83d
00000030: 0009 8d3c 448c 68be e177 e5bd 3ad8 973d
00000040: c7b5 a5bd 1232 0cbe 323e ca3d 3932 9abd
00000050: 502b 99bd a700 c9bd 6f75 26be 5541 563d
00000060: 2be0 463e 157b 453d 783a f33d fe9d 333d
00000070: 24d2 0f3d 7531 a7bd 920a 173d 87a0 983c
-0.09973523 0.017152555 0.036511533 0.028101442 -0.2204319 -0.13989793 0.116168976 0.07622662
0.16957678 -0.03047117 0.09299702 0.090085536 0.017216206 -0.22709757 -0.11204506 0.07414289
-0.08091312 -0.13690975 0.09875144 -0.075291105 -0.07478964 -0.098145775 -0.16255735 0.0523084
0.19421451 0.048213083 0.118763864 0.043851845 0.035112515 -0.0816373 0.036875315 0.018631233

conv2.weight f4 [16, 32, 5, 5]
00000000: 2801 3bbd 938a 253d 3c79 453b a64c 273c
00000010: b7d3 c73b ba87 ddbb 3b84 813d 6d65 2e3d
00000020: 7504 80bc 02ec 81bd 3811 32bc 4721 8c3c
00000030: 2e8e 1dbd 1797 4dbc e46e 463d fe03 0a3d
00000040: 07a5 e3bc a730 57bb 19ea d73c a8db 36bd
00000050: 2bb7 dabc 4f61 1e3d 7a47 7b3d 7bcd 49bd
00000060: 4d9f c33c 7662 563d 4fd2 7abd 398c a4bd
00000070: 0388 3f3d 684a 82bd 0bcd a03c 103b 0a3d
00000080: 86ec 61bc f329 0d3d ffe6 cebb 4ad9 553d
00000090: 0e68 793d aa85 353d 89db c339 eabd 83bc
000000a0: 722e ebbb 05f4 213c f5dd 123d 3840 d83b
000000b0: 32ed c0bb d6a1 61bb 8414 b93d 1081 3cbd
000000c0: 7bb8 733d ff1f 9fbb a28d ba3d bc31 8d3d
000000d0: e34e c43d 040d bf3c a0eb e1bd 4029 b43d
000000e0: 9d2e b13c 5380 6a3d 7ec9 d33c ae6a acbd
000000f0: b42c 82bc 81b3 1a3d 3ebc 0abd da9e 45bc
00000100: 0388 f8bd 55c3 3d3e a2b9 0f3e 5340 f53d
00000110: da77 d83d 709b 653d 31ee 293d 328e d1bc
00000120: 15b4 11be 26fb 34be d25d 88be 5f86 8f3d
00000130: d8b8 343e aab9 1d3e e53e 1b3e 2212 963d
00000140: 884d 963c a139 263e 3d2f 273e c6c3 743d
00000150: 108b afbb fa6c d53c 0480 103e d37c c93d
00000160: e3b7 873d d48b 563c 3d92 d93d b698 5c3e
00000170: ed67 333e a5ad 503e c9a0 843d e392 0dbe
00000180: 3dd6 3abb beab 8dba c902 d6bd eabb ddbc
00000190: 9cfb 503e 50b0 1c3d 320b cf3d 1a9e 983d
000001a0: f289 7f3d 217d a53d a807 adbb 3d36 8abd
000001b0: 463d b7bc 82e7 8e3c c2a9 b5bb 420d e2bb
000001c0: e9a7 b0bd 4bab 15bd 6c56 cabd 5d48 fcbb
000001d0: 085d adbd b824 b5bd 5641 b7bd e59a dbbd
000001e0: 0f81 2bbd 84d3 19bd bbf7 c0bd 4c6d 41be
000001f0: 8762 4fbe a6c6 373d 37af 063d 040e b5bc
00000200: 1ba2 efbc 1fcc ae3d 8735 f33c 853a a0bc
00000210: 3b39 863d d2fb 5c3c 4b53 963d ab76 9c3d
00000220: d2c8 813d 4883 34bd ad14 89bd b888 bbbc
00000230: 2efb bcbb 50a0 c03a a3aa d6bd 475c f3bd
00000240: adeb 32bd 3253 403d 01c3 c2bd e474 e7bd
00000250: 6dc1 d2bd 2c88 dabd 38ad f43d c930 7e3b
00000260: 05ba 19bd f533 4c3d 9063 0cbe 7153 8f3d
00000270: d135 0e3d cd92 8b3d 7585 463d a4ef 29be
00000280: 6672 733d 2b6e 04bd 90f0 05bd 2a76 293d
00000290: 7b8e 17be 5db0 6f3c c988 c9bb e5d0 b23c
000002a0: e2aa 623c c939 f5bd c9a5 8cbb 6429 8fbd
000002b0: 3eaf 91bd f4ef d4bc b01a 0ebe e3f4 e43d
000002c0: f891 e43c 5e69 a53d 0222 9ebd a244 5dbc
000002d0: dd91 69bb 430c 6f3d 8203 a2bc 8f41 ed3b
000002e0: e752 513c d0a4 613d 39ab a23d 54cd e93b
000002f0: 00d0 223c 30cf 23bd 2d33 0abd 3839 89bc
00000300: 02ab 06bd 96ac a4bc 8045 d7bd 9162 a6bc
00000310: a5b6 48bb 06da 893d 8204 cabd 2f8f 2cbc
00000320: 1f56 8c3d 6f75 26bc 2703 17bd abd5 c1bd
00000330: f365 7ebd 556b b73d a28a 923d e604 2a3b
00000340: 8f13 71bd ea53 83bd 49a6 1b3d 7307 003e
00000350: 8a3f 913c c158 bbbc 4312 1ebd ee35 cf3d
00000360: ce70 de3d b262 9a3c 982c 1b3d d27a 713b
00000370: 8c15 423d caa7 fd3c 2563 b33c eced 09be
00000380: 71ed f1bd d04f 6bbe 59f4 983d 45a6 0c3e
00000390: e8cb 373e 30bf 703d d55e 5abe 1e64 df3d
000003a0: 4e06 a93d 75ec 883d d185 abbb 186d 6fbe
000003b0: a0ae 9b3d a109 053e 4ede 163e dc39 953b
000003c0: 5bba 76be cd25 a73d 6e14 443d d085 0e3d
000003d0: 9af7 d83d 8074 41be a6bc 7f3b 76f8 5a3d
000003e0: b299 633d 5629 103d 0665 d13d a2fc cb39
000003f0: 2bce 9fbd 6df6 22be 1e57 09bd 85e3 f23c
-0.0456554 0.040415358 0.0030132076 0.0102111455 0.0060982364 -0.0067605646 0.06324049 0.042577196
-0.015627125 -0.06343843 -0.010868363 0.017105712 -0.03846567 -0.01254823 0.048445597 0.033695213
-0.027788652 -0.0032835396 0.026356744 -0.044643074 -0.02669867 0.03866702 0.061347462 -0.049268227
0.023879671 0.052339993 -0.061235722 -0.08034558 0.04676057 -0.06361848 0.019629022 0.033747733
-0.013789302 0.034463834 -0.006314158 0.052209176 0.06089025 0.044316925 0.00037356865 -0.016081769
-0.0071771676 0.009884839 0.035856206 0.0065994523 -0.005887651 -0.0034428737 0.09037116 -0.04602152
0.059502106 -0.004856109 0.091090456 0.06894252 0.09585359 0.023321636 -0.1103127 0.0879693
0.021628672 0.057251286 0.025852915 -0.08418785 -0.015890457 0.037768845 -0.033870928 -0.012061799
-0.12135317 0.18531545 0.14035657 0.119751595 0.10569735 0.05605644 0.041486923 -0.0255805
-0.14228852 -0.1767393 -0.2663408 0.07008051 0.17648637 0.15402856 0.15160711 0.07327677
0.018347517 0.16232921 0.16326614 0.059757017 -0.0053571537 0.02605294 0.14111334 0.098382615
0.066268705 0.013094861 0.10623596 0.2154263 0.17520113 0.2037874 0.0647598 -0.13825564
-0.0028509044 -0.001080863 -0.1044975 -0.027067143 0.20408481 0.038254082 0.10109557 0.074520305
0.062387414 0.08080507 -0.0052804537 -0.067486264 -0.022368085 0.017444376 -0.0055439183 -0.006898553
-0.08625776 -0.03654031 -0.09879765 -0.007699056 -0.0846501 -0.08844894 -0.08948009 -0.10722903
-0.041871127 -0.037555233 -0.09422251 -0.1888935 -0.20252429 0.04486718 0.03288194 -0.02210141
-0.029252103 0.08535027 0.02968861 -0.019559154 0.065538846 0.013487773 0.073401056 0.076398216
0.063371316 -0.044070512 -0.06693397 -0.022892341 -0.0057672476 0.0014696214 -0.10481765 -0.11882835
-0.04368179 0.04695434 -0.0950985 -0.11301592 -0.10290799 -0.10670504 0.11947101 0.0038786402
-0.037530918 0.049854238 -0.13709855 0.06998337 0.034719292 0.068151094 0.04846712 -0.16595322
0.05943527 -0.032331627 -0.03270012 0.041372456 -0.14800446 0.014629451 -0.0061503393 0.021828124
0.013834687 -0.11973912 -0.004292224 -0.069903165 -0.07113503 -0.025993325 -0.13877368 0.11179521
0.027901635 0.08076738 -0.0772133 -0.013505133 -0.003563992 0.058361303 -0.019777063 0.007240481
0.012776113 0.055088818 0.079428144 0.0071350727 0.009937286 -0.03999251 -0.03374021 -0.016750917
-0.03287793 -0.020101827 -0.10511303 -0.020310672 -0.0030626443 0.06731038 -0.09864141 -0.0105321845
0.06852364 -0.010159834 -0.03686824 -0.09464582 -0.062108945 0.08956019 0.07155348 0.002594286
-0.058856543 -0.0641249 0.03800038 0.12502842 0.017730493 -0.02286947 -0.038591634 0.10117708
0.108613595 0.01884589 0.037884325 0.0036846888 0.04738383 0.030963797 0.021897862 -0.13469666
-0.118128665 -0.22979665 0.074684806 0.13735302 0.17948878 0.05877608 -0.21325238 0.10907768
0.08253156 0.066857256 -0.005234458 -0.2338146 0.076016665 0.12991954 0.1473324 0.0045540165
-0.24094526 0.08161507 0.047871046 0.034795582 0.10594101 -0.18892097 0.0039022355 0.053459607
0.055566497 0.03519567 0.10224347 0.00038907403 -0.07802995 -0.15914316 -0.033530347 0.029649505

conv2.bias f4 [16]
00000000: d5d9 9f3d 0da7 e8bc 4e2a 46bd 5150 14bd
00000010: f58a 7c3d 769a 20bd bfb2 9e3c 9002 1ebc
00000020: 8880 36bc cdc8 ce3c b60c d43d e83d 593d
00000030: 7764 81bc 9e08 0b3d 2d62 72bd cee8 0fbd
0.0780522 -0.028399969 -0.04838019 -0.03620941 0.061655957 -0.039209805 0.019372342 -0.009644166
-0.011139043 0.025242234 0.10353987 0.053037554 -0.015794976 0.033943765 -0.05917566 -0.03513413

conv3.weight f4 [8, 16, 3, 3]
00000000: d410 2b3d 7286 0d3c df7d 35be 7876 03be
00000010: 4647 7d3d c92c ae3c d954 1d3e 92bb 993d
00000020: b6dc f83d 4d7a 173e 42a4 823d c187 763d
00000030: c2c3 b33c ccbd f33d a12b dabd 5019 833d
00000040: 7d3c 8cbd 3c74 aebd b3a3 c7bd 3802 1fbe
00000050: abd3 163e de0e df3d 03ea bbbd 50c3 e0bd
00000060: f655 a83d d6a6 8e3b 71be e1bd 8a4d 823d
00000070: af1f ffbd 4556 f3bd 78b3 783d 45f9 c6bc
00000080: 7a6b ffbd 3d82 b03d a574 bdbc 4dad a6bb
00000090: 2809 af3d c104 ddbc ee93 503e acb5 313d
000000a0: cd65 a83d 18fb 21be 6af3 18be 6e11 cebd
000000b0: 32e0 4d3a 3cf3 1cbb 3228 6c3d 85aa eebd
000000c0: 7c66 1b3e 05b9 2d3d 13cc 603c 2bf7 093d
000000d0: b833 fcbc 78f3 c8bd 446f 0f3c 62fe 8bbc
000000e0: fe1c 2abe 5d18 893c a0f7 39bd 9057 313e
000000f0: e305 e3bd 9c5f b03d db35 0fbe 98b3 3dbd
00000100: 9cc0 0fbe 7f11 be3c 2011 833d 4e47 6d3d
00000110: 8bf9 983d d635 cdbc 8088 e93a 05d5 15be
00000120: 9c12 8c3c 0bfa aa3d 7f84 7fbd 2579 003c
00000130: 4cf0 ffbb 737c c13d 6722 f83d 3b1a 14bd
00000140: fdd3 3d3c 891e 013e c415 0c3e 036b 213e
00000150: 2f07 e4bd 2616 e7bd 7840 ebbd 83fb e23d
00000160: 7870 d13d 032a 25bd 8114 6abd 3c9a bd3d
00000170: 3dd1 8b3e fb0d 7b3d f866 013e 1aa3 1d3e
00000180: 8108 51be 3074 6bbe a843 6abe 39ef 383d
00000190: 13e0 623e 97ec d63d e928 703c c000 13be
000001a0: 1144 ccbb 7dce 383c 06e9 54be 62f7 d7bd
000001b0: 55fb 033e 1cf7 043e 00f3 3f3e 20d6 40bc
000001c0: 2fbb e4bd 364e f2bd 8f0c 35be 9e4a 49be
000001d0: 2866 2dbd df43 383e e387 d2bd 668c 89bd
000001e0: 37a8 a63d fd04 353d 521c 6e3c c668 063d
000001f0: d309 d6bd 9411 01be 2f12 28be 24c2 b83c
00000200: 9d7f 093e 4c3b b33d e60c f5bd 2aab 713d
00000210: e543 03bd aeae 15be 6dff 15be 0a0e 23be
00000220: f519 c13d cb5f e4bd f1a6 413d 3594 f03d
00000230: d5e0 c23d 387c 153e 0279 d33d 0868 03be
00000240: 29d4 413d 50be 453d c90f 57be 88d8 2b3e
00000250: b314 2d3d e057 1fbe b656 e43d cda7 e4bc
00000260: cd2f 86bd b9e7 9bbd 4ba6 f8bc 1021 83bd
00000270: e4c2 8fbd 0a44 03bd cbe2 8a3c 4373 f83d
00000280: 11d0 90bd d483 73bd 9b56 7e3d 2328 11be
00000290: 6bbd 173c 9225 1dbe f0c3 33bd 6b6d aa3d
000002a0: ab69 723d b68b 8b3c 022a 96bd 7a7a e33d
000002b0: 9915 0abe 245d 32bc 5436 9c3d bbda c5bd
000002c0: db68 42be d8b0 6a3d 5da4 b6bd e30c 6f3d
000002d0: c2f1 823e eb48 4a3e 8338 5a3c 0e18 34bd
000002e0: 9586 21bc 0133 10bd bc68 42be 8f10 59bd
000002f0: e85f 5bbe 8c60 21be cdfd 92bc 7805 8f3d
00000300: d218 05bd 6ad3 233e 669f 03be 32b4 633d
00000310: e389 89bd 01be 053e 7ea1 a3bc 0bc8 babd
00000320: e03f 2bbe b7e9 e5bd f0ee 583e 83f9 3cbc
00000330: f494 d7bd 52de 3c3e 484a c83d 1170 293e
00000340: 718d e5bd 5610 0e3e f033 a73c 3d0c c43d
00000350: 18c9 e43c 267f 2ebe d3da 7f3d 2f6b 2f3d
00000360: 26e3 bb3d 0dbe f0bd dd6d 0f3d 9c80 753d
00000370: 528a 333d 5f21 4a3d dcc4 133e f015 3d3d
00000380: a432 15be 8df9 113e 102a 22bd 1c06 15be
00000390: 3f83 f53d e259 003e 1460 bebc 8cea 4b3d
000003a0: d64a e9bc dfdf 4f3d 097b 3a3e 1682 513e
000003b0: 0cd6 c33d e8c1 a0bd d59b 0f3d 8c97 e8bc
000003c0: a492 4fbe ace9 32be c22e 73bd 0058 763d
000003d0: bea7 6bbd 32e3 5a3d dd70 283e b713 c2bd
000003e0: b5b3 9bbd 3588 1a3e 8d92 8b3d 22c8 82be
000003f0: bf8d 0b3e ff28 b73d d498 083d 8d94 0dbd
0.041764095 0.008638011 -0.17723797 -0.12838161 0.06183555 0.02126159 0.15364398 0.07506479
0.12151472 0.14792748 0.06378986 0.06018806 0.02194393 0.11901435 -0.10652853 0.06401312
-0.06847475 -0.08518264 -0.0974802 -0.1552819 0.14729182 0.108915076 -0.091754936 -0.10974753
0.08219521 0.0043533845 -0.11022652 0.06362446 -0.12457215 -0.11881689 0.06071803 -0.024288783
-0.124716714 0.08618591 -0.02312691 -0.005086577 0.08546668 -0.026979806 0.2036893 0.043386146
0.08222542 -0.15818441 -0.14936605 -0.10061918 0.0007853537 -0.002394869 0.05765552 -0.11653618
0.15175813 0.042412776 0.01372053 0.033682983 -0.03078638 -0.09812063 0.008754555 -0.017089073
-0.16612622 0.01673525 -0.04540217 0.17318559 -0.11085107 0.08611986 -0.13985388 -0.046313852
-0.14038318 0.023201702 0.06399751 0.05792933 0.074694715 -0.025050085 0.001781717 -0.14632042
0.017098717 0.08348473 -0.062382217 0.007841383 -0.007810628 0.09447565 0.12115937 -0.036157828
0.0115861865 0.12609304 0.13680178 0.15763478 -0.11134183 -0.11283521 -0.11486906 0.11083128
0.1022653 -0.04032327 -0.05714846 0.092579335 0.27308074 0.06129263 0.12636936 0.1539425
-0.204134 -0.22993541 -0.22877371 0.045150016 0.2215579 0.10494345 0.014658191 -0.14355755
-0.0062337 0.011279699 -0.20792016 -0.105452314 0.12888844 0.1298489 0.18745041 -0.011769801
-0.11168515 -0.11831324 -0.17680572 -0.1965737 -0.042333752 0.17994641 -0.102798246 -0.06716232
0.08137553 0.04419421 0.014533119 0.032814763 -0.104510926 -0.12604362 -0.16413186 0.022553511
0.13427587 0.08751544 -0.11965351 0.059001125 -0.03204717 -0.14617416 -0.14648218 -0.15923324
0.09428779 -0.111510836 0.04727835 0.11747018 0.095155396 0.14598167 0.10325815 -0.12832654
0.047321472 0.0482772 -0.21002115 0.16781819 0.04225607 -0.15560865 0.11149351 -0.027912045
-0.06552086 -0.07612557 -0.030352732 -0.064027905 -0.07019594 -0.03204731 0.016953846 0.121313594
-0.070709355 -0.059451893 0.062094312 -0.14175467 0.009261469 -0.15346363 -0.043888032 0.08321651
0.059182804 0.017034393 -0.07332231 0.11107345 -0.13484801 -0.010886464 0.0762755 -0.0966086
-0.18985312 0.057297558 -0.089180686 0.0583619 0.25575072 0.19754378 0.0133191375 -0.043968253
-0.009858747 -0.03520489 -0.18985265 -0.052994307 -0.21423304 -0.15759486 -0.017943287 0.06983465
-0.032494374 0.15998617 -0.12853774 0.05559177 -0.06715753 0.13060762 -0.019974466 -0.091201864
-0.16723585 -0.11226218 0.21184897 -0.011534098 -0.105264574 0.18444183 0.09779793 0.16546656
-0.112086184 0.13873419 0.020410508 0.09572647 0.02792792 -0.17040691 0.062464546 0.042826828
0.091741845 -0.11754999 0.035016883 0.059937105 0.043833084 0.04934823 0.14430565 0.0461635
-0.14570099 0.14255352 -0.039590895 -0.14553112 0.11987924 0.12534288 -0.023239173 0.04978423
-0.028478067 0.05075061 0.18210997 0.2045978 0.095623106 -0.07849485 0.035060722 -0.028392576
-0.20270783 -0.17471951 -0.059370764 0.060142517 -0.05753302 0.053439327 0.16449304 -0.094764166
-0.07602636 0.15091021 0.06815062 -0.25543314 0.1362829 0.08943366 0.033348873 -0.034565497

conv3.bias f4 [8]
00000000: 6ee9 7e3d afb8 173d 6cc4 0b3d 3aca b93c
00000010: de4c abbd 8f00 303c bbed b83d a69c 7ebd
0.062234335 0.037041362 0.03412287 0.022679437 -0.08364271 0.010742321 0.090297185 -0.06216111

convt1.weight f4 [8, 8, 3, 3]
00000000: 1914 123e 25bf ad3e afd2 05be 7928 63be
00000010: fe08 d23c 480d 173e b8bf bb3d 6334 053d
00000020: 14d9 283d f692 a03e bcaf 543e 4063 2c3e
00000030: 3d33 0ebe 44e0 3bbe 51d4 4ebe 11dc 2b3e
00000040: d6ed 0bbe 413a 153e db63 1bbe 7a0d 04bd
00000050: 4663 96bd 5c75 873e 99af 5bbd 2954 9bbe
00000060: 1d34 0cbd af14 cb3d a84d b83e 8449 873d
00000070: 359a 183e 2463 533e cfd8 553e a180 bd3e
00000080: ed6e e43e 9c72 85be e763 5bbc bc38 e0bd
00000090: fd6d 91bd a2c1 2e3e bfdc 86bc ee94 c5bd
000000a0: 3d29 e2be 1043 b83d 1df9 bf3d a307 f0bd
000000b0: 60df d13c 6cc9 323e 4130 2d3e e9ef a53d
000000c0: df04 27bc b718 363e 2d34 bdbd 6c3d 963e
000000d0: b66b 803e 55ff 633d 6678 12bf 587c cbbe
000000e0: 4aac aabd 32fa ddbb 8bc5 423e 2bc8 a0bd
000000f0: 31f4 2fbe 2e7c ccbc 0dcc e03c c5f9 09be
00000100: c035 893d 646b 5abe 4d57 b23e cf3e 52bd
00000110: 45ba 983e aa29 80be 1749 aa3e 9cf0 3abe
00000120: 9988 d33e df0e c33d 874a 4a3e 7ab0 ff3d
00000130: 44e4 c93a c09c 713d 630a ce3d c26b 373e
00000140: d9ae afbd 1c94 b3be 6911 25be c079 7dbe
00000150: e346 19be 2319 80be 1a72 9abe d383 2cbf
00000160: 7adb 4d3d 9f3c 13bf f416 e43d 2eb4 a53e
00000170: f5bd 6cbd 2546 8d3e 7653 543d d0f2 80be
00000180: 2db9 34bc ff8a ee3c c5f9 50be fd22 90bd
00000190: ea82 e73d c896 12be 2484 a1be 42f4 b4be
000001a0: f096 f5be eede abbd e4d9 7f3d 92d4 37bf
000001b0: 9ac3 863e 8f51 003f 3a14 533e 711f bb3e
000001c0: 0afe d4be cb71 ab3d 6374 3ebe 1366 a23c
000001d0: de7a 7ebd 284b 1dbd 361b a2bd c927 d63e
000001e0: 0a34 d2bd f7db 163c 2f4b a83e b2b7 b43d
000001f0: d475 68bd 6e96 6d3e 5d61 edbe 010d 8a3c
00000200: 795d 64be 41b2 d53d f981 20bf 6d9e 59be
00000210: 6e4d c1be 4532 023d a35b 5ebd db00 93be
00000220: 1937 00be 3a7b e1bd 881d 433c c443 8c3c
00000230: c728 a23e 05f3 8ebe c4c1 033f 6e1e 5fbe
00000240: 97b1 753e ed73 563e 602e e73d 7fbc 2d3e
00000250: 3972 c03e f22a f53e c7ab 7b3e cc96 dd3d
00000260: ec8a 4e3e 38e0 473e af5d 443b 1446 1d3e
00000270: a72a f7bd 2aee 173e 9b96 68bd 3276 30be
00000280: 3265 a6be 7cf6 d93d 99cd 83bd 265f f33d
00000290: 503d bc3e f348 143e 9929 393e 7eeb 333e
000002a0: fa46 d8be 0034 bfbd f991 193e 5bbd 42bd
000002b0: 2f0f 8dbe 0267 afbd 8658 40be fe51 1ebe
000002c0: 3c44 a7bd 8744 a33d 8233 13be 1b8e 063e
000002d0: dc0a ccbe ad7a 94be b84f 59be 5c13 4bbd
000002e0: ecc6 8e3e 8f85 cfbd 324f 96be 7748 593e
000002f0: 9067 0abe cca0 7f3c 2c0c 083e c32e 33bb
00000300: 49f4 c13d a261 e2bc b927 b0bd 67b0 55bd
00000310: 601c 4dbd bff3 8b3d b2da 10be 71b5 8abd
00000320: 4073 6cba d0f2 673e b700 bbbd 64ee 0cbe
00000330: ffe9 233e a88e 703d 3de1 8b3d 1879 c63d
00000340: b4dd 01bc 4df1 033e 8e85 2abe da7d 3e3e
00000350: d630 f9bc dbdc e9bc 6745 86be 28b9 d9bc
00000360: ca4b 523d 9245 d9bc cf0d 56be b609 96bd
00000370: a1cf 003d 8d75 53bd ac56 66bd ee0c e93d
00000380: 3dd1 5e3d dc04 a53c 1e6e bd3e e276 843d
00000390: 02e4 4ebe ce3c 8f3e 2685 b13d e110 dd3c
000003a0: 245a 30be 2250 0ebe ee87 1fbc abf0 43be
000003b0: ad51 5dbe f5d5 a9bd e005 663e bb91 ee3c
000003c0: c6c3 673e a612 6b3c 3e32 803e 4017 cdbd
000003d0: 9e45 85bd 62d2 073e 0584 37bd 2e45 2abd
000003e0: a612 c33b 5f60 06be 3c7b 97bd ad4e 6c3e
000003f0: 3866 33bd ebae 83bd 8165 8cbe 3bac d7bd
0.14265479 0.33934894 -0.1306865 -0.22183408 0.025639053 0.1475116 0.09167427 0.032520663
0.041222647 0.31362122 0.20770162 0.16834736 -0.13886733 -0.1834727 -0.2019818 0.16783167
-0.13664946 0.14573003 -0.1517481 -0.032239415 -0.07343154 0.26456726 -0.05363426 -0.30337647
-0.034229387 0.099160545 0.35996747 0.06605819 0.14902575 0.20643288 0.20883487 0.370122
0.4461588 -0.26064003 -0.013390518 -0.10948321 -0.07101057 0.17066053 -0.016462682 -0.09647547
-0.44172087 0.08997166 0.093736865 -0.117202066 0.025619209 0.17459649 0.16912939 0.081024
-0.010194032 0.17782865 -0.09238467 0.29343736 0.25082177 0.055663425 -0.57214963 -0.39743304
-0.08333643 -0.0067742104 0.19020669 -0.07850679 -0.17182995 -0.024961557 0.027441049 -0.13474186
0.06699705 -0.21330029 0.3483223 -0.05132943 0.29829612 -0.25031787 0.33258888 -0.18255848
0.41315153 0.09524321 0.19754992 0.12484832 0.0015403111 0.05898738 0.10060575 0.179122
-0.085782714 -0.35073936 -0.16119923 -0.24753475 -0.14968447 -0.25019178 -0.30165178 -0.6738865
0.050258137 -0.57514375 0.111371905 0.3236403 -0.057798345 0.2759258 0.051837407 -0.2518525
-0.0110304775 0.029119013 -0.2040778 -0.070379235 0.11304267 -0.14315331 -0.31546128 -0.35342604
-0.4796672 -0.0839213 0.062463656 -0.7180873 0.26321107 0.5012445 0.20613185 0.36547425
-0.41600066 0.08371314 -0.18599086 0.019824063 -0.062128894 -0.038401753 -0.07915346 0.4182723
-0.10263832 0.009207717 0.3286986 0.088240996 -0.056752995 0.23201916 -0.46363345 0.016851904
-0.22301282 0.1043439 -0.6269832 -0.21251841 -0.37754387 0.031786222 -0.05428661 -0.2871159
-0.12521018 -0.11009832 0.011908896 0.017122157 0.31671736 -0.27919784 0.5146754 -0.21788952
0.23993526 0.2094266 0.11288142 0.16966437 0.37587145 0.47884327 0.24577247 0.10819778
0.20170182 0.19519126 0.0029963066 0.15358764 -0.12068682 0.14836946 -0.056784254 -0.17232588
-0.3249908 0.10642716 -0.06435699 0.118833825 0.36765528 0.14480953 0.18082274 0.17570302
-0.4224165 -0.0933609 0.1499709 -0.047543865 -0.27550647 -0.08564569 -0.18783769 -0.15460965
-0.081673115 0.07972055 -0.14375117 0.13140146 -0.39852035 -0.28999844 -0.21221817 -0.04957901
0.2788614 -0.10132896 -0.29357296 0.2121905 -0.13516068 0.015602302 0.13285893 -0.0027341105
0.09470422 -0.027634446 -0.086013265 -0.052170184 -0.05007589 0.068336 -0.14145926 -0.067728885
-0.0009019859 0.2265122 -0.09130996 -0.13762814 0.16007231 0.058729798 0.0683007 0.096910655
-0.007926393 0.12885018 -0.1665251 0.18602696 -0.030418795 -0.028547695 -0.26224825 -0.026577547
0.05134181 -0.026522432 -0.20903705 -0.07326071 0.03144801 -0.051625777 -0.056235 0.11379419
0.054398764 0.020143919 0.36998075 0.064679876 -0.20204166 0.27976078 0.08667974 0.026985588
-0.17221886 -0.13897756 -0.009736998 -0.19134776 -0.21613188 -0.08292762 0.22463179 0.029122224
0.22633275 0.014347708 0.25038332 -0.100142 -0.06507419 0.13263848 -0.044803638 -0.04156988
0.005953151 -0.131227 -0.07396552 0.23076887 -0.043798655 -0.06429847 -0.2742119 -0.10530897

convt1.bias f4 [8]
00000000: 67f0 81bd f016 9a3c ce51 6d3c ed62 9c3d
00000010: ada5 46bb 00fe 363d 0794 a73d 6397 3abd
-0.06344681 0.018809766 0.014484836 0.07636056 -0.0030311153 0.044675827 0.08182531 -0.04555453

convt2.weight f4 [8, 16, 5, 5]
00000000: 72c2 42be 5954 98be 47ca a4be 8457 92be
00000010: f680 debe 7691 76bd 2dab d3bd ae5f d33d
00000020: 0e0d 23be aa97 15be e2c0 8d3c 2d87 e63c
00000030: 0775 35be d279 0cbd c794 febd 9c46 bc3b
00000040: 0f08 8dbd 5aff c43c 3622 80bd c644 b3bd
00000050: 0589 5e3e 3974 1c3c 59f1 cd3d f53e 93bc
00000060: 5b6b fd3d c00e 6dbd 4020 283c 82be 853d
00000070: af1e 5e3d 1d3a 8ebb 87c4 833d aed6 e0bc
00000080: b06b 953c b4f4 873d 6814 ed3d 03d3 c33d
00000090: 1633 873d a998 d83d e075 023e 05ba 463c
000000a0: e22a 733d 04d6 253d 4b40 8a3d 75e1 8f3d
000000b0: 4762 ac39 c7dc 013d b472 a1bc 7e32 a93d
000000c0: 2aa6 1abc fd73 a13d 7ecb 3abf d965 5ebd
000000d0: 4830 dbbe 8ccc dd3c b407 42be 93ff 2bbc
000000e0: adfc ecbe 4383 dcbd efeb 2d3b 4244 81bd
000000f0: ecf3 6cbe f7c8 3abc f37f 03be bd25 96bd
00000100: 1a97 6abd b93d a03d 2f9f 95be 0ce8 0bbe
00000110: c5ef dbbe 6646 69bd 8d21 4f3d 144c afbd
00000120: 4121 063e 2823 8dbd b2df a73e e79a cb3c
00000130: 4a8f acbc b3f2 b3bd 4655 2bbd cb5b 2abd
00000140: ca65 9d3c 8b2c cabb 485a f2bd 3c22 28bd
00000150: 9496 cabd dc6c b33c ee71 14be 6b52 e0bd
00000160: c05f a1bc 13a6 b2bc 1aaf 3abd 541f debd
00000170: d759 fbbd 2307 aebc 63f3 d4bd 6180 68bc
00000180: c141 72bd edfc 36bd cdf0 e2bb bac4 16be
00000190: f1f2 6abc c2bc 08bc 4ac5 4b3c bd3d 8b3d
000001a0: f548 1fbd 69ae 98bd cebd 12be 3692 81bd
000001b0: 1ee8 d9bd f001 01be 0cfd 21bd 2f25 20bb
000001c0: 7d0d 6a3c b80a 463d 9843 cebd 8494 acbd
000001d0: ed58 403d 00fc 493c b6cb 94bc 9559 ab3d
000001e0: 634b 0cbe b456 98be 534f 2abd f63e 77bd
000001f0: 1131 32bd 19a4 5a3c 4ad7 f7bc 1b16 d2bd
00000200: 5362 3c3d dec2 d2bc 8317 e53c bcd9 6e3d
00000210: d955 7ebb e452 73bd 11a5 05bd c121 4c3d
00000220: 10e8 a43d 1a3b a8bc 1f29 ecbd 8b0e fe3d
00000230: ad81 fc3a 4c81 a13d a3c5 a93d befc 9fbd
00000240: 6ce8 f23c dd89 4f3c d0b0 c0bd d22a 323d
00000250: a81b e939 be12 35bd 5d5d 023d 1d70 233d
00000260: aad3 4cbc a31a ad3c b6c1 773d bec7 fd3c
00000270: 9673 293d 19e3 043e 5588 743d 59a2 f0bb
00000280: 88e4 dbbc 247f b23d 06e2 f23d d059 3fbd
00000290: d97f 613d 3fef b0bb 66bf d33d f883 c6bc
000002a0: b2e7 68bd cb32 a23d c507 0f3d c077 7e3b
000002b0: 59dd 093e 6382 ee3b d327 b93d c288 b3bd
000002c0: e5b0 a9bd 5a61 6f3d aac7 87bd 8dce fcbc
000002d0: 2c4f 67bd e3e3 5fbc cf8b cebc c079 a3bd
000002e0: 6fa6 503c dfdd a6bd 7fc1 1ebd f355 b8bd
000002f0: 23da 0f3d dacc 09bc 8097 153a d26c 5abd
00000300: 7f5d d63b d7b5 e03d 20be f0bc 1ac7 ccbd
00000310: 4892 4fbc 7731 21bc 1e64 133d 0082 c53b
00000320: 841c db3c e105 143d 39e8 aebd e749 4abd
00000330: d907 6ebd b7b1 1abc 96e5 a8bc 9c39 83bc
00000340: 6d52 273d 8a27 97bc d3b1 e839 9b30 2ebd
00000350: a839 47bd 8057 34bd 9765 25bd 9102 d83b
00000360: 4d5f b93d b173 14bd ead1 41bd 88ef 84bd
00000370: fefb 9dbc 28d6 123b 5d0c 89bd 3dc8 4d3d
00000380: bfc6 4b3c 3eba 743c ae4a 14be 2050 5a3d
00000390: 1452 a0bb fa7f 0b3b 12bb f73c 4723 03bc
000003a0: 3f17 e5bc 1dff 1dbc 3675 003d ab68 debd
000003b0: d111 a9bd b891 82bd 30eb 9e3d 5f5e 873d
000003c0: 0b97 52bd 9a62 8abd b0bd 923d 7c2c a63c
000003d0: 38ad 68be 0851 22bd 5189 f03c 7907 bfbd
000003e0: bd15 17be ab6d 33bd 19d5 a83b e102 0ebd
000003f0: 563d d73d 094c 813b 1681 cdbd 6aa9 e43d
-0.19019488 -0.29751852 -0.32185575 -0.28582394 -0.43457764 -0.060197316 -0.103353836 0.10320984
-0.15922949 -0.14608636 0.017303888 0.028140629 -0.17720424 -0.034295864 -0.12430721 0.005745722
-0.06886303 0.024047542 -0.06256525 -0.08753352 0.21731956 0.009549194 0.10055799 -0.017974356
0.12373992 -0.057875395 0.010261595 0.06530477 0.05422848 -0.0043404237 0.06433969 -0.027446117
0.018239826 0.0663847 0.11576158 0.09561732 0.06601541 0.105759926 0.12740278 0.012129311
0.059367068 0.040487304 0.06750544 0.070254244 0.0003287962 0.03170469 -0.019708015 0.08261584
-0.009439031 0.07883451 -0.72966754 -0.05429635 -0.42810273 0.027075075 -0.18948251 -0.010497945
-0.46286526 -0.10767224 0.0026538332 -0.06311847 -0.23139924 -0.011400453 -0.12841778 -0.07331417
-0.057273008 0.07824273 -0.2922301 -0.13662738 -0.42956367 -0.056951903 0.050569106 -0.085594326
0.13098623 -0.06891471 0.32787853 0.024854137 -0.02106442 -0.087865256 -0.04182937 -0.041591447
0.019213576 -0.0061698607 -0.11833626 -0.041048273 -0.09892002 0.021902494 -0.14496586 -0.1095322
-0.019698977 -0.021807706 -0.045577146 -0.10845819 -0.12272995 -0.021243637 -0.10397985 -0.014190764
-0.05914474 -0.044674803 -0.0069256783 -0.14723483 -0.014340148 -0.008345785 0.012437174 0.06798885
-0.038887937 -0.07455141 -0.14330217 -0.06326716 -0.10639976 -0.12598395 -0.039547965 -0.0024436226
0.014285442 0.048350066 -0.10071486 -0.084267646 0.046959806 0.012328148 -0.018163543 0.08366696
-0.13700633 -0.2975365 -0.041579556 -0.06036278 -0.043503825 0.013344788 -0.030254025 -0.102581225
0.045992207 -0.025727686 0.027965313 0.058313116 -0.0038808493 -0.059405223 -0.032628123 0.049836878
0.08052075 -0.020535994 -0.11531281 0.124051176 0.0019264721 0.078859895 0.08289649 -0.078118786
0.029651843 0.0126671465 -0.09408724 0.043497868 0.0004446183 -0.044207327 0.03182732 0.03990184
-0.0125016365 0.021130865 0.06048747 0.030979034 0.041369997 0.12977256 0.05970033 -0.007343572
-0.02684237 0.087156564 0.11859517 -0.04671651 0.055053566 -0.005399614 0.10339241 -0.02423285
-0.056861587 0.07919844 0.03491952 0.00388287 0.13463344 0.007278727 0.09040799 -0.08766319
-0.08285693 0.05844245 -0.0662988 -0.03086021 -0.05647199 -0.013665172 -0.02521315 -0.07982206
0.012734993 -0.08147787 -0.03875875 -0.090007685 0.03512014 -0.008410657 0.0005706474 -0.053326435
0.0065419073 0.10972183 -0.029387534 -0.09998913 -0.0126691535 -0.0098384535 0.03598415 0.00602746
0.026746996 0.03613842 -0.08540387 -0.049386885 -0.058112953 -0.009441785 -0.020617288 -0.016018681
0.04085009 -0.01845147 0.00044382978 -0.042526823 -0.04863897 -0.04402876 -0.040380087 0.006592103
0.0905138 -0.036243144 -0.04731933 -0.064909995 -0.019285198 0.002240548 -0.06691811 0.05023979
0.0124375215 0.014936982 -0.14481613 0.05329907 -0.004892597 0.0021285997 0.03024057 -0.008004016
-0.027965186 -0.009643343 0.03136178 -0.108598076 -0.08255351 -0.0637545 0.07759702 0.06609797
-0.051413577 -0.06757088 0.07165086 0.020284884 -0.22722328 -0.03962806 0.029362353 -0.09327597
-0.14754386 -0.04380576 0.0051523563 -0.034670714 0.10509746 0.0039458317 -0.10034387 0.11165126

convt2.bias f4 [16]
00000000: a34e 453d 1c49 aa3d 394d 913c 08ea b63d
00000010: 7232 243d 7312 603d d501 963d 9dd1 8abc
00000020: 284c cf3d 3c3d 3e3d 0052 e6bb 43a3 11bc
00000030: 57b7 fd3b af08 403d 7f59 c13b 0507 943d
0.048170697 0.08314726 0.017737018 0.08931357 0.04008717 0.054705095 0.07324568 -0.016945655
0.101219475 0.046445116 -0.007028818 -0.008889022 0.007742803 0.04688328 0.0059005613 0.07227901

convt3.weight f4 [16, 32, 9, 9]
00000000: 7298 f2be 297a c2bc 91a2 23be f688 e6be
00000010: 6d77 5fbd 5a37 603c 3294 acbe 11b4 d33b
00000020: 7ca8 e1bc 064f 13be aef7 1c3e 1122 06bd
00000030: a28d 233c 47f7 acbe f862 123d 5d06 d13d
00000040: b4cc a03d 3e69 d0bd 5b8e b53c 2cca 413e
00000050: e52b fc3c 17e2 49bd 7075 43bd e153 8c3d
00000060: 25cf d73c d0ca 3dbd 3f1c bcbd d9c9 b7be
00000070: 1f5b 94bc 1442 3abd d78b 2cbe 8477 10ba
00000080: cea3 023e f8f0 92be e53c 43bc 45c1 df3b
00000090: ce1a 30be b287 fabd c2d2 c6bc 1b7b acbd
000000a0: 714d 02be 402f 4dbb 358b aa3d 9de9 d7bd
000000b0: 588a 8ebd e7c7 93bd 41a1 6dbe a8c1 9e3d
000000c0: 05a5 ffbc a326 a03d 2ba7 323c 6f95 11bd
000000d0: 9efa dfbd 12ea e63c 9a1f 4d3e 21ea 49bd
000000e0: 8e4d df3c ed9f 333e 7ddb 70bd 2127 e13d
000000f0: 93ac 063e 062e 9d3c cd58 3e3d f25f 20be
00000100: 0cc4 44be 003e abbd 1fbf 8fbd 3bdc f7bd
00000110: 40a1 92bd 12c5 29be b2c8 3bbe 7d86 afbd
00000120: 352b 4dbd f137 61bd 79e2 67be 9a98 c4bc
00000130: 86a4 383d a868 1bbd dba6 11bd 4871 403d
00000140: 485b 3cbd 9180 1cbe 247f ecbe 6175 483d
00000150: 5871 eabd e936 90bd eb58 b23c 7da6 053e
00000160: 95d7 19be dd52 673d ab2e 3bbb c95b a13c
00000170: 7026 ef3b 0584 a5bc 2700 ba3d 6605 a83c
00000180: 4555 b2b9 f2ab 66bc c746 eabc 2bb2 6dbb
00000190: 88c6 3dbd f2c4 86bd 1a7d 813c 2dd6 fbbc
000001a0: ed59 09be 67ce 8d3c be5e 57bd 91c5 50bc
000001b0: aaf3 82be 3841 bebe aa61 793d f8ed 7fbe
000001c0: 4336 083d c517 db3c ac8e a2bd 54db 27be
000001d0: 1f82 893d e675 c03c a468 40bc d0cf 91ba
000001e0: 7c51 e03c d755 bc3d b57b 2f3b a733 6f3c
000001f0: e529 e4bc 688d b0bc c5f5 893b 10df 563d
00000200: 5d54 acbd b6a6 11bb 91dc 473d 4fd6 4fbd
00000210: f5a2 2cbd 4099 db3c de32 3dbd 9f1f 9fbd
00000220: 6c33 6abe 923f 653d a494 bbbd e429 dabd
00000230: 35cd 463c 6db5 e1bb 3408 a5be 48c9 103d
00000240: 6e6f 24bc e5fc 1d3d 249f e8bb 1396 bd3c
00000250: 04a8 a73c 378a ce3c ea3b 81bc d792 cc3a
00000260: 414c 16bd a51c a23c 6964 e6bc 5947 01bd
00000270: 934c 31bd 1b00 1c3d 34aa 65bd 87e8 afbc
00000280: 93b6 09bd a366 64bd a116 b3bd d19e 53bc
00000290: 9083 06be 8487 55bd 7377 06bd f3ca 98bd
000002a0: d7a4 36be e63f be3b be61 07be 9dc1 26bc
000002b0: 1a7b adbc 9b1f f2bd 602f 41bd 5fe8 af3b
000002c0: e666 e3bd 054f febc f711 c03c 1dd4 c3bd
000002d0: edd0 ec3c 456e 95bd 8694 0fbe 0b67 b8bc
000002e0: b9be 4dbd d697 44be c374 2ebc 5cde c3bd
000002f0: 6574 8bbe e1b0 28be 8d19 59bd 8575 47be
00000300: 17e0 62bc fa9b 56bd fcf9 1dbe 6ec7 11be
00000310: 047d e0bc a787 f2bd e553 51bd 676b 8bbc
00000320: 4f26 9cbd bd53 9bbc 73dd e339 b2db 25bd
00000330: a905 1ebd dfa3 023d 2b61 1fbe 4204 35bd
00000340: cfb8 aabd 74c9 08be 1253 6cbc 92d6 f8bd
00000350: bf4d 94be 7296 153c cd2e 90bd 436e 85be
00000360: 5995 fdbc 1d85 62bd 70c8 fbbd 170a 1cbe
00000370: 60c8 c7bc 0aab 81be d0d7 0fbe fdb7 53bd
00000380: 9561 cdbd ff20 85ba ba0d f33c bb3b 2dbd
00000390: b3f8 08bd 64ba 32bc 71c2 033d 3548 f4bc
000003a0: d0ad 0c3d 80ae a2bd 1eff 733c 81d8 2bbd
000003b0: fbb3 3cbe 5dce 74bd 933b 2fbd e6a9 44be
000003c0: fbae 4dbd d364 c2bd 2782 3cbe c30f 80be
000003d0: 2820 a9be a788 173c 0ba3 26bd b2b9 99be
000003e0: 77fb 00bd da7a 78be f9be 80be 63da 1c3c
000003f0: 81a9 82b8 5d3f 82bd cdc4 21be 832a b4bc
-0.47381932 -0.023739891 -0.15979983 -0.45026368 -0.054557253 0.013685072 -0.33706814 0.0064606746
-0.02754616 -0.14385614 0.15328857 -0.032747332 0.009982498 -0.33782408 0.035738915 0.10206292
0.07851544 -0.10176323 0.022162607 0.18924779 0.03078265 -0.04928788 -0.04771942 0.06851936
0.026343891 -0.046335995 -0.09185075 -0.35896185 -0.018109856 -0.045473173 -0.1685022 -0.0005510973
0.12757799 -0.2869947 -0.011916374 0.0068284594 -0.17197725 -0.12232913 -0.024270419 -0.08421918
-0.12724854 -0.003130868 0.08327333 -0.10542605 -0.06959981 -0.07215863 -0.23206045 0.07751781
-0.031206617 0.07819869 0.010904114 -0.0355429 -0.10936473 0.028187785 0.20031586 -0.04929555
0.02725866 0.17541476 -0.05880307 0.10993791 0.1315177 0.019186985 0.046471406 -0.156616
-0.19215411 -0.08361435 -0.07018875 -0.121025525 -0.07159662 -0.16579083 -0.18338278 -0.085705735
-0.050090034 -0.05498499 -0.22644986 -0.023998547 0.045078777 -0.037941605 -0.035559516 0.046983033
-0.04598549 -0.15283419 -0.4619075 0.048940066 -0.114474 -0.07041723 0.021770915 0.13051791
-0.15023644 0.05647551 -0.0028561752 0.019697087 0.0072982833 -0.020204553 0.0908206 0.020510387
-0.00034014336 -0.014079081 -0.028598202 -0.0036269526 -0.046331912 -0.06580533 0.015806723 -0.030741775
-0.1341321 0.017310334 -0.052580588 -0.012742416 -0.25576526 -0.37159133 0.060884155 -0.24993122
0.033254873 0.026744733 -0.07937369 -0.16392261 0.06714272 0.023493718 -0.011743698 -0.0011124555
0.027382605 0.0919606 0.0026776616 0.014599717 -0.027852008 -0.021551803 0.004210206 0.052458823
-0.084145285 -0.0022224612 0.048794333 -0.05074149 -0.042147595 0.026806474 -0.04619109 -0.07769703
-0.22871178 0.05596883 -0.0915921 -0.10652521 0.012133886 -0.0068880827 -0.3223282 0.035348207
-0.0100363325 0.038571257 -0.007099049 0.02314285 0.020465858 0.02521239 -0.01577564 0.0015607727
-0.036693815 0.01978905 -0.028124051 -0.031562183 -0.043285917 0.038086038 -0.05607052 -0.021473182
-0.033621382 -0.055761945 -0.087445505 -0.012916283 -0.13136125 -0.05213119 -0.03282876 -0.074605845
-0.17836319 0.005805957 -0.1322088 -0.010177997 -0.021176863 -0.118224345 -0.04716432 0.005368277
-0.11103611 -0.031043539 0.023446066 -0.09561942 0.028908217 -0.07296423 -0.14021501 -0.022510072
-0.050230715 -0.19198546 -0.010647955 -0.09563896 -0.2723724 -0.16473724 -0.053002883 -0.19478424
-0.0138473725 -0.052394845 -0.15427393 -0.14236233 -0.027403362 -0.1184228 -0.0511054 -0.017018987
-0.07624494 -0.018960828 0.00043461806 -0.04049272 -0.038579617 0.03189456 -0.1556441 -0.044193514
-0.08336031 -0.13358098 -0.014424102 -0.12150301 -0.28965566 0.009130107 -0.070401765 -0.26060686
-0.030955004 -0.055302728 -0.1229409 -0.15238224 -0.024387538 -0.25325805 -0.1404717 -0.051689137
-0.10028378 -0.0010156928 0.029669631 -0.04229329 -0.033440303 -0.010908697 0.032167856 -0.029819587
0.034345448 -0.079434395 0.014892368 -0.04195452 -0.18428032 -0.059767116 -0.042781424 -0.19205436
-0.050215703 -0.09491887 -0.18409024 -0.25012025 -0.33032346 0.009248889 -0.040682834 -0.30024487
-0.031489816 -0.24265614 -0.251457 0.009573552 -6.2304556e-05 -0.06359742 -0.1579773 -0.021992927

convt3.bias f4 [32]
00000000: 447a 973c 6b7d b8bc 4e62 50bd 94ad 533d
00000010: 2693 bb3d eff3 643d 7e4c e8bc e1a4 a03d
00000020: 26b7 7f3d 133c fa3d 9768 95bc c755 a43d
00000030: 1029 e53d 0de8 cbbc d35b f03d 7ff0 a13d
00000040: 5c8f 8abb f722 2a3c 6f9b 803c c7d8 8ebc
00000050: 0b23 e13d 5e88 fb3d 7cb0 bd3d edcd df3d
00000060: 1f59 a93d 9fac 3d3d 20b6 72bc 61bd 3f3c
00000070: 5906 893c 1cb2 8a3d 545b 56bd 4c77 76bc
0.018490918 -0.022520741 -0.050875 0.05167921 0.09158926 0.055896696 -0.028356787 0.07843948
0.062430523 0.122184895 -0.018238349 0.08024173 0.11189473 -0.024890924 0.11736264 0.07907199
-0.0042285156 0.010384313 0.015699117 -0.017437352 0.10993012 0.12281869 0.09262177 0.10927949
0.082689516 0.046307202 -0.01481393 0.011702866 0.01672666 0.06772253 -0.05233319 -0.015043091

pos_output.weight f4 [1, 32, 2, 2]
00000000: fffb 4fbe ed53 16be 2ec5 013e 9a8b d13d
00000010: b04e b5bd 7f64 2e3e 5a0f 933c f175 0b3e
00000020: 0dde 38be a3a1 6ebe a4a6 a3bd 0a17 38be
00000030: 9636 bebd fe1c d53d cf69 43bd 004a 673e
00000040: eb9e b63b f826 f83c 5c75 4dbc 0f78 a23d
00000050: 190a 11be 7ff9 c4bd afa6 3c3e 4618 0bbe
00000060: eff5 47be 0d7a 22be e3e9 82be ac83 3dbe
00000070: 0240 63bc 5e8a 8fbd 68c3 dcbd bec5 413e
00000080: 7d64 d63e 680d db3e a4ef cd3e 0699 bf3e
00000090: 9765 b83c a864 bc3d b3d9 f43d 7837 973d
000000a0: 87cd b43e 4ca3 cc3e eaed 7b3e c44d 303e
000000b0: 8598 fc3e d415 0d3f 43fc d73e 012a a13e
000000c0: bba1 8fbd ba1a 1abc 98e0 073e 5f72 2b3d
000000d0: 3afa d6bd e876 32bd 6d5c b6be 1c34 bebe
000000e0: ec61 49bd 4dde bfbc 6d0d 363e a942 09be
000000f0: aa3e b33d 7c6a 0bbe fc45 af3d 1181 10be
00000100: 1f74 3bbe 4df2 b2be 7501 79bb 2859 013d
00000110: 6dcd adbe 170c 6dbe df77 67be 73b7 37be
00000120: f499 4c3c 1e86 2e3d 76d5 41be d769 5bbe
00000130: f06d 983d e346 08b8 a353 043e b7cb 3f3e
00000140: c4a7 50be 9b34 38bd 5f86 db3d 9a85 c43c
00000150: 8f22 abbd ed36 c3bd ba02 9ebd f744 11be
00000160: fa80 00be e2c3 253c 9683 ab3d 3bad 9fbd
00000170: 642e b43d 7342 113e b481 e6bd 62f5 b63d
00000180: 770e 20be 46d4 043d 4056 0ebc 8d0f 1bbd
00000190: 7193 edbd 6501 d1bd 146a 09be 7aba 8e3d
000001a0: aae6 283d 1116 0e3e edae dbbc a056 abbd
000001b0: e92d b9bc d97d 5ebe 0082 37be b295 7abe
000001c0: f8fc 873e 614e aa3e 1f41 573e 47d5 6d3e
000001d0: 43c7 ad3d 0610 38be 2ac9 713d 19c4 b83c
000001e0: fec0 023c ff86 5ebd d62d 87be efb0 3fbe
000001f0: 8b05 4ebd abb8 983d 2f60 803d 077a 043e
-0.20310973 -0.14680453 0.12672874 0.10231705 -0.08852899 0.17030524 0.017951656 0.1361921
-0.18053456 -0.23303847 -0.079907686 -0.17977539 -0.09287755 0.104059204 -0.04770833 0.22586823
0.0055731437 0.03029202 -0.012540188 0.079330556 -0.14164008 -0.096179 0.1842296 -0.13583478
-0.1952741 -0.15866871 -0.25569066 -0.1850726 -0.013870241 -0.07008813 -0.10779458 0.18923089
0.4187354 0.42783666 0.40221894 0.37421435 0.02250938 0.09198886 0.11955585 0.07383627
0.35313055 0.39968336 0.24602476 0.17217165 0.49335113 0.5511143 0.42184648 0.3147736
-0.070132695 -0.009405786 0.1326927 0.04185712 -0.10496946 -0.04357043 -0.3561739 -0.3714913
-0.04916565 -0.023421431 0.17778559 -0.13404335 0.087521866 -0.1361484 0.0855827 -0.14111735
-0.18306015 -0.34950486 -0.0037995253 0.031579167 -0.3394579 -0.23149143 -0.22604321 -0.17941074
0.012487877 0.042608373 -0.18929085 -0.21427093 0.07442844 -3.2490945e-05 0.1292253 0.18730055
-0.20376498 -0.044972043 0.107189886 0.023989487 -0.08356201 -0.09531961 -0.07715364 -0.14186464
-0.125492 0.010117503 0.083747074 -0.07796713 0.08797911 0.14185505 -0.11255208 0.08933522
-0.15630518 0.032429002 -0.008687556 -0.037856627 -0.11600388 -0.10205344 -0.13419372 0.06969161
0.041235603 0.13875605 -0.02681681 -0.08366132 -0.0226049 -0.21727695 -0.17920685 -0.24471167
0.26560187 0.33262923 0.21020935 0.2322589 0.08485272 -0.17974862 0.059029736 0.022554444
0.007980583 -0.05432796 -0.26402158 -0.18719839 -0.050298255 0.074570976 0.062683456 0.12937175

cos_output.weight f4 [1, 32, 2, 2]
00000000: f459 a2be 7002 19be 014e 0abf fe6d d1be
00000010: d00f 0e3e b4f5 073a 43a2 b3bd b0cf 43bd
00000020: f7fa c8bd cb70 66bd ad06 78be bf3c 49be
00000030: 8df8 17bf 7cc2 99be b31c 0cbf d688 05bf
00000040: 9011 383e d3eb 443e 7755 103e 2a1e 1abd
00000050: 133c d4bd 021e dabc dee3 273e 85da 2e3e
00000060: 6a38 11be 2d59 d13d 0423 36be c760 f1bd
00000070: 143b 4d3e 2a55 25bd 1576 293e 03bb 81bd
00000080: 29a7 0fbf 6008 14bf 6b15 f2be 3038 dabe
00000090: 023f 8e3e c034 92b9 d257 533e a5f3 9ebd
000000a0: bda4 e03d ac79 3f3e b1b0 053e b1f7 933e
000000b0: fe81 4fbe b331 afbe 1168 0cbe f618 8ebd
000000c0: 19ff 413e 2e7e 853d 300a 2f3e 7395 653e
000000d0: d618 0dbe d190 bcbd 45f8 c13d f2b9 133e
000000e0: 9ba9 273e 06ba 0c3e 6546 0a3e 742a 0d3e
000000f0: 7abc 053e f7bc 6d3e a694 d3bd 0c3b e03d
00000100: b754 82be 685a 6dbe 070c 60be 82f2 abbe
00000110: ebb4 023e b338 8abc 15cc da3c bcf7 4d3d
00000120: 503d c0be 56a9 ebbe 1734 6abe c093 d5be
00000130: c375 29bb 3385 263e f856 a9bd 2653 6fbd
00000140: bae3 8b3d 928e 4a3e 66f6 603e 558f 273d
00000150: 0ba5 c23e d7b3 cb3e 8a1e d63e 1793 e43e
00000160: ebd3 a43d 64fb cb3d 720a 2e3e e53c 2e3e
00000170: acb7 6b3c 283c 4a3e 6b09 043e 34b4 843e
00000180: 7e20 bc3c 5b5d 313d 722e c23d 8a1a 693e
00000190: 141b 88bd 3d3b 8e3d abb2 0e3e 2cb7 dd3d
000001a0: 7015 93be cb95 9bbe 8b46 4ebe a53f 08be
000001b0: 4ec9 edbc 92a2 cabc 5004 a93d c8cc f83d
000001c0: ed16 c3bd 0311 eabd 0e9c 0bbc 29f3 c3bd
000001d0: 5644 c1bd c1b2 85bd ee4e 623e 60d8 193e
000001e0: 2a8a 7abe 5486 1ebe 409c f0bc be1c 6abd
000001f0: 1e61 a73c 3526 57be 2672 7cbe f00c 89be
-0.31709254 -0.14942336 -0.54025275 -0.4090423 0.1387322 0.0005186454 -0.08771183 -0.047805488
-0.09813493 -0.05625991 -0.24221297 -0.19652079 -0.59363633 -0.30031192 -0.5473129 -0.5216192
0.1797545 0.19230585 0.14095102 -0.037626423 -0.10363021 -0.026625637 0.16395518 0.17075546
-0.14181677 0.10222087 -0.17786795 -0.11786037 0.20042068 -0.040364422 0.16548951 -0.06334498
-0.5611444 -0.5782528 -0.47281966 -0.42620993 0.27782446 -0.00027886592 0.2063897 -0.07761315
0.10968921 0.18698758 0.13055684 0.2889991 -0.20264432 -0.34217605 -0.13711573 -0.06938355
0.18944968 0.065182075 0.1709373 0.22420292 -0.13779005 -0.09207309 0.09471182 0.14426401
0.16373293 0.13742837 0.13503416 0.13785726 0.1306018 0.23216616 -0.10331087 0.10948762
-0.25455257 -0.23179018 -0.21879588 -0.33583456 0.12764327 -0.01687274 0.026708642 0.050285086
-0.37546778 -0.4602763 -0.22871433 -0.41714287 -0.0025857545 0.16261749 -0.08268541 -0.058428906
0.06830545 0.19780949 0.21968994 0.040908176 0.38016543 0.39785644 0.41820174 0.4464347
0.08048233 0.09960058 0.16996172 0.17015417 0.0143870525 0.1974951 0.12894218 0.25918734
0.022964712 0.04330192 0.09481515 0.2276403 -0.0664579 0.069448926 0.13935344 0.10825953
-0.28727293 -0.3038772 -0.20144098 -0.13305528 -0.029026654 -0.024735723 0.08252776 0.12148434
-0.09525857 -0.11429026 -0.008521093 -0.095678635 -0.09436862 -0.06528235 0.22100422 0.15023947
-0.24466768 -0.1548093 -0.02937138 -0.057156317 0.020432051 -0.21010669 -0.24652919 -0.26767683

sin_output.weight f4 [1, 32, 2, 2]
00000000: ea35 0d3e 1440 e43d 726c ba3d 6c6e b13d
00000010: e4d7 783e 3488 833e 904a 2a3e d13a 883e
00000020: ff13 ccbd 5ee6 8fbd b619 bbbd 1268 10bd
00000030: e047 9e3d 2bf5 343d 5679 853d 4ddf b43d
00000040: 6e14 003e 731e 0bbe 1b96 043d 78cb 62bd
00000050: 2cee 79bd aba4 273e d43c 1c3d e3d0 16bd
00000060: e8e7 1d3e dcd0 1b3e 401e 973d 81ac 6a3d
00000070: 6088 d0bb 1568 edbd c0fe 953d e970 423d
00000080: 5748 c93a 5f75 58bb 8ad6 2a3c fbcc 8dbc
00000090: 4b74 94bd b29b 433e 2bcc 1f3e cf19 b6bd
000000a0: a4d1 563e 067f 0e3e c32b 833e e6ae 483e
000000b0: c592 59bd b227 32bd 7f65 963d 19dc f4bd
000000c0: 59b8 9d3d f9ed edbd 305d 0abd 8e50 683e
000000d0: 8d06 09be af57 88bd 2240 03be 5dff f1bd
000000e0: 2866 92bc 935d 1cbe a419 debd 3247 aebd
000000f0: fb58 703c 3978 693d 39d7 2cbd 1eff fdbd
00000100: ecea b0bd 17f9 973d 2150 34bd 14c9 443d
00000110: 7e78 3f3d 0be5 f23a 410d 59bc da27 c23d
00000120: 77c3 dd3d 8e5b 183e 2d2d d83d 1eea 413e
00000130: 0933 20be 8e0b 0bbe f408 1bbe e0e5 57be
00000140: 4df1 8d3c 5e6b 503e 20fb 963c 32f6 9bbd
00000150: 1c57 3e3d 145d 82bb eaf7 743c 59ab e33b
00000160: b309 26be 5c66 27be 0e2f f43d 126d 04be
00000170: 491b 1dbd edf5 15be ab31 003e 9a5b 863c
00000180: af6a 653d 78b0 01bc ebbd 5c3e 1057 1bbe
00000190: 5546 123e c7df 21bd 1bd1 abbc 7e77 f93c
000001a0: 0063 c23c a108 f7ba a491 d8bc 7b8a 4fbd
000001b0: 98b0 cf3c 5387 193a ae8d a6ba cda9 af3d
000001c0: 44d5 8bbd 3789 cabd 2280 96bd 8798 08be
000001d0: e4c4 ce3d 9085 2b3e 2308 a63d 1dc3 54bd
000001e0: 0d30 a33c 15ca 0d3d 64e7 a7bb dda6 743d
000001f0: 0b81 cfbc 4e67 bebc 0591 edbb c61e 0fbd
0.13790098 0.111450344 0.091027156 0.086636394 0.24301106 0.25689852 0.16630006 0.26607373
-0.099647515 -0.07026361 -0.09135763 -0.0352555 0.07728553 0.044179123 0.065172836 0.08831654
0.12507793 -0.13585834 0.032369714 -0.055369824 -0.061018154 0.1637141 0.038143948 -0.036820304
0.15420496 0.15216392 0.073788166 0.05729342 -0.0063639134 -0.11592118 0.0732398 0.04747096
0.0015356642 -0.0033028943 0.010427127 -0.017309656 -0.072487436 0.19102362 0.15605228 -0.08891641
0.20978409 0.13915643 0.25619325 0.19597968 -0.053118486 -0.043494888 0.073435776 -0.11956043
0.07701177 -0.11617655 -0.033780277 0.22686979 -0.13381405 -0.06657349 -0.12817433 -0.11816285
-0.017870978 -0.1527007 -0.10844734 -0.08509673 0.014669652 0.05699942 -0.04219744 -0.12402175
-0.08638558 0.07420557 -0.04402173 0.048043326 0.04674577 0.0018531395 -0.013247789 0.09480257
0.108282976 0.14878675 0.105554916 0.18936965 -0.15644468 -0.13578627 -0.15140134 -0.21083784
0.017326975 0.20353457 0.018430293 -0.076153174 0.046469793 -0.003978381 0.014951685 0.0069479165
-0.16214637 -0.16347641 0.119230375 -0.12932232 -0.0383561 -0.14644594 0.12518947 0.0164011
0.056009945 -0.007915609 0.21556823 -0.1516993 0.14284642 -0.03952005 -0.020973733 0.030452486
0.023728848 -0.0018847176 -0.026436634 -0.050669175 0.025352761 0.00058566517 -0.0012707019 0.08577309
-0.068277866 -0.09889453 -0.07348658 -0.13339435 0.10096148 0.16750169 0.08107021 -0.051943887
0.019920373 0.03461655 -0.0051240195 0.059729446 -0.025330087 -0.023242619 -0.0072499537 -0.034941457
