ggcnn_base/output/models/230121_1510_training_example/epoch_31_iou_0.70_statedict.pt (torch, 256417 bytes, 16 tensors)

conv1.weight f4 [32, 1, 9, 9]
-0.022358004 -0.01755736 -0.035579413 -0.014496171 -0.037561353 -0.0093354 0.038007032 0.037359875
0.025239753 -0.026196333 0.0012184983 -0.021870738 -0.043029156 -0.027987044 0.0037790071 0.01551233
-0.050918236 -0.020636503 0.008784653 0.02660944 0.046406712 0.010408166 0.033037964 0.015234799
-0.03949744 -0.0068235556 -0.05351259 0.025594221 -0.034696475 -0.021847375 -0.007094712 0.008446418
0.039662704 0.031140221 -0.04430471 -0.0035311964 -0.023640642 -0.012221729 0.010908931 0.0086387135
0.0039587957 0.029614655 -0.03679594 -0.04231601 0.020480797 0.00032413437 0.020550866 -0.0057361517
-0.029627852 0.0010733663 7.699907e-05 0.04028945 0.029950887 -0.00020321264 -0.037766505 0.010121104
0.040334944 -0.006535135 -0.03566291 0.03838177 -0.010641009 0.013134523 0.04106745 0.03625041
-0.012757076 -0.0014405339 -0.037450198 0.035065215 -0.0074918466 -0.0050672293 -0.00040165032 0.0057662744
-0.015640093 0.018874412 0.03302366 0.035645697 0.005740491 -0.05293423 -0.017765002 -0.018419588
0.040663015 -0.37653205 -0.3299302 -0.3490851 -0.3368523 -0.3722072 -0.30333108 -0.1399893
-0.10366561 -0.084943056 -0.3587766 -0.3157043 -0.25913072 -0.23066409 -0.26823747 -0.30449814
-0.058688227 -0.020118708 0.047615055 -0.25601184 -0.21185936 -0.27267763 -0.17279774 -0.21897547
-0.19026163 -0.033227872 0.009895861 0.08399402 -0.15892309 -0.11558906 -0.12934606 -0.101282895
-0.111425735 -0.06318277 0.087013915 0.15399128 0.2871036 -0.07074176 -0.06353386 -0.08757726
-0.01699139 0.030311981 0.011919336 0.19345446 0.30855092 0.41789365 -0.07666596 0.0044239713
-0.04954777 0.07256742 0.016808735 0.04847501 0.26910588 0.3884324 0.5126182 -0.0651051
-0.024554899 -0.03368319 -0.01249066 -0.0039156023 0.054244842 0.3140113 0.39682075 0.49539214
-0.057706352 -0.03650082 -0.050689634 -0.022324087 -0.038499422 0.022417255 0.28966135 0.40318403
0.5393463 -0.12637696 -0.09215595 -0.022334017 -0.04037341 0.03653228 0.034750182 0.3097784
0.39381853 0.4710117 -0.22331576 -0.28608033 -0.35426867 -0.18668076 -0.29232287 -0.24398617
-0.27190572 -0.2899403 -0.26286104 -0.1435979 -0.20303352 -0.22460102 -0.10863915 -0.09655543
-0.14308105 -0.17536008 -0.15923202 -0.13246183 -0.07180403 -0.058611605 -0.16596742 -0.062267262
-0.032882433 -0.02488122 -0.08787079 -0.0365386 -0.009564371 -0.023829494 -0.100675225 -0.14111014
0.04376168 0.008937298 -0.021441923 -0.034722213 -0.02399956 0.0089980345 0.06216205 -0.040673517
-0.07115358 -0.0116011975 0.020749005 0.046564806 -0.012801884 -0.008600946 0.01131509 0.040966798
-0.031941187 -0.099175096 0.08410794 0.050420064 0.064130604 -0.038302403 -0.0067363004 0.039493226
0.15211298 0.035992093 -0.0038973617 0.16656503 0.12875667 0.084546365 0.078284495 0.14894688
0.098873466 0.18768163 0.17232433 0.11944557 0.21333015 0.13801654 0.13005169 0.12511934
0.17060168 0.21458748 0.357348 0.28394714 0.21416664 0.274445 0.29311654 0.2656453
0.2638666 0.2336629 0.3124232 -0.15659913 -0.18294717 -0.15165886 -0.2998188 -0.32602057
-0.30919597 -0.32956412 -0.3660994 -0.3149898 -0.12662075 -0.10439069 -0.090919115 -0.18314017
00000000: 2228 b7bc 74d4 8fbc b8bb 11bd 5981 6dbc
00000010: efd9 19bd 81f3 18bc 43ad 1b3d ab06 193d
00000020: 99c3 ce3c b199 d6bc 05b6 9f3a 432a b3bc
00000030: 573f 30bd 1645 e5bc 38a9 773b 6e27 7e3c
00000040: a48f 50bd e20d a9bc 81ed 0f3c 0afc d93c
00000050: f714 3e3d 0387 2a3c d152 073d 619b 793c
00000060: 11c8 21bd 2298 dfbb 0430 5bbd f9aa d13c
00000070: e41d 0ebd 44f9 b2bc c27a e8bb d862 0a3c
00000080: 5c75 223d c719 ff3c db78 35bd a56b 67bb
00000090: 05aa c1bc a63d 48bc 5fbb 323c 6489 0d3c
000000a0: c9b8 813b 6f9a f23c 57b7 16bd 8d53 2dbd
000000b0: 58c7 a73c 94f0 a939 4a5a a83c 54f6 bbbb
000000c0: 1cb6 f2bc 32b0 8c3a 907a a138 8d06 253d
000000d0: 905b f53c 7a15 55b9 0db1 1abd fdd2 253c
000000e0: 4136 253d b024 d6bb 4613 12bd 3436 1d3d
000000f0: a057 2ebc 2f32 573c 5836 283d 4f7b 143d
00000100: 0e03 51bc 4cd0 bcba 6165 19bd 8ba0 0f3d
00000110: 2a7e f5bb 000b a6bb 9894 d2b9 04f3 bc3b
00000120: a71f 80bc 839e 9a3c d143 073d 3901 123d
00000130: bb1a bc3b 90d1 58bd e987 91bc ade4 96bc
00000140: 438e 263d cfc8 c0be 9cec a8be 48bb b2be
00000150: e877 acbe f191 bebe 364e 9bbe 5b59 0fbe
00000160: a34e d4bd a0f6 adbd 91b1 b7be fea3 a1be
00000170: c8ac 84be 3533 6cbe 6c56 89be 2ee7 9bbe
00000180: 1163 70bd fdcf a4bc 0108 433d fc13 83be
00000190: a9f1 58be 679c 8bbe e4f1 30be 1b3b 60be
000001a0: f2d3 42be f319 08bd 4022 223c 0f05 ac3d
000001b0: bcbc 22be f5b9 ecbd 4b73 04be 686d cfbd
000001c0: 2d33 e4bd f865 81bd 5a34 b23d e4af 1d3e
000001d0: 3eff 923e 0ee1 90bd 0a1e 82bd b55b b3bd
000001e0: 8731 8bbc d550 f83c 5249 433c ed18 463e
000001f0: 63fa 9d3e 28f6 d53e 0b03 9dbd f6f6 903b
00000200: 9af2 4abd 3a9e 943d 79b2 893c bb8d 463d
00000210: 3fc8 893e 9de0 c63e f23a 033f d355 85bd
00000220: 5b27 c9bc 62f7 09bd a0a5 4cbc 744e 80bb
00000230: d72f 5e3d 17c6 a03e 172c cb3e 0aa4 fd3e
00000240: 7f5d 6cbd e281 15bd ef9f 4fbd 01e1 b6bc
00000250: 92b1 1dbd 64a4 b73c 7e4e 943e 236e ce3e
00000260: 9912 0a3f f668 01be 42bc bcbd d4f5 b6bc
00000270: 975e 25bd dfa2 153d 3556 0e3d 469b 9e3e
00000280: 95a2 c93e 7228 f13e e3ac 64be 1f79 92be
00000290: b462 b5be 3e29 3fbe 58ab 95be 83d7 79be
000002a0: 3a37 8bbe 0e73 94be b995 86be 540b 13be
000002b0: 05e8 4fbe cffd 65be 347e debd dabe c5bd
000002c0: d783 12be 9891 33be b80d 23be 13a4 07be
000002d0: fe0d 93bd b912 70bd 5df3 29be f50b 7fbd
000002e0: bbaf 06bd b3d3 cbbc 9af5 b3bd 80a9 15bd
000002f0: e1b3 1cbc 1236 c3bc d02e cebd 2d7f 10be
00000300: 733f 333d bf6d 123c f9a6 afbc e138 0ebd
00000310: ba9a c4bc 7e6c 133c a29d 7e3d 4699 26bd
00000320: f8b8 91bd f312 3ebc d1f9 a93c bdba 3e3d
00000330: febe 51bc fbea 0cbc ed62 393c cdcc 273d
00000340: c3d4 02bd 501c cbbd c940 ac3d 4585 4e3d
00000350: e856 833d fbe2 1cbd 2fbc dcbb a6c3 213d
00000360: 81c3 1b3e 726c 133d e16a 7fbb 0690 2a3e
00000370: cad8 033e a526 ad3d 9f53 a03d 8885 183e
00000380: 2c7e ca3d 9d2f 403e ca75 303e e19f f43d
00000390: 3873 5a3e 3554 0d3e 452c 053e 491f 003e
000003a0: 35b2 2e3e d2bc 5b3e 51f6 b63e 8561 913e
000003b0: 804e 5b3e 0e84 8c3e 5f13 963e a902 883e
000003c0: 8619 873e 5445 6f3e eff5 9f3e 865b 20be
000003d0: 8156 3bbe 764c 1bbe da81 99be 2bec a6be
000003e0: ef4e 9ebe a1bc a8be 6171 bbbe 5846 a1be
000003f0: dfa8 01be c9ca d5bd cd33 babd 1989 3bbe

conv1.bias f4 [32]
-0.09973523 -0.028687062 0.10013198 0.0047996165 -0.3410843 -0.48687443 0.016472843 -0.018392242
0.013452899 -0.09920099 0.16387439 -0.07226218 -0.096586175 -0.2855685 -0.09703417 0.08688105
-0.1944395 -0.21800357 -0.14077997 -0.075291105 -0.07478964 -0.098145775 -0.3232497 -0.0010059257
0.14418253 0.07167553 -0.017992346 -0.005142823 0.0078208065 -0.0816373 0.08987018 0.009662725
00000000: fc41 ccbd 2101 ebbc ff11 cd3d 1a46 9d3b
00000010: 9aa2 aebe 9b47 f9be 0ef2 863c 54ab 96bc
00000020: 8c69 5c3c e329 cbbd b0ce 273e 32fe 93bd
00000030: f9ce c5bd 0936 92be dab9 c6bd b1ee b13d
00000040: 261b 47be 543c 5fbe a028 10be 3932 9abd
00000050: 502b 99bd a700 c9bd fc80 a5be 44d9 83ba
00000060: 96a4 133e 9fca 923d af64 93bc 2085 a8bb
00000070: d722 003c 7531 a7bd db0d b83d 6850 1e3c

conv2.weight f4 [16, 32, 5, 5]
-0.0456554 0.040415358 0.0030132076 0.0102111455 0.0060982364 -0.0067605646 0.06324049 0.042577196
-0.015627125 -0.06343843 -0.010868363 0.017105712 -0.03846567 -0.01254823 0.048445597 0.033695213
-0.027788652 -0.0032835396 0.026356744 -0.044643074 -0.02669867 0.03866702 0.061347462 -0.049268227
0.023879671 -0.039117303 -0.029287176 -0.15815806 0.76699847 -0.1247129 -0.29440975 -0.1535342
-0.24179067 0.5565008 -0.03201716 -0.22048366 -0.08969037 -0.13086423 0.5157534 -0.037472878
-0.25786132 -0.09394895 -0.08666496 0.5359542 -0.07977827 -0.37011668 -0.18924527 -0.28038228
0.425974 -0.3566387 0.12437583 0.06367779 0.06889254 -0.0074922717 -0.15905848 0.15705499
0.022010526 0.040980417 -0.014101176 -0.1423888 0.04887604 0.031709854 -0.06664555 -0.08453784
-0.24664532 0.31777388 0.19620478 0.17668042 0.18401645 0.112939514 0.2779306 0.011960596
-0.14596269 -0.15352094 -0.24683614 0.03151801 0.20254023 0.25812724 0.36741528 0.4149668
-0.07590551 0.06680258 0.14989467 0.12713325 0.16470206 -0.04069033 0.036325067 0.06455558
0.101024896 0.08360129 0.10136361 0.13871467 0.17996813 0.33437312 0.2657922 0.06262143
-0.06434999 -0.056576006 -0.030311685 0.1572527 0.05243916 -0.1327437 -0.21377392 -0.021838915
-0.004493981 0.022629384 -0.10936741 -0.39042625 -0.1344498 0.053156488 -0.06864126 -0.16105375
-0.4833411 -0.19187498 -0.047182795 -0.03722058 -0.19821177 -0.39786604 -0.2297255 -0.06194865
-0.07183418 -0.13170658 -0.3160705 -0.28208128 -0.13923034 0.19704811 0.17282352 -0.19983575
-0.02590558 0.03198147 0.1176583 0.07862636 -0.048505753 0.062516406 0.090146884 0.13778935
0.11509308 -0.09068247 -0.051851865 0.01893605 0.12794493 0.120997265 -0.026921937 0.0075251996
0.15499331 0.19861555 0.04265667 -0.020708248 -0.00074287213 -0.0019047979 0.20418215 0.09208307
0.03482933 0.17384128 -0.32410696 0.13348497 0.09988725 0.11417498 0.1628058 -0.3553997
0.1517637 0.055624876 0.012278659 0.15547471 -0.32904813 0.13588202 0.16854665 0.13561639
0.12851068 -0.32723024 -0.101281375 -0.026153933 -0.06584284 -0.014354206 -0.4518068 0.17274565
0.11484781 0.23661493 0.080121264 0.09651287 -0.120113775 -0.016772497 -0.00443223 0.009491636
-0.020037178 -0.084853806 -0.036224492 -0.015969371 0.007330986 -0.107042015 -0.09996223 -0.023193778
0.019545821 -0.032221023 -0.24790485 -0.10101885 0.018095184 0.10787384 -0.1733834 -0.22790836
0.048623838 -0.0455945 -0.096374094 -0.17100027 -0.23747489 0.15737747 0.114600085 0.024616275
-0.058335334 -0.158087 0.07367593 0.13568841 0.009217746 -0.043914847 -0.15883274 0.17748962
0.14052783 0.029900845 0.046911508 -0.07020566 0.18200019 0.08929729 0.041365385 -0.14238067
-0.21251768 -1.0743806 -0.74204177 -0.6838784 -0.51004297 -0.50563407 -0.33703813 -0.5366575
-0.33513594 -0.49696842 -0.35036644 0.010269515 -0.50223094 -0.18344238 -0.22728916 -0.4000613
0.19396771 -0.35344365 -0.18705568 -0.13409702 -0.21193142 0.44738606 -0.2444123 -0.26145878
-0.2086372 -0.39726657 0.059969325 -0.051624928 -0.1847343 -0.2957042 -0.12711285 0.05044123
00000000: 2801 3bbd 938a 253d 3c79 453b a64c 273c
00000010: b7d3 c73b ba87 ddbb 3b84 813d 6d65 2e3d
00000020: 7504 80bc 02ec 81bd 3811 32bc 4721 8c3c
00000030: 2e8e 1dbd 1797 4dbc e46e 463d fe03 0a3d
00000040: 07a5 e3bc a730 57bb 19ea d73c a8db 36bd
00000050: 2bb7 dabc 4f61 1e3d 7a47 7b3d 7bcd 49bd
00000060: 4d9f c33c 7739 20bd a9eb efbc 30f4 21be
00000070: 035a 443f 7a69 ffbd e0bc 96be 1238 1dbe
00000080: f997 77be d676 0e3f 6d24 03bd 78c6 61be
00000090: 96af b7bd 4601 06be 6a08 043f 297d 19bd
000000a0: 6606 84be 4f68 c0bd 667d b1bd 4b34 093f
000000b0: ca62 a3bd ef7f bdbe 83c9 41be 448e 8fbe
000000c0: 4419 da3e 5999 b6be c1b8 fe3d 8069 823d
000000d0: 8817 8d3d bb81 f5bb 3ae0 22be 06d3 203e
000000e0: 6b4f b43c 15db 273d 9e08 67bc 5fce 11be
000000f0: 3e32 483d 31e2 013d 767d 88bd 2d22 adbd
00000100: 9790 7cbe 42b3 a23e e8e9 483e b6eb 343e
00000110: cf6e 3c3e d54c e73d eb4c 8e3e 60f6 433c
00000120: 3e77 15be 9834 1dbe 9dc2 7cbe 0719 013d
00000130: b566 4f3e 4129 843e db1d bc3e 8776 d43e
00000140: 5974 9bbd cbcf 883d fd7d 193e 382f 023e
00000150: a8a7 283e e7aa 26bd 98c9 143d b735 843d
00000160: 24e6 ce3d 2737 ab3d b997 cf3d 380b 0e3e
00000170: 9149 383e f432 ab3e ea15 883e aa3f 803d
00000180: edc9 83bd 3ebc 67bd 3650 f8bc da06 213e
00000190: 72ca 563d f7ed 07be 8de7 5abe 86e7 b2bc
000001a0: 3f42 93bb 4261 b93c 05fc dfbd f3e5 c7be
000001b0: 35ad 09be 9eba 593d ca93 8cbd 46eb 24be
000001c0: 7c78 f7be e07a 44be bf42 41bd 9b74 18bd
000001d0: 07f8 4abe 19b5 cbbe 293d 6bbe debd 7dbd
000001e0: cc1d 93bd 17de 06be fed3 a1be f56c 90be
000001f0: 6692 0ebe fbc6 493e a6f8 303e bea1 4cbe
00000200: f037 d4bc 00ff 023d d6f6 f03d db06 a13d
00000210: f8ad 46bd 9a08 803d ee9e b83d a718 0d3e
00000220: ecb5 eb3d bbb7 b9bd 9f62 54bd c61f 9b3c
00000230: ff03 033e 6acd f73d 658b dcbc f395 f63b
00000240: 91b6 1e3e e061 4b3e c3b8 2e3d 58a4 a9bc
00000250: 4ebd 42ba 69aa f9ba 2015 513e 0c96 bc3d
00000260: 33a9 0e3d 7303 323e 59f1 a5be 49b0 083e
00000270: b091 cc3d 92d4 e93d 90b6 263e f3f6 b5be
00000280: f267 1b3e e9d6 633d 6e2c 493c c334 1f3e
00000290: ff78 a8be a824 0b3e 7e97 2c3e 06df 0a3e
000002a0: 4e98 033e b98a a7be 9c6c cfbd c640 d6bc
000002b0: 9cd8 86bd e72d 6bbc 3953 e7be 3ce4 303e
000002c0: 5435 eb3d 2f4b 723e 9e16 a43d 8aa8 c53d
000002d0: 36fe f5bd 7a66 89bc 3d3c 91bb cf82 1b3c
000002e0: 0225 a4bc d5c7 adbd 2260 14bd 33d2 82bc
000002f0: c538 f03b d838 dbbd ffb8 ccbd e100 bebc
00000300: 8f1e a03c 31fa 03bd c5da 7dbe f9e2 cebd
00000310: 5a3c 943c f6ec dc3d 6b8b 31be cf60 69be
00000320: ca29 473d 4cc1 3abd c85f c5bd b21a 2fbe
00000330: 9e2c 73be 8f27 213e 73b3 ea3d 12a8 c93c
00000340: 08f1 6ebd 8fe1 21be 68e3 963d e7f1 0a3e
00000350: 0706 173c 0ee0 33bd 0da5 22be d7bf 353e
00000360: 87e6 0f3e 9ef2 f43c 4826 403d fcc7 8fbd
00000370: 425e 3a3e 7fe1 b63d c06e 293d 3dcc 11be
00000380: 3c9e 59be 4e85 89bf 73f6 3dbf a812 2fbf
00000390: 2d92 02bf 3c71 01bf 4390 acbe 6362 09bf
000003a0: f096 abbe a572 febe 3b63 b3be 7841 283c
000003b0: 3592 00bf 52d8 3bbe 7dbe 68be d6d4 ccbe
000003c0: 799f 463e 91f6 b4be 868b 3fbe bb50 09be
000003d0: 8d04 59be c90f e53e 3847 7abe eddd 85be
000003e0: fda4 55be 8666 cbbe 65a2 753d a974 53bd
000003f0: fd2a 3dbe 8a66 97be df29 02be 779b 4e3d

conv2.bias f4 [16]
0.11183505 -0.08699071 -0.06864378 -0.03620941 0.04562055 -0.069883436 -0.09798555 -0.0102984235
-0.011139043 -0.0058836 0.25682208 0.24204268 -0.052167803 0.0918763 -0.05917566 -0.03513413
00000000: c609 e53d 2f28 b2bd 1c95 8cbd 5150 14bd
00000010: 9ddc 3a3d 0c1f 8fbd a6ac c8bd b8ba 28bc
00000020: 8880 36bc 37cb c0bb 2f7e 833e 09da 773e
00000030: e8ad 55bd a429 bc3d 2d62 72bd cee8 0fbd

conv3.weight f4 [8, 16, 3, 3]
0.04387965 -0.17021431 -0.4994324 -0.07800941 0.03801566 -0.10420574 0.34095964 0.16982296
0.1243157 0.08664206 0.0036583764 0.007258687 -0.035484433 0.07389164 -0.13739921 0.019822547
-0.12133978 -0.13069494 -0.12492132 -0.179462 0.12435327 0.071587324 -0.11714203 -0.1239394
0.06332774 -0.01711767 -0.12950669 0.06362446 -0.12457215 -0.11881689 0.06071803 -0.024288783
-0.124716714 0.08618591 -0.02312691 -0.005086577 0.094372004 0.11683727 0.47152328 -0.12055776
0.05735725 -0.034086242 -0.40798458 -0.19546622 0.04291919 -0.002394869 0.05765552 -0.11515519
0.15175813 0.042412776 0.01372053 0.025578644 -0.03078638 -0.09812063 0.1038463 -0.0031458617
-0.15601897 0.025196506 -0.07889184 0.118846685 -0.0462965 0.11232269 -0.11459191 -0.04614769
-0.13982804 0.02330568 0.0644236 0.057858005 0.074134074 -0.025277125 0.001740841 -0.14632006
0.017098717 0.08348473 -0.062382217 0.007841383 -0.007810628 0.09447565 0.12115937 -0.036157828
0.0115861865 0.095972076 0.1360208 0.15897185 -0.1385891 -0.11758788 -0.1304239 0.092058666
0.1008884 -0.051429294 -0.042904504 0.16785647 0.4172239 -0.025133379 0.11311082 0.21614717
-0.37701133 -0.31191948 -0.23917505 -0.078300774 0.1815101 0.13724299 -0.040590867 -0.11100488
0.08020156 0.016079122 -0.12577 -0.013548127 0.09804345 0.0881832 0.26494426 -0.058446527
-0.268563 -0.1697003 0.0057111927 -0.037000436 0.047022436 0.01832227 -0.15707776 -0.06773761
0.024395796 0.07830247 0.063926294 0.06515786 -0.0058347983 -0.06721086 -0.16413186 0.022553511
0.13427587 0.08751544 -0.11965351 0.059001125 -0.03204717 -0.14617416 -0.14648218 -0.15923324
0.09428779 -0.111510836 0.04727835 0.11747018 0.095155396 0.14598167 0.10325815 -0.12832654
-0.09840828 -0.024539107 -0.23447376 0.14495061 0.101743974 -0.055139855 0.086572036 0.011359439
-0.023992853 -0.10445247 -0.048691407 -0.10235802 -0.097205326 -0.07059647 -0.052487466 0.04869612
-0.1383724 -0.110195674 0.082399935 -0.13724664 -0.0015342165 -0.1481488 -0.04569474 0.057927635
0.066338524 0.015232171 -0.09469829 0.11107345 -0.13484801 -0.010886464 0.0762755 -0.0966086
-0.18985312 0.057297558 -0.089180686 0.0583619 0.3612881 0.25547054 0.030485129 -0.018550804
-0.009430024 -0.08772885 -0.22503892 -0.09869276 -0.29172203 -0.15759486 -0.017943287 0.06983465
-0.032494374 0.15998617 -0.12853774 0.05559177 -0.06715753 0.11980687 -0.20654324 -0.17867933
-0.17848004 -0.18623286 0.22535011 0.085080676 -0.083431065 0.2675563 0.26828748 0.1655108
-0.11186902 0.13870566 0.020462701 0.09576129 0.028944738 -0.17013656 0.062464546 0.042826828
0.091741845 -0.11754999 0.035016883 0.059937105 0.043833084 0.04934823 0.14430565 0.0461635
-0.14570099 0.12829745 -0.05546693 -0.17572464 0.09813197 0.09845489 -0.05364453 0.014403999
0.047743704 0.021047197 0.2323531 0.23268972 0.11456908 -0.058753576 0.024906263 -0.056118004
-0.22840023 -0.21314067 -0.10125377 0.22838153 0.022705583 0.05952962 0.2203639 -0.11275919
-0.16366607 0.15973133 -0.005460065 -0.39622316 0.24981996 0.11279894 0.01184796 -0.00117706
00000000: 26bb 333d a94c 2ebe 9bb5 ffbe 66c3 9fbd
00000010: 4fb6 1b3d d269 d5bd 4392 ae3e 12e6 2d3e
00000020: 3b99 fe3d 6471 b13d 5fc1 6f3b 48da ed3b
00000030: 2058 11bd 8054 973d 61b2 0cbe e562 a23c
00000040: fe80 f8bd e5d4 05be c0d6 ffbd e3c4 37be
00000050: edac fe3d 609c 923d 29e8 efbd f1d3 fdbd
00000060: f9b1 813d 5b3a 8cbc 679d 04be 8a4d 823d
00000070: af1f ffbd 4556 f3bd 78b3 783d 45f9 c6bc
00000080: 7a6b ffbd 3d82 b03d a574 bdbc 4dad a6bb
00000090: 1c46 c13d 6148 ef3d 806b f13e fde6 f6bd
000000a0: 70ef 6a3d 049e 0bbd 5be3 d0be 4c28 48be
000000b0: 08cc 2f3d 3cf3 1cbb 3228 6c3d 7cd6 ebbd
000000c0: 7c66 1b3e 05b9 2d3d 13cc 603c 4e8a d13c
000000d0: b833 fcbc 78f3 c8bd 5ead d43d cd2a 4ebb
000000e0: 70c3 1fbe e768 ce3c 0c92 a1bd e465 f33d
000000f0: 66a1 3dbd 7009 e63d 2aaf eabd 5c05 3dbd
00000100: 152f 0fbe 8eeb be3c 85f0 833d 84fc 6c3d
00000110: 9bd3 973d f911 cfbc ee2c e43a edd4 15be
00000120: 9c12 8c3c 0bfa aa3d 7f84 7fbd 2579 003c
00000130: 4cf0 ffbb 737c c13d 6722 f83d 3b1a 14bd
00000140: fdd3 3d3c 028d c43d 0949 0b3e 84c9 223e
00000150: 4dea 0dbe ead1 f0bd d88d 05be 4189 bc3d
00000160: 949e ce3d 86a7 52bd a2bc 2fbd 91e2 2b3e
00000170: 5f9e d53e 84e4 cdbc a5a6 e73d af55 5d3e
00000180: a107 c1be e9b3 9fbe 4eea 74be 285c a0bd
00000190: c9dd 393e 6d89 0c3e 9c42 26bd 8756 e3bd
000001a0: b740 a43d 5db8 833c dac9 00be f7f8 5dbc
000001b0: 01cb c83d 6599 b43d c6a6 873e a065 6fbd
000001c0: 1781 89be eac5 2dbe f524 bb3b c58d 17bd
000001d0: 999a 403d 9618 963c fed8 20be 04ba 8abd
000001e0: b1d9 c73c 0c5d a03d caeb 823d 7c71 853d
000001f0: d631 bfbb d9a5 89bd 2f12 28be 24c2 b83c
00000200: 9d7f 093e 4c3b b33d e60c f5bd 2aab 713d
00000210: e543 03bd aeae 15be 6dff 15be 0a0e 23be
00000220: f519 c13d cb5f e4bd f1a6 413d 3594 f03d
00000230: d5e0 c23d 387c 153e 0279 d33d 0868 03be
00000240: 488a c9bd 3d06 c9bc e419 70be ef6d 143e
00000250: 255f d03d 54da 61bd ae4c b13d f11c 3a3c
00000260: a98c c4bc 2deb d5bd a470 47bd 15a1 d1bd
00000270: 9613 c7bd e294 90bd 19fd 56bd 9575 473d
00000280: 7fb1 0dbe 45ae e1bd 4cc1 a83d 628a 0cbe
00000290: c317 c9ba 52b4 17be 682a 3bbd 8745 6d3d
000002a0: 7edc 873d 5b90 793c 2df1 c1bd 7a7a e33d
000002b0: 9915 0abe 245d 32bc 5436 9c3d bbda c5bd
000002c0: db68 42be d8b0 6a3d 5da4 b6bd e30c 6f3d
000002d0: c1fa b83e 09cd 823e f3bb f93c dbf7 97bc
000002e0: 6380 1abc 2fab b3bd 9a70 66be 6e1f cabd
000002f0: 975c 95be 8c60 21be cdfd 92bc 7805 8f3d
00000300: d218 05bd 6ad3 233e 669f 03be 32b4 633d
00000310: e389 89bd 4e5d f53d 1280 53be b7f7 36be
00000320: 79c3 36be d4b3 3ebe 2ec2 663e c73e ae3d
00000330: e8dd aabd 24fd 883e fa5c 893e aa7b 293e
00000340: 961b e5bd db08 0e3e 65a1 a73c 7f1e c43d
00000350: 841d ed3c 4738 2ebe d3da 7f3d 2f6b 2f3d
00000360: 26e3 bb3d 0dbe f0bd dd6d 0f3d 9c80 753d
00000370: 528a 333d 5f21 4a3d dcc4 133e f015 3d3d
00000380: a432 15be 6860 033e 4b31 63bd 29f1 33be
00000390: 6af9 c83d b8a2 c93d 5eba 5bbd c0fe 6b3c
000003a0: e78e 433d 2c6b ac3c f9ed 6d3e 3746 6e3e
000003b0: 32a3 ea3d 97a7 70bd 3808 cc3c fedb 65bd
000003c0: c0e1 69be 8c41 5abe 235e cfbd d9dc 693e
000003d0: 0f01 ba3c 55d5 733d 13a7 613e 4aee e6bd
000003e0: 1498 27be 9c90 233e 58ea b2bb c3dd cabe
000003f0: ced0 7f3e 2103 e73d f21d 423c 9447 9aba

conv3.bias f4 [8]
0.04133619 0.022688482 0.06872473 0.13420537 0.02462959 -0.22516122 0.123554535 0.01800894
00000000: 2350 293d 32dd b93c 8dbf 8c3d 226d 093e
00000010: fec3 c93c aa90 66be 290a fd3d 7c87 933c

convt1.weight f4 [8, 8, 3, 3]
0.024480527 0.28302678 -0.28924093 -0.23326993 -0.0073466543 0.28563276 0.10037602 -0.016603807
-0.022709418 0.4032093 0.44492856 0.14057179 -0.08404775 -0.14507133 -0.1959936 -0.46191207
-0.24360958 0.30475917 -0.33713847 -0.21304415 -0.084336765 0.4747199 0.0059612337 -0.19949237
-0.1160917 0.105591044 0.40742517 0.17910865 0.18106896 -0.0927451 0.12051751 0.3091151
0.45767635 -0.15993662 0.023821866 -0.09528063 0.048288044 0.1120175 0.06998118 -0.23119262
-1.0107117 -0.10171506 0.059045143 -0.21524708 -0.07639513 0.075732425 0.07625525 0.20025562
-0.0022831464 0.0511754 -0.21805555 0.294458 0.13582626 -0.113632485 -0.527267 -0.68986464
-0.4326587 -0.25270203 -0.118230335 -0.42173165 -0.5188586 -0.19383906 0.26668817 -0.13474186
0.11783135 -0.2704319 0.31926352 0.025972378 0.36750212 -0.2851161 0.47685927 -0.18255848
0.29921305 -0.109189406 0.19926266 0.101080246 -0.6182315 -0.08617198 -0.038740344 0.07814473
-0.1705277 -0.44488582 -0.16169278 -0.35096604 -0.7897883 -0.36741734 -0.74878585 -0.47560298
-0.100673795 -0.67230535 0.20265147 0.20877732 0.034354288 -0.065322176 -0.044692554 -0.24251437
-0.026079196 0.019020064 -0.27832964 -0.032459423 -0.011818958 -0.288564 -0.29068726 -0.27851802
-0.3580609 0.053256016 -0.005033506 -1.6576236 0.17677188 0.62343603 0.19669326 0.59097475
0.06789967 0.058695205 0.03179405 0.11232226 0.052127276 -0.07755281 -0.061209712 0.27006853
-0.1153046 -0.01777815 0.29755557 0.18287979 0.030179702 0.31463462 -1.5818392 -0.048741095
-0.38221264 0.13816676 -0.66985446 0.13928996 -0.45394588 0.20229739 -0.0059967153 -0.2871159
-0.14245835 -0.2677964 -0.019662261 -0.12628405 0.2147917 -0.29695576 0.3566872 -0.22174661
0.22394484 0.025274072 0.20086375 0.14535356 0.4520076 0.36407724 0.5495929 0.2833514
0.30491528 0.3040949 -0.18436868 0.31147212 -0.19401863 0.06468037 -0.14846787 -0.22237973
-0.1748309 0.019213228 0.16637696 0.50475883 0.3122367 0.13090947 0.16094814 0.10927819
-0.5482942 -0.45986205 -0.07765359 -0.16373533 -0.11773167 -0.2815045 -0.28506485 -0.10526505
-0.22188318 -0.050065544 -0.23579682 -0.16981956 -0.03032364 -0.34718376 -0.39722887 -0.108912125
0.037937425 -0.10220668 -0.41077042 0.25074404 -0.43325222 0.088362135 0.17372674 0.13229574
0.1108757 -0.058869008 0.15898362 -0.0010282075 -0.10439018 -0.020963164 -0.34424713 -0.12194956
-0.43108857 -0.04069488 -0.20463166 -0.06321863 0.18438877 0.11353929 0.39287198 0.096910655
-0.0077910707 0.12881692 -0.05781775 0.13670643 -0.022050159 -0.09096094 -0.06637568 -0.096801005
0.25768173 0.13364013 0.014134257 -0.037182435 -0.15177186 -0.010514042 -0.06641654 0.039840817
0.03873556 0.15699667 0.64112055 0.13897613 -0.08512609 0.26786265 -0.08290553 -0.11592116
-0.43410856 -0.12520674 0.22122552 -0.81111354 -0.07987742 0.0054830406 0.21015193 0.3088963
0.08328309 0.32639018 0.2057902 -0.012000632 0.056432217 0.04022279 0.24079205 0.07389783
-0.010452216 0.054911934 -0.023993656 0.25277886 0.08573699 -0.03846643 -0.1770631 0.085054986
00000000: 638b c83c e3e8 903e 6317 94be 50de 6ebe
00000010: 34bc f0bb 753e 923e f191 cd3d b504 88bc
00000020: 1a09 babc 7371 ce3e adcd e33e 0df2 0f3e
00000030: 3a21 acbd 948d 14be 8cb2 48be bd7f ecbe
00000040: ca74 79be 6509 9c3e 6a9d acbe 3f28 5abe
00000050: c1b8 acbd 7d0e f33e 7456 c33b ba47 4cbe
00000060: 7cc1 edbd 1e40 d83d 089a d03e 4268 373e
00000070: 246a 393e 25f1 bdbd e2d1 f63d 5644 9e3e
00000080: 8e54 ea3e 6dc6 23be 1326 c33c 7e22 c3bd
00000090: afc9 453d 6e69 e53d 4b52 8f3d c2bd 6cbe
000000a0: 005f 81bf fc4f d0bd 52d9 713d bb69 5cbe
000000b0: 0d75 9cbd 9a19 9b3d b62b 9c3d cf0f 4d3e
000000c0: d7a0 15bb 4c9d 513d f449 5fbe 33c3 963e
000000d0: 0a16 0b3e 26b8 e8bd f8fa 06bf f89a 30bf
000000e0: 7185 ddbe 2962 81be bf22 f2bd 36ed d7be
000000f0: ebd3 04bf bf7d 46be 5a8b 883e c5f9 09be
00000100: 9051 f13d 0d76 8abe 8276 a33e 06c4 d43c
00000110: 3d29 bc3e bdfa 91be e626 f43e 9cf0 3abe
00000120: 7432 993e b29e dfbd 830b 4c3e 2903 cf3d
00000130: 6b44 1ebf ef7a b0bd 32ae 1ebd 580a a03d
00000140: d09e 2ebe 13c8 e3be cb92 25be d2b1 b3be
00000150: 912f 4abf 201e bcbe 6eb0 3fbf 3c82 f3be
00000160: 102e cebd 341c 2cbf de83 4f3e b9c9 553e
00000170: 15b7 0c3d a2c7 85bd 8a0f 37bd b055 78be
00000180: 0aa4 d5bc f7cf 9b3c 3981 8ebe 2cf4 04bd
00000190: 4ea4 41bc a9be 93be f6d4 94be ea99 8ebe
000001a0: c253 b7be fb22 5a3d 1cf0 a4bb 032d d4bf
000001b0: b003 353e 8199 1f3f f569 493e 1f4a 173f
000001c0: fb0e 8b3d 626a 703d 7a3a 023d 3709 e63d
000001d0: 6983 553d 02d4 9ebd 09b7 7abd 6c46 8a3e
000001e0: d124 ecbd 7ca3 91bc 3459 983e d744 3b3e
000001f0: 6c3b f73c ca17 a13e b579 cabf bea4 47bd
00000200: 60b1 c3be 967b 0d3e 957b 2bbf 07a2 0e3e
00000210: 986b e8be 0c27 4f3e 1880 c4bb db00 93be
00000220: 9ae0 11be 9c1c 89be c012 a1bc 9b50 01be
00000230: 5bf2 5b3e 960a 98be b49f b63e 8b11 63be
00000240: cc51 653e 920b cf3c 3aaf 4d3e 90d7 143e
00000250: 8a6d e73e 5568 ba3e 1fb2 0c3f 6f13 913e
00000260: db1d 9c3e 54b2 9b3e 25cb 3cbe 4679 9f3e
00000270: d2ac 46be 2477 843d f607 18be 83b7 63be
00000280: df06 33be 0f65 9d3c b95e 2a3e e037 013f
00000290: 7ddd 9f3e 220d 063e 97cf 243e 3ecd df3d
000002a0: 025d 0cbf 0a73 ebbe d808 9fbd 3caa 27be
000002b0: 4d1d f1bd 5c21 90be 05f4 91be 3495 d7bd
000002c0: 5835 63be 8711 4dbd b974 71be 2ee5 2dbe
000002d0: 4869 f8bc 12c2 b1be 9561 cbbe 520d dfbd
000002e0: 4664 1b3d bc51 d1bd 8050 d2be 8661 803e
000002f0: 3cd3 ddbe 35f7 b43d 6ce5 313e 8978 073e
00000300: cd12 e33d a120 71bd 9acc 223e ebc4 86ba
00000310: 85ca d5bd f1ba abbc 2941 b0be b1c0 f9bd
00000320: a4b7 dcbe adaf 26bd f68a 51be c578 81bd
00000330: 69d0 3c3e 4a87 e83d 8426 c93e 1879 c63d
00000340: 3d4c ffbb 95e8 033e 4ed2 6cbd c5fc 0b3e
00000350: 89a2 b4bc bb49 babd f9ef 87bd 9b3f c6bd
00000360: dcee 833e f5d8 083e 5f93 673c 9c4c 18bd
00000370: 156a 1bbe 1743 2cbc 6505 88bd 2030 233d
00000380: 2ea9 1e3d bcc3 203e 7a20 243f c24f 0e3e
00000390: 9656 aebd 4b25 893e 60ca a9bd 1368 edbd
000003a0: 7a43 debe 3236 00be f188 623e 23a5 4fbf
000003b0: c696 a3bd 14ab b33b 1132 573e a827 9e3e
000003c0: 5390 aa3d 9d1c a73e abba 523e 4c9e 44bc
000003d0: 7825 673d a7c0 243d 3192 763e bf57 973d
000003e0: c53f 2bbc 56eb 603d 588e c4bc 3b6c 813e
000003f0: e096 af3d fa8e 1dbd 0750 35be 4f31 ae3d

convt1.bias f4 [8]
-0.030952549 0.0451387 -0.024891486 0.099956915 0.027234748 0.06540778 0.12660842 -0.016635878
00000000: 3390 fdbc 5ce3 383d 3be9 cbbc 36b6 cc3d
00000010: 681b df3c 84f4 853d a3a5 013e f747 88bc

convt2.weight f4 [8, 16, 5, 5]
-0.15720284 -0.37529984 -0.30799153 -0.8320066 -0.4556668 -0.030501474 -0.18953738 0.16521873
-0.16113621 -0.27773282 0.064860106 0.09469175 -0.15582016 0.013589375 -0.47270593 0.20160273
-0.08039427 -0.04397847 -0.13999595 -0.09987787 0.2924216 0.08352998 0.17557152 0.034108907
0.15956008 0.003253651 0.00257394 -0.045412544 0.16176908 -0.07234453 0.09864681 0.025151392
-0.05311431 0.09115897 0.08736444 0.24741338 -0.26617932 0.090110786 0.048133362 0.044011105
0.25188118 -0.015712535 -0.18741705 0.1713721 0.06058017 0.029729092 0.04074859 -0.0107275285
0.12734185 0.17694671 -0.61458004 -0.07585778 -0.4155987 -0.31536946 -0.08940499 0.041132938
-0.44600993 -0.22521618 0.21893592 -0.052876852 -0.18996744 -0.056056697 -0.02356667 -0.013146425
-0.16464658 -0.02961516 -0.2834708 -0.059567746 -0.57213926 -0.0802666 -0.033279106 -0.17498817
0.113120675 -0.18732582 0.35358712 0.058715474 0.023074765 0.0156036895 -0.111441806 -0.07253097
0.009238282 0.012690067 -0.09903748 -0.04209854 -0.09186284 -0.036580533 -0.19478887 -0.03857776
-0.14282894 -0.09165601 -0.113794476 -0.26171133 -0.08024366 -0.18907405 -0.10805634 -0.054180954
-0.07588669 -0.051705185 -0.13164088 -0.20809418 0.059740223 0.13895665 -0.008390372 0.060636736
-0.10982623 0.051595885 -0.23298424 -0.26084495 -0.055897836 -0.15340386 0.04003122 -0.065354355
-0.07636514 0.0684361 -0.12984514 -0.1632348 0.23851837 0.12077327 -0.017367518 0.12299094
-0.12630518 -0.0822649 -0.13644274 -0.101842694 -0.091285765 0.08899055 -0.5951766 -0.098241344
-0.06370918 -0.19815516 0.117882766 0.105980635 -0.2969017 -0.6864748 0.0013335687 0.016169488
-0.09139041 -0.116088115 0.0061728763 0.15174232 -0.010956582 0.047518972 -0.51287955 -0.3616904
-0.021835236 0.058036625 -0.5861489 -0.15706865 0.07089264 -0.048479404 0.18114297 0.07461292
-0.056674134 0.031764157 0.19749518 0.058174424 0.182721 0.052911967 0.047443975 0.12078799
-0.028592784 0.17795493 -0.0634242 -0.015441635 0.0786006 -0.048911646 -0.050137952 0.024691528
-0.17537984 0.14133662 0.14897951 -0.14155959 0.19938283 0.055301346 0.12735622 -0.14032501
-0.12247293 0.034669615 -0.30931297 -0.09134646 -0.18208866 -0.046018083 -0.095038466 -0.032260787
-0.21324901 -0.10465991 -0.04052284 -0.1372132 -0.016508121 -0.04578877 -0.0003015255 -0.03333548
-0.16764086 0.049175404 0.06950325 -0.115250595 -0.074184544 -0.024949351 -0.6117221 -0.05159067
-0.08311205 0.023509622 -0.13988674 -0.11004381 -0.024988422 8.953682e-05 0.08006385 -0.10410261
-0.13604863 0.008750101 0.05076544 -0.017502453 -0.0042501236 -0.004513894 -0.0069912206 0.16165344
0.22285786 -0.459822 -0.049215212 0.12377985 0.15762886 0.030094916 0.058107834 0.042922307
-0.0048911097 0.14847253 -0.16883601 0.21885224 -0.13132745 0.13646446 -0.013610715 -0.18423295
-0.018228631 -0.21964702 0.11066737 -0.0127193825 -0.17419887 -0.274 0.014441384 0.19114491
-0.27034882 -0.16408418 -0.13295896 0.046756107 -0.30008686 -0.30036762 -0.033858094 -0.1442569
-0.0014605519 -0.13898212 -0.03222363 -0.2043357 0.10390203 0.05614322 -0.15850748 0.2767404
00000000: c8f9 20be 4d27 c0be 11b1 9dbe 62fe 54bf
00000010: 294d e9be 3ade f9bc 1616 42be 192f 293e
00000020: e400 25be ff32 8ebe 60d5 843d c0ed c13d
00000030: 528f 1fbe f8a5 5e3c 8306 f2be f270 4e3e
00000040: c0a5 a4bd c522 34bd 195b 0fbe c58c ccbd
00000050: 49b8 953e c411 ab3d 05c9 333e c8b5 0b3d
00000060: b863 233e 353b 553b 8caf 283b 8102 3abd
00000070: cba6 253e 5e29 94bd 5707 ca3d 4b0a ce3c
00000080: 648e 59bd 8eb1 ba3d 21ec b23d ef59 7d3e
00000090: a848 88be 018c b83d 7d27 453d fd44 343d
000000a0: 92f6 803e 93b7 80bc 41ea 3fbe 2b7c 2f3e
000000b0: ea22 783d 6d8a f33c fee7 263d 84c2 2fbc
000000c0: e765 023e 8531 353e 1e55 1dbf 535b 9bbd
000000d0: 5ac9 d4be 1b78 a1be f719 b7bd 037b 283d
000000e0: 6a5b e4be 129f 66be bd30 603e 6695 58bd
000000f0: d386 42be b59b 65bd e40e c1bc 1a64 57bc
00000100: 1d99 28be 7e9b f2bc 1623 91be 4ffd 73bd
00000110: b877 12bf d162 a4bd ac4f 08bd 1930 33be
00000120: d0ab e73d 57d2 3fbe 5f09 b53e a37f 703d
00000130: 4a07 bd3c 9ea6 7f3c 9a3b e4bd 1e8b 94bd
00000140: 2a5c 173c 00ea 4f3c 2ad4 cabd 856f 2cbd
00000150: 9622 bcbd 78d5 15bd bc76 47be b703 1ebd
00000160: c041 12be 25b6 bbbd 140d e9bd 07ff 85be
00000170: ca56 a4bd a19c 41be a44c ddbd d9ec 5dbd
00000180: 7b6a 9bbd d1c8 53bd decc 06be a416 55be
00000190: 2ab2 743d a74a 0e3e c577 09bc 3a5e 783d
000001a0: 93ec e0bd 3556 533d 6c93 6ebe 788d 85be
000001b0: 21f5 64bd e715 1dbe c7f7 233d 81d8 85bd
000001c0: 5465 9cbd 3a28 8c3d 20f6 04be 0627 27be
000001d0: 293e 743e fa57 f73d 5346 8ebc ade2 fb3d
000001e0: 2556 01be 807a a8bd a5b7 0bbe e792 d0bd
000001f0: 08f4 babd ad40 b63d 7e5d 18bf c232 c9bd
00000200: f579 82bd 30e9 4abe 856c f13d 600c d93d
00000210: 8003 98be d0bc 2fbf 24cb ae3a e075 843c
00000220: e52a bbbd 9bbf edbd d745 ca3b 5762 1b3e
00000230: 3c83 33bc 41a3 423d 134c 03bf 7c2f b9be
00000240: cfdf b2bc d0b7 6d3d db0d 16bf 9bd6 20be
00000250: 2930 913d 5792 46bd 8b7d 393e a9ce 983d
00000260: 2323 68bd 221b 023d 2d3c 4a3e 4e48 6e3d
00000270: 371b 3b3e 38ba 583d 9d54 423d b25f f73d
00000280: 6a3b eabc d139 363e 8ce4 81bd e9fe 7cbc
00000290: 5af9 a03d 9457 48bd 745d 4dbd e345 ca3c
000002a0: c696 33be 8cba 103e 168e 183e fff4 10be
000002b0: 032b 4c3e aa83 623d ab69 023e 5cb1 0fbe
000002c0: 16d3 fabd ba01 0e3d 455e 9ebe da13 bbbd
000002d0: 7375 3abe 757d 3cbd 87a3 c2bd e323 04bd
000002e0: f35d 5abe ef57 d6bd 47fb 25bd 9e81 0cbe
000002f0: 0a3c 87bc 018d 3bbd 1116 9eb9 c98a 08bd
00000300: 0caa 2bbe 266c 493d b857 8e3d 8108 ecbd
00000310: 11ee 97bd 9562 ccbc d299 1cbf bd50 53bd
00000320: a736 aabd 4097 c03c 783e 0fbe a65e e1bd
00000330: 85b4 ccbc b7c5 bb38 84f8 a33d c033 d5bd
00000340: 5550 0bbe 955c 0f3c 6cef 4f3d 4e61 8fbc
00000350: 9f44 8bbb 4ae9 93bb 9c16 e5bb 7b88 253e
00000360: da34 643e ca6d ebbe e495 49bd 4a80 fd3d
00000370: 7669 213e 9d89 f63c 7b02 6e3d 4dcf 2f3d
00000380: 9a45 a0bb 2f09 183e 59e3 2cbe cd1a 603e
00000390: b47a 06be 57bd 0b3e 7aff 5ebc 90a7 3cbe
000003a0: 3654 95bc 26eb 60be 93a5 e23d f564 50bc
000003b0: 3061 32be ba49 8cbe 8e9b 6c3c 7ebb 433e
000003c0: 296b 8abe af05 28be 6526 08be 5583 3f3d
000003d0: fca4 99be c9c9 99be c9ae 0abd 15b8 13be
000003e0: fd6f bfba 5451 0ebe edfc 03bd 613d 51be
000003f0: 96ca d43d 6ff6 653d c94f 22be ebb0 8d3e

convt2.bias f4 [16]
0.057733424 0.12543254 0.02735826 0.12312735 0.016618716 0.16198522 0.084523976 -0.0062050316
0.13340466 0.043466903 -0.026479095 -0.018157251 0.0133383665 0.14170265 -0.00591973 0.16345285
00000000: e279 6c3d 6371 003e 6e1e e03c 312a fc3d
00000010: f923 883c 74df 253e e81a ad3d 9453 cbbb
00000020: 3b9b 083e 5a0a 323d b0ea d8bc 84be 94bc
00000030: 2a89 5a3c 801a 113e 4bfa c1bb 2f60 273e

convt3.weight f4 [16, 32, 9, 9]
-0.6431382 -0.15444933 -0.07640452 -0.7943215 -0.011062348 -0.55592096 -0.477456 -0.08812395
-0.44684577 -0.22657722 0.09528506 -0.10825726 -0.068833634 -0.33382583 0.05872355 0.07856015
0.067096345 -0.26803288 -0.1744672 -0.18478678 0.09073726 -0.2584532 -0.14736602 -0.00809058
-0.07348678 -0.010992686 0.0890805 -0.33605796 -0.08362679 -0.4618491 -0.4061319 -0.20171405
-0.10643192 -0.31706864 -0.36135313 -0.425049 -0.29670203 0.01121006 -0.4976529 -0.3811758
-0.34340295 -0.084671386 -0.1534246 -0.2214466 -0.31805387 -0.09231987 -0.6121197 -0.08433859
-0.14765145 -0.52425945 -0.15414739 -0.34888053 -0.39263508 -0.1237958 0.12980789 -0.27846605
0.113382526 -0.15361002 -0.5955388 -0.12476479 -0.11342192 0.029830093 0.049305093 -0.10834645
0.0002277304 -0.4168178 -0.0422972 -0.012066478 0.023083061 -0.08672466 0.025977278 -0.2545594
-0.033680048 -0.26311162 -0.27350825 -0.04212637 -0.1991832 -0.050707992 -0.09994191 -0.23995535
-0.09876264 -0.2821643 -0.2395993 -0.2328253 -0.45532495 -0.63678634 -0.42000973 -0.41347885
-0.5043292 -0.5226523 -0.17025885 0.051775433 -0.090356186 -0.110447206 -0.18954399 -0.01039802
0.026997184 0.10962873 -0.10955128 -0.2439812 -0.01476822 -0.1642228 -0.21711223 -0.28015554
-0.45479196 -0.13942322 -0.42418736 -0.3821262 -0.22981471 -0.29426026 -0.16353476 -0.36065975
-0.48373407 -0.33947694 -0.29514349 -0.364544 -0.38788745 -0.051117953 -0.30152494 0.050786857
-0.13215184 -0.33772218 -0.11234584 -0.101548575 -0.24004765 -0.17754157 -0.34959066 -0.16377048
-0.264149 -0.5451165 -0.011801208 -0.5271818 -0.34111035 -0.27532762 -0.47497106 -0.13027166
-0.10998982 -0.1252802 -0.23253693 -0.39706755 -0.34675846 -0.08250582 -0.26182097 -0.22177453
-0.1940007 -0.27677244 -0.19841073 -0.40434098 -0.45139173 -0.15185294 -0.25386658 -0.31159562
-0.35529712 -0.29817292 -0.06487745 -0.17095084 -0.45538485 -0.2935165 -0.4827018 -0.34666494
-0.27240118 -0.44970784 -1.0876887 0.19827484 -0.6792837 -0.87456286 -0.5573207 -0.82635
-0.65359646 -0.16286997 -1.0704393 0.0868769 -0.1451029 -0.6267928 0.1264306 -0.12554972
-0.04670993 -0.51542825 0.011319939 -0.16149531 -0.051074576 -0.5919446 -0.5739966 -0.23814869
-0.8410948 -0.44123197 -0.18521146 -0.74078476 -0.68454546 -0.4167986 0.16408166 -0.34410322
-0.21712086 -0.31702396 -0.4713499 -0.037514422 -0.22052787 -0.35344547 -0.28724307 -0.37137246
-0.15828052 -0.0033456308 -0.38230786 0.1366787 -0.6113715 -0.14614508 -0.37056822 -0.17951551
-0.39787602 -0.28708953 -0.0268748 -0.32381144 -0.58435774 -0.059287712 -0.32111266 -0.2844107
-0.8407571 0.07434534 -0.8107589 -0.71696305 -0.26218393 -0.7205607 -0.2772612 -0.26788613
-0.44956055 -0.24818341 -0.36548743 0.06777626 0.08981019 -0.53157526 -0.07966484 -0.99768597
-0.07157493 -0.5738213 -0.42648888 -0.61395407 -0.78960484 -0.5403183 -0.7437378 -0.6509721
-0.1995697 -0.42953324 -0.33755693 -0.3668543 -0.10337458 -0.2384962 -0.14514452 -0.3357855
-0.08016578 -0.24115105 0.09694219 -0.51784045 -0.12016822 0.16578458 -0.33217004 -0.3420254
00000000: b4a4 24bf f727 1ebe f979 9cbd a758 4bbf
00000010: da3e 35bc d650 0ebf 1d75 f4be 547a b4bd
00000020: f8c8 e4be dc03 68be d024 c33d fbb5 ddbd
00000030: a6f8 8cbd 38eb aabe 1b88 703d 25e4 a03d
00000040: cf69 893d 9b3b 89be 88a7 32be bf38 3dbe
00000050: 75d4 b93d fa53 84be 1ee7 16be 5a8e 04bc
00000060: 3d80 96bd ab1a 34bc d66f b63d ca0f acbe
00000070: 8644 abbd 7c77 ecbe 85f0 cfbe 218e 4ebe
00000080: faf8 d9bd d256 a2be 4703 b9be 06a0 d9be
00000090: 54e9 97be 66aa 373c 5ccc febe 7929 c3be
000000a0: 83d2 afbe 3168 adbd 571b 1dbe e6c2 62be
000000b0: f5d7 a2be 3312 bdbd e0b3 1cbf b6b9 acbd
000000c0: f131 17be de35 06bf d0d8 1dbe 78a0 b2be
000000d0: 7707 c9be a788 fdbd 5cec 043e 1a93 8ebe
000000e0: 1935 e83d f24b 1dbe 3b75 18bf af84 ffbd
000000f0: c049 e8bd 3d5e f43c 23f4 493d bee4 ddbd
00000100: eaca 6e39 2569 d5be d43f 2dbd 7ab2 45bc
00000110: b018 bd3c b39c b1bd 4dce d43c 9c55 82be
00000120: 17f4 09bd 91b6 86be 4609 8cbe b38c 2cbd
00000130: aef6 4bbe 2fb3 4fbd 58ae ccbd dbb6 75be
00000140: 1144 cabd d777 90be 8559 75be c169 6ebe
00000150: 5a20 e9be 6e04 23bf 840b d7be 80b3 d3be
00000160: b81b 01bf 8bcc 05bf 5658 2ebe 7a12 543d
00000170: aa0c b9bd 2532 e2bd d217 42be 755c 2abc
00000180: 3329 dd3c 0785 e03d 6c5c e0bd 35d6 79be
00000190: 67f6 71bc 062a 28be ab52 5ebe 8c70 8fbe
000001a0: 7eda e8be f6c4 0ebe 162f d9be 0ca6 c3be
000001b0: 8c54 6bbe 48a9 96be a875 27be 65a8 b8be
000001c0: feab f7be eccf adbe 0c1d 97be 83a5 babe
000001d0: 2f99 c6be 0f61 51bd 7a61 9abe e105 503d
000001e0: d052 07be ece9 acbe 9315 e6bd b3f8 cfbd
000001f0: 0dcf 75be 75cd 35be 8cfd b2be 73b3 27be
00000200: 8a3e 87be c18c 0bbf db59 41bc 63f5 06bf
00000210: 04a6 aebe bef7 8cbe 682f f3be ef65 05be
00000220: 5842 e1bd 7449 00be 291e 6ebe 704c cbbe
00000230: 538a b1be d0f8 a8bd 660d 86be dd18 63be
00000240: 1fa8 46be 1eb5 8dbe 2f2c 4bbe c805 cfbe
00000250: d11c e7be 567f 1bbe cdfa 81be 7689 9fbe
00000260: 81e9 b5be 1faa 98be 78de 84bd bd0d 2fbe
00000270: 3428 e9be cb47 96be b124 f7be 117e b1be
00000280: 2b78 8bbe 1b40 e6be 6239 8bbf 8f08 4b3e
00000290: 89e5 2dbf 5ae3 5fbf 92ac 0ebf ac8b 53bf
000002a0: 1952 27bf 63c7 26be 2804 89bf 84ec b13d
000002b0: db95 14be 7e75 20bf 0677 013e 1b90 00be
000002c0: e952 3fbd 1bf3 03bf 4477 393c 075f 25be
000002d0: 9333 51bd ae89 17bf 71f1 12bf 40dd 73be
000002e0: fd51 57bf 28e9 e1be 13a8 3dbe 12a4 3dbf
000002f0: 5f3e 2fbf a066 d5be 0605 283e 4c2e b0be
00000300: ee54 5ebe f750 a2be c654 f1be b9a8 19bd
00000310: 0fd2 61be cef6 b4be 8611 93be 8824 bebe
00000320: 4a14 22be 5f42 5bbb dbbd c3be 80f5 0b3e
00000330: d882 1cbf 0ea7 15be 1ebb bdbe ead2 37be
00000340: 68b6 cbbe 66fd 92be 8a28 dcbc 9dca a5be
00000350: 7898 15bf acd7 72bd e168 a4be 479e 91be
00000360: db3b 57bf 5f42 983d e58d 4fbf e48a 37bf
00000370: f93c 86be ab76 38bf 2ef5 8dbe 5f28 89be
00000380: cd2c e6be cb23 7ebe 2b21 bbbe 48ce 8a3d
00000390: 68ee b73d 5115 08bf 5227 a3bd 5968 7fbf
000003a0: e095 92bd f4e5 12bf c05c dabe 182c 1dbf
000003b0: 8b23 4abf 4d52 0abf 9a65 3ebf 1ca6 26bf
000003c0: 005c 4cbe c8eb dbbe 43d4 acbe 54d4 bbbe
000003d0: 0db6 d3bd 5938 74be c4a0 14be 14ec abbe
000003e0: f52d a4bd 4df0 76be a089 c63d 3191 04bf
000003f0: c11a f6bd 6fc3 293e 3112 aabe f41d afbe

convt3.bias f4 [32]
0.13919534 0.11438086 0.12825133 0.15863656 0.097098865 0.047563866 -0.2848165 0.06610438
0.09975767 0.10181194 0.056650102 0.16402055 0.22034478 -0.16951796 0.21188322 0.106159925
0.15743007 0.027793337 0.12094338 0.050406475 0.18783113 0.11098546 0.14383236 0.19013709
0.07065229 0.082159184 0.06583253 0.066136524 0.08520081 0.10152802 -0.3154628 0.110625125
00000000: 3989 0e3e 8340 ea3d 5154 033e 9f71 223e
00000010: c5db c63d 54d2 423d 78d3 91be bc61 873d
00000020: c04d cc3d c782 d03d f009 683d 01f5 273e
00000030: 10a2 613e 1e96 2dbe eaf7 583e 606a d93d
00000040: 5935 213e daae e33c 2ab1 f73d 0577 4e3d
00000050: ce56 403e 584c e33d ca48 133e 4cb3 423e
00000060: 26b2 903d 1343 a83d 35d3 863d 9672 873d
00000070: c37d ae3d eced cf3d 5784 a1be 6d8f e23d

pos_output.weight f4 [1, 32, 2, 2]
0.109237716 0.08889184 0.15612322 0.22624578 0.13997929 0.14786287 0.1668334 0.15906586
-0.0014391526 -0.045739233 0.020272417 -0.03507074 0.18910873 0.12975577 0.09485224 0.1608167
0.027832437 0.08514818 0.0744456 0.17905118 0.0054354807 -0.24076353 0.13324288 -0.17338297
-0.21311519 -0.26064584 -0.30818525 -0.30535275 -0.12921152 0.11001881 0.0032181249 0.4143148
0.3124969 0.30882227 0.26221338 0.22425929 -0.0272538 0.08088172 0.0641882 0.057442777
0.2874761 0.32465324 0.38182667 0.3008411 0.39780912 0.3900455 0.37062508 0.2844971
-0.08304306 -0.023903476 0.115320556 0.024067493 -0.28924733 -0.25952074 -0.26957935 -0.22399156
-0.06826698 -0.038741812 0.15983705 -0.14921083 0.04509526 -0.20773193 0.1891219 -0.04995622
-0.042632274 -0.07410157 0.06935382 0.039755836 -0.23061408 -0.18455535 -0.21576305 -0.14584623
0.106709465 0.14329976 0.06746992 0.07496076 0.27342582 0.17403375 0.2547301 0.23219717
-0.19215102 -0.04270999 0.10327477 0.028789716 -0.2188861 -0.1466158 -0.18022114 -0.16259773
-0.117662355 0.01660379 0.06706026 -0.064558804 0.08662271 0.14586253 -0.118663654 0.08552397
-0.09619358 0.033625063 0.015496857 -0.010382964 -0.04659543 0.016760703 -0.24099632 -0.11000235
0.1145031 0.121004194 0.123065375 0.04543425 -0.10993183 -0.13104407 -0.15346338 -0.15794575
0.37571487 0.352155 0.27586076 0.281812 0.16041058 0.093922466 0.06529929 0.040617965
0.01773128 0.01898253 0.008227611 -0.0058501237 0.09159911 0.12503888 0.15878773 0.18662941
00000000: 06b8 df3d ed0c b63d c4de 1f3e f9ac 673e
00000010: bb56 0f3e 5d69 173e 60d6 2a3e 29e2 223e
00000020: f3a1 bcba 1059 3bbd 5712 a63c 56a6 0fbd
00000030: b8a5 413e b2de 043e e441 c23d 22ad 243e
00000040: da00 e43c 2b62 ae3d ef76 983d 3159 373e
00000050: 1e1c b23b b78a 76be d270 083e 4e8b 31be
00000060: de3a 5abe 5f73 85be 75ca 9dbe 3257 9cbe
00000070: 0650 04be 8b51 e13d 2de7 523b 1221 d43e
00000080: 98ff 9f3e f41d 9e3e d540 863e 3aa4 653e
00000090: 5c43 dfbc 51a5 a53d 1a75 833d 1e49 6b3d
000000a0: 1130 933e f338 a63e c97e c33e d807 9a3e
000000b0: a3ad cb3e 0bb4 c73e 92c2 bd3e 9ba9 913e
000000c0: 7b12 aabd 39d1 c3bc 2f2d ec3d 3129 c53c
000000d0: 3a18 94be e7df 84be 4e06 8abe 0b5e 65be
000000e0: 8fcf 8bbd bcaf 1ebd 53ac 233e b9ca 18be
000000f0: cfb5 383d aeb7 54be 2ca9 413e e59e 4cbd
00000100: 2e9f 2ebd 90c2 97bd 6009 8e3d 04d7 223d
00000110: 1926 6cbe 14fc 3cbe fdf0 5cbe b758 15be
00000120: 7e8a da3d 2cbd 123e ab2d 8a3d 0785 993d
00000130: 78fe 8b3e e735 323e fc6b 823e 18c5 6d3e
00000140: 3dc3 44be acf0 2ebd b981 d33d 69d8 eb3c
00000150: ae23 60be 7422 16be e48b 38be 0580 26be
00000160: f6f8 f0bd ac04 883c e456 893d 6837 84bd
00000170: 3f67 b13d fd5c 153e ee05 f3bd 3127 af3d
00000180: 2401 c5bd 6fba 093d 88e6 7d3c 4f1d 2abc
00000190: d9da 3ebd be4d 893c bdc7 76be e948 e1bd
000001a0: 9a80 ea3d 0cd1 f73d b309 fc3d 4419 3a3d
000001b0: f023 e1bd 6b30 06be 8125 1dbe 88bc 21be
000001c0: b35d c03e a94d b43e 9f3d 8d3e aa49 903e
000001d0: ac42 243e 6c5a c03d a2bb 853d 065f 263d
000001e0: 3041 913c 4081 9b3c 1acd 063c 65b2 bfbb
000001f0: 5098 bb3d 310a 003e 4099 223e c81b 3f3e

cos_output.weight f4 [1, 32, 2, 2]
-0.42289776 -0.31652868 -0.49286547 -0.5264633 -0.11418952 -0.11645932 -0.20235309 -0.16733651
-0.19229501 -0.21827455 -0.31621653 -0.2061459 -0.52549094 -0.42891976 -0.44062954 -0.53523636
0.17935126 0.12413394 0.14439958 0.0390908 -0.26164913 -0.060093407 0.040101722 0.23046368
0.12008761 0.17090781 0.18129112 0.20198774 0.20759727 -0.030728862 0.12321217 -0.10704689
-0.50462013 -0.48048636 -0.36029166 -0.32842365 0.19524679 -0.074493304 0.123743206 -0.14941166
-0.10987213 -0.005232738 -0.15135813 -0.028929194 -0.27474236 -0.34010023 -0.19124708 -0.12324579
0.23514679 0.11026622 0.20862384 0.2688862 0.3206712 0.26976243 0.28831252 0.2699414
0.17744969 0.1505457 0.15868446 0.15603629 0.024271721 0.17488633 -0.21298964 -0.0001928098
-0.31163344 -0.2744389 -0.35083377 -0.37175944 0.16712391 0.17633621 0.20033866 0.14260153
-0.29752126 -0.39365935 -0.28056994 -0.35751823 -0.072056636 -0.095496155 -0.10246272 -0.07813973
0.09214955 0.2230475 0.23383382 0.056296352 0.3436004 0.33681887 0.3070678 0.29667625
0.07463332 0.09092617 0.1572706 0.1583076 0.027713811 0.21473758 0.14085284 0.27058092
-0.10854923 -0.05059433 -0.0116215665 0.16079715 -0.15056963 -0.13746193 0.14642346 0.10092536
-0.29014632 -0.2868984 -0.22558236 -0.21520746 0.050551575 0.06755555 0.10586536 0.092170246
-0.062367324 -0.08913882 -0.04228666 -0.10959334 -0.104286335 -0.10320329 0.10733321 0.09725615
-0.09927973 -0.18487865 -0.18084322 -0.09649597 -0.12673068 -0.14003316 -0.2806466 -0.26847926
00000000: 0e86 d8be 0c10 a2be dd58 fcbe 4dc6 06bf
00000010: 32dc e9bd 3982 eebd a635 4fbe 435a 2bbe
00000020: fce8 44be 5d83 5fbe 22e7 a1be e917 53be
00000030: 9386 06bf 5f9b dbbe 329a e1be 4005 09bf
00000040: dba7 373e ef39 fe3d 7cdd 133e ad1d 203d
00000050: e0f6 85be 8124 76bd b441 243d acfe 6b3e
00000060: 7ef0 f53d 7502 2f3e 61a4 393e e0d5 4e3e
00000070: 6194 543e 18bb fbbc aa56 fc3d 663b dbbd
00000080: c92e 01bf 4f02 f6be 2678 b8be 2527 a8be
00000090: c6ee 473e f28f 98bd 146d fd3d 5fff 18be
000000a0: a404 e1bd 6377 abbb a0fd 1abe ebfc ecbc
000000b0: 08ab 8cbe 9e21 aebe 46d6 43be 4a68 fcbd
000000c0: 52ca 703e 42d3 e13d 7da1 553e 74ab 893e
000000d0: 042f a43e 4d1e 8a3e b39d 933e c235 8a3e
000000e0: 5fb5 353e a728 1a3e 2e7e 223e fac7 1f3e
000000f0: 7dd5 c63c 6715 333e f519 5abe fd2c 4ab9
00000100: 6b8e 9fbe 4183 8cbe 7ca0 b3be 4157 bebe
00000110: 8822 2b3e 7b91 343e 9425 4d3e 2306 123e
00000120: b554 98be b88d c9be dda6 8fbe a10c b7be
00000130: 6e92 93bd 7d93 c3bd f9d7 d1bd b907 a0bd
00000140: e7b8 bc3d 9066 643e 2272 6f3e 0197 663d
00000150: 64ec af3e 8673 ac3e fe37 9d3e f3e5 973e
00000160: 5bd9 983d 8037 ba3d 8b0b 213e 631b 223e
00000170: 1308 e33c 2be4 5b3e ba3b 103e 9589 8a3e
00000180: 0f4f debd 003c 4fbd 6268 3ebc 02a8 243e
00000190: ed2e 1abe d2c2 0cbe 08f0 153e f5b1 ce3d
000001a0: 0f8e 94be 59e4 92be 10ff 66be 585f 5cbe
000001b0: 2b0f 4f3d 905a 8a3d f0cf d83d c1c3 bc3d
000001c0: e174 7fbd 6a8e b6bd c734 2dbd 7972 e0bd
000001d0: 1394 d5bd 3f5c d3bd 84d1 db3d 3b2e c73d
000001e0: 2c53 cbbd d450 3dbe f72e 39be ae9f c5bd
000001f0: b0c5 01be da64 0fbe e9b0 8fbe 1d76 89be

sin_output.weight f4 [1, 32, 2, 2]
0.12130056 0.08691917 0.14487296 0.1500065 0.4814326 0.4972433 0.51561826 0.5287541
-0.3439124 -0.3922035 -0.41445342 -0.31434345 0.09961933 0.07084354 0.0419988 0.041626833
0.013522959 -0.06781119 -0.04901603 -0.109975636 -0.031863946 0.10595645 -0.118244186 -0.053438447
0.071800165 0.083817065 0.05399389 0.08131223 0.005258321 -0.053095285 0.048577014 -0.05005796
0.01256296 -0.04869872 0.022077955 -0.046090513 -0.08520398 0.16275337 0.11513626 -0.06382703
0.06654539 0.047417413 0.042947635 0.12165463 -0.056399573 -0.039668445 -0.016898662 -0.053292964
0.057158124 -0.12492119 -0.042692177 0.21563697 -0.058436032 -0.068668604 -0.055770855 -0.06468619
0.036196694 -0.10231029 -0.06216505 -0.040539414 -0.0035327324 0.011977278 0.022593234 -0.0036881522
-0.04236734 -0.027694428 0.019819316 -0.0032214953 0.04598901 0.009904192 0.03613451 0.05252484
0.11018144 0.15908642 0.1694826 0.12039598 -0.26128426 -0.19199662 -0.23994668 -0.28163716
0.0113118645 0.19264527 0.0059426404 -0.083324336 0.0025858437 -0.027172454 -0.027694678 0.0041178986
-0.11817451 -0.08834204 0.124518596 -0.07422551 -0.01700722 -0.11165985 0.11132364 0.027339969
0.10203122 0.0044159517 0.22681555 -0.12773098 0.030234689 0.037188448 -0.034287456 0.00094028946
-0.05526074 -0.080772296 -0.045480832 -0.06631306 0.01924639 0.012270362 0.0057317293 0.020447765
-0.22324465 -0.2294941 -0.17271289 -0.24388264 0.27011502 0.2706172 0.25676003 0.19047247
-0.0033201505 -0.018669738 -0.017595101 -0.0045416662 -0.0092246765 -0.013703332 0.0008506823 -0.010157846
00000000: 6e6c f83d ae02 b23d 9459 143e 4e9b 193e
00000010: 557e f63e ac96 fe3e 8fff 033f 6e5c 073f
00000020: 4915 b0be e6ce c8be 3d33 d4be a0f1 a0be
00000030: 3805 cc3d 6b16 913d ef06 2c3d e680 2a3d
00000040: 678f 5d3c 98e0 8abd 08c5 48bd e83a e1bd
00000050: c583 02bd b2ff d83d 022a f2bd 46e2 5abd
00000060: f70b 933d 48a8 ab3d b228 5d3d 0787 a63d
00000070: fe4d ac3b 717a 59bd b1f8 463d 9309 4dbd
00000080: e0d4 4d3c 4f78 47bd d4dc b43c 68c9 3cbd
00000090: 6d7f aebd d2a8 263e 8fcc eb3d bfb7 82bd
000000a0: f348 883d c338 423d dce9 2f3d 1026 f93d
000000b0: 3d03 67bd 617b 22bd 106f 8abc b949 5abd
000000c0: a31e 6a3d aed6 ffbd fedd 2ebd f0cf 5c3e
000000d0: 9f5a 6fbd 20a2 8cbd fb6f 64bd 317a 84bd
000000e0: fc42 143d 0f88 d1bd c8a0 7ebd a80c 26bd
000000f0: 6a85 67bb 583c 443c 7215 b93c edb4 71bb
00000100: 6089 2dbd 6ddf e2bc 1e5c a23c b91f 53bb
00000110: f95e 3c3d 3145 223c c801 143d 4924 573d
00000120: cfa6 e13d 8de7 223e d98c 2d3e 2b92 f63d
00000130: 0dc7 85be c39a 44be 95b4 75be bf32 90be
00000140: 6655 393c cd44 453e 7bba c23b f3a5 aabd
00000150: 4277 293b c498 debc f3df e2bc 70ef 863b
00000160: 7a05 f2bd acec b4bd 9b03 ff3d 8b03 98bd
00000170: ba52 8bbc ebad e4bd a6fd e33d 12f8 df3c
00000180: bff5 d03d b0b3 903b 5642 683e e9cb 02be
00000190: bdae f73c ea52 183d 0171 0cbd c27d 763a
000001a0: 1659 62bd f26b a5bd 1c4a 3abd 24cf 87bd
000001b0: 9baa 9d3c a109 493c 3bd1 bb3b 1282 a73c
000001c0: 3f9a 64be 8000 6bbe a6db 30be 5fbc 79be
000001d0: 844c 8a3e 568e 8a3e 0d76 833e 370b 433e
000001e0: e296 59bb 47f1 98bc 9a23 90bc 42d2 94bb
000001f0: 1923 17bc f183 60bc 5300 5f3a 186d 26bc
