ggcnn_base/output/models/230121_1510_training_example/epoch_30_iou_0.69_statedict.pt (torch, 256417 bytes, 16 tensors)

conv1.weight f4 [32, 1, 9, 9]
000000 22 28 b7 bc 74 d4 8f bc b8 bb 11 bd 59 81 6d bc
       -0.022358004 -0.01755736 -0.035579413 -0.014496171
000010 ef d9 19 bd 81 f3 18 bc 43 ad 1b 3d ab 06 19 3d
       -0.037561353 -0.0093354 0.038007032 0.037359875
000020 99 c3 ce 3c b1 99 d6 bc 05 b6 9f 3a 43 2a b3 bc
       0.025239753 -0.026196333 0.0012184983 -0.021870738
000030 57 3f 30 bd 16 45 e5 bc 38 a9 77 3b 6e 27 7e 3c
       -0.043029156 -0.027987044 0.0037790071 0.01551233
000040 a4 8f 50 bd e2 0d a9 bc 81 ed 0f 3c 0a fc d9 3c
       -0.050918236 -0.020636503 0.008784653 0.02660944
000050 f7 14 3e 3d 03 87 2a 3c d1 52 07 3d 61 9b 79 3c
       0.046406712 0.010408166 0.033037964 0.015234799
000060 11 c8 21 bd 22 98 df bb 04 30 5b bd f9 aa d1 3c
       -0.03949744 -0.0068235556 -0.05351259 0.025594221
000070 e4 1d 0e bd 44 f9 b2 bc c2 7a e8 bb d8 62 0a 3c
       -0.034696475 -0.021847375 -0.007094712 0.008446418
000080 5c 75 22 3d c7 19 ff 3c db 78 35 bd a5 6b 67 bb
       0.039662704 0.031140221 -0.04430471 -0.0035311964
000090 05 aa c1 bc a6 3d 48 bc 5f bb 32 3c 64 89 0d 3c
       -0.023640642 -0.012221729 0.010908931 0.0086387135
0000a0 c9 b8 81 3b 6f 9a f2 3c 57 b7 16 bd 8d 53 2d bd
       0.0039587957 0.029614655 -0.03679594 -0.04231601
0000b0 58 c7 a7 3c 94 f0 a9 39 4a 5a a8 3c 54 f6 bb bb
       0.020480797 0.00032413437 0.020550866 -0.0057361517
0000c0 1c b6 f2 bc 32 b0 8c 3a 90 7a a1 38 8d 06 25 3d
       -0.029627852 0.0010733663 7.699907e-05 0.04028945
0000d0 90 5b f5 3c 7a 15 55 b9 0d b1 1a bd fd d2 25 3c
       0.029950887 -0.00020321264 -0.037766505 0.010121104
0000e0 41 36 25 3d b0 24 d6 bb 46 13 12 bd 34 36 1d 3d
       0.040334944 -0.006535135 -0.03566291 0.03838177
0000f0 a0 57 2e bc 2f 32 57 3c 58 36 28 3d 4f 7b 14 3d
       -0.010641009 0.013134523 0.04106745 0.03625041
000100 0e 03 51 bc 4c d0 bc ba 61 65 19 bd 8b a0 0f 3d
       -0.012757076 -0.0014405339 -0.037450198 0.035065215
000110 2a 7e f5 bb 00 0b a6 bb 98 94 d2 b9 04 f3 bc 3b
       -0.0074918466 -0.0050672293 -0.00040165032 0.0057662744
000120 a7 1f 80 bc 83 9e 9a 3c d1 43 07 3d 39 01 12 3d
       -0.015640093 0.018874412 0.03302366 0.035645697
000130 bb 1a bc 3b 90 d1 58 bd e9 87 91 bc ad e4 96 bc
       0.005740491 -0.05293423 -0.017765002 -0.018419588
000140 43 8e 26 3d 8d b7 b5 be dc 38 9f be 88 e3 a9 be
       0.040663015 -0.354916 -0.31098068 -0.33181405
000150 e3 64 a4 be ae 79 b6 be e9 c7 92 be 2d f4 f9 bd
       -0.3210822 -0.3563971 -0.28668144 -0.12204776
000160 fc 4e b2 bd cf 80 95 bd 71 94 ad be eb ee 98 be
       -0.08706471 -0.07299959 -0.33902314 -0.2986978
000170 94 bd 79 be 69 55 5e be ec 6c 82 be d5 65 94 be
       -0.24388725 -0.21712269 -0.25473726 -0.28983942
000180 46 2e 2c bd 04 1b ba bb cc 90 66 3d fa b5 72 be
       -0.042036317 -0.00567949 0.056290433 -0.23702231
000190 5a 34 48 be 3e 8b 83 be 75 ec 21 be 02 70 51 be
       -0.1955122 -0.2569217 -0.15812857 -0.20452884
0001a0 0c 06 34 be 63 b1 94 bc 15 fd b6 3c fa eb b9 3d
       -0.17580432 -0.01815099 0.022337476 0.09078212
0001b0 a2 2d 11 be 35 4c ce bd c0 51 eb bd e7 19 b4 bd
       -0.14177564 -0.10073129 -0.11490202 -0.08794003
0001c0 f6 21 ca bd 75 fd 4e bd 78 fa cc 3d ff a8 28 3e
       -0.09869759 -0.050534684 0.100087106 0.16470717
0001d0 3f 69 95 3e 9b e1 60 bd 80 c3 4b bd e5 16 9a bd
       0.2918186 -0.054902654 -0.04974699 -0.07523898
0001e0 8f 7e d1 bb f9 23 26 3d 81 7b b7 3c 15 d9 50 3e
       -0.006393261 0.04056165 0.022397758 0.2039531
0001f0 95 46 a2 3e a4 e0 d6 3e 85 c5 77 bd 5a 1d 9a 3c
       0.31694475 0.41968262 -0.060491104 0.018812824
000200 ac 6d 14 bd 5b e3 aa 3d 97 92 d9 3c f9 61 6d 3d
       -0.036237404 0.08344146 0.026559157 0.057954762
000210 18 1b 8e 3e c0 ce c9 3e 7a 1d 03 3f 80 4c 55 bd
       0.27755046 0.3941555 0.5121685 -0.05207491
000220 7b 19 55 bc 90 f0 c2 bc 9a c8 ae bb b1 cd a6 3a
       -0.013006563 -0.02379635 -0.005333972 0.0012726096
000230 ad 36 6f 3d 68 42 a2 3e 0b 41 cb 3e 77 11 fa 3e
       0.058401752 0.3169129 0.3969806 0.4884145
000240 81 0b 30 bd 4e b9 b7 bc 35 f8 1e bd 00 a9 56 bc
       -0.04297972 -0.022427227 -0.038810927 -0.013101816
000250 0c e4 fe bc db 75 e9 3c 50 f7 96 3e 34 31 cf 3e
       -0.0311146 0.02849858 0.2948556 0.40467227
000260 58 18 08 3f e4 13 e4 bd 78 81 9f bd 09 13 1d bc
       0.53162146 -0.11136606 -0.07788366 -0.009587058
000270 b0 c6 f8 bc cb a4 39 3d dd 90 30 3d 2c 36 a2 3e
       -0.03036818 0.045323174 0.043106902 0.31681955
000280 e8 b5 ca 3e 70 36 ed 3e 76 7c 65 be 55 c5 91 be
       0.39591908 0.46330595 -0.2241076 -0.28470865
000290 ea 2c b3 be 87 6c 3c be af 8c 93 be 20 f8 73 be
       -0.34995204 -0.18400775 -0.2881827 -0.23825121
0002a0 8d 56 87 be a5 5d 90 be 8f 8c 82 be fb c4 14 be
       -0.2643322 -0.28196445 -0.25497863 -0.14528267
0002b0 a9 c4 4f be 3b 03 63 be c0 d4 db bd 00 37 c1 bd
       -0.20289864 -0.22169201 -0.10733938 -0.094343185
0002c0 f0 e2 0e be 32 f7 2d be 80 60 1d be 95 47 02 be
       -0.13953757 -0.16988829 -0.15368843 -0.12722619
0002d0 a9 3f 99 bd 24 8b 75 bd 78 b4 28 be cf e9 7f bd
       -0.07482845 -0.059947148 -0.16475093 -0.062478837
0002e0 b0 3c 05 bd aa 4b c3 bc 6e b0 ad bd ab c3 08 bd
       -0.03252858 -0.02383979 -0.08480917 -0.03338973
0002f0 77 f9 de bb 74 41 da bc 05 1f d0 bd 6a 6e 0f be
       -0.006804641 -0.026642539 -0.101621665 -0.14006963
000300 f2 20 30 3d c2 d2 10 3c 0f 65 ac bc 2b 5a 04 bd
       0.04300017 0.008839311 -0.021044282 -0.032312553
000310 20 01 af bc 61 22 2d 3c da b4 79 3d 9c 44 23 bd
       -0.021362841 0.010567279 0.06096349 -0.039860353
000320 b1 2b 8e bd 48 48 40 bc bc 69 b2 3c 5d 09 44 3d
       -0.06941927 -0.011735983 0.021778934 0.047860492
000330 56 cd 1c bc ed 8f a1 bb 03 02 59 3c 9e af 2a 3d
       -0.00957044 -0.0049304874 0.013245109 0.041671388
000340 d8 48 f0 bc 51 f2 c2 bd 3a b1 b0 3d 9d 92 5a 3d
       -0.02933161 -0.095188744 0.08627553 0.053362478
000350 d3 fd 89 3d df da 07 bd b0 74 d7 ba 2e 9f 31 3d
       0.06737866 -0.033167716 -0.0016437974 0.043364696
000360 c0 a5 1a 3e 2a 40 18 3d 57 2d 18 ba e8 aa 2b 3e
       0.15102291 0.037170567 -0.0005805096 0.16764414
000370 7c 80 05 3e 17 fd b0 3d 86 55 a7 3d e6 2b 1c 3e
       0.13037294 0.08642023 0.08170609 0.15251121
000380 85 65 cf 3d cb 4c 3e 3e 50 12 31 3e 14 9a fa 3d
       0.10126785 0.18583982 0.17292142 0.12236419
000390 16 74 5b 3e de f3 0e 3e eb fa 06 3e 30 75 03 3e
       0.21431002 0.13960215 0.13181655 0.12837672
0003a0 7d e5 31 3e 1d 63 5d 3e 5b ce b2 3e 31 bc 8e 3e
       0.17372699 0.2161984 0.34923062 0.27877954
0003b0 a4 55 58 3e fa 9f 8a 3e c3 d2 94 3e f6 8e 86 3e
       0.2112642 0.27075177 0.29067048 0.26280946
0003c0 43 74 86 3e 83 dc 6d 3e e3 3d 9e 3e 32 3b 1a be
       0.26260576 0.2322865 0.3090659 -0.15061644
0003d0 ca fc 34 be 35 b4 14 be 90 d5 95 be 71 1b a3 be
       -0.17674556 -0.14521869 -0.29264498 -0.31856874
0003e0 f4 4f 9a be 9e c2 a4 be e3 4e b7 be 6d d6 9c be
       -0.30139124 -0.3217973 -0.35802373 -0.30632344
0003f0 e0 49 fa bd 8c 16 cc bd a5 a9 af bd 66 6e 35 be
       -0.12221122 -0.09965238 -0.08577279 -0.17717895

conv1.bias f4 [32]
000000 fc 41 cc bd 14 56 07 bd a5 cb bc 3d 92 70 ab bb
       -0.09973523 -0.033041075 0.092185296 -0.0052319253
000010 34 6c b7 be d0 37 f4 be 29 ef 84 3c 72 e5 ac ba
       -0.3582474 -0.47698832 0.016227322 -0.0013190939
000020 02 9e 88 3c 44 7a c9 bd fd 43 2a 3e 5e 45 7a bd
       0.016676906 -0.098377734 0.16627498 -0.06110131
000030 27 09 96 bd 84 0a 93 be 02 ad be bd ce 05 b5 3d
       -0.073259644 -0.2871896 -0.09310342 0.08838998
000040 57 72 37 be 55 bc 60 be 16 9d 0d be 39 32 9a bd
       -0.17914711 -0.21946843 -0.13829455 -0.075291105
000050 50 2b 99 bd a7 00 c9 bd a8 43 9e be 3d 44 71 3c
       -0.07478964 -0.098145775 -0.30910993 0.014725742
000060 a8 13 20 3e d6 83 9f 3d a5 10 82 bc 7c 09 36 bc
       0.15632498 0.077888176 -0.015877077 -0.01111066
000070 23 41 e0 3b 75 31 a7 bd ee 31 a9 3d 03 b1 2f 3b
       0.0068437024 -0.0816373 0.082614765 0.0026808388

conv2.weight f4 [16, 32, 5, 5]
000000 28 01 3b bd 93 8a 25 3d 3c 79 45 3b a6 4c 27 3c
       -0.0456554 0.040415358 0.0030132076 0.0102111455
000010 b7 d3 c7 3b ba 87 dd bb 3b 84 81 3d 6d 65 2e 3d
       0.0060982364 -0.0067605646 0.06324049 0.042577196
000020 75 04 80 bc 02 ec 81 bd 38 11 32 bc 47 21 8c 3c
       -0.015627125 -0.06343843 -0.010868363 0.017105712
000030 2e 8e 1d bd 17 97 4d bc e4 6e 46 3d fe 03 0a 3d
       -0.03846567 -0.01254823 0.048445597 0.033695213
000040 07 a5 e3 bc a7 30 57 bb 19 ea d7 3c a8 db 36 bd
       -0.027788652 -0.0032835396 0.026356744 -0.044643074
000050 2b b7 da bc 4f 61 1e 3d 7a 47 7b 3d 7b cd 49 bd
       -0.02669867 0.03866702 0.061347462 -0.049268227
000060 4d 9f c3 3c 3f ed 67 bc e1 fb 7a bc b7 46 15 be
       0.023879671 -0.014155685 -0.015318842 -0.14577757
000070 d2 db 4d 3f c4 bf eb bd 90 41 98 be bb c1 23 be
       0.80413544 -0.11511186 -0.2973752 -0.15991871
000080 b9 c3 7d be d5 70 11 3f 93 5a 2a bd 70 01 5c be
       -0.24781694 0.56812793 -0.041590285 -0.21484923
000090 7a c0 bb bd 7d 29 0e be ca 58 04 3f b2 73 50 bd
       -0.09167571 -0.13883014 0.5169798 -0.050891586
0000a0 37 ae 7b be 7c f9 b0 bd 04 6a 9e bd d4 07 0d 3f
       -0.24578176 -0.08641335 -0.077350646 0.5509007
0000b0 eb aa 94 bd de 6b bc be c6 f9 43 be e2 1c 92 be
       -0.072591625 -0.36801046 -0.1913825 -0.2853766
0000c0 09 d6 da 3e dc ef b9 be 11 39 f7 3d 32 23 81 3d
       0.4274142 -0.3631581 0.120714314 0.06305541
0000d0 8d 64 91 3d bd 53 c3 ba 3f ab 1a be 7a 93 1a 3e
       0.07099257 -0.0014902275 -0.15104388 0.1509532
0000e0 d1 63 79 3c 20 7e 14 3d 3b b3 8d bc b4 d3 12 be
       0.015221552 0.036253095 -0.017297378 -0.14338571
0000f0 18 7f 43 3d f2 f8 f0 3c 7a 59 8a bd 26 00 ad bd
       0.047728628 0.029415581 -0.067553475 -0.08447294
000100 e6 c8 79 be 2a a8 a3 3e ac 04 4c 3e f9 70 3a 3e
       -0.24393043 0.31964236 0.19923657 0.18207158
000110 8b fb 42 3e d7 05 f9 3d 08 d9 86 3e 6a d7 23 3b
       0.19041269 0.12159317 0.26337457 0.0025000223
000120 ee 19 1e be 39 de 26 be 52 d0 82 be 86 4d c0 3c
       -0.15439579 -0.16295709 -0.2554956 0.023474466
000130 b8 55 4a 3e 81 b7 82 3e ba 8b b9 3e 82 fa cf 3e
       0.19759262 0.25530627 0.36239415 0.4062081
000140 6d 22 ab bd c0 7c 70 3d 4d b1 12 3e 9b 7a f3 3d
       -0.083561756 0.05871272 0.14325447 0.118886195
000150 75 5c 1d 3e 28 c3 21 bd a2 7e 12 3d 92 54 83 3d
       0.15367301 -0.039492756 0.035765298 0.06412615
000160 30 9a c9 3d 50 15 a2 3d d4 49 db 3d eb 6b 14 3e
       0.09843862 0.07914221 0.10707441 0.14494292
000170 f3 b0 41 3e 8b b7 ae 3e 41 d8 8b 3e b0 1c 49 3d
       0.18915157 0.34124407 0.27313426 0.049099624
000180 3b 88 91 bd 59 13 80 bd cc 4f 29 bd a9 55 14 3e
       -0.07106062 -0.0625369 -0.041335866 0.14485802
000190 23 c2 6e 3d 30 d1 f4 bd c8 11 45 be e1 2e da bc
       0.058290612 -0.11953962 -0.19245064 -0.026633682
0001a0 58 a5 14 bc 48 71 5c 3c 88 ba d8 bd 1e e3 ba be
       -0.009072624 0.013454743 -0.10582453 -0.36501402
0001b0 a9 9c 04 be 93 f3 e3 3c c1 43 a9 bd c9 90 29 be
       -0.12950386 0.027826106 -0.08264876 -0.16559137
0001c0 2b 00 ed be b1 76 3e be 89 10 9e bd 0f 8c 51 bd
       -0.4628919 -0.18599965 -0.077179976 -0.05115896
0001d0 69 db 4f be 13 14 c6 be a7 0b 6f be 7a 76 8b bd
       -0.20298542 -0.3868719 -0.23344289 -0.06809707
0001e0 44 8a a8 bd 3a 1c 0c be 43 23 a0 be 81 a7 93 be
       -0.08229497 -0.13682643 -0.31276903 -0.28838733
0001f0 e7 6d 13 be cd c5 4f 3e db c8 2f 3e 04 24 42 be
       -0.14397393 0.20290299 0.17166464 -0.18959051
000200 cc 7d d9 bc b6 db 10 3d 5d 99 04 3e f7 7f a5 3d
       -0.026549242 0.035365783 0.12949128 0.08081048
000210 89 f0 0b bd 22 0f 84 3d 54 a8 ad 3d 5e 93 16 3e
       -0.03416494 0.06448199 0.08479372 0.14704654
000220 80 60 f7 3d f9 9f ac bd 32 77 69 bd bb eb 36 3c
       0.12078953 -0.0842895 -0.05699844 0.011164601
000230 f7 6b 06 3e d1 83 f2 3d ee cb 08 bd 30 66 ae bb
       0.13127123 0.11841548 -0.033397608 -0.0053222403
000240 28 6d 12 3e 78 45 3a 3e 83 09 cd 3c fb f4 14 bd
       0.14299452 0.18190563 0.02502895 -0.036366444
000250 58 1e a4 bc 4b 13 ac bc a5 07 60 3e f0 45 c7 3d
       -0.020034 -0.021005293 0.21877916 0.097301364
000260 ce 1a 07 3d f5 5a 30 3e ce e2 a7 be 07 be 0d 3e
       0.032984547 0.17222197 -0.32790226 0.13842021
000270 18 89 ca 3d b8 5a dd 3d 15 97 21 3e 69 ae b8 be
       0.0988943 0.10808319 0.1578029 -0.36070564
000280 ed df 19 3e 1c d3 57 3d 63 e4 f2 3b a1 6e 1d 3e
       0.15026827 0.052691564 0.0074124797 0.15374233
000290 8a 3f a9 be e1 36 02 3e 45 87 1f 3e c5 23 fc 3d
       -0.3305629 0.12716247 0.15578945 0.1231151
0002a0 2b 7c fb 3d a8 cc a7 be ec af dd bd e7 45 22 bd
       0.122795425 -0.32773328 -0.1082457 -0.039617445
0002b0 ff 6e a0 bd 02 9b 9c bc 1a a0 e6 be 23 d8 3e 3e
       -0.07833671 -0.019116882 -0.45044023 0.18637137
0002c0 17 93 f4 3d 03 de 6f 3e f7 17 93 3d fa ac a7 3d
       0.11942118 0.23424534 0.07182305 0.081872895
0002d0 2c d4 cc bd 20 0d a9 bb 5d aa 57 3a ce 16 5b 3c
       -0.10001406 -0.0051590353 0.0008226985 0.013372136
0002e0 94 05 a6 bc 1a 16 89 bd 02 68 3e bc 1b 90 92 3b
       -0.020266332 -0.06693669 -0.011621477 0.004472745
0002f0 1c 8e c5 3c e3 4a bf bd dc 96 ba bd e4 53 18 bc
       0.024115615 -0.093404554 -0.091108054 -0.009297345
000300 e8 98 d8 3c cd 25 b2 bc 55 a2 70 be 69 07 bd bd
       0.026440099 -0.02174654 -0.23499425 -0.09229929
000310 fe d1 c9 3c 5d ee e1 3d e2 05 24 be 9e 66 59 be
       0.024636265 0.11031792 -0.16017869 -0.21230552
000320 51 77 6b 3d 99 05 0e bd f2 ef ac bd 97 fe 23 be
       0.057486836 -0.034673307 -0.084442034 -0.16015087
000330 1c fc 6b be 41 86 27 3e 6a 3a fb 3d d5 b8 07 3d
       -0.23045391 0.16359808 0.12267001 0.033135254
000340 ee 0b 4e bd 94 c0 1e be e5 a2 a6 3d 97 9c 15 3e
       -0.050304346 -0.1550315 0.081365384 0.14610516
000350 32 f0 ab 3c b0 98 07 bd 9f e0 1a be 6b ed 3a 3e
       0.020988557 -0.0331046 -0.15124749 0.1825463
000360 26 c4 18 3e b6 75 20 3d 43 30 67 3d 97 7f 7f bd
       0.14918575 0.039174758 0.05644251 -0.06237754
000370 28 c6 39 3e 75 2b be 3d 2d 35 38 3d dc c0 0d be
       0.18141997 0.092856325 0.044972587 -0.13843101
000380 ae d4 58 be 3a 14 8e bf e9 39 3c bf 81 88 29 bf
       -0.21174881 -1.1099923 -0.73525864 -0.66223913
000390 3b d2 fb be 11 43 05 bf a6 e7 cc be 16 9e 11 bf
       -0.4918383 -0.5205546 -0.40020484 -0.56881845
0003a0 cb a5 a7 be 9e 2e ed be 47 f4 b9 be a0 9d 72 bd
       -0.32743677 -0.4632463 -0.3631918 -0.059232354
0003b0 bd ab 07 bf a4 f8 29 be d7 f4 3e be 41 7e c7 be
       -0.52996427 -0.16598755 -0.18648086 -0.38963512
0003c0 84 7f 0b 3e 15 be c5 be 8b 72 2e be 9d 16 c1 bd
       0.13622862 -0.38621584 -0.17035882 -0.09428141
0003d0 55 ae 49 be 8f d8 ca 3e 77 e6 90 be 93 55 7c be
       -0.19695409 0.39618346 -0.2830083 -0.24642019
0003e0 ba 52 30 be 6f b8 c3 be f2 bc 8b 3d 95 c8 1f bd
       -0.17219058 -0.3822665 0.06823148 -0.03900965
0003f0 4a 21 2e be 15 06 8f be 08 18 ea bd 40 c7 4f 3d
       -0.17004886 -0.27934328 -0.11430365 0.05072713

conv2.bias f4 [16]
000000 08 44 d7 3d 2f 28 b2 bd 1c 95 8c bd 51 50 14 bd
       0.10511023 -0.08699071 -0.06864378 -0.03620941
000010 62 94 4a 3d 0c 1f 8f bd 59 a4 bc bd b8 ba 28 bc
       0.049457915 -0.069883436 -0.09211034 -0.0102984235
000020 88 80 36 bc 37 cb c0 bb 0e 03 87 3e e7 40 6e 3e
       -0.011139043 -0.0058836 0.26369518 0.23266946
000030 ad 01 3a bd 34 ef b8 3d 2d 62 72 bd ce e8 0f bd
       -0.045411754 0.090299994 -0.05917566 -0.03513413

conv3.weight f4 [8, 16, 3, 3]
000000 18 3e 2e 3d c4 62 29 be a0 83 fc be 36 88 9e bd
       0.042539686 -0.16541582 -0.49319172 -0.07740824
000010 f7 41 2d 3d 50 dd c6 bd c1 8e ae 3e 4b dc 2f 3e
       0.042299237 -0.09710181 0.34093288 0.17173879
000020 6c 46 09 3e 64 71 b1 3d 5f c1 6f 3b 48 da ed 3b
       0.1340577 0.08664206 0.0036583764 0.007258687
000030 20 58 11 bd 80 54 97 3d 61 b2 0c be e5 62 a2 3c
       -0.035484433 0.07389164 -0.13739921 0.019822547
000040 fe 80 f8 bd e5 d4 05 be c0 d6 ff bd e3 c4 37 be
       -0.12133978 -0.13069494 -0.12492132 -0.179462
000050 ed ac fe 3d 60 9c 92 3d 29 e8 ef bd f1 d3 fd bd
       0.12435327 0.071587324 -0.11714203 -0.1239394
000060 f9 b1 81 3d 5b 3a 8c bc 67 9d 04 be 8a 4d 82 3d
       0.06332774 -0.01711767 -0.12950669 0.06362446
000070 af 1f ff bd 45 56 f3 bd 78 b3 78 3d 45 f9 c6 bc
       -0.12457215 -0.11881689 0.06071803 -0.024288783
000080 7a 6b ff bd 3d 82 b0 3d a5 74 bd bc 4d ad a6 bb
       -0.124716714 0.08618591 -0.02312691 -0.005086577
000090 57 5f ca 3d 75 b0 f2 3d 45 8f f0 3e 85 a7 e9 bd
       0.09881466 0.11850063 0.46984306 -0.11408905
0000a0 49 8f 7d 3d 93 68 07 bd b8 f6 ca be b5 60 40 be
       0.061904225 -0.033058714 -0.39641356 -0.18786891
0000b0 06 48 3e 3d 3c f3 1c bb 32 28 6c 3d 7c d6 eb bd
       0.046455406 -0.002394869 0.05765552 -0.11515519
0000c0 7c 66 1b 3e 05 b9 2d 3d 13 cc 60 3c 4e 8a d1 3c
       0.15175813 0.042412776 0.01372053 0.025578644
0000d0 b8 33 fc bc 78 f3 c8 bd e7 46 d9 3d 6d 11 8b bb
       -0.03078638 -0.09812063 0.10609227 -0.0042440207
0000e0 ef cf 22 be 39 89 e5 3c 3b 5e a1 bd 10 a5 f2 3d
       -0.15899633 0.028019534 -0.07879301 0.118478894
0000f0 01 cc 3e bd c0 48 e1 3d 94 6c f0 bd 5c 05 3d bd
       -0.046581272 0.11000204 -0.1173946 -0.04614769
000100 15 2f 0f be 8e eb be 3c 85 f0 83 3d 84 fc 6c 3d
       -0.13982804 0.02330568 0.0644236 0.057858005
000110 9b d3 97 3d f9 11 cf bc ee 2c e4 3a ed d4 15 be
       0.074134074 -0.025277125 0.001740841 -0.14632006
000120 9c 12 8c 3c 0b fa aa 3d 7f 84 7f bd 25 79 00 3c
       0.017098717 0.08348473 -0.062382217 0.007841383
000130 4c f0 ff bb 73 7c c1 3d 67 22 f8 3d 3b 1a 14 bd
       -0.007810628 0.09447565 0.12115937 -0.036157828
000140 fd d3 3d 3c 02 8d c4 3d 09 49 0b 3e 84 c9 22 3e
       0.0115861865 0.095972076 0.1360208 0.15897185
000150 4d ea 0d be ea d1 f0 bd d8 8d 05 be 41 89 bc 3d
       -0.1385891 -0.11758788 -0.1304239 0.092058666
000160 94 9e ce 3d 86 a7 52 bd 0c 2f 2d bd cb ce 2a 3e
       0.1008884 -0.051429294 -0.042281196 0.16680448
000170 8c f9 d3 3e 7e 02 aa bc 79 11 eb 3d b0 a7 5c 3e
       0.41401327 -0.020753141 0.11477942 0.21548343
000180 3d 53 bc be 1a b2 9c be 92 30 71 be ef eb a0 bd
       -0.36782256 -0.3060463 -0.23553684 -0.07857501
000190 f9 95 38 3e a6 b1 09 3e 42 6f 31 bd 6e bc ea bd
       0.1802596 0.13446674 -0.043318994 -0.11461721
0001a0 09 1f 9a 3d 6f 5d 4f 3c ce 14 06 be ef 74 a1 bc
       0.07525451 0.012656554 -0.13093874 -0.019709079
0001b0 23 bb d0 3d 54 9b b5 3d 8c 43 85 3e 13 76 4d bd
       0.101919435 0.08867517 0.26028097 -0.050161432
0001c0 38 42 88 be e9 38 2c be 85 be b3 bb 84 ce 36 bd
       -0.2661302 -0.16818585 -0.005485358 -0.044630542
0001d0 eb cd 2d 3d fd 53 61 3c f3 22 25 be 7d 87 90 bd
       0.042432707 0.0137529345 -0.16126613 -0.07057092
0001e0 f3 75 8a 3c aa 49 93 3d 0e 03 71 3d 69 0a 65 3d
       0.016901946 0.07191785 0.058840804 0.05591813
0001f0 59 a8 72 bc 18 e6 96 bd 2f 12 28 be 24 c2 b8 3c
       -0.014810645 -0.07368106 -0.16413186 0.022553511
000200 9d 7f 09 3e 4c 3b b3 3d e6 0c f5 bd 2a ab 71 3d
       0.13427587 0.08751544 -0.11965351 0.059001125
000210 e5 43 03 bd ae ae 15 be 6d ff 15 be 0a 0e 23 be
       -0.03204717 -0.14617416 -0.14648218 -0.15923324
000220 f5 19 c1 3d cb 5f e4 bd f1 a6 41 3d 35 94 f0 3d
       0.09428779 -0.111510836 0.04727835 0.11747018
000230 d5 e0 c2 3d 38 7c 15 3e 02 79 d3 3d 08 68 03 be
       0.095155396 0.14598167 0.10325815 -0.12832654
000240 ae 3d b6 bd 4a c2 a1 bc cb 7e 6c be a3 e6 18 3e
       -0.08898483 -0.019745965 -0.23095243 0.14931731
000250 d1 59 d1 3d c3 a2 63 bd 81 7c b7 3d 2f f4 3c 3c
       0.10222209 -0.055575144 0.08959294 0.011532827
000260 07 66 ca bc 2d eb d5 bd a4 70 47 bd 15 a1 d1 bd
       -0.024706854 -0.10445247 -0.048691407 -0.10235802
000270 96 13 c7 bd e2 94 90 bd 19 fd 56 bd 95 75 47 3d
       -0.097205326 -0.07059647 -0.052487466 0.04869612
000280 7f b1 0d be 45 ae e1 bd 4c c1 a8 3d 62 8a 0c be
       -0.1383724 -0.110195674 0.082399935 -0.13724664
000290 c3 17 c9 ba 52 b4 17 be 68 2a 3b bd 87 45 6d 3d
       -0.0015342165 -0.1481488 -0.04569474 0.057927635
0002a0 7e dc 87 3d 5b 90 79 3c 2d f1 c1 bd 7a 7a e3 3d
       0.066338524 0.015232171 -0.09469829 0.11107345
0002b0 99 15 0a be 24 5d 32 bc 54 36 9c 3d bb da c5 bd
       -0.13484801 -0.010886464 0.0762755 -0.0966086
0002c0 db 68 42 be d8 b0 6a 3d 5d a4 b6 bd e3 0c 6f 3d
       -0.18985312 0.057297558 -0.089180686 0.0583619
0002d0 b2 91 b8 3e 4b 16 83 3e c4 2d 04 3d 11 47 8f bc
       0.36048657 0.25602946 0.032270208 -0.017489942
0002e0 72 8c 07 bc 4e d8 ae bd 7f 83 64 be 4f 95 c6 bd
       -0.008273231 -0.085373506 -0.22315787 -0.09696447
0002f0 4e 35 93 be 8c 60 21 be cd fd 92 bc 78 05 8f 3d
       -0.28751606 -0.15759486 -0.017943287 0.06983465
000300 d2 18 05 bd 6a d3 23 3e 66 9f 03 be 32 b4 63 3d
       -0.032494374 0.15998617 -0.12853774 0.05559177
000310 e3 89 89 bd 4e 5d f5 3d 45 9a 4b be 96 90 33 be
       -0.06715753 0.11980687 -0.19883068 -0.17535624
000320 f6 ae 37 be 6b ab 3a be fb db 67 3e 82 77 a8 3d
       -0.17937836 -0.18229453 0.2264251 0.08225919
000330 50 74 ae bd 4d ed 86 3e 91 da 84 3e aa 7b 29 3e
       -0.085182786 0.2635292 0.25948003 0.1655108
000340 96 1b e5 bd db 08 0e 3e 65 a1 a7 3c 7f 1e c4 3d
       -0.11186902 0.13870566 0.020462701 0.09576129
000350 84 1d ed 3c 47 38 2e be d3 da 7f 3d 2f 6b 2f 3d
       0.028944738 -0.17013656 0.062464546 0.042826828
000360 26 e3 bb 3d 0d be f0 bd dd 6d 0f 3d 9c 80 75 3d
       0.091741845 -0.11754999 0.035016883 0.059937105
000370 52 8a 33 3d 5f 21 4a 3d dc c4 13 3e f0 15 3d 3d
       0.043833084 0.04934823 0.14430565 0.0461635
000380 a4 32 15 be 68 60 03 3e 4b 31 63 bd 29 f1 33 be
       -0.14570099 0.12829745 -0.05546693 -0.17572464
000390 6a f9 c8 3d b8 a2 c9 3d 5e ba 5b bd c0 fe 6b 3c
       0.09813197 0.09845489 -0.05364453 0.014403999
0003a0 e7 8e 43 3d 2c 6b ac 3c 6f c3 71 3e aa cd 72 3e
       0.047743704 0.021047197 0.23609708 0.23711267
0003b0 b3 33 f3 3d 10 43 5d bd 6c b0 fb 3c 24 cf 4e bd
       0.11875095 -0.054019034 0.030723773 -0.050490513
0003c0 dd 0c 64 be 08 1a 54 be 7c 65 c3 bd ab 5b 63 3e
       -0.22270532 -0.20713055 -0.09540841 0.22202937
0003d0 4d d2 9c 3c 61 25 6b 3d 3f f8 5f 3e 7b a4 e6 bd
       0.019143248 0.057408694 0.21872042 -0.11261841
0003e0 0b 8a 26 be c6 a3 23 3e 86 c6 65 bb 4c ea c8 be
       -0.16263597 0.15980443 -0.0035060956 -0.39241254
0003f0 25 41 76 3e dc ca e9 3d c9 5d 23 3c 9d 55 c4 bb
       0.24048288 0.114156455 0.009971091 -0.005991651

conv3.bias f4 [8]
000000 b0 0e 28 3d d1 3e db 3c 31 c1 8b 3d b7 16 08 3e
       0.041029632 0.026763352 0.06823958 0.13289915
000010 e8 05 e6 3c 3f c8 6d be 22 18 01 3e d8 ca 87 3c
       0.028078988 -0.23220919 0.12606862 0.016576216

convt1.weight f4 [8, 8, 3, 3]
000000 f7 21 e6 3c d2 58 90 3e 28 02 93 be 1d 7b 7c be
       0.028092368 0.28192765 -0.28712583 -0.24656339
000010 3d 91 97 bc 6d 05 8b 3e 02 4e cd 3d 1f 0f a4 bc
       -0.018501872 0.27152577 0.100246444 -0.020026742
000020 8f 8e ca bc ba dd cb 3e 91 73 ef 3e bc a9 0f 3e
       -0.02472618 0.398176 0.46767858 0.14029592
000030 f7 94 d3 bd 95 be 24 be d1 b2 4e be 17 8f e3 be
       -0.10331147 -0.16088326 -0.201854 -0.44445106
000040 20 1d 87 be f1 3d 94 3e c5 58 aa be 7e f6 6a be
       -0.26389408 0.28953508 -0.3327085 -0.22945592
000050 86 fe 99 bd 7d 09 ef 3e 0c b6 b7 3b de cf 5f be
       -0.075192496 0.46686926 0.0056064185 -0.21856639
000060 49 28 d1 bd 8e b5 c9 3d 32 1c d5 3e e7 cd 34 3e
       -0.10212762 0.09849082 0.41623074 0.1765667
000070 0c b6 1e 3e f2 dd 99 bd 2b c1 e1 3d 11 72 9d 3e
       0.15499133 -0.07513036 0.11023172 0.30751088
000080 fc 8a e4 3e 34 27 28 be 65 48 9a 3c 22 a3 a9 bd
       0.44637287 -0.16421205 0.018833349 -0.08283068
000090 74 2c 25 3d 5f b0 e2 3d 67 2a 8b 3d 35 c2 75 be
       0.040325597 0.11068796 0.06795197 -0.23999865
0000a0 2f e4 83 bf 00 ff d5 bd a0 49 83 3d 31 4a 57 be
       -1.0304011 -0.10449028 0.06410527 -0.21024396
0000b0 7c 48 95 bd e3 a0 9e 3d 09 b0 90 3d ca 70 4d 3e
       -0.07289216 0.077455305 0.07064826 0.20062557
0000c0 d4 1f a3 bb 7e e5 52 3d c1 0c 52 be 01 00 95 3e
       -0.0049781594 0.051488392 -0.20512678 0.29101565
0000d0 e3 dd 0f 3e 90 2a e5 bd 95 d8 07 bf 90 2b 30 bf
       0.14049487 -0.11189759 -0.5306485 -0.6881647
0000e0 5b ea d8 be 25 9f 7c be f5 3a fa bd f4 91 cf be
       -0.423663 -0.24670084 -0.122182764 -0.4054104
0000f0 66 ce 02 bf 0f 90 46 be e0 2a 8a 3e c5 f9 09 be
       -0.5109619 -0.19390891 0.26985836 -0.13474186
000100 1c b8 e3 3d 0d 76 8a be d2 64 9e 3e b6 bb 0a 3d
       0.111191005 -0.2704319 0.30936295 0.03387042
000110 46 01 ba 3e bd fa 91 be 4c 41 f2 3e 9c f0 3a be
       0.36329097 -0.2851161 0.47315443 -0.18255848
000120 c0 83 99 3e 30 79 d5 bd 75 9b 45 3e 7d 62 99 3d
       0.2998333 -0.10423505 0.19297583 0.07489488
000130 fe af 1a bf 87 ee b4 bd a4 1a 05 bd 9a 1e ab 3d
       -0.6042479 -0.08834558 -0.03249611 0.08355446
000140 25 b4 2e be b9 4a e1 be 94 90 1a be 3e e9 b1 be
       -0.17060907 -0.4400232 -0.15094215 -0.34748262
000150 15 c4 46 bf 4c 3f c0 be b3 95 3c bf d9 bf 03 bf
       -0.7764295 -0.37548292 -0.7366592 -0.5146461
000160 91 61 e0 bd b0 c3 31 bf 68 54 52 3e 7d 53 55 3e
       -0.10956109 -0.6943922 0.20540011 0.2083263
000170 11 55 14 3d 73 bf 39 bd 36 f9 0a bd ac 13 7f be
       0.03621394 -0.045348596 -0.033929072 -0.24909848
000180 e4 f4 69 ba c2 f6 76 3c 81 f3 89 be 4f a2 0d bd
       -0.0008924736 0.01507348 -0.2694359 -0.034578618
000190 23 9c 85 bc fa db 8f be c2 fc 99 be 02 b9 94 be
       -0.016309803 -0.28097516 -0.3007565 -0.290474
0001a0 71 9d bf be 2e d3 48 3d e2 c3 06 bc 54 21 d0 bf
       -0.37424806 0.04902952 -0.008225413 -1.6260171
0001b0 36 80 37 3e 9a 43 1f 3f d1 9e 4d 3e 40 06 16 3f
       0.17920002 0.62212527 0.20080115 0.58603287
0001c0 0e ed 82 3d c6 89 82 3d 99 e4 04 3d 4f a1 f5 3d
       0.06392871 0.063739344 0.03244457 0.11993658
0001d0 ba 1e 36 3d fb 05 96 bd fe fc 86 bd 1b 93 90 3e
       0.044462897 -0.073253594 -0.06591223 0.28237233
0001e0 2e 0b ec bd 48 f2 bc bc 0d 22 99 3e 3c 83 3b 3e
       -0.1152557 -0.023064747 0.2990879 0.1831178
0001f0 28 07 1e 3d f6 20 a1 3e 3c 36 cb bf f4 e9 0f bd
       0.038581043 0.3147046 -1.5875926 -0.035135224
000200 8c 80 cf be aa cf 03 3e 17 4e 2e bf 8b 40 04 3e
       -0.4052776 0.12872186 -0.68087906 0.12915246
000210 c6 97 e7 be 98 8f 50 3e a2 e2 06 bb db 00 93 be
       -0.4523298 0.20367277 -0.002058186 -0.2871159
000220 42 10 1d be 9c 1c 89 be cc 9e 72 bc 46 68 f0 bd
       -0.15338233 -0.2677964 -0.014808368 -0.117386386
000230 bb ac 63 3e 96 0a 98 be 24 26 bb 3e 8b 11 63 be
       0.2223386 -0.29695576 0.36552536 -0.22174661
000240 72 4e 6e 3e 91 03 82 3c 67 9d 4d 3e 81 de 16 3e
       0.23272112 0.015870841 0.20079575 0.14733316
000250 6c d2 ed 3e 31 47 bf 3e 8f 33 0d 3f ef 25 8d 3e
       0.46449602 0.37359002 0.551568 0.27568004
000260 18 f8 98 3e 55 a0 95 3e dc 54 2f be d6 6f 9a 3e
       0.2987678 0.29223886 -0.17122215 0.3016345
000270 7b 6a 44 be 47 c4 5e 3d 48 b2 1c be 21 ce 6b be
       -0.19181244 0.054386403 -0.15302384 -0.2302785
000280 72 ca 16 be c6 ce 88 3c 25 4b 37 3e b6 41 fa 3e
       -0.14725664 0.01670016 0.17899759 0.48878258
000290 f5 ad 9f 3e 90 3e 0a 3e be f0 26 3e 8c 3d dc 3d
       0.31187406 0.13500428 0.16302773 0.10753927
0002a0 be 0a 0d bf 37 59 ec be 3d 16 b1 bd 6d 2c 1e be
       -0.55094516 -0.46161816 -0.0864682 -0.15446635
0002b0 be 0f e9 bd 34 dc 8c be d2 b3 92 be 5f 5f c9 bd
       -0.11379956 -0.27511752 -0.28652817 -0.09832644
0002c0 bc cd 4f be 71 4f 3a bd c6 b3 66 be 9b 69 22 be
       -0.20293325 -0.045485917 -0.22529516 -0.15860598
0002d0 f0 b8 ab bc 8c 49 af be a2 f8 cd be 55 44 e2 bd
       -0.020962209 -0.342358 -0.40228754 -0.110481896
0002e0 d5 f9 0f 3d b0 d1 c6 bd 44 4b d6 be 22 46 84 3e
       0.035150368 -0.097079635 -0.41854298 0.25834757
0002f0 39 6f dc be 5c d9 a9 3d d0 52 2e 3e 68 62 07 3e
       -0.43053606 0.08293411 0.17023778 0.13221133
000300 76 49 c7 3d 61 5f 4a bd 0a 9f 1d 3e 70 96 1f 3a
       0.097308084 -0.049407367 0.153927 0.00060877856
000310 e8 56 d8 bd f9 f1 4e bc 4f 67 b1 be 1d 16 fb bd
       -0.10563451 -0.012630933 -0.3464913 -0.12260077
000320 25 65 d6 be 2b c4 49 bd 68 fa 54 be 33 ef 9b bd
       -0.41874042 -0.049259346 -0.20798647 -0.07613983
000330 a2 36 31 3e f8 60 e4 3d fd 72 c7 3e 18 79 c6 3d
       0.17305997 0.11151308 0.38954917 0.096910655
000340 f7 5c c6 ba 95 e8 03 3e 0b 37 74 bd 32 18 04 3e
       -0.0015133907 0.12881692 -0.059622806 0.12899855
000350 c5 01 ae bc bb 49 ba bd 06 95 81 bd 9b 3f c6 bd
       -0.021241078 -0.09096094 -0.06327252 -0.096801005
000360 ab 67 83 3e e9 20 05 3e 84 21 98 3c 72 bd 4f bd
       0.2566503 0.13000835 0.018570669 -0.05071778
000370 bd f5 ee bd 9a 8a d6 bc 6e 48 72 bd 8b e3 f5 3c
       -0.116679646 -0.026189137 -0.059151106 0.030015728
000380 f9 b3 1f 3d e2 3c 18 3e 4b 43 29 3f e9 27 05 3e
       0.038989995 0.14866975 0.66118306 0.13003506
000390 75 1c b9 bd 4c ef 87 3e 8e 26 af bd 14 f6 e2 bd
       -0.09038631 0.26549757 -0.085522756 -0.11082092
0003a0 d0 0f cd be 66 ee f7 bd 02 71 5d 3e 2a fa 4e bf
       -0.40051126 -0.12106018 0.2162514 -0.8085047
0003b0 c3 a9 c9 bd 58 fa aa bb 87 36 64 3e 35 27 a1 3e
       -0.098468326 -0.0052178316 0.22286426 0.31475225
0003c0 47 6e a9 3d 06 76 9f 3e 7d c5 64 3e 90 a0 49 bc
       0.08272987 0.31144732 0.22340961 -0.0123063475
0003d0 ef 21 6b 3d 29 1e 52 3d f3 60 71 3e a4 21 c2 3d
       0.05740541 0.051298294 0.2357214 0.09479073
0003e0 eb 6f 96 bb 38 ad 6e 3d 7c a7 19 bc ca 24 8a 3e
       -0.0045909784 0.058270663 -0.00937831 0.26981193
0003f0 87 7b 9b 3d 0a 66 79 bc 5d 36 46 be 65 22 ca 3d
       0.0759192 -0.015222082 -0.19356675 0.098698415

convt1.bias f4 [8]
000000 78 5a 02 bd 1c 52 31 3d 28 54 bf bc 48 aa c4 3d
       -0.03182456 0.043291196 -0.023355559 0.09602791
000010 a2 f2 e1 3c 2b 63 82 3d 8f 35 f4 3d 3c 85 60 bc
       0.027581517 0.06366571 0.11924278 -0.013703641

convt2.weight f4 [8, 16, 5, 5]
000000 e7 dd 14 be 21 b6 c3 be a8 6b 98 be a4 86 46 bf
       -0.14537774 -0.3822489 -0.29769635 -0.77549195
000010 8b b5 e6 be 13 0e fc bc b4 42 5e be 11 40 27 3e
       -0.4506038 -0.03076843 -0.21705133 0.16333033
000020 bd 4a 16 be 49 b8 8b be 3c c6 88 3d fc f3 b1 3d
       -0.14676948 -0.27289036 0.06678435 0.086891145
000030 bb 15 1a be 24 b2 c8 3b 69 89 f3 be 7c d3 4f 3e
       -0.15047352 0.0061247516 -0.47565773 0.20295519
000040 fd 03 ae bd 4f 93 e9 bc da 3d 0d be 84 29 c8 bd
       -0.084968545 -0.028512625 -0.13793126 -0.097735435
000050 7f 52 97 3e ef 56 cb 3d e1 47 34 3e 89 1d 36 3d
       0.29555127 0.09928691 0.17605545 0.04446176
000060 15 7e 25 3e c2 e4 5c 3b 1c 58 4c bc e7 6d 44 bd
       0.16161378 0.0033705686 -0.012472179 -0.047956374
000070 05 61 26 3e 83 a4 94 bd 95 bf c4 3d 1a 3b 40 3c
       0.16247948 -0.072579406 0.09606854 0.011732841
000080 f0 a9 7d bd 50 04 bb 3d fa 11 bd 3d f7 a3 78 3e
       -0.061929643 0.09131682 0.092319444 0.24281298
000090 57 0b 87 be 5f 1b bf 3d 88 7e 41 3d 86 f1 31 3d
       -0.2637584 0.093313925 0.04723981 0.043443225
0000a0 f3 45 81 3e 74 9d 8b bc c0 1c 38 be 32 99 31 3e
       0.2524868 -0.017042853 -0.17979717 0.17343596
0000b0 be e3 8e 3d d1 57 ac 3c ab 58 00 3d ac c1 42 bc
       0.06977032 0.021037968 0.03133456 -0.011886995
0000c0 8b e9 01 3e a3 08 39 3e 3b 4b 1d bf 7b 6d 97 bd
       0.12686746 0.18069701 -0.6144292 -0.073939286
0000d0 30 45 d3 be e3 3e 90 be 31 72 b3 bd b8 1c 1c 3d
       -0.41263723 -0.2817298 -0.08762015 0.038113326
0000e0 6a c3 e0 be 54 39 60 be 95 a9 5f 3e 35 64 7c bd
       -0.4389909 -0.21896869 0.21842034 -0.061619002
0000f0 3e 9e 3c be 8d 1d 70 bd 01 a1 bb bc ef d3 8b bc
       -0.1841974 -0.05862193 -0.022903921 -0.017068831
000100 44 82 20 be 12 96 bb bc 82 0b a5 be 57 b9 8d bd
       -0.15674692 -0.022898708 -0.32235342 -0.069201164
000110 14 e8 10 bf f1 e2 a1 bd cc cf 90 bc 57 1e 2e be
       -0.56604123 -0.07904614 -0.01767721 -0.17003761
000120 4c 05 fb 3d 25 09 25 be 6b 4e bb 3e 65 3a 2e 3d
       0.1225687 -0.1611677 0.36583266 0.042536158
000130 63 e4 ac 3c 10 76 09 3c c8 41 ea bd be 69 9f bd
       0.021104997 0.008389965 -0.11438328 -0.077838406
000140 5f e1 2c 3b 6b c8 0d bc e4 ce d5 bd c5 ce 35 bd
       0.0026379449 -0.00865374 -0.10439852 -0.044386644
000150 0e c2 bf bd 83 6d 44 bd c7 2c 49 be af 10 1f bd
       -0.09363185 -0.047956 -0.19645987 -0.03883427
000160 6c 73 0e be 01 f1 b8 bd 80 03 fc bd 4b 08 7c be
       -0.13911217 -0.09030343 -0.12305355 -0.24612539
000170 b3 9d b0 bd b1 48 41 be 8b 73 d9 bd 4d a0 83 bd
       -0.08623829 -0.18875386 -0.10617741 -0.06427059
000180 a4 8e a1 bd 80 e7 80 bd 60 03 02 be 86 1a 53 be
       -0.07888535 -0.06294155 -0.126966 -0.20615587
000190 ee 78 70 3d c0 cf 0a 3e 0a 1c 2b bc 0b 83 23 3d
       0.058709078 0.13555813 -0.010443697 0.039919894
0001a0 55 c2 dc bd d4 55 78 3d 85 e6 6f be b2 a5 7f be
       -0.107792534 0.060628727 -0.2342778 -0.24965551
0001b0 7c a9 48 bd f3 1f 27 be 53 21 43 3d 0c e1 76 bd
       -0.048989758 -0.16320781 0.047639202 -0.060273215
0001c0 c5 57 87 bd 16 3b b8 3d 89 6d f8 bd fa d0 2a be
       -0.066085376 0.08995645 -0.12130267 -0.1668128
0001d0 1e 6b 72 3e 78 02 e9 3d 69 96 66 bc 5c ae e9 3d
       0.23673674 0.11377424 -0.0140739465 0.114102095
0001e0 ee 17 01 be cf 5e 7f bd bb 78 13 be 87 45 d8 bd
       -0.12606785 -0.062346276 -0.14401524 -0.10560136
0001f0 34 9e a9 bd 29 78 bc 3d 3e 50 17 bf b9 ab ce bd
       -0.08282128 0.09202606 -0.59106815 -0.10091347
000200 56 c6 49 bd 82 34 3d be a6 dd e6 3d cd 43 df 3d
       -0.049261414 -0.18477061 0.11272745 0.10901604
000210 45 78 8e be 70 bc 2d bf 92 1c 9b 3b 4d c5 b3 3c
       -0.27826133 -0.6786566 0.0047336305 0.021944666
000220 88 e5 c2 bd 23 46 e0 bd d2 ae 82 3b 59 ee 1d 3e
       -0.09516436 -0.109508775 0.0039881254 0.15422954
000230 22 fb 80 bc dc ae 4c 3d c0 f6 f9 be 9b 48 af be
       -0.01574475 0.049971446 -0.48821068 -0.3423508
000240 23 0f b3 bc 22 30 6d 3d 0a e2 11 bf ae 20 21 be
       -0.021857804 0.05790723 -0.56985533 -0.15735123
000250 d4 f6 a8 3d 0e b2 17 bd bc 8e 3d 3e 6f 0a 9f 3d
       0.08250204 -0.03703504 0.1851148 0.07765662
000260 5f 0f 6a bd 9b e9 34 3d 2e 07 49 3e 2a 84 63 3d
       -0.057143565 0.044168096 0.19631645 0.055545963
000270 d6 62 37 3e 70 de 49 3d 26 d2 61 3d 0d 67 0a 3e
       0.17908797 0.0492844 0.055132054 0.13515873
000280 e4 5d f9 bc f2 9b 37 3e 1f f4 85 bd 37 20 d2 bc
       -0.030440278 0.17930582 -0.06540703 -0.025650127
000290 48 e4 9c 3d ed f6 2d bd 7c 77 5a bd 97 d2 e3 3c
       0.07660729 -0.042471815 -0.053336605 0.027810378
0002a0 9f e3 2d be 04 8f 1d 3e 5c 01 1e 3e a1 10 01 be
       -0.16981362 0.15386587 0.15430206 -0.12604
0002b0 34 88 4f 3e 57 ef 64 3d cd 64 01 3e 5c b1 0f be
       0.20266801 0.055892315 0.12636109 -0.14032501
0002c0 5e 79 d5 bd ba 01 0e 3d 50 da 95 be da 13 bb bd
       -0.104235396 0.034669615 -0.29268122 -0.09134646
0002d0 ad 8e 28 be dd 36 61 bd a4 f2 c4 bd 70 84 2d bd
       -0.16460676 -0.054983962 -0.096165925 -0.04236263
0002e0 28 7c 4c be ef 57 d6 bd e3 6f f2 bc 9e 81 0c be
       -0.19969237 -0.10465991 -0.029594367 -0.1372132
0002f0 e5 83 26 bc 01 8d 3b bd 9f dd 4a bc 2b ab b9 bc
       -0.010163282 -0.04578877 -0.01238194 -0.022664627
000300 4e 90 11 be 7b ce 5b 3d 54 be 79 3d 81 08 ec bd
       -0.14215204 0.053663712 0.060972527 -0.115250595
000310 0e 26 84 bd 95 62 cc bc 40 40 13 bf bd 50 53 bd
       -0.06452571 -0.024949351 -0.5751991 -0.05159067
000320 7e 23 a6 bd 91 53 75 3c dc f0 1d be 7c cc e6 bd
       -0.08112238 0.014973537 -0.15423912 -0.11269471
000330 ff 08 ea bc 0b 97 7c bb 56 9a 8d 3d 07 a6 ce bd
       -0.028568743 -0.0038542177 0.06914203 -0.10090261
000340 a8 2a 2d be de 00 48 3c 72 66 2a 3d 54 23 c7 bc
       -0.16910803 0.012207238 0.041601606 -0.024308838
000350 56 41 21 bc 72 42 d3 bb d0 d1 bd bb fe 49 1e 3e
       -0.009842237 -0.00644713 -0.005792834 0.15457913
000360 39 01 5f 3e 6b 80 e9 be 36 c3 3d bd 28 a0 e8 3d
       0.2177781 -0.45605788 -0.046328746 0.113586724
000370 cf 88 1d 3e 6c 52 d6 3c 67 1a 36 3d 4f b3 41 3d
       0.1538422 0.026162349 0.044458773 0.047290143
000380 a2 bd b7 3a bd b6 1b 3e c3 08 2f be 6d 67 60 3e
       0.0014018307 0.15206428 -0.17093186 0.21914454
000390 a8 aa fe bd 4a 52 0a 3e b4 4c ac bc c5 60 47 be
       -0.12434894 0.13507953 -0.021032669 -0.19470508
0003a0 12 d7 16 bd 38 f5 63 be 0e 38 d7 3d 03 79 76 bc
       -0.0368262 -0.22261512 0.105087385 -0.0150435
0003b0 07 b7 2a be 1c 58 88 be 44 c4 86 3c d3 91 43 3e
       -0.16671382 -0.26629722 0.016451009 0.19098596
0003c0 6c 0c 8c be 1b 1b 20 be d8 4d 09 be 04 9b 6a 3d
       -0.27353227 -0.1563534 -0.13408601 0.05727674
0003d0 37 9c 9a be fd 3a 8f be 91 e8 fd bc ca 8d 0c be
       -0.30197307 -0.27974692 -0.030994685 -0.13725963
0003e0 3f a2 b9 3b 89 b6 00 be 3a 71 16 bd 96 e5 46 be
       0.005665093 -0.12569632 -0.036729075 -0.19423518
0003f0 d3 be c5 3d 61 45 22 3d 83 29 27 be 64 54 8e 3e
       0.096555375 0.039616946 -0.16324429 0.2779876

convt2.bias f4 [16]
000000 7b 5c 63 3d 6e 30 fb 3d c5 c0 cc 3c 66 ab f1 3d
       0.055508118 0.122650966 0.024994263 0.1180027
000010 57 52 97 3c 29 3b 21 3e 34 bb b4 3d fc 07 34 bb
       0.01847188 0.15745224 0.08824769 -0.002747058
000020 08 a3 07 3e 81 06 3f 3d 3b b9 c0 bc 01 8f 68 bc
       0.13245785 0.046637062 -0.023525825 -0.014194251
000030 bf c3 92 3c 6a f0 14 3e c8 b5 b7 bb 5d 79 24 3e
       0.017915605 0.14544836 -0.005606387 0.16061921

convt3.weight f4 [16, 32, 9, 9]
000000 c8 e3 23 bf d1 e4 34 be 80 c1 2e bd d9 39 50 bf
       -0.6401944 -0.17665412 -0.042665005 -0.8133827
000010 27 08 44 bd ae 2d 10 bf e0 ec ee be 08 18 b8 bd
       -0.047859337 -0.563197 -0.46665096 -0.089889586
000020 5e e5 d7 be e9 c3 6c be 68 70 ac 3d 88 ff e2 bd
       -0.4216718 -0.23121609 0.08419877 -0.11083895
000030 44 6c 87 bd a5 50 a8 be 05 2f 70 3d bb 79 ab 3d
       -0.06612447 -0.32874027 0.05863859 0.083728276
000040 21 cc d2 3d 20 bf 84 be 54 46 23 be 07 ec 4c be
       0.10292841 -0.25927067 -0.15944797 -0.20011912
000050 3e 6b eb 3d c4 bf 95 be 1c 4b 15 be 12 d5 13 3c
       0.11495064 -0.29247868 -0.14579433 0.009022968
000060 57 3a 67 bd 6a fa ec bc d4 07 cf 3d 04 53 af be
       -0.05645212 -0.028928 0.10108915 -0.34243023
000070 b8 cd e6 bd 3a 5f f6 be 15 f5 d3 be 98 0c 80 be
       -0.112697065 -0.48119527 -0.4139792 -0.25009608
000080 9f e5 f0 bd 60 7f 9c be dd 86 d4 be b9 22 dd be
       -0.11762547 -0.3056593 -0.41509143 -0.43190554
000090 6f 6d 9a be 16 d2 57 3b 2f 2f 05 bf 89 c3 c2 be
       -0.30161616 0.0032931617 -0.5202512 -0.38039806
0000a0 f7 8c b5 be 95 a8 aa bd 83 3c 17 be ea a2 5e be
       -0.3545911 -0.08332936 -0.14769177 -0.21741834
0000b0 58 e2 a9 be b9 e0 ef bd d9 73 22 bf b8 29 d5 bd
       -0.331805 -0.11712784 -0.6345802 -0.10408348
0000c0 73 98 2c be 26 e8 05 bf e9 f1 50 be c3 bb c3 be
       -0.1685503 -0.52307355 -0.20404781 -0.38229188
0000d0 a0 6b c9 be 94 8a 22 be 7e 57 fe 3d 7d a6 9b be
       -0.39339924 -0.15873176 0.124190316 -0.30400458
0000e0 bd 3f db 3d 47 f7 0d be f2 fe 18 bf f9 3e 06 be
       0.107055165 -0.1386386 -0.59764016 -0.1310996
0000f0 34 a0 e5 bd e6 ec 67 39 f2 4a 79 3d 7a fc ed bd
       -0.11212197 0.00022118128 0.06086249 -0.11620422
000100 a1 6f 81 bb 89 01 de be 08 94 59 bd dc 7f c5 bc
       -0.003950075 -0.43360546 -0.05311969 -0.02410882
000110 ae ec 29 3c 71 91 ba bd 6a 76 88 3c 1c 86 81 be
       0.01037137 -0.09109772 0.016658027 -0.2529763
000120 b7 86 9e bd 39 db 8b be 18 37 97 be 32 72 d2 bd
       -0.077405386 -0.2731569 -0.2953422 -0.10275687
000130 62 5d 3b be 69 20 bd bd a2 b8 00 be c8 c1 76 be
       -0.18297341 -0.09234697 -0.12570432 -0.24097359
000140 59 f0 cb bd fd ff 87 be 28 70 60 be 79 18 70 be
       -0.09957952 -0.2656249 -0.21917784 -0.23446836
000150 ec 65 d9 be d8 66 1b bf 0a 2a ca be 99 af c9 be
       -0.42460573 -0.607038 -0.39485198 -0.39391783
000160 3d e5 f0 be 52 2b f7 be 6b cd 1b be 7a 34 a9 3d
       -0.47049895 -0.48275238 -0.1521508 0.08261962
000170 08 44 bc bd 5f 26 c1 bd 0d 96 26 be a7 ff 85 bc
       -0.091926634 -0.09431147 -0.16268177 -0.016357256
000180 d5 20 6d 3d 74 0e 05 3e a5 ac e7 bd d4 a9 4d be
       0.05789264 0.12993795 -0.11312226 -0.20084316
000190 2a 43 40 bc 78 f8 0a be 22 c3 4d be 25 f4 8c be
       -0.011734763 -0.13571346 -0.20093969 -0.27530017
0001a0 67 51 e2 be ce 3a c8 bd 66 d0 d4 be 2a 9e b8 be
       -0.4420273 -0.09776841 -0.41565245 -0.3605817
0001b0 ec e4 5f be d8 9d 8c be 67 c4 2d be c7 3f ba be
       -0.2186467 -0.27464175 -0.16969453 -0.36376783
0001c0 52 ef ef be 9a 1e ab be 31 28 92 be ee ee ad be
       -0.46862274 -0.33421785 -0.2854629 -0.3397135
0001d0 6c 54 bb be 4a db 4a bd 35 05 7c be 2d 4c 0e 3d
       -0.36587846 -0.049525537 -0.24611361 0.034740616
0001e0 19 0d 07 be bc 77 9d be 9f 9c 00 be d5 6b b8 bd
       -0.1318859 -0.30755413 -0.12559746 -0.09004942
0001f0 3c 18 5b be 9a a2 3b be 21 ae a4 be 7b 41 2c be
       -0.21395963 -0.18323746 -0.321641 -0.16821854
000200 21 de 7d be 03 b4 06 bf 8d 6a 2a bc dc db 04 bf
       -0.24791767 -0.52618426 -0.01040138 -0.5189798
000210 2f 0e a4 be 01 0b 8e be 57 00 ea be 5d 5e fb bd
       -0.3204207 -0.2774277 -0.45703384 -0.12273858
000220 cd ab 9c bd a8 c3 01 be c7 d4 5d be d0 dd bb be
       -0.07649956 -0.12672293 -0.216632 -0.36692667
000230 d8 3c ac be af 69 9b bd 61 48 72 be 5a 9c 59 be
       -0.3364017 -0.07588517 -0.23660423 -0.2125105
000240 f2 54 2e be 21 56 7a be 2a 52 57 be 28 99 c5 be
       -0.17024592 -0.24446918 -0.21027437 -0.3859341
000250 28 3e d5 be e2 00 27 be 77 7c 67 be 2e f1 8f be
       -0.41648984 -0.1630893 -0.22606073 -0.28113693
000260 94 3a b9 be fc b7 88 be 3a 6f 32 bd 5a 74 17 be
       -0.36177504 -0.2670287 -0.043563105 -0.14790478
000270 f3 02 dc be 51 16 8c be 49 bf e8 be 33 8d 9e be
       -0.42971 -0.27360776 -0.4545844 -0.309671
000280 f0 28 8a be bc 56 d6 be 24 77 87 bf 29 06 4b 3e
       -0.26984358 -0.41863048 -1.0583234 0.19826569
000290 d3 d8 28 bf 87 34 5e bf ec 85 0e bf 54 66 4b bf
       -0.6595585 -0.867989 -0.556731 -0.79453015
0002a0 3b 17 2d bf 64 63 04 be 4d 80 85 bf 69 f4 bb 3d
       -0.6761357 -0.1292854 -1.0429779 0.09177477
0002b0 69 4f 30 be f5 7d 1b bf 8b ad f3 3d 9f 21 20 be
       -0.17217793 -0.6073907 0.11898335 -0.15637825
0002c0 6d 94 70 bd 15 e3 08 bf 53 6e 4e bc 63 a5 32 be
       -0.0587353 -0.534715 -0.0125995455 -0.17445903
0002d0 b5 5c 37 bd d9 de 0d bf c3 79 13 bf 07 b1 73 be
       -0.044766147 -0.55418164 -0.5760767 -0.23798
0002e0 88 71 55 bf 22 63 df be 2f 29 48 be 05 67 3c bf
       -0.8337636 -0.4363032 -0.1954696 -0.73594695
0002f0 cf ca 2e bf 43 ab d9 be 37 8a 16 3e 28 50 b1 be
       -0.6827821 -0.42513475 0.14701162 -0.34631467
000300 62 03 5c be ed f8 9e be 44 0b eb be 67 6a 53 bd
       -0.21485665 -0.3104929 -0.45907032 -0.051615145
000310 2e 3d 40 be d2 9e b7 be fc 44 99 be a7 ac be be
       -0.18773338 -0.35863358 -0.29935443 -0.37241098
000320 bf c0 1b be 3b 14 b0 3c 2d 53 c7 be 47 32 0d 3e
       -0.15210246 0.021494022 -0.38930646 0.1378871
000330 eb 0b 25 bf a0 af 16 be ec 63 c4 be 11 e4 3c be
       -0.6447131 -0.14715433 -0.38357484 -0.18446375
000340 a5 7c d0 be db 2d 91 be 42 fa 80 bd 77 ba a2 be
       -0.40720096 -0.28355297 -0.06297733 -0.31782886
000350 07 6f 18 bf 7a 37 64 bd e5 77 a1 be 75 26 8a be
       -0.59544414 -0.05571697 -0.31536785 -0.26982465
000360 39 7a 52 bf 35 0c 92 3d cc 33 4e bf b9 fb 36 bf
       -0.82217747 0.071312346 -0.80547786 -0.7147785
000370 6f ac 66 be e8 82 34 bf 04 60 8c be df 1e 7b be
       -0.22526716 -0.7051225 -0.27417004 -0.24523495
000380 f7 80 e5 be 59 8b 73 be cf b8 d1 be 1a 87 09 3d
       -0.44824955 -0.23783626 -0.4096131 0.03357611
000390 94 bc 90 3d d1 f5 0d bf 94 32 97 bd c4 b2 7c bf
       0.070672184 -0.5545321 -0.07382694 -0.98710275
0003a0 9d 07 f7 bd b4 7f 0f bf 76 4d dd be 51 2d 19 bf
       -0.12061999 -0.56054235 -0.4322316 -0.5983477
0003b0 d1 ff 43 bf 84 83 0a bf dd 19 3c bf 78 9b 24 bf
       -0.7656222 -0.54106927 -0.73476964 -0.64299726
0003c0 86 1e 6c be 53 53 df be 89 82 ad be 71 ef c9 be
       -0.23058519 -0.4361826 -0.33888653 -0.39440492
0003d0 87 5b d1 bd ca 66 6a be da f9 21 be 9a 43 ac be
       -0.102225356 -0.22890773 -0.15817967 -0.33645326
0003e0 68 46 bb bd 5e d6 7e be fe d7 da 3d 1d dc e2 be
       -0.09144288 -0.24886462 0.106857285 -0.44308558
0003f0 28 78 f4 bd 9b e0 37 3e 37 1f b0 be a9 1f a6 be
       -0.119369805 0.17956774 -0.34398815 -0.3244603

convt3.bias f4 [32]
000000 fc ae 07 3e 68 24 e8 3d 11 3c fd 3d 88 63 1c 3e
       0.13250345 0.11335069 0.123649724 0.15272343
000010 60 f7 c6 3d c6 82 28 3d 53 d7 8d be 2f 31 84 3d
       0.09715152 0.04114034 -0.27703342 0.064546935
000020 f5 da c3 3d a8 96 df 3d 10 80 57 3d bf 9c 22 3e
       0.09563247 0.10917407 0.052612364 0.15880106
000030 a9 c3 5f 3e 03 3a 2a be 01 16 58 3e 9d 8e ce 3d
       0.21851982 -0.16623692 0.21102144 0.10085795
000040 c6 8d 1b 3e ff ed ec 3c 8d 7c e9 3d f3 3a 47 3d
       0.15190801 0.02892208 0.11400709 0.048640203
000050 f0 a8 40 3e cb e6 e9 3d df c6 14 3e b4 9c 42 3e
       0.18814445 0.114209734 0.14528988 0.1900509
000060 fd a8 92 3d 9b 25 97 3d 71 ad 70 3d 21 af 88 3d
       0.07161138 0.073802195 0.058759157 0.06674028
000070 1f 7e a7 3d 80 f6 c8 3d bd 00 9b be 8f 22 d0 3d
       0.081783526 0.09812641 -0.30274 0.101628415

pos_output.weight f4 [1, 32, 2, 2]
000000 d8 87 d8 3d 23 38 b3 3d bc 5e 22 3e f2 a9 69 3e
       0.10572785 0.087509416 0.15856451 0.22818735
000010 68 3b 04 3e b8 e5 10 3e 95 92 20 3e 23 0f 19 3e
       0.12913287 0.14150131 0.15680917 0.1494718
000020 23 8a 42 bb 27 f6 55 bd 82 ef a4 3c 4e 6c 22 bd
       -0.0029684387 -0.052236702 0.020133737 -0.03965407
000030 b6 2b 46 3e 73 07 0b 3e 58 74 c8 3d aa 77 2a 3e
       0.19352612 0.1357706 0.09787816 0.1664721
000040 47 1b a9 3c bc d7 a6 3d 60 45 8d 3d 64 f7 30 3e
       0.02064289 0.08146617 0.06897998 0.17281872
000050 19 98 1c 3b 89 5d 74 be 95 2c 11 3e d0 4b 2b be
       0.0023894368 -0.23863806 0.14177163 -0.16728139
000060 16 eb 6a be 19 c1 8b be a3 7a a2 be 13 cc a3 be
       -0.2294124 -0.2729576 -0.3173419 -0.31991634
000070 9d fb 06 be 8d 63 d3 3d 4d 7d 52 ba 0b 73 d2 3e
       -0.1318192 0.10321722 -0.00080295355 0.41103396
000080 89 db a0 3e fe f8 9f 3e ed c8 87 3e 75 10 6b 3e
       0.31417492 0.31244653 0.26520482 0.22955497
000090 43 bf 06 bd 16 91 8c 3d 7d 6b 72 3d 76 4d 3c 3d
       -0.032897245 0.068636104 0.05918454 0.04597231
0000a0 dd 2e 96 3e 34 be a9 3e 48 51 c6 3e 57 7a 99 3e
       0.2933263 0.33152926 0.38733888 0.2997615
0000b0 e4 f5 cc 3e 48 b1 c8 3e bc db be 3e 5e 30 92 3e
       0.4003135 0.39197755 0.3727702 0.28552526
0000c0 e2 f5 a9 bd ea fc c3 bc c8 63 ec 3d 20 65 c5 3c
       -0.082988515 -0.02392431 0.11542469 0.024096072
0000d0 c0 d9 96 be 0a d6 88 be 91 c3 90 be 7c 76 71 be
       -0.29463005 -0.267258 -0.28274205 -0.23580354
0000e0 7b b7 8d bd a3 80 20 bd cc 15 23 3e 90 e5 18 be
       -0.06919762 -0.039185178 0.15926284 -0.14931321
0000f0 b4 98 3e 3d f7 0b 51 be 1c b3 3b 3e a2 8e 57 bd
       0.046532348 -0.2041472 0.18330044 -0.05262626
000100 31 e9 42 bd 89 3a a7 bd 81 e3 8e 3d 10 e0 1a 3d
       -0.04758567 -0.081654616 0.06976987 0.03781134
000110 64 bf 6a be 61 6f 35 be c7 26 54 be 30 9a 0f be
       -0.22924572 -0.17718269 -0.20717917 -0.14023662
000120 57 d5 d9 3d eb de 11 3e a1 bf 7e 3d 50 23 90 3d
       0.106363945 0.14245193 0.06219447 0.07037985
000130 e9 fc 8f 3e d8 0e 37 3e ef f3 84 3e 67 b5 72 3e
       0.28122643 0.17876756 0.25967357 0.23702012
000140 b8 cd 46 be 4a d3 33 bd 74 72 d2 3d 7f c5 de 3c
       -0.19414413 -0.043902673 0.102757365 0.027193783
000150 9e e1 63 be 1e 29 17 be 1a db 36 be 96 a5 25 be
       -0.22254035 -0.14761779 -0.17857018 -0.16176447
000160 bc d2 ec bd 2c 33 96 3c db e5 90 3d 7f c7 81 bd
       -0.11563632 0.018334948 0.070750915 -0.06336879
000170 f3 c5 ad 3d f9 cb 13 3e f9 66 f4 bd 08 7c ad 3d
       0.084850214 0.14433278 -0.11933703 0.08470923
000180 f0 b8 df bd 36 14 05 3d 5e e2 00 3c e3 51 8a bc
       -0.10923946 0.032489978 0.00786647 -0.01688475
000190 e2 db 1c bd c5 09 98 3c 12 a2 73 be 3f 42 d9 bd
       -0.038295634 0.018559346 -0.23792294 -0.106083386
0001a0 c1 f0 e7 3d e2 8c f6 3d c1 ff f5 3d ad 70 2f 3d
       0.11325217 0.1203859 0.12011672 0.042832065
0001b0 82 25 d9 bd cb b3 03 be ab a5 1a be f8 b4 1f be
       -0.10602857 -0.12861554 -0.1510226 -0.15596378
0001c0 92 dc c5 3e 92 0f b8 3e c6 15 90 3e 4f d5 93 3e
       0.38644844 0.3594938 0.28141612 0.2887368
0001d0 e3 78 1d 3e 3f 71 a8 3d 6d 86 71 3d 15 d0 f7 3c
       0.15378146 0.08224725 0.05896609 0.030250588
0001e0 68 2d b5 3c 09 1c d1 3c 10 ed 47 3c a5 7d bd ba
       0.022116378 0.025526064 0.012202516 -0.0014457001
0001f0 c0 3b b1 3d d0 89 fc 3d 84 80 21 3e ee f9 3e 3e
       0.086539745 0.12330973 0.15771681 0.18650028
