ggcnn_base/output/models/230121_1510_training_example/epoch_02_iou_0.37_statedict.pt (torch, 256417 bytes, 16 tensors)

conv1.weight f4 [32, 1, 9, 9]
0	0xbcb72822	-0.022358004
1	0xbc8fd474	-0.01755736
2	0xbd11bbb8	-0.035579413
3	0xbc6d8159	-0.014496171
4	0xbd19d9ef	-0.037561353
5	0xbc18f381	-0.0093354
6	0x3d1bad43	0.038007032
7	0x3d1906ab	0.037359875
8	0x3ccec399	0.025239753
9	0xbcd699b1	-0.026196333
10	0x3a9fb605	0.0012184983
11	0xbcb32a43	-0.021870738
12	0xbd303f57	-0.043029156
13	0xbce54516	-0.027987044
14	0x3b77a938	0.0037790071
15	0x3c7e276e	0.01551233
16	0xbd508fa4	-0.050918236
17	0xbca90de2	-0.020636503
18	0x3c0fed81	0.008784653
19	0x3cd9fc0a	0.02660944
20	0x3d3e14f7	0.046406712
21	0x3c2a8703	0.010408166
22	0x3d0752d1	0.033037964
23	0x3c799b61	0.015234799
24	0xbd21c811	-0.03949744
25	0xbbdf9822	-0.0068235556
26	0xbd5b3004	-0.05351259
27	0x3cd1aaf9	0.025594221
28	0xbd0e1de4	-0.034696475
29	0xbcb2f944	-0.021847375
30	0xbbe87ac2	-0.007094712
31	0x3c0a62d8	0.008446418
32	0x3d22755c	0.039662704
33	0x3cff19c7	0.031140221
34	0xbd3578db	-0.04430471
35	0xbb676ba5	-0.0035311964
36	0xbcc1aa05	-0.023640642
37	0xbc483da6	-0.012221729
38	0x3c32bb5f	0.010908931
39	0x3c0d8964	0.0086387135
40	0x3b81b8c9	0.0039587957
41	0x3cf29a6f	0.029614655
42	0xbd16b757	-0.03679594
43	0xbd2d538d	-0.04231601
44	0x3ca7c758	0.020480797
45	0x39a9f094	0.00032413437
46	0x3ca85a4a	0.020550866
47	0xbbbbf654	-0.0057361517
48	0xbcf2b61c	-0.029627852
49	0x3a8cb032	0.0010733663
50	0x38a17a90	7.699907e-05
51	0x3d25068d	0.04028945
52	0x3cf55b90	0.029950887
53	0xb955157a	-0.00020321264
54	0xbd1ab10d	-0.037766505
55	0x3c25d2fd	0.010121104
56	0x3d253641	0.040334944
57	0xbbd624b0	-0.006535135
58	0xbd121346	-0.03566291
59	0x3d1d3634	0.03838177
60	0xbc2e57a0	-0.010641009
61	0x3c57322f	0.013134523
62	0x3d283658	0.04106745
63	0x3d147b4f	0.03625041
64	0xbc51030e	-0.012757076
65	0xbabcd04c	-0.0014405339
66	0xbd196561	-0.037450198
67	0x3d0fa08b	0.035065215
68	0xbbf57e2a	-0.0074918466
69	0xbba60b00	-0.0050672293
70	0xb9d29498	-0.00040165032
71	0x3bbcf304	0.0057662744
72	0xbc801fa7	-0.015640093
73	0x3c9a9e83	0.018874412
74	0x3d0743d1	0.03302366
75	0x3d120139	0.035645697
76	0x3bbc1abb	0.005740491
77	0xbd58d190	-0.05293423
78	0xbc9187e9	-0.017765002
79	0xbc96e4ad	-0.018419588
80	0x3d268e43	0.040663015
81	0x3ba89e18	0.0051457994
82	0x3cda119b	0.026619723
83	0x3a2244d3	0.0006190065
84	0xbb4092fb	-0.0029384482
85	0xbd05678f	-0.032569464
86	0x3d4a0a71	0.049326364
87	0x3c97e1ad	0.018540228
88	0x3cc15ad6	0.023602884
89	0xbd0c0c20	-0.03419125
90	0xbcf70a33	-0.03015623
91	0xbc713d4d	-0.014724088
92	0x3d1409b7	0.036142077
93	0x3d4b3c67	0.04961815
94	0x3c8c3bc0	0.017118335
95	0xbc2f8580	-0.010712981
96	0x3d0aacb8	0.033856124
97	0x3d15f763	0.03661288
98	0x3c9602dd	0.018311912
99	0x3c971ee8	0.018447354
100	0x3d13bea0	0.036070466
101	0xbd12e556	-0.035863243
102	0x3d3b1e75	0.045683343
103	0x3b97709d	0.004621579
104	0x3d27b710	0.040946066
105	0xbc5a24b7	-0.013314418
106	0xbc4395b2	-0.011937546
107	0xbcf5236b	-0.029924115
108	0x3afae925	0.0019142969
109	0x3cdc6507	0.026903642
110	0x3c2a3178	0.010387771
111	0x3c618e2b	0.013766806
112	0x3a864593	0.0010244123
113	0x3d54590a	0.051842727
114	0xbcaae487	-0.020860923
115	0xbad4fe6c	-0.001625014
116	0x3d074be5	0.033031363
117	0x3c4ea361	0.012612195
118	0xbb922922	-0.00446047
119	0xbd1240af	-0.03570622
120	0x3c39c83e	0.011339245
121	0x3d6988e9	0.057015333
122	0x3d097eb8	0.033568114
123	0xbc8aaa30	-0.016926855
124	0x3d367f27	0.044554856
125	0x3d411662	0.047140487
126	0xbcef9714	-0.029246844
127	0x3cbfc06b	0.023407182
128	0xbd3276f4	-0.043570474
129	0x3d4c09bd	0.049813975
130	0xbc6262e1	-0.01381752
131	0x3c1d42f8	0.009598486
132	0xbc5fc90c	-0.013658773
133	0x3d315930	0.043297946
134	0x3d61ceba	0.05512879
135	0x3c9da249	0.019242423
136	0x3d13c446	0.036075853
137	0x3c80976d	0.015697205
138	0x3b8bd22f	0.004266999
139	0xbbd554cd	-0.006510353
140	0x3d0c783d	0.034294356
141	0x3d122df8	0.03568837
142	0x3d377b65	0.044795413
143	0x3cc11306	0.023568641
144	0x3d2ca695	0.042151053
145	0x3d196137	0.037446227
146	0x3c43ac37	0.011942915
147	0x3c1fd133	0.009754467
148	0xbce71022	-0.028205935
149	0x3c5fcd6e	0.013659818
150	0x3c3d5298	0.011555336
151	0x3d27df5f	0.040984508
152	0x3d3ded0d	0.046368647
153	0xbca6c073	-0.020355439
154	0xbc549b8d	-0.012976539
155	0x3d2df1d6	0.04246696
156	0xbc36f427	-0.011166609
157	0x3d38ffc0	0.045165777
158	0x3cdf5612	0.027262721
159	0x3cd54e71	0.02603838
160	0x3cb3a909	0.021931188
161	0xbcf06479	-0.029344784
162	0xbdabf55e	-0.083964095
163	0xbdb5ecc3	-0.08883049
164	0xbdd684c3	-0.10474541
165	0xbcc62c6a	-0.0241911
166	0xbddeae99	-0.108731456
167	0xbd59e3ed	-0.053195883
168	0xbd73dfcb	-0.059539597
169	0xbdadb979	-0.08482642
170	0xbdad7681	-0.084698685
171	0xbda9efd9	-0.082977004
172	0xbdbb5101	-0.0914631
173	0xbd8664b8	-0.06562179
174	0xbd1d1ede	-0.038359515
175	0xbc247c68	-0.010039426
176	0xbd56b624	-0.052419797
177	0xbd8453b4	-0.064612776
178	0xbd63b9db	-0.055597167
179	0xbd5e739f	-0.054309484
180	0xbd939241	-0.0720563
181	0xbc2fada0	-0.010722548
182	0xbd97d3cf	-0.07413446
183	0xbd79209e	-0.06082212
184	0xbc8bf3a9	-0.01708396
185	0xbbde09a7	-0.006776053
186	0xbd5b9c07	-0.053615596
187	0xbc1f2915	-0.009714385
188	0xbbe901c1	-0.007110805
189	0xbd1274ad	-0.035755802
190	0xbd842826	-0.0645297
191	0xbd82faf2	-0.0639552
192	0x3d04fa68	0.03246537
193	0x3c395549	0.0113118375
194	0xbc96d707	-0.01841308
195	0xbc6c927c	-0.0144392215
196	0xbc4a2eea	-0.012340287
197	0xbc0c4919	-0.00856235
198	0x3d26a428	0.040683895
199	0xbc6a1e84	-0.014289502
200	0xbbfab65e	-0.0076511344
201	0xbd04992f	-0.03237265
202	0x3c6fc1bd	0.014633593
203	0x3d222026	0.03958144
204	0xbb0376ba	-0.002005978
205	0xbbedb5ba	-0.0072543295
206	0xbca9476a	-0.020663936
207	0x3c9d60e1	0.019211235
208	0xbba97b79	-0.00517219
209	0xbd0e5dea	-0.034757532
210	0x3d8a7d6b	0.06762203
211	0x3d47ce36	0.048780642
212	0x3d7e92b3	0.062151622
213	0xbcc94c98	-0.024572656
214	0xbb9f281e	-0.0048570773
215	0x3bf5f398	0.0075058453
216	0x3d4949c5	0.049142618
217	0xbc6883a4	-0.014191542
218	0xbc40aab1	-0.011759446
219	0x3da892b4	0.082311064
220	0x3d758584	0.059941784
221	0x3c72d2df	0.014820783
222	0x3cbcb96b	0.023037633
223	0x3da3563e	0.07975434
224	0xbbe7466b	-0.007057955
225	0x3d504bfe	0.05085372
226	0x3dc214ae	0.094766006
227	0x3db9c049	0.090698786
228	0x3de50b37	0.1118378
229	0x3d5f06c2	0.054449804
230	0x3d442662	0.047888167
231	0x3d62a75b	0.055335384
232	0x3db1cbf2	0.086814776
233	0x3db9b8a3	0.0906842
234	0x3dce0e3e	0.1006131
235	0x3dc09491	0.09403337
236	0x3d9f185e	0.077683195
237	0x3d99f7fc	0.075180024
238	0x3df3796f	0.11888396
239	0x3dc21251	0.0947615
240	0x3dd6ad37	0.10482257
241	0x3d74f99c	0.05980836
242	0x3dc6b503	0.09702494
243	0xbd3674fb	-0.044545155
244	0xbd89d822	-0.06730677
245	0xbd04bc97	-0.032406416
246	0xbe1a4109	-0.15063871
247	0xbe2c5784	-0.1683026
248	0xbe0fd295	-0.14045174
249	0xbe1e3a51	-0.15451933
250	0xbe313ddb	-0.17308752
251	0xbdc894e3	-0.09794023
252	0xbd9c55b7	-0.07633536
253	0xbd4996ed	-0.0492162
254	0xbcf8748c	-0.030329011
255	0xbdbd097e	-0.09230326

conv1.bias f4 [32]
0	0xbdcc41fc	-0.09973523
1	0x3d88e42f	0.066841476
2	0x3d3aed07	0.045636203
3	0x3d18f16f	0.037339624
4	0xbdd2f213	-0.10300078
5	0xbcb23d54	-0.02175776
6	0x3dc37c70	0.09545219
7	0x3d981095	0.07425038
8	0x3e03b829	0.1286322
9	0xbd32ea14	-0.043680266
10	0x3cee5003	0.029090887
11	0x3dc362af	0.09540307
12	0x3cdf3ec1	0.027251603
13	0xbe1a065e	-0.15041491
14	0xbd92e17b	-0.07171913
15	0x3d3faceb	0.046795767
16	0xbd908158	-0.0705592
17	0xbdbdeb92	-0.09273447
18	0x3dc8281d	0.09773276
19	0xbd9a3239	-0.075291105
20	0xbd992b50	-0.07478964
21	0xbdc900a7	-0.098145775
22	0xbd6728fc	-0.05643557
23	0x3d77d074	0.06050153
24	0x3df98d59	0.12185163
25	0x3cf9b6ca	0.030482668
26	0x3d9d2a54	0.07674089
27	0x3d803c5d	0.062615134
28	0x3d292380	0.04129362
29	0xbda73175	-0.0816373
30	0x3d7ff9d4	0.062494114
31	0x3d448eec	0.047987863

conv2.weight f4 [16, 32, 5, 5]
0	0xbd3b0128	-0.0456554
1	0x3d258a93	0.040415358
2	0x3b45793c	0.0030132076
3	0x3c274ca6	0.0102111455
4	0x3bc7d3b7	0.0060982364
5	0xbbdd87ba	-0.0067605646
6	0x3d81843b	0.06324049
7	0x3d2e656d	0.042577196
8	0xbc800475	-0.015627125
9	0xbd81ec02	-0.06343843
10	0xbc321138	-0.010868363
11	0x3c8c2147	0.017105712
12	0xbd1d8e2e	-0.03846567
13	0xbc4d9717	-0.01254823
14	0x3d466ee4	0.048445597
15	0x3d0a03fe	0.033695213
16	0xbce3a507	-0.027788652
17	0xbb5730a7	-0.0032835396
18	0x3cd7ea19	0.026356744
19	0xbd36dba8	-0.044643074
20	0xbcdab72b	-0.02669867
21	0x3d1e614f	0.03866702
22	0x3d7b477a	0.061347462
23	0xbd49cd7b	-0.049268227
24	0x3cc39f4d	0.023879671
25	0x3d114478	0.035465688
26	0xbd9fe0d1	-0.07806552
27	0xbdc2ddf6	-0.09514992
28	0x3c4cf80d	0.012510312
29	0xbd9ce008	-0.07659918
30	0xba8d3f1f	-0.0010776258
31	0x3c5b5849	0.013387748
32	0xbd07a0fb	-0.033112507
33	0xbb9b737c	-0.0047439914
34	0xbcc3b231	-0.02388868
35	0x3cdbdf89	0.026839988
36	0x3d12a6a6	0.03580346
37	0x3cb18cce	0.021673586
38	0xbd1b1835	-0.037864882
39	0xbce21ff6	-0.02760313
40	0xbd6c414c	-0.05767946
41	0xbd246d4c	-0.040143296
42	0xbc190051	-0.009338454
43	0xbd47c509	-0.04877189
44	0xbcf3b1ec	-0.029747926
45	0xbc18d911	-0.009329096
46	0x3db31e9c	0.08746073
47	0xbd2f073e	-0.042731516
48	0x3d6a5e02	0.05721856
49	0x3ce39012	0.027778659
50	0x3c8075d5	0.015681187
51	0x3cd22c79	0.025655972
52	0x3d4b8faa	0.049697556
53	0xbca74241	-0.020417335
54	0xbdfb4526	-0.122690484
55	0x3d19b18e	0.037522845
56	0x3b844c17	0.004037391
57	0x3d1b80a0	0.037964463
58	0x3cdd6544	0.027025826
59	0xbd0de96d	-0.03464644
60	0xbc422766	-0.011850214
61	0x3d80f434	0.06296578
62	0xbbbe5a59	-0.00580911
63	0x3d34012d	0.043946434
64	0xba6d5bdc	-0.00090545206
65	0x3d2e8965	0.0426115
66	0x3d150a93	0.036387037
67	0x3cb9e9c5	0.022694478
68	0x3d00b15c	0.031419143
69	0x3d386af7	0.045023885
70	0x3e16c2fd	0.1472282
71	0x3e10ad7a	0.14128676
72	0x3d270b67	0.04078236
73	0x3ca476a9	0.020076113
74	0xbd180842	-0.03711725
75	0x3c89338d	0.016748214
76	0x3d988079	0.07446379
77	0x3d3ade1f	0.045621987
78	0x3d85eed9	0.06539697
79	0xbcc6d683	-0.024272209
80	0xbc250da0	-0.010074049
81	0x3dbb115d	0.09134171
82	0x3db00ff1	0.085967906
83	0x3c72b272	0.0148130525
84	0xbd582b29	-0.052775536
85	0x3d0cfddf	0.034421798
86	0x3dd882ec	0.10571846
87	0x3d6fadb3	0.05851526
88	0x3d7cdcac	0.061733887
89	0x3c9410ad	0.018074358
90	0x3c80a25e	0.015702423
91	0x3dcf94a4	0.10135773
92	0x3d741733	0.059592437
93	0x3ded7816	0.1159517
94	0xbc77beec	-0.015121203
95	0xbd3df811	-0.046379153
96	0x3db73286	0.089451835
97	0x3dca7cea	0.09887107
98	0x3c7a9587	0.015294439
99	0x3da03d72	0.0782422
100	0x3d4f69f7	0.050638165
101	0xbd80e9e3	-0.0629461
102	0x3d65aa1b	0.05607043
103	0x3d177744	0.036978975
104	0x3d2a196f	0.04152816
105	0x3c0762f2	0.0082633365
106	0xbcc62ff5	-0.02419279
107	0xbd076366	-0.033053778
108	0x3b617f5d	0.003440819
109	0x3d367e1d	0.044553865
110	0xbd19d615	-0.03755768
111	0x3c97297f	0.018452404
112	0xbc14f933	-0.009092617
113	0x3cf8bf2a	0.030364592
114	0xbd0b57d5	-0.03401931
115	0xbc976005	-0.018478403
116	0xbd196a03	-0.037454616
117	0x3c727f9f	0.014800935
118	0x3c436512	0.0119259525
119	0xbb1aa9f0	-0.0023599826
120	0xbd40d09e	-0.047073953
121	0x3c954a48	0.018223897
122	0x3c6966a6	0.014245665
123	0xbd8eba52	-0.069691315
124	0xbd85ffe6	-0.065429494
125	0xbd8bb90e	-0.06822406
126	0xbd158f64	-0.0365137
127	0xbd4fd373	-0.050738763
128	0xbd5b0a0b	-0.053476375
129	0x3d7ed790	0.062217295
130	0xbd4c8585	-0.04993202
131	0xbd6dfe4b	-0.05810384
132	0x3d7c5a4a	0.061609544
133	0x3b6a8956	0.0035787425
134	0x3d6c4d10	0.05769068
135	0x3cbc8954	0.023014702
136	0x3d4d787e	0.05016374
137	0xbcc2714d	-0.023735667
138	0xbd5a7822	-0.053337224
139	0xbc57d5f9	-0.013173574
140	0xbd20eb14	-0.039286688
141	0x3bd0669f	0.0063598896
142	0xbd87b9c6	-0.0662723
143	0xbd992380	-0.07477474
144	0x3bc4d2d2	0.006006577
145	0x3d0bffba	0.034179427
146	0xbd852b24	-0.06502369
147	0xbd37c8a7	-0.04486909
148	0xbcc233ad	-0.023706282
149	0xbc99151d	-0.018686825
150	0x3db83dc5	0.089961566
151	0xbb7b4dec	-0.0038346006
152	0xbcf87589	-0.030329483
153	0x3d14a4d7	0.036290016
154	0xbd35dfd9	-0.04440293
155	0x3d0f9618	0.03505525
156	0x3cab19aa	0.020886261
157	0x3d92ba6c	0.071644634
158	0x3ccf132b	0.025277695
159	0xbdb53254	-0.0884749
160	0x3cc982f5	0.024598578
161	0xbd39b6a1	-0.045340184
162	0xbcf7b0d3	-0.030235684
163	0x3c53a465	0.012917613
164	0xbdae718f	-0.08517753
165	0x3cc8a0af	0.024490682
166	0x3c928e12	0.01789001
167	0x3d70a75e	0.058753364
168	0x3cbb39ce	0.022854712
169	0xbc916c52	-0.017751846
170	0x3cac3790	0.021022588
171	0xbd38c4d1	-0.045109574
172	0xbd174206	-0.0369282
173	0xbc62e35c	-0.013848152
174	0xbca533bb	-0.020166269
175	0x3d8fa7f0	0.070144534
176	0xbbaebff4	-0.005332941
177	0x3d87f4c0	0.06638479
178	0xbd69ca2d	-0.057077575
179	0x3d2aecc6	0.04172971
180	0xbd63a084	-0.055573
181	0x3c8fcc1b	0.01755338
182	0xbd223969	-0.03960553
183	0x3c83505e	0.016029533
184	0x3d48e0a2	0.04904235
185	0x3bb9ef02	0.005674244
186	0x3d379ce5	0.04482736
187	0xbc22cc9f	-0.009936481
188	0x3c631c62	0.013861747
189	0xbcb2c71f	-0.021823464
190	0xbd264a67	-0.0405983
191	0xbc4e5245	-0.012592857
192	0xbc734cea	-0.014849881
193	0x3c97ae20	0.018515646
194	0xbd4b39b8	-0.04961559
195	0xbce43a17	-0.02785973
196	0xbc7dbb9c	-0.015486624
197	0x3d847b78	0.06468862
198	0xbd98538c	-0.0743781
199	0x3d3dd76f	0.04634803
200	0x3d0a6934	0.033791736
201	0xbd187243	-0.037218343
202	0xbd3066b9	-0.043066714
203	0xbdac0ada	-0.08400507
204	0xbb301e5e	-0.002687357
205	0x3d1bbcc7	0.03802183
206	0x3cd7fa8e	0.026364591
207	0xbcb800ca	-0.022461314
208	0xbd888672	-0.066662684
209	0xbca851e4	-0.020546861
210	0xbc43e72c	-0.011956971
211	0x3da50601	0.08057786
212	0xbbf08261	-0.007339761
213	0xbcf4ccad	-0.029882753
214	0x3c0e75fa	0.00869512
215	0x3c36527d	0.011128065
216	0x3ce52e67	0.027976228
217	0xbd2e7528	-0.042592198
218	0xbb9dcb81	-0.0048155193
219	0x3c86b5ce	0.016444113
220	0x3dc34920	0.09535432
221	0x3dc2b419	0.09507007
222	0x3dde4996	0.10853879
223	0xbcef00bf	-0.02917516
224	0x3d219484	0.039448276
225	0x3cbd415d	0.023102457
226	0xbd964366	-0.07337074
227	0xbb917650	-0.004439153
228	0x3d1bb15b	0.038010936
229	0xbc510f04	-0.012759928
230	0x3cab8399	0.020936774
231	0xbc29fae4	-0.010374758
232	0xbcec10f3	-0.028816676
233	0xbd3dca62	-0.046335585
234	0xbd8c7120	-0.068575144
235	0xbc9af7b5	-0.018916944
236	0xbc8dab6a	-0.01729365
237	0x3d4786ea	0.04871265
238	0x3d67ced8	0.056593746
239	0xbd6d0b94	-0.05787237
240	0xbd4cddd6	-0.050016247
241	0x3b278597	0.0025561803
242	0xbc94b754	-0.018153824
243	0xbd3bb93a	-0.045830943
244	0x3d386f94	0.045028284
245	0xbc79b963	-0.015241954
246	0xbd6a71bf	-0.057237383
247	0x3bef3626	0.007300156
248	0xbc197dcd	-0.009368372
249	0x3b805604	0.003916504
250	0x3d165ea8	0.036711365
251	0xbd357870	-0.04430431
252	0xbd9faecf	-0.07797014
253	0xbe08193d	-0.13290878
254	0xbbc235c5	-0.00592682
255	0xbd1d70c1	-0.03843761

conv2.bias f4 [16]
0	0x3d49dd4a	0.049283303
1	0xbce8a70d	-0.028399969
2	0xbd441d3e	-0.04787945
3	0xbc047e46	-0.008086747
4	0x3d4d46ea	0.050116457
5	0xbd209a76	-0.039209805
6	0x3ce7deb1	0.02830443
7	0xbc0adb53	-0.0084751425
8	0x3c0a7424	0.008450542
9	0x3ccec8cd	0.025242234
10	0x3d6833e3	0.056690108
11	0x3d0e8beb	0.034801405
12	0xbc038419	-0.0080271
13	0x3cf47a5c	0.029843502
14	0xbd05e717	-0.032691088
15	0xbd0fe8ce	-0.03513413

conv3.weight f4 [8, 16, 3, 3]
0	0x3d7c27fc	0.06156157
1	0x3d1aa086	0.037750743
2	0xbe197b22	-0.14988378
3	0xbe026f70	-0.12737823
4	0x3d7faa37	0.06241819
5	0x3c53f909	0.012937793
6	0x3dd52906	0.10408215
7	0x3cd0e087	0.025497688
8	0x3d5f6e4f	0.054548558
9	0x3e177a4d	0.14792748
10	0x3d82a442	0.06378986
11	0x3d7687c1	0.06018806
12	0x3cb3c3c2	0.02194393
13	0x3df3bdcc	0.11901435
14	0xbdda2ba1	-0.10652853
15	0x3d831950	0.06401312
16	0xbd8c3c7d	-0.06847475
17	0xbdae743c	-0.08518264
18	0xbdc7a3b3	-0.0974802
19	0xbe1f0238	-0.1552819
20	0x3e16d3ab	0.14729182
21	0x3ddf0ede	0.108915076
22	0xbdbbea03	-0.091754936
23	0xbde0c350	-0.10974753
24	0x3da855f6	0.08219521
25	0x3b8ea6d6	0.0043533845
26	0xbde1be71	-0.11022652
27	0x3dde7af8	0.10863298
28	0xbd9a9b16	-0.075491115
29	0xbd81aaca	-0.063314036
30	0x3dda5884	0.10661414
31	0x3cca5754	0.024699844
32	0xbd9a3181	-0.07528973
33	0x3e0391b1	0.12848546
34	0xbcc3aacb	-0.023885151
35	0xbb87616d	-0.004131487
36	0x3d76d153	0.06025822
37	0xbd51a1f0	-0.051179826
38	0x3e36f77b	0.17867844
39	0x3d66df46	0.056365274
40	0x3dc144f4	0.0943698
41	0xbe15c666	-0.14626464
42	0xbe05aed2	-0.1305497
43	0xbdab8691	-0.08375276
44	0x3caccd53	0.021094
45	0xbb1cf33c	-0.002394869
46	0x3d6c2832	0.05765552
47	0xbdeeaa85	-0.11653618
48	0x3e1b667c	0.15175813
49	0x3d2db905	0.042412776
50	0x3c60cc13	0.01372053
51	0x3d09f72b	0.033682983
52	0xbcfc33b8	-0.03078638
53	0xbdc8f378	-0.09812063
54	0x3c2a563e	0.010396538
55	0xbc47ca47	-0.012194223
56	0xbe0f1717	-0.13973652
57	0xbb0ed301	-0.0021793249
58	0xbd76380b	-0.06011204
59	0x3e352e2e	0.17693397
60	0xbdbe5cb9	-0.09295029
61	0x3dd39180	0.10330486
62	0xbdf42347	-0.11920791
63	0xbd3e454f	-0.046452817
64	0xbe0fef63	-0.14056163
65	0x3cbcc1d8	0.02304165
66	0x3d847fa4	0.06469658
67	0x3d6ee588	0.058324367
68	0x3d99caf7	0.075094156
69	0xbccb78ee	-0.024837937
70	0x3afdca88	0.0019362727
71	0xbe15dd34	-0.14635164
72	0x3c8c129c	0.017098717
73	0x3daafa0b	0.08348473
74	0xbd7deec4	-0.061995283
75	0x3c007925	0.007841383
76	0xbbfff04c	-0.007810628
77	0x3dc2071b	0.094740115
78	0x3df82267	0.12115937
79	0xbd141a3b	-0.036157828
80	0x3c40821a	0.011749769
81	0x3e011e89	0.12609304
82	0x3e0c15c4	0.13680178
83	0x3e216b03	0.15763478
84	0xbde4072f	-0.11134183
85	0xbde71626	-0.11283521
86	0xbdeb4078	-0.11486906
87	0x3de2fb83	0.11083128
88	0x3dd17078	0.1022653
89	0xbd252a03	-0.04032327
90	0xbda53ba0	-0.08068013
91	0x3d8eab7e	0.06966303
92	0x3e79e963	0.24405436
93	0x3d881efc	0.06646535
94	0x3e085000	0.13311768
95	0x3e21ab06	0.15787897
96	0xbe4480fc	-0.19189829
97	0xbe5c5466	-0.2151657
98	0xbe54fda4	-0.20799881
99	0x3cd87f17	0.026427789
100	0x3e477606	0.19478616
101	0x3d95efd4	0.07321134
102	0x3ceb035d	0.028688127
103	0xbe0ed829	-0.13949646
104	0xbbe38044	-0.0069427807
105	0x3ce7e25f	0.028306184
106	0xbe4254b1	-0.1897762
107	0xbd9c65ea	-0.07636626
108	0x3e2c33ee	0.16816685
109	0x3e037629	0.12838043
110	0x3e2761bb	0.16345875
111	0x3ce45dc7	0.027876748
112	0xbdd923ae	-0.106025085
113	0xbe07c7ef	-0.13259862
114	0xbdfc10b6	-0.12307875
115	0xbe409b54	-0.18809253
116	0xbd62ed91	-0.055402342
117	0x3e20ab6c	0.15690392
118	0xbe040f73	-0.12896518
119	0xbdb91c70	-0.09038627
120	0x3d975ee5	0.073911466
121	0x3ced1c56	0.028944176
122	0x3bd3354a	0.0064455615
123	0x3ce73a5b	0.028226068
124	0xbddaa57d	-0.10676096
125	0xbdddaac5	-0.10823587
126	0xbe28122f	-0.16413186
127	0x3cb8c224	0.022553511
128	0x3e097f9d	0.13427587
129	0x3db33b4c	0.08751544
130	0xbdf50ce6	-0.11965351
131	0x3d71ab2a	0.059001125
132	0xbd0343e5	-0.03204717
133	0xbe1a3f41	-0.15063192
134	0xbe15ff6d	-0.14648218
135	0xbe230e0a	-0.15923324
136	0x3dc119f5	0.09428779
137	0xbde45fcb	-0.111510836
138	0x3d41a6f1	0.04727835
139	0x3df09435	0.11747018
140	0x3dc2e0d5	0.095155396
141	0x3e157c38	0.14598167
142	0x3dd37902	0.10325815
143	0xbe036808	-0.12832654
144	0x3d255639	0.04036543
145	0x3d766b83	0.060161125
146	0xbe3721ab	-0.17883937
147	0x3e05970c	0.13045901
148	0x3cc4330f	0.023950128
149	0xbe224a31	-0.15848614
150	0x3dc23595	0.09482876
151	0xbcd439bd	-0.025906438
152	0xbd43e2b8	-0.047823638
153	0xbd9be7b9	-0.07612557
154	0xbcf8a64b	-0.030352732
155	0xbd832110	-0.064027905
156	0xbd8fc2e4	-0.07019594
157	0xbd03440a	-0.03204731
158	0x3c8ae2cb	0.016953846
159	0x3df87343	0.121313594
160	0xbd90d011	-0.070709355
161	0xbd7383d4	-0.059451893
162	0x3d7e569b	0.062094312
163	0xbe112823	-0.14175467
164	0x3c17bd6b	0.009261469
165	0xbe1d2592	-0.15346363
166	0xbd33c3f0	-0.043888032
167	0x3daa6d6b	0.08321651
168	0x3d7269ab	0.059182804
169	0x3c8b8bb6	0.017034393
170	0xbd962a02	-0.07332231
171	0x3db2510b	0.08706864
172	0xbe22def4	-0.15905362
173	0x3cecd98e	0.028912332
174	0x3d51cdec	0.051221773
175	0xbdf8d423	-0.12149837
176	0xbe21108a	-0.15728965
177	0x3dc8fac7	0.09813457
178	0xbd9df107	-0.07711988
179	0x3dd8cd7f	0.1058607
180	0x3e71a6fb	0.23598854
181	0x3e2f9482	0.17146495
182	0xbc58ad0a	-0.0132248495
183	0xbd189ee0	-0.03726089
184	0xbc49dd1b	-0.012320782
185	0xbd1c3ca0	-0.038143754
186	0xbe2834a3	-0.1642633
187	0xbd29747f	-0.041370865
188	0xbe52db67	-0.20591508
189	0xbe21608c	-0.15759486
190	0xbc92fdcd	-0.017943287
191	0x3d8f0578	0.06983465
192	0xbd0518d2	-0.032494374
193	0x3e23d36a	0.15998617
194	0xbe039f66	-0.12853774
195	0x3d63b432	0.05559177
196	0xbd8989e3	-0.06715753
197	0x3e05be01	0.13060762
198	0x3c52d380	0.012867808
199	0xbdb46ee5	-0.08810214
200	0xbe193a60	-0.14963675
201	0xbdf19490	-0.11795914
202	0x3e343bb0	0.17600894
203	0xbd059bf7	-0.032619443
204	0xbdfd9aac	-0.12383017
205	0x3e0bb349	0.1364261
206	0x3d7e59d0	0.06209737
207	0x3e298883	0.16555981
208	0xbde53313	-0.11191382
209	0x3e0e8dca	0.13921276
210	0x3caaf30a	0.020867843
211	0x3dc49ef7	0.09600633
212	0x3ce53cb9	0.027983056
213	0xbe2ea098	-0.17053449
214	0x3d7fa7ed	0.062416006
215	0x3d2fa29c	0.042879686
216	0x3dbbe326	0.091741845
217	0xbdf0be0d	-0.11754999
218	0x3d0f6ddd	0.035016883
219	0x3d75809c	0.059937105
220	0x3d338a52	0.043833084
221	0x3d4a215f	0.04934823
222	0x3e13c4dc	0.14430565
223	0x3d3d15f0	0.0461635
224	0xbe1532a4	-0.14570099
225	0x3e11f98d	0.14255352
226	0xbd222a10	-0.039590895
227	0xbe15061c	-0.14553112
228	0x3df5833f	0.11987924
229	0x3e0059e2	0.12534288
230	0xbcbe6014	-0.023239173
231	0x3d4bea8c	0.04978423
232	0xbce94ad6	-0.028478067
233	0x3d4fdfdf	0.05075061
234	0x3e2c96b5	0.16854365
235	0x3e3fccbc	0.18730444
236	0x3d77e170	0.06051773
237	0xbd857776	-0.06516926
238	0x3d372349	0.044711385
239	0xbd02c1b9	-0.03192303
240	0xbe3441df	-0.17603253
241	0xbe1d214b	-0.15344732
242	0xbd49e6ad	-0.049292255
243	0x3c1946c4	0.009355251
244	0xbd7e891d	-0.06214248
245	0x3d980d78	0.07424444
246	0x3e15a719	0.14614524
247	0xbd91ac8c	-0.07112989
248	0xbd081b4e	-0.033229165
249	0x3df12c55	0.11776034
250	0x3d92aee2	0.071622625
251	0xbe709efa	-0.23498145
252	0x3e1a31d2	0.15058067
253	0x3dc4ac1f	0.09603142
254	0x3cf90949	0.030399935
255	0xbd0b735e	-0.03404557

conv3.bias f4 [8]
0	0x3da38654	0.079846054
1	0x3d908cca	0.070581034
2	0x3c1a37d9	0.009412729
3	0xbd830e7e	-0.063992485
4	0xbd94f677	-0.07273572
5	0xbd141808	-0.03615573
6	0x3cccf5d1	0.025019558
7	0xbd94ecfd	-0.072717644

convt1.weight f4 [8, 8, 3, 3]
0	0x3e0a9cdc	0.135364
1	0x3eb2117d	0.34778967
2	0xbdc98a1b	-0.09840795
3	0xbe512855	-0.20425542
4	0x3dbd2b97	0.0923683
5	0x3d29e2f1	0.041476194
6	0x3da5749d	0.08078883
7	0x3c9a3480	0.018823862
8	0x3dd9cbea	0.10634597
9	0x3e52bdb3	0.20580177
10	0x3de3e4d0	0.11127627
11	0x3debf42f	0.11521184
12	0xbe762460	-0.24037313
13	0xbe280dca	-0.1641151
14	0xbe8c48a2	-0.27399164
15	0x3e342127	0.17590772
16	0xbca648e9	-0.020298438
17	0x3e1c5bd9	0.15269412
18	0xbe3e8695	-0.18606026
19	0x3d3fb551	0.046803776
20	0xbcba07f5	-0.022708872
21	0x3e3ec1fd	0.18628688
22	0x3c37155a	0.011174524
23	0xbe256c5b	-0.16154616
24	0xbb8d59f3	-0.0043137013
25	0x3dba1c2a	0.09087403
26	0x3ea3ff65	0.32030788
27	0xbcbfb7df	-0.023403106
28	0x3dea2310	0.11432469
29	0x3e2ee577	0.17079721
30	0x3e5c25a6	0.21498737
31	0x3ebc4887	0.36774084
32	0x3ee4fa13	0.4472204
33	0xbe767ca1	-0.2407098
34	0xbd2c454e	-0.04205828
35	0xbd5e0051	-0.05419952
36	0xbded5421	-0.11588312
37	0x3da95498	0.08268088
38	0x3c7127ad	0.014718932
39	0x3d034d63	0.032056224
40	0xbe740aa1	-0.2383218
41	0x3e5528e6	0.20816383
42	0x3e26ab85	0.16276367
43	0xbd263ada	-0.04058347
44	0xbe316d25	-0.17326792
45	0x3e263688	0.1623174
46	0x3e4388f5	0.19095214
47	0xbd6adaff	-0.057337757
48	0xb9a57630	-0.0003155931
49	0x3e4ac034	0.19799882
50	0xbd80c324	-0.0628722
51	0x3e1dcb83	0.15409665
52	0x3e59580b	0.21224992
53	0xbcf5086d	-0.029911244
54	0xbeb6df33	-0.35717162
55	0xbe4bd9cd	-0.19907303
56	0xbcbee5cf	-0.02330294
57	0x3d8b7a31	0.068104155
58	0x3eaddd62	0.33957964
59	0x3cef21a8	0.029190853
60	0xbd15245c	-0.036411628
61	0x3db44b4f	0.088034265
62	0xbe410818	-0.18850744
63	0xbdc1486c	-0.094376415
64	0x3e1299e1	0.14316513
65	0xbe2cb7f4	-0.16867048
66	0x3ea0bc2b	0.3139356
67	0xbe125617	-0.14290653
68	0x3ea23377	0.3167989
69	0xbe319765	-0.17342909
70	0x3e8a9df5	0.27073637
71	0xbe003be0	-0.1252284
72	0x3e893b54	0.26803076
73	0x3ce67e75	0.028136471
74	0x3de3e8aa	0.111283615
75	0x3e4b172f	0.19833063
76	0x3dee5368	0.11637002
77	0x3d1706a4	0.036871567
78	0xbd8615f9	-0.0654716
79	0x3e01a470	0.12660384
80	0xbde5c4f4	-0.112192065
81	0xbe2e98c7	-0.17050467
82	0xbe3b38cc	-0.18283385
83	0xbcc56fee	-0.024101224
84	0xbdfe1b6e	-0.124075755
85	0xbe3286ac	-0.17434186
86	0xbe82ef62	-0.2557326
87	0xbee6677a	-0.4500082
88	0xbe6b8aa4	-0.23002106
89	0xbe9cbbf0	-0.30612135
90	0x3d74551f	0.05965149
91	0x3e82d7da	0.25555307
92	0xba1ed0b6	-0.0006058322
93	0x3e023316	0.127148
94	0x3d2f7d01	0.042843822
95	0xbe3072e6	-0.1723133
96	0x3cee312d	0.029076183
97	0x3d98f499	0.07468528
98	0xbe473e73	-0.19457416
99	0xbdc2a4bc	-0.09504077
100	0x3da75984	0.081713706
101	0xbd90d367	-0.07071572
102	0xbe81a384	-0.25320065
103	0xbeae9bbe	-0.34103197
104	0xbed1b63f	-0.40959355
105	0x3da31a43	0.079639934
106	0x3da256d8	0.079267204
107	0xbeb1cae7	-0.34725115
108	0x3e0577fa	0.13034049
109	0x3e6913cc	0.22761458
110	0x3d9bcd22	0.07607485
111	0x3e62aade	0.22135493
112	0xbea5a6cf	-0.32353827
113	0x3d753a48	0.059870034
114	0xbe17bbb7	-0.14817701
115	0x3e2770c5	0.16351612
116	0xbe2bc10d	-0.16772862
117	0xbcbee401	-0.02330208
118	0xbe01632e	-0.1263549
119	0x3e816907	0.25275442
120	0xbda8c744	-0.08241132
121	0x3d83a3f3	0.06427755
122	0x3e89b5e5	0.26896587
123	0x3d995c47	0.07488304
124	0xbd5af781	-0.053458694
125	0x3e2e12e3	0.16999392
126	0xbdc1abc5	-0.094565906
127	0x3d9c0943	0.07618954
128	0xbdf78990	-0.12086785
129	0x3d81dc72	0.06340875
130	0xbebc0784	-0.36724484
131	0xbe0eefed	-0.13958712
132	0xbe57a123	-0.21057563
133	0x3d6105a3	0.054937016
134	0xbe702850	-0.23452878
135	0xbe31762b	-0.17330234
136	0xbd9eed3b	-0.07760092
137	0xbce5db90	-0.028058797
138	0xbc22f61a	-0.0099463705
139	0xbe3fef00	-0.18743515
140	0x3ead7b9d	0.33883372
141	0xbe62a796	-0.22134241
142	0x3ee4bb64	0.44674218
143	0xbe667d9f	-0.22508858
144	0xbd49ddc9	-0.049283776
145	0x3e39e460	0.18153524
146	0xbe12c81f	-0.14334153
147	0x3d078e67	0.03309479
148	0xbb996f4d	-0.0046824575
149	0xbd6d2e95	-0.057905752
150	0x3e821628	0.2540753
151	0x3e492352	0.1964238
152	0x3c330983	0.010927561
153	0x3d94e19d	0.07269595
154	0x3c2a610c	0.010399114
155	0x3e7dcc2d	0.24784918
156	0xbe506de8	-0.20354426
157	0x3e5edbb3	0.21763496
158	0xbe26d73b	-0.16293041
159	0xbe69c877	-0.22830378
160	0xbdd083a1	-0.10181356
161	0x3e5d3083	0.21600537
162	0xbd8abd7a	-0.06774421
163	0x3e268712	0.16262463
164	0x3c8d6098	0.017257974
165	0x3cdf8cb8	0.02728878
166	0x3da1255b	0.07868453
167	0x3e1665e5	0.14687307
168	0xbce6c5c1	-0.028170468
169	0xbe109702	-0.14120105
170	0x3d4531d3	0.04814322
171	0xbc5313a9	-0.012883105
172	0xbe532090	-0.2061789
173	0x3d5c7732	0.05382461
174	0xbe686210	-0.22693658
175	0xbd229f7e	-0.039702885
176	0xbcfc888c	-0.03082683
177	0x3e1ae2a4	0.15125519
178	0xbdccc845	-0.09999136
179	0x3d5f65a0	0.054540277
180	0x3c87a2b7	0.01655708
181	0xbe135ca5	-0.1439081
182	0xbe239f99	-0.1597885
183	0x3e5286a3	0.20559172
184	0x3e4c93df	0.19978283
185	0xbdd62f62	-0.10458256
186	0xbe3b8e63	-0.18316035
187	0x3d5cc43f	0.053898092
188	0x3ddfd583	0.10929396
189	0x3e0d25cd	0.13783951
190	0x3dcd8a96	0.10036199
191	0x39114e52	0.00013857454
192	0xbd0a1999	-0.033715818
193	0xbdcbd3ae	-0.09952484
194	0xbe230011	-0.15917994
195	0xbd89e8fb	-0.067338906
196	0xbdccc973	-0.09999361
197	0x3e051e53	0.12999849
198	0xbe72c10e	-0.23706457
199	0xbde25c19	-0.110527225
200	0xbe40b14b	-0.18817632
201	0x3de85acb	0.113454424
202	0xbe0388bc	-0.12845129
203	0x3a10de5e	0.00055262994
204	0x3e4f541b	0.20246927
205	0x3d9f97ee	0.0779265
206	0xbbad380f	-0.0052862237
207	0x3e01d68d	0.12679501
208	0xbe6477e2	-0.22311357
209	0x3e41c809	0.18923964
210	0xbceab7a7	-0.028652025
211	0xbc0ca351	-0.00858386
212	0xbdb701d8	-0.089358985
213	0x3da18d0f	0.07888233
214	0xbe5cc016	-0.2155765
215	0x3dcacf41	0.09902812
216	0x3e0b1b07	0.13584529
217	0xbe02d816	-0.12777743
218	0xbca1a5d2	-0.01973239
219	0x3d72f783	0.059318077
220	0xbd859de6	-0.06524257
221	0x3d62910d	0.055314112
222	0xbd53247e	-0.051548474
223	0x3b758967	0.0037465931
224	0x3d82cb03	0.06386378
225	0x3e144abd	0.14481635
226	0x3e82382c	0.2543348
227	0x3e08a1c9	0.13342966
228	0xbe544159	-0.20728053
229	0x3e9499ce	0.29023594
230	0x3dba6b2f	0.09102475
231	0x3e2e04ba	0.1699399
232	0x3d36c6dd	0.044623245
233	0xbd66a781	-0.056312088
234	0xbe06593c	-0.13119978
235	0xbe1921a3	-0.14954238
236	0xbe7652cc	-0.24055022
237	0x3d4ecc64	0.05048789
238	0x3e587d2f	0.21141504
239	0x3e3779c3	0.17917542
240	0xbe62b06e	-0.22137615
241	0xbd0c11fd	-0.034196842
242	0xbe52a96e	-0.20572445
243	0xbd9aa96d	-0.07551847
244	0xbd05c2b7	-0.032656398
245	0xbbc9e054	-0.006160775
246	0xbab672dc	-0.0013919729
247	0xbc8e2793	-0.017352855
248	0xbdd4d732	-0.10392608
249	0xbb8a3566	-0.0042177914
250	0xbd21e646	-0.039526246
251	0x3d83b621	0.06431223
252	0xbe2dfa35	-0.16989978
253	0xbe38b530	-0.18037868
254	0xbd86106b	-0.065461
255	0xbe101f1d	-0.14074369

convt1.bias f4 [8]
0	0xbd9c0c65	-0.076195516
1	0x3cac6d87	0.02104832
2	0x3d037a23	0.0320989
3	0x3db3dc07	0.08782201
4	0xbd038e5c	-0.032118186
5	0x3d8a718e	0.0675994
6	0x3debd558	0.115153015
7	0xbd57f019	-0.05271921

convt2.weight f4 [8, 16, 5, 5]
0	0xbe463b68	-0.19358599
1	0xbe75a569	-0.2398888
2	0xbe448834	-0.19192582
3	0xbdf4daad	-0.119557716
4	0xbe9767dc	-0.29571426
5	0xbb1e35d8	-0.002414098
6	0xbd6745c9	-0.056463037
7	0x3db41af9	0.08794207
8	0xbdf7497c	-0.12074563
9	0xbde612b9	-0.1123404
10	0xbc3bd4f8	-0.01146435
11	0x3c65d106	0.014026886
12	0xbe0bce76	-0.13652977
13	0xbd49c3fe	-0.04925918
14	0xbd27c28c	-0.04095702
15	0x3d28b55a	0.041188575
16	0xbd4ada8e	-0.049524836
17	0x3d4c05b7	0.049810138
18	0xbd20fcc1	-0.039303545
19	0xbd9a33ec	-0.075294346
20	0x3e05eef2	0.13079432
21	0xbd8806d5	-0.06641928
22	0x3d314a18	0.043283552
23	0x3cd39772	0.02582905
24	0x3dab743a	0.08371778
25	0xbd125373	-0.035724115
26	0x3d3999b9	0.045312617
27	0x3dc28d86	0.0949965
28	0x3dbfb532	0.09360732
29	0x3cdb581c	0.026775412
30	0x3d266e08	0.040632278
31	0xbce401d1	-0.027832897
32	0xbd4fc68b	-0.050726455
33	0x3d8158ce	0.06315766
34	0x3d69f017	0.057113733
35	0x3c8c054f	0.017092375
36	0x3d96b2cc	0.073583215
37	0x3dba43f8	0.09094995
38	0x3dc7e965	0.09761313
39	0xbcea33c3	-0.028589135
40	0xbcc10084	-0.023559816
41	0x3c5605f7	0.013062946
42	0x3c9efee8	0.019408658
43	0x3cff3169	0.03115149
44	0xbd10793c	-0.035271868
45	0xbd2b08a0	-0.041756272
46	0xbd84b409	-0.064796515
47	0x3d2356ea	0.03987781
48	0xbce4c859	-0.027927564
49	0x3d0573b3	0.032581042
50	0xbf468509	-0.77546746
51	0xbc027bac	-0.007964056
52	0xbf016213	-0.50540274
53	0x3d5ca720	0.05387032
54	0xbe5eaa40	-0.21744633
55	0x3c86d762	0.016460124
56	0xbf0e53b0	-0.55596447
57	0xbdfe5e3a	-0.12420316
58	0xbdd4c872	-0.103897944
59	0xbcf3a696	-0.02974252
60	0xbe96c6e1	-0.29448608
61	0x3c1179fb	0.00887918
62	0xbe1d26f3	-0.15346889
63	0xbd284905	-0.04108526
64	0xbdc190ae	-0.094514236
65	0x3d233e55	0.039854366
66	0xbe6637de	-0.22482249
67	0xbddd1f67	-0.10797005
68	0xbe9e3e33	-0.3090683
69	0xbdf5710b	-0.11984452
70	0xbcf7a31b	-0.030229142
71	0xbd47b068	-0.04875222
72	0x3d068701	0.032843594
73	0xbc76608f	-0.01503767
74	0x3e842c84	0.25815213
75	0x3d6c7165	0.05772533
76	0xbcc23b9e	-0.023710068
77	0xbda14e3e	-0.07876252
78	0xbcd88a7b	-0.02643322
79	0xbc4ec34f	-0.012619807
80	0x3d7e9df5	0.06216236
81	0x3d0167ed	0.031593252
82	0xbdad200b	-0.08453377
83	0xbd03893a	-0.03211329
84	0xbd6e50f0	-0.058182657
85	0x3d835b9a	0.06413956
86	0xbda4d15f	-0.08047747
87	0xbdbdf3e5	-0.09275035
88	0x3d352ec4	0.044234052
89	0x3c0777b7	0.008268288
90	0xbb1b6245	-0.0023709696
91	0xbda9e65e	-0.08295892
92	0xbda28dfe	-0.07937239
93	0x3bd45bfa	0.006480691
94	0xbd8dafd1	-0.069183
95	0x3d840b3d	0.06447456
96	0xbc1e391b	-0.00965717
97	0x3d0872c1	0.033312563
98	0x3d6da0be	0.058014624
99	0xbdb3b901	-0.08775521
100	0xbb5c6a99	-0.0033632873
101	0x3cef9052	0.029243622
102	0x3a7e7c15	0.0009707821
103	0x3e03e9e1	0.12882186
104	0xbc7b8a32	-0.015352773
105	0xbb35cb9c	-0.002773977
106	0xbe15d9ad	-0.14633818
107	0xbd8c68a6	-0.068558976
108	0xbd60c2be	-0.05487322
109	0xbd8a93bc	-0.06766459
110	0x3c2db36f	0.010601862
111	0x3ca76566	0.020434093
112	0x3ca51c89	0.020155208
113	0x3daca163	0.084292196
114	0xbdab7ad7	-0.08373039
115	0xbd6fd527	-0.058552887
116	0x3cf44d5e	0.029822048
117	0xbd163b3a	-0.036677577
118	0xbe066c90	-0.13127351
119	0x3d916a81	0.07100392
120	0xbdbf678a	-0.093459204
121	0xbe871443	-0.26382646
122	0xbd0dc7ba	-0.034614302
123	0xbc5aade1	-0.01334712
124	0x3c84e0fe	0.016220566
125	0x3c8b7307	0.017022623
126	0xbc9d8fee	-0.01923367
127	0xbdb36897	-0.08760183
128	0xba17f4bc	-0.0005796661
129	0xbca795f3	-0.020457244
130	0x3d2ae917	0.041726198
131	0x3d94821e	0.072513804
132	0x3cc59c17	0.024122281
133	0xbcddbeae	-0.027068462
134	0xbd445920	-0.04793656
135	0x3bf3ed76	0.007444079
136	0x3d5394f7	0.051655736
137	0xbdaa9588	-0.08329302
138	0xbda44594	-0.080210835
139	0x3dc70642	0.097179905
140	0xbcea9045	-0.028633246
141	0x3d7590f4	0.05995269
142	0x3dad254a	0.08454378
143	0xbdb0de96	-0.08636205
144	0xbbea7754	-0.0071553383
145	0xbccc8835	-0.024967292
146	0xbe102cd3	-0.14079599
147	0x3ca7a50a	0.020464439
148	0xbd8bf679	-0.0683412
149	0xbd5255dd	-0.051351417
150	0x3d7e6211	0.062105242
151	0x3da77093	0.08175769
152	0x3bb37573	0.0054766475
153	0x3d6cba78	0.057795018
154	0x3dae583e	0.085129246
155	0x3d16c397	0.036807623
156	0x3d198636	0.03748151
157	0x3dd2824d	0.10278759
158	0x3d6b8083	0.057495605
159	0xbd6fb5d9	-0.058523033
160	0xbd6186db	-0.05506025
161	0x3d96ada8	0.07357341
162	0x3de07ecf	0.10961687
163	0xbda951b6	-0.08267538
164	0x3c9d4e2b	0.019202312
165	0xbd844474	-0.06458369
166	0x3db5f9a5	0.088855065
167	0xbd8a5e72	-0.06756295
168	0xbd90666e	-0.07050787
169	0x3d97dff5	0.07415763
170	0xbd54568a	-0.051840343
171	0xbd71b7ad	-0.059013058
172	0x3d96a7aa	0.07356198
173	0xbd23ffe8	-0.040038973
174	0x3d2146a8	0.039374024
175	0xbdb355ce	-0.087566
176	0xbd783074	-0.060593084
177	0x3d899e7a	0.0671968
178	0xbd3f4050	-0.046692193
179	0xbcfcce8d	-0.03086021
180	0x3cc7bd94	0.02438239
181	0x3d5d7ec4	0.05407597
182	0x3c741497	0.014897487
183	0xbca5e9d7	-0.020253105
184	0x3d195bff	0.03744125
185	0xbda443fb	-0.08020779
186	0xbcd7f2b8	-0.026360855
187	0xbdb855f3	-0.090007685
188	0x3d5ca44f	0.053867634
189	0xbc09ccda	-0.008410657
190	0x3d6c515b	0.057694774
191	0xbdb39b00	-0.08769798
192	0x3d081cf9	0.033230755
193	0x3da31fd4	0.07965055
194	0xbc23036b	-0.009949545
195	0xbdccc71a	-0.09998913
196	0xbc8b2455	-0.016985098
197	0xba835267	-0.0010019065
198	0x3d8b79a3	0.0681031
199	0x3bc58200	0.00602746
200	0x3d780208	0.060548812
201	0x3d75b07f	0.059982773
202	0xbd868bb9	-0.06569619
203	0xbd04ef66	-0.03245487
204	0xbb5449e8	-0.0032392684
205	0x3c57c0b0	0.013168499
206	0xbc9584ad	-0.018251741
207	0xbca542f4	-0.020173527
208	0x3d6062d9	0.05478177
209	0xbd5b84de	-0.05359351
210	0x3ca06f8c	0.01958444
211	0xbd664e50	-0.05622703
212	0xbdabf3fe	-0.08396147
213	0xbd51e57f	-0.051244255
214	0xbd0c468a	-0.03424696
215	0x3b520c55	0.0032050807
216	0x3daf7f47	0.08569198
217	0xbcbab626	-0.022791933
218	0xbd71b76e	-0.059012823
219	0xbd691e28	-0.056913525
220	0xbd502da2	-0.05082477
221	0xbcbc84a6	-0.02301247
222	0xbdb897a0	-0.09013295
223	0x3d50730b	0.050890964
224	0x3c79fa2a	0.015257398
225	0x3d1f3202	0.03886605
226	0xbdb03967	-0.08604699
227	0xbcd2c396	-0.025728028
228	0xbd0c9817	-0.03432473
229	0xbc11f6ee	-0.00890897
230	0x3c6929b8	0.014231138
231	0x3c8f55be	0.01749694
232	0x3c9e2798	0.01930599
233	0x3d1ba914	0.038003042
234	0xbcb8dafa	-0.022565354
235	0xbdc86a4c	-0.097858995
236	0xbda2c2b5	-0.07947294
237	0xbd5d010e	-0.053956084
238	0x3d50d11b	0.05098067
239	0x3d15a319	0.036532495
240	0xbd5b637e	-0.05356168
241	0xbd22790c	-0.03966622
242	0x3d3a110e	0.04542642
243	0x3d374f92	0.04475362
244	0xbe1b24ad	-0.1515071
245	0x3c917a47	0.017758502
246	0x3d8194ca	0.063272074
247	0xbd5e6283	-0.054293167
248	0xbdbf95d2	-0.09354748
249	0x3c14f8c7	0.009092516
250	0xbd53a7d1	-0.051673714
251	0xbd31a4b8	-0.04336998
252	0x3cb940f3	0.022613978
253	0xbd94b740	-0.07261515
254	0x3c1b4a8e	0.009478224
255	0xb8904b43	-6.880474e-05

convt2.bias f4 [16]
0	0x3d744b10	0.059641898
1	0x3db3b2cd	0.08774338
2	0x3cb8d9cb	0.02256479
3	0x3d9a415c	0.075319976
4	0x3d4459c0	0.047937155
5	0x3d738fad	0.05946319
6	0x3da414c8	0.08011776
7	0xbc5e2350	-0.013558224
8	0x3dae0923	0.084978364
9	0x3d44e767	0.048072245
10	0xbbf547f1	-0.0074853827
11	0xbcccb9e5	-0.024990985
12	0xbc7a2b81	-0.015269161
13	0x3cf790be	0.030220386
14	0x3c2bb090	0.0104791075
15	0x3d7f4b33	0.062327575

convt3.weight f4 [16, 32, 9, 9]
0	0xbd3e3e84	-0.04644634
1	0xbd138faa	-0.03602568
2	0x3b641230	0.003480088
3	0xbd0de52f	-0.034642395
4	0xbd32cd15	-0.043652613
5	0x3cda097d	0.026615852
6	0xbd1212e0	-0.03566253
7	0x3ce01630	0.02735433
8	0x3bb7ec5b	0.0056128926
9	0xbd40e2b9	-0.04709122
10	0xbd38c0fa	-0.04510591
11	0x3cdf4aed	0.027257407
12	0xbcd2309a	-0.02565794
13	0xbd31ab6a	-0.043376364
14	0x3cc5ea4f	0.024159579
15	0x3c05c007	0.008163459
16	0x3c508126	0.012726104
17	0xbd09287e	-0.033485882
18	0xbc4677c3	-0.012113514
19	0x3cb024c6	0.02150191
20	0xbcb540a4	-0.02212555
21	0xbd0f2c05	-0.03495409
22	0x3cb0059b	0.021487048
23	0x3c2d791c	0.010587957
24	0x3c9cfc5c	0.019163303
25	0xbd26928e	-0.04066711
26	0x3c8195ae	0.015818443
27	0xbd84ff5e	-0.0649402
28	0x3c9202f5	0.017823676
29	0xbd1415db	-0.036153655
30	0xbdba1e5e	-0.09087823
31	0x3cf650c2	0.030067805
32	0xbbcb12b6	-0.006197299
33	0xbda12240	-0.07867861
34	0x3cfd960e	0.03095534
35	0xbc251b47	-0.010077304
36	0xbc570502	-0.013123753
37	0x3cd9a57c	0.026568167
38	0x3ce25713	0.02762941
39	0x3c5dd0eb	0.013538579
40	0xbb94f447	-0.0045457217
41	0xba37fa0d	-0.00070181565
42	0xbbb2cb9a	-0.0054564
43	0xbd1bd080	-0.038040638
44	0x3bb23287	0.0054381522
45	0xbd0aeb6f	-0.033915933
46	0xbd0a2ea6	-0.033735894
47	0x3ade15c6	0.0016943745
48	0xbcc1dd92	-0.023665223
49	0xbd04647c	-0.032322392
50	0x3cd6e919	0.026234196
51	0xbcab5693	-0.020915305
52	0xbc83d541	-0.016092898
53	0xbd160f7a	-0.036635853
54	0x3dcc4abb	0.09975191
55	0xbd38a75b	-0.045081478
56	0xbc8e040c	-0.017335914
57	0x3e3021ea	0.17200437
58	0xbd4704be	-0.048588507
59	0xbcdc9256	-0.026925247
60	0x3e23986f	0.15976118
61	0x3c941b93	0.018079555
62	0x3cc45341	0.02396548
63	0xbbe9ca7c	-0.0071347337
64	0x3cc055f1	0.02347848
65	0xbce3fa10	-0.0278292
66	0xbc3538a2	-0.011060866
67	0xbc91f1eb	-0.01781555
68	0x3b828073	0.0039825975
69	0xbd1a2529	-0.037633095
70	0x3c4b28ca	0.012399862
71	0xb9e98320	-0.0004453892
72	0xbd3645f2	-0.0445003
73	0x3cc59cb2	0.02412257
74	0x3c5c9c5a	0.0134650115
75	0xbbde5d10	-0.0067859963
76	0xba794f9c	-0.0009510459
77	0x3b8d0a20	0.0043041855
78	0x3bda1fd3	0.006656626
79	0xbd344945	-0.044015188
80	0xbce91e5e	-0.028456863
81	0xbc82b90d	-0.01595738
82	0x3aca90c7	0.0015454524
83	0x3d585482	0.052814968
84	0x3ca773ad	0.0204409
85	0xbd1cee76	-0.03831335
86	0x3d4e2034	0.05032368
87	0x3d05b4fb	0.0326433
88	0xbd083230	-0.033250988
89	0x3d9d0a46	0.07667975
90	0xbb183809	-0.002322676
91	0x3d203213	0.039110254
92	0x3beca8b0	0.0072222576
93	0xbca54228	-0.020173147
94	0x3d295940	0.04134488
95	0x3cadd95e	0.021221813
96	0x38487d6e	4.780053e-05
97	0xbd0e5054	-0.034744576
98	0xbcea68b1	-0.028614374
99	0xbb697f4b	-0.003562885
100	0xbcdb0fb1	-0.02674088
101	0xba675003	-0.00088238734
102	0x3c817b28	0.015805796
103	0xbd6b71e0	-0.057481647
104	0xbbdfe7e5	-0.006833064
105	0x3c8e8703	0.017398363
106	0xbb54bde2	-0.0032461812
107	0x3c82adfe	0.015952107
108	0x3c561ae2	0.013067933
109	0x3ca0535d	0.019571
110	0x3d6ed758	0.058310837
111	0x3c22d0e9	0.009937503
112	0xbbc7a0cf	-0.006092168
113	0x3c1d983a	0.009618813
114	0xbcf4591b	-0.029827645
115	0x3bdacb81	0.0066770916
116	0x3dbf8a3f	0.0935254
117	0x3ca7ed13	0.020498788
118	0x3d134996	0.03595885
119	0x3ad15765	0.001597148
120	0x3c672168	0.014107086
121	0x3cd90443	0.02649129
122	0x3b5b9285	0.003350408
123	0x3c72b3a8	0.014813341
124	0x3d0392c1	0.032122377
125	0xbca6039d	-0.020265395
126	0x3ba5ac69	0.0050559533
127	0x3cc508aa	0.024051983
128	0x3c5f333b	0.013623054
129	0xbbe14a64	-0.006875323
130	0x3ce8c822	0.028415743
131	0xbd04263e	-0.032263033
132	0xbd2c1dc2	-0.042020567
133	0x3b7e856a	0.0038836845
134	0x3cb19217	0.021676106
135	0xbb743c8c	-0.0037267534
136	0x3c7c8e8f	0.015414848
137	0x3d35da14	0.04439743
138	0x3c8c7961	0.017147722
139	0xbca7bf95	-0.020477096
140	0x3cb4b6cd	0.022059822
141	0x3cd6a0e4	0.026199766
142	0xbc80406e	-0.015655722
143	0x3d5507dc	0.05200945
144	0xbc26836c	-0.010163169
145	0x3c982072	0.018570159
146	0xbbe4da29	-0.0069840145
147	0x3cbb8277	0.022889359
148	0x3ccf503d	0.025306815
149	0x3cd57c95	0.026060382
150	0xbc611941	-0.013738931
151	0xbc1c6cca	-0.009547422
152	0xbd1568cd	-0.0364769
153	0x3c99b390	0.01876238
154	0x3d81b9a2	0.06334235
155	0xbc50209f	-0.01270309
156	0xbd312fbd	-0.043258417
157	0x3e17445c	0.14772171
158	0x3c783c7e	0.015151141
159	0xbcafe637	-0.02147208
160	0x3d7374aa	0.05943743
161	0xbca6c077	-0.020355446
162	0xbd08d71d	-0.033408273
163	0xbc539ed1	-0.012916283
164	0xbc91ebe8	-0.017812684
165	0x3ce66849	0.028125899
166	0xbd067773	-0.03282876
167	0xbc8c423c	-0.017121427
168	0x3ade59a0	0.0016963966
169	0x3bbe3fe6	0.005805957
170	0x3cca21d8	0.024674341
171	0x3be9c057	0.0071335244
172	0xbcad7b1a	-0.021176863
173	0xbc85bb32	-0.016324613
174	0xbca76e81	-0.020438435
175	0x3bafe85f	0.005368277
176	0xbcf4956e	-0.02985641
177	0xbd1288a2	-0.035774834
178	0x3cc011f7	0.023446066
179	0xbc109eb7	-0.008826903
180	0x3cec1c91	0.028822215
181	0xbd04f39c	-0.032458887
182	0xbaea2cd9	-0.0017866149
183	0xbbe0d846	-0.0068617193
184	0x3d10e845	0.03537776
185	0x3c3efb1d	0.01165655
186	0xbc2d9439	-0.010594421
187	0xbd02c02c	-0.03192155
188	0xbc2022d5	-0.00977393
189	0x3b984248	0.004646573
190	0xbd59198d	-0.053002883
191	0xbd055bfd	-0.03255843
192	0xbb995a41	-0.0046799486
193	0xbd569bfa	-0.052394845
194	0x3bcf9423	0.006334798
195	0xbc85fb9f	-0.016355334
196	0xbce07d04	-0.027403362
197	0x3cd040e1	0.025421562
198	0xbc7e51d4	-0.015522439
199	0xbc95bc5e	-0.018278297
200	0x3cdc2421	0.026872696
201	0x3c8de90e	0.017323043
202	0xbaa879de	-0.0012853702
203	0x3cf38652	0.029727135
204	0xbc6fabe0	-0.014628381
205	0x3d02a3df	0.03189456
206	0x3c9a8f88	0.01886727
207	0xbd2bb736	-0.04192277
208	0x3c600db4	0.013675142
209	0x3ba0d777	0.004908498
210	0xbc5aaa71	-0.0133463
211	0x3c07029a	0.008240366
212	0x3a843a12	0.0010088107
213	0x3c6162b9	0.0137564475
214	0xbd1d5562	-0.038411506
215	0x3cbaaa09	0.022786157
216	0x3b94c334	0.0045398716
217	0xbd62851d	-0.055302728
218	0xbca80cfd	-0.020514006
219	0x3be05906	0.00684655
220	0xbcc7c860	-0.024387538
221	0xbbbf189b	-0.0058317906
222	0x3c3788ee	0.01120208
223	0xbd53b7fd	-0.051689137
224	0xbc1ed463	-0.009694192
225	0x3cf9a5d3	0.030474579
226	0x3cf30dba	0.029669631
227	0xbc04baa2	-0.008101137
228	0xbd42622e	-0.047456913
229	0xbc32ba64	-0.010908697
230	0x3b9b4ad3	0.0047391444
231	0xbc25de19	-0.010123753
232	0x3d0cadd0	0.034345448
233	0xbd222c04	-0.039592758
234	0x3c8f5400	0.017496109
235	0x3c9e1623	0.019297665
236	0x3cb45ec8	0.022017851
237	0xbd059f2e	-0.03262251
238	0x3c232c12	0.009959238
239	0x3cb0384f	0.021511225
240	0xbd343201	-0.043993
241	0xbce13bc9	-0.027494328
242	0xbb28d02c	-0.0025758846
243	0x3cb3fbea	0.021970708
244	0xbd9a1891	-0.07524217
245	0x3c84a8e0	0.016193807
246	0x3c0664af	0.008202716
247	0xbd4a7617	-0.049429026
248	0xbcc91234	-0.024544813
249	0xbd476f7b	-0.0486903
250	0xbdd68c5f	-0.104759924
251	0x3c9544d6	0.0182213
252	0x3ba764df	0.0051084603
253	0xbcf11869	-0.029430585
254	0xbc63c1b4	-0.013901163
255	0xbc5c9a08	-0.013464458

convt3.bias f4 [32]
0	0xbb811581	-0.003939331
1	0xbca0c2ba	-0.019624103
2	0xbc9c81da	-0.019104887
3	0xbc029a5c	-0.007971372
4	0x3d5863c4	0.05282952
5	0x3d2674c8	0.040638715
6	0x3b0aec43	0.0021197952
7	0x3d78b8c5	0.060723085
8	0x3d642deb	0.055707853
9	0x3d9e34e8	0.07724935
10	0xbd0c97c6	-0.03432443
11	0x3d732bc2	0.059367903
12	0x3d7e2f79	0.062056992
13	0x3b973187	0.0046140584
14	0x3d9882ff	0.074468605
15	0x3d46c8fe	0.048531525
16	0xbd6082a7	-0.0548121
17	0xbb691fd1	-0.0035571943
18	0xbc7cff34	-0.015441705
19	0xbc66aa69	-0.014078715
20	0x3d88d2b7	0.06680816
21	0x3d7a8b24	0.06116785
22	0x3d6df66f	0.058096346
23	0x3d7e4ca4	0.06208481
24	0x3d53c8c2	0.05170513
25	0x3cee2809	0.029071825
26	0xbc076d2f	-0.0082657775
27	0x3b76921d	0.0037623711
28	0xbbeb7ed3	-0.0071867495
29	0x3d69de78	0.05709693
30	0xbb5b674f	-0.0033478325
31	0xbbfc544b	-0.007700478

pos_output.weight f4 [1, 32, 2, 2]
0	0xbdf99365	-0.121863164
1	0xbd120d21	-0.035657052
2	0x3e4ca820	0.1998601
3	0xbd0d3c23	-0.03448118
4	0xbdea423a	-0.11438413
5	0x3e1836ee	0.14864704
6	0xbdacb3ba	-0.084327176
7	0x3d38cff8	0.04512021
8	0xbe2a79e8	-0.16648066
9	0xbe4d2369	-0.20033039
10	0xbdd42620	-0.10358834
11	0xbd07b55e	-0.03313195
12	0xbd82dbf1	-0.06389607
13	0x3e88289d	0.26593485
14	0xbe22e109	-0.15906157
15	0x3e25d4d7	0.16194473
16	0x3c267190	0.010158911
17	0x3d0e4249	0.034731183
18	0x3b3f4517	0.0029185468
19	0x3dd2ac86	0.102868125
20	0xbe270eac	-0.1631419
21	0xbde8c191	-0.11365045
22	0x3e2ebf54	0.17065173
23	0xbe1a14cd	-0.15046997
24	0xbe429ab6	-0.1900433
25	0x3d912956	0.07087962
26	0xbde40693	-0.111340664
27	0xbd5fcfed	-0.054641653
28	0x3c87bd17	0.016569657
29	0xbd4ed184	-0.05049278
30	0xbd96698c	-0.0734435
31	0x3e649474	0.22322255
32	0x3edd7826	0.43255728
33	0x3ede2e88	0.43394876
34	0x3ec37ef3	0.38182792
35	0x3eb8c7d1	0.36089948
36	0x3d89eb3d	0.06734321
37	0x3e0930b6	0.13397488
38	0x3e28abb6	0.16471753
39	0x3df0b550	0.117533326
40	0xbc224222	-0.009903463
41	0x3e48b73c	0.19601148
42	0x3e3330f4	0.17499143
43	0xbddc48ee	-0.10756098
44	0x3eb92447	0.3616049
45	0x3ee50218	0.4472816
46	0x3e57f965	0.2109123
47	0x3ddbed74	0.1073865
48	0xbd858e6c	-0.065213054
49	0xbb9d873f	-0.0048073824
50	0x3e0f204e	0.13977167
51	0x3d40f94f	0.04711276
52	0xbe5640d3	-0.20923166
53	0xbbb192ff	-0.0054191346
54	0xbe26b97b	-0.16281693
55	0xbe03699e	-0.12833259
56	0xbcf3ae46	-0.029746186
57	0xbb452a23	-0.003008493
58	0x3e4c35ce	0.199424
59	0xbde96c1b	-0.113975726
60	0x3da212b5	0.07913724
61	0xbe162d01	-0.14665605
62	0x3d94b728	0.07261497
63	0xbe210d43	-0.15727715
64	0xbe377624	-0.17916161
65	0xbdaad113	-0.08340659
66	0x3d97079b	0.073744975
67	0xbd6045e4	-0.054754153
68	0xbed64f58	-0.4185741
69	0xbea2f335	-0.31826177
70	0xbe8a6bdd	-0.27035418
71	0xbe6cd659	-0.23128642
72	0x3d060e59	0.032728527
73	0x3e3c190c	0.1836893
74	0xbe9f94ac	-0.31168115
75	0xbd7454e4	-0.05965127
76	0xba79d67f	-0.00095305586
77	0xbd589469	-0.05287591
78	0x3e06dbc8	0.13169777
79	0x3e08125e	0.13288257
80	0xbe508987	-0.20364963
81	0xbd3609bf	-0.04444289
82	0x3ddf81a8	0.10913402
83	0x3cc87722	0.02447087
84	0xbda104aa	-0.07862218
85	0xbd9afbc3	-0.07567551
86	0xbda64f53	-0.08120599
87	0xbe126f13	-0.14300184
88	0xbe074e31	-0.13213421
89	0x3b4f54ff	0.0031636355
90	0x3da5440f	0.08069622
91	0xbdabc209	-0.08386619
92	0x3dbebcd9	0.093133636
93	0x3e16ed89	0.1473905
94	0xbddb4f39	-0.1070847
95	0x3dc19f84	0.09454253
96	0xbe2c796f	-0.16843198
97	0x3ca38735	0.019961933
98	0xbc919978	-0.017773375
99	0xbd46428d	-0.04840331
100	0xbe1f64d9	-0.15565814
101	0xbe12536d	-0.14289637
102	0xbe2f3f3e	-0.17113969
103	0x3d01e3f0	0.03171152
104	0xb9cb0f43	-0.00038730548
105	0x3d8d8120	0.06909394
106	0xbdc162f6	-0.094427034
107	0xbd130157	-0.03588995
108	0xbd7a7adf	-0.061152335
109	0xbe8aa7d3	-0.27081165
110	0xbe81532b	-0.25258765
111	0xbea3331e	-0.31874937
112	0x3e401675	0.18758567
113	0x3e83f584	0.2577325
114	0x3ddbaf5f	0.10726809
115	0x3e83b927	0.25727198
116	0x3dea96ad	0.114545204
117	0xbe21e5ad	-0.1581027
118	0x3db2d4a1	0.08731962
119	0x3d6869e5	0.056741614
120	0x3d325689	0.043539558
121	0xbe2d072d	-0.16897269
122	0xbe560c6c	-0.20903176
123	0x3c66a6fa	0.014077896
124	0xbd7f0805	-0.062263507
125	0x3e0b039f	0.135756
126	0xbc436969	-0.011926987
127	0x3e467b21	0.19382907
