ggcnn_base/output/models/230121_1510_training_example/epoch_03_iou_0.47_statedict.pt (torch, 256417 bytes, 16 tensors)

conv1.weight f4 [32, 1, 9, 9]
00000000: 2228 b7bc 74d4 8fbc b8bb 11bd 5981 6dbc
00000010: efd9 19bd 81f3 18bc 43ad 1b3d ab06 193d
00000020: 99c3 ce3c b199 d6bc 05b6 9f3a 432a b3bc
00000030: 573f 30bd 1645 e5bc 38a9 773b 6e27 7e3c
00000040: a48f 50bd e20d a9bc 81ed 0f3c 0afc d93c
00000050: f714 3e3d 0387 2a3c d152 073d 619b 793c
00000060: 11c8 21bd 2298 dfbb 0430 5bbd f9aa d13c
00000070: e41d 0ebd 44f9 b2bc c27a e8bb d862 0a3c
00000080: 5c75 223d c719 ff3c db78 35bd a56b 67bb
00000090: 05aa c1bc a63d 48bc 5fbb 323c 6489 0d3c
000000a0: c9b8 813b 6f9a f23c 57b7 16bd 8d53 2dbd
000000b0: 58c7 a73c 94f0 a939 4a5a a83c 54f6 bbbb
000000c0: 1cb6 f2bc 32b0 8c3a 907a a138 8d06 253d
000000d0: 905b f53c 7a15 55b9 0db1 1abd fdd2 253c
000000e0: 4136 253d b024 d6bb 4613 12bd 3436 1d3d
000000f0: a057 2ebc 2f32 573c 5836 283d 4f7b 143d
00000100: 0e03 51bc 4cd0 bcba 6165 19bd 8ba0 0f3d
00000110: 2a7e f5bb 000b a6bb 9894 d2b9 04f3 bc3b
00000120: a71f 80bc 839e 9a3c d143 073d 3901 123d
00000130: bb1a bc3b 90d1 58bd e987 91bc ade4 96bc
00000140: 438e 263d 2e8a 383c 5456 013d 030b 873b
00000150: 9224 a33b 867f cdbc cdd0 683d 6e1b f23c
00000160: 7ec7 113d f960 aabc 53f1 f0bc 56a8 7bbc
00000170: aa0a 0b3d f29e 533d 7bfc 973c 74e7 1abc
00000180: 47f5 1c3d 0873 2c3d d880 cd3c a9d8 613c
00000190: cea3 f33c f0df 33bd 94ab 2a3d 5956 83b7
000001a0: 696b 133d 0f35 77bc c84e 50bc 0ad5 f1bc
000001b0: 291c 133c f202 043d 3528 623c 5b95 a93c
000001c0: 915a f33b d707 6d3d eb84 41bc 2610 093c
000001d0: d913 343d 509a 913c d22a 72ba d20b 0cbd
000001e0: b69d 7f3c b121 783d 8e4e 173d 742c 2dbc
000001f0: bb8b 533d 1680 613d 18d4 cbbc 3fe2 d83c
00000200: 022f 2ebd 8f01 5a3d 8e70 39bc 82fc 423c
00000210: 6373 05bc e8d2 4a3d 6d4d 7c3d fc3c a23c
00000220: a1ed 0e3d af3d 483c 531a 433b 58c6 0ebc
00000230: df49 013d 64c4 133d b714 3d3d f385 ca3c
00000240: fed1 3a3d 3ed1 1e3d 1219 313c e3ff 2f3c
00000250: a62d e7bc 04fd 543c 691d 613c 8124 343d
00000260: 6a5f 493d 8013 4dbc 8a36 f5bb c168 3a3d
00000270: e70c cebb 31eb 483d 96ae f93c eca6 013d
00000280: c53b e53c c6dc bfbc 71e3 d2bd 4fb7 e1bd
00000290: ee53 03be adca 2fbd 6cb3 03be ed03 97bd
000002a0: 7b29 a5bd b9f1 d8bd fcc2 d7bd 6f6e c7bd
000002b0: 0785 ddbd a5be acbd e3f9 55bd fef0 ccbc
000002c0: cd3d 8bbd c525 a5bd 7f7d 92bd 94bd 8ebd
000002d0: 8456 a9bd b8ce c0bc 4df4 b5bd 42c0 90bd
000002e0: d408 e5bc a5af 94bc c9d3 85bd 210d aebc
000002f0: 7a98 93bc 3ab0 2fbd 0b47 97bd 349a 99bd
00000300: b5c5 d63c f766 873b 836d d4bc a294 b7bc
00000310: 7dd7 a4bc 9d32 80bc 1290 193d 20af a0bc
00000320: 11ca 6fbc 8209 0ebd 2dc5 3a3c 5e61 133d
00000330: d2d2 c4bb d330 34bc 92bd c2bc 5fe5 a73c
00000340: e331 c3bb 898a 18bd 54bb 8e3d 4955 4c3d
00000350: 2ad7 803d 1e06 c6bc 0f0f 88bb 3a57 103c
00000360: f0f5 733d 7045 c1bb a843 adbb 5395 be3d
00000370: 25e1 8e3d 3d36 c73c 8692 033d db8d b63d
00000380: ce2b 3f3b e79b 8a3d 8710 e03d e3ca d33d
00000390: 8cb1 033e b997 8f3d fd57 813d 60c9 8f3d
000003a0: c9a2 d03d 3acb d93d 66f9 003e 69e6 ef3d
000003b0: 475a ca3d e9e0 cc3d 58de 113e c953 f13d
000003c0: 7f84 023e 6422 a93d 1c94 f63d 110f 84bd
000003d0: 4f09 b2bd e57b 51bd 11b1 32be 901a 44be
000003e0: ff19 27be 68af 32be c754 46be 6f6d f4bd
000003f0: 6745 b7bd cffc 7dbd 1e7f 2dbd c50d e0bd
-0.022358004 -0.01755736 -0.035579413 -0.014496171 -0.037561353 -0.0093354 0.038007032 0.037359875
0.025239753 -0.026196333 0.0012184983 -0.021870738 -0.043029156 -0.027987044 0.0037790071 0.01551233
-0.050918236 -0.020636503 0.008784653 0.02660944 0.046406712 0.010408166 0.033037964 0.015234799
-0.03949744 -0.0068235556 -0.05351259 0.025594221 -0.034696475 -0.021847375 -0.007094712 0.008446418
0.039662704 0.031140221 -0.04430471 -0.0035311964 -0.023640642 -0.012221729 0.010908931 0.0086387135
0.0039587957 0.029614655 -0.03679594 -0.04231601 0.020480797 0.00032413437 0.020550866 -0.0057361517
-0.029627852 0.0010733663 7.699907e-05 0.04028945 0.029950887 -0.00020321264 -0.037766505 0.010121104
0.040334944 -0.006535135 -0.03566291 0.03838177 -0.010641009 0.013134523 0.04106745 0.03625041
-0.012757076 -0.0014405339 -0.037450198 0.035065215 -0.0074918466 -0.0050672293 -0.00040165032 0.0057662744
-0.015640093 0.018874412 0.03302366 0.035645697 0.005740491 -0.05293423 -0.017765002 -0.018419588
0.040663015 0.011263413 0.03157647 0.0041211857 0.0049787248 -0.025085222 0.056839753 0.029554095
0.03559064 -0.020798193 -0.029411947 -0.015359959 0.033945717 0.051665254 0.01855301 -0.009454597
0.038319852 0.04210189 0.025085852 0.013784566 0.029741194 -0.043914735 0.041667536 -1.5656626e-05
0.035991106 -0.015088334 -0.012714095 -0.02952053 0.008978882 0.03222937 0.013803531 0.020701101
0.007426568 0.057868805 -0.011811475 0.0083656665 0.04396424 0.017773777 -0.0009237948 -0.03419096
0.015601566 0.060579006 0.03694015 -0.0105696805 0.05164693 0.055053793 -0.024881408 0.02647507
-0.0425253 0.053224143 -0.011318339 0.011901023 -0.008145186 0.049517542 0.061597276 0.01980447
0.03489459 0.012221738 0.002977033 -0.008714281 0.03156459 0.036075965 0.046162333 0.024722075
0.04561042 0.038773768 0.0108092 0.0107421605 -0.028220009 0.012999777 0.013739922 0.043980125
0.04916326 -0.012516856 -0.007483308 0.045510057 -0.006288159 0.04905242 0.030478757 0.03165333
0.027982602 -0.023420703 -0.10297287 -0.110212915 -0.12824985 -0.042917896 -0.12861413 -0.07373796
-0.080645524 -0.1059298 -0.10535237 -0.097378604 -0.108163886 -0.084348 -0.052240264 -0.025017258
-0.06798897 -0.080638446 -0.07152843 -0.06969753 -0.08268455 -0.023536071 -0.08884487 -0.0706792
-0.027958311 -0.01815016 -0.065345354 -0.021246495 -0.018017042 -0.042892672 -0.07386597 -0.07500115
0.026217321 0.0041321474 -0.025931126 -0.02240974 -0.020122284 -0.015649134 0.03749091 -0.019614756
-0.014635579 -0.034677036 0.011399549 0.03598153 -0.006006577 -0.010997969 -0.023772035 0.020495115
-0.0059568747 -0.037241492 0.06969324 0.04988602 0.06291039 -0.024172839 -0.0041521857 0.008809859
0.059560716 -0.00589817 -0.0052876063 0.09305825 0.06976537 0.024317855 0.032122158 0.089137755
0.0029170397 0.06768017 0.10940652 0.10341432 0.12860698 0.07011361 0.063156106 0.07020831
0.10187299 0.106344655 0.12595138 0.11713869 0.098805 0.10003836 0.14244974 0.11783559
0.12745856 0.082585126 0.12039968 -0.06448186 -0.08693182 -0.051143546 -0.17450358 -0.19150758
-0.1631851 -0.17449725 -0.19368277 -0.11934935 -0.08948784 -0.062008675 -0.042357557 -0.10940126

conv1.bias f4 [32]
00000000: fc41 ccbd 8067 6a3d ea87 113d f9a7 2f3d
00000010: 5050 26be 0b16 68bd a97e db3d 4a55 a03d
00000020: 57c3 193e e06c 07bd e95c 4d3d 47f7 c93d
00000030: b711 a53c 6b4f 3ebe 59bf bcbd 2857 6e3d
00000040: 0bbe 90bd 64d3 d7bd e9b9 c53d 3932 9abd
00000050: 502b 99bd a700 c9bd a2c2 c2bd 9501 3f3d
00000060: 3971 173e 65a3 373d 07d0 c93d 0a59 6f3d
00000070: c05f 383d 7531 a7bd 77af 5d3d 67b8 323d
-0.09973523 0.05722761 0.03553001 0.0428848 -0.16241574 -0.056661647 0.10717518 0.078287676
0.15015922 -0.033062816 0.050137434 0.098616175 0.020150049 -0.18584983 -0.09216184 0.058188587
-0.07067498 -0.105383664 0.096546 -0.075291105 -0.07478964 -0.098145775 -0.095097795 0.046632368
0.14789285 0.04483356 0.09854131 0.058434524 0.04501319 -0.0816373 0.054122414 0.04363289

conv2.weight f4 [16, 32, 5, 5]
00000000: 2801 3bbd 938a 253d 3c79 453b a64c 273c
00000010: b7d3 c73b ba87 ddbb 3b84 813d 6d65 2e3d
00000020: 7504 80bc 02ec 81bd 3811 32bc 4721 8c3c
00000030: 2e8e 1dbd 1797 4dbc e46e 463d fe03 0a3d
00000040: 07a5 e3bc a730 57bb 19ea d73c a8db 36bd
00000050: 2bb7 dabc 4f61 1e3d 7a47 7b3d 7bcd 49bd
00000060: 4d9f c33c 8f24 163d 660c 9cbd d477 c0bd
00000070: 56fa ac3c 1413 a4bd 3a35 b53b 9135 ac3c
00000080: f638 cfbc 74f7 3d3c 3ada 9bbc c508 0f3d
00000090: 8440 3a3d ff8d 003d 75d4 a2bc 8714 b2bc
000000a0: bfd4 27bd ec0b b3bc dfdf 133c b160 c1bc
000000b0: d038 98bc d96a 5abc 3c3b ab3d 71ad 44bd
000000c0: 9516 6b3d 3411 523c 186e 393d 4898 413d
000000d0: 1483 993d b622 ef3b b1d0 edbd 4ee8 863d
000000e0: 62b1 c53c 7c2f 7d3d d3f7 4a3d 1d27 13bd
000000f0: 45aa 7abb 64f1 813d b5ad 70bb 976f 2a3d
00000100: 66ac f9bc 3877 dd3d 77d7 bb3d 5b06 a03d
00000110: 03e3 a33d 414f 803d de3e cc3d 8ffd 9e3d
00000120: 6cf3 e3bc 9c22 67bd b15d 10be 2f26 093d
00000130: 20cc e63d 640c b23d 2428 c83d d7be 8c3b
00000140: 2294 143b def6 fd3d 7e6a f73d dcfb 203d
00000150: b6c2 08bd 6af8 f63c 0e08 f63d 705e 973d
00000160: bea2 873d 8894 7b3c d729 4a3d a18e 1a3e
00000170: 8d3b e03d 79ec 1d3e 1b48 743c ed4c cebd
00000180: 5c50 323d 414c 4c3d 3a30 38bd 28c5 4a3c
00000190: eac7 773d b6cb 8ebd b634 083d 5367 d33c
000001a0: 8a62 063d ce7b 073c df90 20bd a89f 80bd
000001b0: 5c75 41bc 7185 0e3d 38c4 50bd 0c33 1fbc
000001c0: c17f 52bd 7838 c03a aa57 6abd cbde 30bd
000001d0: dd4c a0bd 420d 25bd 847c 09bd a31f 35bd
000001e0: acea 8fbd 28ca c3bc 5c34 2dbd 2d0b f0bd
000001f0: 7b0f dfbd 882a 41bd 8b16 cdbc 6a0a 50bd
00000200: 99a2 4ebd a0a5 803d 0d84 08bd 4e2a 50bd
00000210: 8fd1 6f3d 9ae2 c43b e638 743d 8d43 043d
00000220: 0824 4f3d cb25 06bd d036 6bbd 4e0d 95bc
00000230: 44f9 15bd 7980 62ba 7141 a8bd 54a1 b3bd
00000240: fcb0 e0bb c43d 1f3d f036 95bd e172 82bd
00000250: c630 21bd 310a 08bd 8e40 b73d 9068 63bc
00000260: 61bf 3cbd e1d5 c83c ea52 b6bd 1384 143d
00000270: b720 603c 5dac 743d a95e 9f3c 1b21 01be
00000280: 56a5 ff3c 35c1 3dbd ba85 0fbd 9644 823c
00000290: bf7d e4bd bf3d b13c f896 123c 98b3 403d
000002a0: e39a 9e3c 83eb 49bd fb14 8a3c 9344 55bd
000002b0: ecd3 39bd cb72 6bbc cc66 4ebd d852 903d
000002c0: 85c3 13bc a6b0 633d f7a5 a0bd ade4 f43b
000002d0: 628a 5dbd 2401 803c 1030 43bd 80a4 b5b9
000002e0: a0ee b13c 81bf 3c3c 6969 453d bf51 39bc
000002f0: d63c e13b f388 17bd d868 32bd 2dfa 8abc
00000300: 4f75 b9bc 6025 d53b 9ea4 8bbd a74b f8bc
00000310: ddfa 82bc 67d5 7e3d 3416 a6bd c43b 023d
00000320: 919a 3d3d 5191 dfbc 6d16 27bd 9240 b1bd
00000330: ad40 fabc b3cf 5b3d 501d 243d 9e61 85bc
00000340: 2ed3 85bd 6b1b 38bd 2ef5 7338 688d b93d
00000350: 4853 8abb 2a26 03bd 8c2e a6bc 3a9f 1f3d
00000360: 5ff6 5b3d 0b61 c4bc 5cae 043c f405 ad3a
00000370: d531 9a3d ecaf 903d 4e10 9b3d 2aee 8bbd
00000380: 66ef dabc 0cca eebb d9c8 96bd 2a09 dbbb
00000390: 4243 173d 96be 66bc 59cb 2dbc c6d3 3dbc
000003a0: f766 04bd 8f4b 46bd 3261 91bd 9ba8 4fbd
000003b0: a8dd 9dbc 73f9 343d 57e0 5a3d ec02 7abd
000003c0: 8f40 a4bd ff21 053a f1c6 bfbc bfd3 49bd
000003d0: ca7f 2b3d 6a92 3bbd 5c14 75bd bc1c a03a
000003e0: d6ad 5fbc 536d 0239 6338 933d a898 edbc
000003f0: bf80 c0bd acd3 2dbe 4531 41bd 58c7 0c3c
-0.0456554 0.040415358 0.0030132076 0.0102111455 0.0060982364 -0.0067605646 0.06324049 0.042577196
-0.015627125 -0.06343843 -0.010868363 0.017105712 -0.03846567 -0.01254823 0.048445597 0.033695213
-0.027788652 -0.0032835396 0.026356744 -0.044643074 -0.02669867 0.03866702 0.061347462 -0.049268227
0.023879671 0.03665596 -0.07619552 -0.093978554 0.021115463 -0.08011451 0.0055300267 0.021021636
-0.025295716 0.011594642 -0.019024957 0.034920473 0.045471683 0.031385418 -0.019876698 -0.021738304
-0.040974375 -0.02185627 0.009025543 -0.023605676 -0.018581778 -0.0133311385 0.083609074 -0.04801697
0.057394583 0.012821484 0.04527101 0.047264367 0.07495704 0.007297839 -0.1161207 0.06587277
0.024132434 0.061812863 0.04955275 -0.035925973 -0.0038248461 0.0634487 -0.0036724631 0.041610327
-0.030477714 0.10813755 0.09171956 0.07813712 0.080022834 0.062651165 0.099729285 0.07763206
-0.027826034 -0.05642949 -0.1409824 0.03348368 0.112694025 0.086937696 0.09773281 0.004295211
0.0022671302 0.12400602 0.12080859 0.03930269 -0.033388816 0.03014775 0.12013255 0.073910594
0.066228375 0.015355237 0.049356308 0.15093471 0.109488584 0.15422238 0.014909769 -0.10073266
0.043533668 0.04987741 -0.044967867 0.012376107 0.060493387 -0.069724485 0.033253394 0.025806105
0.032808818 0.008269263 -0.03920066 -0.06280452 -0.011807766 0.03479523 -0.05096838 -0.00971676
-0.051391367 0.0014665266 -0.05721251 -0.043181222 -0.078271605 -0.040295847 -0.033566013 -0.044219624
-0.07027182 -0.023900107 -0.042286262 -0.117208816 -0.108916245 -0.0471597 -0.025035163 -0.05079118
-0.050448034 0.062815905 -0.03332906 -0.050821595 0.05854946 0.0060084583 0.059624575 0.032290984
0.05057147 -0.032750886 -0.05742532 -0.01819482 -0.03661467 -0.000864036 -0.08215607 -0.08771005
-0.0068570357 0.038877264 -0.07285869 -0.06369568 -0.039353155 -0.033212844 0.0894786 -0.01387991
-0.04608095 0.024516048 -0.08902533 0.03625877 0.013679675 0.05973469 0.019454317 -0.12610285
0.031206768 -0.046326835 -0.03503964 0.015901845 -0.11156797 0.021635888 0.008947127 0.047046274
0.019360965 -0.049296867 0.016855707 -0.05206735 -0.04536812 -0.0143706305 -0.050391003 0.07047051
-0.009018783 0.055588387 -0.07844155 0.0074735493 -0.05408705 0.015625544 -0.047653258 -0.00034645572
0.02172023 0.011520267 0.04819623 -0.011310994 0.0068737073 -0.03699584 -0.043557018 -0.016964996
-0.022638945 0.0065046996 -0.068185076 -0.030309511 -0.015988762 0.062215235 -0.08109704 0.03179528
0.046289984 -0.027290972 -0.04079287 -0.08654894 -0.030548418 0.053664874 0.040067017 -0.016281899
-0.0653442 -0.044948023 5.8164056e-05 0.09060174 -0.0042213537 -0.032018818 -0.020285867 0.03897021
0.053701755 -0.023972055 0.008098211 0.0013200627 0.07529036 0.070648044 0.07571469 -0.068325356
-0.026725482 -0.0072872695 -0.073625274 -0.006684442 0.036929376 -0.014083525 -0.010607564 -0.011586135
-0.032324757 -0.048411902 -0.07098617 -0.050697904 -0.019270733 0.044183206 0.053436603 -0.061037943
-0.08020126 0.0005078613 -0.023410292 -0.049274202 0.041869916 -0.04579393 -0.05983387 0.0012215595
-0.013652286 0.00012438493 0.07188489 -0.029003456 -0.09399556 -0.16975278 -0.047166128 0.008592449

conv2.bias f4 [16]
00000000: 6ed7 5e3d 0da7 e8bc 3e1d 44bd 467e 04bc
00000010: e9fd 473d 769a 20bd 2fd5 ce3c 58df 16bc
00000020: 7d80 36bc cdc8 ce3c c6b0 953d 484a 063d
00000030: 64b2 87bc cf9a 013d e361 72bd cee8 0fbd
0.05440467 -0.028399969 -0.04787945 -0.008086747 0.048826132 -0.039209805 0.025248138 -0.009208523
-0.011139032 0.025242234 0.073091075 0.032785684 -0.016564555 0.031641778 -0.059175383 -0.03513413

conv3.weight f4 [8, 16, 3, 3]
00000000: 542d 733d 79e0 fe3c 03b4 21be 12d4 01be
00000010: 8c92 7d3d 5185 5d3c 3aae fb3d c7aa 323d
00000020: ce0a 9d3d 4d7a 173e 42a4 823d c187 763d
00000030: c2c3 b33c ccbd f33d a12b dabd 5019 833d
00000040: 7d3c 8cbd 3c74 aebd b3a3 c7bd 3802 1fbe
00000050: abd3 163e de0e df3d 03ea bbbd 50c3 e0bd
00000060: f655 a83d d6a6 8e3b 71be e1bd f87a de3d
00000070: 169b 9abd caaa 81bd 8458 da3d 5457 ca3c
00000080: 8131 9abd b191 033e cbaa c3bc 6d61 87bb
00000090: 6590 8d3d 4beb 2cbd e2cd 3f3e 4eb0 613d
000000a0: 6ae7 bf3d 343f 18be 4fa7 0bbe 206a b8bd
000000b0: a34c 2a3c 3cf3 1cbb 3228 6c3d 85aa eebd
000000c0: 7c66 1b3e 05b9 2d3d 13cc 603c 2bf7 093d
000000d0: b833 fcbc 78f3 c8bd 58b7 563a 9f18 99bc
000000e0: 10dd 1bbe 41b2 8f3a def1 5abd b1ab 373e
000000f0: 3bca c6bd 905d d53d 07c1 f3bd ea84 3ebd
00000100: c9f2 0fbe 301c bd3c fc2d 833d 192d 6d3d
00000110: d847 993d b1af cbbc 4888 f23a 55d7 15be
00000120: 9c12 8c3c 0bfa aa3d 7f84 7fbd 2579 003c
00000130: 4cf0 ffbb 737c c13d 6722 f83d 3b1a 14bd
00000140: fdd3 3d3c 891e 013e c415 0c3e 036b 213e
00000150: 2f07 e4bd 2616 e7bd 7840 ebbd 83fb e23d
00000160: 7870 d13d 032a 25bd 5451 90bd b401 a23d
00000170: 00d0 823e d51b 8e3d 6faf 093e aaea 223e
00000180: fe0b 45be 8f17 60be 7492 5cbe 699d 143d
00000190: 5d34 513e 8fef a43d dea6 f53c 77c3 0dbe
000001a0: 8d18 35bc 9866 eb3c 26bf 48be 040d c1bd
000001b0: 2418 0f3e 1086 043e b759 3f3e ec2d 0bbc
000001c0: 87d5 eabd 29b1 f2bd fb6e 2ebe 2d23 51be
000001d0: b926 45bd 0d15 303e 63ae ecbd bc1e abbd
000001e0: e6ff ac3d 3148 1d3d 3d58 df3b 4ea3 043d
000001f0: 92f3 debd 8765 febd 2f12 28be 24c2 b83c
00000200: 9d7f 093e 4c3b b33d e60c f5bd 2aab 713d
00000210: e543 03bd aeae 15be 6dff 15be 0a0e 23be
00000220: f519 c13d cb5f e4bd f1a6 413d 3594 f03d
00000230: d5e0 c23d 387c 153e 0279 d33d 0868 03be
00000240: 967b 053d 06d4 403d 946e 49be 015d 0c3e
00000250: ea27 cd3c 1772 24be de9e cb3d 1814 dabc
00000260: 0e23 5bbd b9e7 9bbd 4ba6 f8bc 1021 83bd
00000270: e4c2 8fbd 0a44 03bd cbe2 8a3c 4373 f83d
00000280: 11d0 90bd d483 73bd 9b56 7e3d 2328 11be
00000290: 6bbd 173c 9225 1dbe f0c3 33bd 6b6d aa3d
000002a0: ab69 723d b68b 8b3c 022a 96bd 0b51 b23d
000002b0: f4de 22be 8ed9 ec3c eccd 513d 23d4 f8bd
000002c0: 8a10 21be c7fa c83d 07f1 9dbd 7fcd d83d
000002d0: 0087 7c3e cfcf 3a3e ba30 c8ba 5a8e 21bd
000002e0: 9302 58bc 05fa 1fbd d2e3 33be 391e 4ebd
000002f0: a4f6 5bbe 8c60 21be cdfd 92bc 7805 8f3d
00000300: d218 05bd 6ad3 233e 669f 03be 32b4 633d
00000310: e389 89bd 01be 053e eb12 5e3c c259 a9bd
00000320: 978a 1fbe 7288 d4bd 756a 473e d8dc d0bc
00000330: 95c6 e0bd f00d 1f3e d84b 923d 5d80 293e
00000340: 2397 e5bd 322e 0e3e 6764 a73c 2b0f c43d
00000350: f867 e33c 2fad 2ebe 3c81 7f3d 606a 2f3d
00000360: 26e3 bb3d 0dbe f0bd dd6d 0f3d 9c80 753d
00000370: 528a 333d 5f21 4a3d dcc4 133e f015 3d3d
00000380: a432 15be 8df9 113e 102a 22bd 1c06 15be
00000390: 3f83 f53d e259 003e 1460 bebc 8cea 4b3d
000003a0: d64a e9bc dfdf 4f3d f43f 323e bacb 463e
000003b0: 4556 9a3d 1018 93bd b215 223d 8cb7 01bd
000003c0: 504a 41be c48a 28be e688 67bd 8718 bd3c
000003d0: 9389 7fbd d668 973d c3c1 143e f3d0 abbd
000003e0: 7746 35bd 1ee6 f03d e8b1 7d3d 3213 79be
000003f0: 4001 273e ff78 d63d 9f0c 093d 420c b4bc
0.0593694 0.031112896 -0.15791325 -0.12678555 0.061907336 0.013520555 0.122890905 0.043619897
0.076680765 0.14792748 0.06378986 0.06018806 0.02194393 0.11901435 -0.10652853 0.06401312
-0.06847475 -0.08518264 -0.0974802 -0.1552819 0.14729182 0.108915076 -0.091754936 -0.10974753
0.08219521 0.0043533845 -0.11022652 0.10863298 -0.075491115 -0.063314036 0.10661414 0.024699844
-0.07528973 0.12848546 -0.023885151 -0.004131487 0.06912307 -0.04221658 0.18730882 0.055099778
0.093703106 -0.1486786 -0.13638042 -0.09004617 0.010394248 -0.002394869 0.05765552 -0.11653618
0.15175813 0.042412776 0.01372053 0.033682983 -0.03078638 -0.09812063 0.00081907725 -0.018688498
-0.15221047 0.0010963158 -0.05345332 0.17936589 -0.09706541 0.10418236 -0.119020514 -0.046513475
-0.14057459 0.02308473 0.06405255 0.057904337 0.07484406 -0.02486405 0.001850375 -0.14632924
0.017098717 0.08348473 -0.062382217 0.007841383 -0.007810628 0.09447565 0.12115937 -0.036157828
0.0115861865 0.12609304 0.13680178 0.15763478 -0.11134183 -0.11283521 -0.11486906 0.11083128
0.1022653 -0.04032327 -0.07046762 0.07910481 0.25549316 0.06938902 0.13445829 0.1590983
-0.19242856 -0.21883987 -0.21540242 0.03628293 0.20430131 0.08053505 0.029986795 -0.13844095
-0.011053217 0.028735444 -0.19604167 -0.09426311 0.13974053 0.12941766 0.18686567 -0.008494835
-0.11466508 -0.11850197 -0.17034523 -0.20423575 -0.048132632 0.1719553 -0.11556699 -0.083554715
0.08447246 0.038398925 0.0068159387 0.032382302 -0.10886301 -0.124217086 -0.16413186 0.022553511
0.13427587 0.08751544 -0.11965351 0.059001125 -0.03204717 -0.14617416 -0.14648218 -0.15923324
0.09428779 -0.111510836 0.04727835 0.11747018 0.095155396 0.14598167 0.10325815 -0.12832654
0.032588564 0.0470772 -0.19671088 0.13707353 0.025043447 -0.16059147 0.09942411 -0.02662091
-0.053500228 -0.07612557 -0.030352732 -0.064027905 -0.07019594 -0.03204731 0.016953846 0.121313594
-0.070709355 -0.059451893 0.062094312 -0.14175467 0.009261469 -0.15346363 -0.043888032 0.08321651
0.059182804 0.017034393 -0.07332231 0.08706864 -0.15905362 0.028912332 0.051221773 -0.12149837
-0.15728965 0.09813457 -0.07711988 0.1058607 0.24660873 0.18243335 -0.0015273311 -0.039442398
-0.0131842075 -0.039056797 -0.17567375 -0.05032179 -0.21480805 -0.15759486 -0.017943287 0.06983465
-0.032494374 0.15998617 -0.12853774 0.05559177 -0.06715753 0.13060762 0.013554315 -0.08269073
-0.15580212 -0.103775874 0.19474204 -0.025495932 -0.109753765 0.1553266 0.07143372 0.16552873
-0.11210468 0.1388481 0.020433618 0.095732056 0.027759537 -0.17058252 0.062379107 0.042826056
0.091741845 -0.11754999 0.035016883 0.059937105 0.043833084 0.04934823 0.14430565 0.0461635
-0.14570099 0.14255352 -0.039590895 -0.14553112 0.11987924 0.12534288 -0.023239173 0.04978423
-0.028478067 0.05075061 0.17407209 0.19413653 0.07535986 -0.07182324 0.03957147 -0.031669185
-0.18876004 -0.16459185 -0.05652704 0.023082985 -0.06238706 0.07393043 0.14527039 -0.08389463
-0.044256654 0.11762641 0.061937243 -0.24323729 0.1630907 0.10472297 0.033459302 -0.021978501

conv3.bias f4 [8]
00000000: a65a 8e3d 42ff 6a3d f466 993c 09bd aabc
00000010: 77f6 94bd 4bbf 8b3c 9fea 343d 9441 92bd
0.069508836 0.05737234 0.01872585 -0.020842092 -0.07273572 0.017058989 0.044169065 -0.07141414

convt1.weight f4 [8, 8, 3, 3]
00000000: d4cf 263e 24a7 bf3e 7aa4 debd 145a 89be
00000010: 025a a83c 43f3 c83d 7607 b53d d779 af3c
00000020: 52a9 953d c568 843e 7e2f b33d 8f74 123e
00000030: 30c0 6abe eb4b 39be beed 80be e4db 2d3e
00000040: 4955 2abd 4faf 153e d7e6 15be ab20 6f3d
00000050: a553 69bd 8361 743e d90c 5438 7caa 75be
00000060: cb9e 22bc 7df1 f43d d822 b13e 6d5a 783c
00000070: 8ba8 0b3e 06aa 583e 66cb 323e 2e03 c33e
00000080: 9f32 d83e 6ec4 9abe d979 0bbd 9789 c2bd
00000090: 7739 00be 6c48 0a3e 4bef 58bc 687d c83c
000000a0: 1539 9dbe f007 233e 80fd 283e aeed a4bd
000000b0: 1322 2bbe 5dfd 333e e831 423e 9211 bc3c
000000c0: ddca 28bb 2729 493e 7d18 5ebd d190 633e
000000d0: eac9 703e 4afc a53c 760a efbe d546 92be
000000e0: fb7a 56bd 15ba 0b3d 491b 8d3e acce d1bb
000000f0: a382 c3bd f74c 123d 6082 febd d5ef f5bd
00000100: 003a c43d 9678 37be 170c ae3e 84c1 02be
00000110: 3714 9b3e 082d 23be c726 a53e 970a 22be
00000120: 7af7 ad3e 2c6e ec3d 3427 083e 2bf5 383e
00000130: 8645 973d 6fed 953d 2e8b e53c add8 333e
00000140: 0d0f d8bd 31cd 76be 7f16 50be 1b51 d8bd
00000150: ffca 08be 5f8f 47be 8e5b 8abe f8da 0ebf
00000160: 5a1e 80be 76dc c9be a328 843d 9d50 9c3e
00000170: c51f 81bd 4cea 553e 7951 703d 332e 5abe
00000180: c748 dc3a d92a 883d 4a60 3dbe 61bf e5bd
00000190: a222 b33d 2ff9 c0bd 01f2 a6be a94e abbe
000001a0: 052d fcbe 3912 023d 8c6b d03d 5004 dbbe
000001b0: 3965 373e a2e4 af3e 74fb d93d 6323 933e
000001c0: 7343 b8be c874 6c3d f236 1abe f95a 003e
000001d0: d6e3 31be e3c9 c2bc 48d9 e7bd 0c62 9d3e
000001e0: 37d7 cbbd cb09 673d ab79 933e 2ddd 873d
000001f0: 9676 8bbd 6e1c 3c3e 9d51 20be b77a d83c
00000200: 22b7 0dbe 476b 863d 40a7 edbe 0c45 24be
00000210: 528c 63be 1197 553d 9f53 48be bad4 8abe
00000220: 25d9 adbd cf12 80bd 122a 683a ae9e 5abe
00000230: da21 ab3e c723 81be b690 fa3e febd 49be
00000240: 6d89 973d 5cfb 313e e4f8 dfbd 36c0 ef3d
00000250: 4a79 ac3d 5e04 743d 7a50 8b3e 8342 153e
00000260: 7e80 313d 6696 d53d 40d7 40bd 9960 5c3e
00000270: fe23 f7bd efd4 4d3e bb00 8fbd 3f03 6abe
00000280: 44bd 1abe 86e3 2e3e dc5f 453d 7fd2 eb3d
00000290: e54e 673e a5f1 ca3d 1bc9 f63d f532 023e
000002a0: 10d4 1abe 2c87 3fbe 679f 973d 41db f53a
000002b0: d2f0 48be 1037 f33c 335f 54be 0636 e4bd
000002c0: cf75 1abd 964d 043e fc2a 93bd 6ca5 bd3d
000002d0: de77 5abd 137e e0bd f641 22be f13d 373e
000002e0: 318f 903e 1ffb debd aaa7 6cbe 1af8 1c3e
000002f0: 81aa 5b3d c6a8 9f3d 405a e23d b898 acbd
00000300: 83dd 303d 428f 87bd 2c52 5bbe ccc3 c9bd
00000310: fd24 f2bd 6e25 883d 3e86 24be a1af 18bd
00000320: d621 a4bd ed1c 2b3e 1378 dbbd a05d 19bd
00000330: 83cc 413e a100 8b3d e4d2 d33c bfa8 083e
00000340: 701b 01be b18c 3d3e 060c bfbd dc18 483d
00000350: 3d8e d5bd 2ba2 9a3c ecbc 75be 3855 903d
00000360: 0d78 643c 068d 57be fa61 8dbe b394 d33d
00000370: 77a7 f13d 7b3c 6abb 8d50 2bbe caee 373c
00000380: 7b55 79bc 59e9 c33d 3f8b 843e c7f4 8e3d
00000390: 4886 58be 6652 b13e b976 b13d c676 243e
000003a0: 08ec 55bc cb9e b4bd d620 d1bd 8664 e2bd
000003b0: d70e 1fbe b8cd 1f3d ae52 823e 4a88 b33d
000003c0: d531 75be 89e5 16be e62a e2bd 37cd dfbd
000003d0: 8f9e 0fbe 4b8a a6bd 10b6 81bd b51a f4bd
000003e0: a32f 04be 0654 efbd 2667 adbd a4c8 9a3d
000003f0: ce44 aabd 9509 7ebe ded4 d9bb 2235 3bbe
0.16290218 0.37432206 -0.10871215 -0.26826537 0.020550732 0.098120235 0.08839314 0.021420402
0.07307686 0.25861183 0.08749293 0.14302276 -0.22924876 -0.18095367 -0.25181383 0.16978413
-0.04158524 0.14617656 -0.1463884 0.058380764 -0.056964535 0.23865323 5.0556704e-05 -0.23990816
-0.0099255545 0.11960123 0.34596896 0.015158278 0.13638513 0.21158609 0.17460403 0.38088363
0.4222612 -0.3022799 -0.03405175 -0.094988994 -0.12521921 0.13504189 -0.013240646 0.02447386
-0.30707613 0.15920997 0.16502953 -0.08053146 -0.16712217 0.17577119 0.1896435 0.022957597
-0.0025755682 0.19644605 -0.054222573 0.22223212 0.23514524 0.020261902 -0.4668767 -0.28569666
-0.052363377 0.03411301 0.2755988 -0.006402811 -0.09546401 0.03571793 -0.12427211 -0.12008635
0.09581375 -0.17917094 0.339936 -0.12769133 0.3028886 -0.15935147 0.32256147 -0.15824352
0.33977872 0.11544451 0.13296205 0.18062274 0.073863074 0.073206775 0.028020468 0.17563124
-0.10549746 -0.24101712 -0.20321082 -0.10562345 -0.13358687 -0.19488285 -0.27022976 -0.5580287
-0.25023156 -0.3942601 0.06453063 0.30530253 -0.06304888 0.20890158 0.05867145 -0.21306686
0.0016806357 0.066487975 -0.18493763 -0.11218143 0.0874684 -0.09422528 -0.3260651 -0.3345845
-0.49253097 0.03175566 0.10176763 -0.42776728 0.17909707 0.3435412 0.10643664 0.28737935
-0.3598896 0.05772856 -0.15060022 0.12534703 -0.17372069 -0.023777908 -0.1132074 0.30738866
-0.09953158 0.056405824 0.28803763 0.06633983 -0.06809728 0.1837022 -0.15656133 0.026425702
-0.13839391 0.0656343 -0.46416664 -0.16041964 -0.22221497 0.05214602 -0.19563149 -0.27115422
-0.08488683 -0.062535875 0.00088563666 -0.21349594 0.33424264 -0.25222608 0.4893853 -0.19701383
0.07399259 0.17381042 -0.10936144 0.11706583 0.084215716 0.059574477 0.27209836 0.14576153
0.04333543 0.10429077 -0.04708028 0.21521224 -0.12067412 0.20100759 -0.06982561 -0.22852801
-0.15111262 0.17078981 0.04818712 0.11514758 0.2258869 0.09909371 0.120500766 0.12714751
-0.15119958 -0.18703908 0.074034505 0.0018757359 -0.19623116 0.029689342 -0.2073944 -0.11143117
-0.037710007 0.12920222 -0.07185933 0.09260067 -0.05333697 -0.10961547 -0.15845475 0.17894723
0.28234246 -0.10887741 -0.23110834 0.15329018 0.053629402 0.07795863 0.1105237 -0.08427566
0.04318 -0.06619121 -0.21418065 -0.098517984 -0.11823461 0.06647764 -0.16066834 -0.037276868
-0.08014266 0.16710253 -0.10716262 -0.037442803 0.18925671 0.06787229 0.025857396 0.13345622
-0.12608123 0.18510701 -0.09328465 0.048851833 -0.104275204 0.018876156 -0.23997849 0.07047504
0.013944638 -0.2104989 -0.27613813 0.103310965 0.117995195 -0.0035741616 -0.16729946 0.011226365
-0.015218134 0.09565992 0.25887486 0.06980281 -0.21144974 0.34633178 0.08665223 0.16060933
-0.0130567625 -0.0881935 -0.10211341 -0.110543296 -0.15533005 0.039014548 0.25453705 0.087662295
-0.2394479 -0.14735998 -0.110433385 -0.109278135 -0.14025329 -0.08131846 -0.06333554 -0.119191565
-0.12908797 -0.11685948 -0.0846694 0.075578004 -0.08313905 -0.24808343 -0.00664769 -0.18281987

convt1.bias f4 [8]
00000000: 9dd5 a5bd df88 923c a629 ce3c a431 9b3d
00000010: a879 bfbc 52d7 743d 76b1 c53d 10c2 3fbd
-0.08097384 0.01788753 0.025166344 0.075778276 -0.02337344 0.059775658 0.096529886 -0.04681593

convt2.weight f4 [8, 16, 5, 5]
00000000: f701 5bbe cd36 76be 93cd 7cbe 2967 16be
00000010: 1e29 bdbe 6963 13bc 5a7d 95bd 7ef4 c03d
00000020: eeec 1cbe d089 f1bd fa02 e1bc 630a bc3c
00000030: a6ff 35be a786 45bd 4113 abbd 953e fa3c
00000040: 8cfc 60bd d183 363d 6899 2abd d010 afbd
00000050: 6584 153e f280 08bd 462b 5c3d 9394 d23a
00000060: d946 ad3d e08c 81bd d4f6 f03c 5291 a33d
00000070: 2117 863d 5c0b 0b3c acce 113d 1dd2 2abd
00000080: ec22 c3bc fd50 5c3d 3350 993d da6e 943c
00000090: 5467 9d3d ea66 d03d e856 da3d d9e8 92bc
000000a0: 8dc8 debb 6559 bd3c 23de 1e3d cdaf 5c3d
000000b0: 9a49 51bc d5b2 00bd 66cc 30bd 61c9 6c3d
000000c0: 127c 99bc cb2f 443d 78c4 42bf f938 4cbc
000000d0: 4c70 d3be 98ae 393d a36d 4ebe bc7f 5d3c
000000e0: 763f 0fbf 851a e1bd 0984 c7bc c46c 4dbd
000000f0: 74e2 9ebe 24e9 80ba 9e1f 20be b6ed 36bd
00000100: 3e07 39bd 4ed2 853d c307 88be 41a2 d5bd
00000110: e6f0 c7be bad7 b1bd 391b 85bc 7520 28bd
00000120: f56d d13d 430e 4ebc c935 943e ca1d 513d
00000130: 7823 02bd 3aa7 b4bd 5a7b eabc 9175 83bc
00000140: eafd 683d 03ed 4d3c ec20 babd c5be 2abd
00000150: c22a 91bd e0ca 323d 283c e0bd 86e6 e9bd
00000160: b9c5 833c b6d0 bfbc da74 29bc b14b ccbd
00000170: 1d63 ddbd e18d 6fbc 9e1e c1bd 19a6 433d
00000180: 3861 cabc 6062 9abb c0ce 0c3d 0ce4 f5bd
00000190: 06e7 dabb 88b1 35bc a5f8 26bb fe5d df3d
000001a0: 687c ebbc 68b3 2fbc c91e 18be 3fa4 8ebd
000001b0: c0f5 9abd 3184 96bd 116a 31bc 61cd a3bc
000001c0: a3c6 3e3c 31ab 893d 46c2 bebd 27d7 7cbd
000001d0: 1e6b fe3c 1e7a a0bc 9f73 edbd 4a1b b83d
000001e0: 1d79 bdbd a02f 84be e439 afbc 8a10 93bc
000001f0: cd33 263c 9eea 2d3c 1e90 0dbd 3272 b9bd
00000200: d400 d2bb 4b0d d1bc c56a 143d c817 723d
00000210: 3e3e b33c 9b6a 3dbd 1231 4dbd 8034 293c
00000220: ee73 733d edb8 9abd e3bb b0bd 27fe d33d
00000230: 367f dfbc 1ecf 7d3d 4df2 b93d 6cdf b2bd
00000240: 3df5 97bb 4863 adbc 5f2e 03be a6c8 d03c
00000250: 54fd 8cbd 9636 57bd 5819 223d fafc 823d
00000260: 6bd5 10bc 6ab9 163d 5d40 8c3d b640 dd3c
00000270: 6abc 153d 4fa1 da3d ce88 523d fec7 45bd
00000280: 6c5a 61bd 237b b03d 0cf5 f23d ed80 7fbd
00000290: ec45 123d 157b 5fbd 7325 bf3d 261e 4cbd
000002a0: 83ec 84bd 65fa c13d 3882 10bd 9c89 15bd
000002b0: a83b bc3d 0bb0 5bbc 90e5 783d 9186 b3bd
000002c0: c9a3 90bd 4382 803d db44 5fbd 8dce fcbc
000002d0: 0a64 333c 260b 2d3d c359 483c 614c fdbc
000002e0: 1316 123d fb43 a4bd 48ca 0bbd f355 b8bd
000002f0: 362e 2c3d dacc 09bc 8537 133d 4fdf aebd
00000300: 286b 963c 934e b83d 2ddc d1bc 1ac7 ccbd
00000310: 292d a4bc da17 b6bb 9e1e 7c3d 0082 c53b
00000320: 161d 163d df30 223d f69e b6bd 7c96 4dbd
00000330: 2314 bfbc b568 423b 87c0 92bc 9395 f2bc
00000340: 7ecb 783d 331a 5cbd 95c2 423c f916 67bd
00000350: e7f9 b3bd 5954 49bd bedc 15bd b87c 9f3b
00000360: 8260 a83d 21f3 ccbc 26b8 76bd 054b 70bd
00000370: abcc 14bd 74cb 8abc 22ba bcbd 4aae 543d
00000380: df1d a13c da12 053d 4724 c2bd 141a aebc
00000390: fb21 f2bc 3a19 15bc c334 d33b febf 1c3c
000003a0: c580 713b 2ba0 bf3c 1645 88bc e619 d4bd
000003b0: 4a21 aebd 6000 1ebd 7304 633d 0a32 733d
000003c0: d78e dabc 1e91 2abd 446c 8d3d d794 543d
000003d0: 6239 1fbe 51ba b53c 9463 733d dadc 59bd
000003e0: fbe5 c4bd 2a2b 9d3c 56f0 60bd 6592 36bd
000003f0: 8915 9a3c d1d7 57bd 9da2 56bc 413e d53c
-0.21387468 -0.24044342 -0.24687795 -0.1468779 -0.36945432 -0.008995869 -0.072992995 0.09421633
-0.15324757 -0.11793864 -0.02746724 0.022954172 -0.17773303 -0.048224118 -0.08353282 0.03054742
-0.054928347 0.044559304 -0.041650206 -0.085481286 0.14601286 -0.033326097 0.053752206 0.0016066007
0.08460779 -0.06325698 0.029414572 0.07986702 0.0654738 0.008486595 0.03559749 -0.041704286
-0.023820363 0.053788174 0.07486 0.018119264 0.07685724 0.10175879 0.10661107 -0.017933296
-0.00679881 0.023113916 0.038786065 0.053878594 -0.012773896 -0.031420548 -0.04316368 0.057809237
-0.01873592 0.04789714 -0.7608104 -0.012464755 -0.41296613 0.04533252 -0.2015901 0.013519224
-0.5595621 -0.10991386 -0.024354951 -0.050152555 -0.31032145 -0.0009835106 -0.15637061 -0.044660293
-0.045172922 0.06534253 -0.26568422 -0.10431338 -0.39050978 -0.08683725 -0.016248332 -0.04104658
0.10226051 -0.012576642 0.28947285 0.0510538 -0.031772107 -0.088209584 -0.028623272 -0.016047271
0.056882776 0.012568715 -0.090883106 -0.04168584 -0.070882335 0.043650508 -0.10948974 -0.11420922
0.016085492 -0.02341495 -0.010342801 -0.099753745 -0.1080992 -0.014621229 -0.09429668 0.047765825
-0.02470456 -0.0047114342 0.03437686 -0.12006387 -0.006680372 -0.01108969 -0.0025477794 0.109065995
-0.028745845 -0.010723926 -0.14855494 -0.06964921 -0.07566404 -0.07349432 -0.010828511 -0.019995393
0.011644038 0.06722105 -0.093143985 -0.061728623 0.031056937 -0.01958948 -0.115943186 0.0898958
-0.09251616 -0.25817585 -0.02138991 -0.017952222 0.010144186 0.010615019 -0.03456127 -0.09054984
-0.00640879 -0.025519034 0.036234636 0.05910471 0.021880265 -0.046244245 -0.050095625 0.010327458
0.05943673 -0.07554803 -0.086295865 0.1035121 -0.027282339 0.0619651 0.09079418 -0.087340206
-0.004637389 -0.021165505 -0.12810658 0.025486302 -0.06884256 -0.05254229 0.03957495 0.06395908
-0.008839945 0.03679792 0.06848214 0.027008396 0.03655664 0.106752984 0.0514 -0.04828643
-0.055017874 0.086172365 0.11863145 -0.062378813 0.035711214 -0.05456074 0.09333315 -0.04983344
-0.064904235 0.09471587 -0.035280436 -0.036508188 0.09191066 -0.013408671 0.060765803 -0.08765901
-0.070624895 0.062748455 -0.054509025 -0.03086021 0.010949144 0.04224696 0.012228432 -0.03092021
0.035665583 -0.08020779 -0.034128457 -0.090007685 0.042036258 -0.008410657 0.03594162 -0.085386865
0.018361643 0.08999362 -0.025617683 -0.09998913 -0.020041065 -0.0055570425 0.061552636 0.00602746
0.036648832 0.03959739 -0.08917038 -0.05019234 -0.023325032 0.002966446 -0.01791407 -0.029612338
0.06074094 -0.053735923 0.011887212 -0.056418393 -0.087878995 -0.049152706 -0.03658747 0.0048671626
0.082215324 -0.025018277 -0.06023421 -0.058665294 -0.036328 -0.016942717 -0.092151895 0.051924028
0.019667564 0.03248868 -0.094795756 -0.02125267 -0.029557219 -0.009100253 0.0064454987 0.009567259
0.0036850434 0.023391804 -0.016634505 -0.10356502 -0.08502443 -0.038574576 0.055424165 0.059373893
-0.02667944 -0.0416423 0.06905416 0.051899757 -0.15549234 0.02218357 0.059421137 -0.053189136
-0.09614178 0.019185621 -0.054916702 -0.044573206 0.018809097 -0.052696053 -0.013100293 0.026030662

convt2.bias f4 [16]
00000000: eb76 663d 7dcc bd3d e91f 9d3c e350 a83d
00000010: 402c 3c3d 92a3 7b3d 867b ac3d 6eac 7cbc
00000020: dd49 c13d bcf9 2f3d 70c6 2fbc 58c7 89bc
00000030: 953b 13bc 1cc5 ea3c fdef f23b 9693 8a3d
0.056265753 0.09267519 0.019180255 0.08218553 0.045940638 0.06143529 0.08421998 -0.01542197
0.094379164 0.042962775 -0.0107284635 -0.016818687 -0.008986373 0.028658442 0.0074138627 0.06766431

convt3.weight f4 [16, 32, 9, 9]
00000000: 7c57 74be aa8f 13bd 3a21 88bd 0b62 3bbe
00000010: 15cd 32bd 5660 013d 755d fbbd 8aaf df3c
00000020: a13f 223b c8b9 19bd d544 e63d d58c 0f3b
00000030: fb37 b43c 6574 9abd 33bc ac3d 918d 143d
00000040: 489d 463d 9e9a 92bd bc4a 58bc 728d 633d
00000050: 29c8 68bd 052c 0fbd 8f0c 0ebc c58c 2b3d
00000060: 6837 8d3c 24bf 8fbd 9fca 55be b42e 34be
00000070: f502 923c c541 e13b bca3 07bd 5036 f63c
00000080: 7885 8c3d 73c5 14be 0e96 fd3c 0512 9c3c
00000090: ea36 d1bc 4e27 183d 5ef1 da3b 87ac a23d
000000a0: d693 72bc c9b9 093d 0a83 993d 43fe 1abd
000000b0: 6fef 92bd 67f6 0abd 3de1 d8bd 02c8 063e
000000c0: 9eba c8bc 4715 6c3d f040 0f3e 45b3 a9bc
000000d0: 6095 edbd 1c45 dc3c e8ba ab3d 5ba7 38bd
000000e0: 4e1c 1d3d ea85 ff3d d208 47bd 3af0 843d
000000f0: 2407 173e db03 943c ad48 7e3d c4bf e5bd
00000100: 34e3 72bc 36a4 3ebd f17c 8ebc 72e0 ce3c
00000110: 05ba fd3b 3bad 09be 9114 ccbc c0ef 22bd
00000120: 2d44 36bd c4f6 09bc 1944 38be c643 debb
00000130: 2f8a 563d 08f1 263c b6a8 d63b 6090 463c
00000140: be05 cebc f7b5 babc ba38 a2bc 071b 2c3d
00000150: b021 863c 9162 5c3c ed6b 173d 5d86 033d
00000160: c41c 05be 1472 843d aed8 17bb e817 d53c
00000170: 0f11 e83b 2842 a5bc 0aed 813d cbd3 ac3c
00000180: 6e7d 4838 8dae 20bd a24e eabc 4b7f 69bb
00000190: d290 10bd 905d 67ba 287b 813c 6d0a 47bd
000001a0: 3123 dcbb 0387 8e3c e6ad aebc b5e6 823c
000001b0: c62d f73c 3e3e 203d 533e a43d d516 5b3c
000001c0: 0356 98bb 08a1 023c 264c 6abc 554d 91bc
000001d0: d251 d33d d96e a83c 2699 353d 37eb c73a
000001e0: e780 643c 61e1 553d d32a 5b3b b2a1 723c
000001f0: 5d91 433d cc2e a6bc e2f5 a53b 80a8 e33c
00000200: fefd 5e3c fda3 e1bb 87b1 033d 71d5 04bd
00000210: c21d 2cbd 9fa5 183b 1b2c b13c 08d8 b3bb
00000220: 8d31 043c 2608 6c3d 7f85 6a3c 3988 013d
00000230: fa1d af3c 30b2 dd3c 12ac 09bd 5fdc 583d
00000240: 6c83 26bc cbd6 7b3c a7f8 e4bb 7782 bb3c
00000250: cb12 213d 988a d33c 4119 61bc b39a 67bc
00000260: cd68 15bd 90b3 993c e84d 253d 5c20 50bc
00000270: bd2f 31bd 0938 083e 2d75 753c 37e6 afbc
00000280: 2afe c33c 6abf a6bc 1dd7 08bd d19e 53bc
00000290: 1494 a0bd 6241 d03c 7377 06bd 4b99 51bd
000002a0: 1f48 df3a e63f be3b 34eb 83bc 9dc1 26bc
000002b0: 1a7b adbc 96d5 81bd 602f 41bd 5fe8 af3b
000002c0: b216 acbd 054f febc f711 c03c 80a8 8dbd
000002d0: edd0 ec3c 1c60 3bbd f8da 82bd 0b67 b8bc
000002e0: 23c9 b63c e1d2 743c c374 2ebc 1a4f 11bd
000002f0: 9272 bfbd 4842 983b 8d19 59bd 2f01 8bbd
00000300: 415a 99bb fa9b 56bd f70a 5abd 9ffb 85bc
00000310: 047d e0bc 145a 90bc e553 51bd 676b 8bbc
00000320: 583c 3dbc 6e1a 9cbc 73dd e339 3494 76bc
00000330: a905 1ebd dfa3 023d 992e 12bd 4204 35bd
00000340: a0fd 1fbb b066 6b3b 1253 6cbc 2da7 aebb
00000350: 0fcf 45bd 7296 153c 443e 11bd fa92 6ebd
00000360: 56d2 243b 1d85 62bd 48c5 39bd 0659 e03b
00000370: 60c8 c7bc 02e3 b6bd 01dd bb3c fdb7 53bd
00000380: 1a24 8dbd ff20 85ba ba0d f33c 0096 1abd
00000390: ff85 24bd 64ba 32bc 2d94 93bc 3548 f4bc
000003a0: d0ad 0c3d 4172 6dbd 1eff 733c c365 bd3c
000003b0: 97dd a7bd 5dce 74bd db4f 9fbb c569 77bd
000003c0: fbae 4dbd 6798 0fbd d699 5fbd c4b7 f3bd
000003d0: 9ba0 21be e0a8 843c e1cf bcbd 5ee1 09be
000003e0: 3412 c9bc ab71 05be 7fb9 04be d644 953c
000003f0: df64 a73b 5d3f 82bd 2006 52bd 089a 5cbc
-0.23861498 -0.03602568 -0.066469625 -0.18299119 -0.043652613 0.031586014 -0.12273685 0.027305383
0.0024757164 -0.03753069 0.112435974 0.002190401 0.02199935 -0.07541732 0.08434334 0.03626782
0.04848984 -0.07158397 -0.013201412 0.055554815 -0.056831513 -0.03495409 -0.008669986 0.041882295
0.017238334 -0.07018879 -0.20878075 -0.17595941 0.017823676 0.0068742954 -0.033115134 0.030055195
0.06861395 -0.14528446 0.03095534 0.019051561 -0.02553888 0.03714686 0.0066816052 0.07943063
-0.014805755 0.033624444 0.07495697 -0.03784014 -0.071745746 -0.033926394 -0.10589836 0.13162234
-0.024503049 0.05763748 0.13989615 -0.020715365 -0.11600757 0.026888423 0.08385259 -0.045081478
0.03835707 0.12476714 -0.048592396 0.06491132 0.14748818 0.018068245 0.062081028 -0.11218217
-0.014824677 -0.046543323 -0.017393561 0.025253508 0.0077431225 -0.13444988 -0.02491215 -0.039779425
-0.04449861 -0.00842065 -0.17994727 -0.0067829816 0.052377876 0.010189302 0.0065508736 0.012119383
-0.025149222 -0.022791846 -0.01980244 0.042017963 0.016373485 0.013451234 0.03696816 0.03211056
-0.12999254 0.06467071 -0.0023169923 0.026012376 0.0070821117 -0.020173147 0.0634404 0.021097085
4.780053e-05 -0.039228965 -0.028601948 -0.003562885 -0.03529436 -0.00088258926 0.015805796 -0.048593927
-0.0067180623 0.017398363 -0.021323156 0.01597915 0.030173194 0.03912186 0.080197 0.013372143
-0.0046489253 0.007972963 -0.014300382 -0.01773707 0.1031834 0.020560669 0.044335507 0.0015252595
0.013946748 0.05221689 0.0033442273 0.014809059 0.04774605 -0.020285986 0.005064712 0.027790308
0.013610361 -0.006886004 0.032151725 -0.032430116 -0.042020567 0.0023292077 0.021627476 -0.0054883994
0.008068454 0.05762496 0.0143140545 0.031624053 0.021376599 0.027062505 -0.033611365 0.052944537
-0.010163169 0.015371035 -0.0069876495 0.022889359 0.039324563 0.025822923 -0.013738931 -0.014136004
-0.0364769 0.01876238 0.0403575 -0.012703028 -0.043258417 0.13302626 0.01498155 -0.02147208
0.023924906 -0.020354945 -0.033408273 -0.012916283 -0.07840744 0.025421802 -0.03282876 -0.051171582
0.0017035044 0.005805957 -0.016103365 -0.010177997 -0.021176863 -0.063395664 -0.04716432 0.005368277
-0.08402766 -0.031043539 0.023446066 -0.069169044 0.028908217 -0.045745954 -0.06389421 -0.022510072
0.022312706 0.014942856 -0.010647955 -0.035475828 -0.093480244 0.004646573 -0.053002883 -0.06787335
-0.0046799486 -0.052394845 -0.053233113 -0.016355334 -0.027403362 -0.017621078 -0.0511054 -0.017018987
-0.011550032 -0.019055571 0.00043461806 -0.015049983 -0.038579617 0.03189456 -0.03568897 -0.044193514
-0.0024412647 0.003591936 -0.014424102 -0.0053299875 -0.04829317 0.009130107 -0.03545977 -0.058245637
0.0025149784 -0.055302728 -0.045354158 0.00684655 -0.024387538 -0.08930017 0.022932531 -0.051689137
-0.068916515 -0.0010156928 0.029669631 -0.037740707 -0.04016685 -0.010908697 -0.018014992 -0.029819587
0.034345448 -0.05797029 0.014892368 0.023119813 -0.08196562 -0.059767116 -0.0048618144 -0.060403604
-0.050215703 -0.03505745 -0.05459007 -0.11900285 -0.15783922 0.016193807 -0.09219337 -0.13464877
-0.024544813 -0.13031642 -0.12961386 0.0182213 0.0051084603 -0.06359742 -0.051275373 -0.013464458

convt3.bias f4 [32]
00000000: 9b77 81b9 54dd c1bc 331f dabc 9b60 a13b
00000010: 6a42 8a3d 941f 443d badb 063b dbca 8c3d
00000020: 600d 773d b248 bd3d b3da 1dbd 1b10 8b3d
00000030: 10ef 9e3d bd16 ad3b 58cd b13d a1f7 703d
00000040: 2a02 44bd fdf9 8cba d0fc 8cba c44d 91bc
00000050: 4bef a43d a3a0 b03d 2afe 8a3d 660f 9d3d
00000060: 81c4 7d3d 0f71 113d 8208 30bc 49a3 8b3b
00000070: c1b1 d7bb fd9a 853d 3180 87bb c074 82bc
-0.0002469391 -0.023665108 -0.026626205 0.0049248463 0.06750949 0.047881678 0.0020577745 0.06874629
0.06031549 0.09242381 -0.038538646 0.06790181 0.07760441 0.0052822516 0.08681744 0.058829907
-0.047853626 -0.0010755655 -0.0010756496 -0.017737277 0.08053454 0.08624389 0.06786759 0.07668953
0.06195498 0.03550821 -0.010744216 0.0042614085 -0.006582469 0.06523702 -0.0041351547 -0.015924811

pos_output.weight f4 [1, 32, 2, 2]
00000000: 642e 38be 104e 2ebe c93c 043e fb00 cc3c
00000010: eb2e e5bd 153f 073e f317 86bd 3edc 643d
00000020: bafc 31be e38b 31be 4db9 02be a786 fabd
00000030: c6c5 4cbe c31a fc3d ec33 53be e837 423e
00000040: e9b8 133c b18a 053d 120f 4ebb 2c1f c63d
00000050: 6b7b 22be 3dab e0bd 1dff 303e ce5d 17be
00000060: f36c 87be 6d8e acbd 7dea 2ebe f7bc 34be
00000070: bb71 023c 9a4a 68bd 228d adbd c32f 593e
00000080: f913 d33e 4088 d53e 22c7 c43e 9274 bb3e
00000090: 8577 6b3d 163e ff3d 6ccb 1d3e 2cc3 db3d
000000a0: e41a a1bc 80ae 503e 7aec 433e e7ac a2bd
000000b0: 891c d43e c8f1 fb3e 34c0 8c3e 4e71 2a3e
000000c0: ef29 8abd f559 e1bb 3a0f 0c3e c448 383d
000000d0: 0dcd 53be c06d 00bc df9f 2dbe 441b 66be
000000e0: b5ff 09bd f46b ecbb 0f43 473e 4c3d f1bd
000000f0: 2284 a33d 086d 14be f735 9a3d 39cb 1dbe
00000100: 42da 44be 0120 8bbe cd9b 54bd 02ed f4bd
00000110: 720f cfbe 5635 99be 8234 88be 2b2a 63be
00000120: 94a2 6dbc a32b de3c ea9f babe 4345 a3be
00000130: 7730 cb3c f959 6fbd a4d3 813d 44d0 ad3d
00000140: 160a 52be 7394 3abd 1b45 db3d c92d be3c
00000150: 1a1b f0bd 20ed f2bd 3cc1 bfbd 058c 2ebe
00000160: 1cfd 06be 3ee7 6a3b 6145 a43d 92ef aabd
00000170: d428 b93d f759 143e 1a79 dfbd ba6c be3d
00000180: 59ba 2bbe 9689 a93c 28dc 90bc c759 43bd
00000190: 34ab 18be da0a 0bbe bc80 28be 44e6 1d3d
000001a0: 3cbe 05bb 11e6 9e3d bd96 47bd 0393 d2bd
000001b0: 5b04 81bd fd1e 89be 4c15 79be 6a2a 9ebe
000001c0: 384c 733e 3b38 a13e af85 393e de50 8f3e
000001d0: 95e7 d73d 62c9 29be 6d09 a13d 1534 3e3d
000001e0: 7aa5 7d3d a6b0 aabd 24f6 7abe 1008 04be
000001f0: a25f a6bd ee08 d83d 3550 8f3d 170e 333e
-0.17986447 -0.17021966 0.12913813 0.024902811 -0.111905895 0.13207658 -0.06547537 0.0558741
-0.17381564 -0.17338519 -0.12765999 -0.12232714 -0.1999732 0.12309792 -0.20625275 0.18966639
0.009016254 0.03260297 -0.0031442088 0.09673914 -0.15867393 -0.10970161 0.17284818 -0.14781877
-0.2645031 -0.08425603 -0.17081638 -0.1765021 0.007961686 -0.05671177 -0.084741846 0.21209626
0.41226175 0.41705513 0.38433176 0.36612374 0.05748703 0.12463014 0.1540963 0.107305855
-0.019666143 0.20379066 0.19133177 -0.07943135 0.4142802 0.49207902 0.2749039 0.16644785
-0.067462794 -0.006877179 0.13677683 0.04499127 -0.2068369 -0.007838666 -0.16955517 -0.22471339
-0.033691127 -0.0072150175 0.19459175 -0.117792696 0.07984187 -0.14494717 0.07529824 -0.15409555
-0.19223884 -0.27172855 -0.051906396 -0.11959268 -0.4044147 -0.29923505 -0.2660256 -0.22184055
-0.014504094 0.027120417 -0.3645013 -0.3188878 0.024803383 -0.058435414 0.06339195 0.08486989
-0.2051166 -0.04555173 0.1070654 0.023215191 -0.11723919 -0.11861634 -0.093630284 -0.170456
-0.13182491 0.0035843397 0.080210455 -0.08346476 0.090409905 0.14487444 -0.1091177 0.09298082
-0.16770305 0.020695489 -0.017683104 -0.04769304 -0.14909059 -0.13578358 -0.16455358 0.038549677
-0.0020407578 0.077587254 -0.04872774 -0.102819465 -0.06299659 -0.26781455 -0.2432453 -0.30891734
0.23759544 0.31488213 0.18117402 0.27991384 0.10542218 -0.16580728 0.07863126 0.046436388
0.06192539 -0.08334474 -0.24507958 -0.128937 -0.08123709 0.10548578 0.0699772 0.17485844

cos_output.weight f4 [1, 32, 2, 2]
00000000: 2dde 6ebd 9b36 5c3b f7dd a0be a71c 72be
00000010: 629c 043e 4310 65bd 4c4c 07be 376f 8fbd
00000020: 0ceb 22be 642b 0d39 2d91 20be 718f 163d
00000030: 7c38 bebe 19f7 e5bd fec8 8abe b223 8ebe
00000040: 5812 2e3e f7f4 413e 5a06 013e 1810 4bbd
00000050: d066 cbbd 305c b4bc 515b 2d3e 9c25 353e
00000060: 533a 1dbe 470c 323e 2073 bdbd a555 f4bd
00000070: 6254 493e f9cf 3ebd acac 2a3e b910 8dbd
00000080: 5d94 01bf dac9 04bf 7219 d5be 9f59 b9be
00000090: ce1a 863e 5a83 8fbc a49c 433e 1c33 c2bd
000000a0: ecfc 37be 47a5 b7bc 0177 14be 31da 323e
000000b0: e67c 24be 7efb aabe 7b0e d2bd f77c 5abd
000000c0: 31dc 353e aeba 5b3d 7cb6 223e 416a 593e
000000d0: 4023 0abe bfc5 aebd a99a cc3d e610 103e
000000e0: b658 1a3e 2edd fe3d 3fc2 f93d 24e0 ff3d
000000f0: a43c 053e c4fd 6c3e 296f d9bd 16a1 dd3d
00000100: 22eb 43be 8c34 50be b386 edbd 277d 3fbe
00000110: 3086 0e3e 8a37 17bc 419c 9d3c 9d29 003d
00000120: cf6c 9abe 225d b8be 5e03 ddbd b536 75be
00000130: 1002 e9bd 2358 393e da15 bbbd d5f6 e2bd
00000140: 6a41 673d ddc7 3e3e 50b0 543e cf24 ee3c
00000150: 4b6d b73e 571e d03e 93fd de3e 3b60 063f
00000160: 0fe2 903d 3b42 ba3d 369e 233e ca66 243e
00000170: 04eb 473b a22c 3f3e 472c f13d 0089 7e3e
00000180: ff7f 7d3c f0fc 143d 5231 b23d de94 613e
00000190: cd23 81bd d3ce 9a3d 850d 133e 9283 e73d
000001a0: 28cd 33be 2c43 6abe 7b4b 58be 4f69 84bc
000001b0: 5565 2fbd 6b4e 1cbd 1643 b93d f6cb 043e
000001c0: 7b3a 32be 0de0 3fbe e74d 76bd a9d5 31be
000001d0: dab7 c0bd 5aa3 91bd 6176 623e ff67 103e
000001e0: 8192 1fbe b0f6 9fbd 7cf5 90bc 0524 22bd
000001f0: 00b3 a13d 9125 28be 3974 7abe e5c1 74be
-0.058317352 0.0033601883 -0.31419346 -0.23643743 0.1295028 -0.05592371 -0.13212699 -0.070036344
-0.15909976 0.00013462972 -0.1568038 0.03675789 -0.3715247 -0.11228771 -0.2710647 -0.27761608
0.16999185 0.18941103 0.12600079 -0.049575895 -0.09931719 -0.022016615 0.16929366 0.17690128
-0.1535428 0.17387496 -0.09250474 -0.11930398 0.19661096 -0.046585057 0.16667432 -0.06887955
-0.5061701 -0.518705 -0.41620976 -0.36201188 0.26192325 -0.017518688 0.19102722 -0.094824046
-0.17967576 -0.022417678 -0.14498521 0.17466046 -0.1606327 -0.33394998 -0.10256668 -0.053341832
0.17759778 0.05364483 0.15889925 0.21231939 -0.1349001 -0.08533811 0.099904366 0.14068946
0.15072903 0.124445304 0.121952526 0.12493923 0.13011414 0.23143679 -0.10616905 0.1082174
-0.19132665 -0.20332545 -0.115979575 -0.18700086 0.13918376 -0.00922955 0.019239547 0.031289686
-0.3016114 -0.36008555 -0.10791658 -0.2394665 -0.113773465 0.18100028 -0.09135027 -0.11082236
0.056458868 0.1863093 0.20770383 0.029070286 0.3582557 0.40648147 0.43552837 0.52490586
0.07074367 0.09094664 0.15978321 0.16054836 0.003050507 0.1866937 0.11776023 0.24856949
0.015472411 0.036374032 0.08700813 0.22029445 -0.063056566 0.0755898 0.14360626 0.11304392
-0.1755873 -0.22877187 -0.21122544 -0.016163496 -0.042821247 -0.038160723 0.09045999 0.1296843
-0.17405121 -0.18737812 -0.060132887 -0.17366661 -0.09410067 -0.07111235 0.2211547 0.14102171
-0.1558323 -0.07810724 -0.017695181 -0.039585132 0.0789547 -0.1642058 -0.24458398 -0.2390209

sin_output.weight f4 [1, 32, 2, 2]
00000000: a398 ee3d e1fb 633d 7ba8 ee3d 08ca ae3d
00000010: 8193 043e 13ce d63d bc6c 1abe 6443 fa3d
00000020: bba3 f3bd 821e e2bd 3017 f2bd e278 773d
00000030: bf38 793d c6ac bc3d c065 a83d 77cf 023e
00000040: c581 fc3d 22a3 0ebe 78ac 023d b056 6cbd
00000050: 6a12 5fbd a1cc 2c3e a42a 363d 8b30 04bd
00000060: 2cd2 c2bd fa19 0f3e 2217 08be 75b3 a33d
00000070: 8ba6 0fbc 6758 00be de51 983d a0ed 543d
00000080: 2025 203d 1b32 223d 250b 353d 8d72 053d
00000090: b4d9 95bd 66da 413e 17ac 1f3e e7a1 bdbd
000000a0: f300 323e bc8d c63b 5e20 023e d384 1c3e
000000b0: d86b 54bd f2cc 01bd a4e5 ff3d b7c0 efbd
000000c0: 0e87 9f3d 086a f4bd cc79 0cbd b86c 663e
000000d0: 8def 2ebe 7314 203e 517d 00be 6e39 06be
000000e0: b65a e9bc 43c7 28be ad00 f5bd 71dd c4bd
000000f0: 2b07 6f3c f7c5 733d 0d22 34bd 7c2a 05be
00000100: 6c9a b23c aef1 803c bd05 c83c 58ea 58bc
00000110: b343 1b3d bb39 9dbb 51bb 85bc 1f40 e83d
00000120: 43d6 843d b00f d43d 0cde d53d e0fb 003e
00000130: ab1e e43b 087c 86bd 8b5f a0bc ccaa 8abd
00000140: 4727 a13c 2c78 503e b6dc a13c 4f7b a0bd
00000150: 5213 d43c 1f2a 09bd 7334 9d3b fec9 33bd
00000160: 2dae 29be 189c 2fbe 2603 f03d 3bf7 0abe
00000170: e9ee 2abd ce0e 1cbe c915 003e bd4f 553c
00000180: e960 723d c22e 0ebc 59ce 603e 244c 1cbe
00000190: a7c7 263e fe30 02bd 57d1 61bb c087 1d3d
000001a0: 06d6 ca3b 12ed 493c d4d5 38bd 0a3c 603d
000001b0: bf9b f13c 1f3c 4e3a 85fa a23a 3231 c13d
000001c0: 4e20 83bd 1b73 393b f93e 8fbd a124 94bd
000001d0: 42e3 db3d 3908 373e 2a69 b13d a737 54bd
000001e0: 0c8e acbd 203c 173e 6709 25be 0516 05be
000001f0: 1040 a0bc 667d a83b 7834 61bc 94cb 2bbc
0.11650207 0.055660132 0.11653229 0.08534628 0.12946893 0.10488524 -0.15080541 0.12219885
-0.118964635 -0.11040975 -0.11820829 0.060418017 0.060845133 0.092126414 0.08222532 0.12774454
0.12329439 -0.13929418 0.03190276 -0.05769986 -0.05446092 0.16874935 0.04447426 -0.032272857
-0.09512743 0.13974753 -0.13290074 0.07993213 -0.008767734 -0.12533723 0.0743749 0.05198443
0.039097905 0.039598566 0.04420008 0.032579947 -0.07316914 0.18930969 0.15592991 -0.09259396
0.17383175 0.0060593765 0.1270766 0.15285043 -0.05186066 -0.03168959 0.12494972 -0.11706679
0.077894315 -0.11934286 -0.034295842 0.2250241 -0.17083569 0.15632801 -0.12547804 -0.13107845
-0.028485637 -0.16482262 -0.119630195 -0.09612549 0.014589111 0.059514966 -0.043977786 -0.13004488
0.02180215 0.015740242 0.024416799 -0.013239466 0.03790636 -0.004798142 -0.016324671 0.11340355
0.0648618 0.10354555 0.10442743 0.12596083 0.0069616637 -0.06566626 -0.019576808 -0.06770858
0.01967205 0.20358342 0.019758563 -0.07836019 0.025888119 -0.033487435 0.004797512 -0.043893807
-0.16570349 -0.17149389 0.117193505 -0.13570873 -0.04173175 -0.15240023 0.1250831 0.013019499
0.059174452 -0.00867814 0.21953715 -0.1526342 0.16287099 -0.031785004 -0.0034457052 0.03845954
0.0061900644 0.012324588 -0.045125797 0.054744758 0.02949321 0.0007867235 0.001243428 0.094332114
-0.06402646 0.0028297368 -0.06994433 -0.07233549 0.10736705 0.1787423 0.086626366 -0.051810887
-0.08425531 0.1476903 -0.16116868 -0.12996681 -0.019561797 0.005141902 -0.01374542 -0.0104855485
