ggcnn_base/output/models/230121_1510_training_example/epoch_10_iou_0.57_statedict.pt (torch, 256417 bytes, 16 tensors)

conv1.weight f4 [32, 1, 9, 9]
000000 22 28 b7 bc 74 d4 8f bc b8 bb 11 bd 59 81 6d bc
       -0.022358004 -0.01755736 -0.035579413 -0.014496171
000010 ef d9 19 bd 81 f3 18 bc 43 ad 1b 3d ab 06 19 3d
       -0.037561353 -0.0093354 0.038007032 0.037359875
000020 99 c3 ce 3c b1 99 d6 bc 05 b6 9f 3a 43 2a b3 bc
       0.025239753 -0.026196333 0.0012184983 -0.021870738
000030 57 3f 30 bd 16 45 e5 bc 38 a9 77 3b 6e 27 7e 3c
       -0.043029156 -0.027987044 0.0037790071 0.01551233
000040 a4 8f 50 bd e2 0d a9 bc 81 ed 0f 3c 0a fc d9 3c
       -0.050918236 -0.020636503 0.008784653 0.02660944
000050 f7 14 3e 3d 03 87 2a 3c d1 52 07 3d 61 9b 79 3c
       0.046406712 0.010408166 0.033037964 0.015234799
000060 11 c8 21 bd 22 98 df bb 04 30 5b bd f9 aa d1 3c
       -0.03949744 -0.0068235556 -0.05351259 0.025594221
000070 e4 1d 0e bd 44 f9 b2 bc c2 7a e8 bb d8 62 0a 3c
       -0.034696475 -0.021847375 -0.007094712 0.008446418
000080 5c 75 22 3d c7 19 ff 3c db 78 35 bd a5 6b 67 bb
       0.039662704 0.031140221 -0.04430471 -0.0035311964
000090 05 aa c1 bc a6 3d 48 bc 5f bb 32 3c 64 89 0d 3c
       -0.023640642 -0.012221729 0.010908931 0.0086387135
0000a0 c9 b8 81 3b 6f 9a f2 3c 57 b7 16 bd 8d 53 2d bd
       0.0039587957 0.029614655 -0.03679594 -0.04231601
0000b0 58 c7 a7 3c 94 f0 a9 39 4a 5a a8 3c 54 f6 bb bb
       0.020480797 0.00032413437 0.020550866 -0.0057361517
0000c0 1c b6 f2 bc 32 b0 8c 3a 90 7a a1 38 8d 06 25 3d
       -0.029627852 0.0010733663 7.699907e-05 0.04028945
0000d0 90 5b f5 3c 7a 15 55 b9 0d b1 1a bd fd d2 25 3c
       0.029950887 -0.00020321264 -0.037766505 0.010121104
0000e0 41 36 25 3d b0 24 d6 bb 46 13 12 bd 34 36 1d 3d
       0.040334944 -0.006535135 -0.03566291 0.03838177
0000f0 a0 57 2e bc 2f 32 57 3c 58 36 28 3d 4f 7b 14 3d
       -0.010641009 0.013134523 0.04106745 0.03625041
000100 0e 03 51 bc 4c d0 bc ba 61 65 19 bd 8b a0 0f 3d
       -0.012757076 -0.0014405339 -0.037450198 0.035065215
000110 2a 7e f5 bb 00 0b a6 bb 98 94 d2 b9 04 f3 bc 3b
       -0.0074918466 -0.0050672293 -0.00040165032 0.0057662744
000120 a7 1f 80 bc 83 9e 9a 3c d1 43 07 3d 39 01 12 3d
       -0.015640093 0.018874412 0.03302366 0.035645697
000130 bb 1a bc 3b 90 d1 58 bd e9 87 91 bc ad e4 96 bc
       0.005740491 -0.05293423 -0.017765002 -0.018419588
000140 43 8e 26 3d a5 a7 db bd a6 66 9b bd 4e 98 c6 bd
       0.040663015 -0.10725335 -0.07587938 -0.096970186
000150 1b 3f ab bd 18 cb d8 bd 19 42 90 bc bf 6d 0a 3b
       -0.08361646 -0.10585612 -0.017609643 0.0021122543
000160 57 79 d6 3c 4c 2d 16 bc 4a 79 11 be 38 94 ef bd
       0.026180906 -0.009166073 -0.14206424 -0.11698192
000170 fe 7a 7a bd 74 63 fd bc 34 16 60 bd ce 51 97 bd
       -0.06115245 -0.030931212 -0.054708675 -0.0738865
000180 a6 e3 a8 3c f1 b9 2d 3d d9 6d 44 3d 57 35 b3 bd
       0.020616364 0.042413656 0.04795632 -0.08750408
000190 4c 8d 7f bd d7 d4 04 be be 03 01 bd 51 32 82 bd
       -0.06239061 -0.12971817 -0.03149771 -0.06357253
0001a0 32 12 98 bc 93 3e b3 bc 51 da cd b9 b6 19 c4 3b
       -0.018563364 -0.021880424 -0.00039263305 0.0059845103
0001b0 fc 8b 80 bd 6c 64 f8 bc a3 e4 2e bd 31 65 b9 bc
       -0.062767 -0.030321322 -0.042698514 -0.02263126
0001c0 fb 0f d8 bc 39 fc 0a 3d c9 ba 57 3c 3b 30 58 3d
       -0.026374808 0.033931945 0.013167092 0.05278037
0001d0 ca db e6 3d e7 d3 2a bd 6a 1b 4c bd 94 f1 99 bd
       0.1127239 -0.041705992 -0.04983083 -0.075167805
0001e0 d8 08 4b bc 1d 75 27 3d c1 0a eb 3c b5 62 02 3d
       -0.012392245 0.040883172 0.028691651 0.031832416
0001f0 39 7f e8 3d 1b fd 10 3e c4 c4 89 bd 5d 61 ce bb
       0.11352391 0.14159052 -0.06726983 -0.0062982277
000200 16 20 89 bd ef 35 2a 3d 47 d6 71 bc 7e b0 a4 3c
       -0.06695573 0.04155534 -0.01476056 0.02010369
000210 6b 56 4e 3d 1e bc 03 3e a2 5f 2a 3e ad ed 00 bd
       0.050375383 0.1286473 0.16638044 -0.031476665
000220 7e 61 bb bb cc a0 a6 bc 96 49 96 bc 4c 51 9b bc
       -0.005718409 -0.020340346 -0.018345635 -0.018959664
000230 1f 95 02 3d 4d 29 b2 3d ef c7 f3 3d 54 6a fb 3d
       0.031880494 0.08699284 0.11903369 0.1227614
000240 32 86 06 3c 82 fe 48 3c 21 63 e3 bb c5 d1 88 3b
       0.008210706 0.012267711 -0.0069393073 0.004175397
000250 3b b2 c5 bc 7c d3 e2 3c 37 d0 a3 3d c1 bb 05 3e
       -0.024132838 0.027688734 0.07998698 0.13059904
000260 53 c7 21 3e f8 92 ef bc 46 99 61 bc a2 df 42 3d
       0.15798692 -0.029244885 -0.013769453 0.047576554
000270 c0 d9 d6 3b c1 c3 8f 3d 11 68 80 3d 64 8f e9 3d
       0.0065567195 0.07019759 0.06269849 0.11404303
000280 df ab 02 3e 50 9c c5 3d b8 b1 0e be 4f c9 20 be
       0.12760876 0.09648955 -0.13934982 -0.15701793
000290 5a e8 3b be f3 b9 b9 bd 16 f5 39 be 1d 04 04 be
       -0.18350354 -0.0906867 -0.18159899 -0.12892194
0002a0 55 ad 0c be 83 cd 26 be 7a ff 23 be 2e a9 e5 bd
       -0.13737996 -0.16289334 -0.16015425 -0.11213909
0002b0 ca 70 08 be d9 c6 f0 bd e7 61 9f bd 9b d3 63 bd
       -0.13324276 -0.11756677 -0.07782345 -0.055621725
0002c0 58 44 ce bd bb e3 ea bd 9c f9 d8 bd 6f e4 cf bd
       -0.10071629 -0.114692174 -0.10594484 -0.10150992
0002d0 56 9a a8 bd 95 6f 08 bd e9 ca da bd 92 92 a6 bd
       -0.08232562 -0.033309538 -0.10683233 -0.08133425
0002e0 d0 12 32 bd a3 43 12 bd 06 eb ab bd 54 22 22 bd
       -0.043474972 -0.035709035 -0.083944365 -0.03958352
0002f0 16 d8 08 bd 90 88 0b bd 9a 33 9a bd 7d 55 ad bd
       -0.0334092 -0.034065783 -0.075293735 -0.08463571
000300 79 36 bd 3c a0 49 7a bb 70 34 12 bd 77 51 09 bd
       0.023097264 -0.0038190857 -0.03569454 -0.033524957
000310 27 af f9 bc 05 77 b7 bc f3 31 5b 3d 6e 9b 65 bc
       -0.030479027 -0.02239562 0.053514432 -0.014014108
000320 4b 1b 8f bc 8e 51 01 bd 0d c6 1b 3c 82 02 03 3d
       -0.017469069 -0.031571917 0.009507668 0.031984814
000330 8d f1 33 bc db dc 74 bc 60 de c3 bc 03 9b 2f 3d
       -0.010982883 -0.014945234 -0.023909748 0.04287244
000340 c4 b2 c0 3b 8c a8 0c bd 44 0a a0 3d 40 8f 59 3d
       0.0058806855 -0.034340426 0.07814458 0.05311513
000350 50 43 82 3d e3 8e c5 bc 17 08 31 bb 81 23 65 3c
       0.06360495 -0.024115985 -0.0027012879 0.013985516
000360 6e 60 ca 3d 15 8d b7 3c 80 08 5a 3c 3a dd ed 3d
       0.09881674 0.02240614 0.013307691 0.11614461
000370 39 f4 b2 3d a0 f0 1f 3d f2 6f 3c 3d e4 c4 d5 3d
       0.08737988 0.039047837 0.046005197 0.104379445
000380 24 af b0 3c cb 22 f4 3d d2 26 19 3e ce 84 08 3e
       0.021567889 0.11920699 0.14956215 0.13331911
000390 5f 13 26 3e 10 66 c8 3d f5 84 b3 3d f6 68 bf 3d
       0.16218327 0.09785092 0.08765594 0.093461916
0003a0 e1 26 01 3e 22 35 09 3e d9 79 4c 3e de 33 37 3e
       0.12612487 0.13399175 0.19968356 0.1789088
0003b0 eb 54 19 3e 9a 0c 1d 3e ec a4 41 3e 70 a4 24 3e
       0.149738 0.15336838 0.18910569 0.16078353
0003c0 8a 7d 2c 3e c6 33 fe 3d bb 3d 29 3e 6a 2e cf bd
       0.16844764 0.12412219 0.16527455 -0.10116275
0003d0 8f 98 ff bd d5 ef b6 bd d5 f6 61 be b7 42 75 be
       -0.1248027 -0.08932463 -0.22066815 -0.23951231
0003e0 2e 56 5b be 7e 60 69 be 89 b6 81 be b0 5d 3f be
       -0.21419594 -0.22790715 -0.25334576 -0.18688083
0003f0 97 62 d8 bd f2 2c a3 bd c2 a7 78 bd a2 11 0b be
       -0.105656795 -0.07967557 -0.06070686 -0.13580945

conv1.bias f4 [32]
000000 fc 41 cc bd a9 7f 1a bc df ee 4e 3d 98 3e 90 3c
       -0.09973523 -0.009429851 0.050520774 0.017607972
000010 62 44 8f be 59 09 84 be b3 45 e3 3d c6 d9 89 3d
       -0.2798186 -0.25788382 0.110972784 0.0673099
000020 62 7e 37 3e 85 d9 14 bd 74 7e e4 3d e9 30 05 3c
       0.17919305 -0.036340255 0.111569315 0.008129337
000030 f5 9e 13 bc 94 72 80 be 9f 14 12 be a7 0a c0 3d
       -0.009010066 -0.25087416 -0.14265679 0.09377032
000040 ba 6f e0 bd f1 b4 12 be 8d 61 ad 3d 39 32 9a bd
       -0.1095881 -0.14326836 0.08465872 -0.075291105
000050 50 2b 99 bd a7 00 c9 bd 40 3c 52 be 6f 52 c5 3c
       -0.07478964 -0.098145775 -0.20530796 0.024087159
000060 2a 36 4f 3e f2 41 61 3d 0f 2c d6 3d 39 75 5e 3c
       0.20235506 0.05499453 0.10457622 0.013577753
000070 83 9c e7 3c 75 31 a7 bd 6d 64 64 3d 61 76 0a 3a
       0.028272873 -0.0816373 0.055759836 0.0005281922

conv2.weight f4 [16, 32, 5, 5]
000000 28 01 3b bd 93 8a 25 3d 3c 79 45 3b a6 4c 27 3c
       -0.0456554 0.040415358 0.0030132076 0.0102111455
000010 b7 d3 c7 3b ba 87 dd bb 3b 84 81 3d 6d 65 2e 3d
       0.0060982364 -0.0067605646 0.06324049 0.042577196
000020 75 04 80 bc 02 ec 81 bd 38 11 32 bc 47 21 8c 3c
       -0.015627125 -0.06343843 -0.010868363 0.017105712
000030 2e 8e 1d bd 17 97 4d bc e4 6e 46 3d fe 03 0a 3d
       -0.03846567 -0.01254823 0.048445597 0.033695213
000040 07 a5 e3 bc a7 30 57 bb 19 ea d7 3c a8 db 36 bd
       -0.027788652 -0.0032835396 0.026356744 -0.044643074
000050 2b b7 da bc 4f 61 1e 3d 7a 47 7b 3d 7b cd 49 bd
       -0.02669867 0.03866702 0.061347462 -0.049268227
000060 4d 9f c3 3c 50 e1 2f 3d 8e 1f 76 bd ea cf c0 bd
       0.023879671 0.042939484 -0.060088687 -0.094146565
000070 e1 22 09 3e f6 5c e0 bd fc 92 6a 3c d5 91 eb 3c
       0.13392211 -0.10955231 0.01431727 0.028756062
000080 1d 88 25 bd 53 ab dc 3d 26 b5 74 bd 8f 0d b4 3c
       -0.04041301 0.10774865 -0.05974307 0.021979121
000090 58 d4 0e 3d 0f 4d 31 bb 2a 50 34 3d ea 9f bd bd
       0.034870476 -0.0027053987 0.044021763 -0.09259017
0000a0 22 24 52 bd a4 1d 10 bd 3e 8c 16 bd 1a f0 9b 3c
       -0.05130399 -0.035184518 -0.03675484 0.019035388
0000b0 67 91 e4 bd b3 c8 1c bd 3a 6a 3e 3d 63 ad db bd
       -0.11160546 -0.03827734 0.046488024 -0.1072643
0000c0 6f 17 a0 3d 2b 2a d5 bd ed 5c f3 3d 04 7b b8 3d
       0.078169696 -0.104084335 0.118829586 0.09007838
0000d0 cd 23 eb 3d dd a4 1c 3d 7b f7 cf bd d6 a8 11 3e
       0.11481438 0.038243163 -0.10154625 0.14224562
0000e0 44 7a 7a 3d 89 de b5 3d 0a e7 10 3d e5 92 b7 bd
       0.061151758 0.08880336 0.035376586 -0.08963565
0000f0 7a 90 b3 bb 11 4b 1d 3d e3 7c 1f bd c2 85 29 bd
       -0.0054798694 0.038401667 -0.03893746 -0.041387327
000100 19 9b 2c be a5 b2 54 3e 96 df 0e 3e dd 72 ec 3d
       -0.1685604 0.20771272 0.13952479 0.11545346
000110 ca 72 be 3d 84 b9 16 3d c4 90 51 3d 10 1f 69 bd
       0.09299238 0.036798015 0.05116345 -0.05691439
000120 26 98 35 be 85 9f 4e be 6d 3d 8d be 7f 73 dd 3d
       -0.17733821 -0.2017804 -0.27585927 0.10813045
000130 c2 c5 67 3e c4 80 5b 3e 65 4a 6d 3e 01 5e 30 3e
       0.22634032 0.21435839 0.2317291 0.1722336
000140 4e 07 81 3d 18 79 4f 3e cb a0 58 3e 01 55 e6 3d
       0.063002214 0.20261037 0.21155088 0.11246682
000150 69 73 65 3d 3f 44 0a 3d 73 5e 11 3e 0b 22 e3 3d
       0.056018267 0.03375649 0.14196186 0.110904776
000160 30 8d ab 3d 4b 35 f0 3c 0c c7 f5 3d af ea 50 3e
       0.08376539 0.029322287 0.12000856 0.20402025
000170 28 d9 36 3e 2b 00 65 3e 45 be c2 3d a7 1c e5 bd
       0.17856276 0.22363345 0.09508947 -0.111871056
000180 f5 0a ff bc be 54 8a bc 84 83 ac bd d3 6f f7 3c
       -0.031133154 -0.016886111 -0.08423522 0.03020469
000190 26 f0 8c 3e ab ca cf 3d 50 e3 18 3e 98 cb e9 3d
       0.2752697 0.10146078 0.14930463 0.114157856
0001a0 53 92 be 3d d4 a4 d6 3d 63 39 8e bb 87 8a c0 bd
       0.09305253 0.10480657 -0.004340337 -0.09401422
0001b0 7f 01 66 bd 58 c1 77 bc 38 0b 43 3c 18 1e 87 bc
       -0.05615377 -0.01512178 0.01190453 -0.016493842
0001c0 64 a8 01 be 8b c2 ae bd fa 82 15 be 5b 96 da 3c
       -0.12661892 -0.085332 -0.14600745 0.026683023
0001d0 56 14 98 bd 8b ba d7 bd 2b 2a f8 bd 19 c6 0d be
       -0.07425754 -0.10533627 -0.12117418 -0.138451
0001e0 3e ac 24 bc e0 c5 dc bc 0d ab e1 bd c4 db 6e be
       -0.010050831 -0.026949823 -0.110189535 -0.23326021
0001f0 60 0b 83 be 30 0f d2 3c 56 2e 24 3c 2c a8 81 bd
       -0.25594616 0.025642008 0.010020813 -0.06330904
000200 65 32 a2 bd ab a1 d6 3c 00 51 24 bb 62 5c 65 bd
       -0.07919768 0.026200136 -0.0025072694 -0.055996306
000210 fe 00 8f 3c af 6a 23 bd 17 f0 95 3c 6e 8a 44 3d
       0.017456528 -0.039896663 0.01830296 0.04798358
000220 da 15 14 3d c7 77 a8 bd a8 04 de bd 90 bc 81 bd
       0.03615365 -0.08225971 -0.10840732 -0.063347936
000230 ef 3c 8e bb 1a 72 a6 3b 0e c3 e2 bd 84 61 15 be
       -0.00434076 0.00507952 -0.1107236 -0.1458798
000240 71 34 a3 bd 68 d8 56 3d c1 5e b2 bd d8 d1 ee bd
       -0.07968987 0.052452475 -0.08709479 -0.11661118
000250 d1 47 07 be 81 b1 15 be 83 79 14 3e bd ce c9 3c
       -0.1321099 -0.14618494 0.14499478 0.024634713
000260 41 48 d3 bc 0c 05 91 3d 70 bd 32 be 81 20 aa 3d
       -0.02579129 0.07081041 -0.17455077 0.08306981
000270 ed 5f 32 3d 1f c7 84 3d b9 3e 79 3d 0b 11 53 be
       0.043548513 0.06483292 0.060850833 -0.2061197
000280 e5 82 87 3d fe cf f5 bc 6e 16 39 bd c2 63 40 3d
       0.06616763 -0.030006405 -0.045187406 0.046970136
000290 07 d9 45 be 34 87 f1 3c cb c7 31 3c 05 ea 8d 3c
       -0.1932107 0.029483415 0.010850857 0.017323503
0002a0 bc 14 5e 3c d6 cc 34 be e5 2b f3 bb b5 78 65 bd
       0.013554748 -0.17656264 -0.007421004 -0.05602332
0002b0 1c 92 9c bd 85 d5 11 bd 25 04 5d be 79 10 f7 3d
       -0.07645056 -0.03560402 -0.21583612 0.12063689
0002c0 b9 b2 fd 3c ef d2 ad 3d 16 88 a9 bd 4c 7e 03 bd
       0.03096901 0.08487498 -0.082779095 -0.032102868
0002d0 c2 97 1f bc fe 83 2a 3d d6 bc 0c bd b6 b9 0c bc
       -0.009740772 0.041629784 -0.034359775 -0.008589199
0002e0 61 c7 07 bc ff 13 19 3d 1a 04 53 3d 1b 15 7f bc
       -0.008287282 0.037372585 0.051517583 -0.015568997
0002f0 d4 1b 71 bc 80 e0 90 bd 86 be 0a bd a8 00 ad bc
       -0.014716107 -0.0707407 -0.033873104 -0.021118477
000300 72 bf 37 bd 7f 82 46 bd 47 a1 1d be 11 7b bb bb
       -0.04486031 -0.048464295 -0.15393554 -0.005721458
000310 18 62 b1 3c df 40 a9 3d fd 0a e3 bd 41 7f 77 bd
       0.02165322 0.08264326 -0.1108608 -0.060424093
000320 03 b9 6a 3d 2d 30 9b bc 3c 77 41 bd 35 1c da bd
       0.057305347 -0.01894387 -0.04723285 -0.10649911
000330 e7 80 b1 bd c7 5e c6 3d dd 5c a3 3d f5 c5 1b 3c
       -0.08667164 0.09686046 0.07976697 0.009507646
000340 44 69 5e bd 48 e8 98 bd 0b 37 21 3d 52 6f 03 3e
       -0.054299608 -0.07466179 0.039359134 0.12835434
000350 09 81 a5 3c 14 91 c4 bc 06 7f 63 bd 7d e9 e2 3d
       0.02020313 -0.02399496 -0.05554106 0.110796906
000360 a2 83 f0 3d 5b e5 dc 3c c8 b0 30 3d 88 da d2 bb
       0.11743857 0.026964834 0.04313734 -0.0064347424
000370 4e d4 20 3d 98 64 88 3c 73 ec 90 3b 0d a3 1f be
       0.03926497 0.01664953 0.004422718 -0.15589543
000380 80 ce 1e be 6c 4c d5 be 22 37 18 3d f9 dd a6 bd
       -0.15508461 -0.41659868 0.037161954 -0.08147807
000390 69 e8 3d 3e 91 3e 56 3c 23 55 a5 be 89 8f 13 3d
       0.18545689 0.01307644 -0.32291517 0.036025558
0003a0 ae a5 26 be b3 88 8b 3d a8 a7 8d bd da f2 8d be
       -0.1627414 0.06813183 -0.069167435 -0.27724344
0003b0 9f fe d0 bc eb a7 da bd 14 7d 50 3e 73 89 16 bd
       -0.025512038 -0.10676559 0.20360214 -0.036752176
0003c0 4f e5 49 be 5a e9 a4 bc 12 16 39 be 17 bc 10 3e
       -0.1971638 -0.020130802 -0.18074825 0.1413425
0003d0 39 5d 0b 3e 0e c5 ac bd aa a2 a4 bd 52 8e 25 be
       0.1360978 -0.08436023 -0.08038838 -0.16167572
0003e0 94 f0 12 3e 98 84 be 3d 45 d9 e6 3d 89 a0 27 3c
       0.14349586 0.09302634 0.112719096 0.010231146
0003f0 db c6 a6 bd bd b4 2d be 0a 40 32 bd 09 a4 0e 3d
       -0.081433974 -0.16963477 -0.043518104 0.034824405

conv2.bias f4 [16]
000000 7f ce a8 3d 53 5c 8a bd 4e 2a 46 bd 51 50 14 bd
       0.08242511 -0.06755891 -0.04838019 -0.03620941
000010 07 79 72 3d 76 9a 20 bd 58 f0 5f bc 1c 69 22 bc
       0.059197452 -0.039209805 -0.013668142 -0.009912755
000020 88 80 36 bc cd c8 ce 3c 8d f1 08 3e 8c bb c3 3d
       -0.011139043 0.025242234 0.13373394 0.09557256
000030 7c 8d a2 bc d0 4c 3f 3d 2d 62 72 bd ce e8 0f bd
       -0.019842856 0.046704113 -0.05917566 -0.03513413

conv3.weight f4 [8, 16, 3, 3]
000000 5a 58 98 3c 02 75 01 bd 22 b4 61 be 70 10 04 be
       0.018596817 -0.031605728 -0.22041371 -0.12896895
000010 07 80 60 3d ef 3d 83 3c 54 12 3b 3e c2 04 c1 3d
       0.054809596 0.016020743 0.1826871 0.094247356
000020 36 b2 17 3e 64 71 b1 3d 5f c1 6f 3b 48 da ed 3b
       0.14814076 0.08664206 0.0036583764 0.007258687
000030 12 f3 1a bd 24 e3 77 3d f7 ab 26 be b6 66 21 3c
       -0.037829466 0.060519353 -0.16276537 0.009851148
000040 95 d9 03 be 43 11 09 be b3 a3 c7 bd 38 02 1f be
       -0.1287597 -0.13385491 -0.0974802 -0.1552819
000050 ab d3 16 3e de 0e df 3d 03 ea bb bd 50 c3 e0 bd
       0.14729182 0.108915076 -0.091754936 -0.10974753
000060 f6 55 a8 3d d6 a6 8e 3b 71 be e1 bd 8a 4d 82 3d
       0.08219521 0.0043533845 -0.11022652 0.06362446
000070 af 1f ff bd 45 56 f3 bd 78 b3 78 3d 45 f9 c6 bc
       -0.12457215 -0.11881689 0.06071803 -0.024288783
000080 7a 6b ff bd 3d 82 b0 3d a5 74 bd bc 4d ad a6 bb
       -0.124716714 0.08618591 -0.02312691 -0.005086577
000090 ba 79 b8 3d 09 c4 37 bc a5 86 6d 3e 42 b7 21 3c
       0.090075925 -0.011216172 0.23195894 0.009870352
0000a0 9c aa 82 3d 29 9d 25 be 57 d6 53 be dd d0 0e be
       0.063801974 -0.16173233 -0.20687233 -0.13946863
0000b0 a4 8b ca bc 3c f3 1c bb 32 28 6c 3d 85 aa ee bd
       -0.024724789 -0.002394869 0.05765552 -0.11653618
0000c0 7c 66 1b 3e 05 b9 2d 3d 13 cc 60 3c 2b f7 09 3d
       0.15175813 0.042412776 0.01372053 0.033682983
0000d0 b8 33 fc bc 78 f3 c8 bd 98 74 b8 3c 9c a2 00 bd
       -0.03078638 -0.09812063 0.022516534 -0.031405076
0000e0 54 c3 46 be 82 80 ca 3c e7 01 75 bd b3 e4 18 3e
       -0.1941045 0.02471948 -0.059816267 0.14930992
0000f0 b1 0c d8 bd 68 4e 9d 3d 43 7a 12 be 19 ff 3c bd
       -0.10549296 0.076809704 -0.14304452 -0.046141718
000100 34 a4 0f be 8e eb be 3c 44 dc 82 3d 7d bf 6c 3d
       -0.14027482 0.02330568 0.063896686 0.057799805
000110 a9 bf 98 3d 99 0e cf bc 62 59 e8 3a 66 d6 15 be
       0.07458431 -0.025275515 0.0017726833 -0.14632568
000120 9c 12 8c 3c 0b fa aa 3d 7f 84 7f bd 25 79 00 3c
       0.017098717 0.08348473 -0.062382217 0.007841383
000130 4c f0 ff bb 73 7c c1 3d 67 22 f8 3d 3b 1a 14 bd
       -0.007810628 0.09447565 0.12115937 -0.036157828
000140 fd d3 3d 3c 89 1e 01 3e c4 15 0c 3e 03 6b 21 3e
       0.0115861865 0.12609304 0.13680178 0.15763478
000150 2f 07 e4 bd 26 16 e7 bd 78 40 eb bd 83 fb e2 3d
       -0.11134183 -0.11283521 -0.11486906 0.11083128
000160 78 70 d1 3d 03 2a 25 bd e7 0f 4e bd 9d bd d8 3d
       0.1022653 -0.04032327 -0.050308134 0.10583041
000170 7d c8 95 3e 3b 4b 52 3d ef 5e fc 3d 68 f9 1f 3e
       0.29254523 0.051341277 0.12322795 0.15622485
000180 ba d0 62 be e6 83 75 be c2 d1 73 be 2a 1d 11 3d
       -0.22149935 -0.23976097 -0.23810485 0.035428204
000190 1a 40 6b 3e a9 23 02 3e 61 7b 76 3b 35 aa 0c be
       0.22973672 0.12708916 0.003761016 -0.13736804
0001a0 8f 7f 35 3c 90 75 20 3c 08 0f 4c be 12 d2 c4 bd
       0.011077776 0.009793654 -0.19927609 -0.0961038
0001b0 19 f6 ff 3d 55 27 03 3e 35 49 47 3e 87 ed 9d bc
       0.12498111 0.12807973 0.1946152 -0.0192783
0001c0 ce 79 0a be b7 f5 0b be 47 50 22 be b7 3d 25 be
       -0.13523027 -0.13667952 -0.15850936 -0.16136824
0001d0 2d 96 28 bc a8 d3 19 3e dc fc da bd 6a da 33 bd
       -0.010289711 0.15022147 -0.1069276 -0.043909468
0001e0 7f b9 7c 3d 14 9d 58 3d d3 46 3a 3d e0 05 d5 3c
       0.06170034 0.052884176 0.0454777 0.026003778
0001f0 01 46 b7 bd f9 f7 d2 bd 2f 12 28 be 24 c2 b8 3c
       -0.08948899 -0.10301203 -0.16413186 0.022553511
000200 9d 7f 09 3e 4c 3b b3 3d e6 0c f5 bd 2a ab 71 3d
       0.13427587 0.08751544 -0.11965351 0.059001125
000210 e5 43 03 bd ae ae 15 be 6d ff 15 be 0a 0e 23 be
       -0.03204717 -0.14617416 -0.14648218 -0.15923324
000220 f5 19 c1 3d cb 5f e4 bd f1 a6 41 3d 35 94 f0 3d
       0.09428779 -0.111510836 0.04727835 0.11747018
000230 d5 e0 c2 3d 38 7c 15 3e 02 79 d3 3d 08 68 03 be
       0.095155396 0.14598167 0.10325815 -0.12832654
000240 16 fc 1b 3d c6 48 0a 3d b2 e7 68 be 30 f8 36 3e
       0.038082205 0.03376081 -0.22744635 0.17868114
000250 ef ee 54 3d e5 88 14 be da 34 e6 3d 01 c3 d5 bc
       0.051985677 -0.14505346 0.112405494 -0.026093962
000260 61 76 81 bd 2d eb d5 bd a4 70 47 bd 15 a1 d1 bd
       -0.06321407 -0.10445247 -0.048691407 -0.10235802
000270 a3 be e2 bd 5b 2c 8e bd 54 e9 c2 bc 24 73 a9 3d
       -0.11071517 -0.06942054 -0.0237929 0.082739145
000280 d7 9b e3 bd d1 61 d1 bd 9b 56 7e 3d 23 28 11 be
       -0.111137085 -0.10223735 0.062094312 -0.14175467
000290 6b bd 17 3c 92 25 1d be f0 c3 33 bd 6b 6d aa 3d
       0.009261469 -0.15346363 -0.043888032 0.08321651
0002a0 ab 69 72 3d b6 8b 8b 3c 02 2a 96 bd 7a 7a e3 3d
       0.059182804 0.017034393 -0.07332231 0.11107345
0002b0 99 15 0a be 24 5d 32 bc 54 36 9c 3d bb da c5 bd
       -0.13484801 -0.010886464 0.0762755 -0.0966086
0002c0 db 68 42 be d8 b0 6a 3d 5d a4 b6 bd e3 0c 6f 3d
       -0.18985312 0.057297558 -0.089180686 0.0583619
0002d0 01 0d 8a 3e 1b 3b 58 3e 0e 09 00 3d c3 be 59 bd
       0.26963046 0.21116297 0.031258635 -0.05316044
0002e0 9c ff 81 bc a3 b6 13 bd e6 f2 59 be 0e a1 89 bd
       -0.015868954 -0.036062848 -0.21284065 -0.06720172
0002f0 96 9d 5c be 8c 60 21 be cd fd 92 bc 78 05 8f 3d
       -0.2154449 -0.15759486 -0.017943287 0.06983465
000300 d2 18 05 bd 6a d3 23 3e 66 9f 03 be 32 b4 63 3d
       -0.032494374 0.15998617 -0.12853774 0.05559177
000310 e3 89 89 bd 01 be 05 3e a1 c0 7c bd ba 4a f0 bd
       -0.06715753 0.13060762 -0.061707143 -0.11733003
000320 2a 31 3f be 0d 03 03 be a3 4b 5a 3e f8 f3 e4 ba
       -0.18671098 -0.12794133 0.21317916 -0.0017467728
000330 31 54 d8 bd fd 67 4a 3e f6 bb f3 3d ff 7b 29 3e
       -0.10562933 0.19766231 0.11901085 0.16551207
000340 85 8c e5 bd f9 08 0e 3e 25 c5 a7 3c 64 3f c4 3d
       -0.112084426 0.1387061 0.020479748 0.09582403
000350 6f 4c e6 3c 94 37 2e be d3 da 7f 3d 2f 6b 2f 3d
       0.028112618 -0.17013389 0.062464546 0.042826828
000360 26 e3 bb 3d 0d be f0 bd dd 6d 0f 3d 9c 80 75 3d
       0.091741845 -0.11754999 0.035016883 0.059937105
000370 52 8a 33 3d 5f 21 4a 3d dc c4 13 3e f0 15 3d 3d
       0.043833084 0.04934823 0.14430565 0.0461635
000380 a4 32 15 be 8d f9 11 3e 10 2a 22 bd 1c 06 15 be
       -0.14570099 0.14255352 -0.039590895 -0.14553112
000390 3f 83 f5 3d e2 59 00 3e 14 60 be bc 8c ea 4b 3d
       0.11987924 0.12534288 -0.023239173 0.04978423
0003a0 d6 4a e9 bc df df 4f 3d 70 93 46 3e c2 d0 5d 3e
       -0.028478067 0.05075061 0.1939218 0.21661666
0003b0 23 47 e5 3d b9 2a a2 bd c6 0c 0b 3d 34 26 df bc
       0.11195209 -0.07918305 0.03394773 -0.027239896
0003c0 cc ac 5c be ea f6 3c be 85 06 84 bd a5 9f b3 3d
       -0.21550292 -0.18453565 -0.06446556 0.08770684
0003d0 e5 77 54 bd cb 62 1b 3d 40 60 34 3e c5 c0 d1 bd
       -0.051872153 0.037936013 0.17614841 -0.10241846
0003e0 36 ab d1 bd 65 c3 21 3e 7a 03 69 3d 65 99 90 be
       -0.10237734 0.15797193 0.05688808 -0.2824203
0003f0 f8 3a 0c 3e 9b 1e b0 3d 49 c0 02 3d 13 88 02 bd
       0.1369437 0.085995875 0.03192166 -0.03186805

conv3.bias f4 [8]
000000 ae 65 78 3d bc f5 c4 3c 91 f5 54 3d 88 d6 7c 3d
       0.060643844 0.024042957 0.051992003 0.06172803
000010 ba 7d f7 bd cd 11 56 bd c8 ac ec 3d 33 ec 78 bd
       -0.12084527 -0.05226307 0.11556393 -0.060772132

convt1.weight f4 [8, 8, 3, 3]
000000 fd ee f2 3d 8c 12 9d 3e 22 7b 34 be 7e f7 ef bd
       0.1186199 0.30678213 -0.17625096 -0.11717127
000010 cb 80 bc bc 3e 56 3b 3e dc bf c3 3d 54 fd 59 3d
       -0.023010632 0.18294618 0.09558079 0.05322011
000020 fa bd b4 3c f9 01 af 3e fc 8d a5 3e 9a 69 34 3e
       0.022063244 0.34181193 0.32334888 0.17618409
000030 3e a9 ae bd 9f ea 2d be 28 90 1d be c6 c6 e3 3d
       -0.08528374 -0.16984032 -0.15387022 0.111218974
000040 7b 2e 86 be 72 29 41 3e 4d 23 42 be 8c e7 e9 bd
       -0.26207337 0.18863466 -0.18958779 -0.11421117
000050 32 e2 f4 bd d9 d0 92 3e 57 3c a9 bd 6e 33 ac be
       -0.11957206 0.28674963 -0.08263462 -0.33632988
000060 9f a7 0a bd 86 54 9d 3d 3c bf b5 3e fa 15 84 3d
       -0.033851262 0.07682137 0.35497463 0.06449504
000070 53 18 fc 3d 27 85 0f 3e 3d b5 4c 3e dd cb c7 3e
       0.12309327 0.14015637 0.19991012 0.39022723
000080 b3 81 e5 3e 31 d7 3e be 9f b7 75 bc 9c 00 7c bd
       0.44825515 -0.18636777 -0.014997392 -0.06152402
000090 69 b5 d7 bc b9 c6 28 3e 87 c0 5d bc 5e da 3f be
       -0.02633162 0.16482057 -0.013534672 -0.18735644
0000a0 fa dc 11 bf 7c 98 04 3d b7 e0 3f 3d 4d fa 11 be
       -0.5697781 0.032371983 0.046845164 -0.14255638
0000b0 cf b9 e4 3a 32 9c 2a 3e 2f 86 2f 3e 97 81 f8 3d
       0.0017450395 0.16661146 0.1714103 0.12134092
0000c0 32 28 ef bc 38 8c 25 3e dc 1c c5 bd 0e 7d 93 3e
       -0.029193971 0.1616677 -0.09624645 0.28806347
0000d0 89 e8 5f 3e 14 a1 21 3d fd aa 10 bf fc de dd be
       0.21866049 0.039460257 -0.5651091 -0.43334186
0000e0 ad dc 41 bd d2 c8 39 bc 73 78 28 3e 60 3d b1 bd
       -0.047329593 -0.011339383 0.16452198 -0.086542845
0000f0 8a 05 23 be 82 84 30 bd 8c 21 1e 3e c5 f9 09 be
       -0.15920082 -0.04309512 0.15442485 -0.13474186
000100 fd a1 ae 3d c8 27 6d be 1f 9d ac 3e cd 14 a9 bc
       0.085269906 -0.23159707 0.33713624 -0.020639801
000110 7c a0 95 3e bd fa 91 be c6 06 ab 3e 9c f0 3a be
       0.29224002 -0.2851161 0.33403605 -0.18255848
000120 77 22 dd 3e 9f 8f 30 3d c5 32 55 3e 10 ff 74 3d
       0.43190357 0.043105718 0.20820148 0.05981356
000130 72 80 31 be a5 76 b7 39 d9 0f c7 3d 42 b3 0d 3e
       -0.17334154 0.00034992877 0.097198196 0.13837913
000140 e2 2b be bd 9c 09 bb be dd 1e 3b be d9 92 94 be
       -0.09285714 -0.3653077 -0.18273492 -0.29018286
000150 ce 31 79 be 46 46 8c be 29 c9 c3 be 36 4f 43 bf
       -0.24335405 -0.27397364 -0.3823941 -0.7629274
000160 41 b3 4b 3b da 59 23 bf 19 e3 49 3e d3 6f a5 3e
       0.0031082185 -0.6380898 0.19715537 0.32311878
000170 7d af 8a bd b8 81 94 3e d0 77 68 3d ad 56 95 be
       -0.06771753 0.29005218 0.056754887 -0.2916769
000180 05 4b 1f bc 93 05 b8 3b db fb 81 be 1c 99 39 bd
       -0.009722476 0.005615899 -0.25387463 -0.045312032
000190 b9 5e 11 3e e1 01 1c be 7b 9b 98 be 0e 90 aa be
       0.1419629 -0.15235092 -0.29806122 -0.3331303
0001a0 bc 35 fa be e1 c3 8a bd 09 20 04 3d cb e2 7a bf
       -0.4886912 -0.06775642 0.032257114 -0.9800231
0001b0 8d 86 74 3e 9b 68 10 3f 37 99 60 3e ae 17 d4 3e
       0.23879452 0.56409615 0.21933447 0.41424316
0001c0 56 55 aa be bb bb e1 3d be 25 1e be 60 15 40 3d
       -0.3326823 0.11022135 -0.15444085 0.046895385
0001d0 61 18 06 3d 72 79 41 bd 09 13 72 bd 09 8f e3 3e
       0.032738093 -0.04723496 -0.059100185 0.44445065
0001e0 9d 14 c6 bd 70 0e 08 bd 33 04 9f 3e 99 db bb 3d
       -0.096719004 -0.033216894 0.3105789 0.09172744
0001f0 9d c8 3a bd c6 c1 71 3e ec 34 6b bf 04 cc 92 3d
       -0.045601476 0.23609075 -0.9187763 0.07167819
000200 b6 42 a7 be 07 38 02 3e bf 68 46 bf ab 30 43 be
       -0.32668084 0.12716685 -0.7750358 -0.19061534
000210 5e 9b ff be d4 14 a1 3d fb bf 76 3c db 00 93 be
       -0.49923223 0.07865301 0.01506042 -0.2871159
000220 f3 24 00 be 53 7e f8 bd 43 fe a2 3a 04 2e 5c 3c
       -0.12514095 -0.121334694 0.0012435395 0.013438705
000230 88 e0 9a 3e 8e 00 8a be 38 3f 05 3f 8b 11 63 be
       0.3024943 -0.26953548 0.5204959 -0.22174661
000240 47 cc 8d 3e 0a 7d 31 3e 07 44 4a 3e 29 5a 2c 3e
       0.27694914 0.17332855 0.19752513 0.16831268
000250 9b 88 ca 3e e8 37 05 3f b1 9f 9c 3e 03 f3 9a 3d
       0.39557347 0.5203843 0.30590585 0.07565882
000260 84 73 7d 3e d1 be 3c 3e 63 ee 5c bd 43 a3 02 3e
       0.24751097 0.18432166 -0.05393828 0.12757592
000270 c0 bb e5 bd 97 58 c7 3d 64 80 9f bd 83 5c 2d be
       -0.11217451 0.09733694 -0.077881604 -0.16929822
000280 ac 58 9c be 57 fe 65 3d fd 26 e1 3c 91 26 43 3e
       -0.305364 0.05615076 0.027484411 0.1905768
000290 42 62 b2 3e 5e 01 31 3e fa c0 40 3e f0 54 d0 3d
       0.3484059 0.17285678 0.18823615 0.101724505
0002a0 cf e6 2b bf d1 f0 fc bd f4 e8 6c 3d a8 44 a1 bd
       -0.6714906 -0.123506196 0.05783935 -0.07874423
0002b0 30 1f 40 be 67 af 8f bd 15 85 78 be 89 c9 07 be
       -0.18761897 -0.07015877 -0.24269517 -0.13260473
0002c0 c0 e8 25 be ed 99 9b 3c 11 f6 34 be db 37 1e 3d
       -0.16202068 0.018994296 -0.17671992 0.038627487
0002d0 76 4a f3 be 14 0b c4 be 00 48 c5 be ee 09 03 be
       -0.47517747 -0.38289702 -0.38531494 -0.12796757
0002e0 99 78 68 3e 1b 7f d6 bd b2 a5 ba be 9d a4 68 3e
       0.22702254 -0.10473462 -0.3645454 0.22719045
0002f0 2a 29 68 be 19 d6 cc 3c 8e 82 16 3e 45 44 e0 3d
       -0.22671953 0.025004433 0.1469824 0.109505214
000300 d2 4d 38 3d 78 d6 f6 bc 6d 9b 10 bc 0a 01 93 bd
       0.04499609 -0.030131564 -0.008826119 -0.071779326
000310 fb 45 1f bd 6e c7 9e 3d b7 cf 7c be 97 87 ea bd
       -0.038885098 0.07752882 -0.24688612 -0.11451643
000320 79 39 7d bd 07 8c 46 3e 9a 0a d2 bd 39 76 73 be
       -0.06182239 0.19389354 -0.10255928 -0.23775567
000330 18 d2 0e 3e f2 68 b0 3d 6c 43 ee 3d 18 79 c6 3d
       0.13947332 0.08613767 0.116339535 0.096910655
000340 71 2f ae bc 95 e8 03 3e 0c 66 24 be 5d dd 08 3e
       -0.021262856 0.12881692 -0.16054553 0.13365693
000350 af 74 54 3d 12 02 39 bd 28 25 77 be 33 c3 64 bd
       0.05186909 -0.04516799 -0.24135268 -0.05585022
000360 88 52 1c 3e 48 61 9d 3d d6 4b 14 be 10 43 13 be
       0.15265858 0.076845706 -0.14482054 -0.14381051
000370 96 5b 0d bd 92 f8 b6 bd 68 17 e3 bd 6a bf 8c 3d
       -0.03451117 -0.0893413 -0.11088449 0.06872447
000380 d7 74 d6 3d 60 d8 53 3d 68 51 ed 3e 01 75 93 3d
       0.10471504 0.051720023 0.4635117 0.07200051
000390 10 73 23 be af 1d 76 3e e5 d7 f8 3b 10 58 44 3d
       -0.15961862 0.24034761 0.007594096 0.047935545
0003a0 5a f4 98 be 39 dc e8 bd 17 14 ee 38 1c b8 8b be
       -0.29873925 -0.11370129 0.000113524664 -0.27288902
0003b0 c3 a0 5e be a5 c2 5b be 76 c6 d1 3d 83 46 4d 3e
       -0.21741013 -0.2146097 0.102429315 0.2004643
0003c0 76 ad f0 3d 28 ee af 3d ae e0 91 3e a6 7d 02 be
       0.11751835 0.085903466 0.2849173 -0.12743244
0003d0 d5 16 c4 bd ea 04 12 3e 23 06 8a 3c 42 46 67 3d
       -0.09574667 0.14259687 0.01684863 0.056463487
0003e0 7a df c2 3c e4 91 8e bd 58 83 5a bd e7 70 9b 3e
       0.023788203 -0.0696142 -0.053347915 0.30359575
0003f0 83 78 35 bd d4 e7 f9 bc e0 53 cd bd 69 6d 00 bd
       -0.044304382 -0.030506052 -0.100257635 -0.03135434

convt1.bias f4 [8]
000000 84 a1 7f bd a7 04 b7 3c 6d 92 1a 3c 79 45 9e 3d
       -0.062409893 0.022341086 0.009434325 0.077280946
000010 1a a0 cb 3a 3a 9f 40 3d 8e 22 9b 3d f4 fe fd bc
       0.0015535385 0.04702685 0.0757495 -0.03100536

convt2.weight f4 [8, 16, 5, 5]
000000 32 c0 4c be 07 e8 c6 be 60 46 9b be 04 35 ac be
       -0.19995192 -0.38848898 -0.3032713 -0.33634198
000010 25 2b e0 be 70 37 38 bd 49 17 0b be 51 58 04 3e
       -0.43782917 -0.044974744 -0.13583101 0.12924315
000020 d8 66 34 be cc 60 29 be 48 13 89 3b d9 d9 4f 3c
       -0.17617357 -0.16540831 0.0041832067 0.012686216
000030 68 30 44 be 14 94 40 bd ee 76 45 be 3b db d6 3c
       -0.1915909 -0.04701622 -0.1928365 0.026227584
000040 32 a8 57 bd 62 d1 cc 3c 54 c6 f0 bd 7d d4 bd bd
       -0.052650638 0.025002185 -0.11756578 -0.092690445
000050 3f 22 57 3e fb 46 80 3d a0 c3 06 3e c2 c8 2e 3d
       0.21009158 0.062635385 0.13160563 0.042671926
000060 2f 30 0a 3e 77 6b 00 bd c5 1e 18 3d 1e ae 5f 3d
       0.13494943 -0.031352486 0.03713872 0.05460941
000070 a9 01 dd 3d 68 40 73 bc 43 a3 dd 3d 94 f3 f5 bc
       0.10791332 -0.014846899 0.10822155 -0.030023374
000080 22 6d 5f 3c 9c 41 84 3d c2 d3 e2 3d 8b 03 44 3e
       0.013636859 0.064578265 0.11075546 0.19141977
000090 23 59 60 3d a0 aa 06 3e 21 6c d2 3d e2 b1 72 3d
       0.054772507 0.13151026 0.1027453 0.059251674
0000a0 1a 83 0b 3e 6d 1a 2e 3c 83 9c 8c 3d 59 2f b3 3d
       0.1362423 0.010626418 0.0686579 0.08749265
0000b0 85 6c 0d 3d 4a 6b 14 3d a7 eb da 3b bd ab 7c 3d
       0.03452732 0.03623513 0.006680924 0.06168722
0000c0 23 01 27 3d 6d 41 a9 3d 6a d4 36 bf 9c 3c a4 bd
       0.04077257 0.08264432 -0.7141787 -0.08019373
0000d0 e6 fd f2 be cd 05 cf bc 36 e5 1a be ce 59 f6 bb
       -0.47459334 -0.02527132 -0.151265 -0.00751803
0000e0 52 95 c3 be 7c 79 24 be dc 32 73 3d ea 24 7b bd
       -0.3819986 -0.16061968 0.059374675 -0.0613145
0000f0 5a 13 56 be 0e 46 a2 bc 78 03 dc bd c2 71 8e bd
       -0.2090582 -0.019808795 -0.10742849 -0.06955291
000100 36 5f d7 bd a4 f1 e0 3d 06 cb a5 be e7 97 9d bd
       -0.10516207 0.10983589 -0.32381457 -0.07694989
000110 74 df e6 be 39 d7 18 bd 07 68 87 3d 4f f4 f2 bd
       -0.45092356 -0.037314627 0.066116385 -0.118630044
000120 30 60 03 3e 19 30 c2 bd d1 e9 b7 3e 68 2e ff 3c
       0.12829661 -0.0948183 0.35920575 0.031150058
000130 31 66 98 bc 48 25 b1 bd 9b d4 91 bd 3e a2 ab bd
       -0.018603416 -0.08649689 -0.071206294 -0.083805546
000140 ed 52 53 3c ab 85 a5 bc f4 1b 01 be 25 05 72 bd
       0.012898189 -0.02020534 -0.1260832 -0.059086937
000150 7a 0d e1 bd a0 f3 97 3c f3 cf 22 be 44 05 c9 bd
       -0.109888986 0.018548787 -0.15899639 -0.098154575
000160 e5 4d 63 bd 4c c7 21 bd 9b 27 86 bd b9 1e e6 bd
       -0.055494208 -0.039496705 -0.06550523 -0.11236329
000170 33 44 f1 bd c2 36 41 bd e6 20 d4 bd 2a 3d 10 bd
       -0.11780586 -0.04717136 -0.103578374 -0.03521458
000180 d4 30 8d bd cd 0c 84 bd 97 19 15 bd 48 3b 31 be
       -0.06894079 -0.06447754 -0.036401358 -0.1730777
000190 b8 75 80 bc 1a 8a 29 bc e3 a8 9b bb b6 6d c8 3c
       -0.015681133 -0.010347867 -0.0047503575 0.024466377
0001a0 4a a9 43 bd a1 ae 10 be 40 07 15 be 07 39 c0 bd
       -0.04776887 -0.14129116 -0.14553547 -0.09385877
0001b0 07 c2 09 be c5 28 21 be a7 49 5e bc 9f 3b 26 3d
       -0.13452922 -0.15738209 -0.013567365 0.040584203
0001c0 92 95 2a 3d fc 8a 88 3d 9e 75 b3 bd 05 0c af bd
       0.041646548 0.06667134 -0.08762668 -0.085472144
0001d0 74 f3 a9 3d c4 cc 3d 3d 0e ee b8 3b a6 3f bb 3d
       0.08298388 0.046337858 0.0056436127 0.09142999
0001e0 f3 b0 14 be 6a b5 85 be f2 2b 8d bd b3 ac 82 bd
       -0.14520626 -0.2611497 -0.068931475 -0.06380596
0001f0 a4 0d 69 bd 31 73 55 3d 2c 82 1d be f0 c9 02 be
       -0.056897774 0.05211181 -0.15381688 -0.12772346
000200 b2 14 d9 3d 1a 52 be bb 45 c5 8e 3d b3 fd dc 3d
       0.105996504 -0.005808127 0.0697122 0.10790577
000210 94 08 a2 bb 9e 9c 3a be ac a2 ae 3c 7c ff 87 3d
       -0.0049448702 -0.18223807 0.021317802 0.06640527
000220 40 e1 b4 3d 29 0b c3 bc 90 77 7b bd 48 40 19 3e
       0.088320255 -0.023809033 -0.06139332 0.14965928
000230 f2 84 6e 3d d8 39 99 3d 80 86 a8 39 35 60 da bd
       0.058232255 0.07481736 0.00032143667 -0.10662881
000240 16 9d 71 3d 79 43 88 3d 39 70 41 be ec 33 cc 3c
       0.0589877 0.066534944 -0.18890466 0.024927102
000250 b3 69 cb 3d 10 49 f0 bc 0e 8a 0b 3d b6 c0 8e 3c
       0.0993227 -0.029331714 0.034067206 0.017425876
000260 71 e1 dc ba f6 83 33 3b ba d9 bc 3d 25 dd 2d 3c
       -0.0016851855 0.0027391887 0.092212155 0.010611807
000270 06 81 59 3d 87 56 cb 3d 99 ad 9f 3d 24 c5 4d ba
       0.053101562 0.09928613 0.07796783 -0.00078495056
000280 8e b4 df bc fe 06 b2 3d 32 8b 93 3d 9b 2f 24 bd
       -0.027307775 0.0869274 0.07204284 -0.040084463
000290 1b e4 56 3d 54 84 4a 3c 86 36 e0 3d 81 1f d1 3b
       0.052463632 0.012360651 0.109478995 0.0063819294
0002a0 17 c1 47 bd bc cd 4b 3d 69 da ae 3d 1e 32 a5 bb
       -0.04876813 0.04975675 0.08537752 -0.005041375
0002b0 a0 b4 25 3e 5e 7e 0b 3c 60 eb ee 3d f1 62 f3 bd
       0.16182184 0.008514015 0.11665988 -0.11884106
0002c0 36 24 bf bd 4c 29 dc 3c 54 91 b5 bd e9 b9 7d bd
       -0.093330786 0.02687516 -0.0886561 -0.061944876
0002d0 8a eb 88 bd 57 59 32 bd 3f 00 9d bd 5d fe ef bd
       -0.066855505 -0.043542232 -0.076660626 -0.11718438
0002e0 12 9f 15 bd 6f 73 a9 bd e3 4d 3d bc 40 df c1 bd
       -0.036528654 -0.0827397 -0.011554214 -0.0946641
0002f0 5e 1a ec 3c 0a 5b cf bc ef 3d 39 3b c3 af 80 bd
       0.028821167 -0.025311965 0.0028265675 -0.06283524
000300 f4 b8 53 bc 78 3d b7 3d 35 90 33 bd de ff db bd
       -0.012922514 0.08947271 -0.0438387 -0.10742162
000310 18 73 07 3b ec 21 1a bd b4 b9 5e bb b2 a3 65 bc
       0.0020667966 -0.037630007 -0.00339852 -0.014016079
000320 83 bc 06 3d 19 20 0f 3d e0 39 bd bd 04 24 4e bd
       0.032894623 0.03494272 -0.092395544 -0.050327316
000330 2e 96 48 bd b7 87 eb bc 91 c5 de bc 87 8a 50 bc
       -0.048971348 -0.028751237 -0.027193816 -0.01272834
000340 dd 12 19 3c e4 b1 4b 3c f6 e8 96 3b 4b ad 09 bd
       0.009342876 0.012432549 0.004605408 -0.03361253
000350 7b 1d 0e bd 40 33 9b bc aa 96 0a ba 65 1d 0e 3b
       -0.034696084 -0.018945336 -0.0005286733 0.0021685
000360 2f 91 a9 3d 04 98 aa bd 72 e1 5e bd 35 d6 1e bd
       0.08279645 -0.08329776 -0.05441422 -0.038778502
000370 69 94 15 bd c4 b7 86 3a 2b d5 91 bd c9 73 48 3d
       -0.036518488 0.0010278155 -0.07120737 0.048938546
000380 b9 50 b5 3c 33 63 e6 3c 42 24 38 be 58 78 9a 3d
       0.022133218 0.028123474 -0.17982581 0.07542485
000390 b9 66 ed bc eb 42 90 3c 84 23 32 3d 76 e6 9f bd
       -0.028979646 0.017610034 0.0434909 -0.07807629
0003a0 45 9e a6 bd 03 27 bc bd e2 f6 82 3d f0 99 cb bd
       -0.08135656 -0.091871284 0.063947454 -0.099414706
0003b0 50 56 a7 bd 86 06 0a be 35 a4 98 3d 33 21 d4 3d
       -0.0817076 -0.13479051 0.07453195 0.10357895
0003c0 bd 63 a1 bd 14 20 d2 bd ee 2f 58 3d f1 87 80 bb
       -0.07880352 -0.10260025 0.052780084 -0.0039224555
0003d0 8e 97 72 be 40 e7 a1 bd 29 3b 3c 3c 51 9a 09 be
       -0.23690626 -0.079054356 0.011488714 -0.13437773
0003e0 55 da 0d be 3c 0f 81 bd 59 c2 31 3d 4f 6e 0d bd
       -0.13852818 -0.06301734 0.043398235 -0.034529027
0003f0 cd c2 e1 3d 8e 27 89 3c e7 20 2c be cb c1 1f 3e
       0.110234834 0.016742494 -0.16809426 0.1560127

convt2.bias f4 [16]
000000 04 01 2f 3d 84 9d a2 3d d9 d8 b7 3c 3a 49 d3 3d
       0.042725578 0.079402 0.022442268 0.10316701
000010 ff 91 0f 3d 33 e4 97 3d 0c d3 85 3d 4e 9d 8b bc
       0.035051342 0.074165724 0.065343946 -0.017042782
000020 3a ec c9 3d f2 c7 2d 3d 5f 37 07 bc d1 f9 05 bc
       0.0985951 0.04242701 -0.008252948 -0.008177237
000030 05 d1 55 3c 4b ec 8a 3d 72 b0 d9 3b 7e 25 be 3d
       0.013050322 0.067833506 0.0066433484 0.09284495

convt3.weight f4 [16, 32, 9, 9]
000000 10 95 28 bf 14 a9 41 bd 65 bb c1 bd 1e b8 50 bf
       -0.6585245 -0.047280386 -0.09459571 -0.8153094
000010 88 53 a0 bd b4 c2 73 bd c3 13 16 bf 4b 2c 7d bd
       -0.07828432 -0.059511855 -0.58623904 -0.06180982
000020 5d 7d 9e bd e1 64 41 be 77 df 6c 3d f6 b2 42 bd
       -0.07738755 -0.18886138 0.0578303 -0.04753395
000030 62 b8 9c bd 0c 4b e7 be 28 b8 01 3d 7b 71 e8 3d
       -0.07652356 -0.45174444 0.031669766 0.1134977
000040 46 9c 09 bd 69 b5 f1 bd 79 ea af 3c 1c 0c f8 3d
       -0.0335963 -0.11802179 0.02147411 0.12111685
000050 c8 11 bb 3d 78 83 60 bd cb ec 3c bd c2 19 8e 3d
       0.09134251 -0.05481288 -0.04612426 0.06938507
000060 7d 68 3c bd 81 dc 09 bc 1d 40 e9 bc 44 cd f7 be
       -0.045998085 -0.008414389 -0.028472954 -0.48398793
000070 b9 6f a9 bc 60 a8 e5 bc ad 47 99 be 2c 64 66 bd
       -0.020683156 -0.028034389 -0.29937497 -0.056247875
000080 6a c4 db 3d 25 a6 db be 79 1c 94 bc 6f 2c 0e 3c
       0.107308224 -0.42900196 -0.018079983 0.008677586
000090 d4 5b 8f be 39 e3 61 be 79 c8 e0 bc 82 65 94 be
       -0.27999747 -0.22059335 -0.027439343 -0.28983694
0000a0 11 1d 98 be 19 ff ea bc 8d fa c2 3b d9 7d 85 be
       -0.29709676 -0.028686093 0.005950278 -0.26072577
0000b0 66 df de bd 0b 4d 95 bd 53 90 b8 be 0a 72 d6 3d
       -0.108824536 -0.072900854 -0.3604761 0.1047097
0000c0 1e 02 05 bd cf f8 93 bd b5 18 2a bd b4 2d e2 bc
       -0.032472722 -0.07225191 -0.04152747 -0.027609684
0000d0 dd b5 8c bd 2c 0f db 3c 1c 73 6d 3e 6f 21 a6 bd
       -0.06870625 0.026740633 0.23188442 -0.08111846
0000e0 17 73 90 3c d9 a4 2e 3e 67 b1 8c bd 19 33 c6 3d
       0.017633004 0.17055072 -0.06869774 0.09677715
0000f0 57 e8 f1 3d 3d f5 17 3e 12 a6 73 3d c9 ec fb bd
       0.118118934 0.14839645 0.05948455 -0.123010226
000100 76 3b 2d be 01 9f b3 bd 72 6f 07 be bb 62 49 be
       -0.16917214 -0.08770562 -0.13226107 -0.19666569
000110 75 2f 84 bd 99 34 f3 bd 0f e7 34 be 83 19 b8 bd
       -0.06454364 -0.118752666 -0.17666267 -0.08989241
000120 7f 39 65 bd 69 4d 17 be ea 21 9d be 6b 5e 10 bd
       -0.055963036 -0.14775623 -0.30689937 -0.035246294
000130 37 62 a4 bb 2f 29 8a bd cf 4a 7b bd fd 66 09 3d
       -0.005016591 -0.067461364 -0.06135064 0.033545483
000140 14 22 d4 bd 53 de 0e be f7 20 ca be a1 3f 63 3d
       -0.103580624 -0.13951997 -0.39478275 0.055480603
000150 d7 5e 1a be b3 58 6c be 9d f0 91 39 77 25 b3 3d
       -0.15075241 -0.23080711 0.00027835826 0.0874738
000160 39 fd da bd 8f e0 b7 ba a5 cf ce bc c7 f5 96 3d
       -0.1069283 -0.0014028716 -0.025245497 0.07371097
000170 26 ca 95 bd ac 73 d2 bd c4 af 9e 3d 1d a2 f7 bd
       -0.073139474 -0.10275969 0.077483684 -0.120914675
000180 ca ed 8b bc 95 b4 9c 3c 2f 6a 0d bd 9c 89 79 bb
       -0.01708116 0.019129077 -0.034525093 -0.0038076406
000190 31 4f 1b be 3e e6 23 be 54 7c a5 3c bb b9 e2 bd
       -0.15166928 -0.16005799 0.020200886 -0.110705815
0001a0 a2 65 90 be 2c 73 86 3c 35 47 81 be b7 fe f0 bd
       -0.2820254 0.01641234 -0.2524964 -0.11767333
0001b0 70 cf 90 be d7 9f e7 be f8 3d cb 3c 23 f7 bd be
       -0.28283262 -0.45239136 0.024809822 -0.37102613
0001c0 06 27 8c bd 40 1b 3f bd a5 ee 7b be cd c9 c0 be
       -0.06843381 -0.046656847 -0.24602754 -0.37653962
0001d0 89 da d1 bc 01 49 01 3e 2f 9a 7e 3c e2 fc 02 3e
       -0.025616901 0.12625505 0.01553969 0.1279178
0001e0 46 40 1b bd 6a 25 91 3d 48 73 74 be 25 ac bc 3d
       -0.037903093 0.07087214 -0.23872101 0.092125215
0001f0 4f ef 7f bd 16 4b 82 bc f9 ae c1 bc ea f2 9f bd
       -0.06248408 -0.015904944 -0.023643004 -0.07810004
000200 b2 89 62 be e7 df 0d bc 44 57 7b bd 24 aa 52 be
       -0.22122839 -0.0086593395 -0.06136252 -0.20572716
000210 58 ca 49 bd 24 3a a4 bd 61 ab a9 be 2d 1e 06 ba
       -0.049265236 -0.08018902 -0.33138564 -0.0005116191
000220 ea b2 9f be 59 63 ea bc 47 0f 80 bc 9f cf 8d bd
       -0.31191188 -0.028611826 -0.015632285 -0.06924366
000230 29 d5 e9 ba 18 d2 ce 3b b4 79 e5 be 7b 49 05 bd
       -0.0017840016 0.006311666 -0.44819415 -0.03254078
000240 f9 8f cd bd b9 e4 40 bc 60 8c 2b be 36 4c 3f bd
       -0.10037226 -0.011773282 -0.16752768 -0.04670354
000250 5b f2 1b bd c5 e9 c3 bd f9 6e 8b bd 55 a9 e3 bc
       -0.038072925 -0.095660724 -0.06808276 -0.027790705
000260 36 73 06 be 05 b3 94 3c 2e 3f 8c bc e7 fb 3b be
       -0.13129887 0.01815177 -0.01711997 -0.18357812
000270 02 5b 31 bd 9d d4 9a 3d 7f 03 fc bd 5e ca af bc
       -0.043299682 0.07560084 -0.12305354 -0.0214588
000280 b4 c5 dd bd 36 fe 89 be 4e 7c fa bd d1 9e 53 bc
       -0.108287245 -0.2695176 -0.122307405 -0.012916283
000290 ea 04 6d be b6 5c 4a be 84 9e 05 bd eb 94 df bd
       -0.23146406 -0.19761929 -0.032621875 -0.10917076
0002a0 a4 2a 8c be e6 3f be 3b db 6b bb be ec 78 24 bd
       -0.27376282 0.005805957 -0.36605725 -0.040154383
0002b0 1a 7b ad bc e5 d2 40 be 1f 1d 4d bd d9 8c 8a 3b
       -0.021176863 -0.1883045 -0.0500766 0.004228216
0002c0 c1 fb b1 bc d6 d5 dc bd f7 11 c0 3c 48 12 14 be
       -0.02172649 -0.107829735 0.023446066 -0.14460099
0002d0 ed d0 ec 3c da 4a 13 bb 27 07 97 be 0b 67 b8 bc
       0.028908217 -0.0022475035 -0.29497644 -0.022510072
0002e0 32 85 17 be 54 6e 93 be c3 74 2e bc c3 c1 80 be
       -0.14796904 -0.2879511 -0.010647955 -0.25147828
0002f0 e1 42 d5 be ac ad 7d be 8d 19 59 bd 01 e7 70 be
       -0.41652587 -0.24773282 -0.053002883 -0.23525621
000300 ec 8a a9 bd 9d 44 57 bd 12 9d 4b be 66 7b 3c be
       -0.0827845 -0.05255567 -0.19884136 -0.18406448
000310 04 7d e0 bc b0 d7 97 be f8 36 94 bd 67 6b 8b bc
       -0.027403362 -0.29656744 -0.07237047 -0.017018987
000320 66 64 06 bd e7 d0 90 3e 73 dd e3 39 4f 78 7a bd
       -0.03281059 0.2828438 0.00043461806 -0.06114989
000330 bf 84 29 be df a3 02 3d ca 3b 32 3a 42 04 35 bd
       -0.16554545 0.03189456 0.00067990704 -0.044193514
000340 13 d5 f8 bd 82 f7 69 be 12 53 6c bc 2a 80 5d be
       -0.12150016 -0.22848323 -0.014424102 -0.21630922
000350 40 9c e9 be 72 96 15 3c b6 06 00 be 3d 18 a7 be
       -0.45627022 0.009130107 -0.1250256 -0.3263568
000360 e6 58 fd bd 1d 85 62 bd d9 16 06 be 76 22 3e be
       -0.12370472 -0.055302728 -0.13094653 -0.18567833
000370 c5 f5 c6 bc 9d 83 86 be 61 78 e6 bd fd b7 53 bd
       -0.024287114 -0.26272288 -0.11253429 -0.051689137
000380 2a f5 fc ba 7c a3 59 3d ba 0d f3 3c 0e 94 2c bc
       -0.0019299139 0.053134426 0.029669631 -0.010533346
000390 1a 79 e4 3d 64 ba 32 bc 2a a6 96 bc 56 16 98 bd
       0.11155911 -0.010908697 -0.01838978 -0.07426135
0003a0 d0 ad 0c 3d e6 b1 95 3d 1e ff 73 3c fd fd f8 bd
       0.034345448 0.07309322 0.014892368 -0.121578194
0003b0 e7 70 8f be 5d ce 74 bd 7e e1 48 be b8 64 9b be
       -0.28015825 -0.059767116 -0.19617268 -0.3035028
0003c0 fb ae 4d bd 78 07 58 be 1f 40 8d be 29 55 d9 be
       -0.050215703 -0.21096599 -0.27587983 -0.42447785
0003d0 e8 08 f1 be 43 f0 9f bd 14 8a 34 be 63 26 02 bf
       -0.47077107 -0.07809498 -0.17630798 -0.50839823
0003e0 b4 8f a8 bd f6 e7 eb be b8 da ba be 98 39 06 be
       -0.08230534 -0.4607541 -0.36494994 -0.13107908
0003f0 41 42 3f bd 68 aa dc 3c 3d 3e 70 be 17 b8 4e 3c
       -0.046694044 0.026936725 -0.23461242 0.012617133

convt3.bias f4 [32]
000000 30 46 55 3d 18 a0 32 bb 45 b7 be bc 4a ca b2 3d
       0.05206889 -0.0027256068 -0.02328075 0.0872999
000010 8c 05 f3 3d 31 b4 78 3d 5d 12 ae bd a6 3d a4 3d
       0.11866292 0.06071872 -0.08499596 0.08019571
000020 a7 d6 91 3d 56 b4 20 3e af c0 0a bc 86 92 e3 3d
       0.0712102 0.15693793 -0.008468791 0.111119315
000030 bd a2 1a 3e 7e 75 29 bd c3 4d 21 3e bc da ce 3d
       0.15101142 -0.041371815 0.1575232 0.10100314
000040 ba eb 83 3d 8f a5 8e 3c 83 04 1a 3d b8 bc a7 3c
       0.06441446 0.017412929 0.03760196 0.02047573
000050 b5 34 15 3e bf 70 f0 3d b1 5c fa 3d 78 ca 13 3e
       0.14570887 0.117402546 0.12224711 0.14432704
000060 e0 5f db 3d 3f 6d 79 3d cf 0d 87 bc 84 04 91 3c
       0.10711646 0.0608952 -0.016486077 0.017702349
000070 3e 7c 4d 3d f7 5c 5e 3d 68 aa 12 be 2b 63 e4 3b
       0.050167315 0.054287877 -0.14322817 0.0069698296

pos_output.weight f4 [1, 32, 2, 2]
000000 4e 36 07 be 5d a3 e8 bd 21 ff 13 3e ac 6c 1d 3e
       -0.1320431 -0.11359284 0.14452793 0.15373486
000010 90 52 55 bd 3a e0 03 3e b3 41 00 3d 47 f6 ea 3d
       -0.05208069 0.12878504 0.031312656 0.11472755
000020 a7 19 1a be 95 b3 81 be 9c d4 7c bd 2e 17 3a be
       -0.15048848 -0.25332323 -0.061726198 -0.18172905
000030 a6 33 e1 3b 06 4d f3 3d 7a 3a 0c 3c 9f f2 66 3e
       0.006872612 0.118799254 0.008558864 0.2255349
000040 8c 73 5b 3c 29 4f 1d 3d 85 5e ce 3b 17 d9 bb 3d
       0.013394248 0.03840557 0.0062978887 0.09172266
000050 51 84 fa bd 13 d4 b1 bd 38 3e 47 3e 98 07 03 be
       -0.122322686 -0.08683028 0.19457328 -0.12795866
000060 04 d5 5f be 2c 68 61 be 54 13 88 be b4 4d 83 be
       -0.21858603 -0.22012395 -0.26577246 -0.2564522
000070 9a 58 11 bd 8e 94 5d bd d8 97 c7 bd 3b 54 5a 3e
       -0.035484888 -0.05409675 -0.09745759 0.21321194
000080 dc 71 c3 3e 74 8a ca 3e 36 93 be 3e 01 d4 b0 3e
       0.38172805 0.39558756 0.37221688 0.34536746
000090 ea a3 b3 3b ef 13 a1 3d 44 78 d6 3d 56 9f 78 3d
       0.0054821866 0.0786513 0.104721576 0.06069883
0000a0 7e 28 c0 3e ab e6 c8 3e a4 f8 cd 3e 45 e8 71 3e
       0.37530893 0.39238486 0.4022876 0.2362376
0000b0 1a ab ff 3e e7 68 05 3f 2f b0 e6 3e ed e5 ac 3e
       0.49935228 0.52113193 0.45056292 0.3376917
0000c0 40 b5 a6 bd 1d 12 a1 bc ce d1 f7 3d e4 b6 fc 3c
       -0.081400394 -0.019661957 0.12100564 0.030848928
0000d0 73 57 5c be 28 d7 41 be 51 eb c4 be 42 32 cb be
       -0.21517734 -0.18929732 -0.38460782 -0.3968678
0000e0 20 62 88 bd f8 b6 28 bd d5 fa 23 3e a8 7d 1a be
       -0.06659341 -0.041190118 0.16013654 -0.15086997
0000f0 34 6c b8 3d 6d cf 09 be 7a 0e b3 3d 75 e7 0a be
       0.09005013 -0.13458033 0.087429956 -0.13564856
000100 9a 89 e5 bd 6d 3e 90 be b2 be c2 3d b3 5c 85 3d
       -0.11207886 -0.28172627 0.095090285 0.065118216
000110 a7 84 9e be 2f 63 63 be 13 23 37 be 43 b4 18 be
       -0.3096058 -0.22205804 -0.17884474 -0.14912514
000120 db 6c c2 3c 10 d5 84 3d b0 d1 fd bd b0 36 e2 bd
       0.023733547 0.06485951 -0.1239351 -0.11045587
000130 18 27 05 3e 71 3b d2 3d af 8f 0b 3e bf c8 66 3e
       0.13003194 0.10265244 0.1362903 0.22537516
000140 5e 28 59 be b7 c6 5c bd b0 80 c8 3d c6 57 7c 3c
       -0.21206805 -0.053900447 0.0979017 0.015401786
000150 00 26 94 bd ec 79 b7 bd 6b 9a ae bd 8a de 0d be
       -0.072338104 -0.089588016 -0.08525547 -0.13854423
000160 3e b2 05 be eb e3 e4 3b 3d d9 9e 3d 9b bb a6 bd
       -0.13056275 0.0069851778 0.07756279 -0.08141252
000170 5e f4 a3 3d 30 07 09 3e c8 9c f8 bd eb 4d a5 3d
       0.08005594 0.13381648 -0.12139279 0.08071502
000180 f6 20 1e be 86 11 11 3d 30 a6 06 bc 8b 98 14 bd
       -0.15442261 0.035417102 -0.008218333 -0.03627829
000190 a2 64 d0 bd ed 9b a7 bd 89 21 fb bd 5f a3 af 3d
       -0.10175444 -0.08184037 -0.12262256 0.085760824
0001a0 5a 30 ba 3d e6 11 00 3e 4c 94 04 3c 9e 05 c6 bc
       0.090912536 0.12506828 0.008091997 -0.0241726
0001b0 c4 d2 a1 bb 0f 77 37 be 57 17 0b be 4b c2 4d be
       -0.0049384553 -0.17916511 -0.13583122 -0.20093648
0001c0 4c e1 84 3e 0f 6c be 3e 58 3a 75 3e b1 6a 71 3e
       0.25953138 0.37191817 0.23948038 0.23575856
0001d0 f7 e9 cf 3d 90 28 15 be ef 59 ba 3d 6b 3d 13 3d
       0.10152047 -0.14566255 0.09099185 0.035947245
0001e0 3e 7a 7b 3c 37 15 d4 bc a9 ae 44 be b2 18 26 be
       0.015348969 -0.025889022 -0.19207253 -0.16220358
0001f0 b6 74 02 bd e6 bd 92 3d 29 66 bd 3d 2d ef 2c 3e
       -0.031849585 0.071651265 0.09248001 0.16888113
