ggcnn_base/output/models/230121_1510_training_example/epoch_40_iou_0.73_statedict.pt (torch, 256417 bytes, 16 tensors)

conv1.weight f4 [32, 1, 9, 9]
-0.022358004 -0.01755736 -0.035579413 -0.014496171 -0.037561353 -0.0093354 0.038007032 0.037359875
0.025239753 -0.026196333 0.0012184983 -0.021870738 -0.043029156 -0.027987044 0.0037790071 0.01551233
-0.050918236 -0.020636503 0.008784653 0.02660944 0.046406712 0.010408166 0.033037964 0.015234799
-0.03949744 -0.0068235556 -0.05351259 0.025594221 -0.034696475 -0.021847375 -0.007094712 0.008446418
0.039662704 0.031140221 -0.04430471 -0.0035311964 -0.023640642 -0.012221729 0.010908931 0.0086387135
0.0039587957 0.029614655 -0.03679594 -0.04231601 0.020480797 0.00032413437 0.020550866 -0.0057361517
-0.029627852 0.0010733663 7.699907e-05 0.04028945 0.029950887 -0.00020321264 -0.037766505 0.010121104
0.040334944 -0.006535135 -0.03566291 0.03838177 -0.010641009 0.013134523 0.04106745 0.03625041
-0.012757076 -0.0014405339 -0.037450198 0.035065215 -0.0074918466 -0.0050672293 -0.00040165032 0.0057662744
-0.015640093 0.018874412 0.03302366 0.035645697 0.005740491 -0.05293423 -0.017765002 -0.018419588
0.040663015 -0.41861436 -0.3632799 -0.37229177 -0.3561876 -0.39055967 -0.3264144 -0.13578385
-0.1032462 -0.071092494 -0.3943694 -0.3415291 -0.27369106 -0.24055853 -0.27665573 -0.31926727
-0.046329856 -0.008936763 0.074865595 -0.28711647 -0.23504856 -0.28629056 -0.17992312 -0.22525676
-0.2016616 -0.014026713 0.030125193 0.12096615 -0.18455161 -0.13576642 -0.14382963 -0.1102769
-0.11755407 -0.073419906 0.11017907 0.17614391 0.32669353 -0.087388314 -0.074210696 -0.09191848
-0.01719096 0.030667232 0.0062688002 0.22064887 0.33739832 0.4704241 -0.08985772 -0.001697221
-0.047970597 0.07876697 0.020475065 0.04297354 0.29963478 0.42548478 0.57710654 -0.05424989
-0.0075881756 -0.012163098 0.013451356 0.024231005 0.073040396 0.37123364 0.46252707 0.5890442
-0.048873544 -0.022914747 -0.03290809 0.00039739485 -0.013483834 0.03879098 0.3476818 0.47094792
0.6381412 -0.11949265 -0.08006426 -0.004971212 -0.017506193 0.057150092 0.04862431 0.3706208
0.4660885 0.5730967 -0.23677002 -0.31331146 -0.39248565 -0.20455438 -0.31775331 -0.2703597
-0.3069537 -0.3258558 -0.29071906 -0.1454168 -0.21709266 -0.24755177 -0.110080965 -0.10441366
-0.15077364 -0.19090827 -0.1752337 -0.1416581 -0.06214226 -0.060995024 -0.17593746 -0.05023211
-0.026958318 -0.016500905 -0.0869837 -0.03632733 -0.0021884486 -0.015618033 -0.1034007 -0.15011068
0.05727979 0.017600512 -0.009804219 -0.031581968 -0.021791471 0.019884065 0.06848179 -0.044562895
-0.08083963 0.00056238595 0.028257137 0.057118334 -0.010824804 -0.0069075827 0.0228811 0.0399168
-0.04458838 -0.11758983 0.086708486 0.04882859 0.06570009 -0.04488024 -0.011280051 0.046026275
0.15904623 0.029652325 -0.017579991 0.17314532 0.1317715 0.09115191 0.077418834 0.15146784
0.112824194 0.20062335 0.16895798 0.10640723 0.2205021 0.14144622 0.1369483 0.12573284
0.17526779 0.23221765 0.40716085 0.31191182 0.22896427 0.3088056 0.32141343 0.2974136
0.29085347 0.26490846 0.35803658 -0.17352304 -0.19993293 -0.17090875 -0.3266749 -0.35646948
-0.34358507 -0.3666835 -0.40771255 -0.36350244 -0.12805498 -0.10704646 -0.09669057 -0.19652748
00000000: 2228 b7bc 74d4 8fbc b8bb 11bd 5981 6dbc
00000010: efd9 19bd 81f3 18bc 43ad 1b3d ab06 193d
00000020: 99c3 ce3c b199 d6bc 05b6 9f3a 432a b3bc
00000030: 573f 30bd 1645 e5bc 38a9 773b 6e27 7e3c
00000040: a48f 50bd e20d a9bc 81ed 0f3c 0afc d93c
00000050: f714 3e3d 0387 2a3c d152 073d 619b 793c
00000060: 11c8 21bd 2298 dfbb 0430 5bbd f9aa d13c
00000070: e41d 0ebd 44f9 b2bc c27a e8bb d862 0a3c
00000080: 5c75 223d c719 ff3c db78 35bd a56b 67bb
00000090: 05aa c1bc a63d 48bc 5fbb 323c 6489 0d3c
000000a0: c9b8 813b 6f9a f23c 57b7 16bd 8d53 2dbd
000000b0: 58c7 a73c 94f0 a939 4a5a a83c 54f6 bbbb
000000c0: 1cb6 f2bc 32b0 8c3a 907a a138 8d06 253d
000000d0: 905b f53c 7a15 55b9 0db1 1abd fdd2 253c
000000e0: 4136 253d b024 d6bb 4613 12bd 3436 1d3d
000000f0: a057 2ebc 2f32 573c 5836 283d 4f7b 143d
00000100: 0e03 51bc 4cd0 bcba 6165 19bd 8ba0 0f3d
00000110: 2a7e f5bb 000b a6bb 9894 d2b9 04f3 bc3b
00000120: a71f 80bc 839e 9a3c d143 073d 3901 123d
00000130: bb1a bc3b 90d1 58bd e987 91bc ade4 96bc
00000140: 438e 263d 9f54 d6be d3ff b9be 079d bebe
00000150: 395e b6be 70f7 c7be ca1f a7be ec0a 0bbe
00000160: be72 d3bd f198 91bd c9ea c9be e7dc aebe
00000170: 3c21 8cbe fa54 76be d2a5 8dbe 0077 a3be
00000180: 60c4 3dbd 806b 12bc 2253 993d ee00 93be
00000190: 92b0 70be ad94 92be c43d 38be b5a9 66be
000001a0: 6180 4ebe 4cd0 65bc 1cc9 f63c 1abd f73d
000001b0: 19fb 3cbe 5a06 0bbe 1348 13be dbd8 e1bd
000001c0: 30c0 f0bd 2d5d 96bd 90a5 e13d 125f 343e
000001d0: 6044 a73e a5f8 b2bd c7fb 97bd c23f bcbd
000001e0: 0ed4 8cbc d939 fb3c 826a cd3b c7f1 613e
000001f0: 79bf ac3e 6ddb f03e 5307 b8bd 4975 deba
00000200: d17c 44bd 9450 a13d 53bb a73c 0605 303d
00000210: bb69 993e 24d9 d93e 41bd 133f 2235 5ebd
00000220: 3ba6 f8bb bb47 47bc 1463 5c3c 1a80 c63c
00000230: 3496 953d 5612 be3e 59d0 ec3e 9acb 163f
00000240: a02f 48bd b5b7 bbbc a2ca 06bd 6f59 d039
00000250: 4deb 5cbc 4ae3 1e3d 5903 b23e 1620 f13e
00000260: 395d 233f 90b8 f4bd bbf8 a3bd 8ce5 a2bb
00000270: 2669 8fbc 3716 6a3d 492a 473d 02c2 bd3e
00000280: 27a3 ee3e 77b6 123f d773 72be 5c6a a0be
00000290: e1f3 c8be b476 51be 90b0 a2be 966c 8abe
000002a0: 0929 9dbe 92d6 a6be 21d9 94be 24e8 14be
000002b0: 8a4d 5ebe 367e 7dbe 2172 e1bd d4d6 d5bd
000002c0: 6864 1abe 757d 43be 7770 33be d20e 11be
000002d0: e288 7ebd ebd5 79bd f328 34be 2fc0 4dbd
000002e0: b1d7 dcbc e82c 87bc 8324 b2bd f7cb 14bd
000002f0: 136c 0fbb c7e2 7fbc bfc3 d3bd 9db6 19be
00000300: 379e 6a3d f32e 903c e0a1 20bc 185c 01bd
00000310: 0784 b2bc e8e3 a23c 2e40 8c3d 9587 36bd
00000320: 3f8f a5bd 156d 133a 837b e73c eaf4 693d
00000330: 855a 31bc 0159 e2bb 2571 bb3c cc7f 233d
00000340: 4ea2 36bd f0d2 f0bd 3894 b13d 7d00 483d
00000350: c58d 863d 58d4 37bd f7cf 38bc 0c86 3c3d
00000360: 04dd 223e 6fe9 f23c ea03 90bc 024d 313e
00000370: 1cef 063e daad ba3d c48d 9e3d 631a 1b3e
00000380: 5f10 e73d 3570 4d3e 5203 2d3e 09ec d93d
00000390: 4dcb 613e 47d7 103e 2d3c 0c3e 1cc0 003e
000003a0: 6679 333e 77ca 6d3e 6377 d03e e8b2 9f3e
000003b0: 9c75 6a3e c51b 9e3e 4d90 a43e 9846 983e
000003c0: bfea 943e 15a2 873e 9250 b73e 06b0 31be
000003d0: 38bb 4cbe b402 2fbe ef41 a7be 2b83 b6be
000003e0: 62ea afbe f1bd bbbe b3bf d0be fe1c babe
000003f0: d820 03be 2d3b dbbd b505 c6bd 803e 49be

conv1.bias f4 [32]
-0.09973523 -0.04530605 0.1016056 -0.024371749 -0.3547752 -0.5413389 0.018479174 -0.023989981
-0.0016345705 -0.0952716 0.19290972 -0.06704922 -0.091897234 -0.29296458 -0.09782789 0.092251204
-0.18362255 -0.23549277 -0.19198617 -0.075291105 -0.07478964 -0.098145775 -0.3818947 0.00078574615
0.08930265 0.07388242 -0.01601457 -0.025705118 0.0061883028 -0.0816373 0.084700465 0.0075594485
00000000: fc41 ccbd d692 39bd 9916 d03d 43a7 c7bc
00000010: 18a5 b5be 3095 0abf a361 973c a386 c4bc
00000020: 163f d6ba c21d c3bd 208a 453e 1a51 89bd
00000030: 9e34 bcbd 74ff 95be fd59 c8bd 33ee bc3d
00000040: 8d07 3cbe 0425 71be 0698 44be 3932 9abd
00000050: 502b 99bd a700 c9bd b487 c3be 88fa 4d3a
00000060: 4fe4 b63d ab4f 973d fd30 83bc 8a93 d2bc
00000070: 3fc7 ca3b 7531 a7bd 7077 ad3d 40b5 f73b

conv2.weight f4 [16, 32, 5, 5]
-0.0456554 0.040415358 0.0030132076 0.0102111455 0.0060982364 -0.0067605646 0.06324049 0.042577196
-0.015627125 -0.06343843 -0.010868363 0.017105712 -0.03846567 -0.01254823 0.048445597 0.033695213
-0.027788652 -0.0032835396 0.026356744 -0.044643074 -0.02669867 0.03866702 0.061347462 -0.049268227
0.023879671 -0.18341154 -0.11612012 -0.27607706 0.68249017 -0.26035517 -0.33834586 -0.13465254
-0.23169403 0.58193934 0.012634505 -0.26966533 -0.100114666 -0.14217633 0.56587446 0.014232935
-0.23522222 -0.04728042 -0.06291734 0.63479185 -0.027135935 -0.35866895 -0.21385422 -0.32464883
0.5006463 -0.35168967 0.12607248 0.05485572 0.037241746 -0.051317204 -0.20428349 0.16358046
0.016344927 0.024833905 -0.037245132 -0.16433634 0.06309081 0.045053896 -0.05150517 -0.078045875
-0.25305918 0.30549875 0.17066975 0.15615115 0.1708538 0.09290617 0.3565599 0.028266294
-0.13691653 -0.12545215 -0.22349155 0.016701637 0.20277679 0.25658306 0.40601876 0.5132001
-0.09949904 0.05700777 0.14311074 0.15651184 0.23557605 -0.06433685 0.040021583 0.09247037
0.15994163 0.15404388 0.031915735 0.07521746 0.13881543 0.3370266 0.28968012 0.078782305
-0.12365715 -0.114116706 -0.033819657 0.18842457 -0.011293859 -0.20763293 -0.516434 -0.3371419
-0.23828436 -0.00676106 -0.15350015 -0.6578029 -0.39311236 -0.14288057 -0.061065644 -0.18089625
-0.6732365 -0.36867663 -0.14840353 -0.05095783 -0.24402966 -0.53343433 -0.30664116 -0.057041243
-0.071624696 -0.15349 -0.4007228 -0.32954153 -0.14798567 0.15506801 0.087430485 -0.61035466
-0.2013063 -0.13279168 0.037409697 -0.0040760627 -0.3476526 0.02631416 0.06820074 0.05506038
0.032905854 -0.21663707 -0.063920856 0.024073124 0.118156806 0.116311215 -0.05032831 0.046655357
0.20502113 0.21918316 0.06632913 0.012895106 0.070339836 0.08566463 0.20128705 0.116622254
0.07971618 0.24432543 -0.32249838 0.09782426 0.08710461 0.13034944 0.21062903 -0.40203002
0.13882901 0.06734944 0.029185247 0.22980566 -0.33578283 0.12947692 0.18553965 0.13224143
0.15477078 -0.39714122 -0.14378667 -0.03867071 -0.08848263 -0.0066843564 -0.5553657 0.21023437
0.15172319 0.2911774 0.11778835 0.14264123 -0.19513951 -0.071407706 -0.025258854 -0.056452285
-0.08682223 -0.09671027 -0.021490041 0.033547346 0.0365521 -0.08608152 -0.062513456 0.04801259
0.11479709 0.033345893 -0.20352285 -0.03219553 0.10874034 0.20540816 -0.12486955 -0.20445427
-0.10718939 -0.17517208 -0.19922127 -0.24650066 -0.2923838 0.07154379 0.05106863 -0.020235656
-0.0838145 -0.13805537 0.02040689 0.09043933 -0.008093309 -0.037787866 -0.101913534 0.114347704
0.086907834 -0.003865908 0.033825435 -0.051495034 0.101061344 0.011767206 -0.018874085 -0.1878357
-0.23592515 -1.0910813 -0.8146276 -0.82624215 -0.3996683 -0.28954977 -0.34538677 -0.5192366
-0.43480378 -0.46655044 -0.1771173 0.015120503 -0.5034915 -0.33653483 -0.27369496 -0.36182863
0.22541249 -0.3168659 -0.34646854 -0.22367592 -0.23284525 0.49798805 -0.20927791 -0.4317622
-0.37329784 -0.4617101 0.06601318 -0.048734892 -0.18496922 -0.30428946 -0.13819733 0.070015095
00000000: 2801 3bbd 938a 253d 3c79 453b a64c 273c
00000010: b7d3 c73b ba87 ddbb 3b84 813d 6d65 2e3d
00000020: 7504 80bc 02ec 81bd 3811 32bc 4721 8c3c
00000030: 2e8e 1dbd 1797 4dbc e46e 463d fe03 0a3d
00000040: 07a5 e3bc a730 57bb 19ea d73c a8db 36bd
00000050: 2bb7 dabc 4f61 1e3d 7a47 7b3d 7bcd 49bd
00000060: 4d9f c33c 3cd0 3bbe 63d0 edbd f959 8dbe
00000070: adb7 2e3f 464d 85be ab3b adbe 5be2 09be
00000080: 3341 6dbe faf9 143f f400 4f3c 9311 8abe
00000090: eb08 cdbd ac96 11be 26dd 103f 4231 693c
000000a0: 18de 70be 1da9 41bd ceda 80bd b881 223f
000000b0: 2e4c debc 75a3 b7be 9afc 5abe 5f38 a6be
000000c0: 5b2a 003f ab10 b4be 2519 013e 64b0 603d
000000d0: cd8a 183d fd31 52bd b12f 51be a381 273e
000000e0: cce5 853c 7970 cb3c 5a8e 18bd c947 28be
000000f0: c135 813d 6f8a 383d 16f7 52bd 84d6 9fbd
00000100: f990 81be 556a 9c3e 0dc4 2e3e 16e6 1f3e
00000110: 4cf4 2e3e 9745 be3d 058f b63e b78e e73c
00000120: d933 0cbe 8776 00be f8da 64be dfd1 883c
00000130: b8a4 4f3e db5e 833e b1e1 cf3e 1561 033f
00000140: 27c6 cbbd fb80 693d 9f8b 123e a444 203e
00000150: d93a 713e 0ac3 83bd aced 233d 1b61 bd3d
00000160: bdc7 233e aebd 1d3e 13ba 023d 9d0b 9a3d
00000170: a225 0e3e c08e ac3e f450 943e 9e58 a13d
00000180: f63f fdbd 05b6 e9bd 7b86 0abd 5ff2 403e
00000190: e109 39bc ba9d 54be 0535 04bf dd9d acbe
000001a0: d100 74be e28b ddbb 252f 1dbe c565 28bf
000001b0: 0646 c9be 494f 12be f81f 7abd de3c 39be
000001c0: 3a59 2cbf 2fc3 bcbe 18f7 17be 28b9 50bd
000001d0: e9e2 79be 278f 08bf 1200 9dbe 14a4 69bd
000001e0: f8af 92bd 7c2c 1dbe 8a2b cdbe abb9 a8be
000001f0: 8e89 17be 26ca 1e3e c10e b33d 3440 1cbf
00000200: 3d23 4ebe 8bfa 07be e93a 193d 7e90 85bb
00000210: 86ff b1be cb90 d73c d4ac 8b3d fe86 613d
00000220: 4ac8 063d 1cd6 5dbe f0e8 82bd 0035 c53c
00000230: 32fc f13d 9334 ee3d 0f25 4ebd b019 3f3d
00000240: 0ff1 513e 8d71 603e 91d7 873d ff45 533c
00000250: 550e 903d f070 af3d 311e 4e3e a6d7 ee3d
00000260: 3d42 a33d 7230 7a3e 821e a5be 1658 c83d
00000270: e763 b23d 537a 053e 23af 573e e1d6 cdbe
00000280: 3129 0e3e 81ee 893d e615 ef3c 2d52 6b3e
00000290: baeb abbe 9995 043e 1bfe 3d3e 4c6a 073e
000002a0: 3b7c 1e3e 1856 cbbe d03c 13be 2e65 1ebd
000002b0: 6236 b5bd 7208 dbbb 722c 0ebf ae47 573e
000002c0: 535d 1b3e 3415 953e 053b f13d 8b10 123e
000002d0: a7d2 47be 343e 92bd a8eb cebc 833a 67bd
000002e0: dacf b1bd 0910 c6bd e20b b0bc f168 093d
000002f0: a8b7 153d 824b b0bd 0e07 80bd d9a8 443d
00000300: bd1a eb3d b495 083d 4b68 50be 76df 03bd
00000310: 41b3 de3d 8456 523e 9bbb ffbd 765c 51be
00000320: 1c86 dbbd 4f60 33be a900 4cbe ab6a 7cbe
00000330: 54b3 95be 8d85 923d 572d 513d 3fc5 a5bc
00000340: f0a6 abbd 635e 0dbe 5a2c a73c 4138 b93d
00000350: cc99 04bc 73c7 1abd 0bb8 d0bd 212f ea3d
00000360: bcfc b13d 2c5b 7dbb 8a8c 0a3d 75ec 52bd
00000370: 40f9 ce3d 3dcb 403c d39d 9abc 0058 40be
00000380: 5d96 71be 8da8 8bbf 6f8b 50bf 9b84 53bf
00000390: 53a1 ccbe de3f 94be 89d6 b0be b1ec 04bf
000003a0: 9a9e debe b3df eebe 3d5e 35be fcbb 773c
000003b0: d2e4 00bf 4b4e acbe bf21 8cbe 9a41 b9be
000003c0: 88d2 663e 3f3c a2be 5364 b1be 4d0b 65be
000003d0: fc6e 6ebe 4af8 fe3e f34c 56be ef0f ddbe
000003e0: e520 bfbe 4465 ecbe eb31 873d 3d9e 47bd
000003f0: 9268 3dbe d4cb 9bbe 9a83 0dbe 1364 8f3d

conv2.bias f4 [16]
0.12188357 -0.08699071 -0.06864378 -0.03620941 0.022726072 -0.069883436 -0.1278112 -0.0102984235
-0.011139043 -0.0058836 0.30606174 0.30735394 -0.055324264 0.10956653 -0.087991714 -0.03513413
00000000: 189e f93d 2f28 b2bd 1c95 8cbd 5150 14bd
00000010: 072c ba3c 0c1f 8fbd f0e0 02be b8ba 28bc
00000020: 8880 36bc 37cb c0bb 20b4 9c3e 7f5d 9d3e
00000030: b29b 62bd 6b64 e03d 0035 b4bd cee8 0fbd

conv3.weight f4 [8, 16, 3, 3]
0.054975744 -0.19370124 -0.51837766 -0.05913369 0.03572993 -0.108136036 0.389691 0.1993508
0.12365222 0.08664206 0.0036583764 0.007258687 -0.035484433 0.07389164 -0.13739921 0.019822547
-0.12133978 -0.13069494 -0.12492132 -0.179462 0.12435327 0.071587324 -0.11714203 -0.1239394
0.06332774 -0.01711767 -0.12950669 0.06362446 -0.12457215 -0.11881689 0.06071803 -0.024288783
-0.124716714 0.08618591 -0.02312691 -0.005086577 0.10757579 0.15170665 0.52963734 -0.13888443
0.054276526 -0.02144358 -0.45284685 -0.2137486 0.0366689 -0.002394869 0.05765552 -0.11515519
0.15175813 0.042412776 0.01372053 0.025578644 -0.03078638 -0.09812063 0.086786546 -0.00012426812
-0.15474504 0.014225309 -0.075967476 0.1206493 -0.048576403 0.1173663 -0.11047675 -0.04614769
-0.13982804 0.02330568 0.0644236 0.057858005 0.074134074 -0.025277125 0.001740841 -0.14632006
0.017098717 0.08348473 -0.062382217 0.007841383 -0.007810628 0.09447565 0.12115937 -0.036157828
0.0115861865 0.095972076 0.1360208 0.15897185 -0.1385891 -0.11758788 -0.1304239 0.092058666
0.1008884 -0.051429294 -0.02906785 0.1946104 0.45897004 -0.041661683 0.115980834 0.23475723
-0.4268421 -0.33547336 -0.24284232 -0.09432431 0.16804445 0.13632873 -0.04527141 -0.11026195
0.08695336 0.021455081 -0.10874401 0.0037946939 0.091350175 0.085866705 0.26285785 -0.048587237
-0.2850309 -0.1820444 0.05224381 -0.025815066 -0.006063102 0.007028847 -0.16631831 -0.07791952
0.015307223 0.06741876 0.04706498 0.07103288 0.002596321 -0.07252952 -0.16413186 0.022553511
0.13427587 0.08751544 -0.11965351 0.059001125 -0.03204717 -0.14617416 -0.14648218 -0.15923324
0.09428779 -0.111510836 0.04727835 0.11747018 0.095155396 0.14598167 0.10325815 -0.12832654
-0.14494663 -0.034469422 -0.23202723 0.12811556 0.12725222 -0.02332235 0.09493519 0.052551113
0.023207577 -0.10445247 -0.048691407 -0.10235802 -0.097205326 -0.07059647 -0.052487466 0.04869612
-0.1383724 -0.110195674 0.082399935 -0.13724664 -0.0015342165 -0.1481488 -0.04569474 0.057927635
0.066338524 0.015232171 -0.09469829 0.11107345 -0.13484801 -0.010886464 0.0762755 -0.0966086
-0.18985312 0.057297558 -0.089180686 0.0583619 0.3885422 0.26249453 0.020938236 0.0018169858
-0.005105484 -0.10413979 -0.2156039 -0.103325695 -0.31796572 -0.15759486 -0.017943287 0.06983465
-0.032494374 0.15998617 -0.12853774 0.05559177 -0.06715753 0.11980687 -0.26087946 -0.2125928
-0.19262902 -0.20624843 0.21853466 0.10413751 -0.06515867 0.2981025 0.32378054 0.1655108
-0.11186902 0.13870566 0.020462701 0.09576129 0.028944738 -0.17013656 0.062464546 0.042826828
0.091741845 -0.11754999 0.035016883 0.059937105 0.043833084 0.04934823 0.14430565 0.0461635
-0.14570099 0.12829745 -0.05546693 -0.17572464 0.09813197 0.09845489 -0.05364453 0.014403999
0.047743704 0.021047197 0.24489787 0.23622014 0.11184755 -0.04621013 0.023001567 -0.06566775
-0.21613419 -0.21059123 -0.104872726 0.2712189 0.047610126 0.072783776 0.23029354 -0.114461236
-0.17906012 0.15473105 -0.029103544 -0.43618414 0.2572531 0.09598512 0.009552699 -0.02906723
00000000: 3f2e 613d 9e59 46be 66b4 04bf 2b36 72bd
00000010: 8c59 123d 6d76 ddbd 9485 c73e 9e22 4c3e
00000020: 603d fd3d 6471 b13d 5fc1 6f3b 48da ed3b
00000030: 2058 11bd 8054 973d 61b2 0cbe e562 a23c
00000040: fe80 f8bd e5d4 05be c0d6 ffbd e3c4 37be
00000050: edac fe3d 609c 923d 29e8 efbd f1d3 fdbd
00000060: f9b1 813d 5b3a 8cbc 679d 04be 8a4d 823d
00000070: af1f ffbd 4556 f3bd 78b3 783d 45f9 c6bc
00000080: 7a6b ffbd 3d82 b03d a574 bdbc 4dad a6bb
00000090: b250 dc3d fd58 1b3e 5096 073f b837 0ebe
000000a0: 1051 5e3d 72aa afbc 8bdb e7be eae0 5abe
000000b0: 2132 163d 3cf3 1cbb 3228 6c3d 7cd6 ebbd
000000c0: 7c66 1b3e 05b9 2d3d 13cc 603c 4e8a d13c
000000d0: b833 fcbc 78f3 c8bd 25bd b13d f84d 02b9
000000e0: 7c75 1ebe 4511 693c d694 9bbd fb16 f73d
000000f0: 0df8 46bd be5d f03d a241 e2bd 5c05 3dbd
00000100: 152f 0fbe 8eeb be3c 85f0 833d 84fc 6c3d
00000110: 9bd3 973d f911 cfbc ee2c e43a edd4 15be
00000120: 9c12 8c3c 0bfa aa3d 7f84 7fbd 2579 003c
00000130: 4cf0 ffbb 737c c13d 6722 f83d 3b1a 14bd
00000140: fdd3 3d3c 028d c43d 0949 0b3e 84c9 223e
00000150: 4dea 0dbe ead1 f0bd d88d 05be 4189 bc3d
00000160: 949e ce3d 86a7 52bd b31f eebc f347 473e
00000170: 1ffe ea3e 71a5 2abd 5c87 ed3d 3364 703e
00000180: 0c8b dabe 2ac3 abbe a8ab 78be 1b2d c1bd
00000190: d813 2c3e c299 0b3e 846e 39bd 04d1 e1bd
000001a0: 9a14 b23d 91c2 af3c 2eb5 debd 66b0 783b
000001b0: cd15 bb3d e2da af3d 4e95 863e 6903 47bd
000001c0: 92ef 91be d969 3abe 9bfd 553d 1e7a d3bc
000001d0: fcac c6bb 3e52 e63b 594f 2abe 4594 9fbd
000001e0: 26cb 7a3c d912 8a3d 35c7 403d b079 913d
000001f0: 0a27 2a3b 5b8a 94bd 2f12 28be 24c2 b83c
00000200: 9d7f 093e 4c3b b33d e60c f5bd 2aab 713d
00000210: e543 03bd aeae 15be 6dff 15be 0a0e 23be
00000220: f519 c13d cb5f e4bd f1a6 413d 3594 f03d
00000230: d5e0 c23d 387c 153e 0279 d33d 0868 03be
00000240: e46c 14be cf2f 0dbd 8c98 6dbe ba30 033e
00000250: 684e 023e 830e bfbc 626d c23d d63f 573d
00000260: d11d be3c 2deb d5bd a470 47bd 15a1 d1bd
00000270: 9613 c7bd e294 90bd 19fd 56bd 9575 473d
00000280: 7fb1 0dbe 45ae e1bd 4cc1 a83d 628a 0cbe
00000290: c317 c9ba 52b4 17be 682a 3bbd 8745 6d3d
000002a0: 7edc 873d 5b90 793c 2df1 c1bd 7a7a e33d
000002b0: 9915 0abe 245d 32bc 5436 9c3d bbda c5bd
000002c0: db68 42be d8b0 6a3d 5da4 b6bd e30c 6f3d
000002d0: 01ef c63e af65 863e aa86 ab3c ed27 ee3a
000002e0: e74b a7bb 3e47 d5bd 45c7 5cbe 6c9c d3bd
000002f0: 67cc a2be 8c60 21be cdfd 92bc 7805 8f3d
00000300: d218 05bd 6ad3 233e 669f 03be 32b4 633d
00000310: e389 89bd 4e5d f53d fe91 85be edb1 59be
00000320: 8b40 45be ca32 53be 8dc7 5f3e 0c46 d53d
00000330: e971 85bd e4a0 983e 90c6 a53e aa7b 293e
00000340: 961b e5bd db08 0e3e 65a1 a73c 7f1e c43d
00000350: 841d ed3c 4738 2ebe d3da 7f3d 2f6b 2f3d
00000360: 26e3 bb3d 0dbe f0bd dd6d 0f3d 9c80 753d
00000370: 528a 333d 5f21 4a3d dcc4 133e f015 3d3d
00000380: a432 15be 6860 033e 4b31 63bd 29f1 33be
00000390: 6af9 c83d b8a2 c93d 5eba 5bbd c0fe 6b3c
000003a0: e78e 433d 2c6b ac3c 82c6 7a3e b1e3 713e
000003b0: 5410 e53d d546 3dbd c86d bc3c d07c 86bd
000003c0: 4852 5dbe 3aa5 57be 83c7 d6bd 34dd 8a3e
000003d0: d602 433d a90f 953d 12d2 6b3e a76a eabd
000003e0: 895b 37be d171 1e3e 8e6a eebc 8753 dfbe
000003f0: aeb6 833e d993 c43d ec82 1c3c 661e eebc

conv3.bias f4 [8]
0.02922401 0.017894521 0.070776835 0.14315219 0.0102128 -0.2576603 0.10328601 0.03512808
00000000: 3167 ef3c 8897 923c 72f3 903d 7d96 123e
00000010: 9753 273c 0dec 83be 9e87 d33d 76e2 0f3d

convt1.weight f4 [8, 8, 3, 3]
0.050668467 0.2986637 -0.28128588 -0.2543118 0.035801414 0.35462943 0.1030578 -0.036142744
-0.019117836 0.3999589 0.33035386 0.1741547 -0.16484657 -0.15448987 -0.22835691 -0.50103205
-0.10564346 0.34197462 -0.34707916 -0.17811976 -0.11234248 0.5254215 0.025135122 -0.17731048
-0.13449888 0.1059448 0.4339917 0.24938694 0.21867532 -0.19598383 0.117020726 0.27986428
0.4427823 -0.19632217 0.03521114 -0.1916595 0.05513979 0.15708955 0.099091806 -0.22523345
-0.96666396 -0.109150134 0.072575584 -0.23875108 -0.091316 0.03375683 0.07849653 0.25800776
0.009246617 0.056607228 -0.19006611 0.34330052 0.121590406 -0.14972737 -0.5132759 -0.7292123
-0.53722876 -0.25483873 -0.17857027 -0.4900316 -0.62022674 -0.15607975 0.2822141 -0.13474186
0.067400336 -0.2704319 0.33117995 -0.0032700906 0.323487 -0.2851161 0.5301852 -0.18255848
0.27725244 -0.13145071 0.23837282 0.09856509 -0.71330297 -0.13153262 -0.07634532 0.05535664
-0.17584549 -0.5316373 -0.14939551 -0.39619827 -1.0751762 -0.35656515 -0.90751004 -0.40452057
0.0041436083 -0.6577953 0.18952678 0.1294876 0.04780624 -0.13275898 -0.048358772 -0.2311652
-0.0074866875 0.04500006 -0.2572291 -0.025980117 -0.08213524 -0.30500475 -0.30444038 -0.25355715
-0.31601578 0.10591745 -0.08682857 -1.7028425 0.12651512 0.63803625 0.21066895 0.6303547
0.03548241 0.059820905 0.04980243 0.12626755 0.06727124 -0.09946277 -0.02102423 0.20105283
-0.078688346 -0.023781167 0.29586744 0.16495621 0.057214774 0.31961697 -1.6014465 -0.048823185
-0.16193677 0.169441 -0.37389544 0.19255748 -0.42219344 0.22103265 -0.04475666 -0.2871159
-0.1500138 -0.2677964 -0.0181616 -0.1074786 0.21577933 -0.29695576 0.30748156 -0.22174661
0.22790743 0.014266061 0.16562729 0.11869325 0.4130779 0.3023093 0.5587599 0.3028681
0.31061676 0.3351614 -0.20114066 0.37624195 -0.267537 0.048725795 -0.18226966 -0.2282118
-0.117506124 -0.02077786 0.1932953 0.5788669 0.27795786 0.12148293 0.13391016 0.10810806
-0.41978216 -0.5062405 -0.101902574 -0.18279704 -0.18850437 -0.35691363 -0.30552924 -0.09808719
-0.22142705 -0.105884515 -0.2703903 -0.22969478 -0.03766949 -0.32852495 -0.31461293 -0.068609014
0.022018306 -0.16088092 -0.331144 0.20641196 -0.48732528 0.11894795 0.17898855 0.14323418
0.10248675 -0.07104831 0.16028252 -0.0040768357 -0.12621208 -0.054666825 -0.46289214 -0.0917575
-0.46300504 -0.041582603 0.039465666 -0.030294776 0.16190724 0.11492826 0.43541294 0.096910655
-0.0040472774 0.12881692 -0.059698544 0.12827471 -0.04976641 -0.09096094 -0.04961617 -0.096801005
0.30319336 0.14741348 0.07893231 0.018256811 -0.096839435 -0.09671226 -0.055980805 0.06735062
0.06421833 0.13615955 0.564861 0.11535798 -0.08941575 0.27189073 -0.09249318 -0.14794007
-0.3080102 -0.12807795 0.2077307 -0.8288874 -0.04410856 0.06696564 0.18998803 0.35442248
0.18671899 0.3688242 0.17968798 0.04011822 0.03367681 0.07789364 0.3138085 0.10287664
0.0033414555 0.05884403 -0.008025054 0.23386155 0.12200843 -0.013797722 -0.16590735 0.0359979
00000000: bd89 4f3d 73ea 983e b404 90be 2835 82be
00000010: 81a4 123d fd91 b53e f80f d33d 6a0a 14bd
00000020: 029d 9cbc 6ac7 cc3e 2424 a93e 9c55 323e
00000030: 8acd 28be 9832 1ebe 65d6 69be a343 00bf
00000040: 995b d8bd 4c17 af3e 5cb4 b1be 0765 36be
00000050: d013 e6bd 0682 063f 2ce8 cd3c e190 35be
00000060: 13ba 09be 96f9 d83d 2934 de3e 4a5f 7f3e
00000070: 6cec 5f3e fcaf 48be 90a8 ef3d 5f4a 8f3e
00000080: 5db4 e23e ae08 49be 8e39 103d 6342 44be
00000090: 43da 613d 15dc 203e a5f0 ca3d 99a3 66be
000000a0: 4a77 77bf 1b8a dfbd 82a2 943d 2a7b 74be
000000b0: e203 bbbd 9a44 0a3d cac2 a03d 9819 843e
000000c0: 1f7f 173c fbdc 673d b1a0 42be 16c5 af3e
000000d0: 6404 f93d 2252 19be 0d66 03bf a8ad 3abf
000000e0: d387 09bf 397a 82be 20db 36be 6ce5 fabe
000000f0: 2ec7 1ebf 5fd3 1fbe 5e7e 903e c5f9 09be
00000100: 3009 8a3d 0d76 8abe 6b90 a93e 044f 56bb
00000110: 17a0 a53e bdfa 91be 38ba 073f 9cf0 3abe
00000120: 08f4 8d3e 049b 06be 0118 743e 7edc c93d
00000130: 069b 36bf 7db0 06be ef5a 9cbd a5bd 623d
00000140: d710 34be 6219 08bf 23fb 18be 80da cabe
00000150: 609f 89bf b58f b6be 9452 68bf 521d cfbe
00000160: 1bc7 873b 4665 28bf 4f13 423e 6698 043e
00000170: 7ad0 433d f8f1 07be d913 46bd 92b6 6cbe
00000180: e352 f5bb fc51 383d 88b3 83be 41d4 d4bc
00000190: 8536 a8bd 9529 9cbe 9cdf 9bbe 3ed2 81be
000001a0: d2cc a1be 3feb d83d 2dd3 b1bd bef6 d9bf
000001b0: 2e8d 013e 5856 233f 9ab9 573e ed5e 213f
000001c0: 0156 113d c406 753d a2fd 4b3d 484c 013e
000001d0: 81c5 893d 23b3 cbbd 023b acbc cbe0 4d3e
000001e0: 5b27 a1bd b9d0 c2bc f07b 973e 48ea 283e
000001f0: 0a5a 6a3d d6a4 a33e 33fc ccbf d2fa 47bd
00000200: c1d2 25be f181 2d3e 396f bfbe ca2d 453e
00000210: bd29 d8be 6256 623e c252 37bd db00 93be
00000220: 389d 19be 9c1c 89be a3c7 94bc be1d dcbd
00000230: 42f5 5c3e 960a 98be 396e 9d3e 8b11 63be
00000240: 9160 693e 32bc 693c 339a 293e 7215 f33d
00000250: f27e d33e 49c8 9a3e e40a 0f3f 8711 9b3e
00000260: 2909 9f3e 469a ab3e d1f7 4dbe c9a2 c03e
00000270: 9cfa 88be b394 473d e6a4 3abe 5bb0 69be
00000280: 0da7 f0bd 5536 aabc 34ef 453e 9f30 143f
00000290: 7e50 8e3e 0bcc f83d bf1f 093e c267 dd3d
000002a0: b0ed d6be fa98 01bf 4cb2 d0bd 262f 3bbe
000002b0: 4a07 41be 62bd b6be 546e 9cbe f0e1 c8bd
000002c0: c6bd 62be fbd9 d8bd 9970 8abe 1c35 6bbe
000002d0: 534b 1abd 6c34 a8be f214 a1be e282 8cbd
000002e0: bc5f b43c f8bd 24be b58b a9be a85d 533e
000002f0: b382 f9be fc9a f33d c648 373e fbab 123e
00000300: 93e4 d13d c781 91bd 1a21 243e fa96 85bb
00000310: bd3d 01be 52ea 5fbd 3300 edbe 5beb bbbd
00000320: ff0e edbe 8552 2abd c0a6 213d c02c f8bc
00000330: 03cb 253e 825f eb3d 72ee de3e 1879 c63d
00000340: 069f 84bb 95e8 033e 7686 74bd 725a 033e
00000350: ddd7 4bbd bb49 babd 533a 4bbd 9b3f c6bd
00000360: 293c 9b3e 8ff3 163e 43a7 a13d 4f8f 953c
00000370: c153 c6bd 1411 c6bd 214c 65bd 1fef 893d
00000380: e684 833d 696d 0b3e bb9a 103f ce40 ec3d
00000390: 9b1f b7bd 4335 8b3e 106d bdbd 9a7d 17be
000003a0: 83b3 9dbe de26 03be 5bb7 543e f731 54bf
000003b0: 2dab 34bd 4825 893d 398c 423e dd76 b53e
000003c0: 4333 3f3e 87d6 bc3e 2000 383e 0153 243d
000003d0: b2f0 093d b386 9f3d 82ab a03e fdb0 d23d
000003e0: 52fc 5a3b 7006 713d 847b 03bc 6779 6f3e
000003f0: 8edf f93d d70f 62bc 9ee3 29be 8972 133d

convt1.bias f4 [8]
-0.017974911 0.057272986 -0.045465603 0.10997513 0.031583473 0.073249094 0.14588542 -0.01871536
00000000: 1f40 93bc 1497 6a3d 243a 3abd a43a e13d
00000010: ac5d 013d 9f03 963d fd62 153e f450 99bc

convt2.weight f4 [8, 16, 5, 5]
-0.15094995 -0.3071846 -0.29785702 -1.0516623 -0.41884464 0.0015090457 -0.18202429 0.149532
-0.15611698 -0.31472957 0.075342566 0.124378756 -0.13201666 0.012216961 -0.55296665 0.21746147
-0.08461378 -0.094893456 -0.23968789 -0.1117362 0.34981295 0.14419246 0.19524835 -0.0060551153
0.17803375 0.001938569 -0.0287215 -0.07426061 0.16952874 -0.055114236 0.07305065 0.052107647
-0.058553535 0.09330034 0.106922805 0.23529191 -0.35354802 0.04992444 0.022897579 0.027342275
0.25598004 -0.025705457 -0.31619164 0.1751411 0.07452008 0.05245074 0.046414632 -0.024791423
0.16528578 0.18116434 -0.6237525 -0.12599497 -0.39170983 -0.7242267 -0.09282366 0.04318964
-0.48312694 -0.19151025 0.29817465 -0.044398475 -0.13381767 -0.049872406 -0.03292924 -0.011957908
-0.121169254 -0.042551234 -0.19471316 -0.03479888 -0.5248838 -0.07942555 -0.08128383 -0.255888
0.08471819 -0.41652086 0.31305808 0.06277852 0.015893925 0.028493611 -0.106047116 -0.06272255
-0.007980384 0.076089054 -0.09589676 -0.11530765 -0.104084164 -0.023699202 -0.22330923 -0.06595593
-0.11636254 -0.043128725 -0.11867339 -0.44530475 -0.063918784 -0.14948581 -0.12471709 -0.06825068
-0.06455277 -0.055301625 -0.15208331 -0.19111699 0.077802084 0.12152611 -0.02116664 0.095572315
-0.104565665 0.03855165 -0.24634883 -0.33850124 -0.109771475 -0.18696968 0.06654428 -0.19031148
-0.21327303 0.0152376555 -0.16454916 -0.16915044 0.2636005 0.13990496 -0.048495833 0.13462223
-0.09294695 -0.07744674 -0.11702532 -0.12238877 -0.13026588 0.08950934 -0.6842551 -0.09990104
-0.080810696 -0.21914303 0.12200663 0.09889239 -0.4778337 -0.9600831 -0.012734481 -0.0023584273
-0.14688843 -0.15162303 0.023063175 0.17610124 -0.03739871 0.060756385 -0.6053411 -0.43662062
-0.04655744 0.07255468 -0.5849931 -0.18380679 0.06895884 -0.034888633 0.19694579 0.06679336
-0.07000432 0.02385145 0.24157482 0.056149524 0.22328998 0.03859352 -0.048904035 0.14076573
-0.049507096 0.18417285 -0.14548783 0.034766484 0.08760207 -0.060180455 -0.0902421 0.03036767
-0.19079164 0.1503074 0.13162377 -0.14852148 0.16002533 0.05912041 0.12741753 -0.14032501
-0.16588387 0.034669615 -0.32638866 -0.09134646 -0.21575344 -0.032737207 -0.117657825 -0.02427005
-0.2254149 -0.10465991 -0.06277967 -0.1372132 -0.044153187 -0.04578877 0.015856167 -0.05616053
-0.15173723 0.042451277 0.08319813 -0.115250595 -0.10238674 -0.024949351 -0.6680628 -0.05159067
-0.13007809 0.033221804 -0.17355819 -0.12710348 0.004514026 0.031777952 0.08190835 -0.15009293
-0.03919177 -0.026239239 0.110435225 -0.028636046 -0.026203675 -0.03266658 -0.08722843 0.19352329
0.22424996 -0.56371397 -0.008478249 0.13263564 0.2238399 0.05675802 0.088547684 0.043299597
-0.02609281 0.19754182 -0.1709805 0.27569577 -0.14902554 0.19403976 -0.019231543 -0.27688563
-0.0017190693 -0.110940725 0.12860808 0.035089783 -0.16455498 -0.31593728 0.022561578 0.21748097
-0.29597008 -0.2101935 -0.17064841 -0.006580901 -0.49865058 -0.36862242 -0.082471654 -0.116094664
0.011125498 -0.17701207 -0.049223404 -0.20305589 0.16158386 0.04456553 -0.13999791 0.30237907
00000000: a092 1abe 4d47 9dbe b780 98be df9c 86bf
00000010: ce72 d6be 2ccb c53a 9364 3abe eb1e 193e
00000020: 21dd 1fbe 3c24 a1be 344d 9a3d 4aba fe3d
00000030: 602f 07be a629 483c 398f 0dbf 38ae 5e3e
00000040: fd49 adbd 8057 c2bd be70 75be f3d5 e4bd
00000050: af1a b33e 30a7 133e 2fef 473e fd69 c6bb
00000060: 7b4e 363e 9517 fe3a 5a49 ebbc f215 98bd
00000070: f198 2d3e 77bf 61bd 949b 953d d46e 553d
00000080: d5d5 6fbd 4014 bf3d 58fa da3d 5df0 703e
00000090: 3f04 b5be 927d 4c3d b493 bb3c e8fc df3c
000000a0: d10f 833e 4094 d2bc dfe3 a1be 3058 333e
000000b0: fc9d 983d 96d6 563d 451d 3e3d 6217 cbbc
000000c0: ad40 293e 2583 393e 3eae 1fbf d304 01be
000000d0: 318e c8be ec66 39bf 551a bebd 9fe7 303d
000000e0: 6a5c f7be 431b 44be 59aa 983e 2ddb 35bd
000000f0: 8007 09be 0247 4cbd d0e0 06bd 1aeb 43bc
00000100: 9627 f8bd 344a 2ebd e362 47be 4589 0ebd
00000110: c95e 06bf dda9 a2bd 2378 a6bd c003 83be
00000120: bb80 ad3d 3942 d5be 2649 a03e 0692 803d
00000130: fa33 823c 6f6b e93c 3b2f d9bd ae74 80bd
00000140: 28c0 02bc 94d4 9b3d 8565 c4bd 6b26 ecbd
00000150: 142a d5bd d424 c2bc 2dab 64be e713 87bd
00000160: 7c4f eebd bfa7 30bd 090b f3bd fcfe e3be
00000170: dae7 82bd cf12 19be ac6b ffbd 03c7 8bbd
00000180: 3e34 84bd f583 62bd babb 1bbe 2cb4 43be
00000190: b356 9f3d aee2 f83d a965 adbc 6bbb c33d
000001a0: 8626 d6bd 56e8 1d3d de42 7cbe 0950 adbe
000001b0: decf e0bd fb74 3fbe 5e48 883d 03e1 42be
000001c0: 3f64 5abe 5ca7 793c 937f 28be c635 2dbe
000001d0: a5f6 863e 3f43 0f3e 91a3 46bd 69da 093e
000001e0: f85a bebd 659c 9ebd f9aa efbd f7a6 fabd
000001f0: 6b64 05be ac50 b73d 582b 2fbf eb98 ccbd
00000200: 1480 a5bd 0867 60be 9dde f93d 1888 ca3d
00000210: 9ea6 f4be 02c8 75bf 49a4 50bc d88f 1abb
00000220: ec69 16be 1143 1bbe fcee bc3c e253 343e
00000230: 642f 19bd b0db 783d a2f7 1abf bd8c dfbe
00000240: 04b3 3ebd 8c97 943d 1cc2 15bf d937 3cbe
00000250: 4b3a 8d3d 62e7 0ebd 28ac 493e f5ca 883d
00000260: 6d5e 8fbd 1e64 c33c 645f 773e 0bfd 653d
00000270: 21a6 643e 3d14 1e3d 994f 48bd e424 103e
00000280: f4c7 4abd cf97 3c3e c3fa 14be 4d67 0e3d
00000290: b768 b33d c87f 76bd dad0 b8bd 9fc5 f83c
000002a0: e25e 43be 2fea 193e 62c8 063e 0416 18be
000002b0: aedd 233e 3e28 723d be79 023e 5cb1 0fbe
000002c0: 76dd 29be ba01 0e3d 6a1c a7be da13 bbbd
000002d0: 78ee 5cbe 7317 06bd 96f6 f0bd fcd1 c6bc
000002e0: 2ad3 66be ef57 d6bd a192 80bd 9e81 0cbe
000002f0: f9d9 34bd 018d 3bbd cbe4 813c 9508 66bd
00000300: 0161 1bbe 64e1 2d3d c863 aa3d 8108 ecbd
00000310: 24b0 d1bd 9562 ccbc 2a06 2bbf bd50 53bd
00000320: 3133 05be 9613 083d 3db9 31be 6a27 02be
00000330: 65ea 933b 9929 023d 91bf a73d f6b1 19be
00000340: 8d87 20bd acf3 d6bc dd2b e23d 2496 eabc
00000350: 17a9 d6bc 64cd 05bd d2a4 b2bd f82a 463e
00000360: c8a1 653e 8f4f 10bf 5be8 0abc a3d1 073e
00000370: 4936 653e 197b 683d 7d58 b53d eb5a 313d
00000380: 97c0 d5bc 6748 4a3e 8315 2fbe ff27 8d3e
00000390: 279a 18be 5cb2 463e 788b 9dbc f4c3 8dbe
000003a0: 6552 e1ba e434 e3bd d6b1 033e 4eba 0f3d
000003b0: 1a81 28be 88c2 a1be 0fd3 b83c 55b3 5e3e
000003c0: 6489 97be f73c 57be 75be 2ebe 99a4 d7bb
000003d0: 214f ffbe 14bc bcbe e6e6 a8bd 0ac3 edbd
000003e0: b947 363c a742 35be 7b9e 49bd e2ed 4fbe
000003f0: 3d76 253e 588a 363d 9d5b 0fbe 6ed1 9a3e

convt2.bias f4 [16]
0.06463465 0.13807364 0.029598042 0.12367692 0.017103566 0.19176778 0.09140012 -0.0066720597
0.15261693 0.048070557 -0.053002577 -0.028711645 0.014416389 0.16342556 -0.0050274064 0.19858621
00000000: 2c5f 843d 2d63 0d3e 9877 f23c 534a fd3d
00000010: c71c 8c3c c65e 443e fc2f bb3d 4ba1 dabb
00000020: 9d47 1c3e a2e5 443d 3b19 59bd af34 ebbc
00000030: b832 6c3c 0859 273e f1bc a4bb 2f5a 4b3e

convt3.weight f4 [16, 32, 9, 9]
-0.77877444 -0.21845107 -0.08289309 -0.6770249 -0.040435232 -0.5886943 -0.5539645 -0.16064617
-0.27658585 -0.19271195 0.12105936 -0.35603505 -0.044362493 -0.31427348 0.06484834 0.0952453
0.05802693 -0.33535415 -0.25785217 -0.13450345 0.03107255 -0.12553638 -0.13459468 -0.0018751059
-0.031169925 0.04784412 0.090914406 -0.27728707 -0.09514197 -0.59284085 -0.35190177 -0.15699783
-0.050148495 -0.28214353 -0.22380616 -0.480379 -0.2624028 -0.021646246 -0.45327747 -0.35478267
-0.2353967 -0.04515257 -0.1746814 -0.18104874 -0.3929038 -0.14517485 -0.50434494 0.06565672
-0.24854964 -0.54082423 -0.11338516 -0.29251167 -0.4446518 -0.032959644 0.12039516 -0.44088167
0.16580871 -0.22100951 -0.83325833 -0.16589598 -0.1930305 0.07021696 -0.017949294 -0.13804229
-0.03663457 -0.48408392 -0.049979005 0.005752263 -0.010915591 -0.09025638 0.06201454 -0.45647115
0.053012148 -0.24261078 -0.21005155 0.026075747 -0.20511034 -0.044651378 -0.024224011 -0.31927425
-0.12255015 -0.34053966 -0.33827555 -0.3108241 -0.62601876 -0.7178678 -0.58684045 -0.43067572
-0.59810203 -0.6898602 -0.23857796 0.013139082 -0.06000825 -0.20944351 -0.24255075 0.008872009
-0.05711473 0.15439975 -0.072478935 -0.34596294 -0.053808887 -0.25793386 -0.27079475 -0.30336162
-0.51665604 -0.1579388 -0.49308726 -0.39057803 -0.22243388 -0.28864256 -0.11486372 -0.3265271
-0.42048368 -0.40445113 -0.1798391 -0.30564994 -0.43189415 -0.17376924 -0.44920996 0.098132804
-0.3012455 -0.47206244 -0.07145369 -0.2787182 -0.25377125 -0.07216231 -0.4087441 -0.12441252
-0.2340879 -0.48658043 0.032693863 -0.46543822 -0.29440668 -0.25719756 -0.45740134 -0.18594657
-0.14370105 -0.17170978 -0.28064194 -0.38366333 -0.40334392 -0.084669925 -0.2567379 -0.23435386
-0.23136306 -0.352145 -0.1453898 -0.50722325 -0.44152585 -0.16927892 -0.27359548 -0.31490308
-0.26720944 -0.2873967 -0.15138869 -0.13116871 -0.5016947 -0.3743006 -0.5030293 -0.3769398
-0.28741083 -0.50467443 -1.0507907 0.2032052 -0.6673298 -0.7811404 -0.48183143 -0.85059017
-0.477128 -0.24232133 -1.05781 -0.09777607 -0.1225307 -0.62164885 -0.028611396 -0.14708513
-0.060630918 -0.42122328 -0.057036903 -0.10590829 -0.33674783 -0.695507 -0.4671897 -0.3654259
-0.91545427 -0.41771787 -0.28937855 -0.74255186 -0.6728448 -0.32949388 0.13002893 -0.34467182
-0.2323171 -0.40892553 -0.5909573 -0.006134061 -0.32183114 -0.28243184 -0.35958645 -0.4292289
-0.26221105 -0.32156307 -0.48807618 0.035159037 -0.5269538 -0.17961475 -0.33997622 -0.052837156
-0.39319834 -0.21665415 -0.014525461 -0.41618207 -0.51329863 -0.03568463 -0.36842564 -0.29206234
-0.8510829 -0.25234285 -0.9412375 -0.66434294 -0.23870453 -0.7008297 -0.3187005 -0.23765434
-0.44500035 -0.4562683 -0.18703905 -0.085672356 0.029406898 -0.49893644 0.05198671 -1.0256736
0.0013841965 -0.8434268 -0.60031986 -0.8376214 -0.89337057 -0.58259547 -0.7317327 -0.67265
-0.24273704 -0.48026797 -0.42157704 -0.2857812 -0.07626755 -0.3451019 -0.12961717 -0.2970095
0.010769755 -0.2632797 0.11189092 -0.7740148 -0.14228903 0.06852079 -0.53922546 -0.33557805
00000000: c35d 47bf a3b1 5fbe dac3 a9bd 8151 2dbf
00000010: 6a9f 25bd abb4 16bf 9ed0 0dbf 6e80 24be
00000020: a99c 8dbe 4856 45be f8ed f73d 3a4a b6be
00000030: 72b5 35bd 74e8 a0be 35cf 843d f80f c33d
00000040: a5ad 6d3d 8ab3 abbe 3305 84be 46bb 09be
00000050: dc8b fe3c 9c8c 00be 30d3 09be 1dc6 f5ba
00000060: 1258 ffbc 32f8 433d 5531 ba3d 92f8 8dbe
00000070: cbd9 c2bd 6bc4 17bf 782c b4be 0ac4 20be
00000080: 8268 4dbd 1e75 90be 712d 65be 3cf4 f5be
00000090: a959 86be 7853 b1bc fc13 e8be 13a6 b5be
000000a0: d50b 71be e7f1 38bd aedf 32be d764 39be
000000b0: b02a c9be b7a8 14be c01c 01bf 0877 863d
000000c0: cc83 7ebe 7573 0abf 7b36 e8bd 17c4 95be
000000d0: 67a9 e3be b100 07bd bd91 f63d 3ebb e1be
000000e0: c2c9 293e 5150 62be 6b50 55bf a3e0 29be
000000f0: caa9 45be e9cd 8f3d 660a 93bc f55a 0dbe
00000100: 220e 16bd d9d9 f7be c9b6 4cbd 7b7d bc3b
00000110: 4fd7 32bc 56d8 b8bd f502 7e3d 96b6 e9be
00000120: 4423 593d f66e 78be c117 57be ce9c d53c
00000130: 7208 52be 5de4 36bd 6f71 c6bc ea77 a3be
00000140: 93fb fabd 375b aebe 7432 adbe 5624 9fbe
00000150: c442 20bf 2fc6 37bf 2d3b 16bf 8781 dcbe
00000160: 371d 19bf ae9a 30bf c84d 74be 4e45 573c
00000170: 36cb 75bd 5c78 56be 395f 78be e75b 113c
00000180: 23f1 69bd f81a 1e3e d66f 94bd 0e22 b1be
00000190: b566 5cbd e80f 84be 9ca5 8abe 3752 9bbe
000001a0: 9243 04bf b5ba 21be ef75 fcbe d8f9 c7be
000001b0: b5c5 63be f5c8 93be ac3d ebbd 8f2e a7be
000001c0: a349 d7be 3814 cfbe be27 38be 267e 9cbe
000001d0: 3b21 ddbe 90f0 31be d9fe e5be daf9 c83d
000001e0: da3c 9abe 2bb2 f1be 5056 92bd 27b4 8ebe
000001f0: 4eee 81be d5c9 93bd e846 d1be fecb febd
00000200: bdb4 6fbe 1221 f9be 00ea 053d eb4d eebe
00000210: 79bc 96be 66af 83be 8230 eabe c768 3ebe
00000220: 5e26 13be b0d4 2fbe 4db0 8fbe 856f c4be
00000230: 1883 cebe 6d67 adbd 2673 83be 75fa 6fbe
00000240: 70ea 6cbe 594c b4be 10e1 14be 62d9 01bf
00000250: ad0f e2be 7457 2dbe b514 8cbe fa3a a1be
00000260: adcf 88be a925 93be a305 1bbe 1751 06be
00000270: 106f 00bf 54a4 bfbe 87c6 00bf 41fe c0be
00000280: 8327 93be 5832 01bf 4f80 86bf 0615 503e
00000290: 20d6 2abf d1f8 47bf 9cb2 f6be 47c0 59bf
000002a0: 1f4a f4be 1523 78be 5166 87bf d23e c8bd
000002b0: 60f1 fabd 6124 1fbf 7262 eabc 7c9d 16be
000002c0: 2058 78bd 94aa d7be 879f 69bd 72e6 d8bd
000002d0: 366a acbe bf0c 32bf 7d33 efbe 1b19 bbbe
000002e0: 365b 6abf 1edf d5be 6d29 94be e117 3ebf
000002f0: 8f3f 2cbf 6cb3 a8be 4e26 053e d378 b0be
00000300: 89e4 6dbe b05e d1be fa48 17bf 3c00 c9bb
00000310: 0dc7 a4be e89a 90be b71b b8be e4c3 dbbe
00000320: 8740 86be eaa3 a4be 1fe5 f9be ec02 103d
00000330: 72e6 06bf eeec 37be 5d11 aebe c66b 58bd
00000340: 4b51 c9be 96da 5dbe 33fc 6dbc d115 d5be
00000350: 8a67 03bf 0c2a 12bd 49a2 bcbe 3289 95be
00000360: 92e0 59bf 1533 81be f1f4 70bf 6112 2abf
00000370: f66e 74be 9369 33bf b62c a3be a95b 73be
00000380: 16d7 e3be 009c e9be 2a87 3fbe fd74 afbd
00000390: bce6 f03c 9974 ffbe 04f0 543d 4649 83bf
000003a0: ed6d b53a d2ea 57bf 90ae 19bf 5b6e 56bf
000003b0: efb3 64bf fa24 15bf d652 3bbf ca32 2cbf
000003c0: 0f90 78be afe5 f5be f2d8 d7be ea51 92be
000003d0: 2932 9cbd 32b1 b0be 5dba 04be a111 98be
000003e0: a073 303c 99cc 86be 1127 e53d d525 46bf
000003f0: 37b4 11be a154 8c3d ae0a 0abf e3d0 abbe

convt3.bias f4 [32]
0.15523262 0.13888474 0.16898684 0.1791237 0.11733215 0.04087913 -0.34456137 0.055762686
0.09973106 0.07940656 0.053009078 0.17931959 0.23806259 -0.21505588 0.21476358 0.1289169
0.18039957 0.01475553 0.13873322 0.06344852 0.18574037 0.111376636 0.13126814 0.18969898
0.115366235 0.08368033 0.08807008 0.07392993 0.1030433 0.106818505 -0.3296607 0.13604808
00000000: 4df5 1e3e cd37 0e3e e30a 2d3e 346c 373e
00000010: d74b f03d e070 273d 596a b0be 6a67 643d
00000020: cc3f cc3d e89f a23d 0c20 593d 8e9f 373e
00000030: aec6 733e 9c37 5cbe fcea 5b3e cb02 043e
00000040: aaba 383e 2ec1 713c 1510 0e3e 4cf1 813d
00000050: b932 3e3e 6f19 e43d 286b 063e 7340 423e
00000060: 2245 ec3d 9860 ab3d 165e b43d 9368 973d
00000070: 5e08 d33d a9c3 da3d 4ac9 a8be 3050 0b3e

pos_output.weight f4 [1, 32, 2, 2]
0.12760632 0.10545916 0.15400606 0.21692178 0.16081487 0.15721723 0.20301789 0.17978404
0.018949555 0.013903601 0.049834285 0.012798325 0.20044774 0.13588522 0.11797588 0.15979666
0.054548904 0.08845332 0.09330015 0.17776129 0.03716184 -0.2361527 0.088817045 -0.18918131
-0.1712607 -0.20911652 -0.2870451 -0.263316 -0.11412179 0.1302687 0.02294172 0.39995414
0.2938585 0.2707562 0.22934921 0.18342845 -0.07605257 0.114829175 -0.011304135 0.10894118
0.2569071 0.26570076 0.30680123 0.25327525 0.35238916 0.354347 0.33178285 0.2594146
-0.08497058 -0.024934974 0.11073608 0.020838017 -0.27531508 -0.23555909 -0.22757973 -0.19309439
-0.05928548 -0.032179996 0.1664895 -0.14593363 0.017996082 -0.23734006 0.2248307 -0.012928383
0.011105795 -0.009657395 0.07200361 0.05451413 -0.19581103 -0.17838596 -0.202269 -0.1451077
0.09822621 0.12968904 0.08066605 0.09176376 0.26261133 0.15757632 0.23497772 0.21334681
-0.18214157 -0.04475677 0.09507591 0.026140505 -0.21162705 -0.1842943 -0.19398396 -0.17864189
-0.118424214 0.023048837 0.052038565 -0.0500729 0.09810495 0.15097857 -0.11376019 0.08420149
-0.0039153434 -0.010579524 -0.00248763 -0.06520553 -0.039505325 0.03923145 -0.22600678 -0.12405497
0.12345125 0.11943318 0.12379152 0.060318228 -0.13235328 -0.141261 -0.17104356 -0.16663718
0.342691 0.32519373 0.2345534 0.2580774 0.11929424 0.07495062 0.03174567 0.026786402
0.013298245 0.013632693 0.008369178 -0.005621537 0.10058834 0.10889222 0.15164463 0.1645394
00000000: 3bab 023e f9fa d73d c4b3 1d3e be20 5e3e
00000010: a7ac 243e 8efd 203e ece3 4f3e 4f19 383e
00000020: 193c 9b3c eecb 633c 091f 4c3d 11b0 513c
00000030: 2c42 4d3e 7f25 0b3e 579d f13d bca1 233e
00000040: ac6e 5f3d 0427 b53d 2614 bf3d 0e07 363e
00000050: 0337 183d 03d2 71be b6e5 b53d bfb8 41be
00000060: f75e 2fbe a422 56be 93f7 92be 5bd1 86be
00000070: afb8 e9bd 2865 053e 46f0 bb3c cac6 cc3e
00000080: 9f74 963e 8fa0 8a3e 85da 6a3e abd4 3b3e
00000090: 73c1 9bbd 8f2b eb3d fb34 39bc 8e1c df3d
000000a0: 5489 833e ee09 883e 0d15 9d3e 4bad 813e
000000b0: 5a6c b43e f86c b53e 71df a93e fed1 843e
000000c0: 0e05 aebd 6e44 ccbc 99c9 e23d 7db4 aa3c
000000d0: 19f6 8cbe 6736 71be a90a 69be 89ba 45be
000000e0: 55d5 72bd 2ccf 03bd 397c 2a3e a06f 15be
000000f0: 856c 933c 4609 73be 053a 663e 92d1 53bc
00000100: 15f5 353c 0d3a 1ebc a176 933d 354a 5f3d
00000110: b082 48be cfaa 36be 9b1f 4fbe 1d97 14be
00000120: d32a c93d 34cd 043e 3e34 a53d a3ee bb3d
00000130: fe74 863e b05b 213e 009e 703e 9677 5a3e
00000140: 5283 3abe e052 37bd 29b7 c23d 9d24 d63c
00000150: c3b4 58be a5b7 3cbe bba3 46be e6ed 36be
00000160: 6588 f2bd ead0 bc3c 6426 553d 3e19 4dbd
00000170: 3feb c83d 209a 1a3e 1afb e8bd d571 ac3d
00000180: 484c 80bb bd55 2dbc 8107 23bb 7a8a 85bd
00000190: 56d0 21bd 28b1 203d 526e 67be 8810 febd
000001a0: 02d4 fc3d 6299 f43d 6986 fd3d 3f10 773d
000001b0: 9e87 07be b9a6 10be 0b26 2fbe f0a2 2abe
000001c0: 3275 af3e cb7f a63e c42e 703e b922 843e
000001d0: 8a50 f43d b67f 993d bf07 023d 286f db3c
000001e0: e2e0 593c a95b 5f3c e01e 093c df34 b8bb
000001f0: 4201 ce3d e202 df3d bb48 1b3e 047d 283e

cos_output.weight f4 [1, 32, 2, 2]
-0.3674169 -0.3009267 -0.42909256 -0.47558686 -0.14730725 -0.14039235 -0.21324334 -0.1903713
-0.2026601 -0.23583367 -0.30415392 -0.18605931 -0.5010166 -0.4178452 -0.40521047 -0.47792313
0.15271251 0.09523669 0.14124627 0.0644263 -0.28440902 -0.03208389 0.01662451 0.24911746
0.09415663 0.15696965 0.19025211 0.16990024 0.19426267 -0.0118975695 0.12591666 -0.08617717
-0.4375418 -0.43516213 -0.31204867 -0.2793859 0.20821692 -0.086724706 0.09614994 -0.16409683
-0.11551699 -0.057544887 -0.16605607 -0.09114724 -0.23509215 -0.28870335 -0.18358372 -0.12250366
0.2424431 0.11742587 0.20883206 0.27502084 0.272034 0.24967968 0.24976899 0.22685044
0.15679199 0.13404192 0.14587799 0.1413526 0.035113968 0.19621983 -0.24171762 -0.03563861
-0.30435243 -0.27043715 -0.3148358 -0.34611315 0.15885314 0.1884526 0.18664286 0.13403714
-0.28183368 -0.3613497 -0.2728467 -0.34518087 -0.08620105 -0.09886917 -0.08695434 -0.07074604
0.0702049 0.20529892 0.20563708 0.02933904 0.33173835 0.32292414 0.2896989 0.2826123
0.04139849 0.04788908 0.11097977 0.11359013 0.006312519 0.19067156 0.11940922 0.24497709
-0.15336338 -0.06591713 -0.047664445 0.15208775 -0.15707926 -0.17457727 0.12272833 0.12172704
-0.26754388 -0.24755955 -0.20705047 -0.21075042 0.064246505 0.08013884 0.105382115 0.09975151
-0.055088162 -0.10859971 -0.05432519 -0.10933218 -0.07833995 -0.09086386 0.072781615 0.08197061
-0.08553103 -0.15362813 -0.15505809 -0.08394928 -0.13500144 -0.12998526 -0.25467885 -0.24187435
00000000: 111e bcbe 1013 9abe 05b2 dbbe 1f80 f3be
00000010: b6d7 16be 03c3 0fbe 765c 5abe b2f0 42be
00000020: 2186 4fbe 627e 71be 10ba 9bbe 5586 3ebe
00000030: a042 00bf ceef d5be bf77 cfbe 57b2 f4be
00000040: ab60 1c3e 740b c33d dda2 103e f0f1 833d
00000050: 0f9e 91be 666a 03bd 2030 883c a618 7f3e
00000060: 31d5 c03d a7bc 203e 73d1 423e 54fa 2d3e
00000070: cbec 463e 06ee 42bc 4cf0 003e a87d b0bd
00000080: 7b05 e0be 92cd debe d8c4 9fbe ab0b 8fbe
00000090: d136 553e b99c b1bd 42ea c43d 0009 28be
000000a0: 2c94 ecbd 30b4 6bbd 9a0a 2abe 67ab babd
000000b0: ffbb 70be edd0 93be 5ffd 3bbe 33e3 fabd
000000c0: 0143 783e f97c f03d 12d8 553e 88cf 8c3e
000000d0: 0a48 8b3e 08ac 7f3e 71c3 7f3e 7b4b 683e
000000e0: 148e 203e 4942 093e 0a61 153e bcbe 103e
000000f0: aad3 0f3d daed 483e d384 77be cbf9 11bd
00000100: 15d4 9bbe bd76 8abe 2832 a1be be35 b1be
00000110: 66aa 223e b8f9 403e 4e1f 3f3e 0841 093e
00000120: 814c 90be d402 b9be 90b2 8bbe 8cbb b0be
00000130: 2d8a b0bd eb7b cabd 1e15 b2bd 4de3 90bd
00000140: 96c7 8f3d e139 523e 8792 523e 6d58 f03c
00000150: 9cd9 a93e 5056 a53e 6a53 943e 8fb2 903e
00000160: 7791 293d 5727 443d 5d49 e33d f1a1 e83d
00000170: 3fd9 ce3b 683f 433e d28c f43d 46db 7a3e
00000180: 4a0b 1dbe 8fff 86bd cb3b 43bd e4bc 1b3e
00000190: 63d9 20be 62c4 32be fe58 fb3d 074c f93d
000001a0: 83fb 88be 4080 7dbe 0a05 54be f5ce 57be
000001b0: ac93 833d d51f a43d 94d2 d73d 854a cc3d
000001c0: 20a4 61bd 8669 debd 1784 5ebd 8de9 dfbd
000001d0: b270 a0bd d516 babd 870e 953d 35e0 a73d
000001e0: e52a afbd b150 1dbe 8cc7 1ebe 9aed abbd
000001f0: d13d 0abe db1a 05be 4465 82be e9ad 77be

sin_output.weight f4 [1, 32, 2, 2]
0.08230459 0.090953216 0.113221176 0.13112305 0.43688685 0.45869 0.46853432 0.48298955
-0.31384766 -0.40442616 -0.416807 -0.30044767 0.055819035 0.04996206 0.030437117 0.0375882
-0.041247904 -0.097196095 -0.08917704 -0.1405939 -0.010101659 0.07684987 -0.09202248 -0.042746857
0.031894766 0.062724404 0.049872696 0.05624797 0.02479166 -0.025873972 0.03874216 -0.06315482
0.028672343 -0.022240533 0.04427917 -0.020154756 -0.050547633 0.12367242 0.07373538 0.012830472
0.05307505 0.03731488 0.038066935 0.08060726 -0.04479626 -0.024824291 -0.019538416 -0.043873742
0.04457353 -0.13066259 -0.04633193 0.20359713 -0.016860364 -0.048737437 -0.020517057 -0.05661094
0.038702562 -0.0924945 -0.067426674 -0.03621672 -0.023189658 0.013053154 0.0038039847 0.0014999529
-0.02344266 -0.019772839 0.012324438 -0.020782575 0.025405752 -0.00016387361 0.017355504 0.04371702
0.093961135 0.12599684 0.14404714 0.09598686 -0.2167089 -0.16449387 -0.184679 -0.20449147
0.011501831 0.1908055 0.0049877586 -0.07646981 -0.05173666 -0.038232267 -0.063150115 -0.026071908
-0.11662389 -0.06910493 0.10408558 -0.059435345 -0.010430872 -0.088435605 0.08404925 0.025965083
0.22165026 0.09437619 0.30113232 0.010390236 0.045439 0.057872582 -0.0023370148 0.01253501
-0.037429262 -0.050880328 -0.027290152 -0.037232216 0.01355039 0.0025805559 -0.0043845726 0.002319654
-0.18925726 -0.21087025 -0.13588846 -0.17654774 0.26129913 0.27278367 0.23634104 0.20317218
-0.0023677507 -0.011515458 -0.009750654 -0.004818689 -0.0105549535 -0.017564295 -0.012344571 0.00013268934
00000000: 4f8f a83d ae45 ba3d 81e0 e73d 1f45 063e
00000010: a2af df3e 6ad9 ea3e bbe3 ef3e 684a f73e
00000020: a4b0 a0be f210 cfbe ba67 d5be 47d4 99be
00000030: 80a2 643d 04a5 4c3d 4357 f93c 16f6 193d
00000040: 90f3 28bd bf0e c7bd 74a2 b6bd d9f7 0fbe
00000050: 6e81 25bc 7763 9d3d 4876 bcbd 5417 2fbd
00000060: 16a4 023d a775 803d 5047 4c3d 4564 663d
00000070: e117 cb3c a7f5 d3bc 19b0 1e3d 5057 81bd
00000080: 43e2 ea3c c731 b6bc 135e 353d 961b a5bc
00000090: 090b 4fbd f747 fd3d 9302 973d e636 523c
000000a0: 3965 593d 7dd7 183d 13ec 1b3d 6b15 a53d
000000b0: 487c 37bd 505c cbbc 070f a0bc f4b4 33bd
000000c0: bc92 363d 6acc 05be 8dc6 3dbd c47b 503e
000000d0: bf1e 8abc e8a0 47bd 6313 a8bc dfe0 67bd
000000e0: 9486 1e3d c26d bdbd ff16 8abd fc57 14bd
000000f0: 3df8 bdbc e5dc 553c 464c 793b 119a c43a
00000100: d20a c0bc a6fa a1bc 71ec 493c 3840 aabc
00000110: b91f d03c 7dd5 2bb9 212d 8e3c 9e10 333d
00000120: b26e c03d 5105 013e 1881 133e c294 c43d
00000130: f0e8 5dbe 1571 28be 7e1c 3dbe 3666 51be
00000140: 2d72 3c3c 8462 433e 5a70 a33b 349c 9cbd
00000150: d2e9 53bd 7099 1cbd d954 81bd c194 d5bc
00000160: 82d8 eebd e386 8dbd d22a d53d 7a72 73bd
00000170: 40e6 2abc ba1d b5bd 0322 ac3d bab4 d43c
00000180: 49f8 623e 4e48 c13d 042e 9a3e cf3b 2a3c
00000190: 3f1e 3a3d cd0b 6d3d 9a28 19bb a55f 4d3c
000001a0: 6d4f 19bd e467 50bd 998f dfbc cf80 18bd
000001b0: 7402 5e3c 8b1e 293b 76ac 8fbb 5605 183b
000001c0: a8cc 41be 5fee 57be 5826 0bbe eec8 34be
000001d0: 00c9 853e 4daa 8b3e 6303 723e 5e0c 503e
000001e0: 442c 1bbb 55ab 3cbc 35c1 1fbc 18e6 9dbb
000001f0: afee 2cbc ffe2 8fbc e240 4abc 8622 0b39
