ggcnn_base/output/models/221204_2000_training_example/epoch_43_iou_0.69_statedict.pt (torch, 256417 bytes, 16 tensors)

conv1.weight f4 [32, 1, 9, 9]
-0.065004855 -0.123550825 -0.06739811 -0.13329495 -0.1448734 -0.08128928 -0.111025415 -0.15166877
-0.14069088 -0.09508565 -0.08073371 -0.081090495 -0.13979489 -0.094165824 -0.13639884 -0.12348168
-0.10682432 -0.0493021 -0.062197164 -0.0983077 -0.06398804 -0.0938109 -0.12512998 -0.11767636
-0.08330636 -0.114093564 -0.123694554 -0.07677791 -0.09817666 -0.064926505 -0.07672639 -0.102132484
-0.0325292 -0.05180512 -0.12516351 -0.055355962 -0.17609295 -0.17574438 -0.18820046 -0.18054505
-0.21031791 -0.16502313 -0.14412238 -0.14311197 -0.2342698 -0.19191766 -0.16852647 -0.23002157
-0.26881894 -0.18919589 -0.26358825 -0.27131554 -0.24236116 -0.22045657 0.1598682 0.19804084
0.22792438 0.18641804 0.25270042 0.21862018 0.19737528 0.12583469 0.109560646 0.3234208
0.27846336 0.32510027 0.31878525 0.33909371 0.3448108 0.24291036 0.26387194 0.21324266
0.36630738 0.36364853 0.41460085 0.40530518 0.36588997 0.37753168 0.43925208 0.37290108
0.34147018 -0.042284977 -0.03140463 0.037116572 0.15247567 0.18496777 0.16042694 0.25831017
0.36524433 0.56653935 -0.20609806 -0.1549116 -0.09039112 -0.03912745 0.0044569448 0.07218679
0.12796696 0.23132123 0.3760161 -0.30639315 -0.22428147 -0.14300759 -0.13227242 -0.07722448
-0.047281113 -0.03244812 0.054849744 0.24898812 -0.1286235 -0.06904854 -0.017215963 0.07856499
0.06264065 0.07075016 0.08875463 0.22088763 0.34791595 -0.18458064 -0.09647171 -0.0811098
-0.016819224 -0.031470045 0.01489925 0.11029987 0.15449461 0.23476377 -0.2513661 -0.18210973
-0.107775405 -0.059504185 -0.04956096 -0.0011308045 0.09038296 0.15564194 0.2620294 -0.25688604
-0.23022044 -0.21423638 -0.13065936 -0.08805569 -0.013247848 -0.03312741 0.09725743 0.2504683
-0.3050751 -0.2377759 -0.23111376 -0.07400323 -0.12972942 -0.047210347 0.0018075032 0.10505933
0.2489031 -0.25971857 -0.25349033 -0.17191903 -0.07112443 -0.042409774 -0.0039897147 0.09300457
0.16587882 0.35868984 -0.006058949 -0.0048685153 -0.014995357 -0.011643126 0.004364938 0.009700709
0.017804895 0.046436347 0.039991777 -0.03289461 -0.043016076 0.0024575496 0.005217617 -0.041281514
0.029886318 0.027701981 -0.026323969 0.037704553 0.017443819 0.017784087 -0.03197749 0.02466746
-0.015039885 -0.040852536 -0.0067322343 0.0402595 -0.024621643 -0.031387337 0.0022489391 -0.01826125
-0.02312994 0.04063381 0.010819116 0.009680941 -0.0011624205 0.04095902 0.03659557 -0.031456415
-0.0071762037 0.040814884 0.017577494 -0.008798967 -0.031766333 -0.017197063 -0.001501565 -0.036969513
-0.0135771325 -0.018503342 0.00827443 -0.047154374 0.0040371683 -0.009968441 -0.016580805 0.0062051956
-0.019686207 0.012574909 0.0023521937 0.026126672 0.026510943 -0.017780693 -0.014102895 -0.04027468
0.0027886005 0.009654966 -0.014458396 -0.043362197 -0.003687372 -0.015015515 0.017628731 0.0009648743
-0.02580608 -0.041156825 0.00701185 0.036788624 0.040631805 -0.005702138 -0.04001524 0.02615216
-0.012577258 -0.020553559 -0.032676876 -0.6681755 -0.19896765 0.17127055 -0.48278016 -0.29813203
-0.28155482 -0.23819317 -0.32396775 -0.6926095 -0.23649475 0.19911979 0.47128686 -0.05769198
00000000: 4421 85bd 3708 fdbd 0508 8abd 797e 08be
00000010: b159 14be fe7a a6bd 4b61 e3bd 0f4f 1bbe
00000020: 4511 10be 44bc c2bd b757 a5bd c612 a6bd
00000030: 6426 0fbe 03da c0bd 23ac 0bbe f7e3 fcbd
00000040: b6c6 dabd 00f1 49bd 74c2 7ebd 8c55 c9bd
00000050: 290c 83bd ee1f c0bd 1322 00be 4e00 f1bd
00000060: 869c aabd e3a9 e9bd 9253 fdbd bd3d 9dbd
00000070: d810 c9bd 30f8 84bd ba22 9dbd d62a d1bd
00000080: 573d 05bd 9b31 54bd dd2a 00be efbc 62bd
00000090: b651 34be 56f6 33be 9fb7 40be cde0 38be
000000a0: 945d 57be d3fb 28be d194 13be f28b 12be
000000b0: 6ce4 6fbe 1086 44be 3492 2cbe c68a 6bbe
000000c0: a3a2 89be 91bc 41be 0af5 86be dfe9 8abe
000000d0: 862d 78be 5ebf 61be 7db4 233e 38cb 4a3e
000000e0: 0265 693e 5fe4 3e3e f361 813e f8dd 5f3e
000000f0: bf1c 4a3e cfda 003e 5561 e03d 6997 a53e
00000100: c092 8e3e 8b73 a63e d237 a33e b19d ad3e
00000110: 0b8b b03e 7ebd 783e 391a 873e 495c 5a3e
00000120: a48c bb3e 2430 ba3e 9046 d43e 2984 cf3e
00000130: ee55 bb3e d54b c13e a6e5 e03e e4ec be3e
00000140: 2ed5 ae3e 0333 2dbd 24a2 00bd 8c07 183d
00000150: 9522 1c3e 3168 3d3e f646 243e 3b41 843e
00000160: 4e01 bb3e b908 113f 5f0b 53be 25a1 1ebe
00000170: fb1e b9bd 1b44 20bd 900b 923b abd6 933d
00000180: c509 033e 79df 6c3e 2f85 c03e 90df 9cbe
00000190: 0baa 65be 9570 12be 6c72 07be de27 9ebd
000001a0: d7a9 41bd 52e8 04bd 20aa 603d bef6 7e3e
000001b0: e1b5 03be 5269 8dbd 7e08 8dbc aee6 a03d
000001c0: be49 803d 76e5 903d fdc4 b53d 5e30 623e
000001d0: 0a22 b23e b502 3dbe f692 c5bd e51c a6bd
000001e0: 78c8 89bc bce6 00bd fc1b 743c e6e4 e13d
000001f0: d633 1e3e ea65 703e 0fb3 80be f97a 3abe
00000200: 5ab9 dcbd a9ba 73bd 6f00 4bbd 8137 94ba
00000210: b41a b93d 9a60 1f3e b828 863e 9186 83be
00000220: e8be 6bbe c860 5bbe 91cb 05be 8b56 b4bd
00000230: 800d 59bc 9bb0 07bd e72e c73d 623d 803e
00000240: ce32 9cbe 877b 73be 16a9 6cbe 018f 97bd
00000250: cad7 04be a35f 41bd bee9 ec3a 5929 d73d
00000260: 74e0 7e3e d5f9 84be 7cc9 81be 8b0b 30be
00000270: afa9 91bd dfb5 2dbd 27bc 82bb 2e79 be3d
00000280: 23dc 293e 32a6 b73e 268a c6bb 1188 9fbb
00000290: 16af 75bc cfc2 3ebc c107 8f3b b9ef 1e3c
000002a0: 92db 913c 0a34 3e3d 6bce 233d 80bc 06bd
000002b0: a031 30bd d70e 213b 8bf8 aa3b ce16 29bd
000002c0: 27d4 f43c 44ef e23c 5da5 d7bc 1770 1a3d
000002d0: 57e6 8e3c efaf 913c d4fa 02bd 6a13 ca3c
000002e0: da69 76bc fd54 27bd 139a dcbb 25e7 243d
000002f0: 54b3 c9bc 0290 00bd f062 133b 9e98 95bc
00000300: 007b bdbc a36f 263d a942 313c cf9c 1e3c
00000310: 5c5c 98ba a5c4 273d 3de5 153d 71d8 00bd
00000320: 5c26 ebbb 822d 273d adfe 8f3c 8b29 10bc
00000330: 6a1d 02bd dbe0 8cbc 29d0 c4ba 586d 17bd
00000340: 9f72 5ebc 5294 97bc 7a91 073c f224 41bd
00000350: 394a 843b ac52 23bc 78d4 87bc f454 cb3b
00000360: f844 a1bc fe06 4e3c 4327 1a3b 9a07 d63c
00000370: 7a2d d93c d1a8 91bc d40f 67bc 10f7 24bd
00000380: f4c0 363b dd2f 1e3c e8e2 6cbc 8f9c 31bd
00000390: d6a7 71bb a203 76bc 216a 903c 9eef 7c3a
000003a0: 4667 d3bc 0f94 28bd a9c3 e53b abaf 163d
000003b0: 896d 263d 00d9 babb 05e7 23bd 0e3d d63c
000003c0: d810 4ebc f05f a8bc 30d8 05bd 8d0d 2bbf
000003d0: 2dbe 4bbe 8c61 2f3e f62e f7be c3a4 98be
000003e0: f427 90be e9e8 73be 1adf a5be db4e 31bf
000003f0: ae2b 72be 0fe6 4b3e 834c f13e 6d4e 6cbd

conv1.bias f4 [32]
-0.12836917 0.10136092 -0.10833739 -0.014514216 0.098518096 0.09164948 -0.05562712 0.11053695
-0.28787977 -0.06528924 0.29007882 -0.110313915 -0.26526657 -0.09663355 -0.017532472 -0.008229786
0.016411701 -0.08355622 -0.27230167 -0.15043058 -0.16162886 0.20295502 -0.019638866 -0.10031635
-0.31865692 -0.105284266 -0.10400279 -0.010836441 -0.1123222 -0.09730271 0.049241487 -0.22449663
00000000: 3573 03be 5096 cf3d fedf ddbd 09cd 6dbc
00000010: dbc3 c93d b9b2 bb3d 43d9 63bd 3261 e23d
00000020: fa64 93be 5db6 85bd 3685 943e 43ec e1bd
00000030: 05d1 87be d0e7 c5bd 42a0 8fbc 39d6 06bc
00000040: d571 863c 861f abbd 206b 8bbe 790a 1abe
00000050: 0982 25be 71d3 4f3e b0e1 a0bc a972 cdbd
00000060: 0027 a3be 479f d7bd 6aff d4bd 548b 31bc
00000070: 2e09 e6bd a546 c7bd 71b1 493d 72e2 65be

conv2.weight f4 [16, 32, 5, 5]
0.025883138 -0.07474458 -0.12026773 -0.12093577 -0.087786175 0.09145293 0.014516379 0.05895775
0.07392865 0.07775496 -0.038465653 -0.082583815 -0.13056403 -0.025235977 -0.054916784 0.037818447
0.10063678 0.09726902 -0.10368814 -0.11458489 -0.19633575 -0.09777246 0.037383493 0.017868543
-0.00056469016 -0.19930524 -0.040752247 0.041745603 -0.1316863 -0.052772984 -0.13105883 -0.020650765
0.046227194 -0.22444257 -0.1101782 -0.0018486808 0.14180647 0.06909946 -0.15970138 -0.16425875
-0.010306572 0.13284205 0.060605656 -0.075179905 -0.100215055 0.028051859 0.18606535 0.1689564
0.031664025 0.017129658 0.01759529 0.06582231 0.04552106 0.010144772 -0.02199478 -0.03383777
-0.037128586 0.009229174 0.063929014 -0.03403376 0.023103159 -0.00030999008 0.017788516 -0.036697734
0.015609735 0.029150642 0.019546486 -0.030971369 0.02304878 -0.012200156 0.024168167 -0.010469657
0.00042535443 0.04551597 0.052953422 -0.077687584 0.022296388 -0.011137004 -0.060845036 -0.022091547
-0.030790204 -0.028914224 -0.07235678 0.023590049 0.0942224 -0.061888788 -0.029110475 -0.007420316
-0.021594986 0.02046566 0.066597894 0.058846723 0.018098924 0.015478754 0.10269848 0.016119719
0.09702959 0.06717698 0.12016631 0.116852514 0.24723756 0.071722515 0.0022160774 -0.052698433
-0.048418723 0.15724811 -0.009093234 -0.15761527 -0.16605009 -0.1694599 0.13770643 -0.016170498
-0.079754926 -0.1021087 -0.111468926 0.066573665 0.081023015 -0.06687017 -0.112200804 -0.12316125
-0.037733156 0.059090715 0.02586171 0.07012803 -0.052935716 -0.04897988 -0.036420442 0.08076847
-0.008832949 -0.053844247 0.008928016 -0.044600774 0.14780411 0.19320895 0.2271346 -0.15043885
-0.0189339 0.02233657 0.09401504 0.18361352 -0.14488868 -0.1481744 -0.10406906 -0.032677744
0.12659043 -0.03268806 -0.032347444 -0.13532256 0.03136767 0.09753831 0.028581118 0.038596157
-0.08881441 0.06775285 -0.001007639 -0.079267524 0.022310426 -0.06840333 0.025678 0.025248654
0.0660999 -0.06226859 -0.015630655 0.041214716 0.10882802 0.015020461 0.01859535 0.016188713
0.054990117 0.03725183 0.021482745 -0.018120332 0.06987906 0.065314904 0.046259705 -0.08590971
-0.05615305 -0.016660681 -0.044031136 0.002394813 -0.08712712 -0.05307434 0.022968626 -0.023182666
0.059843473 -0.09211865 -0.040892564 0.048455395 0.03426848 0.06578596 -0.011185543 -0.056183003
0.022946676 -0.0026575522 -0.006070274 0.0714162 -0.0049119373 -0.05096992 0.037715446 0.15556914
-0.2310458 0.15151422 -0.07037912 -0.20820159 0.2781245 -0.041080803 0.18226294 0.22319211
0.041306034 0.64600295 -0.15357059 0.09510266 0.4822926 0.15221946 0.6389878 -0.17271167
-0.023493683 0.50565696 0.02355737 0.36422232 -0.06734477 -0.022697078 0.5466555 0.026545698
0.33467197 -0.37644726 -0.20732778 0.0868459 0.014067141 0.39385465 -0.15738265 -0.15186971
0.03967011 -0.07388611 0.048332382 -0.051733106 -0.047041837 0.04035683 -0.19913688 0.08235861
0.19657552 0.16143486 -0.010319584 -0.38091135 -0.08557101 0.1689105 0.15592097 0.12111218
-0.4186617 0.008960869 0.3687066 0.25604668 0.14717054 0.0021918959 0.073617615 0.20995198
00000000: e008 d43c b013 99bd ed4e f6bd 2cad f7bd
00000010: 3dc9 b3bd ac4b bb3d 1bd6 6d3c af7d 713d
00000020: e767 973d fe3d 9f3d 298e 1dbd b421 a9bd
00000030: 94b2 05be aebb cebc 6cf0 60bd 84e7 1a3d
00000040: a81a ce3d fb34 c73d 735a d4bd 7cab eabd
00000050: 3d0c 49be ed3c c8bd 6f1f 193d 0d61 923c
00000060: b707 14ba ac16 4cbe d4eb 26bd 70fd 2a3d
00000070: c6d8 06be 7c28 58bd 4934 06be cb2b a9bc
00000080: ba58 3d3d 46d4 65be 1ca5 e1bd 6f4f f2ba
00000090: b735 113e 0584 8d3d c288 23be 7233 28be
000000a0: e5dc 28bc bf07 083e a33d 783d ecf7 99bd
000000b0: 8d3d cdbd 03cd e53c ea87 3e3e e802 2d3e
000000c0: 23b2 013d 7f53 8c3c ff23 903c d9cd 863d
000000d0: 4a74 3a3d 4236 263c 662e b4bc 7999 0abd
000000e0: 2514 18bd f635 173c 37ed 823d fc66 0bbd
000000f0: d642 bd3c 2a86 a2b9 39b9 913c 5d50 16bd
00000100: f9bf 7f3c 54cd ee3c f41f a03c abb7 fdbc
00000110: ccd0 bc3c 2ae3 47bc 52fc c53c ed88 2bbc
00000120: 1b02 df39 f46e 3a3d b0e5 583d ab1a 9fbd
00000130: eaa6 b63c fb77 36bc a538 79bd 55f9 b4bc
00000140: bd3b fcbc 86dd ecbc cb2f 94bd eb3f c13c
00000150: acf7 c03d 197f 7dbd 1779 eebc 1f26 f3bb
00000160: f8e7 b0bc 9aa7 a73c 7a64 883d 4309 713d
00000170: 3244 943c 9a9a 7d3c 9553 d23d 800d 843c
00000180: 73b7 c63d 1694 893d c119 f63d 5f50 ef3d
00000190: d82b 7d3e 41e3 923d 9c3b 113b 50da 57bd
000001a0: b652 46bd a605 213e cafb 14bc e665 21be
000001b0: 0909 2abe e586 2dbe ea02 0d3e fe77 84bc
000001c0: 8d56 a3bd 5e1e d1bd d249 e4bd c657 883d
000001d0: 65ef a53d 3af3 88bd 89c9 e5bd f73b fcbd
000001e0: 158e 1abd 1b09 723d f0db d33c 499f 8f3d
000001f0: 1fd3 58bd 209f 48bd 9a2d 15bd f169 a53d
00000200: 13b8 10bc c98b 5cbd d046 123c 4daf 36bd
00000210: f659 173e 91d8 453e f995 683e a40c 1abe
00000220: 441b 9bbc 2ffb b63c f58a c03d 2f05 3c3e
00000230: b35d 14be 08bb 17be 2922 d5bd 19d9 05bd
00000240: eca0 013e eae3 05bd c17e 04bd ff91 0abe
00000250: 637b 003d 2ac2 c73d f322 ea3c 0117 1e3d
00000260: 54e4 b5bd 02c2 8a3d c112 84ba 0357 a2bd
00000270: 5bc4 b63c 0c17 8cbd ab5a d23c 44d6 ce3c
00000280: 625f 873d 590d 7fbd dc0b 80bc c3d0 283d
00000290: 3ae1 de3d 6118 763c 4755 983c 319e 843c
000002a0: 513d 613d 6095 183d 95fc af3c 1771 94bc
000002b0: c11c 8f3d d2c3 853d d17a 3d3d 6ef1 afbd
000002c0: be00 66bd fb7b 88bc fe59 34bd 4cf2 1c3b
000002d0: b46f b2bd 7b64 59bd b328 bc3c 93e9 bdbc
000002e0: 6e1e 753d b4a8 bcbd f67e 27bd 2a79 463d
000002f0: 1b5d 0c3d caba 863d 9143 37bc 2620 66bd
00000300: abfa bb3c 542a 2ebb 26e9 c6bb a842 923d
00000310: 51f4 a0bb d6c5 50bd 837b 1a3d 844d 1f3e
00000320: 4597 6cbe 8b26 1b3e ee22 90bd cc32 55be
00000330: 5666 8e3e 5844 28bd 23a3 3a3e 798c 643e
00000340: 8430 293d 7360 253f 9c41 1dbe 2fc5 c23d
00000350: 0eef f63e 6bdf 1b3e b494 233f 54db 30be
00000360: d375 c0bc bc72 013f 63fb c03c 597b ba3e
00000370: 0eec 89bd 39ef b9bc 9df1 0b3f 5d76 d93c
00000380: 205a ab3e b2bd c0be bc4d 54be 43dc b13d
00000390: de79 663c 51a7 c93e eb28 21be bc83 1bbe
000003a0: 207d 223d 9a51 97bd 2df8 453d 18e6 53bd
000003b0: f1ae 40bd 344d 253d 8aea 4bbe a2ab a83d
000003c0: 184b 493e 2e4f 253e 7913 29bc d006 c3be
000003d0: db3f afbd e0f6 2c3e bfa9 1f3e aa09 f83d
000003e0: d45a d6be 9cd0 123c 1dc7 bc3e 8d18 833e
000003f0: e0b3 163e e9a5 0f3b d5c4 963d a7fd 563e

conv2.bias f4 [16]
0.035556268 0.3210569 -0.061304394 -0.04795273 -0.036339045 -0.0048201582 -0.008703496 0.08147571
0.27776122 -0.073293135 0.20873682 -0.052059088 -0.061345983 -0.009322025 0.11336047 -0.019542323
00000000: 73a3 113d 9261 a43e 511a 7bbd 156a 44bd
00000010: 40d8 14bd 6bf2 9dbb 1c99 0ebc bddc a63d
00000020: b836 8e3e b61a 96bd 1bbf 553e e93b 55bd
00000030: ed45 7bbd 68bb 18bc 8929 e83d 3917 a0bc

conv3.weight f4 [8, 16, 3, 3]
-0.0819311 0.13572134 -0.07629456 0.10301841 0.17834286 0.085460655 -0.02600872 -0.12107668
0.08193333 -0.49484316 -0.04764832 -0.07197041 -0.37203616 0.17661783 0.026943082 -0.13818808
0.2356186 0.41202942 0.13190782 -0.080876544 0.050025087 -0.14014833 0.057697628 -0.04512776
-0.066779554 0.038079686 -0.05256756 0.123867735 -0.13751341 -0.15374586 0.08364675 -0.057877306
0.09735433 -0.14831106 -0.011249706 -0.0136844115 0.15957858 0.15169074 0.09391646 0.022223769
0.16845782 -0.0024934842 0.06675087 -0.11579693 -0.10302084 -0.076774076 -0.110400066 -0.07981382
0.02600138 0.13309376 0.004444265 0.15552282 -0.073210016 0.086880915 -0.1820133 0.06711843
-0.11365926 -0.01994945 0.041551206 0.106467396 -0.07601414 -0.061537206 0.09411214 -0.14792162
-0.10711613 -0.27308673 0.18055895 0.020050725 0.020587297 0.37265998 0.31090984 0.15703507
-0.36045763 -0.37079614 -0.11772447 0.045388993 0.04932771 0.15178457 0.16057222 0.2328192
0.24951905 -0.10754513 0.107859924 -0.073627256 0.010421021 0.09011132 0.17234436 -0.001994175
-0.07146374 -0.10512396 -0.0734823 0.19283679 0.25693634 -0.00945865 -0.09467893 0.23128532
-0.33736375 0.070786625 -0.05813199 0.19274949 -0.06905801 0.18212155 0.16566035 0.0257728
-0.047895364 -0.13100138 0.07125066 -0.09239545 -0.06571267 0.059758756 -0.06948584 -0.008058822
-0.07858847 0.105980486 0.119729064 0.054129582 0.017085869 0.17914608 0.10168279 -0.09143764
-0.028620724 0.14373457 0.074200824 -0.016557747 -0.059566334 -0.021122323 0.22247656 0.08344259
0.25026625 0.09376202 -0.14382653 0.09029116 -0.12555154 -0.29536134 0.009897511 -0.11162921
-0.017037695 -0.14656782 0.23680665 0.06169444 -0.29493794 0.14181918 0.16356853 -0.0035872527
-0.33013314 -0.23426947 0.081785664 -0.055563625 -0.22115143 0.039227467 0.486503 0.30259225
0.04555607 -0.25529942 -0.0044191414 0.13214247 -0.138446 -0.32355618 -0.1060737 0.2714582
0.08683461 0.043910686 -0.031025305 0.09019361 -0.14409496 -0.16132282 0.012086547 -0.0014211743
0.069102794 -0.012457302 -0.10698268 -0.017469738 0.044403058 0.01509597 -0.060165443 -0.15245163
-0.039850794 -0.13611227 -0.02929823 0.09746051 0.12156055 0.110894375 0.12376372 -0.11179984
-0.15501183 -0.09278382 -0.16871472 -0.1039577 0.036766857 0.19524859 -0.11460023 -0.102811575
0.09472241 0.16692114 -0.0058721453 -0.06070293 0.007433962 0.1468307 -0.006777528 -0.20040159
0.07970789 0.103665605 -0.038611278 -0.03331569 -0.11254321 0.18189017 -0.11829677 -0.123985626
0.080385104 0.06516928 -0.2809793 0.09521835 0.41204494 -0.3057145 -0.084676065 0.43520764
-0.14531846 0.1257141 0.08782131 -0.26300225 0.12143465 0.18751922 -0.24195436 0.020647448
0.21256508 -0.04317718 0.136795 -0.092563085 -0.0018761369 0.038287267 -0.031790692 0.09624434
0.106828816 -0.088656895 0.020382307 -0.22550674 -0.41063362 0.3432841 0.028545232 -0.2979036
0.18944721 0.13205785 -0.050592575 0.028665222 -0.01013894 -0.06438654 0.11934369 0.10804758
-0.061662693 0.0994322 0.0006508768 -0.19470546 0.10328273 -0.12981473 0.06605834 0.10486233
00000000: 7ecb a7bd 89fa 0a3e 5340 9cbd 51fb d23d
00000010: 839f 363e ff05 af3d 3d10 d5bc 0df7 f7bd
00000020: a9cc a73d 155c fdbe e32a 43bd 3965 93bd
00000030: 867b bebe 4edb 343e bdb7 dc3c 2d81 0dbe
00000040: 0146 713e 85f5 d23e d812 073e 9aa2 a5bd
00000050: 1be7 4c3d 0b83 0fbe 5954 6c3d e3d7 38bd
00000060: b8c3 88bd 72f9 1b3d 1551 57bd 5eae fd3d
00000070: 51d0 0cbe 8e6f 1dbe fd4e ab3d c110 6dbd
00000080: b561 c73d dbde 17be b050 38bc 9534 60bc
00000090: 9168 233e d154 1b3e 4657 c03d 9f0e b63c
000000a0: 3580 2c3e b969 23bb aeb4 883d f126 edbd
000000b0: 97fc d2bd ba3b 9dbd 6e19 e2bd 6e75 a3bd
000000c0: d900 d53c bb49 083e 32a1 913b 6041 1f3e
000000d0: 22ef 95bd 9fee b13d b261 3abe 6375 893d
000000e0: 30c6 e8bd 076d a3bc 9931 2a3d 940b da3d
000000f0: 4dad 9bbd 700e 7cbd debd c03d c478 17be
00000100: b45f dbbd 06d2 8bbe 72e4 383e 6b41 a43c
00000110: b1a6 a83c 4acd be3e 932f 9f3e cdcd 203e
00000120: e78d b8be fed8 bdbe 8719 f1bd cfe9 393d
00000130: da0b 4a3d 6a6d 1b3e 0b6d 243e 2868 6e3e
00000140: ec81 7f3e 9f40 dcbd aae5 dc3d e3c9 96bd
00000150: eebc 2a3c 498c b83d 0a7b 303e b4b0 02bb
00000160: 955b 92bd 3b4b d7bd e37d 96bd 0277 453e
00000170: 298d 833e 74f8 1abc 07e7 c1bd 0fd6 6c3e
00000180: f1ba acbe 94f8 903d cf1b 6ebd 1f60 453e
00000190: 496e 8dbd 127e 3a3e dea2 293e 7b21 d33c
000001a0: ee2d 44bd 3a25 06be deeb 913d d339 bdbd
000001b0: 5d94 86bd 99c5 743d 984e 8ebd 2609 04bc
000001c0: fef2 a0bd 4c0c d93d 8334 f53d fbb6 5d3d
000001d0: aaf7 8b3c 1272 373e 113f d03d a843 bbbd
000001e0: 0276 eabc 282f 133e 9af6 973d 1da4 87bc
000001f0: d4fb 73bd b908 adbc e5d0 633e f3e3 aa3d
00000200: e622 803e 4d06 c03d 4347 13be 92ea b83d
00000210: 9590 00be 9a39 97be 2c29 223c db9d e4bd
00000220: a392 8bbc e015 16be 717d 723e 4fb3 7c3d
00000230: 1b02 97be 0c39 113e 827e 273e 1d18 6bbb
00000240: 3607 a9be 56e4 6fbe 3e7f a73d af96 63bd
00000250: 8575 62be fbac 203d ec16 f93e 5fed 9a3e
00000260: 0099 3a3d 9bb6 82be 72ce 90bb 5b50 073e
00000270: cac4 0dbe 28a9 a5be 2b3d d9bd 92fc 8a3e
00000280: 58d6 b13d b1db 333d c828 febc 6db7 b83d
00000290: a18d 13be cf31 25be a706 463c b246 baba
000002a0: c485 8d3d b619 4cbc bc19 dbbd b21c 8fbc
000002b0: fbdf 353d 1655 773c 0a70 76bd 481c 1cbe
000002c0: 963a 23bd 0461 0bbe d702 f0bc 6099 c73d
000002d0: bdf4 f83d 971c e33d d577 fd3d 51f7 e4bd
000002e0: 6cbb 1ebe 7205 bebd 8dc3 2cbe c6e7 d4bd
000002f0: d898 163d 3fef 473e 86b3 eabd e08e d2bd
00000300: d3fd c13d 60ed 2a3e 206b c0bb a3a3 78bd
00000310: 9898 f33b c95a 163e 0716 debb 1336 4dbe
00000320: e43d a33d a24e d43d dc26 1ebd 0876 08bd
00000330: 0e7d e6bd 6b41 3a3e 9445 f2bd 2dec fdbd
00000340: f2a0 a43d 7977 853d 85dc 8fbe d701 c33d
00000350: 8ef7 d23e 9c86 9cbe a56a adbd 89d3 de3e
00000360: 5dce 14be 32bb 003e a9db b33d 3ba8 86be
00000370: bbb2 f83d 0a05 403e e2c2 77be d624 a93c
00000380: a9aa 593e 8eda 30bd fd13 0c3e b791 bdbd
00000390: b5e8 f5ba 1cd3 1c3d f536 02bd c11b c53d
000003a0: 11c9 da3d bf91 b5bd ccf8 a63c 3deb 66be
000003b0: 923e d2be efc2 af3e b1d7 e93c d286 98be
000003c0: 73fe 413e 2c3a 073e 293a 4fbd 54d3 ea3c
000003d0: cc1d 26bc 17dd 83bd 776a f43d 0d48 dd3d
000003e0: 0592 7cbd 1ca3 cb3d 9a9f 2a3a de60 47be
000003f0: e585 d33d 27ee 04be 9849 873d 10c2 d63d

conv3.bias f4 [8]
0.16410697 -0.3352668 -0.04598712 0.061515577 0.12756807 -0.0056728874 0.36875957 0.4551945
00000000: a80b 283e 17a8 abbe fe5c 3cbd c2f7 7b3d
00000010: 34a1 023e a1e3 b9bb 0ece bc3e 410f e93e

convt1.weight f4 [8, 8, 3, 3]
-0.06999816 -0.11643507 0.16531786 -0.014335578 -0.36996058 0.08699328 0.17318533 -0.05724264
0.2733373 0.08425625 -0.27715787 -0.24069482 -0.62260646 0.2835543 0.31120422 0.3132044
0.3979879 -0.37833896 -0.70227146 -0.107847415 -0.22949666 -0.10010002 0.283522 0.109492734
0.5354125 0.21232875 0.320104 0.0740267 0.059306085 -0.08449035 -0.6817347 0.030167317
0.16194864 0.01709479 -0.49043244 -0.18564112 0.073775746 -0.24671821 0.15133996 0.10937351
-0.3763852 0.25857 0.12501805 0.10634789 0.20561317 -0.18617563 0.1787893 0.027622044
-0.19307443 -0.30341485 -0.23099439 -0.1063817 -0.27373353 -0.09127189 0.095387705 0.11638882
0.5393642 0.4439997 0.15855736 -0.60354275 -0.18443295 -0.15769036 -0.25779405 0.046340294
0.4639644 0.07299699 0.05687815 0.15535372 -0.10216995 -0.025796242 -0.3863874 -0.30229864
0.018302482 0.20351672 -0.120270714 -0.34513935 -0.037730444 0.23978207 -0.14818586 -0.3322755
0.08847558 0.015158927 -0.4536917 0.023870056 0.26391852 0.027792824 0.1703057 0.34219775
0.070535906 -0.44557187 0.2050115 0.17991641 0.11552326 0.05688305 0.17932346 -0.08902113
0.11044839 -0.2368652 -0.5101539 0.17078641 0.14345452 -0.18189979 -0.38363436 -0.6886804
0.11371501 -0.16548455 -0.20122468 -0.11923028 -0.0026747705 0.48591745 0.20867535 0.20403382
-0.3167981 0.0773423 0.29521957 0.08236888 0.317029 0.40279338 -0.06775307 -0.3718683
-0.550194 0.101501755 -0.10976499 -0.2035193 0.10285707 0.1735322 0.19766001 0.2364756
0.1501902 -0.13643025 -0.69053763 0.2164616 0.091712646 0.012702955 -0.21726763 0.24958144
-0.4421822 -0.4273276 0.055761494 -0.36820027 -0.015235297 -0.1312346 0.3760803 0.09710024
-0.119787835 -0.14514178 -0.1166463 0.10206517 0.13777284 -0.15224482 -0.107828796 0.1629058
-0.001736403 -0.006093818 0.1226631 0.15592334 0.15870978 -0.17975186 0.12576146 -0.089337505
-0.11023278 -0.029367778 -0.056190833 -0.08477885 0.16143087 -0.052949242 0.17320438 -0.08266009
0.17632341 0.06382709 -0.10814251 -0.12151797 0.09467862 -0.20471594 -0.099762134 -0.19078279
0.068189435 0.12893897 -0.14418611 -0.088603936 0.12040012 0.004242496 0.09804484 0.00072743197
-0.11510736 -0.05168553 0.12222693 0.08977615 -0.022005536 0.08687112 0.08677662 0.14890783
-0.09775275 -0.056965012 -0.01610259 0.1315348 -0.14229767 -0.0031199376 -0.11066718 -0.10920801
-0.06987706 0.16527669 0.053146604 -0.0031876361 0.11644164 -0.061865713 0.17089403 0.083506346
0.013874158 -0.023050949 0.05496754 0.20235135 -0.17663644 -0.13335463 -0.11468322 -0.12351999
0.29474762 -0.6453372 -0.07219238 -0.2748447 -0.40561223 -0.044656448 0.23814048 -0.33236605
-0.18263794 -0.19782902 0.025572203 0.047566377 -0.7991249 -0.2500248 0.5989264 -0.16225271
-0.3330429 0.2422588 -0.28027362 0.23986349 -0.20544484 0.23763572 -0.35878316 -0.306314
0.25804698 -0.03670153 0.26217046 -0.24532603 -0.090028994 -0.029465204 -0.5114293 0.2369447
0.1497825 0.006372476 -0.14047098 0.14495336 0.05019384 0.2997118 0.10273357 -0.31136787
00000000: 325b 8fbd 8375 eebd 1649 293e c6df 6abc
00000010: 796b bdbe 8829 b23d 7f57 313e 4277 6abd
00000020: def2 8b3e 8a8e ac3d a3e7 8dbe b478 76be
00000030: 2363 1fbf 072e 913e 2956 9f3e 545c a03e
00000040: 12c5 cb3e a5b5 c1be 10c8 33bf 1bdf dcbd
00000050: 2c01 6bbe 3d01 cdbd cc29 913e ba3d e03d
00000060: cb10 093f b56c 593e ace4 a33e 4f9b 973d
00000070: f0ea 723d 4709 adbd 2a86 2ebf 7321 f73c
00000080: ddd5 253e 5f0a 8c3c f619 fbbe b518 3ebe
00000090: bd17 973d b3a3 7cbe ddf8 1a3e 38ff df3d
000000a0: 90b5 c0be 4963 843e bb04 003e eccc d93d
000000b0: 428c 523e d3a4 3ebe 8b14 373e a047 e23c
000000c0: 4eb5 45be 3159 9bbe cb89 6cbe a6de d9bd
000000d0: cd26 8cbe c2ec babd a15a c33d 435d ee3d
000000e0: c613 0a3f ee53 e33e dc5c 223e c781 1abf
000000f0: fedb 3cbe 9579 21be 95fd 83be 52cf 3d3d
00000100: be8c ed3e 727f 953d 10f9 683d 0c15 1f3e
00000110: 7b3e d1bd a452 d3bc 92d4 c5be e3c6 9abe
00000120: 16ef 953c b066 503e 7e50 f6bd 1bb6 b0be
00000130: 3d8b 1abd 6e89 753e 09be 17be 0420 aabe
00000140: af32 b53d 265d 783c 474a e8be 238b c33c
00000150: 5420 873e c7ad e33c 9e64 2e3e 8b34 af3e
00000160: 2175 903d ff21 e4be 89ee 513e 023c 383e
00000170: 7597 ec3d 33fe 683d 92a0 373e b650 b6bd
00000180: c432 e23d ca8c 72be 7299 02bf a2e2 2e3e
00000190: bee5 123e f043 3abe b96b c4be 5c4d 30bf
000001a0: 6ae3 e83d c874 29be d80d 4ebe 012f f4bd
000001b0: 344b 2fbb 2cca f83e feae 553e 3eee 503e
000001c0: 5c33 a2be a465 9e3d 0527 973e 04b1 a83d
000001d0: a051 a23e ef3a ce3e 1fc2 8abd 8665 bebe
000001e0: 84d9 0cbf 27e0 cf3d 78cc e0bd 5d67 50be
000001f0: baa6 d23d 6db2 313e 6367 4a3e a926 723e
00000200: 76cb 193e 5fb4 0bbe 13c7 30bf 1ca8 5d3e
00000210: d7d3 bb3d 0e20 503c 687b 5ebe 4792 7f3e
00000220: b565 e2be afca dabe 2a66 643d bf84 bcbe
00000230: 789d 79bc 5d62 06be 998d c03e 7edc c63d
00000240: 5353 f5bd 0ca0 14be 41e4 eebd 8b07 d13d
00000250: 5314 0d3e 11e6 1bbe 58d5 dcbd c7d0 263e
00000260: 0498 e3ba a7ae c7bb cb36 fb3d 5eaa 1f3e
00000270: d184 223e df10 38be 9dc7 003e 95f6 b6bd
00000280: b9c1 e1bd b294 f0bc 5c28 66bd 89a0 adbd
00000290: 224e 253e 4ee1 58bd 7d5c 313e b149 a9bd
000002a0: 208e 343e c7b7 823d d279 ddbd 6ade f8bd
000002b0: dde6 c13d 0ea1 51be 1750 ccbd 905c 43be
000002c0: e7a6 8b3d 9408 043e 86a5 13be fb75 b5bd
000002d0: 5794 f63d a304 8b3b bccb c83d 22b1 3e3a
000002e0: 68bd ebbd 35b4 53bd 1d52 fa3d 8fdc b73d
000002f0: f444 b4bc 7ce9 b13d f1b7 b13d 4b7b 183e
00000300: 9832 c8bd 2554 69bd 94e9 83bc 0fb1 063e
00000310: 7bb6 11be de77 4cbb 79a5 e2bd 73a8 dfbd
00000320: b41b 8fbd 4b3e 293e 41b0 593d a9e7 50bb
00000330: f478 ee3d e766 7dbd d8fe 2e3e 6005 ab3d
00000340: 7050 633c 58d5 bcbc a525 613d 3135 4f3e
00000350: 2fe0 34be 1e8e 08be 09df eabd 0cf8 fcbd
00000360: 29e9 963e d234 25bf 99d9 93bd 72b8 8cbe
00000370: 68ac cfbe aee9 36bd 19db 733e e22b aabe
00000380: 7105 3bbe b193 4abe cc7c d13c f6d4 423d
00000390: 7393 4cbf 4003 80be 3e53 193f 9325 26be
000003a0: 9984 aabe b112 783e 0680 8fbe c69e 753e
000003b0: 2260 52be c756 733e 6db2 b7be 30d5 9cbe
000003c0: bc1e 843e 5854 16bd 353b 863e bf36 7bbe
000003d0: 1f61 b8bd 0361 f1bc 08ed 02bf a2a1 723e
000003e0: 9560 193e 34d0 d03b a0d7 0fbe a76e 143e
000003f0: 0e98 4d3d d373 993e fa65 d23d 9c6b 9fbe

convt1.bias f4 [8]
0.020182554 0.101108454 -0.08524221 0.0012440562 -0.075245194 0.04902256 -0.019608665 -0.061873466
00000000: e255 a53c f311 cf3d 7893 aebd 990f a33a
00000010: 271a 9abd e1cb 483d 5aa2 a0bc 086f 7dbd

convt2.weight f4 [8, 16, 5, 5]
-0.3005477 -0.009879098 -1.3101734 -0.019770954 -0.109377645 0.15046255 -0.31077087 -1.0488712
-0.3386805 -0.36873114 0.04539096 -0.2606634 -0.14974894 -0.73090637 -0.9213648 -0.43549985
-0.28980014 -0.12133596 -0.17159931 -1.1340244 -0.089931495 -0.79306644 -1.1371711 -0.18857525
-0.09831252 -0.3013057 -0.43031025 -0.44971243 -0.6978789 -0.60576016 -0.31151727 -0.44687057
-0.19430706 -0.2966949 -0.16855891 -0.3490303 -0.14685835 -0.51879907 -0.5929582 0.1539601
-0.48733068 -0.4118643 -0.2391224 -0.39269248 -0.2344811 -0.15490822 -0.18352012 0.08174204
-0.23801447 0.040533792 -0.047938216 -1.1032346 -1.2019176 -0.13269962 0.14825337 -0.18602248
-0.016031517 -0.005099139 -0.32505167 0.0015873347 0.18792106 -0.08221687 0.19788766 0.089870006
0.0118644545 -0.90470004 -0.5008523 -0.32660723 0.10667506 -0.89098996 0.084372066 -0.09430616
-0.6441778 -0.040292926 -0.16670576 0.16712864 -0.06814607 0.058134556 -0.6314205 0.023925858
0.24629135 -0.017963383 0.13598818 -0.6191503 0.11600316 0.063407704 -0.1851116 -0.22044055
-0.5743687 -0.17180537 -0.16223545 0.11740543 -0.12925991 0.09575696 -0.028734297 0.1816086
0.23567005 -0.15889156 0.25474134 -0.1732906 0.037281174 0.15525928 -0.6942028 -0.1957133
0.049079645 -1.2214329 -0.88938814 -0.20795554 -0.46708837 -0.6387816 -0.97238594 -0.15547152
-0.10071066 -1.0243275 -0.48185542 -0.2918553 -0.23602526 -0.6168371 -0.07986393 -0.077645615
-0.41642475 -0.22862266 -0.8258835 -0.37695184 -0.02788514 -0.64962965 -0.24924171 0.04400696
0.076208584 -0.4386843 0.22173311 -0.05626163 -0.4856233 -0.18132798 -0.3283111 -0.09270634
-0.05768068 0.090511836 0.119431496 0.0044962596 -0.45262837 -0.4116036 -0.29595688 0.20184276
-0.30437157 0.2554942 0.012048864 -0.19295768 -0.32475138 -1.6032809 -0.096520446 -0.18433443
-0.17090267 -0.23148924 -0.11548004 -0.09562206 -0.5960752 -0.2508009 -0.65171945 -0.09915354
-0.3171776 -0.16654283 -0.23350357 -0.4727953 0.07846634 -0.47306448 -0.47105506 0.024243642
0.10339135 -1.1302596 -0.08144616 -0.48757163 -0.047773793 0.12496266 -0.34071782 0.21153149
-0.8310721 0.11257539 0.17072938 0.26243028 -0.1127873 -0.23361135 -0.31046477 -0.08892861
-0.3076333 0.13164209 0.12824638 -0.09300256 -0.18791974 0.1568501 -0.007815332 -0.06696646
-0.5320936 -0.104150735 -0.20437817 0.07390582 0.13451216 0.096649095 -0.07172154 0.055777617
-1.0273159 0.03849222 -0.3102163 0.060828187 -1.2173046 -0.32813266 -0.30380616 -0.21411574
-0.14793552 0.045203116 0.192535 -0.30274737 -0.7436357 0.19558766 -0.18516973 -0.10725007
-0.05547151 -0.0971754 -0.30463234 -0.16954896 -1.0598474 0.12226451 0.09303604 0.13874066
-1.0681407 0.054090813 -0.032628063 0.2309597 -0.0153021505 -0.013371261 -0.28023225 -1.1337236
0.07575623 -0.26633254 0.15078786 -0.21660034 -0.49238726 0.018709436 -0.04304984 0.08953394
-0.13038741 0.083736815 0.0021243019 0.022146957 -0.011680935 0.16926259 0.2097711 -0.08462422
-0.54453516 -0.35098448 -0.082996145 -0.064456716 0.20226336 -0.7892818 0.07297076 -0.1519045
00000000: 63e1 99be f1db 21bc c3b3 a7bf b2f6 a1bc
00000010: 6301 e0bd db12 1a3e 5c1d 9fbe 6941 86bf
00000020: 8867 adbe 54ca bcbe dfeb 393d ac75 85be
00000030: c957 19be ae1c 3bbf 90de 6bbf d6f9 debe
00000040: af60 94be fd7e f8bd bbb7 2fbe b627 91bf
00000050: 012e b8bd 6706 4bbf d38e 91bf df19 41be
00000060: 1358 c9bd be44 9abe a051 dcbe b540 e6be
00000070: 31a8 32bf 1913 1bbf 317f 9fbe 38cc e4be
00000080: 6ef8 46be 65e8 97be b59a 2cbe 19b4 b2be
00000090: 0962 16be 04d0 04bf 1ccc 17bf b7a7 1d3e
000000a0: 6883 f9be e1df d2be 81dc 74be fd0e c9be
000000b0: d01b 70be 43a0 1ebe b3ec 3bbe 5f68 a73d
000000c0: 11ba 73be c306 263d dd5a 44bd cb36 8dbf
000000d0: 70d8 99bf 69e2 07be bbcf 173e ad7c 3ebe
000000e0: 8754 83bc ae16 a7bb 2c6d a6be 1d0e d03a
000000f0: 616e 403e 5161 a8bd 10a3 4a3e c40d b83d
00000100: 2163 423c 6c9a 67bf db37 00bf 1039 a7be
00000110: 7478 da3d eb17 64bf 43cb ac3d 9723 c1bd
00000120: d6e8 24bf 320a 25bd eab4 2abe c523 2b3e
00000130: 2b90 8bbd 801e 6e3d c6a4 21bf 2900 c43c
00000140: cd33 7c3e f227 93bc 7c40 0b3e a280 1ebf
00000150: 1193 ed3d e6db 813d e58d 3dbe 2bbb 61be
00000160: d409 13bf bfed 2fbe 0d21 26be 4272 f03d
00000170: b65c 04be 3a1c c43d 3064 ebbc 9bf7 393e
00000180: 7d53 713e 78b4 22be 756d 823e 1773 31be
00000190: 25b4 183d 4afc 1e3e 46b7 31bf 1169 48be
000001a0: bd07 493d ea57 9cbf f1ae 63bf 4cf2 54be
000001b0: 3526 efbe 3187 23bf 49ee 78bf ed33 1fbe
000001c0: 6441 cebd 2a1d 83bf c1b5 f6be 0f6e 95be
000001d0: 9bb0 71be 09e9 1dbf b38f a3bd aa04 9fbd
000001e0: a035 d5be 0f1c 6abe 1a6d 53bf d5ff c0be
000001f0: 616f e4bc 214e 26bf 3839 7fbe a440 343d
00000200: 3f13 9c3d 3b9b e0be 010e 633e 9872 66bd
00000210: 9ea3 f8be 0bae 39be 6418 a8be d2dc bdbd
00000220: 9442 6cbd 455e b93d 8098 f43d 5c55 933b
00000230: e8be e7be b5bd d2be a987 97be deaf 4e3e
00000240: 97d6 9bbe 23d0 823e 9968 453c b396 45be
00000250: d045 a6be 4f38 cdbf 83ac c5bd 2ac2 3cbe
00000260: 1c01 2fbe 840b 6dbe cd80 ecbd 80d5 c3bd
00000270: 6298 18bf fa68 80be 16d7 26bf 0311 cbbd
00000280: 1a65 a2be 348a 2abe 8f1b 6fbe 3a12 f2be
00000290: f6b2 a03d 8235 f2be 212e f1be 9a9a c63c
000002a0: d8be d33d 59ac 90bf 3fcd a6bd fda2 f9be
000002b0: 74ae 43bd 6cec ff3d 9172 aebe b69b 583e
000002c0: 24c1 54bf ed8d e63d afd3 2e3e 435d 863e
000002d0: 07fd e6bd d037 6fbe 3df5 9ebe 3420 b6bd
000002e0: 1d82 9dbe 2fcd 063e 0553 033e 2078 bebd
000002f0: 086e 40be 509d 203e e10b 00bc b625 89bd
00000300: 4937 08bf fb4c d5bd 8348 51be ef5b 973d
00000310: 8ebd 093e f6ef c53d bee2 92bd 1277 643d
00000320: 167f 83bf 05aa 1d3d acd4 9ebe fa26 793d
00000330: a3d0 9bbf 0101 a8be 7b8c 9bbe 2841 5bbe
00000340: 697c 17be e726 393d e527 453e b401 9bbe
00000350: e95e 3ebf 2248 483e 229d 3dbe eda5 dbbd
00000360: 1836 63bd e503 c7bd c5f8 9bbe 3e9e 2dbe
00000370: 14a9 87bf d165 fa3d ae89 be3d 0812 0e3e
00000380: d6b8 88bf 548e 5d3d 01a5 05bd b380 6c3e
00000390: dfb5 7abc 2213 5bbc 9a7a 8fbe db1d 91bf
000003a0: 1526 9b3d bd5c 88be 2268 1a3e 7bcc 5dbe
000003b0: 2f1a fcbe 8844 993c 0755 30bd 925d b73d
000003c0: 4784 05be 357e ab3d df37 0b3b 896d b53c
000003d0: 6461 3fbc 2c53 2d3e 3cce 563e 774f adbd
000003e0: a866 0bbf 3db4 b3be e2f9 a9bd e201 84bd
000003f0: 201e 4f3e 5f0e 4abf b271 953d da8c 1bbe

convt2.bias f4 [16]
0.11292238 0.1765868 0.036485985 0.017871242 0.08715929 -0.007925634 0.10595272 -0.21856983
0.1691013 0.04824522 0.0043317988 0.17196602 0.00056320766 0.118339606 0.0077083656 -0.011544415
00000000: d943 e73d 2cd3 343e 5472 153d b666 923c
00000010: 9280 b23d 85da 01bc bdfd d83d c5d0 5fbe
00000020: e428 2d3e c89c 453d c3f1 8d3b dc17 303e
00000030: 3aa4 133a 095c f23d 7596 fc3b c924 3dbc

convt3.weight f4 [16, 32, 9, 9]
-0.028316868 0.06900284 -0.10611624 0.052430928 -0.1975247 -0.022409065 0.09085399 -0.11481072
-0.017018823 -0.08613481 -0.009400191 -0.038924884 -0.08020326 -0.1585936 0.06423797 -0.05484195
-0.30549058 0.0760056 -0.04056366 -0.015906436 0.07256742 -0.057353653 -0.052083064 0.027645238
0.06222514 0.08262095 0.0131028285 0.08032027 -0.052922443 0.05348271 0.13945355 0.1139354
0.07511232 0.11214195 -0.2552869 0.18442287 -0.003661969 0.08132278 0.0029292293 0.048744626
0.0049858107 0.08197573 0.08842933 0.08143629 0.022849515 -0.057246286 -0.051181316 0.029222088
-0.0671666 -0.03757717 0.113747485 0.045469522 -0.022276126 0.22757278 -0.03763323 -0.06787454
-0.023582526 0.018000312 -0.0005019134 0.05185491 0.04751686 0.0967674 0.12407937 -0.026614936
0.057426527 -0.07896716 0.059205215 -0.0103528695 -0.08167592 0.00216183 0.025785508 0.018271705
0.048566837 0.04833396 0.004274942 0.04760585 0.043435156 0.044507906 0.19472726 0.0648258
0.08846685 0.0006394234 0.2562791 -0.03957286 -0.0050255884 0.26790017 -0.04579899 0.010975408
0.18700744 -0.030684205 0.35870162 0.28616092 0.006827284 0.11058797 0.2597147 -0.037342038
0.18568476 0.09602136 0.0021745309 -0.08173303 -0.048567344 0.29283917 -0.16277552 -0.06519881
0.17846711 0.005846174 -0.06412493 0.3175054 -0.01809605 0.38977322 -0.009935848 0.00082627
0.1771415 0.009423402 -0.009007152 0.28614557 -0.014493481 0.4487745 0.2903391 -0.04611059
0.30868715 0.2776872 -0.040829103 0.28163412 0.13477221 -0.02326831 -0.07102837 -0.0643494
0.3697472 0.060100336 -0.025624475 0.24314095 -0.11481418 -0.031255078 0.27723363 0.0035006702
0.3240425 -0.022593902 -0.015841788 0.2629833 0.006616685 -0.03974388 0.2121226 -0.016879862
0.5197342 0.2275934 0.007846299 0.25749063 0.2541559 -4.547445e-05 0.30684945 0.20446585
-0.031441614 -0.2671214 -0.01950424 0.4835413 -0.24201709 -0.049136568 0.32692835 -0.21704052
-0.031978913 0.34945437 0.03824218 0.027226945 0.012538938 -0.041879226 0.00036396715 -0.020093972
-0.043577287 0.006676854 -0.050870944 0.07883831 0.05995347 0.042069815 0.00014017835 0.0035221966
0.031254575 0.028837333 0.06495354 0.034844194 0.05948625 0.004498302 0.046312742 0.042469293
-0.006725825 0.009230492 -0.007501929 -0.009985735 -0.010050329 0.049665958 0.009769723 0.048086394
0.024779914 -0.0009547951 0.049034197 -0.02604454 -0.027025005 -0.002156881 0.090267174 0.077945344
-0.0009039652 -0.0101119215 0.05644502 0.060262028 -0.0056938767 0.030962814 0.020048197 0.026092865
-0.012732076 0.0037682527 -0.003650789 0.0051415674 -0.0396238 -0.034741998 -0.009154347 0.007405096
0.06772269 -0.0008518614 0.026720671 0.01688529 0.006804488 0.024229033 0.00979663 -0.0046341363
-0.024574606 0.0715101 0.043748297 0.013642103 0.016722575 0.03436211 0.032781616 0.010652301
0.06459794 0.036398035 0.11897508 0.012607987 0.0039840373 0.03918781 0.015267576 -0.020868769
0.04475078 0.029572692 0.014363558 -0.026816087 0.0572595 0.073685184 0.10161873 -0.04874823
0.12267341 0.067910716 0.11051055 0.04914334 0.2037547 0.059463512 0.10417791 -0.04816012
00000000: c7f8 e7bc 5c51 8d3d 7953 d9bd d0c1 563d
00000010: ea43 4abe 3793 b7bc a811 ba3d e221 ebbd
00000020: 0f6b 8bbc 7267 b0bd 4203 1abc b36f 1fbd
00000030: 9b41 a4bd 5c66 22be 328f 833d f4a1 60bd
00000040: 4369 9cbe d3a8 9b3d 1526 26bd 374e 82bc
00000050: 3a9e 943d aaeb 6abd 0d55 55bd 4478 e23c
00000060: cadf 7e3d 2c35 a93d 3fad 563c f47e a43d
00000070: 34c5 58bd b010 5b3d e9cc 0e3e f756 e93d
00000080: 7dd4 993d aeaa e53d f7b4 82be 59d9 3c3e
00000090: a5fd 6fbb 8f8c a63d 50f8 3f3b 72a8 473d
000000a0: 0360 a33b e4e2 a73d 701a b53d 12c8 a63d
000000b0: e82e bb3c 157b 6abd 80a3 51bd 2963 ef3c
000000c0: a48e 89bd 85ea 19bd 71f4 e83d 403e 3a3d
000000d0: 6c7c b6bc d708 693e 4d25 1abd cf01 8bbd
000000e0: 2430 c1bc 6475 933c d792 03ba d065 543d
000000f0: 0aa1 423d fd2d c63d 531d fe3d 9107 dabc
00000100: 1438 6b3d 89b9 a1bd 2b81 723d 159f 29bc
00000110: b445 a7bd 7dad 0d3b 213c d33c 8bae 953c
00000120: 05ee 463d d5f9 453d d014 8c3b 5afe 423d
00000130: 10e9 313d ec4d 363d 9566 473e 64c3 843d
00000140: 1c2e b53d fa9e 273a 0437 833e 2717 22bd
00000150: b1ad a4bb 362a 893e b997 3bbd 33d2 333c
00000160: e17e 3f3e 715d fbbc bda7 b73e af83 923e
00000170: 69b7 df3b f27b e23d 53f9 843e f7f3 18bd
00000180: 2524 3e3e d9a6 c43d 9382 0e3b a663 a7bd
00000190: 8dee 46bd 04ef 953e a0ae 26be f486 85bd
000001a0: 15c0 363e 4391 bf3b ee53 83bd 1190 a23e
000001b0: 2b3e 94bc 5b90 c73e f8c9 22bc 0b9a 583a
000001c0: 9564 353e 9d64 1a3c bc92 13bc ac81 923e
000001d0: 1176 6dbc c5c5 e53e 54a7 943e 75de 3cbd
000001e0: 3e0c 9e3e 042d 8e3e 6b3c 27bd 5932 903e
000001f0: ba01 0a3e 2f9d bebc 5277 91bd 9ec9 83bd
00000200: 814f bd3e c52b 763d 6bea d1bc f1f9 783e
00000210: b223 ebbd 5305 00bd 91f1 8d3e 806b 653b
00000220: e6e8 a53e d916 b9bc a3c6 81bc bfa5 863e
00000230: c7d0 d83b 7bca 22bd ab36 593e a347 8abc
00000240: 4d0d 053f 3f0e 693e c38d 003c d0d5 833e
00000250: b920 823e d2bb 3eb8 5f1b 9d3e 7f5f 513e
00000260: ecc8 00bd 23c4 88be 5bc7 9fbc ba92 f73e
00000270: 54d3 77be 6d43 49bd 2763 a73e df3f 5ebe
00000280: 52fc 02bd afeb b23e d5a3 1c3d 0b0b df3c
00000290: 1e70 4d3c 8d89 2bbd d8d2 be39 1d9c a4bc
000002a0: 197e 32bd 83c9 da3b 0d5e 50bd fb75 a13d
000002b0: c591 753d 6651 2c3d d7fc 1239 a7d4 663b
000002c0: cc04 003d 453c ec3c 5d06 853d c9b8 0e3d
000002d0: dba7 733d 7e66 933b 6eb2 3d3d 48f4 2d3d
000002e0: 4f64 dcbb 7d3b 173c bed2 f5bb 359b 23bc
000002f0: 23aa 24bc 886e 4b3d 3011 203c 3df6 443d
00000300: 3fff ca3c 374b 7aba 15d8 483d 5c5b d5bc
00000310: 8b63 ddbc 755a 0dbb ffdd b83d cfa1 9f3d
00000320: 14f8 6cba 79ac 25bc e532 673d 51d5 763d
00000330: b393 babb baa5 fd3c 1e3c a43c b4c0 d53c
00000340: 339a 50bc caf4 763b 1342 6fbb 987a a83b
00000350: 914c 22bd a04d 0ebd 1dfc 15bc 73a6 f23b
00000360: 32b2 8a3d 734f 5fba 4fe5 da3c 0553 8a3c
00000370: 2ff8 de3b f77b c63c 0b82 203c f4d9 97bb
00000380: af50 c9bc e373 923d 6a31 333d 2183 5f3c
00000390: c8fd 883c 49bf 0c3d 0446 063d fd86 2e3c
000003a0: ed4b 843d 1b16 153d 35a9 f33d bb91 4e3c
000003b0: 878c 823b 6683 203d db24 7a3c fbf4 aabc
000003c0: 984c 373d 6e42 f23c 2155 6b3c 69ad dbbc
000003d0: f088 6a3d 42e8 963d 7b1d d03d 39ac 47bd
000003e0: 323c fb3d c614 8b3d 5b53 e23d 874a 493d
000003f0: 12a5 503e 0390 733d 3a5b d53d 8c43 45bd

convt3.bias f4 [32]
0.0019230912 -0.21528429 0.20459624 0.107861675 0.17069128 0.00023320077 0.05235051 0.07844373
-0.16039708 0.03366995 0.007994237 0.17578235 0.09523069 0.26450145 -0.17031856 0.1679208
0.03598933 -0.34805852 0.025810638 0.06352158 0.010086867 0.11157312 0.18036681 0.030456144
0.10650839 0.11678122 -0.1644277 -0.00458057 0.07640102 0.049238913 0.12802097 0.034838557
00000000: 3c10 fc3a 7c73 5cbe ad81 513e 95e6 dc3d
00000010: b2c9 2e3e 5b87 7439 7d6d 563d 1ba7 a03d
00000020: 223f 24be 80e9 093d 43fa 023c 4a00 343e
00000030: 4f08 c33d bc6c 873e fd67 2ebe 6ef3 2b3e
00000040: 8c69 133d ba34 b2be d570 d33c 9a17 823d
00000050: 6343 253c 7380 e43d 14b2 383e 2a7f f93c
00000060: 1221 da3d fe2a ef3d bc5f 28be 9b18 96bb
00000070: 2378 9c3d beae 493d ee17 033e e0b2 0e3d

pos_output.weight f4 [1, 32, 2, 2]
0.07615812 0.040127333 -0.20943138 -0.18713863 -0.02245398 0.013942071 -0.020893577 0.0040607937
0.15351672 -0.037786398 0.031877946 -0.021003451 -0.1261719 -0.14039987 -0.21819751 -0.21598433
0.2699878 0.20131922 0.14666343 0.16858949 0.21565393 0.21175484 0.2418384 0.19603446
0.27207178 0.2010154 0.26785773 0.20793268 0.12983218 -0.005863866 0.0084095625 -0.03587244
0.020604575 0.02451985 0.035773218 0.007924335 -0.12169968 -0.19249791 -0.051329948 -0.07681005
0.41602546 0.45572284 0.5476794 0.60989016 0.20632488 0.32082146 0.35863993 0.28151616
0.17261472 -0.041202642 0.006816701 -0.09150296 0.13260794 -0.2136798 0.09023927 0.07801131
-0.049647547 -0.032104764 0.10016757 0.009685544 -0.015398432 -0.069582365 0.024573874 -0.10822332
0.21672218 0.20924379 0.23103133 0.18330438 -0.22722864 -0.24464539 -0.19828342 -0.20544045
0.5761798 0.54661524 0.48193708 0.49081722 -0.026246121 0.104165934 -0.15698598 0.074080534
-0.043863963 -0.007025114 0.108234555 0.11346774 -0.21828917 -0.1908499 -0.2366778 -0.23389868
-0.11204301 -0.011966338 -0.08452755 -0.086873055 0.10019714 0.089062095 0.028991608 0.16687503
0.112560555 0.13751018 0.16968304 0.16010188 -0.09264552 0.044698693 -0.01580326 -0.067703426
-0.0061996286 -0.011174324 -0.014357689 0.0091082 -0.12577814 -0.15476063 -0.16420893 -0.1557344
0.28250295 0.303104 0.29487008 0.31382307 -0.08496016 0.0016359221 -0.019320855 0.04421205
0.1535648 0.15670377 0.1974064 0.21029739 0.21099041 0.2853473 0.20123073 0.25716665
00000000: caf8 9b3d 8f5c 243d 2e75 56be 45a1 3fbe
00000010: 69f1 b7bc 496d 643c 0229 abbc 6810 853b
00000020: 7d33 1d3e e9c5 1abd 7392 023d 6e0f acbc
00000030: 3533 01be fcc4 0fbe 2b6f 5fbe ff2a 5dbe
00000040: d73b 8a3e a026 4e3e f02e 163e b9a2 2c3e
00000050: 62d4 5c3e 43d6 583e 7ca4 773e 42bd 483e
00000060: fe4c 8b3e fbd6 4d3e a624 893e 4eec 543e
00000070: baf2 043e ac25 c0bb 43c8 093c fbee 12bd
00000080: edca a83c dadd c83c f086 123d 12d5 013c
00000090: af3d f9bd 2c1e 45be 5a3f 52bd 964e 9dbd
000000a0: 4a01 d53e 8154 e93e b834 0c3f c321 1c3f
000000b0: d446 533e b642 a43e a79f b73e e322 903e
000000c0: eac1 303e 1ac4 28bd a25e df3b e765 bbbd
000000d0: 60ca 073e e1ce 5abe 5ecf b83d 65c4 9f3d
000000e0: 3a5b 4bbd 4980 03bd a824 cd3d 1eb0 1e3c
000000f0: b449 7cbc 3381 8ebd 264f c93c 30a4 ddbd
00000100: 6bec 5d3e 0144 563e 7a93 6c3e 25b4 3b3e
00000110: a0ae 68be 5284 7abe cf0a 4bbe fb5e 52be
00000120: 8580 133f faee 0b3f 75c0 f63e 654c fb3e
00000130: 1b02 d7bc f354 d53d efc0 20be 89b7 973d
00000140: b3aa 33bd ed32 e6bb 14aa dd3d c661 e83d
00000150: 3287 5fbe 286e 43be aa5b 72be 2383 6fbe
00000160: ce76 e5bd 760e 44bc c81c adbd 80ea b1bd
00000170: 2834 cd3d 3066 b63d cf7f ed3c 4ae1 2a3e
00000180: 2686 e63d 78cf 0c3e 64c1 2d3e bff1 233e
00000190: efbc bdbd fa15 373d d775 81bc 18a8 8abd
000001a0: 4126 cbbb 8314 37bc 833c 6bbc 8f3a 153c
000001b0: fccb 00be 9279 1ebe 6326 28be d778 1fbe
000001c0: 3aa4 903e 7330 9b3e 36f9 963e 6bad a03e
000001d0: 98ff adbd 706c d63a c546 9ebc b217 353d
000001e0: 1740 1d3e f476 203e e724 4a3e 3358 573e
000001f0: df0d 583e 0b19 923e 6e0f 4e3e 59ab 833e

cos_output.weight f4 [1, 32, 2, 2]
-0.16704717 -0.11787701 0.07730466 0.14006458 -0.067718685 -0.089513816 -0.08622146 -0.09204306
0.021797247 0.19498365 0.19036771 0.257633 0.022259682 0.085196204 0.21294025 0.18567652
-0.27609295 -0.19387317 -0.13099186 -0.16639833 -0.014991427 0.013593669 -0.17906578 -0.1420513
-0.49809724 -0.41365623 -0.45149413 -0.39084873 0.009766892 0.1363286 0.12582184 -0.21825092
-0.13166994 -0.101274595 -0.13200945 -0.13870244 0.023599563 0.08981847 -0.14479715 -0.07439562
-0.3947142 -0.44850883 -0.50091696 -0.5819688 0.0023741487 -0.124161154 -0.12088462 -0.03542831
-0.11763521 -0.01905136 -0.029240556 0.06416781 0.21915546 0.28826913 0.32955542 0.14138973
0.16440946 0.004920757 0.0047845477 0.045405403 0.18509525 0.02496317 0.20277776 0.1449946
0.07718248 0.05891008 0.11578797 0.10521266 0.14803703 0.12742832 0.03932587 0.03572182
-0.75058925 -0.78183556 -0.55862874 -0.62115514 0.062148873 -0.29325628 0.2912986 -0.07297864
0.18156642 0.14096513 0.07294552 0.045845006 0.23257181 0.26129052 0.27228412 0.2736762
-0.46125272 -0.3458635 -0.24327335 -0.45798784 0.033760685 0.0947505 -0.13677664 0.041880574
-0.25982505 -0.36735237 -0.38901874 -0.27756923 0.024247319 0.018198235 0.10671066 0.06992693
0.04087623 -0.0072647776 -0.15259379 -0.057897117 0.497192 0.48203197 0.39363104 0.41200158
-0.3923121 -0.4047429 -0.38895962 -0.430769 0.10131981 0.08310537 0.13792613 0.08727007
-0.28149268 -0.28779978 -0.44404405 -0.4372692 0.10877343 0.14985897 0.04909083 0.12867612
00000000: 6a0e 2bbe 8069 f1bd e851 9e3d 176d 0f3e
00000010: 18b0 8abd 0553 b7bd e094 b0bd 1281 bcbd
00000020: 2490 b23c cba9 473e c1ef 423e 79e8 833e
00000030: f059 b63c 597b ae3d 020d 5a3e fc21 3e3e
00000040: 0e5c 8dbe b086 46be bb22 06be 5364 2abe
00000050: 9a9e 75bc fbb7 5e3c 055d 37be e575 11be
00000060: 9a06 ffbe c0ca d3be 3d2a e7be 531d c8be
00000070: 5005 203c b999 0b3e 71d7 003e 2b7d 5fbe
00000080: 7cd4 06be 0e69 cfbd 7c2d 07be 0308 0ebe
00000090: df53 c13c bff2 b73d b445 14be bb5c 98bd
000000a0: fb17 cabe f3a2 e5be 183c 00bf e8fb 14bf
000000b0: 9b97 1b3b 3448 febd 5b92 f7bd 471d 11bd
000000c0: bbea f0bd 9911 9cbc e489 efbc 6a6a 833d
000000d0: 4a6a 603e 0398 933e 7dbb a83e 78c8 103e
000000e0: f45a 283e 4d3e a13b b2c7 9c3b 04fb 393d
000000f0: 9c89 3d3e 907f cc3c f9a4 4f3e 7779 143e
00000100: d911 9e3d b24b 713d 3e22 ed3d bc79 d73d
00000110: 0597 173e 927c 023e 2a14 213d 0b51 123d
00000120: 9e26 40bf 6026 48bf 4b02 0fbf 0604 1fbf
00000130: d18f 7e3d b025 96be 1725 953e d375 95bd
00000140: 8cec 393e 2a59 103e 7664 953d f9c7 3b3d
00000150: 4e27 6e3e dfc7 853e d368 8b3e 491f 8c3e
00000160: 5129 ecbe 0515 b1be a61c 79be 627d eabe
00000170: a548 0a3d 8d0c c23d 2d0f 0cbe f78a 2b3d
00000180: ca07 85be 9c15 bcbe 772d c7be 8e1d 8ebe
00000190: 50a2 c63c 7714 953c 1e8b da3d da35 8f3d
000001a0: d56d 273d 5f0d eebb 8c41 1cbe 8725 6dbd
000001b0: f38f fe3e e5cc f63e 028a c93e dff1 d23e
000001c0: 22dd c8be 763a cfbe b725 c7be c18d dcbe
000001d0: c380 cf3d 2633 aa3d 823c 0d3e a7ba b23d
000001e0: cf1f 90be 7e5a 93be be59 e3be c0e1 dfbe
000001f0: 9bc4 de3d a174 193e 7713 493d acc3 033e

sin_output.weight f4 [1, 32, 2, 2]
0.035668567 -0.03530131 0.0045156972 -0.07248641 -0.0042730398 -0.003540548 0.000635579 -0.002032055
0.07844446 0.13081187 -0.13929452 0.104678325 0.023775702 0.005878647 -0.014129936 -0.0018461815
0.08236445 0.02895438 0.05331573 0.0543402 0.5165984 0.4695287 0.33472028 0.30220148
0.032450337 0.018169094 0.024727583 0.016433803 -0.08730787 0.09597558 -0.13075516 0.08399785
0.0024271396 -0.012211502 -0.006147686 0.009475763 -0.025025938 -0.014026297 -0.023495948 -0.0012620112
-0.046846084 -0.02904181 -0.046443697 -0.037916917 -0.072046265 -0.027834525 -0.040552016 -0.070989326
-0.1588951 -0.16945536 -0.1818489 -0.15240857 0.14279786 -0.09492706 0.06199847 0.081758745
0.060315575 0.0053038886 0.020132309 -0.023717163 -0.1373642 0.094549306 -0.0644411 -0.054756176
-0.022653496 -0.031539056 -0.024032347 -0.03278768 0.044491246 0.033861604 0.04044349 0.041294824
-0.021835288 -0.032539874 -0.018067189 -0.028638951 -0.021220192 -0.015362204 -0.019538254 0.06344685
0.27612615 0.28810132 0.44928873 0.42965025 0.010192332 0.004829668 0.030572135 0.029046368
0.22231264 0.15653771 0.12639204 0.2187491 0.13510583 -0.10033159 0.06613807 -0.08024523
-0.3288774 -0.47865307 -0.47982654 -0.34172088 -0.021591648 -0.08401879 -0.017545627 0.08167957
0.008345079 0.010386451 0.006108721 0.01592209 -0.037377592 -0.037018646 -0.034028936 -0.031250004
0.0029506101 -0.0024405445 -0.013509659 -0.0062241415 0.15339488 0.19913828 0.14042625 0.13460426
0.11666949 0.11366771 0.14967015 0.14874993 -0.05572305 -0.050919738 -0.027681032 -0.05786291
00000000: 3419 123d 1b98 10bd 6af8 933b c173 94bd
00000010: db04 8cbb 8a08 68bb fc9c 263a 3a2c 05bb
00000020: 7da7 a03d 8cf3 053e 39a3 0ebe 9761 d63d
00000030: 43c5 c23c aaa1 c03b 3f81 67bc 92fb f1ba
00000040: b1ae a83d bc31 ed3c 9861 5a3d d493 5e3d
00000050: cb3f 043f 1166 f03e 7560 ab3e 27ba 9a3e
00000060: a5ea 043d 5ad7 943c 8091 ca3c 2fa0 863c
00000070: 78ce b2bd d88e c43d aee4 05be 1107 ac3d
00000080: a510 1f3b c012 48bc 8772 c9bb 3b40 1b3c
00000090: 3203 cdbc 8ece 65bc 937a c0bc 126a a5ba
000000a0: aee1 3fbd 17e9 edbc bf3b 3ebd c54e 1bbd
000000b0: fe8c 93bd 3b05 e4bc df19 26bd da62 91bd
000000c0: 66b5 22be b585 2dbe 9936 3abe fe10 1cbe
000000d0: 9a39 123e 1e69 c2bd 1cf2 7d3d 2171 a73d
000000e0: 770d 773d 3ecc ad3b 83ec a43c 7f4a c2bc
000000f0: 33a9 0cbe 11a3 c13d b2f9 83bd 0348 60bd
00000100: d393 b9bc 192f 01bd 7cdf c4bc 604c 06bd
00000110: 743c 363d 77b2 0a3d 13a8 253d c324 293d
00000120: ebdf b2bc 8848 05bd a401 94bc 3c9c eabc
00000130: f8d5 adbc c1b1 7bbc b00e a0bc 6cf0 813d
00000140: 6860 8d3e 0482 933e 2c09 e63e 1efb db3e
00000150: bdfd 263c 3142 9e3b 6a72 fa3c a6f2 ed3c
00000160: eda5 633e 6c4b 203e ea6c 013e c4ff 5f3e
00000170: 2f59 0a3e a67a cdbd 6573 873d 9c57 a4bd
00000180: 9e62 a8be 0412 f5be d3ab f5be 0af6 aebe
00000190: f8e0 b0bc 0b12 acbd d9bb 8fbc 9e47 a73d
000001a0: ccb9 083c ef2b 2a3c aa2b c83b 0b6f 823c
000001b0: 3f19 19bd dda0 17bd ed61 0bbd 0100 00bd
000001c0: 065f 413b 8bf1 1fbb 9e57 5dbc e2f3 cbbb
000001d0: 8c13 1d3e e8ea 4b3e e6cb 0f3e b3d5 093e
000001e0: 6af0 ee3d 9eca e83d 2243 193e e751 183e
000001f0: da3d 64bd 3791 50bd 55c3 e2bc a901 6dbd
