ggcnn_base/output/models/221204_2000_training_example/epoch_00_iou_0.00_statedict.pt (torch, 256417 bytes, 16 tensors)

conv1.weight f4 [32, 1, 9, 9]
0.01888833 -0.041052785 0.019313537 -0.033560865 -0.04226763 0.025557194 -0.008579502 -0.051703453
-0.04316386 -0.0165261 -0.0033289809 0.0028542315 -0.04599091 0.00068023277 -0.03884365 -0.032644235
-0.01717003 0.039639425 0.005514986 -0.03357996 0.0029610547 -0.018500812 -0.0511842 -0.0407626
-0.005196956 -0.032405537 -0.043933235 -0.005654653 -0.035735324 -0.0007443148 -0.0090028895 -0.037263565
0.04067856 0.026762987 -0.043011326 0.035175964 -0.018415473 -0.024113972 -0.037632 -0.02091271
-0.05014069 0.001379595 0.029797079 0.036676865 -0.046899904 0.015193249 0.031479843 -0.029990003
-0.048865963 0.032034628 -0.03752873 -0.028164912 0.0076023364 0.03384707 -0.05009987 -0.024900543
-0.0044047674 -0.0300464 0.038635384 0.011763005 0.0055808225 -0.050163686 -0.047680292 0.029702995
-0.031410977 -0.008359923 -0.0071138237 0.018784555 0.03156364 -0.04691723 0.0038779257 -0.02494162
0.023710238 -0.008190882 0.0136093795 0.00012650588 -0.04770859 -0.036891047 0.04220253 -0.00074823626
-0.009141735 -0.007462007 -0.023964638 -0.004466634 0.018448638 0.016226154 -0.045470048 -0.039960556
-0.02153328 -0.0175027 -0.025480976 -0.012724152 0.00018963235 -0.029099846 -0.0092462385 0.034353007
0.01580137 0.046215422 0.011788781 -0.01799901 0.019863628 0.04783486 -0.023047851 0.009372167
0.022905229 -0.029173343 -0.002877782 0.031376153 0.0041903034 0.022001065 0.02323062 0.0414285
0.0033223506 0.0006563724 -0.039701957 0.040238455 0.01735092 0.004746661 0.047698706 0.007961267
-0.0019553674 -0.033656374 -0.0003760572 0.037461504 0.03154936 -0.039886203 -0.03572165 -0.012499116
0.003352402 -0.023607744 -0.03252942 0.0006128498 0.03136091 0.044358283 -0.0058259764 0.017509619
-0.0017129817 -0.045467135 -0.03705361 -0.017674651 0.037443034 -0.044658687 0.02938327 0.018153248
-0.011164083 0.007757974 -0.04243321 0.039062724 -0.043171067 0.014669622 -0.009254535 0.028261498
-4.2531086e-05 -0.010471008 -0.043950863 -0.012775286 0.0117562665 0.00677259 0.011472762 0.02323931
0.020153714 0.030985529 -0.006058949 -0.0048685153 -0.014995357 -0.011643126 0.004364938 0.009700709
0.017804895 0.046436347 0.039991777 -0.03289461 -0.043016076 0.0024575496 0.005217617 -0.041281514
0.029886318 0.027701981 -0.026323969 0.037704553 0.017443819 0.017784087 -0.03197749 0.02466746
-0.015039885 -0.040852536 -0.0067322343 0.0402595 -0.024621643 -0.031387337 0.0022489391 -0.01826125
-0.02312994 0.04063381 0.010819116 0.009680941 -0.0011624205 0.04095902 0.03659557 -0.031456415
-0.0071762037 0.040814884 0.017577494 -0.008798967 -0.031766333 -0.017197063 -0.001501565 -0.036969513
-0.0135771325 -0.018503342 0.00827443 -0.047154374 0.0040371683 -0.009968441 -0.016580805 0.0062051956
-0.019686207 0.012574909 0.0023521937 0.026126672 0.026510943 -0.017780693 -0.014102895 -0.04027468
0.0027886005 0.009654966 -0.014458396 -0.043362197 -0.003687372 -0.015015515 0.017628731 0.0009648743
-0.02580608 -0.041156825 0.00701185 0.036788624 0.040631805 -0.005702138 -0.04001524 0.02615216
-0.012577258 -0.020553559 -0.032676876 -0.021287931 -0.019907247 0.009422242 -0.043347314 -0.039376758
-0.032220986 -0.035211205 0.025736038 -0.037498794 0.016307587 0.024005227 -0.02669473 0.027694052
00000000: b3bb 9a3c f726 28bd 6c37 9e3c 1e77 09bd
00000010: d320 2dbd 525d d13c 0a91 0cbc 00c7 53bd
00000020: 96cc 30bd be61 87bc 082b 5abb 0f0e 3b3b
00000030: f760 3cbd a651 323a 851a 1fbd f6b5 05bd
00000040: 2aa8 8cbc f35c 223d 0eb7 b43b 248b 09bd
00000050: 410e 423b 048f 97bc 86a6 51bd aff6 26bd
00000060: 3a4b aabb abbb 04bd 56f3 33bd ab4a b9bb
00000070: 345f 12bd 1f1e 43ba db80 13bc aea1 18bd
00000080: 909e 263d 0d3e db3c a52c 30bd ac14 103d
00000090: 0cdc 96bc aa8a c5bc 0324 1abd 2251 abbc
000000a0: 5360 4dbd 87d3 b43a 0119 f43c 7b3a 163d
000000b0: 1d1a 40bd 1bed 783c 02f1 003d 98ad f5bc
000000c0: ad27 48bd be36 033d bab7 19bd 1aba e6bc
000000d0: 051d f93b 3aa3 0a3d 8535 4dbd 39fc cbbc
000000e0: de55 90bb de23 f6bc 2340 1e3d 9eb9 403c
000000f0: 55df b63b 7078 4dbd 694c 43bd b253 f33c
00000100: cca8 00bd 0ff8 08bc 141b e9bb 11e2 993c
00000110: e048 013d 482c 40bd cc24 7e3b 5e52 ccbc
00000120: f93b c23c 0d33 06bc e0f9 5e3c aaa6 0439
00000130: 156a 43bd 111b 17bd 8fdc 2c3d 4925 44ba
00000140: 37c7 15bc da83 f4bb 7d51 c4bc d75c 92bb
00000150: 9921 973c b6ec 843c cd3e 3abd aead 23bd
00000160: 9066 b0bc d361 8fbc 7bbd d0bc f678 50bc
00000170: 0cd8 4639 cd62 eebc 897d 17bc bdb5 0c3d
00000180: e071 813c 624c 3d3d bb25 413c a972 93bc
00000190: 0cb9 a23c 7cee 433d d9ce bcbc b88d 193c
000001a0: bfa3 bb3c effc eebc 2c99 3cbb 4884 003d
000001b0: d04e 893b 943b b43c 244e be3c eeb0 293d
000001c0: cbbb 593b 6810 2c3a 859e 22bd 14d1 243d
000001d0: 8423 8e3c e189 9b3b b85f 433d f96f 023c
000001e0: 9f25 00bb 44db 09bd 8b29 c5b9 3c71 193d
000001f0: e739 013d b75f 23bd dd50 12bd 18c9 4cbc
00000200: f9b3 5b3b 0765 c1bc 923d 05bd a7a7 203a
00000210: 4c74 003d 08b1 353d d5e7 bebb 5570 8f3c
00000220: 2186 e0ba bf3b 3abd 87c5 17bd 6eca 90bc
00000230: de5d 193d 07ec 36bd 2fb5 f03c 1fb6 943c
00000240: 8fe9 36bc 9a36 fe3b 72ce 2dbd 3c00 203d
00000250: 25d4 30bd db58 703c 55a0 17bc a884 e73c
00000260: 6863 32b8 978e 2bbc d205 34bd 6f4f 51bc
00000270: 5b9d 403c 9aec dd3b 40f8 3b3c 5e60 be3c
00000280: 6719 a53c 5dd5 fd3c 268a c6bb 1188 9fbb
00000290: 16af 75bc cfc2 3ebc c107 8f3b b9ef 1e3c
000002a0: 92db 913c 0a34 3e3d 6bce 233d 80bc 06bd
000002b0: a031 30bd d70e 213b 8bf8 aa3b ce16 29bd
000002c0: 27d4 f43c 44ef e23c 5da5 d7bc 1770 1a3d
000002d0: 57e6 8e3c efaf 913c d4fa 02bd 6a13 ca3c
000002e0: da69 76bc fd54 27bd 139a dcbb 25e7 243d
000002f0: 54b3 c9bc 0290 00bd f062 133b 9e98 95bc
00000300: 007b bdbc a36f 263d a942 313c cf9c 1e3c
00000310: 5c5c 98ba a5c4 273d 3de5 153d 71d8 00bd
00000320: 5c26 ebbb 822d 273d adfe 8f3c 8b29 10bc
00000330: 6a1d 02bd dbe0 8cbc 29d0 c4ba 586d 17bd
00000340: 9f72 5ebc 5294 97bc 7a91 073c f224 41bd
00000350: 394a 843b ac52 23bc 78d4 87bc f454 cb3b
00000360: f844 a1bc fe06 4e3c 4327 1a3b 9a07 d63c
00000370: 7a2d d93c d1a8 91bc d40f 67bc 10f7 24bd
00000380: f4c0 363b dd2f 1e3c e8e2 6cbc 8f9c 31bd
00000390: d6a7 71bb a203 76bc 216a 903c 9eef 7c3a
000003a0: 4667 d3bc 0f94 28bd a9c3 e53b abaf 163d
000003b0: 896d 263d 00d9 babb 05e7 23bd 0e3d d63c
000003c0: d810 4ebc f05f a8bc 30d8 05bd 0764 aebc
000003d0: 8614 a3bc bf5f 1a3c f48c 31bd 8649 21bd
000003e0: 27fa 03bd a039 10bd 62d4 d23c 5698 19bd
000003f0: 7d97 853c 9ca6 c43c e8ae dabc a3de e23c

conv1.bias f4 [32]
-0.11133327 0.068166316 -0.10833739 -0.0069849533 0.07219776 0.053091 -0.017607518 0.057310443
-0.055213135 0.049598627 0.06690035 -0.117007926 -0.029960023 0.06415422 0.07340717 0.04444322
0.046296798 -0.07982171 -0.024644079 -0.07368849 -0.107790716 0.112190165 0.055972148 -0.046084862
-0.08274456 0.10190182 -0.029832117 0.029449493 -0.08585342 -0.09730271 0.03424553 0.11188491
00000000: b302 e4bd c89a 8b3d fedf ddbd 09e2 e4bb
00000010: 6bdc 933d f375 593d a43d 90bc 5bbe 6a3d
00000020: 2b27 62bd ee27 4b3d 0d03 893d daa1 efbd
00000030: b96e f5bc 4a63 833d 8056 963d 180a 363d
00000040: b6a1 3d3d 9179 a3bd 61e2 c9bc fee9 96bd
00000050: 61c1 dcbd f5c3 e53d 0d43 653d 7bc3 3cbd
00000060: fb75 a9bd e7b1 d03d 7c62 f4bc 1040 f13c
00000070: ebd3 afbd a546 c7bd 0a45 0c3d ea23 e53d

conv2.weight f4 [16, 32, 5, 5]
-0.09198539 -0.06691487 -0.0053212116 -0.02779141 -0.10366209 -0.009668196 -0.0628662 -0.00625438
-0.019960396 -0.086874954 -0.063918605 -0.104132794 -0.110335425 -0.011283615 -0.043938294 -0.018728051
-0.053828545 -0.0038075247 -0.10834169 0.0108664865 -0.06420589 -0.064778484 0.027650539 -0.031331427
-0.073048264 -0.03684006 0.009767208 0.04927235 -0.0028152463 -0.050069444 -0.016922027 -0.021160923
0.03940085 -0.038712516 0.0426778 0.045137655 0.06163817 0.0018992616 -0.01300072 -0.036880404
0.008421137 0.014960064 -0.024866803 0.065145396 -0.014551455 0.045412824 0.04416066 0.0024688558
0.059854455 -0.02841803 0.01759529 0.06582231 0.04552106 0.010144772 -0.02199478 -0.03383777
-0.037128586 0.009229174 0.063929014 -0.03403376 0.023103159 -0.00030999008 0.017788516 -0.036697734
0.015609735 0.029150642 0.019546486 -0.030971369 0.02304878 -0.012200156 0.024168167 -0.010469657
0.00042535443 0.04551597 0.052953422 0.01959837 0.05718395 0.035740167 -0.06172918 -0.062333334
0.051834416 0.015976412 -0.012564007 0.03046254 0.04607956 -0.055793207 -0.049828757 -0.001818436
-0.053479016 -0.054599516 0.061855372 0.041592292 0.04116232 0.013395146 0.067232884 -0.048182216
0.0067571215 0.013001047 0.048940014 0.041937236 -0.02349121 -0.02603365 0.059803937 0.0117172925
-0.056368086 0.007235776 0.008380541 -0.00017101523 0.04602816 0.03221452 -0.0021890362 -0.029222004
0.012118096 0.022544332 0.017955208 -0.0028217167 0.06667539 -0.0038586175 -0.02125008 -0.009213357
0.03464299 0.0491378 0.0018269499 0.06907741 0.058588594 0.048476897 -0.012395036 0.09336351
-0.0034915758 0.043211382 0.10011687 -0.026798438 0.11219819 0.059020083 0.071527846 0.008054012
0.088825464 0.09374506 0.055507775 0.08239675 -0.0068913973 -0.02869934 0.0009031268 -0.015483688
0.07802808 -0.025952443 0.05734658 -0.0018723988 0.065419696 0.0028110554 0.06619781 0.062387742
-0.043141276 0.06108309 -0.060560748 -0.069411926 0.03976997 -0.022242216 0.022207169 -0.028709032
0.045538418 -0.06675685 0.014555006 0.030233886 0.059365816 -0.025316123 0.0024705394 0.03963308
0.04571288 -0.007731964 -0.017133666 -0.05429679 0.059149712 0.025951821 0.0007585843 -0.05494275
-0.048012625 -0.034190048 -0.042785317 0.032293823 -0.01907139 -0.023997672 0.02378635 -0.048510388
0.017594334 -0.016035965 0.002036867 0.07574591 0.04086885 0.04530359 0.048149012 -0.0076535116
0.07131777 0.03132707 -0.0054079304 0.008331207 -0.004816229 -0.013532834 0.04607233 0.067238905
-0.06366374 -0.057458855 -0.038376484 -0.012344987 0.005217527 0.032662705 -0.00027874444 -0.092271365
-0.070962496 0.024225062 -0.09847953 -0.010453752 -0.00014912209 -0.022310529 0.0006347109 -0.024661195
-0.087744996 -0.00026313087 -0.037006285 -0.05201826 -0.04154242 -0.029638385 -0.05145347 0.022033323
0.009239133 -0.04263623 0.051560663 0.028573794 -0.038561955 0.057979416 0.008081096 0.021741759
-0.0013207571 0.019199181 0.043140937 -0.057944864 -0.012837083 0.014763465 -0.008416387 0.07277917
0.055891264 0.056141164 -0.007948305 0.0102851875 -0.053167712 0.06667971 -0.02564821 -0.035774216
-0.05193098 -0.021419216 0.068273194 0.06936589 0.068174064 0.007435301 0.08450792 0.03415928
00000000: d662 bcbd aa0a 89bd 8f5d aebb d0aa e3bc
00000010: ca4c d4bd 5a67 1ebc ffbf 80bd 8bf1 ccbb
00000020: fc83 a3bc 7feb b1bd c2e7 82bd 9343 d5bd
00000030: 8af7 e1bd e9de 38bc a4f8 33bd 926b 99bc
00000040: 527b 5cbd aa87 79bb 3fe2 ddbd 5909 323c
00000050: 617e 83bd 95aa 84bd 6283 e23c 6255 00bd
00000060: 549a 95bd 9ae5 16bd a406 203c ced1 493d
00000070: ff7f 38bb 9e15 4dbd 10a0 8abc ac59 adbc
00000080: c962 213d 0491 1ebd ebce 2e3d 43e2 383d
00000090: 4e78 7c3d a5f0 f83a f900 55bc e80f 17bd
000000a0: cff8 093c 0e1b 753c 77b5 cbbc f36a 853d
000000b0: 3a69 6ebc cc02 3a3d cfe1 343d 87cc 213b
000000c0: f229 753d eecc e8bc ff23 903c d9cd 863d
000000d0: 4a74 3a3d 4236 263c 662e b4bc 7999 0abd
000000e0: 2514 18bd f635 173c 37ed 823d fc66 0bbd
000000f0: d642 bd3c 2a86 a2b9 39b9 913c 5d50 16bd
00000100: f9bf 7f3c 54cd ee3c f41f a03c abb7 fdbc
00000110: ccd0 bc3c 2ae3 47bc 52fc c53c ed88 2bbc
00000120: 1b02 df39 f46e 3a3d b0e5 583d c38c a03c
00000130: b839 6a3d 4864 123d bdd7 7cbd 3d51 7fbd
00000140: 5350 543d f7e0 823c 44d9 4dbc 948c f93c
00000150: ecbd 3c3d 6b87 64bd 3d19 4cbd 9658 eeba
00000160: d00c 5bbd bea3 5fbd 0f5c 7d3d ae5c 2a3d
00000170: d299 283d 5077 5b3c 65b1 893d b75a 45bd
00000180: d86a dd3b 5802 553c 5375 483d 61c6 2b3d
00000190: a370 c0bc 8544 d5bc f9f4 743d e3f9 3f3c
000001a0: 39e2 66bd 171a ed3b 894e 093c 8d52 33b9
000001b0: 0688 3c3d 5ff3 033d ef75 0fbb fc62 efbc
000001c0: fb8a 463c e4ae b83c cd16 933c 8dec 38bb
000001d0: 1b8d 883d dce0 7cbb a614 aebc 9ff3 16bc
000001e0: cfe5 0d3d b844 493d 4476 ef3a 7578 8d3d
000001f0: 98fa 6f3d b68f 463d 8d14 4bbc 5e35 bf3d
00000200: ecd2 64bb 6bfe 303d 130a cd3d 6688 dbbc
00000210: 2ac8 e53d 0bbf 713d 317d 923d faf4 033c
00000220: 20ea b53d 69fd bf3d 1f5c 633d a1bf a83d
00000230: 3bd1 e1bb e11a ebbc d0bf 6c3a 4baf 7dbc
00000240: 30cd 9f3d 389a d4bc 3fe4 6a3d 476b f5ba
00000250: c3fa 853d af39 383b b892 873d 4a8a 7f3d
00000260: e8b4 30bd 4332 7a3d 8c0e 78bd d727 8ebd
00000270: d6e5 223d 4f35 b6bc cfeb b53c 342f ebbc
00000280: 7e86 3a3d d1b7 88bd 1f78 6e3c 0ead f73c
00000290: 9229 733d c263 cfbc c6e8 213b 4c56 223d
000002a0: 6e3d 3b3d 6a5c fdbb e75b 8cbc 5066 5ebd
000002b0: f846 723d ea98 d43c bbdb 463a a60b 61bd
000002c0: e3a8 44bd dd0a 0cbd a83f 2fbd 8746 043d
000002d0: 9b3b 9cbc c496 c4bc 97db c23c d4b2 46bd
000002e0: fe21 903c db5d 83bc f57c 053b ac20 9b3d
000002f0: 1866 273d 4290 393d e637 453d 4fca fabb
00000300: 0d0f 923d d050 003d 0235 b1bb 9d7f 083c
00000310: 75d1 9dbb d2b8 5dbc 57b6 3c3d 8db4 893d
00000320: 2362 82bd fa59 6bbd a930 1dbd a142 4abc
00000330: caf7 aa3b 54c9 053d 7224 92b9 c5f8 bcbd
00000340: c954 91bd a373 c63c a3af c9bd 3746 2bbc
00000350: a85d 1cb9 92c4 b6bc ba62 263a 4606 cabc
00000360: a6b3 b3bd d4f4 89b9 e793 17bd 1911 55bd
00000370: 6228 2abd 33cc f2bc e0c0 52bd 3a7f b43c
00000380: bc5f 173c 54a3 2ebd 4631 533d 9713 ea3c
00000390: 24f3 1dbd d37b 6d3d 9366 043c c61b b23c
000003a0: 411d adba 9a47 9d3c 8db4 303d 9857 6dbd
000003b0: a152 52bc 76e2 713c e3e4 09bc 3f0d 953d
000003c0: 3dee 643d 47f4 653d 9c39 02bc 3483 283c
000003d0: 63c6 59bd 5f8f 883d 321c d2bc fc87 12bd
000003e0: 94b5 54bd 5a77 afbc d1d2 8b3d b40f 8e3d
000003f0: d89e 8b3d d3a3 f33b 7d12 ad3d 9aea 0b3d

conv2.bias f4 [16]
0.040399436 0.05718498 -0.027020108 -0.030288786 -0.017516168 0.012692646 0.011823796 0.056355633
0.03440571 -0.035906542 0.028829277 -0.016115494 -0.038100723 0.015403651 0.03426085 0.0046364246
00000000: e179 253d cc3a 6a3d 4659 ddbc 3020 f8bc
00000010: 117e 8fbc d1f4 4f3c 98b8 413c 2ad5 663d
00000020: 00ed 0c3d bd12 13bd 602b ec3c a404 84bc
00000030: 810f 1cbd 985f 7c3c 1b55 0c3d 26ed 973b

conv3.weight f4 [8, 16, 3, 3]
-0.10065775 0.12063683 -0.032805573 0.1065028 0.15598767 0.08275704 0.06630649 -0.027870204
0.15449305 -0.16520876 0.05396458 -0.03877731 -0.16503938 0.13946657 -0.073677704 -0.11555968
0.035036787 0.13395971 0.13190782 -0.080876544 0.050025087 -0.1411664 0.06347228 -0.016777268
-0.066779554 0.042421576 -0.05256756 0.15112576 -0.109826155 -0.12535039 0.11440264 -0.026875066
0.12872201 -0.11682713 0.020377645 0.018162712 0.15957858 0.15169074 0.09391646 0.022223769
0.16845782 -0.0024934842 0.07213413 -0.11579693 -0.113140404 -0.12096 -0.16137874 -0.12861954
-0.02169247 0.08413145 -0.044374492 0.11405397 -0.122613735 0.030374967 -0.1503553 0.09562448
-0.08201211 0.011679553 0.07218271 0.13813372 -0.050582286 -0.037374742 0.12284811 0.045031797
0.13831648 0.03151406 0.13379845 0.07262751 0.1263916 0.1351689 0.16936795 0.064776756
-0.122120276 -0.17322251 0.044079784 0.012744051 -0.010255323 0.055040076 -0.007786141 0.015952703
0.016408784 -0.14627473 0.06743297 -0.114018075 -0.026152149 0.057543464 0.13651219 -0.038336825
-0.1057891 -0.13998273 -0.04756815 0.09878611 0.14738232 0.067472406 -0.13969684 0.15234151
-0.15978242 0.110341914 -0.07925399 0.16477218 -0.095499024 0.15881091 0.14032307 0.0018243288
-0.06822495 -0.14698572 0.055603568 -0.10391202 -0.067371234 0.05628037 -0.07377721 -0.008058822
-0.07858847 0.105980486 0.10886318 0.062280353 0.03253829 0.15311414 0.07980003 -0.11614343
-0.050185706 0.11582261 0.04492827 -0.04440595 -0.08963195 -0.05067884 0.113159 0.061507657
0.11358757 0.11715099 -0.08140804 0.0647871 0.004855767 -0.160726 0.03873999 -0.12929685
0.095691815 0.15067539 0.13483804 0.07486962 -0.14517671 -0.009335441 0.16829187 0.1645419
-0.035368014 -0.060673576 0.10171902 0.018546863 -0.03760813 0.07322715 0.13719954 0.100173436
-0.1443529 0.008181467 -0.0104733575 0.11444816 0.08737378 -0.17273065 0.08361323 0.01965986
-0.14724436 0.004319052 -0.031025305 0.09019361 -0.14409496 -0.16132282 0.012086547 0.028358016
0.069102794 -0.012457302 -0.10698268 -0.017469738 0.044403058 0.01509597 -0.060165443 -0.15245163
-0.039850794 -0.13611227 -0.02929823 0.09746051 0.12156055 0.110894375 0.12376372 -0.11179984
-0.15501183 -0.09278382 -0.16871472 -0.1039577 0.036766857 0.14897956 -0.15001021 -0.1394876
0.06022547 0.13084705 -0.05398212 -0.09918448 -0.025585612 0.10825333 -0.03725022 -0.17038614
0.10967284 0.07263244 -0.010897346 -0.0046969866 -0.14296913 0.14496292 -0.14337932 0.13319741
0.03584955 -0.012105597 -0.08829971 -0.004777944 -0.06839129 -0.08624183 -0.08323257 -0.13212453
-0.09034847 -0.00061500707 0.0056537353 0.0021974205 0.13787717 -0.045926303 -0.14762671 0.038809337
-0.055640955 -0.08872722 0.1418331 -0.07072337 -0.020289794 0.051380232 -0.017554441 0.1125633
0.111792006 -0.05986009 0.031070791 -0.08806372 -0.10584702 0.11897909 -0.0452585 -0.1343287
0.12100526 -0.013204501 -0.07688989 0.06619279 0.023299083 -0.037667274 0.15788218 0.14204493
-0.033585373 0.13960464 0.039443485 -0.15923694 0.10328273 -0.13068302 0.06336083 0.10486233
00000000: a725 cebd 7110 f73d 235f 06bd 241e da3d
00000010: 3bbb 1f3e 867c a93d b2cb 873d 0e50 e4bc
00000020: 6d33 1e3e 7c2c 29be f709 5d3d f5d4 1ebd
00000030: 1500 29be 53d0 0e3e 56e4 96bd 8eaa ecbd
00000040: bc82 0f3d bc2c 093e d812 073e 9aa2 a5bd
00000050: 1be7 4c3d ed8d 10be c1fd 813d 7b70 89bc
00000060: b8c3 88bd 3fc2 2d3d 1551 57bd b6c0 1a3e
00000070: 89ec e0bd da5b 00be ee4b ea3d 1929 dcbc
00000080: b4cf 033e 1043 efbd 05ef a63c f8c9 943c
00000090: 9168 233e d154 1b3e 4657 c03d 9f0e b63c
000000a0: 3580 2c3e b969 23bb 0fbb 933d f126 edbd
000000b0: 28b6 e7bd e0b9 f7bd 7840 25be d7b4 03be
000000c0: 68b4 b1bc 1c4d ac3d 07c2 35bd 2195 e93d
000000d0: e91c fbbd ecd4 f83c bdf6 19be c4d6 c33d
000000e0: f7f5 a7bd 995b 3f3c 87d4 933d ed72 0d3e
000000f0: 5f2f 4fbd 4216 19bd ca97 fb3d 4373 383d
00000100: d6a2 0d3e e314 013d 7602 093e bbbd 943d
00000110: cd6c 013e b769 0a3e cb6e 2d3e ada9 843d
00000120: 321a fabd 3e61 31be 018d 343d 6dcc 503c
00000130: f105 28bc b471 613d e222 ffbb 3eaf 823c
00000140: b76b 863c 0bc9 15be 4c1a 8a3d 4f82 e9bd
00000150: 083d d6bc b2b2 6b3d dac9 0b3e 1307 1dbd
00000160: f5a7 d8bd a257 0fbe d2d6 42bd 5f50 ca3d
00000170: 64eb 163e f92e 8a3d b00c 0fbe 6aff 1b3e
00000180: 019e 23be f1fa e13d ea4f a2bd 0aba 283e
00000190: fe94 c3bd 549f 223e dab0 0f3e 511e ef3a
000001a0: 86b9 8bbd 6d83 16be 91c0 633d d3cf d4bd
000001b0: eef9 89bd 3f86 663d 8218 97bd 2609 04bc
000001c0: fef2 a0bd 4c0c d93d a9f3 de3d af19 7f3d
000001d0: df46 053d f4c9 1c3e 336e a33d 9bdc edbd
000001e0: 878f 4dbd 6834 ed3d b506 383d 03e3 35bd
000001f0: f590 b7bd 9e94 4fbd e8bf e73d 74ef 7b3d
00000200: 9aa0 e83d dcec ef3d 42b9 a6bd 19af 843d
00000210: 201d 9f3b 5b95 24be d3ad 1e3d 6566 04be
00000220: 12fa c33d a64a 1a3e fc12 0a3e 3e55 993d
00000230: 34a9 14be adf3 18bc b454 2c3e ac7d 283e
00000240: 0dde 10bd db84 78bd 1052 d03d 97ef 973c
00000250: fc0a 1abd 1ef8 953d 097e 0c3e bb27 cd3d
00000260: 3fd1 13be 8f0b 063c 7298 2bbc cc63 ea3d
00000270: 06f1 b23d 4ee0 30be 6a3d ab3d b70d a13c
00000280: 3ac7 16be d686 8d3b c828 febc 6db7 b83d
00000290: a18d 13be cf31 25be a706 463c 124f e83c
000002a0: c485 8d3d b619 4cbc bc19 dbbd b21c 8fbc
000002b0: fbdf 353d 1655 773c 0a70 76bd 481c 1cbe
000002c0: 963a 23bd 0461 0bbe d702 f0bc 6099 c73d
000002d0: bdf4 f83d 971c e33d d577 fd3d 51f7 e4bd
000002e0: 6cbb 1ebe 7205 bebd 8dc3 2cbe c6e7 d4bd
000002f0: d898 163d 198e 183e 479c 19be d6d5 0ebe
00000300: fcae 763d c5fc 053e 5b1c 5dbd 3c21 cbbd
00000310: eb98 d1bc ecb3 dd3d b093 18bd b479 2ebe
00000320: 279c e03d 51c0 943d c88a 32bc 2ee9 99bb
00000330: 8066 12be 2971 143e 07d2 12be e764 083e
00000340: fad6 123d 8e56 46bc 7ad6 b4bd 4d90 9cbb
00000350: bc10 8cbd 8e9f b0bd d675 aabd a74b 07be
00000360: 9e08 b9bd 6d38 21ba f842 b93b 9902 103b
00000370: ac2f 0d3e 381d 3cbd 752b 17be 8af6 1e3d
00000380: c5e7 63bd 9eb6 b5bd b23c 113e 6ad7 90bd
00000390: c836 a6bc 1474 523d 55ce 8fbc 9687 e63d
000003a0: 35f3 e43d db2f 75bd 2c88 fe3c c05a b4bd
000003b0: 53c6 d8bd 4fab f33d fa60 39bd 768d 09be
000003c0: 9bd1 f73d b157 58bc 7278 9dbd 1690 873d
000003d0: b8dd be3c 0049 1abd deab 213e 3a74 113e
000003e0: d190 09bd 85f4 0e3e 7e8f 213d 020f 23be
000003f0: e585 d33d c5d1 05be 53c3 813d 10c2 d63d

conv3.bias f4 [8]
-0.043764412 -0.081496045 0.033153895 0.0684724 0.056427564 0.0655109 0.054886855 -0.001586603
00000000: 5042 33bd 66e7 a6bd 61cc 073d 423b 8c3d
00000010: 9720 673d 942a 863d 0ad1 603d 90f5 cfba

convt1.weight f4 [8, 8, 3, 3]
-0.052399844 0.146412 0.09695416 0.06622737 -0.055461586 0.16216885 0.09569071 -0.054653153
0.1344287 -0.1854182 -0.060379773 -0.011704197 -0.23761767 -0.026267609 0.06857453 0.039483584
-0.09781775 0.0046380833 -0.13279535 -0.1646548 -0.0024096072 -0.025719628 0.09008931 0.012793492
0.17918934 0.122224525 0.16404535 -0.04632459 0.18180695 -0.04322942 -0.090893336 0.18091086
-0.18392114 -0.10696037 -0.1559283 0.14533769 0.09682286 -0.053467646 0.2097312 0.058315102
-0.11889398 0.11147548 0.076306745 0.10061836 0.16831942 0.05441327 0.1991036 0.048159327
-0.08758077 0.13832246 -0.1314065 -0.12279784 -0.11694355 -0.17001334 0.05506051 0.01987369
0.18923521 0.008537897 0.18244618 -0.023834633 0.13776402 0.03987149 -0.04338333 0.16632165
0.15176953 0.17076056 0.19699627 0.04493465 0.13849397 0.11343822 -0.005607704 -0.19475168
0.13516894 -0.13181134 -0.16739729 -0.08294191 -0.14273682 -0.12995267 -0.06486665 -0.079983205
-0.13010734 -0.08164362 -0.11286212 0.010313951 0.08427795 0.07482351 0.17543177 -0.17862782
-0.004847514 0.0025803214 0.19114755 -0.06514691 -0.18186156 -0.083901376 -0.15576917 0.2015646
-0.015129152 -0.09617714 0.20384511 -0.17436132 0.016753292 0.06833597 0.18104106 -0.024255019
0.048599068 0.06762379 -0.10466819 -0.04508904 -0.061734356 0.13777459 0.095730804 0.11309793
-0.1140017 -0.02242829 0.043292608 -0.0022315092 0.14552146 -0.16597776 0.1229065 -0.028877268
-0.13707823 -0.09382336 0.1212878 -0.17598398 -0.16963875 0.08084092 0.09684778 0.00067451707
0.06259097 0.15377238 -0.14191858 0.02689449 0.110322066 -0.01547852 -0.0978599 -0.11469223
-0.041976783 -0.1669978 -0.1373064 0.19819357 0.029842949 -0.15527295 -0.14759733 -0.034105707
-0.119787835 -0.14514178 -0.1029328 0.10206517 0.13777284 -0.15224482 -0.1387226 0.1629058
0.012143947 -0.03450896 0.1226631 0.15592334 0.15870978 -0.17639704 0.15087296 -0.09400672
-0.11023278 -0.029367778 -0.08300036 -0.111325555 0.14220892 -0.052949242 0.17320438 -0.08266009
0.1587657 0.037409548 -0.10690801 -0.10525427 0.11860203 -0.17113727 -0.099104926 -0.15966898
0.04017219 0.13122134 -0.11836688 -0.06074095 0.12034157 0.004242496 0.12093621 -0.029420728
-0.11510736 -0.07479026 0.12394743 0.061423752 -0.0016356976 0.08795005 0.111768685 0.13795996
-0.09775275 -0.042377833 0.012675701 0.13471983 -0.15581864 0.022424415 -0.11066718 -0.13229477
-0.049861018 0.1495746 0.054749772 -0.030968653 0.10270449 -0.07299114 0.1876252 0.11377542
-0.009840417 -0.023050949 0.08573435 0.20133178 -0.20285018 -0.10269959 -0.14248979 -0.15000446
0.10985943 -0.21638817 -0.056152333 -0.1926713 -0.12690943 -0.11045884 0.22384259 -0.14879991
-0.08877159 -0.07697532 -0.038749393 -0.0074136015 0.11626152 0.002602035 0.14000039 -0.115177944
0.091569446 0.12202343 0.056175243 0.118446805 0.0023807809 0.116315275 0.08181099 -0.13136451
0.041093946 -0.013488209 0.15010403 -0.0667402 0.124076225 -0.020562997 -0.19981103 0.059956305
-0.1379722 0.1112692 0.05949449 0.15097868 -0.085677154 -0.009263665 0.14891605 -0.17293876
00000000: 38a1 56bd 07ed 153e e78f c63d 37a2 873d
00000010: b02b 63bd 970f 263e 7ef9 c33d fcdb 5fbd
00000020: ada7 093e 45de 3dbe c850 77bd f6c2 3fbc
00000030: 0c52 73be 2b2f d7bc ce70 8c3d 8ab9 213d
00000040: ac54 c8bd 10fb 973b 81fb 07be 459b 28be
00000050: 80ea 1dbb f8b1 d2bc bf80 b83d cb9b 513c
00000060: 697d 373e da50 fa3d 81fb 273e dabe 3dbd
00000070: 9a2b 3a3e 5511 31bd 4926 babd b240 393e
00000080: d355 3cbe 0a0e dbbd abab 1fbe 67d3 143e
00000090: 104b c63d e400 5bbd c7c3 563e d1db 6e3d
000000a0: b07e f3bd 424d e43d b646 9c3d 0011 ce3d
000000b0: ed5b 2c3e 73e0 5e3d d0e1 4b3e b742 453d
000000c0: 8c5d b3bd 67a4 0d3e 6d8f 06be 6f7d fbbd
000000d0: 1a80 efbd fa17 2ebe 2187 613d 26ce a23c
000000e0: e0c6 413e 89e2 0b3c 2cd3 3a3e d940 c3bc
000000f0: 0312 0d3e 4a50 233d b8b2 31bd 3950 2a3e
00000100: 7969 1b3e dbdb 2e3e 64b9 493e 650d 383d
00000110: 5dd1 0d3e 4c52 e83d d5c0 b7bb fc6c 47be
00000120: ba69 0a3e 8df9 06be 326a 2bbe 73dd a9bd
00000130: 9a29 12be 5012 05be ced8 84bd 3cce a3bd
00000140: dc3a 05be c534 a7bd 4124 e7bd d9fb 283c
00000150: eb99 ac3d 123d 993d 63a4 333e 36ea 36be
00000160: e5d7 9ebb 9c1a 293b 2fbc 433e be6b 85bd
00000170: eb39 3abe 7cd4 abbd f481 1fbe f366 4e3e
00000180: 43e0 77bc 85f8 c4bd c6bc 503e c68b 32be
00000190: 333e 893c bbf3 8b3d d462 393e 76b2 c6bc
000001a0: d10f 473d 577e 8a3d 475c d6bd 49af 38bd
000001b0: 2add 7cbd c814 0d3e 830e c43d e39f e73d
000001c0: b979 e9bd 89bb b7bc 9753 313d 833e 12bb
000001d0: 9403 153e 13f6 29be 67b6 fb3d 0590 ecbc
000001e0: 3c5e 0cbe 7626 c0bd bd65 f83d 2535 34be
000001f0: c8b5 2dbe ed8f a53d 2158 c63d 13d2 303a
00000200: b22f 803d 8276 1d3e 1b53 11be d551 dc3c
00000210: 89f0 e13d 9e99 7dbc c56a c8bd c3e3 eabd
00000220: d9ef 2bbd 7901 2bbe 0d9a 0cbe 41f3 4a3e
00000230: 3379 f43c dfff 1ebe c123 17be 6db2 0bbd
00000240: 5353 f5bd 0ca0 14be 6fce d2bd 8b07 d13d
00000250: 5314 0d3e 11e6 1bbe 4c0d 0ebe c7d0 263e
00000260: 68f7 463c 4459 0dbd cb36 fb3d 5eaa 1f3e
00000270: d184 223e 6da1 34be 717e 1a3e 9886 c0bd
00000280: b9c1 e1bd b294 f0bc 18fc a9bd a7fe e3bd
00000290: 379f 113e 4ee1 58bd 7d5c 313e b149 a9bd
000002a0: 7a93 223e c13a 193d 96f2 dabd 8d8f d7bd
000002b0: 9fe5 f23d 9c3e 2fbe 86f7 cabd 4480 23be
000002c0: 988b 243d e35e 063e 566a f2bd 81cb 78bd
000002d0: a475 f63d a304 8b3b 67ad f73d bd03 f1bc
000002e0: 68bd ebbd a32b 99bd 26d8 fd3d 7997 7b3d
000002f0: e764 d6ba 281f b43d fbe6 e43d 6045 0d3e
00000300: 9832 c8bd 6194 2dbd bead 4f3c fff3 093e
00000310: ec8e 1fbe 68b3 b73c 79a5 e2bd 4878 07be
00000320: 113b 4cbd 152a 193e 4c41 603d f9b1 fdbc
00000330: bb56 d23d 617c 95bd d220 403e 1603 e93d
00000340: b339 21bc 58d5 bcbc 7e95 af3d eb29 4e3e
00000350: f5b7 4fbe 2a54 d2bd d8e8 11be c59a 19be
00000360: fbfd e03d dc94 5dbe fdff 65bd a04b 45be
00000370: 8cf4 01be 3f38 e2bd fe36 653e 015f 18be
00000380: e1cd b5bd 3da5 9dbd afb7 1ebd cced f2bb
00000390: 851a ee3d e786 2a3b 435c 0f3e 6ae2 ebbd
000003a0: c388 bb3d 6ce7 f93d 0318 663d 3d94 f23d
000003b0: e006 1c3b b436 ee3d 858c a73d 6b84 06be
000003c0: 2052 283d a6fd 5cbc dfb4 193e 16af 88bd
000003d0: ad1b fe3d bb73 a8bc 439b 4cbe be94 753d
000003e0: 9648 0dbe 1be1 e33d 7fb0 733d 289a 1a3e
000003f0: 8177 afbd a1c6 17bc 737d 183e dc16 31be

convt1.bias f4 [8]
-0.028814321 0.11622363 0.031496096 0.105471015 -0.043069694 0.06310843 0.013755612 -0.11628426
00000000: 030c ecbc a806 ee3d 0d02 013d 3001 d83d
00000010: d969 30bd fe3e 813d 385f 613c 7126 eebd

convt2.weight f4 [8, 16, 5, 5]
-0.015643971 0.026937936 0.10645508 -0.007842187 0.028652754 -0.063102 0.10935428 -0.1792587
-0.06941819 -0.06315816 0.06116698 0.102809876 0.06484329 -0.013783993 -0.0454612 0.005819311
0.076146014 0.014405241 0.036534347 0.09673847 -0.02100805 -0.070090085 -0.07573457 -0.06469729
0.08834277 0.078524865 0.14653875 -0.094361275 -0.08612984 -0.019418195 0.012582718 0.029262882
-0.036472026 0.0491219 -0.0026336114 -0.02810295 0.15312794 -0.013221325 0.07281701 0.08429491
0.03259013 0.007947434 -0.0268227 0.022652192 -0.017362814 -0.1024792 -0.027392806 0.051324133
-0.041121207 -0.07890823 0.069185495 0.028917141 0.0060755494 0.06646457 -0.031430636 0.09922873
0.011273936 -0.0032754648 0.08656271 -0.05909941 0.022562249 -0.007509643 -0.0020420505 0.086393714
-0.023034824 0.027297132 0.020112762 0.044073008 0.11894514 -0.09181876 -0.043545157 -0.038280994
-0.024756825 0.00329069 0.026754623 0.06909279 -0.05961143 0.050831832 0.0459636 -0.09300435
-0.014902713 -0.2158392 -0.056748107 0.02654324 0.10497207 0.027530758 0.14010216 -0.018092563
0.013566709 -0.113070756 0.006224118 -0.13471223 0.085610956 0.14524405 0.028774723 -0.062028084
-0.08257072 -0.0402266 0.087629415 0.060753852 0.036094308 -0.0033331872 -0.047156215 0.013020945
-0.026809016 0.05492508 -0.051150963 -0.07173854 0.0011270304 -0.030209115 0.0014848838 -0.07539825
-0.023987733 -0.04013597 -0.08397559 -0.008333701 0.12450263 -0.03000116 -0.04391938 -0.014483159
-0.0477391 0.080921136 -0.08536096 -0.07677582 -0.06164574 0.2085736 0.0592753 0.062465522
0.055014208 -0.072745025 0.10965182 0.11030539 0.06467514 -0.04773819 0.07782894 0.013629114
0.07024626 0.063705556 -0.048310615 0.068791874 -0.031578593 0.028529735 0.0019588335 0.016023587
-0.060681373 0.25728565 0.101298064 -0.06322056 0.14407311 0.058975637 0.012627885 0.026443107
0.04593817 -0.104079075 0.008263144 -0.054557305 -0.044921696 0.0140748555 -0.060436696 0.09729764
0.025041632 -0.051465675 0.026681159 -0.02768126 0.032150466 -0.031232608 0.092723764 -0.021185873
-0.07536504 0.056164704 -0.016250622 -0.05745009 0.0132429935 0.06938606 -0.025732478 0.16691302
-0.07622714 0.26090747 -0.14110437 0.30646276 -0.07494537 0.03383639 -0.08617069 -0.075275384
-0.05000887 0.07879608 0.1861678 0.25370732 -0.07380922 0.18167087 -0.05400281 0.008697403
-0.15442963 -0.04720533 -0.033044267 0.04968751 -0.021348178 0.30089056 -0.016982244 0.112750925
-0.04750333 -0.021413535 0.06608999 -0.3697125 0.007935608 -0.01254434 -0.08325644 -0.02882427
-0.24081738 0.07458616 0.06839933 -0.14365624 0.07265162 0.12658119 -0.006661296 -0.009238179
0.03802815 -0.041879624 0.01984171 0.055183265 0.07090183 -0.05562331 -0.0017306925 -0.08055602
-0.03463986 -0.08432564 -0.074831136 -0.039427456 0.0059635364 -0.026912905 0.041793883 -0.23553897
0.046504118 -0.10343129 0.035450313 0.08714742 -0.045280214 -0.09181228 0.005743144 -0.12797952
0.109778374 0.16575052 0.03522744 0.03386281 -0.07523451 -0.07268059 -0.14175531 0.12628672
-0.029796224 -0.011178396 0.084046386 0.10326319 -0.10261252 0.052328248 -0.05941776 0.048780125
00000000: c927 80bc f2ac dc3c 1f05 da3d 847c 00bc
00000010: 2eb9 ea3c 9f3b 81bd 23f5 df3d 988f 37be
00000020: 202b 8ebd 1159 81bd 3a8a 7a3d fc8d d23d
00000030: 8fcc 843d 42d6 61bc 8635 3abd ebaf be3b
00000040: 71f2 9b3d f603 6c3c 0aa5 153d d21e c63d
00000050: 1319 acbc 648b 8fbd ba1a 9bbd 0380 84bd
00000060: 0eed b43d a5d1 a03d 410e 163e 7c40 c1bd
00000070: d764 b0bd e812 9fbc bf27 4e3c b6b8 ef3c
00000080: b163 15bd 0c34 493d ab98 2cbb 2838 e6bc
00000090: 92cd 1c3e 429e 58bc 1621 953d cfa2 ac3d
000000a0: 3a7d 053d f435 023c 47bb dbbc 1791 b93c
000000b0: 763c 8ebc 9de0 d1bd e166 e0bc 4139 523d
000000c0: b66e 28bd a39a a1bd 20b1 8d3d a4e3 ec3c
000000d0: 6715 c73b 941e 883d 69bd 00bd 6f38 cb3d
000000e0: 51b6 383c 2ea9 56bb ca47 b13d 3912 72bd
000000f0: 77d4 b83c 7413 f6bb ecd3 05bb 30ef b03d
00000100: 87b3 bcbc 3c9e df3c 85c3 a43c e685 343d
00000110: 8299 f33d 790b bcbd 685c 32bd 88cc 1cbd
00000120: d3ce cabc 9ea8 573b 832c db3c 8580 8d3d
00000130: 1d2b 74bd 0a35 503d 5444 3c3d 1179 bebd
00000140: 822a 74bc f404 5dbe b470 68bd 3571 d93c
00000150: 99fb d63d 2f88 e13c f176 0f3e db36 94bc
00000160: e746 5e3c a491 e7bd b0f3 cb3b 01f2 09be
00000170: cc54 af3d dbba 143e f8b8 eb3c 2911 7ebd
00000180: d61a a9bd a6c4 24bd 0d77 b33d 08d9 783d
00000190: a0d7 133d 9a71 5abb e026 41bd cd55 553c
000001a0: 959e dbbc 1ff9 603d ac83 51bd a8eb 92bd
000001b0: ddb8 933a 1b79 f7bc 6fa0 c23a 666a 9abd
000001c0: ec81 c4bc 9d65 24bd 65fb abbd 138a 08bc
000001d0: 3cfb fe3d fec4 f5bc cfe4 33bd c64a 6dbc
000001e0: 138a 43bd fbb9 a53d bad1 aebd a43c 9dbd
000001f0: 3e80 7cbd 5194 553e a8ca 723d d9db 7f3d
00000200: 9456 613d 58fb 94bd 2291 e03d cbe7 e13d
00000210: 6674 843d 1f89 43bd c764 9f3d a64c 5f3c
00000220: 45dd 8f3d 0f78 823d 5ae1 45bd c1e2 8c3d
00000230: 8e58 01bd 31b7 e93c c65f 003b e643 833c
00000240: 088d 78bd f2ba 833e 5c75 cf3d c879 81bd
00000250: e787 133e 7090 713d 30e5 4e3c 379f d83c
00000260: aa29 3c3d 6927 d5bd 2362 073c 7b77 5fbd
00000270: d0ff 37bd 399a 663c 788c 77bd fc43 c73d
00000280: 1c24 cd3c accd 52bd 7292 da3c cfc3 e2bc
00000290: 35b0 033d 87db ffbc f5e5 bd3d ff8d adbc
000002a0: fc58 9abd f60c 663d 0620 85bc c950 6bbd
000002b0: 24f9 583c 471a 8e3d ebcc d2bc 3feb 2a3e
000002c0: fa1c 9cbd aa95 853e aa7d 10be b0e8 9c3e
000002d0: f57c 99bd 0798 0a3d 427a b0bd fb29 9abd
000002e0: 1ad6 4cbd d75f a13d c6a2 3e3e ede5 813e
000002f0: 4a29 97bd ee07 3a3e 0d32 5dbd 8d7f 0e3c
00000300: cd22 1ebe 605a 41bd 6d59 07bd 2185 4b3d
00000310: 60e2 aebc 540e 9a3e 591e 8bbc f5e9 e63d
00000320: da92 42bd 706b afbc 305a 873d f54a bdbe
00000330: 5a04 023c c786 4dbc 5a82 aabd e020 ecbc
00000340: d598 76be a1c0 983d f314 8c3d 9f1a 13be
00000350: 5fca 943d 809e 013e 0047 dabb bb5b 17bc
00000360: 68c3 1b3d f889 2bbd 158b a23c d907 623d
00000370: fb34 913d 45d5 63bd 67d8 e2ba 8efa a4bd
00000380: 87e2 0dbd ecb2 acbd 1141 99bd af7e 21bd
00000390: c569 c33b 7478 dcbc 1030 2b3d 2131 71be
000003a0: 1a7b 3e3d c9d3 d3bd 5934 113d 597a b23d
000003b0: bf77 39bd 1408 bcbd fc30 bc3b 100d 03be
000003c0: 7cd3 e03d 81ba 293e a64a 103d bbb3 0a3d
000003d0: 8d14 9abd 90d9 94bd 4e28 11be 4e51 013e
000003e0: 3617 f4bc 9725 37bc 8320 ac3d a77b d33d
000003f0: 8326 d2bd 2556 563d 0a60 73bd abcd 473d

convt2.bias f4 [16]
0.08104946 0.06689437 0.0036092033 0.00044811555 0.057100553 0.052499544 0.029528461 -0.05010913
0.018969862 0.051671345 0.054806866 0.08135716 0.06751033 0.05395373 0.002150563 0.023831842
00000000: 42fd a53d eaff 883d 6288 6c3b 0df1 ea39
00000010: 45e2 693d c309 573d ace5 f13c 3b3f 4dbd
00000020: af66 9b3c 55a5 533d 2a7d 603d 959e a63d
00000030: db42 8a3d 96fe 5c3d 76f0 0c3b ff3a c33c

convt3.weight f4 [16, 32, 9, 9]
0.00468537 0.013041029 0.016348498 -0.024966994 0.016386585 -0.033028338 -0.0143754715 -0.042774335
-0.017258905 0.02992453 -0.0009940781 0.046553984 -0.0031880538 0.01822948 -0.013790117 0.049660522
0.02542447 0.04575403 0.036275074 -0.004348416 0.025330339 0.03378489 0.04049351 -0.015616678
0.051588666 0.031908285 -0.044380367 0.02659438 -0.013618168 -0.00549204 0.04200092 -0.009951795
0.024624141 0.040924314 -0.014369595 -0.05553279 0.018542452 -0.009345576 0.031856522 0.04035563
0.0065879286 0.034293935 -0.012507881 -0.020994669 0.039510377 -0.0071813236 0.041278798 0.02495163
0.010756551 0.008275222 0.027291017 0.013513555 0.04202656 0.009413527 -0.0005219449 -0.0080446275
0.0011405613 -0.0069177854 0.02399872 0.041133545 0.023268135 0.019541904 -0.03186009 -0.024600992
0.02916924 -0.0026646266 -0.027036032 0.03952662 -0.004710205 -0.0043089883 0.0054463423 -0.0076340437
0.031973235 -0.01770954 -0.02585459 0.046079867 0.056549747 -0.004167307 0.04139787 0.0072189197
0.032171033 0.0014154754 0.030178437 -0.037149202 -0.004635265 0.019726202 -0.04579899 0.015132574
0.023003295 -0.030684205 -0.023662215 0.009548629 0.006827284 0.04089235 -0.013717179 -0.037342038
-0.013515171 0.023834804 0.0021745309 -0.029724047 -0.020736303 0.0066053704 -0.02868961 -0.04275296
0.01984034 -0.040357832 -0.03852885 0.017973049 -0.015711665 0.011796738 -0.0100151375 0.0034391368
0.01397413 0.017364472 -0.008108609 0.018557247 -0.013182418 0.025184786 -0.024997216 -0.04611059
0.022859197 -0.022044126 -0.040829103 -0.019959588 0.028404636 -0.02312049 0.045903604 -0.03505852
-0.0045423806 0.050820965 -0.01098887 0.0056874035 0.00087023457 -0.012613531 -0.012049046 0.003753305
0.013282016 -0.022412637 -0.01465548 0.026382323 0.025766332 -0.038650185 -0.040421594 -0.0055948403
0.020408187 -0.0016844297 0.007846299 0.03510269 -0.025236843 -4.547445e-05 -0.016031586 0.00035617265
-0.031441614 -0.04327056 0.0013429335 0.0055492907 -0.0018232673 -0.03250994 0.029979298 -0.04785539
-0.008461713 -0.014859348 0.020399356 0.03788706 0.006794193 -0.008512112 -0.0036063453 -0.01390151
0.009302684 0.038597364 0.049813297 0.023724189 0.04429511 0.04665353 0.041665003 0.014220044
-0.025025334 0.053955223 0.015663872 0.012720768 0.027939944 0.05371071 0.0548923 0.044254236
0.045762435 0.008606966 0.029958224 0.011906246 -0.018701753 0.0108951535 0.03472033 0.05524419
0.028448563 0.037030756 0.021207204 0.015420916 0.005329303 0.01931191 0.046123374 0.039361667
0.007395025 0.051174797 0.006141766 0.054533444 0.0014482476 0.017234307 -0.018538345 0.021917429
0.059663706 -0.006874805 0.012633906 0.04698363 0.021488259 0.014301516 0.049973026 -0.00852937
0.02256786 0.05239066 0.047602408 0.045741566 0.040444493 0.055577837 0.02470684 -0.008554996
0.06085446 0.034863055 0.055203896 0.016299497 0.03477445 -7.009377e-05 -0.013514985 0.05403369
-0.0074733226 0.014172525 0.010111474 -0.0020736763 0.01275029 0.021643212 0.0318001 0.05458682
0.008439421 0.020057064 0.0451614 0.020705467 0.0077243214 0.034071565 0.010684717 -0.0034743717
0.013193282 -0.0111887995 0.032387815 -0.006610833 0.0067716492 0.038317695 0.063995354 0.049375128
00000000: bb87 993b 0aaa 553c 49ed 853c 9587 ccbc
00000010: 293d 863c b948 07bd 1987 6bbc 2434 2fbd
00000020: 8c62 8dbc 4a24 f53c ba4b 82ba 64af 3e3d
00000030: abee 50bb fe55 953c f1ef 61bc d568 4b3d
00000040: fa46 d03c 9468 3b3d 2c95 143d 287d 8ebb
00000050: 9281 cf3c 0662 0a3d 86dc 253d 18dd 7fbc
00000060: a34e 533d 43b2 023d 30c8 35bd 75dc d93c
00000070: bd1e 5fbc 92f6 b3bb 2809 2c3d db0c 23bc
00000080: 91b8 c93c 41a0 273d 736e 6bbc 5a76 63bd
00000090: 57e6 973c 301e 19bc fc7b 023d f24b 253d
000000a0: 8ddf d73b cc77 0c3d dbed 4cbc 03fd abbc
000000b0: a2d5 213d 4f51 ebbb f513 293d 5c67 cc3c
000000c0: 3f3c 303c cc94 073c 6991 df3c f567 5d3c
000000d0: 0b24 2c3d 323b 1a3c 21d3 08ba 9dcd 03bc
000000e0: e37e 953a 97ae e2bb f798 c43c a67b 283d
000000f0: d19c be3c 5816 a03c ba7f 02bd 0588 c9bc
00000100: 54f4 ee3c 04a1 2ebb ab7a ddbc aae6 213d
00000110: 1058 9abb 6a32 8dbb 3b77 b23b 0027 fabb
00000120: 5ef6 023d 9913 91bc 01cd d3bc 3ebe 3c3d
00000130: b5a0 673d e88d 88bb d090 293d b08c ec3b
00000140: c6c5 033d 7987 b93a c538 f73c c329 18bd
00000150: 6ce3 97bb d898 a13c b997 3bbd 9eee 773c
00000160: 6871 bc3c 715d fbbc 43d7 c1bc da71 1c3c
00000170: 69b7 df3b bd7e 273d 05be 60bc f7f3 18bd
00000180: bc6e 5dbc 3541 c33c 9382 0e3b d87f f3bc
00000190: 2edf a9bc dd71 d83b 7906 ebbc ba1d 2fbd
000001a0: 3588 a23c 414e 25bd 6dd0 1dbd 373c 933c
000001b0: c0b5 80bc 1b47 413c 8816 24bc 2463 613b
000001c0: c0f3 643c f03f 8e3c f9d9 04bc 5e05 983c
000001d0: 12fb 57bc 5350 ce3c f6c6 ccbc 75de 3cbd
000001e0: 3643 bb3c e295 b4bc 6b3c 27bd 4a82 a3bc
000001f0: d7b0 e83c 2f67 bdbc 6b05 3c3d 8699 0fbd
00000200: 40d8 94bb a529 503d a90a 34bc 665d ba3b
00000210: 7420 643a fca8 4ebc 5d69 45bc 02fa 753b
00000220: d09c 593c b59a b7bc 8a1d 70bc be1f d83c
00000230: ea13 d33c a84f 1ebd 1d91 25bd ec54 b7bb
00000240: 122f a73c 15c8 dcba c38d 003c d7c7 0f3d
00000250: 7fbd cebc d2bb 3eb8 ac54 83bc afbc ba39
00000260: ecc8 00bd 793c 31bd 5f05 b03a d3d6 b53b
00000270: b3fa eeba 2529 05bd 2597 f53c 0304 44bd
00000280: ffa2 0abc 9f74 73bc 8d1c a73c 762f 1b3d
00000290: d2a1 de3b 6376 0bbc 6f58 6cbb 29c3 63bc
000002a0: 496a 183c 4518 1e3d 0709 4c3d 3b59 c23c
000002b0: ca6e 353d c617 3f3d eca8 2a3d 30fb 683c
000002c0: ee01 cdbc 2700 5d3d 8551 803c c56a 503c
000002d0: 4fe2 e43c c3ff 5b3d c0d6 603d ee43 353d
000002e0: 6471 3b3d 3b04 0d3c f36a f53c 6a12 433c
000002f0: 6b34 99bc 9681 323c e836 0e3d bb47 623d
00000300: f60c e93c 90ad 173d bbba ad3c 02a8 7c3c
00000310: 6fa1 ae3b 0334 9e3c ddeb 3c3d b339 213d
00000320: f751 f23b aa9c 513d de40 c93b 765e 5f3d
00000330: 20d3 bd3a f62e 8d3c badd 97bc 2e8c b33c
00000340: ee61 743d 0b46 e1bb 71fe 4e3c e871 403d
00000350: 2508 b03c e850 6a3c 84b0 4c3d c5be 0bbc
00000360: 3ce0 b83c 9797 563d befa 423d 825b 3b3d
00000370: 20a9 253d 96a5 633d 0066 ca3c 412a 0cbc
00000380: 8742 793d 90cc 0e3d 7b1d 623d 8686 853c
00000390: a76f 0e3d 4eff 92b8 f56d 5dbc 6e52 5d3d
000003a0: c6e2 f4bb e133 683c 99aa 253c 84e6 07bb
000003b0: 98e6 503c 1b4d b13c d240 023d 6e96 5f3d
000003c0: 7f45 0a3c b64e a43c 29fb 383d 839e a93c
000003d0: 4e1c fd3b a08e 0b3d f40e 2f3c 49b2 63bb
000003e0: a328 583c 3a51 37bc 16a9 043d b09f d8bb
000003f0: b6e4 dd3b 04f3 1c3d ff0f 833d 933d 4a3d

convt3.bias f4 [32]
0.021540625 -0.019419223 0.040223967 0.0450568 0.039924953 -0.03637969 -0.008076343 0.04875115
-0.025485415 -0.0062456774 0.0031971505 0.051103592 0.03998302 0.04762259 -0.018085742 0.04443472
-0.033003647 -0.006087705 -0.028660871 0.040768612 -0.030896941 0.030732699 -0.010263335 0.041590113
-0.015514454 0.03743174 -0.010322435 -0.007366842 -0.0038456218 0.03705716 -0.00013658144 0.016865829
00000000: f775 b03c 1015 9fbc e3c1 243d 7b8d 383d
00000010: 5988 233d df02 15bd a352 04bc 49af 473d
00000020: cac6 d0bc 8aa8 ccbb 4987 513b 0052 513d
00000030: 3cc5 233d e80f 433d 8d28 94bc 2e01 363d
00000040: d52e 07bd 5f7b c7bb 34ca eabc fdfc 263d
00000050: 951b fdbc 24c3 fb3c 8c27 28bc 655a 2a3d
00000060: 5630 7ebc 0652 193d 6e1f 29bc 8d65 f1bb
00000070: d406 7cbb 40c9 173d 4d37 0fb9 352a 8a3c

pos_output.weight f4 [1, 32, 2, 2]
0.18328321 -0.17743622 -0.18288893 -0.18215272 0.07893607 -0.0849305 -0.14352487 0.0010818928
0.22061712 -0.0006378744 0.08990277 0.01758019 -0.11481048 -0.005744915 0.007181901 -0.08063084
0.20629549 0.060833964 0.13159885 0.05154908 -0.19560371 0.03172539 -0.039199613 -0.0065700337
0.208391 0.15273775 -0.18405005 -0.16084862 0.17701437 0.0013930262 0.0067614648 -0.035075936
0.16857977 0.20023215 0.35451627 0.15048437 0.01064513 -0.20496625 -0.14410925 -0.19541071
0.2214725 -0.19299199 0.06984169 0.048050933 0.04421581 0.15808396 0.17255108 0.06749699
0.17491356 -0.089152545 -0.19133446 0.09615933 0.20862119 -0.17048118 0.1727921 0.14964607
-0.0320027 0.13736795 0.22328082 -0.063910015 -0.03386697 -0.097982936 0.016999329 -0.12264034
0.12923132 -0.01118123 -0.020863391 0.06645273 -0.08038011 -0.08654523 0.18378755 0.035425477
-0.040194668 -0.11583344 0.18286 -0.052102715 0.20569506 -0.18327862 -0.024791067 0.08990091
0.0627595 0.14557105 -0.0053823832 0.1874355 0.1307205 0.053655956 -0.049268983 -0.040762294
-0.16946705 -0.19962928 0.111497596 -0.09026369 0.1591978 0.09681545 0.031127686 0.1784326
-0.015983906 0.05148672 0.19686347 0.06744252 -0.15401682 0.05537948 -0.07983437 -0.13559353
-0.15498072 -0.04471753 0.12594043 -0.042476296 -0.14203219 -0.12380488 -0.21403636 -0.16688304
0.032795776 0.033588883 -0.032194722 0.20240554 -0.13326511 -0.07703392 0.13074881 0.08971727
-0.053666286 -0.14861003 0.11575432 0.097263664 -0.15836719 0.061201878 -0.022226976 -0.0026955504
00000000: 98ae 3b3e d7b1 35be 3c47 3bbe 3e86 3abe
00000010: 3ca9 a13d 0bf0 adbd 2ff8 12be 4cce 8d3a
00000020: 74e9 613e 0737 27ba f21e b83d 5504 903c
00000030: c221 ebbd d73f bcbb 2756 eb3b c821 a5bd
00000040: 203f 533e 092d 793d d9c1 063e 2125 533d
00000050: 574c 48be 7cf2 013d c68f 20bd 7049 d7bb
00000060: 7364 553e 4967 1c3e 9e77 3cbe 80b5 24be
00000070: 4143 353e 3496 b63a 478f dd3b c9ab 0fbd
00000080: 2da0 2c3e a809 4d3e 2883 b53e 9318 1a3e
00000090: e968 2e3c ace2 51be 6091 13be bf19 48be
000000a0: b0c9 623e b19f 45be 2909 8f3d 0ed1 443d
000000b0: a31b 353d c3e0 213e 3bb1 303e dd3b 8a3d
000000c0: 8a1c 333e 9c95 b6bd 2eed 43be 2fef c43d
000000d0: cba0 553e 9e92 2ebe 6af0 303e d23c 193e
000000e0: 4315 03bd 2faa 0c3e baa3 643e 41e3 82bd
000000f0: 18b8 0abd 47ab c8bd 2d42 8b3c dc2a fbbd
00000100: 3755 043e 7a31 37bc b4e9 aabc 5e18 883d
00000110: 549e a4bd a03e b1bd ce32 3c3e 4e1a 113d
00000120: 2aa3 24bd 153a edbd a73f 3b3e a869 55bd
00000130: baa1 523e 64ad 3bbe a316 cbbc f81d b83d
00000140: 0e88 803d 9410 153e b45e b0bb 17ef 3f3e
00000150: 98db 053e 59c6 5b3d 46ce 49bd 5df6 26bd
00000160: c588 2dbe 9e6b 4cbe da58 e43d 2bdc b8bd
00000170: c004 233e 2e47 c63d 7dff fe3c 09b7 363e
00000180: aef0 82bc bde3 523d 9496 493e 4e1f 8a3d
00000190: 96b6 1dbe 98d5 623d 3480 a3bd 08d9 0abe
000001a0: 44b3 1ebe bb29 37bd 87f6 003e a0fb 2dbd
000001b0: e370 11be 6a8d fdbd 592c 5bbe 63e3 2abe
000001c0: dd54 063d 7f94 093d 9dde 03bd 6643 4f3e
000001d0: a676 08be f6c3 9dbd 04e3 053e b0bd b73d
000001e0: 2ed1 5bbd 3a2d 18be 9a10 ed3d 2c32 c73d
000001f0: 022b 22be d2ae 7a3d 5915 b6bc d5a7 30bb

cos_output.weight f4 [1, 32, 2, 2]
0.06644134 0.020459447 0.076639764 0.1221335 0.08639804 -0.13888344 -0.012280857 0.06064246
-0.012682263 0.15901479 0.15598397 0.2083795 -0.14496927 0.083514735 0.22381145 0.064117864
-0.10471809 0.11153673 0.21613504 0.16346917 -0.16945702 0.21628429 -0.1083144 -0.06092744
-0.15157714 -0.1284337 -0.09040419 0.061352514 0.0836932 0.22417551 0.21559273 -0.13471429
0.18506852 0.013523073 -0.28996384 -0.33945006 0.07675002 0.02937536 0.06573828 -0.042001344
-0.12149096 -0.012193501 0.15151247 -0.053391986 0.19637732 -0.059783287 -0.078070775 0.20593446
0.01965462 0.025759283 0.06369006 0.054888584 0.119227774 0.18630126 0.2398472 0.042571455
0.051104542 -0.04892166 -0.17372717 0.12400321 0.1482634 -0.013158473 0.17618795 0.10389589
-0.18982941 -0.010431519 0.11566215 -0.106788844 -0.028759269 0.121985845 0.024566365 -0.0868367
-0.18353584 -0.12652095 0.213869 -0.19319098 0.08506749 -0.13032798 0.19536312 0.056685224
0.2499102 -0.13318357 -0.12087786 -0.17866151 -0.2518015 -0.23541631 0.33382815 0.2934972
0.09782559 -0.07541869 0.023085015 -0.09869438 0.095746174 0.15191239 -0.06537898 0.13290249
-0.17718005 -0.10794897 -0.18103386 0.18809137 0.057752818 0.06055219 0.141935 0.10568701
-0.10184443 0.044638354 -0.17288192 0.12741284 0.33516738 0.46560138 0.39376494 0.47052202
-0.1720574 -0.009545434 -0.12210237 -0.008107251 -0.035461985 0.03375888 0.082669824 0.10087803
0.09931751 0.20252828 -0.09938875 -0.18024333 -0.009431805 0.15165591 -0.08438531 0.1378777
00000000: 6612 883d 929a a73c 4ff5 9c3d 2121 fa3d
00000010: 75f1 b03d 7637 0ebe a635 49bc 3a64 783d
00000020: 44c9 4fbc c6d4 223e 43ba 1f3e 7061 553e
00000030: d372 14be c609 ab3d d42e 653e 3a50 833d
00000040: 7076 d6bd 5e6d e43d 8152 5d3e 7664 273e
00000050: 2486 2dbe a179 5d3e f1d3 ddbd 0d8f 79bd
00000060: 0a37 1bbe 2084 03be d525 b9bd c64c 7b3d
00000070: 5767 ab3d 448e 653e 57c4 5c3e 8bf2 09be
00000080: 9a82 3d3e e18f 5d3c 2476 94be 66cc adbe
00000090: 1d2f 9d3d 98a4 f03c cba1 863d 9a09 2cbd
000000a0: 41d0 f8bd 40c7 47bc 1626 1b3e 8eb1 5abd
000000b0: 2317 493e 52df 74bd 92e3 9fbd 7ce0 523e
000000c0: ba02 a13c 2205 d33c ef6f 823d dad2 603d
000000d0: b12d f43d c2c5 3e3e 819a 753e 685f 2e3d
000000e0: ff52 513d 1462 48bd 89e5 31be 65f5 fd3d
000000f0: 5cd2 173e a396 57bc 9d6a 343e 5ec7 d43d
00000100: a462 42be f6e8 2abc 47e0 ec3d 1cb4 dabd
00000110: 8f98 ebbc b7d3 f93d 673f c93c 71d7 b1bd
00000120: d2f0 3bbe b58e 01be 7a00 5b3e dbd3 45be
00000130: dd37 ae3d b374 05be 450d 483e c42e 683d
00000140: 76e8 7f3e 4661 08be d08e f7bd 0bf3 36be
00000150: 20ec 80be f910 71be 86eb aa3e 4445 963e
00000160: c858 c83d 1d75 9abd c91c bd3c 4720 cabd
00000170: 9216 c43d ec8e 1b3e 6ae5 85bd 9717 083e
00000180: b06e 35be 5914 ddbd f160 39be 069b 403e
00000190: 388e 6c3d 9305 783d 6957 113e 6e72 d83d
000001a0: d093 d0bd b5d6 363d f507 31be 8378 023e
000001b0: 0f9b ab3e 4e63 ee3e 8f9b c93e 43e8 f03e
000001c0: d12f 30be 7464 1cbc cf10 fabd 46d4 04bc
000001d0: 9640 11bd c046 0a3d cc4e a93d 2499 ce3d
000001e0: fb66 cb3d 9363 4f3e 548c cbbd b591 38be
000001f0: dc87 1abc b04b 1b3e 35d2 acbd d02f 0d3e

sin_output.weight f4 [1, 32, 2, 2]
0.1911476 -0.1863831 0.2018078 -0.06131741 0.18444806 -0.03682236 -0.12798372 -0.14792645
0.113646425 0.18448703 -0.13449977 0.17909227 -0.096541375 -0.008571565 -0.022196652 -0.021450026
-0.039658457 0.17408894 0.033249974 0.016461553 0.1268186 0.0063572777 -0.05947415 -0.13555585
-0.11528545 0.08009182 0.083541766 0.035096835 -0.1406799 0.09828245 -0.18015556 0.10569933
-0.10809523 0.022812225 -0.04270661 -0.0569694 0.053457174 -0.03528021 0.1420347 0.0072454503
-0.11027821 0.010041943 -0.20804709 0.107344754 -0.10326628 0.02818585 -0.035915207 0.025970886
-0.0984217 -0.11342185 -0.1153029 -0.17611754 0.18604487 -0.054585345 0.09353904 0.1279302
0.12987067 -0.03304577 0.12732235 -0.058004793 -0.18260048 0.116550475 -0.083778284 -0.05345085
-0.11674006 -0.09289304 0.0818071 -0.07447244 -0.008889094 -0.08870522 -0.0017414271 -0.13113338
0.10834688 0.18998675 -0.021556813 0.046600774 0.08063805 -0.17706418 0.03659727 0.10320148
-0.008954411 0.018842515 -0.009189205 0.06405313 -0.02668108 0.03500054 -0.03201078 0.021724576
0.10520907 0.026787758 0.08474465 0.011214235 0.17990205 -0.18313819 0.12774415 -0.11039458
0.021966841 0.17083523 -0.15744367 0.20020016 -0.08884615 -0.11322579 -0.02296583 0.19993766
0.033236604 0.018764364 -0.14584333 -0.11910576 0.010101232 -0.016491324 -0.014559482 -0.0045916466
-0.16796383 0.096603096 0.18197179 0.040865343 0.17257962 0.10124851 0.028928868 0.1496661
-0.04199336 -0.15140629 0.14190564 0.0052422187 -0.0407835 -0.1253885 -0.08388786 0.020817298
00000000: 32bc 433e 36db 3ebe b4a6 4e3e f727 7bbd
00000010: f4df 3c3e 0bd3 16bd 2a0e 03be 087a 17be
00000020: 75bf e83d 2bea 3c3e 4fba 09be f763 373e
00000030: 7cb7 c5bd c06f 0cbc c1d5 b5bc f7b7 afbc
00000040: e870 22bd 5f44 323e 2031 083d 61da 863c
00000050: bcdc 013e b650 d03b 2b9b 73bd 27cf 0abe
00000060: c71a ecbd 2e07 a43d f217 ab3d b3c1 0f3d
00000070: 640e 10be 4f48 c93d b37a 38be e478 d83d
00000080: 0861 ddbd b4e0 ba3c 20ed 2ebd bf58 69bd
00000090: e9f5 5a3d fb81 10bd 8b71 113e 3e6b ed3b
000000a0: 8bd9 e1bd f686 243c 4c0a 55be 91d7 db3d
000000b0: 457d d3bd 03e6 e63c d31b 13bd e5c0 d43c
000000c0: 5191 c9bd b749 e8bd ed23 ecbd 2858 34be
000000d0: 8c82 3e3e e294 5fbd 6591 bf3d 2200 033e
000000e0: d1fc 043e 005b 07bd ca60 023e 6f96 6dbd
000000f0: 9ffb 3abe 04b2 ee3d f393 abbd 47ef 5abd
00000100: 6a15 efbd b53e bebd 7b8a a73d 0285 98bd
00000110: 90a3 11bc 15ab b5bd 9940 e4ba d447 06be
00000120: f8e4 dd3d e38b 423e ea97 b0bc 74e0 3e3d
00000130: 9025 a53d 5050 35be 05e7 153d 4c5b d33d
00000140: 86b5 12bc 9e5b 9a3c 528e 16bc 4a2e 833d
00000150: 4892 dabc ba5c 0f3d bc1d 03bd bdf7 b13c
00000160: da77 d73d 0072 db3c 9a8e ad3d e9bb 373c
00000170: 3e38 383e 9488 3bbe 5dcf 023e 8e16 e2bd
00000180: cef3 b33c 6eef 2e3e ea38 21be 4501 4d3e
00000190: f8f4 b5bd ece2 e7bd d622 bcbc 75bc 4c3e
000001a0: 1b23 083d b9b7 993c f457 15be b8ed f3bd
000001b0: a37f 253c d018 87bc e58a 6ebc 8675 96bb
000001c0: b6fe 2bbe d8d7 c53d d056 3a3e 6b62 273d
000001d0: b6b8 303e 615b cf3d 3cfc ec3c 1242 193e
000001e0: 3b01 2cbd 400a 1bbe b64f 113e ebc6 ab3b
000001f0: 990c 27bd d865 00be 66cd abbd 0a89 aa3c
