ggcnn_base/output/models/221204_2000_training_example/epoch_46_iou_0.72_statedict.pt (torch, 256417 bytes, 16 tensors)

conv1.weight f4 [32, 1, 9, 9]
-0.06793569 -0.13058251 -0.077456005 -0.14478391 -0.15812771 -0.09513641 -0.12565354 -0.16540289
-0.15456682 -0.10121253 -0.0910998 -0.09366999 -0.15339188 -0.109486304 -0.15161811 -0.13926491
-0.121698275 -0.06324528 -0.06508545 -0.10436372 -0.07168136 -0.10160146 -0.13364427 -0.1271252
-0.09460576 -0.12555479 -0.13437434 -0.07055659 -0.09365145 -0.06353047 -0.07315972 -0.09895287
-0.032875527 -0.05441082 -0.12894525 -0.06050238 -0.17285196 -0.1747452 -0.19151346 -0.18267277
-0.21385193 -0.17291377 -0.15522641 -0.1567365 -0.24910194 -0.19929823 -0.1790024 -0.24374911
-0.28103718 -0.20535094 -0.28380358 -0.29470852 -0.27046916 -0.2524095 0.16962896 0.20695673
0.23412533 0.19225956 0.253833 0.2131614 0.18815401 0.1086021 0.0850435 0.3387915
0.29586673 0.3419767 0.33395547 0.34699032 0.34406355 0.23446155 0.24621108 0.18951532
0.39656317 0.39824727 0.45138556 0.44143376 0.39684048 0.4008699 0.453329 0.3805389
0.34300604 -0.042452227 -0.029800294 0.041547336 0.15726668 0.18915938 0.16419876 0.26367965
0.37482506 0.5889624 -0.20903401 -0.15476578 -0.087659374 -0.037061043 0.0049146703 0.07032862
0.12610993 0.23116821 0.38587978 -0.31122267 -0.22526985 -0.14146632 -0.13128765 -0.07762369
-0.051229045 -0.03739038 0.0500552 0.2518644 -0.13004737 -0.06764149 -0.012029726 0.082394965
0.06484625 0.070183955 0.085791916 0.21605916 0.35119238 -0.18705367 -0.095880955 -0.07717973
-0.014643602 -0.031381678 0.012519595 0.106256545 0.14820896 0.23664008 -0.25331467 -0.18146573
-0.10395719 -0.057302788 -0.049174927 -0.0031008122 0.087304406 0.1506063 0.26510334 -0.26103806
-0.23269954 -0.21242821 -0.1295805 -0.08821263 -0.014799125 -0.035850056 0.09278452 0.25477338
-0.31300762 -0.24289697 -0.23164205 -0.0745421 -0.1309001 -0.048809968 9.047111e-05 0.102948934
0.25665137 -0.26551577 -0.2574936 -0.17147394 -0.0699065 -0.040601034 -0.0018803632 0.0963481
0.17051119 0.3744295 -0.006058949 -0.0048685153 -0.014995357 -0.011643126 0.004364938 0.009700709
0.017804895 0.046436347 0.039991777 -0.03289461 -0.043016076 0.0024575496 0.005217617 -0.041281514
0.029886318 0.027701981 -0.026323969 0.037704553 0.017443819 0.017784087 -0.03197749 0.02466746
-0.015039885 -0.040852536 -0.0067322343 0.0402595 -0.024621643 -0.031387337 0.0022489391 -0.01826125
-0.02312994 0.04063381 0.010819116 0.009680941 -0.0011624205 0.04095902 0.03659557 -0.031456415
-0.0071762037 0.040814884 0.017577494 -0.008798967 -0.031766333 -0.017197063 -0.001501565 -0.036969513
-0.0135771325 -0.018503342 0.00827443 -0.047154374 0.0040371683 -0.009968441 -0.016580805 0.0062051956
-0.019686207 0.012574909 0.0023521937 0.026126672 0.026510943 -0.017780693 -0.014102895 -0.04027468
0.0027886005 0.009654966 -0.014458396 -0.043362197 -0.003687372 -0.015015515 0.017628731 0.0009648743
-0.02580608 -0.041156825 0.00701185 0.036788624 0.040631805 -0.005702138 -0.04001524 0.02615216
-0.012577258 -0.020553559 -0.032676876 -0.6888367 -0.20112036 0.17873248 -0.4890895 -0.2998424
-0.28558266 -0.24431187 -0.33511582 -0.71825457 -0.2392539 0.21015023 0.4900872 -0.053351995
00000000: de21 8bbd 6cb7 05be 41a1 9ebd 3c42 14be
00000010: 3bec 21be e1d6 c2bd 52ab 00be 605f 29be
00000020: c446 1ebe 8448 cfbd 8892 babd 0dd6 bfbd
00000030: c312 1dbe 5b3a e0bd c741 1bbe 769b 0ebe
00000040: f23c f9bd be86 81bd 854b 85bd a5bc d5bd
00000050: adcd 92bd 6d14 d0bd 0bda 08be 1c2d 02be
00000060: aac0 c1bd 6f91 00be 6d99 09be f97f 90bd
00000070: 55cc bfbd 431c 82bd c3d4 95bd cda7 cabd
00000080: 7da8 06bd e1dd 5ebd 390a 04be 58d1 77bd
00000090: 1b00 31be 68f0 32be 1b1c 44be 920e 3bbe
000000a0: 00fc 5abe 4f10 31be acf3 1ebe 887f 20be
000000b0: 9414 7fbe d614 4cbe 684c 37be 5e99 79be
000000c0: 1be4 8fbe 8447 52be b44e 91be 09e4 96be
000000d0: ef7a 8abe d13b 81be 37b3 2d3e 77ec 533e
000000e0: 8dbe 6f3e b1df 443e 66f6 813e fb46 5a3e
000000f0: 72ab 403e c76a de3d 492b ae3d 1476 ad3e
00000100: d87b 973e 9217 af3e 36fc aa3e b7a8 b13e
00000110: 1929 b03e b016 703e c21e 7c3e 4e10 423e
00000120: 540a cb3e 11e7 cb3e 021c e73e 9b03 e23e
00000130: ad2e cb3e d23e cd3e bd1a e83e ffd5 c23e
00000140: 7d9e af3e 63e2 2dbd bf1f f4bc 8a2d 2a3d
00000150: 840a 213e ffb2 413e b823 283e 0501 873e
00000160: 12e9 bf3e 3dc6 163f 030d 56be ec7a 1ebe
00000170: c286 b3bd 52cd 17bd 3e0b a13b 7408 903d
00000180: f622 013e 5cb7 6c3e 0992 c53e 9458 9fbe
00000190: 24ad 66be 8cdc 10be 4570 06be 2bf9 9ebd
000001a0: 8cd5 51bd a826 19bd ae06 4d3d 5ff4 803e
000001b0: 232b 05be 9f87 8abd 5418 45bc b1be a83d
000001c0: 1cce 843d 9bbc 8f3d acb3 af3d 9d3e 5d3e
000001d0: 7dcf b33e ff8a 3fbe 3c5d c4bd 6810 9ebd
000001e0: b8eb 6fbc 138a 00bd fd1e 4d3c 089d d93d
000001f0: 17c4 173e c751 723e 76b2 81be 27d2 39be
00000200: 82e7 d4bd 54b6 6abd a66b 49bd ff36 4bbb
00000210: a7cc b23d 8a38 1a3e a0bb 873e c8a6 85be
00000220: ca48 6ebe c886 59be c0b0 04be d3a8 b4bd
00000230: 0778 72bc 82d7 12bd cf05 be3d a871 823e
00000240: 8942 a0be fcb9 78be 9333 6dbe 87a9 98bd
00000250: ad0a 06be f6ec 47bd 4fbb bd38 e4d6 d23d
00000260: cf67 833e aff1 87be 33d6 83be dd96 2fbe
00000270: 242b 8fbd 454d 26bd 8576 f6ba 2752 c53d
00000280: 7c9a 2e3e 39b5 bf3e 268a c6bb 1188 9fbb
00000290: 16af 75bc cfc2 3ebc c107 8f3b b9ef 1e3c
000002a0: 92db 913c 0a34 3e3d 6bce 233d 80bc 06bd
000002b0: a031 30bd d70e 213b 8bf8 aa3b ce16 29bd
000002c0: 27d4 f43c 44ef e23c 5da5 d7bc 1770 1a3d
000002d0: 57e6 8e3c efaf 913c d4fa 02bd 6a13 ca3c
000002e0: da69 76bc fd54 27bd 139a dcbb 25e7 243d
000002f0: 54b3 c9bc 0290 00bd f062 133b 9e98 95bc
00000300: 007b bdbc a36f 263d a942 313c cf9c 1e3c
00000310: 5c5c 98ba a5c4 273d 3de5 153d 71d8 00bd
00000320: 5c26 ebbb 822d 273d adfe 8f3c 8b29 10bc
00000330: 6a1d 02bd dbe0 8cbc 29d0 c4ba 586d 17bd
00000340: 9f72 5ebc 5294 97bc 7a91 073c f224 41bd
00000350: 394a 843b ac52 23bc 78d4 87bc f454 cb3b
00000360: f844 a1bc fe06 4e3c 4327 1a3b 9a07 d63c
00000370: 7a2d d93c d1a8 91bc d40f 67bc 10f7 24bd
00000380: f4c0 363b dd2f 1e3c e8e2 6cbc 8f9c 31bd
00000390: d6a7 71bb a203 76bc 216a 903c 9eef 7c3a
000003a0: 4667 d3bc 0f94 28bd a9c3 e53b abaf 163d
000003b0: 896d 263d 00d9 babb 05e7 23bd 0e3d d63c
000003c0: d810 4ebc f05f a8bc 30d8 05bd 9a57 30bf
000003d0: 7ff2 4dbe a605 373e f069 fabe f184 99be
000003e0: e437 92be e42c 7abe 4d94 abbe 88df 37bf
000003f0: f9fe 74be 9f31 573e b6ec fa3e 9f87 5abd

conv1.bias f4 [32]
-0.1267225 0.103012264 -0.10833739 -0.011108048 0.09747607 0.09885855 -0.102992624 0.10094679
-0.3145672 -0.06222555 0.29266778 -0.125059 -0.26707423 -0.114301376 -0.021290189 -0.017524077
0.019890375 -0.08355622 -0.267931 -0.1861962 -0.16162886 0.19064038 -0.028657936 -0.10031635
-0.31494462 -0.096542954 -0.10400279 -0.019526437 -0.10982767 -0.09730271 0.010853306 -0.24569511
00000000: 8bc3 01be 18f8 d23d fedf ddbd 88fe 35bc
00000010: 89a1 c73d 5a76 ca3d cced d2bd 31bd ce3d
00000020: f40e a1be 38e0 7ebd 8dd8 953e 770f 00be
00000030: f4bd 88be d716 eabd c368 aebc a78e 8fbc
00000040: 24f1 a23c 861f abbd 412e 89be 37aa 3ebe
00000050: 0982 25be 3b37 433e 0cc4 eabc a972 cdbd
00000060: 6c40 a1be 50b8 c5bd 6aff d4bd e8f5 9fbc
00000070: 54ed e0bd a546 c7bd 11d2 313c 8097 7bbe

conv2.weight f4 [16, 32, 5, 5]
0.027561096 -0.08453384 -0.1477172 -0.14303145 -0.09482947 0.06979361 -0.019227663 0.01593494
0.025000932 0.02666122 -0.037365463 -0.0818951 -0.14358275 -0.04396771 -0.087257326 0.05343346
0.105683036 0.089393295 -0.120195374 -0.13038777 -0.18026249 -0.06975615 0.07147775 0.05451988
0.019792141 -0.21107942 -0.041439526 0.03605034 -0.13647124 -0.051886175 -0.13535787 -0.020523805
0.04109895 -0.2332834 -0.123663016 0.002098259 0.1460024 0.07111314 -0.16296501 -0.17482749
-0.0033482295 0.14052853 0.06887625 -0.07465203 -0.10302059 0.036874585 0.1926502 0.17877395
0.036340266 0.020484988 0.01759529 0.06582231 0.04552106 0.010144772 -0.02199478 -0.03383777
-0.037128586 0.009229174 0.063929014 -0.03403376 0.023103159 -0.00030999008 0.017788516 -0.036697734
0.015609735 0.029150642 0.019546486 -0.030971369 0.02304878 -0.012200156 0.024168167 -0.010469657
0.00042535443 0.04551597 0.052953422 -0.08431292 0.019725421 -0.011085616 -0.06156902 -0.024874985
-0.032772966 -0.029514892 -0.07282982 0.022083249 0.09344719 -0.05877578 -0.025116844 -0.0034900242
-0.020449298 0.02214466 0.06407659 0.05746998 0.015537527 0.008651164 0.096589744 0.010492938
0.0931111 0.062252074 0.11111362 0.10554984 0.246047 0.06407908 -0.0071574934 -0.057590798
-0.045575745 0.15065241 -0.0199528 -0.17058733 -0.18120374 -0.1837861 0.14022417 -0.017486934
-0.08221226 -0.10703499 -0.118282385 0.06663511 0.07964061 -0.07032557 -0.11801801 -0.1304504
-0.038425814 0.058478 0.025902657 0.06747259 -0.062333904 -0.046635386 -0.029045586 0.0867152
-0.0063109137 -0.061445717 0.007265953 -0.042102627 0.15319319 0.20090272 0.2337987 -0.16670987
-0.030396942 0.0124372905 0.08852271 0.18288629 -0.15180169 -0.15188919 -0.10810871 -0.03225068
0.13312306 -0.039538596 -0.036188688 -0.13918376 0.034253053 0.11084857 0.033171143 0.060978662
-0.07174704 0.08933663 0.024294596 -0.07366044 0.041970223 -0.04936042 0.046305757 0.04729765
0.07083497 -0.042799078 -0.0031724237 0.057222493 0.12854792 0.02187327 0.037494842 0.03331468
0.07360723 0.05554048 0.020556051 -0.005875702 0.081512935 0.07713541 0.059348103 -0.07745778
-0.04688547 -0.008540065 -0.03930673 0.0002517449 -0.08539479 -0.0504237 0.024805827 -0.02146004
0.060730647 -0.09850294 -0.04698222 0.04076977 0.025632806 0.056579597 -0.008542507 -0.054418486
0.022504557 -0.0030664797 -0.005388897 0.07343051 -0.0035680365 -0.049459662 0.041857332 0.16674568
-0.21656057 0.17625046 -0.11890415 -0.19937833 0.27314168 0.03306681 0.22023074 0.24743253
0.09618387 0.68884575 -0.103388436 0.118642695 0.5353531 0.21198127 0.6748408 -0.15896387
0.009129745 0.5764658 0.08534531 0.41825962 -0.004440557 0.06371671 0.65691626 0.08599923
0.38687193 -0.38754615 -0.20302339 0.08471195 0.016088728 0.38309592 -0.16157626 -0.15610383
0.03737974 -0.06319098 0.02702477 -0.04538277 -0.053497132 0.03910024 -0.17342784 0.082123
0.20265907 0.15366538 -0.010861667 -0.36338294 -0.07872489 0.1827273 0.15215534 0.12403986
-0.4054891 0.015996827 0.36894146 0.24970612 0.13687892 -0.011961941 0.061388567 0.20704512
00000000: cfc7 e13c 1420 adbd 2d43 17be d676 12be
00000010: f435 c2bd f4ef 8e3d 5583 9dbc fe89 823c
00000020: c1ce cc3c a168 da3c 870c 19bd 9eb8 a7bd
00000030: 5b07 13be 7c17 34bd f8b3 b2bd 0bdd 5a3d
00000040: 5970 d83d d513 b73d fe28 f6bd 5f84 05be
00000050: bb96 38be 50dc 8ebd ed62 923d 3d50 5f3d
00000060: 2123 a23c 3425 58be 7ebc 29bd 85a9 133d
00000070: 1ebf 0bbe 9986 54bd 419b 0abe 8a21 a8bc
00000080: 5f57 283d d8e1 6ebe 0943 fdbd f282 093b
00000090: a781 153e c4a3 913d 4de0 26be fa05 33be
000000a0: f86d 5bbb b6e6 0f3e fe0e 8d3d 2ae3 98bd
000000b0: 76fc d2bd ce09 173d 1846 453e 8510 373e
000000c0: 88d9 143d 22d0 a73c ff23 903c d9cd 863d
000000d0: 4a74 3a3d 4236 263c 662e b4bc 7999 0abd
000000e0: 2514 18bd f635 173c 37ed 823d fc66 0bbd
000000f0: d642 bd3c 2a86 a2b9 39b9 913c 5d50 16bd
00000100: f9bf 7f3c 54cd ee3c f41f a03c abb7 fdbc
00000110: ccd0 bc3c 2ae3 47bc 52fc c53c ed88 2bbc
00000120: 1b02 df39 f46e 3a3d b0e5 583d 41ac acbd
00000130: 3597 a13c 72a0 35bc cc2f 7cbd a0c6 cbbc
00000140: f23c 06bd 37c9 f1bc cd27 95bd eee7 b43c
00000150: 3e61 bf3d dfbe 70bd d7c1 cdbc e4b8 64bb
00000160: 4985 a7bc b868 b53c 963a 833d a465 6b3d
00000170: 1d91 7e3c 9dbd 0d3c d8d0 c53d 92ea 2b3c
00000180: 08b1 be3d 08fc 7e3d 8a8f e33d 842a d83d
00000190: bff3 7b3e e53b 833d 6889 eabb 54e4 6bbd
000001a0: a2ad 3abd a044 1a3e 0e74 a3bc 72ae 2ebe
000001b0: 798d 39be 6c32 3cbe ed96 0f3e c240 8fbc
000001c0: e75e a8bd 2935 dbbd 093e f2bd fd77 883d
000001d0: 9e1a a33d da06 90bd 6db3 f1bd ca94 05be
000001e0: 6364 1dbd a186 6f3d cf31 d43c 122f 8a3d
000001f0: d651 7fbd bf04 3fbd 02f1 edbc bd97 b13d
00000200: c8cb cebb 81ae 7bbd 3b17 ee3b ce73 2cbd
00000210: adde 1c3e 71b9 4d3e ed68 6f3e feb5 2abe
00000220: 0203 f9bc c7c5 4b3c 654b b53d 8b46 3b3e
00000230: e771 1bbe d788 1bbe 1968 ddbd 4a19 04bd
00000240: 6951 083e 39f3 21bd 973a 14bd 3086 0ebe
00000250: ee4c 0c3d 9304 e33d 77de 073d c3c4 793d
00000260: 1df0 92bd 20f6 b63d 7605 c73c 49db 96bd
00000270: f8e8 2b3d 272e 4abd 1bab 3d3d 2ebb 413d
00000280: ed11 913d 164e 2fbd 70e8 4fbb 2262 6a3d
00000290: 11a2 033e 922f b33c 3194 193d f974 083d
000002a0: 63bf 963d 6a7e 633d 2a65 a83c f688 c0bb
000002b0: 41f0 a63d 2bf9 9d3d ff16 733d 2fa2 9ebd
000002c0: fb0a 40bd a1eb 0bbc 1800 21bd a1fc 8339
000002d0: 77e3 aebd 1589 4ebd 9735 cb3c f7cc afbc
000002e0: b3c0 783d e9bb c9bd 6e70 40bd 34fe 263d
000002f0: e4fb d13c 02c0 673d dff5 0bbc ebe5 5ebd
00000300: 7a5b b83c fef6 48bb 5895 b0bb bc62 963d
00000310: b8d5 69bb 3796 4abd 9872 2b3d 61bf 2a3e
00000320: 0ec2 5dbe 007b 343e 0584 f3bd d529 4cbe
00000330: 3ad9 8b3e 1071 073d 2b84 613e f45e 7d3e
00000340: 0dfc c43d 3258 303f 51bd d3bd f1fa f23d
00000350: e70c 093f 9e11 593e 5ec2 2c3f 6dc7 22be
00000360: ed94 153c 4393 133f 86c9 ae3d 2026 d63e
00000370: 1882 91bb e87d 823d aa2b 283f 5d20 b03d
00000380: 1414 c63e 736c c6be 5de5 4fbe 757d ad3d
00000390: 82cc 833c 2625 c43e 3f74 25be afd9 1fbe
000003a0: 801b 193d 466a 81bd 0d63 dd3c 49e3 39bd
000003b0: cf1f 5bbd 9327 203d 1197 31be 1a30 a83d
000003c0: dc85 4f3e 755a 1d3e 22f5 31bc 540d babe
000003d0: 843a a1bd de1c 3b3e 9cce 1b3e 9c08 fe3d
000003e0: 449c cfbe c70b 833c e5e5 bc3e f6b2 7f3e
000003f0: fd29 0c3e 04fc 43bc 9472 7b3d a303 543e

conv2.bias f4 [16]
0.034790933 0.33760408 -0.061304394 -0.04795273 -0.036339045 -0.0048201582 -0.008703496 0.08278335
0.29538202 -0.073293135 0.21634905 -0.052059088 -0.061345983 -0.009322025 0.11522074 -0.008728229
00000000: f080 0e3d 71da ac3e 511a 7bbd 156a 44bd
00000010: 40d8 14bd 6bf2 9dbb 1c99 0ebc 518a a93d
00000020: 503c 973e b61a 96bd 9b8a 5d3e e93b 55bd
00000030: ed45 7bbd 68bb 18bc daf8 eb3d d900 0fbc

conv3.weight f4 [8, 16, 3, 3]
-0.07965688 0.13783984 -0.086169764 0.11040485 0.1853754 0.08400245 -0.020190889 -0.11852803
0.08128968 -0.50483674 -0.0517232 -0.07257823 -0.3795685 0.17648725 0.030959101 -0.14147767
0.2391089 0.42195505 0.13190782 -0.080876544 0.050025087 -0.14014833 0.057697628 -0.04512776
-0.066779554 0.038079686 -0.05256756 0.123867735 -0.13751341 -0.15374586 0.08364675 -0.057877306
0.09735433 -0.14831106 -0.011249706 -0.0136844115 0.15957858 0.15169074 0.09391646 0.022223769
0.16845782 -0.0024934842 0.06675087 -0.11579693 -0.10302084 -0.076774076 -0.110400066 -0.07981382
0.02600138 0.13309376 0.004444265 0.15552282 -0.073210016 0.086880915 -0.1820133 0.06711843
-0.11365926 -0.01994945 0.041551206 0.106467396 -0.07601414 -0.061537206 0.09411214 -0.1505383
-0.110223606 -0.280548 0.18254948 0.01725281 0.015820889 0.3846939 0.31521553 0.1599486
-0.37117147 -0.37823012 -0.12309147 0.04416767 0.050488647 0.15338264 0.16134508 0.23640674
0.25239092 -0.10754513 0.107859924 -0.073627256 0.010421021 0.09011132 0.17234436 -0.001994175
-0.07146374 -0.10512396 -0.07220249 0.1980266 0.2614862 -0.013360478 -0.09515884 0.23157787
-0.34701902 0.06621489 -0.06040257 0.19274949 -0.06905801 0.18212155 0.16566035 0.0257728
-0.047895364 -0.13100138 0.07125066 -0.09239545 -0.06571267 0.059758756 -0.06948584 -0.008058822
-0.07858847 0.105980486 0.119729064 0.054129582 0.017085869 0.17914608 0.10168279 -0.09143764
-0.028620724 0.14373457 0.074200824 -0.016557747 -0.059566334 -0.021122323 0.24051866 0.09037494
0.2630548 0.101121925 -0.14533733 0.09297582 -0.13065727 -0.29883376 0.014295968 -0.11134231
-0.02113781 -0.16071357 0.23668554 0.06176939 -0.2996913 0.14935419 0.16269536 -0.013851383
-0.3295697 -0.23049194 0.094984315 -0.048551194 -0.22306943 0.044462282 0.50026435 0.31230447
0.053999927 -0.28410193 -0.017515704 0.12076827 -0.13880518 -0.32786268 -0.11603293 0.2826509
0.09592295 0.04758706 -0.031025305 0.09019361 -0.14409496 -0.16132282 0.012086547 -0.0014211743
0.069102794 -0.012457302 -0.10698268 -0.017469738 0.044403058 0.01509597 -0.060165443 -0.15245163
-0.039850794 -0.13611227 -0.02929823 0.09746051 0.12156055 0.110894375 0.12376372 -0.11179984
-0.15501183 -0.09278382 -0.16871472 -0.1039577 0.036766857 0.19524859 -0.11460023 -0.102811575
0.09472241 0.16692114 -0.0058721453 -0.06070293 0.007433962 0.1468307 -0.006777528 -0.20040159
0.07970789 0.103665605 -0.038611278 -0.03331569 -0.11254321 0.18189017 -0.11829677 -0.14630893
0.071595244 0.057165805 -0.2909107 0.088341035 0.41139466 -0.3120171 -0.08685462 0.448621
-0.13346304 0.13912626 0.09837848 -0.2545428 0.1328422 0.21381858 -0.2334415 0.025827793
0.23006845 -0.04317718 0.136795 -0.092563085 -0.0018761369 0.038287267 -0.031790692 0.09624434
0.106828816 -0.088656895 0.041019823 -0.20847692 -0.396751 0.37635988 0.049120173 -0.28558615
0.21539062 0.15670452 -0.037835706 0.028665222 -0.01013894 -0.06438654 0.11934369 0.10804758
-0.061662693 0.0994322 0.0006508768 -0.19470546 0.10328273 -0.12981473 0.06605834 0.10486233
00000000: 2523 a3bd e325 0d3e c679 b0bd f01b e23d
00000010: 0dd3 3d3e 7a09 ac3d 5d67 a5bc d3be f2bd
00000020: 347b a63d fb3c 01bf b5db 53bd e5a3 94bd
00000030: cd56 c2be 13b9 343e f19d fd3c 86df 10be
00000040: f7d8 743e 7e0a d83e d812 073e 9aa2 a5bd
00000050: 1be7 4c3d 0b83 0fbe 5954 6c3d e3d7 38bd
00000060: b8c3 88bd 72f9 1b3d 1551 57bd 5eae fd3d
00000070: 51d0 0cbe 8e6f 1dbe fd4e ab3d c110 6dbd
00000080: b561 c73d dbde 17be b050 38bc 9534 60bc
00000090: 9168 233e d154 1b3e 4657 c03d 9f0e b63c
000000a0: 3580 2c3e b969 23bb aeb4 883d f126 edbd
000000b0: 97fc d2bd ba3b 9dbd 6e19 e2bd 6e75 a3bd
000000c0: d900 d53c bb49 083e 32a1 913b 6041 1f3e
000000d0: 22ef 95bd 9fee b13d b261 3abe 6375 893d
000000e0: 30c6 e8bd 076d a3bc 9931 2a3d 940b da3d
000000f0: 4dad 9bbd 700e 7cbd debd c03d b626 1abe
00000100: eabc e1bd fda3 8fbe 40ee 3a3e c455 8d3c
00000110: cf9a 813c 99f6 c43e ee63 a13e 91c9 233e
00000120: 300a bebe 61a7 c1be 6117 fcbd 29e9 343d
00000130: 2fcd 4e3d 5710 1d3e a537 253e 9c14 723e
00000140: 6239 813e 9f40 dcbd aae5 dc3d e3c9 96bd
00000150: eebc 2a3c 498c b83d 0a7b 303e b4b0 02bb
00000160: 955b 92bd 3b4b d7bd e6de 93bd 7cc7 4a3e
00000170: 85e1 853e e8e5 5abc a3e2 c2bd c022 6d3e
00000180: 7aac b1be ac9b 873d af68 77bd 1f60 453e
00000190: 496e 8dbd 127e 3a3e dea2 293e 7b21 d33c
000001a0: ee2d 44bd 3a25 06be deeb 913d d339 bdbd
000001b0: 5d94 86bd 99c5 743d 984e 8ebd 2609 04bc
000001c0: fef2 a0bd 4c0c d93d 8334 f53d fbb6 5d3d
000001d0: aaf7 8b3c 1272 373e 113f d03d a843 bbbd
000001e0: 0276 eabc 282f 133e 9af6 973d 1da4 87bc
000001f0: d4fb 73bd b908 adbc 864a 763e 7f16 b93d
00000200: 1eaf 863e 0319 cf3d 4fd3 14be 1b6a be3d
00000210: 05cb 05be bd00 99be a339 6a3c 7007 e4bd
00000220: 3329 adbc 1992 24be b25d 723e e601 7d3d
00000230: 2371 99be 4ef0 183e 9d99 263e e9f0 62bc
00000240: 5cbd a8be 1406 6cbe 2387 c23d 9edd 46bd
00000250: 506c 64be 151e 363d 5311 003f 5fe6 9f3e
00000260: 072f 5d3d cf75 91be 187d 8fbc 5b55 f73d
00000270: f222 0ebe 9edd a7be aca2 edbd 9eb7 903e
00000280: 4073 c43d a6ea 423d c828 febc 6db7 b83d
00000290: a18d 13be cf31 25be a706 463c b246 baba
000002a0: c485 8d3d b619 4cbc bc19 dbbd b21c 8fbc
000002b0: fbdf 353d 1655 773c 0a70 76bd 481c 1cbe
000002c0: 963a 23bd 0461 0bbe d702 f0bc 6099 c73d
000002d0: bdf4 f83d 971c e33d d577 fd3d 51f7 e4bd
000002e0: 6cbb 1ebe 7205 bebd 8dc3 2cbe c6e7 d4bd
000002f0: d898 163d 3fef 473e 86b3 eabd e08e d2bd
00000300: d3fd c13d 60ed 2a3e 206b c0bb a3a3 78bd
00000310: 9898 f33b c95a 163e 0716 debb 1336 4dbe
00000320: e43d a33d a24e d43d dc26 1ebd 0876 08bd
00000330: 0e7d e6bd 6b41 3a3e 9445 f2bd 02d2 15be
00000340: 87a0 923d b126 6a3d 3ff2 94be 25ec b43d
00000350: 52a2 d23e b5c0 9fbe d6e0 b1bd a7b1 e53e
00000360: 89aa 08be 1d77 0e3e a87a c93d 6f53 82be
00000370: c907 083e 42f3 5a3e 4a0b 6fbe cf94 d33c
00000380: 1097 6b3e 8eda 30bd fd13 0c3e b791 bdbd
00000390: b5e8 f5ba 1cd3 1c3d f536 02bd c11b c53d
000003a0: 11c9 da3d bf91 b5bd 6704 283d f97a 55be
000003b0: f222 cbbe 3eb2 c03e 3c32 493d 5938 92be
000003c0: 5c8f 5c3e 2677 203e 9df9 1abd 54d3 ea3c
000003d0: cc1d 26bc 17dd 83bd 776a f43d 0d48 dd3d
000003e0: 0592 7cbd 1ca3 cb3d 9a9f 2a3a de60 47be
000003f0: e585 d33d 27ee 04be 9849 873d 10c2 d63d

conv3.bias f4 [8]
0.16835213 -0.32543212 -0.04598712 0.04776094 0.12064753 -0.023934757 0.37635526 0.47739884
00000000: 8064 2c3e 0a9f a6be fe5c 3cbd faa0 433d
00000010: 0d16 f73d d312 c4bc a3b1 c03e 9f6d f43e

convt1.weight f4 [8, 8, 3, 3]
-0.07070157 -0.14145772 0.1628968 -0.034024253 -0.36738044 0.09294847 0.17713131 -0.058361113
0.27592522 0.10120791 -0.29504335 -0.2317239 -0.5542832 0.294821 0.3326198 0.32916096
0.40100774 -0.38323703 -0.7529151 -0.11080661 -0.2170292 -0.09133995 0.30079347 0.113469385
0.5491507 0.221544 0.32340768 0.06672237 0.068377815 -0.08009568 -0.69592106 0.040647272
0.18535998 0.030286446 -0.47974062 -0.18485183 0.07652787 -0.24009968 0.15029997 0.115980916
-0.3763852 0.28019458 0.13570815 0.09458643 0.20173961 -0.19903341 0.17170288 0.052210994
-0.19307443 -0.3113512 -0.23099439 -0.09602193 -0.2942529 -0.07802109 0.11075727 0.10498936
0.54976726 0.46221575 0.10617815 -0.613071 -0.2034274 -0.15882029 -0.25264025 0.03876803
0.4662847 0.07289317 0.06665434 0.17406887 -0.099498175 -0.025368677 -0.4210253 -0.2968257
0.008769796 0.20818722 -0.14631931 -0.3092965 -0.04472952 0.24348044 -0.18189919 -0.32753664
0.07985352 0.019775067 -0.43498403 0.028011607 0.24654949 0.055834617 0.15313773 0.34516025
0.062331937 -0.42863584 0.22587916 0.18842304 0.13667089 0.051918156 0.17415772 -0.11717261
0.12718365 -0.29096955 -0.5390047 0.18084307 0.13832773 -0.14289066 -0.37011555 -0.6928436
0.15822703 -0.1662346 -0.18905534 -0.12133489 3.2084013e-06 0.4483872 0.21653387 0.21450827
-0.3167981 0.10954151 0.29164842 0.11085112 0.3100571 0.4229936 -0.07003499 -0.3641861
-0.550194 0.121502355 -0.10976499 -0.20820957 0.06308301 0.17339738 0.19445205 0.24752136
0.09379367 -0.14323321 -0.9106162 0.21196814 0.06841144 0.021181911 -0.23479292 0.29003185
-0.4866741 -0.4209961 0.070003174 -0.4860601 0.010361111 -0.11868283 0.38510144 0.1278098
-0.119787835 -0.14514178 -0.1166463 0.10206517 0.13777284 -0.15224482 -0.107828796 0.1629058
-0.001736403 -0.006093818 0.1226631 0.15592334 0.15870978 -0.17975186 0.12576146 -0.089337505
-0.11023278 -0.029367778 -0.056190833 -0.08477885 0.16143087 -0.052949242 0.17320438 -0.08266009
0.17632341 0.06382709 -0.10814251 -0.12151797 0.09467862 -0.20471594 -0.099762134 -0.19078279
0.068189435 0.12893897 -0.14418611 -0.088603936 0.12040012 0.004242496 0.09804484 0.00072743197
-0.11510736 -0.05168553 0.12222693 0.08977615 -0.022005536 0.08687112 0.08677662 0.14890783
-0.09775275 -0.056965012 -0.01610259 0.1315348 -0.14229767 -0.0031199376 -0.11066718 -0.10920801
-0.06987706 0.16527669 0.053146604 -0.0031876361 0.11644164 -0.061865713 0.17089403 0.083506346
0.013874158 -0.023050949 0.05496754 0.20235135 -0.17663644 -0.13335463 -0.11468322 -0.12351999
0.29826847 -0.73347753 -0.07523479 -0.32075927 -0.39127037 0.0033957516 0.23905809 -0.36009407
-0.18690416 -0.20371182 0.042576615 0.050332036 -0.8877949 -0.2360816 0.57311237 -0.163835
-0.34634346 0.24508117 -0.29285717 0.25637513 -0.20169437 0.23638235 -0.3752395 -0.31129476
0.26136157 -0.03230131 0.26681125 -0.25451034 -0.082539834 -0.021181775 -0.51256424 0.24888651
0.16365786 0.004014532 -0.14401536 0.15214117 0.055129096 0.32444534 0.097383484 -0.31850234
00000000: fccb 90bd 4bda 10be 6bce 263e 045d 0bbd
00000010: 4a19 bcbe c45b be3d e961 353e 100c 6fbd
00000020: 1246 8d3e 1846 cf3d ec0f 97be 0849 6dbe
00000030: 81e5 0dbf c7f2 963e 244d aa3e c987 a83e
00000040: e350 cd3e a537 c4be 0bbf 40bf 93ee e2bd
00000050: e73c 5ebe 7110 bbbd 9a01 9a3e a362 e83d
00000060: 2495 0c3f 6edc 623e b195 a53e bda5 883d
00000070: ab09 8c3d 3409 a4bd e227 32bf c17d 263d
00000080: 02cf 3d3e 481b f83c 90a0 f5be cc49 3dbe
00000090: a5ba 9c3d b1dc 75be 3ce8 193e 6787 ed3d
000000a0: 90b5 c0be aa75 8f3e 14f7 0a3e 88b6 c13d
000000b0: d494 4e3e 6acf 4bbe e1d2 2f3e 32db 553d
000000c0: 4eb5 45be 6d69 9fbe cb89 6cbe 25a7 c4bd
000000d0: 51a8 96be 85c9 9fbd b5d4 e23d a904 d73d
000000e0: 8cbd 0c3f 8ba7 ec3e ee73 d93d 39f2 1cbf
000000f0: 464f 50be c9a1 22be 105a 81be 3acb 1e3d
00000100: debc ee3e 0449 953d 1282 883d 1c3f 323e
00000110: b3c5 cbbd f9d1 cfbc a190 d7be 8af9 97be
00000120: 31af 0f3c 082f 553e bbd4 15be 1c5c 9ebe
00000130: 4d36 37bd f052 793e c843 3abe e2b2 a7be
00000140: 3e8a a33d 52ff a13c 3ab6 debe 9978 e53c
00000150: 7877 7c3e d7b2 643d 23d0 1c3e d8b8 b03e
00000160: c64f 7f3d 2876 dbbe de4c 673e f8f1 403e
00000170: 74f3 0b3e 22a8 543d 6756 323e 31f8 efbd
00000180: 6e3c 023e f6f9 94be 36fc 09bf ed2e 393e
00000190: c9a5 0d3e ee51 12be c97f bdbe 335e 31bf
000001a0: 4406 223e 6739 2abe b997 41be 6d7e f8bd
000001b0: ea4f 5736 0293 e53e 0ebb 5d3e 0ea8 5b3e
000001c0: 5c33 a2be 4d57 e03d f152 953e e905 e33d
000001d0: cebf 9e3e 9e92 d83e 816e 8fbd 9a76 babe
000001e0: 84d9 0cbf 3ad6 f83d 78cc e0bd e434 55be
000001f0: aa31 813d 158f 313e 701e 473e 3d76 7d3e
00000200: e516 c03d baab 12be 251e 69bf 2d0e 593e
00000210: 4c1b 8c3d b085 ad3c 8e6d 70be 0e7f 943e
00000220: 592d f9be cd8c d7be d35d 8f3d dfdc f8be
00000230: a6c1 293c fc0f f3bd 042c c53e 92e0 023e
00000240: 5353 f5bd 0ca0 14be 41e4 eebd 8b07 d13d
00000250: 5314 0d3e 11e6 1bbe 58d5 dcbd c7d0 263e
00000260: 0498 e3ba a7ae c7bb cb36 fb3d 5eaa 1f3e
00000270: d184 223e df10 38be 9dc7 003e 95f6 b6bd
00000280: b9c1 e1bd b294 f0bc 5c28 66bd 89a0 adbd
00000290: 224e 253e 4ee1 58bd 7d5c 313e b149 a9bd
000002a0: 208e 343e c7b7 823d d279 ddbd 6ade f8bd
000002b0: dde6 c13d 0ea1 51be 1750 ccbd 905c 43be
000002c0: e7a6 8b3d 9408 043e 86a5 13be fb75 b5bd
000002d0: 5794 f63d a304 8b3b bccb c83d 22b1 3e3a
000002e0: 68bd ebbd 35b4 53bd 1d52 fa3d 8fdc b73d
000002f0: f444 b4bc 7ce9 b13d f1b7 b13d 4b7b 183e
00000300: 9832 c8bd 2554 69bd 94e9 83bc 0fb1 063e
00000310: 7bb6 11be de77 4cbb 79a5 e2bd 73a8 dfbd
00000320: b41b 8fbd 4b3e 293e 41b0 593d a9e7 50bb
00000330: f478 ee3d e766 7dbd d8fe 2e3e 6005 ab3d
00000340: 7050 633c 58d5 bcbc a525 613d 3135 4f3e
00000350: 2fe0 34be 1e8e 08be 09df eabd 0cf8 fcbd
00000360: a5b6 983e 2fc5 3bbf b314 9abd 8f3a a4be
00000370: 9754 c8be 428b 5e3b a5cb 743e 405e b8be
00000380: ce63 3fbe d599 50be d164 2e3d f728 4e3d
00000390: 8746 63bf 60bf 71be 7eb7 123f 5dc4 27be
000003a0: ee53 b1be 8ff6 7a3e 60f1 95be 9a43 833e
000003b0: f888 4ebe 370e 723e 641f c0be 0762 9fbe
000003c0: 2fd1 853e 614e 04bd 7c9b 883e 2e4f 82be
000003d0: a50a a9bd 6785 adbc 6937 03bf 1bdc 7e3e
000003e0: ed95 273e 568c 833b c378 13be e5ca 1b3e
000003f0: 0ccf 613d b31d a63e fe70 c73d bd12 a3be

convt1.bias f4 [8]
0.023057492 0.11093218 -0.08256575 0.0032001014 -0.08378141 0.052640513 -0.02185993 -0.060318276
00000000: 11e3 bc3c 6930 e33d 3b18 a9bd cbb8 513b
00000010: 9695 abbd 949d 573d 9913 b3bc 4c10 77bd

convt2.weight f4 [8, 16, 5, 5]
-0.2705014 0.037950885 -1.4205027 -0.018227141 -0.07685533 0.20569564 -0.29250342 -1.069571
-0.3471509 -0.39335537 0.011453246 -0.24142113 -0.096839614 -0.8286967 -0.9831021 -0.4951421
-0.29534516 -0.13025913 -0.13576292 -1.1702065 -0.11127598 -0.8545874 -1.2111056 -0.17838228
-0.07917169 -0.2893149 -0.411455 -0.43345523 -0.708525 -0.6082422 -0.3185588 -0.359297
-0.17374176 -0.31526792 -0.16350433 -0.35172233 -0.097266935 -0.58401126 -0.6551192 0.21477622
-0.4795993 -0.41419303 -0.21740524 -0.3532871 -0.2560801 -0.16357662 -0.1489201 0.0819642
-0.25295904 0.029103475 -0.046719063 -1.0617824 -1.2829813 -0.118533865 0.16962829 -0.20142883
-0.032216497 0.0033643472 -0.37370864 0.01853507 0.21887885 -0.07681144 0.1992567 0.09072747
-0.028684063 -0.95157564 -0.44978467 -0.36605844 0.11913994 -0.9052552 0.05575648 -0.112901784
-0.7263718 -0.06774128 -0.15757647 0.16589566 -0.07259043 0.078852475 -0.6882902 0.023179093
0.25602582 -0.0032168173 0.15802331 -0.5699732 0.11448151 0.0886463 -0.2664568 -0.27438873
-0.56500447 -0.15517598 -0.12600298 0.22952333 -0.1297323 0.084175065 -0.022074478 0.18456711
0.23961118 -0.14443886 0.2966304 -0.17252724 0.03544648 0.17562474 -0.6891505 -0.2082049
0.045846105 -1.2649342 -0.8465343 -0.159997 -0.44640496 -0.6666421 -0.9976573 -0.14493854
-0.094973125 -1.1091559 -0.5656281 -0.28895018 -0.19014075 -0.636173 -0.078269325 -0.09632198
-0.4218977 -0.23958834 -0.76146317 -0.37533242 -0.021022417 -0.70978945 -0.26908582 0.07931892
0.0424234 -0.40740052 0.22992115 -0.059038024 -0.53764445 -0.18276243 -0.33215374 -0.0875491
-0.058365405 0.08749662 0.10392599 0.03345093 -0.5299298 -0.44838485 -0.29593065 0.19070469
-0.33088607 0.18093383 -0.006430483 -0.1699622 -0.3824515 -1.5358645 -0.095072046 -0.1981701
-0.16407065 -0.24444449 -0.11978982 -0.0896449 -0.60509807 -0.2365211 -0.6228755 -0.11300289
-0.3033974 -0.16133866 -0.25170162 -0.48051655 0.07191606 -0.49089295 -0.4966868 0.01906618
0.13911355 -1.2096106 -0.0872012 -0.4747247 -0.040851444 0.12874435 -0.34367248 0.21522592
-0.9106617 0.128553 0.17466076 0.25246146 -0.08880503 -0.20261359 -0.34097934 -0.08857087
-0.2767458 0.13216156 0.10802252 -0.11538624 -0.110685386 0.13839528 0.003072668 -0.054812204
-0.5069696 -0.13526013 -0.19869944 0.072058655 0.13465914 0.09203315 -0.09407773 0.041009918
-1.1681479 0.04380019 -0.2867153 0.09502074 -1.2096137 -0.30089313 -0.30930522 -0.2055248
-0.085685186 0.028618926 0.1849908 -0.25300235 -0.6377744 0.215819 -0.20515287 -0.105677344
-0.0445292 -0.108170405 -0.28116402 -0.17021148 -1.1927862 0.12048047 0.11111123 0.16336629
-1.0496526 0.06410844 -0.04454531 0.25355533 -0.05786689 -0.013248883 -0.29735675 -1.1528974
0.08230141 -0.26098615 0.13024096 -0.17743374 -0.5075077 0.05059488 -0.07425128 0.110202275
-0.12540905 0.09017398 0.008376991 0.005099162 0.026972536 0.17529166 0.2038114 -0.089685954
-0.54023796 -0.36659348 -0.086234234 -0.07408594 0.19437295 -0.7583244 0.07897293 -0.16262615
00000000: 297f 8abe 6372 1b3d 08d3 b5bf 1651 95bc
00000010: 5466 9dbd e1a1 523e 02c3 95be b4e7 88bf
00000020: c3bd b1be e065 c9be 65a6 3b3c 1a37 77be
00000030: d953 c6bd 7825 54bf 94ac 7bbf 4483 fdbe
00000040: 7b37 97be a662 05be 6f05 0bbe 54c9 95bf
00000050: a9e4 e3bd 3dc6 5abf 8205 9bbf d8a9 36be
00000060: c424 a2bd 1521 94be 3baa d2be d8ed ddbe
00000070: e561 35bf c3b5 1bbf 241a a3be c7f5 b7be
00000080: 5ce9 31be cc6a a1be ae6d 27be f314 b4be
00000090: e333 c7bd c381 15bf e4b5 27bf 4cee 5b3e
000000a0: 0a8e f5be 1c11 d4be 7b9f 5ebe 0ce2 b4be
000000b0: ee1c 83be a180 27be 837e 18be d9dc a73d
000000c0: d983 81be 696a ee3c 7d5c 3fbd 7ce8 87bf
000000d0: bb38 a4bf e2c1 f2bd 0ab3 2d3e 5c43 4ebe
000000e0: 72f5 03bd 617c 5c3b bd56 bfbe dcd6 973c
000000f0: c721 603e 514f 9dbd f309 4c3e 53cf b93d
00000100: d7fa eabc 769a 73bf 2d4a e6be 036c bbbe
00000110: a4ff f33d cebe 67bf e860 643d 0d39 e7bd
00000120: 81f3 39bf f1bb 8abd ba5b 21be 8de0 293e
00000130: 4baa 94bd 687d a13d c933 30bf 15e2 bd3c
00000140: d115 833e 3dd1 52bb ddd0 213e c3e9 11bf
00000150: 4875 ea3d 318c b53d 076d 88be ae7c 8cbe
00000160: 22a4 10bf 74e6 1ebe ed06 01be 2a08 6b3e
00000170: 8bd8 04be fa63 ac3d 89d5 b4bc 29ff 3c3e
00000180: a25c 753e c8e7 13be f1df 973e fbaa 30be
00000190: 5430 113d f9d6 333e 2b6c 30bf aa33 55be
000001a0: 20c9 3b3d 5de9 a1bf 79b6 58bf 41d6 23be
000001b0: 318f e4be 0fa9 2abf 7866 7fbf c56a 14be
000001c0: 4581 c2bd d2f8 8dbf 01cd 10bf 47f1 93be
000001d0: 42b4 42be 3cdc 22bf ab4b a0bd 7544 c5bd
000001e0: fa02 d8be a556 75be 40ef 42bf 922b c0be
000001f0: 3437 acbc c3b4 35bf 9ec5 89be f571 a23d
00000200: 29c4 2d3d cd96 d0be 7370 6b3e dbd1 71bd
00000210: 11a3 09bf 1326 3bbe 0e10 aabe f14c b3bd
00000220: 9010 6fbd 6e31 b33d 26d7 d43d d803 093d
00000230: 7ba9 07bf b392 e5be 3984 97be 1748 433e
00000240: e669 a9be b846 393e cdb6 d2bb 920a 2ebe
00000250: afd0 c3be 3597 c4bf 22b5 c2bd 1aed 4abe
00000260: 2302 28be a84f 7abe 5d54 f5bd bf97 b7bd
00000270: b5e7 1abf 9632 72be c574 1fbf 0f6e e7bd
00000280: e756 9bbe f635 25be 09df 80be 4406 f6be
00000290: ba48 933d 5256 fbbe bb4d febe ad30 9c3c
000002a0: c873 0e3e 85d4 9abf 8b96 b2bd 1e0f f3be
000002b0: d853 27bd 8fd5 033e d7f5 afbe 2f64 5c3e
000002c0: 2021 69bf 66a3 033e 45da 323e a142 813e
000002d0: 69df b5bd f079 4fbe d894 aebe a564 b5bd
000002e0: a0b1 8dbe 5c55 073e e93a dd3d 9f4f ecbd
000002f0: 05af e2bd 7eb7 0d3e d15e 493b c382 60bd
00000300: c2c8 01bf a281 0abe de77 4bbe 7d93 933d
00000310: 16e4 093e e07b bc3d d3ab c0bd 04fa 273d
00000320: df85 95bf d467 333d 59cc 92be 3c9a c23d
00000330: 9fd4 9abf aa0e 9abe 415d 9ebe 1875 52be
00000340: b77b afbd 3d72 ea3c 3a6e 3d3e 8689 81be
00000350: 2f45 23bf a8ff 5c3e 9813 52be 5d6d d8bd
00000360: 4064 36bd 7288 ddbd bbf4 8fbe eb4b 2ebe
00000370: 38ad 98bf 77be f63d 498e e33d 7e49 273e
00000380: 045b 86bf 494b 833d 2575 36bd 01d2 813e
00000390: d505 6dbd d811 59bc 253f 98be 2492 93bf
000003a0: a48d a83d fa9f 85be e35d 053e 31b1 35be
000003b0: 06ec 01bf 943c 4f3d 0e11 98bd bbb1 e13d
000003c0: 3b6b 00be 23ad b83d a63f 093c df16 a73b
000003d0: 82f5 dc3c a87f 333e f0b3 503e 45ad b7bd
000003e0: 094d 0abf 24b2 bbbe 939b b0bd 5fba 97bd
000003f0: b409 473e 8c21 42bf 8fbc a13d 7887 26be

convt2.bias f4 [16]
0.114515625 0.18568298 0.037437998 0.013026794 0.08973988 -0.017246025 0.109680735 -0.2330682
0.1750596 0.045295913 -0.0021867065 0.18256207 -0.007895449 0.122934856 0.003225488 -0.020996042
00000000: 2b87 ea3d ae23 3e3e 9658 193d 566e 553c
00000010: 8bc9 b73d 8947 8dbc 4ba0 e03d 6ea9 6ebe
00000020: d342 333e 3588 393d d94e 0fbb 8df1 3a3e
00000030: ea5b 01bc 45c5 fb3d b562 533b e4ff abbc

convt3.weight f4 [16, 32, 9, 9]
0.0015400873 0.082251884 -0.072821975 0.03840022 -0.28754097 -0.038714103 0.072230265 -0.01649942
-0.029607197 -0.047427587 -0.06802287 -0.018411232 -0.0957877 -0.15175074 0.09329464 -0.054118637
-0.40587068 0.08501711 -0.018215582 -0.05596875 0.12308569 -0.052220277 -0.016510151 0.0356563
0.071576245 0.09856446 0.034489825 0.0841132 -0.03474444 0.05790087 0.1467159 0.092582785
0.073255755 0.086545825 -0.25415957 0.16943955 0.024054356 0.08564752 0.0015860599 0.034397937
0.017280785 0.08636391 0.063641675 0.11075588 -0.00026956954 -0.021912316 -0.067878135 0.0506449
-0.076441005 -0.045183666 0.13727064 0.03390983 -0.051437803 0.23998676 -0.05612321 -0.1570672
-0.04115255 0.018936347 -0.0023529285 0.027809411 0.02400049 0.07695333 0.10451036 -0.015190556
0.07374621 -0.09858275 0.05112491 0.011615353 -0.14132361 -0.028086694 0.035699233 0.009382877
0.06910308 0.03181814 0.014986442 0.047864057 0.019218361 0.057874393 0.1995342 0.020095337
0.055498645 0.0006394234 0.26900023 -0.03957286 -0.0050255884 0.26918942 -0.04579899 0.010975408
0.1928939 -0.030684205 0.3356775 0.28161684 0.006827284 0.091195926 0.2712995 -0.037342038
0.18118648 0.11505792 0.0021745309 -0.08707507 -0.048567344 0.2794652 -0.20121348 -0.06519881
0.16463117 0.006524738 -0.06412493 0.29530087 -0.01809605 0.41227296 -0.009935848 0.00082627
0.19097646 0.009423402 -0.009007152 0.30302858 -0.014493481 0.43722045 0.2822724 -0.04611059
0.27969077 0.2693335 -0.040829103 0.24952275 0.11525226 -0.02326831 -0.07629571 -0.0643494
0.37834242 0.06991589 -0.025624475 0.23402946 -0.14245453 -0.031255078 0.24562922 0.0035006702
0.34000644 -0.022593902 -0.015841788 0.28025073 0.006616685 -0.03974388 0.23346364 -0.016879862
0.5238041 0.25281566 0.007846299 0.23658495 0.24005553 -4.547445e-05 0.29482824 0.192039
-0.031441614 -0.29587883 -0.01950424 0.48858902 -0.25266537 -0.049136568 0.30201307 -0.24954651
-0.031978913 0.333211 0.038458504 0.028169358 0.0106627615 -0.049106125 -0.011633881 -0.029400125
-0.040468827 -0.010071701 -0.045587063 0.07544776 0.06297615 0.03766753 -0.0021330377 -0.008014076
0.020234931 0.029927382 0.051419035 0.023818994 0.051768415 0.0012434876 0.042791888 0.03346052
-0.008897389 -0.00302597 -0.0016587491 -0.006721508 -0.018181548 0.045518644 0.01583531 0.050366588
0.023202058 -0.011724538 0.043893635 -0.018815633 -0.036706954 -0.0012157103 0.09279184 0.07674609
0.0028294013 -0.013651611 0.052103274 0.060520984 -0.0048470767 0.020798204 0.018817713 0.025975265
-0.018759953 -0.0035416638 -0.0035826184 0.0017761091 -0.05340088 -0.036901455 -0.011115498 0.0045336727
0.06388357 -0.0049081515 0.02180507 0.019013358 -0.0002353495 0.021296225 0.015976403 -0.008593508
-0.029019592 0.06306488 0.029434856 0.0041093314 0.0055636736 0.023987204 0.023411633 0.0011029486
0.04420248 0.02623828 0.112905756 0.011758132 -0.013242549 0.037940595 0.022827478 -0.03200762
0.042614892 0.03994869 0.011338747 -0.0013777553 0.08526292 0.081887364 0.14019477 -0.034393933
0.11758201 0.07285995 0.15338005 0.048644837 0.21187554 0.10827073 0.09379166 -0.02427122
00000000: c1dc c93a ad73 a83d b023 95bd 8d49 1d3d
00000010: 9238 93be ae92 1ebd 76ed 933d cb29 87bc
00000020: cb8a f2bc 6e43 42bd 934f 8bbd 27d3 96bc
00000030: 572c c4bd 8c64 1bbe 4311 bf3d 81ab 5dbd
00000040: 48ce cfbe 731d ae3d d838 95bc 7d3f 65bd
00000050: 5a14 fc3d eee4 55bd 4c40 87bc 570c 123d
00000060: 9196 923d 2adc c93d 3445 0d3d 8b43 ac3d
00000070: 3050 0ebd 7629 6d3d b13c 163e 0b9c bd3d
00000080: 1d07 963d f03e b13d 3421 82be 9081 2d3e
00000090: a40d c53c f867 af3d 57e3 cf3a dae4 0c3d
000000a0: 6f90 8d3c 90df b03d 9156 823d fbd3 e23d
000000b0: 0355 8db9 7581 b3bc b103 8bbd 0771 4f3d
000000c0: 1a8d 9cbd 8212 39bd ad90 0c3e 09e5 0a3d
000000d0: 72b0 52bd 17bf 753e 73e1 65bd 39d6 20be
000000e0: 948f 28bd 6620 9b3c 9733 1abb 90d0 e33c
000000f0: ad9c c43c b599 9d3d 8709 d63d cfe1 78bc
00000100: 4108 973d c1e5 c9bd 5b68 513d 524e 3e3c
00000110: 23b7 10be 1116 e6bc 5c39 123d a3ba 193c
00000120: ea85 8d3d bd53 023d b289 753c 1a0d 443d
00000130: d36f 9d3c b30d 6d3d b152 4c3e fa9e a43c
00000140: 8c52 633d fa9e 273a 66ba 893e 2717 22bd
00000150: b1ad a4bb 32d3 893e b997 3bbd 33d2 333c
00000160: fb85 453e 715d fbbc ecdd ab3e 1530 903e
00000170: 69b7 df3b eec4 ba3d c5e7 8a3e f7f3 18bd
00000180: f388 393e 7da3 eb3d 9382 0e3b 6a54 b2bd
00000190: 8dee 46bd 1016 8f3e e80a 4ebe f486 85bd
000001a0: 1395 283e 78cd d53b ee53 83bd ad31 973e
000001b0: 2b3e 94bc 7115 d33e f8c9 22bc 0b9a 583a
000001c0: 558f 433e 9d64 1a3c bc92 13bc 9026 9b3e
000001d0: 1176 6dbc 5cdb df3e 0286 903e 75de 3cbd
000001e0: a133 8f3e 15e6 893e 6b3c 27bd e482 7f3e
000001f0: 6009 ec3d 2f9d bebc ed40 9cbd 9ec9 83bd
00000200: 19b6 c13e 1030 8f3d 6bea d1bc 6ba5 6f3e
00000210: 9adf 11be 5305 00bd 3a86 7b3e 806b 653b
00000220: 5315 ae3e d916 b9bc a3c6 81bc 067d 8f3e
00000230: c7d0 d83b 7bca 22bd 1811 6f3e a347 8abc
00000240: 0718 063f 0e71 813e c38d 003c 5343 723e
00000250: 1ed1 753e d2bb 3eb8 baf3 963e dfa5 443e
00000260: ecc8 00bd 6e7d 97be 5bc7 9fbc 5728 fa3e
00000270: 5b5d 81be 6d43 49bd 75a1 9a3e 1f89 7fbe
00000280: 52fc 02bd a29a aa3e aa86 1d3d 6dc3 e63c
00000290: ddb2 2e3c 8123 49bd 099c 3ebc 88d8 f0bc
000002a0: a4c2 25bd c703 25bc 80b9 3abd 5b84 9a3d
000002b0: a4f9 803d 4549 1a3d 6fca 0bbb 794d 03bc
000002c0: bac3 a53c 452a f53c c49c 523d 0d20 c33c
000002d0: 1e0b 543d 85fc a23a 8c46 2f3d e60d 093d
000002e0: 5bc6 11bc 5a4f 46bb 626a d9ba 1940 dcbb
000002f0: 78f1 94bc c271 3a3d 0db9 813c 324d 4e3d
00000300: 3e12 be3c 4718 40bc d0c9 333d 3e23 9abc
00000310: 085a 16bd 7858 9fba a609 be3d 0e2d 9d3d
00000320: 7a6d 393b 02ab 5fbc 3e6a 553d dae4 773d
00000330: 3ad4 9ebb ff60 aa3c 9b27 9a3c 14ca d43c
00000340: 79ae 99bc 421b 68bb 5dca 6abb 55cc e83a
00000350: e2ba 5abd fb25 17bd c71d 36bc 348f 943b
00000360: 64d5 823d 8fd4 a0bb 8ca0 b23c e7c1 9b3c
00000370: 26c8 76b9 6c75 ae3c f2e0 823c c9cb 0cbc
00000380: 7fba edbc 2928 813d 5e21 f13c 92a7 863b
00000390: 7a4f b63b d080 c43c c1c9 bf3c d090 903a
000003a0: a90d 353d a9f1 d63c 223b e73d 2ea5 403c
000003b0: 47f7 58bc 9967 1b3d b100 bb3c 6c1a 03bd
000003c0: f48c 2e3d 3da1 233d 27c6 393c cc95 b4ba
000003d0: 539e ae3d 90b4 a73d 388f 0f3e a7e0 0cbd
000003e0: d6ce f03d 9937 953d a90f 1d3e cf3f 473d
000003f0: e7f5 583e 0bbd dd3d d815 c03d 70d4 c6bc

convt3.bias f4 [32]
0.0021703674 -0.22579718 0.20415646 0.11833189 0.17769063 -0.004249549 0.061125953 0.053085946
-0.16334127 0.037264556 0.009377304 0.1817624 0.100074366 0.27300197 -0.18601996 0.17004398
0.030930474 -0.3767822 0.030892085 0.061168443 0.008989986 0.11272335 0.18561877 0.030097421
0.114114724 0.10054043 -0.17652701 -0.016571501 0.08505222 0.04807032 0.14115395 0.03627434
00000000: b93c 0e3b 6037 67be 640e 513e fd57 f23d
00000010: 88f4 353e cd3f 8bbb 355f 7a3d a670 593d
00000020: ef42 27be b8a2 183d 44a3 193c ec1f 3a3e
00000030: caf3 cc3d eac6 8b3e 047c 3ebe 0220 2e3e
00000040: e861 fd3c 99e9 c0be 6611 fd3c c38b 7a3d
00000050: bc4a 133c 80db e63d d912 3e3e de8e f63c
00000060: fbb4 e93d 24e8 cd3d 7fc3 34be f5c0 87bc
00000070: dc2f ae3d 62e5 443d a98a 103e 6794 143d

pos_output.weight f4 [1, 32, 2, 2]
0.062386706 0.04852696 -0.20757489 -0.18714823 -0.018119493 0.018527271 -0.015325551 0.006191175
0.14974988 -0.03749454 0.02817905 -0.017806018 -0.13784441 -0.15746255 -0.21884188 -0.21341741
0.2657736 0.1961138 0.14637525 0.16844784 0.24003172 0.23680274 0.246839 0.21410331
0.25758803 0.19758813 0.24912283 0.1997988 0.1299216 -0.012308744 0.0045815837 -0.05508938
0.020626167 0.018373175 0.041509893 0.018488204 -0.11789675 -0.17545691 -0.03768127 -0.062712654
0.40353766 0.44505057 0.5277544 0.5828815 0.1971761 0.30401206 0.34759876 0.26863894
0.16408217 -0.024576439 0.008304141 -0.08854159 0.12855688 -0.21294846 0.08318012 0.073436834
-0.044668585 -0.028674852 0.10028629 0.015695626 -0.014762875 -0.067848854 0.02506682 -0.10828606
0.19985516 0.18971103 0.21881244 0.174195 -0.23321918 -0.24402224 -0.20902006 -0.2139596
0.55167836 0.52193475 0.46697268 0.47716713 -0.041059002 0.12272987 -0.16814716 0.078855194
-0.017203722 0.021130467 0.13738655 0.14759766 -0.19736888 -0.17640974 -0.21677336 -0.21469401
-0.09554901 -0.007017816 -0.07611707 -0.073673666 0.097085 0.09544541 0.045730818 0.17606159
0.11538393 0.14682856 0.17270674 0.15670243 -0.08209653 0.034790363 0.004025064 -0.054478806
-0.003528663 0.00087816105 -0.0024798573 0.020127218 -0.13061072 -0.15867217 -0.16272983 -0.15421279
0.2595008 0.28176558 0.27222896 0.2922976 -0.07944689 -0.0025112305 -0.029567707 0.030401684
0.14997151 0.15057956 0.19009472 0.20286894 0.21657191 0.2808624 0.20166545 0.2574209
00000000: 3489 7f3d 35c4 463d 838e 54be c9a3 3fbe
00000010: 556f 94bc 81c6 973c 0518 7bbc 57df ca3b
00000020: 0858 193e e093 19bd c0d7 e63c eddd 91bc
00000030: 1627 0dbe dd3d 21be 1618 60be 188a 5abe
00000040: 7a13 883e 0ed2 483e 65e3 153e 977d 2c3e
00000050: e0ca 753e 6b7c 723e 5dc3 7c3e e63d 5b3e
00000060: 94e2 833e 8b54 4a3e 0e1a 7f3e 0e98 4c3e
00000070: 2b0a 053e 9daa 49bc 1c21 963b 67a5 61bd
00000080: 35f8 a83c 5783 963c 4706 2a3d 9374 973c
00000090: da73 f1bd faaa 33be ad57 1abd 7e6f 80bd
000000a0: 7d9c ce3e abdd e33e ea1a 073f b937 153f
000000b0: 88e8 493e 78a7 9b3e 77f8 b13e 0b8b 893e
000000c0: 2805 283e 8754 c9bc 180e 083c 4b55 b5bd
000000d0: 6aa4 033e 290f 5abe 575a aa3d 0d66 963d
000000e0: 68f6 36bd 86e7 eabc e662 cd3d 1d94 803c
000000f0: fcdf 71bc 57f4 8abd ef58 cd3c 15c5 ddbd
00000100: d5a6 4c3e 9c43 423e 5e10 603e 2d60 323e
00000110: 02d1 6ebe f7e0 79be 5b09 56be 3a18 5bbe
00000120: cb3a 0d3f 849d 053f 0b17 ef3e 404f f43e
00000130: 7c2d 28bd cc59 fb3d c52e 2cbe d57e a13d
00000140: d2ee 8cbc cd19 ad3c 0faf 0c3e d723 173e
00000150: 111b 4abe c1a4 34be d6f9 5dbe bfd8 5bbe
00000160: 33af c3bd b5f5 e5bb 44e3 9bbd 38e2 96bd
00000170: 80d4 c63d e278 c33d 3d50 3b3d 7d49 343e
00000180: 694e ec3d 3a5a 163e 09da 303e 9a76 203e
00000190: 3a22 a8bd 5780 0e3d afe4 833b 2b25 5fbd
000001a0: 2441 67bb 6434 663a 1a85 22bb d6e1 a43c
000001b0: d1be 05be f57a 22be a6a2 26be f5e9 1dbe
000001c0: 4add 843e 9443 903e 9861 8b3e 08a8 953e
000001d0: 0db5 a2bd 7593 24bb fa37 f2bc f40c f93c
000001e0: 2292 193e 8731 1a3e 31a8 423e e0bc 4f3e
000001f0: 07c5 5d3e 32cd 8f3e 6381 4e3e accc 833e

cos_output.weight f4 [1, 32, 2, 2]
-0.17324857 -0.1275991 0.08497265 0.14190958 -0.05655602 -0.08526821 -0.07656409 -0.078274615
0.008039839 0.18136467 0.17667776 0.24482155 0.06621896 0.11845388 0.2150752 0.20046775
-0.2641569 -0.18593383 -0.1297113 -0.16873147 -0.043273505 -0.02460413 -0.18772942 -0.15555012
-0.47070667 -0.40489292 -0.42779073 -0.3796312 0.009515974 0.1292762 0.10577127 -0.2386906
-0.16230853 -0.12182015 -0.17241964 -0.17841804 0.025607092 0.08530035 -0.15835959 -0.07731456
-0.38373196 -0.43347216 -0.47044 -0.5464309 0.0069428454 -0.109318264 -0.109879166 -0.034081712
-0.11553918 -0.029557083 -0.03239826 0.058126684 0.22025138 0.29012606 0.3289966 0.14183569
0.15030512 -0.008568911 -0.0045497813 0.033951797 0.17589882 0.016613202 0.19157308 0.13492438
0.078290395 0.05834565 0.11100001 0.09532382 0.16319807 0.1408454 0.07305212 0.06940539
-0.72153217 -0.75405455 -0.5386597 -0.6125597 0.06429317 -0.29587495 0.295838 -0.079052635
0.14871942 0.117582165 0.040942356 0.025945233 0.21580876 0.24432625 0.2570329 0.2559509
-0.44731072 -0.3325855 -0.23445691 -0.4437755 0.035966326 0.101541005 -0.134123 0.028510308
-0.25702572 -0.37235153 -0.3907507 -0.28114623 0.004032993 0.00046905674 0.08047453 0.048665665
0.022080036 -0.034508575 -0.14649235 -0.074265756 0.48116004 0.45946956 0.3821943 0.40003952
-0.3780425 -0.39613807 -0.3823012 -0.4249641 0.09538685 0.08470976 0.12909994 0.08087574
-0.28988045 -0.29383132 -0.43036732 -0.42927304 0.12562071 0.15528351 0.070479564 0.13128941
00000000: 1368 31be 57a9 02be 2406 ae3d bf50 113e
00000010: 49a7 67bd 19a1 aebd a2cd 9cbd 714e a0bd
00000020: 87b9 033c a9b7 393e 04eb 343e 80b2 7a3e
00000030: ce9d 873d f397 f23d ac3c 5c3e 6b47 4d3e
00000040: 933f 87be 7065 3ebe 0ad3 04be f1c7 2cbe
00000050: 8f3f 31bd 9a8e c9bc 243c 40be 8848 1fbe
00000060: 7700 f1be 204e cfbe 6307 dbbe 055f c2be
00000070: e3e8 1b3c fb60 043e 9c9e d83d 4f6b 74be
00000080: 3534 26be d87c f9bd c68e 30be 38b3 36be
00000090: f7c5 d13c f3b1 ae3d 0429 22be 1957 9ebd
000000a0: 8478 c4be 10f0 ddbe 83dd f0be e5e2 0bbf
000000b0: cf80 e33b 41e2 dfbd 5408 e1bd 4499 0bbd
000000c0: ce9f ecbd b221 f2bc 0ab4 04bd 3f16 6e3d
000000d0: 9489 613e 678b 943e 3e72 a83e 603d 113e
000000e0: 96e9 193e 9e64 0cbc 5516 95bb 0a11 0b3d
000000f0: d21e 343e 6918 883c bc2b 443e 9e29 0a3e
00000100: b756 a03d d9fb 6e3d f953 e33d 2339 c33d
00000110: 651d 273e c739 103e 5a9c 953d 6a24 8e3d
00000120: 55b6 38bf b809 41bf 9ae5 09bf b6d0 1cbf
00000130: 23ac 833d ec7c 97be 1478 973e 59e6 a1bd
00000140: e749 183e ebce f03d 2cb3 273d 198b d43c
00000150: f9fc 5c3e a930 7a3e d199 833e ff0b 833e
00000160: e905 e5be a648 aabe 7915 70be 8b36 e3be
00000170: 6d51 133d bbf4 cf3d 8a57 09be 738e e93c
00000180: e098 83be dca4 bebe 7a10 c8be 66f2 8fbe
00000190: 3327 843b bbeb f539 d5cf a43d a655 473d
000001a0: 31e1 b43c dd58 0dbd 1702 16be a518 98bd
000001b0: 9c5a f63e 983f eb3e f9ae c33e fbd1 cc3e
000001c0: c98e c1be 9cd2 cabe fcbc c3be e594 d9be
000001d0: 2e5a c33d 507c ad3d c632 043e 2ea2 a53d
000001e0: 366b 94be 0f71 96be 1b59 dcbe adc9 dbbe
000001f0: b7a2 003e a402 1f3e 9757 903d bb70 063e

sin_output.weight f4 [1, 32, 2, 2]
0.023513518 -0.03195714 -0.0005406816 -0.06195889 -0.0056491997 -0.0009924661 -0.0002693837 -0.00045656634
0.070591606 0.115292855 -0.13676137 0.08792298 0.008978228 -0.0042211725 -0.02197645 -0.012325896
0.078908525 0.023905814 0.05112457 0.050078057 0.4945677 0.44871634 0.3175671 0.28479758
0.024095524 0.011742373 0.017469618 0.01043316 -0.080979414 0.10272376 -0.1252558 0.09315753
-0.0042636157 -0.019563101 -0.0010136021 0.005339148 -0.022649806 -0.010574865 -0.014749284 0.0014115875
-0.050214436 -0.03641967 -0.05862562 -0.04485263 -0.06764628 -0.025872853 -0.04017262 -0.07181291
-0.15460363 -0.17372034 -0.18067336 -0.14048871 0.13958594 -0.09584359 0.057093963 0.07948547
0.059394248 0.0064500733 0.02133568 -0.02125135 -0.13305144 0.09010999 -0.06220257 -0.052550126
-0.027735002 -0.032677043 -0.031450696 -0.03557432 0.035238344 0.02204796 0.031952932 0.029811008
-0.03428541 -0.0386253 -0.027409175 -0.030585164 -0.029746415 -0.011373064 -0.025091019 0.06011607
0.27110976 0.2852707 0.4423448 0.42336112 0.0106906425 0.003069705 0.029010411 0.028278042
0.20753443 0.14828892 0.11694804 0.20532534 0.10461954 -0.088782094 0.033867728 -0.07884298
-0.29995862 -0.44339994 -0.4437691 -0.31628662 0.001319271 -0.07061439 -0.010726898 0.060366556
0.013822387 0.015258322 0.0119272 0.023720924 -0.044696487 -0.03940056 -0.039579455 -0.03586806
-0.00289756 -0.0055120266 -0.014208188 -0.007278775 0.14812984 0.19579004 0.14158222 0.13834678
0.10065082 0.09903299 0.13138853 0.13244988 -0.06050895 -0.057822585 -0.041425608 -0.06780501
00000000: 6c9f c03c 7de5 02bd 87bc 0dba 9bc8 7dbd
00000010: ec1c b9bb a315 82ba 113c 8db9 4c5f efb9
00000020: 5592 903d a91e ec3d 2c0b 0cbe f710 b43d
00000030: 6b19 133c c351 8abb f507 b4bc 8ef2 49bc
00000040: cb9a a13d 20d6 c33c ff67 513d a61e 4d3d
00000050: fa37 fd3e 26be e53e 2898 a23e fdd0 913e
00000060: fa63 c53c 1563 403c 721c 8f3c d8ef 2a3c
00000070: 89d8 a5bd d660 d23d 0e43 00be 60c9 be3d
00000080: cdb5 8bbb cc42 a0bc d8da 84ba 05f4 ae3b
00000090: 168c b9bc 3342 2dbc fba6 71bc 0405 b93a
000000a0: a7ad 4dbd cb2c 15bd 6b21 70bd 64b7 37bd
000000b0: 228a 8abd 4ef3 d3bc 0c8c 24bd a612 93bd
000000c0: 6a50 1ebe bfe3 31be 7002 39be 46dc 0fbe
000000d0: 9eef 0e3e a549 c4bd 5cdb 693d 47c9 a23d
000000e0: 6247 733d 235b d33b 2ac8 ae3c 5017 aebc
000000f0: a33e 08be 968b b83d 1fc8 7ebd cd3e 57bd
00000100: 8434 e3bc 5dd8 05bd 72d2 00bd 61b6 11bd
00000110: 1556 103d ec9d b43c 14e1 023d 3736 f43c
00000120: dc6e 0cbd 9035 1ebd 3589 e0bc bd8d fabc
00000130: c1ae f3bc 1656 3abc ae8b cdbc 453c 763d
00000140: e6ce 8a3e 000f 923e 057b e23e cac2 d83e
00000150: ce27 2f3c 1b2d 493b 3ea7 ed3c 5aa7 e73c
00000160: e883 543e 0dd9 173e 7482 ef3d ce40 523e
00000170: c542 d63d 63d3 b5bd e3b8 0a3d 6e78 a1bd
00000180: 2d94 99be 5105 e3be b435 e3be 52f0 a1be
00000190: 64eb ac3a 479e 90bd dfbf 2fbc ec42 773d
000001a0: 4b77 623c 0afe 793c 4d6a 433c 6252 c23c
000001b0: aa13 37bd 7b62 21bd 111e 22bd 63ea 12bd
000001c0: fde4 3dbb 3b9e b4bb 76c9 68bc ca82 eebb
000001d0: 59af 173e 2f7d 483e eefa 103e c7aa 0d3e
000001e0: 0422 ce3d cfd1 ca3d b78a 063e f1a0 073e
000001f0: 3cd8 77bd 60d7 6cbd e6ad 29bd 5add 8abd
