ggcnn_base/output/models/221204_2000_training_example/epoch_04_iou_0.55_statedict.pt (torch, 256417 bytes, 16 tensors)

conv1.weight f4 [32, 1, 9, 9]
-0.019106572 -0.07779068 -0.01607575 -0.0725663 -0.08009068 -0.01094454 -0.04425259 -0.08595416
-0.07562133 -0.04770315 -0.03334594 -0.025901262 -0.07854062 -0.030736275 -0.06889629 -0.06165241
-0.04451704 0.014366161 -0.01897898 -0.05711746 -0.019497162 -0.044817574 -0.07642015 -0.064646356
-0.027986959 -0.053463444 -0.0628549 -0.024000289 -0.05322393 -0.017217252 -0.029467832 -0.056672785
0.022614583 0.0097512575 -0.05832118 0.021980919 -0.030806122 -0.035627782 -0.04825627 -0.035563987
-0.06373647 -0.010973283 0.018485373 0.026990296 -0.05461579 0.008697417 0.025748981 -0.034938432
-0.057883527 0.024009258 -0.04444665 -0.034128148 0.0031547414 0.031214781 -0.0478575 -0.021930259
-0.00065144314 -0.030615088 0.038985886 0.013203653 0.007907074 -0.046429284 -0.042197976 0.036625843
-0.02375677 3.6472386e-05 -0.00303139 0.023673026 0.037413247 -0.04019046 0.011929964 -0.015178637
0.034741506 0.0034511676 0.025952779 0.008148752 -0.038871787 -0.027111301 0.052768722 0.011078403
0.004405943 -0.025313001 -0.028512994 0.006767615 0.0711266 0.087217174 0.04486626 0.08829216
0.12892632 0.15930861 -0.08891591 -0.062423564 -0.033526026 -0.021518897 0.016690847 0.080085635
0.099308796 0.1523736 0.14433667 -0.11935005 -0.0677317 -0.023731485 -0.05320281 -0.0024390086
0.031125749 0.017150117 0.06595237 0.12644671 -0.04430069 -0.014065708 0.0016619134 0.05951135
0.038925517 0.05526153 0.05205135 0.15317708 0.15518884 -0.0666517 -0.011157237 -0.036137212
-0.0064982087 -0.020417573 0.032033585 0.10698137 0.122807086 0.07642022 -0.123382874 -0.087967545
-0.05721456 -0.044441584 -0.035636008 0.017086355 0.08525789 0.120399065 0.09603876 -0.087224424
-0.09469671 -0.12390973 -0.07590129 -0.03880594 0.035662465 -0.009012913 0.08783675 0.10322655
-0.120638035 -0.08952145 -0.12527846 -0.004760442 -0.06900009 0.008083534 0.02165974 0.082703665
0.08181704 -0.11803589 -0.13975166 -0.09440221 -0.03132989 -0.018353092 0.0060241246 0.055574577
0.07607659 0.115046605 -0.006058949 -0.0048685153 -0.014995357 -0.011643126 0.004364938 0.009700709
0.017804895 0.046436347 0.039991777 -0.03289461 -0.043016076 0.0024575496 0.005217617 -0.041281514
0.029886318 0.027701981 -0.026323969 0.037704553 0.017443819 0.017784087 -0.03197749 0.02466746
-0.015039885 -0.040852536 -0.0067322343 0.0402595 -0.024621643 -0.031387337 0.0022489391 -0.01826125
-0.02312994 0.04063381 0.010819116 0.009680941 -0.0011624205 0.04095902 0.03659557 -0.031456415
-0.0071762037 0.040814884 0.017577494 -0.008798967 -0.031766333 -0.017197063 -0.001501565 -0.036969513
-0.0135771325 -0.018503342 0.00827443 -0.047154374 0.0040371683 -0.009968441 -0.016580805 0.0062051956
-0.019686207 0.012574909 0.0023521937 0.026126672 0.026510943 -0.017780693 -0.014102895 -0.04027468
0.0027886005 0.009654966 -0.014458396 -0.043362197 -0.003687372 -0.015015515 0.017628731 0.0009648743
-0.02580608 -0.041156825 0.00701185 0.036788624 0.040631805 -0.005702138 -0.04001524 0.02615216
-0.012577258 -0.020553559 -0.032676876 -0.03789718 -0.027661009 0.006365016 -0.13240054 -0.13113755
-0.1314723 -0.11262215 -0.06742278 -0.1530308 0.040249966 0.05605447 0.010466158 -0.019528346
00000000: 6385 9cbc b850 9fbd 4bb1 83bc a49d 94bd
00000010: 9506 a4bd ba50 33bc 3442 35bd bc08 b0bd
00000020: 5bdf 9abd 6164 43bd c195 08bd e22e d4bc
00000030: e8d9 a0bd a4ca fbbc 8019 8dbd 3d87 7cbd
00000040: 8057 36bd 0c60 6b3c ce79 9bbc fff3 69bd
00000050: 83b8 9fbc a292 37bd 2b82 9cbd 4f65 84bd
00000060: e844 e5bc 7cfc 5abd 12ba 80bd 419c c4bc
00000070: 5601 5abd 320b 8dbc 8666 f1bc b921 68bd
00000080: 3842 b93c bdc3 1f3c 31e2 6ebd 5411 b43c
00000090: 1f5d fcbc 70ee 11bd 5ea8 45bd 8bab 11bd
000000a0: 4488 82bd 49c9 33bc a36e 973c c11a dd3c
000000b0: ceb4 5fbd 9c7f 0e3c 87ef d23c 9a1b 0fbd
000000c0: 4717 6dbd 10af c43c b10d 36bd f5c9 0bbd
000000d0: c7bf 4e3b 24b6 ff3c 3a06 44bd 16a7 b3bc
000000e0: 9cc5 2aba 7ecc fabc aaaf 1f3d 2254 583c
000000f0: ac8c 013c a22c 3ebd c9d7 2cbd fb04 163d
00000100: 8f9d c2bc edf9 1838 49aa 46bb efed c13c
00000110: a23e 193d c09e 24bd e575 433c d1af 78bc
00000120: 1c4d 0e3d fc2c 623b ec9a d43c 5882 053c
00000130: 0638 1fbd 8518 debc 0424 583d 3182 353c
00000140: bb5f 903b 365d cfbc 1594 e9bc dfc2 dd3b
00000150: d3aa 913d eb9e b23d afc5 373d 85d2 b43d
00000160: 4305 043e cc21 233e 8b19 b6bd daaf 7fbd
00000170: 9652 09bd 6648 b0bc 3ebb 883c f003 a43d
00000180: 6962 cb3d d307 1c3e fecc 133e cd6d f4bd
00000190: ebb6 8abd 8868 c2bc 31eb 59bd c6d7 1fbb
000001a0: 6dfb fe3c 677e 8c3c 0912 873d 3f7b 013e
000001b0: a474 35bd db73 66bc 8fd4 d93a 2cc2 733d
000001c0: 5d70 1f3d ea59 623d cc33 553d 74da 1c3e
000001d0: d3e9 1e3e b080 88bd d8cc 36bc 9d04 14bd
000001e0: edee d4bb c142 a7bc a635 033d 0c19 db3d
000001f0: 4882 fb3d 3482 9c3d 29b0 fcbd 5428 b4bd
00000200: d159 6abd 6108 36bd 10f7 11bd aff8 8b3c
00000210: b09b ae3d c993 f63d f8af c43d b8a2 b2bd
00000220: 59f0 c1bd 62c4 fdbd 2372 9bbd faf2 1ebd
00000230: ce12 123d e6aa 13bc c1e3 b33d 7168 d33d
00000240: 1311 f7bd 0657 b7bd ff48 00be 7bfd 9bbb
00000250: eb4f 8dbd cd70 043c c46f b13c 8a60 a93d
00000260: b18f a73d cdbc f1bd 0f1b 0fbe f255 c1bd
00000270: c553 00bd 3959 96bc 0566 c53b 2ba2 633d
00000280: 0bce 9b3d 8e9d eb3d 268a c6bb 1188 9fbb
00000290: 16af 75bc cfc2 3ebc c107 8f3b b9ef 1e3c
000002a0: 92db 913c 0a34 3e3d 6bce 233d 80bc 06bd
000002b0: a031 30bd d70e 213b 8bf8 aa3b ce16 29bd
000002c0: 27d4 f43c 44ef e23c 5da5 d7bc 1770 1a3d
000002d0: 57e6 8e3c efaf 913c d4fa 02bd 6a13 ca3c
000002e0: da69 76bc fd54 27bd 139a dcbb 25e7 243d
000002f0: 54b3 c9bc 0290 00bd f062 133b 9e98 95bc
00000300: 007b bdbc a36f 263d a942 313c cf9c 1e3c
00000310: 5c5c 98ba a5c4 273d 3de5 153d 71d8 00bd
00000320: 5c26 ebbb 822d 273d adfe 8f3c 8b29 10bc
00000330: 6a1d 02bd dbe0 8cbc 29d0 c4ba 586d 17bd
00000340: 9f72 5ebc 5294 97bc 7a91 073c f224 41bd
00000350: 394a 843b ac52 23bc 78d4 87bc f454 cb3b
00000360: f844 a1bc fe06 4e3c 4327 1a3b 9a07 d63c
00000370: 7a2d d93c d1a8 91bc d40f 67bc 10f7 24bd
00000380: f4c0 363b dd2f 1e3c e8e2 6cbc 8f9c 31bd
00000390: d6a7 71bb a203 76bc 216a 903c 9eef 7c3a
000003a0: 4667 d3bc 0f94 28bd a9c3 e53b abaf 163d
000003b0: 896d 263d 00d9 babb 05e7 23bd 0e3d d63c
000003c0: d810 4ebc f05f a8bc 30d8 05bd 133a 1bbd
000003d0: 5799 e2bc a091 d03b 0294 07be ec48 06be
000003e0: ada0 06be 71a6 e6bd f414 8abd 1bb4 1cbe
000003f0: 26dd 243d 5f99 653d 407a 2b3c e9f9 9fbc

conv1.bias f4 [32]
-0.18966196 0.11710508 -0.10833739 -0.045137543 0.08110896 0.10075534 -0.042119164 0.11751287
-0.17682312 0.041949134 0.1274366 -0.05709398 -0.1916992 0.053409994 0.044813573 0.05784156
0.0043638228 -0.08355622 -0.15535119 -0.07368849 -0.15721141 0.17275661 0.038881756 -0.10031635
-0.17879091 0.06476864 -0.029926125 0.028780881 -0.098835595 -0.09730271 0.08873893 0.08784415
00000000: bf36 42be cad4 ef3d fedf ddbd 25e2 38bd
00000010: 741c a63d d158 ce3d 2585 2cbd 96aa f03d
00000020: 1f11 35be dbd2 2b3d bd7e 023e 61db 69bd
00000030: cc4c 44be 70c4 5a3d 708e 373d 46eb 6c3d
00000040: 66fe 8e3b 861f abbd 6214 1fbe fee9 96bd
00000050: 07fc 20be 1ce7 303e 7a42 1f3d a972 cdbd
00000060: f714 37be 6ca5 843d a227 f5bc e2c5 eb3c
00000070: 516a cabd a546 c7bd c2bc b53d a2e7 b33d

conv2.weight f4 [16, 32, 5, 5]
-0.1005562 -0.032088585 0.0266738 -0.0049538896 -0.07125523 0.002892936 -0.009369691 0.042620152
0.01922361 -0.039564203 -0.023477647 -0.024296077 -0.036130678 0.053985126 0.028078275 0.05063666
0.05472476 0.098252326 -0.016490411 0.106934175 0.001201275 0.034931023 0.11779397 0.047033526
0.0070170034 -0.008204463 0.019551907 0.040814094 -0.040306136 -0.086661935 0.018978385 -0.0036583478
0.038925223 -0.06968175 0.012068215 0.07629317 0.076446615 0.00077448576 -0.04389882 -0.06670521
0.029503452 0.022689382 -0.03157403 0.029775718 -0.04801758 0.060273644 0.048382357 -0.0055446834
0.022996997 -0.063634895 0.01759529 0.06582231 0.04552106 0.010144772 -0.02199478 -0.03383777
-0.037128586 0.009229174 0.063929014 -0.03403376 0.023103159 -0.00030999008 0.017788516 -0.036697734
0.015609735 0.029150642 0.019546486 -0.030971369 0.02304878 -0.012200156 0.024168167 -0.010469657
0.00042535443 0.04551597 0.052953422 -0.021219045 0.023399128 0.0042464416 -0.056879554 -0.012370355
-0.009245743 -0.038847107 -0.06598021 0.012496265 0.07203303 -0.09621795 -0.08662989 -0.040756576
-0.0599437 -0.019653317 0.046743877 0.027752303 0.021760147 0.024162633 0.11766067 -0.030495377
0.02420163 0.023009261 0.087502085 0.11914498 -0.033055723 -0.034346245 0.043571625 -0.008310527
-0.07487308 0.05159057 0.048666235 0.027054887 0.065134525 0.047867917 0.038346067 0.0097259525
0.040417124 0.044600647 0.038145375 0.031893972 0.102290854 0.023736749 0.0029931413 0.015661092
0.072368935 0.09165878 0.038628463 0.103684 0.09170657 0.008894562 -0.044972282 0.057477705
-0.043100145 0.003466158 0.04032905 -0.075788684 0.06408926 0.010745563 0.026854109 -0.060883895
0.03166872 0.038633686 0.0017430095 0.032057565 -0.09419086 -0.1047683 -0.07291362 -0.08815575
0.007050185 -0.093335055 -0.0012400631 -0.060500458 0.0065287254 -0.05732827 0.024795426 0.01877527
-0.08681497 0.051374096 -0.0281338 -0.0926139 0.009324608 -0.05793305 0.015840583 0.003274168
0.03499025 -0.08595144 -0.011999563 0.031056322 0.097141325 0.0026628976 0.02117861 0.050089348
0.08254591 0.065774664 0.03575732 -0.01096858 0.09407416 0.086936496 0.09836837 -0.052278895
-0.042541414 -0.033227444 -0.05238061 0.022109346 -0.04794502 -0.046660896 0.00035771023 -0.07893553
-0.009604267 -0.058049805 -0.03348001 0.040377375 -0.00048387202 0.007388802 -0.0133883 -0.063326605
0.015809316 -0.030324444 -0.06442304 -0.038391892 -0.04793938 -0.058439277 -0.005975077 0.016009353
-0.085572936 -0.0824471 -0.08187652 -0.036308292 -0.009574609 0.0062873163 -0.03367506 -0.14685991
-0.11089837 -0.0072775776 -0.15228632 -0.07434658 -0.08908269 -0.102001324 -0.07405053 -0.078933984
-0.15235479 -0.09122542 -0.12842008 -0.14598876 -0.101928785 -0.09918132 -0.14936036 -0.088127114
-0.104171455 -0.033047438 0.049034692 0.011443087 -0.0824665 0.029583348 0.044970177 0.04463363
0.004720802 -0.0067362157 0.029239723 -0.024145342 0.010415749 0.023943095 -0.029103687 0.0639679
0.07388071 0.06608585 -0.009767589 -0.02032325 -0.06937388 0.08186874 -0.014084141 -0.03342355
-0.07968535 -0.036275987 0.11143235 0.11361232 0.099253714 0.03125677 0.11077206 0.0727762
00000000: 69f0 cdbd 526f 03bd 0383 da3c 3d54 a2bb
00000010: 43ee 91bd 6a97 3d3b 5583 19bc 7892 2e3d
00000020: d57a 9d3c 130e 22bd 3254 c0bc 9108 c7bc
00000030: c3fd 13bd 821f 5d3d 6904 e63c 6368 4f3d
00000040: 1227 603d 8438 c93d e616 87bc 4e00 db3d
00000050: 1a74 9d3a d513 0f3d f73d f13d 3aa6 403d
00000060: e4ee e53b 036c 06bc 522b a03c ae2c 273d
00000070: 0c18 25bd d07b b1bd 8f78 9b3c e4c0 6fbb
00000080: 0e70 1f3d 4eb5 8ebd c3b9 453c 983f 9c3d
00000090: 0b90 9c3d dc06 4b3a 40cf 33bd be9c 88bd
000000a0: 39b1 f13c 15df b93c c553 01bd 35ec f33c
000000b0: 15ae 44bd 7fe1 763d 942c 463d 2db0 b5bb
000000c0: 3364 bc3c 0353 82bd ff23 903c d9cd 863d
000000d0: 4a74 3a3d 4236 263c 662e b4bc 7999 0abd
000000e0: 2514 18bd f635 173c 37ed 823d fc66 0bbd
000000f0: d642 bd3c 2a86 a2b9 39b9 913c 5d50 16bd
00000100: f9bf 7f3c 54cd ee3c f41f a03c abb7 fdbc
00000110: ccd0 bc3c 2ae3 47bc 52fc c53c ed88 2bbc
00000120: 1b02 df39 f46e 3a3d b0e5 583d 90d3 adbc
00000130: 87af bf3c bc25 8b3b 89fa 68bd 08ad 4abc
00000140: 757b 17bc 251e 1fbd a220 87bd 22bd 4c3c
00000150: 0e86 933d eb0d c5bd 036b b1bd 5ef0 26bd
00000160: 8687 75bd feff a0bc 8276 3f3d cc58 e33c
00000170: 5642 b23c b7f0 c53c 14f8 f03d 71d1 f9bc
00000180: 7f42 c63c eb7d bc3c 4b34 b33d 4902 f43d
00000190: 7065 07bd a6ae 0cbd 2978 323d e028 08bc
000001a0: 0f57 99bd a250 533d 3f56 473d 36a2 dd3c
000001b0: 4065 853d 2611 443d c410 1d3d 9a59 1f3c
000001c0: 6d8c 253d 2baf 363d 533e 1c3d 41a3 023d
000001d0: de7d d13d 9273 c23c 9428 443b b14b 803c
000001e0: 2a36 943d 99b7 bb3d e138 1e3d 4758 d43d
000001f0: a7d0 bb3d 7fba 113c db34 38bd be6d 6b3d
00000200: c789 30bd 7b28 633b 1330 253d 1937 9bbd
00000210: 3b41 833d 280e 303c 26fd db3c 6461 79bd
00000220: 0fb7 013d 5b3e 1e3d b275 e43a cb4e 033d
00000230: 23e7 c0bd c390 d6bd bc53 95bd 008b b4bd
00000240: 3d05 e73b 7326 bfbd 9d89 a2ba 54cf 77bd
00000250: ebee d53b 0cd1 6abd c71f cb3c 98ce 993c
00000260: 0ccc b1bd a56d 523d db78 e6bc 5bac bdbd
00000270: 3ec6 183c 354b 6dbd 1cc4 813c 6c93 563b
00000280: f051 0f3d 4f07 b0bd d199 44bc d469 fe3c
00000290: 08f2 c63d 0284 2e3b c47e ad3c 7d2a 4d3d
000002a0: d40d a93d deb4 863d 4476 123d 8fb5 33bc
000002b0: f4a9 c03d c30b b23d 5b75 c93d 6522 56bd
000002c0: e83f 2ebd 8019 08bd 0d8d 56bd a91e b53c
000002d0: ff61 44bd 7f1f 3fbd 0e8b bb39 f3a8 a1bd
000002e0: 375b 1dbc a2c5 6dbd 5622 09bd bf62 253d
000002f0: 34b0 fdb9 c31d f23b 9a5a 5bbc 61b1 81bd
00000300: 8a82 813c f86a f8bc 3af0 83bd d140 1dbd
00000310: 155c 44bd 065e 6fbd 94ca c3bb 0c26 833c
00000320: dd40 afbd 06da a8bd e0ae a7bd 01b8 14bd
00000330: d2de 1cbc d505 ce3b dcee 09bd 7262 16be
00000340: af1e e3bd bf78 eebb f2f0 1bbe 0543 98bd
00000350: fc70 b6bd 12e6 d0bd cea7 97bd 24a8 a1bd
00000360: e502 1cbe 65d4 babd 8e80 03be 147e 15be
00000370: 0ac0 d0bd 931f cbbd ecf1 18be fd7b b4bd
00000380: d857 d5bd c05c 07bd 9ad8 483d c97b 3b3c
00000390: 32e4 a8bd c758 f23c a632 383d c1d1 363d
000003a0: f5b0 9a3b 79bb dcbb 2588 ef3c 74cc c5bc
000003b0: d1a6 2a3c 4f24 c43c db6a eebc 9a01 833d
000003c0: c54e 973d 0558 873d 3d08 20bc f27c a6bc
000003d0: e513 8ebd ccaa a73d 2bc1 66bc 22e7 08bd
000003e0: 1332 a3bd 2196 14bd a536 e43d 93ad e83d
000003f0: 8845 cb3d 1907 003d 76dc e23d b00b 953d

conv2.bias f4 [16]
0.031895645 0.06623181 -0.030024994 -0.04795273 -0.017516168 0.012692646 0.011823796 0.08154819
0.058748495 -0.073293135 0.048203625 -0.052059088 -0.061345983 0.015403651 0.05441479 -0.009598084
00000000: 02a5 023d 8ba4 873d faf6 f5bc 156a 44bd
00000010: 117e 8fbc d1f4 4f3c 98b8 413c bd02 a73d
00000020: 43a2 703d b61a 96bd 2a71 453d e93b 55bd
00000030: ed45 7bbd 985f 7c3c 0be2 5e3d 4841 1dbc

conv3.weight f4 [8, 16, 3, 3]
-0.12864785 0.08776164 -0.07184649 0.09160464 0.13893446 0.061479643 0.04950069 -0.044837918
0.13457063 -0.2903776 -0.033086747 -0.113646284 -0.23086321 0.11689847 -0.07959026 -0.10333818
0.09658104 0.21206379 0.13190782 -0.080876544 0.050025087 -0.1411664 0.057697628 -0.016777268
-0.066779554 0.038079686 -0.05256756 0.123867735 -0.13751341 -0.15374586 0.08364675 -0.057877306
0.09735433 -0.14831106 -0.011249706 -0.0136844115 0.15957858 0.15169074 0.09391646 0.022223769
0.16845782 -0.0024934842 0.07213413 -0.11579693 -0.113140404 -0.12096 -0.16137874 -0.12861954
-0.02169247 0.08413145 -0.044374492 0.11405397 -0.122613735 0.030374967 -0.1503553 0.09562448
-0.08201211 0.011679553 0.07218271 0.13813372 -0.050582286 -0.037374742 0.12284811 -0.029345263
0.036737632 -0.09362442 0.13066064 0.04452942 0.075066574 0.19063663 0.20663758 0.07955163
-0.19394964 -0.2525286 -0.043925114 0.02784841 0.0017402512 0.06483491 0.092632756 0.12317178
0.12265197 -0.10754513 0.107859924 -0.073627256 0.010421021 0.09011132 0.17234436 -0.001994175
-0.07146374 -0.10512396 -0.06923682 0.11577515 0.17116283 0.04032094 -0.12646663 0.17582224
-0.21699014 0.094965085 -0.081064224 0.19274949 -0.06905801 0.18212155 0.16566035 0.0257728
-0.047895364 -0.13100138 0.07125066 -0.09239545 -0.06571267 0.059758756 -0.06948584 -0.008058822
-0.07858847 0.105980486 0.119729064 0.054129582 0.017085869 0.15311414 0.07980003 -0.11614343
-0.050185706 0.11582261 0.04492827 -0.04440595 -0.08963195 -0.05067884 0.0835318 0.054619614
0.1057568 0.09831334 -0.076204896 0.072524704 -0.019503677 -0.15792878 0.046377663 -0.16169561
0.015845058 0.04090063 0.13976404 0.043114305 -0.19957717 0.02432285 0.17294464 0.14970963
-0.1532659 -0.1781866 0.002173477 -0.02143949 -0.09111633 0.03003255 0.1872362 0.11730185
-0.1401036 -0.06321839 -0.021719124 0.11360227 -0.027368383 -0.24011008 0.024327105 -0.024924912
-0.15050554 -0.00092127227 -0.031025305 0.09019361 -0.14409496 -0.16132282 0.012086547 0.028358016
0.069102794 -0.012457302 -0.10698268 -0.017469738 0.044403058 0.01509597 -0.060165443 -0.15245163
-0.039850794 -0.13611227 -0.02929823 0.09746051 0.12156055 0.110894375 0.12376372 -0.11179984
-0.15501183 -0.09278382 -0.16871472 -0.1039577 0.036766857 0.14897956 -0.15001021 -0.1394876
0.06022547 0.13084705 -0.05398212 -0.09918448 -0.025585612 0.10825333 -0.03725022 -0.17038614
0.10967284 0.07263244 -0.010897346 -0.0046969866 -0.14296913 0.14496292 -0.14337932 0.10025954
0.040545985 0.023553282 -0.1515828 -0.0591108 -0.07981612 -0.10242629 -0.09952478 -0.12782906
-0.06073208 0.084301814 0.096725136 -0.114732236 0.083294705 -0.06037099 -0.05659099 0.17851071
0.11987282 -0.04317718 0.136795 -0.092563085 -0.0018761369 0.038287267 -0.031790692 0.09624434
0.106828816 -0.088656895 -0.0007207278 -0.13347034 -0.16255292 0.18953615 0.0192294 -0.1038782
0.19098642 0.088138334 0.0003677169 0.028665222 -0.01013894 -0.06438654 0.11934369 0.10804758
-0.061662693 0.0994322 0.0006508768 -0.19470546 0.10328273 -0.12981473 0.06605834 0.10486233
00000000: 43bc 03be 60bc b33d 4124 93bd 379b bb3d
00000010: d644 0e3e 14d2 7b3d 3cc1 4a3d f7a7 37bd
00000020: e2cc 093e 5fac 94be f885 07bd 62bf e8bd
00000030: 6867 6cbe 7768 ef3d 3800 a3bd f8a2 d3bd
00000040: 48cc c53d 4027 593e d812 073e 9aa2 a5bd
00000050: 1be7 4c3d ed8d 10be 5954 6c3d 7b70 89bc
00000060: b8c3 88bd 72f9 1b3d 1551 57bd 5eae fd3d
00000070: 51d0 0cbe 8e6f 1dbe fd4e ab3d c110 6dbd
00000080: b561 c73d dbde 17be b050 38bc 9534 60bc
00000090: 9168 233e d154 1b3e 4657 c03d 9f0e b63c
000000a0: 3580 2c3e b969 23bb 0fbb 933d f126 edbd
000000b0: 28b6 e7bd e0b9 f7bd 7840 25be d7b4 03be
000000c0: 68b4 b1bc 1c4d ac3d 07c2 35bd 2195 e93d
000000d0: e91c fbbd ecd4 f83c bdf6 19be c4d6 c33d
000000e0: f7f5 a7bd 995b 3f3c 87d4 933d ed72 0d3e
000000f0: 5f2f 4fbd 4216 19bd ca97 fb3d 7a65 f0bc
00000100: 337a 163d 29be bfbd e7cb 053e 7b64 363d
00000110: 81bc 993d 4036 433e cd98 533e f7eb a23d
00000120: bc9a 46be 6e4b 81be d2ea 33bd 5922 e43c
00000130: 2419 e43a 2ac8 843d 3eb6 bd3d 7c41 fc3d
00000140: f530 fb3d 9f40 dcbd aae5 dc3d e3c9 96bd
00000150: eebc 2a3c 498c b83d 0a7b 303e b4b0 02bb
00000160: 955b 92bd 3b4b d7bd 09cc 8dbd 861b ed3d
00000170: 4f45 2f3e 9227 253d 7880 01be bf0a 343e
00000180: aa32 5ebe 0e7d c23d 0005 a6bd 1f60 453e
00000190: 496e 8dbd 127e 3a3e dea2 293e 7b21 d33c
000001a0: ee2d 44bd 3a25 06be deeb 913d d339 bdbd
000001b0: 5d94 86bd 99c5 743d 984e 8ebd 2609 04bc
000001c0: fef2 a0bd 4c0c d93d 8334 f53d fbb6 5d3d
000001d0: aaf7 8b3c f4c9 1c3e 336e a33d 9bdc edbd
000001e0: 878f 4dbd 6834 ed3d b506 383d 03e3 35bd
000001f0: f590 b7bd 9e94 4fbd b812 ab3d d1b8 5f3d
00000200: 0597 d83d 8158 c93d 5011 9cbd d587 943d
00000210: 2dc6 9fbc 15b8 21be 81f6 3d3d 8993 25be
00000220: 7fcd 813c 6b87 273d 4e1e 0f3e a098 303d
00000230: f55d 4cbe b740 c73c 6618 313e 7b4d 193e
00000240: bcf1 1cbe 8c76 36be e570 0e3b dfa1 afbc
00000250: 339b babd d306 f63c d9ba 3f3e f43b f03d
00000260: 5177 0fbe a578 81bd 4eec b1bc 4fa8 e83d
00000270: a933 e0bc 6bdf 75be a349 c73c 542f ccbc
00000280: 201e 1abe 8981 71ba c828 febc 6db7 b83d
00000290: a18d 13be cf31 25be a706 463c 124f e83c
000002a0: c485 8d3d b619 4cbc bc19 dbbd b21c 8fbc
000002b0: fbdf 353d 1655 773c 0a70 76bd 481c 1cbe
000002c0: 963a 23bd 0461 0bbe d702 f0bc 6099 c73d
000002d0: bdf4 f83d 971c e33d d577 fd3d 51f7 e4bd
000002e0: 6cbb 1ebe 7205 bebd 8dc3 2cbe c6e7 d4bd
000002f0: d898 163d 198e 183e 479c 19be d6d5 0ebe
00000300: fcae 763d c5fc 053e 5b1c 5dbd 3c21 cbbd
00000310: eb98 d1bc ecb3 dd3d b093 18bd b479 2ebe
00000320: 279c e03d 51c0 943d c88a 32bc 2ee9 99bb
00000330: 8066 12be 2971 143e 07d2 12be e054 cd3d
00000340: 8c13 263d d0f2 c03c 8638 1bbe 2b1e 72bd
00000350: a276 a3bd e0c4 d1bd a6d3 cbbd 9fe5 02be
00000360: 34c2 78bd 6ea6 ac3d d417 c63d bcf8 eabd
00000370: 6a96 aa3d 9247 77bd f4cb 67bd 83cb 363e
00000380: e27f f53d 8eda 30bd fd13 0c3e b791 bdbd
00000390: b5e8 f5ba 1cd3 1c3d f536 02bd c11b c53d
000003a0: 11c9 da3d bf91 b5bd 39ef 3cba 73ac 08be
000003b0: 4674 26be c415 423e fa86 9d3c 18be d4bd
000003c0: f291 433e df81 b43d 20ca c039 54d3 ea3c
000003d0: cc1d 26bc 17dd 83bd 776a f43d 0d48 dd3d
000003e0: 0592 7cbd 1ca3 cb3d 9a9f 2a3a de60 47be
000003f0: e585 d33d 27ee 04be 9849 873d 10c2 d63d

conv3.bias f4 [8]
0.004779139 -0.12889399 -0.025752138 0.06958007 0.12325559 0.047509674 0.093090974 0.07998227
00000000: 539a 9c3b c9fc 03be 26f6 d2bc ff7f 8e3d
00000010: 6d6d fc3d 8199 423d 7ba6 be3d bfcd a33d

convt1.weight f4 [8, 8, 3, 3]
-0.00277531 0.14589421 0.1302138 0.0015977869 -0.08213884 0.06905652 0.09367849 -0.035082694
0.14650255 -0.22709465 -0.1566953 -0.11047717 -0.28340235 -0.08197685 0.027108224 0.14029273
-0.047922768 -0.06392309 -0.13252522 -0.095531456 -0.011655311 -0.0037487014 0.06570539 0.057314675
0.21640348 0.153032 0.18148358 -0.0107698 0.13745067 -0.047014873 -0.19287515 0.13333152
-0.30185908 -0.13091002 -0.2122461 0.094971634 0.15622558 -0.05654648 0.24137197 0.07428427
-0.2360554 0.07973207 0.080834255 0.13956617 0.17499281 0.09359482 0.17246757 0.05522487
-0.16933385 0.09894691 -0.2098417 -0.11823696 -0.14617386 -0.17290051 0.050664704 0.0028490552
0.1865667 -0.046220142 0.17612925 -0.11862856 0.104854606 0.02516508 -0.067391306 0.03233443
0.27017376 0.039957784 0.14188656 0.11548119 0.08863203 0.044609603 0.024207572 -0.27731732
0.17833771 -0.03915397 -0.12347464 -0.07235492 0.22211388 -0.12306705 -0.18209553 -0.15355782
-0.22326142 0.026995398 -0.30843398 0.025662659 0.015267606 0.10306876 0.11588748 0.11559317
0.13189767 -0.06549241 0.1580008 0.046519388 -0.21387257 -0.07164701 -0.2565792 0.20129861
0.040126935 -0.088232554 0.2512699 -0.24290423 0.026397355 0.06888703 0.14845687 -0.06129061
0.013618815 -0.1428279 -0.17118587 -0.22965474 -0.03753524 0.31638655 0.1027382 0.21752068
-0.18984196 0.1530719 -0.04443957 0.077891305 0.067847125 -0.1301251 0.059013456 -0.022773739
-0.54048735 -0.004661813 -0.05728914 -0.35021457 -0.09222395 -0.11761582 0.14949892 0.07533098
0.07252127 0.11197213 -0.32196304 0.04830085 0.06014183 -0.03955036 -0.16374971 -0.18942618
0.011631243 -0.24167067 -0.16612379 0.20522167 0.025147796 -0.16844837 -0.053655375 -0.034201566
-0.119787835 -0.14514178 -0.11714569 0.10206517 0.13777284 -0.15224482 -0.107828796 0.1629058
-0.002015153 -0.0039932127 0.1226631 0.15592334 0.15870978 -0.17968607 0.12576146 -0.09400672
-0.11023278 -0.029367778 -0.058386195 -0.085190915 0.16151698 -0.052949242 0.17320438 -0.08266009
0.1758708 0.06382709 -0.10789331 -0.12083425 0.09467862 -0.20501922 -0.099104926 -0.19059983
0.068189435 0.13122134 -0.14418611 -0.088603936 0.12034157 0.004242496 0.09776636 0.00072303804
-0.11510736 -0.05168553 0.12394743 0.090249136 -0.021975378 0.08795005 0.0868689 0.14890783
-0.09775275 -0.056406517 -0.01610259 0.13471983 -0.14075623 -0.0031199376 -0.11066718 -0.10881763
-0.07013763 0.16481286 0.053146604 -0.0031876361 0.11644164 -0.060836263 0.17086834 0.08351789
0.0146273095 -0.023050949 0.055033848 0.2037618 -0.17663644 -0.13311817 -0.11468322 -0.12351999
0.22142346 -0.23336959 -0.022879368 -0.25889078 -0.46252865 -0.23772705 0.25105995 -0.19281371
-0.08745602 -0.12346539 -0.15359263 -0.014103788 0.032374833 -0.030574976 0.119427614 -0.117741205
0.012386981 0.08400657 0.04448868 0.18643993 -0.03932976 0.10471086 -0.0068983072 -0.20009118
0.09391587 -0.0267786 0.16278042 -0.034851205 0.056611855 -0.045886733 -0.36240685 0.08866374
-0.19536453 0.007191998 -0.031737346 0.06644028 0.014960751 0.047787726 0.20185386 -0.118005596
00000000: fae1 35bb 4b65 153e c456 053e d56c d13a
00000010: 6838 a8bd 816d 8d3d 82da bf3d dfb2 0fbd
00000020: c404 163e 808b 68be bc74 20be db41 e2bd
00000030: 1d1a 91be 7be3 a7bd 1112 de3c e6a8 0f3e
00000040: aa4a 44bd 1cea 82bd b1b4 07be ffa5 c3bd
00000050: ebf5 3ebc c6ac 75bb 8c90 863d cbc2 6a3d
00000060: e098 5d3e 6cb4 1c3e d5d6 393e d173 30bc
00000070: debf 0c3e ab92 40bd 1081 45be 0f88 083e
00000080: 468d 9abe 470d 06be 0b57 59be 7d80 c23d
00000090: 99f9 1f3e 489d 67bd 372a 773e 5a22 983d
000000a0: 82b8 71be 914a a33d 6e8c a53d 6fea 0e3e
000000b0: 5131 333e a4ae bf3d 579b 303e 7933 623d
000000c0: da65 2dbe ada4 ca3d bee0 56be 3826 f2bd
000000d0: 9aae 15be d50c 31be cb85 4f3d 37b7 3a3b
000000e0: 570b 3f3e 5551 3dbd 3a5b 343e 88f3 f2bd
000000f0: 03be d63d ff26 ce3c 7404 8abd 1b71 043d
00000100: 3754 8a3e c6aa 233d b64a 113e 6781 ec3d
00000110: b684 b53d 8fb8 363d f54e c63c 89fc 8dbe
00000120: 299e 363e ea5f 20bd 46e0 fcbd d12e 94bd
00000130: d271 633e 940a fcbd 4077 3abe 433e 1dbe
00000140: a49e 64be 7425 dd3c 0feb 9dbe 7f3a d23c
00000150: fb24 7a3c b715 d33d 6a56 ed3d 1dbc ec3d
00000160: 2f10 073e e220 86bd f6ca 213e 1d8b 3e3d
00000170: 6901 5bbe abbb 92bd 595e 83be 3921 4e3e
00000180: 245c 243d 45b3 b4bd 73a6 803e e3bb 78be
00000190: 443f d83c a514 8d3d 1405 183e dd0b 7bbd
000001a0: 7321 5f3c 7a41 12be 594b 2fbe 9d2a 6bbe
000001b0: 8dbe 19bd 6bfd a13e 6868 d23d bebd 5e3e
000001c0: ee65 42be e1be 1c3e 4406 36bd 7a85 9f3d
000001d0: 6ff3 8a3d 843f 05be 18b8 713d fe8f babc
000001e0: 615d 0abf 1fc2 98bb 04a8 6abd 534f b3be
000001f0: e9df bcbd 90e0 f0bd 3f16 193e 2147 9a3d
00000200: 0886 943d a551 e53d 57d8 a4be 1dd7 453d
00000210: 4857 763d 8fff 21bd 01ae 27be f0f8 41be
00000220: f890 3e3c 8478 77be 5b1c 2abe a125 523e
00000230: c002 ce3c bb7d 2cbe bdc5 5bbd f116 0cbd
00000240: 5353 f5bd 0ca0 14be 14ea efbd 8b07 d13d
00000250: 5314 0d3e 11e6 1bbe 58d5 dcbd c7d0 263e
00000260: a810 04bb 7fd9 82bb cb36 fb3d 5eaa 1f3e
00000270: d184 223e a0ff 37be 9dc7 003e 9886 c0bd
00000280: b9c1 e1bd b294 f0bc 5d26 6fbd 9378 aebd
00000290: b564 253e 4ee1 58bd 7d5c 313e b149 a9bd
000002a0: 7a17 343e c7b7 823d 2bf7 dcbd f277 f7bd
000002b0: dde6 c13d 8ff0 51be 86f7 cabd 9a2c 43be
000002c0: e7a6 8b3d e35e 063e 86a5 13be fb75 b5bd
000002d0: a475 f63d a304 8b3b bb39 c83d 438a 3d3a
000002e0: 68bd ebbd 35b4 53bd 26d8 fd3d 8ad4 b83d
000002f0: b505 b4bc 281f b43d 52e8 b13d 4b7b 183e
00000300: 9832 c8bd 850a 67bd 94e9 83bc fff3 093e
00000310: 6722 10be de77 4cbb 79a5 e2bd c7db debd
00000320: 51a4 8fbd b4c4 283e 41b0 593d a9e7 50bb
00000330: f478 ee3d 722f 79bd 1cf8 2e3e 6d0b ab3d
00000340: 62a7 6f3c 58d5 bcbc 2c6b 613d efa6 503e
00000350: 2fe0 34be 2150 08be 09df eabd 0cf8 fcbd
00000360: d5bc 623e 70f8 6ebe 836d bbbc 558d 84be
00000370: 8ed0 ecbe b86e 73be ee8a 803e f570 45be
00000380: 241c b3bd 6cdb fcbd 6347 1dbe 9313 67bc
00000390: 799b 043d 5f78 fabc 7796 f43d 4d22 f1bd
000003a0: c4f2 4a3c a30b ac3d c339 363d 1cea 3e3e
000003b0: 3e18 21bd a672 d63d 320b e2bb b4e4 4cbe
000003c0: f756 c03d cb5e dbbc e9af 263e 23c0 0ebd
000003d0: d5e1 673d baf3 3bbd 648d b9be 5695 b53d
000003e0: a40d 48be daaa eb3b 05ff 01bd d711 883d
000003f0: f01d 753c 10bd 433d c7b2 4e3e ebac f1bd

convt1.bias f4 [8]
0.0059408257 0.11403188 -0.0052424213 0.026473837 -0.015217238 0.06306976 -0.015003976 -0.09813971
00000000: 42ab c23b 8c89 e93d 9ec8 abbb a9df d83c
00000010: b951 79bc b82a 813d 3dd3 75bc 79fd c8bd

convt2.weight f4 [8, 16, 5, 5]
-0.10695486 -0.07158041 -0.078164116 -0.070411935 -0.06432572 -0.11050553 0.022711447 -0.6694812
-0.12552287 -0.13833575 0.021414137 0.012309598 0.005164683 -0.03812504 -0.102745384 -0.022964995
-0.008596488 -0.03596397 0.0054544234 0.054006457 -0.078083925 -0.15183942 -0.24254979 -0.12227701
0.022022711 -0.10530662 0.029332666 -0.23148753 -0.27463475 -0.107130215 -0.15326093 -0.2774838
-0.141405 -0.080016404 -0.087421544 -0.14355883 -0.04791272 -0.096494175 -0.002239418 0.027817843
-0.06568409 -0.14182167 -0.1439334 -0.07349593 -0.05859978 -0.20890345 -0.14425789 -0.044059362
-0.19108379 -0.07935945 0.023823071 0.031060923 0.07894192 0.14909735 -0.06336354 0.18772665
-0.034761883 0.07932606 0.12413942 -0.070128925 0.10091152 -0.033575945 0.046692587 0.15312457
-0.04738599 0.10561862 0.061256908 -0.064022414 0.14902209 -0.19325244 -0.20258653 -0.01245306
0.00040621916 0.032761414 -0.17150787 0.20659184 -0.15418874 -0.071650706 -0.2786364 -0.04674713
0.09316689 -0.87235206 0.002153285 -0.16685124 0.14273557 0.051282782 0.104329854 -0.1998186
-0.060645692 -0.32538632 -0.18684521 -0.08694175 -0.59955287 0.17010854 -0.26448846 0.0038172803
-0.15555482 -0.26627833 -0.3336138 0.03208575 -0.073366724 -0.054457236 -0.18122782 -0.04050854
-0.12293223 -0.13044553 -0.1465627 -0.2330581 -0.051710334 -0.24829446 -0.103518106 -0.1329248
-0.06345434 -0.07957217 -0.22599243 -0.081613064 0.018475566 -0.09890865 -0.076967224 -0.072935306
-0.20685668 -0.061657194 -0.2964347 -0.17393261 -0.16572464 0.36217588 0.07327556 0.07180707
0.05455866 -0.11278445 0.15175009 0.08985425 0.030967921 -0.037797805 0.06911998 0.031577755
0.029407134 0.028505245 -0.04876446 0.041701928 0.024089897 0.015186248 -0.113748565 -0.017797027
-0.041394062 0.29869235 0.1370444 -0.027407436 0.13118638 -0.64225584 -0.20348218 -0.11442247
-0.03800853 -0.340993 -0.08594783 -0.28529614 -0.29283068 -0.17142756 -0.42681524 -0.09288209
-0.14172062 -0.07622543 -0.0041511566 -0.31182393 -0.032540753 -0.24598154 0.0009447437 -0.105357416
-0.27353168 -0.064918555 -0.2626201 -0.2359997 -0.04223499 0.019959895 -0.05157369 0.23826084
-0.123477556 0.37562525 0.33008948 0.3395659 -0.3046276 0.021241795 -0.5936694 -0.10242786
-0.32692388 0.1513203 0.23238046 0.3251905 -0.28841615 0.2188193 0.0345098 -0.012434888
-0.2416093 -0.05017309 -0.0070111337 0.14489722 -0.040111177 0.3927675 0.020379508 0.12956981
-0.0885946 -0.09122716 -0.027177986 -0.19084035 -0.0013813943 -0.036016878 -0.18251067 0.03814621
-0.031514343 0.058366444 0.06502585 -0.1819319 0.0034144074 0.1991072 0.009100763 0.019229276
-0.0021895252 -0.02533793 -0.10852587 0.069801636 0.085247494 -0.15472808 0.2290053 0.06085467
-0.05423914 -0.038041104 0.18299162 0.015123191 0.050140467 -0.0349903 0.051230017 -0.34433603
0.075757906 -0.06826074 0.06609579 -0.05846676 0.03077025 -0.33266068 -0.04530439 -0.38278034
0.08448747 0.056130268 0.003656774 -0.041283213 -0.10169317 -0.012634308 -0.06811227 0.14809132
-0.13049357 0.0060022683 0.0836279 0.0661145 -0.11044049 0.01217564 -0.08261447 0.021450022
00000000: 260b dbbd c098 92bd 8214 a0bd 2234 90bd
00000010: 34bd 83bd b950 e2bd 5b0d ba3c 1f63 2bbf
00000020: 1189 00be e3a7 0dbe b36c af3c 32ae 493c
00000030: 803c a93b 0029 1cbd 2c6c d2bd 1621 bcbc
00000040: 49d8 0cbc f54e 13bd 05bb b23b e035 5d3d
00000050: 77ea 9fbd cb7b 1bbe f95e 78be 5e6c fabd
00000060: f968 b43c ffaa d7bd 0f4b f03c 110b 6dbe
00000070: ed9c 8cbe 1667 dbbd 6ff0 1cbe 5b12 8ebe
00000080: 79cc 10be a4df a3bd 110a b3bd 1601 13be
00000090: 2140 44bd bd9e c5bd 33c3 12bb 3fe2 e33c
000000a0: 6185 86bd b339 11be 4763 13be 0985 96bd
000000b0: 5306 70bd c9ea 55be 57b8 13be 9777 34bd
000000c0: 78ab 43be 3587 a2bd 9a28 c33c 7a73 fe3c
000000d0: 4dac a13d faac 183e bec4 81bd 6a3b 403e
000000e0: 7a62 0ebd b475 a23d cf3c fe3d c19f 8fbd
000000f0: b3aa ce3d ee86 09bd ba40 3f3d b0cc 1c3e
00000100: d017 42bd 934e d83d 86e8 7a3d 2f1e 83bd
00000110: 3f99 183e f8e3 45be d872 4fbe eb07 4cbc
00000120: d0f9 d439 d530 063d c29f 2fbe d08c 533e
00000130: a7e3 1dbe 9bbd 92bd 6ea9 8ebe eb79 3fbd
00000140: 48ce be3d 7752 5fbf 211e 0d3b 0ddb 2abe
00000150: 4629 123e e50d 523d e4aa d53d 3f9d 4cbe
00000160: 9e67 78bd 0999 a6be 5a54 3fbe 840e b2bd
00000170: 4c7c 19bf ef30 2e3e 086b 87be 562b 7a3b
00000180: c349 1fbe a255 88be 6ecf aabe 596c 033d
00000190: 4b41 96bd 8d0e 5fbd c993 39be 48ec 25bd
000001a0: e5c3 fbbd 8393 05be 8814 16be c8a6 6ebe
000001b0: 37ce 53bd e740 7ebe 4d01 d4bd 701d 08be
000001c0: 59f4 81bd bcf6 a2bd 8f6a 67be c024 a7bd
000001d0: 125a 973c 9e90 cabd fea0 9dbd 1b5f 95bd
000001e0: 3dd2 53be 418c 7cbd 4ac6 97be 641b 32be
000001f0: b8b3 29be 1e6f b93e 7f11 963d 960f 933d
00000200: e778 5f3d 89fb e6bd 6064 1b3e 8105 b83d
00000210: 70b0 fd3c dfd1 1abd c78e 8d3d ad57 013d
00000220: 3be7 f03c d583 e93c 3ebd 47bd a4cf 2a3d
00000230: 2d58 c53c becf 783c 02f5 e8bd 12cb 91bc
00000240: d28c 29bd 34ee 983e 5e55 0c3e 8f85 e0bc
00000250: b955 063e e16a 24bf a25d 50be 5456 eabd
00000260: d5ae 1bbd a296 aebe 6a05 b0bd 5612 92be
00000270: e7ed 95be b58a 2fbe 8787 dabe f738 bebd
00000280: 361f 11be 141c 9cbd 6d06 88bb 63a7 9fbe
00000290: 7449 05bd 96e2 7bbe ada8 773a a1c5 d7bd
000002a0: 580c 8cbe 05f4 84bd 2476 86be e8a9 71be
000002b0: 99fe 2cbd ef82 a33c ef3e 53bd a6fa 733e
000002c0: cde1 fcbd f451 c03e 7d01 a93e 95db ad3e
000002d0: 26f8 9bbe 4603 ae3c b8fa 17bf b3c5 d1bd
000002e0: 9162 a7be b5f3 1a3e 25f5 6d3e 5f7f a63e
000002f0: 48ab 93be 2b12 603e 265a 0d3d b3bb 4bbc
00000300: 6e68 77be 4c82 4dbd a7bd e5bb f05f 143e
00000310: 9e4b 24bd d218 c93e edf2 a63c f3ad 043e
00000320: 1671 b5bd 4ed5 babd 5ea4 debc a76b 43be
00000330: e70f b5ba 6f86 13bd 14e4 3abe 333f 1c3d
00000340: 2f15 01bd a711 6f3d 462c 853d 5b4c 3abe
00000350: 40c4 5f3b c2e2 4b3e 5e1b 153c b786 9d3c
00000360: 237e 0fbb 7e91 cfbc d042 debd 29f4 8e3d
00000370: 3d96 ae3d 0a71 1ebe 5e80 6a3e bf42 793d
00000380: dc29 5ebd fdd0 1bbd 2862 3b3e 43c7 773c
00000390: 1760 4d3d fd51 0fbd 91d6 513d d04c b0be
000003a0: f626 9b3d 49cc 8bbd 3b5d 873d d77a 6fbd
000003b0: e411 fc3c 8052 aabe 1991 39bd c9fb c3be
000003c0: c407 ad3d dae8 653d 7da6 6f3b 9618 29bd
000003d0: 8244 d0bd 2100 4fbc 727e 8bbd 40a5 173e
000003e0: 1ba0 05be adae c43b 1b45 ab3d 0a67 873d
000003f0: a02e e2bd 567c 473c c631 a9bd f5b7 af3c

convt2.bias f4 [16]
0.07455378 0.0822865 0.0013481792 0.021662699 0.0563719 0.05358088 0.06402037 -0.0086696455
0.02257119 0.064138174 0.043710843 0.08828098 0.056754135 0.06453298 0.019237984 0.012826237
00000000: a7af 983d d385 a83d 63b5 b03a f975 b13c
00000010: 39e6 663d a077 5b3d 1d1d 833d 210b 0ebc
00000020: 37e7 b83c e05a 833d 240a 333d a9cc b43d
00000030: 0677 683d de29 843d fa98 9d3c 2325 523c

convt3.weight f4 [16, 32, 9, 9]
-0.005135071 0.005382212 0.0154442405 -0.02845213 0.0010951159 -0.05324103 -0.028958092 -0.054083694
-0.053670324 0.010367353 0.0013390002 0.038248826 -0.003617891 0.013865365 -0.017143175 0.031047503
0.028271202 0.03604037 0.03457096 0.014137805 0.057157997 0.035082992 0.043999873 -0.016298769
0.03734392 0.03460515 -0.06653126 0.011063213 0.0042459476 -8.245548e-05 0.028269267 -0.008664988
0.02521568 0.022978358 -0.0086086 -0.07346624 0.009976257 0.008428591 0.0344894 0.028373558
0.0049149976 0.021026935 -0.02284795 -0.029042426 0.026312564 -0.0071718674 0.052277204 0.04662008
0.019022824 0.018657504 0.034704532 0.003620556 0.030793251 -0.047522772 -0.007217613 -0.0066840597
-0.009964063 -0.008466572 0.026320357 0.04106015 0.01503933 0.021635275 -0.03707721 -0.031208688
0.026636539 -0.002425087 -0.024560783 0.028028732 -0.0041322964 -0.009078998 0.0019552524 -0.015536329
0.04322999 -0.0031322923 0.026959378 0.05981473 0.060752 0.011083739 0.052849907 0.007935547
-0.0041353153 0.0006394234 0.02052171 -0.037149213 -0.0050255884 0.013403503 -0.04579899 0.010975408
0.00039840894 -0.030684205 -0.020395026 0.010578064 0.006827284 0.038942818 -0.013618832 -0.037342038
0.0020772622 0.02671524 0.0021745309 -0.0010736613 -0.048567344 0.026079727 -0.010354961 -0.06519881
0.0015984168 -0.015316096 -0.06412493 0.019775264 -0.01809605 0.0054372083 -0.010015815 0.00082627
0.019740075 0.017364278 -0.009007152 0.009487625 -0.013182675 0.03692237 -0.024980675 -0.04611059
0.01803332 -0.021920307 -0.040829103 -0.034417078 0.02991281 -0.02312049 0.027781915 -0.0643494
-0.0026233783 0.05537614 -0.025624475 0.0049043666 -0.03134244 -0.031255078 -0.004926812 0.0035006702
0.017758543 -0.02250745 -0.015841788 0.017370319 0.0252319 -0.03974388 -0.029955199 -0.0057765194
0.022459578 -0.0013340034 0.007846299 0.029528135 -0.025099335 -4.547445e-05 0.006132211 0.0011978699
-0.031441614 0.00041752745 -0.01950424 0.015359436 -0.025675053 -0.049136568 0.027713727 -0.022298597
-0.031978913 -0.02363199 0.032843247 0.02809912 0.022227483 0.00011376314 0.009059441 -0.016235005
0.016394975 0.033749174 0.062052384 0.032182656 0.052505057 0.05706688 0.05609109 0.034161247
-0.005240831 0.06077676 0.04140918 0.040009283 0.04354439 0.06683416 0.07511988 0.06270538
0.07352099 0.038244873 0.03456833 0.024873458 0.012374039 0.012400835 0.04421951 0.06724346
0.03594616 0.050299183 0.028153382 0.014362331 0.010813104 0.039169457 0.05084701 0.061543446
0.035058364 0.051195856 0.028579636 0.07137274 0.021099774 0.030011596 0.0022355246 0.041504227
0.082617044 0.0139360875 0.027704364 0.082926326 0.052773803 0.023792757 0.07397595 0.013773134
0.02694822 0.057868853 0.054517787 0.052084167 0.060276292 0.06699865 0.039722007 -0.0001241055
0.07828187 0.04866987 0.0719012 0.032507036 0.0631438 0.03850382 0.020080877 0.07688294
0.027057078 0.048152503 0.04111275 0.03190664 0.042864382 0.06889497 0.07093115 0.08041725
0.038655087 0.05125747 0.075618245 -0.0044945218 -0.012669158 0.0031577058 -0.0041902787 -0.03663564
-0.019617198 -0.047644395 -0.0059645553 -0.04263541 -0.0040199044 0.027725095 0.054216474 0.035500433
00000000: 1944 a8bb 445d b03b d709 7d3c 7114 e9bc
00000010: fe89 8f3a 4413 5abd 8539 edbc dd86 5dbd
00000020: 6ad5 5bbd d5db 293c 6481 af3a cdaa 1c3d
00000030: 241a 6dbb 8e2b 633c d86f 8cbc 5557 fe3c
00000040: 0299 e73c 119f 133d 479a 0d3d 41a2 673c
00000050: 811e 6a3d 2fb3 0f3d 3639 343d ff84 85bc
00000060: f0f5 183d 21be 0d3d 8b41 88bd 7b42 353c
00000070: 9721 8b3b f3eb acb8 f394 e73c 98f7 0dbc
00000080: 1d91 ce3c 1c3d bc3c 160b 0dbc 7875 96bd
00000090: 7473 233c 1318 0a3c c244 0d3d aa6f e83c
000000a0: fd0d a13b ae40 ac3c a02b bbbc 62ea edbc
000000b0: 728d d73c fc01 ebbb 9f20 563d b2f4 3e3d
000000c0: c1d5 9b3c 9fd7 983c 5726 0e3d da46 6d3b
000000d0: 2142 fc3c 3da7 42bd ba81 ecbb f505 dbbb
000000e0: 4f40 23bc 60b7 0abc ca9d d73c b02e 283d
000000f0: 8667 763c 763c b13c 46de 17bd 5da9 ffbc
00000100: df34 da3c 35ee 1ebb b233 c9bc 839c e53c
00000110: 3768 87bb 14c0 14bc b123 003b 168c 7ebc
00000120: ee11 313d 2547 4dbb ead9 dc3c 4a00 753d
00000130: 17d7 783d 9298 353c 2579 583d 1904 023c
00000140: 8a81 87bb fa9e 273a 251d a83c c629 18bd
00000150: b1ad a4bb 5e9a 5b3c b997 3bbd 33d2 333c
00000160: 8be1 d039 715d fbbc 7813 a7bc 9e4f 2d3c
00000170: 69b7 df3b 8182 1f3d 8621 5fbc f7f3 18bd
00000180: ad22 083b ebd9 da3c 9382 0e3b 18ba 8cba
00000190: 8dee 46bd 27a5 d53c dba7 29bc f486 85bd
000001a0: f881 d13a 5df0 7abc ee53 83bd bcff a13c
000001b0: 2b3e 94bc 9c2a b23b 5f19 24bc 0b9a 583a
000001c0: f0b5 a13c 883f 8e3c bc92 13bc fc71 1b3c
000001d0: 25fc 57bc e93b 173d 46a4 ccbc 75de 3cbd
000001e0: 9dba 933c 3792 b3bc 6b3c 27bd ecf8 0cbd
000001f0: b60b f53c 2f67 bdbc e696 e33c 9ec9 83bd
00000200: fcec 2bbb 17d2 623d 6bea d1bc cfb4 a03b
00000210: ee60 00bd 5305 00bd 1871 a1bb 806b 653b
00000220: 5d7a 913c 8b61 b8bc a3c6 81bc 334c 8e3c
00000230: 21b3 ce3c 7bca 22bd 9b64 f5bc f548 bdbb
00000240: 26fd b73c bad9 aeba c38d 003c fde4 f13c
00000250: 1f9d cdbc d2bb 3eb8 b7f0 c83b d801 9d3a
00000260: ecc8 00bd 96e7 da39 5bc7 9fbc 25a6 7b3c
00000270: 7d54 d2bc 6d43 49bd e607 e33c 8cab b6bc
00000280: 52fc 02bd e097 c1bc a486 063d 2030 e63c
00000290: 6916 b63c 1f94 ee38 0d6e 143c 46ff 84bc
000002a0: c14e 863c 933c 0a3d a42a 7e3d f6d1 033d
000002b0: 8b0f 573d f6be 693d c5bf 653d aaec 0b3d
000002c0: 47bb abbb 0df1 783d ac9c 293d c6e0 233d
000002d0: 9a5b 323d 59e0 883d 74d8 993d ae6b 803d
000002e0: 2c92 963d a8a6 1c3d 8597 0d3d 6cc3 cb3c
000002f0: 7bbc 4a3c df2c 4b3c 841f 353d f0b6 893d
00000300: 483c 133d 8406 4e3d eca1 e63c fb4f 6b3c
00000310: 7229 313c 2770 203d f444 503d fb14 7c3d
00000320: 5c99 0f3d bfb2 513d d71f ea3c df2b 923d
00000330: 6fd9 ac3c e1da f53c e181 123b 5600 2a3d
00000340: 2033 a93d 3054 643c 43f4 e23c 47d5 a93d
00000350: 5829 583d 07e9 c23c b480 973d b6a8 613c
00000360: 83c2 dc3c e407 6d3d 0b4e 5f3d 3556 553d
00000370: 46e4 763d 9736 893d 8bb3 223d 5122 02b9
00000380: 3f52 a03d 0f5a 473d f040 933d 1926 053d
00000390: 8951 813d 2eb6 1d3d a780 a43c ce74 9d3d
000003a0: cea6 dd3c 8f3b 453d d865 283d 89b0 023d
000003b0: 9092 2f3d ce18 8d3d 5a44 913d cdb1 a43d
000003c0: cc54 1e3d 5af3 513d bddd 9a3d c846 93bb
000003d0: 4d92 4fbc 83f1 4e3b 9b4e 89bb 410f 16bd
000003e0: 3fb4 a0bc c526 43bd 5172 c3bb 78a2 2ebd
000003f0: 67b9 83bb bd1f e33c 1812 5e3d e768 113d

convt3.bias f4 [32]
0.032862764 -0.041989475 0.092290685 0.048709016 0.09197527 -0.04064005 -0.0015661314 0.095022134
-0.1292623 -0.015156376 0.0024469104 0.091079645 0.058821056 0.10224758 -0.04543551 0.062045515
-0.07772829 -0.044555943 -0.05574545 0.08392177 -0.06908535 0.14173096 0.09255801 0.085458614
-0.013463763 0.047884468 -0.077852525 0.027560426 -0.006470097 0.0627226 0.051404033 0.02359858
00000000: 1b9b 063d 28fd 2bbd e602 bd3d 1b83 473d
00000010: 885d bc3d 2e76 26bd a646 cdba f79a c23d
00000020: 565d 04be 7352 78bc 585c 203b f787 ba3d
00000030: 59ee 703d 2e67 d13d 961a 3abd 7023 7e3d
00000040: 0230 9fbd 4b80 36bd 5755 64bd 2ddf ab3d
00000050: 9f7c 8dbd ec21 113e 0e8f bd3d ed04 af3d
00000060: 1d97 5cbc 8122 443d 2571 9fbd 67c6 e13c
00000070: 1c03 d4bb b574 803d 098d 523d cf51 c13c

pos_output.weight f4 [1, 32, 2, 2]
0.18986161 -0.15657617 -0.18274213 -0.17000777 0.10172055 -0.041132554 -0.12878591 0.031428445
0.22433154 -0.0010258455 0.09234573 0.015617332 -0.11093386 0.0075397417 0.0033449444 -0.07528081
0.40029517 0.2848607 0.28138176 0.29341316 -0.19190915 0.035495542 -0.03772358 -0.0033218274
0.001204967 0.2406433 -0.08378144 -0.00870481 0.18176946 0.009652181 0.01604478 -0.025526654
0.5848041 0.3468812 0.56117404 0.55703485 -0.011048837 -0.21854219 -0.16752088 -0.20953767
0.28156066 -0.10731582 0.15030248 0.17065552 0.19529164 0.33405983 0.3229539 0.24457459
0.18991445 -0.075854935 -0.18025756 0.10365294 0.21374112 -0.16774163 0.18225762 0.15421522
-0.050024904 0.12840754 0.20198436 -0.03747523 -0.028958485 -0.08868729 0.021574931 -0.1122792
0.0952336 -0.040355712 -0.04819177 0.016483488 -0.10190867 -0.114779845 0.2216407 0.117585994
0.18597773 -0.044931017 0.23019785 0.03414959 0.20303802 -0.16416055 -0.037152275 0.09821711
-0.14379834 0.15042616 0.072241694 0.18352081 -0.087386005 -0.19895077 -0.14810166 -0.22839507
-0.4787325 -0.34478566 -0.36887738 -0.42066798 0.1609387 0.101241484 0.033197474 0.18363188
0.13722509 0.19464345 0.35410422 0.2036442 -0.15439261 0.06555359 -0.08197815 -0.12545043
0.26828068 -0.045429345 0.32443956 -0.058282122 -0.08571113 -0.1276801 -0.12098371 -0.12908083
0.022298248 0.05111582 -0.0012297372 0.2203845 -0.14515571 -0.0745173 0.12271007 0.09763836
0.067815505 -0.12713748 0.06988274 -0.2052037 -0.16889319 0.06400408 -0.034530535 -0.00069619284
00000000: 156b 423e 8155 20be c120 3bbe 8416 2ebe
00000010: dd52 d03d 9c7a 28bd 74e0 03be 1dbb 003d
00000020: 2bb7 653e aa75 86ba c21f bd3d d7df 7f3c
00000030: 4b31 e3bd f00f f73b db36 5b3b d32c 9abd
00000040: 7df3 cc3e 43d9 913e 4511 903e 403a 963e
00000050: d583 44be c663 113d 0a84 1abd 04b3 59bb
00000060: fcef 9d3a 326b 763e 9b95 abbd 9f9e 0ebc
00000070: c621 3a3e 2e24 1e3c 5870 833c 461d d1bc
00000080: b9b5 153f 6a9a b13e 1aa9 0f3f d699 0e3f
00000090: 2e06 35bc 86c9 5fbe 988a 2bbe 0b91 56be
000000a0: b828 903e 66c8 dbbd e5e8 193e 52c0 2e3e
000000b0: 88fa 473e e409 ab3e 375a a53e c371 7a3e
000000c0: ef78 423e d559 9bbd 7095 38be fe47 d43d
000000d0: f4de 5a3e 76c4 2bbe bea1 3a3e 98ea 1d3e
000000e0: eae6 4cbd 447d 033e fdd4 4e3e a07f 19bd
000000f0: 583a edbc afa1 b5bd e9bd b03c a3f2 e5bd
00000100: d509 c33d 084c 25bd bc64 45bd 6108 873c
00000110: 7eb5 d0bd b211 ebbd c8f5 623e edd0 f03d
00000120: f270 3e3e 9609 38bd fcb8 6b3e 71e0 0b3d
00000130: 33e9 4f3e b419 28be fc2c 18bd 0d26 c93d
00000140: df3f 13be 5109 1a3e 74f3 933d e1ec 3b3e
00000150: 6ff7 b2bd c0b9 4bbe f6a7 17be 66e0 69be
00000160: 6d1c f5be bf87 b0be 7fdd bcbe cb61 d7be
00000170: 1dcd 243e b257 cf3d 13fa 073d ff09 3c3e
00000180: bc84 0c3e 9d50 473e 264d b53e 1b88 503e
00000190: 1919 1ebe f640 863d 29e4 a7bd 1476 00be
000001a0: 165c 893e 1f14 3abd f11c a63e 3cb9 6ebd
000001b0: 5189 afbd 92be 02be 4fc6 f7bd c42d 04be
000001c0: d1aa b63c d25e 513d 222f a1ba 79ac 613e
000001d0: b3a3 14be 879c 98bd 6b4f fb3d 9ff6 c73d
000001e0: dbe2 8a3d 5430 02be af1e 8f3d eb20 52be
000001f0: 56f2 2cbe 9214 833d e46f 0dbd b680 36ba

cos_output.weight f4 [1, 32, 2, 2]
0.080763444 0.033935994 0.106094934 0.14525683 0.05721649 -0.18724221 -0.037897296 0.02333459
-0.0011949136 0.17691481 0.17028731 0.22860518 -0.12237198 0.102684274 0.25387332 0.090771355
-0.3310393 -0.14804788 -0.018886292 -0.08346778 -0.16887201 0.21311212 -0.104865916 -0.05825239
-0.27467734 -0.18591319 -0.20691247 0.002941986 0.099218205 0.23775737 0.22815041 -0.1213768
-0.613443 -0.753089 -0.76054925 -0.8593564 0.09802949 0.048393585 0.09091909 -0.01794859
-0.12621753 -0.016987141 0.13998996 -0.06387656 0.028442103 -0.23376185 -0.23121221 0.03713312
0.021020183 0.03142063 0.07186216 0.064730346 0.13390546 0.20275989 0.2499507 0.056643356
0.083269835 -0.028578155 -0.1452978 0.13898158 0.16882846 0.008424505 0.19722623 0.12462703
-0.16416651 0.028761182 0.09915219 -0.04028076 -0.0054960423 0.12111606 -0.15797374 -0.21117255
-0.25075695 -0.114234634 0.09707101 -0.24692029 0.09450495 -0.1312184 0.21857955 0.063563205
0.41403893 -0.110458 -0.0947221 -0.14960302 0.3548722 0.322135 0.5677256 0.58475024
-0.31689024 -0.37924495 -0.319205 -0.44867086 0.11342689 0.17012772 -0.047665916 0.15164523
-0.18213041 -0.11312827 -0.32860014 0.05605773 0.08306682 0.081038974 0.16931884 0.12816721
-0.46014374 -0.09764039 -0.43048674 -0.0051872833 0.560383 0.6921716 0.49308157 0.56515974
-0.16573043 -0.008730421 -0.12161828 -0.016437862 -0.0061256597 0.055302676 0.10474837 0.11569635
0.12597954 0.05785431 -0.3402895 -0.39142147 0.018587004 0.17383036 -0.053830203 0.16200273
00000000: 4e67 a53d 7800 0b3d 4d48 d93d 35be 143e
00000010: d75b 6a3d 6cbc 3fbe 323a 1bbd 2f28 bf3c
00000020: a69e 9cba 2829 353e cc5f 2e3e 7a17 6a3e
00000030: 299e fabd 224c d23d affb 813e 55e6 b93d
00000040: fc7d a9be dd99 17be 6db7 9abc 28f1 aabd
00000050: c9ec 2cbe 103a 5a3e f1c3 d6bd 0f9a 6ebd
00000060: 82a2 8cbe 0760 3ebe dde0 53be 56ce 403b
00000070: ea32 cb3d ab76 733e 43a0 693e 6694 f8bd
00000080: 9a0a 1dbf 71ca 40bf 5bb3 42bf c8fe 5bbf
00000090: afc3 c83d 5a38 463d ca33 ba3d ec08 93bc
000000a0: 2b3f 01be 9e28 8bbc 8759 0f3e b7d1 82bd
000000b0: 6aff e83c 445f 6fbe e5c2 6cbe e618 183d
000000c0: 8532 ac3c ebb2 003d 782c 933d 5891 843d
000000d0: 831e 093e 4aa0 4f3e 14f3 7f3e dd02 683d
000000e0: 6089 aa3d bc1c eabc f2c8 14be 3051 0e3e
000000f0: 5ee1 2c3e ef06 0a3c acf5 493e 753c ff3d
00000100: 441b 28be 929c eb3c 4e10 cb3d 70fd 24bd
00000110: 2518 b4bb b20b f83d dec3 21be 9e3d 58be
00000120: 3763 80be d9f3 e9bd 2acd c63d acd8 7cbe
00000130: d08b c13d 1e5e 06be 51d3 5f3e 6d2d 823d
00000140: e9fc d33e ce37 e2bd a9fd c1bd 8931 19be
00000150: cfb1 b53e e1ee a43e 7756 113f 31b2 153f
00000160: 703f a2be 652c c2be d66e a3be 30b8 e5be
00000170: 5b4c e83d f635 2e3e 563d 43bd e348 1b3e
00000180: 6580 3abe cbaf e7bd 473e a8be ca9c 653d
00000190: f01e aa3d c3f7 a53d eb61 2d3e 443e 033e
000001a0: f697 ebbe aff7 c7bd c268 dcbe 16fa a9bb
000001b0: 4375 0f3f 2832 313f 3075 fc3e 4fae 103f
000001c0: 3db5 29be 0a0a 0fbc 0113 f9bd b2a8 86bc
000001d0: c2b9 c8bb 0f85 623d 5086 d63d 35f2 ec3d
000001e0: c800 013e a4f8 6c3d 6d3a aebe 6568 c8be
000001f0: c643 983c 9600 323e 0f7d 5cbd 0be4 253e

sin_output.weight f4 [1, 32, 2, 2]
0.18714382 -0.17117018 0.18744856 -0.06291215 0.190225 0.016307956 -0.109625444 -0.09519046
0.097699404 0.16869551 -0.15024318 0.1582453 -0.08812123 0.005029033 -0.021835431 -0.020585502
-0.035517674 0.0973809 -0.00026536893 0.004104968 0.12208727 0.004216279 -0.05874336 -0.13702017
-0.0016333113 0.007456587 0.047299057 -0.031088836 -0.14402783 0.09312933 -0.18624918 0.09895425
0.009818924 0.032393247 -0.055141922 -0.032980345 0.05912839 -0.018093191 0.1369793 0.010693589
-0.06574245 0.006377159 -0.07563367 0.0017127234 -0.10545841 0.010406138 -0.031093797 0.023926312
-0.06428321 -0.07591456 -0.08570093 -0.14846626 0.16575228 -0.07378969 0.0733178 0.10656141
0.091276884 -0.037891004 0.07261231 -0.017948514 -0.17990707 0.121293716 -0.08502193 -0.0536467
-0.02897198 -0.008471016 0.104569405 0.0115543865 0.014429166 -0.04109023 0.016378997 -0.021766933
0.04769717 0.13149627 -0.013938989 0.009710167 0.07302298 -0.17522216 0.026338309 0.088876575
-0.008586236 0.0039463397 -0.061711725 0.0029114077 0.011899642 0.03042268 0.027413405 0.010470735
0.11469339 0.05088754 0.1295011 0.074915 0.17141224 -0.18820526 0.11720915 -0.11887433
-0.112884 -0.08034297 -0.15095276 0.054072477 -0.087313704 -0.1059553 -0.027383268 0.19439435
-0.03299417 0.04614008 -0.0051646107 -0.021475162 0.04081263 0.04818863 0.029361406 0.025038743
-0.03324445 0.050863694 0.07241541 0.025078373 0.1339122 0.06683926 -0.012656186 0.1079021
-0.063050754 -0.0019354267 0.06039525 0.10864077 -0.029103594 -0.10568618 -0.07748363 0.030105455
00000000: a1a2 3f3e 3c47 2fbe 84f2 3f3e 16d8 80bd
00000010: 58ca 423e 4398 853c 4e83 e0bd 37f3 c2bd
00000020: a016 c83d 84be 2c3e 59d9 19be 0e0b 223e
00000030: e778 b4bd 96ca a43b 38e0 b2bc eda2 a8bc
00000040: fb7a 11bd a36f c73d 3721 8bb9 f882 863b
00000050: e408 fa3d b628 8a3b e19c 70bd 044f 0cbe
00000060: d514 d6ba 6356 f43b a8bc 413d 04ae febc
00000070: 087c 13be 97ba be3d 1bb8 3ebe 87a8 ca3d
00000080: 8ddf 203c c8ae 043d 7fdc 61bd 6616 07bd
00000090: 9c30 723d 2c38 94bc 4d44 0c3e 2a34 2f3c
000000a0: faa3 86bd 7df7 d03b d3e5 9abd 767d e03a
000000b0: 94fa d7bd 827e 2a3c 6bb8 febc 1d01 c43c
000000c0: eaa6 83bd 1879 9bbd f883 afbd 8a07 18be
000000d0: f7ba 293e 0d1f 97bd a527 963d de3c da3d
000000e0: 60ef ba3d 9933 1bbd c3b5 943d c308 93bc
000000f0: 8f39 38be d768 f83d fa1f aebd a4bc 5bbd
00000100: a556 edbc 04ca 0abc 7c28 d63d 9c4e 3d3c
00000110: 4f68 6c3c 3b4e 28bd 3f2d 863c 9150 b2bc
00000120: 1c5e 433d f5a6 063e 5b60 64bc 6417 1f3c
00000130: 128d 953d 706d 33be 70c3 d73c ec04 b63d
00000140: 49ad 0cbc 4c50 813b 6fc5 7cbd 51cd 3e3b
00000150: b7f6 423c fc38 f93c 1492 e03c 728d 2b3c
00000160: 5ee4 ea3d 746f 503d f09b 043e 096d 993d
00000170: b186 2f3e e1b8 40be 5a0b f03d 6274 f3bd
00000180: ba2f e7bd db8a a4bd 5c93 1abe 1a7b 5d3d
00000190: 87d1 b2bd 18ff d8bd e052 e0bc 500f 473e
000001a0: e524 07bd 61fd 3c3d e53b a9bb aeec afbc
000001b0: 252b 273d 7161 453d 5587 f03c 0d1e cd3c
000001c0: 552b 08bd 7356 503d 884e 943d 2971 cd3c
000001d0: 4820 093e 06e3 883d e45b 4fbc c7fb dc3d
000001e0: c120 81bd 25ae fdba 0261 773d 0d7f de3d
000001f0: a96a eebc ff71 d8bd bdaf 9ebd b79f f63c
