ggcnn_base/output/models/221204_2000_training_example/epoch_35_iou_0.76_statedict.pt (torch, 256417 bytes, 16 tensors)

conv1.weight f4 [32, 1, 9, 9]
0	0xbd1a1aa3	-0.03762306
1	0xbdc1a2f5	-0.0945491
2	0xbd11dad9	-0.0356091
3	0xbdcb2797	-0.099196605
4	0xbdde7c29	-0.108635254
5	0xbd349063	-0.04408301
6	0xbd96aec2	-0.07357551
7	0xbdec736f	-0.11545455
8	0xbdd9ac2b	-0.106285416
9	0xbd916f3f	-0.07101297
10	0xbd5bc754	-0.05365689
11	0xbd5323d9	-0.05154786
12	0xbddf27a3	-0.10896232
13	0xbd779441	-0.06044412
14	0xbdd02a7e	-0.10164355
15	0xbdb46bd2	-0.088096276
16	0xbd9148e4	-0.07093981
17	0xbc6f2cd3	-0.014598089
18	0xbd603d38	-0.054745883
19	0xbdb49cf8	-0.08819002
20	0xbd532e4c	-0.051557824
21	0xbda83c84	-0.082146674
22	0xbde6332e	-0.112402305
23	0xbdd060e2	-0.10174729
24	0xbd817643	-0.06321385
25	0xbdba94ee	-0.09110437
26	0xbdcc2831	-0.099686034
27	0xbda844ca	-0.082162455
28	0xbdd7b8ba	-0.10533281
29	0xbd8d5869	-0.069016285
30	0xbda8aa68	-0.082356274
31	0xbdde2d9c	-0.10848543
32	0xbd09b1b9	-0.033616755
33	0xbd3c1236	-0.045915805
34	0xbdf09d2a	-0.11748727
35	0xbd2b42ee	-0.041811876
36	0xbe212bb1	-0.15739323
37	0xbe21c359	-0.15797175
38	0xbe2de7e4	-0.1698299
39	0xbe2681b6	-0.16260418
40	0xbe449aec	-0.19199723
41	0xbe136991	-0.14395739
42	0xbdee7404	-0.11643222
43	0xbde74728	-0.11292869
44	0xbe4c71e2	-0.19965318
45	0xbe1de2f9	-0.15418614
46	0xbe070af4	-0.13187772
47	0xbe405c12	-0.18785122
48	0xbe66b986	-0.22531709
49	0xbe1578d1	-0.14596869
50	0xbe5df733	-0.2167633
51	0xbe5e8285	-0.21729477
52	0xbe3f1295	-0.18659432
53	0xbe255c7c	-0.16148561
54	0x3e043507	0.12910853
55	0x3e294435	0.16529925
56	0x3e4ca518	0.19984853
57	0x3e292eae	0.16521713
58	0x3e71aeeb	0.23601882
59	0x3e55a66b	0.20864265
60	0x3e45f59e	0.19331977
61	0x3e02bfd5	0.1276849
62	0x3df3b30c	0.11899385
63	0x3e8867b4	0.2664162
64	0x3e601de0	0.21886396
65	0x3e86c72b	0.26323828
66	0x3e869606	0.26286334
67	0x3e9682f6	0.2939679
68	0x3e9e39f0	0.30903578
69	0x3e5faf7a	0.21844283
70	0x3e81bb79	0.25338343
71	0x3e596e90	0.21233582
72	0x3e928edf	0.28624627
73	0x3e8ca62a	0.27470523
74	0x3ea4a0c4	0.32153904
75	0x3ea03ef6	0.31298035
76	0x3e8e5359	0.27797964
77	0x3e98eb50	0.2986703
78	0x3ebe5a8e	0.37178463
79	0x3ea1fa37	0.3163621
80	0x3e971e3c	0.29515254
81	0xbcdb8250	-0.026795536
82	0xbcad0961	-0.021122636
83	0x3d10a502	0.035313614
84	0x3e122596	0.1427215
85	0x3e32cdb6	0.17461285
86	0x3e1a80b3	0.15088157
87	0x3e7bf24e	0.2460415
88	0x3eb12930	0.34601736
89	0x3f029dc8	0.51022005
90	0xbe3695d2	-0.1783059
91	0xbe0add32	-0.13560942
92	0xbda9ee5b	-0.08297416
93	0xbd12075f	-0.03565156
94	0x3c19a225	0.009377037
95	0x3da8a7ce	0.08235131
96	0x3e10a793	0.14126424
97	0x3e78cd12	0.24296978
98	0x3eb72eb9	0.35777834
99	0xbe8c75b8	-0.27433562
100	0xbe4def5b	-0.20110838
101	0xbe06d5d3	-0.13167505
102	0xbe00a144	-0.12561518
103	0xbd8ed29a	-0.06973763
104	0xbd024dae	-0.031812362
105	0xbc451471	-0.012028799
106	0x3d9e605a	0.07733221
107	0x3e7e0024	0.24804741
108	0xbddcfe3d	-0.107906796
109	0xbd67c985	-0.05658867
110	0xbc8612dd	-0.016366417
111	0x3d98afbe	0.07455395
112	0x3d72638d	0.05917697
113	0x3d9c0f32	0.07620086
114	0x3dcef70f	0.101057164
115	0x3e721a89	0.23642935
116	0x3eaf5b5b	0.34249386
117	0xbe251c7b	-0.16124146
118	0xbda891a2	-0.08230902
119	0xbda28f91	-0.07937539
120	0xbc94c565	-0.018160531
121	0xbcf832cc	-0.03029766
122	0x3cc0c945	0.023533473
123	0x3e012805	0.12612922
124	0x3e330e27	0.17485867
125	0x3e6fa783	0.23403744
126	0xbe6b010f	-0.22949623
127	0xbe2d6a4e	-0.16935083
128	0xbddf9e8a	-0.10918911
129	0xbd81b4f5	-0.06333343
130	0xbd51a198	-0.0511795
131	0x3b7542b8	0.00374238
132	0x3dd00253	0.10156693
133	0x3e2ebaee	0.17063496
134	0x3e81f786	0.25384158
135	0xbe68af31	-0.2272308
136	0xbe57f476	-0.21089348
137	0xbe56a6b2	-0.20962027
138	0xbe050d97	-0.12993465
139	0xbdb0c5ec	-0.086315006
140	0xbbb8b9d8	-0.0056373887
141	0xbca5a929	-0.020222263
142	0x3de67829	0.112533875
143	0x3e769b82	0.24082759
144	0xbe8a6b57	-0.2703502
145	0xbe5b16b8	-0.21395385
146	0xbe621752	-0.22079208
147	0xbd8c2db7	-0.06844657
148	0xbe0019cf	-0.12509845
149	0xbd1ddc9c	-0.038540468
150	0x3c3b7d38	0.011443429
151	0x3debcdc6	0.115138575
152	0x3e6e832e	0.23292229
153	0xbe6cb94f	-0.23117565
154	0xbe6eb9c1	-0.23313047
155	0xbe27e551	-0.16396071
156	0xbd8c586d	-0.068528034
157	0xbd2ebb4b	-0.042659085
158	0xbb86eefd	-0.004117845
159	0x3db7688b	0.08955487
160	0x3e236e08	0.15959942
161	0x3ea51513	0.3224264
162	0xbbc68a26	-0.006058949
163	0xbb9f8811	-0.0048685153
164	0xbc75af16	-0.014995357
165	0xbc3ec2cf	-0.011643126
166	0x3b8f07c1	0.004364938
167	0x3c1eefb9	0.009700709
168	0x3c91db92	0.017804895
169	0x3d3e340a	0.046436347
170	0x3d23ce6b	0.039991777
171	0xbd06bc80	-0.03289461
172	0xbd3031a0	-0.043016076
173	0x3b210ed7	0.0024575496
174	0x3baaf88b	0.005217617
175	0xbd2916ce	-0.041281514
176	0x3cf4d427	0.029886318
177	0x3ce2ef44	0.027701981
178	0xbcd7a55d	-0.026323969
179	0x3d1a7017	0.037704553
180	0x3c8ee657	0.017443819
181	0x3c91afef	0.017784087
182	0xbd02fad4	-0.03197749
183	0x3cca136a	0.02466746
184	0xbc7669da	-0.015039885
185	0xbd2754fd	-0.040852536
186	0xbbdc9a13	-0.0067322343
187	0x3d24e725	0.0402595
188	0xbcc9b354	-0.024621643
189	0xbd009002	-0.031387337
190	0x3b1362f0	0.0022489391
191	0xbc95989e	-0.01826125
192	0xbcbd7b00	-0.02312994
193	0x3d266fa3	0.04063381
194	0x3c3142a9	0.010819116
195	0x3c1e9ccf	0.009680941
196	0xba985c5c	-0.0011624205
197	0x3d27c4a5	0.04095902
198	0x3d15e53d	0.03659557
199	0xbd00d871	-0.031456415
200	0xbbeb265c	-0.0071762037
201	0x3d272d82	0.040814884
202	0x3c8ffead	0.017577494
203	0xbc10298b	-0.008798967
204	0xbd021d6a	-0.031766333
205	0xbc8ce0db	-0.017197063
206	0xbac4d029	-0.001501565
207	0xbd176d58	-0.036969513
208	0xbc5e729f	-0.0135771325
209	0xbc979452	-0.018503342
210	0x3c07917a	0.00827443
211	0xbd4124f2	-0.047154374
212	0x3b844a39	0.0040371683
213	0xbc2352ac	-0.009968441
214	0xbc87d478	-0.016580805
215	0x3bcb54f4	0.0062051956
216	0xbca144f8	-0.019686207
217	0x3c4e06fe	0.012574909
218	0x3b1a2743	0.0023521937
219	0x3cd6079a	0.026126672
220	0x3cd92d7a	0.026510943
221	0xbc91a8d1	-0.017780693
222	0xbc670fd4	-0.014102895
223	0xbd24f710	-0.04027468
224	0x3b36c0f4	0.0027886005
225	0x3c1e2fdd	0.009654966
226	0xbc6ce2e8	-0.014458396
227	0xbd319c8f	-0.043362197
228	0xbb71a7d6	-0.003687372
229	0xbc7603a2	-0.015015515
230	0x3c906a21	0.017628731
231	0x3a7cef9e	0.0009648743
232	0xbcd36746	-0.02580608
233	0xbd28940f	-0.041156825
234	0x3be5c3a9	0.00701185
235	0x3d16afab	0.036788624
236	0x3d266d89	0.040631805
237	0xbbbad900	-0.005702138
238	0xbd23e705	-0.04001524
239	0x3cd63d0e	0.02615216
240	0xbc4e10d8	-0.012577258
241	0xbca85ff0	-0.020553559
242	0xbd05d830	-0.032676876
243	0xbf1691a7	-0.58816
244	0xbe2f6739	-0.1712922
245	0x3e2bb5f3	0.16768627
246	0xbee437bc	-0.44573772
247	0xbe962530	-0.29325247
248	0xbe8dfbc3	-0.2773114
249	0xbe718bd5	-0.23588498
250	0xbe9d8d26	-0.3077175
251	0xbf218bf9	-0.63104206
252	0xbe55562e	-0.20833656
253	0x3e4431b2	0.19159582
254	0x3ee0ec60	0.4393034
255	0xbd53e565	-0.05173244

conv1.bias f4 [32]
0	0xbe2d06c1	-0.16897108
1	0x3de0f8a4	0.109849244
2	0xbddddffe	-0.10833739
3	0x3b831bb7	0.0040011066
4	0x3dcb44be	0.09925221
5	0x3dac0ddc	0.08401081
6	0xbd41ad2b	-0.047284286
7	0x3e09436b	0.13404624
8	0xbe8b4a82	-0.27205282
9	0xbd23c08b	-0.039978545
10	0x3e8cace7	0.27475664
11	0xbde768ce	-0.11299287
12	0xbe8f4d7e	-0.2798881
13	0xbdcef4a2	-0.10105254
14	0xbcbed863	-0.02329654
15	0xbbb94c46	-0.0056548445
16	0x3c32207b	0.010872002
17	0xbdab1f86	-0.08355622
18	0xbe923b53	-0.28560886
19	0xbdd83976	-0.10557835
20	0xbe258209	-0.16162886
21	0x3e7a22a6	0.2442728
22	0xbd310329	-0.043215904
23	0xbdcd72a9	-0.10031635
24	0xbe992544	-0.29911244
25	0xbda75d95	-0.08172146
26	0xbdcad7de	-0.09904455
27	0xbb7bdc08	-0.003843071
28	0xbdf30b59	-0.11867399
29	0xbdc746a5	-0.09730271
30	0x3d04c459	0.032413814
31	0xbe1d9ba8	-0.1539141

conv2.weight f4 [16, 32, 5, 5]
0	0x3d8e8050	0.069580674
1	0x3c99be38	0.018767461
2	0x3cb20184	0.021729238
3	0x3c9764c7	0.018480672
4	0x3cb4c730	0.022067636
5	0x3d71892d	0.05896871
6	0x3d399bc1	0.045314554
7	0x3e005790	0.12533402
8	0x3e24a464	0.16078335
9	0x3e16c0b9	0.14721955
10	0xbd32bba9	-0.043635998
11	0xbd8d98b9	-0.06913895
12	0xbdca056c	-0.098643154
13	0xbb765d05	-0.0037592065
14	0xbd25fbf6	-0.04052349
15	0x3cdaefd4	0.026725687
16	0x3d88e638	0.06684536
17	0x3dc0a3ec	0.094062656
18	0xbdb9c15f	-0.09070086
19	0xbd9cc4d8	-0.076547325
20	0xbe25e771	-0.16201569
21	0xbdacba0b	-0.084339224
22	0x3d0e38a5	0.03472199
23	0x3c27bef6	0.0102384
24	0x3bf22fe6	0.007390964
25	0xbe29990e	-0.16562292
26	0xbd0affcc	-0.033935353
27	0x3d58ea33	0.052957725
28	0xbdec1739	-0.11527867
29	0xbd525429	-0.051349793
30	0xbdd0ecfb	-0.102014504
31	0xbc6aade5	-0.014323686
32	0x3d70f6af	0.058829006
33	0xbe48df1f	-0.19616364
34	0xbd9c735f	-0.07639193
35	0x3c355f5e	0.011070101
36	0x3e104eaa	0.14092508
37	0x3da4a63b	0.080395184
38	0xbe08772d	-0.13326712
39	0xbe04fd58	-0.12987268
40	0xbc2bf76d	-0.010496003
41	0x3df9be8b	0.12194546
42	0x3d901553	0.07035317
43	0xbd2c11ff	-0.04200935
44	0xbd9520c5	-0.07281641
45	0x3ce978ec	0.028500043
46	0x3e30820d	0.1723711
47	0x3e2e1ade	0.17002437
48	0x3d640b36	0.055674754
49	0x3d0dc310	0.034609854
50	0x3c9023ff	0.01759529
51	0x3d86cdd9	0.06582231
52	0x3d3a744a	0.04552106
53	0x3c263642	0.010144772
54	0xbcb42e66	-0.02199478
55	0xbd0a9979	-0.03383777
56	0xbd181425	-0.037128586
57	0x3c1735f6	0.009229174
58	0x3d82ed37	0.063929014
59	0xbd0b66fc	-0.03403376
60	0x3cbd42d6	0.023103159
61	0xb9a2862a	-0.00030999008
62	0x3c91b939	0.017788516
63	0xbd16505d	-0.036697734
64	0x3c7fbff9	0.015609735
65	0x3ceecd54	0.029150642
66	0x3ca01ff4	0.019546486
67	0xbcfdb7ab	-0.030971369
68	0x3cbcd0cc	0.02304878
69	0xbc47e32a	-0.012200156
70	0x3cc5fc52	0.024168167
71	0xbc2b88ed	-0.010469657
72	0x39df021b	0.00042535443
73	0x3d3a6ef4	0.04551597
74	0x3d58e5b0	0.052953422
75	0xbd840be9	-0.06447584
76	0x3cbf5f11	0.02336076
77	0xbc61b89f	-0.013776927
78	0xbd8280b3	-0.06372204
79	0xbcbfb31b	-0.023400834
80	0xbcbc898f	-0.023014812
81	0xbce993f7	-0.028512938
82	0xbd9c1caf	-0.076226585
83	0x3c963a14	0.01833824
84	0x3dad8a69	0.08473665
85	0xbd91b694	-0.07114902
86	0xbd3e642f	-0.04648226
87	0xbcd56ca3	-0.026052779
88	0xbd16ef4b	-0.0368493
89	0x3b066f9f	0.0020513309
90	0x3d71cc32	0.059032626
91	0x3d3d736f	0.046252664
92	0x3b8fc73d	0.0043877647
93	0x3c07a32f	0.008278652
94	0x3dbed709	0.093183585
95	0x3c95b16b	0.018273076
96	0x3dbbf5d2	0.09177746
97	0x3d72b435	0.05925389
98	0x3def4c66	0.11684494
99	0x3defb681	0.11704732
100	0x3e5c2de0	0.21501875
101	0x3d65c57d	0.056096543
102	0x3999a2d5	0.00029303753
103	0xbd6e1202	-0.058122642
104	0xbd8dc75d	-0.06922791
105	0x3e1e6290	0.15467286
106	0x3ab08829	0.0013468313
107	0xbe0c2fa5	-0.1369005
108	0xbe114084	-0.14184767
109	0xbe17d27a	-0.14826384
110	0x3df580b0	0.11987436
111	0xbca0c166	-0.01962347
112	0xbd9437ad	-0.07237182
113	0xbdbd0f27	-0.09231406
114	0xbdcbb46f	-0.09946524
115	0x3d48b5cc	0.0490015
116	0x3d95d635	0.073162474
117	0xbd833f59	-0.06408567
118	0xbddd1b77	-0.10796254
119	0xbdf3cf36	-0.11904757
120	0xbd2414ce	-0.040058903
121	0x3d540638	0.051763743
122	0x3c87168e	0.016490247
123	0x3d895339	0.067053266
124	0xbd2e5135	-0.042557914
125	0xbd748e6c	-0.059706137
126	0xbd5ddda3	-0.054166447
127	0x3d5c957f	0.053853508
128	0xbce31956	-0.027722042
129	0xbd46f38e	-0.048572116
130	0xbc1e3bf2	-0.009657847
131	0xbd862806	-0.065506026
132	0x3dec589f	0.11540341
133	0x3e1a2e9f	0.15056847
134	0x3e3848af	0.17996477
135	0xbe042136	-0.12903294
136	0xbaf858b3	-0.0018947333
137	0x3ccab254	0.024743237
138	0x3da1fec1	0.079099186
139	0x3e1d5696	0.15365061
140	0xbe08c487	-0.13356219
141	0xbe13c4f8	-0.14430606
142	0xbde2cd3b	-0.11074301
143	0xbd5cc873	-0.0539021
144	0x3dc203ae	0.09473358
145	0xbca2b742	-0.019862775
146	0xbc5213a5	-0.012822066
147	0xbdf0e132	-0.117617026
148	0x3d040a20	0.03223622
149	0x3da6d158	0.08145398
150	0x3d02572f	0.031821426
151	0x3d1d7057	0.038437214
152	0xbdb66a6a	-0.089070156
153	0x3d8f7a1d	0.07005713
154	0xba79dadd	-0.00095312094
155	0xbd9ff7f5	-0.07810966
156	0x3cade9bb	0.021229615
157	0xbd8e2974	-0.069415
158	0x3cddbd2a	0.02706774
159	0x3ccb2457	0.024797602
160	0x3d7700e9	0.060303602
161	0xbd913eac	-0.07092032
162	0xbcb6b140	-0.022301316
163	0x3d1aaa50	0.03776008
164	0x3dd38ebd	0.103299595
165	0x3c79d2a1	0.015247972
166	0x3c98bb7e	0.01864409
167	0x3c8df10c	0.017326854
168	0x3d73b234	0.05949612
169	0x3d20f0e8	0.039292246
170	0x3ceda5bc	0.029009692
171	0xbc4a0e58	-0.012332521
172	0x3d9a4c44	0.07534078
173	0x3d96fd76	0.073725626
174	0x3d62a568	0.055333525
175	0xbdc70bcc	-0.09719047
176	0xbd8a3fb1	-0.067504294
177	0xbd0519c1	-0.032495264
178	0xbd575844	-0.05257441
179	0x3aea26eb	0.0017864382
180	0xbdd18d19	-0.1023199
181	0xbd8b1d33	-0.06792679
182	0x3c1ece0f	0.009692683
183	0xbd15da67	-0.036585238
184	0x3d38ba4a	0.045099534
185	0xbdae4ab0	-0.08510339
186	0xbd0f76d7	-0.035025444
187	0x3d592431	0.05301303
188	0x3d14b03b	0.03630088
189	0x3d861cf9	0.06548495
190	0xbc65640c	-0.014000904
191	0xbd80e817	-0.062942676
192	0x3c8c0db5	0.01709638
193	0xbc3b83ff	-0.011445045
194	0xbc7a87d5	-0.015291174
195	0x3d87f899	0.06639213
196	0xbb88f2ce	-0.004179335
197	0xbd36d635	-0.044637877
198	0x3d19336d	0.03740256
199	0x3e149ee8	0.14513743
200	0xbec74a6a	-0.3892396
201	0xbc107401	-0.00881672
202	0xbd330f86	-0.043715976
203	0xbe357a7b	-0.17722504
204	0x3e664a1a	0.22489205
205	0xbe255403	-0.16145329
206	0x3dc36e66	0.09542541
207	0x3e24d82c	0.16098088
208	0xbce5c861	-0.02804965
209	0x3eed0c30	0.4629836
210	0xbe8252fb	-0.25453934
211	0x3d49e208	0.049287826
212	0x3eb7165a	0.3575924
213	0x3d4270d7	0.047470894
214	0x3edb2064	0.4279815
215	0xbe322a9f	-0.17399071
216	0xbd047dd2	-0.032346554
217	0x3ee3c11e	0.44483274
218	0xbd3e7767	-0.04650059
219	0x3e6f058b	0.23341958
220	0xbdd18a14	-0.102314144
221	0xbd3116c6	-0.04323461
222	0x3edc945b	0.43081936
223	0xbcfbeef4	-0.03075359
224	0x3e7465e9	0.23867
225	0xbea5f87d	-0.32416144
226	0xbe4dc79b	-0.20095675
227	0x3da04d0f	0.07827198
228	0x3c6bfa86	0.014402991
229	0x3eda60c6	0.42651957
230	0xbdfc8251	-0.123295434
231	0xbe0b53a4	-0.13606125
232	0x3cc92d4d	0.024557734
233	0xbdc02e15	-0.093837894
234	0x3dbf9b84	0.09355834
235	0xbd2f59a1	-0.042810086
236	0xbc873a99	-0.016507434
237	0x3d828bb6	0.06374304
238	0xbe5f1d28	-0.21788466
239	0x3daa5cfc	0.083185166
240	0x3e398218	0.18116033
241	0x3e40737c	0.18794054
242	0x3d47c397	0.048770513
243	0xbeb0ea0b	-0.3455356
244	0xbd9fd2a8	-0.07803851
245	0x3e19f039	0.15033044
246	0x3e2ecb99	0.17069854
247	0x3e371e25	0.17882593
248	0xbeade076	-0.33960313
249	0x3d540e67	0.051771548
250	0x3eb82e53	0.35972843
251	0x3e876d0f	0.26450393
252	0x3e268d25	0.1626478
253	0x3c976307	0.018479837
254	0x3da7cb7d	0.08193109
255	0x3e4da7a8	0.20083487

conv2.bias f4 [16]
0	0x3cdbe95d	0.026844675
1	0x3e900044	0.28125203
2	0xbd7b1a51	-0.061304394
3	0xbd446a15	-0.04795273
4	0xbd14d840	-0.036339045
5	0xbb9df26b	-0.0048201582
6	0x3c41b898	0.011823796
7	0x3db2681a	0.08711262
8	0x3e658798	0.22415006
9	0xbd961ab6	-0.073293135
10	0x3e4513b7	0.19245802
11	0xbd553be9	-0.052059088
12	0xbd7b45ed	-0.061345983
13	0x3c7c5f98	0.015403651
14	0x3df74019	0.120727725
15	0xbd42fc8a	-0.04760412

conv3.weight f4 [8, 16, 3, 3]
0	0xbda8a2e8	-0.08234197
1	0x3e053ee1	0.13012268
2	0xbd82db44	-0.06389478
3	0x3dd49484	0.103798896
4	0x3e2eed84	0.17082793
5	0x3db2dc50	0.087334275
6	0xbc61a324	-0.013771806
7	0xbddcfba6	-0.10790186
8	0x3dbd3a85	0.09239677
9	0xbeec16f1	-0.46111253
10	0xbd188da8	-0.03724447
11	0xbd95ec56	-0.07320468
12	0xbeb1dd3a	-0.34739095
13	0x3e30fa4e	0.17282984
14	0x3c64f60c	0.013974678
15	0xbe062932	-0.13101652
16	0x3e637e6a	0.22216192
17	0x3ec35484	0.38150418
18	0x3e0712d8	0.13190782
19	0xbda5a29a	-0.080876544
20	0x3d4ce71b	0.050025087
21	0xbe0f830b	-0.14014833
22	0x3d6c5459	0.057697628
23	0xbd38d7e3	-0.04512776
24	0xbd88c3b8	-0.066779554
25	0x3d1bf972	0.038079686
26	0xbd575115	-0.05256756
27	0x3dfdae5e	0.123867735
28	0xbe0cd051	-0.13751341
29	0xbe1d6f8e	-0.15374586
30	0x3dab4efd	0.08364675
31	0xbd6d10c1	-0.057877306
32	0x3dc761b5	0.09735433
33	0xbe17dedb	-0.14831106
34	0xbc3850b0	-0.011249706
35	0xbc603495	-0.0136844115
36	0x3e236891	0.15957858
37	0x3e1b54d1	0.15169074
38	0x3dc05746	0.09391646
39	0x3cb60e9f	0.022223769
40	0x3e2c8035	0.16845782
41	0xbb2369b9	-0.0024934842
42	0x3d88b4ae	0.06675087
43	0xbded26f1	-0.11579693
44	0xbdd2fc97	-0.10302084
45	0xbd9d3bba	-0.076774076
46	0xbde2196e	-0.110400066
47	0xbda3756e	-0.07981382
48	0x3cd500d9	0.02600138
49	0x3e0849bb	0.13309376
50	0x3b91a132	0.004444265
51	0x3e1f4160	0.15552282
52	0xbd95ef22	-0.073210016
53	0x3db1ee9f	0.086880915
54	0xbe19f6bd	-0.1503553
55	0x3dc3d6c4	0.09562448
56	0xbda7f5f7	-0.08201211
57	0x3c3f5b99	0.011679553
58	0x3d93d487	0.07218271
59	0x3e0d72ed	0.13813372
60	0xbd4f2f5f	-0.050582286
61	0xbd191642	-0.037374742
62	0x3dfb97ca	0.12284811
63	0xbe0ad508	-0.13557827
64	0xbdbd9593	-0.09257045
65	0xbe820fd0	-0.2540269
66	0x3e31e1a1	0.17371227
67	0x3cca71e0	0.024712503
68	0x3cbec52d	0.02328738
69	0x3eac6434	0.336702
70	0x3e956d3c	0.29184902
71	0x3e0875b8	0.13326156
72	0xbeab000d	-0.33398476
73	0xbeb6949a	-0.3566025
74	0xbde7a24f	-0.11310255
75	0x3d3b71c1	0.04576278
76	0x3d237f2b	0.0399162
77	0x3e0b6464	0.13612515
78	0x3e1e0034	0.15429765
79	0x3e5c2852	0.21499756
80	0x3e6b0298	0.22950208
81	0xbddc409f	-0.10754513
82	0x3ddce5aa	0.107859924
83	0xbd96c9e3	-0.073627256
84	0x3c2abcee	0.010421021
85	0x3db88c49	0.09011132
86	0x3e307b0a	0.17234436
87	0xbb02b0b4	-0.001994175
88	0xbd925b95	-0.07146374
89	0xbdd74b3b	-0.10512396
90	0xbd8fb5c4	-0.07017091
91	0x3e3dad7b	0.18523209
92	0x3e7e7b6e	0.24851772
93	0xba9443df	-0.0011311731
94	0xbdc963f5	-0.098335184
95	0x3e6881d9	0.22705783
96	0xbea200d0	-0.31641245
97	0x3da55921	0.080736406
98	0xbd5cfb16	-0.05395039
99	0x3e45601f	0.19274949
100	0xbd8d6e49	-0.06905801
101	0x3e3a7e12	0.18212155
102	0x3e29a2de	0.16566035
103	0x3cd3217b	0.0257728
104	0xbd442dee	-0.047895364
105	0xbe06253a	-0.13100138
106	0x3d91ebde	0.07125066
107	0xbdbd39d3	-0.09239545
108	0xbd86945d	-0.06571267
109	0x3d74c599	0.059758756
110	0xbd8e4e98	-0.06948584
111	0xbc040926	-0.008058822
112	0xbda0f2fe	-0.07858847
113	0x3dd90c4c	0.105980486
114	0x3df53483	0.119729064
115	0x3d5db6fb	0.054129582
116	0x3c8bf7aa	0.017085869
117	0x3e1cc9f4	0.15311414
118	0x3da36e33	0.07980003
119	0xbdeddc9b	-0.11614343
120	0xbd4d8f87	-0.050185706
121	0x3ded3468	0.11582261
122	0x3d3806b5	0.04492827
123	0xbd35e303	-0.04440595
124	0xbdb790f5	-0.08963195
125	0xbd4f949e	-0.05067884
126	0x3e31e59b	0.17372744
127	0x3d8b1167	0.067904286
128	0x3e580721	0.2109647
129	0x3da73920	0.081651926
130	0xbe077273	-0.13227253
131	0x3dadd557	0.08487957
132	0xbdb8bda0	-0.09020543
133	0xbe826c3d	-0.25473204
134	0x3cb8d82e	0.02256402
135	0xbdfe6dcf	-0.12423288
136	0xbcb814cd	-0.022470856
137	0xbdfd2687	-0.12360864
138	0x3e681343	0.22663598
139	0x3d551b2f	0.052027877
140	0xbe949644	-0.29020894
141	0x3dffb824	0.12486294
142	0x3e26e6d3	0.1629899
143	0x3c9d7590	0.019221097
144	0xbe9cb1c7	-0.30604383
145	0xbe61eba2	-0.22062543
146	0x3da89c8a	0.082329825
147	0xbd83d108	-0.06436354
148	0xbe4a9311	-0.19782664
149	0x3d50234e	0.05081492
150	0x3eeb8663	0.46000966
151	0x3e981b25	0.2970821
152	0x3d225fce	0.039642148
153	0xbe54a6eb	-0.20766799
154	0x3bc1d266	0.005914974
155	0x3e1e3a34	0.1545189
156	0xbe1d864c	-0.15383261
157	0xbeb02846	-0.34405726
158	0xbd9d513d	-0.076815106
159	0x3e680311	0.2265742
160	0x3d030810	0.03199011
161	0x3c6df314	0.014523286
162	0xbcfe28c8	-0.031025305
163	0x3db8b76d	0.09019361
164	0xbe138da1	-0.14409496
165	0xbe2531cf	-0.16132282
166	0x3c4606a7	0.012086547
167	0xbaba46b2	-0.0014211743
168	0x3d8d85c4	0.069102794
169	0xbc4c19b6	-0.012457302
170	0xbddb19bc	-0.10698268
171	0xbc8f1cb2	-0.017469738
172	0x3d35dffb	0.044403058
173	0x3c775516	0.01509597
174	0xbd76700a	-0.060165443
175	0xbe1c1c48	-0.15245163
176	0xbd233a96	-0.039850794
177	0xbe0b6104	-0.13611227
178	0xbcf002d7	-0.02929823
179	0x3dc79960	0.09746051
180	0x3df8f4bd	0.12156055
181	0x3de31c97	0.110894375
182	0x3dfd77d5	0.12376372
183	0xbde4f751	-0.11179984
184	0xbe1ebb6c	-0.15501183
185	0xbdbe0572	-0.09278382
186	0xbe2cc38d	-0.16871472
187	0xbdd4e7c6	-0.1039577
188	0x3d1698d8	0.036766857
189	0x3e47ef3f	0.19524859
190	0xbdeab386	-0.11460023
191	0xbdd28ee0	-0.102811575
192	0x3dc1fdd3	0.09472241
193	0x3e2aed60	0.16692114
194	0xbbc06b20	-0.0058721453
195	0xbd78a3a3	-0.06070293
196	0x3bf39898	0.007433962
197	0x3e165ac9	0.1468307
198	0xbd1893b0	-0.03725022
199	0xbe2e79b4	-0.17038614
200	0x3de09c27	0.10967284
201	0x3d94c051	0.07263244
202	0xbc328ac8	-0.010897346
203	0xbb99e92e	-0.0046969866
204	0xbe126680	-0.14296913
205	0x3e147129	0.14496292
206	0xbe12d207	-0.14337932
207	0xbdc82ccd	-0.0977417
208	0x3d8c13c2	0.06839706
209	0x3d469f96	0.048492037
210	0xbe924caa	-0.28574115
211	0x3d9625da	0.07331438
212	0x3eb8e066	0.36108702
213	0xbea5e9d2	-0.32404953
214	0xbdd95af7	-0.10613053
215	0x3ebc4279	0.36769465
216	0xbe0496c3	-0.12948136
217	0x3e00d22c	0.12580174
218	0x3da3a6b9	0.07990784
219	0xbe74a5d9	-0.23891391
220	0x3e05d9ac	0.13071316
221	0x3e216166	0.15759811
222	0xbe68089c	-0.22659534
223	0x3d4afc22	0.04955686
224	0x3e560384	0.20899779
225	0xbd30da8e	-0.04317718
226	0x3e0c13fd	0.136795
227	0xbdbd91b7	-0.092563085
228	0xbaf5e8b5	-0.0018761369
229	0x3d1cd31c	0.038287267
230	0xbd0236f5	-0.031790692
231	0x3dc51bc1	0.09624434
232	0x3ddac911	0.106828816
233	0xbdb591bf	-0.088656895
234	0x3d0dfb44	0.034663454
235	0xbe5374db	-0.20650046
236	0xbeb492f7	-0.35268375
237	0x3ea49a80	0.32149124
238	0x3c6a9afb	0.014319177
239	0xbe85d0fa	-0.26136
240	0x3e5af9c1	0.21384336
241	0x3e0e244d	0.13881035
242	0xbcc8afb5	-0.024497846
243	0x3cead354	0.028665222
244	0xbc261dcc	-0.01013894
245	0xbd83dd17	-0.06438654
246	0x3df46a77	0.11934369
247	0x3ddd480d	0.10804758
248	0xbd7c9205	-0.061662693
249	0x3dcba31c	0.0994322
250	0x3a2a9f9a	0.0006508768
251	0xbe4760de	-0.19470546
252	0x3dd385e5	0.10328273
253	0xbe04ee27	-0.12981473
254	0x3d874998	0.06605834
255	0x3dd6c210	0.10486233

conv3.bias f4 [8]
0	0x3e1319c0	0.14365292
1	0xbea34b42	-0.31893355
2	0xbd3c5cfe	-0.04598712
3	0x3dca414c	0.09875736
4	0x3e0f1884	0.13974196
5	0x3abeeac0	0.001456581
6	0x3ea74e00	0.32676697
7	0x3ec641f1	0.38722184

convt1.weight f4 [8, 8, 3, 3]
0	0xbdaddfab	-0.08489927
1	0xbd8ed133	-0.06973495
2	0x3e1ca401	0.15296938
3	0x3c59f0c3	0.013302031
4	0xbe99818a	-0.29981643
5	0x3df7a705	0.12092403
6	0x3e160095	0.1464866
7	0xbd55fa90	-0.05224091
8	0x3e8243e9	0.25442436
9	0x3d60a291	0.054842535
10	0xbe78d267	-0.24299012
11	0xbe7223d0	-0.23646474
12	0xbf17e904	-0.5933993
13	0x3e7e5faf	0.24841188
14	0x3e8ccdee	0.27500862
15	0x3e91bb01	0.28462985
16	0x3ebcd6f7	0.36882755
17	0xbeb0c115	-0.3452231
18	0xbf164ed2	-0.5871402
19	0xbe193007	-0.14959727
20	0xbe829b1a	-0.25508958
21	0xbde998f4	-0.114061266
22	0x3e7fa45e	0.24965045
23	0x3def83e7	0.1169508
24	0x3efcaf70	0.49352598
25	0x3e53a536	0.20668492
26	0x3ea8a4b4	0.3293816
27	0x3dc5fd75	0.09667484
28	0x3da76157	0.08172863
29	0xbda4e831	-0.080520995
30	0xbf1fa42c	-0.6235988
31	0x3c3fa313	0.011696595
32	0x3e0de288	0.13855946
33	0x3c98a570	0.018633574
34	0xbee3fd1d	-0.44529048
35	0xbe2ac75b	-0.1667761
36	0x3dc33275	0.09531108
37	0xbe66c8e4	-0.22537571
38	0x3e2dbaf2	0.16965845
39	0x3dee3adf	0.116323225
40	0xbec0b590	-0.3763852
41	0x3e69ec61	0.22844078
42	0x3df509da	0.1196477
43	0x3dbdcc2d	0.09267459
44	0x3e58ecdb	0.21184103
45	0xbe262455	-0.16224797
46	0x3e3f29ed	0.18668337
47	0xbc8e626b	-0.017380914
48	0xbe45b54e	-0.19307443
49	0xbe7a424d	-0.24439354
50	0xbe6c89cb	-0.23099439
51	0xbde4548b	-0.11148938
52	0xbe993b1c	-0.2992791
53	0xbe2e5e18	-0.17028081
54	0x3dbfa8a6	0.09358339
55	0x3e13962b	0.14412753
56	0x3f01fe7e	0.5077895
57	0x3ed5de7a	0.417713
58	0x3de1be5e	0.11022638
59	0xbf06b4b5	-0.5261949
60	0xbe28b556	-0.16475424
61	0xbe14ec07	-0.14543162
62	0xbe93e10f	-0.28882644
63	0x3c76a45c	0.015053835
64	0x3ee1fe24	0.44139206
65	0x3d145fe9	0.03622428
66	0x3db731d3	0.0894505
67	0x3dbdcc91	0.092675336
68	0xbd9a8115	-0.07544152
69	0xbcb25b1d	-0.021771962
70	0xbeb94deb	-0.3619226
71	0xbea7c516	-0.32767552
72	0x3cfa9863	0.030590242
73	0x3df9fe8c	0.12206754
74	0xbe230d6f	-0.15923093
75	0xbeae4a05	-0.34040847
76	0xbcc1f402	-0.023675922
77	0x3e492bb3	0.19645576
78	0xbe2451b5	-0.16046794
79	0xbe9067a7	-0.2820408
80	0x3dc6a160	0.096987486
81	0x3d3f5908	0.046715766
82	0xbf082b26	-0.5319084
83	0x3c9bf226	0.019036364
84	0x3e89fc89	0.26950482
85	0x3dc367b6	0.09541266
86	0x3e3674b2	0.17817953
87	0x3ea53ae9	0.32271507
88	0x3d00466f	0.03131717
89	0xbee11000	-0.4395752
90	0x3e43e5cc	0.1913063
91	0x3e2ed50f	0.17073463
92	0x3e087eb9	0.13329591
93	0x3c84e40c	0.016222022
94	0x3e31f905	0.1738015
95	0xbce2aa8f	-0.02766922
96	0x3e287f2b	0.1645476
97	0xbe6c3e85	-0.23070724
98	0xbede7571	-0.43448976
99	0x3e28e5c6	0.16493902
100	0x3e148a3a	0.14505854
101	0xbe1fe2f0	-0.15613914
102	0xbec207b0	-0.3789649
103	0xbf1f26e0	-0.62168694
104	0x3ddc84f6	0.10767548
105	0xbe2a85d1	-0.1665261
106	0xbe5816c9	-0.21102442
107	0xbdd88d6f	-0.10573851
108	0xbcb0a0b2	-0.021561
109	0x3ef4ab51	0.47786954
110	0x3e4aed44	0.19817072
111	0x3e58dbc2	0.21177581
112	0xbe92e585	-0.28690735
113	0x3d8ea1bb	0.069644414
114	0x3e93de54	0.2888056
115	0x3cc8ee56	0.02452771
116	0x3ea1344f	0.3148522
117	0x3ece4109	0.40283993
118	0xbda3b985	-0.079943694
119	0xbe98f421	-0.29873756
120	0xbf0cd984	-0.550194
121	0x3dbed74e	0.0931841
122	0xbde0cc78	-0.10976499
123	0xbe55e3f2	-0.20887735
124	0x3e007e7f	0.12548254
125	0x3e47c706	0.19509515
126	0x3e5299ce	0.20566484
127	0x3e93aa0f	0.28840682
128	0x3e75e1a3	0.24011855
129	0xbe03a058	-0.12854135
130	0xbef0991d	-0.46991816
131	0x3e70e09d	0.23523183
132	0x3d875351	0.06607688
133	0x3cfdd028	0.030983046
134	0xbe4eea32	-0.20206526
135	0x3e61f95d	0.22067781
136	0xbec531f8	-0.38514686
137	0xbed3de03	-0.4138032
138	0x3d6f4d59	0.058423374
139	0xbe2aaf63	-0.16668467
140	0xbd37efba	-0.044906355
141	0xbdd3499a	-0.10316773
142	0x3ebd9cc5	0.37033668
143	0x3de029b9	0.10945458
144	0xbdf55353	-0.119787835
145	0xbe14a00c	-0.14514178
146	0xbdeee441	-0.1166463
147	0x3dd1078b	0.10206517
148	0x3e0d1453	0.13777284
149	0xbe1be611	-0.15224482
150	0xbddcd558	-0.107828796
151	0x3e26d0c7	0.1629058
152	0xbae39804	-0.001736403
153	0xbbc7aea7	-0.006093818
154	0x3dfb36cb	0.1226631
155	0x3e1faa5e	0.15592334
156	0x3e2284d1	0.15870978
157	0xbe3810df	-0.17975186
158	0x3e00c79d	0.12576146
159	0xbdb6f695	-0.089337505
160	0xbde1c1b9	-0.11023278
161	0xbcf094b2	-0.029367778
162	0xbd66285c	-0.056190833
163	0xbdada089	-0.08477885
164	0x3e254e22	0.16143087
165	0xbd58e14e	-0.052949242
166	0x3e315c7d	0.17320438
167	0xbda949b1	-0.08266009
168	0x3e348e20	0.17632341
169	0x3d82b7c7	0.06382709
170	0xbddd79d2	-0.10814251
171	0xbdf8de6a	-0.12151797
172	0x3dc1e6dd	0.09467862
173	0xbe51a10e	-0.20471594
174	0xbdcc5017	-0.099762134
175	0xbe435c90	-0.19078279
176	0x3d8ba6e7	0.068189435
177	0x3e040894	0.12893897
178	0xbe13a586	-0.14418611
179	0xbdb575fb	-0.088603936
180	0x3df69457	0.12040012
181	0x3b8b04a3	0.004242496
182	0x3dc8cbbc	0.09804484
183	0x3a3eb122	0.00072743197
184	0xbdebbd68	-0.11510736
185	0xbd53b435	-0.05168553
186	0x3dfa521d	0.12222693
187	0x3db7dc8f	0.08977615
188	0xbcb444f4	-0.022005536
189	0x3db1e97c	0.08687112
190	0x3db1b7f1	0.08677662
191	0x3e187b4b	0.14890783
192	0xbdc83298	-0.09775275
193	0xbd695425	-0.056965012
194	0xbc83e994	-0.01610259
195	0x3e06b10f	0.1315348
196	0xbe11b67b	-0.14229767
197	0xbb4c77de	-0.0031199376
198	0xbde2a579	-0.11066718
199	0xbddfa873	-0.10920801
200	0xbd8f1bb4	-0.06987706
201	0x3e293e4b	0.16527669
202	0x3d59b041	0.053146604
203	0xbb50e7a9	-0.0031876361
204	0x3dee78f4	0.11644164
205	0xbd7d66e7	-0.061865713
206	0x3e2efed8	0.17089403
207	0x3dab0560	0.083506346
208	0x3c635070	0.013874158
209	0xbcbcd558	-0.023050949
210	0x3d6125a5	0.05496754
211	0x3e4f3531	0.20235135
212	0xbe34e02f	-0.17663644
213	0xbe088e1e	-0.13335463
214	0xbdeadf09	-0.11468322
215	0xbdfcf80c	-0.12351999
216	0x3e933ad6	0.28755826
217	0xbf0378cd	-0.513562
218	0xbd8aa74a	-0.06770189
219	0xbe1987f4	-0.14993268
220	0xbed77b0c	-0.42086065
221	0xbddb1d51	-0.10698951
222	0x3e7840cf	0.24243473
223	0xbe795efa	-0.24352637
224	0xbe2db0dc	-0.16961998
225	0xbe348c03	-0.17631535
226	0xbd151094	-0.036392763
227	0x3d439f7b	0.047759514
228	0xbf16e534	-0.58943486
229	0xbe5286bf	-0.20559214
230	0x3f0e05d5	0.5547765
231	0xbe262d4b	-0.16228215
232	0xbe83b74c	-0.25725782
233	0x3e6bdd01	0.23033525
234	0xbe8164dd	-0.25272265
235	0x3e59d99b	0.21274416
236	0xbe5816e5	-0.21102484
237	0x3e7121d7	0.23548065
238	0xbe9a563e	-0.30143923
239	0xbe90a687	-0.2825205
240	0x3e7b77f6	0.2455748
241	0x3b9b4503	0.0047384514
242	0x3e896080	0.26831436
243	0xbe59c663	-0.21267085
244	0xbdcc017c	-0.099612206
245	0xbd2d13b5	-0.042255122
246	0xbf045375	-0.51689845
247	0x3e4b420c	0.19849414
248	0x3dd7e142	0.105410114
249	0x3c419b62	0.011816831
250	0xbe0ef7d7	-0.13961731
251	0x3df57851	0.11985839
252	0x3d15336e	0.036426
253	0x3e8210ea	0.2540353
254	0x3dd94cdd	0.10610364
255	0xbe9534c6	-0.29141825

convt1.bias f4 [8]
0	0x3c3ebb7c	0.011641379
1	0x3daacd53	0.08339944
2	0xbda5e23c	-0.080997914
3	0xbc246cd7	-0.010035715
4	0xbd98cd41	-0.07461024
5	0x3cb73b59	0.022367166
6	0xbc3eae44	-0.011638228
7	0xbd9c7b88	-0.07640749

convt2.weight f4 [8, 16, 5, 5]
0	0xbe9bac2c	-0.30404794
1	0xbd8aadf9	-0.06771464
2	0xbf899cc8	-1.0750971
3	0xbd322a63	-0.043497454
4	0xbe0d0739	-0.13772286
5	0x3d8b8719	0.06812877
6	0xbebfbc02	-0.37448126
7	0xbf77f4c3	-0.9685785
8	0xbf07ca34	-0.5304291
9	0xbea86a98	-0.32893825
10	0x3dc15d52	0.094416276
11	0xbe57ce6e	-0.2107484
12	0xbe28f6f2	-0.16500452
13	0xbf21a30f	-0.6313943
14	0xbf5592eb	-0.83427304
15	0xbe935258	-0.2877376
16	0xbecf17c6	-0.40447825
17	0xbdd6169a	-0.1045353
18	0xbe62463f	-0.2209711
19	0xbf807a87	-1.0037392
20	0xbd9cd69a	-0.076581195
21	0xbf3363b8	-0.70074034
22	0xbf80ef5a	-1.0073044
23	0xbe4d7ee2	-0.20067933
24	0xbddb5a03	-0.10710528
25	0xbec5aa9c	-0.38606727
26	0xbec64124	-0.38721573
27	0xbee76478	-0.4519384
28	0xbf48e719	-0.7847763
29	0xbf14850f	-0.5801553
30	0xbea62a79	-0.3245428
31	0xbf0f350d	-0.55940324
32	0xbe3b7d21	-0.18309452
33	0xbe95a17b	-0.29224762
34	0xbe45d33e	-0.19318864
35	0xbe96d11d	-0.29456416
36	0xbe3d70bc	-0.18500036
37	0xbecedb8d	-0.4040188
38	0xbee5869c	-0.4482926
39	0x3dbff54f	0.09372961
40	0xbf111a39	-0.5668064
41	0xbecc3e70	-0.39891386
42	0xbe5b8931	-0.21439053
43	0xbee4836c	-0.44631517
44	0xbe921787	-0.28533575
45	0xbe25f7e7	-0.16207848
46	0xbe2ca33b	-0.16859142
47	0x3dce9e09	0.100887366
48	0xbe205916	-0.15658984
49	0x3d4a7ccc	0.04943542
50	0xbc51b2f2	-0.012799012
51	0xbf9039d1	-1.1267644
52	0xbf8bbc2b	-1.0916799
53	0xbd9564fe	-0.07294653
54	0x3d8b9879	0.06816191
55	0xbe0cd230	-0.13752055
56	0xbd24853a	-0.040166117
57	0xbc812c3a	-0.01576816
58	0xbe91ef42	-0.28502852
59	0xbc99808c	-0.018738054
60	0x3e2c2f0c	0.16814822
61	0xbd3bf6be	-0.04588961
62	0x3e2ada46	0.16684827
63	0x3de46c53	0.11153474
64	0x3d628709	0.05530456
65	0xbf163698	-0.58677053
66	0xbef97314	-0.4872061
67	0xbeb1bb4e	-0.34713215
68	0x3dd16f34	0.102262884
69	0xbf565c4a	-0.8373457
70	0x3d8cad6d	0.06869016
71	0xbe40f089	-0.18841757
72	0xbf1bc9ff	-0.60855097
73	0xbc5e1da4	-0.013556872
74	0xbe24f108	-0.16107571
75	0x3e2bfed5	0.1679643
76	0xbda6742b	-0.08127626
77	0x3a7b840f	0.00095945684
78	0xbf0b54d8	-0.54426336
79	0x3c475a57	0.012167535
80	0x3e467f5d	0.19384523
81	0x3d0cf67e	0.03441476
82	0x3deb8767	0.11500435
83	0xbf1bed4a	-0.6090895
84	0x3d953f3a	0.0728745
85	0x3cb22299	0.021745013
86	0xbc6290f8	-0.013828509
87	0xbe4d393d	-0.20041366
88	0xbedc8f63	-0.43078145
89	0xbe349257	-0.17633949
90	0xbe138c86	-0.14409074
91	0x3d5592e1	0.052142028
92	0xbdb9ef54	-0.09078851
93	0x3df38588	0.118907034
94	0xbcabb89c	-0.020962052
95	0x3e3e500a	0.1858522
96	0x3e4491b5	0.19196208
97	0xbe34487c	-0.17605776
98	0x3e57e311	0.21082713
99	0xbe3378f7	-0.17526613
100	0x3d056a1a	0.03257189
101	0x3dee8f5b	0.11648437
102	0xbf0e0952	-0.5548297
103	0xbe192480	-0.1495533
104	0x3d3e9c4a	0.046535768
105	0xbf7484df	-0.95515245
106	0xbf49084d	-0.7852829
107	0xbe61c63f	-0.22048281
108	0xbf0a046c	-0.53913
109	0xbf21865f	-0.6309566
110	0xbf7e8a9f	-0.9943027
111	0xbe384ee1	-0.1799884
112	0xbdf48061	-0.11938549
113	0xbf710446	-0.94147146
114	0xbf031d9b	-0.5121705
115	0xbe9cb959	-0.3061016
116	0xbe51830c	-0.20460147
117	0xbec737f0	-0.38909864
118	0xbddc8aec	-0.10768685
119	0xbd446657	-0.04794916
120	0xbedca59b	-0.43095097
121	0xbe6113a1	-0.21980144
122	0xbf5cc3af	-0.8623609
123	0xbec757f5	-0.38934293
124	0xbcd3ce0e	-0.02585509
125	0xbf020cbb	-0.50800675
126	0xbea465d8	-0.3210895
127	0x3cc33405	0.023828516
128	0x3d179444	0.03700663
129	0xbea568dc	-0.32306564
130	0x3e123d67	0.14281236
131	0xbb1b010a	-0.0023651742
132	0xbebafe05	-0.36521927
133	0xbe01b24c	-0.12665671
134	0xbe8c1e46	-0.27366847
135	0xbca0dbf0	-0.019636124
136	0x39957297	0.0002850487
137	0x3d4107d4	0.047126606
138	0x3d7e73e5	0.062122244
139	0xbbf686eb	-0.0075234077
140	0xbed38fe5	-0.4132072
141	0xbea38ebe	-0.3194484
142	0xbe8fb17f	-0.28065106
143	0x3e440047	0.19140731
144	0xbe86267a	-0.2620123
145	0x3ea1bb1f	0.31588075
146	0xbc2931a0	-0.010326773
147	0xbe18e2e1	-0.14930297
148	0xbea3b831	-0.31976464
149	0xbfc9113f	-1.5708388
150	0xbdae6167	-0.08514672
151	0xbdfc877c	-0.12330529
152	0xbe298621	-0.16555072
153	0xbe69db64	-0.22837597
154	0xbe1ef4c2	-0.15523055
155	0xbe14ab31	-0.1451843
156	0xbf276932	-0.6539489
157	0xbe592fd4	-0.21209651
158	0xbf3e19f9	-0.7425838
159	0xbdc69ce6	-0.09697895
160	0xbeabed17	-0.33579323
161	0xbe313fd1	-0.173095
162	0xbe2a3c84	-0.16624647
163	0xbedb0ca8	-0.42783093
164	0xbba9a720	-0.0051773936
165	0xbf052a82	-0.52017987
166	0xbeb3884d	-0.35064927
167	0xbc0f21b2	-0.008736061
168	0x3c80b865	0.015712926
169	0xbf80db45	-1.0066916
170	0xbdd82908	-0.10554701
171	0xbee236b8	-0.44182372
172	0xbd0a343f	-0.033741232
173	0x3dadd9e2	0.084888235
174	0xbe99a3eb	-0.30007872
175	0x3e53db12	0.20689037
176	0xbf4cb91a	-0.7996994
177	0x3dfd96d0	0.12382281
178	0x3e2373de	0.15962169
179	0x3e8de4f3	0.27713737
180	0xbe2b439f	-0.16725014
181	0xbe980db9	-0.2969797
182	0xbe89865d	-0.26860324
183	0xbdfc3f9f	-0.12316822
184	0xbec62679	-0.38701227
185	0x3e09ca91	0.13456179
186	0x3e1abe66	0.15111694
187	0xbd68b0dc	-0.05680929
188	0xbe600a28	-0.21878874
189	0x3e3bbf7e	0.18334767
190	0x3c5a3eb0	0.01332061
191	0xbd56e31b	-0.05246268
192	0xbf1756ae	-0.5911664
193	0xbdd8950e	-0.10575305
194	0xbe4ecad3	-0.20194559
195	0x3dfc51c1	0.12320281
196	0x3dc93939	0.098253675
197	0x3e2acab9	0.16678895
198	0x3c90b542	0.017664555
199	0x3db45735	0.08805696
200	0xbefccf93	-0.49377117
201	0x3ca8fa4f	0.020627169
202	0xbe94e0ea	-0.29077846
203	0xbc2ad06b	-0.010425667
204	0xbf7e5271	-0.99344546
205	0xbea0d69a	-0.31413728
206	0xbea469dc	-0.32112014
207	0xbe6af43f	-0.22944735
208	0xbe0c8654	-0.13723117
209	0x3d3f661d	0.046728242
210	0x3e67ae0f	0.22624992
211	0xbebd26a3	-0.3694354
212	0xbf601621	-0.87533766
213	0x3e485fb3	0.19567756
214	0xbe01c356	-0.12672171
215	0xbd5f86e4	-0.054572
216	0xbdbd3220	-0.09238076
217	0xbdb8cc96	-0.09023397
218	0xbebd0b92	-0.3692289
219	0xbdf13384	-0.11777404
220	0xbf46742f	-0.7752103
221	0x3e097833	0.13424759
222	0x3e11b64f	0.14229701
223	0x3dcb6b5a	0.09932585
224	0xbf7825af	-0.969325
225	0x3d888e8f	0.06667816
226	0xbdc5cf9e	-0.096587405
227	0x3e4c0db2	0.199271
228	0xbd54c5a7	-0.05194631
229	0xbd5c8c32	-0.05384464
230	0xbe5fbfcf	-0.21850513
231	0xbf82ed58	-1.0228682
232	0x3db29980	0.08720684
233	0xbe94d979	-0.29072168
234	0x3de2159b	0.11039277
235	0xbe51973a	-0.20467845
236	0xbec1e724	-0.3787166
237	0xbc876896	-0.016529363
238	0xbd1b84b1	-0.03796834
239	0x3d9da2d3	0.07697072
240	0xbd0a0892	-0.03369958
241	0x3de8d7f0	0.11369312
242	0x3c164bfd	0.00917339
243	0xbd8d8e58	-0.069119155
244	0x3d2bb8b9	0.041924212
245	0x3e2edaf9	0.17075719
246	0x3e5f707c	0.21820253
247	0xbd208036	-0.03918477
248	0xbf1ff098	-0.6247649
249	0xbeb3d312	-0.3512197
250	0xbd9b5735	-0.07584993
251	0xbd27fca3	-0.041012418
252	0x3e1ce268	0.15320742
253	0xbf400d5c	-0.75020385
254	0x3dbbb25b	0.09164878
255	0xbe1d4512	-0.1535838

convt2.bias f4 [16]
0	0x3ddd113c	0.10794303
1	0x3e258680	0.16164589
2	0x3cb7cb42	0.022435788
3	0x3c9e4cd0	0.019323736
4	0x3db4bbbe	0.088248715
5	0xbb8b2db0	-0.0042473897
6	0x3dce0d86	0.10061173
7	0xbe39cdd0	-0.18144917
8	0x3e18485d	0.14871354
9	0x3d35d262	0.04439009
10	0xbb458469	-0.0030138737
11	0x3e28d38b	0.16486947
12	0x3c9e7fd7	0.019348068
13	0x3dd6cca4	0.10488251
14	0x3b9f4bf7	0.0048613506
15	0xbc2a444f	-0.010392263

convt3.weight f4 [16, 32, 9, 9]
0	0xbcb78943	-0.022404319
1	0x3a98bab4	0.0011652322
2	0xbd8d2c97	-0.068932705
3	0x3da84a54	0.08217302
4	0x3c821224	0.01587779
5	0xbae10574	-0.0017167763
6	0x3e25c286	0.16187486
7	0xbbd3d851	-0.006464996
8	0x3d8be03e	0.0682988
9	0xbe029abe	-0.12754342
10	0xbd2d7b49	-0.042353902
11	0x3cc21c6f	0.023695199
12	0xbc0fe7b6	-0.008783272
13	0xbd9f8aab	-0.07790121
14	0x3c450ce5	0.012027
15	0x3c3e666c	0.011621099
16	0xbd7caa59	-0.061685894
17	0x3d4313af	0.047626194
18	0xbc4d314a	-0.012523958
19	0xbc442688	-0.011972077
20	0xbcad9c77	-0.021192772
21	0x3b7635a7	0.00375686
22	0xbd59bf79	-0.05316112
23	0x3d7d5106	0.061844848
24	0x3d90cb44	0.0707002
25	0x3cd6ddcb	0.026228806
26	0xbb45a988	-0.0030160863
27	0x3d3312e9	0.043719206
28	0x3bf2cf56	0.0074099703
29	0x3c0e656a	0.008691171
30	0x3dc6c3a4	0.09705284
31	0x3c4234c4	0.011853401
32	0x3d2444ec	0.04010479
33	0x3e1eea44	0.15519053
34	0xbdac60aa	-0.08416875
35	0x3e2d8503	0.16945271
36	0xbd0e22dc	-0.034701213
37	0x3d2cbfc0	0.042175055
38	0xba2901c3	-0.0006447101
39	0x3d86dcbf	0.06585073
40	0x3cbc1e71	0.022963734
41	0x3d80c6f3	0.062879466
42	0x3d9638e8	0.07335073
43	0x3d5abfdd	0.05340563
44	0x3d27430a	0.040835418
45	0xbd88237a	-0.066473916
46	0xbcaeef0c	-0.02135422
47	0xbcd2d2c9	-0.025735276
48	0x3c63bf0f	0.013900532
49	0xbd2cf901	-0.042229656
50	0xbd1329d9	-0.03592858
51	0x3bde9dfc	0.0067937355
52	0xbcb4dd97	-0.022078319
53	0x3e5a2fae	0.21307251
54	0xbdee1ad6	-0.11626212
55	0xbd3a19a1	-0.045434598
56	0xbcaeac63	-0.021322435
57	0x3d3253df	0.043537017
58	0x3c7a1771	0.015264378
59	0x3d0a2160	0.033723235
60	0x3df2d9f8	0.118579805
61	0x3b7c8c4d	0.0038535774
62	0x3de4bba1	0.111686
63	0xbbcb9533	-0.0062128543
64	0x3c76aeef	0.015056356
65	0xbd54ec58	-0.051983207
66	0x3dc1b2f9	0.094579645
67	0xbaa1b7a3	-0.0012338053
68	0xbcd83d6b	-0.026396474
69	0x3de3b5b9	0.11118645
70	0x3afd87a1	0.0019342789
71	0x3c8f6af3	0.017507052
72	0x3d47769b	0.048697095
73	0x3db3e48b	0.087838255
74	0xbd5c930e	-0.05385118
75	0x3d632284	0.05545284
76	0x3d82b0dc	0.063813895
77	0x3cec5801	0.028850557
78	0x3e1732f2	0.14765528
79	0x3da62b87	0.08113771
80	0x3e088dcb	0.1333534
81	0x3a279efa	0.0006394234
82	0x3e292b5b	0.16520445
83	0xbd221727	-0.03957286
84	0xbba4adb1	-0.0050255884
85	0x3e430200	0.19043732
86	0xbd3b97b9	-0.04579899
87	0x3c33d233	0.010975408
88	0x3e2a91b4	0.16657144
89	0xbcfb5d71	-0.030684205
90	0x3eb03f96	0.34423512
91	0x3e82a5be	0.25517076
92	0x3bdfb769	0.006827284
93	0x3db83d6b	0.089960895
94	0x3e675ffa	0.22595206
95	0xbd18f3f7	-0.037342038
96	0x3e2e3fcf	0.17016529
97	0x3c9c03fe	0.019044872
98	0x3b0e8293	0.0021745309
99	0xbdfacada	-0.12245722
100	0xbd46ee8d	-0.048567344
101	0x3e8445db	0.25834545
102	0xbe2a2eb0	-0.16619372
103	0xbd8586f4	-0.06519881
104	0x3e2b7af0	0.16746116
105	0xbd6ca8a7	-0.057778027
106	0xbd8353ee	-0.06412493
107	0x3e9ce0f3	0.30640373
108	0xbc943e2b	-0.01809605
109	0x3e90abd3	0.2825609
110	0xbc24195f	-0.010015815
111	0x3a589a0b	0.00082627
112	0x3e49fa52	0.19724396
113	0x3c1a649d	0.009423402
114	0xbc1392bc	-0.009007152
115	0x3e80bbb2	0.251432
116	0xbc586afd	-0.013209102
117	0x3ed11473	0.40835914
118	0x3e9828f7	0.29718754
119	0xbd3cde75	-0.04611059
120	0x3e93debb	0.28880867
121	0x3e79bc33	0.24388199
122	0xbd273c6b	-0.040829103
123	0x3e8d3a9c	0.27583778
124	0x3e3d54fe	0.18489453
125	0xbcbd672f	-0.02312049
126	0xbdf1b66a	-0.11802371
127	0xbd83c99e	-0.0643494
128	0x3eb5566a	0.3541749
129	0xbd2e014d	-0.04248171
130	0xbcd1ea6b	-0.025624475
131	0x3e631cc6	0.22178945
132	0xbdedf06a	-0.11618121
133	0xbd000553	-0.031255078
134	0x3e887d53	0.26658115
135	0x3b656b80	0.0035006702
136	0x3e88acdb	0.26694378
137	0xbcb916d9	-0.022593902
138	0xbc81c6a3	-0.015841788
139	0x3e749d6d	0.23888178
140	0x3bd8d0c7	0.006616685
141	0xbd22ca7b	-0.03974388
142	0x3e2b942a	0.16755739
143	0xbc8a47a3	-0.016879862
144	0x3ef92907	0.48664114
145	0x3e774d7e	0.24150655
146	0x3c008dc3	0.007846299
147	0x3e983e3f	0.2973499
148	0x3e7af1f1	0.24506356
149	0xb83ebbd2	-4.547445e-05
150	0x3ea1ece5	0.3162605
151	0x3e4a849b	0.19777147
152	0xbd00c8ec	-0.031441614
153	0xbea3a604	-0.31962597
154	0xbc9fc75b	-0.01950424
155	0x3ef87b80	0.48531723
156	0xbe95f63a	-0.29289418
157	0xbd49436d	-0.049136568
158	0x3eaf8bb9	0.34286287
159	0xbe7fb84f	-0.24972652
160	0xbd02fc52	-0.031978913
161	0x3e930531	0.28714898
162	0x3d2546b9	0.04035065
163	0x3cdb89b3	0.026799059
164	0x3c965902	0.01835299
165	0xbc63d4af	-0.013905688
166	0x3935f03e	0.00017351002
167	0xbc87e65b	-0.016589334
168	0xbd5df9c8	-0.054193288
169	0x3d0397f2	0.03212733
170	0xbd32b1bb	-0.04362653
171	0x3da2eadb	0.079549514
172	0x3d7d654e	0.06186419
173	0x3d1563a7	0.03647199
174	0xbb7eaa17	-0.0038858706
175	0x3d0d882f	0.034553703
176	0x3d2db99c	0.04241334
177	0x3d16c9b1	0.03681344
178	0x3db39a33	0.087696455
179	0x3d96318f	0.07333671
180	0x3d8bf38f	0.068335645
181	0x3d23fb54	0.040034607
182	0x3d61b1a2	0.055101044
183	0x3d689b17	0.05678853
184	0x3cc9f593	0.024653232
185	0x3d1efae2	0.03881348
186	0x3af32552	0.0018550551
187	0xbc32b45d	-0.01090726
188	0x3c80864a	0.015689034
189	0x3d1ed6be	0.038779013
190	0x3c423267	0.011852837
191	0x3d358e46	0.044325136
192	0x3d4d3e2e	0.050108127
193	0x3d1082d3	0.035281014
194	0x3d406900	0.046975136
195	0xbc9234a4	-0.017847367
196	0xbc168492	-0.009186881
197	0x3c0a8a5f	0.008455842
198	0x3dbc9565	0.09208182
199	0x3dd250b0	0.10269296
200	0x3b09ea44	0.0021044174
201	0xbc43a13c	-0.011940297
202	0x3daa3957	0.08311718
203	0x3d694f65	0.056960482
204	0xbbb7b7e2	-0.0056066373
205	0x3d3b161b	0.04567538
206	0x3cdd3d83	0.02700687
207	0x3d350da3	0.044202458
208	0x3ca5ea20	0.020253241
209	0x3c94c89e	0.018162068
210	0xbb304f9b	-0.0026902917
211	0x3d1b11bd	0.037858713
212	0x3bbd584c	0.005778348
213	0xb93aa435	-0.00017799514
214	0x3c93be44	0.018035062
215	0x3ccb4374	0.024812438
216	0x3d867f60	0.065672636
217	0x3c0203cb	0.007935475
218	0x3d0e3832	0.03472156
219	0x3c9b78e1	0.018978538
220	0x3bb6e01d	0.0055809156
221	0x3d2c4e9e	0.042067163
222	0x3c6e5f11	0.014549033
223	0x3b2d5186	0.0026446297
224	0x3c0234a7	0.007947124
225	0x3dace087	0.08441263
226	0x3d6bbbf0	0.057552278
227	0x3c69179d	0.014226821
228	0x3d076233	0.033052634
229	0x3d778ab9	0.06043503
230	0x3d188dfb	0.037244778
231	0x3cd6efe3	0.026237434
232	0x3d91edbd	0.07125423
233	0x3d483999	0.048883054
234	0x3dfd2721	0.12360979
235	0x3d19b8b1	0.03752965
236	0x3c922d83	0.017843967
237	0x3cd6f7eb	0.026241263
238	0x3ccad27c	0.02475857
239	0x3c832441	0.016008498
240	0x3d71a48b	0.05899481
241	0x3d148c68	0.036266714
242	0x3cbb9603	0.02289868
243	0x3d19b5c1	0.03752685
244	0x3db96bd4	0.0905377
245	0x3d7d1327	0.061785843
246	0xbb46c65c	-0.0030330634
247	0xbc7719ea	-0.015081862
248	0x3dac9397	0.08426588
249	0x3d129d2d	0.035794426
250	0x3d8ce235	0.06879083
251	0x3d833027	0.06405669
252	0x3e1e7b48	0.15476716
253	0x3dbaba85	0.09117607
254	0x3ddf1516	0.10892694
255	0xbc7216bf	-0.014775931

convt3.bias f4 [32]
0	0xba622752	-0.0008627075
1	0xbe452ded	-0.192558
2	0x3e49d34a	0.19709507
3	0x3da5d361	0.08096958
4	0x3e20defb	0.1571006
5	0x3aa3bdd4	0.0012492486
6	0x3d3e5467	0.04646721
7	0x3e14836b	0.14503257
8	0xbdf15ba0	-0.11785054
9	0x3c14556b	0.009053568
10	0x3c298a85	0.010347967
11	0x3e2e1d1b	0.1700329
12	0x3db37c1b	0.087639056
13	0x3e739a17	0.2378925
14	0xbe16e6f4	-0.14736539
15	0x3e200179	0.15625562
16	0x3d2593b6	0.04042407
17	0xbe750cff	-0.23930739
18	0x3cbbfbd6	0.022947233
19	0x3d2985ee	0.04138749
20	0x3c1d5deb	0.009604911
21	0x3dcedd00	0.10100746
22	0x3e314d62	0.17314675
23	0x3d8f54ce	0.06998597
24	0x3dca112c	0.098665565
25	0x3e00d99b	0.1258301
26	0xbe06645f	-0.13124226
27	0xb90afc5e	-0.0001325472
28	0x3d7e0fbf	0.062026735
29	0x3d61d118	0.055131048
30	0x3df3ca4b	0.11903819
31	0x3cbc00e1	0.022949638

pos_output.weight f4 [1, 32, 2, 2]
0	0x3e279c5e	0.16368243
1	0x3cea4072	0.028595183
2	0xbe4271ce	-0.18988726
3	0xbe0f5750	-0.13998151
4	0x3ac24074	0.0014820234
5	0x3d095db4	0.033536628
6	0xbbdfd4df	-0.006830796
7	0x3cb2fd93	0.02184943
8	0x3e2426a9	0.16030373
9	0xbd3183ab	-0.04333846
10	0x3d0815fa	0.033224083
11	0xbd05034d	-0.03247385
12	0xbd85c97e	-0.06532572
13	0xbd57c2fb	-0.052676182
14	0xbdf699d2	-0.12041058
15	0xbe2837ff	-0.16427611
16	0x3e9d31e4	0.30702126
17	0x3e6a3501	0.22871782
18	0x3e1ffd7e	0.15624043
19	0x3e43432c	0.19068593
20	0x3e5470a9	0.20746101
21	0x3e47c289	0.19507803
22	0x3e6ae9f2	0.22940806
23	0x3e49507b	0.19659607
24	0x3ea40708	0.32036614
25	0x3e3b2db0	0.18279147
26	0x3e9a145a	0.30093652
27	0x3e4bd96a	0.19907156
28	0x3e0991cd	0.13434525
29	0xbc7b5307	-0.0153396195
30	0xbc05e21d	-0.008171585
31	0xbd4efd49	-0.05053452
32	0x3cf9207c	0.030410998
33	0x3d04fcee	0.032467775
34	0x3ca17b21	0.019712033
35	0x3d0ea83f	0.03482842
36	0xbdb7eb79	-0.0898046
37	0xbe5ba2a0	-0.21448755
38	0xbd820a27	-0.06349593
39	0xbde95548	-0.11393219
40	0x3ee9340f	0.4554753
41	0x3f04dc49	0.5189863
42	0x3f1b2d80	0.606163
43	0x3f358151	0.70900446
44	0x3e7a300b	0.2443239
45	0x3ebfab7b	0.37435517
46	0x3ec9a670	0.39384794
47	0x3ea7e88f	0.32794616
48	0x3e5ee7ec	0.21768159
49	0xbd97e6a9	-0.07417042
50	0x3c184389	0.009293445
51	0xbdac6ab0	-0.084187865
52	0x3e1241b3	0.14282875
53	0xbe5aacb0	-0.21354938
54	0x3de12a77	0.10994428
55	0x3dbadd78	0.09124273
56	0xbd4cfd66	-0.050046347
57	0xbcf4a712	-0.029864822
58	0x3dce611b	0.10077115
59	0x3c438238	0.011932902
60	0xbcbcf064	-0.023063846
61	0xbda02ff3	-0.078216456
62	0x3ca878b5	0.02056537
63	0xbde0c962	-0.10975911
64	0x3e81df4e	0.2536568
65	0x3e81a6a0	0.25322437
66	0x3e82f3a4	0.25576508
67	0x3e4854f3	0.19563656
68	0xbe5f5db3	-0.21813087
69	0xbe6c874b	-0.23098485
70	0xbe11c410	-0.14234948
71	0xbe13748d	-0.1439993
72	0x3f22c0ed	0.6357563
73	0x3f1c3e6b	0.6103274
74	0x3f05e1a5	0.5229743
75	0x3f036af5	0.5133508
76	0x3d1f3ae7	0.038874533
77	0x3d06a4a8	0.032871872
78	0xbdfc2f0c	-0.12313661
79	0x3d934672	0.07191171
80	0xbd465dde	-0.048429362
81	0xb83df851	-4.5292374e-05
82	0x3debf862	0.11521985
83	0x3dedb350	0.11606467
84	0xbe83c932	-0.25739437
85	0xbe5caa97	-0.2154945
86	0xbe886da5	-0.26646152
87	0xbe8b76e8	-0.27239156
88	0xbe150bcf	-0.14555286
89	0xbc9c5c45	-0.019086966
90	0xbdcea83d	-0.10090683
91	0xbdfb3496	-0.12265889
92	0x3de351ff	0.11099624
93	0x3da25fa6	0.079284
94	0x3c1d3e97	0.009597442
95	0x3e20d583	0.15706448
96	0x3d912ae6	0.0708826
97	0x3dbc8df7	0.09206765
98	0x3e06d58d	0.131674
99	0x3e18198b	0.14853494
100	0xbdf1c223	-0.11804607
101	0x3d6a0a10	0.057138503
102	0xbd7d13c4	-0.061786428
103	0xbdd3eac3	-0.103475116
104	0x3d4f631a	0.05063162
105	0x3bd1f6de	0.0064076027
106	0x3d3c9a98	0.04604587
107	0x3cecb803	0.028896337
108	0xbdd54997	-0.10414427
109	0xbe09282c	-0.1339423
110	0xbe132bd1	-0.14372183
111	0xbe114f0c	-0.1419031
112	0x3e9dccd7	0.30820343
113	0x3ea9015a	0.33008844
114	0x3ea499e8	0.3214867
115	0x3eb4ab00	0.35286713
116	0xbe00f157	-0.12592064
117	0x3b5b7d93	0.0033491596
118	0x3b679ac8	0.003534006
119	0x3dbe1cfa	0.092828706
120	0x3e1fc723	0.15603308
121	0x3e1c292d	0.15250082
122	0x3e61f821	0.2206731
123	0x3e71e2c9	0.23621668
124	0x3d8b7172	0.06808747
125	0x3e56de33	0.209832
126	0x3dd38381	0.10327817
127	0x3e22300d	0.15838642

cos_output.weight f4 [1, 32, 2, 2]
0	0xbdff4565	-0.12464408
1	0xbd92bd41	-0.071650036
2	0x3d2d73da	0.042346813
3	0x3df297c8	0.11845356
4	0xbdb1e971	-0.086871035
5	0xbde55d55	-0.11199442
6	0xbda3327e	-0.07968615
7	0xbde95be0	-0.11394477
8	0x3d193a2e	0.037409
9	0x3e572a2f	0.21012186
10	0x3e50f11e	0.20404479
11	0x3e89b8fb	0.2689894
12	0xbe002680	-0.12514687
13	0x3ca86cad	0.020559633
14	0x3e5325b7	0.20619856
15	0x3de5113c	0.11184928
16	0xbe9b5d04	-0.30344403
17	0xbe57c8c0	-0.21072674
18	0xbe00728b	-0.12543695
19	0xbe1eda38	-0.15512931
20	0x3c3861da	0.011253798
21	0x3d995f73	0.074889086
22	0xbe3cff51	-0.1845677
23	0xbe0e0768	-0.13870013
24	0xbf15024f	-0.5820665
25	0xbeda8a4d	-0.4268364
26	0xbf011927	-0.50429004
27	0xbed28db8	-0.41123748
28	0x3d88d155	0.06680552
29	0x3e4b9123	0.19879584
30	0x3e4848ab	0.1955897
31	0xbe1ef8c4	-0.15524584
32	0xbdd857d9	-0.105636306
33	0xbd9eb274	-0.07748881
34	0xbe0dc8a9	-0.13846077
35	0xbdfd4131	-0.1236595
36	0x3c737960	0.014860481
37	0x3d9b8a02	0.07594682
38	0xbdbd252d	-0.09235606
39	0xbdb1d147	-0.086824946
40	0xbeceeb9b	-0.40414128
41	0xbeefb267	-0.46815798
42	0xbf0e06b6	-0.5547899
43	0xbf27c03f	-0.6552772
44	0x3c0b2906	0.0084936675
45	0xbe1a42a7	-0.15064488
46	0xbe088e1e	-0.13335463
47	0xbc950ce7	-0.018194629
48	0xbde7011a	-0.11279507
49	0x3c8d0c65	0.017217824
50	0xbc7cc9df	-0.015428989
51	0x3d98f0ce	0.07467805
52	0x3e568881	0.2095051
53	0x3e8d53f1	0.27603105
54	0x3ea5e3df	0.32400414
55	0x3e07685f	0.13223408
56	0x3e301ecb	0.17199247
57	0x3c7fde6a	0.0156169925
58	0x3c4d0b04	0.012514833
59	0x3d660497	0.05615672
60	0x3e4992bf	0.19684885
61	0x3d10a40d	0.0353127
62	0x3e62bf68	0.22143328
63	0x3e213634	0.15743333
64	0x3da7eed9	0.081998535
65	0x3d92d9ec	0.071704715
66	0x3e0e6a86	0.13907823
67	0x3e1b5550	0.15169263
68	0x3ded8da0	0.115992785
69	0x3dc1ce56	0.094631836
70	0xbda8d06c	-0.08242878
71	0xbdc74fae	-0.097319946
72	0xbf517978	-0.8182597
73	0xbf554760	-0.83312035
74	0xbf17c1b5	-0.5927995
75	0xbf1f81fa	-0.62307703
76	0x3d89d4f1	0.067300685
77	0xbe8dd299	-0.27699736
78	0x3e84d7a8	0.25945783
79	0xbd7750a0	-0.060379624
80	0x3e581a44	0.2110377
81	0x3e0a1ed3	0.13488321
82	0x3dc06cfc	0.09395787
83	0x3cd7a1ec	0.026322328
84	0x3e86c63e	0.26323122
85	0x3e958ed5	0.29210535
86	0x3ea038ca	0.31293327
87	0x3e9981bc	0.29981792
88	0xbefc92aa	-0.49330646
89	0xbecbdebb	-0.39818367
90	0xbe8f69ed	-0.28010502
91	0xbf013d35	-0.5048402
92	0x3d60d863	0.054893862
93	0x3de5673c	0.11201331
94	0xbdd528b8	-0.10408157
95	0x3db7fb08	0.08983427
96	0xbe8fb755	-0.2806956
97	0xbeba91be	-0.36439317
98	0xbeca4adc	-0.39510238
99	0xbe90e6ba	-0.2830103
100	0x3d9e72eb	0.077367626
101	0x3d895c17	0.06707018
102	0x3e2a783c	0.16647428
103	0x3df8b76c	0.1214436
104	0x3c0228c9	0.007944294
105	0x3da3d717	0.080000095
106	0xbe5caf5d	-0.21551271
107	0x3ba9dd42	0.0051838467
108	0x3f0fdd48	0.56197023
109	0x3f127767	0.57213444
110	0x3ee4ef88	0.44713998
111	0x3eec05f9	0.46098307
112	0xbec9a0b6	-0.39380425
113	0xbed0e9e4	-0.40803444
114	0xbec7cc9a	-0.39023286
115	0xbedc57fa	-0.4303587
116	0x3d98d075	0.07461635
117	0x3d3c6ef6	0.046004258
118	0x3e102c75	0.14079459
119	0x3d9a2f5a	0.07528563
120	0xbe8c8e50	-0.27452326
121	0xbe8b02ff	-0.27150723
122	0xbf00f117	-0.50367874
123	0xbefa4c3f	-0.48886296
124	0x3d345ab2	0.044031806
125	0x3e03fd3c	0.1288957
126	0xbca191c4	-0.019722827
127	0x3df19214	0.1179544
