ggcnn_base/output/models/221204_2000_training_example/epoch_22_iou_0.74_statedict.pt (torch, 256417 bytes, 16 tensors)

conv1.weight f4 [32, 1, 9, 9]
000000 77 dd 9c bd ac f7 04 be 8e 41 83 bd a1 04 fc bd
       -0.076594286 -0.12985104 -0.06408988 -0.123055704
000010 fd 61 03 be 23 41 6f bd 6d 24 b7 bd 89 95 06 be
       -0.12830348 -0.05841173 -0.089424945 -0.1314298
000020 b2 91 fa bd 7c 27 be bd 4b bc 96 bd 6d 33 7f bd
       -0.122348204 -0.09284875 -0.07360133 -0.062304903
000030 e5 10 f0 bd 91 14 89 bd 61 3f d3 bd 4c f9 bc bd
       -0.117219724 -0.06693376 -0.10314823 -0.09227237
000040 ee 43 98 bd 34 f6 7c bc 58 ee 6c bd 31 ad ba bd
       -0.074348316 -0.015439559 -0.05784449 -0.09115065
000050 68 b3 4a bd 44 ae 9d bd cc 0d d8 bd 90 89 b8 bd
       -0.0494875 -0.07699254 -0.105495065 -0.09010613
000060 d7 ad 46 bd 2a 70 92 bd 5f e1 a1 bd 67 71 4e bd
       -0.04850563 -0.071503 -0.07904314 -0.050401118
000070 39 29 99 bd 8c 2f 0a bd 2a 99 3e bd f0 49 8f bd
       -0.07478566 -0.03373675 -0.046532787 -0.06996524
000080 87 ba 63 3c 97 6b 02 3c 16 b9 69 bd 25 24 c9 3c
       0.013899452 0.007960222 -0.057061277 0.024553368
000090 39 77 5e bd 55 e4 57 bd 9c 95 74 bd 4d 2e 40 bd
       -0.05431292 -0.05270799 -0.05971299 -0.046919156
0000a0 d9 65 8d bd a0 fa 30 bc b1 e0 d7 3c 5a cb 19 3d
       -0.069041915 -0.010801941 0.026352258 0.037547447
0000b0 74 96 30 bd da 6d de bb f4 f9 9b 3c 7c 5e 0d bd
       -0.043112233 -0.0067879977 0.019040085 -0.034513935
0000c0 4b 11 67 bd f3 87 04 3d 21 67 fa bc b2 d6 62 bc
       -0.056412976 0.032356214 -0.030566754 -0.013845133
0000d0 72 28 d2 3c 2d dd 5c 3d f3 0d be 3c 8a fb 6c 3d
       0.025654051 0.053921867 0.02320001 0.057857074
0000e0 2d f7 b3 3d 08 72 7a 3d ad c8 0b 3e b6 5e ed 3d
       0.087873794 0.061143905 0.1365077 0.1159033
0000f0 7d 3c ee 3d ab d2 80 3d 48 93 87 3d e9 23 f0 3d
       0.11632631 0.06290182 0.066198885 0.11725599
000100 a6 38 85 3d b4 ed c6 3d 0f cb c5 3d db cb 03 3e
       0.065049455 0.09713307 0.09657871 0.12870733
000110 17 bb 15 3e c4 ca 94 3d eb 4c 00 3e a3 ff c6 3d
       0.1462215 0.07265237 0.12529342 0.097167276
000120 1f ae f7 3d 6a 3b c7 3d 77 8b 01 3e 38 58 e0 3d
       0.12093758 0.09728129 0.12650858 0.109543264
000130 fe 40 89 3d 3b 16 a7 3d 5f d5 28 3e e4 33 fc 3d
       0.067018494 0.08158537 0.16487645 0.12314585
000140 ea 3e ec 3d 80 f8 80 bc c0 8a 77 bc 91 0f fa 3c
       0.115354374 -0.015743494 -0.015108764 0.030525
000150 99 a7 02 3e 84 48 1e 3e 3a c8 02 3e 93 50 59 3e
       0.12759246 0.1545735 0.12771693 0.21222143
000160 7a 90 98 3e 2f 62 d0 3e 95 51 19 be e4 ca f0 bd
       0.29797727 0.40699908 -0.14972527 -0.11757448
000170 7e c9 9e bd 1c 8d 16 bd 2e 0d 05 3c a4 0f ae 3d
       -0.07753275 -0.036755666 0.008120818 0.08499077
000180 21 2b 11 3e a7 98 71 3e df cb 9a 3e c4 f2 70 be
       0.14176609 0.23593388 0.30233666 -0.23530108
000190 5b 33 34 be c7 b3 f5 bd 65 6c f7 bd 65 ce 82 bd
       -0.17597716 -0.119971804 -0.120812215 -0.06387023
0001a0 bc 60 9e bc 63 18 06 3b a8 82 b5 3d b0 01 60 3e
       -0.019333236 0.0020461313 0.08862811 0.21875644
0001b0 e5 43 c2 bd 71 d4 65 bd 17 13 ef bc c8 1a 66 3d
       -0.09485606 -0.056110803 -0.029183907 0.056177884
0001c0 21 cd 2b 3d 4b 34 87 3d ab 07 c2 3d 76 89 6c 3e
       0.041943673 0.06601771 0.09474119 0.23099312
0001d0 d4 ae 99 3e eb f0 12 be f7 1f a2 bd 20 bc bb bd
       0.30016196 -0.14349715 -0.07916253 -0.09166741
0001e0 6b a1 0e bd 57 ff 33 bd 05 6e 8f 3c 38 60 ff 3d
       -0.03482191 -0.043944683 0.017508516 0.12469524
0001f0 05 1b 33 3e 10 40 49 3e 9b dd 58 be 70 75 2b be
       0.17490776 0.19653344 -0.21178286 -0.16744018
000200 71 66 fd bd eb 91 aa bd 9e 64 8c bd 87 40 d1 bb
       -0.12373055 -0.08328613 -0.06855129 -0.006385866
000210 38 b4 c1 3d ee 7e 27 3e 37 39 55 3e b7 c7 45 be
       0.09458202 0.16357014 0.20822607 -0.19314466
000220 93 ea 43 be 07 14 55 be fd 41 09 be 5b 63 b8 bd
       -0.19132452 -0.20808421 -0.13404079 -0.090033256
000230 44 04 b1 bb 42 01 91 bc 9a d6 e9 3d 89 75 4d 3e
       -0.00540212 -0.017700795 0.11417885 0.20064367
000240 0e 2d 66 be 3e b1 3c be 38 7f 55 be 1f bb 81 bd
       -0.22478124 -0.18426988 -0.20849311 -0.06334519
000250 d6 e1 f7 bd 7c c0 03 bd 32 e2 86 3c d9 79 ec 3d
       -0.12103622 -0.03216599 0.01646528 0.11546678
000260 91 7b 40 3e 5d 1b 48 be a7 69 57 be da e9 1f be
       0.18797137 -0.19541688 -0.21036397 -0.15616551
000270 43 6a 8f bd ad c2 4a bd 2a 4a 4d bc b7 6f 99 3d
       -0.0700269 -0.049502064 -0.012529889 0.07492011
000280 7f cc 0a 3e 84 1f 80 3e 26 8a c6 bb 11 88 9f bb
       0.13554572 0.25024045 -0.006058949 -0.0048685153
000290 16 af 75 bc cf c2 3e bc c1 07 8f 3b b9 ef 1e 3c
       -0.014995357 -0.011643126 0.004364938 0.009700709
0002a0 92 db 91 3c 0a 34 3e 3d 6b ce 23 3d 80 bc 06 bd
       0.017804895 0.046436347 0.039991777 -0.03289461
0002b0 a0 31 30 bd d7 0e 21 3b 8b f8 aa 3b ce 16 29 bd
       -0.043016076 0.0024575496 0.005217617 -0.041281514
0002c0 27 d4 f4 3c 44 ef e2 3c 5d a5 d7 bc 17 70 1a 3d
       0.029886318 0.027701981 -0.026323969 0.037704553
0002d0 57 e6 8e 3c ef af 91 3c d4 fa 02 bd 6a 13 ca 3c
       0.017443819 0.017784087 -0.03197749 0.02466746
0002e0 da 69 76 bc fd 54 27 bd 13 9a dc bb 25 e7 24 3d
       -0.015039885 -0.040852536 -0.0067322343 0.0402595
0002f0 54 b3 c9 bc 02 90 00 bd f0 62 13 3b 9e 98 95 bc
       -0.024621643 -0.031387337 0.0022489391 -0.01826125
000300 00 7b bd bc a3 6f 26 3d a9 42 31 3c cf 9c 1e 3c
       -0.02312994 0.04063381 0.010819116 0.009680941
000310 5c 5c 98 ba a5 c4 27 3d 3d e5 15 3d 71 d8 00 bd
       -0.0011624205 0.04095902 0.03659557 -0.031456415
000320 5c 26 eb bb 82 2d 27 3d ad fe 8f 3c 8b 29 10 bc
       -0.0071762037 0.040814884 0.017577494 -0.008798967
000330 6a 1d 02 bd db e0 8c bc 29 d0 c4 ba 58 6d 17 bd
       -0.031766333 -0.017197063 -0.001501565 -0.036969513
000340 9f 72 5e bc 52 94 97 bc 7a 91 07 3c f2 24 41 bd
       -0.0135771325 -0.018503342 0.00827443 -0.047154374
000350 39 4a 84 3b ac 52 23 bc 78 d4 87 bc f4 54 cb 3b
       0.0040371683 -0.009968441 -0.016580805 0.0062051956
000360 f8 44 a1 bc fe 06 4e 3c 43 27 1a 3b 9a 07 d6 3c
       -0.019686207 0.012574909 0.0023521937 0.026126672
000370 7a 2d d9 3c d1 a8 91 bc d4 0f 67 bc 10 f7 24 bd
       0.026510943 -0.017780693 -0.014102895 -0.04027468
000380 f4 c0 36 3b dd 2f 1e 3c e8 e2 6c bc 8f 9c 31 bd
       0.0027886005 0.009654966 -0.014458396 -0.043362197
000390 d6 a7 71 bb a2 03 76 bc 21 6a 90 3c 9e ef 7c 3a
       -0.003687372 -0.015015515 0.017628731 0.0009648743
0003a0 46 67 d3 bc 0f 94 28 bd a9 c3 e5 3b ab af 16 3d
       -0.02580608 -0.041156825 0.00701185 0.036788624
0003b0 89 6d 26 3d 00 d9 ba bb 05 e7 23 bd 0e 3d d6 3c
       0.040631805 -0.005702138 -0.04001524 0.02615216
0003c0 d8 10 4e bc f0 5f a8 bc 30 d8 05 bd cd e1 e6 be
       -0.012577258 -0.020553559 -0.032676876 -0.45094147
0003d0 37 d1 16 be 43 19 ed 3d 7a d5 d0 be 09 2d 9a be
       -0.14728247 0.11577084 -0.4078787 -0.30112484
0003e0 cb a6 8e be 8b e1 6e be 66 0d 89 be aa cd fd be
       -0.27861628 -0.23328225 -0.26768035 -0.49570972
0003f0 76 bb 16 be b1 71 24 3e 9a f9 af 3e 82 cf 76 bd
       -0.14719948 0.16058995 0.34370118 -0.06025649

conv1.bias f4 [32]
000000 84 67 53 be f1 bc e9 3d fe df dd bd d2 1c 8a 3c
       -0.20644957 0.11412991 -0.10833739 0.016859446
000010 d1 8c 95 3d 59 5e b0 3d f8 4c 2b bd 81 05 29 3e
       0.07302249 0.086117454 -0.04182145 0.16506006
000020 90 39 9e be e7 4e 9d bb bb 02 72 3e b6 b1 0d be
       -0.30903292 -0.0048006657 0.23633854 -0.13837323
000030 67 bc 84 be d6 f6 b1 bc 3a 78 28 bc b0 46 18 bc
       -0.2592499 -0.021724146 -0.0102825705 -0.009294197
000040 21 49 30 3c 86 1f ab bd 26 f6 6d be 5e 03 95 bd
       0.010759623 -0.08355622 -0.2323843 -0.07276033
000050 09 82 25 be fd 29 85 3e ff 15 34 3c a9 72 cd bd
       -0.16162886 0.26008597 0.010991572 -0.10031635
000060 64 c3 89 be 75 ad 49 bd 58 7f ca bd e9 46 01 bb
       -0.26906884 -0.049237687 -0.0988757 -0.0019726104
000070 e5 f8 d0 bd a5 46 c7 bd 88 5d 8f 3d 07 13 8b bb
       -0.10203723 -0.09730271 0.070002615 -0.0042442116

conv2.weight f4 [16, 32, 5, 5]
000000 e0 01 55 be ba 2b 0c be 00 28 6c bd 0d a8 94 bd
       -0.20801497 -0.13688555 -0.057655334 -0.07258616
000010 18 fc 05 be eb 82 f4 bc 30 c2 06 bd 16 6d 0c 3d
       -0.13084447 -0.029847583 -0.032900035 0.03428372
000020 a9 7b f8 3c c5 82 7d bc 83 37 9a bd 71 d1 94 bd
       0.030332403 -0.015473072 -0.07530119 -0.0726651
000030 3a 6e 98 bd 5f 96 24 3d 7a 5a e8 3c a6 a4 16 be
       -0.07442899 0.040182468 0.028363455 -0.14711246
000040 d1 e6 13 be 33 07 95 bd 39 38 1f be cd 98 a1 bc
       -0.14443518 -0.07276764 -0.15548791 -0.019726181
000050 69 86 e9 bd fb d7 5c bd 77 7b 74 3d 4d a8 c7 3c
       -0.1140259 -0.053916913 0.059688058 0.024372244
000060 cb 47 18 3c bb 69 a8 bd 57 7e 74 bc 5a 66 2b 3d
       0.0092944605 -0.082232915 -0.0149227 0.041845657
000070 25 c8 b1 bd c4 b3 59 bd 9c 36 4c bd f0 f1 a8 bc
       -0.08680753 -0.053149953 -0.049856767 -0.020623177
000080 1a 3c 07 3d 82 65 2a be 56 e0 1d bd 14 3e e4 3c
       0.0330163 -0.16640285 -0.03854402 0.027861632
000090 56 82 c9 3d c0 24 ec 3c d4 07 fd bd ad 48 f3 bd
       0.09839313 0.028826118 -0.12355009 -0.11879096
0000a0 bd 62 f6 bb 18 97 91 3d cc 42 e9 3c 55 77 83 bc
       -0.0075190947 0.07108897 0.028474234 -0.016048113
0000b0 0a b8 8b bd ca cc b8 3c 8e 03 dd 3d c1 a2 cf 3d
       -0.06822212 0.022558589 0.10791694 0.10138465
0000c0 61 3f 6a 3d 54 3c 32 3c ff 23 90 3c d9 cd 86 3d
       0.05718935 0.010878641 0.01759529 0.06582231
0000d0 4a 74 3a 3d 42 36 26 3c 66 2e b4 bc 79 99 0a bd
       0.04552106 0.010144772 -0.02199478 -0.03383777
0000e0 25 14 18 bd f6 35 17 3c 37 ed 82 3d fc 66 0b bd
       -0.037128586 0.009229174 0.063929014 -0.03403376
0000f0 d6 42 bd 3c 2a 86 a2 b9 39 b9 91 3c 5d 50 16 bd
       0.023103159 -0.00030999008 0.017788516 -0.036697734
000100 f9 bf 7f 3c 54 cd ee 3c f4 1f a0 3c ab b7 fd bc
       0.015609735 0.029150642 0.019546486 -0.030971369
000110 cc d0 bc 3c 2a e3 47 bc 52 fc c5 3c ed 88 2b bc
       0.02304878 -0.012200156 0.024168167 -0.010469657
000120 1b 02 df 39 f4 6e 3a 3d b0 e5 58 3d 0e c4 1b bd
       0.00042535443 0.04551597 0.052953422 -0.03802877
000130 c3 8c 1d 3d 66 69 a9 3a f9 db 44 bd fe 7a 50 bb
       0.03846432 0.0012925088 -0.048061345 -0.003181159
000140 b7 0f 7c bc 82 17 b9 bc 65 74 90 bd 21 55 b3 3c
       -0.015384606 -0.022594217 -0.070534505 0.021891179
000150 79 28 ad 3d c0 e6 b1 bd 3e bc 7b bd 97 af 21 bd
       0.08454985 -0.0868659 -0.06145882 -0.039474096
000160 a4 14 42 bd 0e 73 dd bb ef ff 61 3d 66 4c 3c 3d
       -0.047382966 -0.0067581004 0.055175718 0.045971297
000170 c2 fb 30 3c 2f b8 b2 3c 89 e8 e3 3d 77 17 3e 3b
       0.010802211 0.021816341 0.11128337 0.0029005685
000180 e6 f0 92 3d a3 75 33 3d af 31 e4 3d c1 eb 03 3e
       0.07174854 0.04381336 0.11142289 0.12882902
000190 57 9f e8 3d 48 5c ba 3c 9d b6 a3 3c ab 9d 12 bd
       0.11358517 0.022749081 0.019984538 -0.035794895
0001a0 17 44 8d bd 74 d6 f0 3d cb a4 86 3c 24 82 b1 bd
       -0.06897753 0.11759654 0.016436001 -0.086674005
0001b0 d1 bc a5 bd cf be b7 bd 86 51 91 3d cd cc c4 bc
       -0.080926545 -0.08971941 0.070956275 -0.024023438
0001c0 6b ad 53 bd 9d 9f 93 bd a0 59 b2 bd e6 c8 21 3c
       -0.051679056 -0.07208178 -0.08708501 0.009874558
0001d0 a0 43 89 3d bc 14 30 bd df a5 a6 bd 85 ff be bd
       0.067023516 -0.042988524 -0.08137106 -0.0932608
0001e0 82 06 2e bd 50 82 12 3d b2 74 ee 3b 0f c8 9b 3d
       -0.042486675 0.035768807 0.0072770948 0.076065175
0001f0 f5 e2 d2 3b a5 76 09 bd e1 e9 64 bd cc bf 3f 3d
       0.006435747 -0.033560414 -0.055887107 0.04681377
000200 1b 94 27 bd 5b 04 f7 bc 8f 8c 04 3c e8 10 92 bd
       -0.04091273 -0.030153444 0.008090152 -0.07132131
000210 2f 9a b8 3d ed 6b b4 3d d0 a7 d4 3d 58 4e 81 bd
       0.09013783 0.08809648 0.1038357 -0.06313771
000220 41 a9 57 3d b6 16 98 3d 52 27 c0 3d 28 28 16 3e
       0.052651647 0.07426207 0.093825 0.14663756
000230 bc 39 04 be 68 f6 12 be 3f 9a e3 bd 4f 16 9a bd
       -0.12912649 -0.14351809 -0.111134045 -0.07523786
000240 30 31 67 3d 71 e6 c3 bc 84 52 39 3c 98 3c b1 bd
       0.056443393 -0.023913594 0.011311177 -0.086541355
000250 97 11 96 3c 69 ad 8a 3c eb 10 27 3d 62 50 45 3d
       0.018318934 0.016928392 0.04078762 0.048172362
000260 89 84 98 bd 40 0e ac 3d 1b 2f 3a 3c 44 a1 a9 bd
       -0.07447154 0.084011555 0.01136377 -0.08282712
000270 a8 3b b7 3c da 43 84 bd 6b 48 ef 3c ab 5c ad 3c
       0.022367314 -0.06458254 0.029209336 0.021162352
000280 e1 c2 07 3d bd ae b6 bd e0 73 15 bd cf 65 c3 3c
       0.033144835 -0.089200474 -0.03648746 0.023852257
000290 a1 9c b5 3d 79 1a d0 3b 09 93 ab 3c 6e 3e d3 3c
       0.08867765 0.006350812 0.020944135 0.025786605
0002a0 bd b5 90 3d 82 42 47 3d 00 8e 95 3c 6d 0b a7 bc
       0.07065914 0.04864741 0.018256187 -0.02039119
0002b0 ac 3c 8f 3d ef 78 94 3d c2 ce 86 3d 89 60 a1 bd
       0.06993994 0.07249629 0.06582405 -0.07879741
0002c0 4d dd 68 bd c6 4d f5 bc f2 45 52 bd 0e a5 4e 3c
       -0.056851674 -0.029944312 -0.051336236 0.012612594
0002d0 2b 39 a1 bd ce 99 5c bd 17 9d 9e 3c 50 5e 1e bd
       -0.07872232 -0.053857617 0.019362016 -0.038664162
0002e0 20 82 27 3d 03 04 59 bd 4d 8e 22 bc 8c a1 ab 3d
       0.04089558 -0.05298234 -0.009921622 0.08380422
0002f0 a6 da 80 3d 75 5b bc 3d 68 88 e3 bc b3 38 a5 bd
       0.06291704 0.091971315 -0.027775005 -0.08067455
000300 ee 1b de 3b 33 74 c7 bc a4 a8 db bc 03 39 2f 3d
       0.006778232 -0.0243474 -0.026813813 0.04277898
000310 37 a9 36 bc 47 45 32 bd 6b 33 a5 3c de 97 c9 3d
       -0.011148742 -0.0435231 0.02016612 0.098434195
000320 a2 e1 10 bf e9 c3 91 be 0f 46 25 be ff 04 d5 bd
       -0.5659429 -0.2846978 -0.16140006 -0.104013436
000330 31 bc 32 bd bb 0f 88 be 0b 31 67 bd e2 70 84 bd
       -0.043636505 -0.265745 -0.056443255 -0.06466843
000340 05 93 92 bd 3d 0c 25 3d f7 ba 88 be 89 b8 b2 3c
       -0.07156948 0.040294874 -0.26705143 0.021816509
000350 79 1d 9a 3d 92 ca 18 3a 52 75 30 3d df 9d b8 bd
       0.07525153 0.0005828525 0.043080635 -0.090144865
000360 a3 fd 12 bd 3f cb df 3d 22 a4 14 bd 3a 28 4b bd
       -0.035886418 0.10927438 -0.03628934 -0.04959891
000370 b2 c8 a6 bd 51 48 32 bd d1 bb 82 3b 1c bd 65 bb
       -0.08143748 -0.043525998 0.0039896746 -0.0035055345
000380 55 6d 7d bc 75 99 71 be ab 4f 11 be 07 76 e1 bc
       -0.015467961 -0.23593695 -0.14190547 -0.0275221
000390 53 29 a6 bd 3a eb 9e 3e 18 5f d7 bd f2 ed e6 bd
       -0.08113351 0.3103884 -0.105161846 -0.11275853
0003a0 25 94 cb bd 02 0f 55 be f8 4f a5 3c 85 cb 86 bd
       -0.09940366 -0.20806506 0.020179734 -0.06581787
0003b0 32 d3 7e bc 1f 74 88 bc fc 8a 88 be c7 94 24 bc
       -0.015553283 -0.016656933 -0.26668537 -0.010045237
0003c0 76 df 08 3e 9a 2b 39 3e 66 b1 7c 3d 54 a4 6a be
       0.13366494 0.18083039 0.061692618 -0.22914249
0003d0 1b 7e e3 bd 74 0c 01 3e 33 2d 0c 3e b0 69 2b 3e
       -0.11108037 0.12602407 0.13689117 0.16739535
0003e0 18 0a 23 be bc 77 95 3d 53 97 92 3e f0 23 76 3e
       -0.15921819 0.07298228 0.28631076 0.24037147
0003f0 b9 ef 30 3e 72 ff 3b 3d 42 38 ce 3d b1 df 29 3e
       0.17278947 0.04589791 0.10069324 0.16589238

conv2.bias f4 [16]
000000 db cb ac 3c 7a 09 58 3e 51 1a 7b bd 15 6a 44 bd
       0.0210933 0.21097365 -0.061304394 -0.04795273
000010 40 d8 14 bd d1 f4 4f 3c 98 b8 41 3c 88 a1 99 3d
       -0.036339045 0.012692646 0.011823796 0.07501513
000020 ce 8b 11 3e b6 1a 96 bd c5 a1 1e 3e e9 3b 55 bd
       0.14213488 -0.073293135 0.15491398 -0.052059088
000030 ed 45 7b bd 98 5f 7c 3c 95 6b e9 3d 59 d4 61 bd
       -0.061345983 0.015403651 0.11397473 -0.05513415

conv3.weight f4 [8, 16, 3, 3]
000000 db d2 d1 bd 4c 43 e6 3d b3 b7 45 bd 16 aa b2 3d
       -0.102452956 0.112433046 -0.048270892 0.087238476
000010 ee 86 14 3e 77 c3 9f 3d 93 3b 87 bb 86 cc c2 bd
       0.14504597 0.07800954 -0.004126975 -0.09511666
000020 74 4e d3 3d 0d 24 d2 be ac 56 22 bd 1b 6f c0 bd
       0.10317698 -0.4104313 -0.039633438 -0.09396192
000030 35 c2 9f be b1 fa 18 3e 9f 34 c0 bc ff 89 fe bd
       -0.31202856 0.14939381 -0.023462592 -0.124286644
000040 d6 08 38 3e 38 02 a3 3e d8 12 07 3e 9a a2 a5 bd
       0.1797212 0.3183763 0.13190782 -0.080876544
000050 1b e7 4c 3d 0b 83 0f be 59 54 6c 3d e3 d7 38 bd
       0.050025087 -0.14014833 0.057697628 -0.04512776
000060 b8 c3 88 bd 72 f9 1b 3d 15 51 57 bd 5e ae fd 3d
       -0.066779554 0.038079686 -0.05256756 0.123867735
000070 51 d0 0c be 8e 6f 1d be fd 4e ab 3d c1 10 6d bd
       -0.13751341 -0.15374586 0.08364675 -0.057877306
000080 b5 61 c7 3d db de 17 be b0 50 38 bc 95 34 60 bc
       0.09735433 -0.14831106 -0.011249706 -0.0136844115
000090 91 68 23 3e d1 54 1b 3e 46 57 c0 3d 9f 0e b6 3c
       0.15957858 0.15169074 0.09391646 0.022223769
0000a0 35 80 2c 3e b9 69 23 bb ae b4 88 3d f1 26 ed bd
       0.16845782 -0.0024934842 0.06675087 -0.11579693
0000b0 97 fc d2 bd e0 b9 f7 bd 78 40 25 be d7 b4 03 be
       -0.10302084 -0.12096 -0.16137874 -0.12861954
0000c0 68 b4 b1 bc 1c 4d ac 3d 07 c2 35 bd 21 95 e9 3d
       -0.02169247 0.08413145 -0.044374492 0.11405397
0000d0 e9 1c fb bd ec d4 f8 3c bd f6 19 be c4 d6 c3 3d
       -0.122613735 0.030374967 -0.1503553 0.09562448
0000e0 f7 f5 a7 bd 99 5b 3f 3c 87 d4 93 3d ed 72 0d 3e
       -0.08201211 0.011679553 0.07218271 0.13813372
0000f0 5f 2f 4f bd 42 16 19 bd ca 97 fb 3d 80 f8 03 be
       -0.050582286 -0.037374742 0.12284811 -0.12887764
000100 b4 f6 98 bd b5 7e 5f be 4e ed 14 3e ea c7 b1 3c
       -0.0746893 -0.21825679 0.1454365 0.021701772
000110 d3 e0 07 3d c4 fc 88 3e a4 8a 7a 3e 45 ee ba 3d
       0.033173393 0.26755345 0.2446695 0.091274776
000120 94 3d 8d be a0 a3 a1 be e3 f1 b7 bd c8 8c 32 3d
       -0.27586043 -0.31570148 -0.08981683 0.04359129
000130 67 b4 e0 3c 9a 06 e3 3d 29 65 0b 3e b7 04 3b 3e
       0.027429773 0.110852435 0.13612808 0.18263517
000140 cf 87 48 3e 9f 40 dc bd aa e5 dc 3d e3 c9 96 bd
       0.19583057 -0.10754513 0.107859924 -0.073627256
000150 ee bc 2a 3c 49 8c b8 3d 0a 7b 30 3e b4 b0 02 bb
       0.010421021 0.09011132 0.17234436 -0.001994175
000160 95 5b 92 bd 3b 4b d7 bd ef 75 99 bd 84 a5 22 3e
       -0.07146374 -0.10512396 -0.07493197 0.15883452
000170 ce dd 60 3e 5f 41 f1 3b ec 9f e2 bd 67 89 53 3e
       0.21959612 0.007362529 -0.11065659 0.20657884
000180 e9 8f 92 be b5 4f ad 3d bf d1 80 bd 1f 60 45 3e
       -0.2862542 0.084624685 -0.06290006 0.19274949
000190 49 6e 8d bd 12 7e 3a 3e de a2 29 3e 7b 21 d3 3c
       -0.06905801 0.18212155 0.16566035 0.0257728
0001a0 ee 2d 44 bd 3a 25 06 be de eb 91 3d d3 39 bd bd
       -0.047895364 -0.13100138 0.07125066 -0.09239545
0001b0 5d 94 86 bd 99 c5 74 3d 98 4e 8e bd 26 09 04 bc
       -0.06571267 0.059758756 -0.06948584 -0.008058822
0001c0 fe f2 a0 bd 4c 0c d9 3d 83 34 f5 3d fb b6 5d 3d
       -0.07858847 0.105980486 0.119729064 0.054129582
0001d0 aa f7 8b 3c f4 c9 1c 3e 33 6e a3 3d 9b dc ed bd
       0.017085869 0.15311414 0.07980003 -0.11614343
0001e0 87 8f 4d bd 68 34 ed 3d b5 06 38 3d 03 e3 35 bd
       -0.050185706 0.11582261 0.04492827 -0.04440595
0001f0 f5 90 b7 bd 9e 94 4f bd f4 29 fa 3d 6d 43 a7 3d
       -0.08963195 -0.05067884 0.12215033 0.08167157
000200 2d 9b 39 3e e8 30 97 3d 18 be ca bd 9f 29 bb 3d
       0.18125601 0.07382375 -0.09899539 0.09138798
000210 0a 9e 6a bd f4 db 3f be bc a8 5f 3d 1b 8c 09 be
       -0.057279624 -0.18736249 0.054604277 -0.13432352
000220 fd d5 78 bc f4 47 83 bd 6b 64 5a 3e 3e 48 51 3d
       -0.0151877375 -0.06410208 0.21327369 0.051094286
000230 18 47 83 be ac 51 ca 3d 27 09 2c 3e 9b 18 9b 3d
       -0.25640178 0.09878859 0.16800366 0.075730525
000240 95 90 82 be 49 b0 3e be b7 31 a2 3d 2e c1 87 bd
       -0.25500932 -0.18621935 0.079196386 -0.06628643
000250 a7 a4 22 be 8c 31 2b 3d 5e 4c d0 3e 28 1a 8c 3e
       -0.15883122 0.0417953 0.40683264 0.27363706
000260 29 f7 09 bc ce 87 fb bd c3 01 18 3d ba a0 5e 3e
       -0.008420744 -0.12281762 0.037111055 0.21741
000270 b3 81 15 be 54 2c ae be 86 d1 ad bc b8 be 34 3e
       -0.14600258 -0.34018195 -0.021218073 0.17650878
000280 2d a1 20 bd b3 3d cb bc c8 28 fe bc 6d b7 b8 3d
       -0.03921621 -0.024809694 -0.031025305 0.09019361
000290 a1 8d 13 be cf 31 25 be a7 06 46 3c b2 46 ba ba
       -0.14409496 -0.16132282 0.012086547 -0.0014211743
0002a0 c4 85 8d 3d b6 19 4c bc bc 19 db bd b2 1c 8f bc
       0.069102794 -0.012457302 -0.10698268 -0.017469738
0002b0 fb df 35 3d 16 55 77 3c 0a 70 76 bd 48 1c 1c be
       0.044403058 0.01509597 -0.060165443 -0.15245163
0002c0 96 3a 23 bd 04 61 0b be d7 02 f0 bc 60 99 c7 3d
       -0.039850794 -0.13611227 -0.02929823 0.09746051
0002d0 bd f4 f8 3d 97 1c e3 3d d5 77 fd 3d 51 f7 e4 bd
       0.12156055 0.110894375 0.12376372 -0.11179984
0002e0 6c bb 1e be 72 05 be bd 8d c3 2c be c6 e7 d4 bd
       -0.15501183 -0.09278382 -0.16871472 -0.1039577
0002f0 d8 98 16 3d 19 8e 18 3e 47 9c 19 be d6 d5 0e be
       0.036766857 0.14897956 -0.15001021 -0.1394876
000300 fc ae 76 3d c5 fc 05 3e 5b 1c 5d bd 3c 21 cb bd
       0.06022547 0.13084705 -0.05398212 -0.09918448
000310 eb 98 d1 bc ec b3 dd 3d b0 93 18 bd b4 79 2e be
       -0.025585612 0.10825333 -0.03725022 -0.17038614
000320 27 9c e0 3d 51 c0 94 3d c8 8a 32 bc 2e e9 99 bb
       0.10967284 0.07263244 -0.010897346 -0.0046969866
000330 80 66 12 be 29 71 14 3e 07 d2 12 be 0b 84 dc bb
       -0.14296913 0.14496292 -0.14337932 -0.006729608
000340 1d f5 96 3d 69 8a 82 3d 3b 1b 7c be 51 12 62 3d
       0.073709704 0.06374056 -0.24619763 0.05519325
000350 47 95 92 3e d1 54 99 be ee 40 e3 bd 5f 8c 91 3e
       0.28629515 -0.29947522 -0.11096369 0.28427407
000360 8e d2 ed bd a8 8c eb 3d 8d 09 b4 3d 5d d5 77 be
       -0.11612426 0.115014374 0.08790884 -0.24202485
000370 e8 e6 e5 3d 54 86 b3 3d 44 8f 4f be 4b f9 ae 3d
       0.112256825 0.087658554 -0.20269495 0.085436426
000380 a2 97 3e 3e 8e da 30 bd fd 13 0c 3e b7 91 bd bd
       0.18612531 -0.04317718 0.136795 -0.092563085
000390 b5 e8 f5 ba 1c d3 1c 3d f5 36 02 bd c1 1b c5 3d
       -0.0018761369 0.038287267 -0.031790692 0.09624434
0003a0 11 c9 da 3d bf 91 b5 bd e0 3b 23 3d ca 7d 3c be
       0.106828816 -0.088656895 0.039852023 -0.1840736
0003b0 18 a5 88 be 3d 06 85 3e 9c d6 86 bb 8d f7 53 be
       -0.26688457 0.25981322 -0.004114939 -0.20699902
0003c0 c4 76 4f 3e 0f 6f e5 3d 34 e9 6b bb 54 d3 ea 3c
       0.20260149 0.11202823 -0.0035997154 0.028665222
0003d0 cc 1d 26 bc 17 dd 83 bd 77 6a f4 3d 0d 48 dd 3d
       -0.01013894 -0.06438654 0.11934369 0.10804758
0003e0 05 92 7c bd 1c a3 cb 3d 9a 9f 2a 3a de 60 47 be
       -0.061662693 0.0994322 0.0006508768 -0.19470546
0003f0 e5 85 d3 3d 27 ee 04 be 98 49 87 3d 10 c2 d6 3d
       0.10328273 -0.12981473 0.06605834 0.10486233

conv3.bias f4 [8]
000000 60 12 b4 3d 76 79 8f be fe 5c 3c bd 81 78 ee 3d
       0.08792567 -0.28022355 -0.04598712 0.11644078
000010 81 62 16 3e 45 01 a1 3c b8 d5 83 3e b7 6e 8f 3e
       0.14686014 0.019653926 0.25748992 0.28014156

convt1.weight f4 [8, 8, 3, 3]
000000 eb 14 8f bd 72 0f db 3c 62 04 04 3e 1b 8e 74 3d
       -0.06986412 0.026740763 0.12892297 0.059705835
000010 7c a7 76 be 2b 8b ea 3d 05 25 ef 3d f3 1e f6 bd
       -0.24087328 0.114523254 0.11676983 -0.12017622
000020 e1 8f 54 3e 92 2a 0e 3c f2 aa 64 be aa 79 53 be
       0.2075801 0.008677142 -0.22330835 -0.2065188
000030 88 3e 1a bf 75 60 49 3e 0b 95 03 3e 0a 69 84 3e
       -0.60251665 0.19665702 0.12849824 0.25861388
000040 fb e2 87 3e 45 26 8b be 27 f8 dd be 14 2f 06 be
       0.2654036 -0.27177635 -0.43353388 -0.13103896
000050 0c f9 80 be 0f 6f 04 be 24 8a 43 3e 82 8e 0e 3e
       -0.25190008 -0.1293299 0.19095665 0.1392155
000060 b3 13 c7 3e d3 96 46 3e bc 3c a7 3e d8 6b d8 3d
       0.38882217 0.19393472 0.32663524 0.105674446
000070 00 17 05 3e 7f 0c a9 bd 31 fe 09 bf 84 1d fe 3a
       0.12997055 -0.082543366 -0.5390349 0.0019387458
000080 77 69 3b 3d 76 7c 30 bd 2b 52 cd be e8 1c 0d be
       0.045754876 -0.043087445 -0.40101752 -0.13780558
000090 71 7b f5 3d 49 95 f6 bd 1a b2 4e 3e 8e 06 de 3d
       0.11986435 -0.12040193 0.20185128 0.10841094
0000a0 74 54 b3 be 40 03 44 3e e8 77 d1 3d 93 21 0a 3e
       -0.3502537 0.19141865 0.102279484 0.1348937
0000b0 ec 57 65 3e c9 25 9d bd 96 66 34 3e 61 9f 9e bd
       0.22396821 -0.076732226 0.17617258 -0.07745243
0000c0 4e b5 45 be 82 4d f1 bd cb 89 6c be 92 d1 18 be
       -0.19307443 -0.117823616 -0.23099439 -0.14923695
0000d0 fd c2 a3 be 6f 78 56 be ca 6d de 3d 8c 53 fd 3d
       -0.31984702 -0.2094438 0.10860784 0.12369451
0000e0 cb 6b d5 3e 13 f0 b0 3e dc 16 62 3e 95 44 cd be
       0.41683802 0.34558162 0.22079033 -0.40091386
0000f0 b5 79 aa bd 15 fa c8 bd e8 17 97 be c5 5a e2 3c
       -0.08323995 -0.09813324 -0.29510427 0.027631173
000100 18 9a be 3e 43 9a 1b 3d e6 a4 ae 3d 55 cc 46 3d
       0.3722694 0.037988912 0.08527546 0.04853471
000110 37 af 89 bc 5b 53 a6 3c d6 16 88 be ad 41 a1 be
       -0.016807182 0.020303419 -0.26579922 -0.3149542
000120 2c b0 e7 3d cc f5 95 bd 6f 06 47 be ae 60 33 be
       0.11312899 -0.07322273 -0.19436048 -0.17517349
000130 80 2c 3b bd b4 f9 16 3e 6c e4 67 be 47 a9 c3 bd
       -0.045696735 0.14743692 -0.2264573 -0.095537715
000140 34 8d c3 3d 80 ba 38 3d c2 cc dc be 5a 60 29 3e
       0.09548417 0.045099735 -0.43124968 0.16540661
000150 20 b8 3b 3e 3c a2 cd 3d 54 94 50 3e 73 9d 85 3e
       0.18331957 0.100407094 0.20369083 0.26096687
000160 89 23 f4 bc b1 59 cf be 2c 09 4a 3e 1b 13 c3 3d
       -0.0298021 -0.40498117 0.19730061 0.095251285
000170 37 ce 92 3d 5f 17 8e bd 6d 7c 6e 3e b1 43 f1 3d
       0.071682386 -0.069380514 0.23289652 0.11780489
000180 be 24 64 3e 0b c5 97 bd d2 b5 dd be 49 32 24 3e
       0.22279641 -0.0741063 -0.4330278 0.16034807
000190 fb be fd bd 3d 3b 1b be ef 8d b3 be d6 18 24 be
       -0.12389942 -0.15159316 -0.35069224 -0.16025099
0001a0 31 98 7a 3d 02 29 5a be f8 d8 94 be a2 fc f1 bd
       0.061180297 -0.21304706 -0.29071784 -0.11815764
0001b0 a1 bb 2d bd a3 3d ff 3e 17 15 35 3e b7 86 7e 3e
       -0.042415265 0.49851713 0.17683826 0.24856077
0001c0 bd 13 82 be 6b 65 c6 3d b8 d3 8a 3e 15 ba 14 ba
       -0.25405684 0.09687313 0.27114654 -0.00056734803
0001d0 dd 71 9f 3e 1a 4c ce 3e b4 0e 2c be ca 0b 22 be
       0.31141558 0.40292436 -0.16802484 -0.1582481
0001e0 84 d9 0c bf 60 32 73 bd 78 cc e0 bd 11 e1 52 be
       -0.550194 -0.059374213 -0.10976499 -0.20593669
0001f0 9e 6c 97 3d 25 da 11 3e 62 c2 58 3e 5a b3 9f 3e
       0.07393764 0.14243372 0.21167901 0.31191522
000200 13 bf b2 3e 7f 1c 11 be ce 0d d4 bd 6c f9 37 3e
       0.34911403 -0.14171027 -0.103541955 0.1796624
000210 4a 67 98 3d 78 97 68 3c 1d 63 6d be bd 06 33 3e
       0.07441576 0.014196269 -0.2318234 0.17483039
000220 32 45 bd be 13 d8 b6 be bd f7 2e 3d 45 03 43 3e
       -0.36966854 -0.35711727 0.04271673 0.19044216
000230 5d 85 b4 ba 08 7d a0 bd 2d cb 96 3e 31 37 a8 3d
       -0.0013772656 -0.07836348 0.29451886 0.08213652
000240 53 53 f5 bd 0c a0 14 be 41 e4 ee bd 8b 07 d1 3d
       -0.119787835 -0.14514178 -0.1166463 0.10206517
000250 53 14 0d 3e 11 e6 1b be 58 d5 dc bd c7 d0 26 3e
       0.13777284 -0.15224482 -0.107828796 0.1629058
000260 04 98 e3 ba a7 ae c7 bb cb 36 fb 3d 5e aa 1f 3e
       -0.001736403 -0.006093818 0.1226631 0.15592334
000270 d1 84 22 3e df 10 38 be 9d c7 00 3e 95 f6 b6 bd
       0.15870978 -0.17975186 0.12576146 -0.089337505
000280 b9 c1 e1 bd b2 94 f0 bc 5c 28 66 bd 89 a0 ad bd
       -0.11023278 -0.029367778 -0.056190833 -0.08477885
000290 22 4e 25 3e 4e e1 58 bd 7d 5c 31 3e b1 49 a9 bd
       0.16143087 -0.052949242 0.17320438 -0.08266009
0002a0 20 8e 34 3e c7 b7 82 3d d2 79 dd bd 6a de f8 bd
       0.17632341 0.06382709 -0.10814251 -0.12151797
0002b0 dd e6 c1 3d 0e a1 51 be 17 50 cc bd 90 5c 43 be
       0.09467862 -0.20471594 -0.099762134 -0.19078279
0002c0 e7 a6 8b 3d 94 08 04 3e 86 a5 13 be fb 75 b5 bd
       0.068189435 0.12893897 -0.14418611 -0.088603936
0002d0 57 94 f6 3d a3 04 8b 3b bc cb c8 3d 22 b1 3e 3a
       0.12040012 0.004242496 0.09804484 0.00072743197
0002e0 68 bd eb bd 35 b4 53 bd 1d 52 fa 3d 8f dc b7 3d
       -0.11510736 -0.05168553 0.12222693 0.08977615
0002f0 f4 44 b4 bc 7c e9 b1 3d f1 b7 b1 3d 4b 7b 18 3e
       -0.022005536 0.08687112 0.08677662 0.14890783
000300 98 32 c8 bd 25 54 69 bd 94 e9 83 bc 0f b1 06 3e
       -0.09775275 -0.056965012 -0.01610259 0.1315348
000310 7b b6 11 be de 77 4c bb 79 a5 e2 bd 73 a8 df bd
       -0.14229767 -0.0031199376 -0.11066718 -0.10920801
000320 b4 1b 8f bd 4b 3e 29 3e 41 b0 59 3d a9 e7 50 bb
       -0.06987706 0.16527669 0.053146604 -0.0031876361
000330 f4 78 ee 3d e7 66 7d bd d8 fe 2e 3e 60 05 ab 3d
       0.11644164 -0.061865713 0.17089403 0.083506346
000340 70 50 63 3c 58 d5 bc bc a5 25 61 3d 31 35 4f 3e
       0.013874158 -0.023050949 0.05496754 0.20235135
000350 2f e0 34 be 1e 8e 08 be 09 df ea bd 0c f8 fc bd
       -0.17663644 -0.13335463 -0.11468322 -0.12351999
000360 d8 c7 90 3e 58 9a db be 2b e1 50 bd 82 19 39 3d
       0.2827747 -0.42891192 -0.050995987 0.04519034
000370 22 57 d4 be 5a f6 3f be 69 43 77 3e 37 41 25 be
       -0.41472727 -0.1874632 0.24146809 -0.16138159
000380 a1 3d 17 be 34 37 22 be 1c b6 1e be ca 45 06 3d
       -0.14769603 -0.15841371 -0.15499157 0.0327814
000390 68 ce 8e be a7 2f d7 bd fc ff d9 3e 05 46 2d be
       -0.2789185 -0.10507136 0.42578113 -0.16921242
0003a0 de 2b 22 be 14 35 55 3e 57 fb 30 be 9f 49 24 3e
       -0.15837047 0.20821029 -0.17283379 0.16043709
0003b0 16 00 3d be 77 b4 4e 3e 54 6e 21 be dd ee 6e be
       -0.18457064 0.2018603 -0.15764743 -0.23333307
0003c0 dc 8b 75 3e 00 16 e5 3c 5c 19 8f 3e 0a 07 33 be
       0.23979133 0.027964592 0.27949035 -0.17483154
0003d0 b9 4a f3 bd 32 bd c9 bd 71 f8 01 bf e7 ef 17 3e
       -0.118794866 -0.09850539 -0.50769717 0.14837609
0003e0 31 f3 51 3c 5e 13 a8 3b 1f 8a 26 be 72 7f 72 3d
       0.012814329 0.005129262 -0.16263627 0.059203573
0003f0 5c 1b ee 3b c6 53 30 3e 19 be 02 3e 3f a8 75 be
       0.007266445 0.17219457 0.12767829 -0.23989962

convt1.bias f4 [8]
000000 77 ab 08 ba ff 7e a2 3d f7 d1 ea bc 0f b2 ac bc
       -0.00052135385 0.07934379 -0.028664572 -0.021080999
000010 5e 94 51 bd 29 98 a5 3c 73 cc 7a bb 7e e5 a8 bd
       -0.051166885 0.020214157 -0.0038268834 -0.08246897

convt2.weight f4 [8, 16, 5, 5]
000000 fe b2 8d be a4 e8 8f be ae 37 22 bf 03 6f 73 bd
       -0.27675623 -0.28107178 -0.6336621 -0.05943204
000010 43 17 75 be 67 e0 5e bc 90 7e ac be 52 66 8d bf
       -0.23934655 -0.013603306 -0.3369031 -1.1046851
000020 b0 ec 13 bf ce 5d 89 be f0 54 f1 3d ba cd da bd
       -0.5778303 -0.2682938 0.11783779 -0.106837705
000030 40 cb 15 be aa 69 ca be 22 d6 11 bf 05 63 32 be
       -0.14628315 -0.3953374 -0.56967366 -0.17420585
000040 56 1a cd be cf 72 40 be f6 9b 42 be 3c b4 1f bf
       -0.40059155 -0.18793796 -0.19004807 -0.6238439
000050 52 1c 93 bc b3 0a ec be 8e fe 1a bf 3f ee e5 bd
       -0.01795784 -0.46101913 -0.6054467 -0.112270825
000060 3b f9 ee bd 1b fd 02 bf 8f 06 96 be 10 f9 f6 be
       -0.11668631 -0.5116746 -0.2930188 -0.48236895
000070 c7 f7 55 bf cb 23 04 bf 7b 72 91 be 71 d1 23 bf
       -0.83581203 -0.51617116 -0.28407654 -0.6399146
000080 5b 9c 29 be e9 9c 6e be 99 84 4d be 0f 84 74 be
       -0.16563551 -0.23302044 -0.20070113 -0.23878501
000090 ca 3c 27 be dc 9d b9 be ad 22 58 be 8f 4f 8c 3c
       -0.16331783 -0.3625325 -0.21106978 0.01712778
0000a0 3d b5 1c bf c9 68 b4 be 1e e5 90 be 1a 1c aa be
       -0.6121405 -0.35236195 -0.28299803 -0.33224565
0000b0 fb 54 85 be c5 d1 3e be 93 23 1a be 79 1b c4 3d
       -0.26041397 -0.18634708 -0.15052633 0.095755525
0000c0 8b aa ef bd 4b 2c 0b 3d 4b 32 0c 3e 41 d2 66 bf
       -0.1170245 0.033977788 0.1369106 -0.9016457
0000d0 76 7a 7f bf 76 56 91 bb 20 85 bc bd 2b 75 48 bd
       -0.99796236 -0.004435356 -0.09205079 -0.048939865
0000e0 1b c7 37 3c cd 97 a2 bd ce 3d 1a be 14 2e 80 be
       0.011216904 -0.0793911 -0.15062639 -0.25035155
0000f0 4c 86 19 3e dd 75 9e ba e2 e3 c0 3d d1 72 44 3e
       0.14992636 -0.0012089569 0.09418465 0.19184424
000100 eb 1c bb 3d e6 c7 11 be 5b 66 9a be 8f a6 62 be
       0.09136375 -0.14236411 -0.30156216 -0.2213385
000110 6d 81 08 3e f7 5b 27 bf f2 3a 1c 3e 16 46 15 be
       0.13330622 -0.653747 0.15256861 -0.14577517
000120 fb 6b 99 be 44 ee a7 3c 17 f5 25 be 50 ba 1f 3e
       -0.29965195 0.020499356 -0.16206776 0.15598416
000130 ae ee a5 bc 35 d5 8a bd 82 7f 29 be 03 24 6d bd
       -0.020255413 -0.06778947 -0.16552547 -0.05789567
000140 64 1b e6 3d b8 eb 4b be 4a be b5 3d 07 1d c8 be
       0.11235693 -0.19914138 0.088741854 -0.39084646
000150 7d aa 21 3d 44 11 38 be f8 8d 7f bd 9b b3 47 be
       0.03946923 -0.17975336 -0.06239125 -0.19502108
000160 c7 6b de be 1d 9e 1a be c6 b7 66 be eb 27 e0 3d
       -0.43441603 -0.15099378 -0.22531042 0.10945114
000170 9e a8 31 be ee ef e7 3d a7 5c 51 be f4 2c f5 3d
       -0.17349479 0.1132506 -0.204455 0.11971465
000180 c9 3c a3 3d 83 5f 47 be 24 88 25 3e 69 d1 5c be
       0.07970578 -0.19470029 0.16165215 -0.21564259
000190 fd 18 6d bd 31 0b c2 3c ff 99 e2 be d8 3f 91 bd
       -0.05788516 0.023686977 -0.44258115 -0.07092255
0001a0 41 6a 58 3d d2 74 1d bf d6 0e 24 bf 50 ae 6d be
       0.052835707 -0.6150638 -0.6408514 -0.23211026
0001b0 f5 d4 0a bf 7f 0f 09 bf 29 22 5d bf c5 b3 5d be
       -0.54231197 -0.5353927 -0.8638025 -0.21650608
0001c0 3b 75 e0 bd 0e 1d 12 bf c1 b1 10 bf b1 5c 98 be
       -0.1095986 -0.57075584 -0.5652123 -0.29758218
0001d0 3e 99 1a be 36 92 92 be 31 17 ba bd 18 90 dd bc
       -0.1509752 -0.28627175 -0.09086455 -0.027046248
0001e0 09 71 d5 be 50 7e 18 be 3b b1 7e bf ad eb d4 be
       -0.416878 -0.14891934 -0.9948918 -0.41586056
0001f0 e8 a9 78 bd 62 65 b8 be bb 8d 0c be 17 ab a8 bd
       -0.06070891 -0.3601485 -0.13725941 -0.08235758
000200 35 e0 8a bb e4 05 65 be ea ba ad 3d b1 51 a2 3b
       -0.0042381533 -0.22365528 0.08482917 0.004953586
000210 16 4a f7 bd 07 5e fc bd f1 c0 ed bd 0b 2e 3a 3d
       -0.12074678 -0.12322622 -0.11609066 0.045454066
000220 da 10 51 3d 18 7e 88 bd 87 e7 12 bd d5 8d bb bc
       0.05104146 -0.066646755 -0.035865333 -0.02289478
000230 29 41 51 be 83 f3 46 be 11 c2 33 be c3 96 e4 3d
       -0.20435013 -0.1942883 -0.17554499 0.11161568
000240 74 e4 36 be ee d2 5a 3e c8 3e bb 3d c1 ae ff bd
       -0.17860585 0.21369526 0.09142834 -0.124845035
000250 c2 28 57 be b9 04 b0 bf 9f 10 db bd e0 19 dd bd
       -0.21011642 -1.3751441 -0.106965296 -0.10795951
000260 3a f3 02 be 49 f0 66 be e6 77 70 be 34 6d 88 be
       -0.12788096 -0.22552599 -0.23483238 -0.26645815
000270 a4 b1 45 bf 1f d2 01 be bf 37 42 bf 47 35 96 bd
       -0.77224183 -0.12677811 -0.7586631 -0.073343806
000280 60 e9 68 be 9d da de bd a5 23 d4 bc 7e e8 8b be
       -0.22745275 -0.10881541 -0.025895903 -0.27325815
000290 bd 2e 6b bc 63 c4 04 bf fc 10 1d be a2 2f 3b 3d
       -0.014354405 -0.5186216 -0.1533851 0.045699723
0002a0 66 76 ab bd 8a 15 3b bf 9b 2d 55 be b4 a4 bf be
       -0.08372192 -0.7307974 -0.20818178 -0.37430346
0002b0 3b 92 19 bd 87 b7 5a 3d 47 02 9e be 7b a1 42 3e
       -0.037492972 0.05339768 -0.30861112 0.19006912
0002c0 97 68 0c bf e8 6f 42 3e b7 53 12 3e c7 88 9d 3e
       -0.5484709 0.18988001 0.14289747 0.30768415
0002d0 68 05 9e be 3e b8 9a be b9 b7 46 be c3 18 c1 be
       -0.308635 -0.3021869 -0.19406022 -0.37714204
0002e0 29 ef 31 bf 4c 4f b0 3d 4f f9 2b 3e 5f 30 80 3c
       -0.69505554 0.08608875 0.16794322 0.015648065
0002f0 dc c4 93 be d8 4d 5c 3e f6 a3 39 3d df 66 3d 3b
       -0.2886113 0.2151407 0.04532238 0.0028900427
000300 af 65 4d bf d1 8d 54 be 82 41 cc bd ee 56 03 3e
       -0.8023328 -0.20757224 -0.09973432 0.1282613
000310 1c 9b e3 3d 31 f8 80 3e 54 85 2a 3c 66 c5 0a 3e
       0.11113569 0.25189355 0.010407764 0.13551864
000320 f4 1e 92 be 17 80 92 3a 67 8f 75 be bb 9a 91 be
       -0.2853924 0.001117709 -0.23980485 -0.28438362
000330 f1 cc 34 bf a2 00 9c be 6f 02 52 be 80 d1 74 be
       -0.70625216 -0.30469233 -0.20508741 -0.23908043
000340 9a a4 b4 be 99 3b 7c 3d e3 c4 34 3e df 98 9f be
       -0.3528183 0.061580274 0.17653231 -0.3117132
000350 31 54 75 bf 21 b3 f9 3d 1c 36 70 bd 20 f3 13 be
       -0.9583159 0.12192369 -0.058645353 -0.14448214
000360 57 d5 cd bd 55 cc 9d bd a8 a8 c1 be 9c 2e ac bd
       -0.10050457 -0.07704989 -0.37823987 -0.084073275
000370 60 11 a3 be 10 b0 a4 3d 3d 79 ea 3d 5e 7d bd 3c
       -0.31849194 0.08041394 0.114489056 0.023131069
000380 46 8a 39 bf 90 7f dd 3d dc 9b d5 bb cd 7d dd 3d
       -0.72476614 0.10815346 -0.006518824 0.1081501
000390 12 be c8 3d 0e 34 61 bd 3c 10 b0 bd c0 bf 3e bf
       0.09801878 -0.054981284 -0.085968465 -0.7451134
0003a0 a4 49 e5 3d 8a d9 4a be 6e 33 68 3d f7 fd 1f be
       0.111956865 -0.19809547 0.056689672 -0.15624224
0003b0 86 8b 8a be 64 07 15 be 45 27 05 bd 15 2e 59 bd
       -0.27059573 -0.145536 -0.032508153 -0.053022463
0003c0 15 8c 5a 3d 9b a4 ee 3d 9a 5c 92 3c f1 46 05 be
       0.05335625 0.1165249 0.017866421 -0.13015343
0003d0 5e c1 38 bc 80 fc e3 3d a0 15 df 3d 1b d8 be 3c
       -0.011276571 0.11132145 0.108927965 0.023296406
0003e0 d0 2c ee be d0 d3 8e be aa d1 04 bd 3a cc c7 bd
       -0.46518564 -0.27895975 -0.032426514 -0.0975575
0003f0 1c 71 95 bc 5b b5 21 bf b8 b0 24 3d 06 d3 65 be
       -0.018242411 -0.6316735 0.040207595 -0.2244378

convt2.bias f4 [16]
000000 92 99 95 3d 5b c7 ff 3d b0 16 08 3d e6 c5 99 3c
       0.07304682 0.12489196 0.03322476 0.018771123
000010 af d5 8b 3d 28 3a 0d 3d 58 f7 a5 3d 9b 31 e5 bd
       0.06827866 0.03447929 0.08103818 -0.11191102
000020 0e a7 fe 3d 52 bd 67 3d a8 c5 e1 3b 15 a1 f3 3d
       0.12434207 0.056577034 0.0068900175 0.11895958
000030 a7 11 4b 3d a8 43 a6 3d 9d 23 8d 3c aa 75 9c ba
       0.04957738 0.08118373 0.017228896 -0.0011936922

convt3.weight f4 [16, 32, 9, 9]
000000 ed 42 80 bc ec 20 b3 3b 00 f2 92 bd 0a 47 ce 3c
       -0.015656913 0.005466571 -0.07175064 0.025180358
000010 c0 75 9c 3b 3b cb b7 bc 2d b7 17 3c 30 4a dd 3c
       0.004774779 -0.022435775 0.009259981 0.027012914
000020 76 26 9f 3d 63 f7 7f bd 3f f6 73 3d 14 c1 95 3d
       0.07771008 -0.062491786 0.05956101 0.07312217
000030 5a c9 0f 3d 79 fc 76 3d 0b d1 92 3c 5d 0e 2d 3b
       0.035104133 0.06029937 0.017921945 0.0026406266
000040 eb 18 61 3d a4 b9 c6 3d d4 5d 86 3b 63 5c 9a 3c
       0.054955404 0.09703377 0.0041005407 0.018842882
000050 4a 7f fc ba 91 bd 0e 3d fe 20 0b 3d cb 19 90 bc
       -0.0019264009 0.034848753 0.03396701 -0.017590424
000060 61 9e 52 3b 5a 86 1d 3d 11 7b 9b 3d 9c 1e 39 bc
       0.0032137858 0.038458206 0.075918324 -0.011298802
000070 6f d0 e5 3c 96 7b c7 bd 0e 1b 14 3d bf be 93 bc
       0.02805349 -0.09740369 0.036158614 -0.01803529
000080 4e 11 41 bd 75 0a cb 3c f0 89 16 bd 0d 32 fa 3c
       -0.047135644 0.02478526 -0.03675264 0.030541444
000090 1e 67 4f 3c 88 ab 03 3d 6c 93 fa 3c f3 3d 0f 3d
       0.012658862 0.032146007 0.030587874 0.03497119
0000a0 9c 96 2d 3d 6b 49 30 3d e2 71 b1 bc 25 d5 8e 3b
       0.04237996 0.043038767 -0.021660749 0.004358905
0000b0 89 64 c5 3c c7 f8 a5 bc dc 00 82 3d d0 27 95 bc
       0.02409579 -0.020260228 0.0634782 -0.01820746
0000c0 e3 74 c0 bc e9 03 38 3d e3 c5 a6 bd ed 26 11 bd
       -0.023493236 0.044925604 -0.08143213 -0.035437513
0000d0 ea 38 86 3d ee 15 6f 3d bb 91 73 3b a9 db 24 bd
       0.06553824 0.058370523 0.003716572 -0.040248547
0000e0 7f d0 a2 3a 75 a1 34 bc 62 ca 0c 3c bf 26 eb bb
       0.0012421756 -0.0110248225 0.008593174 -0.0071762498
0000f0 23 b8 f4 3c 11 c8 bf bb 6c f8 98 3d 32 ee 13 bd
       0.02987296 -0.005852707 0.07469258 -0.036115833
000100 55 50 86 3d 37 a7 7b bd 23 1f c2 bc be 61 33 3d
       0.06558291 -0.061438765 -0.023696488 0.043794386
000110 6c 3f 8a bc d1 5e 6a bc b4 f8 fa 3b ef fc 0e bc
       -0.016875945 -0.014304833 0.0076590423 -0.008727296
000120 02 48 99 3d ad 39 84 3d e9 5e cc 3c 7b ad 91 3d
       0.074844375 0.06456313 0.0249476 0.07113167
000130 13 2c c5 3d 46 7a c8 3d 65 ae e1 3d 69 08 cd 3d
       0.09627547 0.09788947 0.11019591 0.1001137
000140 24 5e 27 3e fa 9e 27 3a ae 6b db 3d 27 17 22 bd
       0.16344506 0.0006394234 0.10713898 -0.03957286
000150 b1 ad a4 bb ca 29 b4 3d b9 97 3b bd 33 d2 33 3c
       -0.0050255884 0.08797033 -0.04579899 0.010975408
000160 aa ac 99 3d 71 5d fb bc 79 cb 52 3e 24 e1 21 3e
       0.07503636 -0.030684205 0.20585431 0.1580854
000170 69 b7 df 3b ab 9d b2 3d c5 97 46 3e f7 f3 18 bd
       0.006827284 0.08721479 0.19393833 -0.037342038
000180 4d 17 2e 3e f8 53 6a 3d 93 82 0e 3b 90 5e 94 bd
       0.17001076 0.057208985 0.0021745309 -0.07244599
000190 8d ee 46 bd da 07 3f 3e cd 87 94 bd f4 86 85 bd
       -0.048567344 0.18655339 -0.072524644 -0.06519881
0001a0 fa b8 cd 3d f5 ed 20 bd ee 53 83 bd 64 46 3e 3e
       0.10045047 -0.039289434 -0.06412493 0.1858154
0001b0 2b 3e 94 bc 43 6e 83 3e 5f 19 24 bc 0b 9a 58 3a
       -0.01809605 0.2567006 -0.010015815 0.00082627
0001c0 f5 9f 42 3e 9d 64 1a 3c bc 92 13 bc fc a8 51 3e
       0.19006331 0.009423402 -0.009007152 0.20474619
0001d0 fd 6a 58 bc d7 6b 89 3e 3d 4a 91 3e 75 de 3c bd
       -0.013209102 0.26840088 0.28376952 -0.04611059
0001e0 2a c0 5e 3e f6 c1 2c 3e 6b 3c 27 bd ac dc 83 3e
       0.21752992 0.16870865 -0.040829103 0.25754297
0001f0 c0 ae 79 3e 2f 67 bd bc d8 80 a8 bd 9e c9 83 bd
       0.24383068 -0.02312049 -0.082277 -0.0643494
000200 b4 c5 7c 3e c8 15 83 bd 6b ea d1 bc d8 26 29 3e
       0.24684793 -0.06400639 -0.025624475 0.16518724
000210 a5 d8 e4 bd 53 05 00 bd 3f 3d 7d 3e 80 6b 65 3b
       -0.11174134 -0.031255078 0.24730395 0.0035006702
000220 a1 c2 8a 3e d9 16 b9 bc a3 c6 81 bc 37 3f 59 3e
       0.27101615 -0.022593902 -0.015841788 0.21215521
000230 c7 d0 d8 3b 7b ca 22 bd fe cd 26 3e a3 47 8a bc
       0.006616685 -0.03974388 0.16289517 -0.016879862
000240 15 c1 da 3e a2 99 8d 3e c3 8d 00 3c d1 f9 ba 3e
       0.42725435 0.27656275 0.007846299 0.3651872
000250 6e 9b 33 3e d2 bb 3e b8 f0 b4 99 3e ea 64 36 3e
       0.1753976 -4.547445e-05 0.30020857 0.17811933
000260 ec c8 00 bd c4 d4 9e be 5b c7 9f bc 25 41 a9 3e
       -0.031441614 -0.31021702 -0.01950424 0.33057514
000270 69 d0 66 be 6d 43 49 bd fd 7e 92 3e 91 27 7b be
       -0.2254044 -0.049136568 0.2861251 -0.24526812
000280 52 fc 02 bd 98 6a 5c 3e 4f 07 44 3d f1 7a c7 3d
       -0.031978913 0.21525037 0.047858533 0.09740246
000290 aa 34 2b 3d 3e 15 28 3c fc a5 c7 3c 61 6c d1 3b
       0.04179827 0.010258971 0.02437114 0.0063910936
0002a0 bf d7 b1 bc 97 10 69 3d f4 27 46 3c b3 bf 76 3d
       -0.021709321 0.056900587 0.0120944865 0.060241412
0002b0 a6 b7 71 3d 3e d0 ea 3c 58 36 d7 3c 97 85 57 3d
       0.05901303 0.02866375 0.02627103 0.052617636
0002c0 45 59 cc 3b b4 bd b3 3c 47 21 7a 3d 53 3d 76 3d
       0.0062362277 0.021941043 0.061066892 0.060117077
0002d0 4d 11 66 3d ff cd 5f 3d a1 65 8c 3d 69 c5 92 3d
       0.056168843 0.054639813 0.06855322 0.07166559
0002e0 f4 f5 79 3d 88 66 1e 3d c8 06 0c 3c 6f f2 47 3c
       0.061025575 0.038672 0.008546539 0.012203797
0002f0 e1 f1 01 bb 9a 9e 8a 3c 02 63 39 3d b8 54 2f 3d
       -0.001982801 0.01692133 0.045260437 0.042805403
000300 e0 b6 29 3d 4e 4f 02 3d fb 72 15 3d 69 2a b3 bb
       0.04143417 0.031813912 0.036486607 -0.005467702
000310 be 0a 1c b9 e3 c1 3f 3c bd 62 7e 3d 7b e0 d4 3d
       -0.00014881321 0.011703941 0.062105883 0.10394379
000320 b8 66 02 bc 18 00 9d ba 4d 4e 92 3d 87 31 c8 3c
       -0.00795906 -0.0011978177 0.07143841 0.024437679
000330 48 fc a8 ba 7d 71 51 3d a7 62 de 3c e2 e0 4d 3d
       -0.0012892568 0.05113362 0.02714665 0.050263293
000340 b9 7e 22 3d cd e2 fa 3c 35 64 3d 3c 9a 2f 69 3d
       0.039671633 0.030625725 0.011559536 0.056930162
000350 a7 3e 27 3d 59 30 cb 3c 37 7a 83 3d 26 57 44 3d
       0.040831234 0.024803327 0.06419795 0.047934674
000360 68 d4 95 3c 5b a5 49 3d c1 86 84 3d 06 9b 02 3d
       0.01828976 0.04922996 0.06471015 0.031886123
000370 7a f9 49 3d cf 8f 84 3d 9a e5 46 3c 8a 56 29 3c
       0.049310185 0.06472742 0.012139702 0.010335574
000380 45 91 94 3d 68 95 a7 3d 57 8c 9a 3d 45 de 52 3b
       0.072542705 0.08182794 0.07546299 0.003217594
000390 e2 ba 2a 3d 63 36 8b 3d 2f ae 23 3c 69 03 6c 3d
       0.04168213 0.06797483 0.009990259 0.05762044
0003a0 10 20 3c 3d fa 51 49 3d 3d 03 f6 3d 6e 66 14 3d
       0.045929015 0.049150445 0.120123364 0.036230497
0003b0 b2 cd 43 3d 07 cd 50 3d 9a 5c 3b 3d 67 15 43 3d
       0.04780359 0.05097678 0.04574261 0.047627833
0003c0 17 df a1 3d 92 22 81 3d 3d ec 59 3d be 0e 6d bc
       0.07903879 0.06305422 0.05320381 -0.014468847
0003d0 08 1b 56 3d f8 04 42 bc ec e1 19 bb 75 c5 10 bd
       0.052271873 -0.011842005 -0.0023480607 -0.03534456
0003e0 a9 fe 34 bd 1f 5e bf bd 23 92 8c 3d 4f 30 83 ba
       -0.044188175 -0.09344124 0.06863811 -0.0010008904
0003f0 26 b2 51 bd a2 4e 87 3c 52 8d 2a 3d 3a 16 bf b8
       -0.051195286 0.016516987 0.04163868 -9.11173e-05

convt3.bias f4 [32]
000000 3e 9e a2 3c 81 d4 14 be 88 29 38 3e be 00 a1 3d
       0.019850846 -0.14534189 0.17984593 0.0786147
000010 de 00 05 3e 2f 27 28 3c 68 12 f4 3c f2 7b 2a 3e
       0.12988612 0.010263248 0.029793933 0.16648844
000020 40 12 d6 bd 3b 8b a1 ba 45 13 9a 3c 3d 35 18 3e
       -0.104527 -0.0012324819 0.018808017 0.14864059
000030 28 3e 6f 3d 23 82 4e 3e f4 e6 16 be 12 09 0a 3e
       0.058408886 0.2016683 -0.14736539 0.13480023
000040 7c 60 0c 3d fd 3e ca bd 8a 10 ba 3c 56 ac a8 3d
       0.034271702 -0.09875295 0.022712965 0.082359955
000050 70 16 eb 3b 8d d0 b2 3d e5 2f 21 3e 55 a4 00 3e
       0.0071743056 0.08731184 0.15740927 0.12562688
000060 be 95 a9 3d b6 c1 e6 3d 8f 4e 14 be b1 1c ad 3c
       0.08280514 0.11267416 -0.14483093 0.021131845
000070 66 1c 24 3d d0 9e 55 3d f5 ec ba 3d 1b f7 02 3d
       0.040066145 0.05215341 0.09127227 0.03197394

pos_output.weight f4 [1, 32, 2, 2]
000000 f0 0b 5b 3e 6b 04 b3 bd 43 6f 01 be 61 24 ce bd
       0.21391273 -0.08741077 -0.12640099 -0.100655325
000010 88 9b d8 3c 84 f7 6a 3d 4d a2 8f bc 68 4c b0 3c
       0.02644135 0.057364956 -0.017533446 0.021520808
000020 a4 b9 2c 3e fb 30 46 bd 89 44 1d 3d e6 77 0d bd
       0.16867691 -0.048386555 0.03839544 -0.034538172
000030 ee a5 b5 bd a3 09 41 3c 41 eb 04 3c 83 8a 88 bd
       -0.08869539 0.011782083 0.0081127295 -0.06667044
000040 78 9a c1 3e 6b e3 8e 3e 80 63 46 3e 44 eb 79 3e
       0.37813163 0.2790788 0.19373894 0.24406153
000050 ab 8a 02 3e ca c5 83 3d fc e3 f6 3d d4 c9 04 3e
       0.1274821 0.0643421 0.12055203 0.12967616
000060 d6 33 d8 3e fc c5 4c 3e 1f 92 a1 3e 69 82 3c 3e
       0.42227048 0.199974 0.31556794 0.18409123
000070 f2 29 14 3e c7 9d 65 bc 59 ec 4a bc c9 84 4d bd
       0.14469126 -0.014014668 -0.012385451 -0.050175462
000080 25 ad 32 3e 88 67 c0 3d c6 c6 3f 3e 2a 5e 8d 3e
       0.17448862 0.09394747 0.1872817 0.27610904
000090 22 22 c7 3d 7c 3b 0c be 0f 10 2d bc 1f 85 f4 bd
       0.09723307 -0.13694566 -0.010562911 -0.11939453
0000a0 72 f0 00 3f b3 ee 08 3f 88 43 28 3f c3 61 38 3f
       0.5036689 0.53489226 0.65728045 0.7202417
0000b0 d7 ec 9f 3e ca 2d e3 3e 70 77 e6 3e 75 b2 ca 3e
       0.31235382 0.44370872 0.45013 0.39589277
0000c0 e8 ac 7e 3e 8d f5 bb bd dc 2f dd bd c9 1b aa 3c
       0.24870646 -0.091776945 -0.10800144 0.020765202
0000d0 6e d5 16 3e b9 76 61 be 53 2a f8 3d ba 8c c5 3d
       0.14729854 -0.22017945 0.12117448 0.09645982
0000e0 66 fd 4c bd 12 a7 f4 bc 1b 61 ce 3d 38 82 43 3c
       -0.050046347 -0.029864822 0.10077115 0.011932902
0000f0 8e 34 03 bd 02 ee bc bd 97 7c 5f 3c 04 fe ee bd
       -0.032032542 -0.09225084 0.013640544 -0.116695434
000100 fb 10 a9 3e 8e 67 9e 3e ad 0c 99 3e e9 e5 85 3e
       0.33020768 0.3093838 0.29892483 0.2615197
000110 5e 1f 2f be 46 af 2f be 8d 29 81 3c 97 1d c3 3c
       -0.1710181 -0.17156705 0.015766883 0.02381782
000120 a1 77 29 3f cb 46 1f 3f 0e b8 d7 3e e0 80 d5 3e
       0.66198164 0.62217396 0.4213261 0.41699886
000130 c7 55 20 3e 98 b2 2f be e3 ae a3 bd 12 2d 5c 3d
       0.15657721 -0.17157972 -0.07992341 0.05375392
000140 b3 79 8e bd 41 45 28 bc ef b4 82 3d 46 69 84 3d
       -0.06956806 -0.010270418 0.063821666 0.06465392
000150 6b 80 a4 be 04 39 82 be 7a b3 ae be 80 ca a2 be
       -0.32129225 -0.25434124 -0.34121305 -0.3179512
000160 0e 6f 61 be a3 dd 89 bd 96 5b 1e be 93 1b 41 be
       -0.2201502 -0.06731727 -0.15464625 -0.18858175
000170 bb d7 01 3e 39 8b a0 3d 97 6a 15 3c 76 20 26 3e
       0.12679951 0.078390546 0.009119651 0.1622332
000180 64 2f 92 3c e0 0f 0c 3d 77 38 86 3d d6 0f a4 3d
       0.017844863 0.034194827 0.065537386 0.08010833
000190 f5 5a 12 be 10 4a 94 3d 62 c0 a0 bd d2 08 ea bd
       -0.1429251 0.07240689 -0.07849194 -0.114274636
0001a0 e0 ae 18 3d 72 a8 05 be 30 80 81 3d ad 9d 87 bb
       0.03727615 -0.13052538 0.06323278 -0.0041386695
0001b0 8e f7 7c bd f0 b5 22 be 94 60 f3 bd bb 24 01 be
       -0.061759524 -0.15889716 -0.11883655 -0.12611668
0001c0 83 39 c9 3e 99 6a cb 3e d6 f3 c0 3e 63 4c d6 3e
       0.3930169 0.39729765 0.37686032 0.41855153
0001d0 65 d4 18 be d9 73 54 bd 00 d2 6c 3d f3 e4 dc 3d
       -0.14924772 -0.051868293 0.05781746 0.10785856
0001e0 7c 2d 01 3e 3c 21 dd 3d a6 0f 65 3e 81 51 62 3e
       0.12615007 0.107973546 0.2236925 0.22101404
0001f0 9c f6 b7 bd 27 74 e3 3d b2 44 ff 3c f1 fd 55 3d
       -0.08982584 0.11106139 0.031160686 0.05224413
