ggcnn_base/output/models/221204_2000_training_example/epoch_39_iou_0.77_statedict.pt (torch, 256417 bytes, 16 tensors)

conv1.weight f4 [32, 1, 9, 9]
00000000: bdac 51bd b0d0 dfbd 567b 56bd d35c f2bd
00000010: bb8b 03be da7a 84bd cddd c1bd 5240 0bbe
00000020: 5384 01be 3b16 a4bd b1f2 84bd 75cf 84bd
00000030: 60f6 febd 1443 9ebd 62f7 f3bd a022 dabd
00000040: 9969 b8bd 2b4d 0abd d43e 6bbd 88a1 bbbd
00000050: 56ad 67bd f44b b4bd ffa1 f3bd 98d6 e2bd
00000060: d68f 99bd c1bb d5bd c830 eabd 8b23 a4bd
00000070: 8db0 d2bd b7ef 8cbd 6631 a8bd ef53 debd
00000080: 0953 19bd caab 5cbd 5644 02be 6b07 62bd
00000090: 2690 2fbe e7ea 31be 80f3 3fbe 74f0 37be
000000a0: 5d21 57be 3751 29be fdd0 11be a841 11be
000000b0: 8aff 6bbe b6c4 3bbe 443b 26be 2fe0 63be
000000c0: abad 85be 5657 39be c3f5 82be 6926 86be
000000d0: 1d29 6ebe 716f 55be 9c5f 1a3e 9ac4 3f3e
000000e0: f10b 5f3e 6be6 353e c5f2 7b3e 688b 5b3e
000000f0: 597b 473e f702 013e 7da0 e83d 8b8a 983e
00000100: 4718 803e 1952 963e 69f5 943e 173d a23e
00000110: b7d0 a63e 3b9d 6c3e 02e6 843e 8447 5a3e
00000120: e97b a63e b554 a23e b896 ba3e 66f6 b63e
00000130: 2f58 a43e efaf ac3e 9399 d03e 554e b23e
00000140: 3792 a53e 7117 2dbd 3d3d 05bd eb75 f93c
00000150: b494 103e dc34 303e 385f 163e 17b5 783e
00000160: d50e b13e 97e3 063f 2961 4abe dc56 18be
00000170: c5e3 b6bd d961 25bd a29d 443b 1d89 933d
00000180: 9e8d 043e 2fa1 6d3e 5577 b83e 9ee4 96be
00000190: ca19 5cbe f52f 0ebe 1235 06be 341e 9cbd
000001a0: 070c 2fbd d87b d1bc 42ae 7f3d 0f63 793e
000001b0: ef1f ffbd 7b8e 8abd da6e adbc 32ff 923d
000001c0: 47e0 633d 31d0 8b3d e7e1 b63d 50e6 633e
000001d0: 78e0 ac3e 0c21 37be 1c11 c0bd b8d9 abbd
000001e0: 7a31 b0bc af60 0fbd 5986 713c 006d e83d
000001f0: 106c 233e a3fc 683e d57d 7bbe 9fc4 37be
00000200: b477 e4bd c9ff 85bd b230 60bd 45c9 51bb
00000210: d585 ba3d 4681 213e a9ae 803e d272 7dbe
00000220: 3b5b 66be 512d 5dbe 462a 0abe 01f9 bcbd
00000230: 8d98 70bc feb4 04bd 4abb c93d f58c 733e
00000240: 1f23 96be 6d73 6bbe 6c2c 6abe d082 99bd
00000250: 1208 07be a161 44bd 484d b83a 01aa d63d
00000260: fde0 6f3e dcd4 7fbe c04f 7cbe 170b 2ebe
00000270: 9a10 96bd a5fe 3fbd 5a08 16bc bc4c b03d
00000280: b82f 213e 20f9 aa3e 268a c6bb 1188 9fbb
00000290: 16af 75bc cfc2 3ebc c107 8f3b b9ef 1e3c
000002a0: 92db 913c 0a34 3e3d 6bce 233d 80bc 06bd
000002b0: a031 30bd d70e 213b 8bf8 aa3b ce16 29bd
000002c0: 27d4 f43c 44ef e23c 5da5 d7bc 1770 1a3d
000002d0: 57e6 8e3c efaf 913c d4fa 02bd 6a13 ca3c
000002e0: da69 76bc fd54 27bd 139a dcbb 25e7 243d
000002f0: 54b3 c9bc 0290 00bd f062 133b 9e98 95bc
00000300: 007b bdbc a36f 263d a942 313c cf9c 1e3c
00000310: 5c5c 98ba a5c4 273d 3de5 153d 71d8 00bd
00000320: 5c26 ebbb 822d 273d adfe 8f3c 8b29 10bc
00000330: 6a1d 02bd dbe0 8cbc 29d0 c4ba 586d 17bd
00000340: 9f72 5ebc 5294 97bc 7a91 073c f224 41bd
00000350: 394a 843b ac52 23bc 78d4 87bc f454 cb3b
00000360: f844 a1bc fe06 4e3c 4327 1a3b 9a07 d63c
00000370: 7a2d d93c d1a8 91bc d40f 67bc 10f7 24bd
00000380: f4c0 363b dd2f 1e3c e8e2 6cbc 8f9c 31bd
00000390: d6a7 71bb a203 76bc 216a 903c 9eef 7c3a
000003a0: 4667 d3bc 0f94 28bd a9c3 e53b abaf 163d
000003b0: 896d 263d 00d9 babb 05e7 23bd 0e3d d63c
000003c0: d810 4ebc f05f a8bc 30d8 05bd 5fc0 1ebf
000003d0: e679 38be fad1 313e a456 ebbe 017f 94be
000003e0: 73d0 8bbe 0680 6bbe ea8d 9dbe 4324 27bf
000003f0: ff4a 61be fe94 473e 191e e83e eb5b 66bd
-0.051190127 -0.10928476 -0.052363716 -0.11834111 -0.12846272 -0.064687446 -0.09466133 -0.13598755
-0.12648134 -0.080120526 -0.06491602 -0.06484882 -0.12449336 -0.07727638 -0.11912419 -0.106511354
-0.09004516 -0.033765 -0.057432964 -0.09161669 -0.05656179 -0.088035494 -0.11896133 -0.11076087
-0.07498138 -0.10436202 -0.114350855 -0.08014592 -0.10287581 -0.068816595 -0.08212547 -0.10855853
-0.037432704 -0.05387477 -0.1272138 -0.055182856 -0.17144832 -0.17374764 -0.18745232 -0.1796282
-0.21008821 -0.16534887 -0.14239879 -0.14185202 -0.23046699 -0.18336758 -0.16233546 -0.22253488
-0.2610906 -0.18099722 -0.25578126 -0.2620118 -0.23257871 -0.20843293 0.15075535 0.18727341
0.21781899 0.17763679 0.24604328 0.21439898 0.19480647 0.12598787 0.11358736 0.297932
0.25018522 0.2935951 0.29093483 0.31687233 0.32581112 0.23106854 0.25956732 0.21316344
0.3251641 0.3170525 0.36443114 0.35734862 0.3209853 0.33727977 0.40742168 0.34825388
0.32338116 -0.042258684 -0.032529105 0.030451735 0.14119226 0.17207664 0.1468476 0.2428783
0.34581628 0.52691025 -0.19763626 -0.14876884 -0.08930162 -0.040376518 0.0030001183 0.07203887
0.12944648 0.23206018 0.36028543 -0.29471296 -0.21494213 -0.13885482 -0.13106182 -0.07622948
-0.04273608 -0.025571749 0.062422045 0.24354194 -0.12457263 -0.06765457 -0.021171022 0.07177581
0.05563381 0.06826819 0.08929806 0.22255826 0.33765006 -0.178837 -0.09378263 -0.08391136
-0.021507967 -0.035004314 0.014741504 0.11348915 0.15959191 0.22752623 -0.2455972 -0.17946099
-0.11155644 -0.06542928 -0.05473394 -0.0032010835 0.09107558 0.1577197 0.25133255 -0.24750832
-0.22495739 -0.21599318 -0.13492689 -0.09227181 -0.014684808 -0.03239917 0.09850176 0.2378424
-0.2932367 -0.2299325 -0.22868508 -0.07495654 -0.13186672 -0.04794467 0.0014061118 0.104816444
0.2342567 -0.24983543 -0.24639797 -0.16996418 -0.07327385 -0.046873707 -0.009157265 0.08608386
0.1574086 0.33393192 -0.006058949 -0.0048685153 -0.014995357 -0.011643126 0.004364938 0.009700709
0.017804895 0.046436347 0.039991777 -0.03289461 -0.043016076 0.0024575496 0.005217617 -0.041281514
0.029886318 0.027701981 -0.026323969 0.037704553 0.017443819 0.017784087 -0.03197749 0.02466746
-0.015039885 -0.040852536 -0.0067322343 0.0402595 -0.024621643 -0.031387337 0.0022489391 -0.01826125
-0.02312994 0.04063381 0.010819116 0.009680941 -0.0011624205 0.04095902 0.03659557 -0.031456415
-0.0071762037 0.040814884 0.017577494 -0.008798967 -0.031766333 -0.017197063 -0.001501565 -0.036969513
-0.0135771325 -0.018503342 0.00827443 -0.047154374 0.0040371683 -0.009968441 -0.016580805 0.0062051956
-0.019686207 0.012574909 0.0023521937 0.026126672 0.026510943 -0.017780693 -0.014102895 -0.04027468
0.0027886005 0.009654966 -0.014458396 -0.043362197 -0.003687372 -0.015015515 0.017628731 0.0009648743
-0.02580608 -0.041156825 0.00701185 0.036788624 0.040631805 -0.005702138 -0.04001524 0.02615216
-0.012577258 -0.020553559 -0.032676876 -0.62012285 -0.1801525 0.17365256 -0.4596454 -0.29003146
-0.27307472 -0.22998056 -0.30772334 -0.65289706 -0.22001265 0.1949043 0.45335463 -0.056240004

conv1.bias f4 [32]
00000000: b792 0dbe 68ab c73d fedf ddbd 395e c03b
00000010: 3e49 c33d ad90 bf3d ecd7 f3bc 3add 053e
00000020: 4ede 91be bd09 3bbd becd 8d3e 999b f4bd
00000030: 487f 87be 4df4 edbd 6898 b7bc b768 b5bb
00000040: 967d 453c 861f abbd 773d 8cbe 1651 03be
00000050: 0982 25be 7e5b 643e 0683 c5bc a972 cdbd
00000060: b316 9fbe b123 d0bd 0754 cabd 8032 9bbc
00000070: 24b2 d7bd a546 c7bd d959 413d c8e5 3fbe
-0.13825499 0.0974949 -0.10833739 0.005870607 0.09535454 0.093537666 -0.029766046 0.13072672
-0.28489918 -0.045663584 0.2769603 -0.119437404 -0.26464295 -0.11618862 -0.02241154 -0.0055361646
0.012053868 -0.08355622 -0.27390644 -0.128239 -0.16162886 0.22300526 -0.024110328 -0.10031635
-0.31072006 -0.101630576 -0.09879308 -0.018944979 -0.105320245 -0.09730271 0.047204826 -0.18739998

conv2.weight f4 [16, 32, 5, 5]
00000000: 604f 253d b544 20bd ba4b 67bd bd78 51bd
00000010: 3d82 bfbc 9dc3 c23d f266 5c3d a5b8 fa3d
00000020: 92b3 1a3e 2273 173e b908 34bd 2755 9bbd
00000030: 2d57 e0bd 5b00 9fbc d0c6 6ebd 8a0e 623d
00000040: 5546 cf3d 3ca2 d43d e29e bbbd 51f5 c2bd
00000050: 8273 1fbe 991b 95bd c826 433d 6c62 b83c
00000060: 5e2c 173c bf76 3fbe 60a0 2cbd c89d 3f3d
00000070: c549 fabd fd21 6cbd d580 f4bd 004d 99bc
00000080: 47cf 5f3d e1ac 55be 5963 c9bd eb48 993a
00000090: c73f 0e3e b8d4 973d 8787 16be fdd0 19be
000000a0: a604 73bc c9e6 fc3d 1d3c 813d 0222 77bd
000000b0: 9eac aabd 2b62 dc3c 3099 363e 6e69 2b3e
000000c0: e76c 253d a80c 013d ff23 903c d9cd 863d
000000d0: 4a74 3a3d 4236 263c 662e b4bc 7999 0abd
000000e0: 2514 18bd f635 173c 37ed 823d fc66 0bbd
000000f0: d642 bd3c 2a86 a2b9 39b9 913c 5d50 16bd
00000100: f9bf 7f3c 54cd ee3c f41f a03c abb7 fdbc
00000110: ccd0 bc3c 2ae3 47bc 52fc c53c ed88 2bbc
00000120: 1b02 df39 f46e 3a3d b0e5 583d f035 8cbd
00000130: eac5 ca3c db1b 44bc eae2 80bd d7d3 bdbc
00000140: 91d0 d4bc 9ff4 eabc 559d 99bd 4ae2 a43c
00000150: f6e4 b53d 60e7 87bd ac1e 1dbd ff14 8cbc
00000160: b6f7 febc 6fa6 233c 5965 813d 1d02 533d
00000170: c9fd 233c 0142 0b3c 5555 c23d c5c1 843c
00000180: 87fe bf3d bb67 7f3d ee64 eb3d 65c8 e53d
00000190: f5bb 6b3e c823 803d c29b 9f39 810c 5ebd
000001a0: 7e5e 61bd 0a3b 233e d407 50ba e4d9 14be
000001b0: 68ae 1abe cd69 20be de24 013e a28b acbc
000001c0: 8aae a3bd f921 cebd c9d1 e3bd f55a 523d
000001d0: 72d6 8e3d 7171 94bd 3233 f0bd 81b5 04be
000001e0: 93ae 42bd 5bca 3d3d 95b7 383c 2c32 653d
000001f0: 1bcc 7abd a75e 6abd c59f 3ebd e21f 863d
00000200: 6719 a0bc d501 4fbd b897 27bb 21d3 60bd
00000210: c7c7 053e d696 303e ab7a 543e 6e3e 12be
00000220: f113 2bbc 8ff3 bd3c ad0f b23d 8e27 2e3e
00000230: 97f3 0bbe 1bf1 11be ca08 d9bd 13cc 26bd
00000240: 7c6e e63d 67ff a7bc 15ed 89bc 61a8 f6bd
00000250: 6c4a 293d 7728 c83d 01ac ca3c 9d7a 083d
00000260: 2bdd c3bd 444c 7f3d 149c f9bb 2d94 b2bd
00000270: 44c4 523c 0d93 a0bd 2cee 923c 1386 973c
00000280: 7e7d 703d 3ad1 91bd 3ded c3bc a978 0b3d
00000290: 5350 cf3d dea5 063c 43eb 313c c1b6 133c
000002a0: 5b95 443d 855c f53c 5e1f 8c3c 4741 bebc
000002b0: 249c 843d 7088 733d d113 1e3d 36d8 b6bd
000002c0: c156 71bd 4303 aabc fe3b 35bd a6e7 973b
000002d0: 88f4 bbbd 2718 68bd 7ac1 b13c 7662 cabc
000002e0: 8581 6d3d b9d5 adbd 63c4 07bd 6147 653d
000002f0: 9ba7 273d 68f2 903d 2170 babb 03a5 54bd
00000300: 62ca d73c b36e 3638 2dfb 93bb 907c 9d3d
00000310: 5153 613b a88e 23bd 5122 433d aefd 233e
00000320: 6c0e 95be 448b 963d dcd4 78bd 51eb 3bbe
00000330: be90 883e 6a91 e1bd 9001 fb3d e83c 403e
00000340: 6fdc 603b d5d1 0a3f 08d7 5bbe f4e8 b83d
00000350: 3da9 d63e 9756 c03d 027d 0b3f 25ee 0cbe
00000360: 4b7c fb3c 2a48 fc3e bf9d 92bc 75c7 aa3e
00000370: 0226 c1bd e4cf 943c 2753 f63e 8d81 51bc
00000380: c37f a53e 0345 b2be 2ea7 51be 512a b83d
00000390: 3f25 1b3d 5558 d93e 3375 08be 8fd7 14be
000003a0: a8fc 163d 93b4 89bd 9eec 983d a3e6 1dbd
000003b0: 27b0 12bd 7b65 423d 1455 52be 5497 a43d
000003c0: d285 4a3e f94d 2a3e fd27 b43b 72f8 c0be
000003d0: 74cc b5bd a390 2f3e 889b 263e efd4 0c3e
000003e0: 94e1 ccbe 9f24 9c3c 1651 bc3e 5f49 843e
000003f0: 764b 183e 01bf 8c39 036e 833d 4031 553e
0.0403589 -0.039128024 -0.056468703 -0.051140536 -0.023377532 0.095099665 0.053809114 0.122422494
0.15107563 0.14790013 -0.04395363 -0.07584601 -0.109541275 -0.01940935 -0.05829507 0.055189647
0.10120837 0.10382506 -0.09161164 -0.09519447 -0.15571406 -0.072806545 0.047644407 0.022507869
0.009226887 -0.18697642 -0.042145133 0.04678133 -0.12221102 -0.0576496 -0.11938635 -0.018713474
0.054641034 -0.2086673 -0.09833402 0.0011694705 0.13891517 0.0741362 -0.14700137 -0.15021129
-0.014832651 0.12348706 0.06310294 -0.060335167 -0.08333705 0.026902279 0.17831874 0.16739437
0.04038706 0.03150621 0.01759529 0.06582231 0.04552106 0.010144772 -0.02199478 -0.03383777
-0.037128586 0.009229174 0.063929014 -0.03403376 0.023103159 -0.00030999008 0.017788516 -0.036697734
0.015609735 0.029150642 0.019546486 -0.030971369 0.02304878 -0.012200156 0.024168167 -0.010469657
0.00042535443 0.04551597 0.052953422 -0.06846225 0.024752576 -0.011969532 -0.062932804 -0.023172302
-0.025978358 -0.028681098 -0.07500712 0.020127434 0.088815615 -0.06635928 -0.03835933 -0.017099855
-0.031123977 0.009988411 0.06318159 0.051515687 0.010009238 0.008499623 0.09488932 0.016205678
0.09374719 0.062354784 0.1149386 0.11219863 0.23020919 0.06256825 0.00030442892 -0.054211143
-0.055021755 0.1594049 -0.0007935737 -0.14536244 -0.15105593 -0.1566536 0.1261172 -0.021062676
-0.07992275 -0.100650735 -0.11123998 0.051356275 0.06974496 -0.072482 -0.11728515 -0.12959863
-0.04752977 0.04633556 0.011274238 0.05595605 -0.061229806 -0.057219174 -0.046539087 0.0654905
-0.019543363 -0.050538857 -0.002557261 -0.05488885 0.1306449 0.1724504 0.20749919 -0.14281628
-0.010441766 0.023187427 0.08694396 0.17007276 -0.13667141 -0.1425213 -0.105973795 -0.040721964
0.11251542 -0.020507528 -0.016836682 -0.120438345 0.04133074 0.09773343 0.024740221 0.033320058
-0.09563669 0.062328592 -0.007617483 -0.087196685 0.012864176 -0.07840548 0.017935835 0.018496549
0.05871343 -0.07119985 -0.023916835 0.034050617 0.101227425 0.008218257 0.010859313 0.00901574
0.047994 0.029951343 0.0171048 -0.023224486 0.06475094 0.05945629 0.038593117 -0.08927958
-0.058920626 -0.020753508 -0.044246666 0.004635769 -0.091775 -0.05666366 0.021698702 -0.024705153
0.057984848 -0.0848803 -0.033146273 0.055976275 0.040931325 0.07077485 -0.0056896363 -0.05191518
0.02634162 4.3495278e-05 -0.0045160265 0.07689774 0.0034381936 -0.03993097 0.04764015 0.1601474
-0.29112566 0.073507816 -0.060749874 -0.18351485 0.2667293 -0.11014064 0.122561574 0.18773234
0.0034311076 0.5422643 -0.21468747 0.09028807 0.41925994 0.09391516 0.5448762 -0.1376272
0.030698916 0.49273807 -0.017897485 0.333553 -0.094310775 0.018165536 0.48110315 -0.012787235
0.32324037 -0.34818277 -0.2047393 0.08992446 0.037877318 0.42450204 -0.13325958 -0.14535354
0.036862046 -0.06723895 0.07467006 -0.03855003 -0.035812523 0.04746006 -0.20540267 0.08036676
0.19777611 0.16631307 0.005497931 -0.3768955 -0.08876887 0.17145018 0.16270268 0.13753103
-0.40015852 0.019060431 0.36780614 0.25837228 0.14872536 0.0002684519 0.064174674 0.20819569

conv2.bias f4 [16]
00000000: 331d ef3c 245c 993e 511a 7bbd 156a 44bd
00000010: 40d8 14bd 6bf2 9dbb 98b8 413c 92ac aa3d
00000020: ee61 7e3e b61a 96bd a364 4a3e e93b 55bd
00000030: ed45 7bbd 68bb 18bc 9cd0 f03d c032 03bd
0.029188728 0.2995311 -0.061304394 -0.04795273 -0.036339045 -0.0048201582 0.011823796 0.083336964
0.24842045 -0.073293135 0.19764952 -0.052059088 -0.061345983 -0.009322025 0.11758539 -0.03203082

conv3.weight f4 [8, 16, 3, 3]
00000000: 05a3 99bd d36f 0c3e c219 8dbd d5be dd3d
00000010: 21dd 353e 0778 b13d 7767 7fbc 4507 e9bd
00000020: 113c af3d 3edb f5be 1488 34bd 0d79 9abd
00000030: 4ee4 babe fe9a 2e3e 2900 833c cde2 0fbe
00000040: b1f5 643e 65f4 c73e d812 073e 9aa2 a5bd
00000050: 1be7 4c3d 0b83 0fbe 5954 6c3d e3d7 38bd
00000060: b8c3 88bd 72f9 1b3d 1551 57bd 5eae fd3d
00000070: 51d0 0cbe 8e6f 1dbe fd4e ab3d c110 6dbd
00000080: b561 c73d dbde 17be b050 38bc 9534 60bc
00000090: 9168 233e d154 1b3e 4657 c03d 9f0e b63c
000000a0: 3580 2c3e b969 23bb aeb4 883d f126 edbd
000000b0: 97fc d2bd ba3b 9dbd 6e19 e2bd 6e75 a3bd
000000c0: d900 d53c bb49 083e 32a1 913b 6041 1f3e
000000d0: 22ef 95bd 9fee b13d bdf6 19be c4d6 c33d
000000e0: f7f5 a7bd 995b 3f3c 87d4 933d ed72 0d3e
000000f0: 5f2f 4fbd 4216 19bd ca97 fb3d 5eb7 10be
00000100: 15c7 d0bd 2a3f 88be 033b 313e b632 8c3c
00000110: 7d9f 843c 7226 b43e 7537 983e 403c 0f3e
00000120: 1fb4 b1be eb5e babe 2029 edbd 705c 3b3d
00000130: dc9b 363d 6fb9 133e 7fa7 1e3e 5c04 633e
00000140: 7d7b 743e 9f40 dcbd aae5 dc3d e3c9 96bd
00000150: eebc 2a3c 498c b83d 0a7b 303e b4b0 02bb
00000160: 955b 92bd 3b4b d7bd bbdc 9bbd 7d03 3d3e
00000170: 4638 7d3e 7f4f 1ebc 89a7 cebd 4ff6 643e
00000180: 2648 a9be 2190 933d cbba 78bd 1f60 453e
00000190: 496e 8dbd 127e 3a3e dea2 293e 7b21 d33c
000001a0: ee2d 44bd 3a25 06be deeb 913d d339 bdbd
000001b0: 5d94 86bd 99c5 743d 984e 8ebd 2609 04bc
000001c0: fef2 a0bd 4c0c d93d 8334 f53d fbb6 5d3d
000001d0: aaf7 8b3c 1272 373e 113f d03d a843 bbbd
000001e0: 0276 eabc 282f 133e 9af6 973d 1da4 87bc
000001f0: d4fb 73bd b908 adbc 4eec 4d3e 52d6 a63d
00000200: f163 703e 1442 c03d 171d 03be 942f c33d
00000210: bc40 cfbd 626f 87be 6366 af3c c576 edbd
00000220: 743d 91bc 9365 09be c111 713e d855 753d
00000230: 3908 95be 69ce 0d3e 0f42 2b3e 73cf 2e3c
00000240: 34d4 9dbe 1272 62be f1ff a63d 1a35 60bd
00000250: b405 56be 166c 243d d6ec f33e 2e5e 993e
00000260: 6f91 1e3d b61f 6ebe e48b 383b d53f 183e
00000270: ac00 17be b7a4 abbe b922 bebd 9953 803e
00000280: 738d 7b3d abba fd3c c828 febc 6db7 b83d
00000290: a18d 13be cf31 25be a706 463c b246 baba
000002a0: c485 8d3d b619 4cbc bc19 dbbd b21c 8fbc
000002b0: fbdf 353d 1655 773c 0a70 76bd 481c 1cbe
000002c0: 963a 23bd 0461 0bbe d702 f0bc 6099 c73d
000002d0: bdf4 f83d 971c e33d d577 fd3d 51f7 e4bd
000002e0: 6cbb 1ebe 7205 bebd 8dc3 2cbe c6e7 d4bd
000002f0: d898 163d 3fef 473e 86b3 eabd e08e d2bd
00000300: d3fd c13d 60ed 2a3e 206b c0bb a3a3 78bd
00000310: 9898 f33b c95a 163e b093 18bd b479 2ebe
00000320: 279c e03d 51c0 943d c88a 32bc 2ee9 99bb
00000330: 8066 12be 2971 143e 07d2 12be aeed f9bd
00000340: fe31 983d 0849 813d 20fb 94be 4c6b ab3d
00000350: ebe1 ca3e 1e64 a2be f6dd b5bd 6886 d33e
00000360: d700 12be 0650 fa3d 0eeb ab3d 204a 83be
00000370: dacc ff3d ef5c 2f3e de48 74be bda1 de3c
00000380: 2d66 4a3e 8eda 30bd fd13 0c3e b791 bdbd
00000390: b5e8 f5ba 1cd3 1c3d f536 02bd c11b c53d
000003a0: 11c9 da3d bf91 b5bd 09a2 b23c bc51 64be
000003b0: 4b5e c8be 21c7 a53e 25ae 8a3c e19a 91be
000003c0: a54d 443e 7cc0 083e abbf 25bd 54d3 ea3c
000003d0: cc1d 26bc 17dd 83bd 776a f43d 0d48 dd3d
000003e0: 0592 7cbd 1ca3 cb3d 9a9f 2a3a de60 47be
000003f0: e585 d33d 27ee 04be 9849 873d 10c2 d63d
-0.07501797 0.13714533 -0.068896785 0.10827414 0.17760135 0.086654715 -0.015588633 -0.1137834
0.08556379 -0.4801883 -0.044075087 -0.0754262 -0.36502308 0.17051312 0.015991287 -0.14051361
0.22359349 0.39053646 0.13190782 -0.080876544 0.050025087 -0.14014833 0.057697628 -0.04512776
-0.066779554 0.038079686 -0.05256756 0.123867735 -0.13751341 -0.15374586 0.08364675 -0.057877306
0.09735433 -0.14831106 -0.011249706 -0.0136844115 0.15957858 0.15169074 0.09391646 0.022223769
0.16845782 -0.0024934842 0.06675087 -0.11579693 -0.10302084 -0.076774076 -0.110400066 -0.07981382
0.02600138 0.13309376 0.004444265 0.15552282 -0.073210016 0.086880915 -0.1503553 0.09562448
-0.08201211 0.011679553 0.07218271 0.13813372 -0.050582286 -0.037374742 0.12284811 -0.14132449
-0.10194222 -0.2661069 0.17307667 0.017114025 0.016189331 0.3518558 0.2972981 0.13987827
-0.34707734 -0.36400542 -0.115801096 0.045742452 0.044582233 0.14426206 0.15493582 0.22169632
0.23875232 -0.10754513 0.107859924 -0.073627256 0.010421021 0.09011132 0.17234436 -0.001994175
-0.07146374 -0.10512396 -0.0761046 0.18458362 0.24728498 -0.009662508 -0.100905485 0.22359584
-0.33062857 0.07205225 -0.060725015 0.19274949 -0.06905801 0.18212155 0.16566035 0.0257728
-0.047895364 -0.13100138 0.07125066 -0.09239545 -0.06571267 0.059758756 -0.06948584 -0.008058822
-0.07858847 0.105980486 0.119729064 0.054129582 0.017085869 0.17914608 0.10168279 -0.09143764
-0.028620724 0.14373457 0.074200824 -0.016557747 -0.059566334 -0.021122323 0.20109674 0.08146347
0.23475625 0.093876034 -0.12804066 0.09530559 -0.10119769 -0.26452166 0.021411126 -0.11594919
-0.017729498 -0.13417654 0.23541929 0.05989632 -0.29107836 0.1384827 0.16724418 0.010669577
-0.3082596 -0.22113827 0.08154286 -0.05473814 -0.20900613 0.04014214 0.4764163 0.29954666
0.038712915 -0.23254284 0.0028159553 0.148681 -0.1474635 -0.33524105 -0.092839666 0.2506378
0.061414193 0.0309728 -0.031025305 0.09019361 -0.14409496 -0.16132282 0.012086547 -0.0014211743
0.069102794 -0.012457302 -0.10698268 -0.017469738 0.044403058 0.01509597 -0.060165443 -0.15245163
-0.039850794 -0.13611227 -0.02929823 0.09746051 0.12156055 0.110894375 0.12376372 -0.11179984
-0.15501183 -0.09278382 -0.16871472 -0.1039577 0.036766857 0.19524859 -0.11460023 -0.102811575
0.09472241 0.16692114 -0.0058721453 -0.06070293 0.007433962 0.1468307 -0.03725022 -0.17038614
0.10967284 0.07263244 -0.010897346 -0.0046969866 -0.14296913 0.14496292 -0.14337932 -0.12203537
0.0743141 0.06312758 -0.29097843 0.08370075 0.39625487 -0.31717008 -0.08880226 0.4131348
-0.14258133 0.122222945 0.083944425 -0.2564249 0.12490244 0.17125295 -0.23855922 0.027176732
0.1976554 -0.04317718 0.136795 -0.092563085 -0.0018761369 0.038287267 -0.031790692 0.09624434
0.106828816 -0.088656895 0.02180578 -0.22296804 -0.3913444 0.32378486 0.016928742 -0.28438476
0.19170244 0.13354677 -0.040465992 0.028665222 -0.01013894 -0.06438654 0.11934369 0.10804758
-0.061662693 0.0994322 0.0006508768 -0.19470546 0.10328273 -0.12981473 0.06605834 0.10486233

conv3.bias f4 [8]
00000000: 78aa 1d3e 0fb8 a6be fe5c 3cbd 4a57 b23d
00000010: e2ae 083e ebc3 8fba afbb b63e 3bbe d43e
0.1539706 -0.325623 -0.04598712 0.08708055 0.13347962 -0.0010968422 0.35690066 0.41551384

convt1.weight f4 [8, 8, 3, 3]
00000000: ce06 a1bd a0c3 aebd 8331 253e 56c4 ec3c
00000010: 89ce aebe a2f1 cf3d b579 293e 6cde e9bc
00000020: ee69 8b3e f7c2 9f3d 0ed8 7cbe 239b 74be
00000030: 3be6 11bf d70f 8b3e ae12 a13e c631 983e
00000040: b149 bf3e e29f babe 98d8 22bf 1ded efbd
00000050: c7ec 6cbe 6e39 c2bd dbac 933e e432 0e3e
00000060: 0487 003f 2ec1 603e 551e a63e 3e8e 9f3d
00000070: 4a76 923d 21a4 a7bd fa4e 26bf 6639 663c
00000080: 985b 223e 2e55 b53c 5e35 f5be 318c 3dbe
00000090: 4458 b13d 6d52 60be 8756 233e a9e8 f43d
000000a0: 90b5 c0be 7dcb 713e 9c79 f83d 655a d43d
000000b0: 340e 5a3e 424a 42be a965 363e 2d75 58bb
000000c0: 4eb5 45be d483 87be cb89 6cbe c0b5 e5bd
000000d0: a610 98be 6ef0 0dbe 43df f73d 3a7a fb3d
000000e0: abff 0b3f 1122 e13e fe9d f83d 78bb 0fbf
000000f0: 45a9 34be 81f9 21be 146d 8cbe bff3 153d
00000100: 4884 e13e 876f 823d c48e a33d 4711 073e
00000110: e501 aabd d906 61bc 8505 bdbe ff3e 9cbe
00000120: 9fcf 833c 9285 243e 7480 01be 1c7e b2be
00000130: 3fab 59bc 3dc2 783e 3bb0 2bbe 5b38 a7be
00000140: 379a cd3d 01e5 893d 52ca edbe 97ab 613c
00000150: 0373 913e ad63 7d3d 8a17 473e 000f a43e
00000160: e224 5a3d b5de e3be 5f8d 413e cd1c 273e
00000170: 5822 f73d e295 003d 17ec 4a3e 59d9 91bd
00000180: 2b3e f63d d744 49be db5b f8be 18a6 3e3e
00000190: 76d1 1c3e 133b 49be 14b9 bfbe 2f0e 35bf
000001a0: 3869 f43d 645a 0dbe 51f1 4abe b2d2 e0bd
000001b0: 930c bebc d3f6 023f 8693 513e 8346 573e
000001c0: 5c33 a2be 4719 4d3d db8e 9f3e 96d3 133d
000001d0: 8ea5 aa3e d3c3 ca3e 4c7e abbd 433e afbe
000001e0: 84d9 0cbf 26c7 ad3d 78cc e0bd 85bc 52be
000001f0: 95cb f63d 7901 313e 5d98 373e 84f2 903e
00000200: 31df 333e d0d8 2abe b01d 12bf e100 543e
00000210: 2a9a 703d 798f 39bb 829d 5cbe 07c0 863e
00000220: 6003 e2be 3330 cabe d8c3 d33c be28 72be
00000230: 593b 87bd c10e d7bd c301 b43e d8df e43d
00000240: 5353 f5bd 0ca0 14be 41e4 eebd 8b07 d13d
00000250: 5314 0d3e 11e6 1bbe 58d5 dcbd c7d0 263e
00000260: 0498 e3ba a7ae c7bb cb36 fb3d 5eaa 1f3e
00000270: d184 223e df10 38be 9dc7 003e 95f6 b6bd
00000280: b9c1 e1bd b294 f0bc 5c28 66bd 89a0 adbd
00000290: 224e 253e 4ee1 58bd 7d5c 313e b149 a9bd
000002a0: 208e 343e c7b7 823d d279 ddbd 6ade f8bd
000002b0: dde6 c13d 0ea1 51be 1750 ccbd 905c 43be
000002c0: e7a6 8b3d 9408 043e 86a5 13be fb75 b5bd
000002d0: 5794 f63d a304 8b3b bccb c83d 22b1 3e3a
000002e0: 68bd ebbd 35b4 53bd 1d52 fa3d 8fdc b73d
000002f0: f444 b4bc 7ce9 b13d f1b7 b13d 4b7b 183e
00000300: 9832 c8bd 2554 69bd 94e9 83bc 0fb1 063e
00000310: 7bb6 11be de77 4cbb 79a5 e2bd 73a8 dfbd
00000320: b41b 8fbd 4b3e 293e 41b0 593d a9e7 50bb
00000330: f478 ee3d e766 7dbd d8fe 2e3e 6005 ab3d
00000340: 7050 633c 58d5 bcbc a525 613d 3135 4f3e
00000350: 2fe0 34be 1e8e 08be 09df eabd 0cf8 fcbd
00000360: 0032 953e d02d 17bf 2b49 8bbd 3bc3 42be
00000370: d1a5 d2be 7d1b 88bd b87f 783e b22c 8fbe
00000380: cdfd 2fbe 7f9d 3bbe fa92 bf3b ed37 4d3d
00000390: 5ea7 2bbf ff2f 7abe 939b 133f 6b26 25be
000003a0: 4a31 9abe d677 713e d13d 8bbe d341 6e3e
000003b0: f868 55be 5ece 713e 81df a9be 9271 97be
000003c0: 4d7f 7a3e 05e8 15bc 3697 873e 9d28 68be
000003d0: e0f4 c9bd 84ef e6bc dfb1 02bf d112 603e
000003e0: 72fd 063e 2d4f 363c 4bb8 15be 1105 083e
000003f0: 30b1 293d d479 8e3e 2c37 d03d fdb1 9abe
-0.07862626 -0.08533406 0.16132168 0.028902214 -0.3414195 0.1015351 0.16550334 -0.028548442
0.27229255 0.078008585 -0.24691793 -0.23887305 -0.5699193 0.27160522 0.31459564 0.29725474
0.3736091 -0.36450106 -0.63611746 -0.11715148 -0.23137198 -0.0948361 0.28842816 0.138866
0.5020602 0.21948692 0.32445017 0.077908024 0.07151468 -0.08185602 -0.6496426 0.014051771
0.15855253 0.022135343 -0.47892278 -0.1851051 0.086594135 -0.21906443 0.15950976 0.11958439
-0.3763852 0.23612781 0.1213257 0.10368804 0.2129448 -0.1897364 0.17812218 -0.0033028827
-0.19307443 -0.26467764 -0.23099439 -0.11216307 -0.29700202 -0.13861248 0.12103131 0.12279172
0.54686993 0.43971303 0.121395096 -0.5614543 -0.17642696 -0.15817834 -0.2742697 0.036609408
0.44046235 0.063689284 0.07986215 0.13190185 -0.083011426 -0.013734543 -0.36918274 -0.30516812
0.016090212 0.16066578 -0.12646657 -0.3486184 -0.013285457 0.24292846 -0.16766445 -0.32660183
0.1003918 0.06733132 -0.4644342 0.01377382 0.2840806 0.061862636 0.19442573 0.32042694
0.05325783 -0.4450585 0.18901585 0.1631958 0.120670974 0.03139294 0.19816624 -0.07121534
0.12023576 -0.19655167 -0.4850758 0.18618047 0.15314278 -0.19651441 -0.3744589 -0.7072477
0.119341314 -0.13804013 -0.19818617 -0.10977687 -0.023199355 0.51157874 0.20466432 0.21022992
-0.3167981 0.050072934 0.31163678 0.036090456 0.33329433 0.39602527 -0.083736986 -0.3422719
-0.550194 0.0848525 -0.10976499 -0.20579727 0.12050549 0.17285718 0.17929216 0.28310025
0.1756561 -0.1668427 -0.5707655 0.2070346 0.058740772 -0.0028314276 -0.2154446 0.2631838
-0.441432 -0.39489898 0.025850222 -0.23648354 -0.066031165 -0.10500861 0.35157594 0.11175507
-0.119787835 -0.14514178 -0.1166463 0.10206517 0.13777284 -0.15224482 -0.107828796 0.1629058
-0.001736403 -0.006093818 0.1226631 0.15592334 0.15870978 -0.17975186 0.12576146 -0.089337505
-0.11023278 -0.029367778 -0.056190833 -0.08477885 0.16143087 -0.052949242 0.17320438 -0.08266009
0.17632341 0.06382709 -0.10814251 -0.12151797 0.09467862 -0.20471594 -0.099762134 -0.19078279
0.068189435 0.12893897 -0.14418611 -0.088603936 0.12040012 0.004242496 0.09804484 0.00072743197
-0.11510736 -0.05168553 0.12222693 0.08977615 -0.022005536 0.08687112 0.08677662 0.14890783
-0.09775275 -0.056965012 -0.01610259 0.1315348 -0.14229767 -0.0031199376 -0.11066718 -0.10920801
-0.06987706 0.16527669 0.053146604 -0.0031876361 0.11644164 -0.061865713 0.17089403 0.083506346
0.013874158 -0.023050949 0.05496754 0.20235135 -0.17663644 -0.13335463 -0.11468322 -0.12351999
0.2913971 -0.5905428 -0.06801065 -0.19019787 -0.41142133 -0.06645868 0.24267471 -0.27963787
-0.17186661 -0.18321799 0.0058463784 0.050102163 -0.6705226 -0.24432372 0.5765926 -0.16127937
-0.3011573 0.2358087 -0.271956 0.23267297 -0.20840824 0.23613879 -0.33178332 -0.29578835
0.24462624 -0.009149556 0.26482552 -0.22671743 -0.09861159 -0.028190382 -0.5105266 0.21882178
0.13182619 0.011127275 -0.14621083 0.13283183 0.041428745 0.27827322 0.10166773 -0.3021392

convt1.bias f4 [8]
00000000: 6492 8d3c 4f0f ba3d 3ae3 b6bd fffb 47bc
00000010: 588a 9bbd 87e1 203d c551 97bc d29d 82bd
0.017281719 0.09084951 -0.08930059 -0.012206077 -0.07594746 0.03927758 -0.018471608 -0.06377758

convt2.weight f4 [8, 16, 5, 5]
00000000: 4f1d a7be c734 f2bc 2a1c 96bf bdd0 13bd
00000010: 1ecd eabd 5b8a fe3d e712 a2be da65 83bf
00000020: 2c31 e3be 187a acbe db0e 6c3d 8b61 74be
00000030: d14f 19be 1a5d 2dbf 8cff 63bf 6e75 e9be
00000040: cb59 90be 7f6f 08be e375 48be 8026 91bf
00000050: 2455 59bd d9fd 36bf b215 86bf e29b 3ebe
00000060: de38 91bd 1070 b5be 0567 cfbe 003b e0be
00000070: ae75 3abf 2d7d 18bf e412 a9be c397 f1be
00000080: 70c1 51be 2176 93be 4011 3ebe bcd1 9ebe
00000090: cc83 31be 1854 f2be f6d2 f7be ed8a 163e
000000a0: 9d02 01bf 47cc cbbe d2dd 4bbe 2cc0 d4be
000000b0: a12d 7abe 7297 22be f7e3 42be 4f54 a23d
000000c0: 2145 56be 9fb0 013d 6a11 dabb b68d 8cbf
000000d0: 0ae6 9bbf 6f75 bebd c037 223e 6dba 18be
000000e0: 9bc2 293a a61b 07bc 525b 94be 0230 bcbc
000000f0: b588 4b3e 78a0 9ebd 325b 423e 1163 fd3d
00000100: 8261 773d 904d 3cbf 14e9 fbbe d703 b3be
00000110: 8274 d03d f7c9 5dbf 5b50 093e e019 29be
00000120: 369a 25bf a9aa 1dbd a3db f5bd 3ffe 2b3e
00000130: 165c 9abd 8ccd 0a3d aeb2 14bf f4a4 8d3c
00000140: 54b9 623e 8f23 0fbd 62c4 f83d a108 1abf
00000150: aa54 d33d d83a c23c 20c2 64bd f758 7cbe
00000160: 0056 02bf 26cf 4cbe 58ce 30be 2f0c 623d
00000170: 5000 12be ecea dc3d 2498 08bd 1a99 3e3e
00000180: 64a9 583e 0029 32be f1e8 823e c994 32be
00000190: 3a28 693d 7a3c 1b3e ef91 2abf ae83 2ebe
000001a0: 6894 533d b8e5 8cbf 9db1 5ebf 92ed 4fbe
000001b0: 085f 01bf c1e6 1ebf 55f2 76bf 9b7b 2ebe
000001c0: b22f a9bd fe7f 8abf 02aa edbe d595 89be
000001d0: dd6a 5bbe 083e f2be fd53 b1bd 707e 65bd
000001e0: 7a39 cdbe 9330 5bbe af2d 48bf c764 c8be
000001f0: e892 9abc ee94 18bf 103b 89be 5431 133d
00000200: 0ed0 703d e1d6 c4be 43d6 3d3e 87f0 9cbc
00000210: 84e2 e4be d70f d2bd 2946 87be 4d34 52bd
00000220: cad1 53bd dd23 843d 0a52 a83d e9e4 dfba
00000230: 61b7 05bf 6288 b9be fba4 a1be ee7b 563e
00000240: 2680 84be 6d75 5c3e 5835 ce3c 7186 29be
00000250: 708b a9be 7057 d4bf 9c5a d7bd 79ff 18be
00000260: 6cc3 23be 6b0d 52be 376c 00be 1fd3 c4bd
00000270: 9265 1dbf 368e 72be 750b 3fbf 6c19 ccbd
00000280: 4580 bcbe 7c79 28be 21f6 51be 6a45 e6be
00000290: 3ac4 833c 4b77 04bf 5dc8 debe 327b ef3c
000002a0: b99d f63c 4a8f 8cbf ddb6 d9bd 25b6 e8be
000002b0: 034f 41bd 8910 d03d 455f aabe 654d 523e
000002c0: 8838 52bf ff45 dc3d 1bd8 183e c398 853e
000002d0: f16b 43be 9684 99be 9761 88be 0678 e2bd
000002e0: ef25 c8be fa83 093e de4b df3d 75ea a5bd
000002f0: 26da 57be ce33 333e 91c1 023c 5a3e 69bd
00000300: 520f 0cbf ae11 1cbe f76f 43be 0934 b63d
00000310: 537f 013e 74a9 f83d d90f 7f3c 1a2f 703d
00000320: fda2 41bf 0bcb 5d3c b6cc b2be a617 1d3d
00000330: 3600 88bf 7f2c aabe 6c8c 99be 4a02 6fbe
00000340: 4ad4 04be 9e00 313d cec7 3f3e b3fd 96be
00000350: e81f 4ebf a0e2 353e 5567 35be 92cd c7bd
00000360: 3a5c 9dbd 4104 c8bd 1857 a5be 9601 24be
00000370: 2def 7bbf d12f 023e 6f4f cd3d 0092 033e
00000380: 7adb 83bf ac60 943d 8abb a9bd acc3 693e
00000390: 7b62 21bd c3d9 c2bc 9e09 91be f5ee 79bf
000003a0: ec51 953d 7f48 8ebe ade1 b33d cf41 85be
000003b0: 5466 dbbe 0432 54bd b68e 46bd 1302 3d3d
000003c0: c2a6 cbbd 1a59 a53d 8db0 6bbc b1fc db3c
000003d0: b4be 76bc d54a 2a3e 3cf4 6a3e e328 8cbd
000003e0: f017 1dbf d99f b0be 1941 aabd 9157 8dbd
000003f0: 0ca4 353e 8463 4fbf ade2 a83d 5637 23be
-0.32639548 -0.029566182 -1.1727345 -0.03608774 -0.11464904 0.12428733 -0.31655046 -1.0265458
-0.44373453 -0.336869 0.057631355 -0.23865335 -0.14971854 -0.67720187 -0.8906181 -0.45597404
-0.28193507 -0.13323782 -0.1957622 -1.1339874 -0.053059712 -0.7148109 -1.0475371 -0.18614152
-0.07090925 -0.3543706 -0.40508285 -0.43795013 -0.72835815 -0.59566003 -0.33022225 -0.47186098
-0.20483947 -0.28801063 -0.18561268 -0.3101939 -0.17335433 -0.47329783 -0.48403138 0.14701433
-0.5039461 -0.3980429 -0.19908836 -0.41552866 -0.24431469 -0.15878084 -0.19032274 0.07926237
-0.20924808 0.03166258 -0.006654908 -1.0980747 -1.2179577 -0.092997424 0.1584158 -0.14914866
0.0006475837 -0.008246338 -0.28975922 -0.02297211 0.19876368 -0.07745451 0.18980101 0.12372411
0.060395725 -0.7355585 -0.49201262 -0.34963867 0.10178472 -0.866363 0.1340956 -0.16513777
-0.6468843 -0.038492832 -0.12004783 0.16796206 -0.07537095 0.03388743 -0.58085144 0.01729057
0.2214101 -0.03494602 0.12146832 -0.60169417 0.10318883 0.0237097 -0.055849195 -0.24643312
-0.50912476 -0.20000896 -0.17266214 0.0551874 -0.14257932 0.10786995 -0.033348218 0.18613091
0.21158367 -0.17398453 0.25568345 -0.1743957 0.05692313 0.15159789 -0.66628927 -0.1704242
0.051655203 -1.1007605 -0.86989766 -0.2030547 -0.5053563 -0.6207085 -0.9646352 -0.17039339
-0.0826105 -1.082031 -0.46418768 -0.26872125 -0.21427484 -0.4731295 -0.086585976 -0.056028783
-0.40082914 -0.21405248 -0.7819471 -0.39139387 -0.018868878 -0.5960225 -0.26802874 0.035935715
0.058792166 -0.3844519 0.18538766 -0.019157661 -0.44704068 -0.102569275 -0.26420715 -0.05131941
-0.051713742 0.06452153 0.08218773 -0.001708177 -0.5223294 -0.36236864 -0.31571183 0.20945713
-0.2587902 0.2152917 0.02517192 -0.16555192 -0.33114195 -1.6589184 -0.10515329 -0.14941205
-0.15992516 -0.20512931 -0.1254128 -0.09610581 -0.6148311 -0.23687062 -0.7462686 -0.09965786
-0.36816612 -0.16452593 -0.20504047 -0.44974834 0.016084779 -0.51744527 -0.4351224 0.029233549
0.030104505 -1.0981228 -0.106305815 -0.45451465 -0.047194492 0.10159404 -0.3327581 0.20537336
-0.8211751 0.10755538 0.14926188 0.2609311 -0.19084145 -0.29983968 -0.26636955 -0.11058049
-0.3909144 0.13429251 0.109031424 -0.0810136 -0.21079311 0.1750023 0.00798072 -0.05694423
-0.54710877 -0.1524112 -0.1908568 0.08896644 0.12646227 0.121416956 0.015567743 0.05863867
-0.75639325 0.013537179 -0.34921807 0.03835263 -1.0625064 -0.33237073 -0.29989946 -0.23340717
-0.12971607 0.04321348 0.18728563 -0.29490432 -0.80517435 0.17762232 -0.177152 -0.09756006
-0.076836064 -0.09766436 -0.3229301 -0.1601623 -0.9841183 0.12713553 0.100249164 0.12848663
-1.0301354 0.07245001 -0.08287723 0.22828549 -0.03940056 -0.023785478 -0.2832765 -0.97630244
0.07291016 -0.27789685 0.087832786 -0.2602677 -0.42851508 -0.05180551 -0.048475944 0.046144556
-0.09943916 0.080736354 -0.014385355 0.026853891 -0.015060116 0.16630109 0.2294473 -0.06843736
-0.6136465 -0.34496954 -0.08313198 -0.069014676 0.1773836 -0.81011224 0.0824636 -0.15939078

convt2.bias f4 [16]
00000000: 1631 db3d 59ad 2e3e 647d 123d 4103 733c
00000010: c0c9 b73d a867 20bc 13c6 d83d beaa 50be
00000020: f593 2a3e c303 3d3d 4f6e 8e38 288d 2c3e
00000030: 9a5a 383c eac7 ea3d 22e6 b83b 4439 44bc
0.10702722 0.17058314 0.035764113 0.014832319 0.08974028 -0.009790339 0.10584655 -0.20377633
0.16658004 0.046146166 6.791634e-05 0.16850722 0.01125207 0.11463912 0.0056426683 -0.011976544

convt3.weight f4 [16, 32, 9, 9]
00000000: 67f8 58bc 026f 3a3d 2dc8 b7bd a745 a53d
00000010: a6b4 1fbe 39e9 b0bc 5dc7 0a3e febc 48bc
00000020: a578 233d 1a7c dbbd 4b50 cb3a 6254 273b
00000030: 7e68 23bd d2cd e1bd d167 1d3d d1f2 e4bc
00000040: a1df 05be 70ce 9c3d ca82 6ebc 79a6 b93b
00000050: f908 fa3c de59 dfbc 508a 19bd 44e5 3c3d
00000060: f664 ab3d baaa 2c3d 13cf fa3c bb76 ba3d
00000070: 2747 5ebd 4f7d 5d3d 4f91 ff3d 6e1b a23d
00000080: ffa9 763d 306c 1a3e 0fa5 47be a7e1 653e
00000090: 911b 67bc b88c 7b3d d54f 25bc c179 813d
000000a0: 5e85 833a 11be c13d 4e32 cd3d bed2 c33d
000000b0: 3016 463d 204f 92bd 6657 27bc 91e9 a0ba
000000c0: be42 7bbc 83bc 13bd 3dfc 9d3d d37f 693d
000000d0: 2ddd 72bc dd71 823e 0915 41bd 835f dc3b
000000e0: b039 0fbc a6de 493d e23e 1d3d f85d 7c3d
000000f0: 0936 c33d 9f6b bf3d 7801 293e 0426 723b
00000100: df1b 483d cdcb 84bd 321c d23d 6734 dcbb
00000110: 5004 67bd d06c 9d3d 8153 a93c 887f 4d3c
00000120: 07e7 843d 6fb8 ae3d 1990 32bc ec18 8d3d
00000130: 1e8a 963d 0965 5d3d 4920 313e 286c d63d
00000140: 816a 173e fa9e 273a f020 533e 2717 22bd
00000150: b1ad a4bb 1383 7e3e b997 3bbd 33d2 333c
00000160: a4b5 463e 715d fbbc ae6d bb3e 549c 8b3e
00000170: 69b7 df3b e47d e53d d3b3 823e f7f3 18bd
00000180: 6adb 463e 80fc b93d 9382 0e3b d879 ccbd
00000190: 8dee 46bd de5e 8f3e 69c7 2bbe f486 85bd
000001a0: a27e 333e ddfb 41bd ee53 83bd b9b3 af3e
000001b0: 2b3e 94bc 9edd ac3e 5f19 24bc 0b9a 583a
000001c0: 764e 293e 9d64 1a3c bc92 13bc 1067 8f3e
000001d0: b7d3 57bc e4ad e33e 7f5d 953e 75de 3cbd
000001e0: 275d 9c3e 8a8a 8b3e 6b3c 27bd fe58 963e
000001f0: abd2 283e 2f67 bdbc aa91 eebd 9ec9 83bd
00000200: adc3 b93e b0ec 20bb 6bea d1bc b394 6d3e
00000210: 7635 08be 5305 00bd 35e6 933e 806b 653b
00000220: a7f5 9f3e d916 b9bc a3c6 81bc b116 843e
00000230: c7d0 d83b 7bca 22bd 8895 403e a347 8abc
00000240: 30fe fe3e 127f 603e c38d 003c 6c7b 8b3e
00000250: 5d0f 813e d2bb 3eb8 4a32 9f3e 48b8 4c3e
00000260: ecc8 00bd d216 98be 5bc7 9fbc c6b2 f63e
00000270: c881 93be 6d43 49bd b7f6 a93e d5fc 78be
00000280: 52fc 02bd 2c13 aa3e 63f0 f93c b756 983c
00000290: afb4 1b3b 28da 1cbd e60d 04bc f578 adbc
000002a0: 9839 68bd 2b6f 393c 5584 43bd d8f6 8a3d
000002b0: 2b41 5b3d f10b e33c 6554 00bc 53c6 103c
000002c0: abfc 043d 0d17 dd3c daa6 9e3d 8b2a 483d
000002d0: 54aa 5a3d 3f09 453c 67fe 393d 6da3 323d
000002e0: c905 27bb 5551 4e3c 370f 4ebc 1bf6 77bc
000002f0: ff98 60b9 11c8 293d 8213 813b 9b36 173d
00000300: 4293 0a3d f5e8 8e3c 27ca 203d 6304 d8bc
00000310: d699 93bc 6e7f 223b 4829 9b3d bd63 ac3d
00000320: c7d3 16bc 1a22 92bc 7831 8b3d a415 553d
00000330: e2f6 0cbc 9a0d 113d 61ec 903c 1dc7 b33c
00000340: 6841 e83a 2a7e 473a e4ee 14bc 367c a53c
00000350: 096c 04bd 9633 aabc 2d22 eeba 00f3 4f3c
00000360: 8bc9 723d 8a9e c63a 490e c53c f56c 3e3c
00000370: 4381 f83a 3c0e ad3c 7f3e 113c ab84 2dbb
00000380: 9fa6 76bc 9769 903d c9ea 313d ab0a 113c
00000390: 3e07 a13c 4f9c 293d c9b3 fb3c 4b3d 493c
000003a0: fd79 8e3d 19e1 253d aee9 e43d 57c3 923c
000003b0: e60d 413c 2e9a ca3c 17f3 5b3c a45f 1bbb
000003c0: a7dc 433d cff3 de3c cda7 a93c 2a7d 8abb
000003d0: a546 543d b491 963d c6f5 f53c 975e c1bc
000003e0: a170 aa3d 99d4 823d 5958 823d 0781 213d
000003f0: d559 093e 572c 413d ea1d d93d 963c 16bd
-0.0132428175 0.04551602 -0.089737274 0.08069926 -0.15596256 -0.021595584 0.13552614 -0.0122520905
0.039909977 -0.1071703 0.00155116 0.0025532474 -0.039894573 -0.11025585 0.038429085 -0.027947815
-0.13073589 0.07656562 -0.01455755 0.005665597 0.030521857 -0.027264532 -0.03748542 0.046117082
0.08368866 0.042155005 0.030616319 0.09104677 -0.054267075 0.05407458 0.12478887 0.07915388
0.060220715 0.15080333 -0.19496559 0.22449361 -0.014105693 0.061413497 -0.010089834 0.06322051
0.0010034253 0.094600804 0.100193605 0.0956168 0.048361003 -0.07143998 -0.0102137085 -0.001227664
-0.015335737 -0.03606845 0.07714126 0.05700667 -0.01482324 0.25477496 -0.0471392 0.006725253
-0.008741781 0.0492846 0.038390048 0.061613053 0.09531791 0.09346699 0.16504467 0.0036948929
0.048854705 -0.064841844 0.10259284 -0.006720114 -0.056400597 0.0768677 0.0206697 0.012542613
0.064893775 0.08531272 -0.010898613 0.06889519 0.073505625 0.054051433 0.17297472 0.10469848
0.14786722 0.0006394234 0.20618033 -0.03957286 -0.0050255884 0.24854688 -0.04579899 0.010975408
0.19405228 -0.030684205 0.36607116 0.27267706 0.006827284 0.11205652 0.2552782 -0.037342038
0.19419637 0.09081364 0.0021745309 -0.09984177 -0.048567344 0.28002065 -0.16775288 -0.06519881
0.17528775 -0.047359336 -0.06412493 0.34316805 -0.01809605 0.3376283 -0.010015815 0.00082627
0.16533837 0.009423402 -0.009007152 0.28008318 -0.013173035 0.44468606 0.29172894 -0.04611059
0.3053982 0.27254134 -0.040829103 0.2936477 0.16486613 -0.02312049 -0.11648877 -0.0643494
0.362821 -0.002455514 -0.025624475 0.23201256 -0.13301644 -0.031255078 0.28886572 0.0035006702
0.31242105 -0.022593902 -0.015841788 0.25798562 0.006616685 -0.03974388 0.18807042 -0.016879862
0.49803305 0.21923473 0.007846299 0.272426 0.25207034 -4.547445e-05 0.31093055 0.19992173
-0.031441614 -0.2970491 -0.01950424 0.48183268 -0.28809953 -0.049136568 0.3319604 -0.24315198
-0.031978913 0.33217752 0.030510133 0.018596036 0.002375882 -0.038293988 -0.008059954 -0.02117584
-0.05669555 0.011318008 -0.047733624 0.06785363 0.053528946 0.027715655 -0.007832621 0.008836347
0.032467525 0.02698853 0.07746668 0.048868697 0.053385094 0.01202613 0.045408633 0.043612886
-0.0025485626 0.012592633 -0.01257687 -0.01513436 -0.000214193 0.041450564 0.003939093 0.03691731
0.033831842 0.017445067 0.039255287 -0.02636928 -0.01801769 0.0024795192 0.07576233 0.08417461
-0.009205765 -0.017838527 0.06796545 0.05202259 -0.008603783 0.035413362 0.01769084 0.02194553
0.0017719688 0.00076100475 -0.009090159 0.02020083 -0.032329593 -0.020776551 -0.0018168144 0.012692213
0.059274238 0.001515345 0.024054663 0.011622657 0.0018959421 0.021124952 0.008864998 -0.0026476781
-0.015054374 0.0705139 0.0434368 0.008852641 0.019656774 0.041408833 0.030725377 0.01228268
0.06956861 0.040497873 0.11177383 0.01791541 0.011783099 0.024731722 0.013424656 -0.002370813
0.047817852 0.027215866 0.020709896 -0.0042263465 0.051825184 0.073520094 0.03002442 -0.023604674
0.083222635 0.06388206 0.06364507 0.03942969 0.13413174 0.047161426 0.10601409 -0.036678873

convt3.bias f4 [32]
00000000: d290 70bb e972 5fbe 5ecc 4d3e dc84 d03d
00000010: afcd 253e 7dd2 43bb 8eba 413d ccdf ee3d
00000020: 8447 10be 3e47 983c d195 af3b ff6c 2f3e
00000030: 3133 af3d 22f7 7f3e 284f 1bbe 6c84 253e
00000040: 7c75 0d3d 083b 9bbe 734d 9d3c 8e0d 753d
00000050: 0108 ed3b 0012 e33d d4a2 373e 162d 093d
00000060: 2ee8 d13d 773a 003e f773 27be 1ed0 26bb
00000070: ec01 853d b711 613d de0c fa3d 0125 f53c
-0.0036707413 -0.21821178 0.20097491 0.10181591 0.16191743 -0.00298801 0.047297053 0.116637796
-0.14089781 0.018588658 0.0053584357 0.17131422 0.08554686 0.24996617 -0.15166914 0.16163796
0.03453587 -0.30318475 0.01920197 0.05982738 0.00723362 0.110874176 0.17933208 0.033490263
0.10249363 0.12522303 -0.16352831 -0.0025453637 0.06494507 0.054948535 0.122094855 0.029924871

pos_output.weight f4 [1, 32, 2, 2]
00000000: d743 e63d be7f 1a3d 1812 52be f777 2dbe
00000010: 4a03 7abc 8112 b23c 6714 5bbc 539c 233c
00000020: 9f2e 213e e35a 22bd a081 053d 083c debc
00000030: 27b0 cebd 81d3 e4bd 6b97 4dbe 5cc9 59be
00000040: 4c5f 933e 024e 5c3e 6ae6 1c3e 1357 383e
00000050: e4c3 4f3e c6ef 4d3e 100c 733e 8281 433e
00000060: fb6d 993e fb05 513e 8b02 953e 2bcd 5d3e
00000070: ae53 083e 068f 17bc c95f ccb9 ef7f 2bbd
00000080: 43f7 3b3c 3619 ba3c 807d a73c 281c 263c
00000090: cdca e0bd b162 53be 9e8f 7fbd cfd5 bfbd
000000a0: 97d5 df3e 4405 f83e 0bf9 133f 0649 283f
000000b0: ef32 653e cfa5 b23e 15a5 c03e 7bec 9b3e
000000c0: b990 493e 292a 6fbd 42ca 6a3c 1c46 b0bd
000000d0: 852a 0e3e 9196 5abe 7fd3 cf3d 6ec3 ae3d
000000e0: 052d 4dbd 714d f5bc a83c ce3d fb92 413c
000000f0: 4b04 93bc b295 95bd 96a7 c33c b0b7 dcbd
00000100: d3d0 693e f318 653e 8169 733e 61b1 3c3e
00000110: aa33 6cbe 8fce 7fbe 7561 3ebe 5f16 42be
00000120: fcc3 1d3f 311a 163f 7b14 033f 8e9c 033f
00000130: 40e4 c83b e6ef 9d3d 01d8 0cbe a10a 9d3d
00000140: 240f 61bd e343 7fbc b278 dd3d 966a df3d
00000150: 02cd 78be daf3 54be 97e8 81be a46a 83be
00000160: cc09 02be 5c7c 84bc 533d bcbd 7d15 d2bd
00000170: 0fe4 cc3d cab0 9f3d 8f80 113c a80e 193e
00000180: 29a6 d33d b3ae 003e d91d 293e 91f6 2b3e
00000190: 083d d0bd eaaf 623d 102d 26bd 80ff afbd
000001a0: c339 eb3b dc46 eabb b2d5 bb3b 2e22 203b
000001b0: cdf8 f8bd fb22 13be 640f 22be ab89 1bbe
000001c0: 6ca5 963e d684 a13e 06fa 9b3e f4d2 a43e
000001d0: cccb d8bd f11f 303a 8220 20bc f35c 7a3d
000001e0: 714e 243e c480 253e c094 553e cbbf 633e
000001f0: 03bc 163e b2e5 803e e42d 223e 60fa 593e
0.11243408 0.03771948 -0.20514715 -0.16940294 -0.015259573 0.021737339 -0.0133715635 0.009986001
0.15740441 -0.039637458 0.032594323 -0.027128235 -0.10092192 -0.11173154 -0.20077293 -0.21268219
0.28783643 0.21514133 0.15322271 0.18001966 0.2028957 0.20110998 0.2373507 0.19092372
0.2996672 0.20412438 0.29103503 0.21660297 0.13313171 -0.009250408 -0.00038981278 -0.041870054
0.011472526 0.0227171 0.020445585 0.010138549 -0.10976181 -0.20643117 -0.062392823 -0.09366953
0.43717644 0.48441517 0.57801884 0.65736425 0.22382711 0.34892127 0.37625948 0.30453858
0.19684114 -0.058389816 0.014330449 -0.08607122 0.13883407 -0.21346499 0.101477616 0.08533369
-0.050091762 -0.029944154 0.10070163 0.011814828 -0.017946383 -0.07303943 0.023883622 -0.10777223
0.22833566 0.22372799 0.23770715 0.1842704 -0.23066583 -0.2498114 -0.18591864 -0.18953846
0.61627173 0.58633715 0.51203126 0.5141076 0.006130725 0.077117726 -0.13754274 0.07668043
-0.05494608 -0.01558015 0.108140364 0.109090015 -0.24296954 -0.20796147 -0.25372764 -0.25667298
-0.1269905 -0.01617258 -0.09191384 -0.10258005 0.10004436 0.07797392 0.008880748 0.14946997
0.10334427 0.12566642 0.16515292 0.16793276 -0.10167891 0.055343546 -0.04057032 -0.08593655
0.0071785166 -0.0071495604 0.0057322616 0.0024434435 -0.1215683 -0.14368813 -0.15826184 -0.15189235
0.29423082 0.31546658 0.3046419 0.32192194 -0.10585746 0.0006718627 -0.0097733755 0.0611238
0.16045548 0.16162401 0.20857525 0.22241132 0.14720158 0.25175244 0.15837818 0.21286917

cos_output.weight f4 [1, 32, 2, 2]
00000000: b5d7 1ebe 4a0e c8bd b267 703d 895c 083e
00000010: 6b86 bcbd 86dd dfbd 1403 d0bd 82c9 edbd
00000020: 12b9 043d 8815 523e ebb6 4c3e 982c 883e
00000030: 6497 52bd 15e5 473d 690b 5a3e e8a0 223e
00000040: 53ae 94be fd82 4fbe 844f 04be 90d8 25be
00000050: 085e 513c 0db8 753d cb78 32be bcf5 05be
00000060: f6e0 09bf c246 d6be fd61 f4be e35b ccbe
00000070: 0892 073d 736a 263e 695c 223e 7ef6 40be
00000080: 8eec cebd 9071 bcbd de72 ebbd 60a4 efbd
00000090: 62d8 9b3c 560f b83d ddbf f7bd dfad 9cbd
000000a0: be1b ccbe 061e e9be b57a 09bf 3572 1fbf
000000b0: 2821 653b 73c9 0dbe 2252 03be 6301 e7bc
000000c0: 292a f5bd 7254 85bb 5354 dcbc 6ae5 893d
000000d0: 246c 5b3e 966d 903e a088 a73e 1858 0c3e
000000e0: 0017 303e 89df 7f3c 8a0f 4d3c 7e0f 663d
000000f0: 8d5c 453e 217c 023d d766 5b3e a03e 1d3e
00000100: 709f a33d d1a2 813d 8d8d 003e c73e 023e
00000110: 744d 053e 25a8 e23d 01be 91bc 9d11 e0bc
00000120: 201f 4abf 7220 50bf 6562 16bf 0787 21bf
00000130: 7f67 713d 9d73 94be 6a2b 8f3e 5770 89bd
00000140: 37a9 523e 6e04 1a3e 060d c23d e9bd 4b3d
00000150: 3fed 7d3e 76e1 8d3e d86d 943e 3d9d 943e
00000160: c6bc f5be 58bc bebe 4b8f 86be 887e f7be
00000170: 4ab6 123d 018f bd3d 0acd ffbd 66c5 843d
00000180: 4ebf 8ebe 6341 bfbe 2131 cfbe 48f3 94be
00000190: 0b67 713d ffee 4e3d db96 153e 1ffb d63d
000001a0: ab3e e63c e4b5 8f3c 766e 4abe 522f 32bd
000001b0: d6a1 063f 1d6a 063f 8668 d43e ac74 dc3e
000001c0: b0ca c8be f3d2 cebe f6fd c5be 3b5a dabe
000001d0: 2845 aa3d 518d 703d 987c 093e d98c a03d
000001e0: 7c20 8fbe 4473 90be 2a72 f1be fc01 eabe
000001f0: 1886 b63d 922a 1d3e 6b51 e43c fcce 063e
-0.15511973 -0.097683504 0.05869264 0.1331655 -0.09205326 -0.10930924 -0.10156837 -0.116107
0.03240306 0.20516026 0.19991653 0.26596522 -0.05141391 0.048802454 0.21293415 0.15881693
-0.2903925 -0.20264812 -0.12920958 -0.16195893 0.012778766 0.059989978 -0.17428891 -0.13082021
-0.5385889 -0.4185086 -0.4773101 -0.39913854 0.03309825 0.16251545 0.15855564 -0.1884403
-0.10103713 -0.09201348 -0.114965186 -0.11701274 0.019024078 0.089873 -0.12097142 -0.07650351
-0.39864916 -0.4553072 -0.5370286 -0.6228364 0.003496239 -0.13846378 -0.128243 -0.028198903
-0.11970932 -0.0040689046 -0.026895678 0.067332104 0.21427971 0.28208607 0.32721424 0.1370548
0.17196274 0.01561726 0.012515912 0.05616712 0.19273587 0.03185666 0.21425949 0.15355921
0.07989395 0.06329883 0.12553997 0.1271926 0.13017827 0.11067227 -0.017790796 -0.027352149
-0.78953743 -0.8129951 -0.5874389 -0.6309666 0.058936592 -0.28994456 0.2796281 -0.0671088
0.20572363 0.15040752 0.0947514 0.04974166 0.24797533 0.27711076 0.28990054 0.29026213
-0.47995585 -0.3725307 -0.262812 -0.48338723 0.035818376 0.092557915 -0.1249028 0.06482963
-0.2788033 -0.37354574 -0.4046717 -0.2909186 0.05893616 0.050520893 0.14608328 0.10497116
0.028106054 0.017542787 -0.197687 -0.04350216 0.5259069 0.52505666 0.41485995 0.43057764
-0.39217138 -0.40395316 -0.3867032 -0.42646965 0.08313972 0.05872852 0.13426435 0.078393646
-0.2795447 -0.2821294 -0.47157413 -0.4570464 0.08912295 0.1534827 0.027870854 0.13164896

sin_output.weight f4 [1, 32, 2, 2]
00000000: 5103 813d 081d 6fbd e157 0e3d 42bf b0bd
00000010: 06d2 17bc 23a3 37bc c0ee 05bc d7d9 e6bb
00000020: 501b a63d 5a8c 113e 0294 14be 7f9c fc3d
00000030: ab33 1b3d f5d2 693c 29e7 5ebc 6180 9339
00000040: 8668 9e3d e64e e03c feb5 4b3d c20a 5e3d
00000050: d00b 0e3f 4739 013f 81c7 b63e 5497 aa3e
00000060: ed1e df3c 77ea 683c c252 9d3c 841d 393c
00000070: 699a bdbd 6dab dd3d d166 13be 054a c13d
00000080: 4878 abbb 2a72 86bc 7a82 f8bb f6ca e93b
00000090: 0a30 32bc 5b44 4ebc 1d70 c4bc f5e4 f43b
000000a0: ca76 84bd 5697 3ebd c3b5 83bd 03e0 72bd
000000b0: 3102 a7bd 15c3 04bd 7c8e 36bd 05c8 96bd
000000c0: 45b6 20be cecb 21be 44f4 34be 9bf1 23be
000000d0: 251b 123e 9117 c8bd fe08 773d 1080 9e3d
000000e0: 1de5 753d 8633 253b 4304 9c3c 2d3a ebbc
000000f0: 6e15 18be 0752 c83d f231 94bd 14ff 7fbd
00000100: 3298 10bd 8422 21bd 5044 1cbd bc44 38bd
00000110: cbac 373d 5867 173d 0294 f23c 9e33 313d
00000120: 9149 84bd 10a9 a3bd 0fd9 66bd cfe4 93bd
00000130: 71e5 7ebc c527 21bd 2c7b 4dbc c6a1 673d
00000140: 0eab 8f3e ae2c 953e 20cb f43e b132 ea3e
00000150: 8e9e 1a3c 8f08 b63b e11a da3c 012c b33c
00000160: db97 613e edb7 193e 6e97 023e 7160 5e3e
00000170: 73f4 1c3e ee7b 08be 29bb b33d a0e6 c7bd
00000180: 3855 b4be 5ed8 01bf 7448 02bf 4ab6 bcbe
00000190: b68f 41bd 52d5 ccbd 5f32 9bbc e439 d23d
000001a0: fdd9 0c3b b5a4 693c c137 23bc c3a5 193c
000001b0: 1967 03bd 3eac 27bd 79a2 b1bc 2a8b babc
000001c0: 1c59 45bc b3dc 9abc aef8 f9bc 87d5 babc
000001d0: d8cb 2c3e 0e8c 553e 89e7 0c3e da9c 053e
000001e0: 92ec c73d 7a0f c13d d726 053e 3e94 063e
000001f0: bb7a 4abd d3ae 21bd 33e4 8fbc 255b 3bbd
0.06299461 -0.058377296 0.034751777 -0.086302295 -0.009266382 -0.011208328 -0.008174598 -0.0070450115
0.08110678 0.14213696 -0.14509585 0.12334537 0.03789107 0.0142714875 -0.013604918 0.00028133675
0.0773478 0.027381372 0.04973411 0.05420948 0.55486774 0.50478023 0.35699084 0.3331858
0.027236426 0.014216057 0.019204501 0.011298541 -0.09257967 0.108237125 -0.1439469 0.09437946
-0.0052328445 -0.01641186 -0.0075839134 0.0071347905 -0.010875711 -0.012589539 -0.023979241 0.007473583
-0.0646797 -0.046531044 -0.06431153 -0.059295665 -0.08154715 -0.032412607 -0.044569477 -0.073623694
-0.1569453 -0.15800402 -0.17671305 -0.16010134 0.14268167 -0.0977012 0.06031131 0.0773927
0.060032953 0.0025207712 0.019045 -0.028714264 -0.14851925 0.097812705 -0.07236089 -0.06249912
-0.035301395 -0.039339557 -0.038151085 -0.044987425 0.044842523 0.03696379 0.029611591 0.043262117
-0.06459344 -0.079912305 -0.056359347 -0.07221376 -0.015557633 -0.039344568 -0.0125415735 0.056550764
0.28060192 0.2913565 0.47811222 0.457418 0.009437216 0.0055552195 0.026624145 0.021871569
0.22030585 0.15011568 0.12753078 0.21716477 0.15327625 -0.13328525 0.08775932 -0.09760785
-0.35221267 -0.50720775 -0.50891805 -0.36857826 -0.047256194 -0.10001625 -0.018944917 0.10264948
0.0021492236 0.014260461 -0.009962023 0.0093779 -0.032080743 -0.040935747 -0.021683918 -0.022771437
-0.012045171 -0.018904066 -0.030514088 -0.022806896 0.16874635 0.20854208 0.13760199 0.13048115
0.09761919 0.0942678 0.13003097 0.13142487 -0.04943345 -0.039473366 -0.017564869 -0.04574122
