ggcnn_base/output/models/221204_2000_training_example/epoch_02_iou_0.42_statedict.pt (torch, 256417 bytes, 16 tensors)

conv1.weight f4 [32, 1, 9, 9]
00000000: 8f91 af38 7a73 74bd 29c2 8c3a acb3 68bd
00000010: 3af4 84bd 22b9 753b 2693 fdbc 9782 95bd
00000020: c812 81bd e338 07bd 1ee8 a0bc 5c71 56bc
00000030: 7625 89bd fd72 a1bc 7c59 6fbd 2541 58bd
00000040: 5e32 14bd 0bfb b43c 3570 09bc 2afb 41bd
00000050: c4af 2bbc 1d7c 17bd c487 8dbd 2c17 6dbd
00000060: c46a bbbc 2488 48bd 11a6 71bd f104 8cbc
00000070: d2bc 40bd 98ac 40bc 965e cdbc b613 58bd
00000080: 3df6 d43c d613 3d3c 4df4 69bd d246 b83c
00000090: d67c dcbc 2c1a 05bd 654b 3bbd 2588 0bbd
000000a0: 7f68 80bd aadb 29bc 3498 8f3c a620 d13c
000000b0: 3a16 68bd 81c5 213c 8c16 d73c 3a11 0fbd
000000c0: affc 70bd 5fb9 b93c daca 3cbd b194 18bd
000000d0: 55d2 d0b9 b4e7 de3c 19d7 4ebd 8c59 cebc
000000e0: 3652 90bb 5da1 0fbd 2548 0c3d 19ca 053c
000000f0: c144 bf3a 71f4 59bd 9860 4abd ac78 063d
00000100: f290 e6bc 5f6a 9dbb a4bd 0cbc 6ce9 923c
00000110: 330b 013d 4294 42bd 1651 8f3b 2a7b bdbc
00000120: 17dc fa3c 0902 97ba 36da ab3c 410d 223b
00000130: 0a37 37bd 4f88 07bd db49 3a3d 83b5 6d3b
00000140: 7a5c 60bb 0021 7ebb 80d1 83bc ceeb 033c
00000150: 3613 4b3d f198 563d 7433 75bb 5021 6a3c
00000160: 85e3 1e3d 5c8c 4a3d 0061 1cbd fce0 abbc
00000170: e67b 4dbb 9dd7 5ebc adba 383c e9a8 783d
00000180: b1e0 603d e598 bb3d 897f 833d 184e 37bd
00000190: 0476 11bb 873b fc3c 8102 acbc ef33 873c
000001a0: 18f2 133d fd62 44bb e5f2 f23c a579 913d
000001b0: 9150 99bb 08c6 913c a07e c33c 1dde 7a3d
000001c0: c23e e83c dd45 023d e37c 943b 74f7 b93d
000001d0: 137b 993d 98dd 65bc 7363 093d f7b4 96ba
000001e0: cb45 0c3c a99e 8fbc 6ef8 b43c 34b1 953d
000001f0: 5edb 963d c849 1c3c cb8c 80bd d36e 0ebd
00000200: be5a 61bc e0d3 aabc c65e c3bc 4a78 813c
00000210: 352a 753d 092e a33d b993 173d cb82 b7bc
00000220: c0b6 16bd 421c 9abd 046b 3fbd 8e07 afbc
00000230: ca68 253d 07ff e6bc 1943 593d b9e5 4a3d
00000240: 428b 65bd df2b 04bd 339e 9dbd b205 cc3c
00000250: 6a48 52bd cdba 573c 538c 3a3b ebab 433d
00000260: 5a6f e23c c405 70bd 8b7b b2bd e7e6 4ebd
00000270: c697 b6bb 9b78 8fbb 0c29 e53b e694 043d
00000280: ac8e 163d 49ea 643d 268a c6bb 1188 9fbb
00000290: 16af 75bc cfc2 3ebc c107 8f3b b9ef 1e3c
000002a0: 92db 913c 0a34 3e3d 6bce 233d 80bc 06bd
000002b0: a031 30bd d70e 213b 8bf8 aa3b ce16 29bd
000002c0: 27d4 f43c 44ef e23c 5da5 d7bc 1770 1a3d
000002d0: 57e6 8e3c efaf 913c d4fa 02bd 6a13 ca3c
000002e0: da69 76bc fd54 27bd 139a dcbb 25e7 243d
000002f0: 54b3 c9bc 0290 00bd f062 133b 9e98 95bc
00000300: 007b bdbc a36f 263d a942 313c cf9c 1e3c
00000310: 5c5c 98ba a5c4 273d 3de5 153d 71d8 00bd
00000320: 5c26 ebbb 822d 273d adfe 8f3c 8b29 10bc
00000330: 6a1d 02bd dbe0 8cbc 29d0 c4ba 586d 17bd
00000340: 9f72 5ebc 5294 97bc 7a91 073c f224 41bd
00000350: 394a 843b ac52 23bc 78d4 87bc f454 cb3b
00000360: f844 a1bc fe06 4e3c 4327 1a3b 9a07 d63c
00000370: 7a2d d93c d1a8 91bc d40f 67bc 10f7 24bd
00000380: f4c0 363b dd2f 1e3c e8e2 6cbc 8f9c 31bd
00000390: d6a7 71bb a203 76bc 216a 903c 9eef 7c3a
000003a0: 4667 d3bc 0f94 28bd a9c3 e53b abaf 163d
000003b0: 896d 263d 00d9 babb 05e7 23bd 0e3d d63c
000003c0: d810 4ebc f05f a8bc 30d8 05bd 21ba 09bd
000003d0: 16eb 07bd 5733 b3bb 9cad a9bd c1db a6bd
000003e0: 1fea 9ebd ed71 99bd 17eb 93bc b25a b1bd
000003f0: badd 593c a1c3 a33c b8b9 04bd 0e9a 22bb
8.371763e-05 -0.05968044 0.0010739017 -0.056811973 -0.06491895 0.003749438 -0.030953955 -0.07300299
-0.0630241 -0.033013236 -0.019641932 -0.01308855 -0.06696598 -0.019708151 -0.05843495 -0.0527965
-0.036180846 0.022092363 -0.008388569 -0.04735867 -0.0104789175 -0.036983598 -0.06910661 -0.057883427
-0.022878058 -0.04895796 -0.058996264 -0.0170922 -0.047055073 -0.0117599 -0.025069516 -0.052753173
0.025996322 0.011540374 -0.05711775 0.022494707 -0.026914995 -0.032495663 -0.0457262 -0.034065384
-0.06269931 -0.010367313 0.01752863 0.025528263 -0.056661822 0.009873749 0.026255868 -0.034928538
-0.058834728 0.0226714 -0.04609189 -0.03725118 -0.0003982956 0.027210094 -0.0504981 -0.025189184
-0.0044043316 -0.035065997 0.03424849 0.00816586 0.0014592634 -0.053211633 -0.049408525 0.032829925
-0.028145287 -0.00480394 -0.008590136 0.01793357 0.03150482 -0.04750467 0.00437368 -0.023130018
0.030622525 -0.0011520992 0.020978075 0.0024727138 -0.044730224 -0.03308898 0.04548059 0.003627152
-0.0034234808 -0.0038776994 -0.016091108 0.008051826 0.049578868 0.05239195 -0.0037414702 0.014290169
0.0387912 0.049450263 -0.038178444 -0.020981304 -0.0031354367 -0.013601211 0.011274976 0.06070796
0.054901782 0.09160022 0.0642081 -0.04475221 -0.0022195587 0.030790104 -0.020997288 0.016504256
0.03611955 -0.0029966228 0.029656837 0.0710328 -0.0046787937 0.017794624 0.02386409 0.06124698
0.028350238 0.031804908 0.004531489 0.09080401 0.07494178 -0.014029883 0.033542108 -0.0011498024
0.008561562 -0.01753171 0.022091117 0.073091894 0.0736606 0.009539075 -0.06276854 -0.03477366
-0.013754545 -0.020852983 -0.023848902 0.015804429 0.059854705 0.07967765 0.037006114 -0.022401234
-0.036795378 -0.07524921 -0.046732917 -0.021365907 0.040383138 -0.028197778 0.053042505 0.049535487
-0.05604101 -0.0322684 -0.0769619 0.02490506 -0.05133859 0.013167095 0.0028464987 0.047771376
0.027640987 -0.05859925 -0.0871497 -0.050513174 -0.005572292 -0.004378391 0.0069934186 0.032368563
0.036757156 0.055887494 -0.006058949 -0.0048685153 -0.014995357 -0.011643126 0.004364938 0.009700709
0.017804895 0.046436347 0.039991777 -0.03289461 -0.043016076 0.0024575496 0.005217617 -0.041281514
0.029886318 0.027701981 -0.026323969 0.037704553 0.017443819 0.017784087 -0.03197749 0.02466746
-0.015039885 -0.040852536 -0.0067322343 0.0402595 -0.024621643 -0.031387337 0.0022489391 -0.01826125
-0.02312994 0.04063381 0.010819116 0.009680941 -0.0011624205 0.04095902 0.03659557 -0.031456415
-0.0071762037 0.040814884 0.017577494 -0.008798967 -0.031766333 -0.017197063 -0.001501565 -0.036969513
-0.0135771325 -0.018503342 0.00827443 -0.047154374 0.0040371683 -0.009968441 -0.016580805 0.0062051956
-0.019686207 0.012574909 0.0023521937 0.026126672 0.026510943 -0.017780693 -0.014102895 -0.04027468
0.0027886005 0.009654966 -0.014458396 -0.043362197 -0.003687372 -0.015015515 0.017628731 0.0009648743
-0.02580608 -0.041156825 0.00701185 0.036788624 0.040631805 -0.005702138 -0.04001524 0.02615216
-0.012577258 -0.020553559 -0.032676876 -0.033624772 -0.03318318 -0.0054687667 -0.082850665 -0.081473835
-0.07759499 -0.07492433 -0.018056436 -0.08659877 0.013297493 0.019990744 -0.032403678 -0.0024811062

conv1.bias f4 [32]
00000000: 2c16 2ebe 828e bc3d fedf ddbd 8039 28bd
00000010: b319 9e3d 7d92 c63d 91ef 31bd be87 d03d
00000020: 4cc5 f6bd 9a78 203d a8e4 df3d e0ab 9bbd
00000030: dbd4 d4bd 4948 743d a7a6 783d 6cea 873d
00000040: d7cd da3c 861f abbd 9a67 cdbd fee9 96bd
00000050: 21fc 20be fcb0 1a3e 8ab1 1a3d a972 cdbd
00000060: 8850 10be 00ca a13d 917a f4bc 0d6c 0e3d
00000070: 07c4 bbbd a546 c7bd bf32 a13d 147d c93d
-0.17000645 0.09206869 -0.10833739 -0.04107046 0.077197455 0.09695909 -0.04344136 0.10182141
-0.1204935 0.039177515 0.109322846 -0.07601142 -0.103921615 0.05963925 0.060705807 0.06636509
0.02670948 -0.08355622 -0.10029526 -0.07368849 -0.1572118 0.15106577 0.03776697 -0.10031635
-0.1409322 0.078998566 -0.0298436 0.034771014 -0.091682486 -0.09730271 0.07871007 0.0983831

conv2.weight f4 [16, 32, 5, 5]
00000000: 8816 e8bd 4d25 acbd 0783 c6bc acb0 54bd
00000010: bcee f2bd 3a62 dfbc b711 9fbd 0f52 bfbc
00000020: 9142 31bd 2535 d0bd eb7d 9abd b81b e8bd
00000030: 03da f9bd 666d f3bc 0938 5ebd df25 e3bb
00000040: 4c83 21bd 78ca ec3b 7d9c d7bd 15a1 ac3c
00000050: 34c9 2bbd 9b5f 25bd 4ea8 443d 9790 a2bc
00000060: 4427 61bd 6e32 87bc 62c2 ad3c b3ba 443d
00000070: f60e 92bc 24b6 9cbd 8b53 263c fe2d 14bb
00000080: a5cd 3b3d b672 3cbd 266b c43c 83e6 943d
00000090: 4910 a93d 7e31 333c a8de 8dbc 8db6 56bd
000000a0: 3eec e03c 8de2 ea3c 5c21 b4bc a024 653d
000000b0: 5806 0dbd 0f49 6f3d 5d69 583d 583f 9c3a
000000c0: a8bf 403d 5a73 56bd ff23 903c d9cd 863d
000000d0: 4a74 3a3d 4236 263c 662e b4bc 7999 0abd
000000e0: 2514 18bd f635 173c 37ed 823d fc66 0bbd
000000f0: d642 bd3c 2a86 a2b9 39b9 913c 5d50 16bd
00000100: f9bf 7f3c 54cd ee3c f41f a03c abb7 fdbc
00000110: ccd0 bc3c 2ae3 47bc 52fc c53c ed88 2bbc
00000120: 1b02 df39 f46e 3a3d b0e5 583d e05a 3dbc
00000130: 73ca 073d effb aa3c bc63 52bd 4026 98bc
00000140: 26d3 a23a fbbd e6bc 3b6a 46bd 476d 993c
00000150: 23ec 873d e617 b6bd 3830 a0bd a6d6 c5bc
00000160: 9778 5bbd d48c c7bc f807 5c3d 848d 143d
00000170: e2f4 213d ebb8 033d 5c9e eb3d 2a27 dabc
00000180: a437 f33c 0a4c 1c3d 2293 be3d 59b8 e93d
00000190: f331 0cbd fa03 0fbd 9582 433d 32a7 b3bb
000001a0: fb98 99bd a947 133d a486 193d 0bd2 c43c
000001b0: 8457 823d d7de 433d a163 2c3d 1d50 823c
000001c0: 6319 573d ffd9 683d dbd9 503d fcc1 143d
000001d0: bc8c dd3d 98c8 103d 23d0 643c ecfd ce3c
000001e0: a8cd a13d 73f0 c83d 0c6f 4f3d 8d64 ec3d
000001f0: 45ce d43d 72a6 0e3d e31a afbc 6593 a83d
00000200: d445 9fbc 9a03 d83c e52e 9d3d f06a 30bd
00000210: 5d63 c53d 9cd7 253d cc40 5b3d 9519 dabc
00000220: ccb8 803d ab5e 8e3d a7e2 f23c b2bd 693d
00000230: 72cd 6bbd fce5 8fbd baf9 1ebd 20c8 69bd
00000240: c4d5 143d 5af6 9fbd 9ac9 693c 2b54 33bd
00000250: 94f5 aa3c 80de 35bd 4422 023d d609 d13c
00000260: bf32 97bd 024b 4e3d 580b 2bbd f98a bfbd
00000270: fb54 303c 43fd 42bd 82ba 6e3c 1e4a 0ebc
00000280: 7d0d 3a3d 666e 96bd 9c98 1a3c 104d 283d
00000290: d777 c63d 12a3 193c 7609 f73c 0735 8c3d
000002a0: c106 b83d 89e3 7f3d 41e6 4c3d 3a07 b63b
000002b0: 673c f53d 65f9 cf3d a745 d13d ee70 1abd
000002c0: 6596 e7bc 0f6f 90bc 8afe 0abd 87cd 1c3d
000002d0: 3508 b0bc 1de7 b4bc a34c c83c 1e03 5bbd
000002e0: c63e 363c 7353 07bd 5187 20bc 3583 823d
000002f0: ba34 c53c b07d df3c ad26 683c d5cd 15bd
00000300: 032c 2c3d 4502 33bb dd93 25bd a764 01bd
00000310: a1a2 23bd be48 4bbd 9da6 9a3b 278c c03c
00000320: 3105 f0bc 6aa4 cfbc 1b86 d0bc b4d9 a63b
00000330: 35b4 cd3c abd3 693d d68a b83c 2dec b7bd
00000340: 6246 85bd 32ce 033d 0710 d2bd 4988 87bc
00000350: 7b3c ddbc 8a23 47bd 53b5 c7bc 9f6c ffbc
00000360: 0cee c4bd 852b f6bc 98a3 8dbd e82b aebd
00000370: 702d 45bd df26 1fbd 2429 aabd 5604 73bc
00000380: 26f6 e9bc 00dc 00bd 1380 603d fea7 a43c
00000390: 3fbf 72bd 7260 db3c cc80 113d 0891 293d
000003a0: 6b20 ca3b 6e45 623c 0244 dd3c 4dd9 c7bc
000003b0: dc70 6b3c 97b7 f63c c974 b7bb 76c2 843d
000003c0: cf3b a03d cc92 953d 90a8 aaba 9e85 b83b
000003d0: 841a 8bbd 36ea ae3d 8282 2ebc a0fa f5bc
000003e0: 24ef 67bd e8af 14bd a769 b13d 4b69 b43d
000003f0: 7ea6 a63d cf2e 5d3c 54e5 b43d 2c8d 473d
-0.113324225 -0.08405552 -0.0242324 -0.0519263 -0.11861941 -0.027268518 -0.07767051 -0.023354558
-0.043276373 -0.101663865 -0.07543548 -0.11333412 -0.121997856 -0.029715251 -0.054252658 -0.006932005
-0.039431855 0.0072262846 -0.10527895 0.021072904 -0.04193993 -0.04037438 0.04801207 -0.019844336
-0.054969087 -0.016503539 0.021210853 0.048029613 -0.0178294 -0.07651928 0.010151754 -0.0022610421
0.045850415 -0.046007834 0.023976874 0.07270529 0.08255059 0.010937093 -0.017318085 -0.052420188
0.027456399 0.028672481 -0.021988563 0.05594313 -0.034429878 0.058419283 0.052834857 0.0011920733
0.047057778 -0.0523561 0.01759529 0.06582231 0.04552106 0.010144772 -0.02199478 -0.03383777
-0.037128586 0.009229174 0.063929014 -0.03403376 0.023103159 -0.00030999008 0.017788516 -0.036697734
0.015609735 0.029150642 0.019546486 -0.030971369 0.02304878 -0.012200156 0.024168167 -0.010469657
0.00042535443 0.04551597 0.052953422 -0.011557311 0.033152055 0.020872084 -0.051364645 -0.018572927
0.0012422546 -0.028166762 -0.048441153 0.018728865 0.066368364 -0.08891277 -0.07821697 -0.024150204
-0.0535818 -0.024359144 0.053718537 0.036267772 0.03954018 0.032158773 0.11504814 -0.026630003
0.029689617 0.038158454 0.09305407 0.11412115 -0.034227323 -0.0349159 0.047731955 -0.0054825777
-0.07499882 0.035957012 0.03748192 0.024025938 0.063643485 0.04781994 0.0420872 0.015907342
0.052514445 0.056848522 0.050989013 0.03631781 0.108178586 0.03534755 0.013965639 0.025267564
0.07900554 0.09811487 0.050643012 0.11542616 0.10390905 0.034826703 -0.021375125 0.08231238
-0.019442476 0.026368905 0.0767496 -0.043070734 0.09638093 0.040488824 0.053528592 -0.026623527
0.06285247 0.0695165 0.029649092 0.057065673 -0.057568975 -0.07026288 -0.038812377 -0.05707562
0.036336675 -0.0781066 0.014269257 -0.04378144 0.020869054 -0.044401646 0.03177096 0.025517385
-0.07382726 0.0503645 -0.041758865 -0.09352679 0.010762448 -0.04760481 0.014570834 -0.008684663
0.04542302 -0.073452756 0.009435799 0.041089118 0.096908264 0.009377258 0.030155879 0.06846052
0.08985663 0.062472854 0.050024275 0.0055550607 0.119744115 0.1015499 0.10218363 -0.037705354
-0.028269956 -0.017631082 -0.033934154 0.038281944 -0.021488288 -0.02208286 0.024450606 -0.05346977
0.011123365 -0.033038568 -0.009797887 0.06372682 0.024072994 0.027281612 0.014169377 -0.03657325
0.04203416 -0.0027314585 -0.040424217 -0.03159013 -0.039950017 -0.04962992 0.004719569 0.02350433
-0.02929935 -0.025346953 -0.025454571 0.00509187 0.025110343 0.057086628 0.02252714 -0.08980594
-0.06507565 0.032179065 -0.10256963 -0.016544478 -0.027006378 -0.048617877 -0.024378454 -0.031179724
-0.09615716 -0.030050049 -0.06915969 -0.08504468 -0.048139036 -0.03885543 -0.08308628 -0.014832577
-0.028559756 -0.03145981 0.05480964 0.020099636 -0.059264418 0.026779387 0.03552322 0.04139808
0.0061684153 0.013810499 0.027009968 -0.02439561 0.0143701695 0.03011684 -0.0055986387 0.06482403
0.078239076 0.0730339 -0.0013020206 0.005631163 -0.06792167 0.08540766 -0.010651233 -0.030026734
-0.056624547 -0.03630057 0.0866273 0.088091455 0.081372246 0.01349993 0.08832803 0.048718616

conv2.bias f4 [16]
00000000: ed17 4f3d e443 363d faf6 f5bc 156a 44bd
00000010: 117e 8fbc d1f4 4f3c 98b8 413c 39d7 9e3d
00000020: f0b4 313d bd12 13bd 9cab 113d e93b 55bd
00000030: ed45 7bbd 985f 7c3c 4af6 3e3d 978a 5b39
0.050559927 0.04449834 -0.030024994 -0.04795273 -0.017516168 0.012692646 0.011823796 0.07755894
0.043385446 -0.035906542 0.03556405 -0.052059088 -0.061345983 0.015403651 0.0466216 0.00020937096

conv3.weight f4 [8, 16, 3, 3]
00000000: 2c79 fabd da06 c73d a968 73bd 7d67 cc3d
00000010: 8718 1a3e 5668 9c3d ff0f 673d 9f11 09bd
00000020: a184 183e 6378 66be 03b4 573b 12c8 90bd
00000030: 8d7a 45be b329 013e f7fb 7ebd 56d7 b6bd
00000040: 3e5d a63d f8e2 533e d812 073e 9aa2 a5bd
00000050: 1be7 4c3d ed8d 10be 5954 6c3d 7b70 89bc
00000060: b8c3 88bd 72f9 1b3d 1551 57bd 5eae fd3d
00000070: 51d0 0cbe 8e6f 1dbe fd4e ab3d c110 6dbd
00000080: b561 c73d dbde 17be b050 38bc 9534 60bc
00000090: 9168 233e d154 1b3e 4657 c03d 9f0e b63c
000000a0: 3580 2c3e b969 23bb 0fbb 933d f126 edbd
000000b0: 28b6 e7bd e0b9 f7bd 7840 25be d7b4 03be
000000c0: 68b4 b1bc 1c4d ac3d 07c2 35bd 2195 e93d
000000d0: e91c fbbd ecd4 f83c bdf6 19be c4d6 c33d
000000e0: f7f5 a7bd 995b 3f3c 87d4 933d ed72 0d3e
000000f0: 5f2f 4fbd 4216 19bd ca97 fb3d 7faa 893c
00000100: 2cf2 c93d 06a9 90bc f8f0 103e 96a0 903d
00000110: bae2 ed3d f7ae 363e 288b 543e afbf c23d
00000120: e918 2dbe 571b 69be b5ec 17bc 2db8 a83c
00000130: a702 9ebb 83e6 8b3d aa43 6f3d d066 b83d
00000140: f425 cf3d 0bc9 15be 4c1a 8a3d 4f82 e9bd
00000150: 083d d6bc b2b2 6b3d dac9 0b3e 1307 1dbd
00000160: f5a7 d8bd a257 0fbe 308e 93bd f9f0 b53d
00000170: bcb9 163e 06ec 3f3d 3abf 12be 2c3c 253e
00000180: 605d 4bbe 0a2b b83d c8de aebd 1f60 453e
00000190: 496e 8dbd 127e 3a3e dea2 293e 7b21 d33c
000001a0: ee2d 44bd 3a25 06be deeb 913d d339 bdbd
000001b0: 5d94 86bd 99c5 743d 984e 8ebd 2609 04bc
000001c0: fef2 a0bd 4c0c d93d 8334 f53d fbb6 5d3d
000001d0: aaf7 8b3c f4c9 1c3e 336e a33d 9bdc edbd
000001e0: 878f 4dbd 6834 ed3d b506 383d 03e3 35bd
000001f0: f590 b7bd 9e94 4fbd e58f d03d d91d 703d
00000200: e845 e53d c6bc e73d 2749 99bd 36f6 993d
00000210: 6da9 4cbb 199c 1fbe 20a5 483d 8531 2cbe
00000220: 9de6 403d 6999 b93d 2817 f33d 7252 5c3d
00000230: e8fe 32be 102a 13bc f8cd 2c3e 282e 223e
00000240: 0083 05be e789 21be 2b60 d83b c979 7cbb
00000250: d6da 84bd 87d9 2e3d 3803 293e a1d1 f93d
00000260: ad95 04be edc1 e3bc a8e9 36bd 9c61 ac3d
00000270: d83b c23c 1e31 6ebe cc6e e93c 84dc b93c
00000280: 324b 0abe 7db4 c03c c828 febc 6db7 b83d
00000290: a18d 13be cf31 25be a706 463c 124f e83c
000002a0: c485 8d3d b619 4cbc bc19 dbbd b21c 8fbc
000002b0: fbdf 353d 1655 773c 0a70 76bd 481c 1cbe
000002c0: 963a 23bd 0461 0bbe d702 f0bc 6099 c73d
000002d0: bdf4 f83d 971c e33d d577 fd3d 51f7 e4bd
000002e0: 6cbb 1ebe 7205 bebd 8dc3 2cbe c6e7 d4bd
000002f0: d898 163d 198e 183e 479c 19be d6d5 0ebe
00000300: fcae 763d c5fc 053e 5b1c 5dbd 3c21 cbbd
00000310: eb98 d1bc ecb3 dd3d b093 18bd b479 2ebe
00000320: 279c e03d 51c0 943d c88a 32bc 2ee9 99bb
00000330: 8066 12be 2971 143e 07d2 12be 15a7 f53d
00000340: fca4 c93c 0512 91bc e564 f9bd 5341 13bd
00000350: d6f2 bebd 25eb bcbd 6a57 adbd aea2 01be
00000360: f926 3abd d856 5f3d 1f1c 5d3d 08a0 9cbd
00000370: 62a8 a73d 5837 afbd 66f2 10bd ffff 323e
00000380: adc2 cb3d 9eb6 b5bd b23c 113e 6ad7 90bd
00000390: c836 a6bc 1474 523d 55ce 8fbc 9687 e63d
000003a0: 35f3 e43d db2f 75bd f757 7dbc df26 0cbe
000003b0: efc8 21be cb92 2d3e a94f f73a bef2 bebd
000003c0: b67d 393e 3857 403d 5a62 bdbc 54d3 ea3c
000003d0: cc1d 26bc 17dd 83bd 776a f43d 0d48 dd3d
000003e0: 0592 7cbd 1ca3 cb3d 9a9f 2a3a de60 47be
000003f0: e585 d33d 27ee 04be 9849 873d 10c2 d63d
-0.12230143 0.09718104 -0.059425984 0.09980676 0.15048419 0.07637088 0.05641174 -0.03346407
0.14894344 -0.22506861 0.0032913692 -0.070694104 -0.1928503 0.12613563 -0.06225201 -0.08927791
0.08123253 0.2069205 0.13190782 -0.080876544 0.050025087 -0.1411664 0.057697628 -0.016777268
-0.066779554 0.038079686 -0.05256756 0.123867735 -0.13751341 -0.15374586 0.08364675 -0.057877306
0.09735433 -0.14831106 -0.011249706 -0.0136844115 0.15957858 0.15169074 0.09391646 0.022223769
0.16845782 -0.0024934842 0.07213413 -0.11579693 -0.113140404 -0.12096 -0.16137874 -0.12861954
-0.02169247 0.08413145 -0.044374492 0.11405397 -0.122613735 0.030374967 -0.1503553 0.09562448
-0.08201211 0.011679553 0.07218271 0.13813372 -0.050582286 -0.037374742 0.12284811 0.016804932
0.09860644 -0.017658722 0.14154422 0.07061879 0.1161551 0.17840181 0.20756209 0.09509217
-0.16904034 -0.22764336 -0.009272744 0.020595634 -0.0048220935 0.06831076 0.05841414 0.09003985
0.10114661 -0.14627473 0.06743297 -0.114018075 -0.026152149 0.057543464 0.13651219 -0.038336825
-0.1057891 -0.13998273 -0.072048545 0.088838525 0.1471929 0.04685595 -0.1433076 0.16136235
-0.19859838 0.08992584 -0.08538586 0.19274949 -0.06905801 0.18212155 0.16566035 0.0257728
-0.047895364 -0.13100138 0.07125066 -0.09239545 -0.06571267 0.059758756 -0.06948584 -0.008058822
-0.07858847 0.105980486 0.119729064 0.054129582 0.017085869 0.15311414 0.07980003 -0.11614343
-0.050185706 0.11582261 0.04492827 -0.04440595 -0.08963195 -0.05067884 0.10183696 0.058622215
0.11194974 0.113153026 -0.07484656 0.07517664 -0.0031228915 -0.1558689 0.0489856 -0.16815765
0.04709493 0.09062464 0.11869651 0.053789563 -0.17480052 -0.008982196 0.16875446 0.1583792
-0.13038254 -0.15775262 0.006603261 -0.0038524738 -0.06487052 0.04268792 0.16505134 0.12198187
-0.12947722 -0.027802432 -0.044656426 0.08417055 0.023710176 -0.23260924 0.028495215 0.022688158
-0.13505247 0.023523564 -0.031025305 0.09019361 -0.14409496 -0.16132282 0.012086547 0.028358016
0.069102794 -0.012457302 -0.10698268 -0.017469738 0.044403058 0.01509597 -0.060165443 -0.15245163
-0.039850794 -0.13611227 -0.02929823 0.09746051 0.12156055 0.110894375 0.12376372 -0.11179984
-0.15501183 -0.09278382 -0.16871472 -0.1039577 0.036766857 0.14897956 -0.15001021 -0.1394876
0.06022547 0.13084705 -0.05398212 -0.09918448 -0.025585612 0.10825333 -0.03725022 -0.17038614
0.10967284 0.07263244 -0.010897346 -0.0046969866 -0.14296913 0.14496292 -0.14337932 0.11994759
0.024614803 -0.017708788 -0.12177447 -0.03595097 -0.09323661 -0.09224538 -0.084639385 -0.12659714
-0.045447323 0.05452618 0.053981896 -0.07647711 0.08186413 -0.08555478 -0.03538742 0.17480467
0.09949241 -0.08872722 0.1418331 -0.07072337 -0.020289794 0.051380232 -0.017554441 0.1125633
0.111792006 -0.05986009 -0.015462867 -0.13686703 -0.15799306 0.16950528 0.0018868345 -0.09323643
0.18114361 0.04695818 -0.023118187 0.028665222 -0.01013894 -0.06438654 0.11934369 0.10804758
-0.061662693 0.0994322 0.0006508768 -0.19470546 0.10328273 -0.12981473 0.06605834 0.10486233

conv3.bias f4 [8]
00000000: acf6 09bc eb35 c0bd 24b7 ab3b c4c6 883d
00000010: 5fea bc3d 1d41 2f3d 1343 893d b399 453d
-0.008420628 -0.09385284 0.005240338 0.066785365 0.0922439 0.042786706 0.067022465 0.048242282

convt1.weight f4 [8, 8, 3, 3]
00000000: cf42 63bc 14ca eb3d 0e65 f23d e059 ebbc
00000010: 11f0 eebd 4041 683d e2bf ba3d 9bde c0bd
00000020: 4f0e 023e dd69 9ebe 2849 42be 66ab a1bd
00000030: ab1f 91be 3128 b3bd 693e 653c d36d 743d
00000040: d66e 88bd 3335 96bc d914 1fbe 4b32 bcbd
00000050: f31c b9bc 60d3 c9bc 1e06 833d c105 133b
00000060: 7871 313e 41fd 2c3e 8abc 1e3e 673b 15bd
00000070: ea71 193e 9659 38bd c05f 02be cdd3 193e
00000080: c93f 75be c940 cebd aa35 28be 08ec 0c3e
00000090: 8fd4 0e3e c4b8 babd c89b 6f3e 31d5 353d
000000a0: 9499 1abe a7b9 a43d b0c1 a03d f53b 9a3d
000000b0: 367a 2b3e 8d48 c03d d154 3c3e 8201 913d
000000c0: 7f0a 26be 3e5a e23d ae62 45be 33f3 e5bd
000000d0: 43b9 12be d285 25be 0590 773d 6494 35bc
000000e0: a6de 403e 3403 56bd 1eb5 4c3e 92ad c9bd
000000f0: f8cb fc3d f3d6 cb3c 1f21 69bd d46c c53d
00000100: 98d7 753e 4256 d13d 48b6 353e ecdb 033e
00000110: ea82 f73d 6525 c03d e792 243d 47b9 60be
00000120: cb3c 223e 8df9 06be 6960 dbbd 8897 9cbd
00000130: 4220 12be 940a fcbd 7cf7 09be bae9 d1bd
00000140: b5af 51be 1ce1 53be f6e5 79be dad2 2abe
00000150: b498 9d3d 1836 013e 0e4e 3d3e 3112 093e
00000160: 78e3 1a3e 41e7 90bc 8d69 4b3e 782d c13b
00000170: ce24 3bbe 91ea 0abe 2422 36be 473e 093e
00000180: d5be 0d3c c541 eebb ef03 6d3e 2726 4bbe
00000190: 0487 0a3c edaa e33c f95b 193e 4d68 ffbc
000001a0: a59c cb3c 9e78 bbbd e0b5 f5bd 97c4 59be
000001b0: fe08 2cbd 1b26 ce3d b7ea 043e 8f5a 7e3d
000001c0: 44a2 fdbd 5583 293d a1f1 c3bc c5af 273e
000001d0: 990b a23d 40b0 1cbe f44d 063e cbe7 57bc
000001e0: 30df 0bbf 1e32 43bd 7f2d 20bd a2d7 b5be
000001f0: 570f 8cbd eed3 e2bd 7263 ca3d da6e 84bc
00000200: 6428 743d bd72 a23d 5928 8abe 3b87 2fbd
00000210: 938a c63d 411a 54bd bf71 08be 2cf3 2cbe
00000220: 8340 5cbd 5c02 6cbe 1822 2abe 8247 6b3e
00000230: a2be 913c f1b5 20be 1b02 3a3c dbc5 18bd
00000240: 5353 f5bd 0ca0 14be 413f febd 8b07 d13d
00000250: 5314 0d3e 11e6 1bbe 4c0d 0ebe c7d0 263e
00000260: ef3a 81bc 4459 0dbd cb36 fb3d 5eaa 1f3e
00000270: d184 223e 94e5 4ebe 9dc7 003e 9886 c0bd
00000280: b9c1 e1bd b294 f0bc 18fc a9bd 9378 aebd
00000290: 9218 2c3e 4ee1 58bd 7d5c 313e b149 a9bd
000002a0: 7a93 223e c7b7 823d 2bf7 dcbd 8d8f d7bd
000002b0: dde6 c13d 95d2 42be 86f7 cabd 614c 3ebe
000002c0: e7a6 8b3d e35e 063e 86a5 13be fb75 b5bd
000002d0: a475 f63d a304 8b3b bb39 c83d bd03 f1bc
000002e0: 68bd ebbd 964c a0bd 26d8 fd3d 7997 7b3d
000002f0: b36c f1bc 281f b43d 7a79 ac3d 4b7b 183e
00000300: 9832 c8bd 2f4c 8fbd 94e9 83bc fff3 093e
00000310: 7368 21be de77 4cbb 79a5 e2bd 8968 d5bd
00000320: 6147 9bbd 152a 193e 41b0 593d a9e7 50bb
00000330: bb56 d23d 617c 95bd 93e8 253e 1603 e93d
00000340: 62a7 6f3c 58d5 bcbc 7e95 af3d 0b7f 693e
00000350: 2fe0 34be 2a54 d2bd 09df eabd 0cf8 fcbd
00000360: 49d5 3a3e fdb2 74be 337e febc 4ab0 89be
00000370: 2d6b 55be 0fe9 43be e407 813e 3504 82be
00000380: c4aa b5bd aa0d 25be be67 ddbd 783e afbb
00000390: 4e71 703d ce78 41bd 4a35 dc3d 2bae f9bd
000003a0: 2e6c 933d cd77 dd3d f46c f83c bd98 333e
000003b0: 3d80 debc 6a51 d13d f0ef 153d d929 29be
000003c0: 46c8 3e3d e9fd bbbc e433 123e 77f2 c1bd
000003d0: 53e5 a43d 2afe 32bd eed7 a5be e518 4a3d
000003e0: 3790 45be cc97 943d 9d63 433d 24da e53d
000003f0: e0c7 94bc 1180 77bc 4c6a 353e a53b 20be
-0.013870909 0.11513153 0.11835681 -0.02872938 -0.11666883 0.056702852 0.0911863 -0.094174586
0.12700771 -0.30940142 -0.1897322 -0.0789402 -0.28344473 -0.087479 0.0139919305 0.05967505
-0.06661765 -0.018335914 -0.15535296 -0.0918928 -0.022596812 -0.024636924 0.06397651 0.002243385
0.17328441 0.16893484 0.1550161 -0.036433604 0.14984861 -0.04500731 -0.12731838 0.15022202
-0.23950113 -0.100709505 -0.16426721 0.13761914 0.13948272 -0.091172725 0.2339927 0.04439277
-0.15097648 0.08043223 0.07849443 0.07530967 0.16745839 0.09388838 0.1839173 0.07080366
-0.16214941 0.110523686 -0.19275925 -0.11228027 -0.14328484 -0.1616433 0.060440082 -0.011082742
0.18834934 -0.05224915 0.19990966 -0.09847559 0.123435915 0.02488277 -0.056916352 0.09639898
0.24008024 0.102215305 0.17745316 0.12876862 0.12085517 0.093821324 0.04017916 -0.21945678
0.15843503 -0.13181134 -0.10711748 -0.0764609 -0.14270118 -0.12306705 -0.13473314 -0.10249658
-0.20477183 -0.20691341 -0.2440413 -0.16681996 0.076951414 0.12618291 0.18486807 0.13385846
0.15125835 -0.017688395 0.19864483 0.005895313 -0.18275759 -0.13566042 -0.17786461 0.13402663
0.008651455 -0.007271024 0.23146032 -0.19838773 0.008455042 0.027791465 0.14976491 -0.031177664
0.024854967 -0.09153865 -0.119975805 -0.212664 -0.042000763 0.10065862 0.12980162 0.062098082
-0.12384465 0.041385014 -0.023918929 0.16375645 0.07912368 -0.15301609 0.13115674 -0.013177822
-0.5463743 -0.047655217 -0.03910589 -0.35516077 -0.06838863 -0.11075579 0.09882249 -0.01616614
0.059608832 0.07932041 -0.26983908 -0.042853575 0.096944 -0.05178285 -0.1332464 -0.16889638
-0.05377246 -0.23047775 -0.16614568 0.22976497 0.017791096 -0.15694405 0.011353041 -0.037298065
-0.119787835 -0.14514178 -0.124144085 0.10206517 0.13777284 -0.15224482 -0.1387226 0.1629058
-0.015775172 -0.03450896 0.1226631 0.15592334 0.15870978 -0.20204765 0.12576146 -0.09400672
-0.11023278 -0.029367778 -0.08300036 -0.085190915 0.16806248 -0.052949242 0.17320438 -0.08266009
0.1587657 0.06382709 -0.10789331 -0.10525427 0.09467862 -0.19025643 -0.099104926 -0.18583824
0.068189435 0.13122134 -0.14418611 -0.088603936 0.12034157 0.004242496 0.09776636 -0.029420728
-0.11510736 -0.078271076 0.12394743 0.061423752 -0.029470777 0.08795005 0.08421607 0.14890783
-0.09775275 -0.06996953 -0.01610259 0.13471983 -0.157625 -0.0031199376 -0.11066718 -0.10420329
-0.07581974 0.1495746 0.053146604 -0.0031876361 0.10270449 -0.07299114 0.16202001 0.11377542
0.0146273095 -0.023050949 0.08573435 0.2280237 -0.17663644 -0.10269959 -0.11468322 -0.12351999
0.18245424 -0.23896404 -0.031066036 -0.2689231 -0.20841666 -0.19131874 0.25201333 -0.25393835
-0.088704616 -0.16118494 -0.10810803 -0.005348023 0.058701806 -0.04723435 0.107523516 -0.12191423
0.07198368 0.10813866 0.03032539 0.17538734 -0.027160758 0.102206066 0.036605775 -0.1651987
0.046577714 -0.022948222 0.14277607 -0.094700746 0.080515526 -0.04369942 -0.32391304 0.049340148
-0.19293295 0.072555155 0.04770242 0.11223248 -0.018161714 -0.015106217 0.1771633 -0.15647753

convt1.bias f4 [8]
00000000: 9564 453c 984b ed3d b55c 38bb 7537 a73d
00000010: cb59 69bc 0eb0 8f3d 26ad cebc 48a4 efbd
0.012047906 0.11586684 -0.002813143 0.081648745 -0.0142426 0.07016002 -0.025229048 -0.11701256

convt2.weight f4 [8, 16, 5, 5]
00000000: d434 9cbc 3bcc a3ba 4a14 b23d 983b 9bbc
00000010: 2a3e aa3c 48b9 8fbd 4641 a63d a3b8 bbbe
00000020: 28cf a3bd 8de1 abbd 49eb 7f3d 5bdb 863d
00000030: 7862 373d 7f79 8ebc 2d31 6bbd 330f e83b
00000040: eb6b 1c3d cc5a 71bb ca70 b63c b5b9 b83d
00000050: 9170 05bd 5d9d cfbd c4c0 d2bd 021d bdbd
00000060: 6659 a93d e830 123d 7311 9c3d de4a fbbd
00000070: c7dc 1cbe e82a 0dbd f39e 04bd bf24 29be
00000080: 5412 6dbd efae 04bc f1c4 cfbc 1bb5 88bd
00000090: 28df bf3c dca5 5ebd 8d36 7a3d be4b 813d
000000a0: 1f54 553d 3831 61bd 4a8e c2bd f4b4 efbc
000000b0: 9400 073c 4fd8 02be dde7 3cbe 3895 9b3c
000000c0: b56e debd 3060 64bd d96b 8c3d 52bf 493d
000000d0: 8c47 9a3d 9859 e73d e72b 43bd 8e1e 273e
000000e0: 8e6e fd3c 7f22 7a3d 6a7e 0a3e 4901 35bd
000000f0: b638 873d 325f 86bb 8ffd 833d cdaf 0e3e
00000100: ef86 f1bc 3a61 063d e99c 193d d6cf 80bd
00000110: 4a61 2b3e adff febd 9822 c0bd 5493 2dba
00000120: 985f 9a3c c365 7c3b 2a5a 9dbd ad2e 263e
00000130: 885f 16be 8055 d1bd 4596 adbd 041b 9dbd
00000140: d4cf a23d fb27 12bf 7b1c 9d3c 1c61 16be
00000150: fc63 133e f6b7 673e 0b5b 263e b97c 0bbe
00000160: 95b6 92bd 6187 74be c9c4 e1bd 217b 89be
00000170: df39 9abe 4775 423e 8f96 c8bd 0450 0a3b
00000180: 82fb f3bd 4989 37be 892d 9abd 2244 5c3d
00000190: a2a6 6b3b c363 3ebd 2440 d8bd 7857 64bb
000001a0: 3538 20bd 6f79 42bc 78f8 e2bd 2b21 48be
000001b0: 54c4 03bd c858 babd a84a 90bc dfab f9bd
000001c0: ee04 73bd d4b2 2abd b4c3 cfbd 1e37 19bd
000001d0: a368 9d3d 7a33 98bd c9f6 80bd 0b24 12bd
000001e0: 02a7 b5bd fb90 b43c 0f35 26be 3e31 debd
000001f0: 3d9b 94bd 021e ab3e 400e b73d 30e1 b23d
00000200: 551c 2c3d d0c8 afbd b0a5 123e adf4 e63d
00000210: 273b c03d 0281 ddbc 16b2 993d 80c2 413d
00000220: b596 843d 02de cb3d 47a8 c7bc 843d 6b3d
00000230: 4258 903c ca6f 0f3d 2a9f 31bd efb6 9d3c
00000240: dfec 54bd 7c5b 453e 5986 0c3e 7c48 82bc
00000250: 4b13 123e a6b9 e4be ceac c7bd e697 383c
00000260: 8ad1 9fbb 28c4 63be a517 28bd 959a 28be
00000270: d2c0 85bd 8318 3dbd 8892 8dbe f6d8 df3c
00000280: 075e 3abd 4418 b8bd 5b7a 72bc f636 f6bd
00000290: 6898 3a3a 2e5e bdbd 55f8 183d 8e2b 9ebd
000002a0: b679 51be 0a71 213d ba04 e2bd a05c 39be
000002b0: cb37 d5bc 2f8f b03d 1f12 44bd d98b 573e
000002c0: 553f eebd cc9f af3e d164 333e bced a23e
000002d0: 8137 b6be 0798 0a3d 6190 86be fb29 9abd
000002e0: 07bf 93be 02de 143e 9a09 763e 1463 b13e
000002f0: 5f78 65be 0603 653e 07e4 833c 6655 a2bc
00000300: 3cd5 87be 605a 41bd f9f2 b8bb 3a45 dc3d
00000310: 3a38 98bc 711b c33e 56c1 9bbc 5f8d 053e
00000320: 4905 b8bd 0173 76bd 5e75 70bc 04fc 85be
00000330: 3ebb 9ebc 38f4 253c 3614 20be be97 063d
00000340: 02c5 eebd 6050 b33d 974c c13d 3436 66be
00000350: 5fca 943d 638a 483e e0cc c53c c747 673c
00000360: cc8a dfbc c254 06bc 6e9e 11bd 7ea2 753d
00000370: c044 7e3d 67e9 f2bd d918 17bc caa8 acbd
00000380: e4e8 6ebd 09d6 85bd 184e b53d 829d 633b
00000390: e324 3d3d 0883 12bd 180a 9d3d f4a2 e3be
000003a0: 13a1 aa3d 5050 e4bc 643a 893d 9c25 a03d
000003b0: c28d 1ebd 55d7 52be c08e cd3c df43 8cbe
000003c0: 984a ca3d ec2b ad3d 77a0 213d 96e5 4c3c
000003d0: 681d d4bd de88 fabc 413c 2bbe 8748 273e
000003e0: efe9 0ebd f85c ef3c fa28 cb3d 2fe3 c13d
000003f0: 474f bbbd 7ad5 3d3d aa18 8dbd ab79 8c3d
-0.01906816 -0.0012496779 0.08695276 -0.018949315 0.020781595 -0.070177615 0.08117919 -0.36664304
-0.07998496 -0.0839263 0.062480245 0.065848075 0.04477164 -0.017391918 -0.057419945 0.00708189
0.038188856 -0.00368278 0.022270579 0.09019796 -0.032578055 -0.101374365 -0.102906734 -0.092340484
0.082690045 0.035691172 0.07620516 -0.12270139 -0.15318595 -0.034464747 -0.03237815 -0.16517924
-0.057878807 -0.008098348 -0.025362464 -0.06675168 0.023421839 -0.054357395 0.06108718 0.06313275
0.052082177 -0.05497858 -0.09499796 -0.02926109 0.008239884 -0.12777828 -0.18447824 0.018992051
-0.108609594 -0.055755794 0.06856508 0.049254723 0.07533178 0.112963855 -0.04764929 0.1632025
0.030936506 0.061068054 0.13524786 -0.04419068 0.06602614 -0.0041007036 0.06444847 0.1393425
-0.029483287 0.032807566 0.037503157 -0.062896416 0.16736332 -0.1245111 -0.09381598 -0.000662138
0.01884441 0.0038512803 -0.07683213 0.16228743 -0.1468488 -0.10221386 -0.08475927 -0.076711684
0.07949796 -0.57092255 0.01917862 -0.14685482 0.1439361 0.2262877 0.16245668 -0.13621797
-0.07163731 -0.23879768 -0.11023862 -0.26851752 -0.30122277 0.1899005 -0.09794342 0.0021104822
-0.11913206 -0.17923464 -0.075282164 0.053775914 0.0035957475 -0.04648186 -0.10559109 -0.0034842175
-0.039116103 -0.011869772 -0.11082548 -0.19543903 -0.032169655 -0.09098965 -0.017613724 -0.12190985
-0.059330873 -0.04167445 -0.10144749 -0.03740608 0.076859735 -0.074316934 -0.062970705 -0.035678905
-0.08869745 0.022041788 -0.16231178 -0.10849236 -0.07256172 0.33421332 0.08938265 0.08734357
0.042019207 -0.08583224 0.14321017 0.11277137 0.093862824 -0.027039055 0.0750467 0.04730463
0.064740576 0.09954454 -0.024372233 0.057431713 0.01762021 0.03501872 -0.04336468 0.019252269
-0.05198371 0.1927318 0.13723125 -0.015903704 0.14265172 -0.4467289 -0.09749757 0.011266684
-0.004877274 -0.22242796 -0.041038174 -0.16465218 -0.06530918 -0.046165954 -0.27650857 0.027325135
-0.045499828 -0.08989003 -0.01479968 -0.12022202 0.0007118047 -0.09246479 0.037346203 -0.07723151
-0.20456585 0.039414443 -0.11036058 -0.1810174 -0.02602758 0.0862106 -0.047868844 0.21049441
-0.116331734 0.34301603 0.17518927 0.31822002 -0.3558922 0.03383639 -0.26282027 -0.075275384
-0.2885668 0.14537814 0.240271 0.34645903 -0.22409199 0.22364435 0.016099943 -0.019816112
-0.26529872 -0.04720533 -0.005644199 0.107553914 -0.018581498 0.38106874 -0.019013088 0.1304221
-0.08985383 -0.06016827 -0.01467642 -0.26168835 -0.019376393 0.010129027 -0.1563271 0.032859556
-0.1165867 0.08755565 0.094384365 -0.22481614 0.07265162 0.1958404 0.024145544 0.014116234
-0.027287863 -0.008198919 -0.03555148 0.059969418 0.062077284 -0.11860924 -0.009222233 -0.084306315
-0.05832757 -0.065349646 0.08852786 0.0034731333 0.046177756 -0.035769492 0.07667941 -0.4446026
0.08331504 -0.027870327 0.0670059 0.078196734 -0.03870941 -0.20589955 0.025092483 -0.27395532
0.09877509 0.08455643 0.03945967 0.012505909 -0.10357171 -0.030582841 -0.16722204 0.1633626
-0.034891065 0.029219136 0.09919925 0.0946716 -0.0914598 0.046346165 -0.0688947 0.06859144

convt2.bias f4 [16]
00000000: 232e 9e3d e127 9b3d 2337 5a3b c96e 2e3c
00000010: 580d 763d 718c 703d 27ae 0b3d bc69 c9bc
00000020: a8d9 ae3c bb3d 6e3d bcd4 523d 84ae c03d
00000030: 236e 7e3d 93cf 713d e52d 9e3c 6ef5 663c
0.07723644 0.07575966 0.0033297024 0.01064653 0.06007132 0.058727685 0.03410163 -0.02458655
0.021344021 0.05816434 0.05147241 0.09408286 0.062116753 0.05903585 0.019308994 0.014096601

convt3.weight f4 [16, 32, 9, 9]
00000000: 2a56 03bc d886 873b c7c7 a83b f0ce d6bc
00000010: 7054 083c 1c90 36bd 7d74 cbbc 44eb 5dbd
00000020: a320 39bd fa3f 2e3c fc32 58bc 0781 d33c
00000030: e509 96bc 3dab aab9 39d7 0fbd 2b39 133d
00000040: c257 663c 3762 eb3c 9da0 933c ad30 66bc
00000050: f2d8 f73c 7c8c 9f3c 1140 e03c c513 4cbc
00000060: ed7e 133d 5324 b43c 3ba0 5cbd 70e8 733c
00000070: 6e2c 24bc f586 fcba bc26 143d 10e8 4ebc
00000080: 0123 ab3c 24cd f63c 8b9b 99bc cdcc 8fbd
00000090: aabb 9e3b 0f2f 5cbc 6386 a83c 0fa7 963c
000000a0: 9c9a fdbb 1bf7 fa3b 93ba ddbc 361c 2dbd
000000b0: 12d9 b63c 29bb afbc 87c3 133d b612 e83c
000000c0: 6bbd d5bb bdff 1e3a 3081 ef3c 446d 93bb
000000d0: fef2 e03c d8f4 afba c4b0 76bc 0b38 67bc
000000e0: 6572 1dbc 3a88 4bbc af11 983c 0351 1c3d
000000f0: a9b5 d43b 7dd3 293c 699b 55bd b255 39bd
00000100: a34d b93b 7704 90bc 20cd 23bd 685a a93c
00000110: abe2 ccbc df8c a0bc e982 77bc dfa5 dfbc
00000120: 4473 603c b400 11bd ce23 a6bc f321 083d
00000130: 0f94 3d3d 98dd 243a 681e f13c a735 17bc
00000140: 2ff2 a63c 5840 bb3a 2e3e d83c c329 18bd
00000150: 6ce3 97bb 3cf1 3c3c b997 3bbd 517b 773c
00000160: b023 1d3c 715d fbbc 48da f3bc da71 1c3c
00000170: 69b7 df3b 2cf8 193d 05be 60bc f7f3 18bd
00000180: 0306 c6bc 3541 c33c 9382 0e3b f706 13bc
00000190: 8dee 46bd 4305 c03b e2e5 02bd f486 85bd
000001a0: f0d6 7f3c 54db 10bd ee53 83bd a03a a73c
000001b0: a1bd 80bc efa9 923c 8816 24bc 5221 633b
000001c0: 3517 833c f03f 8e3c e692 04bc a1bb 3a3c
000001d0: 12fb 57bc 435f d63c f6c6 ccbc 75de 3cbd
000001e0: 4769 7b3c e295 b4bc 6b3c 27bd c356 14bd
000001f0: d7b0 e83c 2f67 bdbc ecf4 823d 9ec9 83bd
00000200: 7054 fdbb 36bd 463d 6bea d1bc 206f bb3a
00000210: 891c 94bc 5305 00bd 48ac 4fbc 7df6 6d3b
00000220: fb67 943c c6cd b7bc a3f8 6fbc 8e62 873c
00000230: 8e62 d23c eff8 1cbd 8a77 2ebd 336e b8bb
00000240: 23c2 9a3c 15c8 dcba c38d 003c aba4 193d
00000250: 7fbd cebc d2bb 3eb8 662c 4dbc afbc ba39
00000260: ecc8 00bd d533 9a3c 5bc7 9fbc 1cb2 743b
00000270: 44be e4bb 6d43 49bd 5eec e43c 48f9 4fbd
00000280: 52fc 02bd 8bab 91bc 69b5 a63c 3d68 163d
00000290: ace7 493c 2f89 81bc d13d 893a 8811 d1bc
000002a0: df99 403c 82c6 2f3d 0a13 583d 0cad de3c
000002b0: a9ee 333d 0b10 5e3d 7d05 173d 4e85 923c
000002c0: 9a30 efbc 2998 733d 452d b93c a1f5 b43c
000002d0: 2dd9 063d cf37 5f3d 14c1 763d 2a8a 173d
000002e0: 7353 5b3d 9f04 333c 172d fb3c c0f5 5e3c
000002f0: f76f 13bc 893b 243c aaee 2c3d d5a5 843d
00000300: 1018 c23c 0d0d 293d 60c4 843c 7bac 893c
00000310: fdc5 423c 2a41 d83c d84a 3f3d e7f5 483d
00000320: eacc bd3c 5912 373d edbe 233c 50c4 5f3d
00000330: 843f 243c 0c1b bf3c 63aa 23bc ab80 d13c
00000340: 4150 8d3d f038 493a de64 f53b 854d 6f3d
00000350: 19f2 d33c 6995 963c c52d 7b3d 12a0 7cbb
00000360: c068 743c 1fe9 573d 0d72 3b3d 9b5b 163d
00000370: 6b69 413d 7df7 4f3d 8bf4 c93c b6cb 37bb
00000380: 0600 773d 92b6 ec3c 1dfe 6a3d 0d8d 983c
00000390: 332e 023d abe0 053c 2691 20bc 89a2 583d
000003a0: 592a 2b3b ab7a ba3c cbff 4f3c a37c ab3b
000003b0: 2c6f 8c3c 8ca5 a23c d9b5 263d 40de 6f3d
000003c0: 0468 153c 3db7 e63c 1475 4b3d 8743 caba
000003d0: 988e 04bc db59 253c d92a aabb 1816 a4bc
000003e0: 90db 49bc 8e55 0cbd 5cb5 273c dd1f 03bd
000003f0: 9f4f d0bb e893 ba3c 5425 433d be3b 033d
-0.008016149 0.0041359477 0.0051507684 -0.026221722 0.008320913 -0.044571027 -0.02483582 -0.054179445
-0.04519714 0.01063537 -0.013195749 0.025818361 -0.018315265 -0.0003255251 -0.03511736 0.03594319
0.014059009 0.028733356 0.018020922 -0.014049691 0.030254815 0.019476168 0.0273743 -0.012455885
0.036009718 0.021989977 -0.053863745 0.01488696 -0.0100203585 -0.0019266295 0.036169752 -0.01262857
0.020890715 0.030127116 -0.018750926 -0.070214845 0.0048441486 -0.013438954 0.020571893 0.018390207
-0.007739378 0.007658852 -0.027066505 -0.042263232 0.022320304 -0.02145155 0.03607514 0.028329235
-0.0065228245 0.00060653297 0.029236406 -0.0044991095 0.027459618 -0.001342441 -0.015056793 -0.014112483
-0.009609793 -0.012422616 0.01856312 0.038163196 0.006491382 0.010365364 -0.052150164 -0.04524774
0.005655007 -0.017580254 -0.039990544 0.020672992 -0.025010427 -0.019598423 -0.015106895 -0.027300773
0.0136993565 -0.03540106 -0.020280745 0.0332355 0.046283778 0.00062891236 0.029433444 -0.0092291
0.020379154 0.0014286144 0.026396837 -0.037149202 -0.004635265 0.011532124 -0.04579899 0.0151050845
0.009591028 -0.030684205 -0.02976717 0.009548629 0.006827284 0.03759019 -0.013717179 -0.037342038
-0.024172788 0.023834804 0.0021745309 -0.0089738285 -0.048567344 0.0058600022 -0.031957515 -0.06519881
0.01561521 -0.035365418 -0.06412493 0.020413697 -0.015715422 0.017903296 -0.0100151375 0.0034657312
0.016002277 0.017364472 -0.008091664 0.011397273 -0.013182418 0.026168471 -0.024997216 -0.04611059
0.015344924 -0.022044126 -0.040829103 -0.036215555 0.028404636 -0.02312049 0.063943714 -0.0643494
-0.007731013 0.04852029 -0.025624475 0.0014300086 -0.018080013 -0.031255078 -0.012675352 0.0036310249
0.018115988 -0.022436988 -0.014646682 0.016526487 0.02568176 -0.03832334 -0.04259447 -0.005628371
0.0188914 -0.0016844297 0.007846299 0.037510555 -0.025236843 -4.547445e-05 -0.012522792 0.00035617265
-0.031441614 0.018823544 -0.01950424 0.0037337607 -0.0069806892 -0.049136568 0.02794474 -0.050774843
-0.031978913 -0.017781993 0.020350175 0.036720503 0.012323301 -0.015812485 0.0010470693 -0.025521055
0.011755436 0.04291392 0.052752532 0.027182125 0.043928776 0.05421452 0.03687047 0.01788583
-0.02919798 0.059471283 0.022604594 0.022089781 0.03292196 0.054496583 0.060242727 0.036996998
0.05354638 0.010926395 0.030661149 0.013608396 -0.0089988625 0.01002396 0.042219795 0.064769424
0.023693115 0.04127221 0.01620692 0.016805878 0.011888024 0.02639826 0.046702236 0.049062636
0.023169 0.044695232 0.009994251 0.054630578 0.010024909 0.023328327 -0.009989354 0.025574049
0.06900073 0.0007676026 0.007488831 0.058423538 0.025872277 0.018381791 0.061322946 -0.0038547558
0.0149175525 0.052712556 0.045763064 0.036708456 0.047219675 0.050773133 0.02465274 -0.0028045005
0.060302757 0.02889565 0.057371248 0.018621946 0.03178234 0.008171241 -0.009800231 0.05288938
0.002611777 0.02276357 0.012695263 0.0052333637 0.017142855 0.01985433 0.040700767 0.058561563
0.009119038 0.028163547 0.0496722 -0.0015431502 -0.008090638 0.010092224 -0.005193096 -0.020030066
-0.012320414 -0.03426128 0.010236111 -0.03201281 -0.006357148 0.022775605 0.04764302 0.032039396

convt3.bias f4 [32]
00000000: 9069 843c 97a1 c3bc 5243 5f3d ec31 f93c
00000010: a928 c43d bc22 15bd 8e54 04bc 404f 733d
00000020: dd15 efbd cde6 2dbc 9ced 503b def4 a63d
00000030: e529 2c3d 9c2d 823d 6c2e 35bd 5fcd 1c3d
00000040: b333 07bd a63a 24bc 2ccc eabc 75a9 4b3d
00000050: dd89 fabc dbae e83d a90d 2abc 8271 563d
00000060: b2f4 b8bc 4e15 d83c f2fc 7abc 4274 5c3c
00000070: 56f0 7bbb 0ef9 113d 1073 18b9 8e9a 073c
0.016163617 -0.023880763 0.05450756 0.030419312 0.09578068 -0.03641008 -0.0080768 0.05940175
-0.11674092 -0.010614109 0.0031879907 0.081521735 0.04203214 0.063563555 -0.044233724 0.038281795
-0.03300829 -0.0100237485 -0.02866181 0.049722154 -0.030583316 0.11361476 -0.010379233 0.052354343
-0.022577617 0.026377346 -0.015319096 0.013455452 -0.0038442812 0.035637908 -0.00014538714 0.008276595

pos_output.weight f4 [1, 32, 2, 2]
00000000: 07ef 3c3e bd9e 2ebe c179 3dbe a5a0 38be
00000010: 5d55 af3d a1e6 85bd e383 04be d399 ae3c
00000020: ff85 6e3e 6ca1 083c d4c8 cf3d 4268 d33c
00000030: afd1 e6bd 7f45 cfba 96b4 c43b 5fe8 a3bd
00000040: 0c81 af3e 011e 4d3e 58d8 7f3e 47ce 4e3e
00000050: 8846 48be 5712 023d a281 20bd 1153 d6bb
00000060: 0366 553e c968 1c3e f475 3cbe dfb3 24be
00000070: 1ac8 423e a7ca 713c 85e5 ac3c 2bf6 a9bc
00000080: d1e0 253f b988 113f 0524 2a3f 627e 183f
00000090: 754f 1abc a9ea 64be 3ab1 28be 230a 5cbe
000000a0: b0c9 623e b19f 45be 6066 8f3d d32b 453d
000000b0: 194d d43d ee09 673e 4f34 6e3e cb8b 0d3e
000000c0: 369b 473e 3865 8ebd 4762 30be 4da1 eb3d
000000d0: c83b 643e 4440 21be fb27 413e 7034 273e
000000e0: e429 48bd 3e49 053e 7938 503e a65f 19bd
000000f0: 1f01 e3bc 24fb bcbd 791b c03c 44f2 eebd
00000100: 2155 043e b536 37bc a9d0 aabc 322d 883d
00000110: 5cac 9bbd ae58 c3bd 1acf 5e3e 591a 6e3d
00000120: 9d00 24bd c648 edbd 4c67 3b3e 91a5 54bd
00000130: c698 593e 2a2b 28be 5c50 a4bc acf3 d83d
00000140: af75 03be 8917 143e 5aff 8b3d da92 3e3e
00000150: 496d bcbc 274f f1bd 7cf3 0bbe 1685 6bbe
00000160: 955e 7abe 011a 6cbe 2bc2 7abe 0806 b2be
00000170: c2f8 2a3e b6ef d53d 2021 203d 82e9 3e3e
00000180: 651d f03c 7593 d53d 2fb9 703e 8d79 f43d
00000190: ac61 1dbe a7cf 733d 8945 a4bd 66d8 06be
000001a0: 2963 13bd f2fe eabd 0541 003e b219 ddbd
000001b0: d374 3bbe 4a2b 5ebe ff51 1dbe 5595 3dbe
000001c0: e93f 063d 31c1 093d c0f1 03bd 374d 4f3e
000001d0: 7834 0dbe f1b8 9dbd c6b9 013e be6b bb3d
000001e0: 94d1 5bbd 592d 18be 8310 ed3d 0732 c73d
000001f0: 576e 2cbe d387 623d f98f 08bd 91b9 21bc
0.18450557 -0.17052741 -0.18503477 -0.18030031 0.08561204 -0.065381296 -0.12940936 0.021313583
0.23293303 0.008339267 0.10145727 0.02580655 -0.11270463 -0.0015813558 0.006002973 -0.08003306
0.34278142 0.20030977 0.24984872 0.20195876 -0.19558156 0.03175577 -0.039186127 -0.006540664
0.20839696 0.15274347 -0.1840437 -0.1608424 0.19021645 0.014757789 0.021105537 -0.020747265
0.6479617 0.5684925 0.6646121 0.59567845 -0.009418358 -0.22355141 -0.16473857 -0.21488242
0.2214725 -0.19299199 0.07001948 0.048137497 0.10366268 0.22562382 0.23262142 0.13822858
0.19492802 -0.069529 -0.1722499 0.11505375 0.2228843 -0.15747172 0.18862908 0.16328597
-0.048868075 0.13016221 0.20334043 -0.037444733 -0.027710496 -0.09227589 0.0234506 -0.11667302
0.12923099 -0.011182477 -0.02085145 0.06649245 -0.07601234 -0.09538399 0.2175869 0.058130596
-0.040039647 -0.11586146 0.18301123 -0.05191571 0.21249685 -0.16422716 -0.02005785 0.10593352
-0.12837861 0.14462103 0.06835814 0.18610707 -0.02300133 -0.11782675 -0.136671 -0.22999987
-0.24450143 -0.23056795 -0.24488132 -0.34770226 0.16696456 0.10446112 0.03909409 0.18643764
0.029310891 0.10428516 0.23508142 0.119372465 -0.1536929 0.059524205 -0.08021075 -0.13168487
-0.03598324 -0.11474408 0.12524803 -0.107959166 -0.18306284 -0.21696201 -0.1536331 -0.18513997
0.032775793 0.033631507 -0.032212973 0.20244299 -0.13789546 -0.077012904 0.12668523 0.091514096
-0.053666666 -0.14861049 0.11575415 0.09726339 -0.16838966 0.055305313 -0.033340428 -0.009870903

cos_output.weight f4 [1, 32, 2, 2]
00000000: 56a1 a83d 6077 0f3d 4d40 c93d 8346 103e
00000010: dafd c43d 6f3f 06be 6b72 33ba 5ace 833d
00000020: a5f4 54bc edb8 253e b495 203e b3f3 583e
00000030: cd8f 03be 10e1 cb3d dc8a 783e 2612 aa3d
00000040: 0563 75be fce9 eebc 184f b13d 61ca ad3c
00000050: 8f88 2dbe 2976 5d3e 8fd8 ddbd 299b 79bd
00000060: f636 1bbe 0c84 03be aa25 b9bd 254d 7b3d
00000070: 5de7 ad3d b717 673e f58c 5d3e 8b65 08be
00000080: a952 03bf 19a8 26bf fd4d 38bf ffd2 3ebf
00000090: ec5d e53d 85fe 843d 4138 d13d 43d5 90bb
000000a0: 41d0 f8bd 40c7 47bc 4a1e 1b3e 41cd 5abd
000000b0: 59b2 0b3e c97f febd a98e 0cbe 806d 0f3e
000000c0: 67a9 733c b3dc be3c 62cb 7c3d ec13 553d
000000d0: 5416 f23d 7036 3f3e cc24 733e d7e3 2c3d
000000e0: c65a ab3d 926d ecbc db04 15be 2ce5 0e3e
000000f0: 90d9 233e 8caf e737 3473 403e 3571 ef3d
00000100: cb62 42be 7aee 2abc efde ec3d 3cb5 dabd
00000110: e40f 01bd 9add 003e fd1e 7bbc f3da ddbd
00000120: 62f7 3bbe e786 01be a5f5 5a3e c7d2 45be
00000130: c518 ad3d d087 0abe 7dd8 4a3e 045d 573d
00000140: e42e ca3e 274e 0cbe c883 fdbd a77b 34be
00000150: 3eb8 713d 8187 c63d 7cd8 fb3e c9b1 053f
00000160: 43ea 0f3e 3e53 0abc 3a7e da3d 8ddb cc3c
00000170: 45c6 cf3d 0f36 223e 3aa6 73bd e6ea 0e3e
00000180: 0401 1fbe 0d27 d4bd df10 23be ea8d 353e
00000190: aeb7 983d 03d4 9a3d 0523 233e 4fed f83d
000001a0: 4c7a 1fbe 09f2 ca3c 7f1f 5fbe dc10 c93d
000001b0: 80b8 ff3e 60f7 1c3f 60cc 013f e207 123f
000001c0: 4c2f 30be 998e 1cbc 2b10 fabd 9df8 04bc
000001d0: 2708 a8bc 3bc0 3e3d 8d98 c33d c87e e33d
000001e0: f166 cb3d 9263 4f3e 5e8c cbbd b591 38be
000001f0: 7b56 843c d019 343e e8f7 6bbd aa84 273e
0.082338974 0.035025954 0.098267175 0.14089398 0.09618731 -0.13110135 -0.0006845358 0.06435843
-0.012997781 0.16183825 0.15682107 0.21186714 -0.12847824 0.09955037 0.2427172 0.08304243
-0.23963554 -0.029164307 0.08657664 0.021214666 -0.16946624 0.21627106 -0.10832321 -0.060938988
-0.15157685 -0.1284334 -0.09040387 0.061352868 0.08491395 0.2256764 0.21635802 -0.13319986
-0.51298004 -0.65100247 -0.71994 -0.74540704 0.11199555 0.06493858 0.10215808 -0.004419954
-0.12149096 -0.012193501 0.15148273 -0.0534184 0.13642253 -0.12426717 -0.13726296 0.14006615
0.014871932 0.023298597 0.0617174 0.052020952 0.11820665 0.1867311 0.23744506 0.042209473
0.08366923 -0.028860841 -0.14552633 0.1395461 0.16000962 2.7619091e-05 0.18793947 0.116915144
-0.18982999 -0.010432834 0.11565959 -0.10679099 -0.031509295 0.12584534 -0.015327212 -0.10832777
-0.18356088 -0.12649117 0.21382768 -0.19318686 0.0845199 -0.13528371 0.19809146 0.05257894
0.394889 -0.13701688 -0.12378651 -0.17625295 0.059013598 0.09693814 0.49188602 0.52224404
0.14054208 -0.008442698 0.10668607 0.025007034 0.10145239 0.15840934 -0.059484698 0.13956794
-0.15527731 -0.10359011 -0.15924405 0.17729917 0.07456909 0.07559969 0.15931328 0.12154638
-0.15573996 0.024773614 -0.21789359 0.09817669 0.4994545 0.61314964 0.50702477 0.5704328
-0.17205542 -0.009555482 -0.12210115 -0.008115915 -0.0205117 0.046570044 0.09550581 0.11108166
0.09931744 0.20252827 -0.09938882 -0.18024333 0.016154518 0.17587972 -0.05760947 0.16359201

sin_output.weight f4 [1, 32, 2, 2]
00000000: c242 433e 6762 37be 78e9 493e 8092 72bd
00000010: f00b 563e ef55 c3bb 2d12 d9bd eeb8 eebd
00000020: c706 d43d b1b2 323e 531d 13be 0796 2b3e
00000030: 4a10 bdbd 5cc3 06bb 5589 a3bc 1b66 98bc
00000040: 7973 72bd bd79 013e e823 703b 5dd1 65bc
00000050: a3dd 013e f23a d03b ff9a 73bd 65d0 0abe
00000060: a31f ecbd 6702 a43d 0213 ab3d 87b8 0f3d
00000070: a9ff 12be fa11 c23d 09b9 3bbe 505a cf3d
00000080: 304d 83bc 54ec 7dbb 7dca 65bd e400 a4bd
00000090: 9ead 6c3d 11f9 d3bc a9ff 103e 3237 343c
000000a0: 8bd9 e1bd 4187 243c 36f7 54be 3d71 db3d
000000b0: c892 e9bd c259 2b3c e19e 3dbd 7435 533c
000000c0: 7f3e adbd 26a4 c8bd 0acf cebd a9c4 27be
000000d0: 9ac6 313e 347d 85bd e90b a73d bf38 ec3d
000000e0: b82a c23d bc48 13bd 59b0 983d c6a6 7cbc
000000f0: 9f5c 39be cf69 f23d 7f69 abbd e31f 59bd
00000100: d30c efbd ac3e bebd da8c a73d 4e7d 98bd
00000110: 72b3 8c3c 6337 8ebd 7d37 f43b fa57 ecbd
00000120: eff6 dd3d c194 423e 3c86 b0bc 1bdc 3e3d
00000130: 4eaf 963d a7f3 38be bd93 f53c e29c c03d
00000140: cd8d 5f3c 75b7 293d ca3d 95bd a593 99bc
00000150: c8fc 443c 0f84 a63c c85a c03c 7f9c 173d
00000160: a51c f33c f6d0 1e3d 050c 63bd 5efc d13a
00000170: 1f2f 323e 106c 3fbe c3f3 f83d 2ee7 ecbd
00000180: 5700 03bd 9435 da3d a326 44be 4234 0c3e
00000190: e534 b4bd 276c e2bd 9e5c c4bc 7d1c 4b3e
000001a0: 48a2 11bc 6c8b 283d 64cc 24bd 0e4c 8f3c
000001b0: 038d e23a e4fa 6a3c 9275 54bb 1030 5e3c
000001c0: 59de 2bbe e9b3 c53d e14f 3a3e a524 273d
000001d0: 39b9 1a3e 5175 a53d 9227 c73b 4560 003e
000001e0: 4500 2cbd 190a 1bbe c94f 113e dec8 ab3b
000001f0: 01d1 03bd 0dce e8bd af76 9ebd d6f5 ee3c
0.19068435 -0.17908631 0.19717968 -0.059221745 0.20902991 -0.005961172 -0.1059917 -0.11656366
0.10352855 0.17450978 -0.14366655 0.1675645 -0.092316225 -0.002056322 -0.019962946 -0.018603375
-0.059192155 0.12644096 0.0036642496 -0.014026967 0.12682204 0.006354683 -0.059473988 -0.13556059
-0.11529472 0.08008271 0.08353235 0.03508809 -0.14355339 0.09476085 -0.18332304 0.101246476
-0.016028017 -0.00387456 -0.05610131 -0.080079824 0.05778276 -0.0258756 0.14160027 0.010999488
-0.11027821 0.010042013 -0.20797428 0.10714958 -0.114049494 0.010458412 -0.046294097 0.012891162
-0.08459186 -0.09796934 -0.10098083 -0.16383614 0.17360917 -0.06518021 0.081565686 0.11534261
0.09480804 -0.035958037 0.07455511 -0.015420621 -0.18101738 0.11836588 -0.08369731 -0.053008925
-0.11672368 -0.092892975 0.08181162 -0.07445775 0.01717541 -0.06944158 0.007452904 -0.11540218
0.108381145 0.19002058 -0.021548383 0.046596628 0.073576555 -0.18061696 0.029977674 0.09404923
0.013644648 0.041434724 -0.07287176 -0.01874716 0.012023158 0.020326642 0.023480788 0.03701448
0.029676745 0.0387735 -0.055431385 0.0016020646 0.17400788 -0.18693566 0.12155869 -0.115675315
-0.031982746 0.106547505 -0.19155364 0.1369181 -0.08799151 -0.11055785 -0.023969945 0.19835086
-0.0088887885 0.041148588 -0.040233985 0.01749232 0.0017284456 0.014342044 -0.003241871 0.013561264
-0.16784038 0.09653456 0.18194534 0.04080643 0.1510972 0.08079017 0.006077715 0.12536724
-0.041992445 -0.1514057 0.14190592 0.005242451 -0.032181744 -0.11367426 -0.07737481 0.029169958
