ggcnn_base/output/models/221204_2000_training_example/epoch_16_iou_0.73_statedict.pt (torch, 256417 bytes, 16 tensors)

conv1.weight f4 [32, 1, 9, 9]
0	0xbd291acb	-0.041285317
1	0xbdc1a419	-0.09455127
2	0xbcef3112	-0.029198203
3	0xbdb293c1	-0.08719588
4	0xbdbde1d4	-0.09271589
5	0xbcbd80b3	-0.023132658
6	0xbd604694	-0.05475481
7	0xbdc6a722	-0.09699847
8	0xbdb545e6	-0.08851223
9	0xbd6aa35a	-0.05728469
10	0xbd1bc440	-0.038028955
11	0xbcde5e1e	-0.027144488
12	0xbda6f7a3	-0.08152702
13	0xbd02dfc4	-0.03195168
14	0xbd8dbe62	-0.06921078
15	0xbd75d542	-0.06001783
16	0xbd3093f0	-0.043109834
17	0x3c700975	0.014650692
18	0xbcaa7749	-0.020808833
19	0xbd5f45ac	-0.054509804
20	0xbc633830	-0.013868377
21	0xbd28d1a2	-0.041215546
22	0xbd9195e0	-0.071086645
23	0xbd6f11c1	-0.05836654
24	0xbca04d1a	-0.019568015
25	0xbd380d18	-0.044934362
26	0xbd6105ae	-0.054937057
27	0xbcaa22c8	-0.020768538
28	0xbd3c0cf9	-0.04591081
29	0xbbea3267	-0.0071471217
30	0xbcb0633a	-0.02153169
31	0xbd4077b3	-0.046989154
32	0x3d090665	0.033453364
33	0x3cbbe091	0.02293423
34	0xbd37974e	-0.04482203
35	0x3d0ee2f3	0.034884404
36	0xbccc60fb	-0.024948588
37	0xbcd31395	-0.025766173
38	0xbd1233a4	-0.03569378
39	0xbccde020	-0.025131285
40	0xbd521852	-0.051292725
41	0x3b3f8013	0.0029220625
42	0x3d0eec3a	0.034893252
43	0x3d33064a	0.04370717
44	0xbd1d6b3b	-0.03843234
45	0x3c862870	0.016376704
46	0x3d1a11e0	0.037614703
47	0xbca4cab3	-0.020116186
48	0xbd383c04	-0.04497911
49	0x3d205127	0.039139893
50	0xbce4df15	-0.027938405
51	0xbc79c4c5	-0.015244667
52	0x3cb6de34	0.022322752
53	0x3d4bfbb6	0.049800597
54	0xbcda8f6a	-0.026679713
55	0x3b6c3450	0.0036041923
56	0x3ce50c8b	0.027960083
57	0xbb70457b	-0.0036662507
58	0x3d8b8e89	0.06814296
59	0x3d33c474	0.043888524
60	0x3d2810f9	0.04103181
61	0xbc566deb	-0.01308773
62	0xbc1b3ea7	-0.009475387
63	0x3d69d6d6	0.05708965
64	0x3a855d46	0.0010174892
65	0x3ce552fe	0.027993675
66	0x3cbf0979	0.023319947
67	0x3d567979	0.05236194
68	0x3d8a615d	0.06756852
69	0xbbfbfef6	-0.007690306
70	0x3d36b488	0.04460576
71	0x3c8b0569	0.016970353
72	0x3d536c41	0.05161691
73	0x3ccb3448	0.024805203
74	0x3d4fb431	0.050708953
75	0x3d00340f	0.031299647
76	0xbc5a8b02	-0.013338806
77	0xb9a47af0	-0.00031372113
78	0x3da7295a	0.08162184
79	0x3d2394c9	0.039936814
80	0x3d05ecf1	0.032696668
81	0xbc7521b4	-0.014961649
82	0xbc8563cf	-0.016282944
83	0x3cdcb080	0.02693963
84	0x3df5f775	0.12010089
85	0x3e155d7a	0.1458644
86	0x3df12425	0.11774472
87	0x3e48ff28	0.19628584
88	0x3e8af28b	0.2713817
89	0x3eb6af24	0.35680497
90	0xbe0c2824	-0.13687187
91	0xbddcd067	-0.10781937
92	0xbd9035ef	-0.07041537
93	0xbd015311	-0.03157336
94	0x3c62f7f9	0.013853067
95	0x3db89d28	0.0901435
96	0x3e11d750	0.14242291
97	0x3e698a99	0.22806777
98	0x3e8bfd5c	0.27341735
99	0xbe5ba3af	-0.21449159
100	0xbe22aa6b	-0.15885322
101	0xbdd9f721	-0.10642839
102	0xbde0c479	-0.10974974
103	0xbd5312fc	-0.051531777
104	0xbbce3114	-0.0062924717
105	0x3c387585	0.011258488
106	0x3db96ce0	0.090539694
107	0x3e4e1a53	0.2012723
108	0xbdaff816	-0.085922405
109	0xbd528c94	-0.051403597
110	0xbce70036	-0.028198343
111	0x3d5f787e	0.05455827
112	0x3d2a7d6e	0.041623525
113	0x3d897de5	0.067134656
114	0x3dbef834	0.09324685
115	0x3e645e0b	0.223015
116	0x3e8bee04	0.2733003
117	0xbe064461	-0.13112022
118	0xbd926b29	-0.071493454
119	0xbdb4cda0	-0.08828282
120	0xbd0b2bfc	-0.033977494
121	0xbd28a60d	-0.041173983
122	0x3cab33a9	0.020898657
123	0x3dff99a4	0.124804765
124	0x3e2d1e30	0.16906047
125	0x3e301e5c	0.17199081
126	0xbe4b31af	-0.19843172
127	0xbe22bce0	-0.15892363
128	0xbdf5b29d	-0.119969584
129	0xbda99972	-0.082812205
130	0xbd8852a9	-0.06656391
131	0xbb83a5e4	-0.0040175784
132	0x3dbf43bc	0.09339091
133	0x3e20341e	0.15644881
134	0x3e3a39f3	0.18186168
135	0xbe30ef22	-0.17278722
136	0xbe3445aa	-0.176047
137	0xbe4a8742	-0.1977816
138	0xbe018785	-0.12649353
139	0xbda7144d	-0.08158169
140	0x3b342e8c	0.0027493564
141	0xbc510d2f	-0.012759491
142	0x3de6799c	0.11253664
143	0x3e36a575	0.17836554
144	0xbe4fd5d2	-0.2029641
145	0xbe2b7449	-0.16743578
146	0xbe48e448	-0.19618332
147	0xbd5d79e8	-0.054071337
148	0xbde3b9f6	-0.111194536
149	0xbcbf77c5	-0.02337254
150	0x3ca6ced9	0.020362305
151	0x3de46a7e	0.11153124
152	0x3e26431d	0.16236539
153	0xbe3a2166	-0.18176803
154	0xbe4d872e	-0.20071098
155	0xbe196f27	-0.14983808
156	0xbd896574	-0.06708804
157	0xbd4222e2	-0.047396548
158	0xbc4470e8	-0.01198981
159	0x3d8d6e2b	0.069057785
160	0x3df6986b	0.1204079
161	0x3e597d50	0.21239209
162	0xbbc68a26	-0.006058949
163	0xbb9f8811	-0.0048685153
164	0xbc75af16	-0.014995357
165	0xbc3ec2cf	-0.011643126
166	0x3b8f07c1	0.004364938
167	0x3c1eefb9	0.009700709
168	0x3c91db92	0.017804895
169	0x3d3e340a	0.046436347
170	0x3d23ce6b	0.039991777
171	0xbd06bc80	-0.03289461
172	0xbd3031a0	-0.043016076
173	0x3b210ed7	0.0024575496
174	0x3baaf88b	0.005217617
175	0xbd2916ce	-0.041281514
176	0x3cf4d427	0.029886318
177	0x3ce2ef44	0.027701981
178	0xbcd7a55d	-0.026323969
179	0x3d1a7017	0.037704553
180	0x3c8ee657	0.017443819
181	0x3c91afef	0.017784087
182	0xbd02fad4	-0.03197749
183	0x3cca136a	0.02466746
184	0xbc7669da	-0.015039885
185	0xbd2754fd	-0.040852536
186	0xbbdc9a13	-0.0067322343
187	0x3d24e725	0.0402595
188	0xbcc9b354	-0.024621643
189	0xbd009002	-0.031387337
190	0x3b1362f0	0.0022489391
191	0xbc95989e	-0.01826125
192	0xbcbd7b00	-0.02312994
193	0x3d266fa3	0.04063381
194	0x3c3142a9	0.010819116
195	0x3c1e9ccf	0.009680941
196	0xba985c5c	-0.0011624205
197	0x3d27c4a5	0.04095902
198	0x3d15e53d	0.03659557
199	0xbd00d871	-0.031456415
200	0xbbeb265c	-0.0071762037
201	0x3d272d82	0.040814884
202	0x3c8ffead	0.017577494
203	0xbc10298b	-0.008798967
204	0xbd021d6a	-0.031766333
205	0xbc8ce0db	-0.017197063
206	0xbac4d029	-0.001501565
207	0xbd176d58	-0.036969513
208	0xbc5e729f	-0.0135771325
209	0xbc979452	-0.018503342
210	0x3c07917a	0.00827443
211	0xbd4124f2	-0.047154374
212	0x3b844a39	0.0040371683
213	0xbc2352ac	-0.009968441
214	0xbc87d478	-0.016580805
215	0x3bcb54f4	0.0062051956
216	0xbca144f8	-0.019686207
217	0x3c4e06fe	0.012574909
218	0x3b1a2743	0.0023521937
219	0x3cd6079a	0.026126672
220	0x3cd92d7a	0.026510943
221	0xbc91a8d1	-0.017780693
222	0xbc670fd4	-0.014102895
223	0xbd24f710	-0.04027468
224	0x3b36c0f4	0.0027886005
225	0x3c1e2fdd	0.009654966
226	0xbc6ce2e8	-0.014458396
227	0xbd319c8f	-0.043362197
228	0xbb71a7d6	-0.003687372
229	0xbc7603a2	-0.015015515
230	0x3c906a21	0.017628731
231	0x3a7cef9e	0.0009648743
232	0xbcd36746	-0.02580608
233	0xbd28940f	-0.041156825
234	0x3be5c3a9	0.00701185
235	0x3d16afab	0.036788624
236	0x3d266d89	0.040631805
237	0xbbbad900	-0.005702138
238	0xbd23e705	-0.04001524
239	0x3cd63d0e	0.02615216
240	0xbc4e10d8	-0.012577258
241	0xbca85ff0	-0.020553559
242	0xbd05d830	-0.032676876
243	0xbeb34934	-0.35016787
244	0xbdf8ba70	-0.12144935
245	0x3daf3da7	0.08556681
246	0xbec02550	-0.37528467
247	0xbe959d22	-0.29221445
248	0xbe8951df	-0.26820275
249	0xbe6462a5	-0.22303255
250	0xbe67441d	-0.22584577
251	0xbece59b6	-0.4030282
252	0xbdbcea6b	-0.09224399
253	0x3e1400f8	0.14453495
254	0x3e8c6ec9	0.27428272
255	0xbd8a8c62	-0.06765057

conv1.bias f4 [32]
0	0xbe650cfb	-0.22368233
1	0x3dff821f	0.124759905
2	0xbddddffe	-0.10833739
3	0x3bca1172	0.0061666304
4	0x3d8d0461	0.06885601
5	0x3dd8117b	0.10550209
6	0xbd410038	-0.04711935
7	0x3e1c07b6	0.15237316
8	0xbe999b8d	-0.30001488
9	0x3c4755c3	0.012166443
10	0x3e572358	0.21009576
11	0xbde3356b	-0.11094173
12	0xbe83ca60	-0.25740337
13	0xbd028595	-0.031865675
14	0xbb9d3747	-0.0047978493
15	0xbabe0fe6	-0.0014500588
16	0xbc372094	-0.011177201
17	0xbdab1f86	-0.08355622
18	0xbe555085	-0.20831497
19	0xbd940e41	-0.07229281
20	0xbe258209	-0.16162886
21	0x3e75681b	0.23965494
22	0x3d31541f	0.043293115
23	0xbdcd72a9	-0.10031635
24	0xbe7c9eee	-0.24670002
25	0xbd2f811b	-0.042847734
26	0xbdbace94	-0.09121433
27	0xbb6766f6	-0.0035309172
28	0xbdce5150	-0.10074103
29	0xbdc746a5	-0.09730271
30	0x3d8f4fd4	0.06997648
31	0x3c3be1e8	0.0114674345

conv2.weight f4 [16, 32, 5, 5]
0	0xbe1f0944	-0.15530878
1	0xbd99e664	-0.07514647
2	0xba369820	-0.00069654174
3	0xbc6b7644	-0.014371458
4	0xbd97f2cc	-0.07419357
5	0xbc444c87	-0.011981136
6	0xbc5e2c95	-0.013560434
7	0x3d5b2d9f	0.053510305
8	0x3d485b35	0.048915107
9	0xbb29b627	-0.0025895925
10	0xbc95c9fd	-0.018284792
11	0xbc1bcef7	-0.0095097935
12	0xbc0058e0	-0.007833689
13	0x3dcf83fe	0.101325974
14	0x3daad8d8	0.08342141
15	0x3cf55ac5	0.029950509
16	0x3d1b9642	0.037985094
17	0x3dc3d6da	0.09562464
18	0x399674c3	0.00028697224
19	0x3e0870a6	0.13324222
20	0x3a8e0b45	0.0010837099
21	0x3d2273d8	0.03966126
22	0x3e072dcc	0.13201064
23	0x3da1898c	0.07887563
24	0x3d3bcb60	0.04584825
25	0xbd5377d4	-0.05162795
26	0xbbbc6f40	-0.0057505667
27	0x3cf33999	0.02969055
28	0xbdb0aabe	-0.086263165
29	0xbd69fec8	-0.057127744
30	0xbcefea8a	-0.029286642
31	0xbccfd51b	-0.025370171
32	0x3c8d4f67	0.017249776
33	0xbe1f9fbd	-0.15588279
34	0xbc9cf5cd	-0.019160176
35	0x3d127c39	0.035763
36	0x3d99b2cb	0.07504805
37	0xbb375799	-0.0027975796
38	0xbdfc2799	-0.1231224
39	0xbdda5d74	-0.10662356
40	0xbbd288ad	-0.0064249844
41	0x3d22e645	0.039770383
42	0xbbe2e35d	-0.0069240765
43	0xbc8b37ee	-0.016994443
44	0xbd7acb1d	-0.06122886
45	0x3cb7f81c	0.022457175
46	0x3d946dbb	0.07247492
47	0x3d5b8416	0.053592764
48	0x3d16bd48	0.036801606
49	0xbb9f94b2	-0.004870021
50	0x3c9023ff	0.01759529
51	0x3d86cdd9	0.06582231
52	0x3d3a744a	0.04552106
53	0x3c263642	0.010144772
54	0xbcb42e66	-0.02199478
55	0xbd0a9979	-0.03383777
56	0xbd181425	-0.037128586
57	0x3c1735f6	0.009229174
58	0x3d82ed37	0.063929014
59	0xbd0b66fc	-0.03403376
60	0x3cbd42d6	0.023103159
61	0xb9a2862a	-0.00030999008
62	0x3c91b939	0.017788516
63	0xbd16505d	-0.036697734
64	0x3c7fbff9	0.015609735
65	0x3ceecd54	0.029150642
66	0x3ca01ff4	0.019546486
67	0xbcfdb7ab	-0.030971369
68	0x3cbcd0cc	0.02304878
69	0xbc47e32a	-0.012200156
70	0x3cc5fc52	0.024168167
71	0xbc2b88ed	-0.010469657
72	0x39df021b	0.00042535443
73	0x3d3a6ef4	0.04551597
74	0x3d58e5b0	0.052953422
75	0xbd04870b	-0.03235535
76	0x3d177ae7	0.036982443
77	0x3baef833	0.0053396462
78	0xbd2fa1ff	-0.0428791
79	0x3b01e7c7	0.0019821988
80	0xbc8133c6	-0.015771758
81	0xbcd7bdb9	-0.026335584
82	0xbd8a63ab	-0.067572914
83	0x3cd42390	0.025895864
84	0x3db480a9	0.088136025
85	0xbdc9211b	-0.098207675
86	0xbd98ec30	-0.07466924
87	0xbd39396d	-0.04522078
88	0xbd4f3950	-0.050591767
89	0xbc185624	-0.009297881
90	0x3d3345d0	0.04376775
91	0x3d11b1b8	0.035569876
92	0x3c28970a	0.010289917
93	0x3cc51d20	0.02406174
94	0x3deb7bb1	0.11498202
95	0xbc94a39c	-0.018144421
96	0x3d4f6e63	0.050642382
97	0x3d0502f8	0.032473534
98	0x3dd617d3	0.10453763
99	0x3e02ce27	0.12773953
100	0x3d7b029f	0.061281797
101	0x3c08277a	0.008310193
102	0x3d0ef9a1	0.034906033
103	0xbc98df26	-0.018661093
104	0xbd8079ab	-0.06273206
105	0x3db4638c	0.088080496
106	0x3cc936c7	0.024562253
107	0xbd52e2d2	-0.051485844
108	0xbd0d5dd3	-0.034513306
109	0xbd3e7364	-0.046496764
110	0x3d333fcf	0.043762024
111	0xbcc931e5	-0.024559924
112	0xbd0ae2b5	-0.03390761
113	0xbd4f2ee0	-0.050581813
114	0xbd8d5a00	-0.06901932
115	0x3bbc62c8	0.0057490803
116	0x3d94c1e2	0.07263543
117	0xbccf9a5f	-0.025342165
118	0xbd7add21	-0.06124604
119	0xbd940e4b	-0.07229289
120	0xbc3c9779	-0.011510723
121	0x3d50360d	0.050832797
122	0x3ca0f0f6	0.01964615
123	0x3db4c902	0.08827402
124	0x3d180f88	0.037124187
125	0xbceb7f63	-0.028747266
126	0xbd82f9a5	-0.06395272
127	0x3d257a46	0.040399812
128	0xbd511fba	-0.051055647
129	0xbcccd79c	-0.025005154
130	0x3c1c404b	0.009536813
131	0xbdaa8e22	-0.08327891
132	0x3d907887	0.07054239
133	0x3d4666d1	0.048437897
134	0x3d795618	0.06087312
135	0xbd57e333	-0.05270691
136	0x3d6b7c2c	0.057491466
137	0x3d9dd80c	0.07707223
138	0x3d97d914	0.07414451
139	0x3deac6c3	0.11463692
140	0xbdf5e062	-0.12005688
141	0xbe0acdf6	-0.1355513
142	0xbdd76241	-0.10516787
143	0xbdb69df9	-0.0891685
144	0x3ceb92d0	0.02875653
145	0xbc94f86a	-0.01818486
146	0x3cf47217	0.029839559
147	0xbd7fb5ff	-0.062429424
148	0x3cbf5fbc	0.02336108
149	0xbb7b38cd	-0.0038333416
150	0x3d1d3949	0.03838471
151	0x3d3638a4	0.04448761
152	0xbd93e079	-0.07220549
153	0x3dae24e1	0.08503128
154	0x3c356e33	0.011073637
155	0xbdb3aa09	-0.08772666
156	0x3c93eba7	0.018056704
157	0xbd80b3fb	-0.062843286
158	0x3cf9316f	0.03041908
159	0x3cac95e7	0.021067573
160	0x3ca0f3bd	0.019647473
161	0xbdcf65ac	-0.10126814
162	0xbd2adb17	-0.041712847
163	0x3c998a05	0.01874257
164	0x3dac077b	0.08399864
165	0xbae6e52b	-0.0017615905
166	0x3c8bc2a9	0.017060595
167	0x3cf7195e	0.030163463
168	0x3d9b540f	0.07584392
169	0x3d5e455a	0.054265358
170	0x3c1be62d	0.009515327
171	0xbcdbda37	-0.026837451
172	0x3d9141c0	0.07092619
173	0x3d9bfd56	0.07616679
174	0x3d9b76c4	0.07591012
175	0xbda41fa7	-0.0801385
176	0xbd81fbe1	-0.0634687
177	0xbd2a8b50	-0.041636765
178	0xbd83076f	-0.06397902
179	0x3bdca0e1	0.0067330454
180	0xbd9c844b	-0.076424204
181	0xbd7163de	-0.05893313
182	0x3bf49d28	0.0074650235
183	0xbd72088f	-0.059090193
184	0x3c917c3f	0.01775944
185	0xbd4c717a	-0.049912907
186	0xbc477e12	-0.012176054
187	0x3da07dc6	0.078364894
188	0x3d4d3efd	0.0501089
189	0x3d98fba7	0.07469874
190	0xbcfe7d9e	-0.031065758
191	0xbdaf2c9b	-0.0855343
192	0xba851cb5	-0.001015565
193	0xbd1cce5b	-0.038282733
194	0xbd3c5013	-0.045974802
195	0x3d0b7374	0.03404565
196	0xbc482284	-0.01221526
197	0xbd2ffda0	-0.042966485
198	0x3c5b0a24	0.013369117
199	0x3d9b0c05	0.07570652
200	0xbefd75a4	-0.49503815
201	0xbeb0d0cb	-0.34534296
202	0xbe7f5bd3	-0.24937372
203	0xbe3e6c65	-0.18596037
204	0xbe030182	-0.12793544
205	0xbe774685	-0.24147995
206	0xbe17630a	-0.14783874
207	0xbe40aa4d	-0.18814965
208	0xbe1cb1ee	-0.1530225
209	0xbd227f20	-0.039672017
210	0xbe93e17d	-0.2888297
211	0xbdcae76c	-0.099074215
212	0xbd9e7396	-0.0773689
213	0xbde270e7	-0.11056691
214	0xbdaa802f	-0.0832523
215	0xbe0f5ae2	-0.13999513
216	0xbdd85c28	-0.105644524
217	0xbbfc906a	-0.007707645
218	0xbdbed0dc	-0.093171805
219	0xbded8eb0	-0.11599481
220	0xbe04c356	-0.1296514
221	0xbcdc69bc	-0.026905887
222	0xbcb4a78f	-0.022052554
223	0xbc6b7286	-0.014370566
224	0xbd2a526c	-0.04158251
225	0xbe283a0b	-0.16428392
226	0xbd9753d1	-0.073890336
227	0xbd70d462	-0.058796294
228	0xbe09108a	-0.13385215
229	0x3e8a4c3c	0.27011287
230	0xbd671829	-0.056419525
231	0xbd73c36a	-0.059512533
232	0xbde09d2c	-0.10967478
233	0xbe5c95b1	-0.21541478
234	0x3d417d11	0.047238413
235	0xbd3d11a8	-0.046159416
236	0x3c1ea45f	0.009682744
237	0xbc81b2f9	-0.015832411
238	0xbe7164cf	-0.23573612
239	0x3d21ce23	0.039503228
240	0x3df13e87	0.11779504
241	0x3e257678	0.16158473
242	0x3d5c052b	0.053715866
243	0xbe27d07f	-0.16388129
244	0xbd35737d	-0.04429959
245	0x3de872df	0.11350035
246	0x3dccf087	0.100068145
247	0x3df050f7	0.11734193
248	0xbddf0f6d	-0.10891614
249	0x3dfc836f	0.123297565
250	0x3e714917	0.23563038
251	0x3e57c3fa	0.21070853
252	0x3e256526	0.16151866
253	0x3d385698	0.045004457
254	0x3dc9fe20	0.098629236
255	0x3e120beb	0.14262359

conv2.bias f4 [16]
0	0x3c79dcaf	0.015250369
1	0x3e2da055	0.16955693
2	0xbd7b1a51	-0.061304394
3	0xbd446a15	-0.04795273
4	0xbd14d840	-0.036339045
5	0x3c4ff4d1	0.012692646
6	0x3c41b898	0.011823796
7	0x3d9c5d35	0.07634965
8	0x3de91138	0.11380237
9	0xbd961ab6	-0.073293135
10	0x3df350b8	0.1188063
11	0xbd553be9	-0.052059088
12	0xbd7b45ed	-0.061345983
13	0x3c7c5f98	0.015403651
14	0x3dc47a2d	0.09593616
15	0xbd2a7346	-0.04161384

conv3.weight f4 [8, 16, 3, 3]
0	0xbdde0001	-0.108398445
1	0x3ddaa139	0.10675282
2	0xbd3d3155	-0.046189625
3	0x3db744bf	0.08948659
4	0x3e11d60f	0.14241813
5	0x3d9e386d	0.07725606
6	0x3c98e708	0.018664852
7	0xbd96bfbc	-0.07360789
8	0x3df49094	0.119416386
9	0xbec0c666	-0.37651366
10	0xbd136ded	-0.035993505
11	0xbdd5bd2a	-0.10436471
12	0xbe93d00a	-0.2886966
13	0x3e1055e4	0.14095265
14	0xbd2a1689	-0.041525397
15	0xbde4a6c1	-0.11164618
16	0x3e27bf3e	0.16381547
17	0x3e95000c	0.29101598
18	0x3e0712d8	0.13190782
19	0xbda5a29a	-0.080876544
20	0x3d4ce71b	0.050025087
21	0xbe0f830b	-0.14014833
22	0x3d6c5459	0.057697628
23	0xbd38d7e3	-0.04512776
24	0xbd88c3b8	-0.066779554
25	0x3d1bf972	0.038079686
26	0xbd575115	-0.05256756
27	0x3dfdae5e	0.123867735
28	0xbe0cd051	-0.13751341
29	0xbe1d6f8e	-0.15374586
30	0x3dab4efd	0.08364675
31	0xbd6d10c1	-0.057877306
32	0x3dc761b5	0.09735433
33	0xbe17dedb	-0.14831106
34	0xbc3850b0	-0.011249706
35	0xbc603495	-0.0136844115
36	0x3e236891	0.15957858
37	0x3e1b54d1	0.15169074
38	0x3dc05746	0.09391646
39	0x3cb60e9f	0.022223769
40	0x3e2c8035	0.16845782
41	0xbb2369b9	-0.0024934842
42	0x3d88b4ae	0.06675087
43	0xbded26f1	-0.11579693
44	0xbdd2fc97	-0.10302084
45	0xbdf7b9e0	-0.12096
46	0xbe254078	-0.16137874
47	0xbe03b4d7	-0.12861954
48	0xbcb1b468	-0.02169247
49	0x3dac4d1c	0.08413145
50	0xbd35c207	-0.044374492
51	0x3de99521	0.11405397
52	0xbdfb1ce9	-0.122613735
53	0x3cf8d4ec	0.030374967
54	0xbe19f6bd	-0.1503553
55	0x3dc3d6c4	0.09562448
56	0xbda7f5f7	-0.08201211
57	0x3c3f5b99	0.011679553
58	0x3d93d487	0.07218271
59	0x3e0d72ed	0.13813372
60	0xbd4f2f5f	-0.050582286
61	0xbd191642	-0.037374742
62	0x3dfb97ca	0.12284811
63	0xbde63510	-0.112405896
64	0xbd532259	-0.05154643
65	0xbe3ecb45	-0.18632229
66	0x3e07aa9b	0.13248675
67	0x3cbc9102	0.023018364
68	0x3d30313f	0.043015715
69	0x3e72d548	0.23714173
70	0x3e66ba4b	0.22532003
71	0x3da72502	0.081613556
72	0xbe7dae01	-0.24773408
73	0xbe96e6fa	-0.29473096
74	0xbd9f6228	-0.07782394
75	0x3d2ba853	0.041908573
76	0x3cbc30f4	0.022972561
77	0x3dc8007d	0.09765718
78	0x3e038a88	0.12845814
79	0x3e2edaca	0.17075649
80	0x3e397144	0.18109614
81	0xbddc409f	-0.10754513
82	0x3ddce5aa	0.107859924
83	0xbd96c9e3	-0.073627256
84	0x3c2abcee	0.010421021
85	0x3db88c49	0.09011132
86	0x3e307b0a	0.17234436
87	0xbb02b0b4	-0.001994175
88	0xbd925b95	-0.07146374
89	0xbdd74b3b	-0.10512396
90	0xbd94a3b3	-0.07257786
91	0x3e1a3b70	0.15061736
92	0x3e54c23d	0.20777221
93	0x3c8105da	0.01574986
94	0xbdea8346	-0.1145082
95	0x3e473da6	0.19457111
96	0xbe8878e5	-0.26654735
97	0x3db5b3e7	0.08872204
98	0xbd90c752	-0.07069267
99	0x3e45601f	0.19274949
100	0xbd8d6e49	-0.06905801
101	0x3e3a7e12	0.18212155
102	0x3e29a2de	0.16566035
103	0x3cd3217b	0.0257728
104	0xbd442dee	-0.047895364
105	0xbe06253a	-0.13100138
106	0x3d91ebde	0.07125066
107	0xbdbd39d3	-0.09239545
108	0xbd86945d	-0.06571267
109	0x3d74c599	0.059758756
110	0xbd8e4e98	-0.06948584
111	0xbc040926	-0.008058822
112	0xbda0f2fe	-0.07858847
113	0x3dd90c4c	0.105980486
114	0x3df53483	0.119729064
115	0x3d5db6fb	0.054129582
116	0x3c8bf7aa	0.017085869
117	0x3e1cc9f4	0.15311414
118	0x3da36e33	0.07980003
119	0xbdeddc9b	-0.11614343
120	0xbd4d8f87	-0.050185706
121	0x3ded3468	0.11582261
122	0x3d3806b5	0.04492827
123	0xbd35e303	-0.04440595
124	0xbdb790f5	-0.08963195
125	0xbd4f949e	-0.05067884
126	0x3dbd7d75	0.09252445
127	0x3da113e2	0.078651205
128	0x3e1e378c	0.15450877
129	0x3d82df2c	0.06390223
130	0xbdb71436	-0.08939402
131	0x3da1f32e	0.07907711
132	0xbd70e428	-0.058811337
133	0xbe2e0440	-0.16993809
134	0x3d4e1935	0.050317008
135	0xbe0a530b	-0.13508241
136	0xbba88f91	-0.0051440676
137	0xbcf61c7d	-0.030042881
138	0x3e4ff81e	0.20309493
139	0x3d573e52	0.052549668
140	0xbe72f49e	-0.23726127
141	0x3db1a89a	0.08674736
142	0x3e31f71c	0.17379421
143	0x3dd38093	0.10327258
144	0xbe5dc618	-0.21657598
145	0xbe2b39bd	-0.16721244
146	0x3da62e42	0.08114292
147	0xbd8bed6a	-0.068323925
148	0xbe1341b4	-0.14380533
149	0x3d1faeeb	0.038985174
150	0x3eb449d5	0.3521258
151	0x3e72085f	0.23636006
152	0xbd41beb1	-0.047300998
153	0xbdcb9333	-0.099401854
154	0x3d41f9e9	0.047357474
155	0x3e74e9aa	0.23917261
156	0xbe196563	-0.14980082
157	0xbeabc10f	-0.3354573
158	0xba8ebe6a	-0.0010890488
159	0x3e0858b4	0.13315088
160	0xbda387e6	-0.07984905
161	0xbd1b483a	-0.037910677
162	0xbcfe28c8	-0.031025305
163	0x3db8b76d	0.09019361
164	0xbe138da1	-0.14409496
165	0xbe2531cf	-0.16132282
166	0x3c4606a7	0.012086547
167	0xbaba46b2	-0.0014211743
168	0x3d8d85c4	0.069102794
169	0xbc4c19b6	-0.012457302
170	0xbddb19bc	-0.10698268
171	0xbc8f1cb2	-0.017469738
172	0x3d35dffb	0.044403058
173	0x3c775516	0.01509597
174	0xbd76700a	-0.060165443
175	0xbe1c1c48	-0.15245163
176	0xbd233a96	-0.039850794
177	0xbe0b6104	-0.13611227
178	0xbcf002d7	-0.02929823
179	0x3dc79960	0.09746051
180	0x3df8f4bd	0.12156055
181	0x3de31c97	0.110894375
182	0x3dfd77d5	0.12376372
183	0xbde4f751	-0.11179984
184	0xbe1ebb6c	-0.15501183
185	0xbdbe0572	-0.09278382
186	0xbe2cc38d	-0.16871472
187	0xbdd4e7c6	-0.1039577
188	0x3d1698d8	0.036766857
189	0x3e188e19	0.14897956
190	0xbe199c47	-0.15001021
191	0xbe0ed5d6	-0.1394876
192	0x3d76aefc	0.06022547
193	0x3e05fcc5	0.13084705
194	0xbd5d1c5b	-0.05398212
195	0xbdcb213c	-0.09918448
196	0xbcd198eb	-0.025585612
197	0x3dddb3ec	0.10825333
198	0xbd1893b0	-0.03725022
199	0xbe2e79b4	-0.17038614
200	0x3de09c27	0.10967284
201	0x3d94c051	0.07263244
202	0xbc328ac8	-0.010897346
203	0xbb99e92e	-0.0046969866
204	0xbe126680	-0.14296913
205	0x3e147129	0.14496292
206	0xbe12d207	-0.14337932
207	0x3d1e81e1	0.03869808
208	0x3dc56767	0.09638863
209	0x3db45b06	0.08806424
210	0xbe54051d	-0.20705076
211	0x3d922f90	0.07137978
212	0x3e81d907	0.2536089
213	0xbe917f1e	-0.28417295
214	0xbdd829f5	-0.10554878
215	0x3e787065	0.24261625
216	0xbdc235d5	-0.09482924
217	0x3dfa46bc	0.12220523
218	0x3dda0673	0.10645761
219	0xbe6e5fca	-0.23278728
220	0x3dd8e69d	0.10590861
221	0x3d597aca	0.053095616
222	0xbe3cc2ac	-0.18433636
223	0x3dcb97f9	0.09941096
224	0x3e1fd281	0.15607645
225	0xbd30da8e	-0.04317718
226	0x3e0c13fd	0.136795
227	0xbdbd91b7	-0.092563085
228	0xbaf5e8b5	-0.0018761369
229	0x3d1cd31c	0.038287267
230	0xbd0236f5	-0.031790692
231	0x3dc51bc1	0.09624434
232	0x3ddac911	0.106828816
233	0xbdb591bf	-0.088656895
234	0x3d09f36f	0.033679422
235	0xbe3097d1	-0.17245413
236	0xbe62a42b	-0.22132938
237	0x3e70959e	0.23494574
238	0xbb27f5da	-0.0025628717
239	0xbe329148	-0.17438233
240	0x3e63c703	0.22243886
241	0x3e004593	0.1252654
242	0x3cb74add	0.022374565
243	0x3cead354	0.028665222
244	0xbc261dcc	-0.01013894
245	0xbd83dd17	-0.06438654
246	0x3df46a77	0.11934369
247	0x3ddd480d	0.10804758
248	0xbd7c9205	-0.061662693
249	0x3dcba31c	0.0994322
250	0x3a2a9f9a	0.0006508768
251	0xbe4760de	-0.19470546
252	0x3dd385e5	0.10328273
253	0xbe04ee27	-0.12981473
254	0x3d874998	0.06605834
255	0x3dd6c210	0.10486233

conv3.bias f4 [8]
0	0x3d83c674	0.06434336
1	0xbe80848d	-0.25101128
2	0xbd3c5cfe	-0.04598712
3	0x3de78617	0.113048725
4	0x3e0a83fa	0.13526908
5	0x3d024a08	0.031808883
6	0x3e5e07b5	0.21682627
7	0x3e6333e7	0.22187768

convt1.weight f4 [8, 8, 3, 3]
0	0xbd8413bb	-0.06449076
1	0x3e2edcf5	0.17076476
2	0x3ddd2532	0.1079811
3	0xbcc639e8	-0.024197534
4	0xbe46182e	-0.19345161
5	0x3d35e31f	0.044406053
6	0x3df31372	0.11868943
7	0xbd92e579	-0.07172675
8	0x3e3eaf1f	0.18621491
9	0xbce589c3	-0.028019791
10	0xbe29bce9	-0.1657597
11	0xbe3e07f3	-0.1855772
12	0xbf0b90da	-0.545179
13	0x3df6e671	0.12055672
14	0x3e02ae86	0.12761888
15	0x3e7586d5	0.23977216
16	0x3e4f2925	0.20230539
17	0xbe67095a	-0.22562161
18	0xbec3303c	-0.38122737
19	0xbe1a28f6	-0.15054688
20	0xbe6e2268	-0.23255312
21	0xbe027e5e	-0.12743518
22	0x3e0b6ffd	0.13616939
23	0x3dfb163a	0.12260099
24	0x3eb665ce	0.35624546
25	0x3e322b5d	0.17399354
26	0x3e9c0497	0.30472252
27	0x3dd8ccf3	0.10585966
28	0x3e3268e0	0.17422819
29	0xbd77ac6a	-0.06046716
30	0xbeec7600	-0.46183777
31	0x3d62d206	0.055376075
32	0xbda1ff8a	-0.07910068
33	0xbdf1ef71	-0.11813248
34	0xbeb99e39	-0.36253527
35	0xbde8891f	-0.11354279
36	0x3e090ab0	0.13382983
37	0xbde06f72	-0.109587565
38	0x3e5b8c89	0.21440329
39	0x3de7e228	0.11322433
40	0xbea3f310	-0.3202138
41	0x3e29c34f	0.1657841
42	0x3dd2f7df	0.10301184
43	0x3e0d3751	0.13790633
44	0x3e5de15f	0.21668003
45	0xbd106533	-0.03525276
46	0x3e0da60b	0.13832872
47	0xbdac9790	-0.08427346
48	0xbe2fc19e	-0.17163703
49	0xbd818a0a	-0.06325157
50	0xbe5adcda	-0.2137331
51	0xbe03d092	-0.12872532
52	0xbeb04906	-0.34430712
53	0xbe4bdd1f	-0.1990857
54	0x3dbc7d2c	0.09203562
55	0x3e0190c3	0.12652878
56	0x3eb14bb3	0.34628066
57	0x3e9adb77	0.30245563
58	0x3e306ec1	0.1722975
59	0xbeaca2f0	-0.3371806
60	0xbcb151db	-0.021645477
61	0xbd7e94fc	-0.0621538
62	0xbe82a9a2	-0.25520045
63	0x3cb9bc13	0.022672689
64	0x3ea9a588	0.33134103
65	0x3cd400ed	0.025879348
66	0x3dbddd11	0.09270681
67	0x3d6958f3	0.056969594
68	0x3c00dcf6	0.007865181
69	0x3ce39404	0.02778054
70	0xbe601f5d	-0.21886964
71	0xbea94dfd	-0.33067313
72	0x3e2234e8	0.15840495
73	0xbdee5213	-0.11636748
74	0xbe69f691	-0.22847964
75	0xbe6bd295	-0.2302955
76	0xbd8cb0a6	-0.068696305
77	0x3dc82030	0.09771764
78	0xbe9ecd21	-0.31015876
79	0xbd3933d0	-0.045215428
80	0x3e0e5186	0.13898286
81	0x3d20ed3a	0.039288737
82	0xbec2b886	-0.38031405
83	0x3e4790f9	0.19488896
84	0x3d839cde	0.064264044
85	0x3dc29a90	0.09502137
86	0x3e6b81ed	0.22998782
87	0x3e7b9f4f	0.2457249
88	0xbd4fb605	-0.050710697
89	0xbed24259	-0.41066244
90	0x3e24bb94	0.1608718
91	0x3d8d5c67	0.0690239
92	0x3d8c9e9f	0.06866192
93	0xbdff3aec	-0.1246241
94	0x3e69a27b	0.22815888
95	0x3e545a91	0.20737673
96	0x3e4180be	0.18896767
97	0xbd99f8eb	-0.075181805
98	0xbe9c4890	-0.3052411
99	0x3dde3720	0.10850358
100	0xbe68927a	-0.22712126
101	0xbe03b44c	-0.12861747
102	0xbeac5e43	-0.33665666
103	0xbb38b039	-0.0028181209
104	0x3c487947	0.012235946
105	0xbe618ae9	-0.22025646
106	0xbe9834b5	-0.29727712
107	0xbdcd08f7	-0.100114755
108	0xbd6e07c2	-0.058112867
109	0x3efac421	0.4897776
110	0x3e1c3d07	0.15257655
111	0x3e77241c	0.24134868
112	0xbe2d0565	-0.16896589
113	0x3ddc1264	0.10745695
114	0x3e717eda	0.23583546
115	0xbde6589a	-0.11247368
116	0x3e8f2221	0.27955726
117	0x3edcdb4f	0.4313607
118	0xbe0ddb70	-0.1385324
119	0xbd81baa8	-0.0633443
120	0xbf095d2d	-0.536578
121	0xbdb633c5	-0.08896593
122	0xbdc058fb	-0.09391972
123	0xbe5abf94	-0.21362144
124	0x3d887ae7	0.06664067
125	0x3df01511	0.11722768
126	0x3e73dec6	0.2381545
127	0x3ea4de9c	0.32201087
128	0x3ecf5e0e	0.40501446
129	0xbe25c5ef	-0.16188787
130	0xbe3f4396	-0.18678126
131	0x3e24e42e	0.16102669
132	0x3da29d6b	0.07940181
133	0xbca4ef0e	-0.020133521
134	0xbe49eaaa	-0.19718423
135	0x3de6bfc5	0.11267046
136	0xbeb7cd95	-0.35899034
137	0xbe9afaee	-0.3026957
138	0x3c6bfeca	0.014404008
139	0x3df8e8bc	0.121537656
140	0x3dca5086	0.0987864
141	0xbdef102a	-0.11673005
142	0x3e698702	0.22805408
143	0x3dfaf035	0.12252847
144	0xbdf55353	-0.119787835
145	0xbe14a00c	-0.14514178
146	0xbdeee441	-0.1166463
147	0x3dd1078b	0.10206517
148	0x3e0d1453	0.13777284
149	0xbe1be611	-0.15224482
150	0xbddcd558	-0.107828796
151	0x3e26d0c7	0.1629058
152	0xbae39804	-0.001736403
153	0xbbc7aea7	-0.006093818
154	0x3dfb36cb	0.1226631
155	0x3e1faa5e	0.15592334
156	0x3e2284d1	0.15870978
157	0xbe3810df	-0.17975186
158	0x3e00c79d	0.12576146
159	0xbdb6f695	-0.089337505
160	0xbde1c1b9	-0.11023278
161	0xbcf094b2	-0.029367778
162	0xbd66285c	-0.056190833
163	0xbdada089	-0.08477885
164	0x3e254e22	0.16143087
165	0xbd58e14e	-0.052949242
166	0x3e315c7d	0.17320438
167	0xbda949b1	-0.08266009
168	0x3e348e20	0.17632341
169	0x3d82b7c7	0.06382709
170	0xbddd79d2	-0.10814251
171	0xbdf8de6a	-0.12151797
172	0x3dc1e6dd	0.09467862
173	0xbe51a10e	-0.20471594
174	0xbdcc5017	-0.099762134
175	0xbe435c90	-0.19078279
176	0x3d8ba6e7	0.068189435
177	0x3e040894	0.12893897
178	0xbe13a586	-0.14418611
179	0xbdb575fb	-0.088603936
180	0x3df69457	0.12040012
181	0x3b8b04a3	0.004242496
182	0x3dc8cbbc	0.09804484
183	0x3a3eb122	0.00072743197
184	0xbdebbd68	-0.11510736
185	0xbd53b435	-0.05168553
186	0x3dfa521d	0.12222693
187	0x3db7dc8f	0.08977615
188	0xbcb444f4	-0.022005536
189	0x3db1e97c	0.08687112
190	0x3db1b7f1	0.08677662
191	0x3e187b4b	0.14890783
192	0xbdc83298	-0.09775275
193	0xbd695425	-0.056965012
194	0xbc83e994	-0.01610259
195	0x3e06b10f	0.1315348
196	0xbe11b67b	-0.14229767
197	0xbb4c77de	-0.0031199376
198	0xbde2a579	-0.11066718
199	0xbddfa873	-0.10920801
200	0xbd8f1bb4	-0.06987706
201	0x3e293e4b	0.16527669
202	0x3d59b041	0.053146604
203	0xbb50e7a9	-0.0031876361
204	0x3dee78f4	0.11644164
205	0xbd7d66e7	-0.061865713
206	0x3e2efed8	0.17089403
207	0x3dab0560	0.083506346
208	0x3c635070	0.013874158
209	0xbcbcd558	-0.023050949
210	0x3d6125a5	0.05496754
211	0x3e4f3531	0.20235135
212	0xbe34e02f	-0.17663644
213	0xbe088e1e	-0.13335463
214	0xbdeadf09	-0.11468322
215	0xbdfcf80c	-0.12351999
216	0x3e8d44a3	0.27591428
217	0xbeaa765d	-0.3329343
218	0xbd34bb23	-0.04412378
219	0x3c385fc2	0.011253299
220	0xbee641f3	-0.4497219
221	0xbe15fb10	-0.14646554
222	0x3e7caac8	0.24674523
223	0x3bb2698a	0.00544471
224	0xbe04a1b3	-0.12952308
225	0xbe2afcd5	-0.1669801
226	0xbe7845fe	-0.2424545
227	0x3c8775de	0.016535696
228	0xbdf63b53	-0.12023034
229	0xbda7173e	-0.0815873
230	0x3ec1a1b6	0.37818688
231	0xbe334f6d	-0.17510767
232	0xbda8f80b	-0.082504354
233	0x3e430b90	0.1904738
234	0xbdd2e72e	-0.10298
235	0x3e118848	0.14212143
236	0xbe17df1f	-0.14831208
237	0x3e30fd0c	0.1728403
238	0xbdf4f5ce	-0.11960946
239	0xbe4c8187	-0.19971286
240	0x3e74a316	0.23890337
241	0x3d221cd6	0.03957828
242	0x3e8b4016	0.2719733
243	0xbe33a5e1	-0.17543747
244	0xbdd02d67	-0.1016491
245	0xbe0bf342	-0.13667014
246	0xbef9316b	-0.48670515
247	0x3e559bf1	0.20860268
248	0xbda2fc45	-0.07958273
249	0xbc9e1595	-0.0192974
250	0xbe2bbf7b	-0.16772263
251	0x3ce47cd3	0.027891552
252	0x3b280d9e	0.0025642882
253	0x3e005467	0.12532197
254	0x3e19b878	0.15011775
255	0xbe5b5121	-0.21417667

convt1.bias f4 [8]
0	0xbbd1eae7	-0.0064061764
1	0x3d7eccf4	0.062207177
2	0xbd061d01	-0.032742504
3	0xbcfc2c49	-0.030782836
4	0xbd197bd3	-0.037471604
5	0x3cbc9ccb	0.023023983
6	0x3b669a10	0.0035187043
7	0xbdb87726	-0.09007101

convt2.weight f4 [8, 16, 5, 5]
0	0xbe9444b7	-0.28958675
1	0xbea310f3	-0.3184887
2	0xbee39dca	-0.4445632
3	0xbda80631	-0.08204306
4	0xbe85a9a2	-0.26105982
5	0xbd84327e	-0.06454943
6	0xbe799b66	-0.24375686
7	0xbf8965ab	-1.0734152
8	0xbea44f97	-0.32091972
9	0xbe594bd0	-0.21220326
10	0x3e059c42	0.13047889
11	0xbd35051b	-0.044194322
12	0xbe077df9	-0.13231649
13	0xbe8d0cfa	-0.27548963
14	0xbea48929	-0.32135895
15	0xbe366341	-0.178113
16	0xbe5888f4	-0.21145993
17	0xbe230946	-0.15921506
18	0xbd6ee47f	-0.05832338
19	0xbec4ac51	-0.38412717
20	0xbcf36fb3	-0.029716348
21	0xbeb54813	-0.3540655
22	0xbea3f1c8	-0.32020402
23	0xbdec4e44	-0.115383655
24	0xbdfa0eeb	-0.122098766
25	0xbf11a244	-0.5688822
26	0xbe6d7b43	-0.23191552
27	0xbefdd31b	-0.49575123
28	0xbf468d3f	-0.77559274
29	0xbeef50e3	-0.467414
30	0xbe86fa46	-0.26362818
31	0xbf4d3eee	-0.8017415
32	0xbdec39b4	-0.115344435
33	0xbe53948d	-0.20662136
34	0xbe445c95	-0.19175942
35	0xbe66795d	-0.22507234
36	0xbdeebea6	-0.11657457
37	0xbea8beec	-0.32958162
38	0xbe289c54	-0.16465884
39	0xbd6dd331	-0.058062736
40	0xbf083baa	-0.5321604
41	0xbea4b956	-0.3217265
42	0xbeb2be6d	-0.34910908
43	0xbeb2c660	-0.34916973
44	0xbe8d751a	-0.27628404
45	0xbe5c8dd5	-0.2153848
46	0xbe21fead	-0.15819807
47	0x3d3f5182	0.04670859
48	0xbdccf3b3	-0.100074194
49	0x3c7258b9	0.014791661
50	0x3e3ce8f8	0.18448246
51	0xbf20c44b	-0.6279952
52	0xbf0da327	-0.55327076
53	0x3c4e2864	0.012582872
54	0xbe8fa4b3	-0.28055343
55	0x3d82f9b0	0.0639528
56	0x3d83f645	0.064434566
57	0xbd00af40	-0.03141713
58	0xbd81ae6a	-0.06332095
59	0xbe8444b2	-0.2583366
60	0x3e02244b	0.12709157
61	0xbc850a50	-0.016240269
62	0x3da0b4ab	0.0784696
63	0x3e5befc8	0.21478188
64	0x3d617e94	0.055052355
65	0xbcf95f4f	-0.030440954
66	0xbe152409	-0.14564528
67	0xbe285187	-0.1643735
68	0x3e385ac7	0.18003379
69	0xbf0acfd0	-0.54223347
70	0x3e3359cd	0.17514725
71	0xbe371849	-0.17880358
72	0xbe39ecac	-0.1815669
73	0x3d8d2464	0.068917066
74	0xbe50d53c	-0.20393842
75	0x3e2f2d46	0.17107114
76	0x3a6abc76	0.00089544745
77	0xbd3b8dba	-0.045789458
78	0xbe37fb2b	-0.17966907
79	0xbd9515c8	-0.07279545
80	0x3dc25dd5	0.09490553
81	0xbee185e2	-0.44047457
82	0x3da98a55	0.08278338
83	0xbed84c34	-0.42245638
84	0x3d142741	0.036170248
85	0xbe3239ad	-0.17404814
86	0xbdfa493a	-0.12220998
87	0xbe8b8346	-0.2724859
88	0xbee4e849	-0.4470847
89	0x3c868457	0.016420526
90	0xbe697784	-0.22799498
91	0x3d32fa3f	0.043695685
92	0xbe3d4da6	-0.18486652
93	0x3ddeefc3	0.10885575
94	0xbe98e45e	-0.2986173
95	0x3db3b015	0.08773819
96	0x3d385030	0.044998348
97	0xbe5b56f9	-0.21419896
98	0x3dd4234e	0.10358296
99	0xbe3be9e9	-0.18350948
100	0xbdc4ce6b	-0.096096836
101	0xbc4faa71	-0.012674914
102	0xbeba84f5	-0.36429563
103	0xbd0e3216	-0.034715734
104	0x3d77eb0a	0.060526885
105	0xbef55a75	-0.47920576
106	0xbefe24df	-0.49637505
107	0xbe27799f	-0.16354989
108	0xbee38166	-0.4443466
109	0xbeeb143b	-0.45913872
110	0xbf03eb98	-0.5153136
111	0xbe6dc68f	-0.23220275
112	0xbdc3de2e	-0.09563862
113	0xbebdfd95	-0.3710753
114	0xbe825e8c	-0.2546276
115	0xbe89c1de	-0.2690572
116	0xbdcb3f9f	-0.09924244
117	0xbea82f9d	-0.32848826
118	0xbd561325	-0.05226435
119	0xbd12a086	-0.03579762
120	0xbedf8f26	-0.436639
121	0xbe078daa	-0.13237634
122	0xbf6ecd91	-0.9328242
123	0xbed55809	-0.41668728
124	0xbdc89614	-0.0979425
125	0xbe059514	-0.1304515
126	0xbdc30e4e	-0.09524213
127	0xbd8b6550	-0.06806433
128	0xbdc7c166	-0.09753685
129	0xbe2b13a4	-0.16706711
130	0x3e03000d	0.12792988
131	0x3d0103af	0.031497654
132	0xbda90668	-0.08253175
133	0xbdec4381	-0.11536313
134	0xbcf636ce	-0.03005543
135	0x3d992d5f	0.07479357
136	0xbcc4843a	-0.023988832
137	0xbd8855ab	-0.06656965
138	0xbd7a514e	-0.061112694
139	0x3c657992	0.014006035
140	0xbe0e5329	-0.1389891
141	0xbe16103d	-0.14654632
142	0x3d079c62	0.033108123
143	0x3de8ed2a	0.113733605
144	0xbdd96123	-0.106142305
145	0x3e3dc9fe	0.18534085
146	0x3df96b57	0.121786766
147	0xbdc887c6	-0.09791522
148	0xbda38cda	-0.0798585
149	0xbf983c74	-1.1893449
150	0xbe33a1d7	-0.17542206
151	0xbde26fa4	-0.1105645
152	0xbdc78133	-0.0974144
153	0xbe7f2b83	-0.24918942
154	0xbe80c576	-0.2515065
155	0xbec3193b	-0.38105187
156	0xbf32a0f0	-0.6977682
157	0xbe185121	-0.14874698
158	0xbf1d7925	-0.61512977
159	0xbe26a1a7	-0.16272603
160	0xbe828e82	-0.2549935
161	0xbe17d638	-0.14827812
162	0x3ce15e7b	0.027510872
163	0xbea31fbd	-0.31860152
164	0xbd42b8c4	-0.047539487
165	0xbef6242d	-0.48074475
166	0xbdeadf13	-0.11468329
167	0x3d30fd70	0.043210447
168	0xbe0a8e59	-0.13530864
169	0xbf190c3e	-0.59784305
170	0xbe644bee	-0.2229459
171	0xbe99782c	-0.29974496
172	0xbd5dabb2	-0.05411882
173	0x3d3cb7ef	0.04607385
174	0xbe807f7c	-0.25097263
175	0x3e48ffa5	0.1962877
176	0xbee6ef81	-0.45104602
177	0x3e88f47d	0.2674903
178	0x3ea7a829	0.32745484
179	0x3ea1c0ed	0.31592503
180	0xbe8c83a2	-0.27444178
181	0xbecf157b	-0.40446076
182	0xbeb83acf	-0.35982367
183	0xbecd0ca2	-0.400487
184	0xbf3de7d6	-0.7418188
185	0x3dad4ed6	0.084623024
186	0x3e34c48a	0.17653099
187	0x3d8079fe	0.06273268
188	0xbe7e0ed3	-0.24810342
189	0x3e710e79	0.23540677
190	0x3c810f47	0.015754355
191	0x3d876c5c	0.06612465
192	0xbf419cff	-0.7563018
193	0xbea1556f	-0.31510493
194	0xbdca4840	-0.09877062
195	0x3e1d6802	0.15371707
196	0x3e3a8663	0.18215327
197	0x3e9be79e	0.30450147
198	0xbc4ac591	-0.012376205
199	0x3e18e814	0.14932281
200	0xbec8c160	-0.39210033
201	0xbc76d8e7	-0.015066362
202	0xbeb1f1fe	-0.34754938
203	0xbea9ac0e	-0.3313908
204	0xbf214ae8	-0.6300492
205	0xbe6dcbfc	-0.23222345
206	0xbe81f981	-0.2538567
207	0xbe2cdeb8	-0.16881835
208	0xbe951c77	-0.2912328
209	0x3dcb5b7f	0.09929561
210	0x3dce3fbe	0.100707516
211	0xbe957878	-0.29193473
212	0xbf61cd2e	-0.88203704
213	0x3da66055	0.081238426
214	0xbdb851e9	-0.08999998
215	0xbe194fd2	-0.14971855
216	0xbe2ef5b1	-0.17085911
217	0xbd845e53	-0.064633034
218	0xbea72288	-0.32643533
219	0xbd954526	-0.0728858
220	0xbe5f12c4	-0.21784502
221	0x3d2adf82	0.04171706
222	0x3debcd55	0.11513773
223	0xbccc7db8	-0.024962291
224	0xbf0942c6	-0.53617513
225	0x3dd1d262	0.102452055
226	0x3d8569e7	0.0651434
227	0x3d76c550	0.060246766
228	0x3cd709b1	0.026249738
229	0xbd3e271e	-0.046424024
230	0xbdd8011c	-0.105470866
231	0xbf3edd42	-0.7455636
232	0x3e12f79a	0.14352265
233	0xbe8d0d86	-0.2754938
234	0x3d5de78f	0.05417591
235	0xbe210fbc	-0.15728658
236	0xbe2823c8	-0.164199
237	0xbe46bce3	-0.19407992
238	0xbc49154d	-0.012273145
239	0xbe3f0817	-0.1865543
240	0x3d7b454a	0.061345376
241	0x3e156e2d	0.1459281
242	0x3bffc83c	0.007805852
243	0xbd7a4807	-0.061103847
244	0xbd5cbb74	-0.053889707
245	0x3d402ef5	0.04691978
246	0x3d90344c	0.07041225
247	0x3d124a1b	0.035715204
248	0xbed4be97	-0.4155166
249	0xbe7c2dbb	-0.2462682
250	0x3ba7b3da	0.0051178755
251	0xbdec2a91	-0.115315564
252	0xbd9958c2	-0.07487632
253	0xbf10555c	-0.5638025
254	0xbcfc1dd9	-0.030775951
255	0xbe5e23c9	-0.21693338

convt2.bias f4 [16]
0	0x3d7e611e	0.062104337
1	0x3de764d6	0.1129853
2	0x3ce69c93	0.028150832
3	0x3ca2bb9a	0.019864846
4	0x3d7af80a	0.061271705
5	0x3d234a6c	0.039865896
6	0x3da5ca56	0.08095233
7	0xbd8fa467	-0.07013779
8	0x3dd2d64c	0.1029478
9	0x3d6a75af	0.057241138
10	0x3baaf0f9	0.0052167145
11	0x3dd21891	0.10258592
12	0x3d3e7714	0.04650028
13	0x3d94c5f7	0.07264321
14	0x3c93afe6	0.01802821
15	0x3bb97ff6	0.005661006

convt3.weight f4 [16, 32, 9, 9]
0	0xbceed250	-0.02915302
1	0x3d534056	0.051575027
2	0x3cd98aba	0.026555408
3	0xbc65ef8b	-0.014034162
4	0xbcc50050	-0.024048
5	0xbba5faeb	-0.005065312
6	0xbce87e51	-0.028380545
7	0xbc5aad74	-0.0133470185
8	0x3cb86608	0.02250959
9	0xbd2cae01	-0.04215813
10	0x3ccd9056	0.025093239
11	0x3cbf4c9d	0.023351962
12	0x3b327e94	0.002723609
13	0x3cad04c5	0.021120438
14	0xbd0f8ed5	-0.035048325
15	0x3a27a392	0.00063949183
16	0x3ce49bba	0.027906287
17	0x3d9be95a	0.07612868
18	0x3c2d9b97	0.010596178
19	0x3d47ec02	0.04880906
20	0x3db16ef7	0.08663743
21	0x3ce39a40	0.027783513
22	0x3d252a01	0.04032326
23	0x3d8b87f2	0.06813039
24	0x3cfdab7e	0.030965563
25	0x3d431bf8	0.047634095
26	0x3dd5aead	0.104337074
27	0xbcf02a0f	-0.02931693
28	0x3c3e7ee4	0.011626933
29	0xbd7ac280	-0.061220646
30	0x3c9a440b	0.018831274
31	0xbd074b93	-0.033031058
32	0xbd3778fd	-0.044793118
33	0x3cedfc1d	0.029050881
34	0x3a3d5d6e	0.00072237
35	0xbd36df98	-0.04464683
36	0x3c782677	0.0151458895
37	0x3cf4749f	0.029840766
38	0x3d05841e	0.0325967
39	0x3c539a55	0.012915214
40	0x3cb13f7c	0.021636717
41	0x3b00b57e	0.0019639428
42	0xbd041449	-0.032245908
43	0xbd01dc9f	-0.03170454
44	0x3d6277c8	0.055290014
45	0xb90341e1	-0.00012517675
46	0x3db1acb9	0.08675522
47	0xbcf4e554	-0.029894508
48	0x3cbafeee	0.022826638
49	0x3d5bf91e	0.053704374
50	0xbcd0ec4a	-0.025503296
51	0x3c8d4b9f	0.017247973
52	0x3dbf03b3	0.093268774
53	0x3c9274ab	0.017877897
54	0xbc1f14d7	-0.009709558
55	0xbc0a5106	-0.008442169
56	0xbb067ecb	-0.0020522352
57	0xbce9ae89	-0.028525608
58	0x3b1b96de	0.0023741047
59	0x3c7d97b0	0.01547806
60	0x3c0e862f	0.008698984
61	0x3ac5cfce	0.0015091838
62	0xbb3f0d2f	-0.0029152145
63	0xbd291fd2	-0.04129011
64	0x3d47ad4d	0.048749257
65	0xbd21878c	-0.03943591
66	0xbcf5db6d	-0.030011857
67	0x3cbc8ba5	0.023015806
68	0xbd6bc91d	-0.057564843
69	0xbce39689	-0.027781742
70	0xbca07ee4	-0.019591756
71	0xbc4192e3	-0.011814806
72	0x3da11f4a	0.07867296
73	0x3d64d9da	0.055871822
74	0x3d4159e1	0.047204856
75	0x3dbc270a	0.091871336
76	0x3d9c4d93	0.076319836
77	0x3dd59970	0.104296565
78	0x3d8b0f79	0.067900605
79	0x3d3eed10	0.0466128
80	0x3e3b6b9c	0.18302768
81	0x3a279efa	0.0006394234
82	0x3dbba584	0.09162429
83	0xbd221727	-0.03957286
84	0xbba4adb1	-0.0050255884
85	0x3d8fc82d	0.070206024
86	0xbd3b97b9	-0.04579899
87	0x3c33d233	0.010975408
88	0x3bf300e7	0.007415879
89	0xbcfb5d71	-0.030684205
90	0x3e0f80b2	0.14013937
91	0x3e18b85b	0.14914076
92	0x3bdfb769	0.006827284
93	0x3dc569fb	0.09639355
94	0x3e409a70	0.18808913
95	0xbd18f3f7	-0.037342038
96	0x3ddf1dad	0.10894332
97	0x3da9030e	0.08252536
98	0x3b0e8293	0.0021745309
99	0xbc01bbdc	-0.007918324
100	0xbd46ee8d	-0.048567344
101	0x3e3bdd9e	0.18346259
102	0xbbc98972	-0.006150418
103	0xbd8586f4	-0.06519881
104	0x3dcdcc0c	0.100486845
105	0x3c36b9e3	0.011152717
106	0xbd8353ee	-0.06412493
107	0x3dc650ab	0.09683355
108	0xbc943e2b	-0.01809605
109	0x3e6bcb3a	0.23026744
110	0xbc24195f	-0.010015815
111	0x3a589a0b	0.00082627
112	0x3e31c578	0.17360485
113	0x3c1a649d	0.009423402
114	0xbc1392bc	-0.009007152
115	0x3e170714	0.14748794
116	0xbc586afd	-0.013209102
117	0x3e63b60a	0.22237411
118	0x3e8bd41b	0.2731026
119	0xbd3cde75	-0.04611059
120	0x3e4bcec2	0.1990309
121	0x3e2b603e	0.16735932
122	0xbd273c6b	-0.040829103
123	0x3e4642f6	0.19361481
124	0x3e790bca	0.24320903
125	0xbcbd672f	-0.02312049
126	0xbd39e9a8	-0.045388848
127	0xbd83c99e	-0.0643494
128	0x3e43d9dd	0.19126077
129	0xbc892296	-0.016740125
130	0xbcd1ea6b	-0.025624475
131	0x3e34260a	0.17592636
132	0xbd0d128e	-0.034441523
133	0xbd000553	-0.031255078
134	0x3e43cf65	0.19122083
135	0x3b656b80	0.0035006702
136	0x3e8b7a67	0.27241823
137	0xbcb916d9	-0.022593902
138	0xbc81c6a3	-0.015841788
139	0x3e6edd25	0.23326547
140	0x3bd8d0c7	0.006616685
141	0xbd22ca7b	-0.03974388
142	0x3e09532b	0.13410632
143	0xbc8a47a3	-0.016879862
144	0x3e9d5a33	0.3073288
145	0x3e8870b0	0.26648474
146	0x3c008dc3	0.007846299
147	0x3e941c6a	0.28927928
148	0x3e1efd76	0.15526375
149	0xb83ebbd2	-4.547445e-05
150	0x3e752382	0.23939326
151	0x3e282eb2	0.16424063
152	0xbd00c8ec	-0.031441614
153	0xbe81788e	-0.25287288
154	0xbc9fc75b	-0.01950424
155	0x3e7eb354	0.24873096
156	0xbe4f0bac	-0.20219296
157	0xbd49436d	-0.049136568
158	0x3e6cd506	0.23128137
159	0xbe31fe4a	-0.1738216
160	0xbd02fc52	-0.031978913
161	0x3e2435f3	0.16036205
162	0x3d512285	0.05105831
163	0x3daf415e	0.0855739
164	0x3d28e35b	0.041232448
165	0x3ba73a36	0.005103375
166	0x3c1493fb	0.009068484
167	0xbc831f4d	-0.016006136
168	0xbb9e0d97	-0.0048233974
169	0x3d40869a	0.047003366
170	0x3d45466d	0.048162866
171	0x3d6748f7	0.05646607
172	0x3d3c8840	0.046028376
173	0x3cfbc06b	0.0307314
174	0x3d40e519	0.047093485
175	0x3cea71ba	0.028618682
176	0xbb9237da	-0.0044622244
177	0x3d1a39a4	0.037652627
178	0x3d52a36a	0.051425375
179	0x3d83042b	0.06397279
180	0x3d7f276b	0.06229345
181	0x3d86cae1	0.06581665
182	0x3d6f0e4b	0.05836324
183	0x3d8d9abf	0.06914281
184	0x3d765da6	0.060147904
185	0x3cacd731	0.021098705
186	0x3cfa82c1	0.030579926
187	0x3c04b390	0.008099452
188	0xbba700b4	-0.0050965194
189	0x3be09eb9	0.0068548587
190	0x3d1dfa9b	0.038569074
191	0x3d0ad50a	0.033894576
192	0x3ca0c15e	0.019623455
193	0x3c6d8128	0.014496125
194	0x3c39be43	0.011336866
195	0xbc836470	-0.016039103
196	0xbcadad0e	-0.021200683
197	0x3cd3d103	0.0258565
198	0x3cd1f998	0.02563171
199	0x3d958259	0.073002525
200	0xbb72ab4a	-0.0037028366
201	0x3b558886	0.0032582595
202	0x3d1b5b33	0.03792877
203	0x3c4ecf23	0.012622627
204	0xbc57b0a5	-0.013164674
205	0x3c9a4e9c	0.018836312
206	0x3cae835c	0.021302871
207	0x3d361b59	0.044459675
208	0x3d46de2a	0.048551716
209	0x3c6ae507	0.014336831
210	0x3ba1825a	0.004928869
211	0x3d78ced7	0.060744133
212	0x3cbbb3aa	0.022912819
213	0x3cbb1a26	0.022839617
214	0x3d816c91	0.063195355
215	0x3d2a1c31	0.04153079
216	0x3c5a8a3d	0.013338623
217	0x3d44d3ff	0.048053738
218	0x3d931c0b	0.07183083
219	0x3d0b3e87	0.033995178
220	0x3d2c07ba	0.041999556
221	0x3d8ca3dd	0.06867192
222	0x3c7d425e	0.015457718
223	0xbbc945a3	-0.0061423345
224	0x3db3fb99	0.08788223
225	0x3d78b93e	0.060723536
226	0x3d88045a	0.06641455
227	0xbb9a62ed	-0.0047115
228	0x3d344cc3	0.04401852
229	0x3d2e886a	0.042610563
230	0xb80be9d7	-3.3357963e-05
231	0x3d6b5e98	0.05746326
232	0x3cbf518c	0.023354314
233	0x3d6159c8	0.055017263
234	0x3dbbc368	0.0916813
235	0x3d32b9c7	0.043634202
236	0x3d3f9df4	0.046781495
237	0x3d87a0bd	0.06622455
238	0x3d5e54b3	0.054279994
239	0x3d35135e	0.044207923
240	0x3d7fced6	0.062453113
241	0x3d846f2e	0.06466518
242	0x3da0910f	0.07840168
243	0xbd0c1780	-0.0342021
244	0x3cbcaf81	0.023032906
245	0xbcb47538	-0.02202855
246	0xbbd24d7c	-0.0064179283
247	0xbd1d7cf8	-0.038449258
248	0xbd1f0a8b	-0.038828414
249	0xbdc13b25	-0.09435109
250	0x3d45ed6c	0.048322126
251	0xbc62dd27	-0.013846672
252	0xbc39f6f8	-0.011350386
253	0xbd157f9a	-0.036498643
254	0x3ca20388	0.019777074
255	0x3d3058a8	0.0430533

convt3.bias f4 [32]
0	0x3d33c508	0.043889076
1	0xbe0e6ef6	-0.13909516
2	0x3e2c650e	0.16835424
3	0x3da6723c	0.08127257
4	0x3df73a8e	0.12071715
5	0x3b6be5ec	0.0035995198
6	0x3cbccbff	0.023046492
7	0x3e2886f2	0.16457728
8	0xbdd3b163	-0.10336568
9	0x3a3c9d3c	0.00071950606
10	0x3c77c88b	0.015123497
11	0x3e0ee853	0.13955812
12	0x3d616289	0.05502561
13	0x3e3d99b6	0.18515667
14	0xbdca0cdb	-0.09865733
15	0x3dff6849	0.12471063
16	0x3d0dc75e	0.03461396
17	0xbdf68399	-0.12036819
18	0x3c998947	0.018742217
19	0x3def9c2e	0.11699711
20	0xb9730966	-0.00023177787
21	0x3dab33f7	0.08359521
22	0x3e15e730	0.14638972
23	0x3e03534b	0.12824742
24	0x3d9e02d4	0.07715383
25	0x3dd73be1	0.10509468
26	0xbe147c31	-0.145005
27	0x3cdd5349	0.027017253
28	0x3cfc7ed0	0.030822188
29	0x3d96b442	0.073586
30	0x3dabaf3f	0.08383035
31	0x3d335903	0.04378606

pos_output.weight f4 [1, 32, 2, 2]
0	0x3e583ae1	0.2111621
1	0xbde6b72f	-0.11265408
2	0xbe103e22	-0.14086202
3	0xbde781fa	-0.11304088
4	0x3d4452a7	0.047930386
5	0x3d91b376	0.071143076
6	0xbc7b2fd0	-0.015331224
7	0xbc5f7ef9	-0.0136411125
8	0x3e35f86b	0.17770545
9	0xbd36e540	-0.044652224
10	0x3d413b4d	0.047175694
11	0xbceae06c	-0.028671466
12	0xbdbbf0cd	-0.091767885
13	0x3cb9c570	0.022677153
14	0x3c7df34d	0.015499902
15	0xbd6bfa7e	-0.057611935
16	0x3ed7f5fd	0.42179862
17	0x3ea2f59b	0.31828007
18	0x3e767c33	0.24070816
19	0x3e96fb88	0.29488778
20	0x3dcc7f32	0.09985198
21	0x3c2909da	0.01031729
22	0x3dceb451	0.100929864
23	0x3deca864	0.115555555
24	0x3edb1219	0.42787245
25	0x3e6df416	0.23237643
26	0x3e952a63	0.291339
27	0x3e0ba2c2	0.13636306
28	0x3e18e871	0.1493242
29	0xbc680a02	-0.014162542
30	0xbc58ae6b	-0.013225178
31	0xbd4fdbb1	-0.050746623
32	0x3e9d25c7	0.30692884
33	0x3e248558	0.16066492
34	0x3e8ce5ac	0.27518976
35	0x3eb035d2	0.34416062
36	0x3db7e271	0.08978737
37	0xbdfd8249	-0.123783655
38	0xbd779faa	-0.060455002
39	0xbdda5586	-0.106608436
40	0x3f09dd6f	0.53853506
41	0x3f037887	0.51355785
42	0x3f2d1f56	0.6762594
43	0x3f233aff	0.63761896
44	0x3eac91c9	0.33704975
45	0x3ef3c079	0.47607782
46	0x3ef202a1	0.4726763
47	0x3ed8a8d8	0.42316318
48	0x3e3f81e2	0.1870189
49	0xbdaee5d2	-0.085399285
50	0xbe302625	-0.17202051
51	0x3da6b8dd	0.081407286
52	0x3e219810	0.15780663
53	0xbe5cf606	-0.21578225
54	0x3e055c73	0.13023548
55	0x3dd41d43	0.10357144
56	0xbd23517b	-0.039872628
57	0x3da89633	0.08231773
58	0x3e2cb787	0.16866885
59	0x3d200295	0.039064962
60	0xbcf21c05	-0.029554376
61	0xbdb7be32	-0.08971824
62	0x3c8d141c	0.017221503
63	0xbde75a43	-0.11296513
64	0x3ea1e9ab	0.31623587
65	0x3e8f234d	0.2795662
66	0x3e8f2eb0	0.27965307
67	0x3e8a5fde	0.27026266
68	0xbe4ee5f1	-0.20204903
69	0xbe32144d	-0.17390557
70	0x3dbd4e0a	0.092434004
71	0x3d85b01c	0.06527731
72	0x3f07384d	0.52820283
73	0x3eeff293	0.46864757
74	0x3e898d41	0.2686558
75	0x3e9f45a9	0.31107834
76	0x3e2c768a	0.16842094
77	0xbe3734fb	-0.17891304
78	0xbd9dade3	-0.07699182
79	0x3d84988d	0.06474409
80	0xbdc09b18	-0.09404582
81	0x3c9842bb	0.018586507
82	0x3d34244d	0.04397993
83	0x3d65d8c0	0.056114912
84	0xbe8d3781	-0.2758141
85	0xbe518e38	-0.20464408
86	0xbe9fd741	-0.31218913
87	0xbe95d54e	-0.292643
88	0xbe81dd9f	-0.25364396
89	0xbdbcf3b3	-0.092261694
90	0xbe38cffe	-0.18048093
91	0xbe530a4e	-0.206094
92	0x3e081035	0.13287432
93	0x3da0db1b	0.07854291
94	0x3c27c8bf	0.010240733
95	0x3e25bfe5	0.16186483
96	0xba37b62d	-0.00070080423
97	0x3cb8fdfb	0.022582045
98	0x3d35df66	0.044402502
99	0x3d579f03	0.05264188
100	0xbe16e070	-0.14734054
101	0x3d942436	0.07233469
102	0xbda29d3e	-0.07940148
103	0xbdeef9c5	-0.116687335
104	0x3d800dc2	0.06252624
105	0xbe073afe	-0.13206097
106	0x3dd04ed2	0.10171284
107	0xbd8abb94	-0.06774059
108	0x3cc9b192	0.024620805
109	0xbda13254	-0.078709275
110	0xbd6af442	-0.05736185
111	0xbd923b27	-0.07140189
112	0x3ed3ea29	0.41389588
113	0x3edb24b9	0.42801455
114	0x3ed16757	0.40899155
115	0x3edd54ce	0.43228763
116	0xbe20f640	-0.15718937
117	0xbdb10b81	-0.08644772
118	0x3dc9eb32	0.09859313
119	0x3db06632	0.08613242
120	0x3de702cc	0.1127983
121	0x3dabd38a	0.08389957
122	0x3e692537	0.22768103
123	0x3e3f8e34	0.1870659
124	0xbdf77fe4	-0.1208494
125	0x3dcc33ac	0.09970793
126	0x3c18a274	0.009316076
127	0x3d1726cc	0.036902234
