ggcnn_base/output/models/221204_2000_training_example/epoch_47_iou_0.75_statedict.pt (torch, 256417 bytes, 16 tensors)

conv1.weight f4 [32, 1, 9, 9]
000000 0e d4 75 bd 88 39 fc bd 2e 6e 8f bd 1f 34 0d be
       -0.060016684 -0.12315661 -0.07003437 -0.13789414
000010 49 23 1c be 81 6a b7 bd 14 9c f8 bd 54 27 25 be
       -0.15247835 -0.08955861 -0.121391445 -0.16128284
000020 9c 5d 19 be 7c a4 c7 bd f1 10 b3 bd 8f 30 b8 bd
       -0.14977115 -0.0974817 -0.08743466 -0.08993637
000030 6f f7 19 be 2d 48 db bd da 64 19 be 1a d4 0d be
       -0.15035795 -0.10707126 -0.14979878 -0.13850442
000040 41 db f7 bd 9a 7a 80 bd dc 7e 7c bd dc 16 cd bd
       -0.12102366 -0.062733844 -0.06164442 -0.10014126
000050 e8 62 8a bd c6 35 c8 bd 4d f3 04 be 4c 34 ff bd
       -0.06757146 -0.097758815 -0.12983437 -0.12461147
000060 a8 cc be bd 0b 60 ff bd a4 ba 09 be 16 05 83 bd
       -0.09316379 -0.124694906 -0.13450104 -0.063974544
000070 69 44 b2 bd f8 1e 6a bd 25 2b 87 bd 3c 24 bc bd
       -0.087044545 -0.05715844 -0.06600026 -0.09186599
000080 ce 0c e1 bc 44 28 4c bd d5 52 00 be ae 0a 6e bd
       -0.027471926 -0.049843088 -0.12531598 -0.058115654
000090 cd 7e 2c be 34 27 2f be c1 e2 40 be cc 57 38 be
       -0.16845246 -0.17104799 -0.188365 -0.18002242
0000a0 a9 3b 58 be 7d 99 2f be 37 63 1e be 5c 32 20 be
       -0.21116509 -0.17148395 -0.15467535 -0.1564421
0000b0 22 24 7f be a9 44 49 be 7a 73 35 be ae ae 78 be
       -0.24916127 -0.19655098 -0.17719832 -0.24285385
0000c0 ea e4 8f be 73 34 52 be 42 10 92 be 6b f3 97 be
       -0.28104335 -0.2052782 -0.2852803 -0.296779
0000d0 8c 43 8b be 89 c1 81 be 43 64 31 3e 5f e9 55 3e
       -0.27199972 -0.25342968 0.17323403 0.20889805
0000e0 af 57 6f 3e 60 ee 43 3e 87 c0 81 3e ab c4 57 3e
       0.23373292 0.19133902 0.253422 0.21071117
0000f0 2b ea 3d 3e ac 19 dc 3d 1e 09 ab 3d ae 09 ae 3e
       0.18546359 0.10747084 0.08351348 0.3399176
000100 06 3d 97 3e 14 19 ae 3e b4 cc a9 3e 70 b4 af 3e
       0.29538745 0.34003508 0.3316399 0.3431735
000110 b5 e7 ac 3e 8b c1 69 3e cd 93 77 3e c6 6c 3d 3e
       0.33770528 0.22827737 0.24177475 0.18498525
000120 97 12 cd 3e 4f 45 ce 3e a9 4e e9 3e 7f db e3 3e
       0.40053245 0.40287253 0.45567825 0.445034
000130 73 90 cc 3e 10 0b ce 3e 1c 11 e8 3e 42 3d c3 3e
       0.39953956 0.40242815 0.45325553 0.38132674
000140 ae f7 af 3e 5e 08 34 bd 6f 85 00 bd a1 58 2c 3d
       0.34368652 -0.043953292 -0.031377252 0.04207671
000150 fc 57 23 3e ad f4 43 3e e8 6e 2a 3e b2 75 88 3e
       0.15951532 0.19136305 0.1664387 0.26652294
000160 10 eb c1 3e 97 13 19 3f 1d 2d 5a be 17 b1 21 be
       0.3787465 0.59795517 -0.21306272 -0.1579021
000170 b6 5e b5 bd 49 ac 16 bd f9 7d a5 3b ef 19 8f 3d
       -0.08855955 -0.036785398 0.0050504175 0.06987368
000180 ad 48 00 3e 1d 4a 6c 3e 62 62 c7 3e dc ed a1 be
       0.12527724 0.23075147 0.38942248 -0.31626785
000190 8f 29 6b be d7 17 13 be bc 3d 07 be 81 2a a1 bd
       -0.22965072 -0.14364563 -0.13207144 -0.07869435
0001a0 7c f8 58 bd b0 bd 22 bd b8 70 43 3d 9e 64 81 3e
       -0.05297135 -0.03973168 0.04771492 0.25272077
0001b0 8f 0e 0a be 2b 32 93 bd 39 2c 67 bc 4b 4b a7 3d
       -0.13482116 -0.07187303 -0.014109665 0.08168658
0001c0 0c bb 82 3d ad 70 8c 3d 72 4a ab 3d a4 e4 5a 3e
       0.063833326 0.06857429 0.08363809 0.21376282
0001d0 93 c1 b3 3e 7e 85 45 be 08 5c cd bd bb 64 a2 bd
       0.35108623 -0.19289204 -0.10027319 -0.07929369
0001e0 51 26 83 bc e7 0a 07 bd 4e 58 28 3c ef 49 d4 3d
       -0.016009482 -0.03296938 0.01027496 0.10365664
0001f0 12 22 15 3e b6 b2 71 3e 2a e1 84 be bf 89 3e be
       0.14563778 0.23603329 -0.25953037 -0.18607233
000200 3b 03 d9 bd 23 e0 6e bd af a0 4f bd 55 f1 a9 bb
       -0.10596319 -0.058319222 -0.05069035 -0.0051862397
000210 d3 80 ad 3d c3 2e 17 3e b5 2c 87 3e 92 8d 89 be
       0.08471837 0.14763932 0.26401296 -0.26865822
000220 81 77 74 be 23 7f 5c be 1f 47 06 be 3b cb b8 bd
       -0.23873712 -0.21532874 -0.13113068 -0.09023138
000230 78 d6 8c bc 77 34 1f bd 20 a5 b6 3d 01 86 81 3e
       -0.01719211 -0.038868394 0.08918214 0.2529755
000240 a6 cf a4 be 16 76 7f be 89 4e 71 be 9d 27 9e bd
       -0.32189673 -0.2494739 -0.23565115 -0.077223994
000250 33 af 08 be ed c5 52 bd db aa 2c bb 33 0a cd 3d
       -0.13348083 -0.051458288 -0.0026346955 0.10011711
000260 eb f9 82 3e 45 91 8b be e4 e4 86 be cc ac 33 be
       0.25581297 -0.2725927 -0.26346505 -0.17546386
000270 6a 48 94 bd 79 1a 2e bd 0f 80 4d bb 13 a8 c3 3d
       -0.072403744 -0.042505715 -0.0031356846 0.09553542
000280 ae 8f 2d 3e fe 6f c0 3e 26 8a c6 bb 11 88 9f bb
       0.1694934 0.37585443 -0.006058949 -0.0048685153
000290 16 af 75 bc cf c2 3e bc c1 07 8f 3b b9 ef 1e 3c
       -0.014995357 -0.011643126 0.004364938 0.009700709
0002a0 92 db 91 3c 0a 34 3e 3d 6b ce 23 3d 80 bc 06 bd
       0.017804895 0.046436347 0.039991777 -0.03289461
0002b0 a0 31 30 bd d7 0e 21 3b 8b f8 aa 3b ce 16 29 bd
       -0.043016076 0.0024575496 0.005217617 -0.041281514
0002c0 27 d4 f4 3c 44 ef e2 3c 5d a5 d7 bc 17 70 1a 3d
       0.029886318 0.027701981 -0.026323969 0.037704553
0002d0 57 e6 8e 3c ef af 91 3c d4 fa 02 bd 6a 13 ca 3c
       0.017443819 0.017784087 -0.03197749 0.02466746
0002e0 da 69 76 bc fd 54 27 bd 13 9a dc bb 25 e7 24 3d
       -0.015039885 -0.040852536 -0.0067322343 0.0402595
0002f0 54 b3 c9 bc 02 90 00 bd f0 62 13 3b 9e 98 95 bc
       -0.024621643 -0.031387337 0.0022489391 -0.01826125
000300 00 7b bd bc a3 6f 26 3d a9 42 31 3c cf 9c 1e 3c
       -0.02312994 0.04063381 0.010819116 0.009680941
000310 5c 5c 98 ba a5 c4 27 3d 3d e5 15 3d 71 d8 00 bd
       -0.0011624205 0.04095902 0.03659557 -0.031456415
000320 5c 26 eb bb 82 2d 27 3d ad fe 8f 3c 8b 29 10 bc
       -0.0071762037 0.040814884 0.017577494 -0.008798967
000330 6a 1d 02 bd db e0 8c bc 29 d0 c4 ba 58 6d 17 bd
       -0.031766333 -0.017197063 -0.001501565 -0.036969513
000340 9f 72 5e bc 52 94 97 bc 7a 91 07 3c f2 24 41 bd
       -0.0135771325 -0.018503342 0.00827443 -0.047154374
000350 39 4a 84 3b ac 52 23 bc 78 d4 87 bc f4 54 cb 3b
       0.0040371683 -0.009968441 -0.016580805 0.0062051956
000360 f8 44 a1 bc fe 06 4e 3c 43 27 1a 3b 9a 07 d6 3c
       -0.019686207 0.012574909 0.0023521937 0.026126672
000370 7a 2d d9 3c d1 a8 91 bc d4 0f 67 bc 10 f7 24 bd
       0.026510943 -0.017780693 -0.014102895 -0.04027468
000380 f4 c0 36 3b dd 2f 1e 3c e8 e2 6c bc 8f 9c 31 bd
       0.0027886005 0.009654966 -0.014458396 -0.043362197
000390 d6 a7 71 bb a2 03 76 bc 21 6a 90 3c 9e ef 7c 3a
       -0.003687372 -0.015015515 0.017628731 0.0009648743
0003a0 46 67 d3 bc 0f 94 28 bd a9 c3 e5 3b ab af 16 3d
       -0.02580608 -0.041156825 0.00701185 0.036788624
0003b0 89 6d 26 3d 00 d9 ba bb 05 e7 23 bd 0e 3d d6 3c
       0.040631805 -0.005702138 -0.04001524 0.02615216
0003c0 d8 10 4e bc f0 5f a8 bc 30 d8 05 bd 28 2a 31 bf
       -0.012577258 -0.020553559 -0.032676876 -0.6920495
0003d0 94 32 4c be 2f 10 3a 3e 6e 83 fa be a2 64 99 be
       -0.19941169 0.18170236 -0.48928398 -0.2995959
0003e0 72 1c 93 be 64 d6 7c be 4d 09 af be e7 f4 3a bf
       -0.2873264 -0.24691159 -0.34186783 -0.7302994
0003f0 09 ae 71 be c8 09 5d 3e e6 12 fe 3e 7b bd 48 bd
       -0.23601545 0.21585763 0.49623793 -0.049008828

conv1.bias f4 [32]
000000 31 78 12 be 5a e2 d3 3d fe df dd bd 3a 0e 64 bc
       -0.14303662 0.103459075 -0.10833739 -0.0139194075
000010 6a 1b ce 3d 2d a0 c3 3d 67 03 bd bd 3a 99 dc 3d
       0.100638226 0.095520355 -0.092291646 0.10771413
000020 c8 c3 a0 be 23 dc 8e bd 6c 50 97 3e 87 9a f8 bd
       -0.3139937 -0.069755815 0.29553545 -0.12138849
000030 66 67 8a be 63 d0 fa bd 3b 93 3e bc 14 fb 63 bc
       -0.27032012 -0.12246778 -0.011631782 -0.013914842
000040 87 a0 93 3c 86 1f ab bd 07 cf 86 be 37 aa 3e be
       0.018020881 -0.08355622 -0.26329824 -0.1861962
000050 09 82 25 be ab db 36 3e 8a f8 ef bc a9 72 cd bd
       -0.16162886 0.17857234 -0.029293317 -0.10031635
000060 ce 85 a1 be 40 15 d1 bd 6a ff d4 bd 18 67 a9 bc
       -0.31547397 -0.10209131 -0.10400279 -0.020679042
000070 d1 2f e6 bd a5 46 c7 bd f3 13 cc 3c e5 97 88 be
       -0.11239589 -0.09730271 0.024911856 -0.26678386

conv2.weight f4 [16, 32, 5, 5]
000000 4f ca d3 3c 26 50 a7 bd a0 49 1b be af 9d 15 be
       0.025853304 -0.08169584 -0.15164804 -0.14610933
000010 47 6f c7 bd ef e7 8b 3d 93 1d 03 bd 4b 2a cc bb
       -0.09738021 0.06831347 -0.032010626 -0.0062306277
000020 f3 ff 6c bb 0b a7 df 3b 36 49 12 bc 25 ef 7e bd
       -0.00361633 0.006825333 -0.008928588 -0.062239785
000030 e4 34 06 be d5 8a 07 bd 4b 9f 9d bd 46 ca 5d 3d
       -0.13106114 -0.033091385 -0.07696398 0.05414798
000040 4b 6b cf 3d 2f ef b5 3d 86 8c ea bd bb da fc bd
       0.101278864 0.08883511 -0.11452584 -0.12346407
000050 42 9d 3f be e8 81 8e bd 72 84 88 3d ff ba 03 3d
       -0.18712333 -0.069583714 0.06665887 0.032160755
000060 d5 69 5a bc a1 32 5e be 55 7a 38 bd 4e 20 00 3d
       -0.013330896 -0.21699001 -0.04503854 0.03128081
000070 83 5c 15 be ea 2d 62 bd 85 17 12 be c3 d1 bd bc
       -0.14586072 -0.05521957 -0.14266784 -0.023171311
000080 d5 ce 17 3d 9d 44 7a be c1 71 06 be 92 29 92 bb
       0.037062485 -0.24440236 -0.13129331 -0.004460522
000090 15 58 14 3e dd ba 8e 3d c0 f2 2e be f7 58 3b be
       0.14486726 0.06969235 -0.1708479 -0.18295656
0000a0 31 78 ee bb f2 1d 11 3e d0 81 8e 3d c3 08 a0 bd
       -0.0072775115 0.1417158 0.069583535 -0.07814171
0000b0 68 51 d5 bd ee b8 08 3d b6 af 44 3e 0d 16 34 3e
       -0.10415918 0.033379488 0.19207653 0.17586537
0000c0 cc 31 00 3d cf dd a1 3c ff 23 90 3c d9 cd 86 3d
       0.03129749 0.019759087 0.01759529 0.06582231
0000d0 4a 74 3a 3d 42 36 26 3c 66 2e b4 bc 79 99 0a bd
       0.04552106 0.010144772 -0.02199478 -0.03383777
0000e0 25 14 18 bd f6 35 17 3c 37 ed 82 3d fc 66 0b bd
       -0.037128586 0.009229174 0.063929014 -0.03403376
0000f0 d6 42 bd 3c 2a 86 a2 b9 39 b9 91 3c 5d 50 16 bd
       0.023103159 -0.00030999008 0.017788516 -0.036697734
000100 f9 bf 7f 3c 54 cd ee 3c f4 1f a0 3c ab b7 fd bc
       0.015609735 0.029150642 0.019546486 -0.030971369
000110 cc d0 bc 3c 2a e3 47 bc 52 fc c5 3c ed 88 2b bc
       0.02304878 -0.012200156 0.024168167 -0.010469657
000120 1b 02 df 39 f4 6e 3a 3d b0 e5 58 3d 6e 97 ad bd
       0.00042535443 0.04551597 0.052953422 -0.084761485
000130 62 82 b2 3c 5d e3 22 bc d1 b6 78 bd 2a 33 cb bc
       0.021790687 -0.009941903 -0.060721222 -0.02480467
000140 83 47 06 bd 6f fe e7 bc d4 a0 92 bd b0 ee bc 3c
       -0.032783043 -0.028319566 -0.07159582 0.023063034
000150 1d 94 c3 3d f1 97 68 bd 69 7c b3 bc df 4f 82 ba
       0.09549735 -0.056785528 -0.02190991 -0.0009942016
000160 4a c2 98 bc f8 19 c6 3c 64 d6 84 3d 01 82 71 3d
       -0.018647332 0.024182305 0.06486204 0.058961872
000170 ea c6 86 3c 46 90 0c 3c db f5 c6 3d 83 e6 0e 3c
       0.016452271 0.008579319 0.09714862 0.00872195
000180 f7 19 bf 3d ba e7 80 3d a9 06 e3 3d 69 ba d6 3d
       0.09331124 0.06294198 0.11085255 0.10484774
000190 ea 1f 81 3e 5f 44 88 3d ef 52 eb bb 7c ab 65 bd
       0.2521966 0.06653666 -0.0071815173 -0.056071743
0001a0 98 f3 27 bd 13 f6 1d 3e d2 9d 8d bc fb e5 2d be
       -0.041003793 0.15425901 -0.017287169 -0.16982262
0001b0 25 2e 3a be 02 8b 3d be e3 11 19 3e 08 49 2e bc
       -0.18181665 -0.18510059 0.1494823 -0.010637529
0001c0 17 92 9f bd 34 d8 d8 bd c8 51 f8 bd 20 dd 9e 3d
       -0.07791536 -0.105881125 -0.121249735 0.0775702
0001d0 38 f8 b5 3d 74 8f 7a bd a3 24 e2 bd 49 af fe bd
       0.088852346 -0.061171964 -0.11042144 -0.12435777
0001e0 f5 da 00 bd d5 c6 80 3d 96 35 f3 3c 9d ee 95 3d
       -0.031458814 0.06287924 0.029688638 0.073209025
0001f0 72 02 69 bd 32 0b 54 bd f1 22 fd bc c7 cc b2 3d
       -0.056887098 -0.05176849 -0.03090045 0.087304644
000200 2a 1e d5 bb f3 2d 89 bd 61 a3 7f 3b cf 19 3b bd
       -0.00650384 -0.06698217 0.0039007294 -0.04567891
000210 13 6d 1c 3e 1f 12 51 3e c6 54 72 3e 70 72 32 be
       0.15275984 0.20417069 0.23665151 -0.17426467
000220 47 78 23 bd ae d0 bb 3b 57 23 b1 3d 1e 78 3c 3e
       -0.039909627 0.0057316637 0.08649319 0.18405196
000230 b7 1c 1e be b0 42 1f be 50 c9 e2 bd 28 18 00 bd
       -0.15440641 -0.15552783 -0.110735536 -0.031273037
000240 27 ef 07 3e 86 b9 38 bd 26 e7 2d bd 0f bb 12 be
       0.13274823 -0.045098804 -0.04245677 -0.1432917
000250 e3 f9 ed 3c f6 a4 d3 3d f5 ad bb 3c 55 4a 82 3d
       0.02904982 0.10334198 0.022910098 0.06361834
000260 98 48 92 bd e8 5d b3 3d 68 fd ca 3c 91 2a b3 bd
       -0.071427524 0.087581456 0.024779037 -0.08748353
000270 78 8d 33 3d 41 d1 4b bd af 3c 39 3d b8 11 3c 3d
       0.043836087 -0.049760107 0.045223888 0.045915335
000280 e9 24 73 3d 52 26 25 bd 58 d2 99 b9 dc be 6d 3d
       0.059361372 -0.04031975 -0.00029339152 0.058043346
000290 c8 4c 02 3e 53 cc 33 3c fc 50 2b 3d 37 1d 16 3d
       0.12724602 0.010974008 0.04182528 0.036648955
0002a0 7a f5 98 3d 7d 21 5d 3d c8 c6 0b 3c 34 96 18 bb
       0.07468696 0.053987015 0.00853128 -0.0023282887
0002b0 d1 a4 b1 3d 2d f2 aa 3d 31 41 86 3d 54 65 a4 bd
       0.08674014 0.083469726 0.06555403 -0.08027139
0002c0 4e 9d 46 bd 05 1c f6 bb 01 ba 23 bd ba d0 42 bb
       -0.04848986 -0.0075106644 -0.03997231 -0.0029726462
0002d0 f5 bf b1 bd 89 84 57 bd 9b 48 bf 3c 4c 56 b1 bc
       -0.08679191 -0.05261663 0.02335005 -0.021647595
0002e0 3e eb 7a 3d 9c 65 d4 bd b7 86 5b bd ce f9 0d 3d
       0.0612595 -0.10370943 -0.05359527 0.03466206
0002f0 4d 21 b3 3c 71 e1 64 3d 4a c7 1e bc 71 c5 61 bd
       0.021866465 0.05587906 -0.009691069 -0.055119935
000300 5a 96 ab 3c 6e f2 0a bb cc b7 ab bb 92 a5 93 3d
       0.020945717 -0.0021201628 -0.005240416 0.072093144
000310 a0 52 b2 bb 02 20 54 bd 03 6c 1d 3d 27 66 27 3e
       -0.0054419786 -0.051788338 0.038433086 0.16347562
000320 42 06 4b be 68 4f 4f 3e db 66 f0 bd 08 13 57 be
       -0.19826606 0.20245135 -0.11738368 -0.21003354
000330 91 dd 9b 3e 1c b5 2d 3d 17 b7 74 3e ec 13 7a 3e
       0.3044248 0.042409047 0.23897968 0.24421662
000340 7e b9 ab 3d 22 09 37 3f e6 89 c3 bd 60 33 2b 3e
       0.08384989 0.7149831 -0.095477864 0.16718817
000350 ee 37 0d 3f 29 8b 54 3e 85 4c 30 3f 4a 75 14 be
       0.55163467 0.2075621 0.6886676 -0.14497867
000360 65 f3 84 3d 16 ac 1f 3f 63 be c1 3d 30 c3 e7 3e
       0.06491736 0.6237196 0.094601415 0.45266104
000370 6c de ba bc d4 0f 59 3d 15 12 2b 3f a1 c2 b5 3d
       -0.022811137 0.05299361 0.66824466 0.08875013
000380 4e a4 d7 3e fb 83 b9 be 89 38 36 be 5a 9f cd 3d
       0.42117542 -0.36233506 -0.17795004 0.100401595
000390 88 50 82 3c f1 36 c5 3e c7 4d 12 be 2d 9d 06 be
       0.01590754 0.3851848 -0.14287482 -0.13145895
0003a0 7c 25 62 3d e2 27 79 bd 1d e6 f4 3c 08 75 f9 bc
       0.05521153 -0.06082905 0.029894883 -0.030451313
0003b0 c2 f6 02 bd 33 0c 6f 3d 96 7b 28 be b1 9a b9 3d
       -0.031973608 0.058361243 -0.16453394 0.09062708
0003c0 4f c2 68 3e 53 9a 36 3e a1 7d 35 3c 1e c6 b1 be
       0.22730373 0.17832308 0.011077316 -0.34721464
0003d0 6e 11 66 bd 3e 77 5a 3e c0 6a 32 3e 27 28 0c 3e
       -0.056168966 0.2133455 0.17423534 0.13687192
0003e0 d2 85 c8 be 0f 5e 1b 3d 3a e5 be 3e aa 3f 80 3e
       -0.39164597 0.0379315 0.3728426 0.25048572
0003f0 5c 8c 0b 3e d2 8a 6b bc 5b c7 6b 3d 38 f3 58 3e
       0.13627762 -0.014376359 0.057563167 0.2118653

conv2.bias f4 [16]
000000 93 4a 11 3d 47 f7 ae 3e 51 1a 7b bd 15 6a 44 bd
       0.03547151 0.34173033 -0.061304394 -0.04795273
000010 40 d8 14 bd 6b f2 9d bb 1c 99 0e bc 7a 13 aa 3d
       -0.036339045 -0.0048201582 -0.008703496 0.08304496
000020 4d 7f 9d 3e b6 1a 96 bd 13 42 62 3e e9 3b 55 bd
       0.30761185 -0.073293135 0.22095518 -0.052059088
000030 ed 45 7b bd 68 bb 18 bc c9 17 eb 3d b2 e5 96 bb
       -0.061345983 -0.009322025 0.11479146 -0.0046050185

conv3.weight f4 [8, 16, 3, 3]
000000 59 82 9a bd 28 cf 10 3e 0e b7 b0 bd 2f cf eb 3d
       -0.07544393 0.14141524 -0.08628665 0.115141265
000010 38 38 42 3e 5c 78 ad 3d 87 04 96 bc e6 d1 f1 bd
       0.18966758 0.08470222 -0.018312706 -0.11807613
000020 3e 06 a4 3d b8 ef 02 bf 6e 83 66 bd fc 4a 99 bd
       0.08009003 -0.5114703 -0.056277685 -0.07485005
000030 ba e6 c4 be 5f 15 32 3e ab 2d f7 3c 57 ab 12 be
       -0.3845728 0.17390965 0.030173143 -0.14323173
000040 af 13 75 3e b9 9b d9 3e d8 12 07 3e 9a a2 a5 bd
       0.2393329 0.4250162 0.13190782 -0.080876544
000050 1b e7 4c 3d 0b 83 0f be 59 54 6c 3d e3 d7 38 bd
       0.050025087 -0.14014833 0.057697628 -0.04512776
000060 b8 c3 88 bd 72 f9 1b 3d 15 51 57 bd 5e ae fd 3d
       -0.066779554 0.038079686 -0.05256756 0.123867735
000070 51 d0 0c be 8e 6f 1d be fd 4e ab 3d c1 10 6d bd
       -0.13751341 -0.15374586 0.08364675 -0.057877306
000080 b5 61 c7 3d db de 17 be b0 50 38 bc 95 34 60 bc
       0.09735433 -0.14831106 -0.011249706 -0.0136844115
000090 91 68 23 3e d1 54 1b 3e 46 57 c0 3d 9f 0e b6 3c
       0.15957858 0.15169074 0.09391646 0.022223769
0000a0 35 80 2c 3e b9 69 23 bb ae b4 88 3d f1 26 ed bd
       0.16845782 -0.0024934842 0.06675087 -0.11579693
0000b0 97 fc d2 bd ba 3b 9d bd 6e 19 e2 bd 6e 75 a3 bd
       -0.10302084 -0.076774076 -0.110400066 -0.07981382
0000c0 d9 00 d5 3c bb 49 08 3e 32 a1 91 3b 60 41 1f 3e
       0.02600138 0.13309376 0.004444265 0.15552282
0000d0 22 ef 95 bd 9f ee b1 3d b2 61 3a be 63 75 89 3d
       -0.073210016 0.086880915 -0.1820133 0.06711843
0000e0 30 c6 e8 bd 07 6d a3 bc 99 31 2a 3d 94 0b da 3d
       -0.11365926 -0.01994945 0.041551206 0.106467396
0000f0 4d ad 9b bd 70 0e 7c bd de bd c0 3d 0a 14 1e be
       -0.07601414 -0.061537206 0.09411214 -0.15437332
000100 c0 80 e4 bd 28 40 91 be b6 10 3a 3e b2 84 78 3c
       -0.111573696 -0.2836926 0.18170437 0.015168356
000110 20 8d 43 3c 1d 29 c5 3e 3b 3f a1 3e bc a4 22 3e
       0.011935502 0.3850793 0.31493554 0.15883154
000120 44 df c0 be 30 30 c4 be 59 14 02 be cb 8e 28 3d
       -0.37670338 -0.38318014 -0.12703075 0.041151803
000130 24 81 45 3d 1b e5 1b 3e 9e 3e 23 3e 88 e7 70 3e
       0.04821886 0.15224116 0.15941855 0.23525822
000140 5e 15 81 3e 9f 40 dc bd aa e5 dc 3d e3 c9 96 bd
       0.25211614 -0.10754513 0.107859924 -0.073627256
000150 ee bc 2a 3c 49 8c b8 3d 0a 7b 30 3e b4 b0 02 bb
       0.010421021 0.09011132 0.17234436 -0.001994175
000160 95 5b 92 bd 3b 4b d7 bd a4 45 9a bd 5b 3d 48 3e
       -0.07146374 -0.10512396 -0.07532814 0.19554655
000170 d9 a5 84 3e 38 dd 88 bc 93 51 c8 bd f3 c4 69 3e
       0.25907782 -0.016707048 -0.09781184 0.22829036
000180 87 f6 b4 be f6 fd 77 3d 10 c3 85 bd 1f 60 45 3e
       -0.35344335 0.06054493 -0.06531346 0.19274949
000190 49 6e 8d bd 12 7e 3a 3e de a2 29 3e 7b 21 d3 3c
       -0.06905801 0.18212155 0.16566035 0.0257728
0001a0 ee 2d 44 bd 3a 25 06 be de eb 91 3d d3 39 bd bd
       -0.047895364 -0.13100138 0.07125066 -0.09239545
0001b0 5d 94 86 bd 99 c5 74 3d 98 4e 8e bd 26 09 04 bc
       -0.06571267 0.059758756 -0.06948584 -0.008058822
0001c0 fe f2 a0 bd 4c 0c d9 3d 83 34 f5 3d fb b6 5d 3d
       -0.07858847 0.105980486 0.119729064 0.054129582
0001d0 aa f7 8b 3c 12 72 37 3e 11 3f d0 3d a8 43 bb bd
       0.017085869 0.17914608 0.10168279 -0.09143764
0001e0 02 76 ea bc 28 2f 13 3e 9a f6 97 3d 1d a4 87 bc
       -0.028620724 0.14373457 0.074200824 -0.016557747
0001f0 d4 fb 73 bd b9 08 ad bc 7b a3 78 3e 09 92 b3 3d
       -0.059566334 -0.021122323 0.24281113 0.08768088
000200 53 1c 88 3e 52 77 cf 3d 42 2c 17 be 84 f3 be 3d
       0.2658411 0.101301804 -0.14762977 0.09323791
000210 4f ce 0b be a8 56 9c be bd 78 4c 3c bb 09 d6 bd
       -0.13652919 -0.30534863 0.012479958 -0.10451075
000220 ac 3c 82 bc 6b 79 21 be 21 3b 77 3e 5a 62 8a 3d
       -0.015898071 -0.15768974 0.2414365 0.0675704
000230 8f a6 96 be 69 8c 1e 3e 79 72 2a 3e 9b 2d 43 bc
       -0.2942395 0.1548325 0.1664523 -0.011912729
000240 e9 10 ae be 84 91 79 be 84 7d a8 3d fa a3 5c bd
       -0.33997276 -0.24371916 0.08227065 -0.053867318
000250 5d 28 70 be 19 70 f7 3c f4 8a ff 3e d8 ef 9e 3e
       -0.23452897 0.03020482 0.499107 0.3104236
000260 0a 49 48 3d 95 0f 96 be f0 7e cb bc d6 5c eb 3d
       0.04889778 -0.29308763 -0.024840802 0.114923164
000270 41 15 0b be cf 80 a8 be 23 84 f7 bd c7 56 8f 3e
       -0.13582326 -0.32910773 -0.1208575 0.27995893
000280 ff b2 c4 3d a1 b6 49 3d c8 28 fe bc 6d b7 b8 3d
       0.09604453 0.049246434 -0.031025305 0.09019361
000290 a1 8d 13 be cf 31 25 be a7 06 46 3c b2 46 ba ba
       -0.14409496 -0.16132282 0.012086547 -0.0014211743
0002a0 c4 85 8d 3d b6 19 4c bc bc 19 db bd b2 1c 8f bc
       0.069102794 -0.012457302 -0.10698268 -0.017469738
0002b0 fb df 35 3d 16 55 77 3c 0a 70 76 bd 48 1c 1c be
       0.044403058 0.01509597 -0.060165443 -0.15245163
0002c0 96 3a 23 bd 04 61 0b be d7 02 f0 bc 60 99 c7 3d
       -0.039850794 -0.13611227 -0.02929823 0.09746051
0002d0 bd f4 f8 3d 97 1c e3 3d d5 77 fd 3d 51 f7 e4 bd
       0.12156055 0.110894375 0.12376372 -0.11179984
0002e0 6c bb 1e be 72 05 be bd 8d c3 2c be c6 e7 d4 bd
       -0.15501183 -0.09278382 -0.16871472 -0.1039577
0002f0 d8 98 16 3d 3f ef 47 3e 86 b3 ea bd e0 8e d2 bd
       0.036766857 0.19524859 -0.11460023 -0.102811575
000300 d3 fd c1 3d 60 ed 2a 3e 20 6b c0 bb a3 a3 78 bd
       0.09472241 0.16692114 -0.0058721453 -0.06070293
000310 98 98 f3 3b c9 5a 16 3e 07 16 de bb 13 36 4d be
       0.007433962 0.1468307 -0.006777528 -0.20040159
000320 e4 3d a3 3d a2 4e d4 3d dc 26 1e bd 08 76 08 bd
       0.07970789 0.103665605 -0.038611278 -0.03331569
000330 0e 7d e6 bd 6b 41 3a 3e 94 45 f2 bd 4e 89 19 be
       -0.11254321 0.18189017 -0.11829677 -0.14993784
000340 34 b0 89 3d fe 5c 55 3d fd 38 96 be 4e b9 b0 3d
       0.06723061 0.052090637 -0.29340354 0.08629094
000350 0c 5c d1 3e 10 85 a0 be 5f 53 ac bd 27 9d e8 3e
       0.4089054 -0.3135152 -0.08414339 0.45432398
000360 63 ce 17 be 1f 82 03 3e 8d ee b7 3d a1 02 87 be
       -0.14824824 0.12842606 0.08981047 -0.26369193
000370 6c 71 fb 3d ae 94 55 3e 0c 52 77 be 4c 95 71 3c
       0.12277493 0.20857498 -0.24152392 0.014745068
000380 d4 ef 61 3e 8e da 30 bd fd 13 0c 3e b7 91 bd bd
       0.22064143 -0.04317718 0.136795 -0.092563085
000390 b5 e8 f5 ba 1c d3 1c 3d f5 36 02 bd c1 1b c5 3d
       -0.0018761369 0.038287267 -0.031790692 0.09624434
0003a0 11 c9 da 3d bf 91 b5 bd 13 5d b6 3c 4e 79 6a be
       0.106828816 -0.088656895 0.022261178 -0.22897837
0003b0 ee 1c d9 be c4 ee b7 3e 96 a0 e5 3c d6 22 a0 be
       -0.42404884 0.3592435 0.028030675 -0.31276578
0003c0 e9 92 4a 3e 19 2e 11 3e 04 ad 69 bd 54 d3 ea 3c
       0.19782604 0.14177741 -0.057049766 0.028665222
0003d0 cc 1d 26 bc 17 dd 83 bd 77 6a f4 3d 0d 48 dd 3d
       -0.01013894 -0.06438654 0.11934369 0.10804758
0003e0 05 92 7c bd 1c a3 cb 3d 9a 9f 2a 3a de 60 47 be
       -0.061662693 0.0994322 0.0006508768 -0.19470546
0003f0 e5 85 d3 3d 27 ee 04 be 98 49 87 3d 10 c2 d6 3d
       0.10328273 -0.12981473 0.06605834 0.10486233

conv3.bias f4 [8]
000000 95 28 2e 3e 47 51 b0 be fe 5c 3c bd 46 dc 35 3d
       0.17007668 -0.3443701 -0.04598712 0.044399522
000010 71 0b ea 3d 31 92 08 bd 9d 66 be 3e ad a9 f5 3e
       0.114279635 -0.033342544 0.37187663 0.47981015

convt1.weight f4 [8, 8, 3, 3]
000000 b0 f5 99 bd 0b 7a 1a be ef 23 25 3e 14 85 21 bd
       -0.07517564 -0.15085618 0.16126989 -0.039433554
000010 99 5e b3 be 4c e3 d7 3d 2b b6 37 3e e5 2b 2c bd
       -0.3503311 0.105414 0.17940585 -0.04203405
000020 ea c4 8e 3e 9a 5b b2 3d 42 b4 98 be f7 8b 7c be
       0.27884609 0.08708878 -0.29825026 -0.24662767
000030 74 55 0c bf fc 93 96 3e 58 63 9e 3e 29 5e a2 3e
       -0.5481789 0.29409778 0.30935168 0.31712463
000040 16 5c cc 3e 1a a5 ce be b0 ad 42 bf e5 f4 da bd
       0.39914006 -0.40360337 -0.76046276 -0.10691241
000050 52 cd 47 be c6 89 80 bd ff 0a a0 3e 41 37 07 3e
       -0.19511917 -0.06276278 0.3125839 0.13204671
000060 fd 83 10 3f 7b d7 5f 3e a1 7d a6 3e 06 fe 78 3d
       0.564514 0.21859543 0.32517722 0.06078913
000070 89 cd 55 3d 24 d3 92 bd e7 52 33 bf cc e4 14 3d
       0.052197967 -0.07169178 -0.70048374 0.03635101
000080 4d a3 39 3e f8 a6 08 3d a3 47 ff be 05 32 39 be
       0.181287 0.03336236 -0.49859342 -0.18085487
000090 5d d8 81 3d f5 c4 8b be f2 a8 16 3e d1 54 fa 3d
       0.06340096 -0.27298704 0.14712885 0.12223209
0000a0 90 b5 c0 be c4 d4 93 3e 98 de 05 3e 2b 86 9a 3d
       -0.3763852 0.28873265 0.13073194 0.07545122
0000b0 82 31 49 3e 8a 42 52 be f5 fc 2c 3e 89 86 41 3d
       0.19647792 -0.20533195 0.1689337 0.047247443
0000c0 4e b5 45 be db 74 a2 be cb 89 6c be 51 06 f4 bd
       -0.19307443 -0.3172978 -0.23099439 -0.11915267
0000d0 70 4c 94 be ad 7a c2 bd 64 88 ee 3d ea 52 d0 3d
       -0.28964567 -0.09496055 0.11647108 0.101720646
0000e0 05 c9 0b 3f 70 71 ef 3e 3f 46 0a 3e cc 2a 1d bf
       0.54603606 0.46766233 0.1350336 -0.6139343
0000f0 e0 68 51 be 0d db 22 be e0 9f 87 be fb e3 1b 3d
       -0.20450163 -0.15903874 -0.26489162 0.038059216
000100 03 7b f6 3e 32 fb 8f 3d 6e 86 91 3d 92 f9 2f 3e
       0.48140725 0.070303336 0.071057186 0.17185047
000110 55 d4 c3 bd 74 d9 e4 bc b5 f5 d0 be 62 dc 96 be
       -0.095619835 -0.027935721 -0.4081246 -0.29465014
000120 21 83 dd 3c a2 8e 46 3e ef 56 0e be 11 71 94 be
       0.027040066 0.19390348 -0.1390035 -0.28992513
000130 35 a1 69 bd e2 bd 8a 3e 98 23 13 be 3e 59 b7 be
       -0.057038505 0.27097994 -0.14369047 -0.35810274
000140 fa 75 e1 3d 13 c9 f8 3a 2b 43 e6 be c8 4f 93 3b
       0.1100883 0.0018980823 -0.4497312 0.0044955947
000150 75 c0 81 3e 0a e2 9e 3d 08 c1 0d 3e dd ec b2 3e
       0.25342146 0.07757957 0.13843167 0.34946337
000160 6b 5d c7 3d 13 10 db be 89 cf 6f 3e 58 6b 4e 3e
       0.09734615 -0.427857 0.23419012 0.20158136
000170 9d 7f 1b 3e 30 18 97 3d 59 d5 2d 3e 92 1f e2 bd
       0.151854 0.0737766 0.16975917 -0.11041178
000180 4d 82 07 3e d2 a0 8b be 09 c2 03 bf 97 b1 45 3e
       0.132333 -0.27271134 -0.5146795 0.19306026
000190 9a 24 1c 3e 2b 88 10 be e7 75 be be 0f 2d 2f bf
       0.15248337 -0.14114444 -0.37199327 -0.6842813
0001a0 b8 4b 25 3e 75 cb 15 be 68 0d 30 be b0 45 07 be
       0.16142166 -0.14628394 -0.17192614 -0.13210177
0001b0 65 6a 82 bb d7 21 da 3e 9f 13 58 3e 08 0d 50 3e
       -0.0039799684 0.42603943 0.21101235 0.20317471
0001c0 5c 33 a2 be 97 ef a8 3d 27 4d 98 3e fb b1 c7 3d
       -0.3167981 0.08248823 0.29746363 0.09750744
0001d0 24 82 9f 3e 4c cd d0 3e 26 30 3a bd 3d c3 bd be
       0.31153977 0.4078163 -0.045456074 -0.37063017
0001e0 84 d9 0c bf 8f 6e 18 3e 78 cc e0 bd a0 73 5b be
       -0.550194 0.14885925 -0.10976499 -0.21430826
0001f0 8e 13 a7 3d 41 28 1a 3e 55 a6 68 3e a0 4c 80 3e
       0.08158027 0.15054418 0.227197 0.2505846
000200 aa f5 18 3e 77 bc 19 be 00 2e 6f bf f5 0f 63 3e
       0.14937463 -0.150133 -0.93429565 0.22174056
000210 fd 3d 63 3d 28 09 eb 3b b8 d1 6a be c6 1f 91 3e
       0.05547904 0.0071727224 -0.22931564 0.28344554
000220 a1 93 f1 be 56 5e d5 be f5 b9 81 3d 53 4e 10 bf
       -0.47182944 -0.41673535 0.063342966 -0.56369513
000230 fe a1 40 3b c1 50 08 be fe 11 bd 3e a1 0c fd 3d
       0.002939343 -0.13312055 0.3692779 0.123559244
000240 53 53 f5 bd 0c a0 14 be 41 e4 ee bd 8b 07 d1 3d
       -0.119787835 -0.14514178 -0.1166463 0.10206517
000250 53 14 0d 3e 11 e6 1b be 58 d5 dc bd c7 d0 26 3e
       0.13777284 -0.15224482 -0.107828796 0.1629058
000260 04 98 e3 ba a7 ae c7 bb cb 36 fb 3d 5e aa 1f 3e
       -0.001736403 -0.006093818 0.1226631 0.15592334
000270 d1 84 22 3e df 10 38 be 9d c7 00 3e 95 f6 b6 bd
       0.15870978 -0.17975186 0.12576146 -0.089337505
000280 b9 c1 e1 bd b2 94 f0 bc 5c 28 66 bd 89 a0 ad bd
       -0.11023278 -0.029367778 -0.056190833 -0.08477885
000290 22 4e 25 3e 4e e1 58 bd 7d 5c 31 3e b1 49 a9 bd
       0.16143087 -0.052949242 0.17320438 -0.08266009
0002a0 20 8e 34 3e c7 b7 82 3d d2 79 dd bd 6a de f8 bd
       0.17632341 0.06382709 -0.10814251 -0.12151797
0002b0 dd e6 c1 3d 0e a1 51 be 17 50 cc bd 90 5c 43 be
       0.09467862 -0.20471594 -0.099762134 -0.19078279
0002c0 e7 a6 8b 3d 94 08 04 3e 86 a5 13 be fb 75 b5 bd
       0.068189435 0.12893897 -0.14418611 -0.088603936
0002d0 57 94 f6 3d a3 04 8b 3b bc cb c8 3d 22 b1 3e 3a
       0.12040012 0.004242496 0.09804484 0.00072743197
0002e0 68 bd eb bd 35 b4 53 bd 1d 52 fa 3d 8f dc b7 3d
       -0.11510736 -0.05168553 0.12222693 0.08977615
0002f0 f4 44 b4 bc 7c e9 b1 3d f1 b7 b1 3d 4b 7b 18 3e
       -0.022005536 0.08687112 0.08677662 0.14890783
000300 98 32 c8 bd 25 54 69 bd 94 e9 83 bc 0f b1 06 3e
       -0.09775275 -0.056965012 -0.01610259 0.1315348
000310 7b b6 11 be de 77 4c bb 79 a5 e2 bd 73 a8 df bd
       -0.14229767 -0.0031199376 -0.11066718 -0.10920801
000320 b4 1b 8f bd 4b 3e 29 3e 41 b0 59 3d a9 e7 50 bb
       -0.06987706 0.16527669 0.053146604 -0.0031876361
000330 f4 78 ee 3d e7 66 7d bd d8 fe 2e 3e 60 05 ab 3d
       0.11644164 -0.061865713 0.17089403 0.083506346
000340 70 50 63 3c 58 d5 bc bc a5 25 61 3d 31 35 4f 3e
       0.013874158 -0.023050949 0.05496754 0.20235135
000350 2f e0 34 be 1e 8e 08 be 09 df ea bd 0c f8 fc bd
       -0.17663644 -0.13335463 -0.11468322 -0.12351999
000360 62 94 99 3e af a5 36 bf 32 c1 9b bd ef 2b 9e be
       0.2999602 -0.71346563 -0.076052085 -0.30892894
000370 f9 23 cb be d3 87 19 3d 8d 44 75 3e 18 a7 b0 be
       -0.39675882 0.037483048 0.23951931 -0.34502482
000380 f6 8d 3f be ac f4 4b be 78 9e 0d 3d 63 67 68 3d
       -0.18706498 -0.19917554 0.034574956 0.056739222
000390 0b 66 64 bf b0 03 80 be 5d 5e 14 3f 0f 2e 25 be
       -0.89218205 -0.25002813 0.57956487 -0.16130851
0003a0 fd f1 be be ea 04 80 3e f4 b9 9a be ef 93 86 3e
       -0.37293997 0.2500375 -0.30219996 0.2628474
0003b0 27 36 53 be d6 b4 6d 3e 74 be cd be 3d 77 a3 be
       -0.20626126 0.23213515 -0.40184367 -0.3192691
0003c0 5b ea 84 3e 36 96 0d bd e6 71 85 3e 88 40 81 be
       0.2596005 -0.03456708 0.2606346 -0.25244546
0003d0 76 53 9c bd 60 9d 5c bc 63 76 01 bf 97 67 7f 3e
       -0.076331064 -0.0134652555 -0.5057127 0.2494186
0003e0 b9 3d 37 3e 25 bc 0f 3c 5e f9 0a be d8 4f 24 3e
       0.17894639 0.0087728845 -0.13571689 0.16046083
0003f0 6f 68 73 3d e8 cd a5 3e 33 51 ca 3d d0 f3 a3 be
       0.059425768 0.32383657 0.09878769 -0.32021952

convt1.bias f4 [8]
000000 52 df b2 3c b8 ac d0 3d f8 57 af bd 8e 26 fc ba
       0.021835003 0.101891935 -0.085617006 -0.0019237564
000010 7e 81 b2 bd 70 03 56 3d 9f 67 c3 bc c4 08 60 bd
       -0.08716105 0.052249372 -0.023853121 -0.05469586

convt2.weight f4 [8, 16, 5, 5]
000000 f9 f5 98 be da 09 c8 3c c0 6d b5 bf 1d 1f 37 bd
       -0.29875162 0.02441876 -1.4174118 -0.044707406
000010 9b fa bd bd d5 b2 57 3e bd 7a 82 be f4 af 89 bf
       -0.09276315 0.21064313 -0.25484267 -1.0756822
000020 89 01 bb be 40 6b d6 be 40 15 f2 3c cf 18 81 be
       -0.3652461 -0.418787 0.029551148 -0.2521424
000030 f5 7b db bd 75 6a 56 bf 58 01 79 bf 83 40 f5 be
       -0.10717002 -0.8375619 -0.97267675 -0.4790078
000040 09 da 8e be f2 a3 16 be 43 e2 13 be 47 b6 95 bf
       -0.27900723 -0.14710978 -0.14441781 -1.1696252
000050 7f b1 e8 bd 07 e9 5a bf 4d 33 a0 bf 02 f6 47 be
       -0.1136198 -0.8551182 -1.2515656 -0.19527438
000060 d5 74 e0 bd bc 34 96 be 7a 86 cf be 0d a3 db be
       -0.10959784 -0.29337108 -0.40532285 -0.42897835
000070 ee ec 36 bf e6 d8 1b bf 1f b7 a5 be 21 91 b1 be
       -0.71455276 -0.60877836 -0.32366273 -0.34681037
000080 58 22 32 be 1b c2 9e be 20 0a 25 be d1 e7 bd be
       -0.17395914 -0.31007466 -0.16117144 -0.37090924
000090 70 6e c5 bd 71 89 1d bf 22 4d 2a bf e2 bf 50 3e
       -0.09640205 -0.61537844 -0.66523945 0.20385697
0000a0 06 87 fe be cd f2 d5 be 6c bc 67 be 55 7b c5 be
       -0.4971239 -0.41786805 -0.22630471 -0.38570657
0000b0 41 5d 89 be ac f5 2e be 39 32 12 be 17 9d b8 3d
       -0.2682896 -0.17085904 -0.14276971 0.090143375
0000c0 b6 23 7a be 7a 2f d2 3c 61 a0 04 bd ff 4a 88 bf
       -0.24427685 0.025657404 -0.03237951 -1.0647887
0000d0 f6 92 a7 bf ac 7c d2 bd 96 ca 3f 3e 32 6f 48 be
       -1.3091724 -0.102776855 0.18729624 -0.19573668
0000e0 75 9e 09 bd ad c6 57 3c f0 6b c0 be 72 92 1e 3d
       -0.033598382 0.013169927 -0.3758235 0.03871388
0000f0 c2 1c 55 3e 58 0f c2 bd fd f2 4c 3e 72 80 ab 3d
       0.20811751 -0.09475583 0.20014568 0.083741084
000100 df c7 87 bd 0b 30 7d bf 83 0f ef be 35 3a b1 be
       -0.06629919 -0.9890143 -0.46691522 -0.3461472
000110 b1 31 d5 3d fc 88 5c bf a8 87 97 3d bb 32 f0 bd
       0.104098685 -0.8614652 0.07398921 -0.11728426
000120 f0 04 39 bf 18 bd 91 bd 76 cb 0d be 00 06 28 3e
       -0.7227316 -0.07116145 -0.13847145 0.16408539
000130 3d a8 54 bd 10 4f ba 3d c7 5d 38 bf 86 14 c7 3c
       -0.051918257 0.09097111 -0.7201809 0.024301779
000140 10 34 81 3e 9e 00 97 3c ca 77 21 3e 3e 04 0d bf
       0.25235033 0.018432911 0.15768352 -0.550846
000150 36 86 d6 3d 19 49 d3 3d 24 8a 8e be 6b 95 8c be
       0.104748175 0.10316677 -0.27839768 -0.27457747
000160 52 f7 18 bf 9c 96 0f be 0f ec c7 bd 40 fa 58 3e
       -0.5975238 -0.14022297 -0.097618215 0.21189213
000170 f6 e3 ed bd ed 28 b0 3d af f7 0c 3c 36 de 3e 3e
       -0.11615746 0.08601556 0.008603974 0.18639454
000180 b3 84 74 3e a1 11 12 be 00 6e 99 3e 5e 02 2f be
       0.23878746 -0.14264537 0.29966736 -0.17090747
000190 7b fe 4b 3d ee 82 37 3e 11 87 3a bf aa 2b 45 be
       0.04980324 0.1792104 -0.72862345 -0.19254938
0001a0 7a b1 4c 3d ef 2c a5 bf eb e5 56 bf d9 11 2b be
       0.049973942 -1.2904338 -0.83944577 -0.16706027
0001b0 47 61 e4 be a8 d5 35 bf 5e fe 79 bf 26 1a 1d be
       -0.44605467 -0.7102914 -0.9765376 -0.15342006
0001c0 8c 20 d5 bd 7e 5f 92 bf 86 58 0f bf 87 a6 94 be
       -0.104065984 -1.1435392 -0.5599445 -0.290333
0001d0 12 99 35 be e1 06 2a bf 4e 65 a4 bd ca 92 e5 bd
       -0.17734173 -0.66416746 -0.08027135 -0.112096384
0001e0 31 8f d4 be 93 a3 75 be aa 99 4b bf 4e da b8 be
       -0.41515496 -0.2398818 -0.7953135 -0.36104053
0001f0 b9 43 ba bc 8a f6 35 bf f2 e7 72 be 44 81 9b 3d
       -0.02273737 -0.71079314 -0.23721293 0.07593015
000200 e7 0b 87 3d 93 f5 c1 be 80 34 6f 3e 52 51 83 bd
       0.06594067 -0.3788267 0.23359871 -0.06411995
000210 55 2e 0c bf a7 47 42 be 4a 23 a3 be cc 2d b6 bd
       -0.547582 -0.18972646 -0.3186286 -0.08895454
000220 ce 17 8a bd b6 ae b8 3d bc fe d6 3d 7a 05 3e 3d
       -0.06742822 0.090176985 0.104978055 0.04639194
000230 e1 a5 0a bf 88 71 f1 be 65 bb 8f be 31 b2 44 3e
       -0.5415936 -0.4715693 -0.28072658 0.192086
000240 e5 09 af be 5c 2b 14 3e 33 5d 54 bc f5 fc 27 be
       -0.34187236 0.14469665 -0.012961674 -0.16405089
000250 0d e8 b3 be 4e ff c8 bf 78 86 d2 bd d2 7f 42 be
       -0.35137978 -1.5702913 -0.10279554 -0.18994072
000260 20 17 2d be 04 90 7c be 9b 1b cf bd 88 34 a9 bd
       -0.16903353 -0.24664313 -0.10112687 -0.08261973
000270 c3 94 19 bf 72 3c 74 be 0e cb 1a bf fc f9 f1 bd
       -0.5999262 -0.23851183 -0.60466087 -0.11815259
000280 42 ae 90 be 0e 56 1d be 36 e1 81 be 22 83 fb be
       -0.28257948 -0.15364859 -0.25367135 -0.49123484
000290 e6 3c a5 3d 4f 08 fc be e6 1d fe be c1 dc ae 3c
       0.08068256 -0.4922509 -0.49632186 0.021345498
0002a0 07 15 0e 3e ee 90 9e bf dc 81 bb bd dc 92 f8 be
       0.13875209 -1.2387979 -0.09155628 -0.48549545
0002b0 0d bc 6f bd 10 c8 02 3e 4b 41 a9 be a4 2e 54 3e
       -0.05852895 0.1277163 -0.33057627 0.20720917
0002c0 02 b8 6f bf 95 72 03 3e 48 7f 3d 3e 14 48 71 3e
       -0.9364015 0.12836678 0.18505585 0.23562652
0002d0 d3 95 c7 bd 65 ce 4b be 6d a3 ad be a9 22 97 bd
       -0.097453736 -0.19902952 -0.33913746 -0.07379658
0002e0 93 e3 8f be 6a 4e ff 3d 57 48 0d 3e 7d c2 ea bd
       -0.28103313 0.12466128 0.13797127 -0.11462877
0002f0 87 9c b0 bd 69 f2 f7 3d e2 c9 28 3c b4 c3 83 bd
       -0.08623605 0.12106783 0.010302039 -0.06433812
000300 8e 7b f1 be db ab 02 be 67 54 47 be ee d3 91 3d
       -0.47164577 -0.1276087 -0.1946579 0.071205005
000310 62 58 11 3e 8d 9d b0 3d c8 26 04 be 52 09 19 3d
       0.14193872 0.086238004 -0.12905419 0.037362404
000320 1f 1e 9c bf bf 03 40 3d bf 13 88 be 1f 37 c9 3d
       -1.2196692 0.046878573 -0.26577565 0.09824967
000330 18 f3 95 bf aa ae 97 be ca 5b 92 be 46 67 49 be
       -1.1714811 -0.29625446 -0.28585654 -0.19668302
000340 45 e9 c6 bd 14 92 08 3d 76 dd 2f 3e 87 09 5f be
       -0.097124614 0.033342436 0.17174324 -0.21780978
000350 a9 67 21 bf 1a c3 5b 3e 2d 16 5d be ca 91 fb bd
       -0.630488 0.21461144 -0.2159049 -0.122836664
000360 66 8f 43 bd 0e 3a ed bd e3 39 8c be 3d 8d 27 be
       -0.047744177 -0.11583339 -0.27387914 -0.16362472
000370 51 74 a1 bf 96 5c ef 3d 2f 3e e7 3d cb 17 2b 3e
       -1.2613622 0.11687581 0.112911575 0.16708295
000380 14 77 86 bf 61 46 7e 3d 92 6d eb bc 9b bf 87 3e
       -1.050509 0.062078837 -0.02873877 0.2651337
000390 ac 00 66 bd a6 97 6b bb d3 cf 91 be 56 6d 93 bf
       -0.056152984 -0.0035948544 -0.2847887 -1.1517742
0003a0 dc 06 a5 3d 2e 92 78 be 16 96 18 3e 19 08 25 be
       0.08057949 -0.24274513 0.14901003 -0.1611637
0003b0 fb 3e 05 bf ad 6c 5b 3d ec c7 9e bd 62 9e fc 3d
       -0.52049226 0.05357044 -0.07752976 0.123348966
0003c0 c8 6c 10 be 7e 64 9b 3d d0 2e 80 bb ce 7d 99 bc
       -0.14103997 0.07587527 -0.0039118305 -0.018736746
0003d0 81 17 8a 3c 58 92 2f 3e 4b e6 3e 3e 46 9c bf bd
       0.01685691 0.1714567 0.18642537 -0.09355979
0003e0 e0 6a 0b bf 72 18 bb be e1 e1 9a bd 5e a6 90 bd
       -0.54459953 -0.36542088 -0.07562614 -0.07062982
0003f0 8e 2b 5c 3e 65 4f 3a bf 21 e2 b7 3d 57 aa 06 be
       0.2150099 -0.72777396 0.089786775 -0.13150917

convt2.bias f4 [16]
000000 1d 33 f9 3d c7 65 43 3e 31 53 0a 3d 52 55 15 3c
       0.12167952 0.19081794 0.033770744 0.00911458
000010 4b 40 c0 3d 5c eb 39 bc 4a 54 e7 3d 2e 94 74 be
       0.09387263 -0.011347618 0.11295374 -0.23884651
000020 9d 9d 33 3e 27 d8 2b 3d 75 e2 dd bb 89 b6 3e 3e
       0.17540593 0.041954186 -0.0067713805 0.18624319
000030 f9 94 49 bc 37 8a f7 3d 3d e1 8a 3a 7e 42 c4 bc
       -0.012303584 0.12086909 0.0010595691 -0.023957487

convt3.weight f4 [16, 32, 9, 9]
000000 20 d3 da 3b 9d 57 a5 3d 77 95 70 bd 86 45 12 3d
       0.006678 0.080733515 -0.05873629 0.035710834
000010 80 82 89 be 19 65 e5 bc 78 01 92 3d d9 a8 d6 3c
       -0.26857376 -0.028002309 0.071291864 0.02620356
000020 a2 ef 16 bd 47 8d 1c bd 73 3f 89 bd 37 26 c0 bc
       -0.036849625 -0.03822067 -0.06701555 -0.023455722
000030 e7 f0 b5 bd 79 3b 0d be e6 ea db 3d 45 41 75 bd
       -0.08883839 -0.13792218 0.10738163 -0.0598767
000040 b3 42 ce be 80 da bf 3d df ab aa bc 67 cf b9 bd
       -0.40285262 0.093678474 -0.020833908 -0.09072762
000050 4f 1e 0c 3e 8d 98 3d bd 22 af 49 bd 44 c1 43 3d
       0.13683437 -0.046288062 -0.049239285 0.047791734
000060 b0 55 b0 3d 86 2d e2 3d 70 8a 3c 3d 72 e4 b6 3d
       0.086100936 0.11043839 0.04603046 0.08930291
000070 03 9f 76 bc 70 e4 7a 3d 91 ec 21 3e 20 03 cb 3d
       -0.01505256 0.06125301 0.15812899 0.099127054
000080 90 65 85 3d 8d 0a af 3d 64 24 85 be 2f a9 27 3e
       0.06513512 0.08546934 -0.26004326 0.16373132
000090 83 11 48 3d a4 ef b8 3d 4f 35 e3 3b ca df 01 3d
       0.048844825 0.09030083 0.006933845 0.031707563
0000a0 65 f7 1b 3d f9 22 bc 3d 79 cc 55 3d f4 30 15 3e
       0.03807773 0.09186358 0.052196953 0.14569455
0000b0 87 1b 48 3a f1 3a 68 3b 3f ff 60 bd aa b6 74 3d
       0.00076334964 0.0035435522 -0.05493092 0.059744515
0000c0 a4 99 a7 bd 21 9a e8 bc 14 3b 26 3e 0d 5a 35 3d
       -0.081836015 -0.028393807 0.16233474 0.044275332
0000d0 20 d9 54 bd 98 b0 6d 3e 9b 64 49 bd eb ba 32 be
       -0.05196488 0.23211896 -0.04916821 -0.17454116
0000e0 77 9b 5a bd 4e 06 04 3d 58 b3 73 3b ed 0c 1a 3d
       -0.05337092 0.032232575 0.0037185755 0.037609983
0000f0 28 97 d1 3c 07 0d 85 3d f3 ad d1 3d 03 ea 2d bc
       0.025584772 0.064966254 0.10238256 -0.010614875
000100 ba 89 ab 3d 71 7a ac bd 98 dd 3d 3d ef 9c c9 3c
       0.08375879 -0.08421791 0.046353906 0.024610965
000110 a5 50 f8 bd cd 50 29 bd fe a2 46 3d 8f 9d 39 3c
       -0.12124757 -0.041336823 0.048495285 0.011329069
000120 48 c7 a8 3d 1a 42 46 3d 84 32 0e 3d db c0 41 3d
       0.08241135 0.048402883 0.034716144 0.047303062
000130 7d c7 2c 3d 45 a2 91 3d 10 04 55 3e a9 9d cd 3c
       0.042182434 0.071110286 0.20802331 0.025099592
000140 dd 16 81 3d fa 9e 27 3a ce 61 91 3e 27 17 22 bd
       0.06303189 0.0006394234 0.28394932 -0.03957286
000150 b1 ad a4 bb cf 90 97 3e b9 97 3b bd 33 d2 33 3c
       -0.0050255884 0.29602668 -0.04579899 0.010975408
000160 e2 9b 5f 3e 71 5d fb bc be e6 a5 3e f1 51 91 3e
       0.21836808 -0.030684205 0.32402605 0.2838283
000170 69 b7 df 3b 67 2b b0 3d c0 85 87 3e f7 f3 18 bd
       0.006827284 0.08602028 0.2646923 -0.037342038
000180 e0 ba 23 3e 96 31 f4 3d 93 82 0e 3b 54 f5 d1 bd
       0.15989256 0.1192352 0.0021745309 -0.10251871
000190 8d ee 46 bd b2 ff 89 3e 23 a7 5d be f4 86 85 bd
       -0.048567344 0.26952893 -0.21645789 -0.06519881
0001a0 83 98 21 3e 73 7a 3c 3b ee 53 83 bd 45 e4 91 3e
       0.15780835 0.002875951 -0.06412493 0.28494468
0001b0 2b 3e 94 bc 7c d6 d5 3e f8 c9 22 bc 0b 9a 58 3a
       -0.01809605 0.417652 -0.009935848 0.00082627
0001c0 ae 59 45 3e 9d 64 1a 3c bc 92 13 bc 7d c2 a3 3e
       0.19272491 0.009423402 -0.009007152 0.3198432
0001d0 11 76 6d bc a7 11 d3 3e c2 73 8f 3e 75 de 3c bd
       -0.014493481 0.41224405 0.28018004 -0.04611059
0001e0 24 c7 82 3e a4 76 84 3e 6b 3c 27 bd 3c cb 64 3e
       0.25542557 0.25871766 -0.040829103 0.22343153
0001f0 15 8e cb 3d 2f 9d be bc 75 3b 9f bd 9e c9 83 bd
       0.09939209 -0.02326831 -0.077750124 -0.0643494
000200 4e 89 bc 3e 4a 68 97 3d 6b ea d1 bc 00 98 69 3e
       0.36823505 0.073929384 -0.025624475 0.2281189
000210 d3 8f 1b be 53 05 00 bd 05 82 6d 3e 80 6b 65 3b
       -0.15191583 -0.031255078 0.2319413 0.0035006702
000220 3e 19 b3 3e d9 16 b9 bc a3 c6 81 bc 74 dc 90 3e
       0.34980196 -0.022593902 -0.015841788 0.28293192
000230 c7 d0 d8 3b 7b ca 22 bd dc c3 78 3e a3 47 8a bc
       0.006616685 -0.03974388 0.24293464 -0.016879862
000240 c9 71 01 3f d3 4e 7c 3e c3 8d 00 3c 36 6f 58 3e
       0.5056425 0.24639444 0.007846299 0.21136174
000250 57 cd 6d 3e d2 bb 3e b8 d9 58 89 3e bb 5b 3f 3e
       0.23222862 -4.547445e-05 0.26825598 0.18687336
000260 ec c8 00 bd 81 9f 9a be 5b c7 9f bc 15 42 f4 3e
       -0.031441614 -0.30199817 -0.01950424 0.47706667
000270 5a 41 83 be 6d 43 49 bd d3 05 92 3e dc a5 80 be
       -0.25635797 -0.049136568 0.2852007 -0.2512654
000280 52 fc 02 bd 00 51 a4 3e 77 1d 20 3d 14 d6 b0 3c
       -0.031978913 0.32093048 0.0390906 0.021586455
000290 7e 12 ef 3b e5 68 5a bd fa 9f 69 bc aa 58 07 bd
       0.0072959056 -0.05332269 -0.014259333 -0.03304354
0002a0 31 88 1c bd d2 39 65 bc 5f ed 3d bd aa 6b 8f 3d
       -0.03821582 -0.013990836 -0.046368953 0.07002957
0002b0 34 8d 70 3d cb e3 f7 3c 79 ee d3 bb 40 5c 47 bc
       0.05872841 0.030259987 -0.006467637 -0.01216799
0002c0 83 66 7d 3c a9 14 05 3d 15 cd 41 3d 11 6a a3 3c
       0.015466335 0.032490406 0.047314722 0.019948037
0002d0 14 16 4b 3d b6 e2 8b bb 6a 2b 0a 3d ef 19 eb 3c
       0.049581602 -0.0042689694 0.03373281 0.02869889
0002e0 b8 2d 6a bc 41 12 49 bb 55 66 10 bb 18 73 02 bc
       -0.014293127 -0.0030681046 -0.002203365 -0.007962011
0002f0 ef 04 9f bc 55 64 2d 3d 04 35 39 3c 11 d1 48 3d
       -0.019411532 0.042332012 0.011304144 0.049027506
000300 8b a7 99 3c 8f 21 78 bc d5 23 22 3d d3 d5 ad bc
       0.018756649 -0.01514472 0.039584953 -0.021220123
000310 27 ef 1a bd 06 d8 3a 3b 89 5a b5 3d 41 c4 92 3d
       -0.03782573 0.0028510108 0.08855159 0.07166339
000320 b3 fd c3 3a 03 ef b6 bc 63 35 37 3d ba 62 70 3d
       0.0014952928 -0.022330767 0.044728648 0.058687903
000330 0b 22 ca bb c7 68 83 3c b9 1d 70 3c aa 09 bb 3c
       -0.006168609 0.016041173 0.014655524 0.022831757
000340 2d 95 c5 bc 02 80 fc bb c2 ab bd bb d7 23 67 bb
       -0.024118984 -0.0077056894 -0.0057882974 -0.0035269165
000350 c8 99 51 bd 65 65 25 bd 80 ec 9a bc c0 15 bd 3a
       -0.051172048 -0.0403799 -0.0189116 0.0014426038
000360 4a 60 74 3d a1 8a 29 bc 6a 9a 7b 3c 14 d3 59 3c
       0.05966214 -0.010347993 0.015356639 0.013294954
000370 27 2c d3 bb d1 d6 6b 3c 78 0e 56 3c 5a 61 56 bc
       -0.0064444724 0.014394478 0.013064973 -0.013084734
000380 7a 21 ed bc 3e a7 5e 3d 06 af b1 3c 8d 50 7e bb
       -0.028946627 0.054358713 0.021689903 -0.0038805336
000390 6a ab c5 ba 77 c7 a0 3c 53 6c 6e 3c 9c 63 87 bb
       -0.0015080993 0.019626362 0.014552194 -0.0041317474
0003a0 ed aa 0c 3d 61 a2 99 3c 0e 5e e5 3d 5c a3 d5 3b
       0.034342695 0.018754186 0.1119958 0.006519718
0003b0 49 b5 91 bc b0 9d 10 3d dc 0c c9 3c 18 23 ff bc
       -0.017786639 0.035306633 0.024542265 -0.031144664
0003c0 23 56 25 3d 1e 32 1c 3d c6 ac 37 3c d0 bb c8 bc
       0.04036535 0.038133733 0.011210626 -0.024503618
0003d0 99 84 a4 3d 0f ed a5 3d e9 49 19 3e 64 61 83 bd
       0.080331035 0.08101856 0.149696 -0.0641506
0003e0 0a 81 e6 3d 23 a6 77 3d 07 5d 1e 3e b2 43 01 3d
       0.11255081 0.060461175 0.15465175 0.0315587
0003f0 f1 7d 48 3e 5c 46 e4 3d 29 f4 b2 3d 86 ee 81 bc
       0.19579293 0.111462325 0.08737976 -0.015860807

convt3.bias f4 [32]
000000 fe bf 9a 3b 68 d5 71 be eb d3 51 3e 9e 87 eb 3d
       0.0047225943 -0.23616564 0.20490997 0.11500476
000010 bf 6c 3a 3e b2 cf 5a bb da 31 81 3d 25 16 43 3d
       0.18205546 -0.0033387956 0.063083366 0.04762854
000020 69 fd 1f be b6 79 21 3d 72 9a e2 3b 4c 37 40 3e
       -0.15624012 0.039422713 0.006915384 0.18771094
000030 66 fb dd 3d f6 59 8e 3e 04 7c 3e be 04 8d 2f 3e
       0.10838966 0.2780301 -0.18601996 0.17143637
000040 2d 12 0f 3d ae 11 c5 be 67 b5 00 3d e9 fd 89 3d
       0.034929443 -0.3849005 0.031423 0.06737883
000050 0c e0 d0 3b ee 07 e8 3d 86 44 42 3e 78 7f 09 3d
       0.0063743647 0.113296375 0.18971452 0.03356883
000060 d4 49 f0 3d 35 9b c8 3d c9 af 36 be 18 ed 98 bc
       0.117328316 0.097952284 -0.17840494 -0.018667743
000070 a0 f4 b3 3d ba 44 2a 3d 2e 7b 14 3e 6e 14 1d 3d
       0.08786893 0.04156945 0.14500114 0.03834956

pos_output.weight f4 [1, 32, 2, 2]
000000 d6 ae 58 3d 90 c0 31 3d 43 81 5a be bc 97 45 be
       0.05290111 0.043396533 -0.21338372 -0.19296163
000010 ef f0 50 bc dd 10 c5 3c 39 27 03 bc 06 72 21 3c
       -0.012752756 0.024055893 -0.008004957 0.009853845
000020 27 0b 18 3e 00 bc 16 bd 88 ea dd 3c c8 07 83 bc
       0.14848004 -0.036800385 0.027089372 -0.015994921
000030 14 87 12 be fb 19 27 be bf a4 63 be 86 59 5b be
       -0.1430934 -0.16318505 -0.22230814 -0.21420869
000040 f4 a5 86 3e 74 9e 46 3e 58 53 16 3e 37 5d 2c 3e
       0.26298487 0.19396383 0.1468023 0.16832434
000050 6c bb 6f 3e 4a fc 69 3e 7c 8c 6f 3e a5 e9 4e 3e
       0.2341134 0.22850147 0.23393434 0.20206316
000060 57 07 82 3e d5 cb 4a 3e 74 1c 7b 3e 13 07 4a 3e
       0.25396225 0.19804318 0.24522573 0.19729261
000070 12 1e 0a 3e fa 6b 34 bc ca dd a9 3b f8 6f 81 bd
       0.13488033 -0.011012072 0.00518391 -0.063201845
000080 74 8f 10 3d 22 ec dc 3c f4 c4 61 3d 80 21 f8 3c
       0.035293058 0.026968066 0.05511947 0.030289412
000090 85 64 fb bd 2e f7 32 be 96 0d 29 bd 1e 9f 84 bd
       -0.12275032 -0.17477104 -0.041272722 -0.06475662
0000a0 1e f2 c7 3e af 47 dc 3e 5a 5a 02 3f db 5a 10 3f
       0.39051908 0.4302344 0.50919116 0.56388634
0000b0 d9 4b 47 3e b1 0b 99 3e 13 16 b0 3e 10 8a 87 3e
       0.19462527 0.29891732 0.3439184 0.2647252
0000c0 48 b1 1e 3e e7 aa cc bc ac 3d 48 3b c2 5d be bd
       0.15497315 -0.024983836 0.0030554337 -0.09295227
0000d0 f4 30 03 3e 41 c3 58 be 38 fc a7 3d 87 76 95 3d
       0.12811643 -0.21168233 0.08202404 0.07297998
0000e0 68 f6 36 bd 86 e7 ea bc e6 62 cd 3d 1d 94 80 3c
       -0.044668585 -0.028674852 0.10028629 0.015695626
0000f0 a0 e7 82 bc 79 83 8b bd 09 6e c1 3c 4a f8 df bd
       -0.015979588 -0.06812186 0.02361204 -0.10936029
000100 0b 64 4a 3e d0 18 40 3e 77 9c 5e 3e 36 3c 32 3e
       0.19764726 0.18759465 0.21739374 0.17405781
000110 70 bf 77 be 44 0a 80 be 32 53 5e be bf 9d 60 be
       -0.24194121 -0.25007832 -0.21711424 -0.21935175
000120 83 7c 09 3f 89 7f 02 3f 34 bb e8 3e b0 a1 ef 3e
       0.53705615 0.50975853 0.45455325 0.46803045
000130 60 02 42 bd 2e 7f 00 3e 36 e4 31 be 77 86 9b 3d
       -0.047365546 0.12548515 -0.17372212 0.075940065
000140 f9 97 c2 bc a5 da 5d 3c 5b cf 09 3e e4 76 12 3e
       -0.023754107 0.013540898 0.13458006 0.14303166
000150 6d f4 45 be ae 73 30 be 35 2f 58 be db dd 55 be
       -0.19331522 -0.17231628 -0.21111758 -0.20885412
000160 30 0e b8 bd 0d 1c d2 bb 56 70 96 bd 7c c5 90 bd
       -0.08987081 -0.0064120353 -0.07345645 -0.07068917
000170 43 ce c9 3d da 11 ca 3d 83 87 68 3d 36 8f 39 3e
       0.098537944 0.09866686 0.05676986 0.18121037
000180 f8 de d0 3d 12 c2 07 3e 60 1f 1f 3e 52 34 0f 3e
       0.10198778 0.13257626 0.15539312 0.13984802
000190 2b d2 9f bd 64 2e e3 3c 7e ee de 3b 00 6d 5c bd
       -0.07803758 0.027732082 0.006803333 -0.053814888
0001a0 29 ca 06 bb 82 01 e2 3b 04 2d 43 3c 37 fd f5 3c
       -0.0020567274 0.0068971524 0.011912588 0.030027969
0001b0 ef 9a 07 be 06 2d 22 be 34 fe 23 be c4 02 1d be
       -0.13242696 -0.15837488 -0.1601494 -0.15333086
0001c0 0d d4 85 3e bb f4 91 3e 9d a6 8a 3e 63 32 95 3e
       0.26138344 0.28507027 0.2708024 0.29140005
0001d0 0e 4c 90 bd 91 9e c8 3a c0 26 c4 bc b5 56 0a 3d
       -0.07045756 0.0015306046 -0.023944259 0.033774097
0001e0 e4 aa 19 3e 69 eb 19 3e 0b 67 3d 3e 7f f7 4a 3e
       0.15006596 0.15031208 0.18496339 0.19820975
0001f0 c3 66 64 3e 12 11 92 3e 32 a2 52 3e 41 6d 86 3e
       0.22304825 0.2852865 0.20569685 0.2625523
