ggcnn_base/output/models/221204_2000_training_example/epoch_30_iou_0.72_statedict.pt (torch, 256417 bytes, 16 tensors)

conv1.weight f4 [32, 1, 9, 9]
000000 92 e2 91 bd d6 47 02 be b9 26 84 bd ad 97 01 be
       -0.07123293 -0.12722716 -0.06452698 -0.12655516
000010 e9 2a 0a be f4 48 8c bd 4a e0 c9 bd a0 21 10 be
       -0.13492931 -0.06849852 -0.09857233 -0.14075327
000020 f6 06 07 be b4 84 c6 bd b5 1d a2 bd a2 e0 93 bd
       -0.13186249 -0.0969328 -0.079158224 -0.0722058
000030 04 64 04 be 87 53 a6 bd 01 38 f7 bd 8e 0d dd bd
       -0.12928778 -0.081214 -0.12071229 -0.10793601
000040 88 46 ba bd ab 7a 0a bd a2 db 9b bd 89 5d e0 bd
       -0.09095484 -0.03380839 -0.07610251 -0.109553404
000050 c6 0c 8f bd 55 ad cf bd 9c 38 07 be a5 c5 f3 bd
       -0.06984858 -0.10140482 -0.13205189 -0.11902932
000060 7c 58 a0 bd 12 d2 d3 bd f1 62 e4 bd 36 68 ba bd
       -0.07829377 -0.10342802 -0.11151684 -0.09101908
000070 8b 2b ee bd c4 15 9c bd 32 54 ba bd 23 76 f2 bd
       -0.11629399 -0.07621339 -0.0909809 -0.11838939
000080 bc f8 1c bd 8a 7e 3d bd 43 50 ec bd 73 84 10 bd
       -0.03832315 -0.046263255 -0.11538746 -0.035282563
000090 ea 81 07 be a0 cc 05 be ae 89 0f be e0 f6 05 be
       -0.13233152 -0.1306634 -0.14017364 -0.13082457
0000a0 40 64 21 be 19 e4 d6 bd 5c 2f 91 bd 92 17 82 bd
       -0.15760899 -0.10492725 -0.07089111 -0.06352152
0000b0 4e 59 17 be b8 c8 cb bd e3 51 93 bd bd 4d 02 be
       -0.14780161 -0.099503934 -0.07193353 -0.12724967
0000c0 1a 9f 20 be da 00 93 bd 02 1a 0e be c9 eb 03 be
       -0.15685692 -0.07177897 -0.13877109 -0.12882914
0000d0 4d 81 bd bd 69 45 86 bd 7a 59 c2 3d 49 76 09 3e
       -0.09253178 -0.06556208 0.094897225 0.13424028
0000e0 31 2c 2b 3e 91 42 0e 3e 52 c9 5b 3e 29 f9 44 3e
       0.16716076 0.1389258 0.21463516 0.19235672
0000f0 23 2d 3f 3e a5 38 03 3e 07 9d 00 3e 6c 43 63 3e
       0.18669562 0.12814577 0.12559901 0.22193688
000100 e7 6e 35 3e 73 25 5f 3e cc bf 61 3e 50 6b 82 3e
       0.17718087 0.2179163 0.22045821 0.25472498
000110 02 bb 8b 3e 50 6b 46 3e dd 7e 76 3e ba 9e 52 3e
       0.27291113 0.19376874 0.24071832 0.20568362
000120 ad b1 75 3e c6 ee 68 3e e9 fc 88 3e b6 70 83 3e
       0.23993559 0.22747335 0.26755455 0.2567193
000130 10 26 61 3e ee eb 74 3e 79 bf a3 3e 74 1b 8c 3e
       0.21987176 0.23918125 0.3198202 0.27364695
000140 8f 72 85 3e 31 39 a2 bc 30 22 91 bc 49 ba 06 3d
       0.26063964 -0.019802662 -0.017716497 0.0328925
000150 d8 fd 0a 3e 64 b1 29 3e 64 43 0f 3e 5f 30 6b 3e
       0.13573396 0.16571575 0.13990551 0.22967671
000160 46 89 a6 3e ed d8 ef 3e 13 87 2a be 55 68 05 be
       0.32526606 0.4684519 -0.16653089 -0.13028081
000170 c1 87 ab bd 6e 25 22 bd e9 b1 9d 3b 63 a0 a2 3d
       -0.083755024 -0.039586477 0.0048124683 0.079407476
000180 cf a6 0b 3e 5c f1 71 3e cc 7f aa 3e 55 80 84 be
       0.13637851 0.23627228 0.33300626 -0.2587916
000190 e0 9b 46 be 57 5d 06 be e1 86 03 be d3 f7 93 bd
       -0.19395399 -0.13121544 -0.12844421 -0.07225003
0001a0 df d8 00 bd 47 b4 46 bc 01 ad 9d 3d ea 5a 6e 3e
       -0.031456824 -0.012127942 0.076990135 0.23276868
0001b0 2c 37 d2 bd fc 74 6f bd 41 eb ca bc 75 ee 81 3d
       -0.102644295 -0.058461174 -0.02477038 0.0634431
0001c0 97 a7 46 3d 47 f8 8b 3d 19 2e c0 3d a8 e6 6b 3e
       0.04849967 0.068344645 0.093837924 0.23037207
0001d0 d5 6b a5 3e 41 af 1e be 53 fd ab bd 62 a7 b3 bd
       0.32308832 -0.15496542 -0.08397927 -0.0877216
0001e0 ec 82 ec bc e1 c9 23 bd fe 6f 8b 3c 91 ba f6 3d
       -0.028871022 -0.03998745 0.017021175 0.120473035
0001f0 fb 7a 2e 3e ea 06 5d 3e 05 c6 64 be a7 98 2f be
       0.17039101 0.21584669 -0.22341163 -0.17148076
000200 a2 8e f3 bd 6d fc 9b bd 12 c6 7f bd f8 2b 9d bb
       -0.118924394 -0.07616506 -0.062444754 -0.0047965012
000210 5d 0c be 3d 9a 59 26 3e 95 1c 6d 3e 33 4a 5c be
       0.09279702 0.16245118 0.23155434 -0.2151268
000220 59 f9 52 be 99 db 5a be 8b 80 0c be ca c7 bd bd
       -0.20602931 -0.21372832 -0.1372091 -0.09266622
000230 6e 8c 33 bc dd bb d6 bc bc 27 db 3d a4 66 61 3e
       -0.010958774 -0.026212627 0.10700938 0.2201181
000240 f9 4f 81 be e7 79 51 be f9 3d 61 be a4 82 92 bd
       -0.25256327 -0.20456658 -0.21996297 -0.07153824
000250 b6 b1 03 be 0f b1 28 bd 19 df eb 3b a2 7b df 3d
       -0.1286076 -0.04118448 0.007198226 0.10912253
000260 e7 ed 56 3e 81 8e 5d be e3 22 67 be c1 fb 27 be
       0.2098919 -0.21636392 -0.22571902 -0.1640463
000270 fb df 96 bd 8a 06 4d bd 2e f7 49 bc 05 2c 9f 3d
       -0.0736694 -0.050055064 -0.012326999 0.07772068
000280 b5 62 13 3e 5c 96 93 3e 26 8a c6 bb 11 88 9f bb
       0.14393122 0.28825653 -0.006058949 -0.0048685153
000290 16 af 75 bc cf c2 3e bc c1 07 8f 3b b9 ef 1e 3c
       -0.014995357 -0.011643126 0.004364938 0.009700709
0002a0 92 db 91 3c 0a 34 3e 3d 6b ce 23 3d 80 bc 06 bd
       0.017804895 0.046436347 0.039991777 -0.03289461
0002b0 a0 31 30 bd d7 0e 21 3b 8b f8 aa 3b ce 16 29 bd
       -0.043016076 0.0024575496 0.005217617 -0.041281514
0002c0 27 d4 f4 3c 44 ef e2 3c 5d a5 d7 bc 17 70 1a 3d
       0.029886318 0.027701981 -0.026323969 0.037704553
0002d0 57 e6 8e 3c ef af 91 3c d4 fa 02 bd 6a 13 ca 3c
       0.017443819 0.017784087 -0.03197749 0.02466746
0002e0 da 69 76 bc fd 54 27 bd 13 9a dc bb 25 e7 24 3d
       -0.015039885 -0.040852536 -0.0067322343 0.0402595
0002f0 54 b3 c9 bc 02 90 00 bd f0 62 13 3b 9e 98 95 bc
       -0.024621643 -0.031387337 0.0022489391 -0.01826125
000300 00 7b bd bc a3 6f 26 3d a9 42 31 3c cf 9c 1e 3c
       -0.02312994 0.04063381 0.010819116 0.009680941
000310 5c 5c 98 ba a5 c4 27 3d 3d e5 15 3d 71 d8 00 bd
       -0.0011624205 0.04095902 0.03659557 -0.031456415
000320 5c 26 eb bb 82 2d 27 3d ad fe 8f 3c 8b 29 10 bc
       -0.0071762037 0.040814884 0.017577494 -0.008798967
000330 6a 1d 02 bd db e0 8c bc 29 d0 c4 ba 58 6d 17 bd
       -0.031766333 -0.017197063 -0.001501565 -0.036969513
000340 9f 72 5e bc 52 94 97 bc 7a 91 07 3c f2 24 41 bd
       -0.0135771325 -0.018503342 0.00827443 -0.047154374
000350 39 4a 84 3b ac 52 23 bc 78 d4 87 bc f4 54 cb 3b
       0.0040371683 -0.009968441 -0.016580805 0.0062051956
000360 f8 44 a1 bc fe 06 4e 3c 43 27 1a 3b 9a 07 d6 3c
       -0.019686207 0.012574909 0.0023521937 0.026126672
000370 7a 2d d9 3c d1 a8 91 bc d4 0f 67 bc 10 f7 24 bd
       0.026510943 -0.017780693 -0.014102895 -0.04027468
000380 f4 c0 36 3b dd 2f 1e 3c e8 e2 6c bc 8f 9c 31 bd
       0.0027886005 0.009654966 -0.014458396 -0.043362197
000390 d6 a7 71 bb a2 03 76 bc 21 6a 90 3c 9e ef 7c 3a
       -0.003687372 -0.015015515 0.017628731 0.0009648743
0003a0 46 67 d3 bc 0f 94 28 bd a9 c3 e5 3b ab af 16 3d
       -0.02580608 -0.041156825 0.00701185 0.036788624
0003b0 89 6d 26 3d 00 d9 ba bb 05 e7 23 bd 0e 3d d6 3c
       0.040631805 -0.005702138 -0.04001524 0.02615216
0003c0 d8 10 4e bc f0 5f a8 bc 30 d8 05 bd 1c d9 0b bf
       -0.012577258 -0.020553559 -0.032676876 -0.5462816
0003d0 63 5d 27 be e4 c4 1d 3e e1 0d db be 67 4a 95 be
       -0.16344218 0.15407139 -0.42784026 -0.29158327
0003e0 3f 08 8c be 5b b9 6e be 43 c3 97 be 5c 99 16 bf
       -0.2735004 -0.23312895 -0.2964116 -0.5882776
0003f0 03 43 40 be db 84 40 3e f0 ef d5 3e 38 f4 2a bd
       -0.18775563 0.1880068 0.4178462 -0.04173681

conv1.bias f4 [32]
000000 19 1b 07 be 1c 54 eb 3d fe df dd bd af 51 87 3c
       -0.1319393 0.11490652 -0.10833739 0.016518442
000010 68 6a aa 3d 71 57 a6 3d 5d ee d3 bc b8 df 11 3e
       0.08321077 0.08122147 -0.025870496 0.14245498
000020 43 37 81 be 7c b2 2b bc fa 29 85 3e cf e1 02 be
       -0.25237474 -0.010479566 0.26008588 -0.12781452
000030 35 75 89 be 17 92 c4 bd 75 8e 97 bc 94 10 09 3a
       -0.26847234 -0.09598177 -0.018500546 0.00052286056
000040 26 ed 68 3c 86 1f ab bd d0 47 8d be df 38 af bd
       0.014216697 -0.08355622 -0.2759385 -0.08555769
000050 09 82 25 be 25 a6 7d 3e 8c a7 39 bd a9 72 cd bd
       -0.16162886 0.2477041 -0.0453258 -0.10031635
000060 3b 8a 97 be 4e 8b 78 bd 93 64 ca bd 5a d0 ac bc
       -0.2959765 -0.060679726 -0.09882464 -0.021095444
000070 4f fc e9 bd a5 46 c7 bd a6 b5 89 3d 29 96 c4 bd
       -0.11425077 -0.09730271 0.067241 -0.09598953

conv2.weight f4 [16, 32, 5, 5]
000000 5d dd 94 bc e2 62 50 bd 72 54 07 bd bb 6e 98 bc
       -0.01817196 -0.050875552 -0.033039518 -0.018607488
000010 bc b6 92 bc 15 9f 2b 3d 8b c0 21 3d a8 c0 f1 3d
       -0.0179094 0.04189976 0.039490264 0.118043244
000020 c3 63 21 3e 99 35 12 3e 29 ac fa bd f8 05 f7 bd
       0.15760712 0.14278258 -0.12239868 -0.12061685
000030 ef 42 e9 bd 66 70 b7 bb 33 d7 cb bc 8b 99 6c bd
       -0.1138972 -0.0055981157 -0.024882888 -0.057763617
000040 da 10 00 bd ed e0 a4 3b d0 63 16 be 81 b6 d4 bd
       -0.03126607 0.005031696 -0.14686513 -0.10386372
000050 9d dd 36 be 34 cc eb bd 29 e4 1b bc 65 0b 4d bd
       -0.17857976 -0.11513558 -0.009514847 -0.050059695
000060 78 80 78 bd be 32 0b be 36 3d ef bc ba 16 45 3d
       -0.060669392 -0.13593575 -0.029203992 0.048117377
000070 36 4f d2 bd f3 89 4f bd 77 5f ac bd df 95 9a bc
       -0.102690145 -0.050668668 -0.08416646 -0.018870292
000080 47 00 49 3d 32 49 3e be 68 7c 87 bd d9 60 59 3c
       0.04907253 -0.1858261 -0.066155255 0.013267719
000090 79 ec f5 3d ac ea 77 3d b2 d4 04 be d3 da 03 be
       0.12007994 0.060526535 -0.12971762 -0.12876444
0000a0 60 97 98 bc 08 98 bc 3d 47 30 59 3d d7 5d 04 bd
       -0.018626869 0.09208685 0.053024556 -0.032316055
0000b0 31 38 9a bd fc d7 86 3c df 59 0c 3e 62 ab 12 3e
       -0.07530249 0.016460411 0.13706158 0.1432319
0000c0 80 18 73 3d 9a ea f5 3c ff 23 90 3c d9 cd 86 3d
       0.059349537 0.030019093 0.01759529 0.06582231
0000d0 4a 74 3a 3d 42 36 26 3c 66 2e b4 bc 79 99 0a bd
       0.04552106 0.010144772 -0.02199478 -0.03383777
0000e0 25 14 18 bd f6 35 17 3c 37 ed 82 3d fc 66 0b bd
       -0.037128586 0.009229174 0.063929014 -0.03403376
0000f0 d6 42 bd 3c 2a 86 a2 b9 39 b9 91 3c 5d 50 16 bd
       0.023103159 -0.00030999008 0.017788516 -0.036697734
000100 f9 bf 7f 3c 54 cd ee 3c f4 1f a0 3c ab b7 fd bc
       0.015609735 0.029150642 0.019546486 -0.030971369
000110 cc d0 bc 3c 2a e3 47 bc 52 fc c5 3c ed 88 2b bc
       0.02304878 -0.012200156 0.024168167 -0.010469657
000120 1b 02 df 39 f4 6e 3a 3d b0 e5 58 3d 7d d2 71 bd
       0.00042535443 0.04551597 0.052953422 -0.059038628
000130 6f a3 d5 3c 62 f5 46 bc e7 10 7d bd 08 70 9d bc
       0.026078908 -0.012143465 -0.061783697 -0.01921846
000140 d5 ba c2 bc 53 43 e6 bc 0c be 9d bd 83 86 85 3c
       -0.02377073 -0.028108275 -0.07702264 0.016299492
000150 17 c1 a5 3d ed 7b a5 bd ae b3 5f bd e0 cd 0a bd
       0.080934696 -0.080802776 -0.054614715 -0.033887744
000160 b2 d1 35 bd e0 48 8d bb 96 38 5b 3d 31 3d 30 3d
       -0.044389434 -0.004311666 0.05352076 0.043027107
000170 3f 89 75 3b 24 65 1c 3c fa cb c6 3d 08 d9 48 3c
       0.0037465838 0.009545598 0.09706874 0.0122587755
000180 84 bf aa 3d 00 3e 57 3d de f0 e4 3d f5 ca f3 3d
       0.0833731 0.052549362 0.11178754 0.11903945
000190 a2 15 3f 3e 92 64 3e 3d 0b c5 f4 3b 58 98 43 bd
       0.18660596 0.04648263 0.0074697784 -0.04775271
0001a0 c9 f5 84 bd 00 54 0f 3e 0c 90 93 3b 19 3e f9 bd
       -0.06492192 0.13996887 0.0045032557 -0.12170047
0001b0 03 fb f8 bd 19 2c 03 be ee 6a bc 3d 3a 69 df bc
       -0.12157252 -0.1280979 0.09200083 -0.027271856
0001c0 92 37 8d bd 1f 23 b8 bd 74 cb cb bd 47 c9 dd 3c
       -0.06895365 -0.08991074 -0.09950915 0.027073516
0001d0 71 3e 88 3d 11 b3 7f bd 5e 0a de bd 0c bd fb bd
       0.06652535 -0.06242663 -0.10841821 -0.12291917
0001e0 8d 76 3a bd 88 11 29 3d e3 22 c7 3b 32 78 6f 3d
       -0.045523215 0.041276485 0.006077157 0.058464237
0001f0 ba dc 24 bd 65 2f 78 bd 10 3e 77 bd c6 5e 4e 3d
       -0.040249564 -0.060592074 -0.06036192 0.05038335
000200 96 e0 fc bc d1 20 12 bd 58 7d aa bb 2c 03 89 bd
       -0.03086881 -0.035675827 -0.0052029304 -0.06690058
000210 c1 c7 e2 3d 07 52 06 3e c9 ad 24 3e b1 81 c8 bd
       0.11073256 0.13117228 0.16081919 -0.09790362
000220 60 4b bd 3c 1f 2c 3d 3d f5 2e ad 3d 47 70 1d 3e
       0.02310723 0.046184655 0.08456222 0.15374862
000230 09 68 f5 bd 06 ae 0a be a7 1f d8 bd ac 90 71 bd
       -0.11982734 -0.13542947 -0.10552912 -0.05897586
000240 35 bb ae 3d 4d d4 9d bc 8c f4 b0 bb 41 e4 df bd
       0.08531801 -0.019266272 -0.005400246 -0.10932208
000250 41 27 b7 3c cf e7 5e 3d 0a 98 dc 3c 42 c5 0d 3d
       0.022357585 0.05442029 0.026927967 0.034611948
000260 49 00 bc bd f8 5a 8a 3d 0e 60 88 bb 59 ae b3 bd
       -0.09179742 0.06755632 -0.0041618412 -0.087734886
000270 73 ba 73 3c f2 b5 99 bd 7d 85 a8 3c ba 85 82 3c
       0.014875996 -0.075054064 0.020571465 0.015932906
000280 bb 88 29 3d 93 c1 ae bd cd 9a 0f bd cb a2 d1 3c
       0.041390162 -0.08533015 -0.03505974 0.025590321
000290 3d 34 ba 3d 71 d5 4e 3b 04 2f 3e 3c 11 a1 58 3c
       0.09091995 0.0031560326 0.011607889 0.013221995
0002a0 93 fa 64 3d 09 8a 10 3d e9 6a 88 3c 7f 5c c4 bc
       0.05590303 0.03528789 0.016652541 -0.023969887
0002b0 1a 05 85 3d 15 a7 82 3d 45 66 4b 3d 5c 38 bc bd
       0.06495114 0.063795246 0.04965808 -0.09190437
0002c0 cc 27 82 bd df bc ec bc e7 33 44 bd 21 65 49 3c
       -0.06355247 -0.028898655 -0.04790106 0.012292177
0002d0 ee 74 c1 bd 7f 7d 81 bd 95 47 73 3c aa b3 0b bd
       -0.09446131 -0.063227646 0.014848609 -0.034106888
0002e0 cc 85 4b 3d 66 b0 8d bd 77 dd c2 bc 20 92 88 3d
       0.049688146 -0.06918411 -0.023787243 0.06668496
0002f0 7c 29 4a 3d 66 74 a5 3d 46 05 57 bc d9 78 87 bd
       0.04935597 0.08078842 -0.013123816 -0.06614847
000300 ef 41 81 3c 05 8a 45 bc 94 7d 64 bc cd f5 70 3d
       0.01577851 -0.012056832 -0.013945956 0.058828164
000310 65 e6 f8 bb 2a 0d 39 bd d9 e5 04 3d 9a eb 05 3e
       -0.0075958245 -0.04517857 0.032445762 0.13078156
000320 8a 35 d2 be 94 6d 90 bd 62 29 14 be 48 f7 fa bd
       -0.41056472 -0.0705215 -0.14468911 -0.122541964
000330 4f ef 41 3d bb 74 30 be 1d 27 01 3c 85 31 0d bb
       0.047347363 -0.17232029 0.0078828605 -0.0021544409
000340 16 88 ac bb 15 1a 75 3e 29 f8 7e be 9a 43 b8 bc
       -0.005265246 0.23935731 -0.24899353 -0.022493172
000350 9d 09 5a 3e 6b ae ae 3d dc d5 7f 3e 79 98 c1 bd
       0.2129273 0.08529361 0.24983925 -0.0945291
000360 d3 7e 9f bd d2 53 99 3e e0 6a 5b 3c 49 32 06 3e
       -0.07787862 0.29946762 0.01339218 0.1310512
000370 6d df f9 3c 4a 62 ae bc 67 4b 8c 3e 5f 4c 09 3d
       0.030502046 -0.021287102 0.27401277 0.0335201
000380 19 ef 31 3e 07 f9 97 be cc 5f 48 be b1 93 1b 3d
       0.17376365 -0.2968218 -0.19567794 0.037982646
000390 ec 3d 73 bc 64 82 ca 3e 37 72 f5 bd b2 24 15 be
       -0.014846306 0.39552605 -0.119846754 -0.1456478
0003a0 f1 18 f7 bc 0b 08 18 be 2b 8b 3c 3d 95 4b 5d bd
       -0.03016326 -0.14846818 0.04603116 -0.05402716
0003b0 e1 1a 1d bd b7 f1 e3 3c 9a 7c 81 be 6d 24 66 3c
       -0.03835571 0.02782522 -0.25290376 0.0140467705
0003c0 84 6b 26 3e 9e 77 2c 3e 1a 29 63 3d 12 0c 9e be
       0.16251951 0.16842505 0.05545912 -0.30868584
0003d0 ed bc f5 bd 40 27 03 3e bf 4a 10 3e 21 93 3a 3e
       -0.11998925 0.12807941 0.14091013 0.18220188
0003e0 12 fe 85 be 07 3d 71 3d a5 72 ae 3e ea 5d 87 3e
       -0.26170403 0.05889609 0.34071842 0.26438838
0003f0 d9 55 33 3e c5 08 19 3d ef 67 d1 3d 51 2f 45 3e
       0.17513217 0.03736188 0.10224902 0.19256331

conv2.bias f4 [16]
000000 42 3c c8 3c 3f 46 85 3e 51 1a 7b bd 15 6a 44 bd
       0.024442796 0.26030156 -0.061304394 -0.04795273
000010 40 d8 14 bd d1 f4 4f 3c 98 b8 41 3c 3b f1 a0 3d
       -0.036339045 0.012692646 0.011823796 0.07858511
000020 79 93 3f 3e b6 1a 96 bd 3f 19 3d 3e e9 3b 55 bd
       0.187086 -0.073293135 0.18466662 -0.052059088
000030 ed 45 7b bd 98 5f 7c 3c 74 92 f6 3d 69 4b 47 bd
       -0.061345983 0.015403651 0.120396525 -0.0486559

conv3.weight f4 [8, 16, 3, 3]
000000 dd 2e bf bd f5 9b f9 3d fd 58 70 bd a3 52 bb 3d
       -0.0933511 0.121879496 -0.058678616 0.09146621
000010 04 ea 1f 3e 81 e7 a8 3d e7 c8 85 bc fa 3c df bd
       0.15616614 0.08247281 -0.01633115 -0.10900302
000020 62 e3 b9 3d 70 cc e6 be 18 ab 2c bd 4f e2 ae bd
       0.09076573 -0.45077848 -0.042155355 -0.08539259
000030 4a 2b af be 08 d6 23 3e a3 03 a0 bb 79 1c 0a be
       -0.34212714 0.15999615 -0.004883246 -0.13487424
000040 25 88 50 3e 00 74 b4 3e d8 12 07 3e 9a a2 a5 bd
       0.20364435 0.3524475 0.13190782 -0.080876544
000050 1b e7 4c 3d 0b 83 0f be 59 54 6c 3d e3 d7 38 bd
       0.050025087 -0.14014833 0.057697628 -0.04512776
000060 b8 c3 88 bd 72 f9 1b 3d 15 51 57 bd 5e ae fd 3d
       -0.066779554 0.038079686 -0.05256756 0.123867735
000070 51 d0 0c be 8e 6f 1d be fd 4e ab 3d c1 10 6d bd
       -0.13751341 -0.15374586 0.08364675 -0.057877306
000080 b5 61 c7 3d db de 17 be b0 50 38 bc 95 34 60 bc
       0.09735433 -0.14831106 -0.011249706 -0.0136844115
000090 91 68 23 3e d1 54 1b 3e 46 57 c0 3d 9f 0e b6 3c
       0.15957858 0.15169074 0.09391646 0.022223769
0000a0 35 80 2c 3e b9 69 23 bb ae b4 88 3d f1 26 ed bd
       0.16845782 -0.0024934842 0.06675087 -0.11579693
0000b0 97 fc d2 bd e0 b9 f7 bd 78 40 25 be d7 b4 03 be
       -0.10302084 -0.12096 -0.16137874 -0.12861954
0000c0 68 b4 b1 bc 1c 4d ac 3d 07 c2 35 bd 21 95 e9 3d
       -0.02169247 0.08413145 -0.044374492 0.11405397
0000d0 e9 1c fb bd ec d4 f8 3c bd f6 19 be c4 d6 c3 3d
       -0.122613735 0.030374967 -0.1503553 0.09562448
0000e0 f7 f5 a7 bd 99 5b 3f 3c 87 d4 93 3d ed 72 0d 3e
       -0.08201211 0.011679553 0.07218271 0.13813372
0000f0 5f 2f 4f bd 42 16 19 bd ca 97 fb 3d 09 90 02 be
       -0.050582286 -0.037374742 0.12284811 -0.12750258
000100 51 84 a6 bd 05 b9 71 be 13 31 2d 3e 4d 81 ef 3c
       -0.08130706 -0.23605736 0.16913252 0.02923646
000110 5f 0a 03 3d 55 ec 9f 3e c2 9c 8d 3e 01 d0 f5 3d
       0.031992313 0.31234995 0.2765866 0.12002564
000120 5e 3e 9f be 69 56 ad be d5 34 d0 bd 76 db 41 3d
       -0.3110227 -0.33854988 -0.10166327 0.047328435
000130 a0 84 20 3d 56 82 05 3e fc 07 18 3e ed fa 51 3e
       0.03918898 0.13038 0.14846796 0.20505877
000140 49 07 61 3e 9f 40 dc bd aa e5 dc 3d e3 c9 96 bd
       0.21975435 -0.10754513 0.107859924 -0.073627256
000150 ee bc 2a 3c 49 8c b8 3d 0a 7b 30 3e b4 b0 02 bb
       0.010421021 0.09011132 0.17234436 -0.001994175
000160 95 5b 92 bd 3b 4b d7 bd 6c 27 9e bd 18 d0 2e 3e
       -0.07146374 -0.10512396 -0.07722363 0.17071569
000170 a3 0c 6e 3e c2 a1 0f bb 48 43 da bd 18 45 5d 3e
       0.23247008 -0.0021916484 -0.10657364 0.21608388
000180 f4 51 9e be 73 d6 a2 3d be f8 74 bd 1f 60 45 3e
       -0.309219 0.07951059 -0.05980753 0.19274949
000190 49 6e 8d bd 12 7e 3a 3e de a2 29 3e 7b 21 d3 3c
       -0.06905801 0.18212155 0.16566035 0.0257728
0001a0 ee 2d 44 bd 3a 25 06 be de eb 91 3d d3 39 bd bd
       -0.047895364 -0.13100138 0.07125066 -0.09239545
0001b0 5d 94 86 bd 99 c5 74 3d 98 4e 8e bd 26 09 04 bc
       -0.06571267 0.059758756 -0.06948584 -0.008058822
0001c0 fe f2 a0 bd 4c 0c d9 3d 83 34 f5 3d fb b6 5d 3d
       -0.07858847 0.105980486 0.119729064 0.054129582
0001d0 aa f7 8b 3c f4 c9 1c 3e 33 6e a3 3d 9b dc ed bd
       0.017085869 0.15311414 0.07980003 -0.11614343
0001e0 87 8f 4d bd 68 34 ed 3d b5 06 38 3d 03 e3 35 bd
       -0.050185706 0.11582261 0.04492827 -0.04440595
0001f0 f5 90 b7 bd 9e 94 4f bd 51 a6 1b 3e ef 88 91 3d
       -0.08963195 -0.05067884 0.15200163 0.07106196
000200 a7 70 4b 3e 22 ae 9d 3d e3 d6 f7 bd c9 74 b3 3d
       0.19867192 0.07699229 -0.12101533 0.087625094
000210 d7 f2 93 bd 5a 55 69 be 74 13 16 3d 30 33 01 be
       -0.072240524 -0.22786465 0.036639646 -0.12617183
000220 d7 07 9a bc f3 54 d0 bd eb df 66 3e 62 4c 5c 3d
       -0.018802566 -0.10172453 0.22546355 0.05378378
000230 da 15 8e be 75 20 ef 3d df 09 2c 3e a4 24 30 3d
       -0.27751046 0.116761126 0.1680064 0.043003693
000240 dc 22 91 be 9d 75 56 be 5a 61 9d 3d 84 2a 82 bd
       -0.28346908 -0.20943303 0.07684584 -0.063557655
000250 e8 67 3f be ba 70 23 3d 3e 36 e1 3e cc 9d 93 3e
       -0.18691981 0.039902426 0.43986696 0.28831327
000260 2d c0 94 3c cf b6 35 be 79 22 b1 3c 1a 45 34 3e
       0.018158043 -0.17745517 0.021622883 0.17604485
000270 07 ca 1f be a0 2f ae be 24 8e 64 bd f6 6f 4a 3e
       -0.15604411 -0.3402071 -0.05579962 0.19769272
000280 da 4f 43 3a 93 54 09 bc c8 28 fe bc 6d b7 b8 3d
       0.00074505585 -0.0083819805 -0.031025305 0.09019361
000290 a1 8d 13 be cf 31 25 be a7 06 46 3c b2 46 ba ba
       -0.14409496 -0.16132282 0.012086547 -0.0014211743
0002a0 c4 85 8d 3d b6 19 4c bc bc 19 db bd b2 1c 8f bc
       0.069102794 -0.012457302 -0.10698268 -0.017469738
0002b0 fb df 35 3d 16 55 77 3c 0a 70 76 bd 48 1c 1c be
       0.044403058 0.01509597 -0.060165443 -0.15245163
0002c0 96 3a 23 bd 04 61 0b be d7 02 f0 bc 60 99 c7 3d
       -0.039850794 -0.13611227 -0.02929823 0.09746051
0002d0 bd f4 f8 3d 97 1c e3 3d d5 77 fd 3d 51 f7 e4 bd
       0.12156055 0.110894375 0.12376372 -0.11179984
0002e0 6c bb 1e be 72 05 be bd 8d c3 2c be c6 e7 d4 bd
       -0.15501183 -0.09278382 -0.16871472 -0.1039577
0002f0 d8 98 16 3d 19 8e 18 3e 47 9c 19 be d6 d5 0e be
       0.036766857 0.14897956 -0.15001021 -0.1394876
000300 fc ae 76 3d c5 fc 05 3e 5b 1c 5d bd 3c 21 cb bd
       0.06022547 0.13084705 -0.05398212 -0.09918448
000310 eb 98 d1 bc ec b3 dd 3d b0 93 18 bd b4 79 2e be
       -0.025585612 0.10825333 -0.03725022 -0.17038614
000320 27 9c e0 3d 51 c0 94 3d c8 8a 32 bc 2e e9 99 bb
       0.10967284 0.07263244 -0.010897346 -0.0046969866
000330 80 66 12 be 29 71 14 3e 07 d2 12 be c9 86 3b bd
       -0.14296913 0.14496292 -0.14337932 -0.045782838
000340 0b fb af 3d 72 d6 88 3d 98 33 86 be 11 54 8e 3d
       0.085928045 0.06681527 -0.26211238 0.06949628
000350 14 da ab 3e 3b 2d 9c be 6a e7 cf bd 77 91 ab 3e
       0.33564818 -0.30503258 -0.101515606 0.33509418
000360 5a 78 f8 bd d8 18 00 3e 56 ba ad 3d 9b f0 77 be
       -0.1213233 0.12509477 0.084828064 -0.24212877
000370 fd a6 fd 3d d7 a2 0a 3e 8e 63 64 be c9 38 6f 3d
       0.12385366 0.13538681 -0.22303602 0.058403764
000380 b7 1d 50 3e 8e da 30 bd fd 13 0c 3e b7 91 bd bd
       0.20323835 -0.04317718 0.136795 -0.092563085
000390 b5 e8 f5 ba 1c d3 1c 3d f5 36 02 bd c1 1b c5 3d
       -0.0018761369 0.038287267 -0.031790692 0.09624434
0003a0 11 c9 da 3d bf 91 b5 bd 5d 0e dc 3c 0d a1 48 be
       0.106828816 -0.088656895 0.026862318 -0.19592686
0003b0 b4 ce a4 be d1 6f 95 3e 35 35 09 3b de 0f 7d be
       -0.32188952 0.29186872 0.0020936255 -0.24713084
0003c0 66 10 57 3e 45 d6 07 3e db fc 82 bc 54 d3 ea 3c
       0.2100235 0.13265331 -0.015989712 0.028665222
0003d0 cc 1d 26 bc 17 dd 83 bd 77 6a f4 3d 0d 48 dd 3d
       -0.01013894 -0.06438654 0.11934369 0.10804758
0003e0 05 92 7c bd 1c a3 cb 3d 9a 9f 2a 3a de 60 47 be
       -0.061662693 0.0994322 0.0006508768 -0.19470546
0003f0 e5 85 d3 3d 27 ee 04 be 98 49 87 3d 10 c2 d6 3d
       0.10328273 -0.12981473 0.06605834 0.10486233

conv3.bias f4 [8]
000000 aa f8 f9 3d ed 3e 9d be fe 5c 3c bd b9 06 e1 3d
       0.12205632 -0.3071207 -0.04598712 0.1098761
000010 92 05 15 3e 35 29 b6 3c 13 96 9f 3e da 8b b3 3e
       0.14552906 0.022236446 0.31169185 0.35067636

convt1.weight f4 [8, 8, 3, 3]
000000 6a ed 90 bd ca 06 de bc 43 ab 1a 3e 98 66 ae bc
       -0.07076533 -0.027102847 0.15104394 -0.021289155
000010 e0 0c 9e be 13 86 e8 3d 6d 2d 0c 3e 6e ad 0d bd
       -0.30869198 0.11353698 0.13689204 -0.034589224
000020 98 ad 74 3e 88 a9 0a 3d 7b 42 49 be 1e bb 6f be
       0.23894346 0.033853084 -0.19654267 -0.23411223
000030 a8 e7 2d bf a2 96 6e 3e 2f da 68 3e 70 a3 8e 3e
       -0.67931604 0.2329965 0.2273948 0.27859068
000040 3e bb a1 3e 62 37 a5 be 6f 52 05 bf 64 a5 00 be
       0.31588167 -0.32268816 -0.5207891 -0.12563092
000050 a4 0d 85 be 8d 2c cf bd 43 1b 7f 3e 05 65 0a 3e
       -0.2598697 -0.10115919 0.24912743 0.13515098
000060 24 b2 ec 3e c6 2c 69 3e 93 69 a3 3e f5 c1 bb 3d
       0.4622966 0.22770986 0.31916484 0.09167854
000070 11 4b a0 3d 5b 4b c9 bd 4d 5c 17 bf 1a fd 81 bb
       0.07826818 -0.09828826 -0.59125215 -0.0039669396
000080 f7 0b 0c 3e 2d 6e ff b8 c7 c4 ed be 1d 54 26 be
       0.13676439 -0.000121798694 -0.46439192 -0.16243024
000090 a1 f7 d0 3d 7a 41 34 be 44 6f 38 3e 5e 29 fb 3d
       0.102034815 -0.17603102 0.18011194 0.122637495
0000a0 90 b5 c0 be 90 43 5e 3e fa 7d da 3d 8e 2f cf 3d
       -0.3763852 0.2170546 0.10668559 0.10116492
0000b0 f0 66 58 3e 73 7e 10 be 2b 28 3c 3e f5 11 4b bd
       0.21133018 -0.14110737 0.18374698 -0.049577672
0000c0 4e b5 45 be 82 7b 57 be cb 89 6c be af 44 ee bd
       -0.19307443 -0.21043208 -0.23099439 -0.11634194
0000d0 10 d1 9a be 2d 5d 3b be 05 c5 ed 3d 7d 86 03 3e
       -0.30237627 -0.18297262 0.11609844 0.12844272
0000e0 12 7a f8 3e 7f 01 c7 3e e1 b3 cc 3d 86 2d fe be
       0.48530632 0.3886833 0.09995247 -0.49644107
0000f0 9e a7 0c be 7a 17 1c be 9f ab 8a be 3b 90 14 3d
       -0.13735816 -0.1524333 -0.27084062 0.03627036
000100 bb f3 d7 3e 1e 40 33 3d bf fd 92 3d cb 3b be 3d
       0.4217814 0.04376232 0.071773045 0.09288748
000110 d4 9d 73 bd 78 c0 00 3c 45 c0 9e be c1 69 a0 be
       -0.05947669 0.007858388 -0.31006065 -0.31330684
000120 ee d0 14 3d fd 59 15 3d 81 02 29 be 36 ff 90 be
       0.036332063 0.036462773 -0.16504861 -0.2831971
000130 c4 67 f2 bc 56 04 1a 3e 1b 60 4c be 76 92 57 be
       -0.029590495 0.15040717 -0.19958536 -0.21051964
000140 9b 6f c9 3d 62 e6 24 3d 78 ac 04 bf 04 9c 8d 3d
       0.0983574 0.040258773 -0.51825666 0.06914523
000150 fd 80 64 3e dc 59 9e 3d 35 3e e8 3d f8 03 8d 3e
       0.2231483 0.07731983 0.1133999 0.2754209
000160 1b 71 0c 3d d6 7a db be 03 1e 49 3e a9 98 e0 3d
       0.034287553 -0.42867154 0.19640355 0.109666176
000170 53 4a ca 3d 9b af 17 3c e1 b5 48 3e e3 e6 8f 3c
       0.098774575 0.009258176 0.19600631 0.01756615
000180 d5 4a 2b 3e 46 83 78 be 9a 6b e2 be d2 3a 36 3e
       0.16727765 -0.24268827 -0.44222718 0.17795876
000190 6a cb 90 3d a4 f6 30 be 47 68 b8 be 15 e9 d3 be
       0.07070048 -0.17281586 -0.36017057 -0.41388765
0001a0 c4 42 02 3e e3 4f 29 be f6 b5 5f be a4 c0 cd bd
       0.12720782 -0.1653438 -0.21846756 -0.10046509
0001b0 2d 9d 3e bd 18 86 f6 3e ff 3e 33 3e d7 a1 50 3e
       -0.046536613 0.4814918 0.175045 0.20374237
0001c0 85 e5 92 be c4 a2 41 3d 71 e8 94 3e 4c bd 90 3d
       -0.28690735 0.047274366 0.2908359 0.070673555
0001d0 a0 6f a7 3e d7 30 c3 3e e0 ad 1a be 2c 9d 8b be
       0.3270235 0.381232 -0.1510539 -0.2726835
0001e0 84 d9 0c bf f1 d1 42 3c 78 cc e0 bd 26 f6 55 be
       -0.550194 0.011890874 -0.10976499 -0.2089468
0001f0 36 b2 fd 3d c8 b1 44 3e 4a 3f 3a 3e 97 96 8c 3e
       0.12387507 0.19208443 0.18188205 0.2745864
000200 3f 46 93 3e f4 6e 15 be d4 dc a6 be 6b dc 50 3e
       0.2876453 -0.14593107 -0.32590353 0.20396583
000210 3b 5f a4 3d 74 29 a4 3b 1e 2a 82 be c4 1d 68 3e
       0.08025976 0.0050098244 -0.25422758 0.22667605
000220 45 c6 cf be a0 b6 c0 be 7f ec 98 3d ef e4 1e bc
       -0.40580955 -0.37639332 0.07466983 -0.009698137
000230 ce 48 06 bd 7a 7d cc bd 66 46 a4 3e 3a 17 9f 3d
       -0.032784276 -0.0998487 0.3208496 0.07768102
000240 53 53 f5 bd 0c a0 14 be 41 e4 ee bd 8b 07 d1 3d
       -0.119787835 -0.14514178 -0.1166463 0.10206517
000250 53 14 0d 3e 11 e6 1b be 58 d5 dc bd c7 d0 26 3e
       0.13777284 -0.15224482 -0.107828796 0.1629058
000260 04 98 e3 ba a7 ae c7 bb cb 36 fb 3d 5e aa 1f 3e
       -0.001736403 -0.006093818 0.1226631 0.15592334
000270 d1 84 22 3e df 10 38 be 9d c7 00 3e 95 f6 b6 bd
       0.15870978 -0.17975186 0.12576146 -0.089337505
000280 b9 c1 e1 bd b2 94 f0 bc 5c 28 66 bd 89 a0 ad bd
       -0.11023278 -0.029367778 -0.056190833 -0.08477885
000290 22 4e 25 3e 4e e1 58 bd 7d 5c 31 3e b1 49 a9 bd
       0.16143087 -0.052949242 0.17320438 -0.08266009
0002a0 20 8e 34 3e c7 b7 82 3d d2 79 dd bd 6a de f8 bd
       0.17632341 0.06382709 -0.10814251 -0.12151797
0002b0 dd e6 c1 3d 0e a1 51 be 17 50 cc bd 90 5c 43 be
       0.09467862 -0.20471594 -0.099762134 -0.19078279
0002c0 e7 a6 8b 3d 94 08 04 3e 86 a5 13 be fb 75 b5 bd
       0.068189435 0.12893897 -0.14418611 -0.088603936
0002d0 57 94 f6 3d a3 04 8b 3b bc cb c8 3d 22 b1 3e 3a
       0.12040012 0.004242496 0.09804484 0.00072743197
0002e0 68 bd eb bd 35 b4 53 bd 1d 52 fa 3d 8f dc b7 3d
       -0.11510736 -0.05168553 0.12222693 0.08977615
0002f0 f4 44 b4 bc 7c e9 b1 3d f1 b7 b1 3d 4b 7b 18 3e
       -0.022005536 0.08687112 0.08677662 0.14890783
000300 98 32 c8 bd 25 54 69 bd 94 e9 83 bc 0f b1 06 3e
       -0.09775275 -0.056965012 -0.01610259 0.1315348
000310 7b b6 11 be de 77 4c bb 79 a5 e2 bd 73 a8 df bd
       -0.14229767 -0.0031199376 -0.11066718 -0.10920801
000320 b4 1b 8f bd 4b 3e 29 3e 41 b0 59 3d a9 e7 50 bb
       -0.06987706 0.16527669 0.053146604 -0.0031876361
000330 f4 78 ee 3d e7 66 7d bd d8 fe 2e 3e 60 05 ab 3d
       0.11644164 -0.061865713 0.17089403 0.083506346
000340 70 50 63 3c 58 d5 bc bc a5 25 61 3d 31 35 4f 3e
       0.013874158 -0.023050949 0.05496754 0.20235135
000350 2f e0 34 be 1e 8e 08 be 09 df ea bd 0c f8 fc bd
       -0.17663644 -0.13335463 -0.11468322 -0.12351999
000360 f6 d9 91 3e 77 71 df be f8 ee 87 bd 05 9a db bd
       0.28486603 -0.43641254 -0.066373765 -0.10722736
000370 0c e8 d4 be e9 d9 15 be e8 b4 74 3e 51 eb 55 be
       -0.41583288 -0.14633907 0.23897135 -0.20890547
000380 e8 d4 2a be 9d 7a 2c be 0d 33 aa bd 49 25 1e 3d
       -0.1668278 -0.16843648 -0.083105184 0.038609777
000390 d1 c8 e2 be 50 f5 3b be 22 2a ff 3e 12 73 29 be
       -0.44293836 -0.18355298 0.49836832 -0.16547802
0003a0 05 5a 4e be dc 30 5f 3e 8e 27 6e be a9 79 44 3e
       -0.20151527 0.21795982 -0.23257276 0.19187035
0003b0 2b b4 50 be 6c 58 62 3e f3 61 99 be 77 f7 8d be
       -0.20381229 0.22104043 -0.29957542 -0.27727863
0003c0 4b 32 79 3e d6 31 b4 3c bf c6 8d 3e 27 2c 4c be
       0.24335591 0.02199642 0.27690694 -0.19938718
0003d0 5e f5 df bd c7 3d 76 bd b8 0b 06 bf e7 b2 29 3e
       -0.10935472 -0.06011751 -0.5236163 0.16572152
0003e0 00 e7 92 3d ea c7 96 3c c1 2a 13 be 40 52 d4 3d
       0.07172966 0.018405873 -0.14371778 0.103672504
0003f0 46 77 dc 3c 61 76 5c 3e 45 6e e1 3d ab b0 85 be
       0.026912343 0.21529533 0.1100736 -0.2611135

convt1.bias f4 [8]
000000 24 00 2c 3c 0e 86 a6 3d 4d 93 80 bd 29 1e dc bb
       0.01049808 0.08131038 -0.062780954 -0.0067174626
000010 a1 5a 82 bd c5 8a 83 3c 5d cb 16 bc e4 11 93 bd
       -0.06364942 0.016057381 -0.009203759 -0.07181147

convt2.weight f4 [8, 16, 5, 5]
000000 2a 84 8b be e0 2a f7 bd 3c 2a 62 bf 2f 8c 4a bd
       -0.2724927 -0.12068725 -0.88345695 -0.049450096
000010 a6 fc 25 be d9 42 49 3d e5 bc b8 be 37 35 72 bf
       -0.16209659 0.049136017 -0.36081615 -0.9461245
000020 48 4d 0e bf f3 27 97 be 69 1d b2 3d 42 19 38 be
       -0.5558667 -0.29522666 0.08697016 -0.17978385
000030 4c f9 19 be de e4 0d bf 97 b1 46 bf f1 f3 8f be
       -0.15036505 -0.5542735 -0.7761473 -0.281158
000040 6a 99 d3 be 7f 03 04 be f6 41 71 be e3 a0 59 bf
       -0.41327983 -0.12891959 -0.23560318 -0.8501112
000050 5d 5c 3e bd 8e 0b 23 bf c0 3f 5c bf 04 65 23 be
       -0.046474803 -0.63689506 -0.86034775 -0.15956503
000060 7b 11 b1 bd 15 53 e7 be a1 b6 b1 be c6 5d ed be
       -0.08645912 -0.45180574 -0.34709647 -0.46360606
000070 2d 84 5b bf b7 6e 11 bf 52 4d a7 be 13 fa 17 bf
       -0.8574856 -0.5680956 -0.32676178 -0.5936596
000080 7c 52 3e be d4 d8 89 be a9 72 51 be 0c 37 8a be
       -0.18586153 -0.2692324 -0.20453896 -0.26995122
000090 7a 72 45 be 63 92 cc be 61 07 9d be 9c ed 99 3d
       -0.1928195 -0.39955434 -0.30669692 0.075160235
0000a0 26 2f 19 bf c2 93 c5 be 9a 4d 5a be fe 5f cf be
       -0.5983757 -0.38589293 -0.21318665 -0.40502924
0000b0 04 9a 70 be 2a 79 26 be 6f be 24 be 0f ba c1 3d
       -0.23496252 -0.16257158 -0.1608827 0.09459316
0000c0 a2 f8 14 be 6e 4f 2c 3d 7a 7f 8d 3d 41 66 8c bf
       -0.14547971 0.042067938 0.0690908 -1.0968705
0000d0 aa 69 8c bf 8a c5 0b bc 79 a3 4e 3c 19 e2 d8 bd
       -1.0969746 -0.008530984 0.012612217 -0.1059
0000e0 f6 12 f7 ba b3 77 83 bc 78 c6 5e be 45 35 0d be
       -0.0018850255 -0.016048288 -0.21755397 -0.13789852
0000f0 bc 38 3c 3e 85 51 63 bd 48 7c 29 3e 41 d5 18 3e
       0.18381017 -0.055497665 0.16551316 0.149251
000100 fd c2 d6 3d 5b 8f e2 be 0b ee ce be d5 d1 95 be
       0.1048641 -0.44249997 -0.40415987 -0.29261652
000110 86 a5 ef 3d cb 1f 50 bf 00 c5 c3 3d fc 04 73 be
       0.11701493 -0.8129851 0.09559059 -0.2373237
000120 5f 31 fb be 67 5a 01 3c 7d 0b 2d be 19 8f 2f 3e
       -0.49061105 0.007895089 -0.16898914 0.17144431
000130 1d e7 0b bd cb b6 1e bd 16 9b c2 be c2 de a1 bb
       -0.034155954 -0.038748544 -0.38008946 -0.004939885
000140 d3 a5 27 3e 27 3d 9d bc f2 3c d4 3d 3c 28 fd be
       0.1637185 -0.019194199 0.10363187 -0.4944476
000150 bd 69 6f 3d 57 f9 73 bd 6c 09 86 bd dc 5e 2b be
       0.05845045 -0.05956396 -0.06544766 -0.16735405
000160 a7 5b e0 be 1c 74 73 be 50 e0 42 be 99 2e 58 3d
       -0.43819925 -0.23774761 -0.19030881 0.052778814
000170 3e 12 32 be b2 2d eb 3d fa 3a ea bd 61 60 2f 3e
       -0.17389771 0.11483325 -0.1143703 0.1712661
000180 bc 33 3f 3e fa b5 0e be 8a 86 3d 3e 70 cd 4a be
       0.18672079 -0.13936606 0.18508354 -0.1980493
000190 1f 86 19 bd af 8e d0 3d 30 6e 04 bf 67 93 17 be
       -0.037481423 0.10183465 -0.5173063 -0.14802323
0001a0 10 fa 39 3d 6d e4 5c bf 04 57 47 bf 0f 6a 6e be
       0.045404494 -0.8628605 -0.7786715 -0.23282646
0001b0 bb c3 05 bf 04 6e 17 bf 17 3c 74 bf c6 5e 46 be
       -0.52251786 -0.59152246 -0.9540419 -0.1937209
0001c0 65 d0 e1 bd 23 e1 69 bf d8 45 0e bf ed ba a6 be
       -0.11026076 -0.91359156 -0.55575323 -0.32564488
0001d0 e2 80 6e be b5 c2 a6 be eb b8 e5 bd 1b 27 79 bc
       -0.23291352 -0.32570425 -0.11216911 -0.015207077
0001e0 7a 2b e7 be 7b 3d 36 be 23 fd 68 bf af 6d c4 be
       -0.45150357 -0.1779689 -0.91011256 -0.38364932
0001f0 c3 a9 b4 bc 42 15 03 bf 76 45 97 be 8f fa ff bc
       -0.022053605 -0.5120431 -0.29545182 -0.031247405
000200 b9 96 a5 3c 9b ad 91 be df 3c 00 3e b3 72 5e 3c
       0.020213472 -0.28452763 0.1252322 0.013577151
000210 7a 46 8c be c0 1e f6 bd d3 c4 5b be 15 13 27 bc
       -0.2739752 -0.12017584 -0.21461801 -0.010197421
000220 a4 f1 ec 3c 2e 62 d3 bc eb 88 a8 3c 48 ab 1d bd
       0.028923817 -0.025803652 0.0205731 -0.038493425
000230 94 2f bb be b5 3f 7b be 98 17 6b be 70 51 ff 3d
       -0.36559737 -0.24536021 -0.22958219 0.12466705
000240 4c 09 53 be af 1c 8a 3e 6c 44 2c 3b f9 1b 3f be
       -0.20609015 0.2697501 0.00262859 -0.18663014
000250 c8 30 a1 be ee 22 c9 bf e4 9c c4 bd 9e 2e 08 be
       -0.3148253 -1.5713785 -0.09600237 -0.13299033
000260 56 58 16 be e0 ee 71 be 1c af 42 be bf ed 0b be
       -0.14682135 -0.2362628 -0.19012111 -0.13664912
000270 06 02 3f bf 56 77 29 be cd b4 53 bf 4a bc 4f bd
       -0.7461246 -0.1654943 -0.82697755 -0.050716676
000280 8c 0c 98 be cf 2d 1b be 40 34 cd bd f0 de b2 be
       -0.29697073 -0.15154193 -0.100197315 -0.34935713
000290 13 e3 0f bc 51 0a 01 bf 63 ac 84 be e0 7e 15 3d
       -0.008782166 -0.50406367 -0.2591277 0.03649795
0002a0 8e 62 b5 bc 58 36 64 bf 65 fb e2 bd d3 9d c3 be
       -0.022141721 -0.8914542 -0.11083106 -0.38206348
0002b0 2b 56 00 bd 6f 49 af 3d 66 7f 8b be 63 9c 53 3e
       -0.031332176 0.08558928 -0.27245635 0.20665126
0002c0 36 56 2e bf 6f 54 fe 3d 79 f9 a5 3d f9 da 96 3e
       -0.681003 0.12418448 0.08104224 0.29463938
0002d0 30 41 66 be 76 c0 a5 be a3 16 78 be cc 9b 3b be
       -0.22485805 -0.323734 -0.24227385 -0.1832115
0002e0 12 fc f7 be 53 ce e4 3d 4d aa 14 3e ca cf 57 bb
       -0.48434502 0.11172166 0.1451809 -0.0032930248
0002f0 73 df 83 be 88 f6 4f 3e cb cd 4d 3d ef 7e 73 bd
       -0.25756416 0.20308888 0.050245088 -0.059447225
000300 01 5f 2c bf e7 8c 48 be ad d6 1e be 06 60 04 3e
       -0.67332464 -0.19585 -0.1551158 0.12927255
000310 ba 00 10 3e 75 6e 57 3e 15 c9 fa 3b 21 d4 d7 3d
       0.14062777 0.2103823 0.0076533654 0.10538507
000320 b8 5c 9f be af 9d 00 3d e4 88 98 be 06 82 7a bd
       -0.31125426 0.03140038 -0.2979194 -0.061159156
000330 f0 97 64 bf 9c 54 9c be bf 02 6c be 5d 50 74 be
       -0.8929434 -0.30533302 -0.23047923 -0.23858781
000340 5f 4e 23 be 2f 07 82 3d 2a ff 5c 3e 2c 1e aa be
       -0.15947865 0.063490264 0.21581712 -0.33226144
000350 8b 4e 79 bf 34 fb 3c 3e 40 25 cc bd da 6c 92 bd
       -0.9738547 0.18455201 -0.099680424 -0.07149668
000360 c4 bc d1 bd f5 cb 01 be fd 82 bd be 32 b5 eb bd
       -0.10241082 -0.1267546 -0.37014 -0.1150917
000370 b7 71 fa be be 00 e9 3d 4f 50 b7 3d 14 7d ad 3d
       -0.48914883 0.11377095 0.089508645 0.084711224
000380 2f fe 69 bf 33 07 82 3d 00 bf 9f bd 3e d5 29 3e
       -0.9140348 0.063490294 -0.07800102 0.16585252
000390 75 1b 34 3b 0b 58 69 bd a5 27 32 be f5 aa 6f bf
       0.0027482186 -0.05696873 -0.17397936 -0.93620235
0003a0 1f 55 9c 3d c0 e1 80 be e2 2e 84 3d a8 74 2e be
       0.07633423 -0.25172234 0.06454255 -0.17036688
0003b0 7c 3d 9c be 1f b5 cb bd b8 eb 59 bd a1 53 0e 3d
       -0.3051566 -0.099466555 -0.053203315 0.034747723
0003c0 aa 1c 96 bc cf 8b bd 3d ba c8 b4 3c 48 c4 18 be
       -0.018324215 0.09255182 0.02206837 -0.14918625
0003d0 06 b2 35 3c f0 b0 18 3e cd bc 38 3e f6 3e 7a bc
       0.011089807 0.14911246 0.18040772 -0.0152738
0003e0 0e 31 0e bf 0c 39 a1 be 53 29 54 bd b2 17 a0 bd
       -0.555436 -0.31488836 -0.051797222 -0.078170195
0003f0 ab 40 24 3e d3 21 3e bf be 5f a5 3d cc 62 21 be
       0.16040294 -0.7427036 0.08074902 -0.15760344

convt2.bias f4 [16]
000000 4b 84 bb 3d cc 32 16 3e 66 4e ea 3c 31 4e a8 3c
       0.09156092 0.14667815 0.028601836 0.020545097
000010 34 f8 a1 3d 24 61 18 3c af 21 be 3d 52 8e 1f be
       0.07908669 0.009300504 0.092837684 -0.15581635
000020 4a 5d 13 3e e8 87 45 3d 9a ab 0c 3c fd f9 10 3e
       0.14391056 0.048225313 0.008585835 0.14157863
000030 9f 8c 14 3d 98 23 c4 3d c6 1c 45 3c 21 46 4a bc
       0.03626692 0.095771015 0.012030786 -0.012345822

convt3.weight f4 [16, 32, 9, 9]
000000 9e 84 23 bd 3d 80 ba bc 52 1a a0 bd f0 81 9d 3d
       -0.039921395 -0.022766227 -0.0781752 0.07690799
000010 27 de 13 3d 9a 76 45 bc c2 c3 02 3e bf 00 32 3d
       0.036100533 -0.012052203 0.12769988 0.043457743
000020 72 ae 93 3d 00 36 bc bd cc a4 cb bc 3b fa 48 3d
       0.07211007 -0.09189987 -0.024858855 0.049066763
000030 ae 1b 8e bc f9 91 43 ba 92 6e ad 3c 4f 58 bc 3c
       -0.017347183 -0.0007460411 0.021170888 0.022991328
000040 a5 14 60 3d 8b 5d 61 3d bf d2 fb 3b f1 0b 87 bc
       0.05470719 0.05502085 0.007685035 -0.016485186
000050 9e 86 00 bd 6b 85 23 bb 13 15 6e bd b9 45 8e 3d
       -0.03137838 -0.002495135 -0.058125567 0.06946892
000060 ec 12 b1 bc df 81 a5 3c b2 ff c3 3c 23 46 ef bc
       -0.021615468 0.020203529 0.023925636 -0.029208248
000070 67 96 2f 3c b5 ca e8 bc 24 35 98 3d b5 d9 a1 bc
       0.010717011 -0.02841697 0.07432011 -0.019757131
000080 a7 97 50 bb af 0f 62 3d 84 2c 4c bd e9 86 06 3e
       -0.0031828673 0.05519074 -0.04984714 0.13137402
000090 33 84 46 bd 95 9b 2c 3d aa 4b 47 3c 73 98 9d 3d
       -0.04846592 0.042140562 0.012164036 0.07695093
0000a0 45 7d 3a 3d 72 a0 82 3d 1c 23 18 3d 6a e7 dd 3c
       0.045529623 0.06378259 0.037142858 0.027087886
0000b0 fb 90 0c 3d 13 5a a1 bc 2e 55 03 bc 34 62 a4 3b
       0.03431795 -0.019696271 -0.008015914 0.0050165895
0000c0 b3 74 94 3c 17 77 f7 bc cc 10 e2 bd 34 de 0c bd
       0.018122053 -0.030208154 -0.1103836 -0.034391597
0000d0 e1 f1 1e 3c 47 ae 0f 3e 27 67 d8 bd ee 80 34 bd
       0.009701223 0.14031325 -0.1056655 -0.04406827
0000e0 a0 c2 8a bd a1 c4 02 3d 5e bd 81 bc 24 43 68 3c
       -0.06775403 0.0319258 -0.015837368 0.014176164
0000f0 b9 bd 93 3d 13 93 d6 3c 69 a4 3e 3d a6 be 22 3c
       0.07213921 0.026193177 0.046543512 0.009933149
000100 f3 70 b5 3c eb 98 15 bd ba b8 54 3d 87 af e4 3c
       0.022148585 -0.036522787 0.05193398 0.02791573
000110 46 9c 32 3c 7b cc b0 3d ce 94 e4 3c 07 34 cb bb
       0.010901516 0.086327516 0.027902987 -0.0062012705
000120 7f 49 4b 3d d4 be 89 3d 00 7f 6f bd 98 62 7c 3c
       0.04963064 0.06725851 -0.058470726 0.015404366
000130 48 6e c8 3d 3e 18 fb 3c 10 88 d6 3d 65 94 d5 3d
       0.097866595 0.030651208 0.104751706 0.10428695
000140 71 00 04 3e fa 9e 27 3a 9c 1d fc 3d 27 17 22 bd
       0.12890793 0.0006394234 0.12310335 -0.03957286
000150 b1 ad a4 bb e0 e6 fd 3d b9 97 3b bd 33 d2 33 3c
       -0.0050255884 0.123975515 -0.04579899 0.010975408
000160 bc b6 03 3e 71 5d fb bc c1 41 a3 3e 44 95 6a 3e
       0.12862676 -0.030684205 0.31886104 0.22908503
000170 69 b7 df 3b 0e 2f b9 3d 78 47 69 3e f7 f3 18 bd
       0.006827284 0.09042178 0.2278117 -0.037342038
000180 34 17 39 3e 66 f9 34 bc 93 82 0e 3b 90 95 0b be
       0.18075258 -0.011045789 0.0021745309 -0.13631272
000190 8d ee 46 bd 32 e8 75 3e c8 41 10 be f4 86 85 bd
       -0.048567344 0.24014357 -0.14087594 -0.06519881
0001a0 dd 90 23 3e 34 3d 89 bd ee 53 83 bd c2 0f 92 3e
       0.1597323 -0.06701127 -0.06412493 0.28527647
0001b0 2b 3e 94 bc 8c b6 88 3e 5f 19 24 bc 0b 9a 58 3a
       -0.01809605 0.26701772 -0.010015815 0.00082627
0001c0 9d 1e 4e 3e 9d 64 1a 3c bc 92 13 bc e1 40 64 3e
       0.20128866 0.009423402 -0.009007152 0.22290374
0001d0 fd 6a 58 bc 30 4c bb 3e 46 a1 9b 3e 75 de 3c bd
       -0.013209102 0.36581564 0.3039648 -0.04611059
0001e0 e1 b0 7a 3e 1e 37 4a 3e 6b 3c 27 bd fe db 80 3e
       0.24481536 0.19747588 -0.040829103 0.2516784
0001f0 9f d1 64 3e 2f 67 bd bc 5c ff 04 be 9e c9 83 bd
       0.22345589 -0.02312049 -0.12988037 -0.0643494
000200 17 2c a8 3e 39 00 a3 bd 6b ea d1 bc 38 d0 5e 3e
       0.32846138 -0.07959027 -0.025624475 0.21759117
000210 51 b1 f9 bd 53 05 00 bd 0c 25 80 3e 80 6b 65 3b
       -0.121920235 -0.031255078 0.25028265 0.0035006702
000220 0a ce 83 3e d9 16 b9 bc a3 c6 81 bc 73 8f 6b 3e
       0.25743133 -0.022593902 -0.015841788 0.2300394
000230 c7 d0 d8 3b 7b ca 22 bd cc a5 25 3e a3 47 8a bc
       0.006616685 -0.03974388 0.16176528 -0.016879862
000240 98 54 f7 3e 36 33 8a 3e c3 8d 00 3c b3 de ab 3e
       0.48306727 0.26992196 0.007846299 0.33568344
000250 b2 ab 5e 3e d2 bb 3e b8 b8 38 a5 3e 18 3c 68 3e
       0.21745184 -4.547445e-05 0.32269835 0.22679174
000260 ec c8 00 bd cd 41 b9 be 5b c7 9f bc 7a 33 ef 3e
       -0.031441614 -0.36183015 -0.01950424 0.4671896
000270 27 57 94 be 6d 43 49 bd 32 45 af 3e 2b 0e 89 be
       -0.28972742 -0.049136568 0.3423248 -0.26768622
000280 52 fc 02 bd 6f 93 7b 3e 83 27 38 3d 9b 0c 36 3d
       -0.031978913 0.2456796 0.044959556 0.044445615
000290 2b eb ff 3c 67 10 0f 3c 05 dd c3 3c d7 e6 10 bc
       0.031240067 0.008731938 0.023909101 -0.008844099
0002a0 cd 98 37 bd 92 b1 7b 3d b7 d0 02 bd 64 ec 9e 3d
       -0.044823457 0.06144864 -0.031937327 0.07759932
0002b0 f7 39 8f 3d 53 fb 2f 3d 14 2f b3 bb e3 b1 7a 3d
       0.06993478 0.04296429 -0.0054682586 0.061204802
0002c0 63 c8 2d 3d 90 7d 11 3d 44 ef be 3d 4e 04 9d 3d
       0.04242743 0.035520136 0.0932298 0.07666837
0002d0 16 8b 91 3d ec e3 48 3d da ba 8d 3d 3b 8a 7f 3d
       0.07106607 0.04904549 0.06920405 0.062387686
0002e0 ad 10 3b 3d a8 f2 5d 3d 04 34 9d bb b1 81 01 bc
       0.0456702 0.054186493 -0.0047974605 -0.007904456
0002f0 5c 60 84 3c 94 49 12 3d 0e 61 fd 3c 71 e8 34 3d
       0.016159229 0.0357147 0.030930068 0.044166986
000300 7f f8 6b 3d bb 51 30 3d 9f 0f 52 3d 3d 57 56 bc
       0.05761003 0.043046694 0.05128443 -0.013082323
000310 93 68 38 39 d5 6a 0e 3b e7 66 c0 3d 50 3d f8 3d
       0.00017586564 0.0021731157 0.09394627 0.121210694
000320 b5 49 58 3c 6e 28 15 bc e9 84 c9 3d 34 a5 67 3d
       0.013201167 -0.0091038775 0.09839804 0.056554034
000330 54 09 b7 bb d1 bf 85 3d 53 a4 c7 3c 1d 88 59 3d
       -0.005585829 0.06530727 0.024370348 0.053108323
000340 b7 73 b0 3c 82 8e 2a 3d d7 1f 4b 3b 98 26 34 3d
       0.021539552 0.041639812 0.003099432 0.04398212
000350 b9 11 17 3d a5 ec 0a 3c 25 d8 1f 3d e0 8f 0e 3d
       0.036882136 0.008479272 0.03902449 0.03480518
000360 4d d0 7a 3d 3b 6b d1 3c 16 88 4e 3d a6 1b 07 3d
       0.061233807 0.025563827 0.05042275 0.032985352
000370 50 3c f2 3c 40 8d 63 3d 32 9a 68 3c 15 55 3b 3c
       0.029569775 0.05555463 0.014196919 0.011433859
000380 f7 8b f4 3c f2 cc c4 3d f4 72 8f 3d 40 a2 9d 3c
       0.029851897 0.09609403 0.070043474 0.019242406
000390 12 cf 19 3d af 66 b0 3d 51 ec 12 3d 19 45 3e 3d
       0.037550993 0.08613335 0.0358699 0.046452615
0003a0 37 90 9b 3d 5b 74 61 3d 6a 84 09 3e 5c 1e 3b 3d
       0.07595866 0.055042606 0.13429418 0.04568325
0003b0 54 de 13 3d 3e ce f7 3c e3 7e 05 3d ea 10 1c 3d
       0.0361007 0.030249711 0.03259171 0.038102068
0003c0 9b 4f 9a 3d 18 59 3f 3d b3 40 f6 3c 59 95 ed 3b
       0.07534715 0.046715826 0.030060148 0.0072504696
0003d0 ad 55 9e 3d ef c8 97 3c f5 7b c0 bb 88 37 5d bd
       0.07731185 0.01852843 -0.005874152 -0.054008037
0003e0 76 bb 92 bc 72 8e 52 bc 5d 85 8d 3d 0a 28 0e bc
       -0.017911654 -0.012851344 0.06910203 -0.008676538
0003f0 89 2f 6e 3d 7c 1b a0 3d 2f cf 82 3d 1f 77 a7 bc
       0.0581508 0.07817742 0.063871734 -0.020442544

convt3.bias f4 [32]
000000 23 51 be 3b 08 b5 27 be fe 1d 43 3e 2a 35 8c 3d
       0.005808012 -0.16377652 0.1905441 0.06846078
000010 f9 09 14 3e 68 87 d6 38 f1 f4 20 3d 22 10 22 3e
       0.1445693 0.000102295366 0.039296094 0.15826467
000020 a1 6e e8 bd 7e b9 0a 3c c0 80 4a 3c 2f 72 23 3e
       -0.11349226 0.008467076 0.012359798 0.15961526
000030 31 16 99 3d 5a 92 63 3e f4 e6 16 be 74 6d 19 3e
       0.07474936 0.22223797 -0.14736539 0.1498316
000040 87 35 29 3d 91 50 0f be de c7 dc 3c 82 87 04 3d
       0.041310813 -0.13995577 0.026950773 0.032355793
000050 02 f7 bb 3b b2 a5 ce 3d db 78 2e 3e 0f 29 d6 3d
       0.0057362327 0.100901976 0.1703829 0.1045705
000060 40 59 bf 3d af 8a fe 3d 30 a5 02 be d7 4c 4d 3c
       0.09343195 0.124287955 -0.12758327 0.012530527
000070 20 5a 5a 3d cb 1b 6e 3d 24 28 dd 3d 1f 51 82 3c
       0.053308606 0.058131974 0.10798672 0.015907822

pos_output.weight f4 [1, 32, 2, 2]
000000 3c bb 4f 3e 00 b3 ce bc b3 fb 18 be e9 d1 f0 bd
       0.20286268 -0.025231838 -0.14939766 -0.11758787
000010 36 c0 43 3c 6b 8a 2b 3d ce f9 9b bc 6e c1 e9 3c
       0.011947682 0.041880053 -0.019040015 0.028534617
000020 c6 6e 24 3e da aa 49 bd e3 73 02 3d 49 e4 1a bd
       0.16057882 -0.049235202 0.0318488 -0.037815366
000030 92 30 5c bd 7b 02 e6 bb 8d cd d4 ba 28 be af bd
       -0.053757258 -0.0070193387 -0.0016235575 -0.08581191
000040 c7 cb a9 3e 9e e7 7b 3e 81 24 24 3e f9 81 52 3e
       0.33163282 0.24600074 0.1602955 0.20557393
000050 2c a7 58 3e da 7a 37 3e e5 90 5c 3e 1f a9 4a 3e
       0.21157521 0.17917958 0.21539648 0.19791077
000060 ec 99 b6 3e a7 e9 41 3e 3a 9b 9e 3e cc d8 4a 3e
       0.35664308 0.18936788 0.30977803 0.19809264
000070 2b cd 0c 3e 20 b6 7c bc 85 71 39 bc e7 f8 53 bd
       0.1375014 -0.015424281 -0.011318569 -0.051751044
000080 19 14 9e 3d da 92 41 3d 98 78 9e 3d 74 d7 01 3e
       0.07718677 0.04725919 0.07737845 0.12679845
000090 38 66 04 bd 10 f7 4c be 91 5c f0 bc 09 79 09 be
       -0.032324046 -0.20016122 -0.029341014 -0.13425077
0000a0 2c 09 f4 3e 8e 31 0b 3f 56 a3 20 3f 81 d7 3c 3f
       0.47663248 0.5437249 0.6274923 0.7376633
0000b0 f8 d5 88 3e ed 62 cc 3e 8e 84 d2 3e ee 0b b4 3e
       0.26725745 0.39919224 0.41116756 0.35165352
0000c0 47 b2 76 3e 0e a4 b2 bd c0 9b 3f bc b3 bc 87 bd
       0.24091445 -0.08722697 -0.011694849 -0.066277884
0000d0 ea c8 11 3e 9b 20 5f be 5a 1d e8 3d 4c de bc 3d
       0.14236799 -0.21789782 0.11333723 0.09222087
0000e0 66 fd 4c bd 12 a7 f4 bc 1b 61 ce 3d 38 82 43 3c
       -0.050046347 -0.029864822 0.10077115 0.011932902
0000f0 e6 02 06 bd 87 6f b7 bd 33 e1 42 3c b6 d3 f0 bd
       -0.032717608 -0.08956819 0.011894512 -0.11759131
000100 b7 e1 93 3e 16 5e 8f 3e 04 7c 8c 3e b4 c4 58 3e
       0.28883144 0.2800147 0.27438366 0.21168786
000110 e2 7a 23 be de 13 2b be 5a 92 2a bd ca e9 08 bd
       -0.15964845 -0.16706797 -0.041643478 -0.033426084
000120 e2 25 30 3f 1a 67 29 3f be f6 07 3f 52 c3 03 3f
       0.68807805 0.66172945 0.53110874 0.5146991
000130 f1 24 d8 3d 94 22 7c bd f2 3a c4 bd 6e 25 7a 3d
       0.10553921 -0.061556414 -0.095815554 0.061070852
000140 e1 10 22 bd 5f 1c 4c 3c 5f f2 03 3e 1e 7e 02 3e
       -0.03956688 0.012457936 0.12885426 0.12743422
000150 49 be 98 be eb 4f 7d be fd 52 a1 be 8e 64 a3 be
       -0.29832676 -0.24737518 -0.31508628 -0.31912655
000160 64 a9 33 be b5 da 0d bd c9 04 fa bd 7a 0e 1e be
       -0.17545086 -0.034632403 -0.12207944 -0.1543521
000170 8a 60 f6 3d ff 13 aa 3d be 0f 6f 3c 95 c3 27 3e
       0.12030132 0.08304595 0.014591156 0.16383202
000180 6b e8 92 3d 20 93 b9 3d 1f fe 00 3e d3 4d 18 3e
       0.071732365 0.09061265 0.1259694 0.14873438
000190 61 23 0b be 50 30 6f 3d cc 3c 9f bd 33 fc ed bd
       -0.13587715 0.058395684 -0.07775268 -0.11620369
0001a0 55 c0 72 3d 5e 9a 06 bd 51 70 82 3d 66 31 39 3b
       0.059265453 -0.03286206 0.06369079 0.0028258204
0001b0 48 28 e2 bd 1c 78 1c be f3 1a 12 be fe 32 15 be
       -0.11042839 -0.15280193 -0.14268093 -0.14570233
0001c0 ae 09 ae 3e f8 4f b9 3e 8e 68 b4 3e cc 11 c9 3e
       0.3399176 0.36193824 0.3523602 0.3927139
0001d0 37 1e 17 be 3e 8e 8e 3a 1f 0e 82 3c cb cb 03 3e
       -0.1475762 0.0010876132 0.015875874 0.1287071
0001e0 28 27 1d 3e e5 67 18 3e 30 a8 6f 3e 2a da 7d 3e
       0.15346968 0.14883383 0.23404002 0.24790254
0001f0 d7 27 f6 bb d8 35 28 3e ac d1 7e 3d 16 38 d7 3d
       -0.0075120735 0.1642679 0.062211677 0.105087444
