ggcnn_base/output/models/221204_2000_training_example/epoch_03_iou_0.48_statedict.pt (torch, 256417 bytes, 16 tensors)

conv1.weight f4 [32, 1, 9, 9]
0	0xbba6e462	-0.0050931433
1	0xbd844f32	-0.06460418
2	0xbb6d21a4	-0.0036183381
3	0xbd7815a6	-0.06056752
4	0xbd8c8aa5	-0.06862382
5	0x3942f444	0.00018592278
6	0xbd0ad29b	-0.033892255
7	0xbd9b53a6	-0.07584314
8	0xbd865361	-0.06558872
9	0xbd1590ef	-0.036515173
10	0xbcbbc1b9	-0.022919523
11	0xbc8445e4	-0.016146608
12	0xbd8d92e4	-0.06912783
13	0xbcb351e1	-0.021889629
14	0xbd77c4db	-0.06049047
15	0xbd5dc9a4	-0.054147378
16	0xbd193274	-0.03740163
17	0x3cad7782	0.02117515
18	0xbc26ee3b	-0.0101886345
19	0xbd48b8bf	-0.049004313
20	0xbc444a2a	-0.011980573
21	0xbd1a2988	-0.037637264
22	0xbd8ef3df	-0.069801085
23	0xbd6f7daf	-0.05846947
24	0xbcba9937	-0.022778137
25	0xbd478a82	-0.048716076
26	0xbd6f7c61	-0.058468226
27	0xbc8e6962	-0.017384235
28	0xbd416821	-0.047218446
29	0xbc411b1a	-0.011786247
30	0xbcc75c0e	-0.024335887
31	0xbd55504d	-0.052078534
32	0x3cdb4177	0.026764615
33	0x3c53fbc0	0.01293844
34	0xbd63aef0	-0.055586755
35	0x3cc74beb	0.024328193
36	0xbcd496d5	-0.025950829
37	0xbd008da4	-0.03138508
38	0xbd3667a0	-0.04453242
39	0xbd039444	-0.03212382
40	0xbd792572	-0.060826726
41	0xbc0aab7a	-0.008463735
42	0x3ca44c86	0.02005602
43	0x3ce6a379	0.028154122
44	0xbd5c548e	-0.053791575
45	0x3c443f0a	0.01197792
46	0x3ce90196	0.028443139
47	0xbd062652	-0.03275139
48	0xbd6504c8	-0.055912763
49	0x3cd10a8e	0.025517728
50	0xbd3156ee	-0.043295793
51	0xbd0ab711	-0.033865992
52	0x3b49b8a2	0.0030780216
53	0x3cfc9a15	0.03083519
54	0xbd3f5030	-0.046707332
55	0xbcae9f5d	-0.021316225
56	0xba0e879a	-0.00054370763
57	0xbcfac72e	-0.030612554
58	0x3d1e2370	0.038608015
59	0x3c4c612d	0.01247434
60	0x3bcf699a	0.0063297274
61	0xbd45b64c	-0.048269555
62	0xbd358993	-0.044320654
63	0x3d16eba4	0.03684582
64	0xbcc4ee7f	-0.024039505
65	0xba34256e	-0.00068720325
66	0xbb7e1fa5	-0.0038776186
67	0x3cb85d9c	0.022505574
68	0x3d137307	0.03599837
69	0xbd2dd818	-0.04244241
70	0x3c1afd05	0.009459739
71	0xbc924269	-0.017853932
72	0x3d0d5d22	0.034512646
73	0x3b32d582	0.0027287905
74	0x3ccb9f13	0.024856126
75	0x3be48efe	0.006975054
76	0xbd25410b	-0.040345233
77	0xbcebe48f	-0.028795509
78	0x3d4df6aa	0.050284065
79	0x3c09e83b	0.008417184
80	0x3ace1640	0.0015723184
81	0xbca6170f	-0.020274667
82	0xbcde4b89	-0.027135627
83	0x3b87c36c	0.004143169
84	0x3d744c99	0.05964336
85	0x3d90023a	0.07031675
86	0x3cb8f738	0.02257882
87	0x3d65f93a	0.056145884
88	0x3db9423a	0.09045835
89	0x3de75d8b	0.11297139
90	0xbd935dee	-0.0719565
91	0xbd496781	-0.049170975
92	0xbcc547c0	-0.024082065
93	0xbca9f095	-0.020744601
94	0x3c47babe	0.012190519
95	0x3d9025d5	0.07038466
96	0x3da3759d	0.07981417
97	0x3e01a87a	0.12661925
98	0x3de3328d	0.11093626
99	0xbdbc212d	-0.09186015
100	0xbd336833	-0.043800544
101	0xbb759816	-0.0037474683
102	0xbd2ae40f	-0.0417214
103	0x3b7d729f	0.0038673056
104	0x3d04b2b8	0.032397002
105	0x3c0faee9	0.008769729
106	0x3d52d15e	0.0514692
107	0x3dd600ca	0.10449369
108	0xbcfcd444	-0.030862935
109	0xbb6c68cc	-0.0036073206
110	0x3c0ee13a	0.00872069
111	0x3d71b617	0.059011545
112	0x3d0a8602	0.033819206
113	0x3d3a2abe	0.04545092
114	0x3d073b1a	0.033015348
115	0x3e03bfc5	0.12866123
116	0x3dfdc199	0.123904414
117	0xbd44e6d8	-0.048071712
118	0x3b8a401c	0.004219068
119	0xbcc476d6	-0.023982447
120	0xbadd8121	-0.0016899445
121	0xbca3ede4	-0.020010896
122	0x3ce49f4a	0.027907986
123	0x3dbf8b67	0.09352761
124	0x3dd45140	0.1036706
125	0x3d4fbad4	0.050715283
126	0xbdcfbf64	-0.10143927
127	0xbd8d7776	-0.06907551
128	0xbd2a6d7e	-0.041608326
129	0xbd140d52	-0.036145516
130	0xbd020aad	-0.031748462
131	0x3c8669b8	0.016407833
132	0x3d9ac3fe	0.07556914
133	0x3dd7119d	0.10501406
134	0x3d9761d2	0.073917046
135	0xbd835bde	-0.06414007
136	0xbd987000	-0.07443237
137	0xbdda9738	-0.10673374
138	0xbd869e2d	-0.065731384
139	0xbd074df0	-0.03303331
140	0x3d175f7d	0.0369563
141	0xbc8713e9	-0.016488986
142	0x3d98b6da	0.07456751
143	0x3daa181b	0.08305379
144	0xbdc8c084	-0.098023444
145	0xbd8f0270	-0.06982887
146	0xbdde2680	-0.10847187
147	0x3baf3856	0.005347292
148	0xbd8179f4	-0.06322089
149	0x3c1bf5a9	0.009519019
150	0x3c69e65e	0.014276115
151	0x3d8e1c39	0.06938977
152	0x3d7b9c90	0.061428607
153	0xbdc790b5	-0.097443976
154	0xbdf941ad	-0.1217073
155	0xbda232dd	-0.07919858
156	0xbcb904d6	-0.022585314
157	0xbc62d609	-0.013844975
158	0x3bc6b7f3	0.006064409
159	0x3d3f7e75	0.04675146
160	0x3d7b96bd	0.061423052
161	0x3dbee58d	0.09321127
162	0xbbc68a26	-0.006058949
163	0xbb9f8811	-0.0048685153
164	0xbc75af16	-0.014995357
165	0xbc3ec2cf	-0.011643126
166	0x3b8f07c1	0.004364938
167	0x3c1eefb9	0.009700709
168	0x3c91db92	0.017804895
169	0x3d3e340a	0.046436347
170	0x3d23ce6b	0.039991777
171	0xbd06bc80	-0.03289461
172	0xbd3031a0	-0.043016076
173	0x3b210ed7	0.0024575496
174	0x3baaf88b	0.005217617
175	0xbd2916ce	-0.041281514
176	0x3cf4d427	0.029886318
177	0x3ce2ef44	0.027701981
178	0xbcd7a55d	-0.026323969
179	0x3d1a7017	0.037704553
180	0x3c8ee657	0.017443819
181	0x3c91afef	0.017784087
182	0xbd02fad4	-0.03197749
183	0x3cca136a	0.02466746
184	0xbc7669da	-0.015039885
185	0xbd2754fd	-0.040852536
186	0xbbdc9a13	-0.0067322343
187	0x3d24e725	0.0402595
188	0xbcc9b354	-0.024621643
189	0xbd009002	-0.031387337
190	0x3b1362f0	0.0022489391
191	0xbc95989e	-0.01826125
192	0xbcbd7b00	-0.02312994
193	0x3d266fa3	0.04063381
194	0x3c3142a9	0.010819116
195	0x3c1e9ccf	0.009680941
196	0xba985c5c	-0.0011624205
197	0x3d27c4a5	0.04095902
198	0x3d15e53d	0.03659557
199	0xbd00d871	-0.031456415
200	0xbbeb265c	-0.0071762037
201	0x3d272d82	0.040814884
202	0x3c8ffead	0.017577494
203	0xbc10298b	-0.008798967
204	0xbd021d6a	-0.031766333
205	0xbc8ce0db	-0.017197063
206	0xbac4d029	-0.001501565
207	0xbd176d58	-0.036969513
208	0xbc5e729f	-0.0135771325
209	0xbc979452	-0.018503342
210	0x3c07917a	0.00827443
211	0xbd4124f2	-0.047154374
212	0x3b844a39	0.0040371683
213	0xbc2352ac	-0.009968441
214	0xbc87d478	-0.016580805
215	0x3bcb54f4	0.0062051956
216	0xbca144f8	-0.019686207
217	0x3c4e06fe	0.012574909
218	0x3b1a2743	0.0023521937
219	0x3cd6079a	0.026126672
220	0x3cd92d7a	0.026510943
221	0xbc91a8d1	-0.017780693
222	0xbc670fd4	-0.014102895
223	0xbd24f710	-0.04027468
224	0x3b36c0f4	0.0027886005
225	0x3c1e2fdd	0.009654966
226	0xbc6ce2e8	-0.014458396
227	0xbd319c8f	-0.043362197
228	0xbb71a7d6	-0.003687372
229	0xbc7603a2	-0.015015515
230	0x3c906a21	0.017628731
231	0x3a7cef9e	0.0009648743
232	0xbcd36746	-0.02580608
233	0xbd28940f	-0.041156825
234	0x3be5c3a9	0.00701185
235	0x3d16afab	0.036788624
236	0x3d266d89	0.040631805
237	0xbbbad900	-0.005702138
238	0xbd23e705	-0.04001524
239	0x3cd63d0e	0.02615216
240	0xbc4e10d8	-0.012577258
241	0xbca85ff0	-0.020553559
242	0xbd05d830	-0.032676876
243	0xbd4aacf5	-0.04948135
244	0xbd3815f6	-0.04494282
245	0xbc69028c	-0.014221799
246	0xbdecff72	-0.1157216
247	0xbde7ae58	-0.1131255
248	0xbde07e88	-0.10961634
249	0xbdbfbcd5	-0.09362189
250	0xbd28a2f8	-0.041171044
251	0xbdede246	-0.11615424
252	0x3c4eb06b	0.0126153035
253	0x3cbb9739	0.022899257
254	0xbcd7cd61	-0.02634305
255	0xbca4778c	-0.020076536

conv1.bias f4 [32]
0	0xbe4034be	-0.1877012
1	0x3dd15f8f	0.102233045
2	0xbddddffe	-0.10833739
3	0xbd48cb3c	-0.049021944
4	0x3d9fe8b2	0.07808055
5	0x3dcc2bbf	0.099692814
6	0xbd4cf60a	-0.05003933
7	0x3de90c43	0.11379292
8	0xbe268ea1	-0.16265346
9	0x3d1031b0	0.035203636
10	0x3deb68e4	0.11494616
11	0xbd90d6a5	-0.0707219
12	0xbe278a1e	-0.16361281
13	0x3d7095ee	0.058736734
14	0x3d57f67a	0.052725293
15	0x3d835246	0.06412177
16	0x3c9884ba	0.018617976
17	0xbdab1f86	-0.08355622
18	0xbe0c15e9	-0.13680233
19	0xbd96e9fe	-0.07368849
20	0xbe20fc07	-0.15721141
21	0x3e27daef	0.1639211
22	0x3d2032d9	0.039110992
23	0xbdcd72a9	-0.10031635
24	0xbe2af7f7	-0.16696154
25	0x3d8a7302	0.06760217
26	0xbcf458f4	-0.029827572
27	0x3cd0cc8d	0.025488162
28	0xbdb8c7eb	-0.09022506
29	0xbdc746a5	-0.09730271
30	0x3db5997f	0.08867168
31	0x3dbac745	0.09120039

conv2.weight f4 [16, 32, 5, 5]
0	0xbde85762	-0.11344792
1	0xbd77b379	-0.060473893
2	0xbb88f771	-0.004179888
3	0xbd1efafd	-0.03881358
4	0xbdd9a566	-0.106272504
5	0xbcb2afdb	-0.02181237
6	0xbd4bde3c	-0.049772486
7	0x3a2aef0b	0.00065206055
8	0xbcd2a10d	-0.02571156
9	0xbdadae97	-0.08480566
10	0xbd7abd04	-0.061215416
11	0xbd9dd882	-0.07707311
12	0xbdb7ae8a	-0.089688376
13	0xbb29b977	-0.00258979
14	0xbce9058e	-0.028445031
15	0x3c061f59	0.008186185
16	0xbafafacf	-0.0019148233
17	0x3d291095	0.04127558
18	0xbd9c4e60	-0.07632136
19	0x3d4474e6	0.047963046
20	0xbd140612	-0.0361386
21	0xbc63563b	-0.013875539
22	0x3d8eefdf	0.069793455
23	0xbb721cac	-0.003694336
24	0xbd2d1103	-0.04225255
25	0xbc22573b	-0.009908493
26	0x3cb3fa2a	0.021969873
27	0x3d3cab72	0.04606194
28	0xbcf5cd61	-0.030005159
29	0xbdac2a82	-0.08406545
30	0x3c8695ea	0.016428906
31	0xbb0576ae	-0.0020364928
32	0x3d3384db	0.043827873
33	0xbd7129f2	-0.058877893
34	0x3c80ac37	0.015707118
35	0x3d994ae4	0.074849874
36	0x3da181b3	0.07886066
37	0x3bcd3e86	0.006263557
38	0xbd041652	-0.03224785
39	0xbd8035f8	-0.06260294
40	0x3ceb494e	0.028721478
41	0x3cca208a	0.024673719
42	0xbcd8fc03	-0.026487356
43	0x3d28c2da	0.04120145
44	0xbd338c75	-0.043835122
45	0x3d724ab3	0.05915327
46	0x3d47ce10	0.0487805
47	0xbb3ff838	-0.0029292237
48	0x3d052a7f	0.03251123
49	0xbd7b7c6e	-0.061397962
50	0x3c9023ff	0.01759529
51	0x3d86cdd9	0.06582231
52	0x3d3a744a	0.04552106
53	0x3c263642	0.010144772
54	0xbcb42e66	-0.02199478
55	0xbd0a9979	-0.03383777
56	0xbd181425	-0.037128586
57	0x3c1735f6	0.009229174
58	0x3d82ed37	0.063929014
59	0xbd0b66fc	-0.03403376
60	0x3cbd42d6	0.023103159
61	0xb9a2862a	-0.00030999008
62	0x3c91b939	0.017788516
63	0xbd16505d	-0.036697734
64	0x3c7fbff9	0.015609735
65	0x3ceecd54	0.029150642
66	0x3ca01ff4	0.019546486
67	0xbcfdb7ab	-0.030971369
68	0x3cbcd0cc	0.02304878
69	0xbc47e32a	-0.012200156
70	0x3cc5fc52	0.024168167
71	0xbc2b88ed	-0.010469657
72	0x39df021b	0.00042535443
73	0x3d3a6ef4	0.04551597
74	0x3d58e5b0	0.052953422
75	0xbcdac747	-0.026706351
76	0x3c988253	0.01861683
77	0x3b397d09	0.0028303287
78	0xbd7de8e6	-0.061989687
79	0xbcaac9d0	-0.020848185
80	0xbc5aeb0b	-0.013361703
81	0xbd2c9cb9	-0.04214165
82	0xbd870475	-0.06592647
83	0x3c0b92e4	0.008518908
84	0x3d83edfd	0.06441877
85	0xbdcf048b	-0.101082884
86	0xbdb8b6f8	-0.090192735
87	0xbd25b439	-0.040455077
88	0xbd81ece4	-0.063440114
89	0xbcd9a5fc	-0.026568405
90	0x3d30daa8	0.043177277
91	0x3cd30fa5	0.025764296
92	0x3cc4c0e6	0.024017762
93	0x3cb87ce6	0.022520494
94	0x3de6ce56	0.11269824
95	0xbd03e660	-0.032202125
96	0x3cc37250	0.02385822
97	0x3cdc4a1f	0.026890812
98	0x3db36a31	0.08760489
99	0x3ded690c	0.11592302
100	0xbd024ee6	-0.031813525
101	0xbd06c004	-0.032897964
102	0x3d426c89	0.04746679
103	0xbba2b727	-0.004965681
104	0xbd993558	-0.07480878
105	0x3d3b4f0d	0.045729686
106	0x3d384f02	0.044997223
107	0x3cdeb296	0.027184766
108	0x3d86996c	0.06572232
109	0x3d4205dc	0.04736887
110	0x3d1d144e	0.038349442
111	0x3c31241a	0.01081183
112	0x3d344d45	0.044019002
113	0x3d44b2b8	0.048022002
114	0x3d24e803	0.040260326
115	0x3d0a21f8	0.0337238
116	0x3dd583c4	0.10425523
117	0x3ce91691	0.028453143
118	0x3bfcb80c	0.00771237
119	0x3c96ea5f	0.018422304
120	0x3d948bec	0.072532505
121	0x3dba4872	0.09095849
122	0x3d260539	0.040532324
123	0x3dd8a037	0.105774336
124	0x3dbef0ec	0.09323296
125	0x3c887ffc	0.01666259
126	0xbd19bb8b	-0.03753237
127	0x3d88bbee	0.0667647
128	0xbd0cde35	-0.0343916
129	0x3c360e67	0.011111832
130	0x3d570df9	0.05250356
131	0xbd844d5d	-0.064600684
132	0x3d9c7eeb	0.07641395
133	0x3cb66abd	0.022267694
134	0x3d159c20	0.036525846
135	0xbd4c7e85	-0.049925346
136	0x3d2ba5c8	0.04190615
137	0x3d4c9ec8	0.049956113
138	0x3c44b3c8	0.012005754
139	0x3d25e9f4	0.04050632
140	0xbdb086db	-0.08619472
141	0xbdc66186	-0.0968657
142	0xbd8388c0	-0.06422567
143	0xbda5bb50	-0.08092368
144	0x3c4e6efb	0.012599702
145	0xbdb2d43a	-0.08731885
146	0x3bd5c2d5	0.00652347
147	0xbd506600	-0.050878525
148	0x3c7835ea	0.015149573
149	0xbd4e8295	-0.0504175
150	0x3ca05055	0.019569555
151	0x3c6515ed	0.013982278
152	0xbdb5a033	-0.08868446
153	0x3d378848	0.044807702
154	0xbd1c8c85	-0.038219947
155	0xbdce12bc	-0.10062167
156	0x3b47e85c	0.0030503487
157	0xbd76748f	-0.060169753
158	0x3c1c655c	0.00954565
159	0xbbc57a73	-0.00602656
160	0x3cf66d40	0.030081391
161	0xbdb6f0dc	-0.08932659
162	0xbc40ca72	-0.011767017
163	0x3cdd3ab7	0.027005536
164	0x3db8a8c6	0.09016566
165	0x3a994275	0.0011692779
166	0x3cae39f3	0.021267867
167	0x3d5cd5df	0.0539149
168	0x3da87243	0.08224919
169	0x3d8009ea	0.06251891
170	0x3d13dbb5	0.0360982
171	0xbc1e493b	-0.009661014
172	0x3dca2909	0.09871108
173	0x3db2d330	0.08731687
174	0x3dc47a0e	0.095935926
175	0xbd45f999	-0.048333738
176	0xbd1db8cb	-0.03850631
177	0xbce0b133	-0.027428245
178	0xbd3aa130	-0.045563877
179	0x3cde249b	0.027117064
180	0xbd1fd513	-0.039021563
181	0xbd1df73f	-0.03856587
182	0x3c1c59a9	0.009542861
183	0xbd8d677e	-0.06904505
184	0xbb18d469	-0.0023319966
185	0xbd4d7764	-0.050162688
186	0xbcd6e8a9	-0.026233988
187	0x3d47d3f0	0.048786104
188	0x3c0e2d3a	0.008677775
189	0x3c6350ea	0.013874272
190	0xbc0a169a	-0.00842824
191	0xbd7041f1	-0.058656637
192	0x3caebe7e	0.021331068
193	0xbcc8f029	-0.02452858
194	0xbd7a3ed6	-0.06109508
195	0xbd0ed2d3	-0.034869026
196	0xbd30cf7f	-0.043166634
197	0xbd549013	-0.051895212
198	0x3aa8d6bf	0.0012881382
199	0x3ca99404	0.020700462
200	0xbd678d0b	-0.056530993
201	0xbd4d91fc	-0.05018805
202	0xbd3ccf7b	-0.046096306
203	0xbc8e79a5	-0.017391989
204	0x3b2fb637	0.002681149
205	0x3d09eb5a	0.033671714
206	0xb9b3484b	-0.00034195403
207	0xbddeda1f	-0.10881447
208	0xbdb5604f	-0.0885626
209	0x3bfe547b	0.0077615357
210	0xbe020f8d	-0.12701245
211	0xbd26bbe4	-0.04070653
212	0xbd43dfec	-0.04782097
213	0xbd99bd86	-0.07506852
214	0xbd5dbf9b	-0.054137807
215	0xbd634a1e	-0.055490606
216	0xbdf6ffbe	-0.12060498
217	0xbd511f02	-0.051054962
218	0xbdca1a07	-0.098682456
219	0xbdf5ba1a	-0.11998387
220	0xbd98eaaa	-0.074666336
221	0xbd86b864	-0.065781385
222	0xbddbda53	-0.107350014
223	0xbd5201b6	-0.051271163
224	0xbd8f95d6	-0.07011001
225	0xbcddc7a4	-0.027072735
226	0x3d70fb8b	0.05883364
227	0x3ccaafe7	0.02474208
228	0xbd76bb03	-0.060236942
229	0x3d1af308	0.03782943
230	0x3d3b9401	0.045795444
231	0x3d4d48aa	0.050118126
232	0x3c7db17f	0.015484213
233	0x3c7e76f3	0.015531289
234	0x3d204b5f	0.03913438
235	0xbc9e5833	-0.019329166
236	0x3c9767da	0.018482137
237	0x3d160a22	0.036630757
238	0xbbb613de	-0.0055565676
239	0x3d988b57	0.07448452
240	0x3da2779a	0.079329684
241	0x3d969dc9	0.07354314
242	0x3b0a0c7d	0.0021064573
243	0x3b34395d	0.0027500011
244	0xbd7494e7	-0.059712317
245	0x3dabd46c	0.08390126
246	0xbc353831	-0.01106076
247	0xbce1cca3	-0.027563399
248	0xbd79ee9c	-0.06101857
249	0xbcf7b291	-0.030236514
250	0x3dc59017	0.096466236
251	0x3dcca8d9	0.09993143
252	0x3dc15ab0	0.094411254
253	0x3ceb1b83	0.028699642
254	0x3dd6717c	0.10470864
255	0x3d664f7d	0.05622815

conv2.bias f4 [16]
0	0x3d1c6e01	0.038190845
1	0x3d697c36	0.057003222
2	0xbcf5f6fa	-0.030024994
3	0xbd446a15	-0.04795273
4	0xbc8f7e11	-0.017516168
5	0x3c4ff4d1	0.012692646
6	0x3c41b898	0.011823796
7	0x3d9e158a	0.07718952
8	0x3d58327d	0.052782524
9	0xbd1312bd	-0.035906542
10	0x3d28384d	0.041069318
11	0xbd553be9	-0.052059088
12	0xbd7b45ed	-0.061345983
13	0x3c7c5f98	0.015403651
14	0x3d5faf71	0.054610673
15	0xbbbeccd9	-0.0058227596

conv3.weight f4 [8, 16, 3, 3]
0	0xbe01ad93	-0.1266387
1	0x3db91eff	0.09039115
2	0xbd8d7b3b	-0.0690827
3	0x3dc24c51	0.094872124
4	0x3e12c182	0.1433163
5	0x3d87afba	0.06625314
6	0x3d51904f	0.051163014
7	0xbd29cc11	-0.04145438
8	0x3e0d7dd4	0.13817531
9	0xbe8981c2	-0.2685681
10	0xbcc33b28	-0.023831919
11	0xbdcde6c1	-0.100537784
12	0xbe60df8f	-0.21960281
13	0x3def9004	0.11697391
14	0xbd9a5a14	-0.07536712
15	0xbdd0e717	-0.10200327
16	0x3db409e3	0.08790948
17	0x3e54e1e3	0.20789294
18	0x3e0712d8	0.13190782
19	0xbda5a29a	-0.080876544
20	0x3d4ce71b	0.050025087
21	0xbe108ded	-0.1411664
22	0x3d6c5459	0.057697628
23	0xbc89707b	-0.016777268
24	0xbd88c3b8	-0.066779554
25	0x3d1bf972	0.038079686
26	0xbd575115	-0.05256756
27	0x3dfdae5e	0.123867735
28	0xbe0cd051	-0.13751341
29	0xbe1d6f8e	-0.15374586
30	0x3dab4efd	0.08364675
31	0xbd6d10c1	-0.057877306
32	0x3dc761b5	0.09735433
33	0xbe17dedb	-0.14831106
34	0xbc3850b0	-0.011249706
35	0xbc603495	-0.0136844115
36	0x3e236891	0.15957858
37	0x3e1b54d1	0.15169074
38	0x3dc05746	0.09391646
39	0x3cb60e9f	0.022223769
40	0x3e2c8035	0.16845782
41	0xbb2369b9	-0.0024934842
42	0x3d93bb0f	0.07213413
43	0xbded26f1	-0.11579693
44	0xbde7b628	-0.113140404
45	0xbdf7b9e0	-0.12096
46	0xbe254078	-0.16137874
47	0xbe03b4d7	-0.12861954
48	0xbcb1b468	-0.02169247
49	0x3dac4d1c	0.08413145
50	0xbd35c207	-0.044374492
51	0x3de99521	0.11405397
52	0xbdfb1ce9	-0.122613735
53	0x3cf8d4ec	0.030374967
54	0xbe19f6bd	-0.1503553
55	0x3dc3d6c4	0.09562448
56	0xbda7f5f7	-0.08201211
57	0x3c3f5b99	0.011679553
58	0x3d93d487	0.07218271
59	0x3e0d72ed	0.13813372
60	0xbd4f2f5f	-0.050582286
61	0xbd191642	-0.037374742
62	0x3dfb97ca	0.12284811
63	0xbc0fd564	-0.008778904
64	0x3d7a060f	0.061040934
65	0xbd8482ce	-0.064702615
66	0x3e0bec02	0.13664249
67	0x3d5ecb5f	0.05439317
68	0x3db86e98	0.09005469
69	0x3e3f4a5c	0.1868071
70	0x3e5409d6	0.20706877
71	0x3dad6485	0.08466438
72	0xbe3d03da	-0.184585
73	0xbe7868d9	-0.24258746
74	0xbcf7acf4	-0.030233838
75	0x3ccb7ecd	0.024840737
76	0xb9a6dfdf	-0.00031828784
77	0x3d8698f6	0.06572144
78	0x3da60830	0.081070304
79	0x3de70aa1	0.11281324
80	0x3deb9f42	0.115049854
81	0xbe15c90b	-0.14627473
82	0x3d8a1a4c	0.06743297
83	0xbde9824f	-0.114018075
84	0xbcd63d08	-0.026152149
85	0x3d6bb2b2	0.057543464
86	0x3e0bc9da	0.13651219
87	0xbd1d0713	-0.038336825
88	0xbdd8a7f5	-0.1057891
89	0xbe0f57a2	-0.13998273
90	0xbd9209ea	-0.07130797
91	0x3dd6c2d4	0.10486379
92	0x3e259d56	0.161733
93	0x3d2bc415	0.041935045
94	0xbe0883b2	-0.13331488
95	0x3e2e4bd3	0.17021112
96	0xbe5761b9	-0.21033372
97	0x3dbe2012	0.09283461
98	0xbdaab93b	-0.08336111
99	0x3e45601f	0.19274949
100	0xbd8d6e49	-0.06905801
101	0x3e3a7e12	0.18212155
102	0x3e29a2de	0.16566035
103	0x3cd3217b	0.0257728
104	0xbd442dee	-0.047895364
105	0xbe06253a	-0.13100138
106	0x3d91ebde	0.07125066
107	0xbdbd39d3	-0.09239545
108	0xbd86945d	-0.06571267
109	0x3d74c599	0.059758756
110	0xbd8e4e98	-0.06948584
111	0xbc040926	-0.008058822
112	0xbda0f2fe	-0.07858847
113	0x3dd90c4c	0.105980486
114	0x3df53483	0.119729064
115	0x3d5db6fb	0.054129582
116	0x3c8bf7aa	0.017085869
117	0x3e1cc9f4	0.15311414
118	0x3da36e33	0.07980003
119	0xbdeddc9b	-0.11614343
120	0xbd4d8f87	-0.050185706
121	0x3ded3468	0.11582261
122	0x3d3806b5	0.04492827
123	0xbd35e303	-0.04440595
124	0xbdb790f5	-0.08963195
125	0xbd4f949e	-0.05067884
126	0x3dbed2b8	0.09317535
127	0x3d6ba291	0.057528082
128	0x3dde8e2f	0.10866963
129	0x3dda02eb	0.10645088
130	0xbd982ffb	-0.074310265
131	0x3d981347	0.07425552
132	0xbc29fe2f	-0.0103755435
133	0xbe1ec0b8	-0.15503204
134	0x3d470426	0.04858794
135	0xbe2486ed	-0.16067095
136	0x3cfc909c	0.030830674
137	0x3d83cbe7	0.06435376
138	0x3e0a7ec6	0.13524923
139	0x3d4a4270	0.049379766
140	0xbe405d61	-0.18785621
141	0x3c69269f	0.014230399
142	0x3e30cafa	0.1726493
143	0x3e1deae7	0.1542164
144	0xbdfbcb3a	-0.12294622
145	0xbe19946e	-0.14998028
146	0x3c73e7a9	0.014886775
147	0xbb9c2a24	-0.0047657657
148	0xbd8abe4a	-0.06774576
149	0x3d256e2e	0.04038828
150	0x3e30b1b8	0.17255294
151	0x3dff2e66	0.12460022
152	0xbe040bb5	-0.12895091
153	0xbc880d9a	-0.016608048
154	0xbcf9b37a	-0.030481089
155	0x3dca3894	0.09874073
156	0x3cf22481	0.029558422
157	0xbe676794	-0.22598106
158	0x3d14c0eb	0.036316793
159	0x3c7cd830	0.0154324025
160	0xbe0fc27b	-0.14039032
161	0x3ca7b3f2	0.020471547
162	0xbcfe28c8	-0.031025305
163	0x3db8b76d	0.09019361
164	0xbe138da1	-0.14409496
165	0xbe2531cf	-0.16132282
166	0x3c4606a7	0.012086547
167	0x3ce84f12	0.028358016
168	0x3d8d85c4	0.069102794
169	0xbc4c19b6	-0.012457302
170	0xbddb19bc	-0.10698268
171	0xbc8f1cb2	-0.017469738
172	0x3d35dffb	0.044403058
173	0x3c775516	0.01509597
174	0xbd76700a	-0.060165443
175	0xbe1c1c48	-0.15245163
176	0xbd233a96	-0.039850794
177	0xbe0b6104	-0.13611227
178	0xbcf002d7	-0.02929823
179	0x3dc79960	0.09746051
180	0x3df8f4bd	0.12156055
181	0x3de31c97	0.110894375
182	0x3dfd77d5	0.12376372
183	0xbde4f751	-0.11179984
184	0xbe1ebb6c	-0.15501183
185	0xbdbe0572	-0.09278382
186	0xbe2cc38d	-0.16871472
187	0xbdd4e7c6	-0.1039577
188	0x3d1698d8	0.036766857
189	0x3e188e19	0.14897956
190	0xbe199c47	-0.15001021
191	0xbe0ed5d6	-0.1394876
192	0x3d76aefc	0.06022547
193	0x3e05fcc5	0.13084705
194	0xbd5d1c5b	-0.05398212
195	0xbdcb213c	-0.09918448
196	0xbcd198eb	-0.025585612
197	0x3dddb3ec	0.10825333
198	0xbd1893b0	-0.03725022
199	0xbe2e79b4	-0.17038614
200	0x3de09c27	0.10967284
201	0x3d94c051	0.07263244
202	0xbc328ac8	-0.010897346
203	0xbb99e92e	-0.0046969866
204	0xbe126680	-0.14296913
205	0x3e147129	0.14496292
206	0xbe12d207	-0.14337932
207	0x3dec8330	0.115484595
208	0x3cd5c272	0.026093695
209	0xbbf8e417	-0.00759555
210	0xbe01c466	-0.12672576
211	0xbd1e7c9c	-0.038693056
212	0xbdb448c3	-0.08802941
213	0xbdd2d253	-0.102940224
214	0xbdbd53a1	-0.092444666
215	0xbe0386e6	-0.12844428
216	0xbd0afd6e	-0.033933096
217	0x3d9986a5	0.074963845
218	0x3d998562	0.07496144
219	0xbda64767	-0.08119088
220	0x3da84906	0.08217053
221	0xbdabbb0c	-0.08385286
222	0xbd1aaa03	-0.037759792
223	0x3e373d18	0.17894399
224	0x3ddc194f	0.10747015
225	0xbdb5b69e	-0.08872722
226	0x3e113cb2	0.1418331
227	0xbd90d76a	-0.07072337
228	0xbca636c8	-0.020289794
229	0x3d527414	0.051380232
230	0xbc8fce55	-0.017554441
231	0x3de68796	0.1125633
232	0x3de4f335	0.111792006
233	0xbd752fdb	-0.05986009
234	0x3bfde7ab	0.0077485642
235	0xbdf189be	-0.1179385
236	0xbe133660	-0.14376211
237	0x3e39a8bf	0.18130778
238	0x3c0bf8f2	0.00854324
239	0xbdc242ef	-0.09485423
240	0x3e422c17	0.18962131
241	0x3d683f8e	0.056701235
242	0xbc906ef1	-0.017631026
243	0x3cead354	0.028665222
244	0xbc261dcc	-0.01013894
245	0xbd83dd17	-0.06438654
246	0x3df46a77	0.11934369
247	0x3ddd480d	0.10804758
248	0xbd7c9205	-0.061662693
249	0x3dcba31c	0.0994322
250	0x3a2a9f9a	0.0006508768
251	0xbe4760de	-0.19470546
252	0x3dd385e5	0.10328273
253	0xbe04ee27	-0.12981473
254	0x3d874998	0.06605834
255	0x3dd6c210	0.10486233

conv3.bias f4 [8]
0	0xba809413	-0.0009809755
1	0xbdc7b206	-0.09750752
2	0xbcbe75ef	-0.023249594
3	0x3d8cb59b	0.06870576
4	0x3df91ef3	0.12164106
5	0x3d36e65a	0.044653274
6	0x3d9decbc	0.07711169
7	0x3d720efe	0.05909633

convt1.weight f4 [8, 8, 3, 3]
0	0xbc0eed5a	-0.008723581
1	0x3e3515b1	0.17684056
2	0x3dfcbd33	0.123407744
3	0xbd0377d1	-0.032096688
4	0xbe288186	-0.1645566
5	0x3d260a89	0.04053739
6	0x3db5443c	0.08850905
7	0xbb7b4bd5	-0.003834476
8	0x3e09a100	0.13440323
9	0xbe89c588	-0.26908517
10	0xbe2fe750	-0.17178082
11	0xbe086d68	-0.13322985
12	0xbe92de4a	-0.28685218
13	0xbda96773	-0.082716845
14	0x3c0988d3	0.008394438
15	0x3dbb98a9	0.09159977
16	0xbd8375b9	-0.06418938
17	0xbd5e9dc8	-0.05434969
18	0xbe16b926	-0.14719066
19	0xbdb24cc3	-0.087060474
20	0xbc89b1a3	-0.016808337
21	0xbc878933	-0.016544914
22	0x3d8ece2a	0.069729164
23	0x3ca9020f	0.020630864
24	0x3e45ba6a	0.19309393
25	0x3e273d47	0.16331969
26	0x3e2bebf9	0.16789235
27	0xbcf324d7	-0.029680653
28	0x3e05e4af	0.13075517
29	0xbd3c91cf	-0.04603749
30	0xbe295c80	-0.16539192
31	0x3e0e9ba0	0.13926554
32	0xbe8d5954	-0.27607214
33	0xbdd787bc	-0.10523936
34	0xbe43bdd9	-0.1911539
35	0x3e011bdc	0.12608284
36	0x3e19b25b	0.15009443
37	0xbda57b81	-0.08080197
38	0x3e7485ba	0.23879138
39	0x3d7f093b	0.062264662
40	0xbe3ec1ca	-0.18628612
41	0x3dac8204	0.08423236
42	0x3da5e5ac	0.08100447
43	0x3dc9f5d4	0.09861341
44	0x3e3151a6	0.17316303
45	0x3dcedfa2	0.10101248
46	0x3e4083ab	0.18800227
47	0x3d9337ee	0.07188402
48	0xbe2b5c57	-0.16734444
49	0x3dda32ec	0.10654244
50	0xbe4f339f	-0.20234536
51	0xbddeb5b4	-0.10874501
52	0xbe0333cd	-0.12812729
53	0xbe226416	-0.15858492
54	0x3d624c95	0.055248816
55	0xbb883e49	-0.0041578156
56	0x3e3fac44	0.18718058
57	0xbd713d3b	-0.058896285
58	0x3e4aabc7	0.1979209
59	0xbde4d408	-0.11173254
60	0x3deebd98	0.11657256
61	0x3ce72eb1	0.028220506
62	0xbd714843	-0.058906805
63	0x3d662fb4	0.056197837
64	0x3e87a182	0.26490408
65	0x3d80ad24	0.06283024
66	0x3e22b014	0.15887481
67	0x3dfc5d97	0.12322538
68	0x3dd68a3a	0.104755834
69	0x3d920ad5	0.07130972
70	0x3d275ed2	0.040861912
71	0xbe7d279c	-0.24722141
72	0x3e25b3b8	0.16181839
73	0xbd770ca3	-0.060314786
74	0xbddbf6df	-0.10740446
75	0xbd9c9788	-0.0764609
76	0x3dee3378	0.11630911
77	0xbdfc0a94	-0.12306705
78	0xbe13be1a	-0.14427987
79	0xbdd6bf47	-0.10485702
80	0xbe58d60e	-0.21175405
81	0xbdac8173	-0.08423128
82	0xbe91d871	-0.28485444
83	0xbd7d6d62	-0.061871894
84	0x3d396c50	0.04526931
85	0x3e011254	0.12604648
86	0x3e20fc1a	0.15721169
87	0x3df3aab8	0.118977964
88	0x3e1499b1	0.14511754
89	0xbce944cd	-0.02847519
90	0x3e40b7df	0.18820141
91	0x3b750a43	0.003739015
92	0xbe49a541	-0.19691946
93	0xbde87670	-0.11350715
94	0xbe7a0965	-0.24417646
95	0x3e2db040	0.16961765
96	0x3c8155f0	0.015788049
97	0xbd9e231f	-0.077215426
98	0x3e730f90	0.23736405
99	0xbe534271	-0.20630814
100	0x3d064685	0.032782096
101	0x3d108f6f	0.03529304
102	0x3e176a17	0.14786564
103	0xbd323973	-0.04351182
104	0x3cdbdb8b	0.026838085
105	0xbdcf0f02	-0.101102844
106	0xbd99da8a	-0.07512386
107	0xbe510f76	-0.20416054
108	0xbd2d05af	-0.04224175
109	0x3e258d30	0.1616714
110	0x3e06664d	0.13124962
111	0x3dee3459	0.11631078
112	0xbe1cdd2b	-0.15318744
113	0x3dc4b6c3	0.096051715
114	0xbc2f8cc8	-0.010714717
115	0x3e0cb9b5	0.13742717
116	0x3dc1a70c	0.0945569
117	0xbe1be4ec	-0.15224046
118	0x3dff360a	0.12461479
119	0xbc3cc9c6	-0.011522716
120	0xbf0b0039	-0.54297215
121	0xba1316bb	-0.0005610992
122	0xbd0df731	-0.03465957
123	0xbeb15275	-0.34633222
124	0xbd94a059	-0.072571464
125	0xbdd7d923	-0.105394624
126	0x3dd180de	0.102296576
127	0xbb83eea7	-0.0040262523
128	0x3d77c743	0.060492765
129	0x3da73e59	0.08166189
130	0xbea22b62	-0.31673723
131	0xbceca061	-0.028885068
132	0x3ddfaa85	0.10921196
133	0xbd5d0aa6	-0.053965233
134	0xbe03a876	-0.12857231
135	0xbe3432f2	-0.17597559
136	0xbd2a0d04	-0.04151632
137	0xbe6ed446	-0.23323163
138	0xbe588737	-0.2114533
139	0x3e50adf7	0.20378862
140	0xbcabc0a9	-0.020965891
141	0xbe27c31b	-0.1638302
142	0xbd136685	-0.035986442
143	0xbd360d25	-0.04444613
144	0xbdf55353	-0.119787835
145	0xbe14a00c	-0.14514178
146	0xbdf11249	-0.11771066
147	0x3dd1078b	0.10206517
148	0x3e0d1453	0.13777284
149	0xbe1be611	-0.15224482
150	0xbde1f0f6	-0.11032288
151	0x3e26d0c7	0.1629058
152	0xbb4cd8bf	-0.003125712
153	0xbbd3900c	-0.0064563807
154	0x3dfb36cb	0.1226631
155	0x3e1faa5e	0.15592334
156	0x3e2284d1	0.15870978
157	0xbe39d8d5	-0.18149121
158	0x3e00c79d	0.12576146
159	0xbdc08698	-0.09400672
160	0xbde1c1b9	-0.11023278
161	0xbcf094b2	-0.029367778
162	0xbd7744e0	-0.06036842
163	0xbdae7893	-0.085190915
164	0x3e25ef0c	0.1620447
165	0xbd58e14e	-0.052949242
166	0x3e315c7d	0.17320438
167	0xbda949b1	-0.08266009
168	0x3e32af67	0.17449723
169	0x3d82b7c7	0.06382709
170	0xbddcf72b	-0.10789331
171	0xbdf4e86d	-0.11958394
172	0x3dc1e6dd	0.09467862
173	0xbe50b958	-0.20383203
174	0xbdcaf786	-0.099104926
175	0xbe42c808	-0.19021618
176	0x3d8ba6e7	0.068189435
177	0x3e065ee3	0.13122134
178	0xbe13a586	-0.14418611
179	0xbdb575fb	-0.088603936
180	0x3df675a4	0.12034157
181	0x3b8b04a3	0.004242496
182	0x3dc839bb	0.09776636
183	0xbae019b2	-0.0017097502
184	0xbdebbd68	-0.11510736
185	0xbd5c7aee	-0.053828172
186	0x3dfdd826	0.12394743
187	0x3db41179	0.08792395
188	0xbcb8f9eb	-0.022580108
189	0x3db41f28	0.08795005
190	0x3db17828	0.08665496
191	0x3e187b4b	0.14890783
192	0xbdc83298	-0.09775275
193	0xbd6b84ee	-0.05749982
194	0xbc83e994	-0.01610259
195	0x3e09f3ff	0.13471983
196	0xbe118581	-0.14211084
197	0xbb4c77de	-0.0031199376
198	0xbde2a579	-0.11066718
199	0xbdde18cf	-0.108445756
200	0xbd90946b	-0.070595585
201	0x3e278434	0.16359025
202	0x3d59b041	0.053146604
203	0xbb50e7a9	-0.0031876361
204	0x3dec3740	0.115339756
205	0xbd7d2ce0	-0.061810374
206	0x3e2e3d5b	0.17015593
207	0x3db00bc0	0.08595991
208	0x3c6fa762	0.0146273095
209	0xbcbcd558	-0.023050949
210	0x3d6b91d2	0.057512112
211	0x3e52a851	0.2057202
212	0xbe34e02f	-0.17663644
213	0xbe05cc82	-0.13066295
214	0xbdeadf09	-0.11468322
215	0xbdfcf80c	-0.12351999
216	0x3e53b80b	0.20675676
217	0xbe64a2a9	-0.22327675
218	0xbcb2b8ca	-0.02181663
219	0xbe897fcf	-0.26855323
220	0xbece1126	-0.40247458
221	0xbe5c5792	-0.2151778
222	0x3e806f72	0.25085026
223	0xbe37b55b	-0.17940275
224	0xbdaf2bba	-0.08553262
225	0xbde63c41	-0.11241961
226	0xbe07da8d	-0.13266964
227	0x3ad7c179	0.0016460858
228	0x3d697460	0.05699575
229	0xbcefa09c	-0.02925139
230	0x3df6e257	0.1205489
231	0xbdbf73da	-0.09348269
232	0x3d0a9c91	0.03384072
233	0x3de008b8	0.10939163
234	0x3d0d45f8	0.034490556
235	0x3e3928b6	0.18081936
236	0xbd0e2ae2	-0.034708865
237	0x3dd6b32a	0.104833916
238	0x3c093888	0.0083752945
239	0xbe453659	-0.19259013
240	0x3d9a9340	0.07547617
241	0xbce2a2ba	-0.027665485
242	0x3e1ea6c3	0.15493302
243	0xbd9a2601	-0.0752678
244	0x3d960452	0.07325043
245	0xbd4e75af	-0.0504052
246	0xbeb320bd	-0.34985915
247	0x3d9a0f8d	0.07522497
248	0xbe49fb62	-0.19724801
249	0x3d58a73b	0.05289386
250	0x3ce72480	0.028215647
251	0x3db996eb	0.090619884
252	0x3beecc0f	0.0072875093
253	0x3d2215b4	0.03957148
254	0x3e49f8c7	0.19723807
255	0xbdddcd48	-0.1083017

convt1.bias f4 [8]
0	0x3c16060b	0.009156714
1	0x3df0dae4	0.117605
2	0xbb823503	-0.0039736046
3	0x3d3d6402	0.046237953
4	0xbc3ba28c	-0.011452328
5	0x3d935bf0	0.0719527
6	0xbc4fe825	-0.012689625
7	0xbdd7e484	-0.10541633

convt2.weight f4 [8, 16, 5, 5]
0	0xbd94a20b	-0.0725747
1	0xbd5acde5	-0.053419013
2	0x3c4e876f	0.012605532
3	0xbd717af5	-0.05895515
4	0xbceb7204	-0.02874089
5	0xbdde6c6d	-0.10860524
6	0x3d20ea13	0.03928573
7	0xbedb74e2	-0.42862612
8	0xbde6c1b1	-0.112674125
9	0xbdf95549	-0.1217447
10	0x3d1b5a6b	0.037928026
11	0x3cf27908	0.029598728
12	0x3c95d0d6	0.018288057
13	0xbd000ab9	-0.031260226
14	0xbdac962a	-0.08427079
15	0xbbc8d42b	-0.006128808
16	0x3c0d45a1	0.008622558
17	0xbccb6382	-0.024827722
18	0x3be08206	0.0068514375
19	0x3d98ec83	0.07466986
20	0xbd6fb64f	-0.058523472
21	0xbe098992	-0.13431385
22	0xbe2b3e2c	-0.16722935
23	0xbdec0a07	-0.1152535
24	0x3d6832d6	0.056689106
25	0xbd68114f	-0.05665713
26	0x3d0e91f3	0.034807157
27	0xbe3ecbe9	-0.18632473
28	0xbe5aa044	-0.21350199
29	0xbda0c790	-0.078505635
30	0xbdb8cfc6	-0.09024005
31	0xbe58fee7	-0.21190988
32	0xbdaee3dd	-0.08539555
33	0xbd639c95	-0.05556925
34	0xbd2697c2	-0.04067207
35	0xbdeb6e00	-0.1149559
36	0xbb0b4be9	-0.0021254963
37	0xbd8f911b	-0.070100985
38	0x3cf855e4	0.030314393
39	0x3d276b79	0.04087398
40	0xbcbc96bc	-0.023021095
41	0xbdd9c4aa	-0.10633214
42	0xbe0c6528	-0.13710463
43	0xbd821ea1	-0.06353498
44	0xbd12ef63	-0.03587283
45	0xbe380de3	-0.17974047
46	0xbe0a7ec3	-0.13524918
47	0xbcb9bd22	-0.022673193
48	0xbe2aa160	-0.16663122
49	0xbd715586	-0.058919452
50	0x3d3abc25	0.045589585
51	0x3d467100	0.04844761
52	0x3dbb47e1	0.09144569
53	0x3e15ddaf	0.14635347
54	0xbd3b05db	-0.04565988
55	0x3e3b83f7	0.1831206
56	0xbaba85a6	-0.0014230504
57	0x3d892b02	0.06697656
58	0x3e1813a0	0.14851236
59	0xbd58cdcc	-0.05293064
60	0x3da7b0f3	0.08188047
61	0xbc9f0226	-0.019410204
62	0x3d532a3d	0.051553953
63	0x3e0e8365	0.1391731
64	0xbd44d29e	-0.048052423
65	0x3d3f57ee	0.046714716
66	0x3d544ecd	0.051832963
67	0xbd3b5d06	-0.04574301
68	0x3e305c81	0.17222787
69	0xbe2882db	-0.16456167
70	0xbe3a8dbe	-0.18218133
71	0xba8f4561	-0.0010930711
72	0x3c4db43e	0.01255518
73	0x3ca07cfe	0.01959085
74	0xbe2721d6	-0.16321501
75	0x3e4a3749	0.19747652
76	0xbe22d637	-0.15902029
77	0xbdb8c296	-0.09021489
78	0xbe0a6bbf	-0.13517664
79	0xbd4f5267	-0.050615694
80	0x3db0c8fb	0.08632084
81	0xbf44fcb0	-0.7694807
82	0x3b1edaef	0.0024239381
83	0xbe876cf8	-0.26450324
84	0x3e16ceef	0.14727376
85	0x3deb8ffc	0.11502072
86	0x3e02de0e	0.1278002
87	0xbe28f021	-0.16497852
88	0xbdabcc08	-0.08388525
89	0xbeae2933	-0.34015808
90	0xbe1779d8	-0.14792573
91	0xbddb590c	-0.10710344
92	0xbf1089dc	-0.56460357
93	0x3e3b0261	0.18262626
94	0xbe4692cf	-0.1939194
95	0x3c06e360	0.008232921
96	0xbe2135a9	-0.15743126
97	0xbe89e557	-0.26932785
98	0xbe3e3340	-0.18574238
99	0x3d42b711	0.047537867
100	0xbd29819b	-0.041383367
101	0xbd949718	-0.07255381
102	0xbe1b0ae5	-0.15140875
103	0xbd30c0f2	-0.043152757
104	0xbdbc1d2e	-0.09185253
105	0xbd9344b7	-0.07190841
106	0xbe1bd3ff	-0.15217589
107	0xbe7e37f6	-0.24826035
108	0xbd8aeb01	-0.06783105
109	0xbe347960	-0.17624426
110	0xbd64e872	-0.05588574
111	0xbe1089f3	-0.14115123
112	0xbd96196d	-0.07329068
113	0xbd8405e6	-0.064464375
114	0xbe17e871	-0.14834763
115	0xbd863044	-0.06552175
116	0x3d1c0cbd	0.038098086
117	0xbdde6067	-0.10858231
118	0xbda9d074	-0.082917124
119	0xbd800d36	-0.0625252
120	0xbe1f5cdd	-0.15562768
121	0xbd1779e0	-0.036981463
122	0xbe74f0c8	-0.23919976
123	0xbe21930e	-0.15778753
124	0xbe01a1e8	-0.12659419
125	0x3eb56286	0.3542673
126	0x3da9ad65	0.082850255
127	0x3da2617d	0.07928751
128	0x3d2c0000	0.041992188
129	0xbde6516c	-0.11245999
130	0x3e12f239	0.14350213
131	0x3dba35fc	0.09092328
132	0x3d784ee3	0.060622107
133	0xbd1c2252	-0.038118668
134	0x3d84c126	0.06482153
135	0x3d33e0af	0.043915447
136	0x3cfdfcc2	0.031004313
137	0x3d55be74	0.052183583
138	0xbd145c83	-0.03622104
139	0x3d60cd8c	0.054883525
140	0x3cbaad1b	0.022787621
141	0x3cb6a36b	0.02229472
142	0xbd90eb85	-0.07076172
143	0xbaf2c3e0	-0.001852151
144	0xbd722375	-0.059115846
145	0x3e80b968	0.25141454
146	0x3e0fc39c	0.14039463
147	0xbce10529	-0.02746828
148	0x3e03a468	0.12855685
149	0xbf194750	-0.5987444
150	0xbe330f2e	-0.1748626
151	0xbd9d083d	-0.07667587
152	0xbcf9f680	-0.030513048
153	0xbeb0843b	-0.34475884
154	0xbdb9cf70	-0.09072769
155	0xbe7a8a68	-0.2446686
156	0xbe672166	-0.22571334
157	0xbe13e499	-0.14442672
158	0xbebce4c7	-0.36893293
159	0xbd12388c	-0.03569846
160	0xbde5c0ef	-0.1121844
161	0xbd9ff048	-0.07809502
162	0x3b5ebecf	0.0033988243
163	0xbe7a67cc	-0.24453658
164	0xbd0310b4	-0.03199835
165	0xbe5540d1	-0.20825507
166	0x3cbfd1cd	0.02341547
167	0xbdd9bdb6	-0.106318876
168	0xbe934ef8	-0.28771186
169	0xbcae6767	-0.02128954
170	0xbe5cc24a	-0.2155849
171	0xbe69f53a	-0.22847453
172	0xbd238910	-0.039925635
173	0x3c717c80	0.014739156
174	0xbdb191a0	-0.08670354
175	0x3e71668c	0.23574275
176	0xbdffd5ad	-0.12491927
177	0x3ebca48a	0.36844283
178	0x3ebf5a1f	0.37373444
179	0x3eb08383	0.34475335
180	0xbeb75547	-0.3580725
181	0x3d0a9807	0.03383639
182	0xbef7f118	-0.48426127
183	0xbd9a29fb	-0.075275384
184	0xbe8f46b7	-0.2798364
185	0x3e1fc7d2	0.15603569
186	0x3e745a07	0.23862468
187	0x3eac587c	0.33661258
188	0xbe8d0ce1	-0.27548888
189	0x3e68fe37	0.22753225
190	0x3d063020	0.03276074
191	0xbca25566	-0.019816112
192	0xbe7af817	-0.24508701
193	0xbd415a60	-0.04720533
194	0xbba5e5ef	-0.0050628106
195	0x3e077c67	0.1323105
196	0xbcd9b372	-0.026574824
197	0x3eca046d	0.39456502
198	0x3c24205b	0.01001748
199	0x3e0dd22a	0.13849702
200	0xbdb57550	-0.08860266
201	0xbd715b15	-0.058924753
202	0x3e14a241	0.1451502
203	0xbe39765a	-0.18111554
204	0xbabb2460	-0.0014277808
205	0xbcad4a38	-0.021153554
206	0xbe243eab	-0.16039531
207	0x3d2cacd4	0.04215701
208	0xbd0bdbd6	-0.0341452
209	0x3d93494a	0.07191713
210	0x3d8fe2a1	0.07025648
211	0xbe6946c4	-0.22780901
212	0x3c42b8a4	0.011884842
213	0x3e427ae9	0.18992199
214	0x3c8c44d0	0.017122656
215	0x3c7bb89b	0.015363838
216	0xbc791796	-0.015203377
217	0xbcdb08be	-0.026737567
218	0xbdf4fb78	-0.11962026
219	0x3d9f4c02	0.07778169
220	0x3d7f56aa	0.06233851
221	0xbe1ba14e	-0.15198252
222	0x3e8d36ea	0.2758096
223	0x3c687796	0.014188668
224	0xbdab7691	-0.08372224
225	0xbd5f2df2	-0.054487176
226	0x3e0fb469	0.14033665
227	0x3ae931bd	0.0017791312
228	0x3d3144d3	0.043278527
229	0xbd250b32	-0.04029388
230	0x3d3f469d	0.0466982
231	0xbec1b5dd	-0.37834063
232	0x3d8b2e71	0.06795967
233	0xbd874ffb	-0.06607052
234	0x3d70104f	0.058609303
235	0x3c494269	0.0122839
236	0x3c514b3f	0.012774288
237	0xbe944689	-0.28960064
238	0xbc37075e	-0.01117119
239	0xbeaccf05	-0.33751693
240	0x3dc393b3	0.09549656
241	0x3d63263f	0.055456396
242	0x3c92d067	0.01792164
243	0xbd026da8	-0.031842858
244	0xbde1c858	-0.11024541
245	0xbc99cc70	-0.018774241
246	0xbddaa784	-0.10676482
247	0x3e1fd928	0.15610182
248	0xbdca55bd	-0.098796345
249	0x3c9c4e3d	0.019080276
250	0x3dd2233f	0.10260629
251	0x3da32c04	0.0796738
252	0xbdc987d4	-0.0984036
253	0x3d0b4f08	0.034010917
254	0xbd8ad198	-0.06778258
255	0x3d47eb03	0.04880811

convt2.bias f4 [16]
0	0x3d9f538d	0.07779608
1	0x3da34678	0.07972425
2	0x3b274083	0.002552063
3	0x3c7c2c6a	0.0153914485
4	0x3d6b396f	0.05742782
5	0x3d6c056e	0.057622366
6	0x3d5793b6	0.052631103
7	0xbc61fac0	-0.013792694
8	0x3cbc73e8	0.023004487
9	0x3d80cc42	0.06288959
10	0x3d4f6d4c	0.050641343
11	0x3dbc7a91	0.09203065
12	0x3d7f6ae1	0.062357787
13	0x3d82c00d	0.06384287
14	0x3ca5f219	0.020257043
15	0x3c6fe2bb	0.014641459

convt3.weight f4 [16, 32, 9, 9]
0	0xbbdb1e09	-0.00668693
1	0x3c02d961	0.0079863975
2	0x3c3ca83e	0.011514721
3	0xbceda472	-0.029009078
4	0x3c20d594	0.009816546
5	0xbd2e32c3	-0.04252888
6	0xbce1a969	-0.027546601
7	0xbd566bf0	-0.05234903
8	0xbd4a0049	-0.04931668
9	0x3c415618	0.0118003115
10	0xba92319d	-0.0011153702
11	0x3d0d5928	0.034508854
12	0xbc1bd98b	-0.0095123155
13	0x3c473678	0.012158982
14	0xbcbe8595	-0.023257056
15	0x3d0f33d2	0.03496153
16	0x3cd30862	0.025760833
17	0x3d1908a4	0.037361756
18	0x3cc58e54	0.024115719
19	0xba66801f	-0.0008792895
20	0x3d2f4a91	0.04279572
21	0x3cd6c71e	0.026217993
22	0x3d11d8ac	0.035607025
23	0xbcabf777	-0.020992024
24	0x3d0e32b2	0.034716316
25	0x3cede507	0.029039873
26	0xbd757280	-0.05992365
27	0x3c623761	0.013807149
28	0xba42048b	-0.00074011897
29	0xb70fe305	-8.576321e-06
30	0x3d0145e2	0.031560786
31	0xbbe5ba7b	-0.0070107556
32	0x3ccecb36	0.025243383
33	0x3cd99ad0	0.026563078
34	0xbc321e6a	-0.010871509
35	0xbd8d1d25	-0.068903245
36	0x3c5e6c50	0.013575628
37	0x3b48266b	0.0030540477
38	0x3d048ad3	0.032358956
39	0x3cda4bd0	0.026647478
40	0x3b072c13	0.0020625636
41	0x3c79cdc8	0.015246816
42	0xbcbe13d6	-0.023202818
43	0xbd1233e7	-0.03569403
44	0x3ccec80d	0.025241876
45	0xbc4127c6	-0.011789268
46	0x3d42b705	0.047537822
47	0x3d1eb098	0.03874263
48	0x3bb64bba	0.0055632265
49	0x3c26eedb	0.0101887835
50	0x3ce2eae0	0.027699888
51	0xbb606f10	-0.0034245886
52	0x3ccfb3b7	0.02535425
53	0xbc37b4e0	-0.011212558
54	0xbc31e417	-0.0108576035
55	0xbc0718d1	-0.008245663
56	0xbc2189c9	-0.009859511
57	0xbc54c917	-0.012987397
58	0x3cc67465	0.024225423
59	0x3d2535a5	0.040334363
60	0x3c2e87f0	0.010652527
61	0x3c89ceb6	0.0168222
62	0xbd22d6b0	-0.039755523
63	0xbd0737b1	-0.033012096
64	0x3ca94734	0.020663835
65	0xbb96805a	-0.0045929374
66	0xbcebfa9f	-0.028806029
67	0x3cfc5a4e	0.03080478
68	0xbc0893ce	-0.008336021
69	0xbc1b72e0	-0.009487838
70	0xba856463	-0.0010177012
71	0xbc826dbc	-0.015921466
72	0x3cee168a	0.029063482
73	0xbcab4750	-0.020908028
74	0xbb98b3db	-0.0046601123
75	0x3d35e490	0.044407427
76	0x3d55c62b	0.05219094
77	0xbbb06111	-0.005382665
78	0x3d2693cb	0.04066829
79	0xbb291ae8	-0.002580339
80	0x3be77ec5	0.0070646727
81	0x3a279efa	0.0006394234
82	0x3c6d2faa	0.014476696
83	0xbd1829c3	-0.037149202
84	0xbba4adb1	-0.0050255884
85	0x3bb0a4e1	0.005390749
86	0xbd3b97b9	-0.04579899
87	0x3c33d233	0.010975408
88	0xbb3544f9	-0.002765952
89	0xbcfb5d71	-0.030684205
90	0xbccbb796	-0.024867814
91	0x3c2ecf5d	0.010669556
92	0x3bdfb769	0.006827284
93	0x3d0b9f49	0.034087453
94	0xbc60734c	-0.013699364
95	0xbd18f3f7	-0.037342038
96	0xbc806de9	-0.01567741
97	0x3cc43802	0.023952488
98	0x3b0e8293	0.0021745309
99	0xba94ea9d	-0.0011361424
100	0xbd46ee8d	-0.048567344
101	0x3c135a71	0.008993731
102	0xbc6ed02a	-0.014575997
103	0xbd8586f4	-0.06519881
104	0x3b429cf4	0.0029695602
105	0xbd114fbf	-0.035476442
106	0xbd8353ee	-0.06412493
107	0x3c90702f	0.017631618
108	0xbc943e2b	-0.01809605
109	0x3c1dd78e	0.009633912
110	0xbc241688	-0.0100151375
111	0x3a589a0b	0.00082627
112	0x3c858526	0.016298842
113	0x3c8e3ff0	0.017364472
114	0xbc1392bc	-0.009007152
115	0x3bf916f8	0.007601615
116	0xbc57fb12	-0.013182418
117	0x3d0450fc	0.032303795
118	0xbccc1d60	-0.02491635
119	0xbd3cde75	-0.04611059
120	0x3c4520a1	0.012031705
121	0xbcb4825e	-0.02203482
122	0xbd273c6b	-0.040829103
123	0xbd2e1f33	-0.042510223
124	0x3ce930bf	0.028465627
125	0xbcbd672f	-0.02312049
126	0x3d5a3d60	0.053281188
127	0xbd83c99e	-0.0643494
128	0xbc209c38	-0.00980287
129	0x3d65157f	0.055928703
130	0xbcd1ea6b	-0.025624475
131	0xbb8c8aa6	-0.004288989
132	0xbd109d3b	-0.035306197
133	0xbd000553	-0.031255078
134	0xbc6e3890	-0.014539853
135	0x3b656b80	0.0035006702
136	0x3c853ad0	0.016263396
137	0xbcb86015	-0.022506753
138	0xbc81c6a3	-0.015841788
139	0x3c27b1e9	0.010235288
140	0x3cceb490	0.025232583
141	0xbd22ca7b	-0.03974388
142	0xbd1a0657	-0.037603702
143	0xbbbd41e8	-0.005775679
144	0x3ca3d7c1	0.02000034
145	0xbadcc815	-0.0016844297
146	0x3c008dc3	0.007846299
147	0x3cfb0367	0.03064127
148	0xbccebd7f	-0.025236843
149	0xb83ebbd2	-4.547445e-05
150	0xbbda0a06	-0.006654027
151	0x39babcaf	0.00035617265
152	0xbd00c8ec	-0.031441614
153	0x3ca82185	0.020523796
154	0xbc9fc75b	-0.01950424
155	0x3b98f917	0.0046683657
156	0xbc450206	-0.012024408
157	0xbd49436d	-0.049136568
158	0x3ca6eb58	0.020375893
159	0xbd1861c7	-0.037202623
160	0xbd02fc52	-0.031978913
161	0xbcc3752a	-0.02385958
162	0x3cf012c1	0.029305818
163	0x3d0566d1	0.032568756
164	0x3cb2ccf8	0.021826252
165	0xbc0b371c	-0.008497026
166	0x3bb4cc39	0.0055175093
167	0xbc993e95	-0.0187066
168	0x3c7ce014	0.015434284
169	0x3d1d2e5a	0.038374282
170	0x3d78fa37	0.0607855
171	0x3d0112b9	0.031511996
172	0x3d4c3078	0.04985091
173	0x3d770d22	0.06031526
174	0x3d3ee2d7	0.04660305
175	0x3ce0f5bc	0.027460925
176	0xbc95b604	-0.018275268
177	0x3d7e7143	0.062119734
178	0x3d07050c	0.032963797
179	0x3d02c948	0.031930238
180	0x3d11977c	0.035544857
181	0x3d73a330	0.0594818
182	0x3d8ee54b	0.06977328
183	0x3d3cb9c0	0.046075583
184	0x3d7df36d	0.061999727
185	0x3cc20333	0.023683166
186	0x3cfb2904	0.030659206
187	0x3c9b00ef	0.018921344
188	0x3a5bd2d0	0.00083856005
189	0x3c46a445	0.012124126
190	0x3d39966e	0.045309477
191	0x3d910c00	0.07082367
192	0x3ce8d882	0.028423551
193	0x3d481f7d	0.048858155
194	0x3cc8785b	0.024471452
195	0x3c8e1114	0.017342128
196	0x3c8e7090	0.017387658
197	0x3d093d60	0.033505797
198	0x3d473c01	0.04864121
199	0x3d709c99	0.058743093
200	0x3d034e16	0.03205689
201	0x3d454e87	0.048170593
202	0x3cbb8acf	0.022893338
203	0x3d854d65	0.065089025
204	0x3c860b4e	0.016362812
205	0x3cea81c9	0.02862634
206	0xbbbe8375	-0.0058140107
207	0x3d042b2c	0.032267734
208	0x3da2695c	0.07930252
209	0x3c77e68f	0.015130653
210	0x3c918243	0.017762309
211	0x3d912933	0.07087936
212	0x3d315649	0.04329518
213	0x3cb043fa	0.021516789
214	0x3d8f2e9f	0.06991314
215	0x3bb55bef	0.005534641
216	0x3cc0ea59	0.023549246
217	0x3d5c9c54	0.053860024
218	0x3d664bd5	0.056224663
219	0x3d3c3d14	0.045956686
220	0x3d5701ff	0.052492138
221	0x3d7c6844	0.061622873
222	0x3d0f6d4c	0.035016343
223	0xb9f17c0e	-0.0004605953
224	0x3d975e0b	0.07390984
225	0x3d266801	0.04062653
226	0x3d7e6ee0	0.062117457
227	0x3ce03a93	0.02737168
228	0x3d4f0b23	0.05054773
229	0x3cb2e1d9	0.021836208
230	0x3bea7900	0.0071555376
231	0x3d8c8c0a	0.06862648
232	0x3c69d0b5	0.014270951
233	0x3d176dea	0.036970057
234	0x3cb09815	0.021556893
235	0x3c5c991c	0.0134642385
236	0x3d09f3d7	0.03367981
237	0x3d26b0eb	0.040696066
238	0x3d589118	0.052872747
239	0x3d960620	0.07325387
240	0x3cac4502	0.021029
241	0x3d1a0fb3	0.03761263
242	0x3d82bf41	0.06384135
243	0xba3ad87f	-0.00071275973
244	0xbbff2549	-0.007786427
245	0x3bd4eb3c	0.0064977687
246	0xbb58822f	-0.003303658
247	0xbcc9984c	-0.024608754
248	0xbc835e91	-0.016036304
249	0xbd228476	-0.039677106
250	0x3b65939f	0.0035030616
251	0xbd1cb1cb	-0.038255494
252	0x37866223	1.6019743e-05
253	0x3cdcedbd	0.026968831
254	0x3d4c3305	0.049853344
255	0x3d1fb03d	0.038986433

convt3.bias f4 [32]
0	0x3cd746ca	0.026278872
1	0xbce7c4bd	-0.028292054
2	0x3d9214ed	0.071328975
3	0x3d228688	0.03967908
4	0x3dc7f2b9	0.097630925
5	0xbd17323f	-0.036913153
6	0xbc1af94d	-0.009458852
7	0x3d98de96	0.0746433
8	0xbdffc9b9	-0.124896474
9	0xbc68360f	-0.014173045
10	0x3b5acb05	0.003338517
11	0x3dac0b39	0.08400578
12	0x3d43c5eb	0.04779617
13	0x3da53922	0.08067538
14	0xbd3a0549	-0.045415197
15	0x3d48ccfa	0.049023606
16	0xbd0852b0	-0.033281982
17	0xbd04c2e4	-0.032412425
18	0xbceb63f7	-0.02873419
19	0x3d874aed	0.06606088
20	0xbd8d83f3	-0.06909933
21	0x3e12dc3c	0.14341825
22	0x3cf980db	0.03045695
23	0x3d88e103	0.066835426
24	0xbcb93107	-0.022606386
25	0x3d18b5f4	0.0372829
26	0xbd5f21b8	-0.054475516
27	0x3c8ea086	0.017410528
28	0xbb916db2	-0.0044381255
29	0x3d53a0ef	0.05166715
30	0x3c343c2f	0.011000677
31	0x3c843584	0.0161388

pos_output.weight f4 [1, 32, 2, 2]
0	0x3e3ed309	0.18635191
1	0xbe274932	-0.16336516
2	0xbe3e62e0	-0.18592405
3	0xbe340bdc	-0.17582649
4	0x3db8a849	0.09016473
5	0xbd6d0ad8	-0.05787167
6	0xbe08c703	-0.13357167
7	0x3cd29590	0.025706083
8	0x3e698479	0.2280444
9	0x3b536f13	0.003226225
10	0x3dc5735e	0.09641145
11	0x3ca5d86a	0.020244796
12	0xbde61d69	-0.11236078
13	0x3b6b71e3	0.0035926036
14	0x3b63b8b6	0.0034747547
15	0xbd9f9bda	-0.07793398
16	0x3ec281fc	0.37989795
17	0x3e7dbd44	0.2477923
18	0x3e86d613	0.263352
19	0x3e8352e0	0.25649166
20	0xbe473a26	-0.19455776
21	0x3d080ce5	0.033215422
22	0xbd1bc04d	-0.03802519
23	0xbbacef84	-0.005277576
24	0x3e65d67e	0.22445104
25	0x3e46ddb9	0.19420518
26	0xbe017b1e	-0.12644622
27	0xbdc7f28d	-0.0976306
28	0x3e3e0824	0.18557793
29	0x3c41c44a	0.011826584
30	0x3c9ab5dd	0.018885547
31	0xbcbc6a7d	-0.022999996
32	0x3f207d81	0.62691504
33	0x3ed75bd4	0.42062247
34	0x3f1aa4f1	0.6040793
35	0x3f0f70d7	0.56031555
36	0xbc3ca042	-0.011512818
37	0xbe63321c	-0.22187084
38	0xbe2bf00d	-0.16790791
39	0xbe5aa3c4	-0.21351534
40	0x3e642683	0.22280316
41	0xbe433cbb	-0.19066136
42	0x3d9b4e66	0.07583313
43	0x3d5b6037	0.053558555
44	0x3e13f882	0.14450267
45	0x3e8c2ef1	0.27379563
46	0x3e899973	0.26874885
47	0x3e3f76a3	0.186976
48	0x3e446361	0.19178535
49	0xbd95d9e4	-0.0731695
50	0xbe34c80a	-0.17654434
51	0x3dddf86f	0.108384006
52	0x3e5f99c1	0.21835996
53	0xbe27098e	-0.16312239
54	0x3e3e7524	0.18599373
55	0x3e225a4d	0.1585476
56	0xbd4c91db	-0.049943786
57	0x3e039179	0.12848462
58	0x3e4edfb5	0.20202525
59	0xbd19259b	-0.03738938
60	0xbced8781	-0.028995277
61	0xbdb983f6	-0.09058373
62	0x3cb4b9fe	0.022061344
63	0xbdea3723	-0.11436298
64	0x3e030d36	0.12798008
65	0xbc97f176	-0.018547755
66	0xbcb2122f	-0.021737186
67	0x3d67bd00	0.05657673
68	0xbdb55db6	-0.088557646
69	0xbdec1f1b	-0.115293704
70	0x3e6bc64d	0.23024864
71	0x3dbf37cf	0.093368165
72	0xbd203e57	-0.039121952
73	0xbdebcdf8	-0.11513895
74	0x3e3c48d4	0.18387157
75	0xbd51ceb7	-0.05122253
76	0x3e54e79b	0.20791475
77	0xbe28dba7	-0.1649004
78	0xbcf6847e	-0.030092474
79	0x3dceba83	0.10094168
80	0xbdec77e3	-0.11546304
81	0x3e1723a5	0.14759691
82	0x3d900f56	0.07034175
83	0x3e3986a7	0.18117772
84	0xbdab3446	-0.0835958
85	0xbe45015e	-0.19238803
86	0xbde6fa00	-0.112781525
87	0xbe58e2d5	-0.2118028
88	0xbeea1ad8	-0.45723605
89	0xbeab32db	-0.33437237
90	0xbebd7e3c	-0.37010372
91	0xbed18e63	-0.40928945
92	0x3e27ab6a	0.16373983
93	0x3dd38354	0.10327783
94	0x3d141117	0.03614911
95	0x3e3e27fa	0.18569937
96	0x3cece9a0	0.028919995
97	0x3df5d563	0.12003591
98	0x3e810d2a	0.25205356
99	0x3e05dc1f	0.13072251
100	0xbe1e2bcc	-0.15446395
101	0x3d80286b	0.06257709
102	0xbda72eab	-0.08163198
103	0xbe03a49b	-0.12855761
104	0x3e662d75	0.22478278
105	0xbd78d93c	-0.060754046
106	0x3e985e30	0.2975936
107	0xbd984576	-0.074351236
108	0xbdfd5430	-0.12369573
109	0xbe1c633a	-0.15272227
110	0xbe23b24c	-0.15985984
111	0xbe08dba2	-0.13365033
112	0x3d08492d	0.03327291
113	0x3d0a859c	0.033818826
114	0xbcca67a3	-0.024707621
115	0x3e522f14	0.20525771
116	0xbe124e4c	-0.1428768
117	0xbd9c55f9	-0.076335855
118	0x3dfe8853	0.124283455
119	0x3dc22df3	0.0948142
120	0x3d08c46d	0.03339045
121	0xbdcfe340	-0.101507664
122	0x3d780c7d	0.060558785
123	0xbe12bd4a	-0.1433002
124	0xbe2e3707	-0.17013179
125	0x3d74042d	0.059574295
126	0xbd116a3c	-0.035501704
127	0xbbb57ac4	-0.0055383164
