ggcnn_base/output/models/221204_2000_training_example/epoch_20_iou_0.71_statedict.pt (torch, 256417 bytes, 16 tensors)

conv1.weight f4 [32, 1, 9, 9]
000000 1a ed 84 bd 21 90 f1 bd 82 13 57 bd 90 93 e2 bd
       -0.06490536 -0.117950685 -0.05250884 -0.110633016
000010 7c 1e ee bd 63 ec 3f bd 32 f6 a0 bd 81 bb f7 bd
       -0.11626908 -0.046856295 -0.07859458 -0.120963104
000020 f7 ce e6 bd ce 48 a7 bd ec f8 7e bd c0 c7 51 bd
       -0.11269944 -0.08168183 -0.06224911 -0.051215887
000030 18 27 d8 bd 56 63 65 bd 54 f7 be bd 03 33 ab bd
       -0.105543315 -0.056002937 -0.09324518 -0.08359339
000040 64 25 88 bd 53 de 0b bc 05 99 44 bd 9b 84 a6 bd
       -0.06647757 -0.008536893 -0.047997493 -0.08130761
000050 ec ef 24 bd 96 b9 8a bd 9b c3 c6 bd c9 91 aa bd
       -0.04026787 -0.06773679 -0.097052775 -0.083285876
000060 4d 6b 31 bd 79 1b 8a bd 5a dd 9b bd 92 68 32 bd
       -0.04331522 -0.06743521 -0.07610579 -0.043556757
000070 01 02 8b bd c7 f6 e6 bc a4 46 2d bd 27 8f 88 bd
       -0.067874916 -0.028193844 -0.042303696 -0.06667929
000080 93 d5 7a 3c 2f fc d8 3b 81 34 72 bd 60 63 b2 3c
       0.015309709 0.0066218595 -0.059132103 0.021775901
000090 6e 08 4c bd 55 df 48 bd 3e 5c 6d bd e3 86 3f bd
       -0.049812727 -0.04904111 -0.057949297 -0.046759497
0000a0 33 02 91 bd d5 62 6f bc 95 87 a1 3c 69 66 f8 3c
       -0.070804976 -0.014610966 0.01971797 0.03032227
0000b0 ce 6c 50 bd 60 ac c9 bb 5a 62 8e 3c e2 e9 1f bd
       -0.050885014 -0.006154582 0.017380882 -0.039041407
0000c0 be f0 80 bd e7 23 c1 3c 7d f7 2a bd 4f ea df bc
       -0.06295918 0.02357669 -0.04173993 -0.027333407
0000d0 3a a8 41 3c f0 a7 23 3d 42 44 51 3b ea 73 0f 3d
       0.0118198935 0.03995508 0.0031931554 0.035022654
0000e0 d4 f0 78 3d 11 a6 fc 3c 0d 91 d5 3d 88 f2 a6 3d
       0.060776547 0.030840905 0.10428057 0.08151728
0000f0 1c 58 a4 3d 3c bb d9 3c c8 05 f7 3c 95 08 be 3d
       0.08024618 0.026578538 0.030154124 0.09278981
000100 b7 a2 1a 3d 4d 45 87 3d 4d fa 7f 3d b7 39 bd 3d
       0.037752833 0.06605015 0.062494565 0.09239524
000110 3a 5b dd 3d 1b 94 08 3d d1 6a af 3d cf 17 6c 3d
       0.10808416 0.03334437 0.085652955 0.057639893
000120 f1 07 ba 3d 51 17 84 3d d9 9e ba 3d 99 c3 93 3d
       0.09083546 0.0644976 0.09112329 0.07215042
000130 b2 78 e3 3c e1 9f 27 3d 7c d1 fb 3d f6 d5 a5 3d
       0.027767513 0.040923957 0.12295815 0.080974504
000140 f6 f7 95 3d 2c 1b 65 bc 27 77 73 bc 30 03 f1 3c
       0.073226854 -0.013983529 -0.014859951 0.029420465
000150 31 12 00 3e 82 f7 1a 3e 32 da fe 3d 2e a3 54 3e
       0.1250694 0.15133479 0.12443961 0.20765373
000160 01 da 94 3e 47 d3 c8 3e cb fc 13 be d6 41 ea bd
       0.29072574 0.39223692 -0.14451902 -0.114383385
000170 2b bf 9b bd aa fc 12 bd b2 f2 12 3c a0 4e b0 3d
       -0.07604822 -0.03588549 0.008968996 0.086087465
000180 48 c9 11 3e e2 57 70 3e 26 b5 96 3e b1 99 69 be
       0.14236939 0.23471025 0.2943508 -0.22812535
000190 28 30 2f be 4a b2 ef bd 69 fe f2 bd fc de 7a bd
       -0.17108214 -0.11703928 -0.11864931 -0.06124781
0001a0 54 3f 81 bc c2 8d a9 3b 77 5d b9 3d cc 02 5c 3e
       -0.015777268 0.0051743696 0.0905103 0.21485442
0001b0 bf dd bb bd a0 d4 62 bd a0 aa f7 bc c1 1a 5e 3d
       -0.09173154 -0.055378556 -0.030232728 0.054224733
0001c0 6c 1e 25 3d 6a 03 86 3d 0d b5 c0 3d 55 e2 6a 3e
       0.040312216 0.0654362 0.09409533 0.22937901
0001d0 f4 28 96 3e 52 a2 0e be 5b 44 9e bd ea fd bb bd
       0.2932812 -0.13929108 -0.077278815 -0.0917929
0001e0 24 16 13 bd 6d 45 36 bd b0 f3 8f 3c 79 c8 fe 3d
       -0.035909787 -0.044499803 0.017572254 0.12440581
0001f0 ad 15 32 3e ba be 42 3e 0d 60 54 be f6 6a 29 be
       0.17391081 0.19018069 -0.20739765 -0.16544709
000200 1c 83 fd bd 24 73 ac bd 60 27 8d bd 59 94 cf bb
       -0.12378523 -0.08420399 -0.06892276 -0.006334823
000210 a5 dd c0 3d d2 70 26 3e 4e 7c 4e 3e a7 21 3e be
       0.09417275 0.16253975 0.20164606 -0.18567525
000220 c1 11 3f be f3 51 52 be 05 7d 07 be 83 50 b4 bd
       -0.18659116 -0.20539074 -0.13231285 -0.08804419
000230 40 04 3b bb 7e f8 7c bc f4 68 ec 3d 90 8e 48 3e
       -0.0028536469 -0.0154401045 0.11543456 0.19585633
000240 73 f0 5d be 18 4e 37 be 04 70 52 be 44 02 7c bd
       -0.21673755 -0.17900884 -0.20550543 -0.0615256
000250 90 0b f3 bd 3b fc f0 bc e0 9d 95 3c 8b 95 ec 3d
       -0.1186744 -0.029417148 0.018263757 0.115519606
000260 09 de 39 3e c6 01 43 be 8b dd 54 be bb 1e 1f be
       0.18151106 -0.19043645 -0.20787637 -0.15539066
000270 a6 ee 8f bd aa f8 4a bd 77 b0 4b bc 87 94 96 3d
       -0.070279405 -0.04955355 -0.012432209 0.07352548
000280 ec 24 07 3e 9a 8a 75 3e 26 8a c6 bb 11 88 9f bb
       0.13197678 0.23978654 -0.006058949 -0.0048685153
000290 16 af 75 bc cf c2 3e bc c1 07 8f 3b b9 ef 1e 3c
       -0.014995357 -0.011643126 0.004364938 0.009700709
0002a0 92 db 91 3c 0a 34 3e 3d 6b ce 23 3d 80 bc 06 bd
       0.017804895 0.046436347 0.039991777 -0.03289461
0002b0 a0 31 30 bd d7 0e 21 3b 8b f8 aa 3b ce 16 29 bd
       -0.043016076 0.0024575496 0.005217617 -0.041281514
0002c0 27 d4 f4 3c 44 ef e2 3c 5d a5 d7 bc 17 70 1a 3d
       0.029886318 0.027701981 -0.026323969 0.037704553
0002d0 57 e6 8e 3c ef af 91 3c d4 fa 02 bd 6a 13 ca 3c
       0.017443819 0.017784087 -0.03197749 0.02466746
0002e0 da 69 76 bc fd 54 27 bd 13 9a dc bb 25 e7 24 3d
       -0.015039885 -0.040852536 -0.0067322343 0.0402595
0002f0 54 b3 c9 bc 02 90 00 bd f0 62 13 3b 9e 98 95 bc
       -0.024621643 -0.031387337 0.0022489391 -0.01826125
000300 00 7b bd bc a3 6f 26 3d a9 42 31 3c cf 9c 1e 3c
       -0.02312994 0.04063381 0.010819116 0.009680941
000310 5c 5c 98 ba a5 c4 27 3d 3d e5 15 3d 71 d8 00 bd
       -0.0011624205 0.04095902 0.03659557 -0.031456415
000320 5c 26 eb bb 82 2d 27 3d ad fe 8f 3c 8b 29 10 bc
       -0.0071762037 0.040814884 0.017577494 -0.008798967
000330 6a 1d 02 bd db e0 8c bc 29 d0 c4 ba 58 6d 17 bd
       -0.031766333 -0.017197063 -0.001501565 -0.036969513
000340 9f 72 5e bc 52 94 97 bc 7a 91 07 3c f2 24 41 bd
       -0.0135771325 -0.018503342 0.00827443 -0.047154374
000350 39 4a 84 3b ac 52 23 bc 78 d4 87 bc f4 54 cb 3b
       0.0040371683 -0.009968441 -0.016580805 0.0062051956
000360 f8 44 a1 bc fe 06 4e 3c 43 27 1a 3b 9a 07 d6 3c
       -0.019686207 0.012574909 0.0023521937 0.026126672
000370 7a 2d d9 3c d1 a8 91 bc d4 0f 67 bc 10 f7 24 bd
       0.026510943 -0.017780693 -0.014102895 -0.04027468
000380 f4 c0 36 3b dd 2f 1e 3c e8 e2 6c bc 8f 9c 31 bd
       0.0027886005 0.009654966 -0.014458396 -0.043362197
000390 d6 a7 71 bb a2 03 76 bc 21 6a 90 3c 9e ef 7c 3a
       -0.003687372 -0.015015515 0.017628731 0.0009648743
0003a0 46 67 d3 bc 0f 94 28 bd a9 c3 e5 3b ab af 16 3d
       -0.02580608 -0.041156825 0.00701185 0.036788624
0003b0 89 6d 26 3d 00 d9 ba bb 05 e7 23 bd 0e 3d d6 3c
       0.040631805 -0.005702138 -0.04001524 0.02615216
0003c0 d8 10 4e bc f0 5f a8 bc 30 d8 05 bd 33 16 d8 be
       -0.012577258 -0.020553559 -0.032676876 -0.42204437
0003d0 2a f0 0e be f6 12 da 3d 3e 02 cd be 68 58 99 be
       -0.13958803 0.10648148 -0.40040773 -0.2995026
0003e0 b5 d6 8d be 94 76 6e be 9d 9e 82 be eb 72 ee be
       -0.2770287 -0.23287421 -0.25511637 -0.4657205
0003f0 7f 37 07 be 91 08 20 3e 0a 06 a6 3e f3 17 81 bd
       -0.13204764 0.15628268 0.32426482 -0.06303396

conv1.bias f4 [32]
000000 23 df 5b be f6 dc f0 3d fe df dd bd 4b bd 2e 3c
       -0.21471839 0.11760895 -0.10833739 0.010665248
000010 f6 64 a1 3d 36 7c ba 3d 37 b7 1d bd 66 d8 1f 3e
       0.07880585 0.091057226 -0.038504805 0.15609893
000020 52 17 a5 be 1e 8b 95 3b be b2 72 3e 7a 69 ff bd
       -0.32244354 0.004563703 0.23700997 -0.1247129
000030 92 b1 82 be 00 71 34 bd 62 b6 ce ba 33 10 21 3b
       -0.255261 -0.044053078 -0.0015770907 0.0024576306
000040 00 af 15 bb 86 1f ab bd ee 08 5f be c0 a5 94 bd
       -0.0022839904 -0.08355622 -0.2178075 -0.07258177
000050 09 82 25 be bc 9a 83 3e 95 4c a6 3c a9 72 cd bd
       -0.16162886 0.2570399 0.020300189 -0.10031635
000060 2a 8e 89 be 93 42 09 bd 07 bc ba bd cb 89 58 bb
       -0.26866275 -0.033510756 -0.091178946 -0.0033041115
000070 68 1d c2 bd a5 46 c7 bd 0f 24 85 3d fe bf 9b 3a
       -0.09478265 -0.09730271 0.06501018 0.001188278

conv2.weight f4 [16, 32, 5, 5]
000000 25 18 2d be da f6 b5 bd 4c 5f 7a bc 89 94 f1 bc
       -0.16903742 -0.08884974 -0.01528151 -0.029489772
000010 cf db b7 bd a0 c4 85 bc f8 ab 75 bc 4a 0a 53 3d
       -0.08977472 -0.01632911 -0.014994614 0.051523484
000020 29 dc 47 3d 94 bd 5d b9 55 e7 21 bd e1 c5 0e bd
       0.048793945 -0.00021146826 -0.039527256 -0.03485668
000030 df 5b 11 bd b7 99 98 3d 5a 0e 6f 3d 8f 20 ea bd
       -0.035488006 0.07451194 0.058363296 -0.11431991
000040 01 37 dd bd 82 55 3d bd 23 fd 0b be 3d 40 0d bb
       -0.10801507 -0.046224125 -0.13670783 -0.0021553182
000050 5f d5 6b bd 8d 46 33 bc c3 78 b4 3d 24 80 3d 3d
       -0.057576533 -0.010942114 0.08812096 0.046264783
000060 ec 76 7e 3c f7 25 91 bd 37 85 2a bc fa 07 0c 3d
       0.015531283 -0.07087319 -0.010407737 0.034187295
000070 3b d5 b8 bd ba e0 5d bd fb df 2b bd 83 85 a1 bc
       -0.090250455 -0.054169394 -0.04196165 -0.019716984
000080 15 25 cf 3c d5 1b 29 be e4 13 02 bd fd ae f7 3c
       0.025286237 -0.16514523 -0.03175725 0.030234808
000090 64 8c bc 3d ea bf 79 3c 15 f4 00 be b9 dc ec bd
       0.09206465 0.01524351 -0.1259311 -0.11565537
0000a0 aa 43 1e bc 97 5b 70 3d 72 a7 36 3c 84 44 a4 bc
       -0.009659687 0.058681097 0.0111483205 -0.020052202
0000b0 7e 5f 91 bd 90 5a a8 3c 1f 81 bd 3d cd 7b a1 3d
       -0.07098292 0.020550996 0.092531435 0.07884941
0000c0 52 b1 37 3d 01 4b bb ba ff 23 90 3c d9 cd 86 3d
       0.04484684 -0.0014289321 0.01759529 0.06582231
0000d0 4a 74 3a 3d 42 36 26 3c 66 2e b4 bc 79 99 0a bd
       0.04552106 0.010144772 -0.02199478 -0.03383777
0000e0 25 14 18 bd f6 35 17 3c 37 ed 82 3d fc 66 0b bd
       -0.037128586 0.009229174 0.063929014 -0.03403376
0000f0 d6 42 bd 3c 2a 86 a2 b9 39 b9 91 3c 5d 50 16 bd
       0.023103159 -0.00030999008 0.017788516 -0.036697734
000100 f9 bf 7f 3c 54 cd ee 3c f4 1f a0 3c ab b7 fd bc
       0.015609735 0.029150642 0.019546486 -0.030971369
000110 cc d0 bc 3c 2a e3 47 bc 52 fc c5 3c ed 88 2b bc
       0.02304878 -0.012200156 0.024168167 -0.010469657
000120 1b 02 df 39 f4 6e 3a 3d b0 e5 58 3d 3c 3c 09 bd
       0.00042535443 0.04551597 0.052953422 -0.03350471
000130 c4 68 27 3d 8d 8d a2 3b 7d 8c 36 bd f8 72 a0 ba
       0.040871397 0.004960722 -0.044567574 -0.0012241295
000140 a9 b8 4f bc b9 04 a8 bc 8b 6f 88 bd dc b9 d0 3c
       -0.012678304 -0.020510064 -0.066619 0.02547925
000150 ee 52 b1 3d 6c 2f b5 bd ee f5 81 bd 27 4f 20 bd
       0.08658396 -0.08846936 -0.063457355 -0.039137986
000160 ae 62 3e bd 11 d5 da bb c1 c6 63 3d 9a a0 40 3d
       -0.046480827 -0.0066782315 0.05560947 0.04702816
000170 c6 e7 72 3c a5 75 d5 3c b3 09 ec 3d 4a bf e1 39
       0.014825767 0.026057074 0.115252875 0.00043057866
000180 d5 1b 8f 3d 5f fa 37 3d d6 43 e9 3d be 9d 07 3e
       0.069877304 0.044916507 0.11389892 0.13243768
000190 1d 80 d0 3d a4 bb a4 3c 95 60 d2 3c 28 5c 00 bd
       0.10180686 0.020109005 0.02568082 -0.031337887
0001a0 9a 43 8e bd 81 87 df 3d 6b ea a5 3c bc f0 98 bd
       -0.06946488 0.10914517 0.02025338 -0.074677914
0001b0 a4 cb 84 bd 5a 85 98 bd 9e d1 6c 3d fb 2f df bc
       -0.06484154 -0.0744731 0.057817094 -0.027244559
0001c0 ad 6a 3b bd 1e d3 80 bd 92 90 9d bd 3f 26 4d bb
       -0.04575603 -0.062902674 -0.0769359 -0.0031303314
0001d0 28 85 6e 3d ad 87 33 bd 90 f5 9f bd 4e 5d b3 bd
       0.058232456 -0.043830562 -0.07810509 -0.08758031
0001e0 08 3a 39 bd 0d 53 e8 3c dd 2b 10 3b 3b 5d 97 3d
       -0.04522136 0.028359914 0.00219988 0.07390829
0001f0 a6 db 2a 3c c2 9e fd bc b0 5d 65 bd c1 a6 4e 3d
       0.010428345 -0.03095949 -0.05599755 0.050451998
000200 5d e6 10 bd aa 1e bb bc 4e f7 80 3b b3 1b a6 bd
       -0.03537594 -0.02284177 0.003935731 -0.08110752
000210 4b b0 a4 3d 29 3f 97 3d f0 7c af 3d d7 aa 78 bd
       0.08041438 0.07385094 0.08568752 -0.0607098
000220 69 6b 57 3d 92 05 98 3d 27 88 b1 3d 10 d4 07 3e
       0.05259267 0.074229375 0.08668547 0.13264489
000230 45 95 03 be ff 0a 13 be 83 bf e5 bd 14 47 aa bd
       -0.1284991 -0.14359663 -0.112181686 -0.08314338
000240 82 41 29 3d 6b 2c 8c bc 29 e3 b4 3c 2a cb 98 bd
       0.04132224 -0.017111024 0.022080975 -0.074606255
000250 7c 67 ba 3c 14 79 22 3c be 94 34 3d e7 a2 4e 3d
       0.022754423 0.009916563 0.044087164 0.050448325
000260 78 f4 8f bd cf b6 b1 3d 42 ad 4c 3c bf 25 a6 bd
       -0.070290506 0.08677446 0.01249248 -0.08112668
000270 30 67 c7 3c a7 8a 77 bd cb ac 03 3d 44 b7 b9 3c
       0.024341196 -0.060434964 0.03214721 0.022670396
000280 b1 1d 00 3d c1 a5 b9 bd e8 b0 10 bd 36 ab c7 3c
       0.031278316 -0.09064818 -0.03532496 0.024373632
000290 69 de b5 3d 56 33 14 3c 63 fb cf 3c ba bb 08 3d
       0.08880312 0.009045443 0.025388425 0.033382155
0002a0 03 4c 9e 3d 6e 2a 61 3d 55 87 a5 3c 6f b5 8c bc
       0.07729342 0.054972105 0.020206133 -0.017176358
0002b0 07 78 9b 3d b9 c6 a1 3d e6 ef 97 3d 3f 96 a4 bd
       0.07591253 0.078992315 0.07418804 -0.0803647
0002c0 8a 30 6f bd 3a 35 01 bd 3f 27 54 bd 56 0e 57 3c
       -0.0583959 -0.0315449 -0.05179524 0.013125977
0002d0 b7 68 a6 bd 1a d0 71 bd 09 03 5f 3c a5 44 3e bd
       -0.081254415 -0.05903635 0.0136115635 -0.046452183
0002e0 70 df 00 3d 7a 86 59 bd b4 d0 48 bc 03 92 a4 3d
       0.031463087 -0.053106762 -0.01225679 0.08035662
0002f0 2b cf 69 3d 23 c2 aa 3d ca c8 00 bd 95 55 ae bd
       0.057082336 0.0833781 -0.031441487 -0.08512417
000300 32 0e 7e 3a 39 4b 06 bd 1a 59 1d bd 06 16 2b 3d
       0.00096914463 -0.03278658 -0.038415052 0.04176905
000310 65 6e 29 bc 15 18 2f bd dd 77 8c 3c 26 df b5 3d
       -0.0103412615 -0.042747576 0.017146999 0.08880453
000320 a7 ec 20 bf df 6c 9e be e1 3c 06 be 84 36 0f be
       -0.628611 -0.30942437 -0.13109161 -0.1398564
000330 e2 58 a5 bd ed 9a ad be de 4f be bd bc dc 4b bd
       -0.08073594 -0.33907261 -0.09292577 -0.049771056
000340 86 58 e9 bd 6c e9 32 3a d7 dc b4 be 8c e7 b0 bc
       -0.11393838 0.00068249437 -0.35324737 -0.021594785
000350 f1 00 83 3d 38 9b 3c bd 19 c4 2a bc 83 88 39 be
       0.06396664 -0.046046466 -0.01042273 -0.18118481
000360 da e6 45 bd 0c 3f de 3d 9f 48 7f bd c6 dd a6 bd
       -0.04831586 0.10851869 -0.062325116 -0.08147769
000370 f2 18 1b be dc 30 60 bb 68 26 29 3d 69 02 44 bc
       -0.15146235 -0.003420881 0.041296393 -0.011963465
000380 eb 6e 11 bd 89 05 4f be 4f 57 d1 bd 63 4a f5 bc
       -0.03550617 -0.20216955 -0.10221731 -0.029942697
000390 b2 3b a7 bd 45 28 a7 3e 6e 95 a7 bd d2 88 9e bd
       -0.08165683 0.3264791 -0.08182798 -0.0774094
0003a0 d2 85 c0 bd b8 63 46 be 81 6d 60 3d 03 ac 69 bd
       -0.09400524 -0.19373977 0.05479193 -0.05704881
0003b0 2c 9f b2 3b 64 bb 06 bc b4 8a 71 be 41 04 0a 3d
       0.0054511037 -0.008223388 -0.23588067 0.033695463
0003c0 6c b8 fb 3d 96 0f 34 3e 0e 84 67 3d 31 bf 43 be
       0.12291035 0.1758407 0.05652242 -0.19115902
0003d0 21 e1 93 bd 7c d3 e9 3d 65 62 ec 3d bb ee 09 3e
       -0.07220674 0.114172906 0.11542205 0.13469975
0003e0 ca 26 0e be 77 51 c2 3d 1d ac 8a 3e ce ec 6f 3e
       -0.13881984 0.094881944 0.27084437 0.23430178
0003f0 ce 55 32 3e c2 a8 4e 3d bd f3 d4 3d 36 cc 20 3e
       0.17415544 0.05045391 0.10398052 0.157029

conv2.bias f4 [16]
000000 67 99 9f 3c 37 15 4c 3e 51 1a 7b bd 15 6a 44 bd
       0.019482328 0.19929968 -0.061304394 -0.04795273
000010 40 d8 14 bd d1 f4 4f 3c 98 b8 41 3c cf f4 aa 3d
       -0.036339045 0.012692646 0.011823796 0.08347475
000020 27 47 0c 3e b6 1a 96 bd 38 59 0e 3e e9 3b 55 bd
       0.13699017 -0.073293135 0.13901222 -0.052059088
000030 ed 45 7b bd 98 5f 7c 3c d6 65 e4 3d b1 71 5b bd
       -0.061345983 0.015403651 0.11152236 -0.05357522

conv3.weight f4 [8, 16, 3, 3]
000000 4e b5 de bd 3a 70 dc 3d 51 93 43 bd 18 80 a9 3d
       -0.10874425 0.10763593 -0.047747914 0.08276385
000010 8c e7 0f 3e de ea 9b 3d cb a0 24 bb 05 1c be bd
       0.14053172 0.07613157 -0.0025120254 -0.09282688
000020 54 3f d7 3d 4e c2 cb be c8 c7 13 bd b2 36 c4 bd
       0.10510126 -0.3979668 -0.036079198 -0.09580745
000030 3f 91 9b be ff b4 17 3e fb 4a e4 bc b2 48 f2 bd
       -0.3038425 0.14815138 -0.027867785 -0.11830272
000040 5a f2 35 3e f1 47 9f 3e d8 12 07 3e 9a a2 a5 bd
       0.17768231 0.31109574 0.13190782 -0.080876544
000050 1b e7 4c 3d 0b 83 0f be 59 54 6c 3d e3 d7 38 bd
       0.050025087 -0.14014833 0.057697628 -0.04512776
000060 b8 c3 88 bd 72 f9 1b 3d 15 51 57 bd 5e ae fd 3d
       -0.066779554 0.038079686 -0.05256756 0.123867735
000070 51 d0 0c be 8e 6f 1d be fd 4e ab 3d c1 10 6d bd
       -0.13751341 -0.15374586 0.08364675 -0.057877306
000080 b5 61 c7 3d db de 17 be b0 50 38 bc 95 34 60 bc
       0.09735433 -0.14831106 -0.011249706 -0.0136844115
000090 91 68 23 3e d1 54 1b 3e 46 57 c0 3d 9f 0e b6 3c
       0.15957858 0.15169074 0.09391646 0.022223769
0000a0 35 80 2c 3e b9 69 23 bb ae b4 88 3d f1 26 ed bd
       0.16845782 -0.0024934842 0.06675087 -0.11579693
0000b0 97 fc d2 bd e0 b9 f7 bd 78 40 25 be d7 b4 03 be
       -0.10302084 -0.12096 -0.16137874 -0.12861954
0000c0 68 b4 b1 bc 1c 4d ac 3d 07 c2 35 bd 21 95 e9 3d
       -0.02169247 0.08413145 -0.044374492 0.11405397
0000d0 e9 1c fb bd ec d4 f8 3c bd f6 19 be c4 d6 c3 3d
       -0.122613735 0.030374967 -0.1503553 0.09562448
0000e0 f7 f5 a7 bd 99 5b 3f 3c 87 d4 93 3d ed 72 0d 3e
       -0.08201211 0.011679553 0.07218271 0.13813372
0000f0 5f 2f 4f bd 42 16 19 bd ca 97 fb 3d e3 3c fc bd
       -0.050582286 -0.037374742 0.12284811 -0.12316301
000100 e1 c8 86 bd 6b 9a 53 be e8 0d 12 3e 72 bb c5 3c
       -0.06581283 -0.20664375 0.14263117 0.024137232
000110 fe d6 1a 3d be ad 85 3e 71 14 77 3e a7 2f b7 3d
       0.03780269 0.26109117 0.24128892 0.08944636
000120 65 e4 87 be 6b 7a 9d be 1d 51 ad bd d5 cf 38 3d
       -0.2654144 -0.3075746 -0.08462737 0.04512008
000130 0a 7f e5 3c ce 64 de 3d 59 e7 0a 3e 1c 9b 38 3e
       0.028014679 0.10859071 0.13564815 0.1802792
000140 2f 06 45 3e 9f 40 dc bd aa e5 dc 3d e3 c9 96 bd
       0.1924064 -0.10754513 0.107859924 -0.073627256
000150 ee bc 2a 3c 49 8c b8 3d 0a 7b 30 3e b4 b0 02 bb
       0.010421021 0.09011132 0.17234436 -0.001994175
000160 95 5b 92 bd 3b 4b d7 bd 51 06 9b bd b2 b5 1e 3e
       -0.07146374 -0.10512396 -0.07569564 0.15498999
000170 de d6 5a 3e b1 7d 0d 3c 4b 1e e7 bd 6b a1 4d 3e
       0.21371028 0.008635924 -0.11285075 0.20081107
000180 f4 5e 90 be 4d 87 ac 3d 29 8b 8a bd 1f 60 45 3e
       -0.28197443 0.08424244 -0.06764824 0.19274949
000190 49 6e 8d bd 12 7e 3a 3e de a2 29 3e 7b 21 d3 3c
       -0.06905801 0.18212155 0.16566035 0.0257728
0001a0 ee 2d 44 bd 3a 25 06 be de eb 91 3d d3 39 bd bd
       -0.047895364 -0.13100138 0.07125066 -0.09239545
0001b0 5d 94 86 bd 99 c5 74 3d 98 4e 8e bd 26 09 04 bc
       -0.06571267 0.059758756 -0.06948584 -0.008058822
0001c0 fe f2 a0 bd 4c 0c d9 3d 83 34 f5 3d fb b6 5d 3d
       -0.07858847 0.105980486 0.119729064 0.054129582
0001d0 aa f7 8b 3c f4 c9 1c 3e 33 6e a3 3d 9b dc ed bd
       0.017085869 0.15311414 0.07980003 -0.11614343
0001e0 87 8f 4d bd 68 34 ed 3d b5 06 38 3d 03 e3 35 bd
       -0.050185706 0.11582261 0.04492827 -0.04440595
0001f0 f5 90 b7 bd 9e 94 4f bd 0b 5e f0 3d 02 da a7 3d
       -0.08963195 -0.05067884 0.11736687 0.081958786
000200 ff 9f 33 3e 50 d8 95 3d 2b ed c4 bd e8 0e b7 3d
       0.17541502 0.07316649 -0.09615549 0.0893839
000210 7d c3 62 bd 08 2c 3a be 24 fb 57 3d 35 ec 0b be
       -0.055362213 -0.18180859 0.05272974 -0.13664325
000220 46 b3 74 bc cb d7 65 bd c0 86 54 3e 62 82 45 3d
       -0.01493532 -0.056114 0.20754528 0.048220046
000230 9c 0f 82 be 0c 55 c1 3d 8a b1 2c 3e 50 8d aa 3d
       -0.25402534 0.094400495 0.16864601 0.083277345
000240 02 92 75 be 8f d5 35 be 99 6a a7 3d f6 a3 81 bd
       -0.23981479 -0.17757247 0.08174629 -0.06330101
000250 df 8e 1b be aa 12 28 3d b0 7d c9 3e d8 b7 87 3e
       -0.1519122 0.041033424 0.39353704 0.2650745
000260 7c fb a2 bc 42 3c fd bd 6f 1d fc 3c 86 a6 5b 3e
       -0.019895308 -0.12365009 0.030775754 0.21450242
000270 ce b8 20 be cb 6d b1 be b7 9f b7 bc 83 a3 1c 3e
       -0.15695497 -0.34654078 -0.022415025 0.1529675
000280 f5 c5 75 bd 7f b2 15 bd c8 28 fe bc 6d b7 b8 3d
       -0.06000324 -0.03654718 -0.031025305 0.09019361
000290 a1 8d 13 be cf 31 25 be a7 06 46 3c b2 46 ba ba
       -0.14409496 -0.16132282 0.012086547 -0.0014211743
0002a0 c4 85 8d 3d b6 19 4c bc bc 19 db bd b2 1c 8f bc
       0.069102794 -0.012457302 -0.10698268 -0.017469738
0002b0 fb df 35 3d 16 55 77 3c 0a 70 76 bd 48 1c 1c be
       0.044403058 0.01509597 -0.060165443 -0.15245163
0002c0 96 3a 23 bd 04 61 0b be d7 02 f0 bc 60 99 c7 3d
       -0.039850794 -0.13611227 -0.02929823 0.09746051
0002d0 bd f4 f8 3d 97 1c e3 3d d5 77 fd 3d 51 f7 e4 bd
       0.12156055 0.110894375 0.12376372 -0.11179984
0002e0 6c bb 1e be 72 05 be bd 8d c3 2c be c6 e7 d4 bd
       -0.15501183 -0.09278382 -0.16871472 -0.1039577
0002f0 d8 98 16 3d 19 8e 18 3e 47 9c 19 be d6 d5 0e be
       0.036766857 0.14897956 -0.15001021 -0.1394876
000300 fc ae 76 3d c5 fc 05 3e 5b 1c 5d bd 3c 21 cb bd
       0.06022547 0.13084705 -0.05398212 -0.09918448
000310 eb 98 d1 bc ec b3 dd 3d b0 93 18 bd b4 79 2e be
       -0.025585612 0.10825333 -0.03725022 -0.17038614
000320 27 9c e0 3d 51 c0 94 3d c8 8a 32 bc 2e e9 99 bb
       0.10967284 0.07263244 -0.010897346 -0.0046969866
000330 80 66 12 be 29 71 14 3e 07 d2 12 be 54 f5 95 3c
       -0.14296913 0.14496292 -0.14337932 0.018305458
000340 63 e1 b7 3d 46 05 96 3d 51 8a 69 be 6e 99 89 3d
       0.08978536 0.073252246 -0.2280667 0.067187175
000350 fe 53 90 3e b9 07 96 be d6 3d d7 bd d4 aa 8f 3e
       0.2818908 -0.29302767 -0.10509841 0.2806002
000360 99 f2 e0 bd 67 27 f0 3d 49 27 bb 3d c0 bf 73 be
       -0.10983772 0.117262654 0.091383524 -0.23803616
000370 1f 28 e3 3d dd e9 99 3d e0 1f 49 be c1 b3 bc 3d
       0.11091637 0.07515309 -0.19641066 0.09213973
000380 1e dc 37 3e 8e da 30 bd fd 13 0c 3e b7 91 bd bd
       0.17955062 -0.04317718 0.136795 -0.092563085
000390 b5 e8 f5 ba 1c d3 1c 3d f5 36 02 bd c1 1b c5 3d
       -0.0018761369 0.038287267 -0.031790692 0.09624434
0003a0 11 c9 da 3d bf 91 b5 bd 6b 09 0a 3d 7b 9e 3b be
       0.106828816 -0.088656895 0.033700388 -0.18322174
0003b0 89 fd 80 be 32 76 7b 3e bb c1 47 bc 92 d6 52 be
       -0.25193432 0.24556807 -0.012192185 -0.20589665
0003c0 1a a5 51 3e aa ee e0 3d 19 6d 5d bb 54 d3 ea 3c
       0.20473137 0.109830216 -0.003378695 0.028665222
0003d0 cc 1d 26 bc 17 dd 83 bd 77 6a f4 3d 0d 48 dd 3d
       -0.01013894 -0.06438654 0.11934369 0.10804758
0003e0 05 92 7c bd 1c a3 cb 3d 9a 9f 2a 3a de 60 47 be
       -0.061662693 0.0994322 0.0006508768 -0.19470546
0003f0 e5 85 d3 3d 27 ee 04 be 98 49 87 3d 10 c2 d6 3d
       0.10328273 -0.12981473 0.06605834 0.10486233

conv3.bias f4 [8]
000000 dd bb a2 3d 43 d0 8b be fe 5c 3c bd a1 a8 f0 3d
       0.07945988 -0.2730733 -0.04598712 0.117509134
000010 df 85 19 3e 84 63 f5 3c 84 30 7e 3e 77 1d 86 3e
       0.14992474 0.02995468 0.24823195 0.26194355

convt1.weight f4 [8, 8, 3, 3]
000000 50 4e 97 bd 6f 28 77 3d 03 2c f8 3d 4e 70 87 3d
       -0.07387984 0.060341295 0.121177696 0.06613217
000010 f0 77 5e be bd d8 d0 3d 6b 55 f6 3d cf c0 fd bd
       -0.2172544 0.101975895 0.12028011 -0.12390291
000020 36 6e 4f 3e 03 01 9b 3a be 34 4b be f4 00 54 be
       0.20256886 0.0011825863 -0.19844338 -0.20703489
000030 5a 63 17 bf c2 20 1a 3e 10 88 23 3e fe 36 83 3e
       -0.59135973 0.15051559 0.15969872 0.25627893
000040 90 89 7b 3e 72 c6 82 be f9 23 dd be 8b e6 0a be
       0.24564195 -0.25542027 -0.43191507 -0.13564508
000050 d4 da 82 be 9c 51 06 be 63 f5 2b 3e 6d 26 1a 3e
       -0.25557578 -0.13117069 0.16792826 0.15053721
000060 a0 b0 bd 3e ca 87 41 3e b2 04 a9 3e 44 93 da 3d
       0.37048817 0.18899456 0.33011395 0.1067262
000070 cf f4 1d 3e f2 56 9e bd b9 2e 05 bf 63 a0 7a 3c
       0.15425418 -0.07731427 -0.5202442 0.015297028
000080 cf 5d bd 3c 20 91 75 bd 49 7f c4 be ec dd e7 bd
       0.02311602 -0.059952855 -0.3837836 -0.11321625
000090 b6 e3 f3 3d 58 17 07 be bc 00 51 3e 33 41 d8 3d
       0.11908667 -0.13192499 0.20410436 0.10559311
0000a0 a8 72 b4 be 1c f7 40 3e 1a 7a c8 3d 29 a0 e9 3d
       -0.35243726 0.18844265 0.09788914 0.11407501
0000b0 d8 c9 64 3e c1 b7 4b bd 6d 17 32 3e ca 39 a6 bd
       0.22342622 -0.04973579 0.17391749 -0.08116491
0000c0 31 af 45 be 31 81 a5 bd e1 84 6c be ea 51 03 be
       -0.19305111 -0.08081282 -0.23097564 -0.12824216
0000d0 4a db ad be 8d d5 49 be 5f 8c c0 3d 5d e7 01 3e
       -0.33956367 -0.1971037 0.09401774 0.12685914
0000e0 e5 ea cd 3e 32 05 a4 3e df 4f 36 3e 5b b7 c2 be
       0.40218273 0.32035214 0.17803906 -0.38030514
0000f0 f9 30 91 bd 84 a2 a5 bd 01 eb 8c be b0 ac f2 3c
       -0.07089419 -0.08087638 -0.27523044 0.02962336
000100 82 43 b6 3e c3 1f 1d 3d eb 99 d9 3d 3f 02 91 3d
       0.3559838 0.03836037 0.10625061 0.070805065
000110 a1 4c a6 3a e6 97 cf 3c 9f a6 82 be 87 41 a5 be
       0.0012687632 0.025340986 -0.25517747 -0.32276556
000120 af 50 0c 3e 48 94 16 be 40 65 47 be 96 66 5d be
       0.13702653 -0.14705002 -0.19472218 -0.21621165
000130 aa e1 32 bd e0 12 ef 3d 62 24 6d be e9 da c0 bd
       -0.04367224 0.11673522 -0.2315841 -0.09416754
000140 c8 ba 02 3e 93 6c ff 3c a0 43 e8 be eb 80 39 3e
       0.12766564 0.031179702 -0.45364094 0.18115585
000150 a4 ec fb 3d 6a e2 c4 3d 7d 65 49 3e 4a 6d 87 3e
       0.12300995 0.096134976 0.19667621 0.26450568
000160 65 d7 46 bd 7f 57 cd be 3b 90 52 3e 2e 58 59 3d
       -0.04854526 -0.40105817 0.20562832 0.05306261
000170 00 cb 9a 3d 34 41 84 bd c0 d3 7f 3e 72 fc 20 3e
       0.075582504 -0.06457749 0.2498312 0.157213
000180 71 29 56 3e 17 01 dc bd 52 29 c3 be af ac 18 3e
       0.20914246 -0.10742395 -0.38117462 0.14909624
000190 7e 2f cf bd a4 37 15 be 51 64 b3 be 40 ee bf bd
       -0.1011648 -0.14572006 -0.35037473 -0.093716145
0001a0 cc 86 5f 3d fb 19 5a be 61 02 7e be d7 ae c4 bd
       0.05457191 -0.21298973 -0.24805595 -0.096036606
0001b0 ac 21 e0 bc e7 37 f7 3e 17 68 3d 3e a7 b6 83 3e
       -0.027359806 0.48284838 0.18496738 0.2572529
0001c0 2e 9b 76 be 02 e8 f4 3d d6 33 91 3e 7b b9 05 bd
       -0.24082634 0.119583145 0.2835986 -0.03264759
0001d0 6f 5a a2 3e be 4d ca 3e ac 5c 17 be bb 52 11 be
       0.3170962 0.39512438 -0.14781445 -0.14191715
0001e0 8e d8 0c bf a4 96 9b bd 87 c3 e0 bd 5b fa 5e be
       -0.55017936 -0.07597092 -0.10974794 -0.2177519
0001f0 66 75 96 3d 9f a0 f3 3d c0 6f 66 3e 7a 37 9b 3e
       0.07346611 0.118958704 0.22503567 0.30315763
000200 35 71 c5 3e c7 89 32 be 09 8b 16 be 5d eb 1c 3e
       0.38562933 -0.1743537 -0.14701475 0.15324159
000210 4e 1e 86 3d 4b 3f ca bb 05 06 5f be c7 6e 0a 3e
       0.06548749 -0.006172096 -0.2177964 0.1351882
000220 4b 78 c2 be 54 52 b7 be 39 9c 15 3d fb cb 1f 3e
       -0.379824 -0.35805 0.03652594 0.15605156
000230 59 20 27 3d fd b3 cc bd 84 70 70 3e 15 ae a5 3d
       0.040802334 -0.099952675 0.23480421 0.08089844
000240 53 53 f5 bd 0c a0 14 be 41 e4 ee bd 8b 07 d1 3d
       -0.119787835 -0.14514178 -0.1166463 0.10206517
000250 53 14 0d 3e 11 e6 1b be 58 d5 dc bd c7 d0 26 3e
       0.13777284 -0.15224482 -0.107828796 0.1629058
000260 04 98 e3 ba a7 ae c7 bb cb 36 fb 3d 5e aa 1f 3e
       -0.001736403 -0.006093818 0.1226631 0.15592334
000270 d1 84 22 3e df 10 38 be 9d c7 00 3e 95 f6 b6 bd
       0.15870978 -0.17975186 0.12576146 -0.089337505
000280 b9 c1 e1 bd b2 94 f0 bc 5c 28 66 bd 89 a0 ad bd
       -0.11023278 -0.029367778 -0.056190833 -0.08477885
000290 22 4e 25 3e 4e e1 58 bd 7d 5c 31 3e b1 49 a9 bd
       0.16143087 -0.052949242 0.17320438 -0.08266009
0002a0 20 8e 34 3e c7 b7 82 3d d2 79 dd bd 6a de f8 bd
       0.17632341 0.06382709 -0.10814251 -0.12151797
0002b0 dd e6 c1 3d 0e a1 51 be 17 50 cc bd 90 5c 43 be
       0.09467862 -0.20471594 -0.099762134 -0.19078279
0002c0 e7 a6 8b 3d 94 08 04 3e 86 a5 13 be fb 75 b5 bd
       0.068189435 0.12893897 -0.14418611 -0.088603936
0002d0 57 94 f6 3d a3 04 8b 3b bc cb c8 3d 22 b1 3e 3a
       0.12040012 0.004242496 0.09804484 0.00072743197
0002e0 68 bd eb bd 35 b4 53 bd 1d 52 fa 3d 8f dc b7 3d
       -0.11510736 -0.05168553 0.12222693 0.08977615
0002f0 f4 44 b4 bc 7c e9 b1 3d f1 b7 b1 3d 4b 7b 18 3e
       -0.022005536 0.08687112 0.08677662 0.14890783
000300 98 32 c8 bd 25 54 69 bd 94 e9 83 bc 0f b1 06 3e
       -0.09775275 -0.056965012 -0.01610259 0.1315348
000310 7b b6 11 be de 77 4c bb 79 a5 e2 bd 73 a8 df bd
       -0.14229767 -0.0031199376 -0.11066718 -0.10920801
000320 b4 1b 8f bd 4b 3e 29 3e 41 b0 59 3d a9 e7 50 bb
       -0.06987706 0.16527669 0.053146604 -0.0031876361
000330 f4 78 ee 3d e7 66 7d bd d8 fe 2e 3e 60 05 ab 3d
       0.11644164 -0.061865713 0.17089403 0.083506346
000340 70 50 63 3c 58 d5 bc bc a5 25 61 3d 31 35 4f 3e
       0.013874158 -0.023050949 0.05496754 0.20235135
000350 2f e0 34 be 1e 8e 08 be 09 df ea bd 0c f8 fc bd
       -0.17663644 -0.13335463 -0.11468322 -0.12351999
000360 93 e6 8e 3e dc d0 e5 be ec 52 44 bd ca 52 96 bb
       0.2791029 -0.4488591 -0.047930643 -0.004587506
000370 ac 30 db be df 78 63 be 80 b9 78 3e 81 79 b9 bd
       -0.4281057 -0.22214077 0.24289513 -0.09056378
000380 1b da 10 be fe 33 24 be c6 82 40 be 78 a3 dd 3c
       -0.141457 -0.16035458 -0.18799886 0.027055487
000390 34 4c 56 be 00 60 e6 bd 43 0e e0 3e e2 af 2e be
       -0.20927507 -0.11248779 0.4376088 -0.17059281
0003a0 20 56 15 be 53 d5 51 3e 41 13 1c be ea 36 22 3e
       -0.14583635 0.20491533 -0.1524172 0.1584126
0003b0 8f c7 3a be 98 f6 39 3e 17 5f 08 be 75 3d 67 be
       -0.18240188 0.18160474 -0.13317524 -0.22582038
0003c0 0f 60 70 3e 9a cd 11 3d 31 05 8e 3e 60 77 39 be
       0.23474143 0.035596468 0.27738336 -0.18111944
0003d0 a5 55 e6 bd 53 fd f5 bd 2e 9c 00 bf 5a dc 24 3e
       -0.11246804 -0.120112084 -0.5023831 0.16099682
0003e0 30 73 84 bc 31 5f 14 bc 45 2f 2a be 8b a6 3d 3d
       -0.016168207 -0.0090558985 -0.16619594 0.046301406
0003f0 30 d6 6c 3b 38 8d 1e 3e 1f e7 0a 3e 97 c4 71 be
       0.0036138408 0.15483558 0.13564728 -0.2361015

convt1.bias f4 [8]
000000 3d ba 90 bb 92 77 89 3d 6f 40 f8 bc f5 5e c6 bc
       -0.0044167326 0.06712259 -0.030304162 -0.0242152
000010 2b 0c 47 bd b9 64 c5 3c 5b ff 6e bb b6 e9 aa bd
       -0.04859559 0.02409588 -0.0036468122 -0.08345358

convt2.weight f4 [8, 16, 5, 5]
000000 5d e6 90 be 0c 84 8d be 9a e1 0a bf 41 a5 56 bd
       -0.28300753 -0.27639806 -0.5425049 -0.052403692
000010 91 d0 79 be 83 c3 46 bd ba 2e 99 be 2b 85 92 bf
       -0.24395968 -0.0485263 -0.29918462 -1.144689
000020 c2 1f 02 bf 46 e1 81 be d1 df 11 3e dd 69 9f bd
       -0.5082971 -0.25367182 0.14245535 -0.07783864
000030 49 95 09 be 8d 62 cc be c7 17 f4 be 0e 1d 1f be
       -0.13435854 -0.39918938 -0.4767439 -0.15538427
000040 d8 e2 ad be 2c 3d 3f be 16 0e 15 be c4 29 0a bf
       -0.3396213 -0.18675679 -0.14556155 -0.5396998
000050 ae 19 93 bc fc b6 d6 be 5d 3a f7 be a4 01 d4 bd
       -0.017956581 -0.4193648 -0.48286715 -0.103518754
000060 aa 65 e1 bd 08 34 0b bf 04 33 83 be e1 bb fc be
       -0.11005719 -0.5437627 -0.2562486 -0.4936209
000070 67 99 52 bf 7e 91 02 bf a5 78 90 be e6 2f 3c bf
       -0.82265323 -0.51003253 -0.28217044 -0.7351059
000080 9c 1e 28 be 6a b5 61 be 72 bd 53 be ae 86 57 be
       -0.16417927 -0.2204186 -0.20677736 -0.2104747
000090 cc ce 1e be 24 a0 b0 be 28 df 30 be 20 0c be 3b
       -0.15508574 -0.34497178 -0.17272627 0.0057997853
0000a0 a1 4b 18 bf fe 97 b2 be b1 34 9e be 0d e2 a3 be
       -0.594904 -0.34881586 -0.30899575 -0.320084
0000b0 0d af 78 be 27 03 52 be 4f 75 23 be c2 a6 92 3d
       -0.24285527 -0.20509015 -0.15962718 0.07160713
0000c0 56 6a e5 bd 03 17 fb 3c 39 3a 1d 3e 8e 1d 54 bf
       -0.112019226 0.030650621 0.15354241 -0.82857597
0000d0 7f 82 5d bf 47 97 bd 3b d3 fc ec bd 86 bf a7 bc
       -0.86527246 0.005785856 -0.1157166 -0.020477068
0000e0 bf cf da 3c db 00 90 bd 1e 5e f0 bd 62 3a 80 be
       0.02671039 -0.07031413 -0.117367014 -0.25044543
0000f0 53 a9 12 3e bc 8d 04 bc 9e 77 c2 3d 69 45 52 3e
       0.14322405 -0.008090433 0.094954714 0.2053429
000100 31 93 a4 3d f5 86 06 be 09 7b 87 be 83 09 64 be
       0.08035887 -0.1313742 -0.26461056 -0.22269253
000110 b9 ad 14 3e c2 db 2f bf 0d fe 08 3e b0 86 00 be
       0.14519395 -0.686947 0.13378163 -0.12551379
000120 ad 5b 47 be 25 bd 40 3d b1 c6 2b be f5 f7 28 3e
       -0.19468565 0.047055382 -0.16775014 0.16500838
000130 12 47 14 bb ea 8e 69 bd a7 4f 28 be 3b eb 8a bd
       -0.002262537 -0.05702106 -0.16436635 -0.06783148
000140 83 ef dd 3d 22 7e 85 be be 1a b0 3d 39 f8 bc be
       0.10836699 -0.26072794 0.08598851 -0.3690813
000150 8b 7a d6 3c 65 1a 51 be dc ee c8 bd 9e 26 3d be
       0.02618148 -0.20420225 -0.09811184 -0.18471763
000160 b6 8c e0 be af 42 c6 bd 3f 25 51 be d6 7e 08 3e
       -0.43857354 -0.09680688 -0.20424365 0.13329634
000170 ff 55 26 be fc 62 db 3d 1b 6b 57 be 84 65 db 3d
       -0.16243742 0.10712239 -0.21036951 0.10712722
000180 2c 58 97 3d 33 06 67 be 0e c7 0e 3e 58 fa 5d be
       0.07389864 -0.22560959 0.13943121 -0.2167753
000190 dc 8d 64 bd 11 a0 19 bc b3 5b ca be 28 71 8f bd
       -0.05579935 -0.009376542 -0.39523086 -0.07004005
0001a0 fe 3d 83 3d 97 4f 0a bf 9b d4 15 bf 2c 3f 55 be
       0.064083084 -0.54027694 -0.58527535 -0.2082488
0001b0 50 5c 05 bf e3 ca f8 be 9c 9a 4e bf f4 e7 76 be
       -0.5209398 -0.4859229 -0.80704665 -0.2411192
0001c0 2b 0b f0 bd 3e 2a fb be 2f 0e 08 bf b1 2a 9f be
       -0.1172088 -0.49055666 -0.5314664 -0.31087258
0001d0 b2 e3 0d be 42 45 aa be 10 af 8c bd 7c 98 24 bd
       -0.1385639 -0.33255965 -0.06869328 -0.040184483
0001e0 26 ff dd be a4 c7 08 be 1a ff 7f bf 84 34 e3 be
       -0.43358725 -0.13357407 -0.9999863 -0.44376004
0001f0 d7 55 a2 bd 84 ff a4 be 20 e1 e6 bd 3e 85 bd bd
       -0.07926529 -0.32226193 -0.11273408 -0.092539296
000200 50 2b 2d bd 2c 23 82 be c8 8f c5 3d 8e 86 13 3c
       -0.042277634 -0.2541746 0.09646565 0.009004248
000210 cd 51 fb bd 4b f5 14 be 8b f3 a7 bd 26 2c 59 3d
       -0.12271462 -0.14546697 -0.08200749 0.05302062
000220 96 81 68 3c 6d 1f b8 bd 2b 93 8c bd d4 10 1b bd
       0.014191052 -0.08990369 -0.068640076 -0.037857845
000230 42 f8 4f be 08 c7 3f be 1c 11 f3 bd f5 46 e9 3d
       -0.20309547 -0.18728268 -0.11868498 0.11390487
000240 1d 7b 44 be 5f f3 73 3e b3 44 d8 3d 7b 6b 02 be
       -0.19187589 0.23823307 0.10559978 -0.12736313
000250 6f 18 27 be bb b9 a2 bf 32 c8 e2 bd df d8 d4 bd
       -0.16317914 -1.271293 -0.110733405 -0.103929274
000260 f9 85 e0 bd 17 bc 73 be f7 e7 7a be 3c 3f 96 be
       -0.10963053 -0.2380222 -0.2450255 -0.2934512
000270 39 d0 39 bf f2 88 d8 bd 11 69 35 bf aa fd 8e bd
       -0.7258335 -0.10572995 -0.70863444 -0.06981976
000280 5b 2a 81 be 9d 24 f4 bd b8 16 ee ba 97 6e 86 be
       -0.25227627 -0.11921046 -0.001816473 -0.26256248
000290 1b 92 a1 bc 6b 1c 01 bf 64 54 32 be 7b 5d 09 3d
       -0.019722989 -0.5043399 -0.17415005 0.033536416
0002a0 6f 95 9e bd 32 fd 27 bf 01 23 45 be 2c bc bc be
       -0.07743346 -0.6562072 -0.19251634 -0.36862314
0002b0 23 53 e8 bc e0 42 48 3d a2 0c 9a be c4 58 35 3e
       -0.028359955 0.048891902 -0.30087763 0.17709643
0002c0 17 83 f0 be 96 dd 56 3e 4b 79 4a 3e 5f 3f 9b 3e
       -0.46975014 0.20982966 0.19772832 0.30321786
0002d0 0e d9 9b be 76 9d a6 be 4b 98 54 be bf b3 dc be
       -0.30439037 -0.32542008 -0.2076122 -0.43105885
0002e0 14 60 2c bf cd fd af 3d 2a e5 41 3e 33 2d 31 3c
       -0.67334104 0.085933305 0.18935075 0.010813999
0002f0 68 46 9d be b8 95 62 3e 90 77 c3 3c f0 7b 5b 3c
       -0.30717778 0.22127426 0.023860723 0.013396248
000300 3b a5 51 bf 00 f2 80 be d6 7e da bd 6b 74 10 3e
       -0.81892747 -0.2518463 -0.10668723 0.1410691
000310 ab 11 14 3e 60 96 8d 3e 69 a3 8f 3a c9 42 1e 3e
       0.14459865 0.2765379 0.0010958734 0.15455164
000320 f6 ec d4 be de a7 c2 bc 84 6a 8c be 55 2d 93 be
       -0.41587037 -0.023761686 -0.27425015 -0.28745523
000330 ff eb 33 bf 54 b7 86 be e0 90 38 be 96 28 5a be
       -0.70281976 -0.26311743 -0.18024015 -0.21304545
000340 da 60 bc be 9f 71 9b 3d fe 61 25 3e 99 bc a1 be
       -0.36792642 0.07590031 0.16150662 -0.315892
000350 28 3e 74 bf 2f c2 d6 3d 18 1d 87 bd f6 27 1c be
       -0.9540734 0.10486256 -0.06597346 -0.15249619
000360 db b6 fc bd 53 48 a9 bd b0 50 b9 be 9c c5 b2 bd
       -0.123395644 -0.08265748 -0.36194372 -0.08729097
000370 3b 8b b9 be 7a 66 8c 3d 96 1b f4 3d 1e 9f b1 3c
       -0.36239037 0.06855483 0.11919324 0.021682318
000380 b5 3d 2c bf 6b af e0 3d e0 fb a5 3c 53 05 b0 3d
       -0.6728166 0.10970958 0.020261705 0.085947655
000390 d6 56 af 3d 6e 84 77 bd e9 0e c0 bd a3 7e 32 bf
       0.085614845 -0.06042903 -0.09377844 -0.6972448
0003a0 15 92 f1 3d 79 b3 50 be 7b c1 71 3d 98 9f 2c be
       0.11795441 -0.20380963 0.059022408 -0.16857755
0003b0 72 4f 61 be 6d b1 0f be f9 3a a6 bc a6 b9 ac bd
       -0.22002962 -0.14032526 -0.020291792 -0.08433847
0003c0 fc 2b 81 3d e4 8c 0a 3e 97 f8 c3 3c 0e af db bd
       0.063072175 0.13530308 0.023922248 -0.107267484
0003d0 c8 b9 a3 bc d8 fa b1 3d 5a 66 fa 3d f7 62 82 3c
       -0.019986048 0.08690423 0.12226553 0.01591633
0003e0 d3 e2 d6 be c6 4e 90 be 7f f1 c8 bc 2f a5 c4 bd
       -0.41969928 -0.281851 -0.024529217 -0.09601819
0003f0 92 05 34 bd 2e e2 20 bf 75 f2 37 3c 72 6f 72 be
       -0.043950625 -0.6284512 0.01122724 -0.23675326

convt2.bias f4 [16]
000000 8b ad 8f 3d 89 10 fa 3d 2f 10 0d 3d 31 56 b7 3c
       0.070155226 0.12210185 0.034439262 0.022379966
000010 61 e8 87 3d e6 24 17 3d 56 f6 ac 3d 4f 0d cb bd
       0.0663612 0.036900423 0.08445422 -0.09914648
000020 20 91 f4 3d d7 8b 58 3d b7 df f1 3b 9e 49 ea 3d
       0.11941743 0.052867737 0.007381405 0.114398226
000030 ce a0 36 3d 0f 22 9f 3d e1 9f a7 3c 09 fb 6b bb
       0.04458695 0.07770168 0.020461978 -0.0036007783

convt3.weight f4 [16, 32, 9, 9]
000000 c1 58 70 bc be f3 fd 3c a7 9c d8 bc 64 ba 27 3c
       -0.014669598 0.031000014 -0.026441885 0.01023731
000010 ea 5f 9a 3b 45 83 61 bc 41 d4 5e 3b db 38 3e 3c
       0.004711141 -0.013764207 0.0034001025 0.011610235
000020 f2 fa 8f 3d 1e 91 6b bd 83 2e 39 3d 4c d8 60 3d
       0.07030286 -0.05751144 0.045210373 0.054893777
000030 7a c4 03 3d 81 10 3d 3d 66 53 83 3b bf d6 60 3b
       0.032169797 0.046158317 0.0040077446 0.0034307686
000040 12 34 48 3d 4c e3 d1 3d 4e 99 b9 3b cd 02 1a 3d
       0.048877783 0.102484316 0.0056640273 0.037600327
000050 23 26 b6 3c 00 08 36 3d 1e 55 26 3d 26 64 e3 3b
       0.022234982 0.044441223 0.040608518 0.006939429
000060 e8 46 9e 3c e7 25 5e 3d 88 ed b6 3d 62 ec 96 bc
       0.01932092 0.054235365 0.08932024 -0.018423263
000070 4d 6e e3 3c 1a c6 9c bd f3 99 b3 3c 31 84 fb bc
       0.027762556 -0.076549724 0.021923995 -0.030702682
000080 29 f6 23 bd 49 ea f5 3c cf 92 42 bc 4d a6 37 ba
       -0.04002968 0.030018942 -0.011875822 -0.0007005677
000090 9b 03 ca 3c 70 af d9 3c b5 85 1c 3d f7 4b e5 3c
       0.024659922 0.026572913 0.03821345 0.027990324
0000a0 d2 6d f5 3c a5 91 05 3d f4 35 bc bc be cc 90 bc
       0.029959593 0.0326096 -0.022974946 -0.017675754
0000b0 f7 e5 33 3d 44 cf 23 bc 0b f2 b1 3d 78 b9 da bc
       0.043920483 -0.009998146 0.08688744 -0.026699767
0000c0 d8 56 ab bb 5c 68 54 3d 58 69 8a bd e4 c6 1a bc
       -0.0052288584 0.051857337 -0.06758374 -0.009446833
0000d0 4e f3 b8 3d 8f 2e f8 3c 99 e8 07 bc b2 c3 bc bc
       0.09030782 0.030295638 -0.008295202 -0.023042534
0000e0 0a 72 fb bc 61 07 b7 bc ee 16 51 3c 31 a4 aa bb
       -0.030694026 -0.022342386 0.0127618145 -0.0052075614
0000f0 0a 2a df 3c c9 a6 bf ba 85 08 94 3d d1 a6 2d bd
       0.027241725 -0.0014621849 0.072281875 -0.042395417
000100 b5 55 83 3d 12 bd 86 bd 08 82 cf bc ae 69 01 3d
       0.06412832 -0.06579031 -0.025330558 0.031594925
000110 a1 ca 2e bd bd 3d 9f bc 9b 85 7a bb 49 d0 50 bc
       -0.04267371 -0.019438619 -0.0038226608 -0.012744972
000120 9b 10 97 3d 23 31 86 3d 62 90 09 3d 41 62 b0 3d
       0.07376214 0.06552341 0.03358496 0.086124904
000130 5b ca ac 3d 00 b1 c2 3d cb 0e c7 3d e5 c0 a0 3d
       0.08437034 0.09506416 0.097196184 0.07849292
000140 24 85 3b 3e fa 9e 27 3a 73 28 01 3e 27 17 22 bd
       0.18312508 0.0006394234 0.12613086 -0.03957286
000150 b1 ad a4 bb 47 57 f8 3d b9 97 3b bd 33 d2 33 3c
       -0.0050255884 0.12126022 -0.04579899 0.010975408
000160 09 58 73 3d 71 5d fb bc 45 6e 3b 3e 9a b9 27 3e
       0.05941013 -0.030684205 0.18303783 0.16379395
000170 69 b7 df 3b e7 c5 be 3d 0d 6f 4a 3e f7 f3 18 bd
       0.006827284 0.093150906 0.19768925 -0.037342038
000180 ff cd 17 3e 64 61 97 3d 93 82 0e 3b 1b 39 64 bd
       0.14824675 0.07391623 0.0021745309 -0.055718523
000190 8d ee 46 bd 51 fc 4c 3e 33 43 64 bd f4 86 85 bd
       -0.048567344 0.20018126 -0.05572815 -0.06519881
0001a0 b1 47 f7 3d db a7 ff bc ee 53 83 bd f6 2f 23 3e
       0.12074221 -0.03120797 -0.06412493 0.15936264
0001b0 2b 3e 94 bc 77 04 8d 3e 5f 19 24 bc 0b 9a 58 3a
       -0.01809605 0.2754247 -0.010015815 0.00082627
0001c0 a0 12 60 3e 9d 64 1a 3c bc 92 13 bc d1 45 52 3e
       0.21882105 0.009423402 -0.009007152 0.20534445
0001d0 fd 6a 58 bc 87 1d 80 3e 6a df 93 3e 75 de 3c bd
       -0.013209102 0.25022528 0.2888139 -0.04611059
0001e0 2d ba 5c 3e ad 35 33 3e 6b 3c 27 bd 63 88 80 3e
       0.21555395 0.17500944 -0.040829103 0.25104055
0001f0 9b ad 7b 3e 2f 67 bd bc 73 35 94 bd 9e c9 83 bd
       0.24577944 -0.02312049 -0.07236757 -0.0643494
000200 5d af 6a 3e 0d 3a 44 bd 6b ea d1 bc 96 a1 42 3e
       0.22918458 -0.047906924 -0.025624475 0.19006953
000210 68 9f c0 bd 53 05 00 bd 15 f8 78 3e 80 6b 65 3b
       -0.09405404 -0.031255078 0.24313386 0.0035006702
000220 4b f1 97 3e d9 16 b9 bc a3 c6 81 bc d2 1b 80 3e
       0.2967628 -0.022593902 -0.015841788 0.25021225
000230 c7 d0 d8 3b 7b ca 22 bd 59 a5 42 3e a3 47 8a bc
       0.006616685 -0.03974388 0.19008388 -0.016879862
000240 ae 87 cf 3e 08 10 91 3e c3 8d 00 3c a7 52 b7 3e
       0.40533203 0.28332543 0.007846299 0.35805246
000250 b9 e8 3b 3e d2 bb 3e b8 ee 92 95 3e b7 e2 38 3e
       0.18350495 -4.547445e-05 0.2921366 0.18055235
000260 ec c8 00 bd 7a 31 99 be 5b c7 9f bc 79 2f 9d 3e
       -0.031441614 -0.2992056 -0.01950424 0.3070028
000270 4b 7d 66 be 6d 43 49 bd 60 09 94 3e d3 4d 70 be
       -0.22508733 -0.049136568 0.28913403 -0.23467188
000280 52 fc 02 bd 37 ff 52 3e 64 61 62 3d 32 05 d5 3d
       -0.031978913 0.20605169 0.05526866 0.104013816
000290 29 b4 31 3d 02 a2 f3 3b 26 d7 a8 3c 83 59 65 3a
       0.043384705 0.0074350843 0.020610403 0.0008748995
0002a0 59 04 2c bc b7 ea 6a 3d ca 52 f4 3c 61 af 73 3d
       -0.010499083 0.057352748 0.029824633 0.059493426
0002b0 38 7a 63 3d 7a 12 e2 3c 0d 78 21 3d 81 6e 49 3d
       0.05553648 0.027596701 0.03942113 0.04917765
0002c0 10 a1 2f 39 af 15 05 3d 4d 59 7d 3d dc 17 82 3d
       0.00016749301 0.032491382 0.061852742 0.06352207
0002d0 85 fd 59 3d 70 7d 5f 3d af 95 87 3d 49 07 8c 3d
       0.05322029 0.054562986 0.06620347 0.06837327
0002e0 66 e2 68 3d 8d 97 09 3d 58 6a 9f 3c 4a 47 2e 3c
       0.056856535 0.033591796 0.019459888 0.010637114
0002f0 a0 c5 7f ba 55 03 7f 3c 23 2d 34 3d ff 52 1f 3d
       -0.00097569264 0.015564759 0.04398836 0.03889751
000300 bf b1 f4 3c 0f 0f be 3c 9e e9 bf 3c 12 01 0a bc
       0.029869912 0.02320054 0.023426827 -0.008423107
000310 1b da da bb fe 5f 83 3c 0a c7 37 3d 34 de bb 3d
       -0.006678832 0.016036984 0.044867553 0.09173241
000320 b5 96 37 bc 72 fb 29 3b 33 a5 73 3d c6 ec 6f 3c
       -0.011205365 0.0025937227 0.059483718 0.0146438535
000330 39 07 83 bb a1 eb 17 3d bc 5c e8 3c 16 1b 3c 3d
       -0.0039986637 0.037089948 0.028364532 0.04592427
000340 80 43 31 3d c5 ee c7 3c c6 b0 ed 3b ef a4 74 3d
       0.043277264 0.024405846 0.007253739 0.059727605
000350 58 fb 0a 3d bb ae d2 3c 06 b3 86 3d cd d7 53 3d
       0.033931106 0.025718084 0.06577115 0.051719476
000360 21 47 49 3c dc 87 4c 3d 44 23 86 3d 51 d4 f2 3c
       0.012285025 0.049934253 0.06549695 0.029642256
000370 8a 87 3a 3d d0 2f 85 3d fb 9e 54 3c 85 87 8a 3b
       0.045539416 0.0650326 0.012977357 0.004227581
000380 1b 94 a6 3d da 27 95 3d 41 89 95 3d b9 c5 0c 3b
       0.081337176 0.07282992 0.0730157 0.0021480157
000390 41 8b 31 3d e9 b3 76 3d f7 6a 47 3b b9 93 6c 3d
       0.043345693 0.06023017 0.0030428746 0.057758067
0003a0 ca aa 1c 3d b8 22 62 3d 3a f6 e2 3d 5e e3 16 3d
       0.038248815 0.05520889 0.1108212 0.036837928
0003b0 9f 6d 3c 3d e0 cd 60 3d 44 bf 56 3d 1b 05 3d 3d
       0.04600298 0.054883838 0.0524285 0.046147447
0003c0 0b 94 a0 3d 15 dc 8f 3d 13 25 8d 3d df 2d 51 bc
       0.07840737 0.07024399 0.06891837 -0.012767284
0003d0 44 08 7c 3d 62 5b 39 bc 3f ba 18 3c 61 97 a3 bc
       0.06153132 -0.011313291 0.009321748 -0.019969644
0003e0 e1 ad 50 bd 04 2b b3 bd 81 a9 a0 3d ae c9 44 bc
       -0.050947074 -0.08748439 0.0784483 -0.012010975
0003f0 72 06 09 bd 77 2b 80 bb c4 a7 37 3c 73 cc 18 3d
       -0.033453412 -0.0039114314 0.011209432 0.037304353

convt3.bias f4 [32]
000000 c2 3d db 3c 9c 26 11 be 40 fd 34 3e ba ca a0 3d
       0.026762847 -0.14174885 0.17674732 0.07851167
000010 b5 f6 02 3e 76 8f 2b 3c 11 21 d7 3c 43 53 2a 3e
       0.12789424 0.0104712155 0.026260884 0.16633324
000020 95 66 d2 bd 4d f7 06 ba c1 c7 6c 3c 28 34 17 3e
       -0.10273472 -0.0005148545 0.014451922 0.1476599
000030 b9 ef 4c 3d 8d 8c 49 3e f4 e6 16 be 9e de 05 3e
       0.050033305 0.19682522 -0.14736539 0.13073203
000040 8f f9 13 3d 24 78 d7 bd 8a 13 99 3c 2c b1 c7 3d
       0.03612667 -0.10520962 0.018686075 0.0975059
000050 d6 cd 17 3c ac 00 b3 3d 5f 03 1d 3e 16 14 02 3e
       0.009265384 0.087403625 0.15333317 0.12702975
000060 aa f1 9e 3d b1 2b e1 3d a6 d6 16 be 81 6c c3 3c
       0.077609375 0.109946616 -0.1473032 0.02385545
000070 9c 01 18 3d e2 e6 76 3d fb 38 b3 3d 74 85 1c 3d
       0.03711091 0.06027878 0.087511025 0.03821321

pos_output.weight f4 [1, 32, 2, 2]
000000 40 5b 5a 3e 81 80 c5 bd e0 14 04 be c2 17 cc bd
       0.21323872 -0.09643651 -0.12898588 -0.09965469
000010 66 ca bf 3c 69 55 52 3d 22 f5 cb bc 99 fc a3 ba
       0.02341194 0.051350985 -0.024897162 -0.0012511193
000020 aa b7 2e 3e d9 6f 46 bd b7 2d 26 3d 62 f4 09 bd
       0.1706225 -0.04844651 0.04057094 -0.033680327
000030 06 ee b4 bd fe bc 89 3c c1 f7 49 3c 00 b9 7d bd
       -0.08834462 0.016813751 0.012327136 -0.061944008
000040 c1 4d c9 3e 85 4e 95 3e f3 fc 54 3e 9e 5a 85 3e
       0.39317134 0.29161468 0.20799617 0.26045698
000050 c5 94 f0 3d da bf 34 3d b0 43 e7 3d 74 d3 fc 3d
       0.117471255 0.044128276 0.11292207 0.12345019
000060 d3 7d dc 3e ce b1 51 3e 93 e0 9f 3e ff 3a 2e 3e
       0.43064746 0.20477983 0.31226024 0.17014693
000070 df 5a 16 3e 9b 2d 5b bc bd f3 4c bc 58 4f 4c bd
       0.14683102 -0.013377572 -0.012509284 -0.049880356
000080 64 71 59 3e 26 aa e1 3d a8 90 4f 3e fe 5e 93 3e
       0.21234661 0.11018781 0.20270026 0.2878341
000090 ef 73 d9 3d 6b 86 fb bd db d1 c8 bc fe 59 dc bd
       0.10617816 -0.122814976 -0.02451413 -0.10759352
0000a0 ca f6 02 3f 90 5e 06 3f 1e a1 2a 3f ee 53 31 3f
       0.5115782 0.5248804 0.66652095 0.6926869
0000b0 34 fd a4 3e c1 32 e9 3e da 72 eb 3e 19 65 d0 3e
       0.3222443 0.45546535 0.45986062 0.4070213
0000c0 65 45 65 3e 46 fa b3 bd 9b f4 0e be 42 9f 45 3d
       0.22389753 -0.0878797 -0.13960497 0.048247583
0000d0 03 24 19 3e c0 27 61 be a1 b6 fc 3d ea 64 c8 3d
       0.14955144 -0.2198782 0.12339521 0.09784873
0000e0 66 fd 4c bd 12 a7 f4 bc 1b 61 ce 3d 38 82 43 3c
       -0.050046347 -0.029864822 0.10077115 0.011932902
0000f0 29 da 01 bd 68 2c bd bd 16 9d 6e 3c 99 58 ed bd
       -0.031702194 -0.092369854 0.014563819 -0.11589164
000100 b2 8b a9 3e 81 f3 9b 3e 9e 81 95 3e 6b 29 87 3e
       0.33114392 0.30459216 0.29200453 0.26398787
000110 95 cd 32 be 7c a0 2b be d3 5c 0e 3d 51 27 1c 3d
       -0.17461236 -0.16760439 0.034756493 0.038123433
000120 93 8c 20 3f 00 de 14 3f 28 76 be 3e 24 3f c6 3e
       0.627145 0.58151245 0.3719952 0.38720047
000130 36 58 24 3e 5a 3b 35 be 50 47 a4 bd c5 55 66 3d
       0.16049275 -0.17698422 -0.08021414 0.05623414
000140 d8 49 8e bd 97 0a 3e b9 5b d4 7b 3d 8d b3 77 3d
       -0.06947678 -0.00018123757 0.061481815 0.060473967
000150 41 a2 9f be 22 cb 76 be fa 1a ab be 73 2c 9e be
       -0.31178477 -0.24100927 -0.3341902 -0.30893287
000160 b9 69 6c be c7 51 95 bd 46 90 24 be 54 c0 43 be
       -0.23087205 -0.072909884 -0.16070661 -0.19116336
000170 c7 30 04 3e 85 88 a0 3d a6 97 1c 3c b6 ca 25 3e
       0.12909232 0.07838539 0.00955764 0.1619061
000180 d8 50 11 3c 2c 61 ce 3c 1e de 5c 3d 84 3c 88 3d
       0.008869372 0.02519282 0.053922765 0.066521674
000190 81 2d 15 be 95 f7 92 3d d9 2e a3 bd d4 a4 ec bd
       -0.1456814 0.07176129 -0.0796792 -0.11554876
0001a0 d1 71 ed 3c ef a7 17 be 9a b7 8f 3d b9 ff ce bc
       0.028984936 -0.14810155 0.07017441 -0.025268422
0001b0 a0 c7 23 bd 64 69 13 be d0 6c dd bd 2f 5b e9 bd
       -0.0399853 -0.14395672 -0.1081177 -0.11394345
0001c0 92 de ce 3e f1 d4 d0 3e e3 3d c6 3e 46 73 d9 3e
       0.40404183 0.4078746 0.3871909 0.4247076
0001d0 b1 e0 19 be 6e 45 9a bd a5 af 98 3d fb d6 ba 3d
       -0.15027119 -0.07532774 0.074553765 0.091230355
0001e0 dd cf fd 3d c5 54 d4 3d 81 c0 69 3e 84 ab 5d 3e
       0.123931624 0.10367731 0.2282734 0.2164746
0001f0 5d b7 cf bd b7 23 d9 3d 8b a5 c6 3c 6a f9 3d 3d
       -0.10142396 0.10602515 0.024248859 0.046380438
