ggcnn_base/output/models/221204_2000_training_example/epoch_10_iou_0.71_statedict.pt (torch, 256417 bytes, 16 tensors)

conv1.weight f4 [32, 1, 9, 9]
00000000: 90af 02bd 413d b2bd 66e6 babc 348b a5bd
00000010: 4775 b2bd 5df6 8fbc 69d5 4cbd 2ff4 bcbd
00000020: 709a aabd c683 51bd 09d1 08bd db0d c2bc
00000030: 60da 9fbd c882 edbc 2a48 88bd 0be7 6ebd
00000040: b062 29bd f7cc 873c f5c6 88bc 8cfb 53bd
00000050: 22ab 45bc 1af3 20bd 8db6 8ebd 2c53 6abd
00000060: 2527 9fbc aec8 37bd 0f07 61bd c1bc 93bc
00000070: b2cb 35bd e509 d3bb 4868 a9bc c254 3fbd
00000080: 36f7 083d 541b b33c 0c63 3dbd 7aba 083d
00000090: b0eb bbbc 63d6 cbbc 034d 11bd c989 cabc
000000a0: 9979 53bd fceb 0a3b 7882 063d 81aa 283d
000000b0: 6d0c 28bd 1aea 913c 1429 1b3d e6d2 a8bc
000000c0: c3cf 39bd 9f78 1b3d 2a16 f3bc 358c 95bc
000000d0: 9e6a 9a3c 2d40 3d3d da76 03bd 2db4 4cbb
000000e0: 44d4 a73c 57ae 37bc 7ef8 743d 55da 0e3d
000000f0: 704b fb3c c41e c3bc 16a1 a5bc 2531 513d
00000100: ef8e cebb 2b38 a33c a6e0 773c 6d20 313d
00000110: 0b01 6d3d ad2d 99bc e18a 083d f874 bf3b
00000120: 694c 3d3d 6d4e 933c fe08 303d a2a6 bf3c
00000130: 2b08 b6bc dcfe 1ebc 7997 913d d892 f03c
00000140: 495a b73c 6aa3 aebc 7f87 c0bc d43e 8a3c
00000150: fa2d d03d 9e8c 013e 6b2a c43d 4417 2a3e
00000160: 5892 683e 2832 933e bd1c fbbd 928f c2bd
00000170: abb7 79bd 3d54 f4bc 46ab 833c a505 b93d
00000180: 05f6 0a3e edc4 553e ca62 6b3e 51fb 3bbe
00000190: bec5 05be 918a a7bd 54a6 bdbd 0003 0bbd
000001a0: 1223 293c 1df4 b03c 3a25 b63d a49d 353e
000001b0: a9ea 98bd 07da 32bd 9545 c1bc ebeb 533d
000001c0: 63d5 1c3d cadb 823d c00e ae3d 2357 503e
000001d0: c6d4 6d3e 1907 e3bd a8b3 5ebd 72fa 98bd
000001e0: d609 e6bc 6f1e 11bd 2a21 d43c f668 ff3d
000001f0: 49cd 213e 2cf4 0d3e d5a8 31be ff75 0cbe
00000200: 9eca d0bd cf98 94bd b34e 68bd 7c0f a23b
00000210: 8e8f c53d 9233 183e b349 1b3e ca1e 11be
00000220: cf28 18be 14d8 31be 7eaa e0bd f29e 86bd
00000230: 2dee 8c3c d02e 8bbb 9300 e13d fc50 1c3e
00000240: a176 2fbe 6eb9 0ebe d25f 2fbe 1471 13bd
00000250: 31b2 c0bd 6826 0ebc 94b7 e73c 07c3 db3d
00000260: 8af3 083e 70c4 21be 9cde 37be 9680 06be
00000270: 19f7 60bd cd20 14bd ba72 54bb 2863 8f3d
00000280: fa10 dd3d a3ef 323e 268a c6bb 1188 9fbb
00000290: 16af 75bc cfc2 3ebc c107 8f3b b9ef 1e3c
000002a0: 92db 913c 0a34 3e3d 6bce 233d 80bc 06bd
000002b0: a031 30bd d70e 213b 8bf8 aa3b ce16 29bd
000002c0: 27d4 f43c 44ef e23c 5da5 d7bc 1770 1a3d
000002d0: 57e6 8e3c efaf 913c d4fa 02bd 6a13 ca3c
000002e0: da69 76bc fd54 27bd 139a dcbb 25e7 243d
000002f0: 54b3 c9bc 0290 00bd f062 133b 9e98 95bc
00000300: 007b bdbc a36f 263d a942 313c cf9c 1e3c
00000310: 5c5c 98ba a5c4 273d 3de5 153d 71d8 00bd
00000320: 5c26 ebbb 822d 273d adfe 8f3c 8b29 10bc
00000330: 6a1d 02bd dbe0 8cbc 29d0 c4ba 586d 17bd
00000340: 9f72 5ebc 5294 97bc 7a91 073c f224 41bd
00000350: 394a 843b ac52 23bc 78d4 87bc f454 cb3b
00000360: f844 a1bc fe06 4e3c 4327 1a3b 9a07 d63c
00000370: 7a2d d93c d1a8 91bc d40f 67bc 10f7 24bd
00000380: f4c0 363b dd2f 1e3c e8e2 6cbc 8f9c 31bd
00000390: d6a7 71bb a203 76bc 216a 903c 9eef 7c3a
000003a0: 4667 d3bc 0f94 28bd a9c3 e53b abaf 163d
000003b0: 896d 263d 00d9 babb 05e7 23bd 0e3d d63c
000003c0: d810 4ebc f05f a8bc 30d8 05bd c829 50be
000003d0: 10ea b2bd 039c f73c fc9c 99be a06f 84be
000003e0: 6cfc 7cbe 70f3 53be 29b5 3bbe 5eca 9fbe
000003f0: c7e6 91bc 357f da3d 7ee5 153e 6755 8cbd
-0.03190571 -0.087030895 -0.02281494 -0.080831915 -0.08713775 -0.01757353 -0.05000821 -0.09226262
-0.08330238 -0.05115106 -0.033402476 -0.023688247 -0.078053236 -0.028993025 -0.06654389 -0.05832581
-0.04135388 0.016577227 -0.016696433 -0.051753566 -0.012064727 -0.03929434 -0.069684125 -0.057208225
-0.019427845 -0.044869117 -0.054938372 -0.01803434 -0.044383712 -0.0064403885 -0.020679608 -0.04671169
0.033438884 0.021863617 -0.046237037 0.033380963 -0.022939533 -0.024882501 -0.035473835 -0.024723904
-0.051629636 0.0021197787 0.03283927 0.04117823 -0.041027475 0.017811824 0.037880972 -0.020608377
-0.045364153 0.03795683 -0.029673655 -0.018255332 0.018849667 0.04620378 -0.032095768 -0.0031235323
0.020486958 -0.011210999 0.059807293 0.034876186 0.03067562 -0.023818381 -0.020218413 0.05107226
-0.00630366 0.019924244 0.015129244 0.043243814 0.057862323 -0.018698538 0.03333557 0.005842801
0.04621545 0.017981732 0.042977326 0.023394886 -0.022220692 -0.009704318 0.07108969 0.029366896
0.022381919 -0.021318156 -0.02350211 0.016875662 0.10165019 0.12651297 0.09578403 0.16610438
0.22712076 0.28749204 -0.12261341 -0.0950004 -0.060966175 -0.029825324 0.01607288 0.0903428
0.13570412 0.20875902 0.22986904 -0.18357588 -0.13063714 -0.08180726 -0.0926024 -0.033938408
0.010323303 0.021600777 0.08893819 0.17735916 -0.07466633 -0.04366496 -0.02359275 0.05173866
0.03828944 0.06389578 0.08498907 0.2034574 0.23225698 -0.11085338 -0.054370552 -0.07469644
-0.028080862 -0.035429414 0.02589472 0.124711916 0.15800966 0.13862675 -0.1734956 -0.13716887
-0.10194896 -0.072557084 -0.05671568 0.0049456935 0.096465215 0.14863423 0.15164833 -0.14171901
-0.14859317 -0.17367584 -0.10970019 -0.06573285 0.017203415 -0.004247524 0.10986438 0.15265268
-0.17135097 -0.13937923 -0.17126396 -0.03599651 -0.09408987 -0.008676149 0.028285779 0.10730558
0.13374153 -0.15797591 -0.17956012 -0.13134989 -0.05492315 -0.036164094 -0.0032417015 0.070013344
0.10794254 0.17474227 -0.006058949 -0.0048685153 -0.014995357 -0.011643126 0.004364938 0.009700709
0.017804895 0.046436347 0.039991777 -0.03289461 -0.043016076 0.0024575496 0.005217617 -0.041281514
0.029886318 0.027701981 -0.026323969 0.037704553 0.017443819 0.017784087 -0.03197749 0.02466746
-0.015039885 -0.040852536 -0.0067322343 0.0402595 -0.024621643 -0.031387337 0.0022489391 -0.01826125
-0.02312994 0.04063381 0.010819116 0.009680941 -0.0011624205 0.04095902 0.03659557 -0.031456415
-0.0071762037 0.040814884 0.017577494 -0.008798967 -0.031766333 -0.017197063 -0.001501565 -0.036969513
-0.0135771325 -0.018503342 0.00827443 -0.047154374 0.0040371683 -0.009968441 -0.016580805 0.0062051956
-0.019686207 0.012574909 0.0023521937 0.026126672 0.026510943 -0.017780693 -0.014102895 -0.04027468
0.0027886005 0.009654966 -0.014458396 -0.043362197 -0.003687372 -0.015015515 0.017628731 0.0009648743
-0.02580608 -0.041156825 0.00701185 0.036788624 0.040631805 -0.005702138 -0.04001524 0.02615216
-0.012577258 -0.020553559 -0.032676876 -0.20328438 -0.0873605 0.03022576 -0.30002582 -0.25866413
-0.24705666 -0.20698333 -0.18330826 -0.3120908 -0.017810239 0.10668794 0.14638326 -0.06852227

conv1.bias f4 [32]
00000000: 35ef 69be 53e2 073e fedf ddbd 9bf0 b1bb
00000010: e096 933d 42c6 dc3d 508c 3abd 14ec 063e
00000020: 1262 8dbe 280f 54ba ee5c 333e 8545 a9bd
00000030: 421c 66be f625 9fbb 2b04 283d c375 573c
00000040: 9a4c c7bc 861f abbd ecc2 29be fee9 96bd
00000050: 80f1 20be b422 553e e707 3a3d a972 cdbd
00000060: fc80 5cbe de27 0ebc bebd f7bc e974 da3c
00000070: 7127 c0bd a546 c7bd c19a b63d e877 953d
-0.22845156 0.1326993 -0.10833739 -0.0054302937 0.072065115 0.10780002 -0.04554397 0.13175994
-0.27613884 -0.00080894167 0.17515919 -0.08265213 -0.22471717 -0.00485682 0.0410196 0.013150635
-0.024328519 -0.08355622 -0.16578263 -0.07368849 -0.15717125 0.2081402 0.045417693 -0.10031635
-0.21533579 -0.008676497 -0.030241843 0.026667075 -0.09382523 -0.09730271 0.08916236 0.07298261

conv2.weight f4 [16, 32, 5, 5]
00000000: d856 25be e5d2 a0bd 1322 a6bb 4f1d 6cbc
00000010: 4a1f 8fbd 355b d7bc c66e c6bc 5810 2e3d
00000020: 664b 303d ede2 7bbb b2ba 05bd c9e8 a0bc
00000030: e390 89bc a777 c83d 539d aa3d 9843 183d
00000040: 0560 543d 0650 df3d 5ca3 8a3c d06e 1b3e
00000050: e8ec 93bc 2b94 c73c 7c90 f13d 57a6 8d3d
00000060: 4c64 213d b10d 91bc a233 883c 394a 173d
00000070: 4b4e 8bbd 96c7 64bd 8e68 0abb 9e1c 71bc
00000080: 77cb c33c 8756 f6bd 1321 2d3c c63e 613d
00000090: 2fc8 8a3d d172 46bc 4d50 c4bd ae20 9fbd
000000a0: adcc 653c bbd5 c03c 1dc1 f2bc a199 82bb
000000b0: 8d51 33bd 55f8 4b3d c9ad 693d ce07 7d3c
000000c0: a43e a83c 417a b2bc ff23 903c d9cd 863d
000000d0: 4a74 3a3d 4236 263c 662e b4bc 7999 0abd
000000e0: 2514 18bd f635 173c 37ed 823d fc66 0bbd
000000f0: d642 bd3c 2a86 a2b9 39b9 913c 5d50 16bd
00000100: f9bf 7f3c 54cd ee3c f41f a03c abb7 fdbc
00000110: ccd0 bc3c 2ae3 47bc 52fc c53c ed88 2bbc
00000120: 1b02 df39 f46e 3a3d b0e5 583d 1dfb 88bc
00000130: 68a3 1f3d b483 243c 4077 24bd c61e c73b
00000140: 4df3 f2bb 1597 dcbc 13f6 81bd 5b5f e53c
00000150: c2d6 ba3d 57f7 c5bd 0133 a1bd 6329 31bd
00000160: d78b 4bbd 0e42 c9bb 10a9 243d f0e4 ed3c
00000170: b959 483c e735 d83c f87f f93d 5ba5 05bd
00000180: 0960 ff3c 11d8 a23c ae14 c13d 26d6 003e
00000190: e26b 233c 523e 4bbb f66a 6d3d d7f3 363c
000001a0: 8ac0 2abd e57a 813d fdac 2b3d 7d06 283a
000001b0: 081d 0a3d b0b5 ab3c 50e1 103d 5e09 d7bb
000001c0: 86b3 ee3b 5620 303b 12e9 1abc eead df3c
000001d0: 0d28 c43d 5441 af3b 392a b6bc 666c afbc
000001e0: ef32 553d 1106 b13d b036 1c3d b2e3 d83d
000001f0: b6f8 a13d 7a6e 9cba 64a8 52bd da69 413d
00000200: b78c 52bd 5256 53bc c9e6 093d 3070 9dbd
00000210: 2df0 823d 7ff4 a93c 3c31 0f3d fb85 44bd
00000220: 43c4 513d 2f00 763d 6f00 163d afff 933d
00000230: 9a36 d7bd 7e5e f0bd 7202 b7bd be93 bdbd
00000240: fa96 723c 11a6 64bd 2bc5 9c3c b6e7 6cbd
00000250: 6b47 613c 0508 14bd cc5e 193d ca7b 1e3d
00000260: f8e0 97bd 258c a23d e706 723b 3e45 bcbd
00000270: e5dd 5c3c 356f 7dbd bafb e03c 8565 8e3c
00000280: d8e4 963c 6eda cebd 735f 12bd 6b26 ae3c
00000290: d121 b43d c47a e0bb eff7 6b3c d8b1 0d3d
000002a0: 2516 a33d 6012 7d3d b4e4 2a3c e3a4 e6bc
000002b0: 9ff1 953d 56d1 a33d edd6 b53d 2c4f 50bd
000002c0: 910c 30bd 30ad 0dbd b2c6 71bd 6b66 843c
000002d0: cefc 40bd c452 30bd 0ab1 d83b 899f 91bd
000002e0: 6532 403b 5f9e 25bd 0762 39bc 5b06 883d
000002f0: aec5 f13c b977 433d 0588 8ebc 0bc9 8dbd
00000300: afc5 1b3c 9a76 0bbd b0e9 54bd 2733 f83a
00000310: 20ce bebc 02b5 3bbd ded7 a23b 8da4 3a3d
00000320: f273 dbbe 762b b7be 31e3 9cbe 7686 56be
00000330: 36e7 18be 80c6 39be db8f 26be 7a18 80be
00000340: 0fd4 37be f612 83bd da1c 72be 511a f3bd
00000350: 86f5 0fbe 8aea 11be 89d4 e4bd 5d16 e2bd
00000360: 4111 14be c462 b6bd bd93 0ebe 5572 22be
00000370: 64ff 04be e267 aabd 57bc efbd c56b 9ebd
00000380: 6b42 d1bd 9c6d 92bd 9315 433c cc11 0bbd
00000390: 6317 1dbe 5ede 343e 7f74 29ba eade 8eba
000003a0: 8c6a 88bd 8292 18be f115 953d fd3d 1dbd
000003b0: 7dc3 e9ba 9749 a9bc 8d85 2dbe 8d46 a93d
000003c0: 9db1 a23d f21f a93d 7532 92bc a7b6 06be
000003d0: b705 fabc fed7 ba3d 4e71 493c 7295 1bbc
000003e0: 0e65 13be 72c7 813d fed8 3b3e 4ff1 383e
000003f0: c1e3 143e 684a 4b3d 54e1 e73d 000d 053e
-0.1614641 -0.07852725 -0.00506998 -0.014411285 -0.0698839 -0.026288608 -0.024222743 0.042496055
0.043040656 -0.003843482 -0.03264875 -0.01964225 -0.01679272 0.09788447 0.083307885 0.037173837
0.051849384 0.10903935 0.016923599 0.1517899 -0.018057302 0.024362644 0.11795136 0.069164924
0.03940229 -0.017706724 0.016626183 0.03693602 -0.068020426 -0.055854402 -0.0021119448 -0.0147162955
0.02390073 -0.120282225 0.010566968 0.054991506 0.06776463 -0.012112335 -0.09585629 -0.07769905
0.014025849 0.023539415 -0.0296331 -0.003985599 -0.043778945 0.049797375 0.0570505 0.015443755
0.020537682 -0.02178681 0.01759529 0.06582231 0.04552106 0.010144772 -0.02199478 -0.03383777
-0.037128586 0.009229174 0.063929014 -0.03403376 0.023103159 -0.00030999008 0.017788516 -0.036697734
0.015609735 0.029150642 0.019546486 -0.030971369 0.02304878 -0.012200156 0.024168167 -0.010469657
0.00042535443 0.04551597 0.052953422 -0.016721303 0.038974196 0.010041166 -0.04015279 0.0060766665
-0.0074142576 -0.02692751 -0.06345763 0.02799957 0.09122993 -0.09666317 -0.07871056 -0.04325236
-0.04969391 -0.0061419075 0.040200293 0.02903983 0.012228423 0.02639289 0.12182611 -0.0326284
0.031173723 0.01987842 0.094277725 0.12581691 0.009974452 -0.0031012488 0.057963334 0.011166534
-0.041687526 0.063222684 0.04191302 0.0006409658 0.033719093 0.020960659 0.035371125 -0.006562396
0.0072845845 0.0026874742 -0.009454982 0.027304616 0.095779516 0.005348364 -0.02223693 -0.021413993
0.052050527 0.08643735 0.03813809 0.105903044 0.07908766 -0.001193478 -0.05143012 0.04722009
-0.051403727 -0.012898998 0.03366736 -0.07687414 0.06393466 0.020746468 0.034959063 -0.047979336
0.05121256 0.06005877 0.036621507 0.07226502 -0.10508461 -0.11736773 -0.08936013 -0.09256695
0.014806503 -0.055822436 0.019136986 -0.057838164 0.0137499375 -0.03614046 0.03744392 0.038692273
-0.07415956 0.07936887 0.0036930384 -0.091928944 0.013480638 -0.061873633 0.027463783 0.017382393
0.018419668 -0.10100256 -0.03573556 0.021258553 0.087955125 -0.0068505723 0.014402374 0.034593433
0.07963208 0.061785102 0.010430504 -0.028154796 0.07321476 0.07998912 0.088788845 -0.050856754
-0.042980734 -0.034588993 -0.05902738 0.016162118 -0.047116093 -0.04304768 0.0066129016 -0.07110507
0.0029326912 -0.040434238 -0.011314875 0.06641837 0.029513206 0.0477216 -0.017398844 -0.069231115
0.009507581 -0.034048654 -0.051980674 0.0018936143 -0.023291647 -0.04582692 0.004969581 0.045567084
-0.42861897 -0.35775346 -0.30642083 -0.2094973 -0.1493195 -0.18142128 -0.16265814 -0.25018674
-0.17951988 -0.06400101 -0.23643818 -0.11870254 -0.14058504 -0.14249626 -0.1117335 -0.11039422
-0.14459707 -0.08905557 -0.13923545 -0.15863927 -0.12988049 -0.08320595 -0.11705845 -0.07735399
-0.10217746 -0.071498126 0.011906999 -0.03395252 -0.15340953 0.17662951 -0.00064641976 -0.0010900174
-0.06660947 -0.14899638 0.072795756 -0.038389195 -0.0017834749 -0.020664973 -0.16945477 0.082654096
0.07944033 0.08258046 -0.017846325 -0.13155614 -0.030520303 0.091232285 0.01229508 -0.00949608
-0.14394018 0.06336869 0.18344495 0.18060802 0.14540006 0.049631506 0.11322275 0.1299324

conv2.bias f4 [16]
00000000: c417 ae3c 748e f93d faf6 f5bc 156a 44bd
00000010: 117e 8fbc d1f4 4f3c 98b8 413c 3cbc 9a3d
00000020: 3373 b33d b61a 96bd 1c91 ac3d e93b 55bd
00000030: ed45 7bbd 985f 7c3c b0ae 853d 30c0 0fbd
0.021251567 0.12185374 -0.030024994 -0.04795273 -0.017516168 0.012692646 0.011823796 0.07555434
0.08762207 -0.073293135 0.08426115 -0.052059088 -0.061345983 0.015403651 0.065274596 -0.035095394

conv3.weight f4 [8, 16, 3, 3]
00000000: 2113 edbd 0ffd d03d 3551 5dbd 9901 b33d
00000010: 02ce 0c3e 3708 863d 3148 023d 2da6 7abd
00000020: 3f04 fc3d 3689 afbe 2b09 1abd ef76 ebbd
00000030: dff9 86be 22bb 013e 59f7 86bd e0bf d9bd
00000040: 3131 083e 0291 803e d812 073e 9aa2 a5bd
00000050: 1be7 4c3d ed8d 10be 5954 6c3d 7b70 89bc
00000060: b8c3 88bd 72f9 1b3d 1551 57bd 5eae fd3d
00000070: 51d0 0cbe 8e6f 1dbe fd4e ab3d c110 6dbd
00000080: b561 c73d dbde 17be b050 38bc 9534 60bc
00000090: 9168 233e d154 1b3e 4657 c03d 9f0e b63c
000000a0: 3580 2c3e b969 23bb 0fbb 933d f126 edbd
000000b0: 28b6 e7bd e0b9 f7bd 7840 25be d7b4 03be
000000c0: 68b4 b1bc 1c4d ac3d 07c2 35bd 2195 e93d
000000d0: e91c fbbd ecd4 f83c bdf6 19be c4d6 c33d
000000e0: f7f5 a7bd 995b 3f3c 87d4 933d ed72 0d3e
000000f0: 5f2f 4fbd 4216 19bd ca97 fb3d efa4 a7bd
00000100: cde5 97bc 2909 19be 2332 f23d e027 a63c
00000110: fd1e 493d dd3b 4f3e e3f6 4f3e 94fb 903d
00000120: 1dc2 5dbe fad3 8abe c6a9 78bd 31e2 183d
00000130: 164a 593c 24db a53d 19fe ef3d 278e 1a3e
00000140: 682b 1f3e 9f40 dcbd aae5 dc3d e3c9 96bd
00000150: eebc 2a3c 498c b83d 0a7b 303e b4b0 02bb
00000160: 955b 92bd 3b4b d7bd d507 92bd d428 0d3e
00000170: d46d 443e bc0b f33c d235 ebbd 20fd 403e
00000180: 6e04 76be 9bec c63d 596f 94bd 1f60 453e
00000190: 496e 8dbd 127e 3a3e dea2 293e 7b21 d33c
000001a0: ee2d 44bd 3a25 06be deeb 913d d339 bdbd
000001b0: 5d94 86bd 99c5 743d 984e 8ebd 2609 04bc
000001c0: fef2 a0bd 4c0c d93d 8334 f53d fbb6 5d3d
000001d0: aaf7 8b3c f4c9 1c3e 336e a33d 9bdc edbd
000001e0: 878f 4dbd 6834 ed3d b506 383d 03e3 35bd
000001f0: f590 b7bd 9e94 4fbd 469d 923d b533 883d
00000200: 673e f53d 4427 983d a054 98bd 7593 9c3d
00000210: 4630 27bd decc 1abe c078 663d 81a6 12be
00000220: a721 9c3b f7ea 2d3b 0c37 373e 7429 4f3d
00000230: 12cf 5ebe aaf8 823d ad0c 383e 5f58 063e
00000240: 7334 22be 4730 07be 376b ab3d d597 40bd
00000250: a471 cfbd ca2f 5a3d 2ae8 983e 1032 4e3e
00000260: ee85 a6bd bd97 a5bd 6ba5 333d 33e0 643e
00000270: 5b00 18be 2cd6 a5be 3249 9ebb 4e28 863d
00000280: c75f f5bd 7be8 59bd c828 febc 6db7 b83d
00000290: a18d 13be cf31 25be a706 463c 124f e83c
000002a0: c485 8d3d b619 4cbc bc19 dbbd b21c 8fbc
000002b0: fbdf 353d 1655 773c 0a70 76bd 481c 1cbe
000002c0: 963a 23bd 0461 0bbe d702 f0bc 6099 c73d
000002d0: bdf4 f83d 971c e33d d577 fd3d 51f7 e4bd
000002e0: 6cbb 1ebe 7205 bebd 8dc3 2cbe c6e7 d4bd
000002f0: d898 163d 198e 183e 479c 19be d6d5 0ebe
00000300: fcae 763d c5fc 053e 5b1c 5dbd 3c21 cbbd
00000310: eb98 d1bc ecb3 dd3d b093 18bd b479 2ebe
00000320: 279c e03d 51c0 943d c88a 32bc 2ee9 99bb
00000330: 8066 12be 2971 143e 07d2 12be e5b1 1a3d
00000340: c1b8 953d 8d8f 9e3d 4e2c 73be 4386 44bc
00000350: 24a1 e23d 5e3e 65be e3de cabd 3956 ec3d
00000360: 9f65 94bd ebfa 093e 9090 0b3e a4f4 4cbe
00000370: 634a d53d 1b81 8e3c 9c16 0bbe 93db 0c3e
00000380: 553b 103e 8eda 30bd fd13 0c3e b791 bdbd
00000390: b5e8 f5ba 1cd3 1c3d f536 02bd c11b c53d
000003a0: 11c9 da3d bf91 b5bd ddb4 893c eae3 2ebe
000003b0: d7ea 50be 371c 5b3e 37a6 1e3c ba77 0fbe
000003c0: 081d 5c3e 0826 ed3d b57a 5a3c 54d3 ea3c
000003d0: cc1d 26bc 17dd 83bd 776a f43d 0d48 dd3d
000003e0: 0592 7cbd 1ca3 cb3d 9a9f 2a3a de60 47be
000003f0: e585 d33d 27ee 04be 9849 873d 10c2 d63d
-0.11575914 0.10204517 -0.054032523 0.08740539 0.1375046 0.065445356 0.03180713 -0.061193634
0.123054974 -0.3428437 -0.0376064 -0.11497294 -0.26362512 0.12669042 -0.065901466 -0.106323004
0.13300015 0.25110632 0.13190782 -0.080876544 0.050025087 -0.1411664 0.057697628 -0.016777268
-0.066779554 0.038079686 -0.05256756 0.123867735 -0.13751341 -0.15374586 0.08364675 -0.057877306
0.09735433 -0.14831106 -0.011249706 -0.0136844115 0.15957858 0.15169074 0.09391646 0.022223769
0.16845782 -0.0024934842 0.07213413 -0.11579693 -0.113140404 -0.12096 -0.16137874 -0.12861954
-0.02169247 0.08413145 -0.044374492 0.11405397 -0.122613735 0.030374967 -0.1503553 0.09562448
-0.08201211 0.011679553 0.07218271 0.13813372 -0.050582286 -0.037374742 0.12284811 -0.081857555
-0.018542195 -0.149449 0.11825969 0.020282686 0.04910182 0.2023768 0.20309024 0.07079235
-0.2165608 -0.2711485 -0.060708784 0.037325088 0.013262292 0.080984384 0.11718387 0.1509329
0.15543902 -0.10754513 0.107859924 -0.073627256 0.010421021 0.09011132 0.17234436 -0.001994175
-0.07146374 -0.10512396 -0.071304 0.13785106 0.19182521 0.029668681 -0.11484875 0.1884656
-0.24025127 0.09713098 -0.072478004 0.19274949 -0.06905801 0.18212155 0.16566035 0.0257728
-0.047895364 -0.13100138 0.07125066 -0.09239545 -0.06571267 0.059758756 -0.06948584 -0.008058822
-0.07858847 0.105980486 0.119729064 0.054129582 0.017085869 0.15311414 0.07980003 -0.11614343
-0.050185706 0.11582261 0.04492827 -0.04440595 -0.08963195 -0.05067884 0.07158904 0.06650487
0.11974793 0.07429364 -0.07438016 0.07645313 -0.04081752 -0.15117213 0.0562675 -0.14321329
0.004764754 0.0026537755 0.17892092 0.050576642 -0.21758679 0.06395085 0.17973585 0.13119648
-0.1584032 -0.1320201 0.08370059 -0.0470198 -0.10129097 0.05326823 0.29864627 0.20136285
-0.08131014 -0.080855824 0.043858927 0.2235115 -0.14843886 -0.32389963 -0.004830503 0.06550656
-0.11981159 -0.053200226 -0.031025305 0.09019361 -0.14409496 -0.16132282 0.012086547 0.028358016
0.069102794 -0.012457302 -0.10698268 -0.017469738 0.044403058 0.01509597 -0.060165443 -0.15245163
-0.039850794 -0.13611227 -0.02929823 0.09746051 0.12156055 0.110894375 0.12376372 -0.11179984
-0.15501183 -0.09278382 -0.16871472 -0.1039577 0.036766857 0.14897956 -0.15001021 -0.1394876
0.06022547 0.13084705 -0.05398212 -0.09918448 -0.025585612 0.10825333 -0.03725022 -0.17038614
0.10967284 0.07263244 -0.010897346 -0.0046969866 -0.14296913 0.14496292 -0.14337932 0.03776731
0.0731063 0.07742224 -0.2374737 -0.011994901 0.110658914 -0.22387072 -0.099057935 0.11539883
-0.07245945 0.13474624 0.13629365 -0.20015198 0.10414579 0.017395547 -0.13582844 0.13755636
0.14085133 -0.04317718 0.136795 -0.092563085 -0.0018761369 0.038287267 -0.031790692 0.09624434
0.106828816 -0.088656895 0.016809875 -0.1707913 -0.20402084 0.21397482 0.009683183 -0.14010516
0.2149545 0.115795195 0.01333492 0.028665222 -0.01013894 -0.06438654 0.11934369 0.10804758
-0.061662693 0.0994322 0.0006508768 -0.19470546 0.10328273 -0.12981473 0.06605834 0.10486233

conv3.bias f4 [8]
00000000: 2cb9 1b3d 0670 48be fe5c 3cbd c074 b83d
00000010: 86e7 fa3d ae49 153d 6711 293e f20e 263e
0.03801839 -0.19573984 -0.04598712 0.09006643 0.12251191 0.03644722 0.16510545 0.16216639

convt1.weight f4 [8, 8, 3, 3]
00000000: 3697 11bd c9aa 1d3e e2e5 d73d c0c4 84bc
00000010: 0059 2abe c6b3 4f3d e302 d63d ae2d d2bd
00000020: a510 213e 90bf b6bd 477b 48be a6c3 29be
00000030: 17bb d8be 3675 103d 5380 313e 2adc 583e
00000040: e6d1 a83d e93c 1cbe 77c9 84be e9a2 02be
00000050: 7dcf 1dbe b7d4 c2bd b013 0b3e 5116 dd3d
00000060: 5565 9b3e 8bbf 343e 276b 853e ed30 983d
00000070: b843 383e ff17 5dbd 3217 b9be 8011 b83d
00000080: 50c8 9fbe 7634 5abe 9d5b acbe 062a 9bbd
00000090: b304 153e 2c7f c0bd 794c 633e 4e09 003e
000000a0: 9c5d 30be c0fa ea3d 08a6 bc3d 3d56 393e
000000b0: cdb2 3d3e d1ba a73c d280 ee3d e76f 80bd
000000c0: 9ec1 2fbe 8ddb 32bc dadc 5abe 1162 06be
000000d0: e065 a3be 3096 5fbe 680b 9f3d 0e01 b33d
000000e0: a64b 8c3e 1b65 4d3e 6393 ed3d a457 89be
000000f0: e7df 913d 5071 53bd a5b2 2dbe 9c34 8b3c
00000100: 241a 953e 94ee ca3c 5984 b33d 62ed 693d
00000110: f63e e73c 11bd 2b3d b2bf f7bd 92fe a3be
00000120: b0d3 593e e12f eabc d7a3 7ebe 6a57 f1bd
00000130: 621c fdbc 157c 30be a89f adbe df24 43be
00000140: d62e ec3d 269c bd3c 1718 b0be bba3 5a3e
00000150: a2c9 803d 38e2 9d3c 681a 3f3e 9648 473e
00000160: 61c4 b5bc f920 b1be e2c2 d23d 59ff bd3d
00000170: ac54 443e f9ea b7bd 964b 3c3e 04b2 4d3e
00000180: 14c7 3c3e aea6 82be c668 28bc 4049 fdbd
00000190: 2b02 a5be c027 80bd 4fee 9abe 177f a53d
000001a0: 84af 07bd b3f5 aabe 12db b2be 313d 4cbe
000001b0: 77dc 82bc 13b1 e23e 087f f13d d050 4e3e
000001c0: cccb 1fbe 584a 563e abbf 743d 5044 58be
000001d0: 7d86 323e 36e6 b63e 1e89 83bd 8b27 fc3c
000001e0: 2d5d 09bf f075 00be fb58 c0bd 0b5c 68be
000001f0: 6e03 9f3d 7278 843c 763f a73e a8c2 a93e
00000200: 5503 cd3e 3417 abbd 245f b5be 56e3 913e
00000210: b130 503d 69dc 90bd 3a0a eabd 8a38 993c
00000220: ca98 82be a71f 8fbe f54c 88bc 08e3 c73d
00000230: 45ea ee3d 6661 a9bd b1d0 0f3d 8c48 e33d
00000240: 5353 f5bd 0ca0 14be 41e4 eebd 8b07 d13d
00000250: 5314 0d3e 11e6 1bbe 58d5 dcbd c7d0 263e
00000260: 0498 e3ba a7ae c7bb cb36 fb3d 5eaa 1f3e
00000270: d184 223e df10 38be 9dc7 003e 95f6 b6bd
00000280: b9c1 e1bd b294 f0bc 5c28 66bd 89a0 adbd
00000290: 224e 253e 4ee1 58bd 7d5c 313e b149 a9bd
000002a0: 208e 343e c7b7 823d d279 ddbd 6ade f8bd
000002b0: dde6 c13d 0ea1 51be 1750 ccbd 905c 43be
000002c0: e7a6 8b3d 9408 043e 86a5 13be fb75 b5bd
000002d0: 5794 f63d a304 8b3b bccb c83d 22b1 3e3a
000002e0: 68bd ebbd 35b4 53bd 1d52 fa3d 8fdc b73d
000002f0: f444 b4bc 7ce9 b13d f1b7 b13d 4b7b 183e
00000300: 9832 c8bd 2554 69bd 94e9 83bc 0fb1 063e
00000310: 7bb6 11be de77 4cbb 79a5 e2bd 73a8 dfbd
00000320: b41b 8fbd 4b3e 293e 41b0 593d a9e7 50bb
00000330: f478 ee3d e766 7dbd d8fe 2e3e 6005 ab3d
00000340: 7050 633c 58d5 bcbc a525 613d 3135 4f3e
00000350: 2fe0 34be 1e8e 08be 09df eabd 0cf8 fcbd
00000360: 46b2 883e aa8c 4dbe 8c34 05bd 818a 74be
00000370: 2efb e0be d92f 6abe 9b72 803e d758 72be
00000380: 79a8 debd 76fe 25be d13c 61be a87c 013c
00000390: af67 8bbd 0bcc 15bd 2b36 8c3e 37bc 28be
000003a0: 8220 27bd a9b6 2f3e 7f7e 8a3c acfa 213e
000003b0: 4650 bfbd 7f3d 0c3e 53d8 a1bd fe0e 37be
000003c0: d270 653e d1b7 f43c 5343 783e 6fcc 3cbe
000003d0: 6518 a2bd 6e93 3abe 0d1c e8be 3764 423e
000003e0: c9a6 25be 22a5 86bd a261 20be 1e0d 77bb
000003f0: db7b 0d3c 7a4a a83d c709 3c3e e04f 37be
-0.035544597 0.1539718 0.105418935 -0.016207099 -0.16635513 0.050708555 0.10449769 -0.10262619
0.15729006 -0.089232564 -0.19578277 -0.1657854 -0.42330238 0.03526803 0.17334108 0.21177736
0.0824316 -0.1525761 -0.25934955 -0.12757458 -0.15411182 -0.095132284 0.13581729 0.10795272
0.30350748 0.17651193 0.26058313 0.07431207 0.17994583 -0.053977963 -0.3615051 0.08987713
-0.31207514 -0.21309075 -0.33663645 -0.07576375 0.14552574 -0.09399256 0.22197141 0.1250355
-0.17223209 0.11473608 0.092113554 0.18099304 0.18525238 0.020474823 0.11645664 -0.06271344
-0.17163703 -0.010916603 -0.2137331 -0.13123347 -0.31913662 -0.21834636 0.077658474 0.087404355
0.27401465 0.200581 0.116003774 -0.26824677 0.07122784 -0.051621735 -0.16962679 0.01699286
0.29121506 0.024771966 0.08765478 0.05711115 0.028228264 0.041928355 -0.1209711 -0.3203016
0.21272159 -0.028587284 -0.24867187 -0.11784251 -0.030897323 -0.17234834 -0.3391087 -0.19057034
0.11532371 0.023145746 -0.3439338 0.2135152 0.062884584 0.019272909 0.18662417 0.19461283
-0.022188367 -0.3459547 0.10291077 0.09277219 0.19172925 -0.08980364 0.18388209 0.20087439
0.18435317 -0.25517792 -0.010278886 -0.12367487 -0.32228217 -0.06257582 -0.3025994 0.08080881
-0.03312637 -0.3339058 -0.34932762 -0.19945218 -0.015974266 0.44275722 0.117918074 0.20148015
-0.15605086 0.20926797 0.0597531 -0.21119809 0.17434116 0.35722512 -0.064226374 0.030780574
-0.536578 -0.1254499 -0.09391972 -0.22691362 0.07764326 0.016170714 0.32665604 0.33156323
0.40041605 -0.08354035 -0.3542415 0.28493756 0.050827686 -0.0707329 -0.11427732 0.018703718
-0.25507194 -0.27953836 -0.016638258 0.097601 0.11665777 -0.082705304 0.035111133 0.110978216
-0.119787835 -0.14514178 -0.1166463 0.10206517 0.13777284 -0.15224482 -0.107828796 0.1629058
-0.001736403 -0.006093818 0.1226631 0.15592334 0.15870978 -0.17975186 0.12576146 -0.089337505
-0.11023278 -0.029367778 -0.056190833 -0.08477885 0.16143087 -0.052949242 0.17320438 -0.08266009
0.17632341 0.06382709 -0.10814251 -0.12151797 0.09467862 -0.20471594 -0.099762134 -0.19078279
0.068189435 0.12893897 -0.14418611 -0.088603936 0.12040012 0.004242496 0.09804484 0.00072743197
-0.11510736 -0.05168553 0.12222693 0.08977615 -0.022005536 0.08687112 0.08677662 0.14890783
-0.09775275 -0.056965012 -0.01610259 0.1315348 -0.14229767 -0.0031199376 -0.11066718 -0.10920801
-0.06987706 0.16527669 0.053146604 -0.0031876361 0.11644164 -0.061865713 0.17089403 0.083506346
0.013874158 -0.023050949 0.05496754 0.20235135 -0.17663644 -0.13335463 -0.11468322 -0.12351999
0.26698512 -0.2007319 -0.032520816 -0.2388096 -0.43941635 -0.22869815 0.25087437 -0.23666702
-0.10871977 -0.1621035 -0.21995856 0.0079032555 -0.068068855 -0.036571544 0.27385077 -0.16478048
-0.040802486 0.17159523 0.016906021 0.1581828 -0.09341483 0.13695334 -0.07902589 -0.17876813
0.22406319 0.029872807 0.24244432 -0.1843736 -0.07914809 -0.18220302 -0.453339 0.18983541
-0.16176905 -0.06574465 -0.15662244 -0.0037697027 0.0086354865 0.0821733 0.18363105 -0.17901564

convt1.bias f4 [8]
00000000: a9fa 47bc 4022 9b3d 630e 6cbc b8d9 16bd
00000010: 9f26 f2bc ce0f a83c 1ace 3a3c 043c bbbd
-0.012205758 0.07574892 -0.014407727 -0.036828727 -0.029559432 0.020515349 0.0114016775 -0.091423064

convt2.weight f4 [8, 16, 5, 5]
00000000: cf60 89be 6c27 3abe b6f3 e5be 17bd 90bd
00000010: 69f3 62be 77e2 f6bd 047c 88bd 498d 81bf
00000020: c204 f0bd 0913 4bbe 304b 2cbd aa86 343c
00000030: df75 7fbd 09dc a7bd 4960 52be 9a31 f6bd
00000040: b94b 90bc 45cb a4bd 1e52 743d 103f f7bd
00000050: 8886 cabb cd88 56be 62b4 c9be 7adb 6abd
00000060: 9140 bfbd cc84 04bf 5373 cfbd 9ec2 fabe
00000070: 9f41 1fbf 8a6c b3be e176 6dbe 2468 1dbf
00000080: a826 0ebe e22b 72be ced3 0cbe 11f5 95be
00000090: 4438 2fbe 41be afbe 52af 62be 7aec debd
000000a0: f660 bfbe 3292 9dbe 5b9b b1be 8c7e 93be
000000b0: a63d 98be ccb7 77be b220 efbd 0cdf 83bd
000000c0: 9f8a e7bd 2520 69bd 1b38 9b3e 6972 c5be
000000d0: eede 77bd b2ef aa3d 8a63 efbe d728 1b3e
000000e0: 19d5 ef3d 88c7 0f3b 0f8a 5cbc 92f9 44be
000000f0: 0abc d53d c1ed 26be e583 223d 899e 513e
00000100: 55d8 f93c 8973 393e 4f62 18bd aaba 14be
00000110: 5b5b 1f3e 076f b4be a9a2 d13d c52c f1bd
00000120: 2e51 6ebd e61b fb3d 785c d2be fb36 283e
00000130: 461b 693d 062d 2cbd 936a dbbe 3a8f afbd
00000140: 265a a53d 31f4 2dbf 0540 583c e921 d8be
00000150: dd98 853d b369 fabd 1ba9 88bd 359e 77be
00000160: b372 bbbe e2bc c53c f4e9 1fbe e8fe 9ebe
00000170: d1e2 6dbe 6632 ed3d c748 57be b2f4 ca3c
00000180: 21c0 a73c 1b9f 4fbe 1b83 253d 7222 f7bd
00000190: a2bc 14be ea37 92ba b1ef 8bbe 7671 bfbb
000001a0: f38f ad3b 4ec4 bbbe 6c22 8dbe 10b4 d7bd
000001b0: 98b8 2abe 3735 01bf 796b a0be 68ec 46be
000001c0: 93fb e8bd b173 56be 99c6 a5be 5a42 3fbe
000001d0: cde3 793c 9b58 27be 67c0 c639 1d2d efbd
000001e0: 9c4e a5be 2344 c4bd 08aa 2bbf b602 a1be
000001f0: e704 0bbe 72d7 7f3e 767a 0bbc 2f18 83bc
00000200: 3318 fbbc c972 18be e9cc 2f3e 7e9c 0a3d
00000210: 7e94 82bc 98a6 5abd b806 b73c 7306 423d
00000220: 9db4 44bd ce38 b4bd 7341 a6bd b4bf 363d
00000230: f7b1 90bc 1bb0 28bd 7668 0a3e c1be edbc
00000240: eb72 ccbb 5706 3d3e aafc b93d 4bda 6bbd
00000250: 1e43 9a3d 5f0e 6dbf 7181 3bbe 79bf d2bd
00000260: 94f7 71bd 80f6 a0be ae13 5ebe 94e4 e8be
00000270: 46e0 dbbe 3626 23be 60b3 ffbe 1714 7bbe
00000280: 07e6 70be 33cf bbbd 26bc 533d 0029 b4be
00000290: ddff 78bd e977 e2be e80f 8abd 1687 e3bb
000002a0: 21a1 47be cfeb e0be 57fe 8dbe 4568 76be
000002b0: f681 4bbd 09d2 6c3d cab7 2bbe 4f0a 713e
000002c0: b716 70be aa8b b13e db3a ed3e 3fd6 963e
000002d0: 3055 3dbe b0bf aebe f558 c3be 176a 69be
000002e0: b923 1abf 07d5 e03d 71f3 ec3d c53d 443e
000002f0: dc5a 31be 0fa3 723e 52bd 113c 8630 563c
00000300: 0bb4 f6be 5627 60be e165 9abd ba5f 2c3e
00000310: e2ec 043e 72cb a83e 05b3 993d 2ea5 153e
00000320: caaf 75be 7547 52bc 011c 96be 9051 95be
00000330: 902e e9be 9b4e fabd d41a 82be 788e 92bd
00000340: ca88 64be 6624 5d3d cf5a 833c ee98 a8be
00000350: 94db e6be 6c1b 963d 0031 f6bd 356c c5bd
00000360: 7be6 4ebe 57a5 98bd c15b 81be cbc2 7fbd
00000370: 0a43 9ebd 4aa9 c73c e206 6c3e e3b5 1bbd
00000380: 33f8 aebe be8b 0b3d a0f8 093e 4b62 2f3d
00000390: 3ab3 403c af65 29bd 0712 f1bd e7ee 14bf
000003a0: 10af fb3d c9f0 4ebe 7804 493d a312 88bd
000003b0: 74b2 03be aa42 4cbe 853c cbbd 48a6 85be
000003c0: fe2c 4e3d f038 443e b62c 24bd 19ff c1bd
000003d0: 7a22 11be 38e3 17bd 8135 5ebc 87e8 5e3d
000003e0: ab82 aebe 2be5 39be 43c9 663d fe8b 83bd
000003f0: c874 04be 32b0 acbe b485 27be 75fa 11be
-0.26831672 -0.18179101 -0.449125 -0.07067316 -0.22163166 -0.120549135 -0.06664279 -1.0121242
-0.117196575 -0.1983148 -0.042063892 0.011018435 -0.06236827 -0.08196265 -0.20544542 -0.120211795
-0.017614232 -0.08046583 0.059648626 -0.12072575 -0.006180588 -0.20950623 -0.39395434 -0.057338215
-0.09338487 -0.5176513 -0.10129418 -0.48976606 -0.62209505 -0.35043746 -0.2318988 -0.6148703
-0.13881934 -0.23649552 -0.13752672 -0.29288533 -0.17111307 -0.3432484 -0.22137192 -0.10884948
-0.37378663 -0.307756 -0.3468884 -0.28807485 -0.29734534 -0.24191207 -0.11676158 -0.06439027
-0.11305737 -0.05691542 0.30316243 -0.3856385 -0.060515337 0.083464995 -0.4675563 0.15152298
0.11710567 0.0021938998 -0.01346065 -0.19235829 0.10436256 -0.16301633 0.039676566 0.20470633
0.030498663 0.1811048 -0.03720313 -0.14524332 0.15562193 -0.35240957 0.10236103 -0.11776117
-0.058182888 0.122611806 -0.41086173 0.16427223 0.056910776 -0.042035125 -0.42854747 -0.0857224
0.08073835 -0.6795073 0.013198857 -0.4221337 0.06523297 -0.12227192 -0.06672879 -0.24181445
-0.36610946 0.024137918 -0.1561659 -0.31053853 -0.23231055 0.11581878 -0.21023856 0.024774883
0.020477356 -0.20275538 0.040408235 -0.12067117 -0.14525083 -0.001115558 -0.27331308 -0.005842383
0.005296701 -0.36673206 -0.27565324 -0.10532391 -0.1667198 -0.50471824 -0.31331995 -0.1942612
-0.11376109 -0.2094257 -0.3237808 -0.18677655 0.015252066 -0.16342394 0.00037908854 -0.116785266
-0.32286537 -0.095833085 -0.6705632 -0.3144738 -0.13576089 0.2498453 -0.008513084 -0.016002743
-0.030651188 -0.14887537 0.17168011 0.03384065 -0.015939947 -0.053381532 0.022342071 0.04736943
-0.04802381 -0.08799897 -0.08117952 0.044616416 -0.017662985 -0.041183572 0.13516411 -0.029021623
-0.006239285 0.1845945 0.09081395 -0.057581227 0.07532333 -0.92600054 -0.18311097 -0.10290427
-0.059074 -0.31438065 -0.21687195 -0.4548689 -0.42944545 -0.15932545 -0.4994154 -0.24519382
-0.23525248 -0.091703795 0.051693104 -0.3518753 -0.060790885 -0.4423211 -0.06741315 -0.0069435937
-0.1949506 -0.43929908 -0.27733108 -0.24063213 -0.049684487 0.057817493 -0.16769329 0.23539089
-0.23446165 0.34676868 0.46333966 0.29460332 -0.18489528 -0.3413062 -0.38153806 -0.22794376
-0.6021076 0.10978132 0.1156987 0.19164188 -0.17319816 0.23695014 0.008895235 0.013073092
-0.48184237 -0.21890005 -0.07538963 0.16833392 0.12980989 0.32967716 0.075048484 0.14613792
-0.2399284 -0.0128344195 -0.2931824 -0.2916379 -0.45543337 -0.12222024 -0.25411093 -0.0715608
-0.22317806 0.05398979 0.016034512 -0.32929176 -0.450894 0.07329449 -0.12021065 -0.096397795
-0.20205109 -0.07453411 -0.25265315 -0.06244163 -0.077276304 0.024372716 0.230495 -0.038015258
-0.34173736 0.034068815 0.13473749 0.04281835 0.011761481 -0.04135674 -0.117710166 -0.58177036
0.1228925 -0.2020904 0.049076527 -0.0664418 -0.12861043 -0.19947305 -0.099236526 -0.26103425
0.050335877 0.19162345 -0.040081702 -0.09472484 -0.14173308 -0.037081927 -0.013562561 0.054420974
-0.34084067 -0.18153827 0.056344282 -0.06423186 -0.12935174 -0.33728176 -0.16359597 -0.14255698

convt2.bias f4 [16]
00000000: 1531 4e3d 5fd3 cc3d a6c4 883c 8c90 c23c
00000010: 0610 353d a94b 2d3d d35b 9b3d 7f80 11bd
00000020: 4789 973d 5458 7d3d aa68 343c 4495 a73d
00000030: 877c 243d 0511 803d cb32 903c d7dc b03c
0.050339777 0.10001253 0.016695332 0.023750566 0.044204734 0.042308483 0.075858735 -0.035522934
0.073992305 0.061851814 0.011011282 0.08182767 0.04015782 0.06253246 0.017602345 0.02158968

convt3.weight f4 [16, 32, 9, 9]
00000000: 8278 11bd a396 c23c d1ca aab9 922c 02bd
00000010: 5452 cabb 4c6a 7abd 764a d1bc ae0a 11bd
00000020: 73fd 3ebd 8a3d 0bbd 2114 17ba c240 ea3c
00000030: bf0f d9bc 6cc2 3b3c ac3c bebc 669c 763c
00000040: ef85 e33c 5d29 733d a3d4 a73c 4f15 563d
00000050: 1857 073e a8a4 1c3d 0405 7c3d f95c c23d
00000060: 689a 0b3d f68d 3a3d b915 133d d413 f3bc
00000070: 5606 d73c e3f7 5ebd 7a62 e23b 6bd9 80bc
00000080: 17bf 313a 4308 723c b230 c0bb 9b83 b6bd
00000090: 471e a0bc 647a 433c adf2 de3c d64e 943b
000000a0: 6fb6 c53b 4aae 913b 21df 10bd 9cc1 59bc
000000b0: c264 643d 0801 8fbb b644 963d d681 483c
000000c0: 76b2 023d bb7a 073d d399 ab3c 9e45 c13c
000000d0: d90f 823d 7391 f7bc 0fef b3bc a667 0f3c
000000e0: eeeb 33bd 349e e1bb 3982 083d df5a 113d
000000f0: 0a70 8f3c 59f7 283d 2863 85bc 42c8 77bd
00000100: 2915 d93c f81c ddbc dc8b 3bbd bbde 803c
00000110: 500a 06bd 2f40 3abd ea25 39bc 2fbc 3e3b
00000120: 54b7 653d d1fa 193d 5313 9a3d 8cd0 ac3d
00000130: 07ca a03d 0d5d 003e 467b 683d 5f4a d83c
00000140: 92b1 913d fa9e 273a a64b b53d fa96 18bd
00000150: b1ad a4bb bc2e 8b3d b997 3bbd 33d2 333c
00000160: cacd d43c 715d fbbc edf4 953d c2cf c43d
00000170: 69b7 df3b 14eb f53d 0f35 0c3e f7f3 18bd
00000180: 9afe f03d a61e a93d 9382 0e3b c68b 9f3d
00000190: 8dee 46bd d0a4 0f3e ccaf af3d f486 85bd
000001a0: fcb8 a73d 1dfe 883d ee53 83bd a95a 743d
000001b0: 2b3e 94bc 386b 013e 5f19 24bc 0b9a 583a
000001c0: 57f3 c83d 06bd 8c3c bc92 13bc 4230 6a3d
000001d0: 1362 58bc fe70 163e d229 863e 75de 3cbd
000001e0: e18d 043e f870 c83d 6b3c 27bd a4f5 bd3d
000001f0: e918 593e 2f67 bdbc 83e8 933c 9ec9 83bd
00000200: 0371 eb3d 6ac3 a43d 6bea d1bc ffa9 de3d
00000210: f07b b63c 5305 00bd 484b a23d 806b 653b
00000220: 298a 1b3e d916 b9bc a3c6 81bc 04cf dc3d
00000230: d588 ca3c 7bca 22bd 0e42 f63c fa7e c2bb
00000240: ca70 163e f1c4 4f3e c38d 003c 0823 2b3e
00000250: 2162 853d d2bb 3eb8 4eef 063e 4102 033e
00000260: ecc8 00bd 5b0c fbbd 5bc7 9fbc 9a6d 2b3e
00000270: cd7e bbbd 6d43 49bd cb9f 063e 01f3 61bd
00000280: 52fc 02bd 1bc7 963d 8ddd d03c ed44 c13c
00000290: c744 9b3c 8057 adbc 964d 39bb 5574 10bc
000002a0: 7d6f eaba 86c1 f23c 9051 9e3d b45c 103d
000002b0: 2895 253d 63e1 173d 927d 5a3d d7aa a13c
000002c0: 25ed 5d3c d318 663d cacb 273d 041d a23d
000002d0: a427 923d d54c a93d de58 9e3d b9cb a53d
000002e0: bd5c b83d 9254 7d3d e0e3 4a3d f2bc e93c
000002f0: e1ef 1d3d 4a7c bebc 85c4 a73c 0634 013d
00000300: a4a4 d53b e6cf 693c cecf 7d3c 3285 d8bc
00000310: 37b8 e3bc 316e 383d 884d 183c 4c99 163d
00000320: 18eb 0e3c 7fa0 00ba 5e26 b33a 8769 e33c
00000330: 7067 39bc f894 2e3c d167 913b 2ead 4e3d
00000340: ee03 6e3d 8411 023b 2988 253c 01b4 863d
00000350: b7e2 163d d101 5a3c 9eef 8b3d 4d6b ed3c
00000360: 4a5d 20bc 5563 f93c 8980 243d 83f8 7f3c
00000370: f3c5 e43c 54ca 853d 006b 533c afa0 ddbc
00000380: e5a3 a93d ed53 e83c 650e 503d 59b9 3e3c
00000390: d114 073d 25e1 823c a2b9 573c f567 333d
000003a0: 2d5b a93b d2cc 693d e84d aa3d 983e 483d
000003b0: f37b 893d f17b c33d f974 b63d 05eb ae3d
000003c0: 8995 783d ab95 893d ff85 e23d c69d a6bc
000003d0: cf4c 37bc 2a0c ffbb 792c 3dbb 6b25 6cbd
000003e0: 5de6 32bd 9d79 8cbd 115b 9a3b 5212 58bd
000003f0: d7fa 4fbc 6933 2e3b 82e1 e83c 647f 773c
-0.035515316 0.02375347 -0.00032576037 -0.031780787 -0.006174365 -0.06113653 -0.025548201 -0.035410576
-0.046628427 -0.033994235 -0.00057631923 0.028595332 -0.026496766 0.011459928 -0.02322229 0.015051937
0.027773825 0.05936562 0.020487135 0.052266415 0.13216817 0.038242966 0.06152822 0.094903894
0.0340828 0.04554554 0.03590939 -0.02967254 0.026248138 -0.054435622 0.006908712 -0.015728673
0.0006780489 0.014772478 -0.00586518 -0.089118205 -0.019545687 0.011931036 0.027215326 0.0045259995
0.0060337107 0.0044458257 -0.035369042 -0.013290789 0.055760153 -0.0043641366 0.07337324 0.012237987
0.031908475 0.03307603 0.020947373 0.023592766 0.06350679 -0.030220723 -0.021964578 0.008752739
-0.043926172 -0.0068853144 0.033327315 0.035487052 0.01750948 0.041251514 -0.016282633 -0.060493715
0.026499348 -0.026991352 -0.045787677 0.015731206 -0.03272468 -0.045471366 -0.011300543 0.0029103865
0.05608304 0.037592713 0.07523217 0.08438215 0.07851034 0.12535496 0.056758188 0.02640265
0.07113947 0.0006394234 0.088523194 -0.037253357 -0.0050255884 0.06796023 -0.04579899 0.010975408
0.025977034 -0.030684205 0.073221065 0.09609939 0.006827284 0.12007728 0.13692115 -0.037342038
0.117673114 0.08257799 0.0021745309 0.077903315 -0.048567344 0.14027715 0.085784525 -0.06519881
0.0818958 0.06689093 -0.06412493 0.059656773 -0.01809605 0.12638557 -0.010015815 0.00082627
0.098120384 0.017179977 -0.009007152 0.05717493 -0.0132069765 0.1469154 0.2620378 -0.04611059
0.12944748 0.09787172 -0.040829103 0.09275368 0.21200909 -0.02312049 0.018055206 -0.0643494
0.11496165 0.08045085 -0.025624475 0.10872268 0.022275895 -0.031255078 0.07924515 0.0035006702
0.15189423 -0.022593902 -0.015841788 0.107816726 0.02472345 -0.03974388 0.030060794 -0.005935547
0.14691463 0.20289971 0.007846299 0.16712582 0.06512857 -4.547445e-05 0.13177225 0.12793829
-0.031441614 -0.12258216 -0.01950424 0.16741028 -0.09155045 -0.049136568 0.13146894 -0.055163387
-0.031978913 0.07362195 0.025496269 0.023592437 0.018953694 -0.021159887 -0.0028275005 -0.008816798
-0.0017886009 0.029633295 0.077304006 0.03524466 0.04042545 0.03708018 0.05334241 0.019734783
0.013545309 0.056176018 0.040965833 0.079156905 0.07136467 0.08266608 0.07731794 0.08095498
0.090020634 0.06184823 0.049533725 0.028532479 0.038558844 -0.023252625 0.02047945 0.031543754
0.006519871 0.014270758 0.015491439 -0.0264307 -0.027797801 0.04502696 0.009295829 0.03676729
0.008723043 -0.0004906728 0.001366805 0.02776028 -0.011316165 0.010655634 0.0044374247 0.050458126
0.058109216 0.0019846866 0.010103264 0.06577302 0.036837306 0.013306097 0.06832813 0.028981829
-0.009787867 0.030442873 0.040161643 0.015623215 0.02792642 0.06532732 0.012903929 -0.027054159
0.082832135 0.028360331 0.050794978 0.01164087 0.032978836 0.015976498 0.013166817 0.043800313
0.0051683397 0.057080097 0.08315641 0.04888782 0.067130946 0.09545124 0.089090295 0.0854092
0.060689483 0.06718 0.11060714 -0.020338904 -0.011187746 -0.0077834325 -0.002886562 -0.057652872
-0.043676723 -0.068591334 0.004710563 -0.052751847 -0.012694082 0.0026580936 0.028427843 0.015106056

convt3.bias f4 [32]
00000000: 89ea 533d 971f 04be 6f8a 1b3e 0555 a83d
00000010: 06be e33d 379e 0b3a 7c03 bf3c d4a4 203e
00000020: 6176 f1bd 3aeb 613b f477 553c 607b ff3d
00000030: de6d c03d 5fe1 293e 5f2b 47bd 7b0e ec3d
00000040: 82b0 8c3b 5193 e7bd b602 cebb 0582 023e
00000050: 44cf 4abd 3619 b93d f385 093e 4ae1 013e
00000060: 28fb 963d c1c0 bc3d 9e23 11be ae18 c93c
00000070: 9ae4 a53c c816 c63d d0d8 ae3d 8378 3e3d
0.051737342 -0.12902676 0.15189527 0.08219341 0.111202285 0.0005326005 0.023317091 0.15687877
-0.11790157 0.0034472481 0.013029087 0.12474704 0.093959555 0.16589878 -0.048625346 0.115261994
0.0042935023 -0.11307395 -0.0062869443 0.12744911 -0.04951407 0.09038012 0.13430004 0.12683597
0.07372123 0.092164524 -0.14173743 0.024547901 0.020250607 0.09672314 0.085374475 0.046501648

pos_output.weight f4 [1, 32, 2, 2]
00000000: a1a5 563e c892 01be 983f 21be bcfa 0bbe
00000010: f71c 013e 9c6f fb3d c79b e4bc a17d c63c
00000020: 89e2 493e 4dfd f3bc 793c 853d b45d 65bc
00000030: 3d4a c9bd b46b af3c b896 243c d296 81bd
00000040: 45f5 ea3e 084b b43e 834d 9c3e 3ca4 ad3e
00000050: f210 073e 1307 853d a735 c33d 6427 073e
00000060: 65ad b33e a299 843e 7efc 723e 4825 d93d
00000070: 6238 213e 764a 22bc 7cce fcbb 8eb2 3dbd
00000080: d211 ea3e f524 733e 9aab d13e d5e2 e83e
00000090: 9629 243d e357 2abe 9dbf f2bd a773 20be
000000a0: ad0c 103f 70aa f73e cc72 203f 6595 0b3f
000000b0: 04c7 aa3e 8608 f53e 30f6 ed3e 9bdc d23e
000000c0: ea20 393e 204c bcbd 29be 43be 0238 a83d
000000d0: 559f 373e 21ed 4cbe 9512 193e 5b64 f83d
000000e0: 1262 61bd 5146 f93d 23b3 4b3e ec37 34bd
000000f0: d898 d9bc edec adbd b85f a83c c835 e1bd
00000100: 6920 283e cc58 173e 0eca 343e 9caf 103e
00000110: b231 16be 6082 09be 8099 3f3e a90d 183e
00000120: 908b 043f cd06 a53e 6cf5 9d3e afbd 953e
00000130: 48c4 353e f195 33be e5e6 8dbd 3807 a03d
00000140: cdb7 7ebe 272b 183d cbcf a9bc f889 e13d
00000150: af0d 26be 8330 22be c6b3 73be 9855 83be
00000160: f5ed 94be efc2 0ebe 7ec6 51be a624 7fbe
00000170: 27af 113e cc05 ac3d 2bdb 833c 7e94 2b3e
00000180: 04ae a33c dff3 023d dbb8 a53d 46d1 723d
00000190: bbee 16be 18b5 9a3d ed53 9fbd b8f8 ecbd
000001a0: d59a 503e 7ed8 64bd 17ae 843e 6607 7dbd
000001b0: 79f8 463d 1713 65bd e95d da3c f33c 15bd
000001c0: 0480 cd3e 6935 d93e 9c4a c63e 62ba e63e
000001d0: b05f 1ebe f371 a1bd f308 e93d 9389 cb3d
000001e0: 7b26 c43d 640e 573d 31ee 5a3e 168c cf3d
000001f0: e841 12be 7242 b93d d966 45bc baac c93c
0.2096162 -0.12653649 -0.15746915 -0.13669866 0.12608705 0.12277147 -0.027906312 0.024229826
0.19715323 -0.02978387 0.06505675 -0.013999391 -0.09828613 0.021413662 0.0100457 -0.06327595
0.4589025 0.35213494 0.30527887 0.33914363 0.13190058 0.0649549 0.09531718 0.1319862
0.35093227 0.25898463 0.2372913 0.10602814 0.15744165 -0.009905448 -0.0077150445 -0.04631286
0.4571672 0.23744567 0.40951234 0.4548556 0.040078722 -0.16635089 -0.118529536 -0.15669118
0.5626934 0.4837222 0.62675166 0.5452483 0.33354962 0.47858065 0.4647689 0.41183934
0.18078962 -0.09194207 -0.19115509 0.08213808 0.17931874 -0.20012332 0.14948495 0.12128516
-0.055025168 0.12171615 0.19892554 -0.043998644 -0.02656214 -0.08492456 0.020553455 -0.10996586
0.16418613 0.14779967 0.17655203 0.1412949 -0.14667395 -0.1342864 0.187109 0.14848961
0.51775455 0.3223175 0.30851305 0.2924628 0.17750657 -0.17537667 -0.06928805 0.07813877
-0.24874802 0.03715053 -0.020728966 0.110126436 -0.16216157 -0.15838818 -0.23799047 -0.2565124
-0.29087797 -0.13941549 -0.20485875 -0.24916324 0.14226972 0.08399543 0.016095718 0.16755864
0.019980438 0.031970855 0.08091899 0.05928161 -0.14739506 0.07554072 -0.077796794 -0.11570877
0.20371564 -0.055870526 0.2591407 -0.061774634 0.048576806 -0.05592641 0.026656108 -0.03643508
0.4013673 0.4242356 0.38728797 0.45064074 -0.1546619 -0.07883062 0.1137866 0.099383496
0.09577652 0.05250396 0.21379925 0.10134141 -0.14282954 0.090458766 -0.012048447 0.024618495

cos_output.weight f4 [1, 32, 2, 2]
00000000: 928c ac3d bcd5 283d af69 dd3d 93b8 103e
00000010: 49e7 75be 6c3a b8be ca8a d9bd 669c 2fbe
00000020: ff2c 083d 41fa 583e 816a 4e3e a10a 863e
00000030: add0 dbbd b931 ec3d ce08 8a3e 43bf d13d
00000040: 53a6 b4be 21ff 48be 0e93 66bd 4d8a b5bd
00000050: 9d36 d8bd 16dc f63d 5a69 debd 0dbb 6bbd
00000060: 8c47 15bf f1ed e8be e96c 00bf cc5f 92be
00000070: 1bc0 053e 0ebc 893e 8df5 843e 8164 bbbd
00000080: de7e 14bf 055c 2cbf 5ca4 2fbf 2d2b 43bf
00000090: a8b2 a53d e864 f53c a342 9b3d c0d6 ffbc
000000a0: 4996 5cbe eb64 89be 0b2f a8be 1e9d bfbe
000000b0: 0813 cb3b a028 73be 174b 62be 568f b63c
000000c0: 04b9 fc3c 4d7e 3a3d 9e0b a43d 9583 9e3d
000000d0: 69ab 2f3e 6edc 753e 2d00 933e 9ddb be3d
000000e0: 1028 a63d 60ed f9bc 3aa1 16be 41b2 0c3e
000000f0: 7bc1 403e 8bf4 d43c 3f2f 5e3e a1e2 113e
00000100: 183f 2bbd b32f 9e3d 17c1 e23d 573b 3f3e
00000110: 0489 313d 3ebc 153e 88be 4cbe bc77 8ebe
00000120: fb06 edbe d20f 5cbe d93f 82be 303e a9be
00000130: f1cc fd3d c0a4 dabd 62bf 803e 7f87 b13d
00000140: 7022 a93e 9f57 0fbc 0a49 2c3d 8bc6 71bd
00000150: 1fe4 bd3e c6b5 bf3e 3707 ed3e bdcc ee3e
00000160: d7b7 e8be 11c2 fcbe 53b8 c2be 05ea 05bf
00000170: 5aa3 103e 856f 4a3e ff66 b5bc e9b9 353e
00000180: 3c18 71be 9de4 56be 7a5c 9ebe 664c 34be
00000190: 62bb cb3d 512e c33d 3fee 3d3e ba8a 113e
000001a0: f824 d2be 1b6b aebd 123b c7be 40fd 633b
000001b0: beac 293f 19f9 3e3f bc74 263f 7cef 2c3f
000001c0: f9f4 7bbe 01d7 77be 6802 57be d08d 5abe
000001d0: e01e 733c e49e 963d aaab f73d 3add 003e
000001e0: 9512 6e3c d241 bcbd 0ea3 0bbf f5aa 0abf
000001f0: 136c d03c de5a 343e 0959 40bd f8e4 283e
0.08425249 0.041219458 0.10811173 0.1413291 -0.2401401 -0.35982072 -0.10622175 -0.17149505
0.033246037 0.21189214 0.20157816 0.26179984 -0.10733161 0.11532921 0.26959842 0.102415584
-0.35283145 -0.19628574 -0.056292586 -0.088642694 -0.10557292 0.12053697 -0.10859938 -0.057551432
-0.58312297 -0.45494035 -0.50166184 -0.28588712 0.13061564 0.26901287 0.2596859 -0.09150029
-0.58006084 -0.6732791 -0.6861017 -0.76237756 0.080907166 0.029955342 0.07581069 -0.03123033
-0.21541704 -0.26834807 -0.3284839 -0.37424558 0.006197337 -0.23745966 -0.22098957 0.022285145
0.030849941 0.045530606 0.08010028 0.07739941 0.17155232 0.24009869 0.28711072 0.09319232
0.0811311 -0.030508697 -0.1470994 0.13739873 0.18823807 0.025995513 0.2169771 0.14246608
-0.041808218 0.07723942 0.11071985 0.1867498 0.04334356 0.1462259 -0.19994557 -0.27825725
-0.46294388 -0.2149041 -0.25439337 -0.33055258 0.12392605 -0.10675955 0.25146013 0.08668422
0.33034086 -0.008748918 0.042061843 -0.059027236 0.37088105 0.3744337 0.46294567 0.46640578
-0.4545276 -0.4936681 -0.38031253 -0.5231021 0.14124814 0.19769104 -0.022143839 0.177467
-0.23544401 -0.20985647 -0.3092993 -0.17607269 0.0994785 0.095303185 0.18547915 0.14213076
-0.4104383 -0.085165225 -0.38912255 0.00347884 0.6627921 0.7459884 0.6502187 0.67552924
-0.24605168 -0.24203111 -0.20997012 -0.2134316 0.014838904 0.07354525 0.12093289 0.12584391
0.0145307975 -0.09192242 -0.54545677 -0.5416711 0.025442159 0.17612788 -0.04695991 0.16493595

sin_output.weight f4 [1, 32, 2, 2]
00000000: d230 4c3e a274 11be 5385 3b3e 7eb7 5abd
00000010: 8713 6d3c 54b6 263b d6e1 1fbd b5ee 69bd
00000020: a5b1 da3d 480a 353e 2db3 18be 0264 1f3e
00000030: 438e 97bd c4a0 b73c 8149 aabc 9057 d6bc
00000040: 308c 9d3a d2e4 3f3d 4d50 94bc 9c54 65ba
00000050: fb9a 233f 6798 263f 4803 243f 6a8b 173f
00000060: 39d3 353e 0bfa bd3d 55c4 583e 3ec0 f33d
00000070: c05e 0dbe a1aa c83d 43da 3cbe 8e75 cc3d
00000080: f4db 2a3d 6cf6 cc3d 9aa0 f9bc e539 1a3d
00000090: 3f5b 6b3d 2802 9abc ee73 f43d f074 b8bb
000000a0: 9574 d8bd 8982 6abd 6e45 81bd 291a 68bd
000000b0: 81cd 21be 0504 86bd 7be9 a5bd 595c 13bd
000000c0: 1033 12bd 8b2f 76bd fd41 a8bd 004a 0fbe
000000d0: 6462 2b3e cd2e 9ebd bdb2 9a3d 4405 d53d
000000e0: 2fd1 c73d 0a70 0fbd 77c9 9a3d 7f09 6bbc
000000f0: d9b6 2bbe 3ffb 053e b46c a5bd 9f83 5bbd
00000100: 6f73 dd3b d5a2 9d3d da85 073d 81d8 123d
00000110: f4f3 3d3d 42fc a73d 1f08 033c d410 f43d
00000120: a39d 63be acb2 05bd bfcd 0fbe 83d5 2bbe
00000130: 5d51 9b3d 8c5b 32be 73ec b63c 6355 a63d
00000140: b033 143d 9416 f73d 586f b63e 19eb 893e
00000150: 4c1e b33d 0ae7 0c3e c47b c63d 1f29 af3d
00000160: 1a34 ba3e 88e9 7a3e c1d4 af3e b0a6 843e
00000170: 95e0 343e e4c6 3abe 0867 f73d 5097 efbd
00000180: 9e18 14bf d3dd 18bf 7249 1dbf 7d55 1cbf
00000190: 3dd6 9fbd 6a94 c6bd 40f6 c9bc 0d41 473e
000001a0: db36 d23c ed6a 753c f658 813d 2acd 00bd
000001b0: 461c 523e 05ad 353e 3ca4 a43e b08e 8c3e
000001c0: f5dc 1e3d deac 8d3b f7c2 053d 9f36 fd3b
000001d0: ec41 013e 7169 963d ec6a 45bc dab7 ce3d
000001e0: ed2b 5f3e 249d 803e ac13 833e fc77 b33e
000001f0: 67a4 81bc dfa2 b9bd 99c3 95bd 25c7 063d
0.19940498 -0.14204648 0.18312578 -0.053397648 0.014469988 0.0025438266 -0.039033733 -0.057112414
0.10678414 0.17679703 -0.149121 0.15565494 -0.07400181 0.022415526 -0.020787003 -0.0261648
0.0012019929 0.04684908 -0.018104697 -0.00087482645 0.63908356 0.650763 0.64067507 0.59197104
0.17756356 0.092762075 0.21168645 0.11901902 -0.13805676 0.0979817 -0.18442635 0.09983359
0.04171367 0.10007939 -0.030472089 0.03765287 0.057460066 -0.018799856 0.11936174 -0.0056291744
-0.10569111 -0.057253394 -0.06312071 -0.056665573 -0.1580105 -0.065437354 -0.081011735 -0.03597674
-0.03569323 -0.060103934 -0.08215711 -0.13993073 0.16736752 -0.0772377 0.07553623 0.10401395
0.097566955 -0.03501896 0.075579576 -0.014345526 -0.1676897 0.13084124 -0.08077374 -0.05359232
0.0067581455 0.07697073 0.033086635 0.035851005 0.04637523 0.08202411 0.007997542 0.11917272
-0.22228102 -0.032641098 -0.1404333 -0.16780667 0.07583878 -0.17417735 0.022329545 0.08121755
0.036182106 0.12064853 0.35631824 0.26937178 0.08746013 0.1376001 0.09691575 0.08552765
0.36367875 0.24503148 0.34342006 0.25908422 0.17663796 -0.18239933 0.120801985 -0.116987824
-0.5785006 -0.59713477 -0.61440194 -0.61067945 -0.078045346 -0.096962765 -0.024653554 0.19458409
0.025660923 0.014979106 0.06315796 -0.03144566 0.20518598 0.17741783 0.3215655 0.27452612
0.03878494 0.004323586 0.032656636 0.0077274586 0.12622803 0.0734433 -0.012049418 0.10093661
0.217941 0.2511989 0.25600946 0.35052478 -0.015825463 -0.09064268 -0.07312698 0.032904763
