ggcnn_base/output/models/221204_2000_training_example/epoch_09_iou_0.71_statedict.pt (torch, 256417 bytes, 16 tensors)

conv1.weight f4 [32, 1, 9, 9]
0	0xbcf1b065	-0.029503057
1	0xbdad7111	-0.08468831
2	0xbca7f106	-0.020500671
3	0xbda0d22c	-0.07852587
4	0xbdadd6f5	-0.084882654
5	0xbc7bb264	-0.015362356
6	0xbd43e99d	-0.047830213
7	0xbdb8a76f	-0.090163104
8	0xbda66856	-0.08125369
9	0xbd4796f7	-0.048727956
10	0xbcfe3b5d	-0.031034166
11	0xbcaee561	-0.02134961
12	0xbd9b1548	-0.075724185
13	0xbcdad623	-0.026713436
14	0xbd83b25e	-0.06430505
15	0xbd66035a	-0.05615554
16	0xbd212637	-0.039343085
17	0x3c976d4d	0.018484736
18	0xbc68f8dc	-0.014219489
19	0xbd4a199e	-0.049340837
20	0xbc1f1587	-0.009709722
21	0xbd1768ae	-0.036965065
22	0xbd8a112d	-0.06741557
23	0xbd6150dd	-0.055008758
24	0xbc8e265f	-0.017352281
25	0xbd300a92	-0.04297883
26	0xbd59e9cb	-0.053201478
27	0xbc7e53e8	-0.0155229345
28	0xbd2bc48b	-0.041935485
29	0xbb85a7dc	-0.0040788483
30	0xbc96b4ae	-0.018396702
31	0xbd365db1	-0.044522945
32	0x3d11643f	0.035495993
33	0x3cc26514	0.023729838
34	0xbd3691ae	-0.044572525
35	0x3d0ec78e	0.03485828
36	0xbca794d4	-0.020456709
37	0xbcb82161	-0.022476854
38	0xbd0806fe	-0.033209793
39	0xbcb91f45	-0.022597918
40	0xbd4b4fa7	-0.04963651
41	0x3b80f159	0.003935021
42	0x3d0d0037	0.034424033
43	0x3d2e47aa	0.042548813
44	0xbd23364d	-0.039846707
45	0x3ca3ca9a	0.019994069
46	0x3d2387db	0.039924484
47	0xbc99eb1a	-0.018788863
48	0xbd330d3d	-0.043713797
49	0x3d21851d	0.039433587
50	0xbce89f59	-0.028396295
51	0xbc8c9b5d	-0.017163927
52	0x3ca1e699	0.019763278
53	0x3d406a13	0.04697616
54	0xbd0847e0	-0.03327167
55	0xbb92be2f	-0.004478238
56	0x3c9ad2ed	0.018899405
57	0xbc545654	-0.012960035
58	0x3d6d28dd	0.0579003
59	0x3d064a04	0.03278543
60	0x3ce8f161	0.028435411
61	0xbcd67df6	-0.02618311
62	0xbcb9b29c	-0.022668175
63	0x3d4b1c28	0.0495874
64	0xbc0295ed	-0.007970315
65	0x3c93f0e6	0.018059205
66	0x3c576e83	0.013148907
67	0x3d288ee2	0.04115189
68	0x3d63f733	0.05565567
69	0xbcac1b74	-0.021009184
70	0x3cfd701c	0.030937247
71	0x3b5d69d7	0.003378501
72	0x3d35da67	0.044397738
73	0x3c831eae	0.01600584
74	0x3d273b36	0.040827952
75	0x3cad91f7	0.021187766
76	0xbcc8c466	-0.024507713
77	0xbc45ab1d	-0.012064722
78	0x3d8ca738	0.06867832
79	0x3cdc7575	0.026911477
80	0x3ca2f183	0.019890552
81	0xbcbc3280	-0.022973299
82	0xbccce691	-0.025012286
83	0x3c75f016	0.015010854
84	0x3dc81d7d	0.097712494
85	0x3df9f93e	0.12205742
86	0x3db8ed90	0.090296865
87	0x3e220ae7	0.15824471
88	0x3e5d6a0b	0.21622483
89	0x3e8b627a	0.2722357
90	0xbdf634c9	-0.12021787
91	0xbdbd65ed	-0.092479564
92	0xbd719319	-0.058978174
93	0xbcf32b01	-0.029683592
94	0x3c8274d1	0.015924843
95	0x3db6c391	0.0892402
96	0x3e07c9e3	0.13260607
97	0x3e4f9dad	0.20274992
98	0x3e60b620	0.21944475
99	0xbe35ff54	-0.17773181
100	0xbdff738e	-0.12473212
101	0xbd9c845d	-0.07642434
102	0xbdb67694	-0.08909336
103	0xbcfddf5f	-0.0309903
104	0x3c49a444	0.01230723
105	0x3cb2ae11	0.021811517
106	0x3db1693d	0.08662651
107	0x3e2f050d	0.1709177
108	0xbd96a116	-0.073549435
109	0xbd2e3004	-0.04252626
110	0xbcbc31ab	-0.022972902
111	0x3d4ec43b	0.05048011
112	0x3d156d99	0.036481474
113	0x3d7af821	0.06127179
114	0x3da4fefa	0.080564454
115	0x3e497638	0.19674003
116	0x3e62fbab	0.22166316
117	0xbddd3a92	-0.10802187
118	0xbd52c7ca	-0.051460065
119	0xbd94521c	-0.072422236
120	0xbce315b0	-0.027720302
121	0xbd112cae	-0.035443
122	0x3cce6585	0.025194893
123	0x3dfa7d95	0.12230984
124	0x3e1cfaf3	0.15330105
125	0x3e05330c	0.13007754
126	0xbe2e39c5	-0.17014225
127	0xbe08e77d	-0.13369556
128	0xbdcad62c	-0.09904131
129	0xbd92a7d2	-0.071609154
130	0xbd66bf08	-0.056334525
131	0x3b9b4db9	0.00473949
132	0x3dc1f42f	0.094704024
133	0x3e143565	0.14473493
134	0x3e1341b1	0.14380528
135	0xbe0d03ae	-0.13770935
136	0xbe13fd3e	-0.14452073
137	0xbe2e4207	-0.17017375
138	0xbddd73ab	-0.108130775
139	0xbd8428c3	-0.06453087
140	0x3c914dfd	0.017737383
141	0xbbaf92b6	-0.0053580655
142	0x3dda85ec	0.10670075
143	0x3e150fdb	0.1455683
144	0xbe2bce55	-0.16777928
145	0xbe0b2463	-0.13588099
146	0xbe2c6fd0	-0.16839528
147	0xbd0f4a4b	-0.03498296
148	0xbdbf06a6	-0.0932744
149	0xbc092148	-0.008369751
150	0x3cdd2ec1	0.026999833
151	0x3dd4a6b4	0.103833586
152	0x3e017c92	0.12645176
153	0xbe201970	-0.15634704
154	0xbe362af5	-0.17789824
155	0xbe052a1e	-0.13004348
156	0xbd622d5a	-0.055219032
157	0xbd160e49	-0.036634717
158	0xbb8b0abc	-0.004243223
159	0x3d8a0fc5	0.06741289
160	0x3dd37894	0.10325733
161	0x3e2a1384	0.16609007
162	0xbbc68a26	-0.006058949
163	0xbb9f8811	-0.0048685153
164	0xbc75af16	-0.014995357
165	0xbc3ec2cf	-0.011643126
166	0x3b8f07c1	0.004364938
167	0x3c1eefb9	0.009700709
168	0x3c91db92	0.017804895
169	0x3d3e340a	0.046436347
170	0x3d23ce6b	0.039991777
171	0xbd06bc80	-0.03289461
172	0xbd3031a0	-0.043016076
173	0x3b210ed7	0.0024575496
174	0x3baaf88b	0.005217617
175	0xbd2916ce	-0.041281514
176	0x3cf4d427	0.029886318
177	0x3ce2ef44	0.027701981
178	0xbcd7a55d	-0.026323969
179	0x3d1a7017	0.037704553
180	0x3c8ee657	0.017443819
181	0x3c91afef	0.017784087
182	0xbd02fad4	-0.03197749
183	0x3cca136a	0.02466746
184	0xbc7669da	-0.015039885
185	0xbd2754fd	-0.040852536
186	0xbbdc9a13	-0.0067322343
187	0x3d24e725	0.0402595
188	0xbcc9b354	-0.024621643
189	0xbd009002	-0.031387337
190	0x3b1362f0	0.0022489391
191	0xbc95989e	-0.01826125
192	0xbcbd7b00	-0.02312994
193	0x3d266fa3	0.04063381
194	0x3c3142a9	0.010819116
195	0x3c1e9ccf	0.009680941
196	0xba985c5c	-0.0011624205
197	0x3d27c4a5	0.04095902
198	0x3d15e53d	0.03659557
199	0xbd00d871	-0.031456415
200	0xbbeb265c	-0.0071762037
201	0x3d272d82	0.040814884
202	0x3c8ffead	0.017577494
203	0xbc10298b	-0.008798967
204	0xbd021d6a	-0.031766333
205	0xbc8ce0db	-0.017197063
206	0xbac4d029	-0.001501565
207	0xbd176d58	-0.036969513
208	0xbc5e729f	-0.0135771325
209	0xbc979452	-0.018503342
210	0x3c07917a	0.00827443
211	0xbd4124f2	-0.047154374
212	0x3b844a39	0.0040371683
213	0xbc2352ac	-0.009968441
214	0xbc87d478	-0.016580805
215	0x3bcb54f4	0.0062051956
216	0xbca144f8	-0.019686207
217	0x3c4e06fe	0.012574909
218	0x3b1a2743	0.0023521937
219	0x3cd6079a	0.026126672
220	0x3cd92d7a	0.026510943
221	0xbc91a8d1	-0.017780693
222	0xbc670fd4	-0.014102895
223	0xbd24f710	-0.04027468
224	0x3b36c0f4	0.0027886005
225	0x3c1e2fdd	0.009654966
226	0xbc6ce2e8	-0.014458396
227	0xbd319c8f	-0.043362197
228	0xbb71a7d6	-0.003687372
229	0xbc7603a2	-0.015015515
230	0x3c906a21	0.017628731
231	0x3a7cef9e	0.0009648743
232	0xbcd36746	-0.02580608
233	0xbd28940f	-0.041156825
234	0x3be5c3a9	0.00701185
235	0x3d16afab	0.036788624
236	0x3d266d89	0.040631805
237	0xbbbad900	-0.005702138
238	0xbd23e705	-0.04001524
239	0x3cd63d0e	0.02615216
240	0xbc4e10d8	-0.012577258
241	0xbca85ff0	-0.020553559
242	0xbd05d830	-0.032676876
243	0xbe419751	-0.18905379
244	0xbdc07319	-0.09396953
245	0x3bfb26a5	0.007664519
246	0xbe951b2c	-0.29122293
247	0xbe82cbae	-0.2554602
248	0xbe7a2808	-0.24429333
249	0xbe4f45f0	-0.20241523
250	0xbe320c23	-0.17387442
251	0xbe96adee	-0.29429573
252	0xbc95234d	-0.01820531
253	0x3dad2914	0.08455101
254	0x3dde0f0d	0.108427145
255	0xbd9bcd77	-0.07607549

conv1.bias f4 [32]
0	0xbe6915a8	-0.22762167
1	0x3e0b5a9f	0.13608788
2	0xbddddffe	-0.10833739
3	0xbc60619a	-0.013695145
4	0x3d9aa65a	0.0755126
5	0x3dda1d2c	0.10650095
6	0xbd4802b5	-0.048830707
7	0x3e059aa8	0.13047278
8	0xbe82df69	-0.25561073
9	0xbb720227	-0.0036927552
10	0x3e2d440c	0.16920489
11	0xbda18daa	-0.078883484
12	0xbe677d34	-0.22606355
13	0x3b86c724	0.004113095
14	0x3d0bb9c8	0.03411272
15	0x3cb4aa3c	0.02205383
16	0xbc44d374	-0.012013305
17	0xbdab1f86	-0.08355622
18	0xbe1ee7c2	-0.15518096
19	0xbd96e9fe	-0.07368849
20	0xbe20f750	-0.15719342
21	0x3e50f090	0.20404267
22	0x3d2da8a1	0.042397145
23	0xbdcd72a9	-0.10031635
24	0xbe5bd36c	-0.2146737
25	0xbbd3cb16	-0.0064634187
26	0xbcf7bdbe	-0.030241843
27	0x3d178309	0.0369902
28	0xbdc53d72	-0.096308604
29	0xbdc746a5	-0.09730271
30	0x3dc4a879	0.09602446
31	0x3d939982	0.07207014

conv2.weight f4 [16, 32, 5, 5]
0	0xbe2659a6	-0.16245136
1	0xbda20537	-0.07911151
2	0xbbbdba8a	-0.0057900595
3	0xbc775d7a	-0.01509797
4	0xbd90b06b	-0.07064899
5	0xbce1ed78	-0.027579054
6	0xbccd810f	-0.025085954
7	0x3d2a23f6	0.0415382
8	0x3d2c257a	0.042027928
9	0xbba3f3a1	-0.005003408
10	0xbd0bb2e5	-0.034106154
11	0xbca95826	-0.020671915
12	0xbc934eb2	-0.01798186
13	0x3dc5c71d	0.096571185
14	0x3da78ab4	0.081807524
15	0x3d21eeed	0.039534498
16	0x3d62111d	0.0551921
17	0x3de53a3b	0.11192747
18	0x3ca1d4b4	0.019754745
19	0x3e1e00ed	0.1543004
20	0xbc9ee759	-0.019397425
21	0x3cbfe792	0.023425851
22	0x3defbc84	0.117058784
23	0x3d8c0ade	0.0683801
24	0x3d1e97f2	0.038719125
25	0xbc2d0911	-0.010561244
26	0x3cada944	0.021198876
27	0x3d2a4fcc	0.041580006
28	0xbd7d853f	-0.06189465
29	0xbd66b769	-0.056327257
30	0x3be53a97	0.00699551
31	0xbc1de4cf	-0.009637072
32	0x3cebeea0	0.028800309
33	0xbde3a2a5	-0.11115006
34	0x3c7c59df	0.015402286
35	0x3d83b197	0.06430357
36	0x3d93acd7	0.07210701
37	0xbc0fdb16	-0.0087802615
38	0xbdb55917	-0.08854883
39	0xbd9332dd	-0.07187436
40	0x3cc346f7	0.02383755
41	0x3cdcf1fb	0.026970854
42	0xbcecd9ad	-0.02891239
43	0xb9f1f699	-0.00046150832
44	0xbd299adc	-0.04140745
45	0x3d75f3dd	0.06004702
46	0x3d793979	0.060845826
47	0x3c5dbd29	0.013533869
48	0x3c9606c1	0.018313767
49	0xbcdbb6dd	-0.026820594
50	0x3c9023ff	0.01759529
51	0x3d86cdd9	0.06582231
52	0x3d3a744a	0.04552106
53	0x3c263642	0.010144772
54	0xbcb42e66	-0.02199478
55	0xbd0a9979	-0.03383777
56	0xbd181425	-0.037128586
57	0x3c1735f6	0.009229174
58	0x3d82ed37	0.063929014
59	0xbd0b66fc	-0.03403376
60	0x3cbd42d6	0.023103159
61	0xb9a2862a	-0.00030999008
62	0x3c91b939	0.017788516
63	0xbd16505d	-0.036697734
64	0x3c7fbff9	0.015609735
65	0x3ceecd54	0.029150642
66	0x3ca01ff4	0.019546486
67	0xbcfdb7ab	-0.030971369
68	0x3cbcd0cc	0.02304878
69	0xbc47e32a	-0.012200156
70	0x3cc5fc52	0.024168167
71	0xbc2b88ed	-0.010469657
72	0x39df021b	0.00042535443
73	0x3d3a6ef4	0.04551597
74	0x3d58e5b0	0.052953422
75	0xbc3c912c	-0.011509221
76	0x3d268863	0.040657412
77	0x3c495777	0.01228892
78	0xbd1e5298	-0.038652986
79	0x3c04c084	0.00810254
80	0xbb53e201	-0.0032330754
81	0xbcd1e114	-0.02562002
82	0xbd7b1e38	-0.061308116
83	0x3cf1e71b	0.029529145
84	0x3dbf056a	0.093272045
85	0xbdc19fab	-0.094542824
86	0xbda1f378	-0.07907766
87	0xbd2d1e65	-0.042265315
88	0xbd48db1f	-0.049037095
89	0xbb9757c6	-0.0046186177
90	0x3d26d6c0	0.040732145
91	0x3cdedfb0	0.027206272
92	0x3c44db69	0.012015202
93	0x3cd67f77	0.026183827
94	0x3dfbcf08	0.122953475
95	0xbd101aac	-0.035181686
96	0x3cd26fbf	0.02568805
97	0x3c802e60	0.015647113
98	0x3db96079	0.09051604
99	0x3dfcefda	0.123504356
100	0xb8a78609	-7.9881465e-05
101	0xbc0fe79a	-0.008783245
102	0x3d69592c	0.056969807
103	0x3c3294a5	0.010899697
104	0xbd30ab6a	-0.043132223
105	0x3d7c66f3	0.061621618
106	0x3d360864	0.044441596
107	0x3be3cdde	0.0069520315
108	0x3d2e98ba	0.04262612
109	0x3cfc1e11	0.030776056
110	0x3d191835	0.0373766
111	0xbb21a3d2	-0.0024664295
112	0x3c67e354	0.01415332
113	0x3c57631d	0.013146189
114	0x3b8c6375	0.004284317
115	0x3d069ff4	0.032867387
116	0x3dcd8e3b	0.10036894
117	0x3c3b158e	0.011418713
118	0xbc5c15e0	-0.01343295
119	0xbc0bde3c	-0.0085368715
120	0x3d888d0f	0.0666753
121	0x3dc63c64	0.09679487
122	0x3d3bb811	0.045829836
123	0x3de7bf5c	0.11315796
124	0x3db6722c	0.08908495
125	0x3bda966a	0.006670763
126	0xbd3df032	-0.046371646
127	0x3d513b50	0.051081955
128	0xbd480d82	-0.048841007
129	0xbc022729	-0.007943907
130	0x3d2324e7	0.039830115
131	0xbd9512da	-0.07278986
132	0x3d8813ea	0.06644423
133	0x3ca38596	0.01996116
134	0x3d0c868b	0.034307998
135	0xbd4039e1	-0.046930198
136	0x3d509169	0.050919924
137	0x3d6f5dbd	0.058439005
138	0x3cfe0230	0.031006902
139	0x3d84f1ef	0.06491458
140	0xbdcc3f15	-0.099729694
141	0xbde39ef7	-0.111143045
142	0xbda8cd3b	-0.082422696
143	0xbdb4b356	-0.08823268
144	0x3c88015a	0.016602207
145	0xbd7b14d4	-0.06129916
146	0x3c8e3aba	0.017361987
147	0xbd63319e	-0.05546724
148	0x3c817c21	0.01580626
149	0xbd157fe6	-0.036498927
150	0x3d129b69	0.035792742
151	0x3d1024ce	0.03519135
152	0xbd9d7c9c	-0.07689783
153	0x3d9aa481	0.07550908
154	0xb9ac6b62	-0.00032886403
155	0xbdbcf746	-0.09226851
156	0x3c400888	0.011720784
157	0xbd811a2c	-0.0630382
158	0x3ccceca4	0.025015183
159	0x3c73a7c6	0.014871543
160	0x3c95f0cc	0.018303297
161	0xbdd1af63	-0.102385305
162	0xbd150edd	-0.036391128
163	0x3ca4e5ba	0.020129073
164	0x3db2ae05	0.08724598
165	0xbc26727c	-0.010159131
166	0x3c1edeee	0.009696705
167	0x3cfeabed	0.03108784
168	0x3d9c48c6	0.07631068
169	0x3d73156c	0.0593466
170	0x3c14e154	0.009086926
171	0xbd0277f8	-0.031852692
172	0x3d8f0a23	0.06984355
173	0x3d9c9668	0.07645875
174	0x3db11be0	0.08647895
175	0xbd416395	-0.04721411
176	0xbd22e408	-0.03976825
177	0xbd079adc	-0.03310667
178	0xbd6bcfa5	-0.057571072
179	0x3c95f5e2	0.018305723
180	0xbd35d71c	-0.044394597
181	0xbd26ee8e	-0.040754847
182	0x3be5c49a	0.007011962
183	0xbd9436be	-0.07237004
184	0x3a4090a5	0.00073457725
185	0xbd2bed63	-0.041974436
186	0xbc55e097	-0.013054035
187	0x3d80e1c5	0.06293062
188	0x3cc210a8	0.023689583
189	0x3d230197	0.039796438
190	0xbc7ad5dd	-0.015309778
191	0xbd865825	-0.06559781
192	0x3c504a20	0.012712985
193	0xbd02943e	-0.031879656
194	0xbd56f84f	-0.0524829
195	0xbbb83c44	-0.0056224186
196	0xbcdb0e2e	-0.02674016
197	0xbd4086fc	-0.04700373
198	0x3b854fd0	0.0040683523
199	0x3d2c2d86	0.042035602
200	0xbeb5fb67	-0.35543367
201	0xbe900458	-0.28128314
202	0xbe755089	-0.23956503
203	0xbdfdfd18	-0.124017894
204	0xbd86cd50	-0.06582129
205	0xbe12407a	-0.14282408
206	0xbdf8cb57	-0.12148159
207	0xbe5bd607	-0.21468364
208	0xbdf87eee	-0.12133585
209	0xbb883f2c	-0.0041579213
210	0xbe54555b	-0.20735686
211	0xbdb1691e	-0.08662628
212	0xbde08aed	-0.10963998
213	0xbdb7693a	-0.08955617
214	0xbd6866c7	-0.05673864
215	0xbda8feba	-0.0825171
216	0xbde58ca9	-0.112084694
217	0xbd8051cf	-0.06265604
218	0xbdb72018	-0.08941668
219	0xbdd953b7	-0.106116705
220	0xbde12bc1	-0.109946735
221	0xbd816532	-0.063181296
222	0xbde1b62d	-0.110210754
223	0xbd2bdc4f	-0.04195815
224	0xbd7e2141	-0.062043432
225	0xbd8393c1	-0.06424666
226	0x3cc88a1a	0.024479914
227	0xbcaf4576	-0.021395426
228	0xbe19e6f3	-0.15029506
229	0x3e0759fd	0.13217922
230	0x3c410d90	0.011783019
231	0x3c846b3d	0.016164416
232	0xbd380262	-0.044924147
233	0xbdf64564	-0.12024954
234	0x3d84e2cb	0.0648857
235	0xbd10cb1a	-0.035349943
236	0x3b7f8ecc	0.0038995026
237	0xbbd9ec0b	-0.006650453
238	0xbe0fa81d	-0.14028974
239	0x3db257f1	0.0870818
240	0x3d9dc363	0.07703283
241	0x3da0dc68	0.07854539
242	0xbc6ee8dd	-0.014581886
243	0xbde4dd36	-0.11175005
244	0xbd0a2fc2	-0.03373695
245	0x3dc54137	0.09631579
246	0x3c7c1d91	0.015387909
247	0xbbe7f05b	-0.007078213
248	0xbe074f93	-0.13213949
249	0x3d34637a	0.04404018
250	0x3e319fe3	0.17346148
251	0x3e330fe1	0.17486526
252	0x3e111e2c	0.14171666
253	0x3d557c01	0.052120212
254	0x3df87860	0.12132335
255	0x3e0336be	0.12813851

conv2.bias f4 [16]
0	0x3cc52b57	0.024068518
1	0x3de1f6cc	0.11033401
2	0xbcf5f6fa	-0.030024994
3	0xbd446a15	-0.04795273
4	0xbc8f7e11	-0.017516168
5	0x3c4ff4d1	0.012692646
6	0x3c41b898	0.011823796
7	0x3da07943	0.07835629
8	0x3da9d28d	0.082921125
9	0xbd961ab6	-0.073293135
10	0x3d9a5369	0.075354405
11	0xbd553be9	-0.052059088
12	0xbd7b45ed	-0.061345983
13	0x3c7c5f98	0.015403651
14	0x3d80590a	0.06266983
15	0xbce98a74	-0.028508402

conv3.weight f4 [8, 16, 3, 3]
0	0xbdf2dc2e	-0.11858402
1	0x3dcc0b13	0.0996305
2	0xbd698bd8	-0.05701813
3	0x3daecfe2	0.08535744
4	0x3e0a2abe	0.13492867
5	0x3d7e04c3	0.06201626
6	0x3d0336ff	0.03203487
7	0xbd7b4dd6	-0.061353527
8	0x3dfa9a25	0.12236432
9	0xbeab4d5b	-0.33457455
10	0xbd0d48f5	-0.034493405
11	0xbde99f0a	-0.114072874
12	0xbe83550a	-0.25650817
13	0x3e03b518	0.1286205
14	0xbd88cdde	-0.06679891
15	0xbdd2726f	-0.10275733
16	0x3e062adf	0.13102292
17	0x3e7c5874	0.24643117
18	0x3e0712d8	0.13190782
19	0xbda5a29a	-0.080876544
20	0x3d4ce71b	0.050025087
21	0xbe108ded	-0.1411664
22	0x3d6c5459	0.057697628
23	0xbc89707b	-0.016777268
24	0xbd88c3b8	-0.066779554
25	0x3d1bf972	0.038079686
26	0xbd575115	-0.05256756
27	0x3dfdae5e	0.123867735
28	0xbe0cd051	-0.13751341
29	0xbe1d6f8e	-0.15374586
30	0x3dab4efd	0.08364675
31	0xbd6d10c1	-0.057877306
32	0x3dc761b5	0.09735433
33	0xbe17dedb	-0.14831106
34	0xbc3850b0	-0.011249706
35	0xbc603495	-0.0136844115
36	0x3e236891	0.15957858
37	0x3e1b54d1	0.15169074
38	0x3dc05746	0.09391646
39	0x3cb60e9f	0.022223769
40	0x3e2c8035	0.16845782
41	0xbb2369b9	-0.0024934842
42	0x3d93bb0f	0.07213413
43	0xbded26f1	-0.11579693
44	0xbde7b628	-0.113140404
45	0xbdf7b9e0	-0.12096
46	0xbe254078	-0.16137874
47	0xbe03b4d7	-0.12861954
48	0xbcb1b468	-0.02169247
49	0x3dac4d1c	0.08413145
50	0xbd35c207	-0.044374492
51	0x3de99521	0.11405397
52	0xbdfb1ce9	-0.122613735
53	0x3cf8d4ec	0.030374967
54	0xbe19f6bd	-0.1503553
55	0x3dc3d6c4	0.09562448
56	0xbda7f5f7	-0.08201211
57	0x3c3f5b99	0.011679553
58	0x3d93d487	0.07218271
59	0x3e0d72ed	0.13813372
60	0xbd4f2f5f	-0.050582286
61	0xbd191642	-0.037374742
62	0x3dfb97ca	0.12284811
63	0xbd95719b	-0.07297059
64	0xbc25a4f8	-0.010110132
65	0xbe115fa9	-0.14196648
66	0x3df8f3cc	0.121558756
67	0x3ccd9d24	0.025099345
68	0x3d5b5968	0.05355206
69	0x3e4bda23	0.19907431
70	0x3e4fa5ba	0.20278063
71	0x3d936dc3	0.0719867
72	0xbe598a2a	-0.21244112
73	0xbe892e28	-0.26793027
74	0xbd6ec845	-0.05829646
75	0x3d170787	0.036872413
76	0x3c48d6e4	0.012258265
77	0x3da03228	0.078220665
78	0x3debbbf2	0.11510457
79	0x3e174ac9	0.14774622
80	0x3e1a131d	0.15046354
81	0xbddc409f	-0.10754513
82	0x3ddce5aa	0.107859924
83	0xbd96c9e3	-0.073627256
84	0x3c2abcee	0.010421021
85	0x3db88c49	0.09011132
86	0x3e307b0a	0.17234436
87	0xbb02b0b4	-0.001994175
88	0xbd925b95	-0.07146374
89	0xbdd74b3b	-0.10512396
90	0xbd91fd16	-0.071283504
91	0x3e0a89b2	0.13529089
92	0x3e41b2df	0.1891589
93	0x3d00fea1	0.031492833
94	0xbdebe62e	-0.11518513
95	0x3e3ff955	0.18747456
96	0xbe719fdb	-0.23596136
97	0x3dc8edf8	0.09811014
98	0xbd965ddf	-0.07342123
99	0x3e45601f	0.19274949
100	0xbd8d6e49	-0.06905801
101	0x3e3a7e12	0.18212155
102	0x3e29a2de	0.16566035
103	0x3cd3217b	0.0257728
104	0xbd442dee	-0.047895364
105	0xbe06253a	-0.13100138
106	0x3d91ebde	0.07125066
107	0xbdbd39d3	-0.09239545
108	0xbd86945d	-0.06571267
109	0x3d74c599	0.059758756
110	0xbd8e4e98	-0.06948584
111	0xbc040926	-0.008058822
112	0xbda0f2fe	-0.07858847
113	0x3dd90c4c	0.105980486
114	0x3df53483	0.119729064
115	0x3d5db6fb	0.054129582
116	0x3c8bf7aa	0.017085869
117	0x3e1cc9f4	0.15311414
118	0x3da36e33	0.07980003
119	0xbdeddc9b	-0.11614343
120	0xbd4d8f87	-0.050185706
121	0x3ded3468	0.11582261
122	0x3d3806b5	0.04492827
123	0xbd35e303	-0.04440595
124	0xbdb790f5	-0.08963195
125	0xbd4f949e	-0.05067884
126	0x3d87de18	0.06634158
127	0x3d730f77	0.05934092
128	0x3de31e06	0.11089711
129	0x3d918a12	0.07106413
130	0xbda42098	-0.08014029
131	0x3d8daa8a	0.06917293
132	0xbd33bdea	-0.043882288
133	0xbe22f11a	-0.15912285
134	0x3d40e975	0.047097642
135	0xbe1227bf	-0.14272974
136	0x3bd7b222	0.0065825144
137	0x3bf95151	0.0076085706
138	0x3e340b68	0.17582476
139	0x3d4c9b6b	0.049952906
140	0xbe5be14f	-0.21472667
141	0x3d7638b6	0.060112678
142	0x3e383ea6	0.17992648
143	0x3e0ac954	0.13553363
144	0xbe20c8c7	-0.1570159
145	0xbe0b7a73	-0.1362093
146	0x3d9bb7a1	0.07603384
147	0xbd59763c	-0.053091273
148	0xbdd41d42	-0.10357143
149	0x3d475af7	0.048670735
150	0x3e889678	0.266773
151	0x3e30626f	0.1722505
152	0xbdd9905e	-0.10623239
153	0xbd9ca1bf	-0.07648038
154	0x3d2c62c1	0.042086367
155	0x3e59ee24	0.2128225
156	0xbe0b2b1d	-0.13590665
157	0xbea0990f	-0.31366774
158	0xbb6f8fd8	-0.0036554243
159	0x3d861cb7	0.06548446
160	0xbdf371b7	-0.11886924
161	0xbd49c8aa	-0.049263634
162	0xbcfe28c8	-0.031025305
163	0x3db8b76d	0.09019361
164	0xbe138da1	-0.14409496
165	0xbe2531cf	-0.16132282
166	0x3c4606a7	0.012086547
167	0x3ce84f12	0.028358016
168	0x3d8d85c4	0.069102794
169	0xbc4c19b6	-0.012457302
170	0xbddb19bc	-0.10698268
171	0xbc8f1cb2	-0.017469738
172	0x3d35dffb	0.044403058
173	0x3c775516	0.01509597
174	0xbd76700a	-0.060165443
175	0xbe1c1c48	-0.15245163
176	0xbd233a96	-0.039850794
177	0xbe0b6104	-0.13611227
178	0xbcf002d7	-0.02929823
179	0x3dc79960	0.09746051
180	0x3df8f4bd	0.12156055
181	0x3de31c97	0.110894375
182	0x3dfd77d5	0.12376372
183	0xbde4f751	-0.11179984
184	0xbe1ebb6c	-0.15501183
185	0xbdbe0572	-0.09278382
186	0xbe2cc38d	-0.16871472
187	0xbdd4e7c6	-0.1039577
188	0x3d1698d8	0.036766857
189	0x3e188e19	0.14897956
190	0xbe199c47	-0.15001021
191	0xbe0ed5d6	-0.1394876
192	0x3d76aefc	0.06022547
193	0x3e05fcc5	0.13084705
194	0xbd5d1c5b	-0.05398212
195	0xbdcb213c	-0.09918448
196	0xbcd198eb	-0.025585612
197	0x3dddb3ec	0.10825333
198	0xbd1893b0	-0.03725022
199	0xbe2e79b4	-0.17038614
200	0x3de09c27	0.10967284
201	0x3d94c051	0.07263244
202	0xbc328ac8	-0.010897346
203	0xbb99e92e	-0.0046969866
204	0xbe126680	-0.14296913
205	0x3e147129	0.14496292
206	0xbe12d207	-0.14337932
207	0x3cb869dc	0.022511415
208	0x3d6b25ce	0.0574091
209	0x3d914426	0.070930764
210	0xbe84cadc	-0.2593602
211	0xbd4ca604	-0.049963012
212	0x3d7d1ac3	0.0617931
213	0xbe59589b	-0.21225207
214	0xbde21758	-0.11039609
215	0x3d92df17	0.07171457
216	0xbd99d6fe	-0.0751171
217	0x3e045273	0.12922077
218	0x3e06ba4f	0.13157009
219	0xbe4109a1	-0.1885133
220	0x3dda2cd1	0.10653079
221	0x3c26c469	0.010178664
222	0xbdf1c5af	-0.11805283
223	0x3e1beeb9	0.15227784
224	0x3e14a19d	0.14514776
225	0xbd30da8e	-0.04317718
226	0x3e0c13fd	0.136795
227	0xbdbd91b7	-0.092563085
228	0xbaf5e8b5	-0.0018761369
229	0x3d1cd31c	0.038287267
230	0xbd0236f5	-0.031790692
231	0x3dc51bc1	0.09624434
232	0x3ddac911	0.106828816
233	0xbdb591bf	-0.088656895
234	0x3cbe0edc	0.023200445
235	0xbe269e15	-0.16271241
236	0xbe4d6bc9	-0.20060648
237	0x3e539f02	0.20666125
238	0x3b60a51e	0.0034278105
239	0xbe164374	-0.14674169
240	0x3e61d0e0	0.22052336
241	0x3df168d1	0.1178757
242	0x3c5e86be	0.01358193
243	0x3cead354	0.028665222
244	0xbc261dcc	-0.01013894
245	0xbd83dd17	-0.06438654
246	0x3df46a77	0.11934369
247	0x3ddd480d	0.10804758
248	0xbd7c9205	-0.061662693
249	0x3dcba31c	0.0994322
250	0x3a2a9f9a	0.0006508768
251	0xbe4760de	-0.19470546
252	0x3dd385e5	0.10328273
253	0xbe04ee27	-0.12981473
254	0x3d874998	0.06605834
255	0x3dd6c210	0.10486233

conv3.bias f4 [8]
0	0x3d0f2720	0.034949422
1	0xbe402bc4	-0.18766695
2	0xbd3c5cfe	-0.04598712
3	0x3db24304	0.087041885
4	0x3dfba117	0.12286585
5	0x3d1c05bc	0.038091406
6	0x3e1c824b	0.15284078
7	0x3e176ca9	0.14787544

convt1.weight f4 [8, 8, 3, 3]
0	0xbd03cc0f	-0.032177027
1	0x3e1288f6	0.14310059
2	0x3dd8f6c7	0.10593944
3	0xbc867f1c	-0.016418032
4	0xbe1334b8	-0.1437558
5	0x3d4e7409	0.05040363
6	0x3dcea0fb	0.10089298
7	0xbddf2667	-0.108959965
8	0x3e212843	0.15738015
9	0xbdd5ea9c	-0.10445139
10	0xbe5018ea	-0.20322004
11	0xbe21e832	-0.15811232
12	0xbec78547	-0.3896887
13	0xbacf2ce1	-0.0015806222
14	0x3e1d7a39	0.15378655
15	0x3e5520a7	0.20813237
16	0x3d38c4cb	0.04510955
17	0xbe112af9	-0.14176549
18	0xbe72f7be	-0.23727319
19	0xbdfe1061	-0.12405468
20	0xbe0f1ffd	-0.13977046
21	0xbdc6cd51	-0.0970713
22	0x3de4fdad	0.11181197
23	0x3dbd4d2f	0.09243237
24	0x3e963b9c	0.29342353
25	0x3e2c4cb8	0.16826141
26	0x3e7ee22a	0.24890962
27	0x3d9a9539	0.07547993
28	0x3e3115d3	0.17293482
29	0xbd758c1a	-0.059948064
30	0xbeb47640	-0.35246468
31	0x3de2efc1	0.11080886
32	0xbeb5773f	-0.3544254
33	0xbe678fd7	-0.22613464
34	0xbe9dfe87	-0.3085825
35	0xbd7bac13	-0.0614434
36	0x3e136db9	0.14397325
37	0xbdb20f49	-0.08694322
38	0x3e64fdb4	0.22362405
39	0x3dfe93f1	0.12430561
40	0xbe2c6280	-0.1683445
41	0x3dd86909	0.10566909
42	0x3dac357c	0.08408639
43	0x3e2e55ad	0.1702487
44	0x3e3a19b2	0.18173864
45	0x3d199a89	0.03750089
46	0x3dc6b527	0.09702521
47	0xbd1782aa	-0.036989845
48	0xbe2fc19e	-0.17163703
49	0xbb9952c5	-0.0046790564
50	0xbe5adcda	-0.2137331
51	0xbe058611	-0.13039424
52	0xbea70ed9	-0.32628515
53	0xbe559dbc	-0.20860952
54	0x3d90c143	0.07068112
55	0x3d9f64c8	0.077828944
56	0x3e80d46e	0.2516207
57	0x3e369886	0.1783162
58	0x3df4c943	0.1195245
59	0xbe727e78	-0.23681056
60	0x3da64c96	0.08120076
61	0xbd09d702	-0.033652313
62	0xbe1b3243	-0.15155892
63	0x3c727ae9	0.014799812
64	0x3e91f126	0.28504294
65	0x3cc78d6a	0.024359424
66	0x3dbc8c52	0.092064515
67	0x3d82a386	0.06378846
68	0x3cfab28b	0.030602714
69	0x3d297fe4	0.04138173
70	0xbdc6c2da	-0.09705134
71	0xbea0ab10	-0.3138051
72	0x3e73f23f	0.23822878
73	0xbd1bb713	-0.03801639
74	0xbe696020	-0.22790575
75	0xbdfb9ffd	-0.12286375
76	0xbbb63954	-0.0055610333
77	0xbe307c15	-0.17234834
78	0xbea69aae	-0.32539886
79	0xbe710133	-0.23535614
80	0x3da21d93	0.07915797
81	0x3d026f5d	0.031844486
82	0xbe9fc296	-0.31203145
83	0x3e500bc8	0.20316994
84	0x3d6568af	0.056008037
85	0xbb79b8cc	-0.0038104532
86	0x3e1de198	0.15418088
87	0x3e3f0d99	0.18657531
88	0x3c63b929	0.013899126
89	0xbea8c17a	-0.3296011
90	0x3dd8598c	0.10563955
91	0x3df15c68	0.11785203
92	0x3e4adfd8	0.19811952
93	0xbd228b47	-0.039683606
94	0x3de04c46	0.10952048
95	0x3e4c6e51	0.19963957
96	0x3e20bc6f	0.15696882
97	0xbe805b6d	-0.25069752
98	0x3da4b3e2	0.080421224
99	0xbe70fc59	-0.23533763
100	0xbea89ef1	-0.32933763
101	0xbc81089e	-0.01575118
102	0xbe7bf32e	-0.24604484
103	0x3d8099be	0.06279324
104	0xbd1c56ce	-0.03816872
105	0xbec13b5d	-0.37740603
106	0xbec9d75a	-0.39422113
107	0xbe97a058	-0.2961452
108	0xbc24d3e6	-0.010060286
109	0x3ee8f4a4	0.45499146
110	0x3de15ee3	0.11004426
111	0x3e55a50b	0.2086374
112	0xbe2f326c	-0.17109078
113	0x3e6c8ec2	0.23101333
114	0x3c767875	0.015043368
115	0xbe1337e6	-0.14376792
116	0x3e1f19c5	0.15537174
117	0x3ea4ab62	0.32162005
118	0xbd7ea42c	-0.062168285
119	0x3d4df275	0.050280053
120	0xbf095d2d	-0.536578
121	0xbdef06ad	-0.11671195
122	0xbdc058fb	-0.09391972
123	0xbe569fb7	-0.20959364
124	0x3e003d42	0.12523368
125	0xbc999d26	-0.018751692
126	0x3e9bff76	0.3046834
127	0x3ea8b134	0.32947695
128	0x3eb3df4d	0.35131302
129	0xbd462626	-0.048376225
130	0xbeb12840	-0.3460102
131	0x3e96fa53	0.29487857
132	0x3d2024da	0.039097644
133	0xbdcb21a9	-0.099185295
134	0xbdadbfb6	-0.084838316
135	0x3b08299b	0.0020776752
136	0xbe441ba0	-0.19151163
137	0xbe7fd901	-0.24985124
138	0xbd002178	-0.03128192
139	0x3dbf7612	0.09348692
140	0x3de08c53	0.10964265
141	0xbd42d73c	-0.047568545
142	0x3ce2f718	0.027705714
143	0x3df0d36a	0.11759074
144	0xbdf55353	-0.119787835
145	0xbe14a00c	-0.14514178
146	0xbdeee441	-0.1166463
147	0x3dd1078b	0.10206517
148	0x3e0d1453	0.13777284
149	0xbe1be611	-0.15224482
150	0xbddcd558	-0.107828796
151	0x3e26d0c7	0.1629058
152	0xbae39804	-0.001736403
153	0xbbc7aea7	-0.006093818
154	0x3dfb36cb	0.1226631
155	0x3e1faa5e	0.15592334
156	0x3e2284d1	0.15870978
157	0xbe3810df	-0.17975186
158	0x3e00c79d	0.12576146
159	0xbdb6f695	-0.089337505
160	0xbde1c1b9	-0.11023278
161	0xbcf094b2	-0.029367778
162	0xbd66285c	-0.056190833
163	0xbdada089	-0.08477885
164	0x3e254e22	0.16143087
165	0xbd58e14e	-0.052949242
166	0x3e315c7d	0.17320438
167	0xbda949b1	-0.08266009
168	0x3e348e20	0.17632341
169	0x3d82b7c7	0.06382709
170	0xbddd79d2	-0.10814251
171	0xbdf8de6a	-0.12151797
172	0x3dc1e6dd	0.09467862
173	0xbe51a10e	-0.20471594
174	0xbdcc5017	-0.099762134
175	0xbe435c90	-0.19078279
176	0x3d8ba6e7	0.068189435
177	0x3e040894	0.12893897
178	0xbe13a586	-0.14418611
179	0xbdb575fb	-0.088603936
180	0x3df69457	0.12040012
181	0x3b8b04a3	0.004242496
182	0x3dc8cbbc	0.09804484
183	0x3a3eb122	0.00072743197
184	0xbdebbd68	-0.11510736
185	0xbd53b435	-0.05168553
186	0x3dfa521d	0.12222693
187	0x3db7dc8f	0.08977615
188	0xbcb444f4	-0.022005536
189	0x3db1e97c	0.08687112
190	0x3db1b7f1	0.08677662
191	0x3e187b4b	0.14890783
192	0xbdc83298	-0.09775275
193	0xbd695425	-0.056965012
194	0xbc83e994	-0.01610259
195	0x3e06b10f	0.1315348
196	0xbe11b67b	-0.14229767
197	0xbb4c77de	-0.0031199376
198	0xbde2a579	-0.11066718
199	0xbddfa873	-0.10920801
200	0xbd8f1bb4	-0.06987706
201	0x3e293e4b	0.16527669
202	0x3d59b041	0.053146604
203	0xbb50e7a9	-0.0031876361
204	0x3dee78f4	0.11644164
205	0xbd7d66e7	-0.061865713
206	0x3e2efed8	0.17089403
207	0x3dab0560	0.083506346
208	0x3c635070	0.013874158
209	0xbcbcd558	-0.023050949
210	0x3d6125a5	0.05496754
211	0x3e4f3531	0.20235135
212	0xbe34e02f	-0.17663644
213	0xbe088e1e	-0.13335463
214	0xbdeadf09	-0.11468322
215	0xbdfcf80c	-0.12351999
216	0x3e862d5b	0.26206478
217	0xbe32951a	-0.1743969
218	0xbd09547b	-0.033527832
219	0xbe748e4c	-0.23882407
220	0xbee892e9	-0.45424584
221	0xbe6a7b25	-0.22898538
222	0x3e8010fc	0.25012958
223	0xbe640eb4	-0.22271234
224	0xbddae994	-0.10689083
225	0xbe23dbd0	-0.1600182
226	0xbe535765	-0.20638807
227	0x3c140351	0.009033994
228	0xbd8773be	-0.06613873
229	0xbcdbae1b	-0.026816418
230	0x3e6d98b8	0.23202789
231	0xbe243945	-0.16037472
232	0xbc879997	-0.01655273
233	0x3e2946a0	0.16530848
234	0x3d04c509	0.03241447
235	0x3e2a9cb3	0.16661339
236	0xbdabc4a6	-0.08387117
237	0x3e178c4e	0.14799616
238	0xbd8c3f88	-0.06848055
239	0xbe2800ef	-0.16406606
240	0x3e5a1250	0.21296048
241	0x3cc1717b	0.023613682
242	0x3e711176	0.23541817
243	0xbe28ac9c	-0.16472095
244	0xbd9c86d2	-0.076429024
245	0xbe3dc0e6	-0.18530616
246	0xbee17d81	-0.44041064
247	0x3e3d2128	0.1846968
248	0xbe33d263	-0.17560725
249	0xbd8afec8	-0.06786877
250	0xbe149797	-0.14510952
251	0xbba4a01d	-0.00502397
252	0x3c1fe50f	0.009759202
253	0x3d9c03dc	0.076179236
254	0x3e4144e0	0.1887393
255	0xbe2c0e06	-0.16802225

convt1.bias f4 [8]
0	0xbbf0bbfd	-0.0073466287
1	0x3da2edd6	0.0795552
2	0xbc4617f7	-0.012090675
3	0xbd13cf44	-0.036086336
4	0xbcd3643f	-0.025804637
5	0x3cb7783d	0.022396201
6	0x3c5a9e62	0.0133434255
7	0xbdc12de7	-0.09432583

convt2.weight f4 [8, 16, 5, 5]
0	0xbe8f9e49	-0.2805045
1	0xbe140f38	-0.1445893
2	0xbed00d1f	-0.4063501
3	0xbd87707c	-0.066132516
4	0xbe4b9757	-0.1988195
5	0xbe268ed5	-0.16265424
6	0xbd1a2b4a	-0.03763894
7	0xbf7c953b	-0.9866521
8	0xbdc29f43	-0.09503033
9	0xbe493215	-0.19648011
10	0xbd8105a1	-0.06299902
11	0x3c625e92	0.013816493
12	0xbd58056b	-0.052739542
13	0xbd78abf3	-0.06071086
14	0xbe46d498	-0.19417036
15	0xbdfa440d	-0.12220011
16	0xbc1e4112	-0.009659069
17	0xbd7f198a	-0.062280215
18	0x3d809e18	0.06280154
19	0xbdae60f6	-0.085145876
20	0xbd300bcc	-0.04298
21	0xbe43195d	-0.19052644
22	0xbebb46f4	-0.3657757
23	0xbd851e62	-0.06499936
24	0xbda0d324	-0.07852772
25	0xbeeb54cd	-0.45963135
26	0xbd9f466b	-0.07777103
27	0xbeed0697	-0.4629409
28	0xbf137b30	-0.57609844
29	0xbe9e7011	-0.30944875
30	0xbe7ac7e6	-0.24490318
31	0xbf15a833	-0.58459777
32	0xbe2f600e	-0.17126486
33	0xbe75f4da	-0.24019185
34	0xbe1a203d	-0.1505136
35	0xbe8fa474	-0.28055155
36	0xbe415357	-0.18879448
37	0xbeab2d3d	-0.33432952
38	0xbe517af8	-0.20457065
39	0xbdb9b9a9	-0.09068615
40	0xbeba0ca2	-0.36337763
41	0xbe9a0d5e	-0.30088323
42	0xbeac9ff5	-0.33715788
43	0xbe84bb6b	-0.2592424
44	0xbe9accc6	-0.30234355
45	0xbe7c50e0	-0.24640226
46	0xbde4d39f	-0.11173176
47	0xbdaea889	-0.08528239
48	0xbe070f43	-0.13189416
49	0xbdb8b610	-0.09019101
50	0x3ea022a9	0.31276444
51	0xbe9c1c9a	-0.3049057
52	0xbc9ec019	-0.019378709
53	0x3dc7d7d1	0.097579606
54	0xbeef6bc8	-0.46761918
55	0x3e3de8e6	0.18545875
56	0x3dd7d5fc	0.10538861
57	0x3c9fdedb	0.019515445
58	0xbc87574a	-0.016521115
59	0xbe297804	-0.16549689
60	0x3defd9c6	0.11711459
61	0xbe003a9a	-0.12522355
62	0x3d01ee41	0.031721357
63	0x3e537ae8	0.20652354
64	0x3d190d91	0.037366454
65	0x3e64ef6a	0.22356954
66	0xbc0e328f	-0.008679046
67	0xbe103945	-0.14084347
68	0x3e23375d	0.15939088
69	0xbe9c31ec	-0.30506837
70	0x3da76894	0.081742436
71	0xbd842bae	-0.06453644
72	0xbc7961bc	-0.015221056
73	0x3e08b94f	0.1335194
74	0xbecee41a	-0.40408403
75	0x3e29d39f	0.16584633
76	0x3d68f5b2	0.05687494
77	0xbb615760	-0.0034384355
78	0xbf079b93	-0.5297176
79	0xbdafd8f0	-0.085862994
80	0x3da90229	0.08252365
81	0xbf3824f5	-0.7193139
82	0x3c4f99bc	0.0126709305
83	0xbebbc58e	-0.3667416
84	0x3da68c90	0.08132279
85	0xbde4f90f	-0.11180317
86	0xbd18978b	-0.037253898
87	0xbe56647b	-0.20936768
88	0xbe9c51ff	-0.30531308
89	0xbbf89f99	-0.007587385
90	0xbdbf58e6	-0.09343128
91	0xbe9241b3	-0.2856575
92	0xbe7db18f	-0.24774764
93	0x3e0115dc	0.12605995
94	0xbe2f95b7	-0.17146955
95	0x3ba1e1c4	0.0049402434
96	0x3d056527	0.03256717
97	0xbe323189	-0.17401709
98	0xbc6c222f	-0.014412447
99	0xbdd9bb8c	-0.10631475
100	0xbe2bd44f	-0.16780208
101	0x39c69301	0.0003787503
102	0xbe8ebc58	-0.2787807
103	0xbc14cd1b	-0.009082104
104	0xbd5868a8	-0.052834183
105	0xbeab69bd	-0.3347911
106	0xbe626fd8	-0.22112978
107	0xbe007f6f	-0.12548612
108	0xbdeffcfe	-0.11718176
109	0xbeedbb2b	-0.4643186
110	0xbe82b7b5	-0.25530782
111	0xbe2319c7	-0.15927802
112	0xbdf8a826	-0.12141447
113	0xbe2e88e0	-0.17044401
114	0xbeb0eb76	-0.34554642
115	0xbe4f6b08	-0.20255673
116	0x3ce6de28	0.028182104
117	0xbe170d41	-0.1475115
118	0xbc6e7147	-0.014553375
119	0xbe0284d0	-0.12745976
120	0xbea125fb	-0.3147429
121	0xbdb06951	-0.086138375
122	0xbf153b3b	-0.58293504
123	0xbe99d24e	-0.30043262
124	0xbe40b639	-0.18819512
125	0x3e8f8216	0.28028935
126	0x3cbde5f5	0.023180941
127	0xbc17fc43	-0.0092764525
128	0x3c361d96	0.011115452
129	0xbe334e88	-0.17510426
130	0x3e28a5fb	0.16469567
131	0x3d3eddf9	0.04659841
132	0xbc08a301	-0.008339644
133	0xbd0a3b73	-0.0337481
134	0x3d1e06b6	0.03858062
135	0x3d2f880d	0.042854358
136	0xbcdd74a1	-0.027033152
137	0xbd723a7f	-0.059137817
138	0xbd8bdcb3	-0.068292044
139	0x3d3d5acc	0.04622917
140	0xbc9d3ed0	-0.01919499
141	0xbd0a0ead	-0.033705402
142	0x3e0afe33	0.13573532
143	0xbd028f3f	-0.03187489
144	0xb9685d1d	-0.00022159932
145	0x3e5f2021	0.217896
146	0x3dc74f21	0.097318895
147	0xbd3bc260	-0.045839667
148	0x3dc4c5d9	0.09608049
149	0xbf5f5471	-0.8723822
150	0xbe2fd675	-0.17171653
151	0xbde0b8a5	-0.10972718
152	0xbd891305	-0.06693081
153	0xbea34b3a	-0.3189333
154	0xbe3f4caa	-0.18681589
155	0xbeddf499	-0.43350676
156	0xbec31333	-0.38100585
157	0xbe16318c	-0.14667338
158	0xbef673e7	-0.481353
159	0xbe807b2c	-0.25093973
160	0xbe5d104f	-0.21588252
161	0xbd95d8c8	-0.07316738
162	0x3d806a6d	0.06270299
163	0xbeaf9029	-0.34289673
164	0xbd5204ce	-0.051274113
165	0xbee64971	-0.44977906
166	0xbd782c2e	-0.060589008
167	0xbc3eb607	-0.011640078
168	0xbe58267a	-0.21108428
169	0xbec2fa3f	-0.38081548
170	0xbe96a097	-0.29419395
171	0xbe6718d1	-0.2256806
172	0xbd1dd5a4	-0.03853382
173	0x3d6140ac	0.054993317
174	0xbe17b568	-0.14815295
175	0x3e7a0414	0.24415618
176	0xbe628d87	-0.22124301
177	0x3ebbabe4	0.3665458
178	0x3ee9bef0	0.45653486
179	0x3e944fc4	0.28967106
180	0xbe470bb4	-0.19438058
181	0xbea99167	-0.33118746
182	0xbeb35a91	-0.35030034
183	0xbe5977e3	-0.2123714
184	0xbf13b3d1	-0.57696253
185	0x3e02be3d	0.12767883
186	0x3e022d55	0.12712605
187	0x3e634709	0.22195067
188	0xbe3aee2e	-0.18254921
189	0x3e6d150b	0.23152559
190	0x3c140a8c	0.009035718
191	0xbc8b2b9f	-0.016988574
192	0xbeea40f0	-0.45752668
193	0xbe5cd306	-0.21564874
194	0xbd9157f0	-0.07096851
195	0x3e2fad36	0.17155918
196	0x3dfaba70	0.122425914
197	0x3eb641db	0.3559712
198	0x3d4a2990	0.049356043
199	0x3e1c8e7c	0.15288728
200	0xbe369d2b	-0.17833392
201	0x3b5b66d8	0.0033478048
202	0xbe75e9c6	-0.24014959
203	0xbea16b42	-0.31527144
204	0xbeb91402	-0.36148077
205	0xbda666dc	-0.081250876
206	0xbe94c21f	-0.29054353
207	0xbd1a90c4	-0.037735716
208	0xbe2a5144	-0.16632563
209	0x3d81c5b6	0.063365385
210	0x3c86904c	0.016426228
211	0xbe936a20	-0.28791904
212	0xbeab8496	-0.33499593
213	0x3db8ddfd	0.09026716
214	0xbdd44573	-0.10364809
215	0xbd88f87b	-0.06688019
216	0xbe29841c	-0.16554302
217	0xbd65c916	-0.056099974
218	0xbe5c3d49	-0.21507753
219	0xbd46f95a	-0.048577644
220	0xbd29870e	-0.041388564
221	0x3d20f547	0.039296415
222	0x3e8de003	0.2770997
223	0xbcbe0d78	-0.023199782
224	0xbe8c1f4a	-0.27367622
225	0x3cf9e987	0.030506862
226	0x3e146a80	0.14493752
227	0x3d4105c0	0.047124624
228	0x3c95dce1	0.0182938
229	0xbd073775	-0.033011872
230	0xbdafe9f7	-0.08589547
231	0xbf05f5c6	-0.52328146
232	0x3de4061e	0.11133979
233	0xbe65d12d	-0.22443075
234	0x3d9f2641	0.07770968
235	0xbd6c370d	-0.057669688
236	0xbdf1bc61	-0.118035085
237	0xbe280108	-0.16406643
238	0xbdd485c9	-0.1037708
239	0xbe851c1b	-0.25998005
240	0x3d4a3080	0.04936266
241	0x3e35299f	0.17691658
242	0xbd0ec087	-0.034851577
243	0xbdd290e5	-0.10281543
244	0xbe04c40c	-0.12965411
245	0xbd254d48	-0.040356904
246	0xbcd311dc	-0.025765352
247	0x3d877f70	0.06616104
248	0xbea620df	-0.32446954
249	0xbe1800ac	-0.14844006
250	0x3d953ac3	0.072865985
251	0xbd170142	-0.036866434
252	0xbe0e8817	-0.13919102
253	0xbe916f1e	-0.28405088
254	0xbe3c12bd	-0.18366523
255	0xbdcfda52	-0.10149063

convt2.bias f4 [16]
0	0x3d555de1	0.052091483
1	0x3dc581a2	0.09643866
2	0x3c46ff48	0.012145825
3	0x3cdaab3a	0.026692975
4	0x3d3c507b	0.04597519
5	0x3d2f5c92	0.04281289
6	0x3d9793e6	0.07401256
7	0xbce2a16f	-0.027664868
8	0x3d8b7375	0.06809131
9	0x3d7ea4c8	0.062168866
10	0x3c1a51f0	0.0094189495
11	0x3da0359c	0.07822725
12	0x3d28ab39	0.041178916
13	0x3d8219e6	0.06352596
14	0x3c85e5c1	0.016344907
15	0x3cd94ecf	0.026526837

convt3.weight f4 [16, 32, 9, 9]
0	0xbcdf0d62	-0.027228061
1	0x3cb035d9	0.021510052
2	0x3c0c4970	0.008562431
3	0xbceab91a	-0.028652716
4	0xbb429d20	-0.0029695705
5	0xbd7497cb	-0.059715074
6	0xbccbf208	-0.024895683
7	0xbd0fb775	-0.035087068
8	0xbd19391c	-0.03740798
9	0xbcd89000	-0.026435852
10	0x3bc4a2eb	0.0060008666
11	0x3d0b012c	0.033936664
12	0xbcaa916a	-0.020821292
13	0x3c8ea1ea	0.017411191
14	0xbc8f700d	-0.017509485
15	0x3ca17309	0.019708173
16	0x3d08359d	0.033254255
17	0x3d6046f7	0.054755177
18	0x3ce64483	0.02810884
19	0x3d561f2e	0.05227583
20	0x3e0b0e24	0.13579613
21	0x3d2ca9fc	0.042154297
22	0x3d84859d	0.06470797
23	0x3db10f5c	0.08645508
24	0x3d1c6cc7	0.038189676
25	0x3d5026af	0.05081814
26	0x3c937a8c	0.01800277
27	0xbca63127	-0.02028711
28	0x3ce79636	0.028269868
29	0xbd1e9a14	-0.03872116
30	0x3c23cae5	0.009997104
31	0xbc314da0	-0.01082173
32	0x3c165767	0.009176112
33	0x3c8fe751	0.017566355
34	0x3a3a6998	0.00071110716
35	0xbd9d2f7c	-0.076750726
36	0xbc889e77	-0.016677124
37	0x3c972dfd	0.018454546
38	0x3ce12ffd	0.027488703
39	0x3be6620f	0.0070307325
40	0x3c231105	0.009952788
41	0x3bd0bad6	0.006369929
42	0xbd055b0a	-0.032557525
43	0xbc298c5f	-0.0103484085
44	0x3d4587cd	0.048225213
45	0xbaae6b7a	-0.0013307177
46	0x3d96c4e9	0.073617764
47	0x3d18956b	0.03725187
48	0x3d044af6	0.03229805
49	0x3d068c91	0.0328489
50	0x3ce0028c	0.027344964
51	0x3cc40d09	0.023931997
52	0x3d7bffec	0.061523363
53	0xbd3b26a3	-0.045691144
54	0xbc83b2da	-0.016076494
55	0x3c3c1aec	0.011481028
56	0xbce8177d	-0.028331513
57	0xbb90142d	-0.0043969364
58	0x3d0d2a99	0.034464452
59	0x3d3af9a2	0.045648225
60	0x3ca1d3e2	0.019754354
61	0x3d3fccfb	0.046826344
62	0xbc0fd19d	-0.008778003
63	0xbd7f4177	-0.06231829
64	0x3d01e734	0.031714633
65	0xbcc78dcb	-0.024359604
66	0xbd31c548	-0.043401033
67	0x3cc12c7b	0.02358078
68	0xbcf6eb9f	-0.03014165
69	0xbd300b1d	-0.04297935
70	0xbb9bd0cb	-0.0047551147
71	0xba777b38	-0.0009440663
72	0x3d6d814c	0.057984635
73	0x3d19cd6a	0.037549414
74	0x3da8dd5c	0.08245346
75	0x3db14c74	0.086571604
76	0x3dac0f7b	0.0840139
77	0x3dfbd665	0.12296752
78	0x3d709449	0.058735166
79	0x3d003058	0.031296104
80	0x3d2ae624	0.041723385
81	0x3a279efa	0.0006394234
82	0x3d8dc865	0.06922988
83	0xbd1896fa	-0.037253357
84	0xbba4adb1	-0.0050255884
85	0x3d5f738e	0.05455356
86	0xbd3b97b9	-0.04579899
87	0x3c33d233	0.010975408
88	0x3c32664e	0.010888649
89	0xbcfb5d71	-0.030684205
90	0x3d1a3dee	0.037656717
91	0x3d51cd24	0.051221028
92	0x3bdfb769	0.006827284
93	0x3dc690b9	0.096955724
94	0x3dab06f9	0.08350939
95	0xbd18f3f7	-0.037342038
96	0x3db8f2d6	0.09030692
97	0x3d273b5f	0.040828105
98	0x3b0e8293	0.0021745309
99	0x3db9e922	0.0907767
100	0xbd46ee8d	-0.048567344
101	0x3dd50557	0.10401409
102	0x3db86ee0	0.09005523
103	0xbd8586f4	-0.06519881
104	0x3d76dcb9	0.06026909
105	0x3d82240c	0.06354532
106	0xbd8353ee	-0.06412493
107	0x3d2b886f	0.04187816
108	0xbc943e2b	-0.01809605
109	0x3dad468b	0.08460721
110	0xbc24195f	-0.010015815
111	0x3a589a0b	0.00082627
112	0x3da6f747	0.08152633
113	0x3c8cbd06	0.017179977
114	0xbc1392bc	-0.009007152
115	0x3d373959	0.044732425
116	0xbc586213	-0.0132069765
117	0x3de15da2	0.11004187
118	0x3e6df8dc	0.23239464
119	0xbd3cde75	-0.04611059
120	0x3dc55f41	0.09637309
121	0x3d36c9ee	0.04462617
122	0xbd273c6b	-0.040829103
123	0x3d78001a	0.06054697
124	0x3e325f40	0.17419147
125	0xbcbd672f	-0.02312049
126	0x3d097fe8	0.033569247
127	0xbd83c99e	-0.0643494
128	0x3d92139b	0.07132646
129	0x3dc3e432	0.09565009
130	0xbcd1ea6b	-0.025624475
131	0x3d9eba9a	0.07750435
132	0x3cf45f2b	0.029830536
133	0xbd000553	-0.031255078
134	0x3d2711db	0.040788513
135	0x3b656b80	0.0035006702
136	0x3dd1505c	0.102204055
137	0xbcb916d9	-0.022593902
138	0xbc81c6a3	-0.015841788
139	0x3da01eab	0.078183495
140	0x3cca88d5	0.02472345
141	0xbd22ca7b	-0.03974388
142	0x3c35dfae	0.011100693
143	0xbbc27efa	-0.005935547
144	0x3dd5a15b	0.10431167
145	0x3e1ea81b	0.15493815
146	0x3c008dc3	0.007846299
147	0x3e05b024	0.13055474
148	0x3a7727d3	0.00094282365
149	0xb83ebbd2	-4.547445e-05
150	0x3dcdc24f	0.10046827
151	0x3dbd2127	0.09234839
152	0xbd00c8ec	-0.031441614
153	0xbda15bc0	-0.07878828
154	0xbc9fc75b	-0.01950424
155	0x3dee14eb	0.116250835
156	0xbd5f2cf5	-0.054486234
157	0xbd49436d	-0.049136568
158	0x3db82c48	0.08992821
159	0xbcbb6af4	-0.022878148
160	0xbd02fc52	-0.031978913
161	0x3cc9596d	0.024578774
162	0x3cd50286	0.02600218
163	0x3caba999	0.020954894
164	0x3c9b9884	0.018993624
165	0xbc72a109	-0.014808902
166	0x3b96b3c7	0.004599068
167	0xbb5695c7	-0.0032743083
168	0x3ba3f645	0.005003723
169	0x3d057960	0.032586455
170	0x3da1d184	0.0790129
171	0x3d0a3272	0.033739515
172	0x3d1c6ed2	0.038191624
173	0x3d29e3ef	0.04147714
174	0x3d7d13fa	0.06178663
175	0x3cda6803	0.026660925
176	0x3ca691d9	0.020333217
177	0x3d735679	0.05940864
178	0x3d3053ab	0.043048542
179	0x3d9abf26	0.0755599
180	0x3d913ea2	0.070920244
181	0x3dad6599	0.08466644
182	0x3da53b94	0.08068004
183	0x3daf8269	0.08569796
184	0x3dcd2216	0.10016267
185	0x3d92e482	0.07172491
186	0x3d57a9da	0.052652217
187	0x3d0c48d0	0.034249127
188	0x3d2ec83b	0.042671423
189	0xbc90b315	-0.017663518
190	0x3ccd5bf7	0.025068266
191	0x3d1fe2c4	0.03903462
192	0x3c544d7e	0.012957929
193	0x3cb21e8d	0.021743083
194	0x3cb1d59c	0.021708302
195	0xbc8bc4ec	-0.017061673
196	0xbcb72af0	-0.022359341
197	0x3d500705	0.050787944
198	0x3ca9d4a6	0.020731281
199	0x3d1d03cb	0.038333695
200	0x3c88f493	0.016718185
201	0x3c4ea00a	0.0126113985
202	0x3b603e9e	0.003421701
203	0x3d250550	0.04028827
204	0xbb735840	-0.0037131459
205	0x3c1182cd	0.008881283
206	0x3bb92a55	0.0056507983
207	0x3d70122a	0.058611073
208	0x3d874a33	0.06605949
209	0x3bc04e45	0.0058687055
210	0x3caf0244	0.021363385
211	0x3d9c68b0	0.07637155
212	0x3d375808	0.044761688
213	0x3c8b4736	0.01700173
214	0x3d91f5ea	0.071269825
215	0x3cf77452	0.030206833
216	0xb8d5a623	-0.00010187577
217	0x3d1d2d24	0.038373128
218	0x3d2cf2c1	0.042223696
219	0x3cc966ff	0.024585245
220	0x3d220eaf	0.039564785
221	0x3d8fd656	0.07023303
222	0x3c7ef4cc	0.015561294
223	0xbcbc230f	-0.022965936
224	0x3da9de86	0.08294396
225	0x3d0939af	0.033502277
226	0x3d5d6c63	0.054058444
227	0x3c7f9e28	0.015601672
228	0x3d2c8a7c	0.042124256
229	0x3cd011fb	0.025399199
230	0x3cb88cc3	0.022528058
231	0x3d4316fe	0.04762935
232	0x3c1c1e5f	0.009528725
233	0x3d62918a	0.055314578
234	0x3db28f22	0.08718707
235	0x3d5e7edc	0.0543202
236	0x3d8d293f	0.06892633
237	0x3dd15271	0.102208026
238	0x3dcb5747	0.09928756
239	0x3dc0bf7b	0.09411522
240	0x3d7655ad	0.0601403
241	0x3d8aa798	0.06770247
242	0x3de2c267	0.110722356
243	0xbc8d6c40	-0.017263532
244	0xbc4f94b9	-0.012669736
245	0xbbeccaaf	-0.00722631
246	0xbc1a0b4b	-0.0094021065
247	0xbd6b1f34	-0.057402804
248	0xbd24411d	-0.04010116
249	0xbd88233c	-0.066473454
250	0x3b3da588	0.0028937776
251	0xbd485ac6	-0.048914693
252	0xbc1d2906	-0.0095923
253	0x3c39d7bc	0.011342939
254	0x3d07295a	0.03299842
255	0x3c983d30	0.018583864

convt3.bias f4 [32]
0	0x3d5d1d05	0.053982753
1	0xbdff848d	-0.12476454
2	0x3e198a22	0.149941
3	0x3daa4f48	0.08315903
4	0x3ddafba8	0.10692531
5	0xbb2e328c	-0.0026580421
6	0x3cc7b9cb	0.024380585
7	0x3e1fa4f9	0.15590276
8	0xbe00ed46	-0.12590513
9	0x3b76a572	0.0037635234
10	0x3c30a69d	0.010781911
11	0x3df8b31f	0.1214354
12	0x3dc8fa49	0.09813363
13	0x3e273dff	0.16332243
14	0xbd3c935b	-0.046038967
15	0x3dea6b1c	0.11446211
16	0xbd240828	-0.04004684
17	0xbdcdef19	-0.1005537
18	0xbba3a8d3	-0.0049944906
19	0x3e0460a9	0.12927498
20	0xbd8a9623	-0.067669176
21	0x3dc0e1a2	0.09418036
22	0x3e041ec5	0.12902363
23	0x3e021df6	0.12706742
24	0x3d8ee112	0.069765225
25	0x3dbba389	0.09162051
26	0xbe1177fb	-0.14205925
27	0x3cbef18c	0.023308538
28	0x3c8f04c3	0.017458325
29	0x3dc8c780	0.098036766
30	0x3da81e46	0.08208899
31	0x3d445ad7	0.047938194

pos_output.weight f4 [1, 32, 2, 2]
0	0x3e5309b6	0.20609173
1	0xbe074435	-0.13209613
2	0xbe26c020	-0.16284227
3	0xbe131375	-0.14362891
4	0x3e05d37c	0.13068956
5	0x3dee2849	0.116287775
6	0xbd41856e	-0.04724639
7	0x3d137138	0.035996646
8	0x3e4cba35	0.19992907
9	0xbce2f989	-0.027706878
10	0x3d8a0317	0.067388706
11	0xbc4510c8	-0.012027927
12	0xbdcf6497	-0.10126608
13	0x3c9a7660	0.018855274
14	0x3bec6271	0.0072138836
15	0xbd884964	-0.06654623
16	0x3eeaef10	0.45885515
17	0x3eb5bcb2	0.35495526
18	0x3ea12a89	0.31477764
19	0x3eaf417f	0.34229657
20	0x3e073a92	0.13205937
21	0x3da005bd	0.078135945
22	0x3db1fc8a	0.08690746
23	0x3dfd7c84	0.12377265
24	0x3ea7d13c	0.3277682
25	0x3e858964	0.26081383
26	0x3e5d272c	0.21596974
27	0x3dd4c064	0.10388258
28	0x3e2303ac	0.1591937
29	0xbc0d2786	-0.00861538
30	0xbbce3eaa	-0.006294091
31	0xbd389af3	-0.045069646
32	0x3ef8080a	0.48443633
33	0x3e8117ce	0.25213474
34	0x3ededfb9	0.43530062
35	0x3ef34d29	0.47519806
36	0x3cf4a69e	0.029864606
37	0xbe3437f4	-0.1759947
38	0xbe0485aa	-0.12941614
39	0xbe2b9a4b	-0.16758077
40	0x3f0bd4b6	0.54621446
41	0x3eea0ac7	0.45711347
42	0x3f180923	0.5938894
43	0x3f0423eb	0.51617306
44	0x3ea4f60e	0.32218975
45	0x3eefc210	0.46827745
46	0x3ee83f54	0.45360816
47	0x3ecc3694	0.3988539
48	0x3e387539	0.18013467
49	0xbdbc4a04	-0.09193805
50	0xbe4534cb	-0.1925842
51	0x3da8dd53	0.08245339
52	0x3e3b6b6c	0.18302697
53	0xbe49ef51	-0.19720198
54	0x3e1c770a	0.15279785
55	0x3dfea3e5	0.12433604
56	0xbd520554	-0.051274613
57	0x3e027bae	0.12742493
58	0x3e4e28ed	0.201328
59	0xbd1d88f2	-0.03846068
60	0xbce66fb2	-0.028129432
61	0xbdb0c0c2	-0.08630516
62	0x3c9e414c	0.019318245
63	0xbde428b5	-0.11140577
64	0x3d71fc5f	0.05907857
65	0x3da10e7a	0.07864089
66	0x3cf53571	0.02993271
67	0x3c88d4ce	0.016703036
68	0xbe088ab6	-0.13334164
69	0xbdf7a85b	-0.12092658
70	0x3e4dbd9b	0.2009186
71	0x3e231160	0.15924597
72	0x3f0173d9	0.50567394
73	0x3e8d64c4	0.2761594
74	0x3e95c6f3	0.2925335
75	0x3e91e19a	0.28492433
76	0x3e37db08	0.17954648
77	0xbe3202d3	-0.1738389
78	0xbd8969cf	-0.067096345
79	0x3da43f29	0.08019859
80	0xbe86470e	-0.26226085
81	0x3d399ec0	0.04531741
82	0xbd2bd4a0	-0.041950822
83	0x3ddcf2e6	0.10788517
84	0xbe113217	-0.14179264
85	0xbe1c0f54	-0.15240222
86	0xbe633550	-0.22188306
87	0xbe79ced2	-0.24395302
88	0xbe9e5536	-0.30924386
89	0xbe200c19	-0.15629615
90	0xbe5cf6ea	-0.21578565
91	0xbe878985	-0.26472107
92	0x3e12df10	0.14342904
93	0x3dadcb0f	0.08485996
94	0x3c87c244	0.016572125
95	0x3e2c2524	0.16811043
96	0x3d114883	0.035469543
97	0x3d36036e	0.044436865
98	0x3dcc875f	0.099867575
99	0x3d912d22	0.070886865
100	0xbe19852e	-0.1499221
101	0x3d968e0b	0.07351311
102	0xbda41e62	-0.080136076
103	0xbdf1e68f	-0.11811554
104	0x3e63a7d5	0.22231992
105	0xbd0d8cae	-0.03455799
106	0x3e8f8d91	0.28037694
107	0xbd5d50eb	-0.054032248
108	0x3cad9b72	0.021192286
109	0xbdab0bd7	-0.08351868
110	0xbaa6cf2f	-0.001272654
111	0xbd826930	-0.06367719
112	0x3ebf69db	0.3738545
113	0x3ec71165	0.38880458
114	0x3eb54986	0.35407656
115	0x3ed7fd03	0.4218522
116	0xbe1f8678	-0.1557864
117	0xbda22fad	-0.0791925
118	0x3de6bf71	0.11266983
119	0x3dc863cd	0.097846605
120	0x3db0a45a	0.086250976
121	0x3d26283c	0.040565714
122	0x3e5123b8	0.20423782
123	0x3d93a36d	0.07208905
124	0xbe18c4bf	-0.14918803
125	0x3dae1f48	0.0850206
126	0xbc93e999	-0.018055724
127	0x3c9e2d9c	0.019308858
