ggcnn_base/output/models/221204_2000_training_example/epoch_40_iou_0.68_statedict.pt (torch, 256417 bytes, 16 tensors)

conv1.weight f4 [32, 1, 9, 9]
00000000: f3ae 85bd 5ec1 fdbd c3af 88bd 1597 07be
00000010: 4c64 12be aa54 a1bd b5b0 dbbd 066a 17be
00000020: f85b 0dbe a9f5 c0bd ff7c a3bd f074 a4bd
00000030: d398 0ebe 0015 bcbd 7783 08be 211e f4bd
00000040: edfd d0bd 8abe 3bbd b496 8dbd 9b3b d5bd
00000050: c1cf 8ebd b8a8 ccbd 3d91 05be e201 f9bd
00000060: e1e3 acbd 5d1b e8bd ca30 fdbd e2f7 b4bd
00000070: efa3 e1bd 3e0b 9cbd a881 b5bd 9c74 e9bd
00000080: 1c28 2fbd 7272 72bd ff50 06be f424 76bd
00000090: 7b5d 37be 7fcf 37be f050 45be 348e 3cbe
000000a0: 7f00 5bbe 035b 2dbe 948c 16be 998e 14be
000000b0: 4a6a 70be 30eb 44be 9f75 2ebe 102c 6cbe
000000c0: 93e1 88be e5f7 3ebe 7d82 85be 0902 89be
000000d0: b411 74be 1852 5bbe adea 183e d7b6 3e3e
000000e0: a961 5e3e db67 363e b750 7d3e b141 5d3e
000000f0: 9ef0 473e 1008 003e 4839 e63d c9f3 9b3e
00000100: a7bc 833e d9b0 9a3e 79d7 993e 808a a73e
00000110: 4487 ac3e dbb5 753e 4420 883e 9ad8 5f3e
00000120: 0a9c ab3e 7a2d a83e 0d45 c13e 3aba be3e
00000130: 50cb ac3e a470 b53e 750f d83e f15f b83e
00000140: e88f aa3e 8a3b 2fbd f0df 01bd ec44 063d
00000150: 26ee 133e e6a8 333e 1770 193e 25dc 7b3e
00000160: e567 b33e 631f 093f acb7 4dbe 13ea 19be
00000170: e565 b7bd 1a42 24bd fe62 5d3b f3ac 923d
00000180: 5a94 033e 33a4 6d3e b434 ba3e 86d0 98be
00000190: 0b3d 5ebe aec4 0ebe f3e9 05be 68e5 9bbd
000001a0: 6cb9 32bd 5824 ddbc 00d5 7b3d 511c 7b3e
000001b0: 78a5 02be b874 8dbd d952 aabc 2929 953d
000001c0: 840e 663d 628b 8b3d 11ee b53d 1950 633e
000001d0: 80e4 ad3e bddc 3abe cc26 c4bd e8a5 acbd
000001e0: 69f7 afbc 4e51 11bd a79b 623c bf08 e63d
000001f0: c946 223e b1e7 6a3e d9a0 7fbe 8561 3abe
00000200: 91f4 e5bd e509 86bd 8109 61bd 7c2a 81bb
00000210: 72b4 b83d 5f1a 213e ef22 823e 4d53 81be
00000220: 63bd 69be ab61 5ebe f0c0 0abe 8196 bebd
00000230: edcc 82bc 506f 0abd a3a5 c83d 7a7d 763e
00000240: 1d49 99be 2e0b 70be bf25 6dbe 0e78 9dbd
00000250: 69c4 08be 911d 4bbd 2619 8839 aa3b d63d
00000260: df7a 733e 82c0 82be f245 80be df73 30be
00000270: 0850 98bd c68b 42bd a3da 15bc 739c b23d
00000280: 89b6 233e 356c ae3e 268a c6bb 1188 9fbb
00000290: 16af 75bc cfc2 3ebc c107 8f3b b9ef 1e3c
000002a0: 92db 913c 0a34 3e3d 6bce 233d 80bc 06bd
000002b0: a031 30bd d70e 213b 8bf8 aa3b ce16 29bd
000002c0: 27d4 f43c 44ef e23c 5da5 d7bc 1770 1a3d
000002d0: 57e6 8e3c efaf 913c d4fa 02bd 6a13 ca3c
000002e0: da69 76bc fd54 27bd 139a dcbb 25e7 243d
000002f0: 54b3 c9bc 0290 00bd f062 133b 9e98 95bc
00000300: 007b bdbc a36f 263d a942 313c cf9c 1e3c
00000310: 5c5c 98ba a5c4 273d 3de5 153d 71d8 00bd
00000320: 5c26 ebbb 822d 273d adfe 8f3c 8b29 10bc
00000330: 6a1d 02bd dbe0 8cbc 29d0 c4ba 586d 17bd
00000340: 9f72 5ebc 5294 97bc 7a91 073c f224 41bd
00000350: 394a 843b ac52 23bc 78d4 87bc f454 cb3b
00000360: f844 a1bc fe06 4e3c 4327 1a3b 9a07 d63c
00000370: 7a2d d93c d1a8 91bc d40f 67bc 10f7 24bd
00000380: f4c0 363b dd2f 1e3c e8e2 6cbc 8f9c 31bd
00000390: d6a7 71bb a203 76bc 216a 903c 9eef 7c3a
000003a0: 4667 d3bc 0f94 28bd a9c3 e53b abaf 163d
000003b0: 896d 263d 00d9 babb 05e7 23bd 0e3d d63c
000003c0: d810 4ebc f05f a8bc 30d8 05bd 00e8 20bf
000003d0: 52ca 3abe 1b3c 323e 3073 edbe aac4 95be
000003e0: f4e1 8dbe 955b 70be a6fa a0be 2df4 29bf
000003f0: e5d6 62be 2708 4a3e 8c86 ea3e 05d4 65bd
-0.065275095 -0.123903975 -0.06674149 -0.13241227 -0.14296073 -0.078774765 -0.107270636 -0.14786538
-0.13804615 -0.09421856 -0.079828255 -0.080301166 -0.13925485 -0.09183693 -0.133314 -0.11919809
-0.102046825 -0.04583601 -0.0691351 -0.104117595 -0.0697322 -0.09993118 -0.13043685 -0.12158562
-0.08441902 -0.11333344 -0.123628214 -0.088363424 -0.11017596 -0.07619332 -0.088626206 -0.113991946
-0.04276286 -0.059191175 -0.13116835 -0.060093835 -0.17906754 -0.17950247 -0.19269156 -0.18413621
-0.21386908 -0.1692925 -0.14702064 -0.14507522 -0.23478046 -0.19230342 -0.17037056 -0.23063684
-0.267346 -0.18649252 -0.26076117 -0.26759365 -0.23834878 -0.21418035 0.14933272 0.18624435
0.21716942 0.17813055 0.24737822 0.2160709 0.19525382 0.12503076 0.11241394 0.3045943
0.25729868 0.3021305 0.30047205 0.32722855 0.3369695 0.23995154 0.26587117 0.2185997
0.33517486 0.32847196 0.37747994 0.37251455 0.33748865 0.354375 0.42199293 0.36010697
0.33312917 -0.04278139 -0.031707704 0.032780573 0.14446315 0.17544898 0.14984165 0.24595697
0.35040203 0.5356352 -0.20089597 -0.15030698 -0.08954982 -0.0401021 0.0033780928 0.07161894
0.1284956 0.23207168 0.36368334 -0.2984659 -0.21702974 -0.13942215 -0.13077526 -0.07612115
-0.043633863 -0.02699487 0.06148243 0.2452252 -0.12758434 -0.06907028 -0.020791458 0.07283241
0.056166187 0.068136945 0.08883298 0.22198524 0.33963394 -0.18248267 -0.095777124 -0.084300816
-0.021480279 -0.03547793 0.013831056 0.11232137 0.15847315 0.22939946 -0.24963702 -0.18201263
-0.11228288 -0.06544856 -0.054940704 -0.003941832 0.09018792 0.15732716 0.25417277 -0.25258866
-0.22826152 -0.21716945 -0.13550162 -0.0930605 -0.015966857 -0.033797562 0.09797218 0.24071303
-0.29938594 -0.23441765 -0.2315893 -0.07688914 -0.13356175 -0.049588744 0.00025958678 0.10460599
0.2377734 -0.25537497 -0.25053364 -0.17231701 -0.0743714 -0.04749658 -0.009146365 0.087212466
0.159876 0.3406693 -0.006058949 -0.0048685153 -0.014995357 -0.011643126 0.004364938 0.009700709
0.017804895 0.046436347 0.039991777 -0.03289461 -0.043016076 0.0024575496 0.005217617 -0.041281514
0.029886318 0.027701981 -0.026323969 0.037704553 0.017443819 0.017784087 -0.03197749 0.02466746
-0.015039885 -0.040852536 -0.0067322343 0.0402595 -0.024621643 -0.031387337 0.0022489391 -0.01826125
-0.02312994 0.04063381 0.010819116 0.009680941 -0.0011624205 0.04095902 0.03659557 -0.031456415
-0.0071762037 0.040814884 0.017577494 -0.008798967 -0.031766333 -0.017197063 -0.001501565 -0.036969513
-0.0135771325 -0.018503342 0.00827443 -0.047154374 0.0040371683 -0.009968441 -0.016580805 0.0062051956
-0.019686207 0.012574909 0.0023521937 0.026126672 0.026510943 -0.017780693 -0.014102895 -0.04027468
0.0027886005 0.009654966 -0.014458396 -0.043362197 -0.003687372 -0.015015515 0.017628731 0.0009648743
-0.02580608 -0.041156825 0.00701185 0.036788624 0.040631805 -0.005702138 -0.04001524 0.02615216
-0.012577258 -0.020553559 -0.032676876 -0.62854004 -0.18241242 0.17405741 -0.46376944 -0.29251605
-0.2771145 -0.23472436 -0.3144123 -0.6638821 -0.22152288 0.19729672 0.45805776 -0.0561104

conv1.bias f4 [32]
00000000: 3fa1 ddbd b6ff da3d fedf ddbd fede a4bb
00000010: 3b6a be3d 8200 bc3d fa43 2ebd 5e32 093e
00000020: f852 95be b6df 4ebd 418c 913e 2843 dfbd
00000030: 50d7 8bbe cc09 d7bd c1f6 d2bc f073 25bc
00000040: fb05 723c 861f abbd 585d 92be 472e 05be
00000050: 0982 25be 6433 663e 397d 85bc a972 cdbd
00000060: d548 9fbe 5e85 a4bd 7cf4 c9bd e175 ddbc
00000070: b3e7 d8bd a546 c7bd fb3c fe3c 146c 44be
-0.10821771 0.10693304 -0.10833739 -0.0050314656 0.092976056 0.09179784 -0.042545296 0.1339812
-0.29164863 -0.050506316 0.28427318 -0.10901481 -0.27312708 -0.104999155 -0.025752427 -0.010098442
0.014771934 -0.08355622 -0.2858684 -0.13005935 -0.16162886 0.22480541 -0.016295062 -0.10031635
-0.31110254 -0.0803325 -0.09861085 -0.027033748 -0.10591068 -0.09730271 0.031034937 -0.19181854

conv2.weight f4 [16, 32, 5, 5]
00000000: 100b 3c3d cb69 44bd d7a3 9ebd 69a8 90bd
00000010: 3865 0fbd c806 fc3d 021f 833d 319b f23d
00000020: 01e3 153e 1cf4 183e 7ee6 54bc 6600 43bd
00000030: 8802 b4bd c1a9 a43a 4608 10bd 3828 603d
00000040: cfa4 ce3d 28ec cb3d 2b94 c6bd c71b ddbd
00000050: 7ef2 24be ccfa 88bd 292d 883d c344 533d
00000060: 50a6 293d 614e 48be 3751 45bd 424a 1b3d
00000070: bd54 07be ad39 7ebd 93e9 02be d30b d1bc
00000080: 8b76 383d ae96 61be 717d dabd 5ec0 b9bb
00000090: 547b 083e 06cb 863d 1f14 21be 32a4 22be
000000a0: f05d 9cbc 299b f63d 788e 683d d803 8fbd
000000b0: 57fb bcbd cb33 b73c e69d 343e 172b 273e
000000c0: 5c46 043d dad6 ba3c ff23 903c d9cd 863d
000000d0: 4a74 3a3d 4236 263c 662e b4bc 7999 0abd
000000e0: 2514 18bd f635 173c 37ed 823d fc66 0bbd
000000f0: d642 bd3c 2a86 a2b9 39b9 913c 5d50 16bd
00000100: f9bf 7f3c 54cd ee3c f41f a03c abb7 fdbc
00000110: ccd0 bc3c 2ae3 47bc 52fc c53c ed88 2bbc
00000120: 1b02 df39 f46e 3a3d b0e5 583d 5961 8ebd
00000130: 8e4b d63c 2678 1ebc 6c28 78bd 310d a9bc
00000140: 310a debc 6d58 e7bc cfe9 96bd 61a2 b73c
00000150: ad1d bc3d 8159 85bd ef96 10bd 9330 60bc
00000160: 737b debc 0197 683c d5c0 833d 5109 5e3d
00000170: bdfb 5c3c 81fc 433c 1f69 ca3d 300f 873c
00000180: 8ef0 c33d 7cf6 843d 4d54 f03d a166 ea3d
00000190: 0421 6e3e dd1c 7f3d 59e0 deba bf49 66bd
000001a0: e757 65bd f391 203e 5b2d 9bbb 87cc 19be
000001b0: 4e41 20be 8354 25be 7691 043e b9cb 9fbc
000001c0: 0ac5 a2bd 584c ccbd 553c e0bd ed96 6e3d
000001d0: 99a6 9a3d f164 8bbd 3d9f e6bd b60c ffbd
000001e0: d57d 27bd 91cb 5c3d 98c4 983c 7320 803d
000001f0: 11fd 62bd f64c 79bd 0268 50bd 2ac7 813d
00000200: 36d5 a9bc 98f4 55bd 7315 acba 6ba2 61bd
00000210: 76fa 073e 061f 353e ebc8 5a3e 8695 12be
00000220: cbb9 47bc 646b b43c 02d0 b13d f71d 303e
00000230: 2cf2 12be a456 19be 3e6c e5bd e909 3bbd
00000240: d48e df3d b93a 04bd f573 f0bc 7bba 06be
00000250: f950 053d 557b bd3d baf7 ef3c 538d 1e3d
00000260: 355c b8bd 7b9e 8b3d 445a a9ba b218 a9bd
00000270: 8343 963c 8f40 95bd 2a5c c33c 91ff c93c
00000280: 0c11 833d 2d8c 85bd 0a0d 93bc b4f9 263d
00000290: f8b6 dd3d 45ae 573c d722 873c 9865 6e3c
000002a0: be22 5e3d dac0 163d cb01 ad3c 1d1a 99bc
000002b0: e436 8e3d 28a2 843d 09d2 363d eec3 bdbd
000002c0: 78eb 81bd a26d cebc 61f7 48bd ad41 253a
000002d0: 19ee bdbd cd89 70bd 80dd 9f3c 92b4 dbbc
000002e0: 9d29 693d 9262 b3bd 0082 17bd 51e1 533d
000002f0: b711 143d 7eca 883d 3a1d 52bc ae42 73bd
00000300: de5d 9d3c 26d0 ddbb 2c90 33bc e1de 8a3d
00000310: b1a0 cbbb b235 48bd f813 253d b7c9 1e3e
00000320: e789 90be 9aa6 a33d 5259 aabd dc7e 57be
00000330: 6801 8f3e 925c bdbd 6071 ff3d eb4f 423e
00000340: f23a 59bb e927 163f 4726 63be 47c4 603d
00000350: 85f2 d53e a543 ba3d 9e3a 143f 7f5a 29be
00000360: f34f 00ba 3d59 fc3e 1562 a9bc 4f26 b53e
00000370: 7303 f0bd fc11 1a3c fd29 fa3e a678 acbc
00000380: 711d a73e b2a9 bcbe 46ba 5ebe c387 a03d
00000390: 331f d33c 4fa5 d73e 66ea 1ebe e1a2 25be
000003a0: a88f c73c 3d60 a0bd a13d 903d 664d 6fbd
000003b0: 737e 63bd 48d1 013d 026a 5dbe 68bc a13d
000003c0: 0bec 393e df13 1a3e 06aa 0fbc edf8 c8be
000003d0: a4a2 bebd 9c1c 1d3e 91bb 173e 2a0e f63d
000003e0: 1198 d8be fbfc f43b 77a1 be3e 6ed3 853e
000003f0: 0f78 1a3e 42a1 083b a440 873d 133a 593e
0.045908988 -0.047952455 -0.07746094 -0.07063372 -0.03500864 0.12305981 0.06402399 0.11846007
0.14637376 0.1493687 -0.012994407 -0.0476078 -0.08789545 0.0012562798 -0.03516414 0.054725856
0.100900285 0.099571526 -0.096962295 -0.10796314 -0.16108128 -0.06688461 0.066492386 0.05157925
0.041418374 -0.19561149 -0.048173156 0.037912615 -0.13215919 -0.062066723 -0.12784414 -0.025518334
0.045034926 -0.22030136 -0.10668457 -0.005668684 0.13328296 0.065816924 -0.15730332 -0.15882948
-0.019087762 0.12041313 0.056776494 -0.06983155 -0.09227627 0.022363564 0.17638358 0.16325031
0.032293662 0.022807527 0.01759529 0.06582231 0.04552106 0.010144772 -0.02199478 -0.03383777
-0.037128586 0.009229174 0.063929014 -0.03403376 0.023103159 -0.00030999008 0.017788516 -0.036697734
0.015609735 0.029150642 0.019546486 -0.030971369 0.02304878 -0.012200156 0.024168167 -0.010469657
0.00042535443 0.04551597 0.052953422 -0.06952161 0.026159074 -0.0096722 -0.060585424 -0.020636173
-0.027104469 -0.028240407 -0.07368814 0.022416295 0.09185348 -0.06511212 -0.03530019 -0.013683456
-0.027158475 0.014196158 0.06433264 0.054208104 0.013487753 0.011962057 0.098833315 0.016486734
0.095673665 0.06492326 0.11734829 0.11445356 0.23254782 0.062283386 -0.0017004117 -0.056222674
-0.055992033 0.15680675 -0.0047356314 -0.15019427 -0.15649912 -0.1614552 0.12946114 -0.019506322
-0.079477385 -0.09975499 -0.109490074 0.058249403 0.07551307 -0.068063624 -0.11260841 -0.12453596
-0.040891487 0.053905074 0.01864843 0.06256189 -0.055417124 -0.06086441 -0.05088044 0.06336816
-0.02073155 -0.052235216 -0.0013128951 -0.055086534 0.13279137 0.17687616 0.21365707 -0.14314851
-0.012190293 0.022023864 0.086822525 0.1719893 -0.14350194 -0.14974457 -0.11202286 -0.045663748
0.10915914 -0.032282565 -0.029352168 -0.13157074 0.032547925 0.09252039 0.02929293 0.038708996
-0.09001962 0.06817337 -0.0012920578 -0.082566634 0.018342739 -0.07287704 0.023847658 0.024657996
0.06399736 -0.06520877 -0.017950553 0.04076548 0.10825914 0.013164108 0.016496105 0.014550589
0.05423235 0.03680501 0.021119019 -0.01868921 0.06944063 0.06476241 0.0446339 -0.09265886
-0.0634374 -0.025198761 -0.049064044 0.0006304037 -0.09273929 -0.058725167 0.0195148 -0.026819501
0.05692445 -0.08759035 -0.036989212 0.05172855 0.036149707 0.06679247 -0.012824351 -0.059389763
0.019209798 -0.006769198 -0.010959666 0.06780792 -0.0062142243 -0.048879333 0.040302247 0.15506636
-0.2823021 0.07990761 -0.08317818 -0.21044487 0.2793076 -0.09246172 0.124727964 0.18975799
-0.0033146706 0.5865465 -0.2218257 0.054874685 0.4178659 0.090949334 0.5790194 -0.16538428
-0.0004894726 0.49286833 -0.020676652 0.3538079 -0.11719408 0.009403702 0.4886016 -0.021053623
0.3263965 -0.36848217 -0.21750745 0.078383945 0.025771713 0.42118308 -0.15519103 -0.16175415
0.024360493 -0.07830856 0.07043005 -0.058423422 -0.055540513 0.031693727 -0.2162247 0.07897264
0.1815645 0.15046643 -0.008768564 -0.39252415 -0.09308365 0.15342945 0.14817645 0.1201442
-0.42303517 0.0074764467 0.37232563 0.2613787 0.15084861 0.002084807 0.06604126 0.2121356

conv2.bias f4 [16]
00000000: f5f3 ed3c ad3e 993e 511a 7bbd 156a 44bd
00000010: 40d8 14bd 6bf2 9dbb 98b8 413c d90c af3d
00000020: 8070 823e b61a 96bd 33c7 4a3e e93b 55bd
00000030: ed45 7bbd 68bb 18bc f8a3 f03d 66ab d6bc
0.029046992 0.2993063 -0.061304394 -0.04795273 -0.036339045 -0.0048201582 0.011823796 0.08547372
0.25476456 -0.073293135 0.19802551 -0.052059088 -0.061345983 -0.009322025 0.117500246 -0.026204776

conv3.weight f4 [8, 16, 3, 3]
00000000: 3f29 9abd 09b2 0d3e 16f0 8dbd 4d61 db3d
00000010: 0183 353e 3179 b03d a842 95bc 1260 efbd
00000020: 77c4 aa3d ef50 f8be 3de1 3bbd c5e7 9bbd
00000030: 2c8f bbbe e78a 303e 92be 983c 898e 0ebe
00000040: 9296 683e ecb9 ca3e d812 073e 9aa2 a5bd
00000050: 1be7 4c3d 0b83 0fbe 5954 6c3d e3d7 38bd
00000060: b8c3 88bd 72f9 1b3d 1551 57bd 5eae fd3d
00000070: 51d0 0cbe 8e6f 1dbe fd4e ab3d c110 6dbd
00000080: b561 c73d dbde 17be b050 38bc 9534 60bc
00000090: 9168 233e d154 1b3e 4657 c03d 9f0e b63c
000000a0: 3580 2c3e b969 23bb aeb4 883d f126 edbd
000000b0: 97fc d2bd ba3b 9dbd 6e19 e2bd 6e75 a3bd
000000c0: d900 d53c bb49 083e 32a1 913b 6041 1f3e
000000d0: 22ef 95bd 9fee b13d bdf6 19be c4d6 c33d
000000e0: f7f5 a7bd 995b 3f3c 87d4 933d ed72 0d3e
000000f0: 5f2f 4fbd 4216 19bd ca97 fb3d 1dff 13be
00000100: 7252 d7bd 24a4 8bbe 4314 353e de10 963c
00000110: 7499 7d3c 4f7e b83e 92be 9a3e 0d5b 133e
00000120: c26b b3be 9cc0 bbbe 6c5d f1bd a25b 3e3d
00000130: 9576 3c3d 4574 153e 72b7 213e 511a 673e
00000140: 2f7a 783e 9f40 dcbd aae5 dc3d e3c9 96bd
00000150: eebc 2a3c 498c b83d 0a7b 303e b4b0 02bb
00000160: 955b 92bd 3b4b d7bd 23bd 9fbd 9185 3d3e
00000170: 7815 803e e8dc 48bc c2a4 d0bd 06bb 653e
00000180: de5d acbe b04d 8a3d 4aec 82bd 1f60 453e
00000190: 496e 8dbd 127e 3a3e dea2 293e 7b21 d33c
000001a0: ee2d 44bd 3a25 06be deeb 913d d339 bdbd
000001b0: 5d94 86bd 99c5 743d 984e 8ebd 2609 04bc
000001c0: fef2 a0bd 4c0c d93d 8334 f53d fbb6 5d3d
000001d0: aaf7 8b3c 1272 373e 113f d03d a843 bbbd
000001e0: 0276 eabc 282f 133e 9af6 973d 1da4 87bc
000001f0: d4fb 73bd b908 adbc c418 533e 4169 ae3d
00000200: 92f8 763e 596c b73d 16f1 07be ab7c c03d
00000210: c724 e9bd 78dc 8dbe 7b89 603c 384a efbd
00000220: e762 abbc b4f5 0fbe 048b 703e 8edf 6b3d
00000230: bf6a 97be 6179 0e3e 18f9 283e 8fe3 ae3b
00000240: c2ad a3be adb9 69be 61d1 9b3d 9f23 85bd
00000250: 9766 60be 4f28 0e3d a8d3 f13e e8c2 963e
00000260: b3ef 113d 7ed9 69be 3ae2 1e3c cdf2 193e
00000270: 6689 0cbe 6fa7 a6be 8179 b9bd 1c92 863e
00000280: 2eb3 9a3d ac12 2d3d c828 febc 6db7 b83d
00000290: a18d 13be cf31 25be a706 463c b246 baba
000002a0: c485 8d3d b619 4cbc bc19 dbbd b21c 8fbc
000002b0: fbdf 353d 1655 773c 0a70 76bd 481c 1cbe
000002c0: 963a 23bd 0461 0bbe d702 f0bc 6099 c73d
000002d0: bdf4 f83d 971c e33d d577 fd3d 51f7 e4bd
000002e0: 6cbb 1ebe 7205 bebd 8dc3 2cbe c6e7 d4bd
000002f0: d898 163d 3fef 473e 86b3 eabd e08e d2bd
00000300: d3fd c13d 60ed 2a3e 206b c0bb a3a3 78bd
00000310: 9898 f33b c95a 163e b093 18bd b479 2ebe
00000320: 279c e03d 51c0 943d c88a 32bc 2ee9 99bb
00000330: 8066 12be 2971 143e 07d2 12be 168a 00be
00000340: 58ca 953d 134d 773d 6f21 97be 1e7c a73d
00000350: f864 ca3e 01df a4be 4119 bfbd b4de d33e
00000360: d1bc 0bbe 3eb8 023e 97a7 b43d a873 80be
00000370: b289 053e 359b 373e c532 71be 17a1 f13c
00000380: 918a 503e 8eda 30bd fd13 0c3e b791 bdbd
00000390: b5e8 f5ba 1cd3 1c3d f536 02bd c11b c53d
000003a0: 11c9 da3d bf91 b5bd af21 c93c 7595 61be
000003b0: 58e9 cbbe d03d aa3e 567a d63c 4212 90be
000003c0: 7035 473e 5616 0c3e de85 2dbd 54d3 ea3c
000003d0: cc1d 26bc 17dd 83bd 776a f43d 0d48 dd3d
000003e0: 0592 7cbd 1ca3 cb3d 9a9f 2a3a de60 47be
000003f0: e585 d33d 27ee 04be 9849 873d 10c2 d63d
-0.07527398 0.13837446 -0.069305584 0.10711918 0.17725755 0.086168654 -0.01822026 -0.11688246
0.08338254 -0.48499247 -0.0458691 -0.07612566 -0.3663267 0.17240487 0.018645559 -0.1392156
0.22713688 0.39594972 0.13190782 -0.080876544 0.050025087 -0.14014833 0.057697628 -0.04512776
-0.066779554 0.038079686 -0.05256756 0.123867735 -0.13751341 -0.15374586 0.08364675 -0.057877306
0.09735433 -0.14831106 -0.011249706 -0.0136844115 0.15957858 0.15169074 0.09391646 0.022223769
0.16845782 -0.0024934842 0.06675087 -0.11579693 -0.10302084 -0.076774076 -0.110400066 -0.07981382
0.02600138 0.13309376 0.004444265 0.15552282 -0.073210016 0.086880915 -0.1503553 0.09562448
-0.08201211 0.011679553 0.07218271 0.13813372 -0.050582286 -0.037374742 0.12284811 -0.14452787
-0.10513772 -0.27273667 0.1768351 0.01831859 0.015478481 0.36033866 0.3022352 0.14390202
-0.3504315 -0.36670387 -0.11785397 0.046474107 0.046011526 0.14595135 0.15792635 0.22568633
0.2426536 -0.10754513 0.107859924 -0.073627256 0.010421021 0.09011132 0.17234436 -0.001994175
-0.07146374 -0.10512396 -0.07799747 0.18507983 0.2501638 -0.012259699 -0.10187675 0.22434625
-0.33665365 0.06753099 -0.06392725 0.19274949 -0.06905801 0.18212155 0.16566035 0.0257728
-0.047895364 -0.13100138 0.07125066 -0.09239545 -0.06571267 0.059758756 -0.06948584 -0.008058822
-0.07858847 0.105980486 0.119729064 0.054129582 0.017085869 0.17914608 0.10168279 -0.09143764
-0.028620724 0.14373457 0.074200824 -0.016557747 -0.059566334 -0.021122323 0.20614916 0.08516169
0.2411826 0.089562126 -0.1327556 0.093987785 -0.11383968 -0.27707267 0.013704653 -0.11684078
-0.020921184 -0.14058572 0.2349053 0.057586245 -0.29573628 0.1391349 0.16501272 0.0053371857
-0.31968504 -0.22824736 0.07608295 -0.06500935 -0.21914135 0.03470641 0.47231793 0.29445577
0.035628986 -0.22836873 0.009697491 0.15034027 -0.13724288 -0.32549617 -0.09056378 0.26283348
0.07553707 0.042254135 -0.031025305 0.09019361 -0.14409496 -0.16132282 0.012086547 -0.0014211743
0.069102794 -0.012457302 -0.10698268 -0.017469738 0.044403058 0.01509597 -0.060165443 -0.15245163
-0.039850794 -0.13611227 -0.02929823 0.09746051 0.12156055 0.110894375 0.12376372 -0.11179984
-0.15501183 -0.09278382 -0.16871472 -0.1039577 0.036766857 0.19524859 -0.11460023 -0.102811575
0.09472241 0.16692114 -0.0058721453 -0.06070293 0.007433962 0.1468307 -0.03725022 -0.17038614
0.10967284 0.07263244 -0.010897346 -0.0046969866 -0.14296913 0.14496292 -0.14337932 -0.12552676
0.07313985 0.060376238 -0.29517695 0.0817797 0.39530158 -0.32201388 -0.09330989 0.41380847
-0.13646246 0.12765595 0.08821028 -0.2508824 0.13040808 0.179303 -0.23554523 0.029495759
0.20365359 -0.04317718 0.136795 -0.092563085 -0.0018761369 0.038287267 -0.031790692 0.09624434
0.106828816 -0.088656895 0.024552194 -0.2202967 -0.39826465 0.33250284 0.026181381 -0.2813893
0.19453979 0.13680395 -0.042363994 0.028665222 -0.01013894 -0.06438654 0.11934369 0.10804758
-0.061662693 0.0994322 0.0006508768 -0.19470546 0.10328273 -0.12981473 0.06605834 0.10486233

conv3.bias f4 [8]
00000000: f731 1d3e a396 a5be fe5c 3cbd 39e7 a43d
00000010: 045c 053e 4960 ce3a c036 b73e 60fc dd3e
0.15351091 -0.3234149 -0.04598712 0.08051915 0.13023382 0.0015745248 0.35783958 0.4335661

convt1.weight f4 [8, 8, 3, 3]
00000000: 2966 9dbd 0fd3 ecbd 5f3d 233e 62ff 8f3c
00000010: db4c afbe 3bdc ae3d 4ecb 2c3e 4bab aebd
00000020: 8a9d 8c3e b512 aa3d 569f 7cbe d362 77be
00000030: 1a39 1fbf 1a4e 883e a470 b23e 2536 993e
00000040: cde4 bc3e b0ff bdbe ef4f 29bf f08f d4bd
00000050: bd0b 70be 41db c3bd f23a 7f3e d0a0 043e
00000060: 6f4f 023f 00b1 5f3e aed5 a23e 968f 903d
00000070: 1bb7 6b3d ac34 b7bd 9f00 2bbf ea91 b13c
00000080: 40db 1a3e c5fa bb3c 8f56 f3be d19e 3ebe
00000090: 65a1 a83d c853 6fbe c093 1a3e ed58 f13d
000000a0: 90b5 c0be b350 7c3e aeed f03d 9139 ce3d
000000b0: 338f 4d3e 2b9e 34be f886 303e 01e3 6d3c
000000c0: 4eb5 45be f565 92be cb89 6cbe 9b34 dabd
000000d0: d996 95be 6b32 f8bd b351 df3d 29e6 fd3d
000000e0: 37ea 0d3f c4b1 e03e e723 f53d 4b1b 14bf
000000f0: 4a61 37be 48bf 1dbe 08f1 87be bf21 e23c
00000100: 8eea e83e 71f5 523d d403 9e3d f55b 103e
00000110: ebd7 b6bd 571d 05bd 97bf bebe 377a a3be
00000120: 063b 513c b36e 4b3e 6cfa ebbd 7d7c b1be
00000130: adf6 89bc 94d8 6f3e 4a04 26be a4e3 95be
00000140: d915 c93d 8183 673d 5d9d e9be c3d8 7a3c
00000150: 3a0d 803e 6f29 423d 3e20 3a3e 54e2 ae3e
00000160: a224 6c3d 024b d8be 89fe 553e 25ee 193e
00000170: 6239 fe3d a78b 053d d4c4 303e 33b9 81bd
00000180: e513 f93d 37c9 47be 9eae fbbe e71e 423e
00000190: 7159 143e 459f 3bbe e125 c6be 69fd 35bf
000001a0: a672 d73d 64f0 21be 62ea 4bbe 114e cebd
000001b0: 5709 e3bc f126 013f d75a 3f3e a8ef 593e
000001c0: 5c33 a2be 91c6 353d 106f 963e 7855 4f3d
000001d0: f694 a03e 19e1 c53e 8ff0 8ebd 481d b2be
000001e0: 84d9 0cbf 51f5 a03d 78cc e0bd 2cb8 5fbe
000001f0: 25c5 fb3d 6d19 273e b9e7 433e c589 8d3e
00000200: 81d4 313e 7e78 2dbe c455 17bf 0165 4d3e
00000210: a394 a13d 9cc8 833b 4c79 4ebe f3f6 7e3e
00000220: 0361 d9be efb6 d2be 2eb0 4a3d b767 80be
00000230: 2c3b c0bc 81ac f4bd d9b4 c73e 9195 c43d
00000240: 5353 f5bd 0ca0 14be 41e4 eebd 8b07 d13d
00000250: 5314 0d3e 11e6 1bbe 58d5 dcbd c7d0 263e
00000260: 0498 e3ba a7ae c7bb cb36 fb3d 5eaa 1f3e
00000270: d184 223e df10 38be 9dc7 003e 95f6 b6bd
00000280: b9c1 e1bd b294 f0bc 5c28 66bd 89a0 adbd
00000290: 224e 253e 4ee1 58bd 7d5c 313e b149 a9bd
000002a0: 208e 343e c7b7 823d d279 ddbd 6ade f8bd
000002b0: dde6 c13d 0ea1 51be 1750 ccbd 905c 43be
000002c0: e7a6 8b3d 9408 043e 86a5 13be fb75 b5bd
000002d0: 5794 f63d a304 8b3b bccb c83d 22b1 3e3a
000002e0: 68bd ebbd 35b4 53bd 1d52 fa3d 8fdc b73d
000002f0: f444 b4bc 7ce9 b13d f1b7 b13d 4b7b 183e
00000300: 9832 c8bd 2554 69bd 94e9 83bc 0fb1 063e
00000310: 7bb6 11be de77 4cbb 79a5 e2bd 73a8 dfbd
00000320: b41b 8fbd 4b3e 293e 41b0 593d a9e7 50bb
00000330: f478 ee3d e766 7dbd d8fe 2e3e 6005 ab3d
00000340: 7050 633c 58d5 bcbc a525 613d 3135 4f3e
00000350: 2fe0 34be 1e8e 08be 09df eabd 0cf8 fcbd
00000360: 9647 953e 78ea 19bf 18fe 90bd d4d9 5fbe
00000370: e3bc cbbe 79f4 93bd d4ee 753e 6455 95be
00000380: 497c 34be 367e 44be 1588 253c 7e90 3b3d
00000390: 9f5e 34bf 4141 80be ec07 1d3f 21da 2bbe
000003a0: b5fc a4be 03f9 703e af60 90be ea03 713e
000003b0: 7864 5abe d320 713e 5150 b4be a8ea 9bbe
000003c0: 36b3 793e 1402 86bc 3b2a 843e 2088 6ebe
000003d0: 2640 bcbd 5369 edbc e068 04bf 644f 663e
000003e0: cf74 073e 874b 053c 3df4 08be 1f5c 0c3e
000003f0: 9016 343d b9b4 913e fda1 cb3d 0f0d 9cbe
-0.07685501 -0.11563694 0.1594138 0.01757783 -0.34238324 0.085380994 0.1687443 -0.08528765
0.27463943 0.08304349 -0.24670157 -0.24158792 -0.62196505 0.26622087 0.34851563 0.29924121
0.3689331 -0.37109137 -0.66137594 -0.103790164 -0.23441978 -0.09563304 0.2492483 0.1295197
0.50902456 0.21844864 0.3180365 0.07058637 0.05754767 -0.08945593 -0.6679782 0.021676023
0.151227 0.022946725 -0.47526976 -0.18615271 0.082339086 -0.23371804 0.15095425 0.11784539
-0.3763852 0.2464016 0.11764084 0.10069574 0.20074157 -0.17638461 0.17238986 0.014519454
-0.19307443 -0.28593412 -0.23099439 -0.10654565 -0.2921665 -0.121189915 0.10904255 0.12397415
0.5543551 0.43885624 0.119697385 -0.57854146 -0.17908207 -0.15405 -0.2655108 0.027603982
0.4549145 0.051503602 0.07715574 0.14097579 -0.08927902 -0.032498684 -0.37255546 -0.3192918
0.01277042 0.19866447 -0.115223736 -0.3466529 -0.016841257 0.23422462 -0.16212574 -0.2927524
0.0981862 0.056521896 -0.4562787 0.015310469 0.2501009 0.047402795 0.18176362 0.3415705
0.057652123 -0.42244726 0.20897879 0.15032251 0.12413289 0.032603886 0.17262584 -0.06334152
0.12161998 -0.19510351 -0.4915666 0.18957101 0.14487244 -0.18322475 -0.38700774 -0.710898
0.10519914 -0.15814358 -0.19913629 -0.10073484 -0.027714415 0.50450045 0.18686996 0.21282828
-0.3167981 0.04437882 0.2938161 0.05061862 0.31363648 0.38648298 -0.06979477 -0.34787965
-0.550194 0.078592904 -0.10976499 -0.218476 0.12293462 0.16318293 0.19131364 0.27644172
0.1736622 -0.16940495 -0.5911524 0.20058061 0.07889678 0.0040217172 -0.20163459 0.24898891
-0.42456827 -0.41155192 0.049484424 -0.25079128 -0.023465715 -0.11946965 0.39005163 0.0959884
-0.119787835 -0.14514178 -0.1166463 0.10206517 0.13777284 -0.15224482 -0.107828796 0.1629058
-0.001736403 -0.006093818 0.1226631 0.15592334 0.15870978 -0.17975186 0.12576146 -0.089337505
-0.11023278 -0.029367778 -0.056190833 -0.08477885 0.16143087 -0.052949242 0.17320438 -0.08266009
0.17632341 0.06382709 -0.10814251 -0.12151797 0.09467862 -0.20471594 -0.099762134 -0.19078279
0.068189435 0.12893897 -0.14418611 -0.088603936 0.12040012 0.004242496 0.09804484 0.00072743197
-0.11510736 -0.05168553 0.12222693 0.08977615 -0.022005536 0.08687112 0.08677662 0.14890783
-0.09775275 -0.056965012 -0.01610259 0.1315348 -0.14229767 -0.0031199376 -0.11066718 -0.10920801
-0.06987706 0.16527669 0.053146604 -0.0031876361 0.11644164 -0.061865713 0.17089403 0.083506346
0.013874158 -0.023050949 0.05496754 0.20235135 -0.17663644 -0.13335463 -0.11468322 -0.12351999
0.29156178 -0.60123396 -0.070797145 -0.21860439 -0.39792547 -0.07224364 0.24016887 -0.2916671
-0.17625536 -0.1918877 0.010103245 0.045792095 -0.7045688 -0.25049785 0.6134021 -0.16782428
-0.3222405 0.2353249 -0.28198764 0.2353665 -0.21327388 0.23547678 -0.35217527 -0.30452466
0.2438477 -0.016358413 0.2581347 -0.23294115 -0.09191923 -0.028980887 -0.51722527 0.22491223
0.13228153 0.008135683 -0.1337442 0.13707016 0.04396683 0.28458193 0.09943006 -0.30478713

convt1.bias f4 [8]
00000000: 3a78 753c 04e0 c03d cf61 b7bd cbe0 59bb
00000010: 075f a0bd 60b0 303d 28f6 97bc 48c7 7ebd
0.0149822775 0.094177276 -0.089542024 -0.003324556 -0.07830625 0.043136954 -0.018549994 -0.06220177

convt2.weight f4 [8, 16, 5, 5]
00000000: c7a2 abbe b4e0 643b 166d 99bf ab82 59bd
00000010: 0522 04be e7f0 073e cf1c a3be f452 85bf
00000020: 45d8 d2be 5329 c8be dd84 6b3d 7250 8dbe
00000030: 2bd3 28be aec9 37bf ef35 66bf de2d d0be
00000040: a4a5 8fbe 8fd7 05be 23a1 6fbe bcb0 8bbf
00000050: 91e5 96bd 27ed 3abf 418d 89bf 184c 4abe
00000060: bd80 d8bd dc0c b3be ab50 d6be 836f dfbe
00000070: 714b 38bf 3e84 1abf 910b a8be 11ab f2be
00000080: b34b 4fbe ecf5 93be 633b 3bbe 6eab a2be
00000090: 0474 25be 254b f7be 3fdd 04bf e1cf 133e
000000a0: 0358 febe e364 d1be 4aab 49be 58ca cebe
000000b0: 20d8 7abe 447c 2abe 5f16 33be 7535 a13d
000000c0: d605 43be baa1 d03c a4c6 08bd 7b2e 89bf
000000d0: 3d21 9abf a7a3 d9bd 21a7 063e d010 25be
000000e0: 55e4 94bc 93f9 863c 6a10 9abe 21c1 9cbc
000000f0: 0675 523e 1ee7 a1bd 3234 4b3e f98d e93d
00000100: 3dae 713d 632a 47bf 0e3b 02bf b6cb b7be
00000110: 354d b73d 5203 5cbf d95b b13d 6352 25be
00000120: 2242 2cbf bf31 b6bc db5e 25be 1358 313e
00000130: a35e 4abd be40 353d 70dd 11bf 8082 8e3c
00000140: c6b2 683e 756d e4bc 760a 093e 1244 1cbf
00000150: 223d d03d ff0e 8d3c 2dd2 d9bd 8c2f 7fbe
00000160: 7cfa 0dbf 1288 59be c6ab 2dbe 30ed 643d
00000170: 4224 0cbe b4f2 cd3d 9d09 06bd d748 443e
00000180: 76ea 603e ed1f 41be 539f 813e f6b4 2dbe
00000190: d9b6 303d c47d 1b3e c14b 23bf f2ed 43be
000001a0: 6778 4d3d ead0 92bf 6da4 58bf 9f69 5ebe
000001b0: dad5 03bf c7ba 23bf 2213 77bf 7bd8 42be
000001c0: 0278 d7bd 6000 8cbf 3b15 edbe 232a 96be
000001d0: d92d 7dbe f156 0bbf b56f bfbd 303d a3bd
000001e0: bdea dabe e7f2 67be 7cdd 3bbf 83a3 c5be
000001f0: b403 08bd 3129 1ebf acff 8ebe de18 363d
00000200: d3b3 8f3d 483c d0be d722 403e 8895 12bd
00000210: dd42 dbbe ec41 d4bd eef2 8dbe a30d 96bd
00000220: 764f 49bd 8337 843d 4174 d23d 0163 c4bb
00000230: 92dd 00bf 29f5 cbbe 304e 95be 23e3 463e
00000240: 31ac 8abe 13cc 5b3e 61e4 b13b d182 2ebe
00000250: 97c4 aabe 9304 d6bf 478f d0bd 8db5 16be
00000260: e8cf 2dbe c730 64be d0b2 d9bd c788 f7bd
00000270: 2cb1 21bf 8a8e 81be 0cef 3abf 3933 eebd
00000280: faa0 b5be 92cc 34be c35b 5dbe 9079 efbe
00000290: 9c01 a43c 83d2 06bf c07b d0be f8d5 8c3c
000002a0: 06c6 4e3d 2dde 89bf 61f8 c8bd 49f5 e3be
000002b0: fded 13bd bc04 d53d 3341 abbe f764 573e
000002c0: e39c 4ebf ff0f dc3d c207 2d3e e9de 883e
000002d0: 6b93 08be 6f52 81be 4f30 95be 209c d2bd
000002e0: 7c39 adbe a746 ff3d 4654 fc3d 634b 9ebd
000002f0: 28b1 64be 13a6 2d3e f78d ff3b 5bb5 84bd
00000300: c2a5 07bf 2f83 f8bd e6ef 3dbe b6a8 c73d
00000310: e16d fe3d 9c9d f83d 9c78 4aba de43 943d
00000320: da77 53bf 2c87 063d 7c1a b1be d7df 273d
00000330: 6a41 8cbf 7848 a2be ebca 95be 3af5 75be
00000340: e38c 0ebe bc4f 7b3d 2fed 4a3e 4741 9ebe
00000350: 90e1 53bf 9d00 343e 6edf 38be 6593 b9bd
00000360: 06ec 70bd da08 d6bd d78f a8be 8633 0bbe
00000370: 9833 82bf a1a3 023e 5287 c03d 7e34 153e
00000380: 7661 87bf 495b 993d cb2c 5cbd 3741 6f3e
00000390: ff03 3cbd be3b 72bc ce4d 8bbe c037 80bf
000003a0: 2543 953d cdd1 8cbe dc50 ec3d fdcf 81be
000003b0: ea11 d8be c0ce 4cbd 992a 42bd 2374 5f3d
000003c0: fa42 b1bd 9051 9c3d b107 34bc c2c2 9ebc
000003d0: cb44 02bb 7da9 393e 564c 4a3e 13e0 84bd
000003e0: 699c 18bf 8bd4 aabe c614 93bd d323 6fbd
000003f0: ca35 2a3e 9eb2 50bf fab9 ae3d 8883 1dbe
-0.33522627 0.0034923973 -1.1986415 -0.05310313 -0.12903602 0.1327549 -0.31857917 -1.041594
-0.41180626 -0.39094028 0.057499755 -0.27600437 -0.16486804 -0.71792114 -0.89926046 -0.40659994
-0.2805606 -0.1307051 -0.23401313 -1.091331 -0.07368005 -0.73018116 -1.0746232 -0.1975559
-0.1057143 -0.34970748 -0.4185842 -0.43639764 -0.71990114 -0.60358036 -0.32821324 -0.47396138
-0.2024372 -0.2889856 -0.18284373 -0.31771415 -0.16157538 -0.48299518 -0.51900095 0.14434768
-0.49676523 -0.40897283 -0.19694248 -0.4038875 -0.24496508 -0.16648966 -0.17489003 0.07871524
-0.19045195 0.025467742 -0.033392563 -1.071731 -1.2041394 -0.10626917 0.13149692 -0.16119695
-0.018175283 0.016476428 -0.30090648 -0.01913506 0.20552453 -0.0790541 0.1984413 0.11404032
0.059004057 -0.7779905 -0.5087136 -0.35897607 0.08950273 -0.85942566 0.08660097 -0.1614471
-0.6728841 -0.022240518 -0.16149466 0.17318754 -0.04940666 0.044251196 -0.5697851 0.017396212
0.22724447 -0.027884224 0.13382897 -0.6104137 0.1016791 0.017219065 -0.10635791 -0.24920481
-0.55460334 -0.21243313 -0.16960058 0.055890262 -0.13685706 0.100560576 -0.03272401 0.19168411
0.2196444 -0.18859835 0.25316867 -0.16963562 0.043143127 0.15184695 -0.63787466 -0.19133738
0.050163653 -1.1470006 -0.84625894 -0.21719979 -0.51498187 -0.63956875 -0.9651357 -0.19027893
-0.105209365 -1.0937614 -0.4630526 -0.29329023 -0.2472452 -0.5442954 -0.09347478 -0.07970655
-0.42757216 -0.22651254 -0.73384833 -0.38601312 -0.033206657 -0.61781603 -0.27929437 0.04445731
0.070167206 -0.4067099 0.1876329 -0.035787135 -0.4282445 -0.10364136 -0.27724403 -0.0732682
-0.049148045 0.064559005 0.1027608 -0.0059932475 -0.5033809 -0.3983548 -0.29161215 0.19422583
-0.27084497 0.21464567 0.005428836 -0.1704209 -0.3335311 -1.6720146 -0.10183578 -0.14717694
-0.16973841 -0.22284232 -0.10629809 -0.12086635 -0.6316097 -0.2530406 -0.73021007 -0.11630864
-0.35474378 -0.17656162 -0.21617036 -0.46772432 0.020020299 -0.52664965 -0.40719414 0.017191872
0.05048182 -1.0770928 -0.098129995 -0.44523075 -0.036115635 0.10401294 -0.3344818 0.21034609
-0.8070814 0.107452385 0.1689749 0.26732567 -0.13337485 -0.25258204 -0.2913842 -0.10283685
-0.3383292 0.12464648 0.123207614 -0.077292226 -0.22333205 0.16957884 0.007798906 -0.06479903
-0.529873 -0.12134396 -0.18548545 0.09748976 0.124233015 0.121394366 -0.00077236607 0.07239507
-0.82604754 0.032843754 -0.34590518 0.040984955 -1.0957463 -0.31695914 -0.29256377 -0.24019328
-0.13920932 0.061355338 0.19817041 -0.30909178 -0.82766056 0.17578359 -0.18053982 -0.090613164
-0.05881884 -0.10450907 -0.3292224 -0.13593873 -1.0171995 0.12757732 0.0940081 0.14570805
-1.0576618 0.074881144 -0.053753655 0.23364721 -0.04590225 -0.014784751 -0.27207798 -1.0017014
0.072881974 -0.27503815 0.1153886 -0.25353995 -0.42201167 -0.05000186 -0.047403906 0.054554116
-0.08655353 0.07632744 -0.010988162 -0.019379977 -0.001987743 0.18131061 0.19755682 -0.06488051
-0.5961366 -0.33365282 -0.071816966 -0.058383774 0.16622081 -0.8152255 0.08531566 -0.15382206

convt2.bias f4 [16]
00000000: c659 e53d 6315 2c3e f650 2e3d 9358 623c
00000010: 59fc b63d fb41 54bc 1c3e da3d 010b 56be
00000020: 15bf 223e 538e 2d3d d08d da3b d825 2c3e
00000030: d751 f33b 1de8 de3d 3a25 d73b f692 86bc
0.111987635 0.16805033 0.04255768 0.013815063 0.0893485 -0.012955184 0.10656378 -0.20902635
0.15893205 0.04237206 0.0066697374 0.16811311 0.0074255276 0.10884116 0.006565717 -0.016427498

convt3.weight f4 [16, 32, 9, 9]
00000000: e213 1abd 7d77 513d 1b32 ccbd 8531 843d
00000010: df48 38be a160 21bd 2d0f dd3d b728 85bd
00000020: f5f0 673a acff ddbd 8c11 a13c dc90 72bc
00000030: 867a 68bd 27ad f1bd f40a 513d 6111 48bd
00000040: e7da 0dbe 8aad b13d 6b06 c2bc 9803 8d3a
00000050: 83d4 063d f6f4 0fbd 371f 10bd c1bd 183d
00000060: 32de 983d 3d02 1c3d 2d03 dc3c 11d0 5b3d
00000070: 30e7 4bbd 8b35 9c3c d109 e73d f8a7 c03d
00000080: 0e81 433d ac04 023e fefd 80be ab68 4f3e
00000090: a986 9dbc fd40 aa3d 7b18 a83b 5723 563d
000000a0: ae18 e93b 9897 d03d 4081 bf3d 10cf 9f3d
000000b0: 2d5e 2d3d a0af 97bd caa5 c6bc 0584 36bb
000000c0: 832a bfbc 2298 fcbc f732 a73d 2371 033d
000000d0: 3ebc 6ebc b9f5 773e fa00 6abd f61a 9fbb
000000e0: 3dc1 dfbc a182 ab3c 6581 093c cc8f 4b3d
000000f0: 619e 8b3d b3cb d33d 3754 153e 373f f4bb
00000100: 795b 693d 44ef b6bd 0a72 ad3d d589 193b
00000110: 797b 73bd c0ca 603d f4d8 bd3c e70c ea3b
00000120: 034b 8a3d 9ca4 b03d a67f 2dbc 0dea 993d
00000130: 5641 7e3d 7538 493d d191 3b3e 6405 e03d
00000140: 6ffd 033e fa9e 273a 1bc0 663e 2717 22bd
00000150: b1ad a4bb fb90 843e b997 3bbd 33d2 333c
00000160: 6dba 513e 715d fbbc 5278 b53e cbd4 883e
00000170: 69b7 df3b 9758 c33d 3036 813e f7f3 18bd
00000180: 59b4 3f3e 53cb ce3d 9382 0e3b 93ec dcbd
00000190: 8dee 46bd 396e 8d3e 63dc 3bbe f486 85bd
000001a0: 45dd 293e c7a5 67bd ee53 83bd 16a4 aa3e
000001b0: 2b3e 94bc a823 b33e 5f19 24bc 0b9a 583a
000001c0: 8505 293e 9d64 1a3c bc92 13bc 98eb 953e
000001d0: 788b 6cbc 92cb e23e d87e 913e 75de 3cbd
000001e0: 616a 993e e810 8a3e 6b3c 27bd e0b0 913e
000001f0: 3bb9 223e 2f67 bdbc 9fab 00be 9ec9 83bd
00000200: c3d5 b53e feb0 f2bb 6bea d1bc 613e 673e
00000210: 05d3 1bbe 5305 00bd 74c6 903e 806b 653b
00000220: 7bfd a53e d916 b9bc a3c6 81bc 6e07 883e
00000230: c7d0 d83b 7bca 22bd a810 4f3e a347 8abc
00000240: 205c 013f e55d 5d3e c38d 003c d2c2 893e
00000250: b8ea 813e d2bb 3eb8 5480 9c3e d7cb 513e
00000260: ecc8 00bd 49cf 9cbe 5bc7 9fbc 8ff9 f43e
00000270: d574 95be 6d43 49bd c2d5 a53e ce9b 80be
00000280: 52fc 02bd 48c0 ab3e d9e2 1b3d 34ee b03c
00000290: 4288 b23b e84e 02bd 7551 83bb f513 8cbc
000002a0: dc6b 3ebd 6118 523c f995 44bd 1ecd 983d
000002b0: d0f3 773d 01da 093d 180c a8ba 4d3b 403c
000002c0: e65a 183d 38ef 043d 1a49 9d3d 8f79 413d
000002d0: 9a4a 5f3d 5216 833c 5a68 403d 4054 403d
000002e0: 6757 103b da93 7c3c 0acf 1abc d6eb 0dbc
000002f0: bbd2 353a fa3d 583d c14d 0a3c ade2 2c3d
00000300: b4cf 303d e2d9 813c 16b1 383d adf6 8ebc
00000310: a305 99bc 26b7 9e3b 2420 b03d cea6 b63d
00000320: 3fbe 02bc dac0 2fbc dfb6 903d 71b9 723d
00000330: fcf7 23bb ec8e 233d 1ac8 c23c d4e9 d33c
00000340: 83a2 883b c3e3 043b 7d53 56bb f19a b23c
00000350: 7076 02bd 0f49 abbc de6f c03a 4eb9 553c
00000360: 5162 833d a3ba 823b 35a2 de3c 02e7 a03c
00000370: f7e3 993b afd5 b03c 28b5 8d3c 1279 ddba
00000380: 27f5 84bc 44c2 9e3d 8485 4e3d 82ad 603c
00000390: bf13 b93c 9b5a 313d 274e 103d 0d30 a03c
000003a0: 64dc 9e3d efbb 383d c907 f73d 5fa8 d03c
000003b0: a81d 353c 9bdb fc3c 6866 a83c da10 d4bb
000003c0: 9d7f 4c3d 3a77 133d 05d2 c23c 8451 8cbc
000003d0: e8ca 6c3d 589e a33d 03e8 3f3d 69ff 4fbc
000003e0: b258 e03d 3014 a73d ee20 953d 6314 573d
000003f0: 26a6 233e 7f2d 5c3d 4a00 e13d c157 12bd
-0.037616618 0.051139344 -0.09970494 0.064547576 -0.17996548 -0.039398793 0.1079391 -0.06501906
0.0008847856 -0.10839781 0.019661687 -0.014805045 -0.056757472 -0.11800604 0.051035836 -0.0488447
-0.13853036 0.08675678 -0.023684701 0.0010758517 0.03291751 -0.035145722 -0.03518602 0.03729034
0.074642554 0.038088072 0.026856983 0.053665224 -0.049781024 0.0190685 0.11281169 0.094070375
0.047730498 0.12697095 -0.2519378 0.20254771 -0.01922925 0.08313177 0.0051298714 0.052279796
0.0071135378 0.10185164 0.09350824 0.07803166 0.04232614 -0.07406545 -0.024248976 -0.0027849686
-0.0233357 -0.030834261 0.08164018 0.032090317 -0.014571248 0.2421483 -0.057129838 -0.004855509
-0.027313823 0.020936312 0.0083926665 0.049697682 0.06817318 0.10341587 0.14582907 -0.007453825
0.056972 -0.08932355 0.08469017 0.0023428102 -0.059443925 0.054880857 0.02317474 0.0071426514
0.067525886 0.08625147 -0.010589516 0.07515345 0.062074028 0.049126107 0.18317343 0.10938528
0.12889646 0.0006394234 0.2253422 -0.03957286 -0.0050255884 0.2589186 -0.04579899 0.010975408
0.20481272 -0.030684205 0.3544336 0.26724848 0.006827284 0.095383815 0.25236654 -0.037342038
0.18721141 0.10097375 0.0021745309 -0.107873105 -0.048567344 0.27623156 -0.1834579 -0.06519881
0.16588314 -0.056554582 -0.06412493 0.33328313 -0.01809605 0.3498814 -0.010015815 0.00082627
0.16506012 0.009423402 -0.009007152 0.29281306 -0.014437549 0.44295937 0.28417087 -0.04611059
0.29963973 0.26966023 -0.040829103 0.28455257 0.15890972 -0.02312049 -0.12565468 -0.0643494
0.3551465 -0.007406353 -0.025624475 0.2258239 -0.15217216 -0.031255078 0.28276408 0.0035006702
0.32419953 -0.022593902 -0.015841788 0.26568168 0.006616685 -0.03974388 0.20221198 -0.016879862
0.50531197 0.21617849 0.007846299 0.2690645 0.2537439 -4.547445e-05 0.30566657 0.20487915
-0.031441614 -0.30626896 -0.01950424 0.47846648 -0.29190698 -0.049136568 0.32389647 -0.2511887
-0.031978913 0.33545136 0.038058136 0.02159796 0.005448372 -0.031813532 -0.004007513 -0.01709936
-0.04648958 0.012823195 -0.047994588 0.07460998 0.060535252 0.03365517 -0.0012820987 0.011732888
0.037196063 0.0324547 0.07679959 0.047235068 0.054514505 0.016001854 0.046974517 0.046955347
0.0022024752 0.01541611 -0.009448776 -0.008662185 0.00069360033 0.05279348 0.00844139 0.042208362
0.04316683 0.015850965 0.045090757 -0.017451609 -0.018679446 0.0048436103 0.0859988 0.08918534
-0.0079799285 -0.010727132 0.0706613 0.059258882 -0.0025019636 0.039931223 0.023777056 0.025868334
0.0041697635 0.0020277358 -0.0032703571 0.021802397 -0.031851232 -0.02090886 0.0014681777 0.013044668
0.06415237 0.003989534 0.027176956 0.019641403 0.004696365 0.021586267 0.017298296 -0.0016897044
-0.016230179 0.07751897 0.0504203 0.0137132425 0.022592423 0.0432993 0.035230782 0.019554162
0.0775688 0.045101102 0.12062032 0.02547091 0.011054434 0.030866435 0.020556644 -0.0064717354
0.04992639 0.036002375 0.023781786 -0.017128713 0.057810694 0.07989186 0.046852123 -0.012695172
0.10954417 0.08158147 0.072816715 0.052509677 0.1598135 0.053754326 0.10986383 -0.03572822

convt3.bias f4 [32]
00000000: d5f0 b1ba 228d 5fbe 2a3f 4f3e 4818 ce3d
00000010: 4b7a 273e ad8a c6bb 006e 3e3d 4129 d53d
00000020: cf9d 16be 76c4 b73c 05bc 913b c203 303e
00000030: 3e61 bd3d 2264 823e 5b9e 38be 73ed 263e
00000040: 3c2d 123d 32ff a0be d2d7 9d3c 70c1 743d
00000050: 9285 fa3b 0bdc de3d ef9d 353e fc86 0d3d
00000060: 24b1 d53d 21c1 fb3d 8735 2cbe eceb 88bb
00000070: 2c19 8d3d ae52 5f3d 2669 f73d 82b6 183d
-0.0013575802 -0.21831182 0.20238939 0.10063225 0.16355245 -0.006059012 0.046491623 0.10408259
-0.14708637 0.022432547 0.0044474625 0.17188933 0.09247063 0.2546702 -0.18029158 0.16301517
0.03568767 -0.314447 0.01926795 0.05975479 0.0076453174 0.108818136 0.17736028 0.03455256
0.104341775 0.12292696 -0.16817294 -0.0041785147 0.06889567 0.05452221 0.12080602 0.037283428

pos_output.weight f4 [1, 32, 2, 2]
00000000: 0d74 c53d 57f4 093d e9aa 5dbe 7231 3abe
00000010: 5b3b dfbc 9f44 fe3b 924a b9bc 078a 62ba
00000020: e94f 213e c805 1abd afbd 0a3d 548a c4bc
00000030: 5c46 dabd 7633 f1bd 55e3 55be 6317 5dbe
00000040: 4549 8f3e 10c0 553e 2a86 183e 568f 313e
00000050: 0e6b 623e c987 623e 36ff 803e f17d 523e
00000060: 3fd6 923e 8686 4c3e 5981 903e 84ae 553e
00000070: 9ef2 0b3e b307 4bbb 7083 e53b 7f9b 0abd
00000080: 3397 8ebb e2eb 963b 1831 463c cae5 34bc
00000090: f122 f9bd 6d2b 5bbe 996c 91bd fd48 c9bd
000000a0: 60b6 de3e 30d3 f43e fd9a 113f aa35 253f
000000b0: 78a1 5f3e 0d88 ae3e cebc bd3e f9a2 983e
000000c0: 63a1 453e f471 4bbd 792b 8e3c a2dd abbd
000000d0: f36c 0e3e a5f3 58be 67d2 cd3d e67b ae3d
000000e0: f2ef 4bbd 1f16 03bd b669 cc3d ffea 173c
000000f0: e4d2 65bc 45b5 8dbd 03f9 de3c 001a d7bd
00000100: a9b6 693e ea33 663e 81d5 743e 045c 403e
00000110: b4e9 71be 8f6c 83be d7d4 49be a102 51be
00000120: 6715 193f cf4a 113f 5995 fe3e 8e40 003f
00000130: 0fbb 26bb c8c1 a83d af27 12be 0163 973d
00000140: 63b1 26bd 7ac7 12bb f140 003e 7e1c 003e
00000150: acd4 70be b0c1 4dbe d966 7fbe 492a 7fbe
00000160: 3a39 04be a729 a3bc e7ee c0bd 541d d3bd
00000170: 6f15 d23d 0523 ab3d ec10 6d3c 3802 1e3e
00000180: 645d cd3d e61d fb3d 3de5 213e 6a99 223e
00000190: 74a5 c9bd ce03 5b3d f711 0abd 1f70 a4bd
000001a0: f545 a2bc 84d6 0dbd 778f 07bd 147b ebbc
000001b0: cba6 00be 8586 19be a994 2abe b02f 22be
000001c0: 1b34 973e 45b4 a13e 92de 9c3e 290e a63e
000001d0: 7014 bebd 6190 253c 4632 aabb eb5b 843d
000001e0: b4c2 1e3e f4a7 213e 4713 503e a841 5e3e
000001f0: e2b5 2c3e 469f 873e 2fc1 313e 6098 693e
0.096412756 0.033680286 -0.21647228 -0.18182924 -0.027249983 0.007759645 -0.022618566 -0.00086417835
0.1575314 -0.03760317 0.033872303 -0.023991741 -0.10657951 -0.117773935 -0.20887502 -0.21590953
0.27985588 0.20874047 0.1489493 0.17339835 0.2211115 0.2212211 0.2519471 0.20555855
0.28679082 0.19973192 0.28223684 0.20867354 0.1366677 -0.003097993 0.007004194 -0.0338397
-0.0043515204 0.004605756 0.012096666 -0.011041114 -0.12164868 -0.21403284 -0.071007915 -0.098283745
0.43498516 0.47817373 0.5687712 0.6453501 0.21838939 0.34088174 0.3705811 0.29811838
0.19299845 -0.04966922 0.017354714 -0.083918825 0.13908748 -0.21186693 0.10049897 0.085197255
-0.049789377 -0.03200352 0.099811 0.009272336 -0.014027331 -0.0691934 0.027218347 -0.10503006
0.22823586 0.22480741 0.2390957 0.18785101 -0.23624307 -0.2566876 -0.19710098 -0.20411159
0.5979828 0.56754774 0.49723318 0.500985 -0.0025441085 0.08240086 -0.1427295 0.0739193
-0.040696513 -0.002239673 0.12524773 0.12510869 -0.23518628 -0.20093417 -0.24941577 -0.24918474
-0.12912455 -0.019917322 -0.09420567 -0.10308328 0.102579944 0.08356289 0.0144693665 0.15430534
0.100275785 0.12261562 0.15810104 0.15878835 -0.09846011 0.053470425 -0.03370854 -0.08029198
-0.019808749 -0.034628406 -0.033095803 -0.028745212 -0.12563626 -0.14992721 -0.16658272 -0.15838504
0.2953194 0.31582847 0.30638558 0.32432678 -0.09281242 0.010105223 -0.0051939813 0.064628445
0.15503961 0.15786725 0.20319854 0.21704733 0.16866258 0.26488703 0.1735885 0.22812033

cos_output.weight f4 [1, 32, 2, 2]
00000000: cbd1 20be 921e d0bd d2b4 843d 8495 0b3e
00000010: 8847 a7bd 8ea6 d0bd 61db c0bd 39e0 dabd
00000020: b849 f63c 2fd7 4f3e b383 4a3e d64d 873e
00000030: 3afd 0dbd d8e7 623d fa84 593e 443c 2a3e
00000040: a9e7 91be 5f3f 4bbe 33f4 02be 0516 25be
00000050: 9248 95bb b165 193d 5ebc 3abe 3363 12be
00000060: d39b 06bf 50f3 d3be 5f23 f1be 6660 cabe
00000070: 73c7 b93c 0696 1b3e 6fb3 153e 066c 4cbe
00000080: 3b8f c1bd 561c a0bd b061 d6bd 2d31 cfbd
00000090: a8a8 a23c 516a bc3d 4f82 03be d1c6 99bd
000000a0: 3859 ccbe 25e8 e8be 7788 07bf 1419 1dbf
000000b0: 5a76 a93b 2ff0 07be 8464 ffbd 2194 ebbc
000000c0: 08ca 00be 35ac 77bc 1c3c 10bd 2d41 723d
000000d0: 1bf1 5c3e b164 913e 0ae0 a73e 55b6 0d3e
000000e0: 001a 273e 3448 883b 27d9 8e3b 9dde 373d
000000f0: 4944 423e e41f ef3c bbe3 563e 88f7 193e
00000100: d4c0 9c3d 1936 743d 020d f63d a832 f53d
00000110: 6ce9 123e af5b fc3d b065 cf3b 1a0c 043a
00000120: edac 46bf f2f3 4dbf 554d 14bf 12d2 20bf
00000130: 58f1 763d 63eb 94be 5e27 913e 98c0 8bbd
00000140: 13ba 403e 7caf 0b3e 7cc5 943d 43ef 003d
00000150: ec46 753e 133a 8a3e 74c1 903e ca66 903e
00000160: 3a9f f1be 1e65 b9be 5c90 82be 4be6 f2be
00000170: b56e e23c 0c78 ad3d 9ce3 0abe b8a5 573d
00000180: 059d 8dbe 9425 c0be 3184 cebe 1f13 94be
00000190: 1e08 443d 27b6 253d 7c05 093e ee77 c13d
000001a0: 98e2 333d 676a de3c 2440 36be 4f63 b2bc
000001b0: 4024 053f 9f1a 043f 2c9b d13e 62ac da3e
000001c0: be1b c9be a336 cfbe a605 c7be 2d35 dbbe
000001d0: 3f6a aa3d 44e4 713d a7ab 033e dafb 983d
000001e0: 145d 8fbe 9ece 91be ce50 efbe 6e68 e8be
000001f0: de2a bf3d 4e42 193e abb1 083d 9df3 023e
-0.1570503 -0.10162081 0.06479801 0.13631254 -0.081679404 -0.10188018 -0.09416843 -0.10687298
0.030064449 0.2029693 0.19776802 0.26426572 -0.034665324 0.055396885 0.21242133 0.16624552
-0.28497055 -0.19848393 -0.12788467 -0.16121681 -0.00455577 0.037450496 -0.18235919 -0.14295654
-0.5258152 -0.4139657 -0.47097299 -0.3952667 0.022678113 0.15193948 0.1461923 -0.19963083
-0.09451147 -0.07817905 -0.10467851 -0.101168014 0.019855812 0.09199966 -0.12842678 -0.07508624
-0.39911819 -0.45489612 -0.52942604 -0.6136639 0.0051715793 -0.13275217 -0.12470344 -0.028757157
-0.12577069 -0.015116741 -0.035213575 0.059144188 0.2157635 0.28397134 0.32788116 0.13839085
0.16318512 0.004158998 0.0043593827 0.044890035 0.18971361 0.029190011 0.2098531 0.15035832
0.076539665 0.059621904 0.120142 0.119725525 0.14346856 0.12322175 0.0063292608 0.00050372037
-0.77607614 -0.80450356 -0.579305 -0.6282054 0.060288757 -0.29085836 0.28350347 -0.06823844
0.18820982 0.1364116 0.0726423 0.031478178 0.23952836 0.26997432 0.28272593 0.28203422
-0.47191793 -0.3620996 -0.25500762 -0.47441325 0.02764068 0.08470163 -0.13563389 0.052648276
-0.2765886 -0.3752867 -0.4033523 -0.28920838 0.047859304 0.040456917 0.13380998 0.09446703
0.04391727 0.027150346 -0.17797905 -0.02177587 0.5200844 0.5160312 0.409387 0.42709643
-0.39278978 -0.40471372 -0.38871497 -0.42814007 0.08321046 0.05905558 0.12858449 0.07469912
-0.280007 -0.2847795 -0.46741337 -0.45392174 0.09334348 0.149667 0.033372562 0.12788244

sin_output.weight f4 [1, 32, 2, 2]
00000000: bf34 533d 956c 54bd 22d3 a93c 0473 acbd
00000010: 325f fdbb bbb7 3bbc c551 f8ba cff2 2bbb
00000020: aa28 a73d bddb 0f3e c2ca 11be 19df f43d
00000030: 5c5a f33c 6fff 933b a984 95bc 636c d5bb
00000040: 1276 9e3d 8a8a d33c 010d 463d bf7b 563d
00000050: 89fe 093f 6148 fb3e 3786 b33e 74c7 a63e
00000060: 607d e23c fcad 533c 5896 913c 1f4e 3b3c
00000070: 7a01 bbbd b6eb d13d c3ef 10be 68b9 b33d
00000080: 978c 68bb c049 32bc bc87 ccbb a284 e23b
00000090: 00f0 84bc 8928 4ebc fff0 d5bc f230 a73b
000000a0: 331f 67bd 0fc9 1fbd ecd8 6fbd d65d 60bd
000000b0: 4af3 a1bd 3eab 03bd d6ad 34bd 75f9 94bd
000000c0: 0846 1cbe 59db 1fbe 6bf8 32be e4a6 1fbe
000000d0: c2e2 113e b51f c7bd eff0 783d c994 a03d
000000e0: 33fd 773d 7deb b73b 4014 a43c e2eb c1bc
000000f0: 1899 14be bbc7 c63d 6f86 8fbd 7282 76bd
00000100: 988e fbbc c86d 17bd 1d3a fabc d1a0 2cbd
00000110: 4383 463d 71d7 1d3d 6477 163d cef2 463d
00000120: 27ab 65bd 1181 8cbd 8a1e 38bd 5240 70bd
00000130: ae46 a1bc 847d 13bd 04a0 8dbc dc49 703d
00000140: 1d8b 913e 979c 973e 1755 f73e 69e4 ec3e
00000150: 6662 3f3c 54aa bb3b 3ad9 da3c e2d9 a13c
00000160: fe7c 613e 17fa 1a3e b351 023e 0802 5f3e
00000170: 94eb 193e 3e42 fbbd 36ae ae3d 38ab bcbd
00000180: 8df6 b1be 3f47 00bf a0c1 00bf 99ce b9be
00000190: 2a1e 17bd f10d bcbd aa0a 67bc 9021 d03d
000001a0: e70c 7bbc 2c83 0dbc bbf0 c5bc 7e52 8cbb
000001b0: bfe4 1dbd 186c 42bd 4539 f4bc b9d2 ecbc
000001c0: d5b3 5abc 46c7 a7bc 5c38 04bd 8666 cabc
000001d0: 6d13 2f3e 10aa 593e fc7b 133e b361 0c3e
000001e0: b61b d53d 8054 cc3d ba6b 0a3e aa18 0c3e
000001f0: 6a8c 44bd d084 34bd 0fd5 89bc ee7a 55bd
0.051563974 -0.051861364 0.020730559 -0.08420375 -0.0077322954 -0.011457379 -0.0018945268 -0.0026237254
0.08162053 0.14048667 -0.14237502 0.11956615 0.029706173 0.004516534 -0.018251734 -0.006513165
0.07737364 0.025822897 0.048352245 0.052364107 0.53904015 0.49078658 0.35063335 0.32574046
0.027647674 0.012919899 0.017771885 0.0114322 -0.09131141 0.102500364 -0.14153962 0.08775598
-0.0035484189 -0.010881841 -0.0062417667 0.0069127837 -0.016227722 -0.0125829065 -0.026115892 0.0051022703
-0.05642624 -0.039010104 -0.058556482 -0.05477699 -0.07907732 -0.03214573 -0.044111095 -0.07274143
-0.1526109 -0.15611018 -0.17477576 -0.15591007 0.14246657 -0.097228445 0.060776647 0.078408785
0.060544204 0.005612789 0.020029187 -0.023672048 -0.14511526 0.09706064 -0.07008063 -0.060182996
-0.030707642 -0.03696993 -0.030545289 -0.042145554 0.048465025 0.03853554 0.036734954 0.0485714
-0.056071427 -0.06860555 -0.044951 -0.05865509 -0.019687023 -0.036008373 -0.017288215 0.058664188
0.28426448 0.29611656 0.48307106 0.46268013 0.011681175 0.005727092 0.02671491 0.019757215
0.22020337 0.15134464 0.12726478 0.21778119 0.15031272 -0.12268494 0.08529322 -0.09212345
-0.34758416 -0.5010871 -0.5029545 -0.36290434 -0.036894 -0.091823466 -0.014101664 0.101626515
-0.0153229 -0.008637231 -0.02416264 -0.004282295 -0.038548227 -0.047466367 -0.029812464 -0.028909074
-0.013348539 -0.020480763 -0.03228031 -0.02470709 0.17097254 0.2125628 0.14402765 0.13709144
0.10405676 0.099770546 0.13517657 0.13681284 -0.04798547 -0.044071972 -0.016825227 -0.052119188
