ggcnn_base/output/models/221204_2000_training_example/epoch_06_iou_0.69_statedict.pt (torch, 256417 bytes, 16 tensors)

conv1.weight f4 [32, 1, 9, 9]
000000 75 0b 09 bd 20 09 b8 bd 89 d0 d7 bc f3 51 aa bd
       -0.033458192 -0.089861155 -0.026344554 -0.08316412
000010 ae 8d b7 bd f7 4a a2 bc 4a 1b 56 bd e2 97 c0 bd
       -0.0896257 -0.019811137 -0.05227212 -0.09403969
000020 d6 91 ac bd 20 13 67 bd 08 41 23 bd 87 5f fc bc
       -0.084262535 -0.056414723 -0.03985694 -0.03080727
000030 b7 c1 ab bd 60 a3 0f bd b7 93 94 bd 01 c3 83 bd
       -0.083865575 -0.035067916 -0.07254737 -0.064336784
000040 d1 ee 40 bd 8e 78 3a 3c f5 bb c7 bc d2 bd 77 bd
       -0.047102753 0.011381282 -0.024381617 -0.06048376
000050 c8 67 af bc 6c b2 41 bd 53 bf 9f bd 03 4a 86 bd
       -0.021411791 -0.047289297 -0.07800164 -0.06557085
000060 ac a3 e4 bc ab 0e 5a bd 30 c2 80 bd 55 4b e0 bc
       -0.027910076 -0.053236645 -0.06287038 -0.027379671
000070 87 e8 5f bd 33 70 8d bc d3 cf f7 bc 5f f8 67 bd
       -0.054665115 -0.017265415 -0.030250465 -0.05663335
000080 05 7d bf 3c f7 4e 3c 3c 9b 5e 67 bd a3 98 c1 3c
       0.023375044 0.011493436 -0.056486707 0.023632353
000090 aa 5a 08 bd 1b 28 14 bd ba 46 42 bd fe 49 11 bd
       -0.03328959 -0.03617106 -0.04743073 -0.035470955
0000a0 bd af 80 bd 44 13 1a bc a5 95 ab 3c bd 0e f1 3c
       -0.062835194 -0.009404007 0.02094538 0.029425973
0000b0 a8 77 56 bd ee 45 d4 3b 65 8e d0 3c 62 99 0a bd
       -0.052360207 0.006478063 0.025458524 -0.033837683
0000c0 24 59 6b bd 8f fb ce 3c 5c a3 2e bd eb 19 01 bd
       -0.057458058 0.025266437 -0.04263626 -0.031518858
0000d0 2b a5 ba 3b 30 5d 09 3d d9 80 4f bd cb 80 bb bc
       0.005695959 0.033536136 -0.050659988 -0.022888562
0000e0 40 00 0f b9 cb e4 fb bc 24 a3 22 3d e4 f4 6d 3c
       -0.00013637636 -0.030748745 0.039706364 0.0145237185
0000f0 8f e3 24 3c b3 71 35 bd a1 9d 24 bd f2 9d 04 3d
       0.01006402 -0.044297885 -0.04018939 0.03237719
000100 f7 a7 d6 bc 7a 5f 70 ba f6 bd 96 bb 0e c6 bc 3c
       -0.026203139 -0.00091695006 -0.004600282 0.023043659
000110 ec 39 19 3d 29 64 21 bd b5 a2 51 3c 12 3d 6a bc
       0.037408754 -0.03940216 0.01279514 -0.014296787
000120 dd d3 e5 3c dc 8a b3 ba 68 e2 b9 3c 9e c8 8c 3b
       0.028055126 -0.0013698 0.022690967 0.0042963764
000130 34 18 2b bd 68 4c f1 bc a0 92 51 3d e5 66 1d 3c
       -0.04177113 -0.029455379 0.051165223 0.0096070515
000140 4d 63 44 3b 99 6f db bc 20 d0 ec bc 3a 97 14 3c
       0.0029966414 -0.026786612 -0.028907835 0.009069258
000150 10 65 a8 3d fc a0 d2 3d fb 7a 88 3d 04 b1 fd 3d
       0.08222401 0.102846116 0.06664082 0.12387279
000160 e0 67 30 3e 94 dc 5a 3e d7 8f d9 bd 3a cb a0 bd
       0.17227125 0.21373206 -0.106231384 -0.078512624
000170 07 8d 40 bd 54 a2 da bc 0f 8f 81 3c c2 2a ae 3d
       -0.047009494 -0.026688732 0.015815286 0.08504249
000180 8a c6 f1 3d 1b 36 37 3e 9c f4 39 3e 20 0e 19 be
       0.118054464 0.17891733 0.18159717 -0.14946795
000190 b3 cc c5 bd 5f bc 4c bd 8b f5 91 bd 61 94 86 bc
       -0.09658184 -0.049984332 -0.07126912 -0.016428174
0001a0 b3 7f ba 3c db a5 b6 3c 3b ad a0 3d 66 e5 18 3e
       0.02276597 0.022295883 0.07845541 0.14931259
0001b0 da aa 7c bd b5 e5 fa bc 92 be 4a bc 6e e2 59 3d
       -0.061686374 -0.030627111 -0.012374537 0.053194456
0001c0 75 fd 14 3d 73 cc 6c 3d 6a 20 8a 3d 93 6d 33 3e
       0.036374528 0.057812165 0.06744464 0.17522268
0001d0 bc ce 3f 3e 6e 15 b9 bd fc c1 0a bd 1e a8 66 bd
       0.18731207 -0.090372905 -0.033876404 -0.056312673
0001e0 6d 3e 9e bc 0d 11 f2 bc 4a 13 e4 3c 7a d8 ec 3d
       -0.019316876 -0.029549146 0.027841229 0.11564727
0001f0 6b b3 0d 3e 43 70 d1 3d 35 56 19 be 52 47 e8 bd
       0.13837974 0.1022649 -0.14974292 -0.11341728
000200 c1 43 a4 bd 68 4e 76 bd 95 3f 43 bd b7 3d 23 3c
       -0.080207355 -0.060133368 -0.04766806 0.009963444
000210 36 14 ba 3d c6 2f 08 3e 80 79 f3 3d 07 e8 eb bd
       0.09085886 0.13299474 0.11888409 -0.11518865
000220 95 2d fa bd bf a0 18 be a3 02 c0 bd f4 c8 58 bd
       -0.12215725 -0.1490507 -0.09375503 -0.05292602
000230 20 a2 d7 3c 25 13 bf bb 23 64 c8 3d 51 ce fc 3d
       0.026322424 -0.0058311396 0.097847246 0.12344039
000240 b2 d2 16 be 2c b7 ec bd 3a c7 18 be 88 e4 b3 bc
       -0.14728811 -0.11558375 -0.14919749 -0.021959558
000250 2f 5d a9 bd 30 40 52 ba dd fe d0 3c 73 ff bf 3d
       -0.082697265 -0.0008020429 0.025512153 0.09374895
000260 10 d1 d2 3d 57 31 10 be e9 0c 26 be 41 50 eb bd
       0.10293782 -0.14081322 -0.16215862 -0.114899166
000270 f4 e2 3a bd ed 2e f0 bc ac 8b 38 b9 f7 f6 7e 3d
       -0.045626596 -0.029319251 -0.00017599639 0.062247243
000280 2d 89 b8 3d 64 a5 0e 3e 26 8a c6 bb 11 88 9f bb
       0.09010539 0.13930279 -0.006058949 -0.0048685153
000290 16 af 75 bc cf c2 3e bc c1 07 8f 3b b9 ef 1e 3c
       -0.014995357 -0.011643126 0.004364938 0.009700709
0002a0 92 db 91 3c 0a 34 3e 3d 6b ce 23 3d 80 bc 06 bd
       0.017804895 0.046436347 0.039991777 -0.03289461
0002b0 a0 31 30 bd d7 0e 21 3b 8b f8 aa 3b ce 16 29 bd
       -0.043016076 0.0024575496 0.005217617 -0.041281514
0002c0 27 d4 f4 3c 44 ef e2 3c 5d a5 d7 bc 17 70 1a 3d
       0.029886318 0.027701981 -0.026323969 0.037704553
0002d0 57 e6 8e 3c ef af 91 3c d4 fa 02 bd 6a 13 ca 3c
       0.017443819 0.017784087 -0.03197749 0.02466746
0002e0 da 69 76 bc fd 54 27 bd 13 9a dc bb 25 e7 24 3d
       -0.015039885 -0.040852536 -0.0067322343 0.0402595
0002f0 54 b3 c9 bc 02 90 00 bd f0 62 13 3b 9e 98 95 bc
       -0.024621643 -0.031387337 0.0022489391 -0.01826125
000300 00 7b bd bc a3 6f 26 3d a9 42 31 3c cf 9c 1e 3c
       -0.02312994 0.04063381 0.010819116 0.009680941
000310 5c 5c 98 ba a5 c4 27 3d 3d e5 15 3d 71 d8 00 bd
       -0.0011624205 0.04095902 0.03659557 -0.031456415
000320 5c 26 eb bb 82 2d 27 3d ad fe 8f 3c 8b 29 10 bc
       -0.0071762037 0.040814884 0.017577494 -0.008798967
000330 6a 1d 02 bd db e0 8c bc 29 d0 c4 ba 58 6d 17 bd
       -0.031766333 -0.017197063 -0.001501565 -0.036969513
000340 9f 72 5e bc 52 94 97 bc 7a 91 07 3c f2 24 41 bd
       -0.0135771325 -0.018503342 0.00827443 -0.047154374
000350 39 4a 84 3b ac 52 23 bc 78 d4 87 bc f4 54 cb 3b
       0.0040371683 -0.009968441 -0.016580805 0.0062051956
000360 f8 44 a1 bc fe 06 4e 3c 43 27 1a 3b 9a 07 d6 3c
       -0.019686207 0.012574909 0.0023521937 0.026126672
000370 7a 2d d9 3c d1 a8 91 bc d4 0f 67 bc 10 f7 24 bd
       0.026510943 -0.017780693 -0.014102895 -0.04027468
000380 f4 c0 36 3b dd 2f 1e 3c e8 e2 6c bc 8f 9c 31 bd
       0.0027886005 0.009654966 -0.014458396 -0.043362197
000390 d6 a7 71 bb a2 03 76 bc 21 6a 90 3c 9e ef 7c 3a
       -0.003687372 -0.015015515 0.017628731 0.0009648743
0003a0 46 67 d3 bc 0f 94 28 bd a9 c3 e5 3b ab af 16 3d
       -0.02580608 -0.041156825 0.00701185 0.036788624
0003b0 89 6d 26 3d 00 d9 ba bb 05 e7 23 bd 0e 3d d6 3c
       0.040631805 -0.005702138 -0.04001524 0.02615216
0003c0 d8 10 4e bc f0 5f a8 bc 30 d8 05 bd 33 6f d9 bd
       -0.012577258 -0.020553559 -0.032676876 -0.10616913
0003d0 51 bb 89 bd 9e 92 32 bc aa 2b 57 be cd 8a 4b be
       -0.06725181 -0.010899214 -0.2101275 -0.19877167
0003e0 ae 55 4b be 7f 87 2c be cc 8c 06 be 6a be 6d be
       -0.19856903 -0.16848563 -0.13139647 -0.23217168
0003f0 57 67 3e 3c 21 ce 68 3d 15 c0 0a 3d a9 af 5f bd
       0.011621318 0.056837205 0.03387459 -0.054610882

conv1.bias f4 [32]
000000 30 76 4f be 19 06 03 3e fe df dd bd 83 3d 17 bd
       -0.20259929 0.12795295 -0.10833739 -0.036923897
000010 1f 59 a1 3d 70 39 dc 3d 05 9e 27 bd e1 43 fc 3d
       0.078783266 0.10753143 -0.040922184 0.123176344
000020 aa 49 66 be 53 68 f5 3c 01 3d 18 3e fc c3 78 bd
       -0.22489038 0.029956972 0.14867021 -0.06073378
000030 d9 61 58 be 5f 4d 96 3c 17 51 07 3d 8a fc 23 3d
       -0.21131076 0.01834744 0.033036318 0.040035762
000040 9e 38 85 bc 86 1f ab bd e0 aa 31 be fe e9 96 bd
       -0.016262349 -0.08355622 -0.1735034 -0.07368849
000050 41 fc 20 be 85 82 3d 3e 5e fc 29 3d a9 72 cd bd
       -0.15721227 0.1850682 0.04150044 -0.10031635
000060 15 e4 49 be ae 2a fa 3b d2 ef f5 bc d1 fe 97 3c
       -0.19715913 0.0076344823 -0.030021582 0.018554123
000070 e0 31 c7 bd a5 46 c7 bd f6 c5 bc 3d fb c7 9b 3d
       -0.0972631 -0.09730271 0.092174456 0.076065026

conv2.weight f4 [16, 32, 5, 5]
000000 d0 34 1b be c5 84 84 bd 26 9f c4 3b 7f 16 cc bb
       -0.15156865 -0.06470636 0.0060004173 -0.0062282677
000010 1f 9e 80 bd e9 ca ca bc cb a5 99 bc 0b 72 38 3d
       -0.06280159 -0.024754958 -0.018755814 0.045030635
000020 14 7e 2d 3d 7c db c1 bb 07 e5 14 bd 57 6d a1 bc
       0.042356566 -0.005916057 -0.03635123 -0.019705458
000030 e4 fc a4 bc b0 99 b9 3d 25 56 98 3d 76 62 1b 3d
       -0.020140119 0.09062517 0.07438306 0.037935697
000040 b8 99 6b 3d de 6c e3 3d f2 36 79 3c b9 47 17 3e
       0.057519644 0.11104749 0.015210854 0.14773454
000050 58 23 d5 bc 4e 4d a5 3c 55 92 e3 3d 5b 35 70 3d
       -0.02601783 0.020178463 0.11111895 0.058644634
000060 96 5d df 3c 00 fe dd bb 05 e4 b8 3c 02 d1 2d 3d
       0.027266305 -0.006774664 0.022569666 0.042435654
000070 c1 8e 4b bd b1 2c 98 bd 25 dd 9a 3c cd 11 06 bb
       -0.049696688 -0.07430399 0.018904278 -0.0020457387
000080 5e b4 1a 3d d2 f3 ae bd 93 86 82 3c 6c 08 9a 3d
       0.037769668 -0.08542599 0.01593331 0.075211376
000090 8e 71 a0 3d f6 83 80 ba 66 04 7d bd 0f 6b 88 bd
       0.07834159 -0.0009804952 -0.061771773 -0.06661045
0000a0 0e 8d f9 3c 46 61 e3 3c 50 a0 ee bc 44 bd 88 3c
       0.030462768 0.027756345 -0.029129177 0.016691811
0000b0 c4 9e 33 bd 75 04 85 3d dc a5 6e 3d 56 f8 78 3b
       -0.043852583 0.06494991 0.058263645 0.0037989817
0000c0 bf a0 9d 3c d1 5a 49 bd ff 23 90 3c d9 cd 86 3d
       0.019241689 -0.049158875 0.01759529 0.06582231
0000d0 4a 74 3a 3d 42 36 26 3c 66 2e b4 bc 79 99 0a bd
       0.04552106 0.010144772 -0.02199478 -0.03383777
0000e0 25 14 18 bd f6 35 17 3c 37 ed 82 3d fc 66 0b bd
       -0.037128586 0.009229174 0.063929014 -0.03403376
0000f0 d6 42 bd 3c 2a 86 a2 b9 39 b9 91 3c 5d 50 16 bd
       0.023103159 -0.00030999008 0.017788516 -0.036697734
000100 f9 bf 7f 3c 54 cd ee 3c f4 1f a0 3c ab b7 fd bc
       0.015609735 0.029150642 0.019546486 -0.030971369
000110 cc d0 bc 3c 2a e3 47 bc 52 fc c5 3c ed 88 2b bc
       0.02304878 -0.012200156 0.024168167 -0.010469657
000120 1b 02 df 39 f4 6e 3a 3d b0 e5 58 3d 2e 81 91 bc
       0.00042535443 0.04551597 0.052953422 -0.017761793
000130 c4 23 de 3c c1 76 41 3b c7 04 54 bd 42 a8 9a bb
       0.027116664 0.0029520246 -0.05176237 -0.004719765
000140 77 31 06 bc 65 77 18 bd ef 6f 8d bd 78 c0 8b 3c
       -0.008190504 -0.03722324 -0.06906115 0.01705955
000150 12 80 a3 3d f1 d1 c6 bd 41 ea b3 bd 1e 7b 40 bd
       0.07983412 -0.09708012 -0.08784915 -0.046992414
000160 f0 a2 70 bd 67 3c 7b bc 21 79 27 3d 66 1b ad 3c
       -0.05874914 -0.015334225 0.040887002 0.021131229
000170 cb ec 1f 3c ca a9 9f 3c 34 13 ed 3d 5b 79 1f bd
       0.009761046 0.019490141 0.11575928 -0.038934093
000180 0f e7 78 3c c6 49 0a 3c 13 c9 a3 3d 68 09 e9 3d
       0.015191807 0.0084404405 0.07997336 0.11378747
000190 42 f5 84 bc df 7c a3 bc f1 74 5b 3d 08 77 7e 3b
       -0.01623023 -0.019957004 0.05357832 0.0038828272
0001a0 ba b5 69 bd 8c fd 89 3d 37 24 6c 3d 72 13 ee 3c
       -0.057058074 0.06737813 0.057651725 0.029062007
0001b0 2d 24 87 3d 7c b7 4f 3d 3f 70 2c 3d 6a 2e 06 3c
       0.06598697 0.050712094 0.042099234 0.008189777
0001c0 9b f0 04 3d aa 03 0e 3d 5d 92 e8 3c 04 c7 13 3d
       0.03245602 0.034671463 0.028390104 0.036078468
0001d0 42 ba d5 3d 13 cf ab 3c dc b3 36 ba ac 7a 3b 3c
       0.104359165 0.020972764 -0.000696955 0.0114428215
0001e0 7f 12 9f 3d 0b c8 ca 3d 45 00 39 3d 8c 13 e4 3d
       0.077672 0.099014364 0.045166273 0.11136541
0001f0 4b 78 c7 3d 5c de 11 3c af 22 39 bd 59 10 61 3d
       0.09739741 0.008903112 -0.045199092 0.05494723
000200 55 29 3b bd e0 0e 22 b9 d9 e0 11 3d ec 02 a1 bd
       -0.045693714 -0.00015455065 0.035614822 -0.078618854
000210 7b d6 7b 3d 3b 3f 31 3c 6b 8a e3 3c a8 78 7c bd
       0.06148384 0.010818298 0.027775964 -0.061638504
000220 be e5 06 3d 8d b2 27 3d e8 0a fb 3b c4 a7 23 3d
       0.032933943 0.040941764 0.0076612122 0.039954916
000230 1f 38 c1 bd be 9c d6 bd 73 5f 96 bd 64 04 af bd
       -0.094345324 -0.10479115 -0.07342424 -0.08545759
000240 f0 d3 54 3c f8 37 a9 bd b2 68 b1 3b 44 bb 6e bd
       0.012989983 -0.08262628 0.005414092 -0.05828406
000250 c0 e7 2a 3c 4a a0 4c bd 0b 51 ce 3c 60 92 a4 3c
       0.01043123 -0.04995755 0.025185129 0.020089328
000260 62 84 b6 bd 0c 79 68 3d 65 26 a4 bc aa 45 c0 bd
       -0.08911969 0.056756064 -0.02003784 -0.09388287
000270 6c f9 d9 3b d4 e0 85 bd f9 be 7c 3c 62 b5 94 3b
       0.006652048 -0.06537023 0.015426391 0.004538224
000280 17 d0 c5 3c 6a 13 ca bd 04 08 f6 bc 44 75 a3 3c
       0.024147077 -0.09866984 -0.030033119 0.019953378
000290 52 b9 b2 3d 24 42 24 bc ed 32 e4 3b 7e fa fa 3c
       0.08726753 -0.010025535 0.0069640786 0.030637022
0002a0 a5 dd 8f 3d b9 4b 61 3d 73 a9 98 3c 2c 2f e3 bc
       0.07024697 0.055003855 0.018635487 -0.027732454
0002b0 86 16 98 3d 75 7f 99 3d 3f 66 b3 3d 1a 6a 44 bd
       0.07426171 0.074950136 0.08759736 -0.04795275
0002c0 54 8a 1c bd 3f 66 fa bc 76 5e 56 bd 34 04 c3 3c
       -0.038217857 -0.030566333 -0.05233618 0.023805715
0002d0 0c fb 49 bd dd c5 3a bd 55 72 02 3b 2a 06 9f bd
       -0.049311683 -0.045598853 0.0019904573 -0.077648476
0002e0 77 65 ab bb 64 cb 65 bd b7 97 eb bc 84 b1 3d 3d
       -0.0052306014 -0.05610217 -0.028758867 0.04631187
0002f0 2c 60 c0 3b ed 6f 92 3c 23 e6 31 bc b7 40 73 bd
       0.0058708396 0.017875636 -0.0108580915 -0.05938789
000300 11 85 a1 3c a9 2f d9 bc 62 1b 63 bd c5 a1 d3 bc
       0.019716771 -0.026511984 -0.055446036 -0.025833974
000310 d6 12 1b bd 95 bb 54 bd 41 f1 01 ba 30 19 de 3c
       -0.03785976 -0.051936705 -0.0004956909 0.02711162
000320 1c 12 61 be 13 9a 4a be 30 d3 39 be 0f 16 c4 bd
       -0.21979564 -0.19785337 -0.18146968 -0.0957452
000330 b3 95 6f bd c0 05 bc bd 7e 99 f2 bd 80 47 64 be
       -0.058492374 -0.09180784 -0.118456826 -0.222929
000340 9a f3 1c be bd f3 2b bd 8b 29 65 be 71 1d 0d be
       -0.15327302 -0.041980494 -0.22379129 -0.13780762
000350 89 ba 1a be ca bc 0f be 31 c3 df bd 1a d7 05 be
       -0.1511022 -0.14036861 -0.10925902 -0.13070336
000360 0e a0 48 be 23 cb 0b be c0 df 20 be 82 29 33 be
       -0.19592306 -0.1365171 -0.15710354 -0.17496303
000370 83 a3 14 be f0 3b 08 be 6c f5 3c be 4a df e0 bd
       -0.145155 -0.13304114 -0.18452996 -0.10980089
000380 83 31 01 be 95 8f 28 bd f4 60 33 3d 24 8d 32 3b
       -0.12616543 -0.041152555 0.043793634 0.002724477
000390 0a ab df bd e4 c6 45 3d fd 41 1f 3d 9a 76 25 3d
       -0.10921295 0.04828538 0.03888129 0.04039631
0003a0 47 6c 01 bc d0 34 38 bd dc ee ff 3c df 0b 04 bd
       -0.0078993505 -0.04497224 0.031241827 -0.032237884
0003b0 f7 fc 9c 3b e0 69 10 3c 5d 7f 96 bd ba c5 68 3d
       0.004790898 0.008814305 -0.07348511 0.05682919
0003c0 34 25 8d 3d 75 9f 86 3d de d0 8c bc 5c fe 67 bd
       0.068918616 0.06573383 -0.01718944 -0.05663906
0003d0 08 61 8f bd 50 a1 ad 3d 73 1f 8f bb 23 ee dc bc
       -0.07000929 0.084780335 -0.0043677627 -0.026969021
0003e0 03 9e cc bd dc 48 9d bc 3e 20 11 3e c1 89 0c 3e
       -0.09991076 -0.019199781 0.14172456 0.13724424
0003f0 0a 32 e3 3d e1 17 07 3d 3f b5 e3 3d f5 78 d7 3d
       0.110935286 0.032981757 0.11118554 0.105211176

conv2.bias f4 [16]
000000 82 cc e1 3c 7b 07 b4 3d fa f6 f5 bc 15 6a 44 bd
       0.027563337 0.08790489 -0.030024994 -0.04795273
000010 11 7e 8f bc d1 f4 4f 3c 98 b8 41 3c 61 d3 9b 3d
       -0.017516168 0.012692646 0.011823796 0.07608677
000020 91 cc 8f 3d b6 1a 96 bd 80 12 80 3d e9 3b 55 bd
       0.0702144 -0.073293135 0.062535286 -0.052059088
000030 ed 45 7b bd 98 5f 7c 3c 87 e3 61 3d b3 3a 9e bc
       -0.061345983 0.015403651 0.055148628 -0.0193151

conv3.weight f4 [8, 16, 3, 3]
000000 9f 51 f3 bd 04 4d c3 3d 9f 12 88 bd 99 f0 be 3d
       -0.11880802 0.09536174 -0.06644177 0.09323234
000010 9f 2e 0d 3e a6 f8 70 3d a7 9e 46 3d 38 18 4a bd
       0.13787316 0.05883088 0.048491146 -0.049339503
000020 71 bc 03 3e 71 98 9e be 22 5a 0f bd 29 b0 f0 bd
       0.12864853 -0.3097568 -0.034998067 -0.1175235
000030 74 bd 76 be fd 0c f9 3d 77 da 9e bd 4c ab cd bd
       -0.24095708 0.121606804 -0.077565126 -0.10042438
000040 55 38 e5 3d 20 db 65 3e d8 12 07 3e 9a a2 a5 bd
       0.11192385 0.22446871 0.13190782 -0.080876544
000050 1b e7 4c 3d ed 8d 10 be 59 54 6c 3d 7b 70 89 bc
       0.050025087 -0.1411664 0.057697628 -0.016777268
000060 b8 c3 88 bd 72 f9 1b 3d 15 51 57 bd 5e ae fd 3d
       -0.066779554 0.038079686 -0.05256756 0.123867735
000070 51 d0 0c be 8e 6f 1d be fd 4e ab 3d c1 10 6d bd
       -0.13751341 -0.15374586 0.08364675 -0.057877306
000080 b5 61 c7 3d db de 17 be b0 50 38 bc 95 34 60 bc
       0.09735433 -0.14831106 -0.011249706 -0.0136844115
000090 91 68 23 3e d1 54 1b 3e 46 57 c0 3d 9f 0e b6 3c
       0.15957858 0.15169074 0.09391646 0.022223769
0000a0 35 80 2c 3e b9 69 23 bb 0f bb 93 3d f1 26 ed bd
       0.16845782 -0.0024934842 0.07213413 -0.11579693
0000b0 28 b6 e7 bd e0 b9 f7 bd 78 40 25 be d7 b4 03 be
       -0.113140404 -0.12096 -0.16137874 -0.12861954
0000c0 68 b4 b1 bc 1c 4d ac 3d 07 c2 35 bd 21 95 e9 3d
       -0.02169247 0.08413145 -0.044374492 0.11405397
0000d0 e9 1c fb bd ec d4 f8 3c bd f6 19 be c4 d6 c3 3d
       -0.122613735 0.030374967 -0.1503553 0.09562448
0000e0 f7 f5 a7 bd 99 5b 3f 3c 87 d4 93 3d ed 72 0d 3e
       -0.08201211 0.011679553 0.07218271 0.13813372
0000f0 5f 2f 4f bd 42 16 19 bd ca 97 fb 3d 71 a9 51 bd
       -0.050582286 -0.037374742 0.12284811 -0.051186983
000100 2c 73 1a 3c 7c b0 fe bd 3d 82 fc 3d f9 d4 f4 3c
       0.009426873 -0.124360055 0.123295285 0.02988671
000110 ed 09 67 3d 26 c0 44 3e 89 1b 4d 3e 47 ac 8d 3d
       0.05640595 0.19213924 0.20030035 0.06917625
000120 3f db 4c be e4 a3 84 be 9c 78 53 bd ac f0 0d 3d
       -0.20005511 -0.2590629 -0.051628694 0.03465335
000130 14 15 f9 3b 68 76 8e 3d ec e6 da 3d 81 ad 0b 3e
       0.0076013897 0.06956178 0.10688576 0.13640405
000140 82 e8 09 3e 9f 40 dc bd aa e5 dc 3d e3 c9 96 bd
       0.13467601 -0.10754513 0.107859924 -0.073627256
000150 ee bc 2a 3c 49 8c b8 3d 0a 7b 30 3e b4 b0 02 bb
       0.010421021 0.09011132 0.17234436 -0.001994175
000160 95 5b 92 bd 3b 4b d7 bd e6 95 8e bd 94 d2 00 3e
       -0.07146374 -0.10512396 -0.069621846 0.12580329
000170 72 b5 39 3e 3d f6 19 3d be e1 f3 bd 28 8c 3c 3e
       0.18135622 0.037588347 -0.11908291 0.1841284
000180 98 3e 68 be 30 b1 c4 3d a1 e6 9e bd 1f 60 45 3e
       -0.22680128 0.09604108 -0.07758833 0.19274949
000190 49 6e 8d bd 12 7e 3a 3e de a2 29 3e 7b 21 d3 3c
       -0.06905801 0.18212155 0.16566035 0.0257728
0001a0 ee 2d 44 bd 3a 25 06 be de eb 91 3d d3 39 bd bd
       -0.047895364 -0.13100138 0.07125066 -0.09239545
0001b0 5d 94 86 bd 99 c5 74 3d 98 4e 8e bd 26 09 04 bc
       -0.06571267 0.059758756 -0.06948584 -0.008058822
0001c0 fe f2 a0 bd 4c 0c d9 3d 83 34 f5 3d fb b6 5d 3d
       -0.07858847 0.105980486 0.119729064 0.054129582
0001d0 aa f7 8b 3c f4 c9 1c 3e 33 6e a3 3d 9b dc ed bd
       0.017085869 0.15311414 0.07980003 -0.11614343
0001e0 87 8f 4d bd 68 34 ed 3d b5 06 38 3d 03 e3 35 bd
       -0.050185706 0.11582261 0.04492827 -0.04440595
0001f0 f5 90 b7 bd 9e 94 4f bd c3 28 98 3d 62 b4 68 3d
       -0.08963195 -0.05067884 0.0742965 0.05681265
000200 dc b9 db 3d 1f c0 b6 3d 3f 59 97 bd 36 48 99 3d
       0.10728809 0.08923363 -0.07390069 0.07484476
000210 9b eb ff bc 64 e1 21 be a0 43 41 3d 68 40 1e be
       -0.031240275 -0.15808636 0.047183633 -0.15454257
000220 96 ee f9 3b 00 cf ac 3c 09 f1 1f 3e 2d ec 38 3d
       0.0076273186 0.021094799 0.15619291 0.04514711
000230 62 a6 54 be df cf 32 3d ce 7b 37 3e 77 1a 16 3e
       -0.20766595 0.043655273 0.17918321 0.14658533
000240 f2 6f 12 be a8 59 12 be 2c 54 5f 3d 67 40 9e bc
       -0.14300516 -0.14292014 0.054523632 -0.019317819
000250 60 91 98 bd 5c 2c 82 3d 2f 7d 83 3e f7 61 28 3e
       -0.07449603 0.06356117 0.25681445 0.1644362
000260 d9 7f de bd c7 5d 9c bd af ea b4 3c f6 ec 3b 3e
       -0.10864229 -0.07635074 0.022084562 0.18352112
000270 c6 c9 ae bd ca 23 81 be f7 4c 31 3d 23 fb 3d bc
       -0.08534579 -0.25222617 0.04328629 -0.01159552
000280 f1 24 0d be 91 35 30 bc c8 28 fe bc 6d b7 b8 3d
       -0.13783623 -0.010754959 -0.031025305 0.09019361
000290 a1 8d 13 be cf 31 25 be a7 06 46 3c 12 4f e8 3c
       -0.14409496 -0.16132282 0.012086547 0.028358016
0002a0 c4 85 8d 3d b6 19 4c bc bc 19 db bd b2 1c 8f bc
       0.069102794 -0.012457302 -0.10698268 -0.017469738
0002b0 fb df 35 3d 16 55 77 3c 0a 70 76 bd 48 1c 1c be
       0.044403058 0.01509597 -0.060165443 -0.15245163
0002c0 96 3a 23 bd 04 61 0b be d7 02 f0 bc 60 99 c7 3d
       -0.039850794 -0.13611227 -0.02929823 0.09746051
0002d0 bd f4 f8 3d 97 1c e3 3d d5 77 fd 3d 51 f7 e4 bd
       0.12156055 0.110894375 0.12376372 -0.11179984
0002e0 6c bb 1e be 72 05 be bd 8d c3 2c be c6 e7 d4 bd
       -0.15501183 -0.09278382 -0.16871472 -0.1039577
0002f0 d8 98 16 3d 19 8e 18 3e 47 9c 19 be d6 d5 0e be
       0.036766857 0.14897956 -0.15001021 -0.1394876
000300 fc ae 76 3d c5 fc 05 3e 5b 1c 5d bd 3c 21 cb bd
       0.06022547 0.13084705 -0.05398212 -0.09918448
000310 eb 98 d1 bc ec b3 dd 3d b0 93 18 bd b4 79 2e be
       -0.025585612 0.10825333 -0.03725022 -0.17038614
000320 27 9c e0 3d 51 c0 94 3d c8 8a 32 bc 2e e9 99 bb
       0.10967284 0.07263244 -0.010897346 -0.0046969866
000330 80 66 12 be 29 71 14 3e 07 d2 12 be f3 b9 ac 3d
       -0.14296913 0.14496292 -0.14337932 0.084339045
000340 d7 d0 76 3d b4 69 77 3d ae d0 48 be ff 7a a9 bd
       0.06025776 0.06040354 -0.19610855 -0.08275413
000350 b5 0e 77 bd d3 2c f9 bd f8 ff e6 bd 2f c9 d8 bd
       -0.06031676 -0.12166753 -0.11279291 -0.10585248
000360 8e ce 9e bd c0 cb c8 3d 84 9f f0 3d de f3 22 be
       -0.07754241 0.09804487 0.11749175 -0.1591334
000370 c0 b8 ac 3d 5e d4 05 bd 39 bf c0 bd c9 00 22 3e
       0.08433676 -0.032673232 -0.09411473 0.15820612
000380 c9 76 f3 3d 8e da 30 bd fd 13 0c 3e b7 91 bd bd
       0.11887891 -0.04317718 0.136795 -0.092563085
000390 b5 e8 f5 ba 1c d3 1c 3d f5 36 02 bd c1 1b c5 3d
       -0.0018761369 0.038287267 -0.031790692 0.09624434
0003a0 11 c9 da 3d bf 91 b5 bd 3b d8 59 3c 17 0e 0f be
       0.106828816 -0.088656895 0.013296182 -0.13970219
0003b0 0d 6c 2f be 02 6c 42 3e d3 f6 0e 3c a4 65 02 be
       -0.17131062 0.18986514 0.00872584 -0.12734085
0003c0 dc 11 50 3e 05 93 de 3d 9c 49 61 3c 54 d3 ea 3c
       0.20319313 0.108678855 0.01375046 0.028665222
0003d0 cc 1d 26 bc 17 dd 83 bd 77 6a f4 3d 0d 48 dd 3d
       -0.01013894 -0.06438654 0.11934369 0.10804758
0003e0 05 92 7c bd 1c a3 cb 3d 9a 9f 2a 3a de 60 47 be
       -0.061662693 0.0994322 0.0006508768 -0.19470546
0003f0 e5 85 d3 3d 27 ee 04 be 98 49 87 3d 10 c2 d6 3d
       0.10328273 -0.12981473 0.06605834 0.10486233

conv3.bias f4 [8]
000000 a6 d5 87 3c 07 80 27 be 26 f6 d2 bc d3 72 98 3d
       0.016581368 -0.16357432 -0.025752138 0.07443776
000010 e0 2b d9 3d 9a 75 28 3d 9c f4 ff 3d db 33 ed 3d
       0.106040716 0.04112778 0.124978274 0.11582156

convt1.weight f4 [8, 8, 3, 3]
000000 ff e6 65 bc a3 39 f7 3d de 76 f5 3d e3 05 7c bc
       -0.014032125 0.1207154 0.11985563 -0.015382263
000010 aa fd 05 be 58 e8 55 3d 83 c6 b6 3d e9 ec 82 bd
       -0.13085046 0.052223533 0.08924582 -0.06392843
000020 dd 9b 19 3e 8b 43 29 be 4f 77 38 be c8 dc 12 be
       0.15000863 -0.16529672 -0.18014263 -0.14342034
000030 8c fd 9b be 32 b7 83 bd 9c 20 97 3d 73 50 3c 3e
       -0.30466878 -0.06431426 0.073792666 0.18390064
000040 22 16 e4 bc cb e3 dd bd ee 18 25 be 2a 3f df bd
       -0.027842585 -0.10834464 -0.16122791 -0.109007195
000050 81 b3 40 bd d3 de 2e bd 68 9d b6 3d 06 ce ab 3d
       -0.04704619 -0.04269297 0.089167416 0.08388905
000060 8e 77 7a 3e 49 a7 1a 3e 14 ea 56 3e d5 fc e9 3b
       0.24459669 0.15102877 0.20987731 0.0071407356
000070 3c bb fa 3d ac b1 a1 bd fc 6c 7c be 0c 2d ea 3d
       0.122427434 -0.07895216 -0.24650949 0.11434373
000080 d3 c3 ae be b8 9d 5e be 11 74 89 be 6a fb 18 3c
       -0.34133777 -0.21739852 -0.26846364 0.0093372855
000090 be ed 24 3e b4 81 7e bd 9d d4 77 3e 5b 3b fb 3d
       0.16106316 -0.062135413 0.242022 0.122671805
0000a0 fd 83 6d be e5 de dc 3d 4a 4f 95 3d fc 07 41 3e
       -0.23194881 0.10784701 0.07290514 0.18850702
0000b0 b3 7a 30 3e 59 6e a0 3d 20 39 0b 3e 76 14 ec 3c
       0.17234306 0.07833547 0.1359601 0.02881835
0000c0 6c 6a 2f be 1d 01 78 3d 7a ab 5a be a6 6a 06 be
       -0.1713044 0.060547937 -0.21354476 -0.1312662
0000d0 97 7a 5f be 4f 3a 37 be 23 c2 5e 3d b6 60 d4 3c
       -0.21824108 -0.17893337 0.054384362 0.025925022
0000e0 48 5a 48 3e 4b 92 c6 bb 3c c9 2d 3e 65 cd 21 be
       0.1956569 -0.00605992 0.16971296 -0.15801008
0000f0 a3 83 bb 3d 22 ca 32 3b ca fa d4 bd c9 11 9b 3c
       0.09155967 0.0027281125 -0.10399397 0.018929379
000100 bf 7c 87 3e 7c ff cc 3c 8a 59 f0 3d a5 92 d7 3d
       0.2646236 0.025024168 0.11735828 0.10526017
000110 6b 5b 6e 3d 2f 85 10 3d 14 ae ed bc f1 dd 9a be
       0.05819265 0.035283264 -0.029013671 -0.30247453
000120 ed d9 41 3e 4a d9 fd bc 6d 48 21 be 01 e8 f0 bd
       0.18930788 -0.0309874 -0.15750284 -0.11763001
000130 19 2f 32 3e 15 7c 30 be df 27 8b be 3b 04 1a be
       0.17400779 -0.17234834 -0.27178857 -0.15040676
000140 30 20 30 be d8 3b 80 3c 3e 35 b2 be 21 70 2f 3e
       -0.17199779 0.015653536 -0.34806246 0.17132618
000150 99 88 4d 3b 22 24 92 bb bf ee f2 3d 1e f2 af 3d
       0.0031361936 -0.004459874 0.118619435 0.08591102
000160 be 83 ba 3d b8 bf 57 be 06 b5 c5 3d 04 be 72 3d
       0.09107159 -0.21069229 0.09653668 0.059263244
000170 17 0c 29 bd 18 05 10 3d f2 4c 85 be c9 eb 6e 3e
       -0.041271295 0.035161108 -0.26035267 0.23332132
000180 ef d2 f1 3c c5 a1 37 be ff 56 49 3e 3c 66 96 be
       0.029519526 -0.17932804 0.19662093 -0.29374874
000190 4e 5e ab bd c8 bb c4 3d 4d 88 4e 3e 80 0c c0 bc
       -0.083675966 0.09606129 0.20169182 -0.02344346
0001a0 fe 74 8c 3d a0 5a aa be 62 f5 9d be 9f a9 b8 be
       0.06858252 -0.33272266 -0.30851275 -0.3606691
0001b0 29 7f db bc f5 80 df 3e 20 17 ed 3d 07 6a 4c 3e
       -0.026794033 0.43653074 0.11576676 0.19962321
0001c0 39 52 56 be 3d 09 8a 3e 18 ba c9 bd ac 65 3c bd
       -0.20929803 0.26960173 -0.09849948 -0.0459954
0001d0 a2 8a b3 3d 66 e3 fb 3b bf db d3 bd 7b 17 50 3d
       0.087666765 0.00768702 -0.103446476 0.050803643
0001e0 af 2e 0a bf 15 75 3b bd 7c c6 6b bd e7 fd b8 be
       -0.53977484 -0.045765955 -0.057562336 -0.36131212
0001f0 67 d2 c8 bd 13 14 c9 bd bc a5 95 3e eb 52 98 3e
       -0.09805756 -0.09818282 0.29228008 0.2975076
000200 2a 18 5a 3e 6a 2f cb 3d d9 d1 b4 be 52 da 7b 3e
       0.2129828 0.09921153 -0.3531635 0.24595001
000210 3c e0 4e 3d 4a 1f 31 3d 54 17 64 bd 44 f8 f0 bd
       0.050506815 0.04324273 -0.05568631 -0.11766103
000220 f0 29 71 3a b9 cf 89 be aa 5f dc bd c0 0f 0f 3e
       0.00091996696 -0.26916292 -0.10760434 0.13970852
000230 92 e5 20 3d e4 80 a1 bd e2 18 15 bd 8c 27 1e 3d
       0.039281435 -0.07885912 -0.036400683 0.038611934
000240 53 53 f5 bd 0c a0 14 be 14 ea ef bd 8b 07 d1 3d
       -0.119787835 -0.14514178 -0.11714569 0.10206517
000250 53 14 0d 3e 11 e6 1b be 58 d5 dc bd c7 d0 26 3e
       0.13777284 -0.15224482 -0.107828796 0.1629058
000260 a8 10 04 bb 7f d9 82 bb cb 36 fb 3d 5e aa 1f 3e
       -0.002015153 -0.0039932127 0.1226631 0.15592334
000270 d1 84 22 3e a0 ff 37 be 9d c7 00 3e 98 86 c0 bd
       0.15870978 -0.17968607 0.12576146 -0.09400672
000280 b9 c1 e1 bd b2 94 f0 bc 5d 26 6f bd 93 78 ae bd
       -0.11023278 -0.029367778 -0.058386195 -0.085190915
000290 b5 64 25 3e 4e e1 58 bd 7d 5c 31 3e b1 49 a9 bd
       0.16151698 -0.052949242 0.17320438 -0.08266009
0002a0 7a 17 34 3e c7 b7 82 3d 2b f7 dc bd f2 77 f7 bd
       0.1758708 0.06382709 -0.10789331 -0.12083425
0002b0 dd e6 c1 3d 8f f0 51 be 86 f7 ca bd 9a 2c 43 be
       0.09467862 -0.20501922 -0.099104926 -0.19059983
0002c0 e7 a6 8b 3d e3 5e 06 3e 86 a5 13 be fb 75 b5 bd
       0.068189435 0.13122134 -0.14418611 -0.088603936
0002d0 a4 75 f6 3d a3 04 8b 3b bb 39 c8 3d 43 8a 3d 3a
       0.12034157 0.004242496 0.09776636 0.00072303804
0002e0 68 bd eb bd 35 b4 53 bd 26 d8 fd 3d 8a d4 b8 3d
       -0.11510736 -0.05168553 0.12394743 0.090249136
0002f0 b5 05 b4 bc 28 1f b4 3d 52 e8 b1 3d 4b 7b 18 3e
       -0.021975378 0.08795005 0.0868689 0.14890783
000300 98 32 c8 bd 85 0a 67 bd 94 e9 83 bc ff f3 09 3e
       -0.09775275 -0.056406517 -0.01610259 0.13471983
000310 67 22 10 be de 77 4c bb 79 a5 e2 bd c7 db de bd
       -0.14075623 -0.0031199376 -0.11066718 -0.10881763
000320 51 a4 8f bd b4 c4 28 3e 41 b0 59 3d a9 e7 50 bb
       -0.07013763 0.16481286 0.053146604 -0.0031876361
000330 f4 78 ee 3d 72 2f 79 bd 1c f8 2e 3e 6d 0b ab 3d
       0.11644164 -0.060836263 0.17086834 0.08351789
000340 62 a7 6f 3c 58 d5 bc bc 2c 6b 61 3d ef a6 50 3e
       0.0146273095 -0.023050949 0.055033848 0.2037618
000350 2f e0 34 be 21 50 08 be 09 df ea bd 0c f8 fc bd
       -0.17663644 -0.13311817 -0.11468322 -0.12351999
000360 75 d7 73 3e 12 ff 6e be fd 7d 00 bd 86 81 74 be
       0.23812659 -0.23339489 -0.03137015 -0.23877534
000370 7d bf ea be d6 01 67 be df 47 7e 3e e6 ee 46 be
       -0.4584922 -0.22559294 0.24832104 -0.1942707
000380 2c 84 c4 bd 40 fc 10 be 05 e6 1c be 15 85 9a 3b
       -0.09595522 -0.14158726 -0.1532212 0.0047155716
000390 86 08 95 bb e1 70 53 bc 71 42 28 3e a0 ab 0f be
       -0.004548135 -0.01290533 0.16431595 -0.14030313
0003a0 72 00 24 3d b4 d7 06 3e 5d 6b 67 3d d0 00 3f 3e
       0.040039487 0.13168222 0.056498874 0.18652654
0003b0 28 2b 4a bd 96 1a d7 3d 17 e8 1a bb 55 13 47 be
       -0.049357563 0.10503118 -0.0023636871 -0.19440968
0003c0 89 0e 14 3e 51 79 fe bb 5c de 4b 3e 99 47 31 bd
       0.1445867 -0.007765927 0.19909042 -0.04328117
0003d0 96 aa 07 bc d8 05 d8 bd 34 71 ca be 09 46 0e 3e
       -0.008280417 -0.105479896 -0.39539492 0.13893904
0003e0 17 32 45 be dd 9b 17 bd 1a ff d0 bd d1 88 01 3d
       -0.19257389 -0.037013877 -0.10204907 0.03162462
0003f0 32 44 3d 3c 5b e1 26 3d e3 e3 4c 3e c0 6c 1a be
       0.011551904 0.04074226 0.20008807 -0.15080547

convt1.bias f4 [8]
000000 1d 59 ec ba 15 44 d8 3d 38 a9 7b bc 07 da ac bb
       -0.0018031929 0.105598606 -0.015360169 -0.0052750143
000010 d8 f9 bf bc 90 ab 25 3d 50 94 14 bb 7e 96 c6 bd
       -0.023434564 0.040446818 -0.002267141 -0.09696673

convt2.weight f4 [8, 16, 5, 5]
000000 db 8b 3e be bf 4c 89 bd 10 9f 62 be b1 83 84 bd
       -0.18608038 -0.06704091 -0.2213099 -0.06470431
000010 1a 67 0f be c2 72 02 be 3e f2 69 3c ec e6 6c bf
       -0.14004174 -0.12739089 0.014278946 -0.9253986
000020 17 43 d6 bd 97 d6 2d be 44 22 19 bb f2 e4 5a 3c
       -0.10462015 -0.16976391 -0.0023366371 0.013360249
000030 d0 8b c2 bb ab f3 ec bc 23 fd 00 be c4 9e 85 bd
       -0.005937077 -0.028924784 -0.12596564 -0.06524423
000040 da a5 27 bb 61 ee 0c bd fc 9e 0d 3d 7e 41 94 3c
       -0.0025581033 -0.034407023 0.034575447 0.018097635
000050 42 1e db bd b0 f3 2a be 8c 6e a1 be df 60 c4 bd
       -0.106991306 -0.16694522 -0.31529653 -0.09588789
000060 98 77 a4 bc 1f 2a 66 be 78 03 d1 bc ee 6d 9d be
       -0.020076558 -0.22477005 -0.02551435 -0.30747932
000070 02 e0 bd be 29 7d 34 be 2d 3d 5d be 45 55 d0 be
       -0.37084967 -0.1762587 -0.21605368 -0.40690055
000080 c9 49 71 be 5f 9d 21 be 32 43 12 be 81 91 76 be
       -0.23563303 -0.15782689 -0.14283445 -0.24078943
000090 57 30 43 be 41 8c 4e be 52 8d 83 bd b1 95 e9 bc
       -0.19061409 -0.2017069 -0.06423439 -0.028513761
0000a0 97 48 3a be c2 8e 5e be 35 f3 5a be 30 4d 28 be
       -0.18191753 -0.21734145 -0.21381839 -0.16435695
0000b0 15 e8 42 be cd 96 71 be 69 0e ee bd f7 d9 37 bd
       -0.19033845 -0.23592682 -0.11623842 -0.0448856
0000c0 20 9f 43 be e6 5c f9 bd 00 c9 51 3e b4 e7 30 3c
       -0.1910367 -0.12175922 0.20486832 0.01079743
0000d0 eb cd 02 3d 30 1d 15 3e 3d bf f2 bd 21 4a 2f 3e
       0.03193466 0.14561915 -0.11852882 0.17118122
0000e0 87 86 ce 3d 1d e7 27 3d 55 81 e6 3b 45 0b ce bd
       0.10084253 0.04099189 0.0070344605 -0.10060743
0000f0 75 98 20 3e cb b2 2f bd 27 43 8d 3d ea 7b 62 3e
       0.15683158 -0.04289512 0.06897574 0.22117582
000100 2d 0f e1 3b d0 a0 92 3e 58 a8 94 3d 4d 65 bb bc
       0.006868264 0.28638315 0.072586715 -0.022875452
000110 c9 42 14 3e c5 58 88 be de b8 0c be e2 89 ca bb
       0.14478602 -0.26630226 -0.13742396 -0.0061809877
000120 d7 7f df bb 13 d3 03 3e 57 a6 37 be 01 03 63 3e
       -0.0068206596 0.12873487 -0.17934547 0.22169115
000130 be 5d 27 bd 0d 1b a7 3c 0a 2a fe be c3 7e 1d bd
       -0.040860884 0.020398641 -0.49641448 -0.038450968
000140 49 55 e1 3d 88 1d 58 bf 7f 15 35 3c b7 9f 81 be
       0.11002595 -0.8442006 0.011052488 -0.25317165
000150 86 44 09 3e 6d ef 80 bd 16 d1 51 3d 4a 21 49 be
       0.13405046 -0.06295667 0.05122479 -0.19641605
000160 49 9c 3a be 89 f9 32 be 96 dc ae bd 27 6f 41 be
       -0.1822368 -0.17478003 -0.08538167 -0.18890058
000170 9e b4 a5 be cf 84 15 3e ad 05 6e be fb 9c 1d bb
       -0.32364362 0.14601444 -0.23244353 -0.0024049866
000180 f0 ad 57 3d e7 16 20 be 2d 83 9e be 7d b6 8b bc
       0.052656114 -0.15633737 -0.30959454 -0.01705479
000190 71 eb d8 bd a7 3b 0c bc 9a 75 73 be 19 40 7e bb
       -0.10591782 -0.008559144 -0.2377533 -0.003879553
0001a0 dc dc 07 be d4 89 4c be 88 71 1a be 5e 30 3e be
       -0.13267845 -0.19974452 -0.15082371 -0.18573138
0001b0 7a 1c a4 bc 77 6b 9d be 11 5f 2e be f8 a3 cc bd
       -0.02003311 -0.30746052 -0.17028452 -0.09992212
0001c0 bd 32 4a bd 22 0c dc bd 31 db 9f be 51 42 df bd
       -0.049364794 -0.10744502 -0.31221917 -0.10901321
0001d0 ea 92 20 3c 8b f8 9a bd a3 c8 1d bd e4 38 85 bd
       0.009800652 -0.07566937 -0.03852142 -0.06504992
0001e0 15 81 81 be 4a f4 99 bd 35 01 c4 be 2b 3d 3b be
       -0.25293794 -0.075172976 -0.3828217 -0.18285052
0001f0 45 46 52 be 33 fd b9 3e ec ad 9f 3d 49 8a 25 3d
       -0.20534618 0.36325988 0.07796845 0.040415082
000200 69 bc 93 3d e8 b1 25 be be 1b 30 3e ab 90 ac 3d
       0.07213671 -0.16181147 0.17198083 0.08426031
000210 cf 11 7f 3c 8d 41 d4 bc 7b 7d aa 3d ee be 26 3d
       0.015568211 -0.025910163 0.08324715 0.04070943
000220 8e ca b3 3c e9 82 58 bb 56 4c 30 bd 83 5f 3f 3d
       0.021947172 -0.0033037013 -0.04304155 0.046721946
000230 0f f8 4e 3b bd dd 2c bc a4 a9 0a 3d 5f 88 dd bc
       0.003158096 -0.010550913 0.03385319 -0.027042566
000240 ea c5 00 bd 85 d4 93 3e a9 c1 0d 3e ef 5e 01 bd
       -0.031438746 0.28873077 0.13843407 -0.031584676
000250 35 f4 02 3e bd 97 3c bf 16 78 34 be 80 d4 df bd
       0.1278847 -0.73669034 -0.17623934 -0.10929203
000260 f3 eb 2c bd 86 37 a8 be e0 b9 9d bd 8c f7 b8 be
       -0.042217206 -0.3285486 -0.077014685 -0.36126363
000270 21 d0 a6 be a4 7c 18 be 31 c9 ee be b4 fa 3d be
       -0.32580665 -0.14891297 -0.46637872 -0.18552667
000280 0e 75 3d be 66 54 99 bd 85 64 0b 3d e0 a0 bc be
       -0.18501684 -0.07486801 0.03403141 -0.36841488
000290 99 c0 8f bd fb 89 ae be 25 7d 56 bc b7 19 8f bd
       -0.07019157 -0.34089646 -0.01309136 -0.069873266
0002a0 2d af 75 be fc fd 66 be 38 c8 97 be 0a 26 4d be
       -0.23992606 -0.22557825 -0.29644942 -0.20034042
0002b0 6a d7 d4 bc 1c 64 3e 3d 4c c7 ab bd cf 13 7b 3e
       -0.025981624 0.04648219 -0.08387622 0.24519275
0002c0 df f1 35 be 6f b0 bb 3e 30 6b b9 3e 81 ac 9e 3e
       -0.17768048 0.36658046 0.3621459 0.30990985
0002d0 cf 38 78 be ff 8f 44 be 6e dd e2 be 40 53 1c be
       -0.24240421 -0.19195555 -0.44309562 -0.15266132
0002e0 b4 89 e8 be bf e9 1d 3e 06 dc 51 3e 9f a3 9a 3e
       -0.4541756 0.15421198 0.20494089 0.30202958
0002f0 3c aa 77 be 5b 0a 6f 3e 06 4e c7 3c 58 a5 3d bd
       -0.24186033 0.23343794 0.024329197 -0.046300262
000300 84 8d a4 be b5 42 a5 bd 7a 6a ac bc 79 2b 27 3e
       -0.32139218 -0.08069364 -0.021046866 0.16325177
000310 a1 42 55 3c f4 d5 c3 3e 6d 9a 11 3d bc b3 0c 3e
       0.013016374 0.3824917 0.035547663 0.13740438
000320 94 a1 07 bd 70 9b 94 bd 55 7b 08 be 95 60 a0 be
       -0.033113077 -0.0725621 -0.13328297 -0.31323686
000330 02 8b 49 bd 01 81 a2 bc 01 08 8e be 06 32 2a 3d
       -0.049204834 -0.019836904 -0.27740481 0.041551612
000340 76 f3 45 bd 66 5c 87 3d 0e 6f 80 3d 0a 97 96 be
       -0.048327886 0.066094205 0.06271182 -0.2941211
000350 9c ef 89 bc 70 d5 34 3e 76 80 0d bd a6 27 42 3b
       -0.016837887 0.17659545 -0.034546338 0.0029625683
000360 77 3f 50 bd fe 3f 3e bd 33 6d 45 be 5b e3 99 3c
       -0.050841775 -0.046447746 -0.19279937 0.01878517
000370 b3 3a 01 3e cf 49 73 bc c2 4b 83 3e 2e 4f 35 3d
       0.12620048 -0.01484914 0.25643736 0.044264965
000380 86 46 74 bd c1 4c d6 bb 8c 69 2f 3e 2f 89 26 3d
       -0.05963757 -0.0065399115 0.17130107 0.040658172
000390 e5 35 4b bc d6 35 c0 bc 96 f5 f0 3c 8f f1 00 bf
       -0.012402986 -0.023463171 0.02941398 -0.5036859
0003a0 0c 24 cf 3d 4a af 19 be 93 22 8a 3d 53 65 4f bd
       0.10114297 -0.15008274 0.06744876 -0.05063374
0003b0 3d f9 67 bd 24 77 84 be 51 56 aa bd a8 91 89 be
       -0.056634177 -0.25872147 -0.08317245 -0.2686894
0003c0 2e 62 56 3d 24 1a 1f 3e 25 37 05 bb 15 99 99 bd
       0.052339725 0.15537316 -0.0020327058 -0.07499901
0003d0 ee 26 c4 bd 9f 48 b7 bc 64 e0 31 bd 1e 53 f0 3d
       -0.09577738 -0.022373496 -0.043426886 0.11734603
0003e0 78 ed 4a be 61 d3 45 bd 1e e3 4e 3d a8 d7 d7 3c
       -0.1981715 -0.04829729 0.050509565 0.02634795
0003f0 0c e7 12 be aa e1 a5 bd 18 c3 0b be 11 e0 c7 bc
       -0.1434595 -0.08099683 -0.13648641 -0.024398835

convt2.bias f4 [16]
000000 80 60 85 3d 54 97 ac 3d 20 fc 22 bb 24 8c e7 3c
       0.065125465 0.08427301 -0.0024869516 0.028265066
000010 ab 64 58 3d 30 f0 4a 3d 45 68 97 3d 13 15 7a bc
       0.05283038 0.049545467 0.07392935 -0.015263814
000020 6b ed 37 3d 85 28 8e 3d fe d0 83 3c 7a 57 9b 3d
       0.044904154 0.06941322 0.016090866 0.07585044
000030 5c 58 51 3d c7 f7 8d 3d 43 a1 b3 3c f6 cb dc 3c
       0.051109657 0.069320254 0.021927482 0.026952725

convt3.weight f4 [16, 32, 9, 9]
000000 e9 2a a3 bb 24 16 51 3c 70 35 95 3c d0 b5 e4 bc
       -0.0049794805 0.012761626 0.018213958 -0.027918726
000010 ce 99 99 bb 02 08 65 bd 9f ed f8 bc da c8 4e bd
       -0.0046875244 -0.05591584 -0.030386744 -0.050484516
000020 32 dc 30 bd 3a 0d 70 3b a0 c4 c8 3b 31 af 25 3d
       -0.043178745 0.0036628977 0.006126955 0.04045028
000030 91 01 b1 bb 8c b7 74 3c 4a 3c 66 bc c6 ea c8 3c
       -0.005401798 0.014936339 -0.01405246 0.024526011
000040 b4 e8 de 3c 76 18 19 3d 00 66 03 3d a7 5a d7 3c
       0.02721057 0.037376843 0.032079697 0.026288344
000050 e9 f7 bd 3d 21 39 0e 3d fd 22 44 3d 47 3a b4 3c
       0.09275801 0.03472245 0.04788493 0.022000445
000060 90 18 f8 3c 0c d2 09 3d 61 69 fd bc 7a 04 3c 3b
       0.03028515 0.033647582 -0.030934038 0.0028689192
000070 c4 23 6e 3c 45 6a 1c bc fe 6b bf 3c 68 96 34 bc
       0.014534894 -0.009546821 0.023366924 -0.011022188
000080 93 e9 d3 3c 64 92 a9 3c 23 5c a6 bb 0c e2 94 bd
       0.025868213 0.020699687 -0.0050769015 -0.072696775
000090 4e 99 c1 3b 6a 50 a3 3c c6 f3 16 3d 2e f9 d3 3c
       0.005908168 0.019935805 0.036853574 0.025875654
0000a0 f1 ee 03 3c 34 35 b5 3c d6 5c b0 bc c7 4a 8c bc
       0.008052574 0.022120096 -0.021528643 -0.0171255
0000b0 ec c2 0b 3d c4 5f 42 bb 11 90 7e 3d fb bb 91 3d
       0.03412144 -0.0029659132 0.06214911 0.071159326
0000c0 c5 eb c4 3c 6c 11 b5 3c 1a ce af 3c 33 b1 3b 3c
       0.024038205 0.022103034 0.021460582 0.011455822
0000d0 36 5a 2b 3d 67 54 66 bd 14 7b 19 bb 0f d4 30 3b
       0.04183408 -0.056232836 -0.0023419308 0.0026981866
0000e0 90 e9 66 ba 3c 57 1a bb 66 cc dc 3c 01 1a 52 3d
       -0.0008808607 -0.002355053 0.026952934 0.05129433
0000f0 c9 6b ac 3c 4a d3 08 3d 5a b8 8c bc 31 0f 34 bd
       0.02104749 0.033404626 -0.01717775 -0.0439598
000100 6e ba f0 3c 38 28 f1 bb f3 6e fe bc b3 02 a1 3c
       0.029385772 -0.007359531 -0.031058764 0.019654607
000110 33 e4 10 bc 0d e1 b1 bc 78 e9 aa ba 06 e6 54 bc
       -0.008843469 -0.021713758 -0.001303955 -0.012994295
000120 f4 64 43 3d 02 f5 44 3c 2b 89 81 3d c4 9a 83 3d
       0.0477037 0.012021305 0.06324991 0.064260036
000130 e7 8c 83 3d 75 91 5f 3d c1 0f 4c 3d e9 40 67 3c
       0.06423359 0.054582078 0.04981971 0.014114597
000140 05 c5 ce 3b fa 9e 27 3a 16 a7 0a 3d c6 29 18 bd
       0.0063101077 0.0006394234 0.03385075 -0.037149213
000150 b1 ad a4 bb 15 5e dd 3c b9 97 3b bd 33 d2 33 3c
       -0.0050255884 0.0270224 -0.04579899 0.010975408
000160 71 94 11 3c 71 5d fb bc de bb 65 bc 89 5a e8 3c
       0.008885489 -0.030684205 -0.014021842 0.028363483
000170 69 b7 df 3b 2e 89 5a 3d a9 eb a6 3c f7 f3 18 bd
       0.006827284 0.05335348 0.020376043 -0.037342038
000180 6e 58 e8 3c 65 34 97 3d 93 82 0e 3b f3 c4 44 3d
       0.028362479 0.0738304 0.0021745309 0.048039388
000190 8d ee 46 bd 77 87 66 3d c6 58 c3 3c f4 86 85 bd
       -0.048567344 0.056281533 0.023846041 -0.06519881
0001a0 0c 51 82 3c 25 ed 86 3c ee 53 83 bd 3e 5e ea 3c
       0.015907787 0.016470501 -0.06412493 0.028609391
0001b0 2b 3e 94 bc db 12 ed 3b 5f 19 24 bc 0b 9a 58 3a
       -0.01809605 0.0072349138 -0.010015815 0.00082627
0001c0 81 f1 30 3d 88 3f 8e 3c bc 92 13 bc ca e4 75 3b
       0.043199066 0.017364278 -0.009007152 0.0037520402
0001d0 25 fc 57 bc 52 65 82 3d 82 fd 1a 3d 75 de 3c bd
       -0.013182675 0.063669816 0.03783942 -0.04611059
0001e0 ed a8 3a 3d 9d b6 b5 ba 6b 3c 27 bd 77 72 d6 bb
       0.045571256 -0.0013863627 -0.040829103 -0.006544407
0001f0 dc cd 0e 3e 2f 67 bd bc e1 aa 0a 3d 9e c9 83 bd
       0.13945717 -0.02312049 0.03385437 -0.0643494
000200 c0 4d ac 3c 31 49 87 3d 6b ea d1 bc 67 1f 07 3d
       0.021033168 0.06605757 -0.025624475 0.032988932
000210 77 af 0b bc 53 05 00 bd b0 1b 25 3c 80 6b 65 3b
       -0.008525721 -0.031255078 0.010077402 0.0035006702
000220 68 e8 14 3d 8b 61 b8 bc a3 c6 81 bc 13 27 1c 3d
       0.036354452 -0.02250745 -0.015841788 0.0381232
000230 21 b3 ce 3c 7b ca 22 bd 9e 35 99 bc f5 48 bd bb
       0.0252319 -0.03974388 -0.018702324 -0.0057765194
000240 4f 37 07 3d a3 2a 79 3b c3 8d 00 3c 42 00 7c 3d
       0.03301173 0.0038019798 0.007846299 0.061523683
000250 ff 10 79 bc d2 bb 3e b8 95 af 1b 3d 3d fd 77 3d
       -0.015201806 -4.547445e-05 0.038009245 0.06054424
000260 ec c8 00 bd a4 97 90 bc 5b c7 9f bc 94 ed 14 3d
       -0.031441614 -0.017650433 -0.01950424 0.036359385
000270 ba 00 e9 bc 6d 43 49 bd 6d 1e 28 3d a9 ef 3f bc
       -0.02844273 -0.049136568 0.04104464 -0.011714854
000280 52 fc 02 bd a6 12 d1 bc e7 e8 06 3d 61 ee ac 3c
       -0.031978913 -0.025521588 0.032936957 0.021109762
000290 5b cb b9 3c 08 0d e5 3b 79 f8 c6 3b 70 94 dc bb
       0.022679975 0.006990079 0.0060721007 -0.0067315623
0002a0 9c 97 8e 3c 68 e0 05 3d 66 e7 92 3d f1 0d 0d 3d
       0.017406277 0.032684714 0.07173042 0.034437124
0002b0 bd b5 33 3d ba 08 44 3d 61 82 89 3d 08 07 0c 3d
       0.04387449 0.047859885 0.06714321 0.034186393
0002c0 19 54 44 3c 18 1c 6e 3d bb a5 30 3d e9 d1 71 3d
       0.011982941 0.05813226 0.043126803 0.059038077
0002d0 b2 cc 3d 3d 63 a7 8a 3d 0c 86 89 3d 46 50 94 3d
       0.04633779 0.06770208 0.067150205 0.072418734
0002e0 9f 65 a9 3d 69 b9 53 3d 29 5f 23 3d 4a 07 c2 3c
       0.08271336 0.051690493 0.039885674 0.023685116
0002f0 f1 8d dd 3c 93 b0 5c 3b bd 63 19 3d 7c 2a 64 3d
       0.027045222 0.0033674582 0.037448633 0.05570458
000300 10 36 1b 3d 4b 7d 23 3d eb 7a e0 3c ec 8e dd 3b
       0.037893355 0.03991441 0.027402362 0.0067614224
000310 46 7f f2 bb e7 cb 6f 3d b2 22 2e 3d c4 eb 5b 3d
       -0.007400426 0.058544066 0.042513557 0.05369164
000320 8e 50 d4 3c 85 d9 2d 3d fc a2 7c 3c 4d 3f 6d 3d
       0.025917318 0.04244377 0.015419718 0.057921696
000330 b4 2e 82 3c ca d0 92 3c 2e e0 1b 3c ae 99 2b 3d
       0.01589141 0.017921824 0.009513898 0.041894607
000340 ba 2e 99 3d 95 ef 80 bb df 60 c5 3c c8 2b 9e 3d
       0.074796155 -0.0039348104 0.024094043 0.07723194
000350 82 69 31 3d ad e6 6d 3c e0 51 90 3d f4 4c 87 3c
       0.04331351 0.014520329 0.070468664 0.016516186
000360 b2 10 e9 3c fd 89 5d 3d 7c 8d 58 3d 23 c5 57 3d
       0.028450344 0.054086674 0.052869305 0.05267824
000370 f1 43 63 3d ee b0 97 3d a0 2e 15 3d 70 e7 8a bb
       0.055484716 0.074067935 0.03642142 -0.0042390153
000380 c7 e6 b5 3d c0 9a 5d 3d ec 9c 93 3d cd ce bc 3c
       0.08881908 0.05410266 0.07207665 0.023047829
000390 26 46 86 3d e1 86 27 3d f5 82 cd 3c 23 67 99 3d
       0.065563485 0.040900115 0.02508686 0.07490375
0003a0 bc 7b fb 3c 6c ea 72 3d a7 4e 70 3d d5 d4 27 3d
       0.03069865 0.059305593 0.05866876 0.040974457
0003b0 b5 cc 40 3d d1 46 b0 3d 4d 5b 9c 3d 35 e2 9f 3d
       0.047070224 0.08607257 0.07634602 0.078068174
0003c0 00 ef 38 3d 48 49 61 3d cc 9f be 3d 36 24 01 bc
       0.045149803 0.055001527 0.093078226 -0.0078821685
0003d0 c0 49 19 bc 86 4c 83 3a 3d 6d 13 bc 5c eb 42 bd
       -0.009355962 0.0010017313 -0.008998212 -0.047587737
0003e0 0a 08 cd bc 70 24 70 bd 5b 24 71 bb 84 37 1e bd
       -0.025028247 -0.0586285 -0.0036795351 -0.038627163
0003f0 c9 0e e6 bb 6e 0f b4 3c f3 e2 56 3d e3 89 ea 3c
       -0.0070208055 0.021980014 0.05246253 0.028630203

convt3.bias f4 [32]
000000 ea 32 40 3d 97 d7 9a bd 41 4f 00 3e 41 8d 8b 3d
       0.046923555 -0.07560652 0.12530233 0.068140514
000010 54 dc b9 3d 26 9e 53 bd bc b9 78 3c 58 e9 03 3e
       0.090752274 -0.051664494 0.015181001 0.12881982
000020 28 13 0c be bf 7f bc bb c6 35 85 ba e6 0e c6 3d
       -0.13679183 -0.005752533 -0.001016312 0.096708104
000030 5e 50 a8 3d 1a 74 0b 3e bb 91 3a bd d1 83 b7 3d
       0.08218454 0.13618508 -0.045549136 0.08960689
000040 f9 2c 9f bd 30 a2 6f bd 56 53 1f bd a5 74 e7 3d
       -0.0777225 -0.058504283 -0.038897835 0.11301545
000050 b6 3d 8b bd be 51 f9 3d 35 08 01 3e f3 63 e5 3d
       -0.0679888 0.12173794 0.12600787 0.112007044
000060 c2 3f 34 3b 01 26 92 3d f4 4d e5 bd 30 25 02 3d
       0.0027503823 0.07136155 -0.11196509 0.031773746
000070 78 6d 19 bc 99 42 ac 3d 02 17 90 3d fc e7 17 3d
       -0.009364478 0.0841114 0.070356384 0.037086472

pos_output.weight f4 [1, 32, 2, 2]
000000 8f 94 49 3e 79 1c 15 be 67 86 33 be b8 6a 23 be
       0.19685577 -0.14561643 -0.17531739 -0.15958679
000010 94 44 dc 3d 30 9d 95 ba 40 25 fa bd e8 2a e6 3c
       0.10755268 -0.0011414643 -0.12214136 0.028096631
000020 42 e1 5c 3e 7f cf 36 bc ea 45 aa 3d 6d 7c 9e 3b
       0.21570304 -0.011157869 0.08314116 0.00483661
000030 22 29 db bd 2f 73 5e 3c 51 e0 86 3b c8 38 92 bd
       -0.10701205 0.013577267 0.004116096 -0.071397364
000040 c1 9e e0 3e ee 99 ac 3e 14 fb a2 3e 27 d2 aa 3e
       0.4387112 0.3371119 0.31832182 0.3336346
000050 73 98 63 3d 5b d3 05 3e 23 5f 32 3d 64 7f 40 3d
       0.05556531 0.13068907 0.04354776 0.04699649
000060 2f d5 28 3e 70 9f 84 3e b3 2b de 3c 8a 18 49 3d
       0.16487573 0.2590289 0.027120447 0.049095668
000070 54 e4 32 3e 49 23 8b 3b 8f 5d 14 3c f0 8a 01 bd
       0.17469913 0.0042461497 0.009055509 -0.03162664
000080 7d c7 0c 3f c5 c2 9b 3e 6d 1e 02 3f ff 81 06 3f
       0.54991895 0.30422035 0.50827676 0.5254211
000090 26 a6 da 3a 95 55 50 be f3 77 20 be a5 02 48 be
       0.0016681596 -0.20345147 -0.15670757 -0.19532259
0000a0 00 7b 0b 3f 67 4d b8 3e 40 86 ee 3e 90 ab d2 3e
       0.5448456 0.35996553 0.465868 0.41146517
0000b0 85 64 8e 3e e5 b7 d8 3e 44 c2 d1 3e 3a 9e af 3e
       0.27811065 0.423278 0.40968525 0.34300405
0000c0 84 f0 44 3e 6a d1 9b bd 16 81 38 be 8d ef cd 3d
       0.19232374 -0.07608302 -0.18017992 0.10055456
0000d0 4c aa 4f 3e 45 bc 36 be e5 b0 2f 3e 8e 7e 12 3e
       0.20279807 -0.17845257 0.17157324 0.1430609
0000e0 2c 5b 4d bd 87 5f 03 3e 15 c2 4e 3e 45 13 1a bd
       -0.050135776 0.1282941 0.20191224 -0.037616033
0000f0 ce 7d e5 bc b9 42 b0 bd 30 5e ac 3c c7 7c e2 bd
       -0.02801409 -0.08606476 0.021041006 -0.11058956
000100 59 0c c3 3d b7 42 25 bd 83 55 45 bd 0c 25 87 3c
       0.095238395 -0.040346827 -0.048177253 0.016497158
000110 27 61 e2 bd 98 49 e3 bd 6d e3 60 3e 87 91 0d 3e
       -0.110536866 -0.11098021 0.21961756 0.13825046
000120 90 bc e8 3e a7 47 fa 3d 7c 4c 91 3e dd 89 4d 3e
       0.45456362 0.12220698 0.28378665 0.20072122
000130 da 0d 48 3e a9 17 29 be bc 8e 48 bd 59 01 bc 3d
       0.19536534 -0.16512932 -0.048964247 0.091799445
000140 46 b7 52 be 31 11 19 3e 69 ae 82 3d 3e c2 38 3e
       -0.20577726 0.14947964 0.06380922 0.18042848
000150 7a 3d e6 bd 2b 84 2e be 2c cd 36 be 0e 2e 83 be
       -0.112421945 -0.17042606 -0.17851704 -0.25621074
000160 d4 98 d6 be da c2 89 be 3f 7e 9e be 89 69 b9 be
       -0.41913474 -0.26906472 -0.30955693 -0.3621333
000170 71 1f 1f 3e 65 41 c5 3d e4 11 df 3c 25 df 36 3e
       0.15539338 0.09631614 0.02723021 0.1785856
000180 cc c1 4d 3e d5 d7 59 3e e3 5c b6 3e 74 1d 7c 3e
       0.20093459 0.2127374 0.35617742 0.2462061
000190 de b0 1c be 3a 83 8e 3d 43 19 a8 bd da e7 f9 bd
       -0.15301844 0.06958623 -0.08207943 -0.12202425
0001a0 20 29 82 3e 1d 3f a3 bc f1 ae 9e 3e 7d bd 49 bd
       0.25422 -0.019927556 0.30992845 -0.049252976
0001b0 ab cf f9 bc 6a 09 1e be 71 c3 b8 bd 4d da 12 be
       -0.030494532 -0.15433279 -0.090216525 -0.14341088
0001c0 c9 08 9b 3e 40 80 a1 3e 3f a4 8c 3e e2 87 ab 3e
       0.3028014 0.3154316 0.2746906 0.33502108
0001d0 4c 7c 19 be b3 9c 9c bd d7 7b f0 3d 1c e6 c7 3d
       -0.14988822 -0.076470755 0.117423706 0.09760687
0001e0 a8 1f 22 3d de 60 8c bd 07 c5 0d 3e af a7 e4 bd
       0.03958097 -0.068544134 0.13844691 -0.111647956
0001f0 e8 b2 26 be 76 39 94 3d 67 6c f3 bc 12 a6 f4 3b
       -0.16279185 0.07237522 -0.029714776 0.007466086
