ggcnn_base/output/models/221204_2000_training_example/epoch_34_iou_0.75_statedict.pt (torch, 256417 bytes, 16 tensors)

conv1.weight f4 [32, 1, 9, 9]
-0.063190326 -0.12035391 -0.060543366 -0.12435882 -0.1342984 -0.069421865 -0.09873426 -0.14038233
-0.13043562 -0.0930695 -0.076255195 -0.073057905 -0.13114184 -0.08421911 -0.124616005 -0.110980146
-0.09413696 -0.036256824 -0.071133636 -0.105341785 -0.06750107 -0.09922359 -0.13132797 -0.11951943
-0.08067086 -0.10841786 -0.1158755 -0.092436984 -0.115881614 -0.077696875 -0.09207192 -0.11969968
-0.043349028 -0.054885063 -0.12680976 -0.04930195 -0.16075535 -0.1610975 -0.17212395 -0.16526905
-0.19591951 -0.14640965 -0.117842816 -0.114736564 -0.19968836 -0.15209219 -0.12998343 -0.18620019
-0.22334865 -0.14426544 -0.2146263 -0.2132188 -0.18141355 -0.15585074 0.12634641 0.16200389
0.1960561 0.16229402 0.23351848 0.20692238 0.19408785 0.13028984 0.12234327 0.27019495
0.2223598 0.26493496 0.2641942 0.29568967 0.31119737 0.22335182 0.26157802 0.22178055
0.29316014 0.28075194 0.32618448 0.3169581 0.28187275 0.30214816 0.37653437 0.32304958
0.30396795 -0.030050611 -0.02596115 0.029152814 0.13586137 0.16736212 0.14220785 0.2349538
0.33316267 0.4931887 -0.18193941 -0.1410603 -0.08962576 -0.04292445 0.0020454947 0.07425562
0.13139506 0.23202015 0.34319532 -0.27877137 -0.20775393 -0.1394112 -0.1336962 -0.077932574
-0.040504195 -0.022136534 0.066366 0.23422293 -0.115228236 -0.06603263 -0.027075985 0.06370726
0.048227366 0.06502482 0.08893357 0.2236818 0.3270977 -0.16884588 -0.09189554 -0.09007494
-0.029020295 -0.04097261 0.012332193 0.11406746 0.16229925 0.21889992 -0.23778972 -0.1795228
-0.120614395 -0.0748104 -0.06236106 -0.008106978 0.08871181 0.15729915 0.2379853 -0.23454717
-0.22002202 -0.22060223 -0.14081821 -0.097005464 -0.017132333 -0.032748744 0.099541165 0.2249456
-0.27667135 -0.2219183 -0.23039012 -0.078344315 -0.13491593 -0.04949203 -0.00089693564 0.10213529
0.21666475 -0.23874156 -0.24225916 -0.17438407 -0.07910754 -0.053672627 -0.01690142 0.07506521
0.14412569 0.30346838 -0.006058949 -0.0048685153 -0.014995357 -0.011643126 0.004364938 0.009700709
0.017804895 0.046436347 0.039991777 -0.03289461 -0.043016076 0.0024575496 0.005217617 -0.041281514
0.029886318 0.027701981 -0.026323969 0.037704553 0.017443819 0.017784087 -0.03197749 0.02466746
-0.015039885 -0.040852536 -0.0067322343 0.0402595 -0.024621643 -0.031387337 0.0022489391 -0.01826125
-0.02312994 0.04063381 0.010819116 0.009680941 -0.0011624205 0.04095902 0.03659557 -0.031456415
-0.0071762037 0.040814884 0.017577494 -0.008798967 -0.031766333 -0.017197063 -0.001501565 -0.036969513
-0.0135771325 -0.018503342 0.00827443 -0.047154374 0.0040371683 -0.009968441 -0.016580805 0.0062051956
-0.019686207 0.012574909 0.0023521937 0.026126672 0.026510943 -0.017780693 -0.014102895 -0.04027468
0.0027886005 0.009654966 -0.014458396 -0.043362197 -0.003687372 -0.015015515 0.017628731 0.0009648743
-0.02580608 -0.041156825 0.00701185 0.036788624 0.040631805 -0.005702138 -0.04001524 0.02615216
-0.012577258 -0.020553559 -0.032676876 -0.58939356 -0.17766428 0.1572313 -0.44824728 -0.29853907
-0.2823841 -0.23904446 -0.30908364 -0.62663853 -0.21302824 0.18356322 0.4272624 -0.05575346
00000000: ee69 81bd 1c7c f6bd 52fc 77bd d6af febd
00000010: 8585 09be 0d2d 8ebd 3035 cabd 63c0 0fbe
00000020: ea90 05be 399b bebd af2b 9cbd 629f 95bd
00000030: 0c4a 06be 127b acbd ad36 ffbd 8f49 e3bd
00000040: e1ca c0bd 0982 14bd 83ae 91bd 6fbd d7bd
00000050: 003e 8abd bd35 cbbd d77a 06be 9ac6 f4bd
00000060: c436 a5bd 2f0a debd 2250 edbd 9a4f bdbd
00000070: 5753 edbd 8a1f 9fbd 3490 bcbd 1b25 f5bd
00000080: c08e 31bd 29cf 60bd 6bda 01be d7f0 49bd
00000090: 0d9d 24be bef6 24be 4341 30be 4a3c 29be
000000a0: 209f 48be 69ec 15be 9357 f1bd 01fb eabd
000000b0: 1b7b 4cbe 0ebe 1bbe 601a 05be 43ab 3ebe
000000c0: 82b5 64be 52ba 13be ffc6 5bbe 0756 5abe
000000d0: 79c4 39be 5697 1fbe f460 013e 59e4 253e
000000e0: eec2 483e 6730 263e 781f 6f3e 76e3 533e
000000f0: f7be 463e b36a 053e 1c8f fa3d fe56 8a3e
00000100: 4ab2 633e 8ea5 873e 7644 873e a364 973e
00000110: 4355 9f3e 57b6 643e 8eed 853e 711a 633e
00000120: 1619 963e b8be 8f3e a701 a73e 5548 a23e
00000130: a051 903e 2ab3 9a3e 1dc9 c03e c166 a53e
00000140: b0a1 9b3e b32c f6bc 7aac d4bc e2d1 ee3c
00000150: 3e1f 0b3e fa60 2b3e ef9e 113e bb97 703e
00000160: 4c94 aa3e 3b83 fc3e 534e 3abe 1c72 10be
00000170: b68d b7bd 8cd1 2fbd b50d 063b 5513 983d
00000180: 6d8c 063e b196 6d3e 4cb7 af3e 1fbb 8ebe
00000190: 72bd 54be cfc1 0ebe a8e7 08be 1d9b 9fbd
000001a0: bae7 25bd ad57 b5bc e6ea 873d 23d8 6f3e
000001b0: c8fc ebbd 1e3c 87bd 75ce ddbc f478 823d
000001c0: 0f8a 453d bc2b 853d ce22 b63d d70c 653e
000001d0: 5a79 a73e efe5 2cbe bb33 bcbd 3679 b8bd
000001e0: f8bb edbc e5d2 27bd f70c 4a3c 339c e93d
000001f0: c631 263e 4d27 603e 267f 73be d3d4 37be
00000200: ae04 f7bd 3236 99bd 506e 7fbd 21d3 04bc
00000210: 8aae b53d 0713 213e 6bb2 733e 222d 70be
00000220: 744d 61be 8de5 61be a632 10be cdaa c6bd
00000230: 1b59 8cbc 8c23 06bd 3ddc cb3d 2458 663e
00000240: dea7 8dbe 8d3e 63be 63eb 6bbe fc72 a0bd
00000250: 6727 0abe 28b8 4abd 5520 6bba 4f2c d13d
00000260: 5ddd 5d3e ab78 74be c912 78be bd91 32be
00000270: 2203 a2bd d4d7 5bbd d974 8abc cabb 993d
00000280: af95 133e 3560 9b3e 268a c6bb 1188 9fbb
00000290: 16af 75bc cfc2 3ebc c107 8f3b b9ef 1e3c
000002a0: 92db 913c 0a34 3e3d 6bce 233d 80bc 06bd
000002b0: a031 30bd d70e 213b 8bf8 aa3b ce16 29bd
000002c0: 27d4 f43c 44ef e23c 5da5 d7bc 1770 1a3d
000002d0: 57e6 8e3c efaf 913c d4fa 02bd 6a13 ca3c
000002e0: da69 76bc fd54 27bd 139a dcbb 25e7 243d
000002f0: 54b3 c9bc 0290 00bd f062 133b 9e98 95bc
00000300: 007b bdbc a36f 263d a942 313c cf9c 1e3c
00000310: 5c5c 98ba a5c4 273d 3de5 153d 71d8 00bd
00000320: 5c26 ebbb 822d 273d adfe 8f3c 8b29 10bc
00000330: 6a1d 02bd dbe0 8cbc 29d0 c4ba 586d 17bd
00000340: 9f72 5ebc 5294 97bc 7a91 073c f224 41bd
00000350: 394a 843b ac52 23bc 78d4 87bc f454 cb3b
00000360: f844 a1bc fe06 4e3c 4327 1a3b 9a07 d63c
00000370: 7a2d d93c d1a8 91bc d40f 67bc 10f7 24bd
00000380: f4c0 363b dd2f 1e3c e8e2 6cbc 8f9c 31bd
00000390: d6a7 71bb a203 76bc 216a 903c 9eef 7c3a
000003a0: 4667 d3bc 0f94 28bd a9c3 e53b abaf 163d
000003b0: 896d 263d 00d9 babb 05e7 23bd 0e3d d63c
000003c0: d810 4ebc f05f a8bc 30d8 05bd 7fe2 16bf
000003d0: a0ed 35be 3e01 213e ab80 e5be 1dda 98be
000003e0: a694 90be 12c8 74be 3640 9ebe 626b 20bf
000003f0: 1324 5abe fff7 3b3e 23c2 da3e bd5d 64bd

conv1.bias f4 [32]
-0.12523665 0.105396286 -0.10833739 0.009076019 0.09304708 0.0914404 -0.023459634 0.14943509
-0.26486465 -0.047592703 0.2678886 -0.12500119 -0.27204502 -0.10513913 -0.029692251 -0.010156228
-0.004266862 -0.08355622 -0.26940235 -0.108255 -0.16162886 0.2431115 -0.030163847 -0.10031635
-0.30091855 -0.094640434 -0.09904455 -0.019697666 -0.110440955 -0.09730271 0.066868074 -0.14165299
00000000: 093e 00be 02da d73d fedf ddbd 95b3 143c
00000010: 788f be3d 1b45 bb3d 6b2e c0bc 8305 193e
00000020: 579c 87be 91f0 42bd b228 893e 5000 00be
00000030: 7c49 8bbe 2f53 d7bd 2a3d f3bc 4f66 26bc
00000040: 08d1 8bbb 861f abbd 1bef 89be ccb4 ddbd
00000050: 0982 25be 39f2 783e 2c1a f7bc a972 cdbd
00000060: ff11 9abe d8d2 c1bd ded7 cabd 005d a1bc
00000070: de2e e2bd a546 c7bd 21f2 883d 7b0d 11be

conv2.weight f4 [16, 32, 5, 5]
0.076988876 0.028801154 0.030808492 0.012071421 0.002478052 0.044372953 0.040020727 0.12510769
0.16567874 0.15534048 -0.09684209 -0.114832215 -0.1270461 -0.022271527 -0.04692804 -0.022381857
0.01018288 0.037872378 -0.13464639 -0.109266765 -0.16417424 -0.078459926 0.04735582 0.022841016
0.018378276 -0.16942295 -0.04182486 0.045105178 -0.11670052 -0.060280234 -0.111183 -0.027505755
0.044576976 -0.20241502 -0.086160086 -0.001901026 0.122678965 0.062332023 -0.14338323 -0.14265214
-0.027603433 0.100806445 0.050993174 -0.052875623 -0.08932414 0.009996975 0.14945948 0.14797658
0.041723106 0.015978832 0.01759529 0.06582231 0.04552106 0.010144772 -0.02199478 -0.03383777
-0.037128586 0.009229174 0.063929014 -0.03403376 0.023103159 -0.00030999008 0.017788516 -0.036697734
0.015609735 0.029150642 0.019546486 -0.030971369 0.02304878 -0.012200156 0.024168167 -0.010469657
0.00042535443 0.04551597 0.052953422 -0.06296305 0.02405262 -0.013126154 -0.062668 -0.021466091
-0.022496734 -0.02768622 -0.07534899 0.018697595 0.08448973 -0.072268635 -0.04769957 -0.02718693
-0.03782806 0.0009977628 0.05760526 0.04531701 0.0038448838 0.008377915 0.093726836 0.017398415
0.09033766 0.0575388 0.11558714 0.11674225 0.20472886 0.049695514 -0.0010370588 -0.057324912
-0.06872432 0.13996689 -0.0077230902 -0.1417649 -0.14462899 -0.15072754 0.10107532 -0.032934576
-0.081837066 -0.10057962 -0.10766454 0.031273954 0.058075882 -0.07750424 -0.12250926 -0.13475364
-0.05465423 0.035083443 -0.0008935945 0.049220428 -0.05943051 -0.054072052 -0.05097116 0.05605739
-0.029051023 -0.04898431 -0.0024829907 -0.062120486 0.11852065 0.14983937 0.17943586 -0.11955383
0.0054443036 0.031856455 0.084009275 0.1583396 -0.12557212 -0.13713749 -0.10386186 -0.047994718
0.10104345 -0.012899155 -0.0028191598 -0.10624897 0.04167342 0.089220926 0.02676975 0.03387487
-0.09341382 0.06620201 -0.0042861244 -0.0839907 0.01629956 -0.07408893 0.022075098 0.019654725
0.052496675 -0.0779861 -0.02915401 0.031275287 0.09689086 0.007797966 0.0120482175 0.011094554
0.053382754 0.033198502 0.021571945 -0.01961893 0.0676814 0.06616755 0.04839977 -0.09556312
-0.0663969 -0.03274276 -0.054303855 0.00023415408 -0.09950059 -0.066864155 0.010377704 -0.037143476
0.045310464 -0.083241336 -0.03428432 0.054291043 0.03770662 0.068286225 -0.014151574 -0.06374081
0.017246 -0.010539441 -0.013210127 0.06522503 -0.003277706 -0.04184919 0.040426977 0.1470972
-0.37483543 -0.029907554 -0.0669499 -0.124434605 0.18181163 -0.13151477 0.06292763 0.095110536
0.013245038 0.3974717 -0.20591922 0.007410222 0.2914089 0.08753666 0.3663961 -0.12073818
-0.08478748 0.39108294 -0.003328367 0.2014305 -0.04866609 -0.08372069 0.3790682 0.016197758
0.21845002 -0.30498883 -0.18710117 0.09047885 0.031759612 0.4287935 -0.11414943 -0.12978257
0.025984805 -0.085104525 0.09194266 -0.031894032 -0.012149048 0.066273436 -0.21281032 0.07421447
0.18962799 0.19044714 0.055485338 -0.33642584 -0.09067581 0.15351877 0.16692396 0.18151437
-0.32609612 0.0420475 0.34169367 0.2521544 0.15364544 0.012648064 0.078115225 0.18772875
00000000: 58ac 9d3d 66f0 eb3c 1762 fc3c 36c7 453c
00000010: d066 223b 6ac0 353d c6ec 233d 3b1c 003e
00000020: b0a7 293e 9311 1f3e 2555 c6bd 272d ebbd
00000030: 5f18 02be c772 b6bc 9e37 40bd 285a b7bc
00000040: 18d6 263c 1120 1b3d bee0 09be 41c7 dfbd
00000050: 4b1d 28be 99af a0bd 2df8 413d 151d bb3c
00000060: 0a8e 963c 367d 2dbe 8b50 2bbd 35c0 383d
00000070: af00 efbd 68e8 76bd eab3 e3bd c053 e1bc
00000080: 5996 363d e245 4fbe b374 b0bd d92b f9ba
00000090: 1c3f fb3d dd4f 7f3d 0ed3 12be 6713 12be
000000a0: 9820 e2bc 9c73 ce3d 38de 503d 1c94 58bd
000000b0: 93ef b6bd 5aca 233c e80b 193e 2c87 173e
000000c0: d9e5 2a3d 0ae6 823c ff23 903c d9cd 863d
000000d0: 4a74 3a3d 4236 263c 662e b4bc 7999 0abd
000000e0: 2514 18bd f635 173c 37ed 823d fc66 0bbd
000000f0: d642 bd3c 2a86 a2b9 39b9 913c 5d50 16bd
00000100: f9bf 7f3c 54cd ee3c f41f a03c abb7 fdbc
00000110: ccd0 bc3c 2ae3 47bc 52fc c53c ed88 2bbc
00000120: 1b02 df39 f46e 3a3d b0e5 583d c6f2 80bd
00000130: 000a c53c 150f 57bc 1558 80bd a8d9 afbc
00000140: 124b b8bc 36ce e2bc 9250 9abd b32b 993c
00000150: f408 ad3d 9401 94bd a060 43bd 20b7 debc
00000160: 99f1 1abd 5dc7 823a 7ef3 6b3d 549e 393d
00000170: 72fa 7b3b 8643 093c dbf3 bf3d 1f87 8e3c
00000180: f302 b93d cead 6b3d f3b8 ec3d 9016 ef3d
00000190: 71a4 513e 868d 4b3d ebed 87ba 87cd 6abd
000001a0: 56bf 8cbd 7b53 0f3e fa11 fdbb d12a 11be
000001b0: 9f19 14be 5258 1abe 9400 cf3d 68e6 06bd
000001c0: 319a a7bd b0fc cdbd 3a7f dcbd 1e19 003d
000001d0: fae0 6d3d 8bba 9ebd 23e6 fabd dcfc 09be
000001e0: 1ddd 5fbd a8b3 0f3d 1d40 6aba 5c9b 493d
000001f0: 686d 73bd a87a 5dbd 23c7 50bd 6f9c 653d
00000200: 69fc edbc c6a3 48bd acb9 22bb 0d72 7ebd
00000210: f4ba f23d 7e6f 193e 09be 373e a3d8 f4bd
00000220: 2166 b23b ea7b 023d 0e0d ac3d c723 223e
00000230: fa95 00be c56d 0cbe 87b5 d4bd 1c96 44bd
00000240: deef ce3d fa56 53bc a7c1 38bb 0f99 d9bd
00000250: c0b1 2a3d 76b9 b63d 3c4c db3c 60c0 0a3d
00000260: bf4f bfbd eb94 873d 9e72 8cbb 5103 acbd
00000270: a886 853c f0bb 97bd d6d6 b43c f202 a13c
00000280: c106 573d 2db7 9fbd 64d4 eebc 841a 003d
00000290: b76e c63d 1486 ff3b e365 453c efc5 353c
000002a0: e0a7 5a3d 27fb 073d a6b7 b03c e1b7 a0bc
000002b0: 8c9c 8a3d da82 873d d63e 463d 99b6 c3bd
000002c0: 19fb 87bd 461d 06bd b86d 5ebd 4287 7539
000002d0: f7c6 cbbd 13f0 88bd 3f07 2a3c c223 18bd
000002e0: 7797 393d 6f7a aabd b76d 0cbd 4960 5e3d
000002f0: 4272 1a3d a6d9 8b3d 01dc 67bc 8b8a 82bd
00000300: 7c47 8d3c 9fad 2cbc 4a6f 58bc b394 853d
00000310: c8ce 56bb 0e6a 2bbd c296 253d a6a0 163e
00000320: 6eea bfbe b000 f5bc 071d 89bd 92d7 febd
00000330: d42c 3a3e cfab 06be 34e0 803d 50c9 c23d
00000340: b701 593c 6981 cb3e 7ddc 52be 73d1 f23b
00000350: 8c33 953e 6c46 b33d 4598 bb3e 9445 f7bd
00000360: 0fa5 adbd 063c c83e bb20 5abb cc43 4e3e
00000370: 1856 47bd c175 abbd 3a15 c23e 29b1 843c
00000380: 5db1 5f3e 7f27 9cbe 7397 3fbe fa4c b93d
00000390: 5e16 023d d28a db3e 2dc7 e9bd b9e5 04be
000003a0: 16de d43c 484b aebd 6f4c bc3d 51a3 02bd
000003b0: cd0c 47bc 5eba 873d f3ea 59be c2fd 973d
000003c0: d72d 423e 9304 433e 9844 633d 0240 acbe
000003d0: 3db4 b9bd 0634 1d3e 1dee 2a3e e7de 393e
000003e0: 12f6 a6be 003a 2c3d 79f2 ae3e 621a 813e
000003f0: 3b55 1d3e d339 4f3c e0fa 9f3d f73b 403e

conv2.bias f4 [16]
0.024829961 0.27637303 -0.061304394 -0.04795273 -0.036339045 -0.0048201582 0.011823796 0.07790097
0.2106108 -0.073293135 0.19026403 -0.052059088 -0.061345983 0.015403651 0.12389586 -0.045324076
00000000: 3468 cb3c c480 8d3e 511a 7bbd 156a 44bd
00000010: 40d8 14bd 6bf2 9dbb 98b8 413c 8b8a 9f3d
00000020: 5caa 573e b61a 96bd 93d4 423e e93b 55bd
00000030: ed45 7bbd 985f 7c3c 1dbd fd3d bda5 39bd

conv3.weight f4 [8, 16, 3, 3]
-0.09030208 0.12264003 -0.06903443 0.094127074 0.16136941 0.0797841 -0.020091971 -0.1134592
0.08691665 -0.46590695 -0.044651072 -0.08134327 -0.35474667 0.1622385 0.0028693413 -0.14010617
0.2115917 0.3697226 0.13190782 -0.080876544 0.050025087 -0.14014833 0.057697628 -0.04512776
-0.066779554 0.038079686 -0.05256756 0.123867735 -0.13751341 -0.15374586 0.08364675 -0.057877306
0.09735433 -0.14831106 -0.011249706 -0.0136844115 0.15957858 0.15169074 0.09391646 0.022223769
0.16845782 -0.0024934842 0.06675087 -0.11579693 -0.10302084 -0.076774076 -0.110400066 -0.07981382
0.02600138 0.13309376 0.004444265 0.15552282 -0.073210016 0.086880915 -0.1503553 0.09562448
-0.08201211 0.011679553 0.07218271 0.13813372 -0.050582286 -0.037374742 0.12284811 -0.12421608
-0.08128101 -0.24214816 0.17914462 0.032335684 0.031160954 0.3371176 0.29337808 0.13490523
-0.32964638 -0.35310552 -0.11084477 0.044108395 0.038284775 0.1337885 0.15003636 0.21053478
0.22565429 -0.10754513 0.107859924 -0.073627256 0.010421021 0.09011132 0.17234436 -0.001994175
-0.07146374 -0.10512396 -0.07639271 0.17908347 0.2425759 -0.004436949 -0.10142588 0.22302556
-0.31831807 0.07791586 -0.057419557 0.19274949 -0.06905801 0.18212155 0.16566035 0.0257728
-0.047895364 -0.13100138 0.07125066 -0.09239545 -0.06571267 0.059758756 -0.06948584 -0.008058822
-0.07858847 0.105980486 0.119729064 0.054129582 0.017085869 0.15311414 0.07980003 -0.11614343
-0.050185706 0.11582261 0.04492827 -0.04440595 -0.08963195 -0.05067884 0.17736758 0.077683195
0.21894616 0.09194132 -0.11886795 0.09607181 -0.079177275 -0.24302539 0.03195433 -0.120160095
-0.019448515 -0.11804614 0.23086233 0.054121792 -0.28739256 0.12716833 0.1661071 0.02520479
-0.31521514 -0.2303976 0.06932784 -0.074448295 -0.20454606 0.037922148 0.44705647 0.28794542
0.026071472 -0.20315501 0.008743815 0.157251 -0.15368254 -0.34060112 -0.07018359 0.22021078
0.024637276 0.008391763 -0.031025305 0.09019361 -0.14409496 -0.16132282 0.012086547 -0.0014211743
0.069102794 -0.012457302 -0.10698268 -0.017469738 0.044403058 0.01509597 -0.060165443 -0.15245163
-0.039850794 -0.13611227 -0.02929823 0.09746051 0.12156055 0.110894375 0.12376372 -0.11179984
-0.15501183 -0.09278382 -0.16871472 -0.1039577 0.036766857 0.19524859 -0.11460023 -0.102811575
0.09472241 0.16692114 -0.0058721453 -0.06070293 0.007433962 0.1468307 -0.03725022 -0.17038614
0.10967284 0.07263244 -0.010897346 -0.0046969866 -0.14296913 0.14496292 -0.14337932 -0.085163735
0.075724736 0.057711344 -0.27674443 0.07892416 0.36195898 -0.31276122 -0.096098855 0.3705096
-0.13929842 0.11303762 0.06975912 -0.24797049 0.120130956 0.14500536 -0.23419754 0.044666167
0.20229286 -0.04317718 0.136795 -0.092563085 -0.0018761369 0.038287267 -0.031790692 0.09624434
0.106828816 -0.088656895 0.024749923 -0.20987684 -0.35137013 0.3061377 0.0025603771 -0.2670232
0.20116965 0.12842816 -0.028336965 0.028665222 -0.01013894 -0.06438654 0.11934369 0.10804758
-0.061662693 0.0994322 0.0006508768 -0.19470546 0.10328273 -0.12981473 0.06605834 0.10486233
00000000: 4cf0 b8bd b22a fb3d ec61 8dbd b2c5 c03d
00000010: 063e 253e d965 a33d eb97 a4bc 4c5d e8bd
00000020: 5b01 b23d 5b8b eebe 0be4 36bd 4d97 a6bd
00000030: 5ba1 b5be d921 263e 8f0b 3c3b fe77 0fbe
00000040: 7fab 583e 484c bd3e d812 073e 9aa2 a5bd
00000050: 1be7 4c3d 0b83 0fbe 5954 6c3d e3d7 38bd
00000060: b8c3 88bd 72f9 1b3d 1551 57bd 5eae fd3d
00000070: 51d0 0cbe 8e6f 1dbe fd4e ab3d c110 6dbd
00000080: b561 c73d dbde 17be b050 38bc 9534 60bc
00000090: 9168 233e d154 1b3e 4657 c03d 9f0e b63c
000000a0: 3580 2c3e b969 23bb aeb4 883d f126 edbd
000000b0: 97fc d2bd ba3b 9dbd 6e19 e2bd 6e75 a3bd
000000c0: d900 d53c bb49 083e 32a1 913b 6041 1f3e
000000d0: 22ef 95bd 9fee b13d bdf6 19be c4d6 c33d
000000e0: f7f5 a7bd 995b 3f3c 87d4 933d ed72 0d3e
000000f0: 5f2f 4fbd 4216 19bd ca97 fb3d 0065 febd
00000100: a876 a6bd b0f5 77be b071 373e 6c72 043d
00000110: 4245 ff3c ae9a ac3e a735 963e 9924 0a3e
00000120: 69c7 a8be 3fca b4be 9502 e3bd 01ab 343d
00000130: 7fd0 1c3d daff 083e 22a3 193e 6e96 573e
00000140: eb11 673e 9f40 dcbd aae5 dc3d e3c9 96bd
00000150: eebc 2a3c 498c b83d 0a7b 303e b4b0 02bb
00000160: 955b 92bd 3b4b d7bd c873 9cbd a861 373e
00000170: d165 783e d363 91bb 5fb8 cfbd d060 643e
00000180: 96fa a2be 5a92 9f3d c530 6bbd 1f60 453e
00000190: 496e 8dbd 127e 3a3e dea2 293e 7b21 d33c
000001a0: ee2d 44bd 3a25 06be deeb 913d d339 bdbd
000001b0: 5d94 86bd 99c5 743d 984e 8ebd 2609 04bc
000001c0: fef2 a0bd 4c0c d93d 8334 f53d fbb6 5d3d
000001d0: aaf7 8b3c f4c9 1c3e 336e a33d 9bdc edbd
000001e0: 878f 4dbd 6834 ed3d b506 383d 03e3 35bd
000001f0: f590 b7bd 9e94 4fbd d99f 353e 5e18 9f3d
00000200: 6c33 603e bb4b bc3d 0a71 f3bd 4cc1 c43d
00000210: b227 a2bd a6db 78be 8be2 023d 7f16 f6bd
00000220: 7e52 9fbc 2dc2 f1bd 2d67 6c3e d0ae 5d3d
00000230: 1e25 93be 6a38 023e fb17 2a3e 477a ce3c
00000240: e163 a1be 59ed 6bbe c1fb 8d3d 5978 98bd
00000250: 8674 51be 4154 1b3d 96e4 e43e 956d 933e
00000260: d793 d53c de07 50be 3842 0f3c 6806 213e
00000270: f55e 1dbe 4563 aebe 6abc 8fbd ef7e 613e
00000280: 1dd4 c93c 9b7d 093c c828 febc 6db7 b83d
00000290: a18d 13be cf31 25be a706 463c b246 baba
000002a0: c485 8d3d b619 4cbc bc19 dbbd b21c 8fbc
000002b0: fbdf 353d 1655 773c 0a70 76bd 481c 1cbe
000002c0: 963a 23bd 0461 0bbe d702 f0bc 6099 c73d
000002d0: bdf4 f83d 971c e33d d577 fd3d 51f7 e4bd
000002e0: 6cbb 1ebe 7205 bebd 8dc3 2cbe c6e7 d4bd
000002f0: d898 163d 3fef 473e 86b3 eabd e08e d2bd
00000300: d3fd c13d 60ed 2a3e 206b c0bb a3a3 78bd
00000310: 9898 f33b c95a 163e b093 18bd b479 2ebe
00000320: 279c e03d 51c0 943d c88a 32bc 2ee9 99bb
00000330: 8066 12be 2971 143e 07d2 12be 536a aebd
00000340: 9215 9b3d bb62 6c3d 72b1 8dbe fda2 a13d
00000350: b052 b93e 3d22 a0be 7acf c4bd 6fb3 bd3e
00000360: 3fa4 0ebe 4580 e73d dfdd 8e3d faeb 7dbe
00000370: 3807 f63d 497c 143e 7bd1 6fbe dff3 363d
00000380: dc25 4f3e 8eda 30bd fd13 0c3e b791 bdbd
00000390: b5e8 f5ba 1cd3 1c3d f536 02bd c11b c53d
000003a0: 11c9 da3d bf91 b5bd 5ac0 ca3c f4e9 56be
000003b0: c9e6 b3be 15be 9c3e 00cc 273b 44b7 88be
000003c0: 6bff 4d3e ac82 033e ec22 e8bc 54d3 ea3c
000003d0: cc1d 26bc 17dd 83bd 776a f43d 0d48 dd3d
000003e0: 0592 7cbd 1ca3 cb3d 9a9f 2a3a de60 47be
000003f0: e585 d33d 27ee 04be 9849 873d 10c2 d63d

conv3.bias f4 [8]
0.13898888 -0.3180077 -0.04598712 0.10587929 0.14295988 0.010545679 0.33312958 0.37580958
00000000: 1a53 0e3e e8d1 a2be fe5c 3cbd 3ed7 d83d
00000010: 1364 123e c9c7 2c3c f68f aa3e 1d6a c03e

convt1.weight f4 [8, 8, 3, 3]
-0.07920033 -0.091317885 0.15772803 -0.008210167 -0.31284383 0.105356514 0.14795806 -0.07919422
0.25532496 0.05696845 -0.24015798 -0.23085274 -0.61604184 0.24027003 0.19712166 0.28630924
0.34600055 -0.34136742 -0.5886172 -0.13448888 -0.25962713 -0.10388761 0.27058262 0.115714796
0.49310663 0.22799867 0.3312155 0.08577301 0.06511714 -0.086562805 -0.62144285 -0.0036046098
0.13965194 0.015389702 -0.47879967 -0.17248641 0.10185384 -0.20873706 0.1767764 0.12007236
-0.3763852 0.22630252 0.11358759 0.098919116 0.21191624 -0.1524433 0.17747077 -0.014943917
-0.19307443 -0.23653531 -0.23099439 -0.10304017 -0.29919833 -0.16326194 0.0991035 0.119816944
0.50578123 0.40929735 0.15716793 -0.5205604 -0.15576626 -0.16778588 -0.28726876 0.033242617
0.44185188 0.049581166 0.07916269 0.10013798 -0.06886737 -0.008118363 -0.3394491 -0.31872946
0.035555594 0.107470855 -0.14631642 -0.35333383 -0.031039672 0.2009699 -0.17562754 -0.265499
0.09442205 0.049788408 -0.5156899 0.027757185 0.24493818 0.051495124 0.13236791 0.3083622
0.039053738 -0.4360228 0.19219159 0.16964468 0.095038526 0.014427807 0.20846742 -0.00029626052
0.15970193 -0.26828358 -0.46125442 0.16694489 0.15602568 -0.1583854 -0.38066047 -0.6123373
0.111939475 -0.15690173 -0.20651232 -0.109987274 -0.032814987 0.5144932 0.20189455 0.21738163
-0.28690735 0.058172684 0.28054985 0.06175478 0.31552467 0.39089018 -0.09841365 -0.30426115
-0.550194 0.060530867 -0.10976499 -0.21703841 0.112606145 0.18864986 0.20252813 0.27442273
0.23977585 -0.15313318 -0.417275 0.20825328 0.07083624 0.016716998 -0.22208256 0.24062976
-0.38967696 -0.37517253 0.06995554 -0.09838879 -0.043274462 -0.09264888 0.3651234 0.11633113
-0.119787835 -0.14514178 -0.1166463 0.10206517 0.13777284 -0.15224482 -0.107828796 0.1629058
-0.001736403 -0.006093818 0.1226631 0.15592334 0.15870978 -0.17975186 0.12576146 -0.089337505
-0.11023278 -0.029367778 -0.056190833 -0.08477885 0.16143087 -0.052949242 0.17320438 -0.08266009
0.17632341 0.06382709 -0.10814251 -0.12151797 0.09467862 -0.20471594 -0.099762134 -0.19078279
0.068189435 0.12893897 -0.14418611 -0.088603936 0.12040012 0.004242496 0.09804484 0.00072743197
-0.11510736 -0.05168553 0.12222693 0.08977615 -0.022005536 0.08687112 0.08677662 0.14890783
-0.09775275 -0.056965012 -0.01610259 0.1315348 -0.14229767 -0.0031199376 -0.11066718 -0.10920801
-0.06987706 0.16527669 0.053146604 -0.0031876361 0.11644164 -0.061865713 0.17089403 0.083506346
0.013874158 -0.023050949 0.05496754 0.20235135 -0.17663644 -0.13335463 -0.11468322 -0.12351999
0.28859887 -0.492398 -0.06439168 -0.13289548 -0.4186847 -0.13672064 0.24485278 -0.24340034
-0.16632986 -0.1750161 -0.03716261 0.045679864 -0.52309746 -0.20686314 0.52633685 -0.16618809
-0.2493585 0.22579439 -0.25426412 0.2101183 -0.21430002 0.22937131 -0.31174564 -0.2903465
0.24712381 0.016623912 0.2690388 -0.2100636 -0.10222491 -0.042555325 -0.5189004 0.19288038
0.1003287 0.009203 -0.14450273 0.11298721 0.03496151 0.2487274 0.10737004 -0.27903232
00000000: c833 a2bd df04 bbbd 7583 213e f083 06bc
00000010: 112d a0be 28c5 d73d 5182 173e 9430 a2bd
00000020: f4b9 823e c057 693d f9eb 75be a964 6cbe
00000030: ebb4 1dbf 5909 763e 43da 493e 2097 923e
00000040: fc26 b13e b6c7 aebe 9eaf 16bf 74b7 09be
00000050: d9ed 84be 07c3 d4bd ce89 8a3e e1fb ec3d
00000060: 7978 fc3e 7c78 693e 1495 a93e c3a9 af3d
00000070: 235c 853d d747 b1bd e116 1fbf 513b 6cbb
00000080: eb00 0f3e 1725 7c3c 3b25 f5be 47a0 30be
00000090: bf98 d03d 2bbf 55be df04 353e 7fe8 f53d
000000a0: 90b5 c0be d9bb 673e 9ca0 e83d 1b96 ca3d
000000b0: 9200 593e 191a 1cbe e6ba 353e 55d7 74bc
000000c0: 4eb5 45be 5036 72be cb89 6cbe ba06 d3bd
000000d0: 8630 99be 232e 27be c7f6 ca3d 9662 f53d
000000e0: e17a 013f 6c8f d13e a1f0 203e 7243 05bf
000000f0: 3181 1fbe 10d0 2bbe e414 93be 6929 083d
00000100: 693a e23e 9f15 4b3d 0c20 a23d 2415 cd3d
00000110: 560a 8dbd e202 05bc 46cc adbe 8230 a3be
00000120: bea2 113d ae19 dc3d f9d3 15be 2ce8 b4be
00000130: e946 febc 0ecb 4d3e b5d7 33be 7cef 87be
00000140: 5960 c13d eeee 4b3d 4104 04bf 0963 e33c
00000150: 13d1 7a3e 8dec 523d 748b 073e a6e1 9d3e
00000160: d0f6 1f3d 613e dfbe dfcd 443e 56b7 2d3e
00000170: 8fa3 c23d 9c62 6c3c 7c78 553e 6a53 9bb9
00000180: e788 233e 775c 89be 8a29 ecbe 9af3 2a3e
00000190: 32c5 1f3e c82f 22be eee5 c2be 23c2 1cbf
000001a0: 8640 e53d d9aa 20be f777 53be 0241 e1bd
000001b0: 0269 06bd d4b5 033f 72bd 4e3e 4a99 5e3e
000001c0: 85e5 92be 7b46 6e3d 3ba4 8f3e 95f2 7c3d
000001d0: 738c a13e c222 c83e 198d c9bd 1ec8 9bbe
000001e0: 84d9 0cbf 37ef 773d 78cc e0bd 513f 5ebe
000001f0: 0d9e e63d 6e2d 413e 8963 4f3e 2381 8c3e
00000200: cd87 753e f2ce 1cbe 12a5 d5be 5940 553e
00000210: 9712 913d 16f2 883c 9c69 63be a667 763e
00000220: bd83 c7be 9d16 c0be da44 8f3d 1080 c9bd
00000230: 9040 31bd b2be bdbd 74f1 ba3e 043f ee3d
00000240: 5353 f5bd 0ca0 14be 41e4 eebd 8b07 d13d
00000250: 5314 0d3e 11e6 1bbe 58d5 dcbd c7d0 263e
00000260: 0498 e3ba a7ae c7bb cb36 fb3d 5eaa 1f3e
00000270: d184 223e df10 38be 9dc7 003e 95f6 b6bd
00000280: b9c1 e1bd b294 f0bc 5c28 66bd 89a0 adbd
00000290: 224e 253e 4ee1 58bd 7d5c 313e b149 a9bd
000002a0: 208e 343e c7b7 823d d279 ddbd 6ade f8bd
000002b0: dde6 c13d 0ea1 51be 1750 ccbd 905c 43be
000002c0: e7a6 8b3d 9408 043e 86a5 13be fb75 b5bd
000002d0: 5794 f63d a304 8b3b bccb c83d 22b1 3e3a
000002e0: 68bd ebbd 35b4 53bd 1d52 fa3d 8fdc b73d
000002f0: f444 b4bc 7ce9 b13d f1b7 b13d 4b7b 183e
00000300: 9832 c8bd 2554 69bd 94e9 83bc 0fb1 063e
00000310: 7bb6 11be de77 4cbb 79a5 e2bd 73a8 dfbd
00000320: b41b 8fbd 4b3e 293e 41b0 593d a9e7 50bb
00000330: f478 ee3d e766 7dbd d8fe 2e3e 6005 ab3d
00000340: 7050 633c 58d5 bcbc a525 613d 3135 4f3e
00000350: 2fe0 34be 1e8e 08be 09df eabd 0cf8 fcbd
00000360: 3bc3 933e 971b fcbe c9df 83bd c115 08be
00000370: d75d d6be 7f00 0cbe b0ba 7a3e f03d 79be
00000380: 6052 2abe 6c37 33be d237 18bd cf1a 3b3d
00000390: b7e9 05bf eed3 53be 03be 063f 362d 2abe
000003a0: d657 7fbe a536 673e e82e 82be 4029 573e
000003b0: 7771 5bbe 50e0 6a3e 209d 9fbe 4ca8 94be
000003c0: 060e 7d3e df2e 883c 74bf 893e ea1a 57be
000003d0: 4b5b d1bd 7e4e 2ebd a8d6 04bf 6f82 453e
000003e0: 2279 cd3d 2ec8 163c 86f8 13be d765 e73d
000003f0: cd33 0f3d 65b2 7e3e d3e4 db3d 53dd 8ebe

convt1.bias f4 [8]
0.012965226 0.082005 -0.06781994 -0.0124590695 -0.070000574 0.027260894 -0.011415358 -0.06458434
00000000: 196c 543c 3df2 a73d 2ee5 8abd 2021 4cbc
00000010: 765c 8fbd 3d52 df3c 7b07 3bbc cb44 84bd

convt2.weight f4 [8, 16, 5, 5]
-0.30025822 -0.089976735 -1.0200287 -0.055936307 -0.15437067 0.058595244 -0.37757385 -0.96175367
-0.5333448 -0.3091904 0.06939698 -0.2099975 -0.18313535 -0.61726624 -0.8335623 -0.3274721
-0.4063531 -0.1061128 -0.22910771 -0.9766816 -0.08016134 -0.6991147 -0.95461464 -0.18655029
-0.10210401 -0.40180603 -0.3770674 -0.4598851 -0.80992943 -0.58062935 -0.31659248 -0.5935821
-0.185029 -0.29238108 -0.19102591 -0.2854453 -0.19137236 -0.38033012 -0.4261052 0.09141405
-0.578676 -0.3897389 -0.19373374 -0.45708698 -0.28911018 -0.15833081 -0.18241346 0.08769725
-0.18494485 0.03827772 0.007141754 -1.1307638 -1.0727521 -0.047515687 0.049813427 -0.14156468
-0.034880314 -0.018510569 -0.2734675 -0.07609135 0.1813875 -0.09334296 0.17429827 0.13384573
0.071482256 -0.54909694 -0.48009598 -0.36705872 0.1009448 -0.82503045 0.068777576 -0.22325341
-0.5916601 0.011505011 -0.15927945 0.15083046 -0.04982687 -0.025384814 -0.5315283 -0.0027074465
0.1829229 -0.019036481 0.113865025 -0.5454115 0.07786799 -0.01754464 -0.040111557 -0.21132445
-0.43486023 -0.20252314 -0.15126021 0.05732932 -0.13698477 0.11683879 -0.040372625 0.17236416
0.20819321 -0.18272932 0.19840895 -0.18893571 -0.0029121847 0.107087135 -0.5442609 -0.13173135
0.031861495 -0.95222825 -0.80092174 -0.2247515 -0.5216895 -0.6361578 -0.9772356 -0.1771228
-0.10856257 -0.93479586 -0.5141006 -0.29332802 -0.19979894 -0.36784855 -0.122602984 -0.0341587
-0.43896875 -0.2080233 -0.87919927 -0.37872627 -0.014158748 -0.5045128 -0.30476522 0.01235658
0.024425492 -0.32505172 0.14823501 0.005005876 -0.30264667 -0.12592275 -0.2523553 -0.019091858
-0.0025142008 0.024516797 0.048745632 -0.015136685 -0.4198189 -0.30469778 -0.30375257 0.15083502
-0.25438988 0.2993101 0.008253528 -0.15074478 -0.32248506 -1.5965137 -0.10517805 -0.13912149
-0.17224678 -0.2475823 -0.1874483 -0.121588066 -0.68800163 -0.19401662 -0.73654443 -0.09209427
-0.30516598 -0.15766664 -0.15409371 -0.38891816 0.00895679 -0.4924218 -0.3309501 0.023999875
0.0062483144 -0.97683394 -0.11399639 -0.440819 -0.036996294 0.08361263 -0.3030022 0.1991723
-0.7783264 0.1237854 0.13359305 0.27550742 -0.17618738 -0.2991235 -0.24686931 -0.11069809
-0.3683315 0.12705931 0.16496077 -0.063509695 -0.20159288 0.1888067 0.016703714 -0.036784075
-0.63625467 -0.13161908 -0.1918916 0.123208806 0.11314271 0.17146452 0.014661069 0.08569679
-0.41336465 0.027201474 -0.30265 0.0033095134 -0.9894781 -0.32194403 -0.27692127 -0.23751895
-0.110093065 0.055560272 0.20136169 -0.3330906 -0.94336426 0.18632805 -0.14074667 -0.0773004
-0.09901296 -0.090518296 -0.36655477 -0.12782897 -0.6481761 0.12485124 0.11605014 0.12466604
-0.9632851 0.058847953 -0.09723576 0.18707907 0.029804273 -0.06553066 -0.2226854 -0.9729932
0.08125087 -0.24719326 0.078189686 -0.23541303 -0.35175788 -0.09889944 -0.015102713 0.021657942
-0.041900735 0.10405265 0.0035634453 -0.040754955 0.0071614375 0.15511164 0.20292194 -0.04632326
-0.6008119 -0.35736838 -0.07807378 -0.063738845 0.1694248 -0.7700838 0.08855069 -0.17010075
00000000: 72bb 99be b945 b8bd 4d90 82bf 781d 65bd
00000010: 5813 1ebe 9101 703d 5c51 c1be 7d35 76bf
00000020: 4989 08bf 344e 9ebe 0120 8e3d 9609 57be
00000030: d587 3bbe 2905 1ebf 5764 55bf 6caa a7be
00000040: 830d d0be ab51 d9bd 369b 6abe ce07 7abf
00000050: a12b a4bd 2ef9 32bf a061 74bf 0a07 3fbe
00000060: e81b d1bd 85b9 cdbe fa0e c1be 0f76 ebbe
00000070: 8957 4fbf 20a4 14bf 6918 a2be fff4 17bf
00000080: 3e78 3dbe f9b2 95be 4c9c 43be e325 92be
00000090: 1ef7 43be a1ba c2be 762a dabe 4a37 bb3d
000000a0: 1c24 14bf db8b c7be 2362 46be 4e07 eabe
000000b0: 4006 94be 7921 22be 98ca 3abe 9e9a b33d
000000c0: 2f62 3dbe 19c9 1c3d 6005 ea3b debc 90bf
000000d0: f14f 89bf cf9f 42bd 2a09 4c3d 55f6 10be
000000e0: a9de 0ebd 7aa3 97bc ef03 8cbe c8d5 9bbd
000000f0: a5bd 393e 982a bfbd 3f7b 323e db0e 093e
00000100: 4a65 923d 9e91 0cbf 24cf f5be 1fef bbbe
00000110: 26bc ce3d 3235 53bf 42db 8c3d 8b9c 64be
00000120: 0977 17bf 837f 3c3c 271a 23be 4d73 1a3e
00000130: 4317 4cbd d0f3 cfbc 3d12 08bf 6a6f 31bb
00000140: 2450 3b3e 65f2 9bbc 1132 e93d 17a0 0bbf
00000150: 4179 9f3d c7b9 8fbc 044c 24bd 7065 58be
00000160: 00a6 debe 3a62 4fbe f5e3 1abe 26d2 6a3d
00000170: bc45 0cbe 2d49 ef3d c45d 25bd 3b80 303e
00000180: 9a30 553e 651d 3bbe b72b 4b3e 5d78 41be
00000190: 5ada 3ebb 8050 db3d af54 0bbf 95e4 06be
000001a0: 3381 023d 3bc5 73bf 3509 4dbf 4225 66be
000001b0: 718d 05bf 3ddb 22bf 1d2c 7abf ae5f 35be
000001c0: 0d56 debd c84e 6fbf 199c 03bf 172f 96be
000001d0: 1898 4cbe a556 bcbe 4617 fbbd fee9 0bbd
000001e0: 83c0 e0be 0f04 55be 3413 61bf 69e8 c1be
000001f0: 18fa 67bc c027 01bf 300a 9cbe 4173 4a3c
00000200: f817 c83c 2e6d a6be ebca 173e 5508 a43b
00000210: 81f4 9abe e5f1 00be b734 81be 8766 9cbc
00000220: 4ac5 24bb 73d7 c83c 80a9 473d dcff 77bc
00000230: 81f2 d6be 5901 9cbe 7585 9bbe 7f74 1a3e
00000240: 643f 82be 2c3f 993e ce39 073c d75c 1abe
00000250: c31c a5be 905a ccbf 9767 d7bd dd75 0ebe
00000260: 7661 30be 3786 7dbe 72f2 3fbe 2a03 f9bd
00000270: e020 30bf 4bac 46be 2d8e 3cbf ec9b bcbd
00000280: b73e 9cbe 5d73 21be beca 1dbe 4820 c7be
00000290: 80bf 123c b61e fcbe 4b72 a9be 639b c43c
000002a0: a9be cc3b ca11 7abf f076 e9bd 07b3 e1be
000002b0: 6d89 17bd 193d ab3d 1b23 9bbe d3f3 4b3e
000002c0: 6640 47bf 3383 fd3d 9ecc 083e 4f0f 8d3e
000002d0: 776a 34be b726 99be 4fcb 7cbe aeb5 e2bd
000002e0: f295 bcbe d61b 023e 7aeb 283e 5f11 82bd
000002f0: 5d6e 4ebe 8b56 413e 3ad6 883c e6aa 16bd
00000300: 96e1 22bf 27c7 06be 3b7f 44be e654 fc3d
00000310: 5db7 e73d 6594 2f3e fb34 703c cc81 af3d
00000320: 88a4 d3be a0d5 de3c f1f4 9abe 6ce4 583b
00000330: 704e 7dbf d9d5 a4be a0c8 8dbe 2b38 73be
00000340: 7978 e1bd 2b93 633d c231 4e3e da8a aabe
00000350: 5280 71bf c8cc 3e3e e51f 10be ac4f 9ebd
00000360: 4fc7 cabd a861 b9bd 11ad bbbe 99e5 02be
00000370: deee 25bf 02b2 ff3d b2ab ed3d e950 ff3d
00000380: da99 76bf 8d0a 713d 8b23 c7bd a891 3f3e
00000390: 1728 f43c f034 86bd a407 64be 1516 79bf
000003a0: db66 a63d 3b20 7dbe ea21 a03d 1d10 71be
000003b0: 9c19 b4be ca8b cabd 5f71 77bc ff6b b13c
000003c0: 1ba0 2bbd 8e19 d53d b188 693b abee 26bd
000003d0: 7eaa ea3b 96d5 1e3e c5ca 4f3e 75bd 3dbd
000003e0: cfce 19bf fdf8 b6be 25e5 9fbd 8389 82bd
000003f0: b27d 2d3e 3624 45bf 105a b53d e42e 2ebe

convt2.bias f4 [16]
0.10296054 0.1552372 0.031171866 0.016731324 0.082136 -0.003236025 0.0918339 -0.18166573
0.15262426 0.043574847 0.0028456452 0.14973252 0.02694351 0.1071965 0.011509207 -0.013262047
00000000: fadc d23d 80f6 1e3e 245c ff3c 2110 893c
00000010: eb36 a83d 7e13 54bb 6913 bc3d 9506 3abe
00000020: 8949 1c3e 8a7b 323d 017e 3a3b 7b53 193e
00000030: a3b8 dc3c d789 db3d 1d91 3c3c 0f49 59bc

convt3.weight f4 [16, 32, 9, 9]
-0.04397131 -0.009312256 -0.09974175 0.069852896 0.0050346954 -0.019366214 0.16665268 0.000642297
0.078741744 -0.119818754 -0.041410647 0.05038881 -0.005602909 -0.06325308 0.014810559 0.025894893
-0.019729903 0.055193253 -0.022558246 -0.028779842 -0.02394565 0.012003538 -0.086724795 0.05716467
0.056301523 0.0019035226 -0.0111024445 0.03639557 -0.011028059 -0.015831787 0.09396426 0.0024779607
0.026929135 0.1463948 -0.060820516 0.175818 -0.05298157 0.03144873 -0.005867307 0.06447661
0.026417354 0.068435244 0.07160764 0.045054838 0.03723921 -0.06579168 -0.019113086 -0.027752027
0.017851938 -0.03859137 -0.057007316 -0.002804001 -0.012124761 0.19161746 -0.15211606 -0.040366434
-0.05183636 0.043854754 -0.002383943 0.010137075 0.098024055 0.01924482 0.082873076 -0.008864189
-0.00467725 -0.045241382 0.09095993 -0.0018301187 -0.016899215 0.107205026 0.01463093 0.025410186
0.052782312 0.08043087 -0.06468672 0.04930498 0.08286717 0.02282498 0.13988568 0.0991425
0.14653228 0.0006394234 0.15306893 -0.03957286 -0.0050255884 0.19120531 -0.04579899 0.010975408
0.16864297 -0.030684205 0.34568658 0.24979533 0.006827284 0.09814988 0.23302038 -0.037342038
0.16916457 0.020882875 0.0021745309 -0.120654754 -0.048567344 0.2627069 -0.15607515 -0.06519881
0.17950451 -0.05613361 -0.06412493 0.31194434 -0.01809605 0.27404827 -0.010015815 0.00082627
0.20046754 0.009423402 -0.009007152 0.25582603 -0.013209102 0.40971786 0.30349416 -0.04611059
0.28896293 0.2385601 -0.040829103 0.2744944 0.20118915 -0.02312049 -0.1145861 -0.0643494
0.3533172 -0.041577112 -0.025624475 0.22795323 -0.11196836 -0.031255078 0.27091604 0.0035006702
0.25816697 -0.022593902 -0.015841788 0.24200277 0.006616685 -0.03974388 0.1639982 -0.016879862
0.4926772 0.2459396 0.007846299 0.30904645 0.24187681 -4.547445e-05 0.32488 0.20169926
-0.031441614 -0.33757293 -0.01950424 0.490606 -0.29168418 -0.049136568 0.34919494 -0.25173777
-0.031978913 0.284102 0.04583238 0.034257434 0.024757503 -0.00686687 0.004650342 -0.011209062
-0.050169628 0.038909387 -0.0417765 0.083646886 0.06854798 0.04406653 -0.0034881171 0.042819273
0.047646217 0.03978669 0.0959637 0.079573706 0.074223466 0.046423674 0.06463617 0.061823774
0.031006457 0.047358803 0.005180235 -0.010929889 0.018868983 0.044324405 0.02082003 0.049113944
0.057815608 0.041716155 0.055252258 -0.014310471 -0.0023099468 0.014459562 0.09822576 0.11402307
0.01063504 -0.011511835 0.09075003 0.0624143 -0.0028702717 0.0551029 0.033641245 0.05123624
0.02576507 0.027827308 -8.525684e-05 0.042673856 0.019240906 0.004488938 0.024872307 0.029874932
0.07004638 0.014518895 0.043903083 0.025239002 0.013760418 0.049887285 0.017592024 0.009921346
0.014839536 0.09505212 0.06665246 0.022037791 0.03875529 0.07316211 0.04437954 0.037689902
0.08079024 0.057610236 0.13343097 0.047296874 0.025162002 0.033017103 0.031865213 0.026681826
0.06818524 0.044503603 0.030431235 0.017161518 0.07360409 0.047748893 -0.0031253153 -0.031820245
0.06360341 0.02282396 0.06881763 0.035630967 0.11100552 0.07446038 0.081750825 -0.018704388
00000000: 431b 34bd 6f92 18bc 6745 ccbd 090f 8f3d
00000010: 16fa a43b e5a5 9ebc 00a7 2a3e d25f 283a
00000020: 5a43 a13d 8963 f5bd 369e 29bd 7f64 4e3d
00000030: 9b98 b7bb d58a 81bd fda7 723c 8721 d43c
00000040: 9ba0 a1bc 5212 623d 12cc b8bc b4c3 ebbc
00000050: ab29 c4bc 7daa 443c c59c b1bd 8025 6a3d
00000060: 6d9c 663d 9f7f f93a 07e7 35bc 8513 153d
00000070: 08af 34bc aab1 81bc 5570 c03d 4865 223b
00000080: 7d9a dc3c 85e8 153e ef1e 79bd a209 343e
00000090: 3403 59bd 62d0 003d 8a42 c0bb 500c 843d
000000a0: 3569 d83c c727 8c3d 07a7 923d 6c8b 383d
000000b0: 2488 183d cabd 86bd 0c93 9cbc 3858 e3bc
000000c0: 3a3e 923c fc11 1ebd 8180 69bd 55c3 37bb
000000d0: efa6 46bc 5e37 443e 50c4 1bbe 4657 25bd
000000e0: 5d52 54bd 0ba1 333d ed3b 1cbb f915 263c
000000f0: d6c0 c83d 50a7 9d3c 5cb9 a93d 1a3b 11bc
00000100: 9e43 99bb 074f 39bd 3349 ba3d 98e0 efba
00000110: 3970 8abc 4f8e db3d 91b6 6f3c 0629 d03c
00000120: 4432 583d f1b8 a43d 797a 84bd 05f4 493d
00000130: 43b6 a93d 74fb ba3c 313e 0f3e 390b cb3d
00000140: 8f0c 163e fa9e 273a 1abe 1c3e 2717 22bd
00000150: b1ad a4bb 53cb 433e b997 3bbd 33d2 333c
00000160: beb0 2c3e 715d fbbc d5fd b03e 59ca 7f3e
00000170: 69b7 df3b ce02 c93d e59c 6e3e f7f3 18bd
00000180: 7a39 2d3e 9012 ab3c 9382 0e3b d719 f7bd
00000190: 8dee 46bd 8581 863e 2ad2 1fbe f486 85bd
000001a0: 08d0 373e 5bec 65bd ee53 83bd 2bb7 9f3e
000001b0: 2b3e 94bc 0e50 8c3e 5f19 24bc 0b9a 583a
000001c0: 5d47 4d3e 9d64 1a3c bc92 13bc a1fb 823e
000001d0: fd6a 58bc 8ac6 d13e 9663 9b3e 75de 3cbd
000001e0: f3f2 933e 1949 743e 6b3c 27bd 888a 8c3e
000001f0: 8704 4e3e 2f67 bdbc 1eac eabd 9ec9 83bd
00000200: fee5 b43e c34c 2abd 6bea d1bc 926c 693e
00000210: ab4f e5bd 5305 00bd 82b5 8a3e 806b 653b
00000220: 762e 843e d916 b9bc a3c6 81bc 93cf 773e
00000230: c7d0 d83b 7bca 22bd 25ef 273e a347 8abc
00000240: 3040 fc3e 97d7 7b3e c38d 003c 563b 9e3e
00000250: 8eae 773e d2bb 3eb8 ac56 a63e 408a 4e3e
00000260: ecc8 00bd 5cd6 acbe 5bc7 9fbc b630 fb3e
00000270: a157 95be 6d43 49bd aec9 b23e c6e3 80be
00000280: 52fc 02bd d175 913e bcba 3b3d 8651 0c3d
00000290: 3fd0 ca3c 7b03 e1bb e561 983b 37a6 37bc
000002a0: ab7e 4dbd 735f 1f3d d61d 2bbd 0f4f ab3d
000002b0: e262 8c3d 1b7f 343d e598 64bb 4363 2f3d
000002c0: ae28 433d 5ef7 223d 9e88 c43d 8af7 a23d
000002d0: 7902 983d c026 3e3d f85f 843d ed3a 7d3d
000002e0: 4101 fe3c 4efb 413d f6be a93b 4713 33bc
000002f0: 2093 9a3c 828d 353d c48e aa3c b42b 493d
00000300: 0fd0 6c3d 8fde 2a3d 3150 623d 7776 6abc
00000310: 7a62 17bb cce7 6c3c 962a c93d ed84 e93d
00000320: 973e 2e3c 239c 3cbc 27db b93d 23a6 7f3d
00000330: 2b1b 3cbb 94b3 613d 67cb 093d 17dd 513d
00000340: 4511 d33c 18f6 e33c ebcb b2b8 c8ca 2e3d
00000350: 1b9f 9d3c f117 933b 02c1 cb3c 46bc f43c
00000360: 7a74 8f3d a9e0 6d3c b8d3 333d 06c2 ce3c
00000370: 6073 613c 9c56 4c3d 261d 903c 248d 223c
00000380: 8621 733c b0aa c23d 1681 883d 9988 b43c
00000390: debd 1e3d 04d6 953d 52c7 353d ba60 1a3d
000003a0: 5a75 a53d b6f8 6b3d 21a2 083e 5eba 413d
000003b0: 8b20 ce3c f13c 073d 1985 023d d893 da3c
000003c0: b4a4 8b3d 6949 363d ed4a f93c 5096 8c3c
000003d0: bebd 963d 5894 433d 17d2 4cbb f255 02bd
000003e0: 8142 823d 50f9 ba3c 42f0 8c3d c7f1 113d
000003f0: dd56 e33d af7e 983d fa6c a73d f239 99bc

convt3.bias f4 [32]
0.0036193188 -0.18404268 0.19620429 0.0795245 0.15138608 0.0026999775 0.04017405 0.14932694
-0.11515379 0.009071356 0.009719091 0.1653261 0.08216804 0.23524247 -0.14736539 0.15511985
0.041629747 -0.2198993 0.018946126 0.036548376 0.012094159 0.107205346 0.1713353 0.07861347
0.09093353 0.123698965 -0.12986611 0.0053248284 0.05571556 0.06195775 0.11269115 0.021938376
00000000: 1832 6d3b af75 3cbe c7e9 483e bedd a23d
00000010: f404 1b3e 1bf2 303b 8b8d 243d 29e9 183e
00000020: c0d5 ebbd 06a0 143c d23c 1f3c 3f4b 293e
00000030: b847 a83d 67e3 703e f4e6 16be bdd7 1e3e
00000040: f483 2a3d 482d 61be e834 9b3c c0b3 153d
00000050: 9426 463c 7a8e db3d 8572 2f3e 1900 a13d
00000060: 5c3b ba3d e255 fd3d 9ffb 04be e67b ae3b
00000070: 0036 643d 69c7 7d3d 9eca e63d 1cb8 b33c

pos_output.weight f4 [1, 32, 2, 2]
0.17183614 0.020141395 -0.18506612 -0.13552079 0.009543873 0.03877184 -0.005880031 0.026665244
0.16218475 -0.042904202 0.03453414 -0.032248724 -0.057345677 -0.036257952 -0.09120427 -0.1459327
0.310031 0.23015034 0.1544466 0.1907369 0.20747405 0.19080481 0.22158614 0.18981306
0.3328367 0.18527006 0.30587116 0.20158912 0.13540716 -0.015284206 -0.0091480445 -0.051181905
0.0371969 0.035007574 0.026406728 0.04720464 -0.08133681 -0.21378146 -0.058401607 -0.11815243
0.4630885 0.5288534 0.6175883 0.72463405 0.24668407 0.37655523 0.39492792 0.33099276
0.21651667 -0.08067613 0.0019074769 -0.087568395 0.14382528 -0.21340215 0.111691475 0.09247845
-0.050046347 -0.029864822 0.10077115 0.011932902 -0.02479498 -0.08020834 0.019065227 -0.11123321
0.26209432 0.262895 0.26320013 0.20068625 -0.20086975 -0.21417107 -0.114816904 -0.11440492
0.6554151 0.62930244 0.5362373 0.5236515 0.04998116 0.016025912 -0.11938153 0.06912896
-0.06014726 -0.010805625 0.10977957 0.10817873 -0.27051616 -0.22641203 -0.27883783 -0.28765658
-0.1512544 -0.02195984 -0.10537347 -0.1300206 0.11634629 0.083313346 0.014133531 0.16146593
0.068365745 0.08819392 0.12690422 0.14667283 -0.11967407 0.059399154 -0.063660845 -0.10461278
0.049470272 -0.004617015 0.053933542 0.023958169 -0.10535479 -0.13834144 -0.14446726 -0.14204673
0.32303122 0.34588847 0.33570743 0.36999452 -0.13162836 0.002994407 0.004105738 0.100240126
0.15480362 0.15146542 0.22387226 0.24017623 0.049581487 0.19830967 0.091978446 0.14132768
00000000: d0f5 2f3e 91ff a43c f981 3dbe f6c5 0abe
00000010: e85d 1c3c 39cf 1e3d 46ad c0bb 1271 da3c
00000020: c213 263e 51bc 2fbd ac73 0d3d 3d17 04bd
00000030: 4de3 6abd 3883 14bd 4ec9 babd 626f 15be
00000040: 62bc 9e3e 88ac 6b3e 4027 1e3e 8950 433e
00000050: 1474 543e 5662 433e 7ae7 623e 5b5e 423e
00000060: 9269 aa3e 6fb7 3d3e 259b 9c3e 616d 4e3e
00000070: 2da8 0a3e 9b6a 7abc aee1 15bc 1ea4 51bd
00000080: c75b 183d 1a64 0f3d ec52 d83c a759 413d
00000090: ea93 a6bd 87e9 5abe 8636 6fbd e7f9 f1bd
000000a0: f019 ed3e f062 073f 441a 1e3f 9e81 393f
000000b0: c09a 7c3e d9cb c03e fe33 ca3e e277 a93e
000000c0: 8cb6 5d3e 8739 a5bd 4e04 fa3a 0f57 b3bd
000000d0: ef46 133e 1886 5abe 80be e43d 5765 bd3d
000000e0: 66fd 4cbd 12a7 f4bc 1b61 ce3d 3882 433c
000000f0: d81e cbbc 4544 a4bd ae2e 9c3c 3dce e3bd
00000100: 3a31 863e 2c9a 863e 2bc2 863e b280 4d3e
00000110: cdb0 4dbe a94f 5bbe 2025 ebbd 204d eabd
00000120: 49c9 273f f719 213f d946 093f 060e 063f
00000130: 0bb9 4c3d c648 833c 4e7e f4bd 7c93 8d3d
00000140: f95c 76bd 130a 31bc 1cd4 e03d cf8c dd3d
00000150: 1881 8abe 8ed8 67be d5c3 8ebe b947 93be
00000160: 6fe2 1abe 1fe5 b3bc 0cce d7bd 1f24 05be
00000170: f746 ee3d 30a0 aa3d 5390 673c 5357 253e
00000180: 5703 8c3d 049f b43d 2ef3 013e 6731 163e
00000190: ae17 f5bd 874c 733d 9e60 82bd 3a3f d6bd
000001a0: 57a1 4a3d 544a 97bb 6be9 5c3d ec43 c43c
000001b0: 41c4 d7bd 61a9 0dbe 3aef 13be b374 11be
000001c0: 5964 a53e 4b18 b13e d8e1 ab3e ec6f bd3e
000001d0: 96c9 06be d03d 443b 6d89 863b b24a cd3d
000001e0: d784 1e3e c019 1b3e c53e 653e c2f0 753e
000001f0: f515 4b3d b111 4b3e 325f bc3d 34b8 103e

cos_output.weight f4 [1, 32, 2, 2]
-0.113700405 -0.06389188 0.038747624 0.11369231 -0.09684439 -0.1240939 -0.08085426 -0.12153301
0.038721904 0.21142466 0.2052084 0.26984605 -0.13070422 0.020741034 0.20352356 0.09925216
-0.30246773 -0.20825309 -0.12011216 -0.14818127 0.024950633 0.091500744 -0.17369756 -0.12754768
-0.59537524 -0.43201098 -0.5114895 -0.41485918 0.075801596 0.2084489 0.20507367 -0.14634824
-0.12341277 -0.08475269 -0.16156831 -0.14376466 0.023195317 0.07921774 -0.0761086 -0.08129164
-0.40953666 -0.47427818 -0.56018835 -0.6623511 0.014671213 -0.14790581 -0.13034022 -0.010983335
-0.108109444 0.022740727 -0.01042501 0.077661894 0.20852858 0.27485323 0.3232026 0.1312175
0.17199247 0.0156169925 0.012514833 0.05615672 0.19763386 0.03585889 0.22287561 0.1582624
0.086543486 0.07637559 0.14554316 0.16361882 0.09677978 0.07878753 -0.11642816 -0.12829496
-0.82965606 -0.8418427 -0.5993192 -0.62804407 0.06815323 -0.27178934 0.25270858 -0.056645155
0.2225317 0.14063416 0.1050728 0.02938614 0.2727642 0.30294263 0.32634395 0.30753398
-0.4956807 -0.40385365 -0.28412777 -0.5089292 0.06335448 0.12000102 -0.09502099 0.099063344
-0.28602827 -0.3658482 -0.39625224 -0.28405318 0.08019115 0.06995532 0.16955619 0.12411295
-0.007519952 0.087823175 -0.2239802 0.010883698 0.57120764 0.584313 0.4586352 0.47202685
-0.39132246 -0.4059697 -0.38871762 -0.42793083 0.073510885 0.04679487 0.14259218 0.07599375
-0.27263188 -0.26910162 -0.51079404 -0.49636438 0.030871196 0.12077267 -0.03452739 0.116322555
00000000: c2db e8bd bfd9 82bd d4b5 1e3d 84d7 e83d
00000010: 5a56 c6bd f124 febd eb96 a5bd 4ce6 f8bd
00000020: dc9a 1e3d b57f 583e 2722 523e 4329 8a3e
00000030: 54d7 05be 1ae9 a93c 7b68 503e b744 cb3d
00000040: 0ddd 9abe 4c40 55be 5dfd f5bd d5bc 17be
00000050: 4565 cc3c be64 bb3d c6dd 31be dc9b 02be
00000060: 836a 18bf 8b30 ddbe faf0 02bf 6c68 d4be
00000070: de3d 9b3d a173 553e d5fe 513e 50dc 15be
00000080: d6bf fcbd d192 adbd 2a72 25be 0b37 13be
00000090: 1b04 be3c e93c a23d d3de 9bbd 3b7c a6bd
000000a0: caae d1be 97d4 f2be 8168 0fbf d78f 29bf
000000b0: 875f 703c 9f74 17be e877 05be 72f3 33bc
000000c0: 7c68 ddbd c34a ba3c a9cd 2abc 330d 9f3d
000000d0: 8488 553e 90b9 8c3e d07a a53e e15d 063e
000000e0: cb1e 303e 6ade 7f3c 040b 4d3c 9704 663d
000000f0: 8860 4a3e c5e0 123d 8139 643e 8a0f 223e
00000100: b63d b13d ce6a 9c3d 4409 153e b18b 273e
00000110: 7a34 c63d 5b5b a13d e371 eebd c15f 03be
00000120: 5764 54bf 0183 57bf fc6c 19bf 7fc7 20bf
00000130: ec93 8b3d f927 8bbe 0563 813e c004 68bd
00000140: 5adf 633e 6702 103e 6830 d73d 34bb f03c
00000150: c0a7 8b3e 4c1b 9b3e 8e16 a73e 1875 9d3e
00000160: dcc9 fdbe e8c5 cebe 3279 91be 2f49 02bf
00000170: febf 813d 18c3 f53d 5d9a c2bd b9e1 ca3d
00000180: 4c72 92be 7550 bbbe 93e1 cabe 6b6f 91be
00000190: 423b a43d bc44 8f3d 23a0 2d3e ee2e fe3d
000001a0: ee69 f6bb a3dc b33d 115b 65be 8a51 323c
000001b0: aa3a 123f 8995 153f 3cd2 ea3e 81ad f13e
000001c0: 6b5b c8be 43db cfbe ff05 c7be c019 dbbe
000001d0: e08c 963d faab 3f3d af03 123e 9ca2 9b3d
000001e0: 6896 8bbe b0c7 89be 66c3 02bf 7923 febe
000001f0: 97e5 fc3c a957 f73d 986c 0dbd 853a ee3d

sin_output.weight f4 [1, 32, 2, 2]
0.11121755 -0.11533697 0.10706391 -0.114157416 -0.017342174 -0.02022654 -0.016136982 -0.014255736
0.08670836 0.15292002 -0.14800873 0.13969438 0.040903583 0.021177968 -0.008824891 -0.01881311
0.07382904 0.027110878 0.04329491 0.052590877 0.639994 0.5915696 0.42009106 0.40872484
0.034211922 0.022972647 0.023549432 0.0127339335 -0.105760805 0.11832522 -0.15909702 0.10733092
0.0074476656 -0.016404998 -0.011637433 -0.0007417569 -0.0005061417 -0.008380097 -0.016185058 0.016168782
-0.07623666 -0.069486916 -0.08013261 -0.08247414 -0.099018455 -0.04305282 -0.053714406 -0.07736953
-0.15169951 -0.14521138 -0.16796148 -0.17548631 0.14795624 -0.09540831 0.062030543 0.077108614
0.060019966 0.0025131672 0.01903109 -0.02875025 -0.15574718 0.10562317 -0.07337024 -0.06421834
-0.028290858 -0.034522377 -0.03911649 -0.045755107 0.053986162 0.051606055 0.027502256 0.05467315
-0.09399008 -0.106241494 -0.08129167 -0.09359401 0.0073880954 -0.07121513 0.0035148775 0.052041803
0.31842527 0.3272721 0.5369073 0.51977736 0.024336234 0.02451441 0.04537276 0.02708059
0.24506116 0.16509943 0.14708512 0.23853545 0.17337787 -0.1520273 0.10651793 -0.10091369
-0.3975786 -0.55632645 -0.55888313 -0.41738084 -0.06494577 -0.10700766 -0.018086772 0.13076097
0.012129395 -0.023055144 -0.029482964 -0.015040567 -0.011496841 -0.018633863 -0.005222229 -0.0045471448
-0.03084474 -0.029574836 -0.044822812 -0.027035058 0.20431092 0.22372048 0.13095574 0.14065222
0.13523021 0.133095 0.16679935 0.1701774 -0.011851681 -0.0044439123 -0.002668228 -0.013882444
00000000: 07c6 e33d ca35 ecbd 5344 db3d 5dcb e9bd
00000010: 2d11 8ebc 21b2 a5bc b431 84bc e490 69bc
00000020: 2794 b13d 1197 1c3e 9a8f 17be 0b0c 0f3e
00000030: 848a 273d 6b7d ad3c 4796 10bc f41d 9abc
00000040: ae33 973d a217 de3c 0156 313d 8869 573d
00000050: a6d6 233f 1b71 173f 2d16 d73e 6244 d13e
00000060: cd21 0c3d 2231 bc3c bdea c03c fda1 503c
00000070: 1f99 d8bd 7e54 f23d 54ea 22be 50d0 db3d
00000080: 8c0b f43b c663 86bc efaa 3ebc 7772 42ba
00000090: 98ae 04ba ad4c 09bc 8796 84bc 6574 843c
000000a0: f721 9cbd 284f 8ebd 911c a4bd 34e8 a8bd
000000b0: 30ca cabd 2758 30bd a303 5cbd eb73 9ebd
000000c0: 1e57 1bbe 4bb2 14be 18fe 2bbe afb2 33be
000000d0: d781 173e 6f65 c3bd bd13 7e3d 1feb 9d3d
000000e0: 7fd7 753d f3b3 243b 17e7 9b3c a585 ebbc
000000f0: 307c 1fbe f650 d83d 2343 96bd e884 83bd
00000100: 3bc2 e7bc 5667 0dbd 9d38 20bd b569 3bbd
00000110: 9820 5d3d df60 533d 694c e13c f4f0 5f3d
00000120: df7d c0bd 2495 d9bd 3f7c a6bd 37ae bfbd
00000130: d617 f23b 3dd9 91bd dc59 663b c929 553d
00000140: a308 a33e 3590 a73e c272 093f 2110 053f
00000150: c85c c73c 72d2 c83c cad8 393d 1dd8 dd3c
00000160: 50f1 7a3e d30f 293e 7b9d 163e a342 743e
00000170: f889 313e 0bad 1bbe 1326 da3d d6ab cebd
00000180: 6c8f cbbe 696b 0ebf f712 0fbf f1b2 d5be
00000190: 4a02 85bd d526 dbbd b62a 94bc 34e6 053e
000001a0: 5fba 463c 24de bcbc 4286 f1bc b66c 76bc
000001b0: 3f5d 3cbc 0ba6 98bc 3b1f abbb 3700 95bb
000001c0: 1cae fcbc ed46 f2bc 2098 37bd a078 ddbc
000001d0: e236 513e fb16 653e 4319 063e 2307 103e
000001e0: ca79 0a3e 0e4a 083e 73cd 2a3e fc42 2e3e
000001f0: 8e2d 42bc 3d9e 91bb 70dd 2ebb 3173 63bc
